trained_models/regular_training/model_FTTransformer_lr0.0001_8_1_4_4_.1_0.1_date_20250811_epoch600.pt (torch, 98178 bytes, 87 tensors)

cls_token f4 [1, 1, 8]
00000000: c159 c1be 2ff2 d23c 3038 debe deb9 863f
00000010: 6d4e bd3f b1ea fe3e ba71 503b 5637 4cbf
-0.3776379 0.025750248 -0.43402243 1.0525472 1.4789559 0.4978843 0.0031806068 -0.79771936

categorical_embeds.weight f4 [3, 8]
00000000: 23e6 9bbf 72f4 82bf 2de5 fd3e 2a75 833e
00000010: f826 233f 1565 96bf 988e 2e3f d0ee 293f
00000020: fb1d 61be 5a20 fbbe 093a fa3e 7061 bd3f
00000030: caa3 6abd 8774 3b3e 87bf 963f 67be 3abf
00000040: 5979 26bd 6ab5 81be 8d30 bf3f 6ae6 da3e
00000050: 30a1 1abf da8d 00bf 8295 84bd 3958 e4be
-1.2179607 -1.0230849 0.4958891 0.25675327 0.63731337 -1.1749598 0.6818633 0.66380024
-0.21984093 -0.4904812 0.48872402 1.479536 -0.057285108 0.1830617 1.17772 -0.7294678
-0.04064307 -0.2533372 1.4936692 0.42753917 -0.604022 -0.5021645 -0.06473829 -0.4459856

numerical_embedder.weights f4 [8, 8]
00000000: 48da 903f e588 6bbf ea4f 09bf fae0 edbe
00000010: 8c98 03bf 4c88 e63f 6c92 4cbf 1f36 10bf
00000020: 7949 02bf 5594 fabe 865c 4bbe 24b4 0a3f
00000030: d870 1e3e 1496 b6be 5081 be3f dbda 33bf
00000040: c326 e2be 10e5 273e 2ec6 b03f 96d1 48bf
00000050: 3514 e93e 2d57 91be 7775 acbe 69ba c1bb
00000060: a04d 84bf 5f2a d2be cd7a 543f ab83 d3be
00000070: 9f99 0d3f 4b66 3a3f bf2d 8abf 7da4 0ebe
00000080: ce44 4b3f 197d 80bf fa70 83be c0ca 443f
00000090: 7f5d 983d d849 323f 7a86 a03e 758e 86bf
000000a0: b838 88be 8231 e3be 8805 99bf ae8c d8bd
000000b0: fd1d 2bbf 8361 ee3e 5402 d9be 8c34 b93d
000000c0: 545b 263f 9c60 db3d 8bc1 68bf ffd8 e4bf
000000d0: 8210 8e3f 8d3b 913e b9fc b7bf 7ac1 893f
000000e0: cbda 86bf 0b3a eabd a5ea 963e 7b1e e13e
000000f0: c753 69bf 539f 7dbf c01d 77bf 77a5 663f
1.1316614 -0.9200576 -0.53637564 -0.46460706 -0.51404643 1.8010345 -0.7991092 -0.5633258
-0.5089336 -0.48941293 -0.19859514 0.5418112 0.15472734 -0.35661376 1.4883213 -0.7025582
-0.44170198 0.16395974 1.381048 -0.784448 0.4552323 -0.28386822 -0.3368337 -0.0059121144
-1.0336189 -0.41047952 0.8299988 -0.41311392 0.5531253 0.72812337 -1.0795211 -0.13929935
0.7940186 -1.0038177 -0.25672132 0.7687187 0.07439708 0.69643927 0.31352597 -1.0512224
-0.26605773 -0.4437371 -1.1954813 -0.105737075 -0.66842633 0.4655877 -0.4238459 0.09043226
0.64983106 0.10711786 -0.90920323 -1.7878722 1.1098788 0.28365746 -1.4374 1.0762169
-1.053552 -0.11436852 0.29475895 0.43968567 -0.9114346 -0.99071234 -0.9652977 0.9009623

numerical_embedder.biases f4 [8, 8]
00000000: 9215 82be 3497 5d3e 923c c53e e481 4fbe
00000010: 6850 4f3e 0783 f63d 9928 3dbf 7b17 f7be
00000020: 563a fdbd ffe5 b73f d007 1240 1872 f0be
00000030: 7dbf b53f c87c 3f3f 6c81 f93e 7674 a3bf
00000040: f223 793d f913 b03f 85d4 073f bec5 c63e
00000050: 90f2 303f 586e 0c3f 2214 0c3e 20db 6bbe
00000060: f6e4 c63f a980 c43e 9ace c6bd dcc9 063f
00000070: a7b5 843e e4e6 84bf 7c9e a43d ed66 b43f
00000080: a45e a7bf 9dd0 433f dec0 73be f0da 7c3d
00000090: 1954 a1be e8e1 2fbe 4ce9 d33c 6a80 103f
000000a0: 64ff 74be 7f30 48bf 8a1a bb3f 16b0 b33f
000000b0: c96c 05bf 1b1d c43e 383c ad3f 0e87 4b3f
000000c0: cf29 9e3f 54e4 ffbf 826c 623f 814e 2a3e
000000d0: bd41 3b3f 80cc 2d3f 10db 383e 34e0 b5bc
000000e0: 3ed8 56bf 83b8 6bbf 0489 ee3f 25fd a0bf
000000f0: 3bd0 d6bf e0e1 1d3f d658 c13e c625 f1be
-0.25407082 0.2163971 0.38522774 -0.20264393 0.20245516 0.1203671 -0.7389007 -0.48260102
-0.12364642 1.4367064 2.2817268 -0.46962047 1.4199063 0.74799776 0.48731554 -1.2769916
0.060825296 1.3756095 0.53058654 0.3882274 0.6912012 0.5485587 0.13679555 -0.23032808
1.5538623 0.3837941 -0.09707375 0.5265176 0.2591984 -1.0382962 0.08038041 1.409391
-1.3075757 0.76490194 -0.23804042 0.061732233 -0.31509474 -0.1717602 0.02586808 0.56445944
-0.23925549 -0.78199 1.4617474 1.4038112 -0.5211912 0.38303456 1.3534002 0.7950295
1.2356509 -1.9991555 0.8844682 0.1663151 0.73147184 0.6789017 0.18052316 -0.022201635
-0.8392371 -0.9207842 1.8635564 -1.2577254 -1.6782297 0.6167278 0.3776309 -0.4709913

transformer.layers.0.0.static_alpha f4 [4, 5]
00000000: 2f86 973c 0000 803f 0000 0000 0000 0000
00000010: 0000 0000 2f86 973c 0000 0000 0000 803f
00000020: 0000 0000 0000 0000 375e 823f 0000 0000
00000030: 0000 0000 0000 803f 0000 0000 2f86 973c
00000040: 0000 0000 0000 0000 0000 0000 0000 803f
0.0184966 1.0 0.0 0.0 0.0 0.0184966 0.0 1.0
0.0 0.0 1.0185002 0.0 0.0 1.0 0.0 0.0184966
0.0 0.0 0.0 1.0

transformer.layers.0.0.dynamic_alpha_fn f4 [8, 5]
00000000: 4364 92bb 0000 0000 0000 0000 0000 0000
00000010: 0000 0000 9194 6ebb 0000 0000 0000 0000
00000020: 0000 0000 0000 0000 2d12 e13b 0000 0000
00000030: 0000 0000 0000 0000 0000 0000 012a 443c
00000040: 0000 0000 0000 0000 0000 0000 0000 0000
00000050: e8a9 1d3b 0000 0000 0000 0000 0000 0000
00000060: 0000 0000 3e22 2cba 0000 0000 0000 0000
00000070: 0000 0000 0000 0000 439e 0c3b 0000 0000
00000080: 0000 0000 0000 0000 0000 0000 e3f7 efbb
00000090: 0000 0000 0000 0000 0000 0000 0000 0000
-0.0044675185 0.0 0.0 0.0 0.0 -0.003640447 0.0 0.0
0.0 0.0 0.006868622 0.0 0.0 0.0 0.0 0.011972905
0.0 0.0 0.0 0.0 0.002405757 0.0 0.0 0.0
0.0 -0.0006566382 0.0 0.0 0.0 0.0 0.0021456636 0.0
0.0 0.0 0.0 -0.0073232516 0.0 0.0 0.0 0.0

transformer.layers.0.0.static_beta f4 [4]
00000000: 3f38 823f f363 823f f860 823f 3dc9 823f
1.0173415 1.0186752 1.0185843 1.0217663

transformer.layers.0.0.dynamic_beta_fn f4 [8]
00000000: b21c 15bd 05d2 8b3b 32c6 06bd d52d 063d
00000010: e6fc 063d 332c 083d de99 86bc 620e 07bd
-0.03640432 0.0042669796 -0.032903858 0.032758553 0.032956026 0.033245277 -0.016430791 -0.0329727

transformer.layers.0.0.branch.norm.weight f4 [8]
00000000: eacd 7d3f 31d2 803f 4893 803f 16da 813f
00000010: 2c47 803f aa30 833f 5ae0 7f3f 8286 823f
0.99142325 1.0064145 1.0044947 1.014468 1.002172 1.0249226 0.9995171 1.0197299

transformer.layers.0.0.branch.norm.bias f4 [8]
00000000: b1f9 9b3c f972 a0bc 87ec 0c3c d3e8 a73c
00000010: a6e0 2fbc b256 cc3c 6e17 35bc 8e75 adbc
0.01903996 -0.019586073 0.008601314 0.020496761 -0.010734713 0.024943683 -0.011052949 -0.021174219

transformer.layers.0.0.branch.to_qkv.weight f4 [192, 8]
00000000: 1d4e 9dbe 9887 a2be a806 6fbe 0633 9ebe
00000010: 641f 6bbe f349 a2be 504b a3be e515 a63e
00000020: 05b7 f4bd 298f 8cbe 1d01 803d 4544 6abe
00000030: 64a7 8f3e 8735 653d d3f2 11be 2080 99be
00000040: 3374 873e 8801 1dbe 4b7d 023e 253c 63be
00000050: 7810 70be 2c95 403e be7f 0cbe c914 b1bd
00000060: fa27 803e f630 d53d fb82 d33d 033b 6cbe
00000070: 2553 93be 1edd a93e a03c a0be 7607 e4bc
00000080: 94b1 ff3d 862a 2fbd e4f8 7cbe 006d 29be
00000090: 97f6 393e 8512 ad3e 8bcd a1bd 8600 293e
000000a0: bb50 823e d7ca 05be 50fc 633e 06a2 913e
000000b0: 1e66 0cbe 14a1 a3be 2900 a33e 4d99 89be
000000c0: 4263 5abe e1b7 73be e88b a6be 6abb 683c
000000d0: 80fa 0f3e 3e99 9cbe 5b2d be3e 379c 113d
000000e0: 649b cdbd 727e 443e 7aaa 63be 4658 a13e
000000f0: 326d b93e 7aeb 59bc ee08 ae3d 1b63 a6be
00000100: 6585 91be dc2a 923d fb3e 81be e6fa f93d
00000110: b0ff e7bb 541a 433e ab6a 933d 0238 353c
00000120: d8e5 9dbd 4f9e d2bd 2cdb 18be d9dd 90be
00000130: dc43 cbbb 4d8d 823d fe09 8e3e fae2 9d3d
00000140: 807f f3bc 04a1 4dbe 2c1c bd3d b09b 8cbc
00000150: fac0 fdbd 0e64 383e eda4 353e 9b88 983e
00000160: ab5a 8f3e 6a4f 0ebe 45ca 8d3e 891f 0b3d
00000170: e796 2f3e 2429 9fbe 5a25 5f3e b5e8 49be
00000180: 3387 903e 0baf 903e 5da0 47be dc18 e63d
00000190: 44e4 a6bd 2de8 adbe 0c87 08be dfd3 0f3e
000001a0: bdd2 0f3e 6afd 033e 3146 4ebe 6f74 07bd
000001b0: 670c b13c 7ec0 bfbd d6da 88be 817e 003e
000001c0: e887 a83e e62b 95be 1dd4 8d3e a414 b9be
000001d0: 9bb8 fa3b 2f3b f7bd dcbe d93d 1fdd 74be
000001e0: d318 a2be f5ae 9c3e a0ae 46be 8584 613e
000001f0: 67a0 a33e cfc0 6c3e 894c fbbc 389a 7dbe
00000200: bbc6 79be 9fae 353e 17d6 9d3d 2bf8 2a3e
00000210: d526 3bbe afdd a6be 4379 94be 1e98 c3bd
00000220: 74b7 adbe d8d7 2bbe d527 5e3d db10 193e
00000230: abed 24be 2cae 8bbe 25e9 e73d a26d a0bc
00000240: f0de 70be 3266 233e 65b7 8bbe fddf 80be
00000250: 3f95 3d3e df03 153c b8f9 c43c 06b4 1f3e
00000260: 67ab 913e 8631 30be 132d 8c3b b44e 3b3d
00000270: ca2e 163d 0926 d2bd 237e 8e3e e6d9 dfbd
00000280: b488 a8be d5d1 a2be 93b3 953e 2a22 94be
00000290: c640 39bd 2a0c ae3e 810a 8cbe 763b adbe
000002a0: 9afc d83d 10af 3fbe 4917 9b3e 508f 0ebc
000002b0: 2eed 1bbb dcd6 9e3e 8430 693e 4329 babd
000002c0: b901 14be 07bc 1b3e 217f f33d e19d 9b3e
000002d0: 8447 ae3e 9805 81be a567 a9be 9172 3e3e
000002e0: 3976 52be 0588 363e ecd8 d23d ab11 8dbd
000002f0: 3edd 043c b107 a73d f595 f6bd c842 863d
00000300: 2354 a23d 614c 25be 1737 3bbe a075 6b3b
00000310: 30cf ab3e 2d5f 8c3c c002 b33e 4776 66be
00000320: c69f b7be ac08 b53d 0b88 263e 8502 e53d
00000330: e13f b6bd f952 ed3b c010 2abe b714 433e
00000340: 3dee 8e3e d22f 073e efbb 97bd e429 cebd
00000350: 8cc4 5dbe fcb4 933d f440 043e 97c6 a4be
00000360: c5d7 083e e679 2c3e 3aff 7c3d 2268 8b3e
00000370: 299d 07be ecb4 51be 9785 1a3e d510 a8bd
00000380: 825c 74be af10 603e 8a1b 9dbe 1ef8 ad3b
00000390: 080b 5b3d 6a58 fdbc 21c8 27be eded 943e
000003a0: a28c c53d 3053 af3e fd0f 9e3e 563a 73bc
000003b0: 14fa 95bd 2c9b fb3d 7ef1 343e defc df3d
000003c0: 81de 7abd 0edb e93d 3283 0abe 8536 8abe
000003d0: f836 9c3e 91bc 8abe 7262 adbe 49d7 563e
000003e0: 17e5 e0bd 0a48 15be 52d7 1c3d 99e1 2cbe
000003f0: 9697 793e bfe1 dbbd a070 7fbe 6057 27bd
-0.30723658 -0.31744075 -0.23342383 -0.30898303 -0.22961193 -0.31697044 -0.31893396 0.3243858
-0.11948971 -0.27452973 0.06250212 -0.22877605 0.28057396 0.05595925 -0.14252786 -0.29980564
0.2645584 -0.15332615 0.12743108 -0.22190912 -0.23443782 0.18806905 -0.13720605 -0.086465426
0.250305 0.10409729 0.10327717 -0.23069386 -0.28774372 0.33176512 -0.31296253 -0.027835589
0.12485042 -0.042765163 -0.24704319 -0.16545486 0.18160473 0.33803192 -0.07900532 0.16504106
0.25452217 -0.13065659 0.22264218 0.28443927 -0.1371083 -0.3195883 0.3183606 -0.26874772
-0.21326926 -0.23800613 -0.32528615 0.014204839 0.14060402 -0.30585665 0.37143978 0.03554937
-0.10039404 0.1918886 -0.22233 0.3151266 0.36216122 -0.013300771 0.08497797 -0.32497486
-0.28422084 0.07137081 -0.25243363 0.12206058 -0.007080041 0.19053012 0.0719808 0.011060717
-0.07709855 -0.10284101 -0.14927357 -0.28294256 -0.006203158 0.06374607 0.27741998 0.07709308
-0.029723883 -0.20080954 0.09233889 -0.017164081 -0.12390323 0.18006918 0.17738695 0.29791722
0.27998862 -0.13897482 0.27693382 0.03396562 0.17147408 -0.31086075 0.21791592 -0.19717677
0.2822815 0.28258547 -0.19494767 0.1123521 -0.08149007 -0.339662 -0.13332766 0.14045666
0.14045234 0.12889639 -0.20143963 -0.033070024 0.02161236 -0.09362887 -0.2672946 0.12548257
0.32916188 -0.29135054 0.27700892 -0.3614856 0.007651401 -0.12071835 0.10632107 -0.23912476
-0.31659564 0.30602232 -0.19402552 0.22023208 0.31958315 0.23120426 -0.030676143 -0.24765861
-0.24392216 0.17742394 0.0770685 0.16696231 -0.18276532 -0.32591006 -0.28998765 -0.095504984
-0.33929026 -0.16781557 0.054237206 0.14947836 -0.16106288 -0.2728132 0.11323766 -0.019583527
-0.23522544 0.15956953 -0.27288356 -0.2517089 0.18513964 0.009095161 0.024044856 0.15596017
0.28451082 -0.17206392 0.004277834 0.045729354 0.036665715 -0.10261161 0.2783061 -0.10930233
-0.32916796 -0.31800714 0.29238567 -0.28932315 -0.04522779 0.33993655 -0.27351764 -0.33834428
0.10595055 -0.18719125 0.30291203 -0.008701161 -0.0023792493 0.310233 0.22772413 -0.09089901
-0.14453782 0.15208445 0.11889482 0.3039389 0.34038937 -0.2519958 -0.33086887 0.18598391
-0.20552911 0.17825325 0.10295281 -0.068881355 0.008109389 0.08155764 -0.12040321 0.06555706
0.07926204 -0.16142417 -0.18282734 0.0035928264 0.3355651 0.017135227 0.34963036 -0.22506057
-0.35864085 0.08839545 0.16262834 0.11182121 -0.08898903 0.007242557 -0.16607952 0.19050871
0.27916136 0.13201836 -0.07408892 -0.10066584 -0.21657008 0.072122544 0.12915403 -0.32182762
0.1336356 0.16843376 0.06176684 0.27227885 -0.13243546 -0.20479172 0.15090023 -0.082063355
-0.23863414 0.21881364 -0.30685073 0.005309119 0.053477317 -0.030925948 -0.16384937 0.29087773
0.09645964 0.34243155 0.30871573 -0.014845451 -0.07323089 0.12285456 0.17670247 0.109369025
-0.061247353 0.114187345 -0.1352661 -0.2699472 0.30510688 -0.2709699 -0.3386417 0.20980562
-0.109811954 -0.14578262 0.038291283 -0.16882934 0.24374232 -0.10736417 -0.24945307 -0.04085481

transformer.layers.0.0.branch.to_out.weight f4 [8, 64]
00000000: 6600 693d 92fd 97bd 0ca1 8d3d bb70 be3d
00000010: 64b4 f9bd 7cac 5e3d 0b02 793c fdc2 7d3c
00000020: 665c e13d 591c 9cbd d1c0 e7bd c221 e53d
00000030: c929 543c 39a5 89bc 7566 163e 2fa5 8d3d
00000040: 43dc b53d a604 943d bd1d 333d b89c febd
00000050: a24b e2bc 254b 813c d7cb 83bd a68b 063e
00000060: 7154 71bd 6e3c 08bd 564f ac3c c71a 063d
00000070: b160 803c 3204 1ebd 249b 083e 3d18 be3c
00000080: 3a1e e5bd 05e1 73bd e301 0dbe fe0d a73d
00000090: 270f 403d f034 81bd fd01 fbbd 2017 6a3d
000000a0: 73b4 283d bbce 0e3d 9e11 5c3d db39 4d3c
000000b0: 7ab4 763d 8322 ae3c 161f 0e3e dafa dfbc
000000c0: e2c7 0a3d 6fe1 eb3c 7471 4bbd 627b 62bd
000000d0: 6ef8 26bd 874a 23bd 2f60 70bd 161d a7bd
000000e0: de0f 7dbd 7561 fdbd 7722 c63d 92dd af3d
000000f0: e630 403d 99db 4fbc 15a2 333d fa7b 223d
00000100: 5de2 ccbd 76dc 19bc c0ba 1f3c bda5 ff3c
00000110: 90d8 a03c efbc d03d ef07 b13c 4ee8 8ebd
00000120: f06a 543d 5240 193d 9c74 303d ba08 82bd
00000130: 0b03 cfbd 095c 5bbc dfe9 80bd d712 cc3d
00000140: 8f3b c5bd e0c2 cabd c997 453c 5b88 173d
00000150: dd65 bb3d 23ff 5f3d 4531 bd3c 9df3 8a3d
00000160: d9e8 783d ccfe a63d eb58 05be 5309 5cbd
00000170: 6dbe 0e3d 119c 713d 4d70 00be 4f40 a4bd
00000180: 1d5f 063e 50b8 a73c 86db 0b3e 7e88 b83c
00000190: 862d 6bbd 02a1 acbb 29f4 5e3d ff69 043c
000001a0: 60b2 c3bd fbcd ff3d 00ef e3bd 5ceb db3c
000001b0: 2154 533d c889 33bd 1965 b13d 63a1 aa3d
000001c0: 9162 c33d 1b6f e83d dac1 47bd d730 e53d
000001d0: ab76 f03c 5150 87bd e56b b63d bb7e bd3c
000001e0: b88c b1bd 2795 d13d 6452 103d d730 a5bd
000001f0: 4278 3dbd 069d be3d 9edb 673d eef0 e2bd
00000200: f5f6 14bc 4826 4c3c b9ee a73d 75f4 283d
00000210: d954 cfbd 538b 293d 8a59 c4bd 88b2 f2bc
00000220: 9b73 ea3c 7521 d53d c74c c7bd f26b 8fbd
00000230: 599d f2bd 4d99 05bd cf00 ab3d a06e eebd
00000240: 69a1 b53d e96d 403d d154 3e3d 2234 8f3d
00000250: 177f 813d 6ac4 debb 0996 c5bd 255f 7dbd
00000260: ab7f b33d 75ee e83d 3d70 d93d 299c ecbd
00000270: 4c10 ed3b 5b13 c03c 885a acbc 25ec efbd
00000280: 169e e53d d041 1fbd 589a 903c 8e71 cabb
00000290: e4a6 e83d 8562 ac3c a9d2 313c c20b 83bd
000002a0: 3cb3 89bd 229f 6e3d b566 38bd 413c 58bd
000002b0: 6b03 04be c40b 8bbd ad2c 67bd 49ce e4bd
000002c0: c28c 8fbd 5872 02bc f94a 81bd 7d93 963c
000002d0: f27d 87bd 77ab c63d db24 4c3b a9fa 23bd
000002e0: 97be a2bd 4389 d83d 892d b53c 00e7 803c
000002f0: d003 80bd f2a1 b33d 4673 e53d 8a0f f5bc
00000300: c3a1 cc3d 57d8 f23d d8cc 483d 437f 8a3d
00000310: 4478 a93d 7350 743d 424e 723d c18b 19bd
00000320: 21cb ab3d 5a78 a33c 9152 12bd adc7 12bd
00000330: 9ed7 203c eca1 93bd 9dfc 9aba c6fd 31bd
00000340: eac5 bfbd f1b6 b43d eaec ea3d f257 87bd
00000350: 169a 103e 7dc6 423d b585 88bd 2bb3 d23c
00000360: 187e 6e3d 6708 813c 26a9 593d cd5b a7bb
00000370: ef2d cbbd 9d84 01be 1fd4 bf3d 6410 c4bd
00000380: e074 83bd 9ace 39bd b2ff 6f3c db1b 77bc
00000390: 2edf 953d c5e2 a23b e8b0 e7bd fd1f 94bd
000003a0: 4bb7 eabd 0298 073e fa24 4abd 73a2 acbc
000003b0: aeeb efbc 55cf 3c3d 90ad a93d fe94 fd3c
000003c0: 91c6 b7bb de2b d03c 8ade 00be 85c9 d03d
000003d0: b5e3 59bd cc6c 143d d7c3 ce3c e197 9239
000003e0: dab5 913d 1e10 703b 5e5a 343d 2e8c d7bd
000003f0: 0fed 31bd 1ba4 98bd 123a 623d cd16 c23d
0.056885146 -0.074214116 0.06915483 0.092988454 -0.1219261 0.054363713 0.015198241 0.015488383
0.11003952 -0.076225944 -0.11316074 0.111880794 0.0129494155 -0.016802417 0.14687522 0.06916272
0.08879902 0.07227449 0.043729533 -0.124322355 -0.027623955 0.015782902 -0.06435364 0.13139209
-0.05891842 -0.033260755 0.021033924 0.03274038 0.015671106 -0.03857822 0.13340431 0.023204917
-0.11187406 -0.059540767 -0.13770251 0.08156966 0.04688945 -0.06308925 -0.122562386 0.05715096
0.041187715 0.034865122 0.05372774 0.012526001 0.06023071 0.02125669 0.13879046 -0.027341295
0.03388203 0.028794019 -0.049668744 -0.05529345 -0.040764265 -0.039865997 -0.058685478 -0.081598446
-0.06178271 -0.12372104 0.096745424 0.08587183 0.046921633 -0.0126866335 0.043855745 0.039669015
-0.10004113 -0.009390941 0.0097491145 0.03120696 0.019634515 0.10192286 0.021610228 -0.06977902
0.051859796 0.037414856 0.043079957 -0.06349321 -0.10108002 -0.013388642 -0.06294607 0.09964531
-0.096305005 -0.09900451 0.012060114 0.036995273 0.09150288 0.054686677 0.023094783 0.06784747
0.060768936 0.081540674 -0.13022201 -0.05371983 0.034849573 0.058986727 -0.1254284 -0.080200784
0.1312222 0.02047363 0.1365796 0.022526022 -0.05741646 -0.005268217 0.054432068 0.008081912
-0.09555507 0.124904595 -0.1112957 0.026845627 0.051593903 -0.04383257 0.08661861 0.08331563
0.095402844 0.11349317 -0.048768856 0.11190956 0.02935346 -0.06607116 0.08907298 0.023131719
-0.08669418 0.10233527 0.035234824 -0.08065956 -0.046257265 0.093072936 0.056605928 -0.1108111
-0.009092082 0.012460299 0.081998296 0.041248757 -0.10123605 0.041392636 -0.09587391 -0.029626146
0.028619578 0.10406772 -0.09731441 -0.07003011 -0.11846418 -0.032616902 0.083497636 -0.11642194
0.08868677 0.04697982 0.046467606 0.069923654 0.063230686 -0.0067983167 -0.096477576 -0.061858315
0.08764585 0.11373607 0.10617111 -0.11553223 0.0072346088 0.02344673 -0.021039262 -0.11714963
0.11211793 -0.038881123 0.017651722 -0.0061780876 0.11359957 0.021043072 0.010853448 -0.06398727
-0.06723639 0.05825723 -0.045019824 -0.052791838 -0.12891929 -0.067893535 -0.05643909 -0.11172158
-0.07009269 -0.007961832 -0.06313128 0.018380875 -0.06615819 0.09700673 0.0031149897 -0.04003397
-0.079465084 0.105730556 0.02211644 0.01573515 -0.06250727 0.08771123 0.11203627 -0.029914636
0.09991791 0.1185767 0.04902348 0.067625545 0.08274892 0.059647035 0.059156664 -0.037486795
0.08388353 0.019954849 -0.035723273 -0.035834957 0.009817032 -0.072086185 -0.0011824552 -0.043454908
-0.09363921 0.08823956 0.11470969 -0.06608571 0.14121279 0.047552574 -0.066661276 0.0257202
0.05822572 0.015751077 0.05313983 -0.005107379 -0.099208705 -0.12648244 0.09366631 -0.09573439
-0.064187765 -0.045363046 0.014648365 -0.015082325 0.07317959 0.0049708807 -0.11313039 -0.07232664
-0.114607416 0.1324158 -0.04935167 -0.021073556 -0.029287186 0.046096165 0.082850575 0.030954834
-0.0056083878 0.025411543 -0.12584892 0.10194687 -0.053195674 0.03623657 0.025239868 0.0002796045
0.071147636 0.00366307 0.044031493 -0.10524784 -0.043438967 -0.07453176 0.05523116 0.09477005

transformer.layers.0.0.norm.gamma f4 [8]
00000000: 0fa1 473d 9058 0b3c 15ae 313d f130 343d
00000010: 081b 363d a42d 343d 7909 ca3c c249 353d
0.04873758 0.008505002 0.04337891 0.043991987 0.044459373 0.04398884 0.02466272 0.044259794

transformer.layers.0.1.static_alpha f4 [4, 5]
00000000: b85b 813f 0000 803f 0000 0000 0000 0000
00000010: 0000 0000 4caa 22bc 0000 0000 0000 803f
00000020: 0000 0000 0000 0000 7c0d 843c 0000 0000
00000030: 0000 0000 0000 803f 0000 0000 afe5 f5bb
00000040: 0000 0000 0000 0000 0000 0000 0000 803f
1.0106115 1.0 0.0 0.0 0.0 -0.009928297 0.0 1.0
0.0 0.0 0.016119711 0.0 0.0 1.0 0.0 -0.007504187
0.0 0.0 0.0 1.0

transformer.layers.0.1.dynamic_alpha_fn f4 [8, 5]
00000000: f4bd 713c 0000 0000 0000 0000 0000 0000
00000010: 0000 0000 72c0 823c 0000 0000 0000 0000
00000020: 0000 0000 0000 0000 86e5 563c 0000 0000
00000030: 0000 0000 0000 0000 0000 0000 87a7 57bc
00000040: 0000 0000 0000 0000 0000 0000 0000 0000
00000050: e604 25bc 0000 0000 0000 0000 0000 0000
00000060: 0000 0000 5e26 31bc 0000 0000 0000 0000
00000070: 0000 0000 0000 0000 7db3 46bc 0000 0000
00000080: 0000 0000 0000 0000 0000 0000 47d6 f53b
00000090: 0000 0000 0000 0000 0000 0000 0000 0000
0.014754761 0.0 0.0 0.0 0.0 0.015960906 0.0 0.0
0.0 0.0 0.013116246 0.0 0.0 0.0 0.0 -0.0131625
0.0 0.0 0.0 0.0 -0.010071969 0.0 0.0 0.0
0.0 -0.01081237 0.0 0.0 0.0 0.0 -0.012127754 0.0
0.0 0.0 0.0 0.0075023505 0.0 0.0 0.0 0.0

transformer.layers.0.1.static_beta f4 [4]
00000000: b188 813f 6244 823f 550b 7c3f 5b52 803f
1.011984 1.0177119 0.9845479 1.0025133

transformer.layers.0.1.dynamic_beta_fn f4 [8]
00000000: 9d88 61bc 291c 7c3c 08b4 b1bc c375 9d3c
00000010: 687f a73c b5bf ba3c 7975 a83c acdf 8ebc
-0.013765481 0.015387573 -0.02169229 0.019221192 0.020446494 0.022796491 0.020563828 -0.01744064

transformer.layers.0.1.branch.0.weight f4 [8]
00000000: 3acb 813f 2e84 813f b9ce 7e3f 44f5 813f
00000010: bdb4 803f 84af 7f3f 4901 803f 2f48 7e3f
1.0140145 1.0118463 0.99534184 1.0152974 1.0055157 0.9987719 1.0000392 0.99328893

transformer.layers.0.1.branch.0.bias f4 [8]
00000000: 019d 8bbc dea8 a0bb 436a 57bc 1969 883c
00000010: e6bb 123c 7fc3 55bc 485e 123c 4c6d 9a3b
-0.017042639 -0.004902943 -0.013147893 0.016651677 0.008955931 -0.013047098 0.008933611 0.0047127362

transformer.layers.0.1.branch.1.weight f4 [64, 8]
00000000: cbf4 7f3e fcd1 16be dc6a 9cbd 9fbe 78be
00000010: 1a54 51be 0c9e 503e 6d19 ed3d 2aac 94bd
00000020: b436 613c 0d62 b73e 533f acbc 5950 82be
00000030: b25b 80be 32a5 9f3e 5f6a 8c3e 7ae3 353e
00000040: 7a1a a5bd b7b5 1b3e 3a94 51be 4be7 833d
00000050: 9b2a b7be 7ed1 9cbe 2df4 1abe 2ac0 28be
00000060: 069f 903e 9884 6a3e a242 ecbd 6545 ef3c
00000070: d299 a03e 03e7 a1bd 5938 553d 73fb b73e
00000080: 82f8 97be e4d9 85be 73f5 4c3d 82a9 49be
00000090: b7a2 c5bc 9a78 aa3e de23 8cbd ca56 90be
000000a0: b90c 473d ed11 4d3e 5c20 413e b6e8 36be
000000b0: 85c0 773e 5d3e adbd 8e9b bb3d bfe9 a1bd
000000c0: 7dfb 0b3e 5016 1fbe 2c84 05bd b133 56bd
000000d0: d8e9 a3be ef47 a03e 10d2 51be b5cd b3be
000000e0: cccb b53e 24ec 203e 809e 14bd 9a6e 8a3d
000000f0: 4647 08be e1d3 923e e7b8 9bbd 19f7 1c3c
00000100: c70d 93be a077 47be 1961 14bd 9d56 44be
00000110: e41d 87bd 82fc 933c f32f a53e c2c7 633e
00000120: 8a5e b9be c819 91bd 6132 26bd 543e ae3e
00000130: 550a 74be 34ed 803e 0e5f 29be 4532 0a3e
00000140: 04cf a63d 6392 b5be fb77 80be 5a78 26be
00000150: 24ab a53e a4a5 b23e 4091 77bd 8c6b 32be
00000160: 84e5 a03d 610c 7c3e ff60 793e dcbd 21b9
00000170: 7ae8 a93d db11 a83e ae46 8abd 1d7e 30bd
00000180: d124 263e 001a f23d fdc8 c3bd 777f 23be
00000190: 182a 7ebe fc5f a73b 5756 2dbd 11a7 143e
000001a0: b70f 8ebe 4ae8 093e 70b7 44bd 5f4d f43d
000001b0: 079b 7dbe 811c 873e a0fd 05be 1e02 e03d
000001c0: 81c9 033e 01c7 793d 6c60 283e 6817 f83d
000001d0: f675 0fbd 9fa6 9fbe 46b4 283e b79b dd3b
000001e0: cc0b 843e 2802 bb3d 8a15 4f3e ce47 99bd
000001f0: dc0b 133e ce45 81be 37c0 59be 755d 58be
00000200: 5ce5 a7be 0560 8ebd e432 11be 34d0 b03e
00000210: 98bd 30be 525e d6bd 8662 c6bd 760e 62bd
00000220: e4e0 353d e78e 703d 3e81 a4be c1f5 4c3e
00000230: c048 8b3e 07b4 a5be 53d2 90be b41a 5e3e
00000240: dcda 5cbe 8b2a 3c3e b421 6dbe fd74 bdbe
00000250: 0867 8d3e 587f a9bd 203b 84be 67ee 923d
00000260: f58f 5a3d 466d 7f3e 31b9 82be 1910 21be
00000270: 663d 863e 2328 853d 564d a33e bd5e 3abe
00000280: baf0 3a3e 6635 2ebe b6fa 1a3d 0c8e a43e
00000290: 250c 0bbe d0fd 04be dcfc 79be 4529 c7bd
000002a0: 0953 3bbe f2b7 58be 1649 a8be ea80 a63e
000002b0: f5cd 9dbe 18ee 5b3e cae1 913d 16fd af3e
000002c0: 303c 43be 99f5 8c3e 91f1 75be 66ee 083d
000002d0: 3aa8 753e b09c 793e b47e 5f3b 2499 60be
000002e0: ec6a 93be 866b cf3d 2591 3bbe 5a90 9d3e
000002f0: 26c9 b83e d316 e8bd 6e0d f2bd 4440 973e
00000300: 9311 88bb 6b43 60be 8693 9abe dac7 a9be
00000310: 1d99 dbbd 35e5 4dbe b3ca a2be 8118 aebe
00000320: d596 b1be 17c0 653d c0c9 9dbd ccf0 1dbe
00000330: ca52 9dbe e017 973c ba64 42be c594 34be
00000340: d2bc 233e 2452 1b3e 390b 5bbe 616e a7be
00000350: 4b45 6f3d fc5c 163e a418 73be 27ec 3f3e
00000360: 1627 47be ff91 dd3d ca34 823e a69d 7bbe
00000370: a49e 943e 7239 c03c 31e1 b9be bf56 a8bd
00000380: 6767 033a d95b 023d ccd9 9dbe 72d6 40be
00000390: 73d2 623d 776d 963e 00e7 41be a423 90bd
000003a0: d6b0 ef3d ac76 923d c281 3cbe 6dda 4f3d
000003b0: 3297 3d3e 8732 043d a0ab a3bd 3e4c 4a3e
000003c0: c937 383d 0c7d ac3e aeca f83d f04f 48bd
000003d0: a33c 2a3e a405 21be 0fc7 9a3e 47b9 133e
000003e0: a49c 51be a51c 88be 2d35 d3bd a2a5 fcbd
000003f0: 02cb 613e 2bda 79be 4964 203e 951c fb3c
0.24995725 -0.1472854 -0.07637569 -0.24291466 -0.20442238 0.2037279 0.11577115 -0.072594
0.013745952 0.35816994 -0.02102629 -0.25451925 -0.25069958 0.31180722 0.27424905 0.17762557
-0.08061691 0.15206037 -0.204667 0.064406 -0.35774693 -0.3062858 -0.15132208 -0.16479555
0.28246325 0.22902143 -0.11536147 0.029207895 0.31367356 -0.0790539 0.05205569 0.35934028
-0.29681784 -0.261428 0.050038766 -0.19693568 -0.02412544 0.33295137 -0.068427786 -0.28191215
0.048596118 0.2002637 0.1886 -0.1786221 0.24194534 -0.084591605 0.09160529 -0.07905912
0.13670154 -0.15535855 -0.032596752 -0.05229539 -0.32014346 0.3130488 -0.20490289 -0.3511788
0.35507047 0.1571508 -0.03628397 0.06759377 -0.13308439 0.28677276 -0.07603627 0.009580397
-0.2872145 -0.19479227 -0.036225412 -0.19173665 -0.06597498 0.018064741 0.32263145 0.2224417
-0.3620494 -0.070849955 -0.04057539 0.34031928 -0.23832066 0.25180972 -0.16540167 0.13495739
0.08144954 -0.35463247 -0.25091538 -0.16256848 0.32357132 0.34892 -0.060441256 -0.17423838
0.07856277 0.24614097 0.24353407 -0.00015424885 0.082962945 0.32826123 -0.06751762 -0.04308902
0.16224982 0.11821365 -0.0955982 -0.15966593 -0.24820745 0.005107878 -0.04231867 0.14516856
-0.27746364 0.13467517 -0.048026502 0.1192882 -0.2476617 0.26388934 -0.13085032 0.10937904
0.12869836 0.0609808 0.16443032 0.121138394 -0.035024606 -0.3118181 0.16475019 0.0067629474
0.2579025 0.09131271 0.2022306 -0.07484399 0.14359993 -0.2524857 -0.2126473 -0.21129401
-0.32792175 -0.06951908 -0.1417957 0.34533846 -0.17259824 -0.10467209 -0.096867606 -0.055189572
0.044403926 0.058730032 -0.32129854 0.20015623 0.2720394 -0.32363912 -0.28285465 0.21689874
-0.21567863 0.18375604 -0.23157388 -0.37003317 0.2761767 -0.08276242 -0.2582636 0.07174378
0.053359944 0.24944028 -0.25531915 -0.15728797 0.26218718 0.06501796 0.3189494 -0.18200202
0.18255892 -0.17012557 0.037836753 0.32139623 -0.13578852 -0.12987447 -0.24412864 -0.097246684
-0.18293394 -0.2116392 -0.3286826 0.3252023 -0.30821195 0.21477544 0.07123144 0.34372777
-0.19065928 0.27531126 -0.24017932 0.03343048 0.23989955 0.24376178 0.003410262 -0.21933419
-0.28792512 0.1012793 -0.18317087 0.30774194 0.36090964 -0.113324784 -0.11818968 0.29541218
-0.0041524856 -0.21900718 -0.30190676 -0.33160287 -0.107225634 -0.20106967 -0.31795272 -0.3400307
-0.34685388 0.056091394 -0.077044964 -0.15423888 -0.30727226 0.018444002 -0.18983737 -0.17634876
0.15989998 0.15168053 -0.21391 -0.327014 0.058415692 0.14683908 -0.23739868 0.18742429
-0.19448504 0.10818862 0.254309 -0.24571857 0.29027283 0.023464892 -0.3630462 -0.082196705
0.00050126616 0.031825874 -0.30830228 -0.18831804 0.05537648 0.2938039 -0.18935776 -0.07038048
0.11703651 0.07151541 -0.18408874 0.050745416 0.18514708 0.03227475 -0.07991719 0.19755647
0.044975076 0.33689153 0.12148033 -0.04890436 0.16624694 -0.15724808 0.30229995 0.14426146
-0.2046991 -0.26584354 -0.10312877 -0.123362795 0.22050098 -0.2439963 0.15663256 0.030653277

transformer.layers.0.1.branch.1.bias f4 [64]
00000000: 5428 063e b17b 53be 6935 5a3e e037 2a3d
00000010: 1ac7 a23e 7e48 6a3e 0da6 b23e 8c72 a8bc
00000020: bac5 763d 930b 5e3e 3581 a03e 5f37 0b3e
00000030: ffa6 773e 49ae 5dbb e66c 9ebe be97 343e
00000040: bf84 91be c6f7 133e 1971 663e 0181 203e
00000050: 0f68 a5be d2f0 eb3d 1954 0e3e 1a3f 413e
00000060: eb93 a43e 0a29 9d3e b133 763e 5062 bfbe
00000070: 0ae1 52be 9301 1e3e cef0 9cbe 7940 22be
00000080: 5c19 54be 64e4 1bbe 1aeb 7abd 6342 6ebe
00000090: f2e6 1d3e 62fe fe3c 52d7 9d3e 347f e7bd
000000a0: fe86 3a3e b7bb 683e e11d 8ebd a655 6dbe
000000b0: e14c ed3d 890f 8abe b05e 8dbe 4406 3e3e
000000c0: 796a 7a3e e82a 40be 7240 bcbd 81c5 90be
000000d0: d4fa 603e 7eb9 86bd 1e9e 00be eb7a a7be
000000e0: 1e09 69bd e09b 723e 47bb 11be b340 0bbe
000000f0: 1a57 02be e585 1cbe 88f6 a03e 6d1f d93d
0.13101321 -0.20652653 0.21309437 0.041557193 0.31792527 0.22879216 0.34892312 -0.020562433
0.06024716 0.21684103 0.31348577 0.13595341 0.24184798 -0.0033825806 -0.30942458 0.1763601
-0.2842159 0.14449987 0.22504081 0.15674211 -0.32305953 0.11520542 0.13899268 0.18871728
0.32144102 0.30695373 0.24043156 -0.37379694 -0.20593658 0.15430288 -0.3065247 -0.15844907
-0.20712799 -0.15223843 -0.061259367 -0.23267512 0.1542013 0.031127159 0.3082834 -0.11303559
0.18215558 0.22727858 -0.06939293 -0.23177204 0.11586929 -0.26964977 -0.27611303 0.18557078
0.24454679 -0.18766367 -0.091919795 -0.28275684 0.21970683 -0.065783486 -0.12560317 -0.32710966
-0.05689346 0.23692274 -0.14231597 -0.135989 -0.12728539 -0.15285452 0.31438088 0.10601697

transformer.layers.0.1.branch.4.weight f4 [8, 32]
00000000: c9ff e6bd dba3 42be c953 26be f8ef 44bd
00000010: ef06 873d 532f 5a3d a1fa 95bd c28a 1cbd
00000020: 7850 edbd 60d3 85bd 7d98 aa3d 6b9b 213c
00000030: bb24 f6bd dd25 c2bc f5bf f5bd 5cf7 153e
00000040: f4c8 963d 843b c6bd 1a2e 3c3b e9b0 0cbc
00000050: 6689 ff3d 6fb2 983d 2846 26bc fe5a 1dbe
00000060: 7897 11be 1a3e 683d 1997 e23d 3834 a3bd
00000070: c3db 95bc aa03 25be 8165 413e c0f2 06be
00000080: 50e9 9a3d 470a 1cbd 00ed abbc 3309 34be
00000090: ecd1 133e 3e77 3ebc bd7b 09be a9e1 9abd
000000a0: 79bc eabc 5037 053d b13a 57bb c8de 44bd
000000b0: b0e7 203e 79bd 483d f01c e7bd 3a16 c5bd
000000c0: 45d9 0abe f14b bdbd ba7a 32be 1c17 8bbd
000000d0: 52f8 043e 0463 c63c 951c 54bd c9cf e33d
000000e0: aae3 27bd 7a2c 933c 3181 9bbd 8b5f bdbd
000000f0: 5a9c 7d3d e0d6 b03d 2bbd 323e c8f5 7ebd
00000100: e01b df3d d4d7 fabd 3ba2 743d 5741 a5bd
00000110: 5c87 c63b c2f7 db3d 10d0 113c 88c0 d13d
00000120: 59ef cfbd 2d48 443d 0940 203e 3314 463e
00000130: bbe7 05be fba8 9cbd 5b9f 43be 6290 2a3e
00000140: a597 69bd dd91 143e e7bb bd3d fa18 e1bd
00000150: 50bc 5ebd e588 a13d fccf 783d d20a 333e
00000160: b767 e9bd 296f 093d 0f0f 0b3e 215c 07be
00000170: 7acc fc3d 361f 8fbd 5864 8f3d 1449 9ebd
00000180: fc2b f03c b662 a5bd 6b7f 113e 5a46 4bba
00000190: 7e94 a53d 2938 14bd efe9 6dbd 5945 383c
000001a0: c505 cbbd 055f 283e f486 fcbd 3a4f 313e
000001b0: 407b b8bd c996 37bb d8cc c53d 85c8 87bd
000001c0: 1821 013e bd34 cb3d 3bff 6d3d 5aa8 0fbe
000001d0: 665c a0bc e848 303e d16f e8bd 1563 843c
000001e0: ea2b b6bd 6e10 e1bc 1675 4fbc 92ef 24be
000001f0: 7589 3dbe 1801 c5bd 66b4 bcbd ac14 053e
00000200: 877e 27be 266b 3d3e 4193 8d3d 24b3 28bd
00000210: c018 173d 0d37 e73d c74b 1c3b 73c4 de3d
00000220: 8d93 353e d729 64bd f79f d43d a74d 8abb
00000230: 0405 e83d 4b17 e2bd 0dea 443b 3774 783d
00000240: 66b2 c33d 34e6 69bd ac2b 683d 7fe8 0fbe
00000250: efa4 d13d f45a b63d 6dc7 e23d 0154 f93d
00000260: bbab 2cbe 8cd1 efbd f05e 23be 79da 44be
00000270: 16e5 0bbe 7a21 fe3d 0f50 2f3d dd83 87bd
00000280: ea36 b7bd 5a07 2dbc 4ad9 8d3d 576c 48bc
00000290: f66b 0ebe 0dc1 29be ea57 2bbe 341e 10be
000002a0: 2dfe b33d e401 79bd 3129 1bbe 36c7 ae3d
000002b0: 6e09 99bc 0514 d6bd 60a0 b63d 56e0 863d
000002c0: 73bb d13c 69ac 1fbe 7205 94bd 0101 88bd
000002d0: f355 27bb e3af 21be ba98 26be b4d6 0b3e
000002e0: 23d3 aa3d 6bd0 173e e91d 3b3d a477 1abe
000002f0: 86dc 9b3d 0f23 23be 75ea 3a3b 44b9 b23d
00000300: 0233 bdbc 6532 e8bd e797 b2bc f7b8 003e
00000310: 0039 b1bd b736 cf3c dd76 8a3d 93e4 cebd
00000320: b1f2 23be e61a 9c3d 06b6 dc38 0caf e03d
00000330: 82cb ef3c 1a4e e5bd e230 e5bd 4c75 53bc
00000340: f20a 35be 5e4d 35bd 21f2 d43d d36e 963d
00000350: 4800 3a3d 3dbe cd3d e833 b8bd fadb d43d
00000360: b570 01be 46c4 85bd 6a3e c8bd ee75 033d
00000370: 923f a1bd e143 c0bd aed0 13bc bc82 04bc
00000380: cc10 053e db93 8f3d 8e1c e43c 0f60 09bc
00000390: dd08 323d 4cb6 e7bd 3e6a 293e 4edf 56bd
000003a0: d266 1a3e b933 17be 283d acbd 5705 eabd
000003b0: 3649 913d 61fc ef3d 1845 233e 84a6 063e
000003c0: ce92 15be 226e a83d 5263 9cbd ff8e 3abe
000003d0: 77c6 e4bc 881d 983d 5cec 193e 650f efbd
000003e0: 661e 08be aa19 17be 8a62 febd 61cd 3b3e
000003f0: 0186 123d dd1a 2fbe 6113 d6bd 464c c1bd
-0.11279256 -0.19007818 -0.16242899 -0.048080415 0.06593119 0.05326779 -0.07323194 -0.038218267
-0.11587614 -0.06534457 0.08329866 0.009863715 -0.120187245 -0.023699695 -0.119995035 0.14645141
0.073625475 -0.096793205 0.0028714002 -0.008587101 0.124773785 0.074559085 -0.0101485625 -0.15366742
-0.14217937 0.05669985 0.11063976 -0.07968944 -0.018293267 -0.16114679 0.18886377 -0.1317854
0.07564032 -0.03809574 -0.020987034 -0.17581634 0.14435548 -0.011625109 -0.13426109 -0.075625725
-0.028654324 0.032523453 -0.003284138 -0.048064023 0.15713382 0.04900882 -0.11284816 -0.0962338
-0.13559444 -0.09243 -0.17429629 -0.06791517 0.12985352 0.024217136 -0.05178507 0.11123616
-0.0409886 0.017965544 -0.07593001 -0.09246739 0.061916687 0.08634734 0.17454974 -0.062246114
0.108939886 -0.12248197 0.059725028 -0.08069103 0.0060586166 0.107406154 0.008899704 0.102418005
-0.10153074 0.047920395 0.15649427 0.19343643 -0.1307668 -0.07649418 -0.19103758 0.1665664
-0.057029385 0.14508767 0.09264355 -0.10991092 -0.054378808 0.07887439 0.060745224 0.17484596
-0.11396735 0.033553276 0.13579963 -0.13218738 0.12343688 -0.06988375 0.07001561 -0.07728782
0.029317848 -0.08075468 0.14208762 -0.00077543186 0.08084963 -0.03618637 -0.058084425 0.0112470025
-0.0991321 0.16442497 -0.12330428 0.17315379 -0.09007883 -0.002801346 0.096582115 -0.06630043
0.1261028 0.099221684 0.058104735 -0.14029065 -0.019575309 0.17215312 -0.11349452 0.016160527
-0.08895095 -0.027473655 -0.012662193 -0.16107014 -0.18509467 -0.09619349 -0.09214096 0.12996167
-0.1635686 0.18497905 0.06912852 -0.041186467 0.036888838 0.11289797 0.0023848878 0.108773135
0.17732067 -0.055703964 0.103820734 -0.0042206827 0.11329082 -0.11039599 0.0030046732 0.060657706
0.09555511 -0.057104304 0.056682274 -0.14053534 0.10236537 0.08904067 0.11073194 0.121742256
-0.16862385 -0.1170989 -0.15954185 -0.19223966 -0.13661608 0.12408729 0.04280096 -0.06616948
-0.08946021 -0.010560835 0.0692621 -0.0122328615 -0.13908371 -0.1657755 -0.16732755 -0.14074022
0.087887146 -0.06079282 -0.15152432 0.0853409 -0.018681254 -0.10453037 0.08917308 0.065857574
0.025602078 -0.15593113 -0.07227601 -0.066408165 -0.0025533407 -0.15789752 -0.16269198 0.13656121
0.083410524 0.14825599 0.04568282 -0.15084702 0.07610421 -0.15931343 0.0028521095 0.08726743
-0.023095611 -0.11337737 -0.021800948 0.12570558 -0.0865345 0.025294645 0.067609526 -0.10102191
-0.16010548 0.07622318 0.00010524322 0.109708875 0.029271845 -0.11196537 -0.11190964 -0.012906384
-0.17679957 -0.044263236 0.10397745 0.07345357 0.045410424 0.10046051 -0.08994275 0.1039352
-0.1264065 -0.06531577 -0.097775295 0.03209489 -0.07873453 -0.09387947 -0.009021921 -0.00808781
0.12994689 0.07010623 0.027845647 -0.008384719 0.043465484 -0.11314067 0.16544434 -0.052459054
0.15078285 -0.14765824 -0.08410102 -0.114268 0.07094042 0.11718059 0.15944326 0.13149458
-0.14606783 0.08224131 -0.07636131 -0.18218611 -0.027926667 0.07427508 0.1503157 -0.11672858
-0.13292846 -0.14755884 -0.124211386 0.18340065 0.035772327 -0.17100091 -0.10452915 -0.09438376

transformer.layers.0.1.branch.4.bias f4 [8]
00000000: 908f 133e a08e b23d ffd5 2e3d 0e5d 453d
00000010: f4d5 eebd c428 18be 870b 06bc 3c98 b73d
0.14410233 0.0871861 0.04268455 0.048184447 -0.11661902 -0.14859301 -0.008181459 0.08964583

transformer.layers.0.1.norm.gamma f4 [8]
00000000: c2c0 913c 4e02 b83c f912 e73c 0609 c83c
00000010: db86 db3c 429e eb3c 8afb d13c 07ed bb3c
0.01779211 0.022462036 0.028207289 0.024418365 0.026797703 0.028761987 0.025632638 0.022940172

transformer.layers.1.0.static_alpha f4 [4, 5]
00000000: 8fd5 7a3f 0000 803f 0000 0000 0000 0000
00000010: 0000 0000 4c56 683c 0000 0000 0000 803f
00000020: 0000 0000 0000 0000 9321 0dbd 0000 0000
00000030: 0000 0000 0000 803f 0000 0000 548e f4bc
00000040: 0000 0000 0000 0000 0000 0000 0000 803f
0.97982115 1.0 0.0 0.0 0.0 0.014180731 0.0 1.0
0.0 0.0 -0.034455847 0.0 0.0 1.0 0.0 -0.029853024
0.0 0.0 0.0 1.0

transformer.layers.1.0.dynamic_alpha_fn f4 [8, 5]
00000000: 1085 c4bc 0000 0000 0000 0000 0000 0000
00000010: 0000 0000 d919 93bc 0000 0000 0000 0000
00000020: 0000 0000 0000 0000 3b00 ff3b 0000 0000
00000030: 0000 0000 0000 0000 0000 0000 9f6c 22bd
00000040: 0000 0000 0000 0000 0000 0000 0000 0000
00000050: 83f8 0dbd 0000 0000 0000 0000 0000 0000
00000060: 0000 0000 20d0 0ebd 0000 0000 0000 0000
00000070: 0000 0000 0000 0000 788b 26bd 0000 0000
00000080: 0000 0000 0000 0000 0000 0000 b4f4 1b3d
00000090: 0000 0000 0000 0000 0000 0000 0000 0000
-0.02398923 0.0 0.0 0.0 0.0 -0.017956661 0.0 0.0
0.0 0.0 0.00778201 0.0 0.0 0.0 0.0 -0.03965437
0.0 0.0 0.0 0.0 -0.034660827 0.0 0.0 0.0
0.0 -0.034866452 0.0 0.0 0.0 0.0 -0.04066035 0.0
0.0 0.0 0.0 0.038075164 0.0 0.0 0.0 0.0

transformer.layers.1.0.static_beta f4 [4]
00000000: 66b0 813f 5038 823f b9f4 7b3f 423a 7d3f
1.0131958 1.0173435 0.9842029 0.9891702

transformer.layers.1.0.dynamic_beta_fn f4 [8]
00000000: c8e1 70bc f385 cf3b ac86 b4bc ab00 d0bb
00000010: 3ec2 023a ad09 c8bb d2bb 83bc 6c42 f03a
-0.014702268 0.0063331067 -0.022036873 -0.006347736 0.0004988051 -0.006104669 -0.01608077 0.0018330342

transformer.layers.1.0.branch.norm.weight f4 [8]
00000000: e27e 7b3f 90b6 7e3f 2f7f 813f aaba 813f
00000010: c96d 7e3f 31b6 7c3f ceae 7f3f 1211 843f
0.9824048 0.9949732 1.0116938 1.013509 0.9938627 0.987155 0.99876106 1.031771

transformer.layers.1.0.branch.norm.bias f4 [8]
00000000: 43bc 8dbc e5ea 403b 618b 8c3c 8761 7e3c
00000010: c0c2 843c f1b7 5dbc 5c9e e53b f25a d1bc
-0.017301684 0.0029436883 0.017156305 0.015526182 0.016206145 -0.013532625 0.0070074033 -0.025556061

transformer.layers.1.0.branch.to_qkv.weight f4 [192, 8]
00000000: 2e98 863e dfc8 f2bd 83e8 23be 1210 a3be
00000010: 0eab 9ebe 98b1 9ebe beb9 943e 4848 87be
00000020: 8fc5 1c3e 1d86 163e ca07 02be 0ca1 b73e
00000030: bf05 4dbd f47d 85be dfca abbd 77c1 02be
00000040: 59a7 08be 8b9e 523e 6c4f 88be 1c63 33be
00000050: d672 a63e 8f5f a63e dc83 07be 097c 933e
00000060: af09 aebe 68f8 b6bc 7549 ba3e d98f 803e
00000070: d001 8bbe 0015 9e3e b111 47be 33e1 a53e
00000080: e604 8e3c 8e23 5dbe e228 92be 0d98 a33e
00000090: 14f9 91be f493 823e 9904 babc 4916 533e
000000a0: 1493 a0be 7165 873e 78e8 e43c 97d8 173d
000000b0: cc14 17be 0066 a83e 4792 7e3d 6b0f 843e
000000c0: defb bc3d f373 47be ddcd 91be e528 a33e
000000d0: dd12 8cbe dc76 2c3c f008 0fbe b4a4 9fbd
000000e0: 993d 913e f8cd 4d3e bb43 28be bb28 073e
000000f0: 1777 d53b 7536 09be 655d d2bd 7a7c 3ebe
00000100: d356 0dbd 9302 58be c5a3 77be c8a7 143e
00000110: 20c6 99be 064b b9be 9a78 58be fe05 2fbe
00000120: eda6 fb3b c179 7abe 2ffc 86be e582 8a3e
00000130: 076b 0d3e 26c5 48be 7265 a5be 6d89 313e
00000140: e866 4cbe 80b6 6d3d 1eb7 b83e 83b7 8d3e
00000150: eb9c a7bd 7256 94be 3f66 ed3c a4e7 d73c
00000160: 774c a4be 3c45 b83d ca3a bf3e bcd7 903e
00000170: 90b3 4f3e 3ddf 8d3d 8110 10be 0d88 05bc
00000180: 8701 543c 8639 8d3d 1276 08be 162a 3bbb
00000190: 3ff2 25be 7960 803e b78f b3bd 367a a63c
000001a0: 5daa cabd 02ed 02be ce10 82be e500 a83e
000001b0: ddb9 b53e e116 88be 99a0 803e ce5f 47be
000001c0: 4a41 9dbe 6a70 e53d 661e 27bc d755 8c3d
000001d0: 7eb4 2fbe b894 25be 9ff1 26bd d249 9cbd
000001e0: 52a6 1fbe 8433 13be 8352 56bd 9221 d73c
000001f0: 7d9f a4be 1d42 0c3e 7acd c13d 273e 8fbd
00000200: 16f6 65be df57 e1bd b652 fe3b 3d1f e93d
00000210: 22b0 953d 2fe4 70be 98a2 0ebe 76aa ad3e
00000220: b257 48be 1e61 79be bc32 3a3e b250 18bd
00000230: aa0d 01be 27c1 a23e b785 95be 47fb 6abe
00000240: 7507 393e 5b2b 9e3e 1ef6 fe3d 8e20 703e
00000250: cb21 333e 946e 673e a9b4 943e e23e 253e
00000260: ced8 0e3e 3b93 92be fe2d 14be 9bc3 a2be
00000270: f79a 14be b599 80bd 8160 ae3e 5fb0 8ebe
00000280: 12f0 a73e 6f3f 94bd d758 0ebe edec 6f3e
00000290: c168 aa3d e5e1 5cbe 34f2 0bbc 6545 ac3e
000002a0: 156b 1f3e 8702 653e fcf2 59be edf9 143e
000002b0: 9e93 a33e fe90 bb3d 5d0b a63e f14f 7ebd
000002c0: 486f 88be 8487 dc3b 76ea d83d 1af6 92be
000002d0: 65a1 103d a49c 543d e834 c6bc b559 88be
000002e0: 888b 983e 0ead 983e 379f a5be 81ca 1c3e
000002f0: 0439 ae3e 9b45 2a3e e098 e8bd 18c4 5b3e
00000300: b1a4 993e f42d 1ebd 33ca 713e 89b5 213e
00000310: 4d2e 21be b3d0 8a3e 7182 a4be 40f9 49bd
00000320: 4738 753e 1dc6 abbe 886a 483e c3d2 b83e
00000330: 7684 9f3e 8a00 433e 4073 8bbe d50a 1a3d
00000340: 2aaf 8abe a70d 7a3e 1b2b 5fbe 0156 4fbe
00000350: 76a8 d23d 99c5 823d 3dc6 773e 82b6 edbd
00000360: eec5 aebe e9fc 883e f25f 73be 454d 5fbd
00000370: e3f4 8dbe 1f79 1ebe 941a 5abd 72d2 4a3e
00000380: d06f 663e bada 913e 6420 aa3e 92e7 58be
00000390: 5637 80be 7f1a 2c3e 3e23 9d3e 9684 933e
000003a0: b26e 9c3b d841 a4bd b65a 8bbe 7d7c 5fbd
000003b0: feab 21be 5481 99be 4134 693e 3785 473e
000003c0: a8e0 79be d87b a23d 2909 3b3e 296d 9c3c
000003d0: 53f3 5c3e af59 65bb 1288 71bd 4b6c d43c
000003e0: 947d 153e 8fde edbd 2d8d 99be f052 803e
000003f0: 6e65 a1be cf56 86bd 6f29 d83b 3269 193d
0.2628798 -0.11854719 -0.16006665 -0.31848198 -0.3098988 -0.30994868 0.2904796 -0.26422334
0.15309738 0.14699598 -0.12698284 0.35865057 -0.050054308 -0.26072657 -0.08388304 -0.12769113
-0.13345088 0.20568292 -0.26623094 -0.17518276 0.32509488 0.3249478 -0.13233894 0.2880557
-0.33991763 -0.022335246 0.36384168 0.25109747 -0.2714982 0.30875397 -0.19440342 0.32398376
0.01733632 -0.21595594 -0.28546816 0.31951943 -0.28510344 0.25503504 -0.02270727 0.2061397
-0.31362212 0.2644458 0.027942881 0.03707179 -0.14754027 0.3289032 0.06215122 0.25793013
0.09227727 -0.19477825 -0.28477374 0.31867138 -0.27358142 0.010526385 -0.13968253 -0.077950865
0.28367308 0.20098102 -0.16432087 0.13199131 0.0065144408 -0.1339968 -0.1027172 -0.18602172
-0.03450663 -0.21094732 -0.24183567 0.14517128 -0.3003397 -0.3619005 -0.21139756 -0.1709213
0.007679811 -0.24460508 -0.26364276 0.2705299 0.13810359 -0.19606456 -0.3230396 0.1733758
-0.1996113 0.058035374 0.36077207 0.2767907 -0.081842266 -0.28972203 0.028979419 0.026355572
-0.32089588 0.089975804 0.3734954 0.28289592 0.20283341 0.06927345 -0.14068796 -0.008150113
0.012939817 0.06895737 -0.1332629 -0.002855902 -0.16205691 0.25073603 -0.08767646 0.020321947
-0.098957755 -0.12785724 -0.25403446 0.32813182 0.35493365 -0.26579955 0.25122526 -0.1947014
-0.30713874 0.11203082 -0.010200119 0.0685231 -0.17158696 -0.16170013 -0.04075777 -0.076312676
-0.1559079 -0.1437512 -0.052324783 0.026261125 -0.3215293 0.13697095 0.0946302 -0.069942765
-0.22457156 -0.11003088 0.0077613248 0.11382911 0.07308985 -0.23524545 -0.13929212 0.33919114
-0.19564703 -0.24353454 0.18183416 -0.037186332 -0.12602869 0.3178799 -0.2920358 -0.22947417
0.18069251 0.30892453 0.12449287 0.23449919 0.1749336 0.22600776 0.29044083 0.16137269
0.13949892 -0.28627953 -0.1447067 -0.3178986 -0.1451224 -0.06279317 0.34058002 -0.27868935
0.32800347 -0.072386615 -0.13901077 0.23430224 0.083207615 -0.21570547 -0.008541632 0.33646694
0.15568192 0.22364245 -0.21284097 0.14548464 0.3194856 0.091585144 0.32430544 -0.062087957
-0.266474 0.006730022 0.10591595 -0.28703386 0.035310168 0.051907197 -0.02419515 -0.2663094
0.29793954 0.2981953 -0.32348034 0.15311624 0.34027874 0.16628115 -0.113572836 0.21461523
0.30008462 -0.038618043 0.23612289 0.15791906 -0.15740319 0.2711235 -0.3213077 -0.04930997
0.2394725 -0.33549586 0.19571888 0.36098298 0.31155747 0.19043174 -0.27236366 0.037607986
-0.27086765 0.2441927 -0.21793787 -0.20247652 0.102860376 0.06385345 0.24196716 -0.11607076
-0.34135383 0.26755455 -0.23767069 -0.05451705 -0.27725896 -0.15475892 -0.053248003 0.19806841
0.2250359 0.28487188 0.33227837 -0.21182087 -0.25042218 0.16806982 0.3069095 0.28812093
0.004773938 -0.08020371 -0.27217644 -0.05456208 -0.15788266 -0.29981482 0.2277384 0.19484411
-0.24402106 0.079337776 0.18265213 0.01909502 0.21577196 -0.0034996083 -0.058967657 0.025930544
0.14598686 -0.11614715 -0.2999052 0.25063276 -0.31522697 -0.06559526 0.006596736 0.037453838

transformer.layers.1.0.branch.to_out.weight f4 [8, 64]
00000000: e756 0fbe 261f 9ebb 3825 08bd d219 0a3e
00000010: 4284 0f3d a5e4 f3bc dfce c2bd c5a3 7ebd
00000020: 7f68 ca3b 6f11 9f3d 0234 e6bc f287 35bd
00000030: 4d50 8b3c bcd4 0b3c 56d2 043d 52fe c2bc
00000040: b098 f43d 7da0 e0bd 77fc 72bc 171e 19bd
00000050: 1b2d f13d 3468 ce3d a9f9 fc3b 2eda 783d
00000060: 9905 03be 1855 0abe b9ae 7dbd cb8a 523d
00000070: c391 ddbc 77b3 1cbd f5bc e13b ffda 3fbd
00000080: f011 aa3c 94ef d03d e9ab 903d 447e a7bc
00000090: 7a45 4d3d 9253 833d 5f51 ad3d 5c1c 983d
000000a0: 5687 123e a3b8 67bd 0731 c7bd 9d72 a53c
000000b0: 4c4c e43b a3ba 7dbd 4920 bebd 9161 8bbd
000000c0: 17d5 923c 264c 243c de0e 0f3d 78b6 80bd
000000d0: 79a5 64bb 256c 16be 2802 acbd c7d7 a83d
000000e0: f0a6 6e3d 6203 cebd 7c5e a6bd f76f 67bd
000000f0: a197 813d d082 14bd 7f41 c9bd 6f10 363d
00000100: fc98 9bbd 6730 f63c 0edb 923d 59e2 cc3c
00000110: b780 843d f5c2 b3bc ec04 46bc 4dca d7bd
00000120: 3d6e ca3c 37b2 d43d f680 9d3d 5417 b73d
00000130: 8b1b bebc a283 86bd 2a9d 97bd 89ae 08bd
00000140: cb8e eebd 4f7a ce3d ebe3 e33d c5d4 3ebd
00000150: 9bcb 0fbe 601c e23d 5b4a 273d 4c84 ddbd
00000160: c4ae 82bd fcc3 a4bd b130 c0bc 8e4d b8bd
00000170: a6f0 d63d 46d3 d93d a498 e0bd 563d ddbd
00000180: 2f11 38bd d26b b53d f1f3 a8bd 0e89 cebc
00000190: c855 5b3c 70aa b43d bb85 9abd c170 8dbd
000001a0: aea5 ec3c ded8 0f3d 86c5 3dbd d835 ab3d
000001b0: 359c 42bd 173b c03d aa16 8fbd 6e97 a0bd
000001c0: bff2 cebd f22a 31bd d15f a83c 2343 a43d
000001d0: c56f d73d 9339 643d 01bc 35bd f944 79bd
000001e0: 6092 d8bd 724f d13d 0e31 d1bc 3b2b 083d
000001f0: 85bc f53d 0ed4 24bd 8aa7 e0bd e000 073e
00000200: f196 673c ebb1 1f3d 92db 2c3c ed96 5a3d
00000210: 0171 36bd 0f9e 69bc 705b 963c 15b4 02bb
00000220: a2dc 9abd ab75 b73d aa1a 9fbd d827 983c
00000230: edfb 0b3e 426d fd3c 5e01 1cbd aa11 ef3c
00000240: 1039 f3bd 25a9 e03d 9cac 83bd 59c1 3f3d
00000250: 87b2 fabd c5db 94bd a45e 65bd a2cd 06be
00000260: a2c6 053e 3e5b bd3d 0317 333c 8253 8bbb
00000270: 563f b3bd 7a4b 15bd c647 b23c 55de 53bd
00000280: acaa 0c3e b07c ce3d 896c 833d 3b26 0b3e
00000290: b160 d83d e98d ea3d f323 a73d f597 c7bc
000002a0: 1121 573d 34d9 04bd b231 f6bd a8de 8d3c
000002b0: ccb9 023e 06bf 36bd aa30 193d a5c0 96bd
000002c0: 9833 fd3c 1478 65bd de34 dc3d 6d57 39bd
000002d0: 5633 a63d a354 2dbd 715b 49bc d2b9 fcbc
000002e0: b653 033e ccab bf3c 976d 78bb 9d02 0b3e
000002f0: dd7b 063d 28fc 853d 7d38 13bd 2182 773d
00000300: 436d 003e 3f2a 753b c625 ff3c 329f 55bd
00000310: 5426 5c3d 7d69 c53d 3030 863d c88d bb3d
00000320: bb74 ca3d 3cc9 a2bb 5781 f93d 9b37 cfbd
00000330: 949c 813d af9f 9dbd 812b 8d3d 3df9 ecbd
00000340: 8ef7 9ebd 28d0 a0bd bd7b 093e eabb cabd
00000350: f3c0 513d cab8 013e e128 f53b 0845 f73c
00000360: 774e b4bd 26e6 bcbd 0ad5 3c3d fa0f ac3d
00000370: e0fa 4b3d 85d0 ac3c 0766 b4bd e306 a43d
00000380: 3c4f 113d 2007 c33d 61ec 123d 0d52 653d
00000390: f1d9 9fbd 30fc 3cbd 0050 bfbd 0ef8 2cbd
000003a0: 8f8b 923c 734c e63d 3b58 eb3c 38b4 68bd
000003b0: bcbf 2dbd a781 b8bd 9c47 a13d 456e a0bc
000003c0: 9acc 103e dfea 1dbb caf2 a4bb c556 9b3d
000003d0: 2f6b bebd cb4c 81bd ead5 c5bd ba8f 6b3d
000003e0: b177 45bc 447f dabd c6ea bb3d 3980 08bd
000003f0: 42fd fd3c a914 d53c 4bcc 4f3d 9b5c 7fbd
-0.13997994 -0.0048254905 -0.03323862 0.13486412 0.03503824 -0.029772112 -0.09512114 -0.0621679
0.0061770077 0.07766997 -0.028100971 -0.0443191 0.017006064 0.008534607 0.032427154 -0.02380291
0.11943185 -0.10968111 -0.0148307 -0.03738221 0.11776181 0.10078469 0.0077201915 0.060754947
-0.12795104 -0.13509023 -0.061934207 0.051401895 -0.027047044 -0.03825709 0.0068889805 -0.04683971
0.020760506 0.10201946 0.07064039 -0.02044595 0.050115086 0.06412424 0.08462786 0.07427284
0.14309439 -0.056572568 -0.09726148 0.020196253 0.006967103 -0.06194557 -0.09283502 -0.06805719
0.017923875 0.010027921 0.034926288 -0.06284803 -0.0034888668 -0.14689691 -0.08398849 0.08244281
0.058264673 -0.10059239 -0.0812349 -0.056503262 0.06327749 -0.036257565 -0.098269455 0.044449266
-0.07597539 0.030052377 0.071706876 0.025010275 0.06469863 -0.021943549 -0.012086134 -0.10536633
0.024710769 0.10385554 0.07690613 0.08939996 -0.023206493 -0.06568076 -0.074030235 -0.033369575
-0.11648329 0.10081922 0.11127456 -0.04658963 -0.14042513 0.11040568 0.040842395 -0.10816249
-0.0638099 -0.080451936 -0.023460718 -0.089991674 0.10495119 0.10636 -0.10966614 -0.108027145
-0.044938263 0.08858456 -0.08249653 -0.025211837 0.013387151 0.08821571 -0.07545038 -0.06906272
0.028887596 0.03511893 -0.04633095 0.08359879 -0.047512252 0.093862705 -0.06986745 -0.07841383
-0.10104894 -0.043253846 0.020553501 0.08020618 0.10519365 0.05571897 -0.044368748 -0.060856793
-0.10574794 0.10220231 -0.025536086 0.033244353 0.11998848 -0.040241294 -0.109694555 0.13183928
0.014135108 0.038988035 0.0105503965 0.05336659 -0.044541363 -0.0142588755 0.018354148 -0.0019943763
-0.075616136 0.0895799 -0.07768758 0.018573686 0.13670321 0.030935887 -0.03808724 0.029183228
-0.11876118 0.10969762 -0.06429407 0.04681525 -0.12241083 -0.0726848 -0.05599846 -0.1316438
0.13064054 0.09245919 0.010930779 -0.0042518983 -0.08752315 -0.036448933 0.02176274 -0.051725704
0.13736981 0.10082376 0.06417186 0.13588803 0.105653174 0.114528485 0.08161154 -0.024364451
0.05252177 -0.032433704 -0.120211974 0.017318085 0.12766188 -0.044615768 0.037399925 -0.07360963
0.03090839 -0.05602272 0.10752271 -0.04524939 0.0811526 -0.042317044 -0.012289868 -0.030850325
0.12824902 0.023397349 -0.0037907118 0.13575216 0.03283297 0.065422356 -0.035942543 0.060426835
0.1254168 0.0037409214 0.031145941 -0.052153774 0.05374749 0.09639261 0.0655216 0.09157902
0.09885546 -0.0049678367 0.12182873 -0.10118028 0.06328693 -0.07696473 0.06893063 -0.11570976
-0.07762061 -0.07852203 0.13426109 -0.09899123 0.0512094 0.12668148 0.00748168 0.030184284
-0.088040285 -0.09223585 0.046101607 0.08401485 0.0497998 0.021095524 -0.08808523 0.08009126
0.035475954 0.09522843 0.03586996 0.055986453 -0.07805241 -0.046138942 -0.09341431 -0.04222875
0.017888812 0.1124505 0.028728595 -0.056812495 -0.04241918 -0.09009104 0.078749865 -0.01958383
0.1414055 -0.0024096293 -0.0050338255 0.07584909 -0.092977874 -0.06313475 -0.096599415 0.057510115
-0.012052462 -0.10668805 0.09175639 -0.033325408 0.031004552 0.026010828 0.05073194 -0.062344175

transformer.layers.1.0.norm.gamma f4 [8]
00000000: bf1c c43c 2bc0 383c 0c78 ed3c 271e 3b3c
00000010: ff15 be3b 591b 2c3c 8064 b73c 5ac4 e53b
0.023939488 0.011276285 0.028987907 0.011420763 0.005800962 0.010504567 0.02238679 0.0070119323

transformer.layers.1.1.static_alpha f4 [4, 5]
00000000: 7dba 33bb 0000 803f 0000 0000 0000 0000
00000010: 0000 0000 8a92 1abb 0000 0000 0000 803f
00000020: 0000 0000 0000 0000 67de 31bc 0000 0000
00000030: 0000 0000 0000 803f 0000 0000 4c72 803f
00000040: 0000 0000 0000 0000 0000 0000 0000 803f
-0.0027424388 1.0 0.0 0.0 0.0 -0.002358588 0.0 1.0
0.0 0.0 -0.0108562475 0.0 0.0 1.0 0.0 1.0034881
0.0 0.0 0.0 1.0

transformer.layers.1.1.dynamic_alpha_fn f4 [8, 5]
00000000: 66af f63b 0000 0000 0000 0000 0000 0000
00000010: 0000 0000 32e0 013c 0000 0000 0000 0000
00000020: 0000 0000 0000 0000 075b 70bc 0000 0000
00000030: 0000 0000 0000 0000 0000 0000 8d75 ddbb
00000040: 0000 0000 0000 0000 0000 0000 0000 0000
00000050: 6b5a 5bbb 0000 0000 0000 0000 0000 0000
00000060: 0000 0000 edef 71bb 0000 0000 0000 0000
00000070: 0000 0000 0000 0000 b890 08bc 0000 0000
00000080: 0000 0000 0000 0000 0000 0000 0e63 ba3b
00000090: 0000 0000 0000 0000 0000 0000 0000 0000
0.0075282333 0.0 0.0 0.0 0.0 0.0079269875 0.0 0.0
0.0 0.0 -0.01467014 0.0 0.0 0.0 0.0 -0.006758398
0.0 0.0 0.0 0.0 -0.0033470641 0.0 0.0 0.0
0.0 -0.0036916689 0.0 0.0 0.0 0.0 -0.008335285 0.0
0.0 0.0 0.0 0.005688078 0.0 0.0 0.0 0.0

transformer.layers.1.1.static_beta f4 [4]
00000000: d2c0 803f 91b9 7b3f 3271 813f d275 7e3f
1.0058844 0.98330027 1.011267 0.9939853

transformer.layers.1.1.dynamic_beta_fn f4 [8]
00000000: ab96 d2bc cc6f 8c3c 9b1b b63c 55f4 22ba
00000010: 1745 c5ba 9045 54bb 44e7 32ba 81e3 823b
-0.02570661 0.017143153 0.02222996 -0.0006216218 -0.0015050498 -0.0032390095 -0.00068246224 0.0039944057
