trained_models/regular_training/model_FTTransformer_lr0.00025_9_1_4_4_.1_0.1__epoch10000.pt (torch, 105004 bytes, 87 tensors)

cls_token f4 [1, 1, 9]
00000000: 0052 853e 4a54 7f3f 8b72 c9bf 15a9 b3be
00000010: 5adb 4ebb 0a4f 86bf 7c17 e73e 39c4 9f3f
00000020: b2f9 0cbe
0.26039124 0.9973799 -1.5738081 -0.35089937 -0.003156385 -1.0492871 0.45135105 1.2481757
-0.13767126

categorical_embeds.weight f4 [3, 9]
00000000: 1b19 763f 0698 513e d681 763f 4355 c0bf
00000010: 9195 5abe 77c2 9d3f 121b bbbe 9ceb 26bf
00000020: 8c88 83bd fa31 08c0 10e8 88bf 062d f33e
00000030: 9e50 25c0 3234 1540 4535 733e 444c be3e
00000040: a503 9d3c ddcc bdbe 2553 9f3e 3e74 54bf
00000050: a214 12bf 34f2 bd3e 4c9a dbbe 75a3 293f
00000060: 2310 013f 07ee 643f 3ae9 f9be
0.9613206 0.20468149 0.96291864 -1.502602 -0.21346118 1.2324971 -0.3654409 -0.6520326
-0.064225286 -2.1280503 -1.069582 0.47495288 -2.5830455 2.3313107 0.2375079 0.3716756
0.019166777 -0.3707036 0.31118122 -0.8298987 -0.57062733 0.3709885 -0.42891157 0.6626504
0.5041525 0.894257 -0.4881075

numerical_embedder.weights f4 [8, 9]
00000000: 1892 8abf 48db a5bf 14f1 00be a0c8 6c3e
00000010: b3f7 683e 8e32 66be 04d3 3b3f e38b 1bc0
00000020: 5754 813e 194b fdbf 7b73 4c3f d8d9 88bf
00000030: 0383 cabe 6191 b0bf d1e8 66be 89b6 a6bf
00000040: de0f de3e 2b6f 683f 7903 933d 7235 813f
00000050: 8e21 eabe f715 cabe c00d 013f bb26 04c0
00000060: d4a2 1c3f bed3 a83e 14a7 4b3f f5f7 703d
00000070: 18e1 2f3f 2d51 4bbe 496b dfbf 07b1 943d
00000080: 3d62 b0bf 3547 bfbf cb05 8f3e 087a dbbe
00000090: fbfd 82bf 85c4 d13d c683 97be 23bc b03f
000000a0: e419 2dbf d886 d3be 4c19 49bf 2ac7 76be
000000b0: a962 993f 4e45 b8be a864 cbbe 106a aabe
000000c0: 7054 693f 40fc 483f 1065 a93f 87e7 0bc0
000000d0: 2360 c43e b33d 5dbf 891a 813e b79f 813f
000000e0: 4d1e b9bf 84f6 4ebf ed50 663e 22f1 04bf
000000f0: 2aa9 903e 18e0 8b3e 77fc 71bf 2cc8 683f
00000100: ccd5 cebe 478c 3cbf 8963 24bf a78d 8dbf
00000110: 2e88 b5bf 1ff4 f3bf d03a 613f c324 8bbe
-1.0825834 -1.2957544 -0.12591964 0.23123407 0.2275074 -0.22480223 0.7336886 -2.430413
0.2525966 -1.9788543 0.7986371 -1.0691481 -0.3955308 -1.3794366 -0.2254975 -1.3024455
0.4337148 0.9079463 0.07178397 1.0094435 -0.45728725 -0.39469883 0.50411606 -2.064864
0.61185956 0.32974046 0.79551816 0.05883022 0.6870284 -0.19855185 -1.7454616 0.07260328
-1.377998 -1.4943606 0.27934107 -0.4286654 -1.0233759 0.10242561 -0.29592723 1.3807415
-0.6761763 -0.41313815 -0.78554225 -0.24099413 1.1983234 -0.35990375 -0.39725232 -0.33284044
0.91144466 0.785099 1.3233967 -2.1860063 0.38354596 -0.8642227 0.25215557 1.0126866
-1.4462372 -0.80844903 0.22491808 -0.5193044 0.28254062 0.27319407 -0.94525856 0.9093044
-0.4039749 -0.73651546 -0.6421438 -1.1058854 -1.4182184 -1.9058875 0.87980366 -0.27176484

numerical_embedder.biases f4 [8, 9]
00000000: 43b9 453f 9a19 41bf 1614 d13d 588f 6e3f
00000010: 68f6 6bbf a112 1340 64c5 36bf 4aba 343f
00000020: 96f0 a0bf 7d6a 2b3e b5fc 2040 6484 7ebf
00000030: daf4 923f 4661 a83f a52f 31c0 55da 4740
00000040: c9b2 8dbf 8875 70bf 0fc5 343f 983a a0be
00000050: 7c8e c23e 9f40 713f d046 a63e 51f6 89be
00000060: 813a 323f 34bd f93e d08c 663f 6692 afbe
00000070: 4e85 213d 172f 28bf 09a2 10bf 3a9f 423f
00000080: 4837 14bf ce9c bdbf 3840 bb3f 7853 063f
00000090: 78bb a33e a8ec 643f 802e 973f f929 63bf
000000a0: 900a 51bf fe46 883f 52be 22c0 8672 c23d
000000b0: bcdb 77be 5bee bf3f 4564 d2be 333b 35bf
000000c0: 1740 fb3f b08e 173e 5cf3 453f 23d3 403f
000000d0: e3bb 2d3f 3d29 a4be 4bc1 073f a0e0 2dbf
000000e0: 11bc fdbe b156 bfbd 340e 79bf ef04 933f
000000f0: 6ab3 11c0 c9f9 5dbe ccea 383e 2db2 973f
00000100: 64bd 3cc0 cfc8 c33e 2ccc b13f 2c6d cd3d
00000110: 3d3c 5cbf 11f6 aa3e 769b ee3f 0420 0bbf
0.7723581 -0.7542969 0.10208909 0.93187475 -0.9217286 2.298012 -0.71394944 0.70596755
-1.2573421 0.16739841 2.515424 -0.9942076 1.1480973 1.3154685 -2.768533 3.122701
-1.1070186 -0.9392934 0.7061319 -0.31294703 0.37999332 0.9423923 0.324759 -0.26945737
0.6962052 0.48777163 0.9005861 -0.3429138 0.03943377 -0.65696853 -0.56497246 0.7602421
-0.5789685 -1.4813478 1.4628973 0.52471113 0.31978965 0.8942361 1.1811066 -0.8873592
-0.8165674 1.0646665 -2.5428662 0.094945 -0.24204916 1.4994615 -0.41092125 -0.70793456
1.9628934 0.14800525 0.7732446 0.7532217 0.6786482 -0.32062712 0.53029317 -0.67920876
-0.49557546 -0.09342707 -0.972873 1.1485881 -2.2765756 -0.21677317 0.18058318 1.185125
-2.9490595 0.38239142 1.3890433 0.100305885 -0.86029416 0.3339086 1.8641193 -0.54345727

transformer.layers.0.0.static_alpha f4 [4, 5]
00000000: 9ac6 873f 0000 803f 0000 0000 0000 0000
00000010: 0000 0000 e1c8 783d 0000 0000 0000 803f
00000020: 0000 0000 0000 0000 e1c8 783d 0000 0000
00000030: 0000 0000 0000 803f 0000 0000 e1c8 783d
00000040: 0000 0000 0000 0000 0000 0000 0000 803f
1.0607483 1.0 0.0 0.0 0.0 0.060738448 0.0 1.0
0.0 0.0 0.060738448 0.0 0.0 1.0 0.0 0.060738448
0.0 0.0 0.0 1.0

transformer.layers.0.0.dynamic_alpha_fn f4 [9, 5]
00000000: 2149 543d 0000 0000 0000 0000 0000 0000
00000010: 0000 0000 f464 fbbc 0000 0000 0000 0000
00000020: 0000 0000 0000 0000 dbe2 80bb 0000 0000
00000030: 0000 0000 0000 0000 0000 0000 2d3d 323d
00000040: 0000 0000 0000 0000 0000 0000 0000 0000
00000050: 4a0c fabb 0000 0000 0000 0000 0000 0000
00000060: 0000 0000 0461 923c 0000 0000 0000 0000
00000070: 0000 0000 0000 0000 625d c3bb 0000 0000
00000080: 0000 0000 0000 0000 0000 0000 03e1 263d
00000090: 0000 0000 0000 0000 0000 0000 0000 0000
000000a0: e8a0 343d 0000 0000 0000 0000 0000 0000
000000b0: 0000 0000
0.051827554 0.0 0.0 0.0 0.0 -0.030687787 0.0 0.0
0.0 0.0 -0.0039332933 0.0 0.0 0.0 0.0 0.043515373
0.0 0.0 0.0 0.0 -0.0076308595 0.0 0.0 0.0
0.0 0.017868526 0.0 0.0 0.0 0.0 -0.00596206 0.0
0.0 0.0 0.0 0.04074193 0.0 0.0 0.0 0.0
0.044098765 0.0 0.0 0.0 0.0

transformer.layers.0.0.static_beta f4 [4]
00000000: e8ec 763f 090b 7b3f e601 8b3f e0e1 7c3f
0.9645524 0.98063713 1.0859954 0.9878216

transformer.layers.0.0.dynamic_beta_fn f4 [9]
00000000: 8fd9 93bd d766 d1bd d800 be3d 7ff4 983d
00000010: 66b5 1fbe 09b4 853d 1953 bbbd 03df a7bd
00000020: fe33 f83d
-0.072192304 -0.10224693 0.09277505 0.07468509 -0.15596542 0.065284796 -0.09146709 -0.08196833
0.12119292

transformer.layers.0.0.branch.norm.weight f4 [9]
00000000: 4cb8 7b3f 7d83 8b3f ed3f 7e3f 458b 833f
00000010: a58c 8b3f b854 8d3f f00a 8c3f 2b2f 843f
00000020: a0f6 5f3f
0.9832809 1.0899502 0.99316293 1.0276877 1.0902296 1.1041479 1.0940838 1.0326895
0.87485695

transformer.layers.0.0.branch.norm.bias f4 [9]
00000000: bd3a b63c 5ee3 67bc ff55 f2bc 98d4 413d
00000010: 0594 0dbd 7478 a5bd e284 f03d 22d1 913d
00000020: 2326 bf3d
0.022244805 -0.01415333 -0.029582022 0.047321886 -0.03456499 -0.08079615 0.117440954 0.07119967
0.09333446

transformer.layers.0.0.branch.to_qkv.weight f4 [192, 9]
00000000: 27e8 64be 70a1 aa3d 3b04 933d f561 4f3e
00000010: 2eda e43e c902 a13e bff1 55be b9cd 7fbe
00000020: 4809 9bbe 30a4 06bf ce45 82bd b6a9 22be
00000030: af10 31be f302 24be cd82 8f3e c754 d83e
00000040: 03ea 893d 791c e23e fa59 153e ef76 a9be
00000050: 62ba f53d a426 d53d 1b4d 123c bffa 873e
00000060: 356e 07be e838 c53d f834 b0bd 0a45 d93d
00000070: a354 de3d e5f5 ce3e e993 6e3e 281d 483e
00000080: 00d0 dc3d 5a6b bdbe 0023 c0be 9220 033e
00000090: 23a5 fb3e 0742 b33e 84e7 b1be 2379 193e
000000a0: 8801 4bbd c54b f3be 0fed a33e 846b aa3e
000000b0: 2d3b 6d3e ab05 5a3e 38e8 1dbe 2e4a 42be
000000c0: 1ca3 483e f7a6 b1bd cb1a 29bd 4562 3a3d
000000d0: 85e1 663e 6149 c1bd e1d0 e43e 454f 8abe
000000e0: 92d3 44bc f134 4a3e b7eb a6bd 75b0 fabd
000000f0: 4e3e 833d dad0 7e3e ee24 b7be 3484 05be
00000100: 9c42 8dbe e7d8 51be 0f77 ebbd 82d0 cb3d
00000110: 92b3 c0be 361e a43e f284 cc3e 790d 423e
00000120: f32e c43b 939a d93d 4df9 da3e 50d1 8a3e
00000130: fd58 4d3e f46d e83e e029 253d 3817 c4be
00000140: 2304 2cbe 499d 083e 9e63 b7be bd98 33be
00000150: a78b 943e e13d 863d d955 25be 2d5a a83d
00000160: 211f b5be 5ead 9bbe 6ad0 acbe fa08 e0bd
00000170: a83c 7c3d 28f2 8f3e 6097 b73d c04a 3d3e
00000180: 2241 703e 0899 0abe 12c8 983d b5f1 c9bd
00000190: a8ca 923d 4e9e a9be e01a 3cbe 1c63 5dbe
000001a0: 047c 41bd d080 dfbc c6ff 223e 8605 883c
000001b0: 8f9c c1bd 7b10 b9be 63d1 483e e23a afbd
000001c0: 0e76 e93e 428c 8dbd 2efc bfbc 5b3a 9cbd
000001d0: c16d 90be 9db9 bf3d d0dc 173f 5988 dfbe
000001e0: b641 70be f214 553e 15e8 1fbe 09ca 8c3e
000001f0: 8725 163f 422f 983e 9c22 033e 0504 473e
00000200: aee9 50be 076d c6be d7da 533d b699 c1be
00000210: 34a9 6b3e b9e9 073f 01bc 24be 9eb4 073e
00000220: cea1 113d c94d f0be f47c 963e b779 e6be
00000230: f3e3 8dbd 57bf b43e 0d0e 7d3e a84b 9a3d
00000240: 803d 613e 006b f1bb 4cde 99bc 74fa 523b
00000250: 5183 04be d61c 22bd d49d debe f526 94bd
00000260: 5a56 9a3d 0d0b b33e aae0 6dbe 8f09 4cbe
00000270: 427d 59be eaa5 c23d d079 cfbe 849c 313e
00000280: e216 c73c f652 d3bc 3e0a 1fbe 3128 ca3b
00000290: 5844 0d3f 9191 cb3e daaa 5fbe a3b4 0d3e
000002a0: b494 2dbd c9c6 ecbd d1e3 57be 8125 93be
000002b0: 8025 9ebd c2f1 d93e 564b 5c3e 43df b13e
000002c0: 1484 523e 62a4 52be df30 c8be 94dd 953e
000002d0: 54be bbbe 64b9 273d de32 a03e c9c0 bcbc
000002e0: 1cc6 b13c af8a ec3e 9bef 92bd 8f22 01bf
000002f0: 5c3e b1be 8a9f 01bf 7dd7 c0be eede a63e
00000300: 17f4 65be 291d 953e 4129 11be e7c0 ffbd
00000310: 9b20 05be ce9c 6fbe 25eb f9be db69 a4be
00000320: d51b 113f 6bd5 7c3d e1cd ed3c b553 793c
00000330: fb40 b3be 6148 cb3d 9ef3 1bbe 21f7 af3e
00000340: 0ee4 1b3e f331 bc3e 4d08 f13c 69d3 783e
00000350: 4e3a ae3b af10 b4be 4012 5c3d bf8e f13d
00000360: 56a5 243f d647 0d3e 9e5b 2ebe eb5e fd3d
00000370: 5dc2 57be e29a a1be 57e2 82be f5a0 103f
00000380: 2fb5 a3be f169 03bf a845 ebbe ce12 e93e
00000390: ec08 ad3e f84d fe3e eccb eb3e 0ad2 fcbe
000003a0: e6e2 d6bd 6478 94be bea8 863e 6eb4 223e
000003b0: b3e3 83be 661f ec3d 350a 5abe 0372 eebd
000003c0: 8bd4 a03e 8dd3 0a3f 2d79 183e d0e9 83be
000003d0: 7d29 a4be ef1b c73e 644d afbd ff69 d23e
000003e0: 3de4 a43e b58a 9dbb 5427 04be 6545 97be
000003f0: 992b dcbd e03e 3b3d 056e 483e 4fb6 8cbe
-0.22354184 0.08331573 0.07178541 0.20252211 0.44697708 0.31447437 -0.20893 -0.2498082
-0.3028052 -0.5259428 -0.063609704 -0.15885052 -0.1729152 -0.1601675 0.2802948 0.4225218
0.06734087 0.44162348 0.14585105 -0.33098552 0.1199844 0.10407761 0.008929516 0.26558492
-0.13225634 0.09629995 -0.08603853 0.10608871 0.10855987 0.40421978 0.23298611 0.19542372
0.1078186 -0.36995965 -0.37526703 0.12805393 0.49149427 0.35011312 -0.34746945 0.14987616
-0.049562007 -0.47518745 0.320168 0.33285153 0.23167105 0.21291225 -0.15420616 -0.1897361
0.19593471 -0.08674424 -0.041285317 0.045503873 0.22546966 -0.09437824 0.44690612 -0.27013603
-0.012013333 0.19746758 -0.08150428 -0.12240688 0.06408368 0.24884358 -0.35770363 -0.13038713
-0.2758988 -0.20492898 -0.11497318 0.09951879 -0.37637 0.320543 0.3994518 0.18950452
0.005987042 0.10625186 0.42768326 0.27112818 0.20053478 0.45396388 0.04032314 -0.38298965
-0.16798453 0.1334125 -0.3581819 -0.17538734 0.29012796 0.06554771 -0.1614603 0.08220325
-0.35375312 -0.30405706 -0.33752757 -0.10939212 0.061581284 0.28114438 0.08964419 0.18485546
0.23462346 -0.1353494 0.074600354 -0.09860555 0.0716756 -0.3312859 -0.18369627 -0.21619838
-0.04723741 -0.027283102 0.15917882 0.016604196 -0.09453689 -0.36145386 0.19611125 -0.08556153
0.4559788 -0.06911518 -0.023435678 -0.07628318 -0.28208736 0.09361575 0.5932131 -0.43658713
-0.23462567 0.20808771 -0.15615876 0.2749789 0.5865101 0.29723555 0.12806171 0.19435127
-0.20401642 -0.38755056 0.051722374 -0.37812585 0.23013765 0.5309101 -0.16087343 0.13252494
0.0355547 -0.46934345 0.29392207 -0.45014736 -0.069282435 0.3530223 0.24712391 0.075339615
0.21996117 -0.0073674917 -0.018782757 0.0032192739 -0.12940718 -0.03957828 -0.43479788 -0.07233993
0.075360015 0.3496937 -0.23230234 -0.19925521 -0.21239188 0.09504302 -0.40522623 0.17344862
0.024302904 -0.025796395 -0.15531251 0.006169342 0.5518241 0.39759496 -0.21842518 0.13838439
-0.042378142 -0.11561353 -0.21082999 -0.2873955 -0.07721996 0.4256726 0.21513113 0.34740648
0.20558196 -0.2057052 -0.39099786 0.29270613 -0.36668646 0.040948287 0.3128881 -0.023041146
0.021700911 0.46199557 -0.07174607 -0.5044336 -0.3461789 -0.5063406 -0.37664405 0.32591957
-0.22456394 0.2912381 -0.14175893 -0.12487965 -0.13000719 -0.2339966 -0.48812214 -0.3211201
0.56683093 0.06172697 0.029028835 0.015217711 -0.35010514 0.099259146 -0.15229651 0.34368232
0.15223715 0.36756858 0.029422903 0.24299397 0.005317009 -0.3516898 0.053728342 0.11794805
0.6431478 0.13796934 -0.17027137 0.1237162 -0.21070237 -0.3156348 -0.2556331 0.564956
-0.3197417 -0.5133353 -0.4595158 0.4552216 0.3379587 0.4966886 0.46054018 -0.49378997
-0.10492496 -0.289981 0.26300615 0.15889141 -0.25759658 0.11529426 -0.21292956 -0.1164284
0.31412157 0.5422905 0.14889975 -0.25764322 -0.32062903 0.388885 -0.08559683 0.41096494
0.32205382 -0.004807795 -0.12905627 -0.2954513 -0.10750503 0.04571426 0.19573219 -0.2748284

transformer.layers.0.0.branch.to_out.weight f4 [9, 64]
00000000: 5947 a73c 5b14 953b 6f01 27bd c161 b83d
00000010: 7d88 1cbd b4c7 0d3d ec97 a13c ce1f 50bc
00000020: 5b19 c8bd a948 c9bc 8f85 21bd 972f fd3d
00000030: 5e7e 15bc 2615 1c3e 4e1d 94bc 2fb9 e9bc
00000040: 13b1 11be 34e8 7fbd e16b 9fbd a5a6 353e
00000050: 64e7 1b3c 8c15 24bd 2005 c33d f058 9b3d
00000060: 93e4 42bc ebcb 153c b064 debd 4a23 e8bb
00000070: ac01 a8bd 38f3 273d eba9 3e3e 6f10 a63c
00000080: 0e0d 4b3d cc5e d83d 383d 47bd 2c7c c1bd
00000090: 115c 43bd d4d1 cabd 544a 383c fffa bcbb
000000a0: f2e5 993b 3bcd 133b f9a6 8fbd ceb0 dabd
000000b0: 738f 67bd 9de4 fd3c cc2b 203d 1c57 3f3d
000000c0: aa25 37bd b7d3 98bc 7893 39bd 6c96 dabb
000000d0: ebbd 8f3c c539 8f3d 98be 323d a357 303d
000000e0: b18e d63d 7ca5 953d f82f 93bd 90c8 0fbe
000000f0: cf78 443d 8340 84bd 5d3f f23b b282 38be
00000100: f083 6bbd 753e 1a3e 49ec a7bd 5f7b 1c3a
00000110: 8eaa 253d 8a35 793d b572 bebd 4a27 da3d
00000120: 25ba 433d a7c2 19be c0c3 ea3d 278f 6b3d
00000130: f2ca 953d fc4f 043e 37c3 55bd c2a5 29be
00000140: b6c5 00be 12b7 4e3c 6401 01bd 4978 933c
00000150: 5fc0 87bd 3f64 d7bd 248c 4a3e f430 fcbc
00000160: 1ad1 133e aa92 95bd 2c35 d03a 1cc8 6bbd
00000170: be11 a9bc 2b6f b93c fe3d d9bd a959 a4bd
00000180: 533f 193c ef18 dbbb 90be 37be 223a cbbc
00000190: 0ced e93d 1578 2fbe 51c1 db3d fe9e d53c
000001a0: a966 b03d d8b3 493d 16d8 1f3d 7837 abbd
000001b0: b256 c33d 151f 273e 0530 db3d 58f4 87bd
000001c0: 74cd 44bc b986 fbbd 30e1 3b3e 71c4 d1bb
000001d0: 5fcd cf3d 41d5 d53d 520c 3c3e f92e c4bc
000001e0: 09f6 cbbd 8414 2d3c 1a7a 86bd a889 993d
000001f0: 41a1 b63d d8a0 88bc 04b6 c13d 6cf8 6d3d
00000200: e78e da3c 6dd4 b2bd aa9c fcbc 99ed 85bd
00000210: 956b a03d 747f 643d f83c c33c a3a8 d4bd
00000220: eccb 0a3d d6a8 84bd 1c73 343d a4ef 17be
00000230: 4948 2e3e 3845 84bc 3101 dbbd e544 b63d
00000240: 0268 ef3d 010b 0a3d f01a 503d 790f 053d
00000250: 57f1 d23c 2f39 433e 8b3b afbd a89c 8d3d
00000260: 8f84 fdbb f173 2a3d 10c8 4fbc 66b1 533c
00000270: ca62 45bd b53a eabd 1fba b7bc c78b c43d
00000280: 5b14 68ba bf12 22bd 4e5f 8dbb 97c1 73bd
00000290: 20e0 6f3d 7d57 823d 5643 76bb a2d8 93bb
000002a0: 01af 5d3b 15dd 7d3c c2f6 e93d ec4d f33d
000002b0: bc7b febc fe7c a1bd 0e85 a73c 201c 93bd
000002c0: 1f3b 97bc 6d0f 7b3d 50ea eb3d 2cb0 293e
000002d0: f5b8 173d 5106 1ebd c0b7 b3bd 1e7c 2ebc
000002e0: 7b95 dabd a166 cd3d 7a25 8a3d e2ae e83d
000002f0: 6520 813d 38e1 f53c 6778 833d ba6a e93d
00000300: f1a6 3bbd 29d4 253d 8eea b6bc b905 91bb
00000310: f429 c1bd e007 243d c716 d8bd 4331 a9bc
00000320: 5e0e 983d 3a5d 013d d0b2 263c d06e fbbc
00000330: 4969 39bd 679e bbbb e6a8 74bd 7352 02bd
00000340: c82b 4bbd e469 113d 62ff a4bc e549 193d
00000350: c4f8 7e3d dc90 633d 1cfd 403c 4de2 44bd
00000360: 69d1 2e3d ce8e 9bbd 6d5f 253d cdd7 e8bc
00000370: 3a38 2a3d 109f 9c3c 8c65 03be e986 73bc
00000380: 4987 f239 2de7 1bbe 27f4 20bd f595 943d
00000390: 2848 563d 836b 0bbd 6585 683d 3bf5 c43d
000003a0: 7a97 51bd 719d d93c 7161 913d 008f cc3c
000003b0: 6566 a53d a478 143a 7e46 3d3d fb43 e5bd
000003c0: c027 9c3d 40bb 873d 56ba 8e3d 5ac7 a53c
000003d0: ac16 073e 8abc a0bd 8923 d73a 1339 f4bd
000003e0: f06e 1dbe dfe6 ef3c e4de b2bd 67db cc3d
000003f0: 8ae5 8cbd a473 41bc c7c8 b03d 3e68 af3d
0.020419763 0.0045495457 -0.04077285 0.0900302 -0.038216103 0.03461428 0.019725762 -0.012702895
-0.09770461 -0.02457078 -0.039434012 0.12362593 -0.009124367 0.15242442 -0.01808038 -0.028530685
-0.14227705 -0.062477306 -0.07784248 0.17739351 0.009515617 -0.04005961 0.09522462 0.07585323
-0.011895317 0.009142856 -0.10859048 -0.007084285 -0.08203444 0.041003436 0.18619506 0.020271508
0.049572997 0.10564956 -0.048642367 -0.09447512 -0.047695223 -0.09903303 0.01124819 -0.0057672258
0.004696601 0.0022552747 -0.070142694 -0.10678254 -0.05653329 0.0309928 0.039104268 0.046713933
-0.044713654 -0.018655641 -0.045306653 -0.0066707637 0.017546615 0.069934405 0.043638796 0.043052327
0.10476435 0.07306954 -0.07186884 -0.14041352 0.047966775 -0.06457617 0.0073928074 -0.18018606
-0.057498872 0.15062888 -0.08199365 0.00059693115 0.040445857 0.060842074 -0.092992224 0.10652025
0.047784943 -0.1501566 0.114631176 0.057509568 0.07314099 0.12921137 -0.052188125 -0.16567138
-0.1257542 0.01261689 -0.031495467 0.018001692 -0.06628489 -0.10517167 0.19780022 -0.030785061
0.14435235 -0.073033646 0.0015884987 -0.057563886 -0.020638343 0.022636017 -0.10607527 -0.08024914
0.009353477 -0.006686322 -0.17943788 -0.024807993 0.11422166 -0.17135651 0.107302316 0.02607679
0.08613331 0.049243778 0.039024435 -0.08360189 0.0953802 0.1632045 0.107025184 -0.06638402
-0.0120118745 -0.12281556 0.18347621 -0.0064015915 0.10146593 0.104410656 0.18364075 -0.02394818
-0.09959037 0.010563973 -0.06566258 0.07496959 0.089174755 -0.016678259 0.09458545 0.05809824
0.02667947 -0.08731923 -0.030836422 -0.06539459 0.0783302 0.05578561 0.023832783 -0.103837274
0.03388588 -0.064775154 0.04405509 -0.1483751 0.17019762 -0.016146287 -0.106935866 0.08899859
0.1168976 0.0337019 0.05080694 0.03248546 0.025749845 0.19064783 -0.08556279 0.069146454
-0.0077367495 0.041614477 -0.012681976 0.012920713 -0.048189916 -0.11436979 -0.022427617 0.09596973
-0.0008853131 -0.03956866 -0.0043143397 -0.059510794 0.05856335 0.06364343 -0.0037576756 -0.0045119086
0.0033826234 0.015494605 0.114240184 0.11880097 -0.03106486 -0.078851685 0.020449188 -0.07183099
-0.018460808 0.061294008 0.11519301 0.1657111 0.037041623 -0.038580243 -0.08775282 -0.010649709
-0.106730424 0.100293405 0.06745429 0.11361481 0.06305007 0.03001462 0.06419449 0.113973096
-0.045813505 0.040485535 -0.022328641 -0.004425731 -0.0943183 0.040046573 -0.105512194 -0.020653373
0.07424615 0.03158305 0.010174468 -0.030692488 -0.045266423 -0.00572567 -0.059731387 -0.03181691
-0.0496023 0.035501376 -0.020141307 0.037423987 0.06224896 0.05555807 0.011779096 -0.04806738
0.042680178 -0.07595597 0.04037421 -0.028423214 0.041557528 0.019118816 -0.12831706 -0.014863708
0.00046258632 -0.15224905 -0.03929534 0.072551645 0.052314907 -0.034038078 0.05676784 0.096170865
-0.05116985 0.026564332 0.070986636 0.024970531 0.08076171 0.0005663729 0.046209805 -0.11194607
0.07624769 0.06627512 0.069691345 0.02023666 0.13192242 -0.07848461 0.0016413789 -0.119249485
-0.1537435 0.029284893 -0.08733919 0.10002785 -0.068797186 -0.011807356 0.08632045 0.085648045

transformer.layers.0.0.norm.gamma f4 [9]
00000000: 5f13 8e3d 1f32 eb3d b723 d13d 7272 963d
00000010: d790 e43d a35d 943d 8fbd ed3d b6dc b53d
00000020: 31eb 0c3e
0.069372885 0.11484169 0.1021189 0.073460475 0.111604385 0.07244422 0.11608421 0.08879988
0.13761593

transformer.layers.0.1.static_alpha f4 [4, 5]
00000000: fcd0 60be 0000 803f 0000 0000 0000 0000
00000010: 0000 0000 90cb 453f 0000 0000 0000 803f
00000020: 0000 0000 0000 0000 9418 773e 0000 0000
00000030: 0000 0000 0000 803f 0000 0000 b806 dabd
00000040: 0000 0000 0000 0000 0000 0000 0000 803f
-0.21954721 1.0 0.0 0.0 0.0 0.77263737 0.0 1.0
0.0 0.0 0.2413047 0.0 0.0 1.0 0.0 -0.10645813
0.0 0.0 0.0 1.0

transformer.layers.0.1.dynamic_alpha_fn f4 [9, 5]
00000000: 39ec 733e 0000 0000 0000 0000 0000 0000
00000010: 0000 0000 9e8b 423e 0000 0000 0000 0000
00000020: 0000 0000 0000 0000 01b7 c2bd 0000 0000
00000030: 0000 0000 0000 0000 0000 0000 c68f 9cbd
00000040: 0000 0000 0000 0000 0000 0000 0000 0000
00000050: bbb6 a23d 0000 0000 0000 0000 0000 0000
00000060: 0000 0000 7668 c13c 0000 0000 0000 0000
00000070: 0000 0000 0000 0000 d161 afbd 0000 0000
00000080: 0000 0000 0000 0000 0000 0000 b059 85bd
00000090: 0000 0000 0000 0000 0000 0000 0000 0000
000000a0: aa2c 3a3d 0000 0000 0000 0000 0000 0000
000000b0: 0000 0000
0.2382058 0.0 0.0 0.0 0.0 0.18998572 0.0 0.0
0.0 0.0 -0.095075615 0.0 0.0 0.0 0.0 -0.0764461
0.0 0.0 0.0 0.0 0.07945009 0.0 0.0 0.0
0.0 0.023609381 0.0 0.0 0.0 0.0 -0.08563579 0.0
0.0 0.0 0.0 -0.06511247 0.0 0.0 0.0 0.0
0.04545275 0.0 0.0 0.0 0.0

transformer.layers.0.1.static_beta f4 [4]
00000000: 4a8c 4d3f f302 623f 2391 923f 575a 753f
0.8029219 0.8828575 1.1450542 0.9584097

transformer.layers.0.1.dynamic_beta_fn f4 [9]
00000000: 1535 013f 3dfb 99be 6080 9b3c 4bb2 3f3e
00000010: 246b 8ebc b0d8 563e 65ab 7cbe 3aa6 00bd
00000020: b12d c73d
0.5047162 -0.30074492 0.018982112 0.18720357 -0.017385073 0.20981097 -0.24674757 -0.031408526
0.09725512

transformer.layers.0.1.branch.0.weight f4 [9]
00000000: 139c 823f 35bf 963f eb30 923f 531f 913f
00000010: e931 913f 4a8f 7d3f c5ab 473f 2ff6 683f
00000020: bcfc 8e3f
1.020388 1.1777102 1.1421179 1.1337684 1.1343356 0.99046767 0.77996475 0.91000646
1.1170878

transformer.layers.0.1.branch.0.bias f4 [9]
00000000: 1105 96bb 4f39 8c3d a22f e8bb 8665 033b
00000010: 24d5 24bd 6a32 a53d e529 23be 6241 a9bd
00000020: b449 05bd
-0.0045782407 0.06846868 -0.0070857564 0.0020049526 -0.04024233 0.08066256 -0.1593395 -0.08264424
-0.032540992

transformer.layers.0.1.branch.1.weight f4 [72, 9]
00000000: 8834 393e d541 e0bd 1010 bb3e 4a60 6c3e
00000010: 640d 243c da6a 13bd af3e 33be dcc5 d4bb
00000020: d0ed 783e e39c d63e fd41 fa3e e0cd 66bd
00000030: 0187 9ebd f539 b33e 5149 98be d5ec 1f3d
00000040: 240d 843d 32e4 59be 4d42 7dbe e034 b7be
00000050: 542b 863d 28f6 f8bd 6f5b 23be 981b da3e
00000060: c66a 63be 178d c8bd 37c2 aebe 29dd cebe
00000070: 1f60 24bf b74c 963e c247 b73e cf9a 8cbe
00000080: eabc 983e 18e7 1b3e d060 04bd db21 85bd
00000090: c8b1 b43e 503d 7fbe c2ac 833d f54c cd3e
000000a0: c4d6 e63d 36fb 9c3d d8ea ef3d 3e8b 143c
000000b0: 37b1 8dbd 2f15 143d f531 c8bc 4de7 293d
000000c0: 1dc9 ffbd e67b 98be 63a9 1f3e f336 a9be
000000d0: 3b59 693e e0bd 593e b905 01bf ca09 1b3d
000000e0: c06c 0dbf 8e58 67be fc9b 233d 901d 17bf
000000f0: 9b60 7b3d d8d6 463e 05c1 edbe d334 343e
00000100: b17a 063e 377b 993e 6c90 c43b ee5f ad3e
00000110: eec4 633d 50f6 51bf 07a3 aebe 8778 a13e
00000120: 9a8f 6f3d 0b4a b33e c414 8bbe 8632 25be
00000130: c808 8f3e 8a4d dfbd 4098 15be 147d 00be
00000140: 2fb0 9abe 1516 883d fcc1 573e fc83 4e3e
00000150: 4cb2 12be 738d 7d3c e9ea d83d 567b 3b3b
00000160: 7f9c 4b3e a4c9 edbd 6a71 953e 9079 c6be
00000170: 6616 53be 44de 973e 90b2 c43d d437 7b3d
00000180: 3ed9 403e 0ecf 8cba 9148 173e 7a08 173f
00000190: 1c9b 9a3e 1840 d63d 44e2 c9bd 4290 ac3e
000001a0: 718a e13d 112c 19bd a310 1ebe 005b 283f
000001b0: a349 c73e 9682 413f 6a27 f1bd fabe 49bc
000001c0: cb0a c73e 2a3a edbe 3b20 92be 678a 933e
000001d0: 9c24 da3c dda4 d73c 57cf c63e 8440 d5be
000001e0: ff39 2a3e 1c59 863e d427 efbd c740 65be
000001f0: 57c7 dc3d eb4e 19be 7045 9abe 3856 d839
00000200: 1aec 5bbd 7539 163e 9417 4e3e 6af0 e0bd
00000210: 99f6 e3bd 513d 8ebd e551 ffbe f8f9 80bd
00000220: 1b99 e5b9 4f51 bfbb 61a6 543e fc47 8b3e
00000230: 5fd6 4fbe a91d f0be 05e6 8dbe 3da2 923e
00000240: a4f5 2cbf d35b be3e cba1 eebd 52d0 e3be
00000250: e17d 88be 6a9f 3abe c917 a33e c6a6 a43e
00000260: c467 63bd 85be 143f 9b1c e53e ecef cebe
00000270: a935 a1be 13ea c83e 5003 50bd 71a7 99be
00000280: 4d4f 5c3d f036 eabd 0299 08be 95e5 4c3e
00000290: e61f cfbc fd67 28be 37ca 583b 74c9 adbe
000002a0: 4577 e0bc 7c0f d6bc e54e b03e 4044 633d
000002b0: 8b17 173e 981e a63e 6a5a 3b3e 1f2a 56be
000002c0: e325 29be c0b5 023e a127 8c3e 5b01 853e
000002d0: ba2b 8c3e 026f cdbd 7617 8f3e 38e8 4d3e
000002e0: b3a4 82be f709 a7bd 3d64 cbbe e2de aebe
000002f0: 9e15 903d 9cd2 8abd e2de 1e3d ad58 f8be
00000300: 9a1f 7dbe 8f1c 9d3d 2987 39be 29d4 4cbd
00000310: 9c44 41be 78ef 69be 0325 09be 72eb 1dbf
00000320: c793 5dbe 2207 62be 1c90 2c3d 8895 3d3e
00000330: bea9 3fbd 156b 373e 8a01 143d 8c6b 913e
00000340: f4fb b6be 2841 1f3e f360 bdbd 579c b63e
00000350: b99d 4fbe c784 d53c 00b9 8f3d 0e5f b8bd
00000360: 4965 b63c ca09 9a3e d697 a3be c921 e9be
00000370: 9198 a03e b4e3 48bd 6c06 dcbd a155 d6bc
00000380: 0021 3ebd 2198 0e3e 3cb9 003e 6548 bd3e
00000390: 21b9 a33e edee 81be ddb1 1fbe 81d2 5b3c
000003a0: dc42 2e3e 672a 913e 8759 8b3e 40bb c6be
000003b0: bcca dd3e 2d75 c7be 8085 fbbe 387c b43e
000003c0: dfb7 553e 927c f6bd 2895 e1bc dd0a 40bd
000003d0: a3b6 c03e 552b c7be 77d5 363e f1e4 d33e
000003e0: b6a4 c0be 0e1d 2cbe 9689 503e e073 703e
000003f0: 47e4 34be e5e3 5fbd 2b67 073e a2ba e3be
0.18086445 -0.109500565 0.36535692 0.23083606 0.010012958 -0.035990573 -0.1750438 -0.0064933132
0.24309468 0.4191657 0.4887847 -0.05634868 -0.07740594 0.35005155 -0.29743436 0.03904422
0.06447819 -0.21278456 -0.24732323 -0.35782528 0.06551233 -0.121563256 -0.15952848 0.42599177
-0.222087 -0.09792536 -0.3413255 -0.40403107 -0.6420917 0.29355404 0.35796934 -0.2746186
0.2983163 0.15224874 -0.03231889 -0.06500598 0.35291886 -0.24925733 0.06429435 0.40097776
0.11271432 0.07665102 0.11714715 0.009066401 -0.06918567 0.036153015 -0.024437884 0.04148035
-0.12489531 -0.29782027 0.1559196 -0.33049735 0.22787945 0.21263838 -0.5039936 0.037851132
-0.55244064 -0.22592375 0.03994368 -0.59029484 0.061371427 0.19417894 -0.46436325 0.17598276
0.1313274 0.29976818 0.0059986617 0.3386225 0.05560773 -0.8201647 -0.34108755 0.31537268
0.05848656 0.35017428 -0.2716428 -0.16132554 0.27936387 -0.10903461 -0.1460886 -0.12547714
-0.30212542 0.06644837 0.21070093 0.20167536 -0.14325827 0.015475619 0.105916806 0.002860745
0.19883917 -0.116107255 0.2918809 -0.3876462 -0.20614013 0.29661763 0.096043706 0.06133254
0.18832871 -0.001074286 0.14773776 0.5899731 0.30196464 0.10461444 -0.0985761 0.3370381
0.11012734 -0.03739554 -0.15436034 0.65763855 0.38923368 0.75589883 -0.11775096 -0.012313599
0.38875422 -0.46333438 -0.28540215 0.2881653 0.026628785 0.02632373 0.38830063 -0.41650784
0.16623686 0.2623986 -0.116775185 -0.22387992 0.107802086 -0.14971511 -0.30131102 0.00041262968
-0.05369196 0.14670356 0.20126182 -0.10983355 -0.11131019 -0.06945289 -0.49867168 -0.06297678
-0.00043792356 -0.00583855 0.20766594 0.27203357 -0.2029662 -0.4689763 -0.27714553 0.28639403
-0.6756232 0.3717943 -0.11651953 -0.44494873 -0.26658538 -0.18224874 0.31854084 0.32158488
-0.05551888 0.5810321 0.44748387 -0.4041742 -0.31486252 0.39241084 -0.05078441 -0.3001056
0.053786565 -0.1143626 -0.13339618 0.20009454 -0.025283765 -0.16445918 0.0033079514 -0.3394276
-0.027400622 -0.02613043 0.34435192 0.05548501 0.14755075 0.32445216 0.18296209 -0.20914505
-0.16518359 0.12764645 0.27373984 0.25977597 0.2737711 -0.10030939 0.27947587 0.20108116
-0.2551628 -0.081561975 -0.39724913 -0.3415442 0.07035373 -0.06778452 0.038786776 -0.48505154
-0.24719086 0.07671463 -0.18117966 -0.05000702 -0.18873829 -0.22845256 -0.13393025 -0.61687386
-0.21638404 -0.22073033 0.04212962 0.18514073 -0.04679274 0.17911942 0.03613428 0.28402364
-0.357391 0.15552199 -0.09247007 0.35666153 -0.2027501 0.02606429 0.07017708 -0.09002505
0.022265093 0.30085593 -0.3195178 -0.4553359 0.313664 -0.04904528 -0.107434124 -0.026163878
-0.04641819 0.1392522 0.12570661 0.36969295 0.3197718 -0.25377598 -0.15595193 0.013416887
0.17017692 0.28352663 0.2721674 -0.38814735 0.43318737 -0.38956586 -0.4912529 0.3525102
0.20870923 -0.12035479 -0.027536944 -0.04688536 0.3763934 -0.38900247 0.17854868 0.41385606
-0.37625664 -0.16807958 0.20364985 0.23481703 -0.17665206 -0.054660697 0.13222949 -0.44478327

transformer.layers.0.1.branch.1.bias f4 [72]
00000000: 73d5 05bc c688 15bd acef 583d 5f00 02be
00000010: 6b99 1b3c d4ae 3d3d 9c01 c0be 00ea ddbe
00000020: 6a59 b83b 46c6 033e 6743 1b3e 28cf b53d
00000030: c3a6 a13d ba15 a63d 3368 efbd 8765 7b3d
00000040: 5af0 d33c 2634 f43d 6452 1f3e 3a66 acbe
00000050: f485 643e 5983 953e 6982 f93d 3724 7f3e
00000060: 19fd 223d f9d0 883d 8883 793e 48db 103e
00000070: 757d 703e e463 7c3e f30c aabe 304a 613c
00000080: 7aa3 ef3d 2bc8 a4be 070e 1cbe a3b6 07be
00000090: 1967 9e3e 61e1 523d 35c4 8b3d b037 4e3e
000000a0: a5e6 013e 5548 b7be bf79 eb3d 709b 0e3c
000000b0: 0297 67be b25f cbbd 88ba bebd be2b 563e
000000c0: 2998 30be 981a a9be 0a22 123e 8443 26be
000000d0: 8fdc e73d d109 dabe 5a01 903e 9cb3 973e
000000e0: 8c06 153e b9ff a23e a8ce f6bd dd9f 5c3e
000000f0: 2f93 1bbd 742b dfbd be13 223e 99ca b63e
00000100: c76a a43d 1cc9 a93b 1a7b bb3e 0ac6 18be
00000110: 6a27 46be 37c4 c1bd 19ef 623e 13f6 1b3e
-0.008168566 -0.03650739 0.052962944 -0.12695454 0.009497027 0.046309307 -0.37501228 -0.4334259
0.0056258934 0.12868604 0.1516243 0.088774025 0.078931354 0.08109613 -0.11689796 0.06137612
0.025871444 0.11924009 0.15558773 -0.33671743 0.22316724 0.29201773 0.12183077 0.24916159
0.039792154 0.06680483 0.24366581 0.14146149 0.23485358 0.2464748 -0.33213004 0.013750598
0.117011026 -0.32183966 -0.15239726 -0.13253264 0.30938032 0.05148447 0.06824533 0.2013843
0.1268564 -0.35797372 0.114978306 0.008704051 -0.22616199 -0.09930362 -0.09312922 0.20915124
-0.17245544 -0.33028102 0.14270797 -0.16236693 0.11321365 -0.42585614 0.2812603 0.2962922
0.14553279 0.31835726 -0.12051135 0.21545358 -0.037982162 -0.1089696 0.15827844 0.35701445
0.08028179 0.005181445 0.36617357 -0.14919296 -0.19350973 -0.09461253 0.22161521 0.15230589

transformer.layers.0.1.branch.4.weight f4 [9, 36]
00000000: 2a57 1f3d b75b ee3d ae06 f93d ad72 78be
00000010: b137 ca3d a03c 973d 2230 d73d d886 8fbd
00000020: 0974 4e3e 8a55 29bd 14c1 6cbd 4c89 7c3d
00000030: 4fad e93d 9612 2e3e a2d2 913d bd13 57bd
00000040: c1ce c03d 606d 283e 1414 8abd 2e5c 873d
00000050: 1202 1a3b 73ed 8e3d 7ba1 cbbd 9c09 a93d
00000060: 6984 3a3e 9c43 773a af01 d7bd 4ebd c13d
00000070: 89e2 763d 7f0d 443e a248 abbd de5e 773c
00000080: 8053 8e3d 04ed f3bc dbd0 10bb f99e 2fbe
00000090: e323 8cbd 1072 073e cc5f a93e bc24 57be
000000a0: ad4c 2abe 7d7a 243e 4029 2c3e 54b6 9b3d
000000b0: f64a 573e 9a06 10bd b419 01be ac28 7a3e
000000c0: 9557 b23d d6b6 973e 6669 a33d 2fa4 4cbd
000000d0: da10 2e3e 79a3 8a3e cb67 72be d13d 83be
000000e0: 5090 7dbe 4b94 8c3d a90f 23be 7f86 9d3d
000000f0: c12f 543e 96f0 42bd b5cf 2fbe 3504 603e
00000100: 7299 223e e722 63bd eebc d6bd 1401 c23c
00000110: e0b8 733e 7b20 b23d 3684 423e 9a20 60be
00000120: 4f20 8a3e 19d8 bbbe bbbb 7dbd 3258 983e
00000130: d76f 57bd a349 0c3d d09f 43be a41c 0fbe
00000140: bdb1 a6bd 4dde 543e e574 af3c 4a18 9ebe
00000150: 829a c4be 4827 c0be 989c 8e3d 0f9b cebd
00000160: 3755 3dbe 2ece 81be ce4c 053e 2c94 993e
00000170: 9167 363e 0ea1 853c 39c8 593e 7222 4ebd
00000180: 18ae c0be 361f 4abe 0e17 c83e 292c 5bbe
00000190: f1ed 2dbd d0b0 eabc 7fce 133e 7353 adbe
000001a0: 865e 58be 8d06 203d e4c9 89be 22ec 9a3e
000001b0: 7c29 80bd a01d 593b 7e6c 9f3d 5843 e93d
000001c0: 47f5 0bbe c053 8cbc cc00 adbd 3e67 493d
000001d0: d749 d13c 5e0d 1abe 50d8 763e 82c3 1c3d
000001e0: d001 ad3c d0f1 c3bc ea44 71bd a8ba 213e
000001f0: f42f 6abd c856 aa3b a705 693c 5708 15be
00000200: b1fc a23d aaea eebc 800a 653c 6736 143c
00000210: 21f7 43be 7111 c83d b851 433e 4178 b5bd
00000220: 59a6 123d 1949 223e ff6a 813d 6b1c 543e
00000230: d72f 053d 610d 3e3e 03ea f2bd 6a5a 073e
00000240: aba6 acbd a10d b03d 64c8 143e 5880 03be
00000250: 1f31 993c bcdd 34bd 75c3 2e3d 0ff9 433d
00000260: ebf3 203e b756 1bbd cfec 3bbe 9aef 133e
00000270: 356f c53d 2971 fd3d e98a 87bd 283d 613e
00000280: 518b 8c3d 71fd ef3d ee70 c4bd 2e13 4fbe
00000290: 951f a53c c342 203e 5ff0 86bc 5453 e3bb
000002a0: 7036 e73d 2f09 9fbd bc9c a1bc d709 3b3d
000002b0: 283b 803c cfb5 18bd 99c2 65bd cc67 903e
000002c0: 09d4 cc3d cc4e 6c3c 6e3f 773d 9217 59bd
000002d0: b719 9b3e 9fe4 84be 876a 0ebe 9506 043e
000002e0: fe10 1a3d be10 df3d c41c 52bd e416 37be
000002f0: 4b54 2e3d 2028 d03d 879a 693e cce9 0cbe
00000300: 66ec 87be 0108 5ebe 2da5 773e a3f0 d1bd
00000310: 9b19 f3bd 48d0 9dbd 4e46 463e 1d6e 1d3e
00000320: 0f59 3b3e bffa 50be 1829 3f3e d483 b93c
00000330: a38d 6bbe d3e3 083d 3f6d 3c3e 9616 a7bc
00000340: 6c13 babd bec3 993e a523 243d aa89 abbe
00000350: bf51 ddbd 0ffd 45bc 7c4c a8be 1b9c 053e
00000360: fb0c 6c3e 10b1 37be 0c8b 2cbe 81bf 813e
00000370: 6cb1 cbbc 781c c8be 48c1 15be 8b59 86be
00000380: 6d63 d2bd 02a0 f63d 9ee5 b53c 8660 17be
00000390: 819b 88bd 6ee2 9dbe fc8f 33be 6860 09be
000003a0: 8710 26be 03ac d8bd b39a 393e 9e9f c83c
000003b0: 45cc 8c3c b51f 0cbc aa52 543e 61c3 f7bd
000003c0: 03d7 63be b3ca 833d a9a8 573e 94b4 76be
000003d0: 153f 8bbd 0be4 893d a2be 0b3e fd77 be3b
000003e0: b4ab 32be 3f19 1dbe 6d4c 68be 3f05 5c3e
000003f0: 3e0d b53d a992 19be 0281 993b 16f6 27bc
0.038901486 0.11638587 0.12159477 -0.24262495 0.098739035 0.0738461 0.105072275 -0.07008141
0.20161451 -0.041341342 -0.05780132 0.061654374 0.11410009 0.16999277 0.07120253 -0.05250906
0.09414435 0.16447973 -0.06742111 0.06609379 0.002349977 0.069788836 -0.09942909 0.08253786
0.18214573 0.0009432377 -0.10498368 0.09459935 0.060274635 0.19145773 -0.08363463 0.015098302
0.0694952 -0.029776104 -0.0022097144 -0.17150487 -0.06842782 0.13227105 0.330809 -0.21010107
-0.16630812 0.1606235 0.1681261 0.07603136 0.21024689 -0.035162546 -0.12607461 0.24429578
0.08708111 0.2963168 0.079790875 -0.049961265 0.16998616 0.27077845 -0.23672406 -0.256331
-0.24762082 0.06864222 -0.15923943 0.07691669 0.20721342 -0.047592722 -0.17169078 0.21876605
0.15878847 -0.055453207 -0.10485254 0.023682155 0.23800993 0.086976014 0.18995747 -0.21887437
0.26977775 -0.36688307 -0.06194661 0.29754788 -0.052596893 0.034249913 -0.19103932 -0.1397577
-0.0813937 0.20787926 0.021418044 -0.30877906 -0.3839913 -0.3752997 0.06963462 -0.10088169
-0.18489538 -0.25352615 0.1301758 0.2999586 0.17812945 0.016312148 0.21267785 -0.05032582
-0.37632823 -0.19738469 0.3908009 -0.21403565 -0.042463247 -0.028648764 0.14434241 -0.3385273
-0.21129808 0.039068747 -0.26911843 0.3025828 -0.062579125 0.003312923 0.07784365 0.11389798
-0.13667785 -0.017129779 -0.084474176 0.049170725 0.025547905 -0.15044162 0.24105954 0.03827239
0.021119028 -0.023919016 -0.058903612 0.1579386 -0.057174638 0.0051983334 0.014222539 -0.14553963
0.07958353 -0.02916463 0.013979554 0.009046174 -0.19137241 0.09768952 0.19074142 -0.08860827
0.035803173 0.15848197 0.06319236 0.20713966 0.032516327 0.18559791 -0.118610404 0.13218084
-0.08430227 0.085963495 0.14529568 -0.12841928 0.01870018 -0.044156775 0.04266687 0.047844943
0.15718047 -0.037924495 -0.18352054 0.1444687 0.09640352 0.12375099 -0.06618292 0.21995986
0.0686251 0.11718262 -0.09591852 -0.2022216 0.020156661 0.15650468 -0.01647204 -0.0069374237
0.1128968 -0.077654235 -0.019728057 0.04566368 0.015653208 -0.03728276 -0.056093786 0.2820419
0.1000138 0.0144230835 0.060363226 -0.053000994 0.30293056 -0.25955674 -0.13907824 0.12893136
0.03761386 0.10891865 -0.051296964 -0.17879826 0.042560857 0.10163903 0.22812854 -0.13761061
-0.26547545 -0.21682741 0.24184103 -0.10250976 -0.11870118 -0.07705742 0.19362757 0.15374036
0.18295692 -0.20408152 0.1866802 0.022645868 -0.23003249 0.033420395 0.18401049 -0.020396512
-0.09085736 0.30032152 0.040073056 -0.33503467 -0.108066075 -0.01208426 -0.32870853 0.13047831
0.23051827 -0.17938638 -0.16849917 0.25341418 -0.024864875 -0.3908422 -0.14624512 -0.2624019
-0.1027287 0.12042238 0.022204217 -0.14782915 -0.06670285 -0.30836815 -0.17535394 -0.13415682
-0.16217242 -0.10579684 0.1812542 0.024490174 0.017187247 -0.008552481 0.20734659 -0.120978124
-0.22249989 0.06435146 0.21060432 -0.24092323 -0.06799141 0.06732949 0.1364694 0.0058126436
-0.17448312 -0.15341662 -0.22685404 0.21486376 0.08840416 -0.14997353 0.0046845684 -0.010251543

transformer.layers.0.1.branch.4.bias f4 [9]
00000000: 7d47 80bd e2ce b6bd bf68 7d3d a84d 90bd
00000010: 8cb1 03be a89a dbbd de12 c53d 664f 103e
00000020: cca6 09bd
-0.06263635 -0.089261785 0.06186747 -0.07046062 -0.12860698 -0.10722858 0.09622739 0.14092788
-0.033606336

transformer.layers.0.1.norm.gamma f4 [9]
00000000: 395b f33e 621c cc3e e754 803d 33b5 4c3d
00000010: 65f6 ae3c 3c20 653e a8ca cc3e 3aa8 b73d
00000020: 418d ae3d
0.47530535 0.39865404 0.06266194 0.049977493 0.021357724 0.22375578 0.39998364 0.089676335
0.08523036

transformer.layers.1.0.static_alpha f4 [4, 5]
00000000: 8db2 8abd 0000 803f 0000 0000 0000 0000
00000010: 0000 0000 cc79 6abd 0000 0000 0000 803f
00000020: 0000 0000 0000 0000 25da 693f 0000 0000
00000030: 0000 0000 0000 803f 0000 0000 77a9 9dbd
00000040: 0000 0000 0000 0000 0000 0000 0000 803f
-0.06772337 1.0 0.0 0.0 0.0 -0.05724506 0.0 1.0
0.0 0.0 0.9134849 0.0 0.0 1.0 0.0 -0.076983385
0.0 0.0 0.0 1.0

transformer.layers.1.0.dynamic_alpha_fn f4 [9, 5]
00000000: 78e5 babd 0000 0000 0000 0000 0000 0000
00000010: 0000 0000 f732 f93d 0000 0000 0000 0000
00000020: 0000 0000 0000 0000 ed9d 903e 0000 0000
00000030: 0000 0000 0000 0000 0000 0000 b67f 64bd
00000040: 0000 0000 0000 0000 0000 0000 0000 0000
00000050: 482c 4c3e 0000 0000 0000 0000 0000 0000
00000060: 0000 0000 3a20 96bd 0000 0000 0000 0000
00000070: 0000 0000 0000 0000 657e 89bd 0000 0000
00000080: 0000 0000 0000 0000 0000 0000 7a7c 58be
00000090: 0000 0000 0000 0000 0000 0000 0000 0000
000000a0: 2c2f 093e 0000 0000 0000 0000 0000 0000
000000b0: 0000 0000
-0.09125799 0.0 0.0 0.0 0.0 0.12167924 0.0 0.0
0.0 0.0 0.28245488 0.0 0.0 0.0 0.0 -0.055785857
0.0 0.0 0.0 0.0 0.19938767 0.0 0.0 0.0
0.0 -0.073303655 0.0 0.0 0.0 0.0 -0.06713561 0.0
0.0 0.0 0.0 -0.21141234 0.0 0.0 0.0 0.0
0.13396901 0.0 0.0 0.0 0.0

transformer.layers.1.0.static_beta f4 [4]
00000000: 5d49 833f 66e6 7b3f 9863 963f 73b0 863f
1.0256764 0.98398435 1.1749144 1.0522598

transformer.layers.1.0.dynamic_beta_fn f4 [9]
00000000: f685 203f 3cca a53d 55a2 b4bd 6a76 b63d
00000010: dfd9 9c38 d7c8 723b 1905 9ebe 7f0c f73c
00000020: 1763 ab3c
0.6270441 0.08095214 -0.08820025 0.089093044 7.479241e-05 0.003704598 -0.30863264 0.030157326
0.020921273

transformer.layers.1.0.branch.norm.weight f4 [9]
00000000: 61a7 793f 3504 653f da02 863f c005 4e3f
00000010: 8dca 8c3f 229a 663f 2fe4 723f bc93 763f
00000020: 842b 653f
0.97521025 0.89459544 1.046962 0.80477524 1.0999314 0.9007894 0.9487943 0.96319175
0.89519525

transformer.layers.1.0.branch.norm.bias f4 [9]
00000000: 9afa 933d b0b9 bb3c 4117 30bd 7707 d43c
00000010: 4410 3abd c65b 963c 557d b1bb d1b9 7cbd
00000020: 5a0e b3bd
0.07225533 0.022915691 -0.042990927 0.025882466 -0.04542567 0.018354308 -0.005416552 -0.061700646
-0.08742972

transformer.layers.1.0.branch.to_qkv.weight f4 [192, 9]
00000000: fecd af3e ccd3 b7bd ad5c e2be b206 48be
00000010: b952 e83d 680e 54be d963 133e a7c9 943e
00000020: e0dd 41be 221e 7ebe d6b0 cc3d e842 cdbe
00000030: f642 cc3b 83cc f33d 0285 e8be b470 c63e
00000040: d0aa 6cbe 24da 073e d12e edbd 3409 70be
00000050: e916 3cbe 2368 13bd bc65 e5bb 485c ef3d
00000060: 2f54 b43c 952f 98be 9bce 31bc 8c24 68be
00000070: efc2 46bd 598d e9bc 8dbb a9bd dfad 543d
00000080: 5b2b 82be d346 69be 521c e5bd 3a57 3dbe
00000090: 998f 2abe 57ea 76be d4cf a93e 7625 9abe
000000a0: 5f46 e63e 7198 723e 8d30 90be ce65 8bbe
000000b0: 94f7 903e a0bb 7ebe bc50 9bbc 5a72 94be
000000c0: 034c d23d cac4 ddbb 049c 48be 8858 5b3e
000000d0: 09db 043e bd6b 95be 1fff aebe af09 c13e
000000e0: 3c4e b7bd dde4 a2be 424e 8d3e cf9f 82be
000000f0: 5897 94bd 97ee b9bd e453 57be 1b3e 3b3e
00000100: 7ba2 d93d 928c 143d 89ca 823e b8d3 953d
00000110: 0539 b83e 1c1c 11bf fadb d9be 8d95 86bd
00000120: 17ba 773e 34d1 8f3e 659f 003e 500b 4e3d
00000130: 1496 f6be 8fe9 54be 7008 113d 4f30 463e
00000140: cf8f 343d c3d4 8dbe 1359 0f3d 8d13 4d3e
00000150: 55e2 753d b47d 2c3d 38ef af3c 272b 343e
00000160: 702c 7bbe ef5d cd3d bcd2 05be cbe7 813c
00000170: b05c 0ebe 6ed2 90be 2d1e 00bf c6f4 9abd
00000180: 711f e0bd 1e79 6b3e 6124 03bd e7de 673e
00000190: d630 5ebd 48f2 d2bb c632 283e 1859 dabe
000001a0: 5a9e b53d 3432 c03c e06d 893e 0548 c53d
000001b0: 91cf d0be 804a 803e f1aa 333e 35e2 56be
000001c0: 3c62 9a3e f310 c5be 26b3 6a3d 87b2 073e
000001d0: d2a4 8cbc 9c1a 823d 3c14 b03e 4998 803e
000001e0: 7f12 2f3e 692b 623e 167d 00be 333f e3bd
000001f0: 2480 11be 858a 643e 7b00 8d3e 783b b0bd
00000200: 5f98 dfbd 36d0 97bd 7686 3e3e 7959 37be
00000210: 84bb 4ebd 36e1 02be 524a 993e 850b 2c3e
00000220: 8a69 133e 8047 e83e e030 9d3e c37e 8a3e
00000230: bb61 7e3e a16d cbbe 36ba 13be d592 5f3e
00000240: 5d89 99be 76a9 b23d d8b0 443e f3ab e93c
00000250: 8b52 683e 37ec d63d 244e 553e 380d 2c3e
00000260: 4e66 7a3e f196 35bd dbab 9b3d 4014 973e
00000270: ab97 3ebe f2c8 e33d e7c2 1abe e532 debe
00000280: 8aef a6bc 26d3 3f3e a9cb 2e3e 2910 25be
00000290: ad19 933e 263c e4bd 902f 84be 95c5 883e
000002a0: 1e66 cfbd 908c 243e ee73 cf3d c8d7 0abd
000002b0: ae4e da3c 8417 0abe 792c 7abb 63fa 6f3e
000002c0: 51aa 73bd e4be ffbe 236a 473d 6a1e 133e
000002d0: b6a9 93be 6a6b 24bf e597 5dbe d079 8aba
000002e0: b3eb a7bc 3864 89be ea70 933e 9daa 193f
000002f0: 3827 11bf 49c5 15bd 7fcf ce3d d65a 993c
00000300: 06da 083e b55c 30bf 8634 cabd c2ec dd3e
00000310: 07a2 3d3e d281 80be c7bd c8bd 270a 92be
00000320: 7dff 0fbe ac9f c33e f35a 253e 78e2 fc3c
00000330: 5eb6 513e 0b6a ad3e d7de 1a3e 8898 553d
00000340: acc5 2d3e e491 69bd b766 30be 8a20 823d
00000350: 62f3 3cbe 3dc0 b63e 7285 05bc a17e 413e
00000360: ca00 413e e6c2 933d ab28 c2bd 241f 5fbe
00000370: 9b72 e33e c50f 403e 6ca9 26bc 11d2 4cbe
00000380: 5764 e13d 86e1 c8be eb4e b23e e284 ae3e
00000390: fb7c 4cbe fd46 c93d 3f78 1bbe b909 8b3d
000003a0: 4abd 99be 284c 493e 56b7 49bc 8e36 303e
000003b0: 769e 7fbe ce4d 99be 4183 583e 34ca 753b
000003c0: 6ca7 ce3e 022c 27be 7716 1fbe 741e 953e
000003d0: 161c b239 4ed1 aebe 4844 e5bd e116 9dbe
000003e0: 758e 373e 2b96 433e 3810 f33e 92d9 d9be
000003f0: f1be a03e 369b e6bd f599 babe 3aad a33e
0.34336847 -0.08975944 -0.4421133 -0.19533804 0.11343903 -0.2070862 0.14393558 0.290601
-0.18932295 -0.24816182 0.09994666 -0.40090108 0.0062335683 0.11904242 -0.45413977 0.3875786
-0.23112035 0.13266808 -0.11581195 -0.2344101 -0.18368115 -0.035987984 -0.007000653 0.11687523
0.022012798 -0.29723802 -0.010852481 -0.22670192 -0.048525747 -0.028509783 -0.082877256 0.05192363
-0.25423703 -0.22780924 -0.11187042 -0.18490306 -0.1665634 -0.24112831 0.33166373 -0.30106705
0.44975564 0.23690964 -0.2816204 -0.27226108 0.28313887 -0.24876261 -0.018959396 -0.28993493
0.10268404 -0.006767844 -0.19590765 0.2142049 0.1297418 -0.2918376 -0.34179017 0.377027
-0.08950469 -0.31815234 0.27598768 -0.2551255 -0.07255429 -0.090787105 -0.21028095 0.1828541
0.10626694 0.03626687 0.25545147 0.07315773 0.35981002 -0.56683517 -0.4255064 -0.06571493
0.24192081 0.28089297 0.12560804 0.050303757 -0.48161376 -0.2079222 0.035408437 0.19354366
0.04408246 -0.27701387 0.034997057 0.2002699 0.0600303 0.042112067 0.021476373 0.17594586
-0.2452867 0.10027682 -0.1306867 0.015857598 -0.13902545 -0.28285545 -0.50046045 -0.07566218
-0.10943497 0.22995421 -0.032017116 0.22643624 -0.054245792 -0.0064375736 0.16425619 -0.42646098
0.08868094 0.023461439 0.2684164 0.09632877 -0.4078336 0.2505684 0.17545678 -0.20984729
0.30153072 -0.38489494 0.057299756 0.13251697 -0.017168436 0.063527316 0.34390438 0.25116184
0.170969 0.22086872 -0.12547716 -0.11096039 -0.14209038 0.22318466 0.2753943 -0.08605093
-0.10917734 -0.0741276 0.1860598 -0.17905225 -0.050471798 -0.12781224 0.29939514 0.1680127
0.14395729 0.4536705 0.3070135 0.27049837 0.24841969 -0.39732078 -0.14426503 0.21833356
-0.29987612 0.08723728 0.19208086 0.028524375 0.22687738 0.10494273 0.2083059 0.16801918
0.24453089 -0.044333402 0.07601138 0.29507637 -0.18612544 0.11122312 -0.15113412 -0.43398204
-0.020377893 0.1873289 0.17069878 -0.16119446 0.28730527 -0.11144285 -0.25817537 0.26713243
-0.10126899 0.16069245 0.10129534 -0.03389719 0.026648846 -0.13485533 -0.003817348 0.23435359
-0.0594886 -0.49950325 0.048685204 0.14367071 -0.28840417 -0.642264 -0.21639974 -0.0010564867
-0.020498132 -0.26834273 0.28797084 0.6002596 -0.5670047 -0.0365651 0.100981705 0.018720072
0.1336442 -0.6889146 -0.09873299 0.43344694 0.1851884 -0.25099045 -0.09801822 -0.2852337
-0.14062305 0.38207757 0.16147976 0.030869707 0.20479724 0.33869967 0.15124069 0.05214742
0.16969937 -0.057023898 -0.17226683 0.063538626 -0.18452218 0.3569354 -0.008149492 0.18895961
0.18847957 0.07214908 -0.09480413 -0.21789223 0.44423375 0.18756016 -0.010172229 -0.20002009
0.110054664 -0.3923456 0.34825835 0.34085757 -0.19969551 0.09827993 -0.15182589 0.06788964
-0.3002723 0.19657958 -0.012311777 0.17208311 -0.24962792 -0.29942173 0.2114382 0.0037504556
0.40362108 -0.16325381 -0.15535913 0.29124796 0.0003397173 -0.34144062 -0.11194664 -0.30681518
0.17925437 0.19100253 0.4747331 -0.42548805 0.31395677 -0.11260073 -0.36445585 0.319681

transformer.layers.1.0.branch.to_out.weight f4 [9, 64]
00000000: d105 7d3d 0953 4f3d e6f0 11bd 3514 3f3e
00000010: b6a4 033d de64 f63c 1ee5 16be adb5 cfbd
00000020: ac54 963d 6e9e a93d 7251 2fbc f28a 023e
00000030: e7e4 003e 3b4b 8dbd ca70 18be 3ebc e73d
00000040: ed31 05bd a916 b83c 9371 a03d 96c7 dfbc
00000050: cee3 443e 62ec c43b 2db8 c83d 7036 f03c
00000060: 82c5 33be 0487 86bd 78c0 06bd bd2c 333e
00000070: af1b b3bc 12d3 d23d 9436 80bc aa01 8ebd
00000080: 99c8 5dbd 045b 343d 1bd9 223d 477d a3bd
00000090: 66d1 b1bb 21da 6dbc 04d2 103e 2ae7 fcbb
000000a0: 1d6b 5cbd 726c 1b3d 5bd8 863d 2742 fcbc
000000b0: 77c1 693c d779 50bc 5406 49be 5823 703d
000000c0: 791e a5bc afba d2bd 294e 4e3e b465 4c3d
000000d0: 4d0c e5bd 10f3 54bc e088 c93d 0471 ea3d
000000e0: 37bd 263e a0d7 213e e1e9 46bb e749 d83d
000000f0: 1efc 6e3e ca47 dfbc 253b adbd cfa1 cbbc
00000100: 2fa2 3d3e 5661 de3c 9edb ad3d 25e6 28bd
00000110: 28bd ea3d 0c13 a53c dd53 103e 4a11 5c3d
00000120: 8fdb cabd 2adc a0bd 5e6e 283e 89e9 cabc
00000130: ba19 cdbd 5376 033e a466 90bb c262 3abe
00000140: 39c4 103e cbf6 383e f38c a83d 1db2 493e
00000150: 9752 f0bd e2d7 b4bd 5a65 aaba 8afb e13d
00000160: 7570 e63d 9cf9 a4bc fc0f 133e f79f feba
00000170: 7d3a d3bc 8594 66be 9089 ef3b 7c43 083e
00000180: d63b 893d 3d62 c33d f8cc 99bd 2f78 e53b
00000190: 1ec9 9e3c a45a 283d e177 123c 636b 33bd
000001a0: ab42 fd3c 85fc 54bd aa1c 1a3d d95d 073e
000001b0: 7227 bc3d 4250 0e3e 9d1c 083e ec2d 0cbd
000001c0: 9407 ccbd 3a90 f13d c4a2 debd e025 b93d
000001d0: c609 263d 2338 d2bd 53e1 a2bd 1591 99bd
000001e0: fc28 cbbd a9ed eebd 1082 89bc 9ef5 37bd
000001f0: 3d88 f4bd f24d a83d c923 b33d dfa3 033e
00000200: 6dcc d23d d229 f2bd 8b8e 09bd 5b53 70bd
00000210: 3789 9e3d 7034 c1bd 0f59 113e d235 61bb
00000220: fadd b5bd 14d6 87bd 1466 543e ad99 bcbd
00000230: 6b9b 3fbd ec7a 603e 2384 783e 8a10 c7bd
00000240: dbaa 9f3d 59c8 103d bf99 95bd ac11 2a3d
00000250: c000 adbd ad50 1fbe 6377 74be 42b4 97bc
00000260: ee60 0a3e cf42 7a3e 792c 283e 0211 19be
00000270: d7ee b0bd cda1 a4bc 1c0e 213e 4a23 ce3d
00000280: 12ee 2d3e cc7c 513c 7e72 17bd 7a75 883d
00000290: 554c 37bd 80c3 003d df38 aebd fc8c 0bbe
000002a0: fb15 473e 7b56 d1bd b157 a2bc 3f9b b83d
000002b0: d9fc 023d 655e 4b3d bde5 ca3d 9fa6 0ebe
000002c0: 6046 c7bd 89d3 b23d bd33 eabb c119 ea3d
000002d0: 6eca 4c3d 6965 11be 6b5e 0abe d963 dabd
000002e0: 754c 09be 6792 24bd 912b 4b3e 0f40 f0bd
000002f0: ed14 e0bd 10d4 633b e00c 88bd 3349 d33d
00000300: 0c7e 3e3d 9698 033d 2ba2 4cbc 0dee d4bc
00000310: bd7a 97bc 83a7 f13d f381 cc3d 7e30 163e
00000320: 475e d9bc c4ce 1ebe 91ec 353e 1a02 48be
00000330: adbf 29bd babd cd3d 2cf7 553e 3a22 4cbe
00000340: 4f33 723c 5d23 063e 2e55 c53d ef88 f83c
00000350: c5b7 93bd 010f 06be 0a18 61be b54a 4f3d
00000360: 365b 693d 6d93 083e 3a69 8d3d 211e 0bbd
00000370: 8325 9cbb 6382 a5bd a702 0ebb 53ce 083e
00000380: 8177 cb3d c29f 9abd 201f 623d 6044 84bd
00000390: e793 34bd 1424 a13d d762 9ebd 4c36 13be
000003a0: 73db bc3d 4dc0 9cbd 26bb b03c c003 883a
000003b0: ea50 b8bc 100c 803d 6b48 b23d 9e71 89bd
000003c0: 2a8a 35bd 5d92 163d 7c45 173d c256 2dbd
000003d0: 9591 0a3a aeea 29be 0b7e 3cbd fef8 3fbe
000003e0: a75f bbbd d14c 2cbe 4fe5 c33c 3e92 1c3c
000003f0: 9bc8 41bc 4703 ca3d 275f a4bd a779 543c
0.061773125 0.050616298 -0.03563013 0.18660052 0.032139502 0.030077394 -0.14735839 -0.10142074
0.07340369 0.08282171 -0.01070057 0.12748316 0.1258732 -0.06899115 -0.14886776 0.11315201
-0.032518316 0.022471743 0.078341626 -0.02731685 0.19227526 0.0060096243 0.09800754 0.029322833
-0.17555812 -0.06568721 -0.032898396 0.17497535 -0.021863787 0.10294165 -0.015651025 -0.06933911
-0.054146383 0.04403211 0.03975783 -0.07982879 -0.0054265736 -0.014517338 0.14142615 -0.0077179866
-0.05381309 0.03794522 0.06584235 -0.030793263 0.014267317 -0.012724361 -0.1963132 0.058627456
-0.020156132 -0.10289513 0.20147003 0.04990168 -0.11183987 -0.012997404 0.0984056 0.11447337
0.16283117 0.1580491 -0.0030351805 0.10560971 0.23338363 -0.027255911 -0.084585465 -0.02485743
0.185189 0.027146023 0.08489154 -0.041235108 0.1146186 0.020150684 0.14094491 0.053727426
-0.09905159 -0.07854493 0.16448352 -0.024769561 -0.100146726 0.12838106 -0.004406767 -0.18201736
0.14137353 0.18062894 0.08230009 0.19696851 -0.11734503 -0.08830239 -0.0013000176 0.110343054
0.11251918 -0.020138554 0.14361566 -0.0019426335 -0.025784725 -0.22517593 0.0073101 0.13306993
0.06700866 0.09540222 -0.07509798 0.0070028524 0.01938301 0.041102067 0.008939714 -0.043803584
0.030915579 -0.051998634 0.037624992 0.13219394 0.09187211 0.13897803 0.13292165 -0.034223482
-0.09962383 0.11795087 -0.10870889 0.09040427 0.040536664 -0.102646135 -0.079531334 -0.07498375
-0.099199265 -0.11666424 -0.016785651 -0.044911973 -0.11940048 0.08217992 0.0874706 0.1285548
0.102928974 -0.11824383 -0.033583205 -0.058673244 0.077410154 -0.0943383 0.1419413 -0.0034364355
-0.08880229 -0.06632629 0.20742065 -0.09208999 -0.046779078 0.21921891 0.24269156 -0.097199515
0.0779626 0.035347316 -0.07304715 0.04152076 -0.08447409 -0.15558119 -0.23873667 -0.01851857
0.13513538 0.24439548 0.16423215 -0.14947894 -0.08639305 -0.020096684 0.15728039 0.100653246
0.16985348 0.012786102 -0.036974423 0.06663032 -0.04475053 0.031436443 -0.08506941 -0.13628
0.19441979 -0.10221573 -0.019817205 0.09013986 0.031979416 0.04965057 0.099071 -0.13930748
-0.0973022 0.087317534 -0.007147281 0.114306934 0.04999774 -0.14198841 -0.1351258 -0.10663576
-0.13408072 -0.040178683 0.19840838 -0.11730968 -0.10941491 0.003476385 -0.06643081 0.10316696
0.046506926 0.03212794 -0.012489836 -0.025992418 -0.018491143 0.117995284 0.09985723 0.14666936
-0.026534213 -0.15508562 0.17766024 -0.19532052 -0.041442562 0.10045953 0.2089507 -0.19934931
0.014782741 0.13099428 0.09635387 0.030338733 -0.07212786 -0.13091661 -0.21981826 0.050608356
0.05697175 0.13337488 0.06904836 -0.03396428 -0.004765214 -0.0808151 -0.0021669061 0.13359956
0.09934903 -0.07550003 0.055205464 -0.06458354 -0.044086363 0.078682095 -0.07733696 -0.14376181
0.09221544 -0.07653866 0.021573614 0.0010377094 -0.02249952 0.06252301 0.08705219 -0.06711124
-0.044321217 0.036760677 0.0369315 -0.042319067 0.00052859756 -0.1659343 -0.04601864 -0.18747327
-0.091491036 -0.16826178 0.023913054 0.009556351 -0.011827613 0.09863906 -0.08025961 0.012968457

transformer.layers.1.0.norm.gamma f4 [9]
00000000: 82b6 843e 3d56 893c bd24 063e c1d8 203d
00000010: 7142 243e 4484 99bc 7130 d23d 27e6 0b3e
00000020: 3f44 b53d
0.25920492 0.016764754 0.13099952 0.039269213 0.1604097 -0.018739827 0.10263146 0.13662015
0.088509075
