trained_models/regular_training/model_FTTransformer_lr0.0001_8_1_4_4_.1_0.1_epoch200000.pt (torch, 99552 bytes, 87 tensors)

cls_token f4 [1, 1, 8]
0.118044116 1.2706863 -0.5979729 1.6841681 0.9668635 -0.07818268 1.0956818 0.95786786
00000000: 1dc1 f13d d9a5 a23f c114 19bf d292 d73f
00000010: 5e84 773f 3e1e a0bd 4d3f 8c3f d436 753f

categorical_embeds.weight f4 [3, 8]
-0.34019607 -2.5342035 0.643263 1.4076453 -0.037852004 1.1312182 -0.39798623 1.5298178
-1.6380407 -0.32988808 2.1061144 -1.0177933 -0.042496175 -1.1461704 -1.3709855 -0.03362057
1.3136464 -0.32817417 0.5190075 -0.57920957 -0.7738153 0.13665284 -0.09090291 0.08414112
00000000: 2e2e aebe 6430 22c0 e2ac 243f b92d b43f
00000010: b40a 1bbd c2cb 903f dac4 cbbe 12d1 c33f
00000020: 51ab d1bf 17e7 a8be 94ca 0640 0d47 82bf
00000030: 7810 2ebd b6b5 92bf 747c afbf b9b5 09bd
00000040: 9125 a83f 7206 a8be addd 043f 1447 14bf
00000050: c218 46bf b9ee 0b3e 4e2b babd 2e52 ac3d

numerical_embedder.weights f4 [8, 8]
1.3836788 -1.8790872 -0.073136486 -0.56024444 -0.36197314 -0.6195104 -1.0476872 0.6393815
0.39339083 1.276728 -1.1236666 -0.6829317 -0.7124206 -0.8348134 0.6549952 -0.80803823
1.2883826 0.39359584 -1.1706482 1.0306439 1.8692551 0.46523562 1.4156331 1.8563927
1.2949485 -0.16011253 1.3607955 1.0639004 0.37247923 0.6454569 0.68066114 0.3984391
-0.9990187 0.37762 0.023747286 -1.2541351 -1.3471401 0.9822928 1.1070412 2.1134353
-0.15617846 -0.18141788 -0.17642957 -0.2416229 -0.50835633 0.3675993 -0.059810907 -0.63268554
1.4190418 -0.34209257 0.92183745 -0.90646607 0.8080769 0.15111597 1.0991758 1.7085271
-0.21596146 -1.3100551 0.7123827 0.5251158 0.8278205 -0.4806527 0.96636814 0.2390186
00000000: 631c b13f ee85 f0bf 95c8 95bd 2e6c 0fbf
00000010: 8b54 b9be 3c98 1ebf 9d1a 86bf 82ae 233f
00000020: 866a c93e d36b a33f 4fd4 8fbf 9dd4 2ebf
00000030: 3261 36bf 55b6 55bf c4ad 273f 98db 4ebf
00000040: b9e9 a43f 6585 c93e cdd7 95bf 24ec 833f
00000050: c043 ef3f 5d33 ee3e 7733 b53f 479e ed3f
00000060: dfc0 a53f 8af4 23be 8c2e ae3f e32d 883f
00000070: 99b5 be3e aa3c 253f cf3f 2e3f 3600 cc3e
00000080: b1bf 7fbf 6957 c13e ab89 c23c 8087 a0bf
00000090: 166f acbf 8a77 7b3f 87b3 8d3f 8642 0740
000000a0: 3fed 1fbe 9cc5 39be f4a9 34be fe6b 77be
000000b0: a423 02bf fa35 bc3e 48fc 74bd aef7 21bf
000000c0: 29a3 b53f c226 afbe 8afd 6b3f 290e 68bf
000000d0: 21de 4e3f 25be 1a3e cbb1 8c3f 04b1 da3f
000000e0: 0025 5dbe e3af a7bf b65e 363f fd6d 063f
000000f0: 0bec 533f 1c18 f6be e763 773f 4bc1 743e

numerical_embedder.biases f4 [8, 8]
-0.1399997 0.4592638 0.6233498 1.6134231 0.44175577 2.450836 0.19404215 0.5740748
1.6858709 -1.5040467 0.7363294 -0.3677348 -1.0604566 0.25846526 0.90325445 -0.0336014
-0.65676284 -1.1271735 1.2330753 0.18467957 1.2428606 -0.5704249 1.2101982 1.103499
0.09620795 1.5636984 1.2059199 -1.0278603 0.24489418 -0.1908071 -1.8685914 0.70551765
-1.2712379 0.06601956 1.3143009 -0.1748416 0.5517438 -1.5758092 0.6327417 -0.6838525
0.25675145 0.21970089 1.0304793 -0.7591162 0.79107535 -1.4815508 0.7752767 -0.6429882
-0.050122824 0.7156723 0.5869493 -0.344394 -1.5288161 0.9789515 0.1571525 -0.7942243
0.042269632 1.5779916 -0.36483714 -0.13368712 -0.7082848 0.82093066 -0.8628885 0.24203448
00000000: 155c 0fbe a024 eb3e da93 1f3f a684 ce3f
00000010: d02d e23e 7fda 1c40 fcb2 463e 91f6 123f
00000020: 9eca d73f 9a84 c0bf 1580 3c3f bc47 bcbe
00000030: 0bbd 87bf 8f55 843e af3b 673f 9fa1 09bd
00000040: 9c21 28bf 3947 90bf 69d5 9d3f a41c 3d3e
00000050: 0e16 9f3f 5e07 12bf c6e7 9a3f 753f 8d3f
00000060: ac08 c53d 4527 c83f 955b 9a3f ed90 83bf
00000070: 8ac5 7a3e f062 43be 012e efbf ce9c 343f
00000080: ecb7 a2bf 4335 873d 033b a83f ad09 33be
00000090: 153f 0d3f 1eb4 c9bf 5cfb 213f f510 2fbf
000000a0: ed74 833e 45f9 603e bfe6 833f 7055 42bf
000000b0: ea83 4a3f 75a3 bdbf 8978 463f e09a 24bf
000000c0: 974d 4dbd 4d36 373f 4f42 163f 6954 b0be
000000d0: 3fb0 c3bf 919c 7a3f 96ec 203e 4952 4bbf
000000e0: ec22 2d3d a1fb c93f efcb babe 47e5 08be
000000f0: 2752 35bf 8328 523f 43e6 5cbf e3d7 773e

transformer.layers.0.0.static_alpha f4 [4, 5]
0.3465165 1.0 0.0 0.0 0.0 1.3465154 0.0 1.0
0.0 0.0 0.3465165 0.0 0.0 1.0 0.0 0.3465165
0.0 0.0 0.0 1.0
00000000: 9c6a b13e 0000 803f 0000 0000 0000 0000
00000010: 0000 0000 9e5a ac3f 0000 0000 0000 803f
00000020: 0000 0000 0000 0000 9c6a b13e 0000 0000
00000030: 0000 0000 0000 803f 0000 0000 9c6a b13e
00000040: 0000 0000 0000 0000 0000 0000 0000 803f

transformer.layers.0.0.dynamic_alpha_fn f4 [8, 5]
-0.12809265 0.0 0.0 0.0 0.0 0.06522397 0.0 0.0
0.0 0.0 0.22234026 0.0 0.0 0.0 0.0 0.2608594
0.0 0.0 0.0 0.0 0.21562386 0.0 0.0 0.0
0.0 0.34666097 0.0 0.0 0.0 0.0 0.26266268 0.0
0.0 0.0 0.0 0.34706783 0.0 0.0 0.0 0.0
00000000: b82a 03be 0000 0000 0000 0000 0000 0000
00000010: 0000 0000 2594 853d 0000 0000 0000 0000
00000020: 0000 0000 0000 0000 2aad 633e 0000 0000
00000030: 0000 0000 0000 0000 0000 0000 5d8f 853e
00000040: 0000 0000 0000 0000 0000 0000 0000 0000
00000050: 80cc 5c3e 0000 0000 0000 0000 0000 0000
00000060: 0000 0000 8c7d b13e 0000 0000 0000 0000
00000070: 0000 0000 0000 0000 b97b 863e 0000 0000
00000080: 0000 0000 0000 0000 0000 0000 e0b2 b13e
00000090: 0000 0000 0000 0000 0000 0000 0000 0000

transformer.layers.0.0.static_beta f4 [4]
0.96885043 1.0285338 1.1561017 0.9763994
00000000: 9506 783f ffa6 833f 24fb 933f 50f5 793f

transformer.layers.0.0.dynamic_beta_fn f4 [8]
-0.20708369 -0.07068468 0.16641283 -0.070515536 -0.03586668 -0.3808015 -0.019516109 -0.048671413
00000000: bf0d 54be 21c3 90bd 2068 2a3e 736a 90bd
00000010: f1e8 12bd 6af8 c2be 3fe0 9fbc ad5b 47bd

transformer.layers.0.0.branch.norm.weight f4 [8]
0.9568795 0.8234505 0.8531761 1.023605 0.87304294 1.1286848 1.0783278 1.0440693
00000000: 0ef6 743f a7cd 523f c069 5a3f 7d05 833f
00000010: be7f 5f3f be78 903f a506 8a3f 10a4 853f

transformer.layers.0.0.branch.norm.bias f4 [8]
-0.025374817 0.057697855 -0.084966354 0.022192078 0.11180994 -0.06607468 0.0856558 -0.008137572
00000000: d9de cfbc 9654 6c3d d702 aebd 29cc b53c
00000010: 9cfc e43d 2952 87bd 4f6c af3d 7353 05bc

transformer.layers.0.0.branch.to_qkv.weight f4 [192, 8]
0.23244625 0.062089045 0.049867153 0.045291506 -0.36584964 -0.063673444 0.20461883 -0.31853792
0.2785031 -0.22148569 -0.004483844 -0.19810922 -0.05319309 0.24723735 -0.1997767 -0.17988427
-0.32548836 0.15164626 0.28271362 0.1955078 -0.13275681 0.2356907 0.22704643 0.15265624
0.18542084 0.1473497 -0.22041224 -0.2142403 -0.23433957 0.35156015 -0.4097127 -0.019560898
-0.18113679 0.50530845 -0.18471415 0.1518848 -0.038044974 -0.41308624 0.16177146 0.026940815
-0.31986097 0.17560986 -0.15415734 0.31709653 0.24866822 0.13079439 0.50356585 0.032922972
-0.30747414 0.3719196 -0.09354973 -0.14403166 -0.048527427 -0.039736904 0.27582172 0.32689673
0.4439782 -0.16483591 0.37261787 -0.21946475 -0.08350385 0.53528357 -0.3605285 -0.35895914
-0.35458627 -0.3569171 0.22344534 0.30465096 0.08234153 -0.21877514 0.05508159 0.041707966
-0.034329224 0.6803606 -0.2840164 0.38883054 0.2630756 -0.30908516 0.41191188 0.059228193
0.35436165 -0.19025469 -0.018004498 -0.37917826 -0.33419868 0.2956403 0.0039768214 -0.36509517
-0.20274845 -0.060679395 0.338309 0.11832778 -0.16636921 0.19424947 -0.17930962 -0.13803504
0.06467219 0.16833395 -0.5313788 0.25041372 0.21844096 -0.16331747 0.012822264 0.11173197
-0.38562036 0.3057089 -0.19995052 0.047103297 0.1609204 0.20507327 0.37758207 0.12601112
0.3235623 -0.08975481 -0.09931636 -0.3791693 -0.28892696 -0.13376315 -0.33322412 -0.2399725
0.034571826 -0.07037693 0.19154076 -0.14757147 0.20523661 -0.24802616 0.1639601 -0.024464179
0.030487662 0.16638447 0.2495895 -0.17833854 -0.19267085 0.29189643 0.20341554 -0.25059316
-0.36748362 -0.09586354 0.036547087 -0.11184423 0.018936262 -0.34213492 -0.032664362 0.055731088
-0.03193746 0.50224984 -0.16345507 -0.12092633 -0.13019677 -0.22842129 -0.1807648 0.31934196
0.20342408 -0.10420826 -0.3259234 0.40276474 -0.071170025 0.088828914 -0.19949281 0.13588433
-0.2385387 -0.20940804 0.14040887 0.03899222 0.28376377 -0.20756328 0.110524006 0.026476063
0.14162877 0.11708785 -0.030421073 0.18960981 -0.46328068 0.2742039 0.07762494 0.040205516
-0.18925081 0.23517969 -0.2015426 0.3816389 0.07740228 -0.18032329 -0.00651196 -0.014649034
0.06916147 0.18624575 0.28107807 -0.3731621 -0.24687882 0.27751154 -0.17324269 -0.07687443
-0.32235909 0.3722698 0.2561036 0.119646326 -0.040184226 -0.009533498 0.22168227 -0.112680905
-0.30374396 -0.16137059 0.113931425 -0.15231821 -0.19799925 -0.16823265 -0.08987169 0.33092105
-0.3381397 -0.11740115 -0.2519791 0.21252118 0.06749079 -0.08132518 -0.20617151 0.2056089
-0.059345115 -0.3585347 0.2524246 -0.27445108 0.007917601 -0.074590534 -0.3113058 -0.3507601
-0.027928209 0.25801954 -0.25492203 -0.04776542 -0.0029392883 -0.07024273 0.44158193 0.14980265
0.07152323 -0.4292481 -0.120164104 -0.32630444 -0.050475273 0.27918085 -0.33896965 -0.25612676
-0.07382496 0.30735075 -0.20520405 0.48008534 0.2630118 -0.48877618 -0.0050130063 -0.06768478
-0.1668549 -0.30286586 0.053174444 -0.04406136 0.08277941 -0.013289733 -0.1786545 0.31842136
00000000: 6406 6e3e 1551 7e3d 8041 4c3d 9683 393d
00000010: a550 bbbe 3967 82bd 9987 513e 6717 a3be
00000020: f597 8e3e 25cd 62be 36ed 92bb 25dd 4abe
00000030: ffe0 59bd ca2b 7d3e 4392 4cbe 9533 38be
00000040: 69a6 a6be 2849 1b3e d7bf 903e 3233 483e
00000050: 67f1 07be e758 713e dc7e 683e eb51 1c3e
00000060: f6de 3d3e d7e2 163e bfb3 61be cf61 5bbe
00000070: b6f6 6fbe b1ff b33e ddc5 d1be 2d3e a0bc
00000080: ec7b 39be e55b 013f b525 3dbe b087 1b3e
00000090: 0cd5 1bbd 0a80 d3be 6ba7 253e fcb2 dc3c
000000a0: d1c4 a3be 12d3 333e 6cdb 1dbe 7a5a a23e
000000b0: e2a2 7e3e f7ee 053e b1e9 003f 3dda 063d
000000c0: 406d 9dbe 3f6c be3e 0097 bfbd 097d 13be
000000d0: b2c4 46bd 2ac3 22bd 8138 8d3e 025f a73e
000000e0: 1c51 e33e bfca 28be c5c7 be3e 5ebb 60be
000000f0: 1104 abbd 5808 093f 3197 b8be 7ec9 b7be
00000100: 558c b5be d7bd b6be dbce 643e 36fb 9b3e
00000110: ada2 a83d 9706 60be 3c9d 613d f9d5 2a3d
00000120: cd9c 0cbd 1d2c 2e3f 996a 91be cc14 c73e
00000130: d8b1 863e 6940 9ebe 1de6 d23e 4399 723d
00000140: e46e b53e 20d2 42be 2b7e 93bc a723 c2be
00000150: 171c abbe 2a5e 973e ff4f 823b c1ed babe
00000160: 4a9d 4fbe f58a 78bd d636 ad3e d655 f23d
00000170: b15c 2abe 55e9 463e f19c 37be 0f59 0dbe
00000180: da72 843d bc5f 2c3e 7108 08bf 3a36 803e
00000190: fdae 5f3e b23c 27be 7914 523c bbd3 e43d
000001a0: 0870 c5be e085 9c3e d4bf 4cbe 63ef 403d
000001b0: 51c8 243e bafe 513e 7052 c13e 0f09 013e
000001c0: f5a9 a53e 5fd1 b7bd 6066 cbbd 7a22 c2be
000001d0: 3cee 93be 35f9 08be 5a9c aabe 5abb 75be
000001e0: 309b 0d3d c821 90bd 4323 443e fa1c 17be
000001f0: 8c29 523e 92fa 7dbe 28e5 273e 1a69 c8bc
00000200: 43c1 f93c b160 2a3e 6494 7f3e 619e 36be
00000210: 824b 45be 7373 953e 2a4c 503e bf4d 80be
00000220: d026 bcbe 1b54 c4bd 66b2 153d 960e e5bd
00000230: 3820 9b3c 4f2c afbe 11cb 05bd 4846 643d
00000240: dbd0 02bd 7293 003f c460 27be 39a8 f7bd
00000250: 4d52 05be 45e7 69be 681a 39be ca80 a33e
00000260: 674e 503e 246b d5bd 6fdf a6be 2e37 ce3e
00000270: 97c1 91bd efeb b53d d847 4cbe 4325 0b3e
00000280: 7d43 74be 106f 56be 58c7 0f3e 4eb6 1f3d
00000290: 7c49 913e 788b 54be 695a e23d 54e4 d83c
000002a0: 2207 113e c1cb ef3d 9d35 f9bc 1329 423e
000002b0: 2033 edbe 7464 8c3e d3f9 9e3d 8aae 243d
000002c0: f7ca 41be f2d2 703e 2f61 4ebe 2d66 c33e
000002d0: 1685 9e3d aba6 38be 4862 d5bb 8002 70bc
000002e0: 87a4 8d3d 35b7 3e3e 77e9 8f3e 1a0f bfbe
000002f0: cdcd 7cbe fe15 8e3e 8866 31be 5770 9dbd
00000300: 400c a5be 269a be3e 0320 833e 2209 f53d
00000310: 3798 24bd 6432 1cbc ad00 633e 3fc5 e6bd
00000320: 5484 9bbe 553e 25be e154 e93d 4ef9 1bbe
00000330: 51c0 4abe 2e45 2cbe a60e b8bd 7c6e a93e
00000340: a620 adbe 0470 f0bd 6803 81be 279f 593e
00000350: 9c38 8a3d d18d a6bd a01e 53be 248b 523e
00000360: dd13 73bd dc91 b7be cc3d 813e da84 8cbe
00000370: d3b8 013c ecc2 98bd 7963 9fbe d496 b3be
00000380: b3c9 e4bc 231b 843e 2485 82be aca5 43bd
00000390: 13a1 40bb 6cdb 8fbd 0717 e23e de65 193e
000003a0: c57a 923d 68c6 dbbe 9918 f6bd 6011 a7be
000003b0: 29bf 4ebd cbf0 8e3e 6e8d adbe 0c23 83be
000003c0: 8a31 97bd 145d 9d3e 0321 52be bfcd f53e
000003d0: 7ca9 863e df40 fabe 2544 a4bb 519e 8abd
000003e0: 03dc 2abe 3c11 9bbe 72cd 593d af79 34bd
000003f0: 4088 a93d 2ebd 59bc 35f1 36be 2008 a33e

transformer.layers.0.0.branch.to_out.weight f4 [8, 64]
-0.08016522 -0.15600505 -0.0035411867 -0.0800096 0.14636977 0.15962544 0.1053008 -0.0013366269
-0.08486616 0.15743977 0.0163608 -0.07525174 -0.03816652 0.0047555445 -0.06806045 -0.00040378261
-0.019015484 0.01354679 -0.16319227 0.032805264 0.12819538 -0.108726054 -0.021306181 -0.27080083
-0.03669081 -0.15909916 0.16882282 0.08860621 -0.22223543 0.03398351 0.20276546 0.035728905
-0.14634062 -0.12639973 0.049270704 -0.017710801 0.082524285 0.06735937 0.16389687 0.054913133
0.08990749 -0.11753328 0.032718513 0.054983407 -0.14505039 -0.11292726 -0.042803198 -0.104451
-0.20334628 -0.16496882 -0.037500948 -0.00047973896 0.007134229 0.011428535 -0.09197402 0.064411245
0.072580434 -0.059870232 -0.09653449 0.03396598 -0.023772381 -0.034664314 0.04619167 -0.03951474
0.056766246 0.09861597 -0.17284255 0.1342669 0.009840185 -0.18592891 -0.27500397 -0.094073355
-0.09982277 -0.018850153 0.16503412 -0.11967542 0.046238873 -0.08347973 0.11823814 0.16693023
-0.019890253 -0.08860914 -0.14510953 -0.06838856 -0.027766827 -0.11078997 -0.16107225 0.24507317
-0.02966602 0.20504345 0.1282124 -0.046148043 0.12055909 0.05208027 -0.20482698 0.07544294
0.14662367 0.26110104 0.15516078 -0.064482406 0.04066938 -0.09806711 -0.1152433 0.09718954
-0.2385193 0.017010126 -0.1404592 0.17077133 -0.054469537 -0.027050272 -0.23184398 0.1555631
0.018662946 0.20741904 -0.12330578 0.18937197 -0.2095626 0.21570833 0.19940938 -0.20855214
-0.22518075 -0.12313101 0.12857258 -0.17332372 -0.12610577 0.21327144 0.07527956 -0.06556591
0.05317176 0.06481862 -0.068564154 -0.08734249 -0.23001783 -0.14437588 -0.1050483 -0.012017255
0.04334845 -0.06431809 -0.05773444 0.09786922 0.05291794 -0.13938814 0.13311067 0.08812843
-0.0661219 0.086378746 0.18575461 -0.03631528 -0.034979187 0.06872292 0.03717248 0.2529061
-0.10313395 0.19243336 -0.12513332 0.05922654 0.027371937 -0.14024451 -0.12813172 -0.0071029896
0.110860325 0.26215026 -0.02981385 -0.038898136 0.05827121 -0.1352049 -0.08098675 -0.11037561
0.17791043 0.227388 -0.003633014 -0.03727254 0.00957312 0.10452867 0.027111925 0.056115247
0.069593996 0.31763563 0.01529013 -0.026660003 0.043475736 -0.070016235 0.107383326 0.16408712
0.034370504 0.020601835 0.06546179 -0.009136856 0.03757853 0.0974434 -0.013420265 0.087667175
-0.12664367 -0.10251296 -0.027841104 0.011426042 0.031131597 0.06836195 0.15570366 0.18437022
0.08184505 0.019063685 0.020314893 -0.12242155 -0.19566226 0.055852782 0.064261496 -0.10265063
0.07457962 0.0953593 0.035417147 -0.024442604 0.053004242 0.11687505 0.026661247 0.013110099
0.018346649 -0.12537502 0.029753858 -0.046586286 -0.11652788 0.05532813 0.06309171 -0.09573454
0.03451339 -0.03646656 0.01886274 -0.08854372 0.03762132 -0.07388042 0.13091317 -0.124876305
-0.035147898 -0.12152898 0.06275145 0.13926269 -0.10148956 -0.07771216 0.049820147 -0.03921936
-0.006888353 -0.1963443 0.12765588 -0.076486796 -0.021177504 -0.110831186 -0.0017052647 0.047316577
-0.04150932 -0.044891026 -0.08871124 0.008830212 0.055238865 0.044745926 -0.011702386 0.08378387
00000000: aa2d a4bd cabf 1fbe 4113 68bb 13dc a3bd
00000010: f5e1 153e da74 233e f2a7 d73d c231 afba
00000020: 4fce adbd e437 213e 1607 863c 961d 9abd
00000030: 7f54 1cbd 66d4 9b3b 4763 8bbd c9b2 d3b9
00000040: 5cc6 9bbc 5bf3 5d3c e01b 27be d05e 063d
00000050: a645 033e c4ab debd 4d8a aebc 68a6 8abe
00000060: 1a49 16bd e4ea 22be e4df 2c3e 2c77 b53d
00000070: af91 63be 4b32 0b3d c0a1 4f3e 7958 123d
00000080: 51da 15be ee6e 01be 14d0 493d 3e16 91bc
00000090: 7e02 a93d b6f3 893d 95d4 273e 98ec 603d
000000a0: 6b21 b83d 4ab5 f0bd d903 063d 4836 613d
000000b0: 1788 14be 6846 e7bd 6852 2fbd 68ea d5bd
000000c0: 023a 50be 96ed 28be 989a 19bd 7985 fbb9
000000d0: 40c6 e93b c03e 3b3c e05c bcbd 0bea 833d
000000e0: 0da5 943d 7d3a 75bd e0b3 c5bd e91f 0b3d
000000f0: 4cbe c2bc 2bfc 0dbd 7a33 3d3d 35da 21bd
00000100: b983 683d 2bf7 c93d a3fd 30be 437d 093e
00000110: ba38 213c 2664 3ebe 52cd 8cbe 88a9 c0bd
00000120: e16f ccbd a36b 9abc b4fe 283e 6318 f5bd
00000130: f964 3d3d 6cf7 aabd d726 f23d c2ef 2a3e
00000140: e2f0 a2bc b578 b5bd 9897 14be 4d0f 8cbd
00000150: 4277 e3bc dae5 e2bd 20f0 24be 76f4 7a3e
00000160: 2706 f3bc e9f6 513e 1d4a 033e bb05 3dbd
00000170: afe7 f63d 1f52 553d 2abe 51be d481 9a3d
00000180: 8424 163e 09af 853e 78e2 1e3e 5a0f 84bd
00000190: f094 263d 69d7 c8bd ae04 ecbd 4f0b c73d
000001a0: 673e 74be d258 8b3c 89d4 0fbe aede 2e3e
000001b0: 731b 5fbd 8898 ddbc 8268 6dbe ef4b 1f3e
000001c0: 09e3 983c a865 543e be87 fcbd baea 413e
000001d0: 9497 56be a5e2 5c3e f931 4c3e b18e 55be
000001e0: c895 66be 1c2c fcbd 88a8 033e c67b 31be
000001f0: df21 01be d463 5a3e 2c2c 9a3d 6b47 86bd
00000200: a2ca 593d a0bf 843d 5d6b 8cbd 9fe0 b2bd
00000210: cb89 6bbe 45d7 13be 9023 d7bd 05e4 44bc
00000220: 258e 313d 34b9 83bd f37a 6cbd a86f c83d
00000230: 7bc0 583d c4bb 0ebe 2a4e 083e ae7c b43d
00000240: eb6a 87bd 57e7 b03d 7536 3e3e 55bf 14bd
00000250: 5646 0fbd 9abe 8c3d 2c42 183d e97c 813e
00000260: e437 d3bd 400d 453e f322 00be 8797 723d
00000270: 1d3b e03c 429c 0fbe f634 03be 32c0 e8bb
00000280: bd0a e33d 8f38 863e 2d3c f4bc a753 1fbd
00000290: cbad 6e3d 2773 0abe 62dc a5bd 9c0c e2bd
000002a0: 272e 363e 66d8 683e dc17 6ebb 17ab 18bd
000002b0: 93d8 1c3c 2113 d63d d419 de3c 1ad9 653d
000002c0: 4c87 8e3d 23a1 a23e 7483 7a3c 1466 dabc
000002d0: 9d13 323d ac64 8fbd caeb db3d 7406 283e
000002e0: 16c8 0c3d 2ec5 a83c d510 863d c0b2 15bc
000002f0: f2eb 193d 6890 c73d ace0 5bbc d98a b33d
00000300: e1ae 01be 51f2 d1bd 0713 e4bc 4b34 3b3c
00000310: b107 ff3c 5a01 8c3d c870 1f3e 8ccb 3c3e
00000320: 619e a73d 722b 9c3c 6b6b a63c 26b8 fabd
00000330: b05b 48be e3c5 643d 889b 833d 7e3a d2bd
00000340: 33bd 983d bd4b c33d 9211 113d db3b c8bc
00000350: fa1a 593d 305c ef3d b068 da3c becb 563c
00000360: b64b 963c 4f62 00be 5dbe f33c 43d1 3ebd
00000370: 2ba6 eebd c09f 623d 3a36 813d 7810 c4bd
00000380: ea5d 0d3d f65d 15bd 0886 9a3c 6956 b5bd
00000390: d018 1a3d 9e4e 97bd 1a0e 063e 26bf ffbd
000003a0: 3ef7 0fbd 30e4 f8bd d583 803d e19a 0e3e
000003b0: c2d9 cfbd 8e27 9fbd 3610 4c3d 7ba4 20bd
000003c0: b1b7 e1bb 7b0e 49be 39b8 023e 1ca5 9cbd
000003d0: 727c adbc 76fb e2bd 3083 dfba 07cf 413d
000003e0: ad05 2abd a7df 37bd 3dae b5bd 98ac 103c
000003f0: 2642 623d 8147 373d 5dbb 3fbc e196 ab3d

transformer.layers.0.0.norm.gamma f4 [8]
0.25076276 0.08246475 0.24909121 0.10462248 0.035225734 0.4178315 -0.0037151806 0.06494795
00000000: fa63 803e 47e3 a83d c411 7f3e 5044 d63d
00000010: dc48 103d 03ee d53e 637a 73bb 6e03 853d

transformer.layers.0.1.static_alpha f4 [4, 5]
0.80318004 1.0 0.0 0.0 0.0 0.13446863 0.0 1.0
0.0 0.0 0.16159108 0.0 0.0 1.0 0.0 -0.12866102
0.0 0.0 0.0 1.0
00000000: 359d 4d3f 0000 803f 0000 0000 0000 0000
00000010: 0000 0000 25b2 093e 0000 0000 0000 803f
00000020: 0000 0000 0000 0000 2278 253e 0000 0000
00000030: 0000 0000 0000 803f 0000 0000 b7bf 03be
00000040: 0000 0000 0000 0000 0000 0000 0000 803f

transformer.layers.0.1.dynamic_alpha_fn f4 [8, 5]
-0.030155322 0.0 0.0 0.0 0.0 0.08848805 0.0 0.0
0.0 0.0 -0.030910926 0.0 0.0 0.0 0.0 0.24756359
0.0 0.0 0.0 0.0 0.24838376 0.0 0.0 0.0
0.0 -0.1270722 0.0 0.0 0.0 0.0 0.28701073 0.0
0.0 0.0 0.0 0.13224837 0.0 0.0 0.0 0.0
00000000: 4b08 f7bc 0000 0000 0000 0000 0000 0000
00000010: 0000 0000 3939 b53d 0000 0000 0000 0000
00000020: 0000 0000 0000 0000 e938 fdbc 0000 0000
00000030: 0000 0000 0000 0000 0000 0000 4f81 7d3e
00000040: 0000 0000 0000 0000 0000 0000 0000 0000
00000050: 5058 7e3e 0000 0000 0000 0000 0000 0000
00000060: 0000 0000 371f 02be 0000 0000 0000 0000
00000070: 0000 0000 0000 0000 12f3 923e 0000 0000
00000080: 0000 0000 0000 0000 0000 0000 1e6c 073e
00000090: 0000 0000 0000 0000 0000 0000 0000 0000

transformer.layers.0.1.static_beta f4 [4]
0.89748937 1.0417184 1.1655519 0.9459991
00000000: ddc1 653f 0757 853f ce30 953f ff2c 723f

transformer.layers.0.1.dynamic_beta_fn f4 [8]
-0.012060787 -0.017065452 0.2342141 0.022720069 0.015020214 -0.052172866 0.05572823 0.036782715
00000000: 9b9a 45bc d9cc 8bbc d2d5 6f3e 701f ba3c
00000010: 5817 763c 37b3 55bd 4943 643d 79a9 163d

transformer.layers.0.1.branch.0.weight f4 [8]
1.037768 1.2432716 1.0885842 0.94466287 1.1269583 1.0214484 1.0519267 1.0541042
00000000: 95d5 843f 8623 9f3f ba56 8b3f 6dd5 713f
00000010: 2b40 903f d2be 823f 89a5 863f e3ec 863f

transformer.layers.0.1.branch.0.bias f4 [8]
0.03181212 0.0070411786 0.09697495 -0.06979512 -0.037930682 0.0072573284 0.070921324 0.020919768
00000000: 6d4d 023d b0b9 e63b cd9a c63d bef0 8ebd
00000010: 345d 1bbd e2ce ed3b 333f 913d ef5f ab3c

transformer.layers.0.1.branch.1.weight f4 [64, 8]
-0.45718357 0.32109421 0.06654906 0.14567505 0.20716158 0.093441725 -0.07494697 0.15808214
0.012350054 -0.009890809 0.042232357 0.2831405 0.28725106 -0.00840806 -0.14429815 0.50002813
-0.17962405 0.29487106 0.1484307 0.028921535 0.44310585 -0.3290414 -0.18025133 0.1600495
-0.14610621 0.17561144 0.10288539 -0.022976736 -0.39706075 -0.072174765 -0.0010782426 0.33181858
0.093536295 -0.20680754 -0.34373313 0.39578938 -0.4578472 -0.32374027 0.20944609 0.30989748
0.22996297 -0.17919229 -0.23707597 0.08495127 0.21915224 0.112255126 -0.20509037 0.041830834
0.21056777 0.07150789 0.37443113 -0.23140179 0.26911467 0.09784172 -0.5395211 -0.40549248
-0.08943 0.39450288 0.12484324 -0.048496243 0.1422065 0.330211 0.23484243 0.1538548
0.14566894 -0.2693322 0.047858555 0.090131946 -0.35967192 0.040000558 -0.07429433 -0.11451187
-0.1994917 0.46524507 -0.27974263 0.14382721 0.18225239 0.024819184 -0.32744104 0.120635964
0.24194501 0.47641864 -0.42691717 -0.31825587 -0.34654242 0.20605795 -0.033284727 0.07311363
0.0012954378 -0.54180604 0.38125408 0.28119224 -0.37474632 0.0023026802 -0.23846391 -0.100390084
0.3705645 -0.74538255 -0.031965833 0.09629716 -0.408656 -0.047583487 0.2449408 -0.029705815
-0.19330823 0.19564146 -0.4553352 -0.07196022 -0.29050177 -0.43021077 0.09036543 -0.19654153
0.3473835 -0.3512537 0.4446934 -0.0741602 -0.34744543 -0.27013606 0.35146514 -0.09884906
-0.19289295 -0.014141136 0.41174307 0.122345135 -0.09000073 -0.24714102 -0.1072989 0.07086684
0.22894348 0.35725296 0.084783316 -0.2446789 -0.08090385 0.00045026786 0.27773398 0.29151285
0.059260625 -0.26981527 -0.31696883 -0.32289532 -0.28844148 0.35231066 0.12054692 -0.15099248
-0.08063143 0.045917187 -0.45495376 0.1855511 0.25406182 0.0033808406 -0.35747287 -0.04888224
0.052110475 -0.2172371 -0.09940327 0.06921759 -0.22616428 0.3033349 -0.36986962 -0.10623068
-0.06092632 -0.47068718 0.13496552 -0.07005031 0.02408828 0.052450757 0.4518857 0.2702371
-0.23750007 0.3939588 -0.3154531 -0.31784204 0.25089687 -0.16400455 0.008777218 0.18752539
-0.19701387 0.020886442 0.095603704 -0.29072407 0.005377037 0.22002085 0.07525476 0.17771335
-0.09300357 -0.13763882 -0.09845714 0.06219508 0.059371077 -0.48893166 0.30650228 0.33405942
-0.2440598 -0.1324668 -0.06074703 0.115274355 0.2135205 0.045411684 0.08743662 -0.02258177
0.109265275 0.42636272 -0.25874868 -0.01194115 -0.40937316 -0.031208422 -0.2109533 0.22391996
0.37798557 -0.074733645 -0.02870871 -0.34612966 0.13723956 -0.11060394 -0.09418269 -0.31223133
0.0145539865 -0.42404705 -0.11993747 -0.2775929 -0.31642592 0.21070038 0.051184546 0.37908852
-0.09976319 -0.105952136 0.1864544 0.12143671 -0.3667475 0.23333833 0.32950455 -0.043276012
0.24953079 0.27891016 -0.24176678 -0.069011025 0.37250948 0.2519487 -0.041963227 -0.23455764
-0.40898117 -0.013696551 0.31241223 -0.030494204 0.2970098 -0.17856342 0.13911602 -0.030307755
-0.0608472 0.278995 0.055913243 -0.12753196 0.060490504 -0.009814458 -0.45479608 -0.030481413
00000000: f713 eabe 7666 a43e e04a 883d d72b 153e
00000010: 2a22 543e 605e bf3d cc7d 99bd 49e0 213e
00000020: e257 4a3c 0f0d 22bc d6fb 2c3d cbf7 903e
00000030: 9212 933e f6c1 09bc e5c2 13be d801 003f
00000040: 5eef 37be 57f9 963e 38fe 173e dbec ec3c
00000050: c5de e23e 1d78 a8be ce93 38be 04e4 233e
00000060: de9c 15be 7cd3 333e 93b5 d23d b539 bcbc
00000070: 8c4b cbbe 5dd0 93bd d153 8dba 20e4 a93e
00000080: f58f bf3d 5bc5 53be cafd afbe e8a4 ca3e
00000090: f36a eabe 49c1 a5be 0979 563e e2aa 9e3e
000000a0: 6a7b 6b3e 2f7e 37be 0bc4 72be eefa ad3d
000000b0: 7269 603e 04e6 e53d 3603 52be cf56 2b3d
000000c0: 149f 573e bb72 923d 70b5 bf3e 97f4 6cbe
000000d0: 66c9 893e 3d61 c83d 0e1e 0abf b69c cfbe
000000e0: 1327 b7bd 48fc c93e d0ad ff3d ffa3 46bd
000000f0: 959e 113e 6b11 a93e 897a 703e 1d8c 1d3e
00000100: 3d2a 153e e9e5 89be 5507 443d 1997 b83d
00000110: eb26 b8be a0d7 233d a027 98bd 3385 eabd
00000120: 8d47 4cbe 9a34 ee3e 6d3a 8fbe 7147 133e
00000130: 5fa0 3a3e 9a51 cb3c 5aa6 a7be fd0f f73d
00000140: 6fc0 773e 25ed f33e e394 dabe 6ff2 a2be
00000150: 026e b1be db00 533e 9155 08bd 99bc 953d
00000160: aecb a93a cdb3 0abf bc33 c33e 6ef8 8f3e
00000170: c0de bfbe 90e8 163b e22f 74be 5199 cdbd
00000180: a1ba bd3e 64d1 3ebf 9bee 02bd 7237 c53d
00000190: 5c3b d1be e7e6 42bd c3d1 7a3e 9c59 f3bc
000001a0: 98f2 45be 3c56 483e b221 e9be e15f 93bd
000001b0: a6bc 94be 9644 dcbe 8311 b93d 2f42 49be
000001c0: 40dc b13e 86d7 b3be daae e33e 4ee1 97bd
000001d0: 5ee4 b1be 464f 8abe 3df3 b33e 6071 cabd
000001e0: bb85 45be 39b0 67bc fdcf d23e 1690 fa3d
000001f0: 4d52 b8bd 8912 7dbe 87bf dbbd a222 913d
00000200: 2970 6a3e dce9 b63e e0a2 ad3d 1b8d 7abe
00000210: ebb0 a5bd ee11 ec39 2633 8e3e 2c41 953e
00000220: 45bb 723d 3a25 8abe bd49 a2be 8952 a5be
00000230: 9aae 93be 1062 b43e 4ee1 f63d c69d 1abe
00000240: 1722 a5bd a913 3c3d b3ef e8be 1c01 3e3e
00000250: 6414 823e 1891 5d3b af06 b7be be38 48bd
00000260: cb71 553d 6773 5ebe f193 cbbd f4c1 8d3d
00000270: 9c97 67be b64e 9b3e 8d5f bdbe 798f d9bd
00000280: e08d 79bd e9fd f0be 6734 0a3e 8976 8fbd
00000290: c954 c53c 9bd6 563d 905d e73e 845c 8a3e
000002a0: 3833 73be f8b4 c93e 1283 a1be 31bc a2be
000002b0: 8e75 803e cff0 27be 52ce 0f3c a806 403e
000002c0: 01be 49be 0b1a ab3c e0cb c33d c9d9 94be
000002d0: db31 b03b 254d 613e 2b1f 9a3d 7dfa 353e
000002e0: a878 bebd 31f1 0cbe e6a3 c9bd 45c0 7e3d
000002f0: 162f 733d 4055 fabe deed 9c3e d609 ab3e
00000300: d0ea 79be 60a5 07be e1d1 78bd f614 ec3d
00000310: 1ea5 5a3e 9a01 3a3d f811 b33d 67fd b8bc
00000320: 79c6 df3d 374c da3e b57a 84be d0a4 43bc
00000330: 5c99 d1be cea8 ffbc 2404 58be 464b 653e
00000340: 5387 c13e f40d 99bd 872e ebbc e837 b1be
00000350: 8788 0c3e 5284 e2bd dbe2 c0bd c9dc 9fbe
00000360: d873 6e3c b21c d9be c7a1 f5bd a820 8ebe
00000370: 9402 a2be d7c1 573e e3a6 513d e417 c23e
00000380: a550 ccbd 6ffd d8bd e7ed 3e3e cfb3 f83d
00000390: 54c6 bbbe 3ef0 6e3e d2b4 a83e 3042 31bd
000003a0: 0085 7f3e 50cd 8e3e b691 77be a755 8dbd
000003b0: 90b9 be3e 6cff 803e a2e1 2bbd e12f 70be
000003c0: fb65 d1be 8067 60bc 7ff4 9f3e fbce f9bc
000003d0: ab11 983e 54d9 36be 6e74 0e3e f847 f8bc
000003e0: ea3a 79bd 6fd8 8e3e 4905 653d bd97 02be
000003f0: e4c4 773d d2cc 20bc 08db e8be 28b4 f9bc

transformer.layers.0.1.branch.1.bias f4 [64]
0.011822214 -0.16211398 -0.06672467 -0.16977176 -0.10149021 -0.5145699 -0.4255446 0.12723881
0.29860264 -0.13220273 -0.09132258 0.2481412 0.29471084 0.44339368 0.44695714 0.45662847
-0.29933563 -0.07236402 -0.22671746 0.32327035 -0.20889403 -0.30065957 0.17902951 0.122210674
-0.4143732 -0.2528319 -0.23492964 -0.22478849 0.17955706 -0.31441924 0.3254129 -0.32567763
-0.011488747 0.25690007 -0.39640617 0.14396767 -0.3356747 -0.06681632 0.40728325 0.060469214
-0.4266108 0.16413277 0.116445005 0.24942851 -0.42048392 -0.05832351 0.16432203 0.3058665
-0.024209103 0.04612146 0.1986577 -0.32011536 -0.08947418 0.21033427 -0.37987486 0.23735896
0.14084098 -0.009797869 -0.21327004 -0.45625368 0.052317668 -0.120072015 -0.054548196 0.046814844
00000000: f6b1 413c 3501 26be f2a6 88bd a6d8 2dbe
00000010: 19da cfbd daba 03bf fbe0 d9be e44a 023e
00000020: 72e2 983e 2760 07be 5507 bbbd ba18 7e3e
00000030: 57e4 963e 7f04 e33e 91d7 e43e 35cb e93e
00000040: 8542 99be 9633 94bd 9f28 68be b183 a53e
00000050: 51e8 55be 0df0 99be 8353 373e 9749 fa3d
00000060: b928 d4be 2f73 81be 6591 70be f42e 66be
00000070: cedd 373e 8ffb a0be 859c a63e 38bf a6be
00000080: 4c3b 3cbc 6888 833e c0f5 cabe 436c 133e
00000090: 8edd abbe ffd6 88bd 6e87 d03e 91ae 773d
000000a0: bb6c dabe 6c12 283e b87a ee3d 306a 7f3e
000000b0: ab49 d7be a2e4 6ebd 0944 283e 899a 9c3e
000000c0: 2b52 c6bc dbe9 3c3d ed6c 4b3e 29e6 a3be
000000d0: 3d3e b7bd de61 573e f57e c2be 3a0e 733e
000000e0: 9e38 103e 3e87 20bc 7663 5abe 159a e9be
000000f0: 0d4b 563d 51e8 f5bd ee6d 5fbd ecc0 3f3d

transformer.layers.0.1.branch.4.weight f4 [8, 32]
-0.2941182 0.1484144 0.17256105 -0.06688769 -0.009596827 -0.05271583 0.09855219 -0.038587797
-0.0542703 -0.07989542 -0.1900915 -0.07265878 -0.013624055 -0.06982659 0.06346016 0.20378153
-0.14516707 -0.104676634 -0.03408666 -0.12600115 0.10853268 0.012967259 0.104564406 -0.063512765
0.0367574 -0.10503626 0.013051869 -0.09298569 0.13312213 -0.033930916 0.23969108 -0.08521679
0.12668622 0.12396813 0.20719309 0.058528896 -0.14766492 0.22506812 0.04204871 -0.049388077
0.029089982 -0.15962178 0.31871557 -0.08905468 0.10824819 0.25014943 -0.23114233 -0.22468692
0.027927494 -0.087611765 0.23607811 0.07764605 0.15349849 -0.18667777 0.03662634 -0.110851265
0.09539947 -0.0063702217 0.10985833 -0.05356544 0.05135405 0.16134317 -0.2661381 -0.19229408
0.007979211 0.03252697 -0.17305563 0.056108013 0.2537227 0.14918675 -0.21174502 0.07452239
0.15858006 0.1673874 -0.0640867 0.07100061 0.10250359 -0.38899463 -0.115193196 -0.103908084
0.11706797 -0.09462589 0.021079058 -0.07282122 -0.12429574 0.28176385 0.23943049 0.11814302
0.01845965 0.21044372 0.1522644 0.25244093 0.07882967 -0.26676148 -0.071621515 0.018629072
0.04330258 0.010329716 0.029444927 0.060766682 0.07845304 0.008409219 -0.061449364 -0.12192686
-0.14754915 0.009788294 0.1111189 -0.2894099 -0.124937795 0.24448134 -0.045651 -0.18712674
0.29365128 0.003958176 -0.0074057914 0.0020813758 0.14425671 -0.16225132 -0.07570143 0.031495497
0.08131929 0.092677936 0.26964507 -0.07189752 -0.10621542 -0.08159226 0.03662069 0.17257448
-0.12882307 0.16149227 0.34136054 0.088993326 -0.19188958 -0.069609486 0.2292869 -0.08922989
0.06762137 -0.24134424 -0.19100101 0.18812247 -0.42138478 0.12480459 0.26990458 0.35519573
-0.14742228 0.07652266 -0.28516495 0.06824997 0.17215414 -0.21762043 0.00858629 -0.18510829
-0.3173175 0.21686971 0.013709196 -0.26490256 -0.21902165 0.251915 -0.037793446 -0.20986737
0.10336873 0.080591254 0.09642714 0.047878712 0.06048146 0.014487194 0.034282397 0.14492115
0.038113203 -0.09023999 0.0347127 -0.15800112 0.09103191 -0.24478006 -0.02368624 -0.11242026
-0.11933109 -0.06974679 0.019602105 -0.25666636 0.1096535 0.048576236 0.22404636 -0.07588648
-0.013308838 -0.13516821 0.103947595 0.080050424 -0.14032802 -0.15775932 0.042108398 -0.16441096
0.11615871 -0.16057307 -0.07596649 -0.28641468 0.18902011 0.19095957 -0.25165233 0.17553276
-0.12661229 0.17366138 0.060936548 0.009827461 0.13315968 -0.08323347 -0.13141178 -0.15515117
0.21860068 -0.02044708 0.05640277 0.1451995 -0.17339948 -0.013613443 -0.05492277 0.030410826
0.05024148 0.20119724 -0.26708698 0.08837596 -0.10400661 -0.23565355 -0.03665065 0.101660945
-0.11772447 -0.02383298 0.09709624 -0.110000096 -0.0006448374 -0.080389716 0.03221351 -0.12324512
-0.033755515 -0.07971575 -0.10913763 -0.05747963 -0.20522764 0.16645665 0.13499919 0.11588929
0.07973157 0.080462195 -0.1972526 0.050106477 0.09717695 -0.28845564 0.03940684 0.018847004
-0.20136937 -0.15476266 0.029208725 -0.044892948 -0.26316306 -0.018868262 0.18007316 0.009071372
00000000: a996 96be f2f9 173e d8b3 303e 6afc 88bd
00000010: 033c 1dbc 8eec 57bd bbd5 c93d 3d0e 1ebd
00000020: 894a 5ebd 36a0 a3bd 59a7 42be 20ce 94bd
00000030: 6e37 5fbc 3e01 8fbd 66f7 813d 1bac 503e
00000040: ada6 14be b460 d6bd 749e 0bbd 7206 01be
00000050: 6246 de3d a074 543c dd25 d63d fb12 82bd
00000060: ed8e 163d 401d d7bd 82d7 553c 486f bebd
00000070: 2b51 083e 25fb 0abd 9471 753e 2486 aebd
00000080: 08ba 013e 01e3 fd3d 6d2a 543e ffbb 6f3d
00000090: 7935 17be 4278 663e 453b 2c3d 274b 4abd
000000a0: 1d4e ee3c e473 23be b02e a33e 4d62 b6bd
000000b0: 3ab1 dd3d 9613 803e 93b0 6cbe 5414 66be
000000c0: 33c8 e43c cc6d b3bd 76be 713e e404 9f3d
000000d0: b52e 1d3e 7528 3fbe 8005 163d fd05 e3bd
000000e0: cc60 c33d 4bbd d0bb 67fd e03d 6f67 5bbd
000000f0: a058 523d 2537 253e 4143 88be bde8 44be
00000100: 3dbb 023c 003b 053d 7f35 31be 84d1 653d
00000110: f1e7 813e 69c4 183e b0d3 58be 329f 983d
00000120: d062 223e 9a67 2b3e e33f 83bd c568 913d
00000130: 67ed d13d 4e2a c7be 69ea ebbd c3cd d4bd
00000140: 55c1 ef3d 38cb c1bd fdad ac3c 4b23 95bd
00000150: c48e febd 5a43 903e 442d 753e f8f4 f13d
00000160: b138 973c 8f7e 573e 33eb 1b3e f03f 813e
00000170: 7371 a13d f694 88be 4dae 92bd ff9b 983c
00000180: 0c5e 313d f83d 293c 7d36 f13c 7ce6 783d
00000190: fdab a03d d2c6 093c 54b2 7bbd cab4 f9bd
000001a0: 2017 17be 155f 203c 4e92 e33d 892d 94be
000001b0: 63df ffbd 5159 7a3e 8bfc 3abd 279e 3fbe
000001c0: 7659 963e 96b3 813b 48ac f2bb b167 083b
000001d0: 08b8 133e 3625 26be 5a09 9bbd 6c01 013d
000001e0: ba8a a63d eecd bd3d eb0e 8a3e 023f 93bd
000001f0: 7887 d9bd d819 a7bd 94ff 153d 5db7 303e
00000200: 32ea 03be 3b5e 253e cfc6 ae3e 2242 b63d
00000210: b47e 44be 6b8f 8ebd 2fca 6a3e 29be b6bd
00000220: 137d 8a3d f222 77be c595 43be 2da3 403e
00000230: bfbf d7be 8d99 ff3d ef30 8a3e 37dc b53e
00000240: def5 16be eab7 9c3d 2401 92be a4c6 8b3d
00000250: 2d49 303e e4d7 5ebe 83ad 0c3c 078d 3dbe
00000260: 7077 a2be 1813 5e3e 899c 603c 4fa1 87be
00000270: 3647 60be 01fb 803e 4dcd 1abd 79e7 56be
00000280: fcb2 d33d 070d a53d 987b c53d 781c 443d
00000290: 68bb 773d b25b 6d3c b36b 0c3d 3666 143e
000002a0: 971c 1c3d becf b8bd e72e 0e3d 0ccb 21be
000002b0: f06e ba3d a0a7 7abe a509 c2bc 983c e6bd
000002c0: dc63 f4bd 68d7 8ebd 9894 a03c c669 83be
000002d0: 0492 e03d e0f7 463d 696c 653e 5f6a 9bbd
000002e0: 500d 5abc 8969 0abe 7ae2 d43d 7af1 a33d
000002f0: 26b2 0fbe a98b 21be db79 2c3d 595b 28be
00000300: 9ee4 ed3d 446d 24be 5294 9bbd f2a4 92be
00000310: 7d8e 413e e88a 433e 93d8 80be dcbe 333e
00000320: a7a6 01be 4ad4 313e 9a98 793d 5c03 213c
00000330: 035b 083e 4f76 aabd cf90 06be f3df 1ebe
00000340: dbd8 5f3e a280 a7bc 9706 673d 2daf 143e
00000350: a28f 31be eb0a 5fbc b3f6 60bd 2020 f93c
00000360: 03ca 4d3d a606 4e3e a0bf 88be 75fe b43d
00000370: 6b01 d5bd 2a4f 71be fe1e 16bd 9d33 d03d
00000380: 8719 f1bd 623d c3bc 65da c63d bb47 e1bd
00000390: 4e0a 29ba 5da3 a4bd 50f2 033d f067 fcbd
000003a0: 3943 0abd 0342 a3bd 8d83 dfbd c36f 6bbd
000003b0: 3227 52be 9d73 2a3e 3a3d 0a3e 5d57 ed3d
000003c0: 4e4a a33d 5dc9 a43d 96fc 49be 733c 4d3d
000003d0: b504 c73d 75b0 93be 1169 213d 0865 9a3c
000003e0: c633 4ebe 1a7a 1ebe 2347 ef3c abe1 37bd
000003f0: 4fbd 86be 9d91 9abc 1965 383e 18a0 143c

transformer.layers.0.1.branch.4.bias f4 [8]
0.15871108 -0.030916356 0.16769415 0.13512728 0.017088411 0.09924801 0.04048167 -0.10096671
00000000: 2885 223e 4c44 fdbc 04b8 2b3e ce5e 0a3e
00000010: fffc 8b3c 8a42 cb3d 1cd0 253d a2c7 cebd

transformer.layers.0.1.norm.gamma f4 [8]
-0.010635078 -0.02856084 0.1580872 -0.0012946255 0.014209991 -0.047553457 0.10165668 0.014225145
00000000: c03e 2ebc 6cf8 e9bc 9ce1 213e 6cb0 a9ba
00000010: 06d1 683c 6ac7 42bd 6131 d03d 9510 693c

transformer.layers.1.0.static_alpha f4 [4, 5]
-0.1211253 1.0 0.0 0.0 0.0 0.8592334 0.0 1.0
0.0 0.0 -0.12807824 0.0 0.0 1.0 0.0 -0.15002738
0.0 0.0 0.0 1.0
00000000: 8b10 f8bd 0000 803f 0000 0000 0000 0000
00000010: 0000 0000 b8f6 5b3f 0000 0000 0000 803f
00000020: 0000 0000 0000 0000 f126 03be 0000 0000
00000030: 0000 0000 0000 803f 0000 0000 c7a0 19be
00000040: 0000 0000 0000 0000 0000 0000 0000 803f

transformer.layers.1.0.dynamic_alpha_fn f4 [8, 5]
0.023828158 0.0 0.0 0.0 0.0 -0.28581774 0.0 0.0
0.0 0.0 -0.09320311 0.0 0.0 0.0 0.0 -0.1952534
0.0 0.0 0.0 0.0 -0.06511872 0.0 0.0 0.0
0.0 -0.05121012 0.0 0.0 0.0 0.0 -0.2389439 0.0
0.0 0.0 0.0 -0.15129016 0.0 0.0 0.0 0.0
00000000: 4533 c33c 0000 0000 0000 0000 0000 0000
00000010: 0000 0000 b456 92be 0000 0000 0000 0000
00000020: 0000 0000 0000 0000 46e1 bebd 0000 0000
00000030: 0000 0000 0000 0000 0000 0000 82f0 47be
00000040: 0000 0000 0000 0000 0000 0000 0000 0000
00000050: f75c 85bd 0000 0000 0000 0000 0000 0000
00000060: 0000 0000 b4c1 51bd 0000 0000 0000 0000
00000070: 0000 0000 0000 0000 b6ad 74be 0000 0000
00000080: 0000 0000 0000 0000 0000 0000 cfeb 1abe
00000090: 0000 0000 0000 0000 0000 0000 0000 0000

transformer.layers.1.0.static_beta f4 [4]
1.1298591 1.0995846 1.0395073 0.81262815
00000000: 399f 903f 30bf 8c3f 930e 853f 6608 503f

transformer.layers.1.0.dynamic_beta_fn f4 [8]
-0.06705509 0.03546666 0.23501371 -0.15732557 -0.023193123 -0.2343528 -0.23453331 -0.23601195
00000000: 2e54 89bd 7d45 113d 6fa7 703e f419 21be
00000010: 81ff bdbc 2efa 6fbe 8029 70be 1ead 71be

transformer.layers.1.0.branch.norm.weight f4 [8]
1.1124572 0.927908 1.0525311 1.012158 0.95699745 0.99008864 1.0780251 0.9246299
00000000: ff64 8e3f 618b 6d3f 57b9 863f 658e 813f
00000010: c9fd 743f 7376 7d3f bafc 893f 8cb4 6c3f

transformer.layers.1.0.branch.norm.bias f4 [8]
-0.013788096 0.07677454 -0.09813262 -0.02206665 0.1590454 0.029310942 -0.033174615 -0.11908126
00000000: 77e7 61bc f83b 9d3d c1f9 c8bd 1fc5 b4bc
00000010: ccdc 223e 801d f03c 1be2 07bd e0e0 f3bd

transformer.layers.1.0.branch.to_qkv.weight f4 [192, 8]
0.013556281 -0.1311629 -0.05998945 -0.30274925 0.34336075 0.2782476 0.17743947 -0.22758754
0.30649513 0.21156146 -0.009942687 -0.20113981 -0.22996633 0.13355845 0.20110378 0.0755083
-0.034885578 0.26682127 -0.15062268 -0.2921586 -0.2904601 0.16723281 0.056120545 -0.23554432
-0.16435209 0.06719726 -0.29387346 -0.21382596 0.124475256 -0.056968804 0.06513497 0.07510587
0.2694979 0.112375334 0.45835423 -0.058135007 0.22517379 -0.1507701 -0.20201525 0.18728542
-0.09851423 -0.2640646 0.17228355 0.19264856 0.20609903 -0.24938396 -0.24732493 0.3513
0.10056581 0.14810503 0.1938805 0.3582194 -0.11370542 -0.08095395 0.2900371 0.07028463
0.14249031 0.2410387 0.39039505 0.0040963637 0.18977003 0.26684895 -0.23254013 -0.35096642
-0.23394595 -0.27158535 -0.3461336 -0.073481545 -0.18321975 -0.0030799333 -0.13080049 0.41758785
0.14113796 -0.2773068 0.39846674 -0.14745364 0.33876607 -0.21025531 0.10822257 -0.19277409
0.008548818 0.38543156 -0.30295253 -0.35035002 -0.054713678 -0.15028927 -0.18755703 0.07455322
-0.08811049 -0.02918722 -0.01927852 -0.11838136 -0.12411947 -0.468935 0.17509139 0.02656128
-0.15817508 0.2984521 -0.24469344 0.3384885 0.07256911 -0.16941245 0.31146246 -0.22890109
0.22146064 -0.3025647 0.47641847 -0.26860604 -0.30820486 -0.16853912 -0.13599753 -0.028057683
-0.13302569 -0.34783813 0.25724778 0.1739785 -0.23452136 -0.39609286 0.17567477 0.34437793
0.08836566 0.16412257 -0.274964 0.07499402 0.28457674 -0.02178773 -0.19512562 -0.24687615
0.075413585 0.26550263 0.1932282 0.13937362 -0.27927846 -0.1453514 -0.038993172 0.1408149
-0.26752695 -0.2880789 -0.4109194 0.1271247 -0.48835778 -0.27422807 -0.14969909 0.30279803
-0.02273851 0.17720424 0.43752888 -0.20675632 -0.11335886 0.31107336 0.20044881 -0.102429554
0.16944154 0.25300607 -0.34074017 0.16553703 -0.32590717 0.03844576 -0.21400979 0.14586638
0.07559221 0.13691373 0.28507796 0.23417298 -0.11880076 0.37368074 0.036936413 0.23919411
-0.3727127 0.37778434 -0.39223978 -0.26249748 0.07597469 0.10876504 -0.15207534 0.31615028
-0.6136998 0.23712163 0.10051978 0.23417258 -0.27371934 -0.11174112 0.19454625 0.4517393
0.042103942 0.12769423 -0.279767 0.29322243 -0.2680006 0.0011671506 0.24324289 -0.009206506
0.5059936 0.18789421 0.01761121 -0.3139974 0.06519921 0.47204506 -0.43662292 0.03660675
0.1188384 -0.22475201 0.4253763 0.12734453 0.52472794 0.5245681 -0.4475657 0.15368138
0.28440592 0.20094952 -0.23518768 -0.28142098 -0.045860555 -0.01673644 -0.1687659 -0.14143889
0.07585323 -0.13522346 -0.15473907 -0.2664691 -0.04207816 0.064387284 -0.44693848 -0.37798223
0.54045606 0.25003463 0.25168693 -0.40197596 -0.023967888 0.52506286 -0.3350464 -0.28579605
0.15049872 -0.16005489 0.093069114 0.13978297 0.12604405 0.32496783 0.21672568 0.13850732
0.12166707 0.3382638 -0.16405305 0.25820702 -0.4069464 -0.003226525 0.1413597 0.1855174
0.22931169 0.2514602 -0.01521645 -0.2599166 0.39834613 0.16886638 -0.14865386 -0.24220806
00000000: 2a1b 5e3c 914f 06be 7fb7 75bd f301 9bbe
00000010: fbcc af3e 7876 8e3e b1b2 353e b50c 69be
00000020: eeec 9c3e 91a3 583e a7e6 22bc 98f7 4dbe
00000030: 4b7c 6bbe 8cc3 083e 26ee 4d3e 18a4 9a3d
00000040: 2ee4 0ebd cc9c 883e d53c 1abe d095 95be
00000050: 30b7 94be 143f 2b3e a8de 653d 8832 71be
00000060: ea4b 28be b89e 893d 9576 96be 31f5 5abe
00000070: e2ec fe3d 1f58 69bd 7c65 853d 1bd1 993d
00000080: a1fb 893e 0a25 e63d 68ad ea3e f91e 6ebd
00000090: f593 663e 7a63 1abe 16dd 4ebe c0c7 3f3e
000000a0: d4c1 c9bd 7a33 87be 196b 303e aa45 453e
000000b0: a00b 533e 825e 7fbe bf42 7dbe 98dd b33e
000000c0: 73f5 cd3d d8a8 173e 9c88 463e 8868 b73e
000000d0: 63de e8bd 2fcb a5bd be7f 943e 63f1 8f3d
000000e0: fbe8 113e d9d2 763e dce1 c73e ca3a 863b
000000f0: 1353 423e 6da0 883e 001f 6ebe dfb1 b3be
00000100: 878f 6fbe 3c0d 8bbe 6c38 b1be 7e7d 96bd
00000110: f59d 3bbe b5d8 49bb 90f0 05be 13ce d53e
00000120: 7886 103e 28fb 8dbe d503 cc3e 16fe 16be
00000130: bf72 ad3e 2b4d 57be cba3 dd3d 9266 45be
00000140: 5710 0c3c 4957 c53e 981c 9bbe 1461 b3be
00000150: 731b 60bd 6ee5 19be f30e 40be 5caf 983d
00000160: 4673 b4bd 091a efbc fded 9dbc ed71 f2bd
00000170: 5932 febd 4018 f0be 284b 333e 0b97 d93c
00000180: a6f8 21be b7ce 983e eb90 7abe 5d4e ad3e
00000190: 1d9f 943d 757a 2dbe 0278 9f3e 0c65 6abe
000001a0: 94c6 623e c3e9 9abe 1fed f33e bb86 89be
000001b0: 07cd 9dbe 8595 2cbe f042 0bbe 3ad9 e5bc
000001c0: e337 08be d717 b2be fbb5 833e 6b27 323e
000001d0: 5e26 70be afcc cabe 16e4 333e 4e52 b03e
000001e0: 0ef9 b43d bf0f 283e 15c8 8cbe 7796 993d
000001f0: 0bb4 913e 2e7c b2bc 03cf 47be 1acd 7cbe
00000200: 7072 9a3d f6ef 873e 9ddd 453e f5b7 0e3e
00000210: 96fd 8ebe ffd6 14be 4eb7 1fbd c831 103e
00000220: 4bf9 88be 147f 93be 0764 d2be fa2c 023e
00000230: 080a fabe 9f67 8cbe b84a 19be 5808 9b3e
00000240: 1d46 babc 0775 353e c903 e03e eeb7 53be
00000250: b128 e8bd 0245 9f3e 7442 4d3e 96c6 d1bd
00000260: 1582 2d3e 038a 813e 7f75 aebe 8a82 293e
00000270: 4edd a6be 4d79 1d3d 6225 5bbe ff5d 153e
00000280: 17d0 9a3d 1d33 0c3e bdf5 913e 0bcb 6f3e
00000290: d04d f3bd 1553 bf3e a34a 173d 4def 743e
000002a0: 33d4 bebe f36c c13e a7d3 c8be 1266 86be
000002b0: 9e98 9b3d 35c0 de3d a3b9 1bbe 73de a13e
000002c0: 6e1b 1dbf 03d0 723e 50dd cd3d f0ca 6f3e
000002d0: f124 8cbe 87d8 e4bd 2237 473e 604a e73e
000002e0: 2f75 2c3d 47c2 023e 9f3d 8fbe 4021 963e
000002f0: 6037 89be 13fb 983a aa14 793e e3d6 16bc
00000300: cc88 013f 5767 403e 6245 903c 44c4 a0be
00000310: 2a87 853d e4af f13e 0a8d dfbe f6f0 153d
00000320: 8c61 f33d 6425 66be ecca d93e 9b66 023e
00000330: 9254 063f 184a 063f 5527 e5be a75e 1d3e
00000340: a79d 913e b6c5 4d3e 0ad5 70be 6916 90be
00000350: 47d8 3bbd dc1a 89bc f8d0 2cbe 5bd5 10be
00000360: f058 9b3d 0578 0abe eb73 1ebe a36e 88be
00000370: 265a 2cbd 7bdd 833d 1fd5 e4be e386 c1be
00000380: 545b 0a3f 8a04 803e 1cdd 803e cbcf cdbe
00000390: 4e58 c4bc 856a 063f 348b abbe dc53 92be
000003a0: 561c 1a3e 6ee5 23be 059b be3d 4423 0f3e
000003b0: b111 013e 2f62 a63e 56ed 5d3e ddd4 0d3e
000003c0: 962c f93d ea30 ad3e 86fd 27be b633 843e
000003d0: 475b d0be 1b74 53bb 99c0 103e 46f8 3d3e
000003e0: afd0 6a3e 64bf 803e 6b4e 79bc ca13 85be
000003f0: 06f4 cb3e 4feb 2c3e b838 18be 6405 78be

transformer.layers.1.0.branch.to_out.weight f4 [8, 64]
-0.21264239 0.18757972 -0.1164708 0.022820642 -0.12685412 0.018210245 0.20769504 0.09401908
-0.24248077 0.17129353 -0.1566299 -0.13804169 0.05452082 0.14681365 0.21358529 -0.10666933
-0.14413252 0.19479735 0.029057058 -0.069251105 -0.098251574 0.0014637077 0.0948191 0.15383433
0.024348715 0.011803809 0.041192368 0.119700715 0.17760733 0.030057438 -0.157567 -0.16706029
0.093750656 -0.12460803 -0.052526478 -0.029954042 -0.047463804 0.14414652 0.12581092 -0.031203901
0.06819584 -0.10347966 0.13420187 -0.0435966 0.080974594 0.17282732 -0.0429467 0.06166805
0.11944486 -0.011697816 0.084943295 -0.113708645 -0.0636138 0.018797774 -0.19472441 -0.08787945
-0.070563294 0.15183912 -0.20322856 -0.15256219 -0.057045627 0.20712957 -0.0015189708 0.0043385364
0.21944241 -0.055180084 0.17110282 0.02773722 -0.02556694 0.0662397 -0.014028737 -0.013366406
0.06374169 -0.1767264 0.057049565 0.15518488 -0.004282803 0.012079006 -0.01570866 0.23939925
0.028313566 -0.03919071 -0.0093105445 0.10926736 -0.0747395 -0.09193539 -0.06520911 -0.0919562
-0.027567975 -0.078525856 -0.14904104 -0.019975016 -0.17724684 -0.0038060364 0.050547965 0.09645988
-0.15608372 0.11531103 -0.05841989 -0.109906584 0.033263564 0.05447639 0.030311 0.09082147
-0.1002861 0.090097554 -0.1680031 0.015797094 -0.11929205 0.016098894 -0.0020717813 -0.13499022
-0.0513128 0.11062885 -0.060738552 0.13237463 0.054766174 0.0037201624 -0.032924324 0.12528981
-0.01495019 -0.07510062 0.04653922 0.16469309 0.071758635 -0.09096341 -0.10378125 0.0021700365
0.07409794 -0.043735676 0.07270072 0.052000914 0.032038227 -0.11684434 -0.075238794 -0.030025648
0.022640567 -0.19111407 0.15736513 0.05945632 -0.017302886 -0.15694726 -0.13236003 0.06513144
-0.012901132 -0.05861574 0.052168813 0.02537893 0.049871773 0.017781908 -0.13154598 -0.035067827
-0.05341014 0.060769316 -0.15932499 -0.15986285 -0.005965928 -0.057922713 -0.041978646 0.104433864
-0.11524138 0.107679784 -0.012507903 -0.12674068 0.112212464 0.07900022 0.008335506 0.08671451
-0.022083664 0.008863121 -0.103727944 0.05834801 -0.02872936 -0.000790183 -0.050026495 0.003018186
-0.098601416 -0.056725502 -0.13901925 -0.052108295 0.03011316 -0.00768004 0.084849745 0.035972197
0.10696225 -0.07800549 0.0020517758 0.021500135 0.1361465 0.0015397428 -0.06553547 0.05709177
-0.17535913 0.19968644 -0.08699552 0.08795413 -0.16413894 0.004435598 0.07075181 0.12316142
-0.12325265 0.19889122 -0.117108546 -0.06693737 0.15300818 0.033551387 0.12177872 -0.15229571
0.024956523 0.044787947 -0.10710596 0.012302017 -0.106717296 0.065073654 0.18273711 0.08739694
0.04126514 -0.15863787 0.095106654 0.14121898 -0.051656485 -0.08446315 -0.0069479435 -0.15916601
0.19915341 -0.0804406 0.110473216 0.09249523 0.08937387 -0.0050593307 0.10284349 -0.09591817
0.07784528 -0.13233334 0.07542315 0.101704784 -0.0075169667 0.100686096 0.124870434 0.0686055
0.14318307 -0.053123597 0.08711385 -0.009674386 -0.16147627 -0.09828282 -0.13926308 -0.019938245
-0.10097327 0.015108612 0.024925603 -0.09282048 -0.00221182 0.101294994 0.14788438 0.1756667
00000000: edbe 59be e614 403e 3e88 eebd 5bf2 ba3c
00000010: 0ce6 01be a72d 953c 02ae 543e 138d c03d
00000020: e14c 78be 9267 2f3e 9763 20be cd5a 0dbe
00000030: 3951 5f3d 5156 163e 1ab6 5a3e 7375 dabd
00000040: 7a97 13be f578 473e 1109 ee3c 86d3 8dbd
00000050: 1f38 c9bd e1d9 bf3a 8430 c23d bf86 1d3e
00000060: f576 c73c c364 413c 54b9 283d a625 f53d
00000070: b2de 353e 043b f63c 3e59 21be da11 2bbe
00000080: 5800 c03d 7f32 ffbd 0126 57bd 2e62 f5bc
00000090: 6869 42bd 259b 133e 94d4 003e 539f ffbc
000000a0: 43aa 8b3d 25ed d3bd 376c 093e 5992 32bd
000000b0: 02d6 a53d a5f9 303e e1e8 2fbd a397 7c3d
000000c0: 829f f43d 32a8 3fbc c0f6 ad3d 14e0 e8bd
000000d0: f447 82bd cafd 993c d665 47be 24fa b3bd
000000e0: 7d83 90bd b77b 1b3e 261b 50be 4339 1cbe
000000f0: ada8 69bd c619 543e 3418 c7ba 482a 8e3b
00000100: 83b5 603e 8304 62bd 9435 2f3e 2b39 e33c
00000110: c271 d1bc aea8 873d cad8 65bc c5fe 5abc
00000120: 018b 823d c4f7 34be ceac 693d c9e8 1e3e
00000130: c156 8cbb 06e7 453c 73af 80bc 1425 753e
00000140: daf1 e73c 7086 20bd 418b 18bc 91c7 df3d
00000150: 0611 99bd 9f48 bcbd 5b8c 85bd 8853 bcbd
00000160: 3cd6 e1bc 2ad2 a0bd 379e 18be a5a2 a3bc
00000170: 3280 35be b26e 79bb 620b 4f3d c28c c53d
00000180: 69d4 1fbe 3028 ec3d b249 6fbd b416 e1bd
00000190: 603f 083d a322 5f3d c64e f83c 9b00 ba3d
000001a0: cc62 cdbd 1185 b83d 0109 2cbe e868 813c
000001b0: 644f f4bd d4e1 833c b9c6 07bb e03a 0abe
000001c0: 5f2d 52bd 6191 e23d fdc8 78bd 378d 073e
000001d0: 7f52 603d f8cd 733b a8db 06bd f94b 003e
000001e0: a4f1 74bc 5bce 99bd e99f 3e3d 4ea5 283e
000001f0: 31f6 923d 064b babd 448b d4bd 2c37 0e3b
00000200: a9c0 973d 2e24 33bd 1de4 943d e9fe 543d
00000210: 843a 033d 164c efbd cc16 9abd 59f8 f5bc
00000220: b678 b93c 68b3 43be 5324 213e 7888 733d
00000230: c8be 8dbc c8b6 20be 6389 07be a263 853d
00000240: 455f 53bc 0f17 70bd f7ae 553d 79e7 cf3c
00000250: 5846 4c3d 5dab 913c fdb3 06be 48a3 0fbd
00000260: 97c4 5abd 3fe9 783d 1726 23be 16b3 23be
00000270: d57d c3bb 5e40 6dbd cdf1 2bbd 6ce1 d53d
00000280: ac03 ecbd 3887 dc3d f3ed 4cbc 4fc8 01be
00000290: a6cf e53d deca a13d a591 083c 6197 b13d
000002a0: cde8 b4bc a036 113c 516f d4bd 53fe 6e3d
000002b0: d659 ebbc 4924 4fba 95e8 4cbd c2cc 453b
000002c0: 8aef c9bd 0059 68bd 105b 0ebe 826f 55bd
000002d0: e0af f63c d8a8 fbbb b4c5 ad3d 9557 133d
000002e0: 060f db3d 58c1 9fbd 1677 063b 0d21 b03c
000002f0: fd69 0b3e 32d1 c93a 7637 86bd 0fd9 693d
00000300: 5891 33be 9a7a 4c3e b52a b2bd 4b21 b43d
00000310: 0a14 28be 7e58 913b 53e6 903d 0e3c fc3d
00000320: e36b fcbd 24aa 4b3e 9bd6 efbd 7616 89bd
00000330: 2dae 1c3e 2e6d 093d 1f67 f93d 68f3 1bbe
00000340: 9f71 cc3c 9173 373d 5f5a dbbd 668e 493c
00000350: 998e dabd 5645 853d 701f 3b3e 2bfd b23d
00000360: a305 293d f771 22be 47c7 c23d b59b 103e
00000370: c095 53bd 04fb acbd 93ab e3bb 6afc 22be
00000380: dfee 4b3e 0bbe a4bd c83f e23d 246e bd3d
00000390: a609 b73d bec8 a5bb 9c9f d23d bf70 c4bd
000003a0: 596d 9f3d 6482 07be 7477 9a3d 994a d03d
000003b0: e350 f6bb 8334 ce3d 12bc ff3d 0a81 8c3d
000003c0: 959e 123e 2198 59bd bf68 b23d 5181 1ebc
000003d0: 095a 25be 8148 c9bd fb9a 0ebe 8855 a3bc
000003e0: 13cb cebd 1d8a 773c c730 cc3c aa18 bebd
000003f0: 2ff4 10bb c073 cf3d 016f 173e f9e1 333e

transformer.layers.1.0.norm.gamma f4 [8]
0.11188441 0.2198088 0.046923842 0.14827967 0.008867155 0.11103404 0.16822423 0.124503896
00000000: a723 e53d 8f15 613e 3733 403d a0d6 173e
00000010: 8b47 113c d165 e33d f942 2c3e e6fb fe3d

transformer.layers.1.1.static_alpha f4 [4, 5]
-0.06762069 1.0 0.0 0.0 0.0 -0.18646199 0.0 1.0
0.0 0.0 -0.12398246 0.0 0.0 1.0 0.0 0.84965175
0.0 0.0 0.0 1.0
00000000: b77c 8abd 0000 803f 0000 0000 0000 0000
00000010: 0000 0000 e4ef 3ebe 0000 0000 0000 803f
00000020: 0000 0000 0000 0000 84ea fdbd 0000 0000
00000030: 0000 0000 0000 803f 0000 0000 c782 593f
00000040: 0000 0000 0000 0000 0000 0000 0000 803f

transformer.layers.1.1.dynamic_alpha_fn f4 [8, 5]
0.018830908 0.0 0.0 0.0 0.0 -0.3663672 0.0 0.0
0.0 0.0 0.35879308 0.0 0.0 0.0 0.0 -0.16183186
0.0 0.0 0.0 0.0 -0.2551837 0.0 0.0 0.0
0.0 0.16621612 0.0 0.0 0.0 0.0 -0.111857064 0.0
0.0 0.0 0.0 -0.22276253 0.0 0.0 0.0 0.0
00000000: 4743 9a3c 0000 0000 0000 0000 0000 0000
00000010: 0000 0000 7b94 bbbe 0000 0000 0000 0000
00000020: 0000 0000 0000 0000 bab3 b73e 0000 0000
00000030: 0000 0000 0000 0000 0000 0000 40b7 25be
00000040: 0000 0000 0000 0000 0000 0000 0000 0000
00000050: 70a7 82be 0000 0000 0000 0000 0000 0000
00000060: 0000 0000 8f34 2a3e 0000 0000 0000 0000
00000070: 0000 0000 0000 0000 5115 e5bd 0000 0000
00000080: 0000 0000 0000 0000 0000 0000 dc1b 64be
00000090: 0000 0000 0000 0000 0000 0000 0000 0000

transformer.layers.1.1.static_beta f4 [4]
1.0879073 1.1867008 0.96258265 1.0047476
00000000: 8c40 8b3f d0e5 973f d16b 763f 929b 803f

transformer.layers.1.1.dynamic_beta_fn f4 [8]
0.22209612 -0.1743468 0.17668569 0.06922748 0.21465158 -0.10494356 -0.022487061 -0.0003826379
00000000: 2a6d 633e f887 32be 18ed 343e 23c7 8d3d
00000010: a0cd 5b3e a6ec d6bd c936 b8bc ca9c c8b9

transformer.layers.1.1.branch.0.weight f4 [8]
1.1938488 1.1933005 1.2458335 1.2256439 1.1549227 1.2877221 1.3725431 1.1172376
00000000: 0ad0 983f 12be 983f 7977 9f3f e6e1 9c3f
00000010: 82d4 933f 14d4 a43f 7eaf af3f a401 8f3f
