trained_models/regular_training/model_FTTransformer_lr0.00001_8_1_4_4_.1_0.1_date_20250811_epoch100.pt (torch, 99377 bytes, 87 tensors)

cls_token f4 [1, 1, 8]
000000 bf aa 61 be 96 0a ce bf 2c 77 61 3e f8 a3 de be
       -0.2203779 -1.609698 0.22018117 -0.43484473
000010 9d 2e 26 bf 0f d8 10 c0 f5 9f c6 3d c3 cf 24 bf
       -0.64914876 -2.2631872 0.09698478 -0.6437952

categorical_embeds.weight f4 [3, 8]
000000 69 53 50 3f fd 1a e0 bf 78 0b e5 bf ea c3 12 3f
       0.81377274 -1.7508236 -1.7894125 0.5733019
000010 2c 09 e4 bf 76 b1 0d 3f 34 42 e0 bf cd 16 fc bb
       -1.7815299 0.5534891 -1.7520204 -0.0076931478
000020 55 4d 61 bf a7 30 b0 3f d0 ea 65 bf 9b 84 a8 bf
       -0.88008624 1.3764848 -0.8981142 -1.3165468
000030 ec c5 3b bf 67 68 56 3f d5 20 aa 3e a1 38 97 be
       -0.7334888 0.83753055 0.33228174 -0.29535392
000040 ff a8 53 be 1b 07 20 3f a8 a3 a2 bf 77 25 a1 bf
       -0.20669936 0.6251084 -1.2706194 -1.2589558
000050 be 77 ef bd 04 d8 78 be 78 29 cb 3e e9 8f aa 3e
       -0.11692761 -0.24301153 0.39680076 0.3331292

numerical_embedder.weights f4 [8, 8]
000000 37 77 d4 be 82 72 c0 be c5 99 bf 3f ec 73 0f bf
       -0.41497204 -0.37587363 1.4968802 -0.5603626
000010 67 1b 26 3e 5c ff 32 bf da 81 81 3f b1 b8 fc bc
       0.1622139 -0.699209 1.0117753 -0.030849786
000020 ab d6 24 3e b6 24 0e 3f 87 8b 6b bf a4 3f d1 3f
       0.16097514 0.55524766 -0.92009777 1.6347547
000030 82 cb 50 3f 6b 32 a3 bf 57 26 8c 3f db 38 b0 bf
       0.8156053 -1.2749761 1.09492 -1.3767351
000040 6a e5 03 bf d0 34 78 bf c5 fc 99 bd f8 b5 fb be
       -0.51521933 -0.96955585 -0.07518915 -0.4916227
000050 5d 2b aa 3f 34 74 9c 3d 19 6c 10 3f 8f ee 16 3f
       1.3294483 0.076393515 0.56414944 0.5895776
000060 85 89 aa 3e 16 02 16 40 ba a4 cc be 52 cb e4 be
       0.33308044 2.3438773 -0.39969426 -0.4468637
000070 5e c3 55 be 05 24 7d 3e 70 df 4b bf cc 50 18 bf
       -0.20875308 0.24720772 -0.79637814 -0.59498286
000080 21 80 60 3f 33 41 07 bd 17 dc 3b bf ad 14 d0 bf
       0.8769551 -0.033021163 -0.73382705 -1.625631
000090 7d 49 16 be b2 54 9e 3e 40 0c 8d be 30 43 e4 3f
       -0.14676471 0.30923992 -0.27548409 1.7833004
0000a0 93 3a 4d 3f e1 b0 fa 3e 9d c9 74 3e 6b 15 f7 bf
       0.801675 0.48963073 0.23905034 -1.9303411
0000b0 bf f0 2a 3f c8 1f 8b bf 86 19 00 3d 48 55 ca 3f
       0.667736 -1.0869074 0.03127434 1.5807276
0000c0 67 4a c1 3d d0 d0 2f be 99 83 b5 3d 03 5b b3 3f
       0.09438019 -0.171695 0.08862991 1.401215
0000d0 c0 4d 25 3f a5 37 80 bf 3d 68 47 3f 77 92 26 3f
       0.6457176 -1.0016981 0.7789343 0.6506724
0000e0 18 86 c2 bf ff d6 e5 3e ed 4b 21 bf b6 e9 fd be
       -1.5197172 0.44890592 -0.6300648 -0.4959237
0000f0 7c be ab 3e 10 07 be be 49 ba d0 3f 7d 0d a7 bf
       0.33543766 -0.37114763 1.630685 -1.3050991

numerical_embedder.biases f4 [8, 8]
000000 ff 1d c6 3d 2b 3f 9e 3f a4 57 06 bf 8d a7 ca 3f
       0.0967369 1.2363027 -0.5247748 1.5832382
000010 d2 4f 43 be 97 af 3a 3f ad 13 32 bf 30 b0 55 bf
       -0.19073418 0.7292418 -0.6956127 -0.83471966
000020 cd fc 8c bd 0b 5c 29 3f ac f2 f6 be 34 a2 8f bf
       -0.068841554 0.6615607 -0.4823202 -1.1221375
000030 3d 5a 68 3f cf ee b2 bf a9 a5 70 bf 89 89 7a 3e
       0.9076269 -1.3979129 -0.9400278 0.24466528
000040 12 03 29 bf 9a c1 f5 3e 3b d4 d2 bf b3 78 aa 3f
       -0.6602031 0.4799927 -1.6471018 1.3318084
000050 ac b2 97 3f e0 5b 06 40 a9 f3 28 be eb 54 40 3f
       1.1851401 2.0993576 -0.16499199 0.75129575
000060 7f 7f 7c 3e ac a7 b6 bf cd f4 7a 3c 43 98 18 3f
       0.24658011 -1.4269919 0.015317154 0.5960733
000070 a7 e3 06 40 f2 16 24 40 1f 85 7b be 28 67 4a 3f
       2.1076448 2.5639005 -0.245625 0.79063654
000080 eb 93 89 3f 60 c5 5a 3f 46 db 55 bf 5e a6 05 3f
       1.0748266 0.8545742 -0.8353771 0.5220698
000090 1f 2f 5b bf 33 f7 79 bf 02 9b bd be 99 92 bd 3d
       -0.85618776 -0.9764282 -0.37032324 0.09256477
0000a0 78 be 35 3f 76 a9 06 be 48 a4 29 3d da b8 1a bf
       0.7099376 -0.13150582 0.041416436 -0.6043831
0000b0 88 54 4a 3e 27 26 aa 3b 44 39 5d 3f d6 37 a2 3f
       0.19758809 0.0051925364 0.86415505 1.267329
0000c0 34 3e 9e 3e a1 6b 21 bf b6 73 55 be 8b d7 e8 3d
       0.30906832 -0.63054854 -0.20844921 0.113692366
0000d0 58 b2 bd bf f4 e1 f3 be b0 fd 01 3f 28 e5 5f bd
       -1.4820051 -0.47633326 0.5077772 -0.0546619
0000e0 e4 27 f7 be db 54 33 bf 25 4c d6 bf cb 96 9f 3f
       -0.48272622 -0.70051354 -1.6741987 1.2467893
0000f0 ee 97 93 bf b6 78 ac 3e f9 90 9e bf 4b 1d e9 3e
       -1.153074 0.33685845 -1.2387992 0.4553016

transformer.layers.0.0.static_alpha f4 [4, 5]
000000 00 00 00 00 00 00 80 3f 00 00 00 00 00 00 00 00
       0.0 1.0 0.0 0.0
000010 00 00 00 00 00 00 80 3f 00 00 00 00 00 00 80 3f
       0.0 1.0 0.0 1.0
000020 00 00 00 00 00 00 00 00 00 00 00 00 00 00 00 00
       0.0 0.0 0.0 0.0
000030 00 00 00 00 00 00 80 3f 00 00 00 00 00 00 00 00
       0.0 1.0 0.0 0.0
000040 00 00 00 00 00 00 00 00 00 00 00 00 00 00 80 3f
       0.0 0.0 0.0 1.0

transformer.layers.0.0.dynamic_alpha_fn f4 [8, 5]
000000 00 00 00 00 00 00 00 00 00 00 00 00 00 00 00 00
       0.0 0.0 0.0 0.0
000010 00 00 00 00 00 00 00 00 00 00 00 00 00 00 00 00
       0.0 0.0 0.0 0.0
000020 00 00 00 00 00 00 00 00 00 00 00 00 00 00 00 00
       0.0 0.0 0.0 0.0
000030 00 00 00 00 00 00 00 00 00 00 00 00 00 00 00 00
       0.0 0.0 0.0 0.0
000040 00 00 00 00 00 00 00 00 00 00 00 00 00 00 00 00
       0.0 0.0 0.0 0.0
000050 00 00 00 00 00 00 00 00 00 00 00 00 00 00 00 00
       0.0 0.0 0.0 0.0
000060 00 00 00 00 00 00 00 00 00 00 00 00 00 00 00 00
       0.0 0.0 0.0 0.0
000070 00 00 00 00 00 00 00 00 00 00 00 00 00 00 00 00
       0.0 0.0 0.0 0.0
000080 00 00 00 00 00 00 00 00 00 00 00 00 00 00 00 00
       0.0 0.0 0.0 0.0
000090 00 00 00 00 00 00 00 00 00 00 00 00 00 00 00 00
       0.0 0.0 0.0 0.0

transformer.layers.0.0.static_beta f4 [4]
000000 00 00 80 3f 00 00 80 3f 00 00 80 3f 00 00 80 3f
       1.0 1.0 1.0 1.0

transformer.layers.0.0.dynamic_beta_fn f4 [8]
000000 00 00 00 00 00 00 00 00 00 00 00 00 00 00 00 00
       0.0 0.0 0.0 0.0
000010 00 00 00 00 00 00 00 00 00 00 00 00 00 00 00 00
       0.0 0.0 0.0 0.0

transformer.layers.0.0.branch.norm.weight f4 [8]
000000 00 00 80 3f 00 00 80 3f 00 00 80 3f 00 00 80 3f
       1.0 1.0 1.0 1.0
000010 00 00 80 3f 00 00 80 3f 00 00 80 3f 00 00 80 3f
       1.0 1.0 1.0 1.0

transformer.layers.0.0.branch.norm.bias f4 [8]
000000 00 00 00 00 00 00 00 00 00 00 00 00 00 00 00 00
       0.0 0.0 0.0 0.0
000010 00 00 00 00 00 00 00 00 00 00 00 00 00 00 00 00
       0.0 0.0 0.0 0.0

transformer.layers.0.0.branch.to_qkv.weight f4 [192, 8]
000000 b7 c9 04 bd 3f c3 8e be 25 09 85 3e 34 af 60 3e
       -0.032418933 -0.27883336 0.2598354 0.21941835
000010 cd 51 5d be 61 14 45 3e 5c fe a0 bd 29 2f de bd
       -0.21613236 0.19246055 -0.07861015 -0.10848839
000020 5d c6 68 3d 8e ce 76 be de 67 44 3e 91 08 1f be
       0.0568298 -0.24102232 0.19180247 -0.15530612
000030 97 98 33 be 3c 83 07 3d 71 cc d7 bd 20 5c 15 3e
       -0.17538677 0.03308414 -0.10537041 0.14585924
000040 a9 97 9c 3e 70 1c 84 3e c7 db 74 bd 9e 08 37 be
       0.30584458 0.25802946 -0.05977991 -0.17874381
000050 e8 14 32 be 5c 46 b2 be 46 6f 49 be e4 bf a8 bd
       -0.17390788 -0.34819305 -0.19671354 -0.08239725
000060 65 cb d0 3d a1 e4 a9 be ee 24 38 be a3 74 9f 3e
       0.101950444 -0.33182243 -0.17982838 0.31143674
000070 db 43 80 3e 75 88 90 3e 06 4f 9c be 43 95 38 3e
       0.2505177 0.28229108 -0.3052904 0.18025689
000080 f7 f4 92 3e c7 05 b0 be 50 38 89 be 7e 90 4e 3d
       0.28702518 -0.34379408 -0.26800776 0.050430767
000090 d8 c2 9f be a0 4d b1 bd fd 0d 7a be 83 2c 2b 3d
       -0.3120334 -0.08657384 -0.24419399 0.041790497
0000a0 e3 ef 7c bc 5d 02 b1 3d 01 63 b3 be 4d 0c 86 3e
       -0.015438053 0.08643029 -0.3503647 0.2618126
0000b0 cf 2e 05 be c4 ae b1 3e 0a 17 5c 3e 84 28 61 bd
       -0.13006137 0.34703648 0.21493164 -0.05497028
0000c0 aa f6 62 be 40 08 85 3d 45 d7 a3 3e 1d 96 c4 3d
       -0.22164407 0.06495714 0.32000175 0.09598944
0000d0 83 a9 af 3e a6 9b 4f bd 7a 5e 3b be e4 08 a7 be
       0.34309015 -0.050685547 -0.18297759 -0.3262397
0000e0 26 f5 9f 3e 6a 14 90 bd d7 bc 55 be 4f 9b dd 3d
       0.3124172 -0.07035144 -0.20872818 0.108206384
0000f0 22 0c 8d 3e 58 11 f0 bd 0a 5a 99 3e b0 d7 5b 3d
       0.2754832 -0.11722058 0.29951507 0.053672493
000100 2b 09 af be 71 42 ad be 60 f5 a2 3d 02 6d 0a 3e
       -0.34186682 -0.33839753 0.07956958 0.13518146
000110 57 f3 3c be be b8 48 3e 02 35 89 3e b2 92 08 be
       -0.18452202 0.19601724 0.26798254 -0.1333721
000120 d1 f6 96 3e ec cf ee bc ec f1 82 bd 82 69 e4 bd
       0.2948518 -0.02915188 -0.06393799 -0.111529365
000130 43 65 7c 3e fc 45 2e be cb 74 b3 3e a3 60 9e be
       0.24648003 -0.17018884 0.35050043 -0.30933103
000140 5e dc b3 3e 60 23 9b be 8c 49 07 3e 87 09 6d be
       0.35129064 -0.30300426 0.1321165 -0.23148166
000150 2e cf 44 be 5d d9 60 3d 2f cb 94 3e 76 d5 56 be
       -0.19219658 0.054894794 0.29061267 -0.20979866
000160 3c b7 8c 3e be 0e 5a 3e ea 18 af 3c 8b 6f aa 3e
       0.27483547 0.21294686 0.021374185 0.33288226
000170 82 6e 15 3e 02 d3 85 be 38 ba 38 be d7 9e 8e 3c
       0.14592937 -0.2613755 -0.18039787 0.017409725
000180 68 70 89 3e bd 96 02 be 47 64 0d 3e e6 4c 3d 3d
       0.26843572 -0.12752815 0.13807784 0.046215914
000190 0b d1 8e 3e 13 76 85 be dc eb 01 3e a2 7c 4b 3e
       0.27893862 -0.26066646 0.1268763 0.19871762
0001a0 ce 40 a5 3d bc d8 c0 3d 16 03 58 be c3 d2 87 bd
       0.08069001 0.09416339 -0.21094927 -0.066319965
0001b0 94 44 6e be d5 db 07 be f3 a1 c6 bd 14 c9 88 bc
       -0.23268348 -0.13267453 -0.09698858 -0.016697444
0001c0 27 cc 85 be 50 87 84 be 2d e3 64 be 4e ad a9 be
       -0.26132318 -0.25884485 -0.22352286 -0.33140033
0001d0 03 b5 ab 3e a8 5c 7e be f1 e1 0f 3d bd c1 3d 3e
       0.33536538 -0.24840033 0.035127584 0.18530937
0001e0 5b b9 79 3e bc 4a bd 3d 13 29 7d bd 29 99 3a 3e
       0.24387114 0.0924277 -0.06180675 0.18222488
0001f0 6c 9c f5 bd b8 0a 5f 3e 3f 74 cb bd 8a 1d a1 ba
       -0.11992726 0.21781433 -0.099342816 -0.0012292129
000200 af de 72 be 64 23 cc bd 2a 1f 7f 3d e8 52 7b be
       -0.2371776 -0.09967688 0.06228558 -0.24543345
000210 8d ea d0 bc 98 26 bb bd eb ad 6f be 56 8e a7 3c
       -0.025502468 -0.091382205 -0.23406188 0.020453613
000220 49 f7 9c be 1b 57 a1 be be 14 58 3d e7 75 95 3b
       -0.30657414 -0.3151177 0.052754156 0.004561174
000230 82 f2 8b be dc 5b 50 3e ac 59 9c 3e 7f 23 09 3c
       -0.27333456 0.20347542 0.30537164 0.008370279
000240 0e 02 e3 bd cf 25 c6 3d c4 9b 8a 3d f9 8a b4 3b
       -0.11084376 0.0967518 0.06767991 0.005509731
000250 6b 35 9b be 04 67 a0 bc 38 f9 c0 bd a1 7a 4a 3e
       -0.30314192 -0.019580372 -0.09422535 0.19773342
000260 95 d4 81 bc a5 36 7d 3d f9 28 30 3e d6 c2 77 be
       -0.015848437 0.06181969 0.1720313 -0.24195418
000270 08 57 3f be f5 42 ac bd 5e ad 0c 3e 50 86 81 3e
       -0.18685544 -0.084112085 0.1373801 0.25297785
000280 68 ff c0 bd 6e 2a d2 bd 4d 85 9c 3e 9b 82 92 3e
       -0.09423715 -0.10261999 0.3057045 0.2861527
000290 6e dc 2a 3d 60 47 04 3e dd 7f 8f 3e 0a 9c c8 bd
       0.041714124 0.12917852 0.2802724 -0.09795387
0002a0 91 8f 4e bb 2e 22 38 be 1f fc 08 3d bd 3f bb 3c
       -0.0031518678 -0.17981789 0.033443566 0.022857541
0002b0 f2 e5 08 be c0 7d 80 3e 00 5a 87 3b 9d f3 ed 3d
       -0.13368967 0.2509594 0.004130602 0.11618731
0002c0 47 19 89 3e 73 fd 83 3d 76 77 c5 3d c6 3a 92 be
       0.26777098 0.06444826 0.09641926 -0.28560466
0002d0 01 93 8c be 03 b4 c4 bd ee 1a 87 3e bc 62 8b 3e
       -0.27455905 -0.09604647 0.26387733 0.27223766
0002e0 4d ea a2 be a8 2b 45 3e b7 46 6f 3e 34 43 8f 3e
       -0.31819382 0.19254935 0.2336682 0.2798096
0002f0 e0 c9 7d be bf c5 5b 3e c3 f1 14 3d 63 5d cd ba
       -0.2478404 0.21462153 0.036363374 -0.001566809
000300 01 8b 41 3e 50 62 5a be b1 f7 34 be 53 b2 5f be
       0.18900682 -0.21326566 -0.17672612 -0.21845369
000310 23 1d 83 3e a2 60 78 3c 4c 4d 81 3e 69 b0 44 be
       0.25608167 0.015159758 0.25254285 -0.1920792
000320 d7 43 3b be 80 e0 87 be 2f f1 49 be fe f9 2f bd
       -0.18287598 -0.26538467 -0.1972091 -0.04296302
000330 1e 83 19 be 0c c2 8d bd ce 83 a9 be c0 da 61 be
       -0.14991423 -0.06921777 -0.33108371 -0.22056103
000340 15 21 4e 3d 80 12 a1 be 8c af 57 be c9 fe 93 3e
       0.05032452 -0.31459427 -0.2106306 0.28905323
000350 e4 97 47 3e fb ee b3 3e 72 ad a3 be d6 16 97 be
       0.19491535 0.35143265 -0.31968266 -0.2950961
000360 36 cd b6 3d 02 ef 12 3e f5 45 33 be cc 84 fe 3c
       0.0892586 0.14348987 -0.17507155 0.031069182
000370 c6 c2 4a 3e e7 4b 87 3d b1 1f 8a 3e 60 3f e7 bd
       0.19800863 0.06606274 0.26977304 -0.11291385
000380 68 a1 8b 3e bd ac 89 be 61 46 72 be 86 1b 7e 3c
       0.2727158 -0.268896 -0.2365966 0.015509492
000390 c1 34 a9 be 5a 35 44 be da 1d 98 bd 57 f8 7c 3e
       -0.3304806 -0.19160977 -0.07427569 0.24704109
0003a0 6d eb 67 be 41 57 9a 3e d3 36 0f 3d 21 9c fa 3d
       -0.22648402 0.30144694 0.034964394 0.122368105
0003b0 66 00 20 3e ed 44 9b 3e 05 82 9e be 1f 9d 0f 3e
       0.15625152 0.30326024 -0.30958572 0.1402478
0003c0 57 f9 0e be 05 5f b9 3d af dc 9c 3d e1 57 97 3e
       -0.13962303 0.09051327 0.076592796 0.29559234
0003d0 5a d9 71 be 09 57 c7 bd a7 3b 61 be 30 a0 34 bd
       -0.2361807 -0.097333975 -0.21995412 -0.04409808
0003e0 69 be a0 3d 29 77 e5 bc 3f 39 7a bd 7b d1 28 3c
       0.07848818 -0.028010922 -0.06108975 0.01030385
0003f0 e9 63 89 3d a1 58 9f be 37 a8 ac be 69 9e 10 3e
       0.067085095 -0.31122306 -0.33722088 0.14122929

transformer.layers.0.0.branch.to_out.weight f4 [8, 64]
000000 90 7b 4f 3d 5e 1d 81 3d 98 74 da 3c 1c 34 5f bd
       0.050654948 0.063044295 0.026666924 -0.054493055
000010 30 7e ab 3c d8 e1 98 3d f2 f1 80 3d 50 b7 40 bc
       0.020934194 0.07464951 0.062961474 -0.011762455
000020 e0 9f 65 bc 90 be e2 bd 3c 84 c8 3d a0 b6 8d 3b
       -0.014015168 -0.11071503 0.09790847 0.004324749
000030 00 f0 fa bd a8 48 bf bc be 0e be bd 44 95 d3 bd
       -0.122528076 -0.023350075 -0.092801556 -0.103312045
000040 98 b7 7a 3d 00 df 75 bd a0 eb f1 3b a8 06 81 3d
       0.061210245 -0.060027122 0.007382825 0.06300098
000050 e0 04 e8 3d ca ac b2 3d d0 bb 3c 3d 40 c2 e7 3b
       0.11329055 0.08724363 0.04607755 0.007072717
000060 20 29 92 3d 00 44 4f b9 8c d2 4f bd e8 5f 05 3d
       0.0713675 -0.0001976639 -0.050737903 0.032562166
000070 88 05 aa bd b0 39 f3 bd d8 61 81 bd de d0 af bd
       -0.08301836 -0.118762374 -0.0631749 -0.0858476
000080 78 46 ef bd 56 13 b1 3d 82 8d b5 bd 60 8a c4 3c
       -0.11683363 0.08646266 -0.08864881 0.023991764
000090 c8 3d 75 3d 88 08 81 3c 70 87 9f 3d ec e7 35 3d
       0.059873372 0.015751138 0.077895045 0.04441063
0000a0 f6 fb be 3d 04 6f e1 3d 80 76 ac 3a 04 b0 8e bd
       0.093254015 0.11007503 0.0013157874 -0.06967166
0000b0 e8 c4 17 bd 6c d2 9d bd 88 43 c3 3d 34 82 00 3d
       -0.03705302 -0.077061504 0.09534365 0.03137417
0000c0 92 ef fc 3d e4 f0 7d 3d 00 ea 27 bd de ba a4 bd
       0.12350382 0.06199731 -0.040994644 -0.080434546
0000d0 70 14 47 bd 14 c7 6f bd 16 53 da 3d 7c c3 db bd
       -0.048603475 -0.058539465 0.10660379 -0.10730645
0000e0 10 56 61 bc 6e aa c5 3d 46 41 c2 bd fc 62 28 3d
       -0.013753429 0.096516475 -0.09485106 0.041110024
0000f0 20 8e e1 bc 5c d2 08 3d b8 f1 96 3d e4 b9 4d bd
       -0.02753359 0.03340374 0.07370323 -0.050226107
000100 2a 49 e0 3d f0 ca 4b 3c 66 6d 90 bd 88 06 b8 bc
       0.10951455 0.012438521 -0.07052116 -0.022464052
000110 3c 5d 33 bd d0 13 cb bd f0 82 05 3d 6c a5 04 bd
       -0.043790087 -0.09915888 0.032595575 -0.03238432
000120 fc 36 36 3d b0 df 2b 3d 3e 31 b4 3d 38 77 17 bd
       0.04448603 0.041961372 0.08798455 -0.03697893
000130 40 ed 6d bb ba 8e a2 3d 08 9d 5c 3d 90 f3 0d bc
       -0.0036304742 0.07937379 0.053860694 -0.008664027
000140 34 5f fc bd f0 1e ab bc 6c fa 8f 3d c6 21 ca 3d
       -0.12322846 -0.020888776 0.07030186 0.09869723
000150 80 19 8f bc a0 38 91 3c 24 2c 8f 3d f6 cb b6 bd
       -0.017468214 0.017727196 0.06990841 -0.08925621
000160 c0 a0 10 bb 38 1d a3 3d 60 0a da bc a0 84 31 3d
       -0.002206847 0.079645574 -0.026616275 0.04333937
000170 48 76 98 3c ca f4 a9 3d 90 a5 87 bd 68 98 e2 bc
       0.018611088 0.08298643 -0.066233754 -0.027660564
000180 48 18 a8 bc 14 84 b9 3d 28 78 22 bd 0c 17 85 bd
       -0.02051939 0.09058395 -0.03966537 -0.064985365
000190 26 a9 91 3d 7c 56 54 3d 80 87 d0 3b 1c 5e d1 3d
       0.07112341 0.05184029 0.006363809 0.10223028
0001a0 4a ec ae 3d 90 37 eb 3d 4a 11 fa bd 80 cf 7e bd
       0.08541162 0.11485207 -0.12210329 -0.062209606
0001b0 70 48 b7 3c 56 85 ba 3d 78 d3 fe bd f4 3a 3d 3d
       0.022373408 0.09107463 -0.12442678 0.0461988
0001c0 e4 ff 23 3d 44 24 aa bd 8c ac 50 3d e2 75 a2 3d
       0.04003896 -0.08307698 0.050945804 0.079326406
0001d0 30 47 50 3c 4a c5 d1 3d 30 dc d0 3c b0 e5 e2 bd
       0.012712285 0.10242708 0.025495619 -0.11078966
0001e0 4a a7 b6 3d ce 7e ec bd ce 48 90 3d e8 c6 85 bc
       0.089186266 -0.115476236 0.070451364 -0.016330197
0001f0 90 c5 f3 3c 72 9c aa bd 4c b4 ec 3d 8c 7d af 3d
       0.029757291 -0.08330621 0.115578264 0.08568868
000200 40 4e ea 3c d8 32 28 bd 88 8c f6 bc c0 f7 3c bd
       0.028601766 -0.041064113 -0.030096307 -0.04613471
000210 d4 cd b5 bd 3c ca 56 3d 8a b7 d2 3d d4 81 3b bd
       -0.08877149 0.05243896 0.102889135 -0.04577811
000220 40 a3 da bb f4 0f ee 3d 7c da 34 3d 62 38 ae bd
       -0.006672293 0.116241366 0.044153675 -0.08506848
000230 82 99 e1 bd 38 1b 87 bc 4a 6b d2 3d d8 9b b5 bd
       -0.110156074 -0.016492471 0.1027437 -0.088676155
000240 36 7d e2 3d b4 08 17 3d c8 d6 9e bd d2 4a be 3d
       0.11059038 0.036873534 -0.0775581 0.092916146
000250 6c 07 08 bd e0 f5 be bb de b6 f7 bd 1e 9a a7 bd
       -0.033210203 -0.0058276504 -0.12095426 -0.081836924
000260 c0 f2 d8 3b 92 4f a0 3d 78 92 14 bd 56 94 b5 3d
       0.006620735 0.07827677 -0.036272496 0.088661835
000270 0a ae fa 3d 10 88 04 3d f0 5a 1c bc e0 30 d1 3c
       0.122402266 0.03235632 -0.009543166 0.025536
000280 a0 35 4f 3c 00 9a 5a bd e0 fc f6 bd 1c d5 93 bd
       0.012647063 -0.053369522 -0.12059951 -0.07218382
000290 50 02 79 bd 80 d2 15 3d 3e 75 9f 3d 48 d7 a9 3d
       -0.06079322 0.0365777 0.07786034 0.08293015
0002a0 00 3a 33 bc 38 1b 7a 3d 48 8f b6 bd 3a d3 cf bd
       -0.010939121 0.061061114 -0.089140475 -0.1014771
0002b0 76 a6 c6 3d 80 b6 0b bb 40 f2 b4 3c b0 69 9f 3c
       0.09699719 -0.0021318495 0.02208817 0.019459575
0002c0 f8 62 95 bd 78 c4 ce 3d 90 65 3d 3c 00 52 19 bc
       -0.072942674 0.10096067 0.011559859 -0.009357929
0002d0 a4 fb 51 bd c8 7a 91 3d 40 a6 13 bd 26 3f cb 3d
       -0.051265374 0.07103497 -0.03604722 0.09924154
0002e0 9e bc fa bd b0 fc 6e 3d 28 8c 6c 3d 20 18 06 bc
       -0.12243007 0.05834645 0.05775085 -0.008184463
0002f0 d8 71 d8 bc 70 df 58 bc b4 ad ef 3d 70 a0 c5 bc
       -0.026421472 -0.013236865 0.11703053 -0.024124354
000300 f8 0e 6f bd 00 82 88 3d 1c 09 b3 3d e0 90 aa 3b
       -0.058363885 0.066654205 0.08741972 0.0052052587
000310 84 39 0e 3d 80 3e 94 3a 06 04 f4 3d a4 fe bf bd
       0.03472282 0.001131013 0.1191483 -0.09374741
000320 e6 91 a9 3d c4 ba 5e 3d 08 cc 1a bd 0c 4f 42 3d
       0.08279781 0.054377332 -0.037792236 0.047438666
000330 ce c7 da 3d b0 c3 73 bd 4a cc d4 3d 52 df d2 3d
       0.10682641 -0.059512794 0.103905275 0.10296501
000340 76 bd cf 3d 38 ac 90 bc 2e a1 bf bd b4 dd 94 3d
       0.10143559 -0.017660245 -0.093569145 0.07268849
000350 3c 72 18 3d b6 4a ca bd 92 8b c6 bd bc ea 26 bd
       0.037218317 -0.09877531 -0.0969459 -0.040751204
000360 0c 40 95 bd fe fd b1 3d e4 69 51 bd 00 f8 00 bc
       -0.072876066 0.08691023 -0.051126376 -0.007871628
000370 d8 44 c7 3c fa 97 94 3d e2 c4 be 3d d0 84 6e bd
       0.02432482 0.0725555 0.09314896 -0.05823213
000380 b8 ed d9 3d a0 86 36 bc 18 da d4 3d cc bc b9 bd
       0.106410444 -0.011140496 0.103931606 -0.09069213
000390 d8 1a f4 bc f8 6d bd 3d 20 49 a1 bb 00 d5 7a bd
       -0.029797956 0.092494905 -0.0049220473 -0.06123829
0003a0 ac 2a ec bd 26 d1 85 bd 70 5b de 3c 78 e1 02 bd
       -0.115315765 -0.065340325 0.02714321 -0.031953305
0003b0 88 4c 8c 3d d0 20 ee 3c 80 37 92 bc f4 07 09 bd
       0.06850535 0.02906838 -0.01784873 -0.03345485
0003c0 00 4c 32 39 0c 8d 92 bd 82 cf 88 3d bc 3f 2a bd
       0.00017003715 -0.07155809 0.06680204 -0.041564688
0003d0 7c e1 0d 3d f0 d3 70 3d 80 2f b2 ba 58 be e5 3d
       0.034638867 0.05879587 -0.0013594478 0.11217946
0003e0 60 fb 85 3d 7e 00 9c bd ac 87 2f 3d 68 bf 97 3d
       0.065420866 -0.076172814 0.042853996 0.07409555
0003f0 ce fe f8 3d 90 a1 b5 3c f2 88 98 bd b4 c1 b8 bd
       0.12157975 0.022171766 -0.07447995 -0.09021321

transformer.layers.0.0.norm.gamma f4 [8]
000000 00 00 00 00 00 00 00 00 00 00 00 00 00 00 00 00
       0.0 0.0 0.0 0.0
000010 00 00 00 00 00 00 00 00 00 00 00 00 00 00 00 00
       0.0 0.0 0.0 0.0

transformer.layers.0.1.static_alpha f4 [4, 5]
000000 00 00 00 00 00 00 80 3f 00 00 00 00 00 00 00 00
       0.0 1.0 0.0 0.0
000010 00 00 00 00 00 00 80 3f 00 00 00 00 00 00 80 3f
       0.0 1.0 0.0 1.0
000020 00 00 00 00 00 00 00 00 00 00 00 00 00 00 00 00
       0.0 0.0 0.0 0.0
000030 00 00 00 00 00 00 80 3f 00 00 00 00 00 00 00 00
       0.0 1.0 0.0 0.0
000040 00 00 00 00 00 00 00 00 00 00 00 00 00 00 80 3f
       0.0 0.0 0.0 1.0

transformer.layers.0.1.dynamic_alpha_fn f4 [8, 5]
000000 00 00 00 00 00 00 00 00 00 00 00 00 00 00 00 00
       0.0 0.0 0.0 0.0
000010 00 00 00 00 00 00 00 00 00 00 00 00 00 00 00 00
       0.0 0.0 0.0 0.0
000020 00 00 00 00 00 00 00 00 00 00 00 00 00 00 00 00
       0.0 0.0 0.0 0.0
000030 00 00 00 00 00 00 00 00 00 00 00 00 00 00 00 00
       0.0 0.0 0.0 0.0
000040 00 00 00 00 00 00 00 00 00 00 00 00 00 00 00 00
       0.0 0.0 0.0 0.0
000050 00 00 00 00 00 00 00 00 00 00 00 00 00 00 00 00
       0.0 0.0 0.0 0.0
000060 00 00 00 00 00 00 00 00 00 00 00 00 00 00 00 00
       0.0 0.0 0.0 0.0
000070 00 00 00 00 00 00 00 00 00 00 00 00 00 00 00 00
       0.0 0.0 0.0 0.0
000080 00 00 00 00 00 00 00 00 00 00 00 00 00 00 00 00
       0.0 0.0 0.0 0.0
000090 00 00 00 00 00 00 00 00 00 00 00 00 00 00 00 00
       0.0 0.0 0.0 0.0

transformer.layers.0.1.static_beta f4 [4]
000000 00 00 80 3f 00 00 80 3f 00 00 80 3f 00 00 80 3f
       1.0 1.0 1.0 1.0

transformer.layers.0.1.dynamic_beta_fn f4 [8]
000000 00 00 00 00 00 00 00 00 00 00 00 00 00 00 00 00
       0.0 0.0 0.0 0.0
000010 00 00 00 00 00 00 00 00 00 00 00 00 00 00 00 00
       0.0 0.0 0.0 0.0

transformer.layers.0.1.branch.0.weight f4 [8]
000000 00 00 80 3f 00 00 80 3f 00 00 80 3f 00 00 80 3f
       1.0 1.0 1.0 1.0
000010 00 00 80 3f 00 00 80 3f 00 00 80 3f 00 00 80 3f
       1.0 1.0 1.0 1.0

transformer.layers.0.1.branch.0.bias f4 [8]
000000 00 00 00 00 00 00 00 00 00 00 00 00 00 00 00 00
       0.0 0.0 0.0 0.0
000010 00 00 00 00 00 00 00 00 00 00 00 00 00 00 00 00
       0.0 0.0 0.0 0.0

transformer.layers.0.1.branch.1.weight f4 [64, 8]
000000 78 a4 b1 3d 07 b4 54 be 44 54 18 3e b6 c4 a7 3e
       0.08673948 -0.207718 0.14875895 0.32767266
000010 3d ed 85 be a6 c0 51 3e 89 3a a7 3e 34 08 a1 3e
       -0.2615756 0.20483646 0.32661846 0.3145157
000020 e4 f5 75 be 3b 6a 1e be f0 b8 7d 3e 14 9e 91 3e
       -0.24019581 -0.15470211 0.2477758 0.28440917
000030 e0 9a 1a 3e 04 53 9e 3e b7 8d 29 3e 57 b8 9e 3e
       0.15098143 0.3092271 0.16557966 0.31000015
000040 f9 cc 11 be dc 20 8c 3e be cd 66 be b8 b5 e5 bd
       -0.14238347 0.2736882 -0.22539422 -0.11216301
000050 e4 e2 ec 3b 40 0b 1b be 03 d5 e0 3d 30 ee 3b be
       0.007229196 -0.1514101 0.10978129 -0.1835258
000060 3a cd f6 bc 2d 81 81 3e 7e 3e 56 3e e4 52 8d be
       -0.030127157 0.25293866 0.20922276 -0.27602303
000070 69 de 9a be eb e1 18 3d fb 30 af be c4 e0 c3 bd
       -0.3024781 0.037324827 -0.34217057 -0.09564355
000080 56 a4 78 3b b7 e3 73 3e 5a 15 da 3d 09 47 ed 3c
       0.0037939749 0.23817335 0.10648604 0.028964536
000090 fd ce ef 3d 98 95 ae be 54 77 4b be 58 51 9d be
       0.11709402 -0.34098506 -0.19869739 -0.30726123
0000a0 9a 1a 03 be 82 3a a5 bd 19 ad a6 3d cf e2 b3 3e
       -0.12803116 -0.080678 0.081384845 0.3513398
0000b0 95 c6 98 bd 6c 90 03 3d 9d 0a 7f 3e 6d f1 ad be
       -0.074597515 0.032120153 0.24906392 -0.33973256
0000c0 6d 27 9f bd 43 2d a3 bd e1 08 7d be ab 3c 61 bd
       -0.07771192 -0.07967617 -0.24710418 -0.054989498
0000d0 1c 94 36 bc c1 1c de bd 74 55 f3 3d d0 06 bc bd
       -0.01114371 -0.10845328 0.11881533 -0.09180987
0000e0 f1 6e 5c be ed c3 b0 be 63 0c f6 bd 7e 1f 56 3e
       -0.21526696 -0.3452448 -0.12014081 0.20910451
0000f0 9a 09 a6 3c ab b5 9b be 1d 59 97 be a5 d5 09 3d
       0.02026825 -0.3041204 -0.29560176 0.033651013
000100 b7 3e eb 3d df 1a 8f be b5 01 73 be 94 0e 90 3e
       0.11486571 -0.2795019 -0.2373112 0.28136122
000110 dd 30 2b 3e 7a 6e 7e 3e 2a 38 7e 3d b1 65 93 3c
       0.16717859 0.24846831 0.06206528 0.017992826
000120 a0 49 42 bd 30 bf d2 3b 69 97 61 be 39 2d 83 be
       -0.047433496 0.0064314827 -0.22030415 -0.2562044
000130 87 ab 0b be 95 5a 93 3e c3 11 55 be 69 c2 8b 3e
       -0.13639651 0.28780046 -0.20807557 0.2729676
000140 ca b9 64 3e 7f e8 82 3e d9 37 3c 3e 4c 5c 87 3c
       0.22336498 0.25568005 0.18380679 0.016523503
000150 a7 16 98 be 05 91 6c be 9d b3 05 be 55 dd 87 be
       -0.29704782 -0.23102196 -0.13056798 -0.2653605
000160 a9 b5 b2 3e 6f 38 ab 3e b8 1a 56 3e d6 0f 28 3e
       0.3490422 0.33441493 0.2090863 0.16412291
000170 87 a5 07 3d 55 cd 21 3e 1a c6 a4 3c 69 a9 54 be
       0.033116844 0.15800984 0.020113993 -0.2076775
000180 17 9a 92 3d 21 dd 2c 3d b5 b8 aa be c5 02 4b 3e
       0.071582966 0.042203072 -0.33344045 0.19825275
000190 93 31 72 be 3a 77 d8 3d 69 41 08 be 28 66 02 bc
       -0.23651724 0.10569616 -0.13306202 -0.007958926
0001a0 5b ba 00 be 92 39 68 be 01 0b b5 bd 99 96 53 be
       -0.12571089 -0.22678211 -0.088399895 -0.20662917
0001b0 1d 33 b2 be d4 38 95 be 7d ea b6 bd 90 d2 ae 3e
       -0.3480462 -0.2914492 -0.08931444 0.3414502
0001c0 ee 6b 90 3e 76 a9 ec bd ad fe a3 3e 70 7d 89 3e
       0.28207344 -0.115557596 0.3203024 0.26853514
0001d0 6d 9b 47 be 5e a4 af bd 85 4d 52 bd 7c 98 34 be
       -0.19492884 -0.085762724 -0.05134346 -0.17636293
0001e0 b4 7a 9b be fc 58 20 be 10 0b d8 b9 73 94 20 bd
       -0.30367053 -0.15658945 -0.00041206973 -0.039204072
0001f0 cd 8b b6 3c ac 78 87 be 9c 88 0c 3e 1d ed 7a bc
       0.02228346 -0.26459253 0.13723987 -0.015315321
000200 d8 75 8e be 07 9c 74 be 45 4e 7a 3e 87 78 1e 3e
       -0.27824283 -0.23887645 0.2444392 0.15475665
000210 c9 4f 52 be a1 3c 88 3e c9 b6 3e be a1 c3 ae be
       -0.20538248 0.26608756 -0.18624415 -0.34133628
000220 30 8c 2e 3e 87 cf 7e be 2c d1 ac be 0c 6c 21 be
       0.17045665 -0.24883853 -0.33753335 -0.15763873
000230 b1 8e 6e bd c0 de 80 be 72 b5 64 3e 6b b3 8d 3d
       -0.05824155 -0.25169945 0.22334841 0.06918987
000240 06 8c 60 3d f6 3d 0b 3d 56 26 6c 3e 3b dd f9 3c
       0.054821037 0.033994637 0.23061499 0.030500999
000250 6d 3f 75 3e c9 2a 8f 3e e2 df dc bc 47 68 15 be
       0.23949976 0.2796233 -0.026962224 -0.1459056
000260 a4 cf 8c 3d 12 58 2a 3e ff ee 71 3e 25 56 70 3e
       0.06875542 0.16635159 0.23626326 0.23470362
000270 1d 53 e6 bd ae 3a 8e 3e e0 a0 b3 3d 4f 1d d1 3d
       -0.11246321 0.27779144 0.08770919 0.10210668
000280 ff 0a c7 3d 25 01 fd bd bd b7 8f bd f5 ae b4 3e
       0.09718894 -0.12353734 -0.07017467 0.35289732
000290 90 50 be 3d fb 29 98 3d 1e 0d 88 3d 17 5f 68 be
       0.0929271 0.07429882 0.06643127 -0.22692524
0002a0 a0 c4 4d bc 94 e3 31 be 47 00 8e be 0b 23 9b be
       -0.012559086 -0.1737197 -0.27734587 -0.30300173
0002b0 97 b3 de 3d 09 af ef bd e1 a8 6d bd 9c 59 81 bd
       0.10874098 -0.11703307 -0.058022384 -0.0631592
0002c0 7a 56 26 3e c3 d6 a5 be 52 71 53 be 8d 2a 86 3e
       0.16243926 -0.32390413 -0.20648697 0.2620434
0002d0 f0 31 be 3d 63 be 31 be 9b eb 40 bd a1 9b 9e be
       0.092868686 -0.17357783 -0.04709969 -0.3097811
0002e0 fa ba 80 bd e6 48 a3 be 0a bd 53 3c 5d fa 99 3e
       -0.06285663 -0.31891555 0.012923488 0.30073825
0002f0 19 80 b5 bd 88 9f 67 3e 42 e0 29 be 70 6e 8f be
       -0.08862323 0.2261945 -0.16589454 -0.28013945
000300 d8 23 61 be da 90 1f bb db 02 10 3e 0e 1d 55 3e
       -0.2198633 -0.0024347813 0.1406359 0.20811865
000310 8a 70 ae 3e 54 33 8f be 73 06 99 be 86 90 5b be
       0.34070235 -0.27968848 -0.29887733 -0.2144185
000320 72 e4 5e 3e b2 ca 37 be 1a 96 fd 3d c2 c3 af 3e
       0.21766832 -0.17948416 0.12382145 0.3432904
000330 35 e8 9b 3e f9 cc a4 3e 41 b6 f9 bc ca 30 1e be
       0.30450597 0.32187632 -0.030482413 -0.15448299
000340 c5 74 7f 3e 61 4e 3b be 93 2f 63 bd ba 7c 9e 3e
       0.24946888 -0.18291618 -0.055465292 0.30954534
000350 67 8b 54 3e af 15 38 3e f6 1a eb bd 25 e1 07 3e
       0.20756303 0.17977022 -0.11479752 0.1326948
000360 ac 41 8c be b2 2e 21 be 08 eb 51 3e d6 b7 33 be
       -0.27393854 -0.15740469 0.20499814 -0.17550597
000370 3d 62 16 3e 8c 8e 0f 3e cb 14 37 be e6 b8 4a 3e
       0.14685912 0.14019221 -0.17879026 0.19797096
000380 0e a6 b2 3e f6 dd 64 be 9a dc ab bd b1 9a ac 3e
       0.34892315 -0.22350296 -0.08391686 0.3371177
000390 c5 92 4a be 05 85 9f 3e f8 0a 46 be 91 8c de 3d
       -0.1978255 0.31156173 -0.19340122 0.10866655
0003a0 db 42 17 3e 16 a9 b9 3d f6 c1 8a 3e e1 2e 95 3e
       0.14771597 0.09065454 0.27101105 0.29137328
0003b0 8c d1 81 3e 15 f4 42 bd e8 13 86 3e 23 f5 7c be
       0.25355184 -0.047596056 0.26187062 -0.24702887
0003c0 79 d0 b3 3c 9e 06 9e bd 7b 98 a7 3e 8d 78 9e 3d
       0.021949993 -0.07716106 0.3273352 0.07737837
0003d0 da 62 e1 bc 3e d0 b1 be b2 c1 1b 3e a8 5b 68 be
       -0.027512956 -0.3472919 0.15210608 -0.22691214
0003e0 76 09 9f bd 5d 38 04 bd ff 12 b2 3d 6e 2d 8b 3e
       -0.077654764 -0.032280315 0.086950295 0.27183098
0003f0 33 96 12 3e 5c 00 b5 3e 97 ea f7 3d e5 8d 98 be
       0.14315109 0.35351837 0.12105291 -0.29795757

transformer.layers.0.1.branch.1.bias f4 [64]
000000 7d c1 a4 be 34 2c 9c 3e 21 e3 08 3e 31 18 3e be
       -0.3217887 0.30502474 0.13367893 -0.18563916
000010 fe d9 3a 3e 80 77 57 be 6c 80 b4 3e 9f 44 b3 bd
       0.1824722 -0.2104168 0.35254228 -0.08753323
000020 51 91 89 3e 96 6b a3 3e 22 6a 33 3e f3 b7 04 3c
       0.2686868 0.3191802 0.17520955 0.008100498
000030 43 87 89 be b1 e0 d5 39 f8 c2 92 3c 19 34 3f 3e
       -0.2686101 0.00040793934 0.017915234 0.18672217
000040 b3 a7 90 3e f8 22 b4 be c5 98 3f 3d a9 56 53 3e
       0.28252944 -0.3518293 0.04677655 0.20638527
000050 24 4d 8c be 0e 2f 18 3e c5 a4 ae 3c 8d 94 ad 3e
       -0.27402604 0.148617 0.021318803 0.33902398
000060 4f 96 8c be bb 35 d4 bd c5 78 96 3d fe e8 9f 3e
       -0.27458426 -0.10361811 0.07347254 0.31232446
000070 a6 2c f6 3d 8a 7d a5 3e 7e 27 87 be 10 cd 8f 3d
       0.12020235 0.3232234 -0.26397318 0.070215344
000080 46 ff 01 3a 55 98 5c 3e 91 f3 90 3e 1e a1 a6 3e
       0.0004958998 0.21542485 0.28310826 0.32544798
000090 4d 8c 81 3d 57 7c f8 bd 47 1c 34 3e e2 6a 87 3d
       0.063255884 -0.12133091 0.17588912 0.06612183
0000a0 72 5d 62 3e ea 79 9d be 6c 6c 41 be 71 d0 50 3e
       0.22105959 -0.30757076 -0.18889016 0.20392014
0000b0 89 f2 7d be 0c 11 70 be b4 d1 19 be 23 ba 7e 3d
       -0.24799551 -0.23444003 -0.15021402 0.062189233
0000c0 e4 b0 b3 3e 23 01 8c 3e ed 8c 3b 3e 7a 26 10 be
       0.35095894 0.27344617 0.18315478 -0.14077178
0000d0 5e 75 55 be 99 bf a4 be f1 ee 8c be 45 66 4d 3d
       -0.20845553 -0.32177427 -0.27526048 0.05014636
0000e0 31 4b 4b bd c7 ee e4 3c da 90 51 3d 7c 46 81 be
       -0.049632255 0.02794589 0.05116353 -0.25249088
0000f0 77 6b 16 be a7 88 45 be 08 c4 af 3d 03 7b 87 bd
       -0.14689432 -0.1929041 0.08582312 -0.066152595

transformer.layers.0.1.branch.4.weight f4 [8, 32]
000000 85 72 e5 bc bd fb f7 3c 84 4a c5 3a bb 30 01 bd
       -0.028008709 0.030271405 0.0015052115 -0.031540614
000010 73 aa 80 ba 00 0e e9 3d a9 c7 a4 3d ef 2f f3 bc
       -0.0009816423 0.113796234 0.08045895 -0.029685942
000020 f6 d4 6e 3d 83 0d 21 be 56 10 cd bd 32 b9 31 3e
       0.058308564 -0.1572781 -0.100128815 0.17355803
000030 30 ac 51 3d ed 9e 7c bd d3 8d cd 3d 44 82 c9 bc
       0.0511896 -0.061675 0.100368164 -0.024598248
000040 71 8d d3 bc 7c 32 00 bd 06 58 b3 bd 6a f1 0a be
       -0.02582428 -0.031298146 -0.087570235 -0.13568655
000050 c2 13 d0 3d d5 ff 84 3d 90 aa 8e bd ea 32 1d be
       0.101600185 0.064941086 -0.06966126 -0.15351453
000060 81 6c a3 3b 95 0a a7 3d e1 67 33 3e b5 3a 90 3d
       0.0049873 0.08156315 0.17520095 0.070424475
000070 60 c1 05 be 58 b0 ff 3b 0b 9a 88 3d 60 a2 e0 3d
       -0.13062048 0.0078030042 0.06670006 0.109684706
000080 af e2 fa bb 3c 0c 1d bc 0f 20 25 bd d8 9c af bd
       -0.0076564173 -0.009585436 -0.040313777 -0.085748374
000090 dd 34 ad 3d 3f f5 86 3d 04 1c 94 3d 11 2b 63 3d
       0.084573485 0.06589746 0.07231906 0.055460993
0000a0 32 4c c1 3d 66 12 eb bd a3 d0 fb bd 62 00 0e 3e
       0.09438361 -0.114781186 -0.12295654 0.13867334
0000b0 a8 da 12 bc f8 f9 7b 3d 0e 1d a7 3d 57 6b 88 bd
       -0.0089632645 0.061517686 0.081598386 -0.066610985
0000c0 93 0a 2a 3e c0 e2 2a be 01 ed a2 bd 5e e2 8e bc
       0.16605596 -0.16688061 -0.07955361 -0.017441925
0000d0 b8 4f 2a 3e 2c d0 02 be d5 0e 1a be 0b 8e 56 3d
       0.16631973 -0.12774724 -0.1504472 0.052381556
0000e0 05 f2 0d be 18 e6 87 3d 62 55 d0 3d a4 1b a9 3d
       -0.13861854 0.06635684 0.101725355 0.08257225
0000f0 77 e2 26 3d 56 56 fe 3d a6 63 69 bd 40 40 84 bd
       0.040743317 0.12418811 -0.056979798 -0.06457567
000100 e5 28 0b be 08 d2 03 be df 12 20 bd 02 d5 ed bd
       -0.13589819 -0.1287309 -0.039080497 -0.11612894
000110 fd 06 3c bd dc ba 0f 3e 22 43 c1 bd 6d 0c 40 3c
       -0.045905102 0.14036125 -0.09436633 0.011721713
000120 66 79 a5 bd d8 20 17 3e e5 b7 17 3d 52 b4 12 bd
       -0.080797955 0.14758623 0.03704061 -0.035816498
000130 5a 2b af 3d 3c 78 1b be b7 bd e1 3b b9 44 a6 3d
       0.085531905 -0.15182585 0.006889071 0.081185766
000140 42 4f be 3d fc ac 12 be 32 b9 46 bd f4 35 47 3d
       0.09292461 -0.14323801 -0.04851646 0.048635438
000150 60 d3 4b bd a0 58 4b bd bb a9 eb bd 1a 65 6a 3d
       -0.04976213 -0.049645066 -0.11506983 0.057225324
000160 c6 6b cb 3d 5e 87 db 3d d2 c1 cb 3d 09 31 fa 3d
       0.099326655 0.107191786 0.09949078 0.12216384
000170 52 89 c8 3d 25 23 30 3e ba 42 25 be ae b8 04 be
       0.09791817 0.17200907 -0.16138735 -0.12961075
000180 91 fa 3c 3d 87 d1 3d bc ed 76 31 3d 95 08 ff bc
       0.046137396 -0.0115856 0.043326307 -0.031132022
000190 b4 94 95 3c f0 26 bb 3d 6c 85 0b be ca da 5e bc
       0.018259384 0.09138286 -0.13625115 -0.013601968
0001a0 df 93 2d bd f3 36 b6 bb 4b b5 0a be 98 0c b5 bd
       -0.04237735 -0.0055607497 -0.1354572 -0.08840293
0001b0 8c c2 31 3e fc a7 9b 3c 0b 50 2f bd c4 58 97 3c
       0.1735937 0.019001 -0.042800944 0.018474944
0001c0 5b 16 25 39 4e 1b 0d 3e 5f 24 70 3d 7b 8a d7 bd
       0.00015743954 0.13779947 0.058628436 -0.1052446
0001d0 4f 6d e4 3d d9 0c 2d 3e 1a 39 16 3e 94 75 22 be
       0.111536615 0.16899432 0.1467022 -0.15865165
0001e0 08 1e 8f 3b 28 b9 08 be dc e9 28 3e eb ed 68 3d
       0.0043675937 -0.13351882 0.1649546 0.05686752
0001f0 d7 4b c7 bd ac 90 b0 bd 1c 91 c2 3d 32 83 27 be
       -0.09731262 -0.08621344 0.09500334 -0.16358641
000200 a5 94 17 3e 05 cf 08 bd d1 07 31 3e 62 7f 1d bd
       0.14802797 -0.033400554 0.17288138 -0.03845156
000210 8f 3e 2c 3d 55 9d 4a bd d1 fb 00 be 86 ca 02 3d
       0.042051848 -0.04946645 -0.1259606 0.031931423
000220 27 18 b9 bc e2 2a d8 3c da f8 10 3e c8 68 64 3c
       -0.022594525 0.026387636 0.1415743 0.013940997
000230 ac 82 a4 3d af c2 c2 bd 08 c0 55 3d 73 fe 1a be
       0.08032736 -0.09509789 0.05218509 -0.15136127
000240 7e e2 e8 3d 51 28 31 be b4 46 43 bd 46 ea d9 3d
       0.11371325 -0.17300536 -0.04767485 0.10640387
000250 2b f5 97 3c b9 01 2e 3e 31 b1 1e be 51 1c c4 bd
       0.018549522 0.16992845 -0.1549728 -0.095757134
000260 4b 44 2c 3e bf 7e 5b 3d bb 1c 30 bd 0d 8b ae 3c
       0.16822927 0.05358767 -0.04299615 0.021306539
000270 f5 42 34 be d5 96 68 3d f1 dc 03 be e1 97 6f 3d
       -0.17603667 0.05678447 -0.12877251 0.058494452
000280 23 5f 18 be d1 32 1d be cb 6e 2a be bb da 01 3e
       -0.14880042 -0.15351416 -0.16643827 0.12681095
000290 2c b2 82 bd 59 0e 94 bd 14 6d 03 be db 03 72 bd
       -0.0638164 -0.07229299 -0.12834579 -0.059085708
0002a0 1e 64 33 3e ff 50 59 bd d6 57 22 be 3c df 2b 3d
       0.1751866 -0.05305576 -0.15853819 0.04196094
0002b0 a3 e2 21 3e cd 2c f6 3c 16 7a c6 3d 5f 9b 23 bd
       0.15809111 0.03005066 0.09691255 -0.039943095
0002c0 87 a8 c9 bd 2f 67 61 bd fe 52 cf bc c7 9e 0d 39
       -0.09846597 -0.055030044 -0.025308128 0.00013505957
0002d0 ea 0a b1 bd 69 ca 13 3d 68 71 86 3c 27 ff 1b 3e
       -0.0864466 0.036081705 0.016411498 0.15234052
0002e0 42 6f 4a 3d 24 b4 e2 3c 45 1c 14 be 59 07 02 3e
       0.04942251 0.027673788 -0.14463909 0.12698115
0002f0 83 4d 5c bd e1 3a 2c be 50 0e 1b be 8b 9c 23 3d
       -0.05378486 -0.16819336 -0.15142179 0.039944213
000300 0e 5e a0 bd eb ef 18 be 64 c9 8d 3d 19 da ca 3c
       -0.078304395 -0.14935271 0.06923178 0.0247622
000310 0a 1c 89 3d e6 ab 73 3c a3 4f 35 3c 9e e5 0c 3e
       0.06694801 0.014872527 0.01106635 0.13759467
000320 97 e7 17 3e 49 65 1a 3e 64 ab 01 be dd 17 8f 3d
       0.14834438 0.150777 -0.12663037 0.069869734
000330 d1 fa ed 3d 3c 4c 6c bd a7 82 dc bd 1b ce 34 3e
       0.11620105 -0.05768989 -0.107671075 0.17656748
000340 64 b3 d5 3d f7 18 3e bd ae ca 21 3e 81 d4 3e 3c
       0.10434607 -0.046410527 0.15799972 0.011647345
000350 3b 91 3c bd 08 0c a2 3d 38 61 32 3e 81 05 aa bd
       -0.04603694 0.07912451 0.17419899 -0.08301831
000360 90 84 2c 3c 1a 7b 4a 3d 68 f4 26 be 8f d5 10 3e
       0.010529652 0.049433805 -0.16304171 0.14143966
000370 6c b9 8a bd 0f 43 d8 3d 98 8f d7 3d 02 03 16 be
       -0.06773648 0.105596654 0.10525435 -0.14649585
000380 80 a9 90 3d e7 eb 08 3d 78 b8 d2 3b 33 0d a9 bd
       0.070635796 0.0334281 0.006430682 -0.08254471
000390 fb b9 f2 bc a2 22 ea bd 51 e8 8d b9 e1 d9 28 be
       -0.029629698 -0.11432387 -0.00027066705 -0.16489364
0003a0 87 be 16 3d 97 d5 8b 3d 4b 9e bb bd a3 49 b1 3d
       0.036802795 0.068278484 -0.09161051 0.08656623
0003b0 0e b0 2b 3d f8 9d 07 3d 9f a5 c9 bd 12 9c 24 bd
       0.041915946 0.033109635 -0.09846043 -0.040187903
0003c0 c2 76 2e 3e 59 0a b8 bb 2a c9 06 3e 8c a1 c0 3d
       0.1703749 -0.005616468 0.13162675 0.094058126
0003d0 7c 03 69 3d 9f ff 28 3b 1d 53 34 3c 1c 97 2f 3d
       0.05688809 0.0025787128 0.011006144 0.04286872
0003e0 6e 63 9f bd 3b 86 fa 3c 49 ae 49 bc c3 5a c4 3c
       -0.077826366 0.030581584 -0.012309619 0.02396906
0003f0 c9 50 d7 bc bd 73 d8 3d 75 99 c7 3d 83 e9 69 3d
       -0.026283639 0.1056895 0.097460665 0.05710746

transformer.layers.0.1.branch.4.bias f4 [8]
000000 d0 23 c1 bd bd 52 01 be a6 ca e8 bd b9 e1 fc bd
       -0.09430659 -0.12629218 -0.11366777 -0.12347741
000010 bc 0e 8c bd a5 85 80 bd f8 78 1d be e7 79 0d be
       -0.06838748 -0.06275491 -0.15378177 -0.13816033

transformer.layers.0.1.norm.gamma f4 [8]
000000 00 00 00 00 00 00 00 00 00 00 00 00 00 00 00 00
       0.0 0.0 0.0 0.0
000010 00 00 00 00 00 00 00 00 00 00 00 00 00 00 00 00
       0.0 0.0 0.0 0.0

transformer.layers.1.0.static_alpha f4 [4, 5]
000000 00 00 00 00 00 00 80 3f 00 00 00 00 00 00 00 00
       0.0 1.0 0.0 0.0
000010 00 00 00 00 00 00 80 3f 00 00 00 00 00 00 80 3f
       0.0 1.0 0.0 1.0
000020 00 00 00 00 00 00 00 00 00 00 00 00 00 00 00 00
       0.0 0.0 0.0 0.0
000030 00 00 00 00 00 00 80 3f 00 00 00 00 00 00 00 00
       0.0 1.0 0.0 0.0
000040 00 00 00 00 00 00 00 00 00 00 00 00 00 00 80 3f
       0.0 0.0 0.0 1.0

transformer.layers.1.0.dynamic_alpha_fn f4 [8, 5]
000000 00 00 00 00 00 00 00 00 00 00 00 00 00 00 00 00
       0.0 0.0 0.0 0.0
000010 00 00 00 00 00 00 00 00 00 00 00 00 00 00 00 00
       0.0 0.0 0.0 0.0
000020 00 00 00 00 00 00 00 00 00 00 00 00 00 00 00 00
       0.0 0.0 0.0 0.0
000030 00 00 00 00 00 00 00 00 00 00 00 00 00 00 00 00
       0.0 0.0 0.0 0.0
000040 00 00 00 00 00 00 00 00 00 00 00 00 00 00 00 00
       0.0 0.0 0.0 0.0
000050 00 00 00 00 00 00 00 00 00 00 00 00 00 00 00 00
       0.0 0.0 0.0 0.0
000060 00 00 00 00 00 00 00 00 00 00 00 00 00 00 00 00
       0.0 0.0 0.0 0.0
000070 00 00 00 00 00 00 00 00 00 00 00 00 00 00 00 00
       0.0 0.0 0.0 0.0
000080 00 00 00 00 00 00 00 00 00 00 00 00 00 00 00 00
       0.0 0.0 0.0 0.0
000090 00 00 00 00 00 00 00 00 00 00 00 00 00 00 00 00
       0.0 0.0 0.0 0.0

transformer.layers.1.0.static_beta f4 [4]
000000 00 00 80 3f 00 00 80 3f 00 00 80 3f 00 00 80 3f
       1.0 1.0 1.0 1.0

transformer.layers.1.0.dynamic_beta_fn f4 [8]
000000 00 00 00 00 00 00 00 00 00 00 00 00 00 00 00 00
       0.0 0.0 0.0 0.0
000010 00 00 00 00 00 00 00 00 00 00 00 00 00 00 00 00
       0.0 0.0 0.0 0.0

transformer.layers.1.0.branch.norm.weight f4 [8]
000000 00 00 80 3f 00 00 80 3f 00 00 80 3f 00 00 80 3f
       1.0 1.0 1.0 1.0
000010 00 00 80 3f 00 00 80 3f 00 00 80 3f 00 00 80 3f
       1.0 1.0 1.0 1.0

transformer.layers.1.0.branch.norm.bias f4 [8]
000000 00 00 00 00 00 00 00 00 00 00 00 00 00 00 00 00
       0.0 0.0 0.0 0.0
000010 00 00 00 00 00 00 00 00 00 00 00 00 00 00 00 00
       0.0 0.0 0.0 0.0

transformer.layers.1.0.branch.to_qkv.weight f4 [192, 8]
000000 1b 43 29 bd 68 d2 1e be f1 fa b8 bd 55 3d 2c be
       -0.041323762 -0.15509951 -0.09032238 -0.16820271
000010 72 ed 69 bd 54 63 86 bd 5a 46 87 3e d5 49 21 be
       -0.05711121 -0.06561914 0.2642086 -0.15750821
000020 05 32 0a 3e b3 5d 38 be a3 cb f6 3b 10 f8 52 be
       0.13495643 -0.18004493 0.0075315996 -0.20602441
000030 60 85 a9 be a8 0d 76 be 1f 5f 19 3e e9 86 84 be
       -0.3310957 -0.24028647 0.14977692 -0.25884178
000040 71 55 a7 3e 6d e1 3b be af 98 9f be 75 3b 0c bc
       0.32682374 -0.18347712 -0.31171176 -0.008559098
000050 3e ac 0c be 75 f4 6e be f1 f9 28 3e ed 57 5f be
       -0.1373758 -0.2333544 0.16501595 -0.21810885
000060 a2 2c 03 bd f1 6b 8a be c2 00 3c be 88 c8 63 be
       -0.032024987 -0.27035478 -0.18359664 -0.22244465
000070 3a 05 70 be 02 dc 09 be bb 74 99 be a7 44 62 be
       -0.23439494 -0.13462833 -0.2997187 -0.22096501
000080 68 2e 6f be 75 46 28 3e f1 23 11 be c3 53 d0 3d
       -0.23357546 0.16433127 -0.14173867 0.10172226
000090 5e 49 45 3e 89 24 c4 bc 70 5a dc 3d e4 2d 29 be
       0.19266269 -0.023943203 0.10759437 -0.16521412
0000a0 d9 34 6b 3e 14 51 36 be 77 9a c0 3c 89 01 1e 3e
       0.22969379 -0.17804366 0.023511155 0.15430273
0000b0 44 c3 91 be 8e 8c 94 3c 57 72 c0 3c 2a e5 18 3e
       -0.28469288 0.018133428 0.023492021 0.14931169
0000c0 3c df 0d 3e 44 85 6c 3e c3 4c 4d be fd ff 0c 3d
       0.13854688 0.23097712 -0.20048814 0.034423817
0000d0 41 8e fe 3c 23 bb 62 be 5e c1 8d 3e fb 68 c2 bd
       0.031073691 -0.221417 0.2768659 -0.0949268
0000e0 72 8c e8 3d 82 e5 9c 3e d5 78 87 be c5 a8 99 bd
       0.11354913 0.3064385 -0.26459375 -0.07502893
0000f0 be 28 01 be 85 dd 95 be 10 00 53 be 04 f6 d1 3d
       -0.12613198 -0.29270568 -0.20605493 0.10252002
000100 37 64 d6 bb 32 d2 ab bd 76 36 82 3e e8 2c a2 be
       -0.0065427083 -0.08389701 0.25432175 -0.31674886
000110 0f fe 7b 3c 2b 40 2f 3e ad 1e b0 3d 40 1c af 3d
       0.0153803965 0.17114322 0.08599601 0.0855031
000120 30 24 8a 3e 39 b7 10 3d 6a d9 8b 3d 86 b4 d0 bd
       0.26980734 0.035330985 0.06828578 -0.10190682
000130 9f 6f 89 be c4 8c 98 be c4 2d 82 bd f3 60 96 3e
       -0.26842973 -0.29794896 -0.06356385 0.2937084
000140 d9 ca 90 3d 34 1c 4d 3e 66 b1 52 be dc 99 46 be
       0.0706994 0.2003029 -0.20575485 -0.1939463
000150 28 d5 2b 3e 38 17 64 be 68 a1 ab be 30 21 2d 3e
       0.16780531 -0.22274482 -0.3352158 0.16907191
000160 fd 4f a9 be a6 d7 8c 3e e2 d2 57 be 6b e3 b1 3e
       -0.3306884 0.27508277 -0.21076539 0.3474382
000170 f0 b9 2c be 6c 69 a4 be 3d df 86 be 9a 92 ad 3e
       -0.16867805 -0.3211168 -0.26342192 0.3390091
000180 62 b3 03 3c f2 b0 a8 3e 50 0d 22 3e b5 15 9d 3e
       0.008038374 0.329475 0.15825391 0.30680624
000190 f3 4c a8 be 16 80 e1 3d fb de 5b bd a5 7e 66 be
       -0.32871208 0.110107586 -0.053679448 -0.22509249
0001a0 3e e7 14 3c d8 26 f0 bd f7 4a 76 3e 09 47 43 3c
       0.009088336 -0.11726159 0.24052034 0.011918792
0001b0 49 45 22 3e c6 d6 8d 3d 23 58 15 3e 9d 56 34 be
       0.15846743 0.069257304 0.14584403 -0.17611165
0001c0 ac 76 b1 3e 11 4e 9c 3d d7 f0 8d 3e eb 31 ab 3e
       0.34660852 0.076320775 0.2772281 0.33436522
0001d0 48 f2 b4 be b0 bb 9d bd 05 d1 65 3e fe 91 9c 3e
       -0.35341096 -0.07701814 0.22443016 0.30580133
0001e0 4b 69 00 be 96 5c a4 be e5 60 b5 bd 33 97 b7 bd
       -0.12540166 -0.32101887 -0.08856372 -0.08964386
0001f0 00 d4 65 3e 35 1d 75 3e ee 54 cc 39 09 38 62 3e
       0.22444153 0.23936923 0.0003897319 0.22091688
000200 0f a9 5e be f7 31 de bd c1 cf 46 3e 34 f7 50 3e
       -0.21744178 -0.10849374 0.1941519 0.204068
000210 18 2d a5 be 95 64 98 be 2c a3 57 be b6 d2 b3 be
       -0.32260966 -0.29764238 -0.21058339 -0.35121697
000220 41 2f 8c be 62 2f 49 be 87 17 4d 3e 42 73 9c 3e
       -0.27379802 -0.19646981 0.20028506 0.30556685
000230 5c 2a 1e 3e 59 f3 2e 3d c3 31 35 be aa ac 86 3e
       0.15445846 0.042712543 -0.17694764 0.26303607
000240 ff fa a0 be c1 ad d6 3a 9a 1e 1c bd 87 2c 76 3e
       -0.31441495 0.0016378687 -0.03811512 0.24040423
000250 cf 57 89 be 2d b2 4b be 71 bb b2 be e0 ad 19 3e
       -0.26824805 -0.19892187 -0.3490863 0.15007734
000260 f1 59 aa 3e 0d b3 29 3d 98 15 5c 3e 56 dc 71 3e
       0.33271745 0.04143052 0.21492612 0.23619208
000270 0d 03 13 bb 74 b3 78 bd e4 30 bb 3c ec 7d 86 3e
       -0.0022432238 -0.060718015 0.022850461 0.26267946
000280 e6 de 8d 3e c8 dc d9 bd 58 f2 47 be 83 32 1e 3e
       0.2770912 -0.10637814 -0.1952604 0.15448956
000290 0e 22 a7 be d0 5d 6c 3e e0 c5 d3 bc bd 18 61 3d
       -0.3264317 0.23082662 -0.02585119 0.054955233
0002a0 29 01 9e 3d c7 88 9c bd c3 22 00 3e 92 85 4d be
       0.07715065 -0.07643276 0.1251326 -0.20070484
0002b0 ec e2 a7 bd dc 72 1e 3e 01 2b 08 be 6b 13 93 be
       -0.08197579 0.15473503 -0.13297655 -0.28725752
0002c0 50 1c b4 bd 5d 37 9a bd a3 09 86 bd bc a3 cb 3d
       -0.08794463 -0.07530091 -0.06544807 0.09943339
0002d0 64 ae 76 3e 1f 02 28 bc 70 c3 63 be 1f 2d 46 3e
       0.24089962 -0.010254412 -0.22242522 0.1935315
0002e0 24 87 f5 3d f8 44 da 3d 1f 94 89 3e eb b7 88 3e
       0.11988667 0.10657686 0.2687082 0.26702818
0002f0 84 34 26 be 29 a5 2d be 75 e7 a6 bd 97 03 63 3e
       -0.1623097 -0.16957535 -0.08149616 0.22169338
000300 f5 eb ad be 19 e8 95 b6 1e 25 10 3d cf a3 b4 bd
       -0.33969083 -4.4675658e-06 0.035191648 -0.088203065
000310 68 f7 77 be 70 b7 6e be 20 25 a8 3d 9a 05 5b be
       -0.24215472 -0.23312163 0.08210206 -0.21388856
000320 21 db 65 3c 81 32 61 bd 1a 31 24 be a1 6f 8f be
       0.014029295 -0.054979805 -0.16034356 -0.28014854
000330 69 b9 5c 3e 3c b7 62 bd 9d 6b 8a be 66 51 b4 3e
       0.21555103 -0.055350527 -0.27035227 0.35218352
000340 6a ac e9 3d 0b 2a 8c 3d 92 5c 66 be 98 99 9d 3e
       0.114098385 0.068439566 -0.2249625 0.30781245
000350 09 1c 25 3e f8 89 88 3e 45 56 e7 3d 17 b3 04 3d
       0.16123976 0.26667762 0.112957515 0.032397356
000360 fb f3 66 be da b9 b1 3e 4c 8b a5 bc ab 5f 5d be
       -0.22554009 0.34712106 -0.020208023 -0.21618526
000370 2e 8c 8d be 7b 4f 95 be 80 75 42 be ff bd 1b bd
       -0.2764601 -0.291622 -0.18990135 -0.03802299
000380 5f ca a9 3e 26 86 a5 3e 9b df 90 be bc 22 20 be
       0.3316221 0.3232891 -0.28295597 -0.1563825
000390 a8 2a 89 3e b8 7c d6 3d 3f 65 86 3e 13 30 82 3e
       0.26790357 0.10473007 0.2624912 0.25427303
0003a0 37 13 84 3e 06 dc 6b 3d df df 01 3e ea a8 0a be
       0.2579591 0.057582878 0.12683056 -0.13540998
0003b0 16 e0 a7 3e b6 76 a9 be 0a 70 8e be 4a f3 65 be
       0.32788152 -0.33098382 -0.27819854 -0.22456089
0003c0 43 79 67 be b0 23 39 bd 7f fe c5 3d 89 36 9c 3e
       -0.22604851 -0.04520005 0.09667682 0.30510357
0003d0 3d 79 45 be be f3 37 be 59 4c 04 3e 1b 01 17 3e
       -0.1928453 -0.17964074 0.1291975 0.14746515
0003e0 4d 14 8a be 0d c9 a6 3e 57 31 d7 bd 13 4f fa 3b
       -0.26968613 0.32575265 -0.10507458 0.007638821
0003f0 34 80 7b 3e 62 83 43 3e c7 04 4b be 79 92 bb 3d
       0.24560624 0.19093087 -0.19826041 0.09158797
