trained_models/physical_error_training/model_lr0.00005_8_1_4_4_.1_.1Error_date_20250812_epoch10000.pt (torch, 97337 bytes, 87 tensors)

cls_token f4 [1, 1, 8]
00000000: 8bee ab3e 77ad 293d f6a6 25be db91 2d3f
00000010: 75c3 033f 8010 9dbf b1a2 f5be ec4b a73e
0.3358043 0.041425195 -0.16176972 0.6780068 0.5147012 -1.227066 -0.47975686 0.3267511

categorical_embeds.weight f4 [3, 8]
00000000: d383 cebe f63e e6be 523e ab3f 3f1d 083f
00000010: 1633 a63e b244 a4bf d526 d03d d2d0 2d3f
00000020: 977d b43e e2c2 e8bf 4a14 c9be 181b 2bbf
00000030: 3ec0 2e3f 6f7f 8b3f 5e68 683f 58b3 c23f
00000040: a392 e33e 5efd a2be dc16 d43f 72c9 c8bf
00000050: 158d 7b3f 01cb 41bf 7a11 9dbf 63e9 e1bd
-0.4033495 -0.4496991 1.3378394 0.53169626 0.3246085 -1.2833464 0.101636566 0.6789676
0.35252067 -1.8184474 -0.39273292 -0.66838217 0.6826209 1.0898265 0.9078425 1.5210981
0.44447812 -0.3183393 1.6569476 -1.5686476 0.9826215 -0.75700384 -1.2270958 -0.11030843

numerical_embedder.weights f4 [8, 8]
00000000: b78e e8be 15b9 d53d 2594 2dbd d354 5c3f
00000010: 8e90 8f3f 37ab 0cc0 3d2a 233f 54bc a5be
00000020: d2d2 87be d2e6 d8be c91d 3fbd 2752 a23f
00000030: bcce 2a3f e270 01be f4e1 c23d c4c8 0e3f
00000040: d2f6 1cbf c786 783f c51d 0dc0 aaa5 cd3d
00000050: ee76 dabc 9679 893e 2c6f 93be 7fc8 da3e
00000060: 824c 2a3f 39cc 883e b427 c33e 81e5 873e
00000070: 0b35 2bbf 7553 cbbe 5527 b43f 3e77 0fbf
00000080: d574 47be fc19 bdbf ecd9 3dbf ffd3 92bf
00000090: 0f6d 823e 9d51 103f 3a29 2a3f b17f 6a3f
000000a0: 60ab f63a 47e2 64bf 37e3 1cbf 1303 72bf
000000b0: 6a15 013f 1c6f 3d3e 2f3f b1bf f13a 403f
000000c0: b05d a6bf c13e 70bf a808 613e d3d7 0ebf
000000d0: d6f0 3cbf f0f6 493f c1c7 b83e e7e5 20bf
000000e0: c12c 58bf 46b1 50be 1508 3fbe 59dd 7dbd
000000f0: ec00 493f f734 ab3f d0f8 e13e 405a b13f
-0.45421383 0.10435692 -0.04237761 0.8606693 1.121599 -2.1979501 0.63736326 -0.32370245
-0.2652803 -0.42363602 -0.046659265 1.2681321 0.667217 -0.12640718 0.095157534 0.55775094
-0.6131412 0.97080654 -2.204942 0.100413635 -0.026668038 0.26850575 -0.28795755 0.4273109
0.6652299 0.2671831 0.3811623 0.26542285 -0.6687781 -0.3971211 1.4074503 -0.56041324
-0.19478162 -1.4773555 -0.7416065 -1.1470946 0.2547383 0.5637453 0.66469157 0.9160109
0.0018819384 -0.8940777 -0.612842 -0.9453594 0.504233 0.18499416 -1.3847407 0.7508994
-1.2997341 -0.93845755 0.21975958 -0.5579807 -0.73804986 0.7889242 0.360899 -0.62850803
-0.8444329 -0.20380124 -0.18655427 -0.06197867 0.7851703 1.3375539 0.4413514 1.3855667

numerical_embedder.biases f4 [8, 8]
00000000: c863 03bf 118b 4c3f 37c5 7c3f dec3 cd3d
00000010: 263d ebbf 869e c0bf 7bf9 7dbf fb23 113f
00000020: 58f5 1cbf f936 e1be 8458 c2bf 241f 63bf
00000030: 5ed7 01c0 59b8 96bf dc77 863e 8b38 293f
00000040: 8a19 2e3f 082b c7be 64ef 3c40 7bca 3b40
00000050: d2c4 213e c1c8 613f de9f 513f b31a 77bf
00000060: 48b9 37be 4676 063f 8cef 58bf dfac 43bf
00000070: 4a2a 8c3e 1e94 0640 eb8c d1be c0e7 73be
00000080: 48eb b3bd 47b7 aabd e06d 90bd 9eb3 2bbe
00000090: f4d0 d33e c2af 87be 6100 1dbf f404 34bf
000000a0: 91e4 32be 8e42 b2bf 47d4 3c3f 891e aabf
000000b0: 7d5f 033d e31c 65bf 838e 07bc 7bc4 b4be
000000c0: 2e96 a73f d9e8 973f 6903 d03e 2546 5c3f
000000d0: b388 7fbf 5050 cd3f f2be c2bd 199d debe
000000e0: e482 2fc0 fb17 0cbe 677f fdbe 96de 4b3f
000000f0: 3de5 a73d 2b14 b63f c90d d4be 1aa6 5fbf
-0.5132413 0.798997 0.98738426 0.10047124 -1.8378036 -1.5048378 -0.992088 0.56695527
-0.61311865 -0.43987253 -1.5183263 -0.8871939 -2.02877 -1.1775008 0.2626332 0.661019
0.6800772 -0.38900018 2.9521112 2.9342334 0.15797737 0.8819695 0.8188456 -0.96525115
-0.17941773 0.5252422 -0.8474052 -0.76435655 0.27376014 2.1027904 -0.40927824 -0.23818874
-0.08785111 -0.08335739 -0.07052207 -0.16767737 0.41370356 -0.2650128 -0.61328703 -0.7032006
-0.17470004 -1.3926561 0.7376141 -1.3290569 0.032073487 -0.894972 -0.008273724 -0.35306153
1.3092706 1.1867934 0.40627602 0.8604453 -0.9981796 1.6040134 -0.09509076 -0.4347923
-2.742364 -0.13681023 -0.49511263 0.79636514 0.081980206 1.4224905 -0.41416767 -0.87362826

transformer.layers.0.0.static_alpha f4 [4, 5]
00000000: e7e6 673c 0000 803f 0000 0000 0000 0000
00000010: 0000 0000 e7e6 673c 0000 0000 0000 803f
00000020: 0000 0000 0000 0000 e7e6 673c 0000 0000
00000030: 0000 0000 0000 803f 0000 0000 becf 813f
00000040: 0000 0000 0000 0000 0000 0000 0000 803f
0.0141541725 1.0 0.0 0.0 0.0 0.0141541725 0.0 1.0
0.0 0.0 0.0141541725 0.0 0.0 1.0 0.0 1.0141523
0.0 0.0 0.0 1.0

transformer.layers.0.0.dynamic_alpha_fn f4 [8, 5]
00000000: a4f7 413a 0000 0000 0000 0000 0000 0000
00000010: 0000 0000 f162 27bc 0000 0000 0000 0000
00000020: 0000 0000 0000 0000 bfa3 c1bc 0000 0000
00000030: 0000 0000 0000 0000 0000 0000 cb1e b63c
00000040: 0000 0000 0000 0000 0000 0000 0000 0000
00000050: c420 5c3c 0000 0000 0000 0000 0000 0000
00000060: 0000 0000 fc64 e7bc 0000 0000 0000 0000
00000070: 0000 0000 0000 0000 4446 163a 0000 0000
00000080: 0000 0000 0000 0000 0000 0000 ccc6 533c
00000090: 0000 0000 0000 0000 0000 0000 0000 0000
0.0007399267 0.0 0.0 0.0 0.0 -0.010216461 0.0 0.0
0.0 0.0 -0.02363765 0.0 0.0 0.0 0.0 0.02223148
0.0 0.0 0.0 0.0 0.013435546 0.0 0.0 0.0
0.0 -0.028246395 0.0 0.0 0.0 0.0 0.00057325163 0.0
0.0 0.0 0.0 0.012925815 0.0 0.0 0.0 0.0

transformer.layers.0.0.static_beta f4 [4]
00000000: c58b 823f 314c 7f3f c1bf 823f 413f 863f
1.0198904 0.99725634 1.0214769 1.0488054

transformer.layers.0.0.dynamic_beta_fn f4 [8]
00000000: e69e ab3a a41a d9bd 2615 6e3e 07a0 d7bd
00000010: ab5b 02be 8f97 c93d 988d fe3d 2b19 1ebe
0.001309362 -0.106007844 0.23250255 -0.1052857 -0.12730281 0.09843361 0.124293506 -0.15439288

transformer.layers.0.0.branch.norm.weight f4 [8]
00000000: 1bb5 863f 2010 823f 9f37 7e3f 9fd1 7e3f
00000010: 3ce0 8c3f 1f55 883f d198 823f 7202 883f
1.0524019 1.0161171 0.9930362 0.99538606 1.1005931 1.0650977 1.0202886 1.0625746

transformer.layers.0.0.branch.norm.bias f4 [8]
00000000: be2a 963d a0f3 43bd 8851 aabc 8596 a13d
00000010: ce9a 9e3d 0d15 68bd 1af0 32bb f9c5 ab3d
0.07332371 -0.04783976 -0.02079083 0.078900374 0.077443704 -0.0566607 -0.0027303756 0.0838737

transformer.layers.0.0.branch.to_qkv.weight f4 [192, 8]
00000000: e849 fabe 640a b7be 9611 283d 60d6 ddbe
00000010: 6eb9 e63d 7c8d ff3e 4c1b 4fbe 20e9 633e
00000020: 1dba 8a3c 9fd8 c63e 14e1 cabc 2673 b13e
00000030: dc86 0c3e af6a acbe 8865 a7be a079 03be
00000040: 175c 3abe 2d20 bcbe 6f6b b4bc 59e1 91be
00000050: 9d0d 77bd ac07 b33e 93b0 74be dc8a 6ebe
00000060: 8e55 aebd b396 963e 2581 5cbd e530 06be
00000070: f470 d0bc 753b bebd 0777 783e 592a d1be
00000080: a2e8 90be f584 47be 9544 303d 01ce 8f3e
00000090: 74d4 1d3e 6adf 73be 608f eb3d fb26 81be
000000a0: 23d9 9dbd 0811 aa3d 5d21 8f3e 8762 44bc
000000b0: 854f f8bd 34d1 f63d dc36 5cbe 0a00 2dbe
000000c0: c827 52be a44e 42be f1c5 8ebe 753a a2be
000000d0: 229e d63e e11f 32be 4f74 8fbd 1bab 9cbc
000000e0: 3112 613e 1dc1 3abe 9447 2d3e fd9a bb3d
000000f0: c398 33bc c22d 66be be7d 85bd 4345 a63e
00000100: 7bae 493e 2956 443e d229 cebe efd4 b13e
00000110: 45a8 88be 0483 533e 4e7b 563e 6963 0b3e
00000120: b479 2bbe 956e 08be 43a4 293e 256c 97be
00000130: f7cf ac3d 4617 713c 218a 893d ae83 7cbe
00000140: 657e 97be 1b8e 7ebe 2614 73be fa93 c4be
00000150: 813b 8c3e 79d3 0d3e 99fa ffbd 3726 873d
00000160: 73ef 6f3e 6429 4e3d 4bc7 93be 1a33 583e
00000170: 9996 83bd 53b6 41be c7c8 8dbe 90c8 c6bd
00000180: 5c91 76be e00f 58bd ba8c a2be 5279 b43e
00000190: 032f c63e ca1a 66bd 6475 7e3e 6e62 ccbd
000001a0: da9c b83e 2223 95be d6bd c23d 4be8 b03e
000001b0: ced7 393e 3073 a6be b4c3 c1be 81da 993e
000001c0: 8c20 79bd 4102 8c3d be59 85bd 9be2 843e
000001d0: 9dae 8f3e d6d6 953e 044a a53e bd4e 843e
000001e0: 062e f63c 9e14 c53e c618 dcbe 1441 bd3e
000001f0: 3589 de3e 956f 9ebe d468 bc3d cca7 1dbd
00000200: c087 d7be ca0e 493e 2428 98be 12cb 6a3e
00000210: e545 c03e 783e 753d fe4d a3be 4eeb c53e
00000220: 3d60 43bd b02d 8c3e c722 403d 9920 bdbe
00000230: 7052 78bd 4898 2e3e c234 febd 5528 8b3e
00000240: bcf1 3f3d 0eeb 183e 8731 d0be 0210 a6be
00000250: c2c6 333e fb95 84be 4019 8d3e 69df 21be
00000260: 08af 863e 275f 17be 5a10 92be e60a 953e
00000270: 0c98 8f3e c0a8 80be 8711 ffbd 89a4 a6bd
00000280: 980e a8be 643d 83be 4f7a 42be 2371 5e3e
00000290: 948b d53e cf8c 7d3b 34a0 453e 2803 1ebe
000002a0: 6605 e63c c739 d33d 21f8 313d 265e b4bd
000002b0: 364a abbd c823 ebbd 5da0 473e d144 693e
000002c0: da36 57be dc2e 8e3e e02a 74bd 2037 8f3d
000002d0: 6f9a 7ebd 605e 7c3e 9a3d 97bd a7e4 00be
000002e0: 5466 863e 838c 9e3d f097 3bbe cfd1 343e
000002f0: dbac d2bd 6773 0a3e ba48 77be cae0 6e3e
00000300: 2ad7 4b3e 157d 2abe a2e2 7e3e 69bc c13d
00000310: f2a9 1e3e 8be0 aa3e 3f75 49be 3010 59be
00000320: 362c e7bd b1bf de3e 998d babe 19c1 a5bd
00000330: 1a1d 29be 4553 5fbe 9366 a83e 2592 9c3d
00000340: 72bc a63d 855c 47be b278 593e db9f b1bd
00000350: e62e a63c 030a f73d d326 0fbe 946a 24bd
00000360: 0a9d 843e 1714 8cbe 9b1f 0abe 825e 51be
00000370: d3b6 e0ba f459 90be 9a5d df39 0e80 8cbe
00000380: fb6e 6f3e 9d43 6c3e 0569 93be ec7b 95bc
00000390: 4f15 8e3c a78d 9e3e cefa 39be eccf abbe
000003a0: 230d 7b3e fa58 593e eee9 5dbe 54f2 ea3d
000003b0: cd40 9e3e 497d 063b b575 b43d 82df 6b3e
000003c0: e26c 5fbe ec01 bb3e 8b99 aebd 9ff8 423e
000003d0: 0748 50be f60f b9bd 3322 8f3c 3b22 eb3b
000003e0: 2fd8 af3e f6b8 2c3e bd32 8fbe 5e19 fe3c
000003f0: 93ec 953e 4401 05bd 8e30 41bd 5828 01bd
-0.4888451 -0.35750115 0.041032396 -0.43327618 0.11265837 0.49912632 -0.20225257 0.22256899
0.016934449 0.38837144 -0.024765529 0.34658164 0.1372332 -0.33675143 -0.3269465 -0.12839365
-0.18199192 -0.36743298 -0.022023885 -0.2849224 -0.060315717 0.3496679 -0.23895483 -0.23295158
-0.08512412 0.2941185 -0.0538341 -0.1310459 -0.025444485 -0.09288684 0.24264155 -0.4085262
-0.28302485 -0.19484313 0.043034155 0.28086856 0.15413076 -0.23815694 0.11501956 -0.25225052
-0.07707431 0.0830403 0.27955142 -0.011986381 -0.12124542 0.12051621 -0.21505302 -0.16894546
-0.20522988 -0.18975312 -0.27885392 -0.31685224 0.4191752 -0.17394973 -0.07004606 -0.019124558
0.21979596 -0.1823773 0.16921836 0.09160421 -0.010961714 -0.22478393 -0.06518124 0.32474717
0.19695465 0.19173492 -0.4026628 0.34732768 -0.2669088 0.20655447 0.20945475 0.1361214
-0.16745645 -0.13323434 0.16566567 -0.29574695 0.08438104 0.0147150215 0.06715799 -0.24659607
-0.2958862 -0.24858896 -0.23738155 -0.38394147 0.27389148 0.13850202 -0.124989696 0.06599086
0.23431186 0.050332442 -0.28862986 0.21113244 -0.064252086 -0.18917207 -0.27692243 -0.09706223
-0.24078888 -0.052749515 -0.3174799 0.3524881 0.38707742 -0.05617789 0.24849468 -0.099797115
0.36057168 -0.29128367 0.095088646 0.34552225 0.18148729 -0.32509756 -0.37844622 0.30049518
-0.060822055 0.068363674 -0.065112576 0.25954136 0.28062907 0.2926547 0.32283032 0.25841323
0.030051243 0.38492292 -0.4298765 0.36963713 0.43464056 -0.30944505 0.09199682 -0.0384901
-0.42095757 0.19634548 -0.29718125 0.22929028 0.37553325 0.059874028 -0.3189544 0.38656086
-0.0476992 0.27378607 0.046908166 -0.36938933 -0.060625494 0.17050278 -0.124124065 0.27179208
0.046861395 0.14933416 -0.40662786 -0.32434088 0.17556289 -0.25895676 0.27558327 -0.1580788
0.26305413 -0.14782391 -0.285281 0.29109877 0.2804569 -0.25128746 -0.12454515 -0.08136851
-0.32823634 -0.25632775 -0.1899197 0.21722846 0.41708052 0.0038688665 0.19299394 -0.15430892
0.028078746 0.103137545 0.043449525 -0.0880702 -0.08363764 -0.11481434 0.19494767 0.22780158
-0.21017018 0.27770126 -0.0596112 0.06992936 -0.062158998 0.24645376 -0.073847964 -0.12587224
0.26249945 0.07741644 -0.18319678 0.1765816 -0.10286876 0.13520585 -0.24148837 0.23327938
0.19906297 -0.16649278 0.24891141 0.094597645 0.15494516 0.33374438 -0.19673632 -0.21197581
-0.112877294 0.43505624 -0.36436155 -0.08093471 -0.16515008 -0.21809109 0.32890758 0.07645062
0.08141412 -0.19468887 0.21237448 -0.08673068 0.020286035 0.120624565 -0.13979654 -0.040140703
0.2590106 -0.27359077 -0.13488619 -0.20446208 -0.001714433 -0.2819363 0.00042603613 -0.27441448
0.2338218 0.23072667 -0.2879106 -0.018247567 0.017344145 0.30967447 -0.1816208 -0.3355707
0.2451673 0.21225348 -0.21671268 0.11472002 0.30908814 0.0020521453 0.08811513 0.2303448
-0.21818879 0.36524904 -0.0852538 0.19040154 -0.20339976 -0.090362474 0.017472362 0.0071757114
0.34344622 0.16867432 -0.27968398 0.031017955 0.29282054 -0.03247191 -0.047165446 -0.031532615

transformer.layers.0.0.branch.to_out.weight f4 [8, 64]
00000000: d69a 0f3d ad0f 82bd 8386 02be f1ec c4bd
00000010: e7f9 b1bd ca55 4bbb 0247 913d fca1 d03d
00000020: 7554 febc 8c84 98bd 115d a4bd ce1c 243d
00000030: a994 5e3d 5f3f 323c 2d13 bc3d 6a80 15bd
00000040: d212 abbd f30a 3f3b 7e00 c1bd 1790 d83d
00000050: add8 91bc 5b57 d93b 5e26 81bd 6efd 93bd
00000060: a429 033a 50a8 0b3b dddd 543d 4f88 09bd
00000070: d4d1 853c 9c62 f6bd bbb0 a2bd 785e 10be
00000080: dea4 c4bd 4c70 5a3d abe4 12bd f5bb 063c
00000090: 3a0d d8bc 23a9 cab9 05cb 29bd 76b9 d5bd
000000a0: 94e4 f6bc 3c72 9cbd 943a dbbd 2925 bfbd
000000b0: 7e41 56bd a909 1cbd 2970 ccbd 2dec 61bd
000000c0: 4af1 eabc 9ede a03c 3f77 ca3d b7e3 eabd
000000d0: 74a8 9ebc c98c c9bd 7d3a 64bd bb29 d3bd
000000e0: 63b3 353d 1edf b5bd 1acb 173d 945d 93bc
000000f0: d328 d23d b76a ae3c 3b09 c13d f202 d1bc
00000100: d2bc e63d f1e7 383c 02bd 2abd ea79 bebd
00000110: b4ff d33c 274f 1a3d e09d 9dbd 36f9 e3bc
00000120: 46a4 c43d 6324 3e3e 0ed5 c63d 708d f93c
00000130: 7f97 2238 482a 893d 9528 993a 2eec 893d
00000140: b05f af3d d3ef f0bd 33ba 813d c9a9 7abc
00000150: fc16 5cbd 7531 e7bc b5f7 ac3d d8c3 5fbd
00000160: bf3b 3cbd 1922 25bd 8f36 b43d a65d dabd
00000170: 76bf 0dbd c5e8 003e 8702 3dbd df52 b5bd
00000180: f5eb a6bd 92fe cebd ce7f b23b 174c c9bc
00000190: cbf8 a83d 24f1 3a3d 7549 85bc fc96 c13d
000001a0: 1bac c6bb 1154 e23d f4ab 553c 205e b43d
000001b0: d46d 963d f58c 1ebd b243 5f3d 4186 ba3d
000001c0: 1b47 88bd 6b86 c63d 4c99 09be 56bc 803c
000001d0: 0603 e0bc 31bc 74bd 99a4 8b3d e944 fcbd
000001e0: d207 83bd ddea 3f3e 2368 90bd 554b 213a
000001f0: ed91 40bd 6e63 8b3c c4bc 0bbd 83a7 d93d
00000200: bfc3 c33d 7d55 00be a1b5 3f3c 5b3c fbbd
00000210: 2636 e83c b69e 8bbd cfbd b5bc df09 5e3d
00000220: 78e8 2c3d 6c38 8abd 6bd3 a83b 6784 1a3e
00000230: c788 493d 5c94 0ebd e3ba c6bc cfd3 50bd
00000240: 61c8 93bb 448f 34bd 7ffd 1fbd f345 9ebd
00000250: 2c61 d5bc 741a 1f3d 2c4e 123d cf41 9cbd
00000260: ab28 81bd 4278 a4bd eca4 d7bc 510b 64bc
00000270: 1ee4 b8bc 2c77 933c ed72 733d 533e 95bd
00000280: cac3 8ebd b576 b53d b27f 1ebd 7276 ae3d
00000290: 3985 6dbd 5866 b3bd 06a2 363c fff5 1fbd
000002a0: 6d3f 8abd 0872 9e3d 6b2e 2cbd c0a3 943b
000002b0: 39e5 bebd 2918 f63d 22a0 e93d 0df1 cdbd
000002c0: 602b 713d 7f57 073d 13b0 243d fdc5 a0bc
000002d0: 4ed2 d7bc f4d5 843d e26f b9bc ece8 aebd
000002e0: 2545 66bd 97d6 6fbd 5432 45bc 9ee9 50bd
000002f0: 539f 09bc a52c 483c 765a bc3c 57b2 83bc
00000300: eba0 e0bd c40e 463d 8299 f4bc 6566 653d
00000310: 0e3d 3dbd 25ac d9bd 98d4 c5bc 87c3 48bd
00000320: 4260 d23d d117 f23d 097c 67bd dab8 553c
00000330: f3f5 22bc 897e 943d d5fa 503c 061e 4a3d
00000340: cb66 083e 4881 3cbe 157b 52bd cec1 26be
00000350: 7ce8 103c 9362 083e a2c1 c3bd e177 4bbd
00000360: dadc dc3d 7f3f b9bd 2646 aabd f696 94bd
00000370: dbcc 1ebd 32e0 bfbd 03f5 243c 581a 68bd
00000380: 7339 283d 2b0c a9bd 74d5 e93c a132 893d
00000390: c6fc cfbd ee74 053d 9a29 703d a497 ff3c
000003a0: 85c2 c23d f858 59bd fe07 69bc 3e6a e4bd
000003b0: 9e8f a0bd 2fa2 093e 83db 1b3d be78 d0bc
000003c0: 0d06 643d faea 6c3c b98d e6bc 5fde 78bc
000003d0: 0535 f1bd 2bce dc3d 80ca 9c3d 2589 b6bd
000003e0: bb28 99bb 99d7 4b3c cd51 af3d 5c22 f73b
000003f0: 3046 0abd d48c 9e3d 52f7 f1bc 2137 b3bc
0.035059772 -0.06350646 -0.12746625 -0.096155055 -0.08690243 -0.0031026476 0.07093622 0.10187146
-0.031046132 -0.07447156 -0.080255635 0.040066533 0.054340992 0.010879367 0.09183345 -0.03649942
-0.08353199 0.0029150813 -0.09423922 0.10574358 -0.017803514 0.006632728 -0.06306146 -0.07226072
0.00050034584 0.002131004 0.051969398 -0.03357726 0.016335405 -0.12030527 -0.07943865 -0.14098537
-0.096017584 0.05332975 -0.035862606 0.008223523 -0.026373494 -0.0003865446 -0.04145338 -0.104357645
-0.030138291 -0.07638976 -0.10704532 -0.093332596 -0.052308552 -0.03809515 -0.0998233 -0.055156875
-0.028679509 0.019637402 0.09886026 -0.114692144 -0.019367434 -0.09841306 -0.05571984 -0.10310694
0.04436053 -0.08880447 0.037058927 -0.017988957 0.10261693 0.02129112 0.09425589 -0.0255141
0.11266483 0.011285768 -0.04168416 -0.09300597 0.025878765 0.03767314 -0.07696128 -0.027828794
0.09601645 0.18568568 0.09708606 0.03046295 3.87649e-05 0.06697518 0.0011685068 0.06734501
0.08563173 -0.11764493 0.06334343 -0.015299269 -0.053732857 -0.028221825 0.08445684 -0.05463013
-0.045955416 -0.04031572 0.08799469 -0.10662393 -0.03460642 0.12588795 -0.04614499 -0.08853697
-0.08150474 -0.10107149 0.0054473644 -0.024572415 0.082505785 0.045640126 -0.016270379 0.09452626
-0.006062997 0.11051191 0.013041485 0.088070154 0.07345167 -0.038708646 0.05450792 0.09107638
-0.06654187 0.09693607 -0.13437384 0.015714806 -0.027345192 -0.059749786 0.06818504 -0.12317831
-0.06397976 0.18741937 -0.070511125 0.0006152888 -0.047014166 0.017015185 -0.034115568 0.106276534
0.0955882 -0.12532611 0.011701019 -0.12267371 0.028346132 -0.06817381 -0.022185234 0.054208633
0.042213887 -0.06749043 0.005152156 0.1508957 0.049202707 -0.034809455 -0.024259036 -0.050983246
-0.004509971 -0.04408194 -0.039060112 -0.077281855 -0.026047312 0.038843587 0.03571908 -0.076297395
-0.06306585 -0.0803075 -0.026323758 -0.013918714 -0.022569712 0.018001162 0.059435774 -0.07287278
-0.069709376 0.08860532 -0.038696 0.085186854 -0.05798838 -0.08759755 0.011147028 -0.03905296
-0.06750379 0.077365935 -0.042036455 0.004536122 -0.093210645 0.12016327 0.11407496 -0.100557424
0.058879256 0.033042427 0.04020698 -0.019625658 -0.026345398 0.06486121 -0.022636358 -0.0854052
-0.056218285 -0.05855426 -0.012035925 -0.051004045 -0.008399802 0.012217675 0.022992354 -0.01607625
-0.10968193 0.048353925 -0.029858354 0.056005854 -0.046200804 -0.10628537 -0.024149224 -0.049014594
0.10272266 0.11820949 -0.056514774 0.01304456 -0.009946334 0.07250697 0.0127551155 0.04934504
0.13320462 -0.18408692 -0.05138691 -0.16284868 0.008844491 0.13318853 -0.09558417 -0.049674872
0.107843116 -0.09045314 -0.08314161 -0.07255356 -0.038769584 -0.09368934 0.010068181 -0.05666575
0.041070413 -0.08254274 0.028544165 0.0669911 -0.101556346 0.032582216 0.058633424 0.031200238
0.09509758 -0.053063363 -0.014223097 -0.111530766 -0.07839893 0.13440774 0.03805114 -0.0254482
0.055669833 0.01446032 -0.02814375 -0.015189736 -0.11777691 0.10781511 0.07655811 -0.08912877
-0.004674045 0.012441539 0.08560524 0.0075419378 -0.033758342 0.077417046 -0.029536877 -0.021876873

transformer.layers.0.0.norm.gamma f4 [8]
00000000: 24fa a23c c602 153e cc7a 6f3e 304a f93d
00000010: 5e3e 203e f745 023e 40ea 223e 4375 2a3e
0.019894667 0.14551839 0.23386687 0.12172353 0.15648791 0.12722002 0.15909672 0.16646294

transformer.layers.0.1.static_alpha f4 [4, 5]
00000000: b5c4 7f3f 0000 803f 0000 0000 0000 0000
00000010: 0000 0000 08f0 bc3c 0000 0000 0000 803f
00000020: 0000 0000 0000 0000 9058 6bbd 0000 0000
00000030: 0000 0000 0000 803f 0000 0000 e245 46bc
00000040: 0000 0000 0000 0000 0000 0000 0000 803f
0.99909526 1.0 0.0 0.0 0.0 0.023063675 0.0 1.0
0.0 0.0 -0.057457507 0.0 0.0 1.0 0.0 -0.012101622
0.0 0.0 0.0 1.0

transformer.layers.0.1.dynamic_alpha_fn f4 [8, 5]
00000000: ed70 45bd 0000 0000 0000 0000 0000 0000
00000010: 0000 0000 17b7 e63b 0000 0000 0000 0000
00000020: 0000 0000 0000 0000 ebad bbbc 0000 0000
00000030: 0000 0000 0000 0000 0000 0000 bb96 1fbb
00000040: 0000 0000 0000 0000 0000 0000 0000 0000
00000050: 7250 893c 0000 0000 0000 0000 0000 0000
00000060: 0000 0000 839e 263b 0000 0000 0000 0000
00000070: 0000 0000 0000 0000 c2a7 7a3b 0000 0000
00000080: 0000 0000 0000 0000 0000 0000 d347 06bd
00000090: 0000 0000 0000 0000 0000 0000 0000 0000
-0.048203398 0.0 0.0 0.0 0.0 0.007040869 0.0 0.0
0.0 0.0 -0.022910079 0.0 0.0 0.0 0.0 -0.0024351317
0.0 0.0 0.0 0.0 0.016761992 0.0 0.0 0.0
0.0 0.002542407 0.0 0.0 0.0 0.0 0.0038246964 0.0
0.0 0.0 0.0 -0.03278334 0.0 0.0 0.0 0.0

transformer.layers.0.1.static_beta f4 [4]
00000000: 4f8b 7d3f ad1f 813f 5749 813f e934 843f
0.99040693 1.0087792 1.0100507 1.0328647

transformer.layers.0.1.dynamic_beta_fn f4 [8]
00000000: e4a4 093e d10f 953c 0263 e63d 87d5 a0bb
00000010: 4509 d0bd f45b 113b 6975 ec3d 71fd 94bd
0.13441807 0.018196018 0.11249353 -0.004908267 -0.10158018 0.0022180052 0.11545832 -0.072749026

transformer.layers.0.1.branch.0.weight f4 [8]
00000000: e89c 933f f2c2 663f 1942 803f 984f 713f
00000010: 7493 913f ab9c 823f b872 913f 1c5f 973f
1.1532259 0.9014121 1.0020171 0.94262075 1.1373124 1.0204061 1.1363134 1.18259

transformer.layers.0.1.branch.0.bias f4 [8]
00000000: 32d1 a33d 2538 4abd 094b 1a3e 6731 aabd
00000010: c3f9 e2bc f6f1 37bb b001 b73d 56f3 32bc
0.07998885 -0.04936995 0.15067686 -0.08310204 -0.027706986 -0.0028067804 0.08935869 -0.010922274

transformer.layers.0.1.branch.1.weight f4 [64, 8]
00000000: 5c1b 8c3e 57a6 9c3e a2ff c23d d356 a83d
00000010: 9c80 c03d 931b 703e 7d03 c53e 3611 85be
00000020: 5be0 20be c73f 73be 26db 17be 3505 3bbb
00000030: 9196 43be 3f16 063e 9d28 0e3c a3f8 7b3e
00000040: 0578 573e b1db 983e 414d c53e acf3 403e
00000050: 4abd 9c3e d28d a13e 1adc 6a3e 4d35 d63d
00000060: 2317 0fbd ce95 443e f072 503e c266 e23d
00000070: 93f9 b23c 43bc 633e 416d a83e f7ec 86be
00000080: b205 cbbe 29e9 59be e429 8b3c 2303 86be
00000090: da4e d03e bff1 c13d c73c 19be e47b e13e
000000a0: 3007 9f3e aea4 dd3d 5237 a33e bd43 01be
000000b0: d8e7 c7be 11b2 e63c 6d8a d83e 6a91 bf3d
000000c0: fb9e 97be 7c8c 903c 9f14 7e3d 50bc 14be
000000d0: 34cc a1be 3015 e7bb 4adc 9f3e a12f 883e
000000e0: 890a b63d 83bc fb3d 98a7 743e 6a40 23be
000000f0: c539 3a3d cfc5 bcbe 4886 a33e 673f 273e
00000100: 644f f33d a92f 343e 60a6 793e 769d e63d
00000110: ed66 b4be 1e93 52be 0cfb 56bd edc1 683e
00000120: 9a16 b0be d7a6 77be 9ae5 81be cef4 dd3d
00000130: 8202 b8bd e180 edbd 3c2c ccbe 7896 863d
00000140: 16d4 91be 0762 e13d 0d62 b7bc 879d ba3d
00000150: c312 93be e3e2 ad3e c1f2 ac3d 82d2 a03d
00000160: 4dd0 883d 5268 4cbc 15cb 7fbe eb47 dcbd
00000170: fb29 c7bd 15c3 d6be 4fe2 e03b 2fb9 cbbe
00000180: 3028 d93b f738 63bd 98f9 fc3d 4dc2 83be
00000190: de93 d43e ade0 43be ed44 cabe fad6 89be
000001a0: 8f4e 5f3e 408a 113e 3a43 b33e 1d60 abbe
000001b0: 0450 6b3e 013b 68be c275 d53e 72bb 87bd
000001c0: e24f 5cbe a877 353e 6dc2 21be a267 443c
000001d0: a557 b63e ef17 6c3e 90d1 d7bd a635 a73d
000001e0: f46e 9cbc 6aec abbd c526 3f3c a894 343e
000001f0: 112a a63c d23f 2c3e ce3f c73e b39f b3bd
00000200: 0d33 913e 91ef 55bc 979b f9bd e297 173e
00000210: 6ad3 a6be 9c10 7fbe 9c7c d53e 5023 3b3b
00000220: b130 883c 751e 3dbe 9a76 253e c731 a73e
00000230: 7934 8abe 59ed 533e 9b45 94be a1c6 8dbe
00000240: 2a65 863e 0ca3 9bbe 71dc dbbe a51c 393e
00000250: 014c a6be 3e9b 113d 585f acbe 8651 95be
00000260: 08a8 513e c900 37bd 4ec0 163d 323c 46be
00000270: 84d7 123e e06a e7bd b93e e3bd f814 4d3e
00000280: c9b4 a63e fd48 3cbe f525 43be 1b70 ee3c
00000290: b291 623e beaa 94be 5b61 3d3d 808a 023d
000002a0: 283a 77be ec52 633e 6237 9abe c198 433c
000002b0: f106 38be 1e2f c93e 4c1e 10be f04f b73b
000002c0: c844 34be 746f a23e b8d3 87be 63d4 b13e
000002d0: 0201 51be 4188 983e 328b 82be 5e6d 93be
000002e0: c9aa 3d3e 7ee3 12be 886d cd3c 7c5c 05be
000002f0: 37a0 17be 0d11 083d 163c f1be e618 aabe
00000300: aada dabc 1294 babe 6d75 0fbe 69a1 5f3d
00000310: cce7 b03d efdc 99bd 2f36 af3c 3e77 c0be
00000320: 3178 be3d c2d3 90be ac83 9cbe 7def 9cbe
00000330: 0183 f0bd f475 afbe 0ac2 513e d094 b5be
00000340: 7c44 203e 5e0d 933d 766b 873e 7867 293d
00000350: 3d19 a53e 3255 79be 63ea c0bd 43e4 2c3e
00000360: 7c00 eabe 543a bebe 915e b3be de77 b33c
00000370: 39a7 e43e b4bd a8be 19e0 b93c d95f 873d
00000380: 6e5c fe3d d418 2f3e ba03 e2bd 7e04 75be
00000390: 8d25 b73d 6cfe 2bbe d736 70be 3e0c 8fbe
000003a0: ca32 5c3e b3cb 36be 1ee9 4a3d 7535 afbb
000003b0: b663 afbe 3613 98bd 701d 81bc f9dc 6e3e
000003c0: 6788 0cbe 1271 96be a2ea c7be f69e 85be
000003d0: 091a da3e 7f3a b23d 4fdb 8e3c 4a71 f8bc
000003e0: f752 12be addc bfbd 569c 843e 578b 373e
000003f0: 5412 c93e 5702 ac3e a258 b13d b094 523d
0.27364624 0.30595657 0.09521414 0.082196854 0.0939953 0.23448019 0.38479224 -0.25989693
-0.15710585 -0.23754798 -0.14829692 -0.002853704 -0.19100405 0.13094424 0.008676675 0.24606566
0.21041878 0.2985511 0.38535503 0.18842953 0.30613166 0.31553513 0.22935525 0.10459385
-0.034934174 0.19197771 0.20356345 0.11054756 0.021847522 0.22239785 0.32895854 -0.26352665
-0.39652783 -0.2128035 0.016987748 -0.26174268 0.4068516 0.094699375 -0.14964591 0.44039834
0.3106017 0.10822426 0.31878144 -0.12623496 -0.3904407 0.02816108 0.4229311 0.093539074
-0.2961348 0.017645113 0.062031385 -0.1452496 -0.31601107 -0.0070520863 0.31222755 0.26598838
0.08888728 0.12291815 0.23892057 -0.15942541 0.04546525 -0.36869666 0.31938386 0.1633278
0.11880377 0.17596306 0.24379873 0.11260502 -0.35234776 -0.20563933 -0.05248551 0.22730227
-0.34392244 -0.24184738 -0.25370485 0.108377084 -0.08984853 -0.11596847 -0.39877498 0.065716684
-0.2848212 0.11005025 -0.022385621 0.09112077 -0.28725252 0.33962163 0.08444739 0.07852651
0.06680355 -0.012476044 -0.24979813 -0.10755905 -0.09724804 -0.4194571 0.0068629156 -0.3978972
0.006627105 -0.055474248 0.12352294 -0.25734177 0.41519064 -0.19128676 -0.3950571 -0.26921827
0.21807311 0.14212894 0.35012227 -0.33471766 0.22979742 -0.22678758 0.41691405 -0.06627549
-0.21514848 0.17721426 -0.15796824 0.011987599 0.35613742 0.23056005 -0.10538018 0.081645295
-0.019095875 -0.08394702 0.011666958 0.17634833 0.02028373 0.1682122 0.38915867 -0.087706946
0.2835926 -0.013057605 -0.121878795 0.14804032 -0.3258317 -0.2490868 0.41696632 0.0028554983
0.01662478 -0.1846865 0.16158524 0.32655165 -0.26993158 0.2069601 -0.28959355 -0.27690604
0.26249057 -0.30397832 -0.4294162 0.18077333 -0.3247986 0.03554844 -0.33666492 -0.2916376
0.20474255 -0.044678483 0.03680449 -0.193589 0.14340025 -0.11299682 -0.11095948 0.2002753
0.32559803 -0.18387218 -0.19057448 0.02910619 0.22125891 -0.29036516 0.046235424 0.031870365
-0.24143279 0.22199601 -0.3012038 0.011938275 -0.17971398 0.3929376 -0.14074057 0.005594246
-0.17604363 0.31725657 -0.26528716 0.3473235 -0.2041054 0.29791453 -0.25496823 -0.28794378
0.1852218 -0.14344594 0.025076643 -0.13023561 -0.14807211 0.033219386 -0.47116154 -0.3322212
-0.026715595 -0.36441094 -0.14009638 0.054597292 0.08637962 -0.07512843 0.021388141 -0.37590975
0.093002684 -0.28286558 -0.30569208 -0.30651465 -0.11743737 -0.3426968 0.20484176 -0.35465097
0.15651125 0.07180284 0.26449174 0.04135844 0.32245818 -0.24348906 -0.09419706 0.1688395
-0.45703495 -0.37153876 -0.35033086 0.021907743 0.4465883 -0.32957232 0.022689866 0.06610078
0.12419973 0.17099315 -0.11035867 -0.23927495 0.08942709 -0.16796273 -0.2345842 -0.27939028
0.2150375 -0.17851143 0.049538724 -0.0053469487 -0.3425576 -0.07425539 -0.015761107 0.23326482
-0.13723908 -0.2938314 -0.39046198 -0.2609784 0.42597988 0.087025635 0.017438559 -0.030327458
-0.14289461 -0.093682624 0.25900525 0.17924248 0.39271796 0.33595535 0.086594835 0.05141133

transformer.layers.0.1.branch.1.bias f4 [64]
00000000: b7fe 723e b93b 3dbe bad4 c3be d657 033e
00000010: 6c7e 4cbd d215 103c 9e42 0b3e 985f 5fbd
00000020: b432 c7be a970 0e3c 641a af3e 468a 503d
00000030: da90 9ebe cad0 9c3e 3b6c c3bd 65d7 b93d
00000040: 7fda 64be e7f4 c5be fe5c 75bb f133 de3d
00000050: ecb9 a43e 4d4e d83c 1c87 48bd 886f b03d
00000060: f980 a73d 381b 943e b1d8 b0be 8b5f 9d3c
00000070: f62a aabe 0fdc 783e 9e16 85be 1270 0bbb
00000080: 9379 763e cc3f 2b3e 98c5 9bbe 9768 a4bd
00000090: 0719 c4bd 6c48 92be 183e 453e 839a 073e
000000a0: da33 2bbe 9d0c 90bd f892 a3be d9f2 3dbe
000000b0: 0dfb 023e bde8 883e f7cc 7f3e 081d f7bd
000000c0: f1c7 57be b439 bc3d d69e b83e cbf7 44be
000000d0: 23b1 7c3e 1511 a7be 8ec0 b0be 8ce0 893e
000000e0: d6be a0bc 86f0 c5be 4bce 28be 61b9 8ebc
000000f0: 86a3 6f3e 1aea 87be 7826 59be 52c8 6bbe
0.23729979 -0.18479814 -0.38248235 0.12826476 -0.049925253 0.008794265 0.13599631 -0.054534525
-0.3890587 0.008693852 0.34199822 0.050913118 -0.30969888 0.30628043 -0.09542128 0.09074286
-0.22348975 -0.38663408 -0.003743946 0.10849751 0.32173097 0.026404524 -0.048956975 0.08615023
0.081788965 0.28927016 -0.34540322 0.019210598 -0.33235902 0.24302696 -0.25993818 -0.0021276516
0.24069814 0.16723555 -0.3042419 -0.080277614 -0.09575086 -0.28570879 0.19261968 0.13242535
-0.16718999 -0.07033656 -0.31948066 -0.1854967 0.12791081 0.26740065 0.24980532 -0.12066084
-0.21072365 0.091906935 0.36058682 -0.1923515 0.24676947 -0.3263022 -0.34521908 0.26929128
-0.019622248 -0.38660067 -0.16484945 -0.01742238 0.23402223 -0.26545793 -0.21206081 -0.23025635

transformer.layers.0.1.branch.4.weight f4 [8, 32]
00000000: 20cd d9bd 0d65 a8bc 15c1 c3bc 5735 25be
00000010: 24a1 3e3e 8ccd f3bd 1330 03be bd3c 9abd
00000020: f0b1 db3d c2dd b93d d92e 373e 2b10 6b3e
00000030: 1114 45be 81d8 47bc 471f 32ba cd31 3f38
00000040: 347d 9c3e fee4 2d3e 828a 043e c601 7d3d
00000050: a3f2 113d 7eb0 043a a029 03be 1559 3dbd
00000060: 2970 d1bd e8fd 893e 1f5c e8bd 1ffa 0c3e
00000070: dad0 353d 22f2 373e a016 473e 5358 7bbd
00000080: b477 013e 4c5e f0bd 0430 d0bd 6fb0 153e
00000090: 0ef4 25bd a191 47be b12e 123e 1d32 28bd
000000a0: 2b70 c3bd a09a 2dbe f16f d0bd efaa 53be
000000b0: 4b34 01be 2028 5cbc 956c 663e 40f4 4f3e
000000c0: a451 ae3d 8871 b43c 5604 dfbd c4ba 12be
000000d0: 30f3 093d 94ab f13d 76ad 593e bc14 423e
000000e0: 6be0 063d 657d 4ebe d61d 543d 6fca 403d
000000f0: c4c2 edbb 9f1c 5ebd 743d aabd c3d3 1e3e
00000100: d5a7 1dbe d825 af3c 40ef e83d dd5b dcbd
00000110: 48b1 18bd 2a1d 4a3e 8a4c e6bc 8001 02be
00000120: dcc8 fb3c 9bc2 7a3e a3ab b3bd 4e06 29be
00000130: 0a89 ec3d 614e 16be 9215 03be 8feb 61be
00000140: 47ea b53d 1457 243d 7a5c e8bd d511 c53c
00000150: 3884 623d fad3 2ebd 6318 92bd 26f6 cf3d
00000160: 97d5 55bb 74ba 053e ebb5 ccbd 7cce 143d
00000170: dd34 33be 5109 a5bd 65b1 663e 15c3 0bbe
00000180: 6ec3 c3bd fd6f 5abd 5679 24be 8522 19bd
00000190: 39b3 173e 4d7d 933e 4c69 7a3c 8738 093d
000001a0: 0bc4 6cbd 715c 0f3a f793 f9bc 15dd a1bd
000001b0: bd96 393e 4cc4 d6be 8285 9a3d 004a 8aba
000001c0: 6fd8 fdbd 62db 96bd 3b18 21be fde8 81bb
000001d0: bf88 fa3d 94e8 65be 6ad0 5f3e a657 6c3e
000001e0: bda6 573d 497a 5e3e 34c8 313c bbdd 18bd
000001f0: ba08 ecbc 2423 113e 5ddf aabd f259 2d3b
00000200: 41bf 253e 8ab1 b43d 7544 05be 3027 603d
00000210: 696f 28be 02b5 21be af55 6fbd 5b7e 12bc
00000220: f9f6 ebbd 0a82 093d abc9 833d c9f0 aabc
00000230: 999e 26bd 5c0c 58bd f4a2 333d 09e5 b8bc
00000240: 1431 34be e1ca 45bd cc70 5cbd f7ba 43bd
00000250: d2d6 c83d 535f 6b3d 8bb2 2ebc 9b89 0a3e
00000260: 8577 e3bd 2aa0 01bd 78d1 3f3c 2321 6dbd
00000270: 0adb 01be 3142 78be df04 11be 7f7d 49be
00000280: 93b4 5a3e 218d 9dbd c7c9 423e 8b43 8c3d
00000290: c4f7 41be a9be 31be 9348 2cbe d057 8dbc
000002a0: b858 7dbd 2139 4abe 9fcb 81be 0615 b4be
000002b0: 9780 10bd 0a69 a53e ee78 cdba f70d 423e
000002c0: da02 8bbe 15b3 953e ada8 4b3e d978 d83c
000002d0: e528 e6bb 6a29 4e3e 2965 3abd fa58 95bd
000002e0: afd8 82be b9d4 f5be 32f3 7f3c b471 90be
000002f0: 05e9 953c f43a 63be 59d8 45bc 5483 533d
00000300: 5f82 a93d 9158 98bc 0aa6 0ebd 29aa 3fbe
00000310: 0ad7 1b3e 492a 353d 0bea c5bd 3f4a c23d
00000320: b59b 303d 8e05 b23d 283e a3bd cef4 24bd
00000330: 6a01 e3bd dee0 a5bc ed71 cfbd 1617 e0bd
00000340: 427d e8bd b436 2b3e ea51 f83d 106c 403c
00000350: 31ca 90bb fcbd e03d 3f57 e1bd 3ce8 5bbd
00000360: f917 5dbd 72d1 09bd 675d f9bc 0890 193e
00000370: 2f02 2b3e d330 323d 4258 c43d 3938 7dbd
00000380: 079c 40bd 5f33 f93c beea fabd 041f 54bc
00000390: f8bd 723e c483 833e 87c0 663c f9e7 cebd
000003a0: d39d 933d 2074 7b3e 7646 0e3e ed3c 193d
000003b0: c304 af3d dd4a 31be 7265 d6bd 2525 0bbe
000003c0: 9c50 dbbd c1ac 0c3d 388f e03d 4482 143d
000003d0: f79b 8e3d c0f2 6d3d 9c96 06bd 1542 88bd
000003e0: 68a5 a03d 908e 403d 3fac 1abe 7a9f 66bb
000003f0: bed3 00be e09d 2e3e 727c 5c3d b6b6 14be
-0.106348276 -0.020555997 -0.02389578 -0.16133629 0.18616158 -0.11904439 -0.12811308 -0.07531116
0.10727298 0.090755 0.17888965 0.22955386 -0.19245936 -0.012197615 -0.0006794822 4.558433e-05
0.30564272 0.16981885 0.12943462 0.06176927 0.035631787 0.00050617 -0.12808847 -0.046227533
-0.10226471 0.26951528 -0.11345696 0.13767289 0.04438863 0.1796346 0.19442225 -0.06136353
0.1264332 -0.11736736 -0.10165408 0.14618085 -0.04051595 -0.19489147 0.14275624 -0.041063417
-0.09542879 -0.16953516 -0.10177601 -0.20670675 -0.12617604 -0.013437301 0.22502358 0.20308018
0.085116655 0.022026792 -0.10889499 -0.14329058 0.033679187 0.11800304 0.21257576 0.18953222
0.032928865 -0.20165022 0.051786266 0.047068056 -0.007255884 -0.054226514 -0.083125025 0.15510468
-0.15396054 0.02138035 0.11373758 -0.10759709 -0.037278444 0.19737688 -0.028112669 -0.12695885
0.030735426 0.24488299 -0.087729715 -0.16506311 0.115495756 -0.14678337 -0.12801197 -0.22062515
0.088825755 0.040122107 -0.113457635 0.024056355 0.055301875 -0.042682625 -0.07133558 0.10154371
-0.003262853 0.13059407 -0.099956356 0.03632973 -0.17500634 -0.080584176 0.22528608 -0.13648637
-0.0955876 -0.053329457 -0.16061911 -0.037386436 0.14814462 0.28806534 0.015283894 0.033501174
-0.05780415 0.0005468792 -0.030466063 -0.07903496 0.18123908 -0.41946638 0.07544996 -0.0010550618
-0.12394797 -0.07366063 -0.157319 -0.003964542 0.122331135 -0.22452003 0.21856847 0.2308031
0.05264925 0.21726336 0.010850955 -0.037320834 -0.028812755 0.14173561 -0.083433844 0.0026451317
0.16186239 0.088229254 -0.13014396 0.054724872 -0.1644875 -0.15791705 -0.058431324 -0.008941258
-0.11521716 0.03357128 0.064349495 -0.020866768 -0.040678594 -0.05274616 0.043856576 -0.02257015
-0.17596847 -0.048289184 -0.05381851 -0.047785725 0.09806599 0.057463955 -0.010662685 0.13529055
-0.11106781 -0.031646885 0.011707656 -0.05789293 -0.12681213 -0.24244 -0.14162014 -0.19676779
0.21357946 -0.07692934 0.19022284 0.0684882 -0.18942171 -0.17357887 -0.1682456 -0.017253786
-0.061852187 -0.19748355 -0.25350663 -0.3517229 -0.035278883 0.323067 -0.0015676299 0.1895064
-0.27150613 0.2923819 0.19888563 0.026424812 -0.007023918 0.20132986 -0.04550663 -0.072923616
-0.2555594 -0.48013857 0.015621947 -0.2821175 0.018299589 -0.22190458 -0.012075507 0.051638916
0.082768194 -0.01859692 -0.034826316 -0.18717255 0.1521875 0.04422978 -0.09663781 0.094868176
0.043117244 0.08692466 -0.0797084 -0.040272526 -0.11084254 -0.020248827 -0.101291515 -0.10941903
-0.11352016 0.16720086 0.12124999 0.011744514 -0.0044186343 0.10973737 -0.11002969 -0.053688273
-0.05397794 -0.03364701 -0.030440046 0.1499635 0.16700052 0.043503594 0.09587146 -0.061821196
-0.0470238 0.030420003 -0.12251805 -0.012946848 0.2370528 0.25686467 0.014083988 -0.10102839
0.07207837 0.24556017 0.13894066 0.03741162 0.0854583 -0.17313714 -0.10468568 -0.13588388
-0.107087344 0.03434444 0.10964817 0.036257043 0.06963342 0.058092833 -0.032858476 -0.06653229
0.07844049 0.04701096 -0.15104769 -0.003519027 -0.12580773 0.17052412 0.053829618 -0.14522824

transformer.layers.0.1.branch.4.bias f4 [8]
00000000: b720 57be a143 37bd 6c5e 0d3e efcf 06be
00000010: 3ead 31be a158 2cbd c6aa 05be e36e 3bbe
-0.21008573 -0.04474223 0.1380555 -0.13165258 -0.17351243 -0.04207671 -0.13053426 -0.18304019

transformer.layers.0.1.norm.gamma f4 [8]
00000000: 5801 0c3e d215 de3c cc14 ea3d 21c7 d03b
00000010: 1781 fb3d 2034 38bc 9834 0d3e 678f b33d
0.13672388 0.027110014 0.11429748 0.0063713943 0.12280481 -0.011242896 0.13789594 0.08767586

transformer.layers.1.0.static_alpha f4 [4, 5]
00000000: 478a 9dbd 0000 803f 0000 0000 0000 0000
00000010: 0000 0000 0b9d b8bd 0000 0000 0000 803f
00000020: 0000 0000 0000 0000 3588 c5bd 0000 0000
00000030: 0000 0000 0000 803f 0000 0000 e1b6 653f
00000040: 0000 0000 0000 0000 0000 0000 0000 803f
-0.0769239 1.0 0.0 0.0 0.0 -0.090143286 0.0 1.0
0.0 0.0 -0.0964512 0.0 0.0 1.0 0.0 0.89732176
0.0 0.0 0.0 1.0

transformer.layers.1.0.dynamic_alpha_fn f4 [8, 5]
00000000: ff3b d23d 0000 0000 0000 0000 0000 0000
00000010: 0000 0000 e8ea 2a3e 0000 0000 0000 0000
00000020: 0000 0000 0000 0000 a2e7 09be 0000 0000
00000030: 0000 0000 0000 0000 0000 0000 488d 123e
00000040: 0000 0000 0000 0000 0000 0000 0000 0000
00000050: 122e 18bd 0000 0000 0000 0000 0000 0000
00000060: 0000 0000 4610 943d 0000 0000 0000 0000
00000070: 0000 0000 0000 0000 6c4f 963d 0000 0000
00000080: 0000 0000 0000 0000 0000 0000 59f7 2b3e
00000090: 0000 0000 0000 0000 0000 0000 0000 0000
0.102653496 0.0 0.0 0.0 0.0 0.16691172 0.0 0.0
0.0 0.0 -0.13467267 0.0 0.0 0.0 0.0 0.14311707
0.0 0.0 0.0 0.0 -0.03715331 0.0 0.0 0.0
0.0 0.072296664 0.0 0.0 0.0 0.0 0.07339367 0.0
0.0 0.0 0.0 0.16793574 0.0 0.0 0.0 0.0

transformer.layers.1.0.static_beta f4 [4]
00000000: f454 753f 0edf 723f af9c 7e3f 30ed 853f
0.95832753 0.94871604 0.9945783 1.0463009

transformer.layers.1.0.dynamic_beta_fn f4 [8]
00000000: c809 9a3d 899a 6ebd 8f0b aa3d e5b5 153b
00000010: 7ce8 193d c59b 0bbd 6e1b 3a3c 63fb 103d
0.07521397 -0.058252845 0.08302986 0.0022844013 0.03757523 -0.0340841 0.011359079 0.03539599

transformer.layers.1.0.branch.norm.weight f4 [8]
00000000: dd98 8c3f 6a29 893f 4cc5 803f 183f 893f
00000010: b4a0 7f3f 48c4 8b3f 368a 893f 53b5 853f
1.098415 1.0715764 1.006021 1.072238 0.9985459 1.0919275 1.0745304 1.0445961

transformer.layers.1.0.branch.norm.bias f4 [8]
00000000: 169d 06bb e2a5 af3c ae98 ddbc 40d0 493d
00000010: 5cf4 29bd 5e6e 99bd 6e35 ddbc babd 05bd
-0.0020540408 0.021441404 -0.027050342 0.04927087 -0.041492805 -0.07491754 -0.027003016 -0.03265164

transformer.layers.1.0.branch.to_qkv.weight f4 [192, 8]
00000000: ff70 cf3d 4086 7e3d c0a6 583d 729f 29be
00000010: e609 6ebe 57de 0bbc 9d06 6ebe 1e17 b03e
00000020: 919b 90be a2ae be3d 3b52 6e3e 92dc 8cbc
00000030: e2de 6abe 9b4d ee3d fe2b 833e 306b d0bd
00000040: 0179 24be 910e b5be 435b bd3e 9558 c63c
00000050: b2a1 143e 2b92 9b3e 2590 65be 6750 89bd
00000060: d8a7 803d 99bf a53e 6226 3d3e c335 ffbd
00000070: a526 093e 2e31 dfbe a6fd b0bc 99e0 52be
00000080: b5fd 503e fc7b debe c532 b33e 70de 013e
00000090: a8d7 263d 1ff3 d23e a941 5abe 45e5 2f3e
000000a0: 54ec 943d e399 51be 3fe1 933e 7c4b 06bf
000000b0: 650b 033e 88b7 093e 6350 5dbd d4d4 d03e
000000c0: 71bc 8fbe bfbd cb3e 5e30 04bf d360 d43b
000000d0: 67be 543e f548 97be 924b d6bc 3703 14be
000000e0: ff79 f13c 19e4 01bd 615a 75be 858d 003f
000000f0: 7b9b babd 72fa 96be a29a eabe 15ee a9bd
00000100: 1b09 03be 0cac a8be 38bb 9c3e 1b9b 9cbe
00000110: 17ba 86be 94a3 403e 8f95 c43d a261 1ebe
00000120: 10ab 9fbd 8521 a7be 1bad 88bd c425 94bd
00000130: 711b b2be 8136 58be 853b a8be 759d 09bd
00000140: 5e71 b8bc 5126 84be 35c1 c1be 762b bd3e
00000150: feb8 72be 4d36 133e 8d42 79be 79f3 04be
00000160: be20 82be a794 003e e61a 763e aa29 5fbe
00000170: 1ebf b6bd 4649 3c3e 1eef b9be d161 e6bc
00000180: e035 bdba 5506 413d ff7f 973e 1096 09bf
00000190: a1dc 20be 0d9e 693d 4ade 903e 0930 a63d
000001a0: 7636 c2be 081c e33e 28a7 87be 26d5 c63d
000001b0: e77f 7f3d b9af 37be 0bb1 a73c 3c28 b1be
000001c0: 6de9 44be 8aa0 1ebe eeb1 873d 0620 85be
000001d0: c157 b5be e9fc 9d3d b8b5 d9bd 239b 253e
000001e0: 1ab4 903e 0649 a4bd 7e5e a0bd d784 e0be
000001f0: 2aa0 8e3e cbe6 983e cd12 013f 2399 653e
00000200: 684a 693e d507 30be 9fb8 a8bc 9b12 39bc
00000210: bbbb b3be 6eb7 9f3e 248b 7fbc b2d5 a5be
00000220: b245 22be 7ba4 aa3e 70c8 243e d1ba ac3e
00000230: 3515 14bd 738c 5dbe 2402 eabd 107c 073d
00000240: ac7e debd 76b4 8bbe 45e0 5cbe 6c6f 39bd
00000250: 70bf 063e e285 9cbe b389 3cbe 986f 8cbe
00000260: 9544 c73d 4e5f bcbe cf1a 943e b4a4 1fbe
00000270: 748b 493e a7ea 603e 1858 fdbd b6f9 f73d
00000280: f0f5 84be ea1a 713e e8b6 053d eff8 6abe
00000290: f47c bf3d ad19 59be b6e3 27be 6f52 dcbd
000002a0: 3729 843e 26da c8bd e4d0 00be 7710 19be
000002b0: 305c 913e 5ee0 1b3e 611a f1bd 3011 1fbe
000002c0: 601a 81be dbd4 3d3e 43cb 713b 1191 8c3e
000002d0: b50a d03d 5f0c 92be be59 afbe ca71 99be
000002e0: 87ca b0be 9e05 4ebe 935a 87be b919 81bd
000002f0: 40ce 063e 9a32 f33d bd77 f03d b4ca 49bd
00000300: cd7a 453e f5e0 fd3c 99e9 603e fbd3 33be
00000310: 52d9 1ebe 8385 b6be 0edc 5b3e 2a9e 85bc
00000320: c72a c43d b9ed 36bd 05d8 a13e e812 7abe
00000330: d45b 00be e4c3 2abb e906 91be 2481 393e
00000340: 2dce d7bd dd1c 82be 0bee 603c e087 1dbe
00000350: c090 c3bd d6e2 7dbc 33de a7be 3fcb 70be
00000360: 79e8 b0be 1a6f aa3d aa1b cf3c f7e3 85bd
00000370: 4e5f 413e 1cf6 70be c92c 85be 0af7 f8bd
00000380: 2007 b4be 1cbd 813e 0c23 cc3e aad4 85be
00000390: 37bc b8bd 37d2 b43e 1850 96be 13cb 323e
000003a0: 0c45 373e 4e68 a43e b583 8cbd b0b7 9a3d
000003b0: e69d 863e 23a9 e53d c36f edbd 4c64 c1bd
000003c0: 8321 3c3b bc20 b73d e182 71bc 4bc9 fdbb
000003d0: e38e 803e ce87 f6bd 570c a9be 0347 b13e
000003e0: 8162 a0be eddc 90bd 029e 44bd 0f73 68be
000003f0: bfc9 f13d 9418 b8bd 7b44 903e 9696 9fbe
0.10128974 0.06213975 0.0528934 -0.1656473 -0.23245963 -0.008536897 -0.2324471 0.34392637
-0.28243688 0.09310652 0.23273556 -0.01719502 -0.22936586 0.11635896 0.256195 -0.101766944
-0.16061784 -0.35362676 0.3698369 0.024212161 0.14514807 0.30384955 -0.22418268 -0.06704789
0.06282014 0.3237274 0.18471673 -0.12461426 0.13393648 -0.4359221 -0.021605324 -0.2059349
0.20409282 -0.43453968 0.34999672 0.1268251 0.04073301 0.41201112 -0.2131411 0.17177303
0.072716385 -0.2046886 0.28882787 -0.5245893 0.12797315 0.13448918 -0.05403174 0.40787375
-0.28073457 0.39793202 -0.516363 0.006481269 0.20775758 -0.2954785 -0.026159082 -0.14454351
0.029477118 -0.03171167 -0.23960258 0.5021594 -0.09111687 -0.2948795 -0.458211 -0.08297364
-0.12796442 -0.3294376 0.30611587 -0.30587086 -0.2631385 0.188124 0.095988385 -0.15466931
-0.077962995 -0.3264276 -0.06673642 -0.07233766 -0.3478656 -0.21114542 -0.3285791 -0.03359743
-0.022514995 -0.25810483 -0.37842718 0.3694722 -0.23703381 0.14376183 -0.24341793 -0.12983502
-0.25415605 0.12556706 0.24033698 -0.21793237 -0.089231715 0.18387327 -0.36315244 -0.028122814
-0.0014435612 0.04712518 0.2958984 -0.537446 -0.15709163 0.057035495 0.28294593 0.08114631
-0.37932175 0.44357324 -0.26494718 0.097086236 0.062377837 -0.17938127 0.020470163 -0.3460101
-0.1922967 -0.15490928 0.06625734 -0.26000994 -0.35418513 0.077142544 -0.10630363 0.16172461
0.28262407 -0.080217406 -0.07830523 -0.4385135 0.2785657 0.2986358 0.5041931 0.22421698
0.2278229 -0.17190488 -0.020595847 -0.01129594 -0.35104164 0.31194633 -0.015597139 -0.323896
-0.15846899 0.33328614 0.16092086 0.3373628 -0.036153037 -0.21635608 -0.114261895 0.0330773
-0.108640045 -0.27286118 -0.21569927 -0.045272276 0.13158965 -0.30570894 -0.18411903 -0.2742889
0.09729878 -0.36791462 0.28926703 -0.15590173 0.19682103 0.21964513 -0.12370318 0.121081755
-0.25968885 0.23545423 0.032645136 -0.22946523 0.09350005 -0.21201201 -0.16395459 -0.107579105
0.25812694 -0.098072335 -0.12579685 -0.14947687 0.28390646 0.15222308 -0.117726095 -0.155339
-0.25215435 0.18538229 0.0036894835 0.27454427 0.10158292 -0.28525063 -0.34248155 -0.29969627
-0.34529516 -0.2011933 -0.2643629 -0.06303734 0.13164616 0.11874886 0.11741588 -0.04926558
0.19285126 0.030991057 0.2196411 -0.17561333 -0.15512589 -0.35648736 0.21470663 -0.01631077
0.09578472 -0.044660304 0.31610122 -0.24421275 -0.1253503 -0.0026056701 -0.28325585 0.1811567
-0.10537372 -0.25412646 0.013728629 -0.15383863 -0.09549093 -0.015495976 -0.32786712 -0.23515032
-0.34552363 0.08321972 0.025281746 -0.065376215 0.18884012 -0.23531383 -0.2601073 -0.12156494
-0.35161686 0.25339592 0.3987049 -0.26138812 -0.09020274 0.3531663 -0.29357982 0.17460279
0.17897433 0.32110828 -0.068610586 0.07554567 0.26292342 0.11213901 -0.115935825 -0.09442958
0.0028706498 0.089417905 -0.014740677 -0.0077449433 0.25109014 -0.120376214 -0.33017227 0.3462449
-0.31325153 -0.07073388 -0.04800225 -0.22700141 0.11806058 -0.08989063 0.28177246 -0.31169575

transformer.layers.1.0.branch.to_out.weight f4 [8, 64]
00000000: 09ed c53d 666c dbbc 8b32 bebc 8222 aabd
00000010: 295b c3bd e868 4abd fb35 163d e47d 2dbe
00000020: f045 dc3d c1f8 b63d bf6c 013b 3ebd a1bc
00000030: 5102 05be 2312 9bbc 6727 c53c d1bb 67be
00000040: 07b9 f5bd ceb7 8a3d f352 61bd bb1a babd
00000050: 0c27 cfbc f214 263d 8f96 03be 4be6 96bd
00000060: b116 0cbc b596 d93c f7ed 3fbd cdab 253d
00000070: 777b 09bb ed44 843d 5280 ca3c 19c7 1b3e
00000080: 11d2 603c b396 9a3d eaca d23d 3731 01bd
00000090: 89c9 88bd c482 fb3d e8cf cb3c 9470 da3c
000000a0: f196 56bd 69f7 543b 4c02 cb3a cc4f c5bd
000000b0: 97a2 64bd 2e35 fc3d d614 f3bd da2e a93d
000000c0: 7ede 603d 15ec 023e 9a6e a93d 303e 093e
000000d0: dd2d c53c 1f05 8a3e 7d85 90be 1ed1 203e
000000e0: 9346 d53d 61b7 013d 08b2 95bd 7fa3 a53c
000000f0: 6a33 0bbe d82e 303d ac5b b53d f3ed 3e3e
00000100: a6a6 de3d 3611 823d d344 40bd 80e7 b43d
00000110: 59e7 dd3d 83c8 fd3d 82cd af3d 9c2b 663e
00000120: bf3f d1bd beff 82bd ad93 373d 1d60 373c
00000130: 4b65 183e 016e 53bd 35fb 8f3b 2520 1c3e
00000140: 0da1 c0bc 26ab 063d ebc3 bebd 3dc6 83bc
00000150: ba46 d43c 3e99 92bd 0b18 04bc 6098 cf3d
00000160: 814d 37bd 7b37 07bd 9774 e73b fb08 d2bd
00000170: 2ea6 943d 2b57 3e3d 3d5a 913d d2be d73d
00000180: eee8 a13d e073 7dbd cbc7 0dbe 06ef cf3c
00000190: f15d b83d b326 73bd e28e fcbb d5e6 c53c
000001a0: 13cf bbbd 551d 423d 02b1 fb3d d29e d3bd
000001b0: 7e37 60bc 38bf cb3b 5b23 c53d 76aa f63c
000001c0: 41cb 0a3e 0c8e 0fbe a445 a13d bbcf eabd
000001d0: 50b9 ff3c ed45 02be 3816 023e b602 f2bd
000001e0: 45e4 a73d 11b5 0ebe 716f 87bd f59b fabd
000001f0: b22a d23d 71fb 253d 270b a23d 1b08 9ebd
00000200: 17a3 9ebd b830 16bc 3765 5bbd a363 963c
00000210: 0ac9 b73c 66a3 80bc 3208 47bc aedf 39be
00000220: c2e0 90bd 50bb 46bd 7a78 41bd 2511 b03d
00000230: 091d 36be 2a8c 8f3d bf3e 393b b90a 0bbb
00000240: bdfc 32bd 965e 12bc eecc 6c3d 8b36 913c
00000250: a092 77bd e950 5c3c 3591 193d f02b 82bd
00000260: b97a 7dbd c903 51bc 3625 14bc 2798 883d
00000270: 70f9 5cbd 8212 81bd aae7 ec3c 7a45 203b
00000280: 1cc1 92bb 47b5 41bd 834a fcbc c1dd 973d
00000290: 2428 d8bc 6fee 1cbd b091 f7bc 19d1 92bd
000002a0: 0db8 c3bc 310c 8f3d de82 383d f081 6abd
000002b0: 93cb 433d 56a4 e13d f37b 75bd cac6 983d
000002c0: 0024 a6bd 6f7a 763d a4a2 0dbe 7367 4c3d
000002d0: 5016 ca3d 713d 143e 443e 50be 0052 2f3e
000002e0: e918 453d 1493 22bd fc2f 31bc cade 1cbd
000002f0: 4e72 c6bd 76af 983c ce0e a3bd c68e a23d
00000300: ffa6 cabd 5f13 17bb f13b 823d d3b3 233d
00000310: c7d1 4f3d beb7 9bbd f128 263d 8648 0dbe
00000320: d76e 97bd 07b9 003d 4bfb be3d a897 333c
00000330: 9449 a4bd 3b14 163e 1dd2 573d fe97 053b
00000340: 7b26 d93d 112c eebb 78f8 0d3d 0bca 0a3e
00000350: 8d64 a4bd 67cf 2d3d 4c92 d53d 9561 05be
00000360: 5878 9ebc f9b7 42bd 7cc0 4ebd 46b2 5abd
00000370: d375 cc3d abea a4bc aee1 8f3d 83a6 703d
00000380: 3d1d 7fbd 7c2c 6ebd 577d 6fbd c3d0 cfbb
00000390: f166 923d c170 b4bd 633c d83d 1d61 a1bc
000003a0: 3d7b b1bb 64a6 2fbd 9b7b f03d 81c8 e5bd
000003b0: 60c7 8bbd 3fab 27bd 7264 68bc 3f90 203c
000003c0: 7ef1 593d 9cec 68bd 82ef ed3d 1b4c b6bd
000003d0: d701 0a3d e26b 53bc 0756 8ebd 533c 803c
000003e0: d1e6 bb3d 7432 683c 2e84 0dbd 5275 fcbc
000003f0: 68a6 cb3b 259b abbc 0fcd 643d 2a79 04bd
0.096643515 -0.026785087 -0.02321746 -0.08307363 -0.09538872 -0.049416453 0.036672574 -0.16942555
0.10755527 0.08934165 0.0019748656 -0.019743558 -0.12989165 -0.018929547 0.02406664 -0.2263024
-0.11998182 0.06773339 -0.055010747 -0.0908713 -0.025287174 0.04054732 -0.12850402 -0.07368144
-0.008550332 0.02656112 -0.0468578 0.040447045 -0.0020978132 0.06458459 0.024719391 0.15212668
0.013721959 0.07548275 0.10292609 -0.031541076 -0.06679065 0.12280801 0.02487941 0.02666501
-0.052390043 0.00324961 0.0015488355 -0.09634361 -0.05581912 0.12314831 -0.118692085 0.08260889
0.054899685 0.1278537 0.08273049 0.13402629 0.02406972 0.26957032 -0.28226843 0.15704772
0.104138516 0.031669024 -0.073093474 0.020219563 -0.13593832 0.043013424 0.08855376 0.18645458
0.108716294 0.06350939 -0.046940636 0.088332176 0.10835142 0.1239176 0.085841194 0.22477573
-0.10217237 -0.06396435 0.04481857 0.011192349 0.1488239 -0.05161858 0.00439396 0.15246637
-0.023514295 0.032878064 -0.09314712 -0.016085738 0.025912631 -0.07158135 -0.008062373 0.10136485
-0.044751648 -0.033011895 0.007063459 -0.10255619 0.07258259 0.04646985 0.0709729 0.10534443
0.07905756 -0.061878085 -0.13845746 0.02538253 0.09002293 -0.05936308 -0.0077074626 0.02415792
-0.09170356 0.047391254 0.12289621 -0.10333027 -0.013685105 0.0062178634 0.09625884 0.030110579
0.13554098 -0.1401903 0.07874611 -0.11465403 0.031216294 -0.12721987 0.12703788 -0.11816923
0.08197836 -0.13936259 -0.06613053 -0.12236778 0.1026205 0.040522996 0.079122834 -0.0771639
-0.07745951 -0.009166889 -0.053563323 0.018358057 0.02243473 -0.015702914 -0.01214795 -0.18151733
-0.07074119 -0.04851848 -0.047234036 0.0859702 -0.17784514 0.07009156 0.002826616 -0.0021216108
-0.04369806 -0.008933684 0.057812624 0.017726203 -0.060442567 0.013447025 0.037491996 -0.06356037
-0.061884616 -0.01275725 -0.009042075 0.06669646 -0.05394882 -0.06302358 0.02891906 0.0024455474
-0.004478587 -0.04729202 -0.030797249 0.07415343 -0.026386328 -0.038313325 -0.030220836 -0.071687885
-0.023891473 0.06984747 0.04504668 -0.057252824 0.047801565 0.11017673 -0.05993266 0.07459791
-0.08112335 0.060175356 -0.13831574 0.049903344 0.09867537 0.14476563 -0.20336252 0.17121124
0.04811946 -0.039691046 -0.010814663 -0.038298406 -0.09689771 0.018638354 -0.07961808 0.07937388
-0.09895133 -0.0023052318 0.06359089 0.039966416 0.05073717 -0.076034054 0.04056639 -0.13797197
-0.07394188 0.031426456 0.09325274 0.010961451 -0.080218464 0.14656155 0.052690614 0.0020384784
0.10603043 -0.0072684367 0.034660786 0.13553636 -0.08026991 0.042434122 0.104282945 -0.13025506
-0.019344494 -0.04753873 -0.050476536 -0.05339267 0.09983411 -0.02013143 0.07025467 0.058752548
-0.062283743 -0.058147892 -0.058469143 -0.006342025 0.07148541 -0.088105686 0.10558393 -0.019699628
-0.0054163025 -0.04288329 0.11742326 -0.11219884 -0.06825137 -0.040934797 -0.014184104 0.009800016
0.05320882 -0.056866273 0.11617948 -0.08901235 0.03369316 -0.012904139 -0.06950002 0.015653765
0.09174884 0.014172185 -0.034549884 -0.030817661 0.0062149055 -0.020948002 0.05585962 -0.032342114

transformer.layers.1.0.norm.gamma f4 [8]
00000000: ab8b ed3d d9ae 3d3e 740e cb3d e934 d03d
00000010: 6ef8 113d 94ce 913d 16e7 6f3d 10a7 243e
0.11598905 0.1852373 0.09914866 0.10166342 0.03563731 0.0711948 0.05856999 0.16079354

transformer.layers.1.1.static_alpha f4 [4, 5]
00000000: 30b5 08bd 0000 803f 0000 0000 0000 0000
00000010: 0000 0000 d74f 0cbd 0000 0000 0000 803f
00000020: 0000 0000 0000 0000 b234 733f 0000 0000
00000030: 0000 0000 0000 803f 0000 0000 dcd1 9b3d
00000040: 0000 0000 0000 0000 0000 0000 0000 803f
-0.03337592 1.0 0.0 0.0 0.0 -0.03425583 0.0 1.0
0.0 0.0 0.9500228 0.0 0.0 1.0 0.0 0.07608387
0.0 0.0 0.0 1.0

transformer.layers.1.1.dynamic_alpha_fn f4 [8, 5]
00000000: 0102 c23c 0000 0000 0000 0000 0000 0000
00000010: 0000 0000 beb0 023d 0000 0000 0000 0000
00000020: 0000 0000 0000 0000 78e2 873c 0000 0000
00000030: 0000 0000 0000 0000 0000 0000 247b ebbb
00000040: 0000 0000 0000 0000 0000 0000 0000 0000
00000050: 5ab9 993c 0000 0000 0000 0000 0000 0000
00000060: 0000 0000 c0f0 a73b 0000 0000 0000 0000
00000070: 0000 0000 0000 0000 12d0 b73c 0000 0000
00000080: 0000 0000 0000 0000 0000 0000 ba93 83bd
00000090: 0000 0000 0000 0000 0000 0000 0000 0000
0.023682596 0.0 0.0 0.0 0.0 0.031906836 0.0 0.0
0.0 0.0 0.01658748 0.0 0.0 0.0 0.0 -0.0071863104
0.0 0.0 0.0 0.0 0.01876514 0.0 0.0 0.0
0.0 0.005125135 0.0 0.0 0.0 0.0 0.022438083 0.0
0.0 0.0 0.0 -0.06424661 0.0 0.0 0.0 0.0

transformer.layers.1.1.static_beta f4 [4]
00000000: 0859 863f df7a 893f 40c5 863f beaf 753f
1.049592 1.0740622 1.0528946 0.95971286

transformer.layers.1.1.dynamic_beta_fn f4 [8]
00000000: 664c 903c 1f2a cf3b 076f 8a3d a88c 43bd
00000010: a69d 44bd 7874 863c fc95 ce3c d1e5 06be
0.017614555 0.00632216 0.06759458 -0.047741562 -0.048001908 0.016412959 0.025218002 -0.13173606
