trained_models/physical_error_training/model_lr0.00025_8_1_4_4_.3_.3Errorbatch32_long_epoch6800.pt (torch, 96940 bytes, 87 tensors)

cls_token f4 [1, 1, 8]
0	0xbeffc2fd	-0.49953452
1	0x3e66fec6	0.22558126
2	0x3ee5b1e2	0.44862276
3	0x3eb5fc63	0.35544118
4	0x3f480334	0.7812989
5	0x3f121a7b	0.57071656
6	0x3ee98a6d	0.45613423
7	0xbdcafa0f	-0.09910976

categorical_embeds.weight f4 [3, 8]
0	0x3f708060	0.93945885
1	0xbf1afc49	-0.60541207
2	0xbf334464	-0.7002623
3	0x3ec1d679	0.37858942
4	0x3f52dc6c	0.8236759
5	0xbedc7349	-0.43056706
6	0x3f25935e	0.6467799
7	0x3f671ff4	0.9028313
8	0xbe742bc7	-0.23844825
9	0xbfe3da56	-1.7801006
10	0xbed93964	-0.42426598
11	0x3fac9b1f	1.3484839
12	0xbf594ad5	-0.8487981
13	0x3fc70781	1.5549165
14	0xbd9cd780	-0.07658291
15	0x3e4e0190	0.20117784
16	0xbf583586	-0.8445667
17	0x3f515018	0.8176284
18	0xbfd02d6b	-1.626386
19	0xc00f2fbc	-2.2372885
20	0x3fbd3f9d	1.4785038
21	0xbf365f76	-0.7123941
22	0xbe8f2e24	-0.2796489
23	0x3f3f4f2f	0.747302

numerical_embedder.weights f4 [8, 8]
0	0x3ed405c2	0.41410643
1	0xbfac0560	-1.343914
2	0x3fea09cc	1.828424
3	0x3f33eced	0.70283395
4	0xbda9545a	-0.08268042
5	0x3f60336d	0.8757847
6	0xbef5e91a	-0.48029405
7	0x3bd85c1e	0.006602778
8	0x3f6c1f74	0.92235494
9	0xbf216a12	-0.63052475
10	0x3f23a265	0.6391967
11	0x3fad2855	1.3527933
12	0xbf9e34b6	-1.2359836
13	0x3e39c28e	0.18140623
14	0xbf379754	-0.71715283
15	0x3ee141ef	0.43995616
16	0xbf620de4	-0.88302445
17	0xbf1cfd6f	-0.6132421
18	0x3f00704b	0.50171345
19	0xbfeb2bb2	-1.837271
20	0x3f90e686	1.132035
21	0x3f3f6735	0.74766856
22	0xbe88b3a7	-0.26699564
23	0x3e5654e8	0.20930827
24	0x3f250450	0.64459705
25	0xbfb301b6	-1.3984897
26	0xbed5c516	-0.41751927
27	0x3ee94cbf	0.45566365
28	0x3ec0fd22	0.37693125
29	0xbf824b87	-1.0179299
30	0xbc9235d7	-0.017847938
31	0xbe6740c2	-0.22583297
32	0xbe3f3160	-0.18671179
33	0x3f12d161	0.57350737
34	0xbf13fcbe	-0.5780753
35	0xbfcaeadf	-1.5852927
36	0x3e97266f	0.2952151
37	0x3e8c744c	0.27432477
38	0xbe46364a	-0.19356647
39	0x3ff21827	1.8913621
40	0xbcd15dbc	-0.025557391
41	0x3f156086	0.5835041
42	0x3eaf8dce	0.34287876
43	0xbf69c2ae	-0.9131268
44	0x3fa7d930	1.3113155
45	0xbe710bcb	-0.23539655
46	0xbf894135	-1.0723025
47	0xbd8dfef0	-0.06933391
48	0xbe904ea8	-0.2818501
49	0x3f09b4bc	0.53791404
50	0xbf04f647	-0.5193829
51	0xbee667d1	-0.4500108
52	0x3f0bb754	0.5457661
53	0x3e41d2e7	0.18928109
54	0xc00a6795	-2.1625721
55	0x3f85698e	1.0422838
56	0x3eb1f7b4	0.34759295
57	0x3fc6ec82	1.5540926
58	0x40006419	2.0061095
59	0xbfa4c0e8	-1.287137
60	0x400faab9	2.244795
61	0xbda5d4b3	-0.0809721
62	0xc01d0211	-2.4532511
63	0xbd64365b	-0.0557159

numerical_embedder.biases f4 [8, 8]
0	0xc014e822	-2.3266683
1	0x3fc467ff	1.5344237
2	0xbef3aa06	-0.47590655
3	0xbdd5173a	-0.10404821
4	0xbf15a4e8	-0.5845475
5	0xbfb9958f	-1.4498767
6	0xbfc0f014	-1.5073266
7	0x3f8066c6	1.0031364
8	0xbdc92ef2	-0.09823407
9	0x3fc5e093	1.545916
10	0x3fac00bd	1.3437725
11	0x402c3faa	2.6913857
12	0xbe3b3b55	-0.18284352
13	0x3dfbf88e	0.123032674
14	0x3f7055e7	0.93881077
15	0xbedc0ccb	-0.4297851
16	0xbf183892	-0.5946132
17	0xbf64c3e7	-0.89361423
18	0x3f84d975	1.0378863
19	0x3ee44718	0.4458549
20	0xbdb2f7a5	-0.08738641
21	0x3dc214e3	0.0947664
22	0xbff3c4d1	-1.9044439
23	0xbf69bfd8	-0.91308355
24	0xbfa88bdc	-1.3167682
25	0x3e8c9083	0.27454004
26	0xbf223eb0	-0.63376904
27	0x3f91a7a5	1.1379286
28	0x3e8a76c6	0.27043742
29	0xbf48545d	-0.7825373
30	0x3fde7050	1.7378025
31	0x3f0bc34e	0.54594886
32	0x3fd6b1f5	1.6773058
33	0x3ef0f05d	0.47058383
34	0xbf2b4df1	-0.66915804
35	0x3fc68acb	1.5511106
36	0x3ca9d47c	0.020731203
37	0x3f387ecf	0.72068495
38	0xbebf6e5e	-0.3738889
39	0x3f8b9d84	1.0907445
40	0xbe51b225	-0.20478113
41	0xbfa8f50e	-1.3199785
42	0x3e6de997	0.23233639
43	0x3ea0e350	0.31423426
44	0xbf6a4be5	-0.91522056
45	0x3e23e38c	0.16004771
46	0xbf4c2187	-0.7973866
47	0x3db88a7d	0.090107895
48	0xbeeae58d	-0.45878258
49	0xbe872cd8	-0.264014
50	0x3f035783	0.5130541
51	0xbf8a161d	-1.0787998
52	0x3ef557c6	0.47918528
53	0xbf08e04f	-0.5346727
54	0xbf1810b9	-0.59400517
55	0x3d36452a	0.044499554
56	0xbfbf2be3	-1.4935268
57	0xbf080ab1	-0.53141314
58	0x3edf3ecb	0.43602595
59	0x3fadd186	1.3579566
60	0xbda8f600	-0.08250046
61	0x3f8625dd	1.0480305
62	0xbf3669b1	-0.7125502
63	0xbdb15027	-0.08657866

transformer.layers.0.0.static_alpha f4 [4, 5]
0	0xbc31f291	-0.010861055
1	0x3f800000	1.0
2	0x00000000	0.0
3	0x00000000	0.0
4	0x00000000	0.0
5	0x3f7d38a6	0.98914564
6	0x00000000	0.0
7	0x3f800000	1.0
8	0x00000000	0.0
9	0x00000000	0.0
10	0xbc31f291	-0.010861055
11	0x00000000	0.0
12	0x00000000	0.0
13	0x3f800000	1.0
14	0x00000000	0.0
15	0xbc31f291	-0.010861055
16	0x00000000	0.0
17	0x00000000	0.0
18	0x00000000	0.0
19	0x3f800000	1.0

transformer.layers.0.0.dynamic_alpha_fn f4 [8, 5]
0	0xbc9a6290	-0.018845826
1	0x00000000	0.0
2	0x00000000	0.0
3	0x00000000	0.0
4	0x00000000	0.0
5	0x3d82c924	0.06386021
6	0x00000000	0.0
7	0x00000000	0.0
8	0x00000000	0.0
9	0x00000000	0.0
10	0x3c41fc7b	0.011839981
11	0x00000000	0.0
12	0x00000000	0.0
13	0x00000000	0.0
14	0x00000000	0.0
15	0x3d6aac27	0.057293084
16	0x00000000	0.0
17	0x00000000	0.0
18	0x00000000	0.0
19	0x00000000	0.0
20	0x3d2b27fc	0.04178618
21	0x00000000	0.0
22	0x00000000	0.0
23	0x00000000	0.0
24	0x00000000	0.0
25	0x3d828895	0.06373707
26	0x00000000	0.0
27	0x00000000	0.0
28	0x00000000	0.0
29	0x00000000	0.0
30	0x3d8dacd3	0.06917729
31	0x00000000	0.0
32	0x00000000	0.0
33	0x00000000	0.0
34	0x00000000	0.0
35	0x3c015bcc	0.007895421
36	0x00000000	0.0
37	0x00000000	0.0
38	0x00000000	0.0
39	0x00000000	0.0

transformer.layers.0.0.static_beta f4 [4]
0	0x3f4af335	0.79277354
1	0x3f79ebc0	0.9762535
2	0x3f82f21f	1.023014
3	0x3f6a983f	0.9163856

transformer.layers.0.0.dynamic_beta_fn f4 [8]
0	0x3ebe6db7	0.3719308
1	0xbeffeba5	-0.4998447
2	0xbe369fb4	-0.1783436
3	0xbe69ac80	-0.2281971
4	0xbe8a3556	-0.26993817
5	0xbece1e5f	-0.40257546
6	0xbef001c8	-0.4687636
7	0x3d25849a	0.04040966

transformer.layers.0.0.branch.norm.weight f4 [8]
0	0x3f8481d2	1.0352118
1	0x3f82cab4	1.021811
2	0x3f90150b	1.1256422
3	0x3f6b0b16	0.9181379
4	0x3f840c98	1.0316343
5	0x3f7fa744	0.998646
6	0x3f8cbb98	1.0994749
7	0x3f81c4f4	1.013823

transformer.layers.0.0.branch.norm.bias f4 [8]
0	0xbd9b2922	-0.07576205
1	0xbd9bbafb	-0.07604023
2	0x3e2fcd4b	0.17168157
3	0xbcee3498	-0.029077813
4	0x3d96ced7	0.0736367
5	0x3e244b5d	0.16044374
6	0xbdba1265	-0.0908554
7	0x3d3e3e00	0.046445847

transformer.layers.0.0.branch.to_qkv.weight f4 [192, 8]
0	0xbe7dea09	-0.24796309
1	0xbc531546	-0.01288349
2	0xbe80ff41	-0.25194743
3	0x3e766e8a	0.24065605
4	0xbe2c8103	-0.16846089
5	0x3db6dd50	0.08928931
6	0x3dfc13b0	0.123084426
7	0xbe9974b4	-0.2997185
8	0xbe4a2565	-0.19740827
9	0x3eaaaa6f	0.33333156
10	0x3d17aed0	0.03703195
11	0x3e5c42f1	0.21509911
12	0x3ec1cd63	0.3785201
13	0x3e2e0da5	0.16997392
14	0xba3a9ad4	-0.0007118408
15	0xbdb0e9e2	-0.086383596
16	0x3e01e39b	0.12684481
17	0xbe2041c1	-0.15650083
18	0x3d0f8de9	0.035047445
19	0x3e56486b	0.20926063
20	0x3e1a483c	0.15066618
21	0xbea768a8	-0.32697034
22	0xbcdb9ab9	-0.026807176
23	0xbd4c8b89	-0.04993776
24	0xbd46b36c	-0.048510954
25	0xbefd4cda	-0.49472696
26	0x3d3a90c8	0.04554823
27	0xbe577b1b	-0.21043055
28	0xbd1f51d3	-0.038896393
29	0x3e0b03c7	0.1357566
30	0x3e0f79e8	0.14011347
31	0x3e508acb	0.20365445
32	0xbdc662ed	-0.09686837
33	0x3e3ce25d	0.18445726
34	0xbeb2abf4	-0.34896815
35	0xbd8f7ed2	-0.07006611
36	0x3d481931	0.04885215
37	0xbed36d48	-0.41294312
38	0xbe51bce5	-0.20482214
39	0xbdff01f4	-0.124515444
40	0x3e48026f	0.19532178
41	0xbe962350	-0.29323816
42	0xbdceb693	-0.10093417
43	0x3d0e0d52	0.034680672
44	0xbcfdbb62	-0.03097314
45	0xbeb6b103	-0.35681924
46	0xbe4c2f81	-0.19939996
47	0x3e882cc6	0.2659666
48	0xbe5ecb60	-0.21757269
49	0xbe0aa70b	-0.13540284
50	0xbbf3fab5	-0.007445658
51	0xbd8a918e	-0.067660436
52	0x3ed3f9fa	0.41401654
53	0x3ec16681	0.37773517
54	0x3e647adc	0.22312492
55	0x3e0cd3ea	0.13752714
56	0xbe099b5d	-0.13438173
57	0xbd8db42e	-0.06919132
58	0x3e847163	0.25867757
59	0xbe8c3831	-0.2738662
60	0x3eb7d61c	0.3590554
61	0x3e7d1a3d	0.2471704
62	0x3e16a1ce	0.14710161
63	0xbcb92200	-0.02259922
64	0xbe8d820c	-0.2763828
65	0x3cb43a64	0.0220005
66	0x3e0374cc	0.12837523
67	0x3e61d62e	0.2205436
68	0xbe716610	-0.2357409
69	0xbcbece82	-0.02329183
70	0xbe02863d	-0.1274652
71	0xbea122d6	-0.3147189
72	0x3e7e028f	0.24805664
73	0xbe4b53a5	-0.19856127
74	0xbe8cd2f8	-0.27504706
75	0xbd5e51ab	-0.054277103
76	0xbe8ad660	-0.2711668
77	0x3de832cc	0.11337814
78	0xbe58f6a4	-0.21187836
79	0x3d0b7402	0.03404618
80	0x3e51d189	0.20490088
81	0xbdc89124	-0.097933084
82	0x3e28925d	0.16462083
83	0x3ef41451	0.4767175
84	0x3df688f2	0.12037839
85	0xbe9cdfae	-0.30639404
86	0x3ebc3b17	0.36763832
87	0xbad33553	-0.0016113914
88	0x3e24c123	0.16089301
89	0xbe81fd29	-0.25388458
90	0x3e1bf7ca	0.15231243
91	0xbe1d84f4	-0.15382749
92	0xbe236dc9	-0.15959848
93	0xbe380e21	-0.1797414
94	0xbdc0b243	-0.09409001
95	0xbe20ed30	-0.1571548
96	0x3e4e2b92	0.20133808
97	0xbee42a22	-0.44563395
98	0xbe8171f4	-0.25282252
99	0xbdedfba2	-0.11620261
100	0x3e4661f7	0.19373308
101	0x3e519fb2	0.20471075
102	0xbe0b4bab	-0.13603084
103	0x3d8ce880	0.06880283
104	0xbe6ede9c	-0.23327106
105	0xbe79db90	-0.24400163
106	0x3e3599cb	0.17734449
107	0xbe79750e	-0.24361059
108	0x3db77581	0.08957959
109	0xbe726dd3	-0.23674707
110	0xbeae6c1a	-0.3406685
111	0x3e937367	0.28798983
112	0x3daa8288	0.08325678
113	0x3e7e070c	0.24807376
114	0xbd83ad45	-0.06429533
115	0x3d61ceab	0.055128735
116	0x3e92546b	0.2858003
117	0x3d81900f	0.06326305
118	0x3eb579e6	0.35444564
119	0xbec4ed0a	-0.38462096
120	0x3e0be67a	0.13662139
121	0xbee1edf3	-0.44126853
122	0x3b66fd29	0.003524611
123	0xbe2b2a94	-0.16715461
124	0xbce38f9e	-0.027778443
125	0x3c3ff374	0.011715759
126	0x3de52276	0.111882135
127	0xbdaae2f3	-0.083440684
128	0x3d75e608	0.060033828
129	0xbdd08e21	-0.10183359
130	0xbd76d10c	-0.060257956
131	0xbe7db7f2	-0.24777201
132	0xbcd9e618	-0.026598975
133	0x3da0bf8f	0.07849037
134	0xbed61b3c	-0.41817653
135	0x3ee13569	0.4398606
136	0x3e8fde9e	0.2809953
137	0xbe91238a	-0.28347427
138	0xbdb1ec30	-0.08687627
139	0xbe0664e9	-0.13124432
140	0xbe32eae2	-0.17472413
141	0xbea3840e	-0.31936687
142	0x3e915528	0.28385282
143	0x3e81f2b2	0.25380474
144	0x3ecc3e54	0.39891303
145	0x3de2e523	0.110788606
146	0xbeaaeff1	-0.33386186
147	0x3da02b80	0.07820797
148	0xbe2ea8d8	-0.17056596
149	0xbe8d5872	-0.2760654
150	0x3e18e5be	0.1493139
151	0xbea26215	-0.31715456
152	0x3eafd9ae	0.34345764
153	0xbe23a3c2	-0.15980437
154	0xbe38bc3a	-0.18040553
155	0x3ec6e77b	0.3884848
156	0x3e3b5600	0.18294525
157	0xbe9a1293	-0.30092296
158	0x3ed86cc3	0.4227048
159	0x3d217fdd	0.03942858
160	0x3ec92a68	0.39290166
161	0xbebf993f	-0.37421605
162	0x3e0ee3fb	0.13954155
163	0xbe06212f	-0.13098596
164	0xbecdff84	-0.40234005
165	0x3de23e5b	0.110470496
166	0xbb62d9e0	-0.0034614727
167	0xbdea3db9	-0.11437554
168	0x3e913aa9	0.28365067
169	0xbef902bf	-0.48634908
170	0xbd12be68	-0.035826117
171	0xbe71b28f	-0.23603271
172	0xbe966561	-0.2937422
173	0xbf03205f	-0.5122127
174	0xbeb14f58	-0.34630847
175	0x3eaf8dfd	0.34288016
176	0x3ea6c0f6	0.32569093
177	0x3eb247d4	0.34820426
178	0x3a0d97de	0.0005401353
179	0xbeb8d584	-0.361004
180	0x3e7068d5	0.2347749
181	0xbe9b6920	-0.30353642
182	0xbecf6471	-0.40506318
183	0x3d07aa49	0.03312138
184	0xbe38ccfc	-0.18046945
185	0xbe97c3d9	-0.29641607
186	0x3e4abd2c	0.19798726
187	0xbdd59b4b	-0.104300104
188	0x3e2c97a5	0.16854723
189	0x3ee5478d	0.4478115
190	0x3e22f317	0.15913044
191	0x3c2b8efe	0.010471104
192	0x3d4306ce	0.04761391
193	0xbdd82da3	-0.105555795
194	0xbe64933b	-0.22321789
195	0x3cd82148	0.026383057
196	0x3e655c46	0.22398481
197	0x3dc84b3a	0.09779973
198	0xbd0c214e	-0.03421145
199	0xbe7c735f	-0.24653386
200	0xbe9f473f	-0.31109044
201	0x3e92327b	0.2855414
202	0xbd972286	-0.07379632
203	0x3e4ad031	0.19805981
204	0xbdae5817	-0.085128956
205	0x3e88a638	0.26689315
206	0x3e73c408	0.23805249
207	0xbc2c59e5	-0.010519479
208	0xbe0ff88b	-0.14059655
209	0x3e37cab5	0.1794842
210	0xbe8dd38f	-0.2770047
211	0x3e72820e	0.23682424
212	0xbe7cb8e4	-0.24679905
213	0x3e343b65	0.17600782
214	0xbdca7eae	-0.098874435
215	0x3e890745	0.2676336
216	0x3e91d4db	0.28482708
217	0x3e04220b	0.12903611
218	0xbddd4fc6	-0.10806231
219	0x3eb50dc2	0.3536206
220	0x3e94de75	0.2907597
221	0xbd855b68	-0.06511575
222	0x3e2dd9ad	0.16977568
223	0x3e2296c0	0.15877819
224	0x3e3edeee	0.18639728
225	0xbe2d48cf	-0.16922306
226	0x3e8d1431	0.27554467
227	0x3e8da685	0.27666107
228	0x3e866de6	0.2625572
229	0x3e91e2fc	0.28493488
230	0x3de567b6	0.11201422
231	0xbe68955a	-0.22713223
232	0xbd73b0f6	-0.059494935
233	0xbead2f6c	-0.33825243
234	0xbe823350	-0.25429773
235	0xbe0d7491	-0.13813998
236	0x3e2538ee	0.16134998
237	0xbe00257a	-0.12514296
238	0xbe9d66f9	-0.30742624
239	0x3e38333f	0.17988299
240	0x3db17db6	0.086665556
241	0xbd0bb5ff	-0.034109112
242	0x3ed1c435	0.40970007
243	0xbc43870a	-0.011934051
244	0xbe6967c5	-0.22793491
245	0x3e180d4c	0.14848822
246	0xbea16cb7	-0.31528255
247	0x3e250c2a	0.16117921
248	0x3d8806ee	0.06641947
249	0xbd88301c	-0.06649801
250	0xbea22969	-0.31672218
251	0x3e6e38b3	0.23263817
252	0xbe530396	-0.20606837
253	0xbe86b005	-0.26306167
254	0xbe9172f8	-0.28408027
255	0xbdc87b34	-0.09789124

transformer.layers.0.0.branch.to_out.weight f4 [8, 64]
0	0x3e29f516	0.16597399
1	0xbc84c9b8	-0.016209468
2	0xbbbdcc12	-0.0057921493
3	0x3d8d38c4	0.06895593
4	0x3dab82fd	0.083745934
5	0xba96e03e	-0.0011510921
6	0x3d449835	0.04799672
7	0xbcdd01ea	-0.026978452
8	0x3d69f2bd	0.05711626
9	0xbbd2b6be	-0.006430476
10	0xbd2533ce	-0.040332608
11	0x3df938e0	0.12169051
12	0xbd78b722	-0.060721524
13	0x3e3e0dcb	0.18559949
14	0xbdc60ce2	-0.09670426
15	0x3cd45173	0.025917744
16	0xbd1c7631	-0.038198654
17	0x3c073c58	0.008254133
18	0x3c558f63	0.013034674
19	0x3c0690b8	0.008213215
20	0xbe30adb8	-0.17253768
21	0xbdb27477	-0.0871362
22	0xbd964b73	-0.073386095
23	0x3e3621b0	0.17786288
24	0x3d517dfb	0.051145535
25	0xbdc23c24	-0.09484127
26	0xbc0dee9c	-0.008662846
27	0xbc60e7cf	-0.0137271425
28	0xbe1a5f40	-0.15075397
29	0xbd8e626e	-0.06952368
30	0x3d9ad4eb	0.07560142
31	0x3cd5a2cf	0.02607861
32	0x3d32530d	0.043536235
33	0x3de4bb46	0.11168532
34	0x3daa6959	0.08320875
35	0xbd086791	-0.033301894
36	0x3c9fad4e	0.019491818
37	0x3d2c1280	0.04200983
38	0x3d3b5bf1	0.04574198
39	0x3c88cd4b	0.016699454
40	0x3d2e0a24	0.04249014
41	0xbe3cac27	-0.18425046
42	0xbd2dff55	-0.04247983
43	0x3e1d99ed	0.1539075
44	0x3d55ff92	0.052245684
45	0x3e1bf301	0.15229417
46	0x3c197bf3	0.009367931
47	0xbe28217f	-0.16419028
48	0x3e1a97df	0.15096997
49	0x3e1a5385	0.15070923
50	0x3d30ad45	0.043133993
51	0x3c9d20d3	0.01918069
52	0x3d6a294e	0.057168297
53	0xbcde2058	-0.027115032
54	0xbde57733	-0.11204376
55	0xbdfbec7c	-0.12300965
56	0xbdd3b1be	-0.10336636
57	0x3dca87d9	0.09889192
58	0x3dc60109	0.09668166
59	0xbe162bd2	-0.14665154
60	0xbb0657d4	-0.0020499127
61	0xbd823fa6	-0.06359796
62	0x3de8cee3	0.113675855
63	0xbdac6807	-0.08418279
64	0xbe27a543	-0.16371636
65	0x3e8300f6	0.2558667
66	0x3e809024	0.2510997
67	0xbe8781e8	-0.26466298
68	0xbe6d44f3	-0.23170833
69	0xbda31f0e	-0.079649076
70	0xbdbf1c3a	-0.09331556
71	0x3d0c49a2	0.03424991
72	0xbe043fab	-0.12914912
73	0x3e0dbfff	0.13842772
74	0xbe727c0a	-0.2368013
75	0x3e2c7695	0.1684211
76	0x3e21bccf	0.15794681
77	0xbd9f2e2f	-0.07772481
78	0x3e8319ab	0.2560552
79	0x3da3852c	0.07984385
80	0x3e44e67c	0.19228548
81	0x3e77b621	0.2419057
82	0x3e585a89	0.21128286
83	0xbd5ea321	-0.05435479
84	0x3d035856	0.032066666
85	0x3e56369a	0.20919266
86	0x3c04b1ef	0.008099063
87	0xbe59f922	-0.21286443
88	0xbe8d30c9	-0.27576283
89	0x3e3126a5	0.17299898
90	0xbe0848ec	-0.13309067
91	0x3dc7ab7e	0.097495064
92	0x3e26e99c	0.16300052
93	0x3d3a26d1	0.045447174
94	0xbe9a5f22	-0.30150706
95	0xbe148ee0	-0.14507627
96	0x3e48d727	0.19613324
97	0xbe88525e	-0.2662534
98	0xbe4d76a1	-0.20064785
99	0xbde251c4	-0.11050752
100	0x3dd2a9ab	0.10286268
101	0x3e6758b3	0.2259243
102	0x3e381c6c	0.17979592
103	0xbdee10ce	-0.11624299
104	0x3d74296b	0.05960981
105	0x3e9424d2	0.28934342
106	0x3d9a8045	0.07543997
107	0xbe645514	-0.2229808
108	0x3e037b74	0.12840062
109	0xbcf559db	-0.029950073
110	0xbdf453ec	-0.11930069
111	0x3e3af3e7	0.18257104
112	0xbe0d702f	-0.13812326
113	0xbdbae476	-0.09125607
114	0xbda00a18	-0.07814425
115	0x3da207cd	0.07911644
116	0xbe0c4fe4	-0.13702351
117	0x3d5b39b9	0.053521845
118	0x3e9331f0	0.28749037
119	0x3e34e3a9	0.1766497
120	0x3e49c81a	0.19705239
121	0xbdcd0303	-0.1001034
122	0xbdab017c	-0.083498925
123	0x3e8bfd8b	0.27341875
124	0xbddc7957	-0.10765331
125	0xbe419cde	-0.18907496
126	0xbe89b423	-0.26895246
127	0x3e4756d9	0.19466724
128	0x3cc28602	0.02374554
129	0xbde1a635	-0.110180296
130	0xbd3b5fa5	-0.04574551
131	0x3e10af7d	0.14129443
132	0x3b2c52a7	0.0026294382
133	0x3e00db8d	0.12583752
134	0x3d5ae70a	0.053442992
135	0xbc7f657a	-0.015588159
136	0x3de1c6ed	0.1102427
137	0xbe45dc77	-0.19322382
138	0x3daaf3cc	0.08347282
139	0xbcf3da28	-0.029767111
140	0xbd8a5dc1	-0.067561634
141	0xbd687df0	-0.05676073
142	0x3cf90a7a	0.030400503
143	0xbd5adafc	-0.053431496
144	0x3c8d7e26	0.017272066
145	0xbd1e2a7f	-0.038614746
146	0x3daeb93c	0.085314244
147	0xbd5a53ad	-0.053302456
148	0xbd49d10a	-0.04927162
149	0xbdb50b36	-0.08840029
150	0xbdccab8d	-0.09993658
151	0xbcf83103	-0.030296808
152	0xbbfd3d32	-0.0077282423
153	0xbdcd78d8	-0.10032815
154	0x3da0a9de	0.078448996
155	0xbbe7d6be	-0.00707516
156	0xbd0598b9	-0.03261635
157	0x3de65450	0.1124655
158	0x3d970974	0.0737485
159	0x3d3e05ca	0.04639224
160	0xbc9f13c6	-0.019418608
161	0x3d6d429c	0.05792485
162	0xbca72831	-0.020404907
163	0xbdf1024b	-0.117680155
164	0xbbffcc78	-0.007806357
165	0x3d0fb12c	0.035081074
166	0xbd3cb9fb	-0.046075802
167	0xbdb7d1c1	-0.08975554
168	0xbdf57dd6	-0.11986892
169	0x3cb9cd60	0.022680938
170	0xbde20c22	-0.110374704
171	0x3e0ae26c	0.13562936
172	0xbd095bbc	-0.03353475
173	0x3d80d2fa	0.062902406
174	0xbcea6075	-0.028610447
175	0xbdefa169	-0.117007084
176	0xbe017ab0	-0.12644458
177	0x3c4eba55	0.012617667
178	0x3c9817e2	0.018566076
179	0xbda80f99	-0.082061
180	0x3c3600a5	0.011108552
181	0xbc684b30	-0.014178082
182	0xbdc24095	-0.09484974
183	0x3da5eff6	0.081024095
184	0x3b6d0097	0.0036163682
185	0xbdacbbf4	-0.08434287
186	0xbdc9f5c0	-0.09861326
187	0xbd2f5806	-0.042808555
188	0xbc2ce644	-0.0105529465
189	0xbd91b271	-0.07114113
190	0x3d36b326	0.044604443
191	0xbdade7ad	-0.08491454
192	0xbc86c60a	-0.016451854
193	0xbc5d7a18	-0.013517879
194	0x3e10df17	0.14147602
195	0x3cf5efc1	0.03002155
196	0x3ca6847e	0.02032685
197	0x3c698794	0.014253516
198	0xbd98665d	-0.07441399
199	0x3c974c71	0.018469067
200	0xbdf29f74	-0.118468195
201	0x3c9832cd	0.018578911
202	0x3d15f831	0.036613647
203	0x3c51f0d6	0.012813767
204	0x3ca20544	0.019777901
205	0x3e2f3ed9	0.17113818
206	0xbd3b2569	-0.045689974
207	0x3de62cdb	0.11239024
208	0xbd35b8b5	-0.044365603
209	0xbd992cd2	-0.07479252
210	0xbc5f55f2	-0.013631331
211	0xbd2676aa	-0.04064051
212	0xbcbb913f	-0.022896407
213	0xbdbeef51	-0.0932299
214	0x3da0de84	0.078549415
215	0xbdc8a527	-0.09797125
216	0xbdcc6e13	-0.099819325
217	0x3e355669	0.17708744
218	0x3d13a413	0.036045145
219	0xbbded166	-0.0067998646
220	0xbd8b601e	-0.06805442
221	0x3d4ebdf0	0.050474107
222	0x3d154519	0.03644285
223	0x3d457914	0.048211172
224	0xbdc49463	-0.09598615
225	0x3dbebf18	0.09313792
226	0xbdae10c4	-0.084992915
227	0x3e1c6f08	0.1527673
228	0x3db93239	0.09042782
229	0xba2bc776	-0.00065528543
230	0xbd1506e5	-0.03638353
231	0xbcf1a8c5	-0.02949942
232	0xbdc03c2d	-0.093864776
233	0xbce95bb6	-0.028486114
234	0x3e10755a	0.14107266
235	0x3dee25cb	0.11628302
236	0xbd59d486	-0.053181194
237	0xbca45ff2	-0.020065282
238	0x3d81901b	0.06326314
239	0x3d7735ba	0.060353972
240	0xbd818b0b	-0.063253485
241	0xbd7e124b	-0.062029164
242	0xbcc6bb15	-0.02425913
243	0xbd804823	-0.06263759
244	0xbc15b5bb	-0.009137566
245	0x3d11447a	0.035465695
246	0xbdb88d99	-0.090113826
247	0xbe014eb0	-0.12627673
248	0x3daa6638	0.08320278
249	0x3d0f2ee2	0.03495682
250	0xbce83be1	-0.028348865
251	0x3d3ee88e	0.0466085
252	0xbd2d67a3	-0.042335164
253	0x3d6f9e12	0.058500357
254	0xbdc7c307	-0.097539954
255	0x3db621b6	0.088931486

transformer.layers.0.0.norm.gamma f4 [8]
0	0x3f200645	0.62509567
1	0x3f52c577	0.8233256
2	0x3eca716c	0.3953966
3	0x3f1d6230	0.6147795
4	0x3f03ee9a	0.5153595
5	0x3f35604a	0.7085005
6	0x3f6acbac	0.9171703
7	0x3e6af03e	0.22943208

transformer.layers.0.1.static_alpha f4 [4, 5]
0	0xbd62588c	-0.055260226
1	0x3f800000	1.0
2	0x00000000	0.0
3	0x00000000	0.0
4	0x00000000	0.0
5	0x3f69567c	0.9114759
6	0x00000000	0.0
7	0x3f800000	1.0
8	0x00000000	0.0
9	0x00000000	0.0
10	0xbc78e282	-0.015190722
11	0x00000000	0.0
12	0x00000000	0.0
13	0x3f800000	1.0
14	0x00000000	0.0
15	0xbd6efc0d	-0.058345843
16	0x00000000	0.0
17	0x00000000	0.0
18	0x00000000	0.0
19	0x3f800000	1.0

transformer.layers.0.1.dynamic_alpha_fn f4 [8, 5]
0	0x3d5aff4c	0.053466126
1	0x00000000	0.0
2	0x00000000	0.0
3	0x00000000	0.0
4	0x00000000	0.0
5	0xbc8699b2	-0.01643071
6	0x00000000	0.0
7	0x00000000	0.0
8	0x00000000	0.0
9	0x00000000	0.0
10	0xbe1ba649	-0.15200152
11	0x00000000	0.0
12	0x00000000	0.0
13	0x00000000	0.0
14	0x00000000	0.0
15	0xbde5f304	-0.11227992
16	0x00000000	0.0
17	0x00000000	0.0
18	0x00000000	0.0
19	0x00000000	0.0
20	0xbdc2464f	-0.094860666
21	0x00000000	0.0
22	0x00000000	0.0
23	0x00000000	0.0
24	0x00000000	0.0
25	0xbe1fb7f7	-0.15597521
26	0x00000000	0.0
27	0x00000000	0.0
28	0x00000000	0.0
29	0x00000000	0.0
30	0xbe194698	-0.14968336
31	0x00000000	0.0
32	0x00000000	0.0
33	0x00000000	0.0
34	0x00000000	0.0
35	0x3e0fc0cd	0.14038391
36	0x00000000	0.0
37	0x00000000	0.0
38	0x00000000	0.0
39	0x00000000	0.0

transformer.layers.0.1.static_beta f4 [4]
0	0x3f46d5ce	0.7766999
1	0x3f86e679	1.0539085
2	0x3f82b86c	1.0212531
3	0x3f750cfa	0.95722926

transformer.layers.0.1.dynamic_beta_fn f4 [8]
0	0x3ea9a72a	0.3313535
1	0xbf133b42	-0.57512295
2	0xbedf4506	-0.43607348
3	0xbc006a7d	-0.007837889
4	0xbe725ae8	-0.2366749
5	0xbf06b159	-0.5261436
6	0xbe6bef0d	-0.2304041
7	0x3e431359	0.1905035

transformer.layers.0.1.branch.0.weight f4 [8]
0	0x3f7fc093	0.9990322
1	0x3f86054a	1.0470364
2	0x3f95a003	1.1689457
3	0x3f958b9c	1.168323
4	0x3f884cf3	1.0648483
5	0x3f9bf93e	1.2185438
6	0x3f91ac8d	1.1380783
7	0x3f7c37b8	0.9852252

transformer.layers.0.1.branch.0.bias f4 [8]
0	0x3e708cad	0.23491164
1	0xbdcc476e	-0.09974562
2	0xbe0a8cfa	-0.13530341
3	0x3da35de6	0.07976894
4	0x3daceda0	0.08443761
5	0xbdb7e8f3	-0.089799784
6	0x3dc16748	0.094435275
7	0x3e199d23	0.15001349

transformer.layers.0.1.branch.1.weight f4 [64, 8]
0	0x3c8f3ffb	0.017486563
1	0xbf0ce32a	-0.55034125
2	0xbf03a52a	-0.51423895
3	0x3e897f19	0.2685478
4	0x3ece3fc0	0.40283012
5	0xbeb24721	-0.34819892
6	0x3f204f89	0.6262136
7	0xbdd60a6f	-0.10451209
8	0x3d325a17	0.043542948
9	0xbe8e8d46	-0.27842158
10	0xbec890a5	-0.39172855
11	0x3e8cbea8	0.2748921
12	0x3e9670b6	0.29382867
13	0xbe8e6683	-0.27812585
14	0x3e82fabb	0.25581917
15	0xbdceb931	-0.10093916
16	0xbe066899	-0.13125838
17	0x3d82017d	0.0634794
18	0xbe84b1c4	-0.25916874
19	0x3e0f585e	0.13998553
20	0x3d85d572	0.06534852
21	0x3d326a4a	0.043558396
22	0xbdb7839b	-0.089606486
23	0x3e2c3ef2	0.16820887
24	0xbea81636	-0.32829446
25	0x3edb1a3f	0.42793462
26	0x3d6f6f3b	0.058455687
27	0xbe1aa7d0	-0.15103078
28	0x3e242670	0.16030288
29	0x3c5855fc	0.013204094
30	0xbed6393a	-0.41840535
31	0xbe35b539	-0.17744912
32	0x3e9f4547	0.31107542
33	0x3e4de5ed	0.20107241
34	0x3e67592d	0.22592612
35	0x3ede83a0	0.43459797
36	0x3e200667	0.15627442
37	0xbe886fe6	-0.26647872
38	0x3f0141e8	0.5049119
39	0x3e96aa14	0.29426634
40	0x3ecfb8c0	0.4057064
41	0x3d2b11b2	0.041764922
42	0xbee17468	-0.44034123
43	0xbe852b2a	-0.26009494
44	0x3b081ed2	0.0020770323
45	0xbed703ed	-0.41995183
46	0xbdbaecca	-0.09127195
47	0xbe6acb55	-0.22929128
48	0x3de0fd46	0.10985808
49	0xbdddc991	-0.10829461
50	0x3e46cbf2	0.19413736
51	0x3ea3d109	0.3199542
52	0x3ed888dc	0.42291915
53	0xbeb70b1c	-0.35750663
54	0x3e734670	0.23757339
55	0x3e76c525	0.24098642
56	0xbcf68c6e	-0.030096259
57	0x3ec78a41	0.38972667
58	0x3e37c2e2	0.17945436
59	0xbebd41e4	-0.36964333
60	0xbd7d369e	-0.061819665
61	0x3e5b5bf8	0.21421802
62	0xbe85d9e4	-0.261428
63	0x3e781c18	0.24229467
64	0x3cba5059	0.02274339
65	0xbea53759	-0.3226879
66	0xbe8c8358	-0.27443957
67	0x3e446a47	0.19181167
68	0x3ec1e206	0.37867755
69	0xbe40741d	-0.18794294
70	0x3ec1185a	0.3771389
71	0x3aac5c2c	0.0013150028
72	0x3dfce25d	0.12347863
73	0x3ec11bb1	0.3771644
74	0xbe3e7d2f	-0.18602441
75	0xbeb560a6	-0.354253
76	0xbd3286c8	-0.04358557
77	0xbe6ae289	-0.22937979
78	0xbe85bdaa	-0.26121265
79	0x3e9b7210	0.3036046
80	0x3c9c7995	0.019100944
81	0xbe007ad8	-0.12546861
82	0x3cf11912	0.0294309
83	0xbdd288ee	-0.102800235
84	0xbc9fc19f	-0.019501505
85	0xbed7cf89	-0.42150524
86	0xbe0fe542	-0.14052299
87	0x3d4734cd	0.04863434
88	0xbe6d7fda	-0.23193303
89	0x3ec9a15c	0.3938092
90	0x3d6b2694	0.057409838
91	0xbe4ee433	-0.20204239
92	0xbeef23fd	-0.46707144
93	0x3e2480cc	0.16064757
94	0xbe8aea7b	-0.2713202
95	0x3c664217	0.014053843
96	0xbe88a5f0	-0.266891
97	0xbebb770a	-0.36614257
98	0xbe06cc68	-0.13163912
99	0x3dde34fb	0.10849949
100	0x3e32719b	0.1742615
101	0xbec8d721	-0.3922663
102	0x3dc7b1a5	0.0975068
103	0x3d6d9e0d	0.058012057
104	0xbdfb41f7	-0.12268441
105	0x3ec3704e	0.3817162
106	0x3d82deed	0.06390176
107	0xbebf644a	-0.37381202
108	0xbec0fd77	-0.37693378
109	0x3e9d431e	0.3071527
110	0x3b757079	0.0037451072
111	0xbdc2ae15	-0.0950586
112	0xbe4d5fb2	-0.20056036
113	0x3ec9d5ed	0.39421025
114	0x3e47a146	0.19495115
115	0x3cc7e1d6	0.02439968
116	0xbe0cfb61	-0.13767768
117	0xbd4cdf44	-0.05001761
118	0xbd8c7103	-0.06857493
119	0x3de59816	0.11210649
120	0xbebecc5c	-0.3726529
121	0x3e2b7f84	0.16747862
122	0x3ec0db7a	0.37667447
123	0xbe78f443	-0.24311928
124	0xbe1f65e9	-0.1556622
125	0xbdb75684	-0.089520484
126	0x3e1a3b49	0.15061678
127	0xbcac23c2	-0.021013144
128	0x3efd20ba	0.4943903
129	0x3e0a3a1d	0.13498731
130	0xbecdb7ee	-0.4017939
131	0xbd9d8279	-0.07690901
132	0x3df848fb	0.12123295
133	0xbe6d2865	-0.2315994
134	0x3d4ece7c	0.050489888
135	0xbe55b172	-0.20868471
136	0xbe9c1201	-0.30482486
137	0xbde919b8	-0.113818586
138	0x3e2d9c07	0.16954051
139	0xbd3e7e04	-0.046506897
140	0xbd3cb3a7	-0.046069767
141	0xbe5a113d	-0.21295638
142	0xbe91cdb5	-0.28477255
143	0xbe0eb66f	-0.1393678
144	0xbec6a875	-0.38800398
145	0x3e900329	0.2812741
146	0x3e899a39	0.26875475
147	0xbe9c5d99	-0.3054016
148	0xbe74d86e	-0.23910686
149	0x3e0f8255	0.14014561
150	0xbe2ec5e6	-0.1706768
151	0x3eb830bb	0.35974678
152	0x3e1c594a	0.15268436
153	0x3ef5e510	0.48026323
154	0x3ef26c24	0.4734813
155	0x3d99a7b7	0.07502692
156	0xbe451704	-0.19247061
157	0x3ec36855	0.38165537
158	0xbe5f36b3	-0.2179821
159	0xbd5b0bfa	-0.05347822
160	0x3e320cfc	0.17387766
161	0x3e1253d5	0.14289792
162	0x3d155ffa	0.036468484
163	0x3e5c451d	0.2151074
164	0xbdc13926	-0.09434728
165	0x3ebe3971	0.371532
166	0x3df01261	0.117222555
167	0xbeb53558	-0.3539226
168	0xbe152238	-0.14563835
169	0xbe8f469e	-0.27983564
170	0xbf069e57	-0.5258536
171	0x3eb0298a	0.34406692
172	0xbe87134b	-0.26381907
173	0xbefce2e4	-0.49391854
174	0x3f092d20	0.5358448
175	0x3e0f13c1	0.1397238
176	0xbe7ca362	-0.246717
177	0x3e78d980	0.2430172
178	0x3eac3ba9	0.33639267
179	0x3d1b57be	0.037925474
180	0xbea51510	-0.32242632
181	0x3e9f95b0	0.3116889
182	0x3dc98ccd	0.09841309
183	0x3ea752dd	0.32680407
184	0x3d89b548	0.0672403
185	0xbd07c1cc	-0.033143803
186	0x3ec50966	0.38483733
187	0xbf185747	-0.59508175
188	0x3dcd4d6f	0.10024535
189	0x3ead800e	0.3388676
190	0xbe85c290	-0.26125002
191	0xbe9d0024	-0.3066417
192	0x3e6e7575	0.23286994
193	0x3dc87a3d	0.0978894
194	0xbdaccc91	-0.084374554
195	0x3c8ed04e	0.017433312
196	0xbe9c87ef	-0.3057246
197	0x3e7a5e36	0.24450001
198	0x3dbbdc33	0.09172859
199	0xbd2928cb	-0.04129867
200	0xbea5ce45	-0.32383934
201	0x3ea1ee95	0.31627336
202	0x3e0ece44	0.13945872
203	0xbdb41783	-0.08793547
204	0xbeeee8e3	-0.46662053
205	0x3ee3a5f6	0.44462556
206	0x3d4e9d13	0.050442766
207	0xbe207a58	-0.1567167
208	0x3e375e45	0.17907055
209	0x3ea66e67	0.32506105
210	0x3e3fc0cf	0.18725894
211	0xbeefcb54	-0.46834815
212	0x3e54ab8e	0.20768568
213	0x3eb71c74	0.35763896
214	0x3e3b82c4	0.18311602
215	0x3e63b1f0	0.22235847
216	0x3ea962ac	0.33083093
217	0x3dbafe8f	0.091305844
218	0xbe7f2d12	-0.24919537
219	0x3ec71a6a	0.3888734
220	0x3ed2c2fc	0.41164386
221	0xbe8011a8	-0.2501347
222	0x3af09c17	0.0018357065
223	0x3e2f5ed8	0.17126024
224	0x3e1bd837	0.15219198
225	0x3ccdbe29	0.02511509
226	0x3ea462dd	0.32106677
227	0x3e19a011	0.15002467
228	0x3ec13846	0.37738246
229	0xbf15c71c	-0.5850694
230	0x3e992468	0.29910588
231	0x3e3f9801	0.18710329
232	0x3ebec403	0.3725892
233	0xbe91422f	-0.28370807
234	0xbe921e64	-0.2853881
235	0xbb0dc47c	-0.0021632006
236	0xbdd6a2b6	-0.104802534
237	0xbe5d00c3	-0.21582322
238	0x3c6cff2d	0.0144651355
239	0x3ee4299d	0.44562998
240	0x3dc46269	0.09589083
241	0xbe5a71ed	-0.21332522
242	0x3d862ed1	0.06551898
243	0x3ec8c5f7	0.39213535
244	0x3e2c1e95	0.16808541
245	0xbe2f6d2c	-0.1713149
246	0xbd576a51	-0.052591626
247	0x3e0076be	0.12545297
248	0xbeb2989f	-0.34882066
249	0xbbaf4e4f	-0.0053499113
250	0x3e928f40	0.28624916
251	0xbecec184	-0.40382016
252	0xbe5903d6	-0.2119287
253	0x3e82125c	0.25404632
254	0xbe90ff27	-0.28319666
255	0x3d5224e5	0.051304717

transformer.layers.0.1.branch.1.bias f4 [64]
0	0x3c5e85f5	0.0135817425
1	0xbda2ad33	-0.079431914
2	0x3e9008f8	0.28131843
3	0x3ce7a394	0.028276242
4	0xbcf7f296	-0.030267041
5	0x3e164d59	0.14677943
6	0xbda08386	-0.07837586
7	0xbdf83100	-0.12118721
8	0xbdfcb040	-0.123383045
9	0xbe46722d	-0.19379492
10	0x3e9caa6b	0.3059877
11	0xbefc1dbf	-0.49241444
12	0x3ce0a956	0.027424496
13	0xbe8d5992	-0.276074
14	0xbebfd64a	-0.37468177
15	0xbed1a223	-0.40944013
16	0x3ea239cf	0.3168473
17	0x3d14bd9c	0.036313638
18	0x3d7c00fd	0.06152438
19	0x3d85955d	0.065226294
20	0xbeb7bd55	-0.35886636
21	0x3e282a78	0.1642245
22	0xbd0f95d1	-0.035054985
23	0xbe953c47	-0.2914755
24	0xbe569e3f	-0.20958804
25	0xbf0142cb	-0.50492543
26	0xbe5626b7	-0.20913206
27	0x3e015361	0.12629463
28	0x3c9598e2	0.018261377
29	0x3e4d67d2	0.20059136
30	0x3e25d859	0.16195811
31	0xbed0338c	-0.40664327
32	0x3e6e110f	0.23248695
33	0x3bd4bf89	0.0064925593
34	0xbd199f40	-0.03750539
35	0x3e4fbd4d	0.20287056
36	0x3da85098	0.08218497
37	0x3ec268f4	0.37970698
38	0x3ef50de1	0.4786215
39	0xbe4bfd13	-0.19920759
40	0xbdd80afd	-0.10548971
41	0x3e68f491	0.22749545
42	0xbe0a6a4f	-0.13517116
43	0xbeaa9a88	-0.33321023
44	0xbd2188e4	-0.03943719
45	0xbed1a1aa	-0.40943652
46	0xbe298d75	-0.16557868
47	0xbe67d273	-0.22638874
48	0x3ec3d126	0.38245505
49	0xbe4301ac	-0.19043607
50	0xbd3e6f6f	-0.04649299
51	0xbd8db3aa	-0.06919034
52	0x3e7f600d	0.24938984
53	0xbc46e4a6	-0.012139475
54	0x3eb22e03	0.3480073
55	0x3e6d55ab	0.23177211
56	0x3e05fdc6	0.13085088
57	0x3d51200f	0.051055964
58	0xbe27c622	-0.16384175
59	0x3eaa4a6f	0.33259913
60	0x3ed7015f	0.41993234
61	0xbe62ef0d	-0.22161503
62	0x3e551651	0.20809294
63	0xbdbdd36a	-0.0926884

transformer.layers.0.1.branch.4.weight f4 [8, 32]
0	0x3e3da9f3	0.18521862
1	0xbe295e57	-0.16539894
2	0x3dd3c5bd	0.1034045
3	0xbd0f592f	-0.03499716
4	0xbe2f833b	-0.17139904
5	0xbd44bae4	-0.048029795
6	0xbe76ec64	-0.24113613
7	0xbe767652	-0.24068573
8	0xbd0dfaad	-0.03466289
9	0xbddeb6b5	-0.10874692
10	0x3d9733d2	0.07382931
11	0xbd7be2b1	-0.061495487
12	0xbdd32b80	-0.10311031
13	0xbe276806	-0.16348276
14	0xbe40906a	-0.1880509
15	0xbe20ac6f	-0.15690778
16	0xbe3daf94	-0.18524009
17	0x3cb43345	0.021997103
18	0xbdd64d3d	-0.10463951
19	0x3e64c74c	0.2234165
20	0x3e57e26a	0.21082464
21	0x3e3d8e9b	0.18511431
22	0x3e722ff5	0.23651107
23	0x3ecbc4f4	0.397987
24	0x3ddc8abe	0.107686505
25	0x3e0accff	0.13554762
26	0xbe8badbf	-0.27280995
27	0xbe1b02e0	-0.15137815
28	0xbe2d5395	-0.16926415
29	0x3c3fe57f	0.011712431
30	0x3dc86bc2	0.09786178
31	0xbe506d5c	-0.20354217
32	0xbe937402	-0.28799444
33	0x3e444926	0.19168529
34	0x3e5a6873	0.21328907
35	0x3e8de36d	0.27712575
36	0x3e8f36d4	0.27971518
37	0x3eabba03	0.33540353
38	0x3e22dc7f	0.15904425
39	0x3e950258	0.2910335
40	0x3e9c23ae	0.3049597
41	0x3d7998d1	0.060936753
42	0xbe9a8191	-0.30176976
43	0x3eca0663	0.39457998
44	0x3e2bec4a	0.16789356
45	0x3f06d5e1	0.52670103
46	0x3eb16c13	0.34652767
47	0x3ee8e268	0.45485234
48	0x3e4d35b8	0.20040023
49	0x3d7cf8a5	0.061760563
50	0x3ec8305e	0.390994
51	0xbea8c309	-0.329613
52	0xbe138cee	-0.14409229
53	0xbe8d00f3	-0.27539787
54	0xbe9247ba	-0.28570348
55	0xbe69d656	-0.22835669
56	0xbda81275	-0.082066454
57	0xbe917eb7	-0.28416988
58	0x3e2346c2	0.1594496
59	0x3e7d2980	0.24722862
60	0x3e794790	0.24343705
61	0x3e24b5ff	0.16085051
62	0xbe52f1f3	-0.20600109
63	0x3e8547e6	0.26031417
64	0x3e11ad13	0.14226179
65	0x3b11e5fa	0.002226232
66	0xbca18744	-0.01971782
67	0xbde33cbc	-0.110955685
68	0xbb9de3ce	-0.004818416
69	0x3d4034b3	0.046925258
70	0x3ea6dc0c	0.32589757
71	0x3d114e8d	0.035475302
72	0x3d5ff6bb	0.05467866
73	0x3dcf2816	0.10115068
74	0x3d9878e9	0.07444937
75	0xbe42f680	-0.19039345
76	0xba1b848d	-0.00059325324
77	0x3d29a357	0.04141554
78	0xbdb16a95	-0.08662907
79	0xbe1eef49	-0.15520968
80	0xbdfb7654	-0.12278429
81	0xbdf84679	-0.121228166
82	0x3dbb094b	0.09132632
83	0xbe0665a1	-0.13124706
84	0x3cb97e39	0.022643195
85	0x3e1d0729	0.15334763
86	0xbe1b2f03	-0.15154652
87	0xbe151d0f	-0.14561866
88	0x39fdeb13	0.00048431064
89	0xbe4ac0a1	-0.19800045
90	0xbd0f2db2	-0.034955688
91	0x3ddaf5e8	0.10691434
92	0x3e28614b	0.16443364
93	0xbc3faf73	-0.011699545
94	0x3d8e70fd	0.069551446
95	0xbdfdd025	-0.12393216
96	0x3e883494	0.26602614
97	0xbbc98be6	-0.0061507104
98	0xbce4c270	-0.027924746
99	0xbe47598d	-0.19467755
100	0xbde96c1f	-0.113975756
101	0xbd8af74a	-0.06785448
102	0x3d2a0381	0.041507248
103	0xbe39d9e9	-0.18149532
104	0x3d5524e9	0.052037153
105	0xbdda9ce5	-0.106744565
106	0x3d68c463	0.056827914
107	0xbda4f134	-0.08053818
108	0xbcb72dbe	-0.022360679
109	0xbdf5f1ac	-0.12008986
110	0x3d480c54	0.048839882
111	0xbe014696	-0.12624583
112	0x3d10d158	0.035355896
113	0xbdf054e1	-0.11734939
114	0xbd62718f	-0.05528408
115	0xbe052f6e	-0.13006374
116	0x3e1dac95	0.15397866
117	0x3e5e52a0	0.21711206
118	0x3dac34bc	0.08408496
119	0xbb21ba95	-0.0024677862
120	0xbd0b1a3b	-0.033960562
121	0x3d86c923	0.065813325
122	0xbe914e58	-0.28380084
123	0x3d1ed97a	0.03878162
124	0xbcf067a5	-0.029346297
125	0x3e2d69b1	0.1693485
126	0x3d268a00	0.04065895
127	0xbe4312c0	-0.19050121
128	0x3cbe4e5b	0.023230722
129	0xbe0fe617	-0.14052616
130	0x3e15107e	0.14557073
131	0x3de94f9a	0.11392136
132	0xbdb7d4c2	-0.08976127
133	0xbd0fc606	-0.03510096
134	0xbe4ee398	-0.20204008
135	0x3dac199c	0.08403322
136	0xbe0dc0e5	-0.13843115
137	0x3d92884f	0.07154905
138	0x3c7194e8	0.014744975
139	0x3dfb5b02	0.12273218
140	0x3d6aa8cb	0.05728988
141	0xbdb9d396	-0.0907356
142	0xbdcf9ad7	-0.10136955
143	0xbd236afe	-0.039896958
144	0xbd80d904	-0.062913924
145	0x3dc89dc3	0.09795716
146	0x3d46b2b1	0.048510257
147	0x3e6a5797	0.22884975
148	0x3e13fb78	0.14451396
149	0x3c5de3bf	0.013543068
150	0x3e5f5bea	0.21812406
151	0x3e9c2ee4	0.30504525
152	0x3d944cff	0.07241248
153	0x3e48c883	0.19607739
154	0x3d372509	0.044713054
155	0xbde51765	-0.11186103
156	0xbe02771f	-0.12740754
157	0xbd09daec	-0.033656046
158	0x3e5bd23f	0.21466921
159	0x3d12294c	0.035683915
160	0x3d89738d	0.06711493
161	0x3d51ea1e	0.051248662
162	0xbc6bf8d8	-0.014402591
163	0xbe1de1ba	-0.15418139
164	0x3ca25b29	0.01981886
165	0x3c5da05b	0.013527001
166	0xbcca0662	-0.024661247
167	0xbe67d665	-0.22640379
168	0x3dc54d19	0.09633846
169	0x3d0b13d9	0.033954475
170	0x3cbaddc4	0.022810824
171	0xbdc42dbe	-0.09579037
172	0x3bd97b2a	0.0066369968
173	0xbde99364	-0.11405066
174	0xbdd2dca2	-0.102959886
175	0xbe62c40b	-0.22145097
176	0x3cacee34	0.021109678
177	0xbdf1144c	-0.117714494
178	0x3dc5662c	0.09638628
179	0xbdbef22a	-0.09323533
180	0x3cb94fa1	0.022620978
181	0x3d51bffd	0.051208485
182	0xbdf48d9b	-0.119410716
183	0xbe483aea	-0.19553724
184	0xbcd9c442	-0.02658284
185	0xbe13bcf0	-0.14427543
186	0x3d43bcd2	0.047787495
187	0x3ea34cec	0.31894624
188	0x3e6289bf	0.22122858
189	0xbdf78daf	-0.12087571
190	0x3e06cbdd	0.13163705
191	0xbd678be0	-0.05652988
192	0x3ddc0d82	0.10744764
193	0xbddb8a05	-0.107196845
194	0xbbe6cf77	-0.0070437747
195	0xbd15af7b	-0.036544304
196	0xbcf045c0	-0.029330134
197	0xbe33e3a8	-0.17567313
198	0x3e83c3d5	0.25735345
199	0x3c8f6024	0.017501898
200	0xbc2c2adb	-0.010508264
201	0xbe13d98b	-0.14438455
202	0xbc809644	-0.015696652
203	0xbe07e368	-0.13270342
204	0x3dadadbd	0.084804036
205	0xbc79bda9	-0.015242972
206	0x3dd74602	0.105114
207	0x3d8a5404	0.06754306
208	0x3e309b74	0.172468
209	0xbbef80b8	-0.0073090456
210	0xbd12a5db	-0.035802703
211	0xbda5bd62	-0.080927625
212	0xbcb533b1	-0.022119375
213	0x3e0c1162	0.13678506
214	0xbde9a0f6	-0.11407654
215	0xbd217f7d	-0.039428223
216	0xbc99f11f	-0.018791733
217	0x3d69bfff	0.057067867
218	0x3b0c0b2c	0.0021368964
219	0x3e519d30	0.20470119
220	0x3d7416fe	0.05959224
221	0x3e2782ff	0.16358565
222	0x3d327490	0.043568194
223	0xbdb68f67	-0.089140706
224	0xbdfcf263	-0.12350919
225	0x3dad4df8	0.08462137
226	0xbda4aa49	-0.08040292
227	0xbdaa4b7d	-0.083151795
228	0x3d9aa583	0.075511
229	0x3e694627	0.22780667
230	0x3eb21cd7	0.34787628
231	0x3dab4451	0.0836264
232	0x3d9891b7	0.07449668
233	0x3e234718	0.15945089
234	0xbe1beb29	-0.15226425
235	0x3ea37fc0	0.31933403
236	0x3d90e40e	0.07074748
237	0x3e26425a	0.16236249
238	0x3e84f48e	0.2596783
239	0x3e3941ae	0.18091461
240	0xbd63de8a	-0.05563215
241	0xbd96660c	-0.07343683
242	0x3e39335b	0.18085997
243	0x3caefbfa	0.021360386
244	0xbe711546	-0.23543271
245	0xbe1f1baf	-0.15537904
246	0xbe5ee8c9	-0.21768488
247	0xbdb7906b	-0.089630924
248	0xbdcc97a1	-0.099898584
249	0xbe29577c	-0.16537279
250	0x3e3c4c6a	0.18388525
251	0x3e8c6141	0.2741795
252	0x3e932ef7	0.2874677
253	0x3d83cfeb	0.064361416
254	0xbdc7e9d9	-0.097614
255	0x3e0a077f	0.13479422

transformer.layers.0.1.branch.4.bias f4 [8]
0	0xbd8b5372	-0.06803025
1	0x3e7f7d54	0.24950153
2	0xba9680bb	-0.0011482456
3	0x3d36075d	0.044440616
4	0xbe63a0be	-0.22229287
5	0x3d2caff2	0.042159982
6	0xbdcf22fe	-0.10114096
7	0xbca2f410	-0.019891769

transformer.layers.0.1.norm.gamma f4 [8]
0	0x3e92d1c2	0.28675658
1	0x3ec9b562	0.39396197
2	0x3ea044ad	0.31302395
3	0x3e2d38f4	0.16916257
4	0x3e9803e8	0.2969048
5	0x3ec86da4	0.3914615
6	0x3e6d44ba	0.23170748
7	0x3e498689	0.19680227

transformer.layers.1.0.static_alpha f4 [4, 5]
0	0xbf0f8b0a	-0.5607153
1	0x3f800000	1.0
2	0x00000000	0.0
3	0x00000000	0.0
4	0x00000000	0.0
5	0x3dc65cf8	0.09685701
6	0x00000000	0.0
7	0x3f800000	1.0
8	0x00000000	0.0
9	0x00000000	0.0
10	0x3e0b5dcd	0.13610001
11	0x00000000	0.0
12	0x00000000	0.0
13	0x3f800000	1.0
14	0x00000000	0.0
15	0x3ea0f05b	0.31433377
16	0x00000000	0.0
17	0x00000000	0.0
18	0x00000000	0.0
19	0x3f800000	1.0

transformer.layers.1.0.dynamic_alpha_fn f4 [8, 5]
0	0x3cde86da	0.027163912
1	0x00000000	0.0
2	0x00000000	0.0
3	0x00000000	0.0
4	0x00000000	0.0
5	0x3dcd31a7	0.10019236
6	0x00000000	0.0
7	0x00000000	0.0
8	0x00000000	0.0
9	0x00000000	0.0
10	0xbd29fa14	-0.04149826
11	0x00000000	0.0
12	0x00000000	0.0
13	0x00000000	0.0
14	0x00000000	0.0
15	0xbd494e96	-0.04914721
16	0x00000000	0.0
17	0x00000000	0.0
18	0x00000000	0.0
19	0x00000000	0.0
20	0xbdcd87f1	-0.100356944
21	0x00000000	0.0
22	0x00000000	0.0
23	0x00000000	0.0
24	0x00000000	0.0
25	0x3d1ca17b	0.038239937
26	0x00000000	0.0
27	0x00000000	0.0
28	0x00000000	0.0
29	0x00000000	0.0
30	0x3d439436	0.047748767
31	0x00000000	0.0
32	0x00000000	0.0
33	0x00000000	0.0
34	0x00000000	0.0
35	0xbe05b111	-0.13055827
36	0x00000000	0.0
37	0x00000000	0.0
38	0x00000000	0.0
39	0x00000000	0.0

transformer.layers.1.0.static_beta f4 [4]
0	0x3f7aa0f0	0.9790182
1	0x3f8186ee	1.0119302
2	0x3f826b9f	1.0189093
3	0x3f781fe3	0.96923655

transformer.layers.1.0.dynamic_beta_fn f4 [8]
0	0x3e46a281	0.19397928
1	0xbefb1ff0	-0.49047804
2	0xbe1d71fd	-0.15375514
3	0xba7c4e90	-0.0009624744
4	0xbe579177	-0.21051584
5	0xbe4ee13d	-0.20203109
6	0xbd935208	-0.071933806
7	0x3e26f8df	0.16305874

transformer.layers.1.0.branch.norm.weight f4 [8]
0	0x3f8e2d7f	1.1107634
1	0x3f6dcff3	0.9289543
2	0x3f88f37e	1.0699308
3	0x3f836317	1.0264615
4	0x3f7b6ce7	0.98213047
5	0x3f889152	1.0669348
6	0x3f8d99d6	1.1062572
7	0x3f90ee6f	1.1322764

transformer.layers.1.0.branch.norm.bias f4 [8]
0	0xbdb95697	-0.09049719
1	0x3db36d93	0.08761134
2	0x3d2ae956	0.041726433
3	0xbd3f2cb6	-0.0466735
4	0x3d4b5f68	0.049651533
5	0x3d609b48	0.054835588
6	0xbb94f47b	-0.004545746
7	0x3d82b59a	0.06382294

transformer.layers.1.0.branch.to_qkv.weight f4 [192, 8]
0	0x3e836c77	0.2566869
1	0x3da25b29	0.07927544
2	0x3e683069	0.22674717
3	0x3e17d247	0.14826308
4	0xbe9a254b	-0.30106577
5	0xbe893843	-0.26800737
6	0x3e05b6e5	0.1305805
7	0x3dbdc6a8	0.09266406
8	0x3e8d9030	0.2764907
9	0x3ea005a0	0.31254292
10	0xbd6969eb	-0.056985777
11	0x3e55a0ba	0.20862094
12	0xbe97cd2c	-0.2964872
13	0xbe3083a2	-0.17237714
14	0xbd9c6400	-0.07636261
15	0xbe8d1203	-0.27552804
16	0xbea08d75	-0.31357923
17	0xbe9a98b1	-0.3019462
18	0xbe88c35b	-0.26711544
19	0xbe566e92	-0.20940617
20	0x3e0fc4da	0.14039937
21	0xbec22e1d	-0.37925807
22	0x3e403168	0.18768847
23	0x3dda9b5b	0.10674163
24	0xbd72c21d	-0.059267152
25	0xbe1d57fa	-0.15365592
26	0x3e3d2d0c	0.18474215
27	0xbdc7b650	-0.0975157
28	0x3e9c421a	0.3051918
29	0xbe06e130	-0.1317184
30	0xbe22b433	-0.15889053
31	0x3e380e13	0.17974119
32	0xbd8cdabd	-0.068776585
33	0xbe7f5dc1	-0.24938108
34	0x3e7f6fc2	0.24944976
35	0x3e20dc43	0.15709023
36	0x3e244f3c	0.1604585
37	0x3db2d64b	0.087322794
38	0xbdf09ca4	-0.11748627
39	0xbcedeef1	-0.0290446
40	0xbe8a9395	-0.2706572
41	0x3e338f95	0.17535241
42	0x3dd005ae	0.10157333
43	0xbe12a272	-0.1431978
44	0xbe21b0b4	-0.15790063
45	0xbe56e195	-0.2098449
46	0x3e16904c	0.14703482
47	0x3de1bca3	0.11022308
48	0x3cb5be8f	0.022185592
49	0xbe41eb20	-0.1893735
50	0x3e6d3817	0.23165928
51	0xbe82a400	-0.25515747
52	0x3d8a2a49	0.067463465
53	0xbe4fd06f	-0.20294355
54	0x3dafefcc	0.085906595
55	0x3e6f871a	0.23391381
56	0xbe182dd9	-0.1486124
57	0xbdc672f0	-0.09689891
58	0x3e3a8b8f	0.182173
59	0x3e99a384	0.30007565
60	0x3ed0bfc8	0.40771317
61	0xbec57623	-0.38566694
62	0xbdd08923	-0.10182407
63	0xbe561783	-0.20907407
64	0x3ec30f07	0.38097402
65	0xbe9942ed	-0.29933873
66	0x3d6f9afe	0.05849742
67	0x3e2a3146	0.16620359
68	0xbde1cd49	-0.11025483
69	0x3e9cf406	0.30654925
70	0x3e04ec2e	0.1298072
71	0x3e8ccf6f	0.2750201
72	0x3e15e662	0.14638665
73	0xbe9ba102	-0.30396277
74	0x3e71cffb	0.23614495
75	0x3eb53d4b	0.35398325
76	0x3eaf48dd	0.34235278
77	0xbe912c6d	-0.28354207
78	0xbea1ca98	-0.3159988
79	0xbe51c2a9	-0.20484413
80	0x3db81704	0.08988765
81	0xbec31c5f	-0.38107583
82	0x3e664f3a	0.2249116
83	0xbe5627ac	-0.20913571
84	0xbe06275a	-0.13100949
85	0x3e6ed051	0.23321654
86	0xbdc96ec6	-0.098355815
87	0x3e48fe43	0.19628243
88	0xbcdb0559	-0.026735948
89	0x3eb11f5c	0.34594238
90	0x3e600e2c	0.21880406
91	0xbeaaeb63	-0.3338271
92	0x3e86b494	0.26309645
93	0xbe96d578	-0.2945974
94	0xbe3ccb0e	-0.18436834
95	0xbe710d7f	-0.23540305
96	0x3e8f523b	0.27992424
97	0xbecddc5d	-0.40207186
98	0x3e8cfd8d	0.27537194
99	0x3dc042d9	0.0938775
100	0x3e8aa0ab	0.27075705
101	0xbcd3ec17	-0.025869412
102	0xbdfdbeba	-0.12389894
103	0x3e073f6f	0.13207792
104	0xbe80e32c	-0.25173318
105	0xbe81d751	-0.25359586
106	0xbe39007f	-0.18066595
107	0x3ed8b6e4	0.42327034
108	0x3e38d81c	0.18051189
109	0x3e8ce6ee	0.27519935
110	0xbe43cf25	-0.19121988
111	0xbeae7942	-0.34076887
112	0x3e839566	0.2569992
113	0xbe9cbb4a	-0.3061164
114	0x3eaf8628	0.3428204
115	0xbd835122	-0.06411959
116	0x3e7d8179	0.24756421
117	0xbea5823b	-0.3232592
118	0xbe6dc294	-0.23218757
119	0x3e1367dc	0.14395088
120	0x3e5e331b	0.21699183
121	0xbea99f81	-0.33129504
122	0xbddbefb5	-0.1073908
123	0xbe725e0d	-0.2366869
124	0xbe75adcd	-0.23992081
125	0x3ec0a0e1	0.3762274
126	0xbe263f00	-0.1623497
127	0xbe2cd223	-0.16877036
128	0xbdf0c9f0	-0.117572665
129	0xbdc614a4	-0.09671906
130	0xbe44fbb0	-0.19236636
131	0x3dd6760f	0.10471737
132	0x3ed94678	0.42436576
133	0xbe8e8b30	-0.27840567
134	0x3dcd6040	0.10028124
135	0xbe6414c8	-0.22273552
136	0x3c33f9dd	0.010984865
137	0x3d041b47	0.032252576
138	0x3d72ea32	0.059305377
139	0x3e21acf5	0.15788634
140	0xbb4653a4	-0.0030262256
141	0xbedcb9f0	-0.4311061
142	0x3e9c133e	0.3048343
143	0xbd555a47	-0.05208805
144	0x3dbbbb50	0.091665864
145	0x3e383896	0.17990336
146	0x3ddd5b3f	0.108084194
147	0xbe0f2586	-0.13979158
148	0xbed76086	-0.4206583
149	0xbdb71918	-0.08940333
150	0xbd715573	-0.05891938
151	0x3ee3bf35	0.44481817
152	0x3d336b2b	0.043803375
153	0xbddae73e	-0.10688637
154	0xbe0b05be	-0.13576409
155	0x3dad83a0	0.08472371
156	0x3dfda23d	0.1238446
157	0xbe70f69e	-0.23531577
158	0xbe9256eb	-0.28581938
159	0xbd132242	-0.035921343
160	0xbe9c5263	-0.30531606
161	0x3d97b7ee	0.07408129
162	0x3e100481	0.14064218
163	0x3d25a3ba	0.040439345
164	0x3c638674	0.013887037
165	0x3ef522d4	0.47878134
166	0x3e27c8a7	0.16385137
167	0xbe0f2632	-0.13979414
168	0x3d8243cb	0.06360587
169	0x3ecbd700	0.3981247
170	0xbe2d3ab9	-0.16916932
171	0x3d248d29	0.040173683
172	0x3d46ef30	0.04856795
173	0x3e8d0c4d	0.27548447
174	0xbec45bcb	-0.38351282
175	0xbea56e1c	-0.3231057
176	0x3e3d3c4b	0.18480031
177	0x3ebe8911	0.37213948
178	0xbd9818ce	-0.07426606
179	0x3e446a42	0.19181159
180	0x3e141b58	0.14463556
181	0x3e107591	0.14107348
182	0x3c8e0ee6	0.017341089
183	0x3c8d4b10	0.017247707
184	0xbe9e361d	-0.3090066
185	0xbdb0d90b	-0.08635148
186	0xbe05c716	-0.13064227
187	0x3e1d9fbd	0.15392967
188	0x3e8ca8e0	0.2747259
189	0x3e8bbca9	0.27292374
190	0xbd50b60d	-0.050954867
191	0xbea5a891	-0.32355168
192	0x3e2964ce	0.1654236
193	0xbd01505b	-0.031570774
194	0xbe3846b1	-0.17995717
195	0x3e753659	0.23946513
196	0x3ec10ec1	0.3770657
197	0xbe5d450f	-0.21608375
198	0xba92ec97	-0.0011209425
199	0xbd3230f0	-0.0435037
200	0x3dcdac14	0.10042587
201	0xbed455fe	-0.41471857
202	0x3e9b7889	0.303654
203	0xbeb5d05b	-0.35510525
204	0xbe976d63	-0.29575643
205	0xbe1e4072	-0.15454271
206	0x3e4b44a8	0.19850409
207	0x3d9af424	0.075660974
208	0x3de385a6	0.11109476
209	0x3d01e3ff	0.031711575
210	0xbcf26803	-0.029590612
211	0xbd35d92d	-0.044396568
212	0x3e2bd011	0.1677859
213	0x3db0de5d	0.086361624
214	0xbd606a85	-0.054789085
215	0xbedc3a36	-0.4301316
216	0xbece43bd	-0.40286055
217	0x3e410f6c	0.18853539
218	0x3e75f893	0.24020605
219	0xbd1297b6	-0.035789214
220	0xbe52db95	-0.20591576
221	0x3de7b1be	0.113131985
222	0xbeb6ebb2	-0.35726696
223	0xbe83f46a	-0.2577241
224	0x3e00f257	0.12592445
225	0x3e48fdc1	0.1962805
226	0x3dec5a80	0.11540699
227	0x3dc683bd	0.09693096
228	0x3e167977	0.14694773
229	0x3e2f2606	0.17104349
230	0xbe921e97	-0.28538963
231	0x3d9fcecb	0.078031145
232	0x3e01f16b	0.1268975
233	0xbebfb142	-0.37439924
234	0x3de7cdf8	0.11318582
235	0xbdd6d213	-0.10489287
236	0xbe36ba7b	-0.17844574
237	0x3ebf89d4	0.37409842
238	0xbd61e6e8	-0.05515185
239	0x3ea9c9db	0.33161816
240	0xbeb61679	-0.3556402
241	0xbcd24a5d	-0.025670225
242	0xbeaed9e0	-0.341506
243	0x3e4d0fa4	0.20025498
244	0xbe1dfff3	-0.15429668
245	0xbe868114	-0.26270354
246	0x3e3ad16f	0.18243955
247	0xbdcfe519	-0.10151119
248	0xbe45657a	-0.19276991
249	0xbbccb43f	-0.006247073
250	0xbe928185	-0.2861444
251	0x3e2b1838	0.16708457
252	0x3e3f3b1d	0.18674894
253	0xbeadef08	-0.3397143
254	0x3e0bdf42	0.13659385
255	0xbe8784c3	-0.26468477
