trained_models/physical_error_training/model_lr0.0001_8_1_4_4_.1_.1Error_date_20250811_epoch22500.pt (torch, 97162 bytes, 87 tensors)

cls_token f4 [1, 1, 8]
0	0x3f9a4909	1.2053539
1	0x3ecacc28	0.39608884
2	0x3f7a1557	0.9768881
3	0x3e927ef4	0.28612483
4	0xbf702c65	-0.9381774
5	0xbf263f0a	-0.6493994
6	0x3cdf44a6	0.027254414
7	0x3fc19f02	1.512665

categorical_embeds.weight f4 [3, 8]
0	0xbff10bd7	-1.8831738
1	0x3f1fe192	0.6245357
2	0xbf2d18ea	-0.6761614
3	0x3ed46506	0.41483325
4	0xbfaca0e2	-1.3486598
5	0xbe27c1ba	-0.16382495
6	0x3ebb8471	0.36624482
7	0xbcdf9d6e	-0.027296748
8	0xbbd4cee9	-0.006494392
9	0x3f5a6a2f	0.85318273
10	0x3e6de2f9	0.23231114
11	0xbf301adf	-0.68791
12	0x3ff159b6	1.8855503
13	0xbf1138b8	-0.5672717
14	0x3f83067e	1.0236356
15	0x3f841cea	1.0321324
16	0xbfbdd115	-1.4829432
17	0xbe49d7be	-0.19711205
18	0xbf5cf080	-0.86304474
19	0x3d82e873	0.063919924
20	0x3fb64691	1.4240285
21	0x3e6718c8	0.22568047
22	0x3edcef49	0.4315131
23	0xbe395f12	-0.18102673

numerical_embedder.weights f4 [8, 8]
0	0xbea2585f	-0.31708047
1	0xbf5b94b7	-0.85773796
2	0x3f6df418	0.9295058
3	0xbfbdb940	-1.4822159
4	0xbe87bdc9	-0.26511982
5	0x40054b30	2.082714
6	0xbf871c7f	-1.0555571
7	0xc021cb73	-2.5280426
8	0x3f5c0dec	0.85958743
9	0xbda08160	-0.07837176
10	0xbe114096	-0.14184794
11	0x3e93b398	0.28847957
12	0x3e6bc9ce	0.23026201
13	0x3fe8c299	1.8184386
14	0x3f946136	1.1592166
15	0x3cd6c3fb	0.026216498
16	0xbfb9998b	-1.4499983
17	0x3ed59a0a	0.41719085
18	0x3e75a9fd	0.23990627
19	0xbfb7dbc3	-1.4363941
20	0xbf982166	-1.1885192
21	0x3f9270c8	1.1440668
22	0x3ffffafe	1.9998472
23	0x3e770e49	0.24126543
24	0x3f20549b	0.626291
25	0xbedfdc45	-0.4372274
26	0x3f1e1c3c	0.6176183
27	0xbf9035c0	-1.1266403
28	0xbf7c9aaf	-0.9867353
29	0x3f211ff2	0.6293937
30	0x3e174571	0.14772584
31	0xbf9619d5	-1.1726633
32	0xbfc4d9b4	-1.5378938
33	0x3e8b1744	0.27166188
34	0x3f59b44c	0.85040736
35	0xbd37767d	-0.044790734
36	0x3ffce571	1.975752
37	0xbeda2e59	-0.42613485
38	0xbdf44a52	-0.11928238
39	0x3fa061ff	1.2529906
40	0x3e6a5229	0.22882904
41	0xbff03636	-1.8766544
42	0x3f883f1b	1.0644258
43	0xbf2d7a98	-0.6776519
44	0xbf17adad	-0.59249383
45	0x3f327dcf	0.6972322
46	0xbf46552e	-0.77473724
47	0xc002c464	-2.0432367
48	0x3f98a113	1.1924156
49	0xbf058f1d	-0.521715
50	0x3f0ed16d	0.5578831
51	0x3f67b883	0.9051592
52	0x3f86a031	1.0517637
53	0xbe50a607	-0.20375834
54	0x3ff24888	1.8928385
55	0xbea55174	-0.32288706
56	0x3f72d087	0.9484944
57	0x3f02cda0	0.5109501
58	0x3ffec003	1.9902347
59	0x400e5e2c	2.2244978
60	0xbdb755a1	-0.08951879
61	0x3f23f404	0.64044213
62	0xbfa9c90b	-1.3264478
63	0xbfc86b29	-1.5657703

numerical_embedder.biases f4 [8, 8]
0	0x3c0ed1f7	0.008717052
1	0x3edc892f	0.43073413
2	0x3e730cdd	0.23735376
3	0x3e3b7bfa	0.18309012
4	0xbf1fe2d0	-0.62455463
5	0xbebfbaba	-0.3744715
6	0x3fd3dcd7	1.655177
7	0x3eacf4e6	0.33780593
8	0xbfc20b7f	-1.5159758
9	0x3f28dfb8	0.6596637
10	0x3e28f4ef	0.16499685
11	0xbf43149d	-0.7620333
12	0x40186c28	2.3816013
13	0x3fafb613	1.372744
14	0xbe39b80b	-0.18136613
15	0x3f335d09	0.70063835
16	0xbeec12f7	-0.4610822
17	0x3d684010	0.05670172
18	0xbf61dc03	-0.88226336
19	0xbf66f028	-0.902102
20	0x3fdad2a5	1.7095534
21	0x402ed3df	2.7316816
22	0xbfc02e1e	-1.5014074
23	0xbfca7898	-1.5818052
24	0xc031c3f7	-2.7775857
25	0x3f841f7e	1.0322111
26	0xbf83bb62	-1.029156
27	0xc044929e	-3.0714488
28	0x3f5b9282	0.8577043
29	0x3fe8baf9	1.818206
30	0x3a7e651e	0.00097043987
31	0x401389e4	2.3052912
32	0xbea4df8a	-0.32201797
33	0xbf231d90	-0.63716984
34	0xc008647e	-2.1311336
35	0x3fd32e19	1.6498443
36	0x3f6a2c04	0.9147341
37	0xbe352d1b	-0.17692988
38	0xbfb3e1f4	-1.405333
39	0x3f925d9c	1.1434817
40	0xbf5e8c60	-0.86932945
41	0x3f109721	0.56480604
42	0xbfd1a121	-1.6377298
43	0x3ec668a5	0.38751712
44	0x3c2b8170	0.010467872
45	0xbf37182f	-0.71521276
46	0xbf22509d	-0.63404256
47	0x3ec12187	0.37720892
48	0x3f04a5c9	0.5181547
49	0x3f121c53	0.5707447
50	0xbea0f5d6	-0.31437558
51	0x3e852d3a	0.26011068
52	0xbe5d160e	-0.21590444
53	0x3eeae9da	0.4588154
54	0xbe305445	-0.17219646
55	0xbf56e6e7	-0.8394608
56	0x3f7ff3df	0.9998149
57	0x3f829b6a	1.0203679
58	0x401f10d2	2.4854016
59	0xbf342461	-0.7036801
60	0xbeb6a6b8	-0.3567407
61	0xbfa20de1	-1.2660486
62	0x3f44f9f0	0.76943874
63	0x3eb8a6fe	0.36064905

transformer.layers.0.0.static_alpha f4 [4, 5]
0	0x3e656ca3	0.22404723
1	0x3f800000	1.0
2	0x00000000	0.0
3	0x00000000	0.0
4	0x00000000	0.0
5	0x3e656ca3	0.22404723
6	0x00000000	0.0
7	0x3f800000	1.0
8	0x00000000	0.0
9	0x00000000	0.0
10	0x3e656ca3	0.22404723
11	0x00000000	0.0
12	0x00000000	0.0
13	0x3f800000	1.0
14	0x00000000	0.0
15	0x3f9cadec	1.2240577
16	0x00000000	0.0
17	0x00000000	0.0
18	0x00000000	0.0
19	0x3f800000	1.0

transformer.layers.0.0.dynamic_alpha_fn f4 [8, 5]
0	0x3d47f52e	0.048817806
1	0x00000000	0.0
2	0x00000000	0.0
3	0x00000000	0.0
4	0x00000000	0.0
5	0xbd90df2c	-0.07073817
6	0x00000000	0.0
7	0x00000000	0.0
8	0x00000000	0.0
9	0x00000000	0.0
10	0xbe308560	-0.17238379
11	0x00000000	0.0
12	0x00000000	0.0
13	0x00000000	0.0
14	0x00000000	0.0
15	0x3e94dd80	0.2907524
16	0x00000000	0.0
17	0x00000000	0.0
18	0x00000000	0.0
19	0x00000000	0.0
20	0xbe021a3a	-0.12705317
21	0x00000000	0.0
22	0x00000000	0.0
23	0x00000000	0.0
24	0x00000000	0.0
25	0xbdbae8d4	-0.0912644
26	0x00000000	0.0
27	0x00000000	0.0
28	0x00000000	0.0
29	0x00000000	0.0
30	0xbdd53edb	-0.10412379
31	0x00000000	0.0
32	0x00000000	0.0
33	0x00000000	0.0
34	0x00000000	0.0
35	0xbe34ebae	-0.1766803
36	0x00000000	0.0
37	0x00000000	0.0
38	0x00000000	0.0
39	0x00000000	0.0

transformer.layers.0.0.static_beta f4 [4]
0	0x3f904ec0	1.1274033
1	0x3f479513	0.77961844
2	0x3f235c01	0.6381226
3	0x3f5af458	0.8552909

transformer.layers.0.0.dynamic_beta_fn f4 [8]
0	0x3e81b807	0.25335714
1	0x3d3e19e2	0.046411403
2	0x3e65a616	0.22426638
3	0xbe956cae	-0.2918448
4	0x3e071524	0.13191658
5	0x3efd8be4	0.4952079
6	0x3f0d18dd	0.55116063
7	0x3d9b6c15	0.075889744

transformer.layers.0.0.branch.norm.weight f4 [8]
0	0x3f8a75f0	1.0817242
1	0x3fa4daca	1.2879269
2	0x3f7fcd64	0.99922776
3	0x3f8e0296	1.1094539
4	0x3f92f940	1.1482315
5	0x3f748965	0.9552215
6	0x3f87f54a	1.0621731
7	0x3f7d9a20	0.990633

transformer.layers.0.0.branch.norm.bias f4 [8]
0	0xbce426a4	-0.027850457
1	0xba277b8a	-0.0006388953
2	0xbc976365	-0.018480012
3	0xbd1c4071	-0.038147394
4	0xbcf6f5ea	-0.030146558
5	0xbcabd238	-0.020974264
6	0xbd4fc9b7	-0.05072948
7	0x3da62ad2	0.08113636

transformer.layers.0.0.branch.to_qkv.weight f4 [192, 8]
0	0xbe4967bc	-0.19668478
1	0xbf2363db	-0.6382424
2	0xbd644327	-0.055728104
3	0x3e3a0452	0.1816571
4	0x3e1e149b	0.15437548
5	0x3ca2dc02	0.019880299
6	0x3e1d6242	0.15369514
7	0xbe5a7009	-0.213318
8	0x3e9510a0	0.29114246
9	0x3f2df4fe	0.67951953
10	0xbe098847	-0.13430892
11	0xbe38efdf	-0.18060254
12	0xbef2887e	-0.4736976
13	0xbe8bd213	-0.2730871
14	0xbe3b3c64	-0.18284756
15	0x3f004466	0.5010437
16	0x3cc78b95	0.02435855
17	0xbf298201	-0.66213995
18	0x3dd7aeba	0.10531373
19	0x3b1d3016	0.002398496
20	0xbbb9c41f	-0.0056691314
21	0x3ed08960	0.4072981
22	0x3e904ac2	0.28182036
23	0xbe8730fe	-0.26404566
24	0xbf0d001b	-0.55078286
25	0xbf46f8e5	-0.7772353
26	0xbecf34dc	-0.40470016
27	0x3e1668b8	0.14688385
28	0x3d0146d0	0.031561673
29	0xbd9171ca	-0.07101782
30	0x3e90a26e	0.28248924
31	0xbf167531	-0.5877257
32	0xbd184ea1	-0.03718436
33	0xbec57559	-0.38566092
34	0x3a22c264	0.0006208776
35	0xbe237d8b	-0.1596586
36	0x3e956f2c	0.2918638
37	0xbc457b9d	-0.0120533975
38	0x3decbdc7	0.11559635
39	0x3ce26405	0.027635584
40	0xbe533c64	-0.20628506
41	0xbe01ba2a	-0.12668672
42	0x3da6982c	0.08134493
43	0x3e4b2656	0.19838843
44	0x3e97e755	0.2966868
45	0x3e4b4290	0.1984961
46	0x3e0cc505	0.13747032
47	0x3e12e4cf	0.14345096
48	0xbb2930ca	-0.0025816434
49	0x3e28b008	0.164734
50	0x3ec2461b	0.3794411
51	0xbe7faa42	-0.24967292
52	0xbed831f1	-0.42225602
53	0xbe10ad44	-0.14128596
54	0xbe7f972d	-0.24960013
55	0x3e5cbf1a	0.21557274
56	0x3c8e98e4	0.017406888
57	0xbf36a9ab	-0.7135264
58	0x3e2c9127	0.16852246
59	0xbd82b557	-0.06382244
60	0x3e549a38	0.20761955
61	0x3cc00d5c	0.02344387
62	0x3c3f52fd	0.011677501
63	0xbea6eee6	-0.3260414
64	0xbdd586e4	-0.10426119
65	0x3ed6d619	0.4196022
66	0x3eabd23d	0.33558837
67	0x3e8c3d35	0.27390447
68	0xbe3c2d22	-0.18376592
69	0x3e292114	0.16516525
70	0xbef54535	-0.47904363
71	0x3deea752	0.116530076
72	0xbbb8b2b2	-0.0056365365
73	0xbe0030ac	-0.12518567
74	0x3d9861e9	0.0744055
75	0xbe856caf	-0.26059482
76	0xbea27ffb	-0.31738266
77	0x3eb773ee	0.35830635
78	0x3e1b3c8e	0.15159819
79	0xbe8f8846	-0.28033656
80	0xbe36c486	-0.17848405
81	0xbf340c1d	-0.70330983
82	0xbe4d47f3	-0.20046978
83	0xbe90aceb	-0.28256926
84	0xbdc2157f	-0.09476756
85	0x3f119b9f	0.56878084
86	0x3f06004f	0.5234422
87	0xbf1b129d	-0.60575277
88	0x3ea458a7	0.32098886
89	0x3f50d946	0.8158153
90	0x3e4ad05d	0.19806047
91	0x3eb801af	0.35938784
92	0xbee95ada	-0.45577127
93	0xbf0cfeee	-0.5507649
94	0xbe54222c	-0.2071616
95	0x3cd5a3f9	0.026079165
96	0xbeaaa3cb	-0.3332809
97	0x3eb6f0c4	0.35730565
98	0x3e9a1718	0.30095744
99	0x3ed54c09	0.41659573
100	0x3d1f681b	0.038917642
101	0xbecbbaf7	-0.3979108
102	0xbe9ad421	-0.30239967
103	0xbe572563	-0.21010356
104	0x3c0fb5d6	0.00877138
105	0x3ef83140	0.48475075
106	0x3e7b9f24	0.24572426
107	0xbdbeb59d	-0.09311984
108	0x3d9c1030	0.07620275
109	0x3d1b77c2	0.037956007
110	0x3e094a19	0.13407172
111	0xbd6b6605	-0.05747034
112	0xbefbdec3	-0.4919339
113	0xbeff3ec3	-0.4985257
114	0xbe0d6276	-0.13807091
115	0x3dba5c0d	0.090995885
116	0x3daad1d2	0.08340801
117	0x3f0fa431	0.5610991
118	0x3e99229e	0.29909223
119	0xbec32c16	-0.38119572
120	0xbcb5094f	-0.022099165
121	0x3f4ebeb5	0.80759746
122	0x3d9b6388	0.075873435
123	0x3ddab868	0.10679704
124	0xbe80af99	-0.2513397
125	0xbebad4b3	-0.36490402
126	0xbe857733	-0.26067504
127	0x3eb77741	0.3583317
128	0xbe5eb330	-0.21748042
129	0x3f7d20e4	0.9887831
130	0x3da96495	0.082711376
131	0x3e4f81b7	0.20264326
132	0xbe538d50	-0.20659375
133	0xbec60dda	-0.38682443
134	0x3d7a4bdc	0.0611075
135	0xbe2fe0c5	-0.17175587
136	0xbc1e4740	-0.009660542
137	0x3ec3bde1	0.38230804
138	0xbdc80d9f	-0.09768223
139	0xbeacb41a	-0.33731157
140	0x3ea25d9f	0.31712052
141	0x3ea81d9b	0.32835087
142	0xbe51f3d2	-0.20503166
143	0xbd0fc228	-0.03509727
144	0x3ef8a9ac	0.4856695
145	0xbecd5291	-0.40102056
146	0xbe9a7c98	-0.30173182
147	0xbd83c3f6	-0.06433861
148	0x3dfb6832	0.12275733
149	0xbe9506a1	-0.2910662
150	0xbe2bf8dd	-0.16794153
151	0x3d9ef7f4	0.07762137
152	0xbe4fdcef	-0.20299123
153	0xbf5dc696	-0.86631143
154	0x3c380611	0.011231915
155	0x3e05b70c	0.13058108
156	0x3ec4fd02	0.3847428
157	0xbd4a31a4	-0.049363747
158	0xbe04e80b	-0.12979142
159	0xbe760374	-0.24024755
160	0xbebe2822	-0.37139994
161	0x3f1283ca	0.57232344
162	0x3d945580	0.0724287
163	0xbbc3bcb6	-0.005973424
164	0x3edbe820	0.42950535
165	0x3c356029	0.01107029
166	0x3eafba70	0.34321928
167	0xbe799ca8	-0.24376166
168	0x3e26b1c7	0.16278754
169	0xbf0cd55d	-0.55013067
170	0x3bc0356b	0.005865743
171	0xbe4a5447	-0.19758712
172	0x3cff81bc	0.031189792
173	0x3c1d6044	0.009605471
174	0xbde47f76	-0.11157124
175	0x3d6726db	0.05643354
176	0xbe16fc15	-0.14744599
177	0xbed6a25f	-0.41920754
178	0x39dc9d69	0.0004207895
179	0x3da3764b	0.07981547
180	0xbedc231c	-0.42995536
181	0xbe893844	-0.2680074
182	0x3e11ce74	0.14238912
183	0xbec156fc	-0.37761676
184	0x3e8abd05	0.27097335
185	0xbe11b832	-0.14230421
186	0x3de0d584	0.10978225
187	0x3ec3fc04	0.3827821
188	0xbe2eea2d	-0.17081518
189	0xbe87395f	-0.26410958
190	0xbe9892af	-0.2979941
191	0x3d6c5a3e	0.05770325
192	0xbdd66cbc	-0.10469958
193	0xbea3dba2	-0.32003504
194	0x3e8fd64b	0.2809318
195	0xbd97c859	-0.0741126
196	0x3ef0f62b	0.4706281
197	0x3d54d4d3	0.051960777
198	0xbe4e9e85	-0.20177658
199	0xbec6beb2	-0.38817364
200	0xbde4d93e	-0.11174248
201	0xbf1434ff	-0.57893366
202	0xbe28925a	-0.16462079
203	0x3d445d82	0.04794074
204	0xbe843b5e	-0.25826544
205	0x3e3cba4e	0.18430445
206	0xbd6fb5d6	-0.05852302
207	0x3c236dc2	0.009974899
208	0xbeac0226	-0.3359539
209	0x3ea997ef	0.3312373
210	0xbb37f27f	-0.0028068123
211	0x3c6812cc	0.014164638
212	0x3e229973	0.15878849
213	0x3bcf93e4	0.0063347686
214	0xbe8bc1ab	-0.27296194
215	0xbd8c2bec	-0.06844315
216	0x3f06024e	0.52347267
217	0xbdbea9b9	-0.09309716
218	0x3eb0126e	0.3438906
219	0xbe8233ad	-0.2543005
220	0xbd72241b	-0.059116464
221	0x3aa23fbd	0.0012378615
222	0xbdf0753b	-0.1174111
223	0x3e8eb562	0.2787276
224	0x3e54e8a4	0.2079187
225	0x3f094eae	0.5363568
226	0xbe81aa75	-0.2532536
227	0x3d4afe72	0.049559064
228	0x3e603f7f	0.21899222
229	0xbec88558	-0.39164233
230	0x3c8029c4	0.015644915
231	0x3e8c2980	0.27375412
232	0x3dc1a466	0.09455185
233	0xbe39ed9b	-0.18157046
234	0xbde5bb6f	-0.11217391
235	0xbe543354	-0.20722705
236	0x3deab71f	0.11460709
237	0xbe90fab3	-0.28316268
238	0x3e512569	0.20424427
239	0xbe602133	-0.21887664
240	0xbef2c7ed	-0.47418156
241	0xbf1bc477	-0.60846657
242	0xbe285838	-0.16439903
243	0xbe85ea2c	-0.2615522
244	0x3edd0795	0.43169847
245	0xbdbc69c4	-0.09199861
246	0x3d1812fa	0.037127472
247	0xbef75c74	-0.48312724
248	0xbe6911b8	-0.22760665
249	0xbf7924c5	-0.9732173
250	0x3e6913b6	0.22761425
251	0xbe226fc4	-0.15862948
252	0x3c293a8c	0.0103289
253	0x3e43e26e	0.19129345
254	0xbdcc9674	-0.09989634
255	0xbe5d447b	-0.21608154

transformer.layers.0.0.branch.to_out.weight f4 [8, 64]
0	0xbc016e25	-0.007899796
1	0xbd9e0f89	-0.07717807
2	0xbc933521	-0.01796967
3	0x3e0f4fa4	0.13995224
4	0xbd8bf6e2	-0.068341985
5	0xbdbea892	-0.09309496
6	0x3c971608	0.018443123
7	0xbb83ecc8	-0.0040260293
8	0x3df1f10d	0.11813555
9	0x3d1dbf4c	0.038512513
10	0xbc963d06	-0.018339645
11	0xbd9efa7b	-0.07762619
12	0xbc5a7d2f	-0.01333551
13	0xbc802e11	-0.015646966
14	0xbbf90411	-0.0075993617
15	0x3d4139d3	0.047174286
16	0x3d3617d5	0.04445632
17	0x3df129d6	0.11775558
18	0x3e1a36fa	0.15060034
19	0xbde30f14	-0.1108686
20	0xbd1a16f3	-0.037619542
21	0xbe16e5f4	-0.14736158
22	0xbcaa11b7	-0.0207604
23	0xbd6641d8	-0.056215137
24	0x3e1543eb	0.1457669
25	0x3cd42613	0.025897061
26	0x3ce16154	0.02751223
27	0xbd8adc0b	-0.06780251
28	0x3e031b3b	0.12803356
29	0x3d3a90f1	0.045548383
30	0x3c971ac0	0.018445373
31	0xbd425f8c	-0.0474544
32	0x3cd9d89c	0.026592545
33	0xbdffdfb1	-0.124938376
34	0x3dfc88cd	0.1233078
35	0x3d8ce8ff	0.06880378
36	0xbcf92399	-0.030412482
37	0x3de7eee0	0.11324859
38	0x3caf5161	0.02140111
39	0x3d598800	0.053108215
40	0x3cb0962f	0.021555988
41	0x3da332dc	0.07968685
42	0xbdbdb8e5	-0.092637815
43	0xbcc5cecd	-0.024146462
44	0x3e1efa53	0.15525179
45	0x3da740a5	0.08166627
46	0xbe176c3d	-0.14787383
47	0xbd88a702	-0.06672479
48	0x3df02da9	0.11727459
49	0x3af8f3e6	0.0018993586
50	0x3cc45366	0.023965549
51	0x3cccbb64	0.024991699
52	0x3e60932a	0.21931139
53	0xbd0b00f7	-0.033936467
54	0x3ca3a959	0.019978212
55	0xbd33c45f	-0.043888446
56	0xbe2d986c	-0.16952676
57	0xbdee3e71	-0.116330035
58	0x3d8741a1	0.066043146
59	0xbd437f5f	-0.047728892
60	0xbd53e997	-0.05173644
61	0x3ca70523	0.020388192
62	0xbd99154a	-0.07474764
63	0xbdc6e000	-0.09710693
64	0x3d1217e2	0.035667308
65	0xbdb33f70	-0.08752334
66	0xbc404ed5	-0.011737545
67	0x3b659e4a	0.0035036975
68	0xbcd0db2d	-0.025495136
69	0x3dacd0b8	0.084382474
70	0xbdfb7d2d	-0.12279735
71	0x3d8aba37	0.06773799
72	0xbd471958	-0.048608154
73	0x3cb8b90d	0.022549177
74	0xbdb80313	-0.08984961
75	0x3d70ae7f	0.058760162
76	0xbb451b3a	-0.0030076043
77	0xbcef0106	-0.029175293
78	0xbd96c4dc	-0.07361767
79	0xbc9692b6	-0.018380504
80	0x3d7c42fe	0.061587326
81	0x3cf84a6b	0.030308923
82	0x3dba68b6	0.09102003
83	0x3d9f1891	0.077683575
84	0x3e11d6e1	0.14242126
85	0xbdc6fa9b	-0.09715768
86	0xbd18c7e5	-0.03730001
87	0xbc68e566	-0.014214849
88	0x3d448a8a	0.047983684
89	0xbd7f62d4	-0.06235011
90	0x3df1a88e	0.117997274
91	0xbcb0cb78	-0.021581396
92	0xbd968efb	-0.0735149
93	0xbda074db	-0.078347884
94	0xbd49264d	-0.049108792
95	0x3ce67e24	0.02813632
96	0x3dbfbd3d	0.09362266
97	0x3ab1e8dc	0.0013573426
98	0x3d82e44c	0.063912004
99	0x3d0c2f4f	0.034224804
100	0x3cc6c554	0.024264015
101	0xbd509d22	-0.050931104
102	0x3cb9014a	0.022583622
103	0x3d748988	0.059701473
104	0x3d1d924f	0.03846961
105	0xbd61a71d	-0.055091012
106	0xbcdb2de1	-0.026755275
107	0x3ded6fc6	0.11593585
108	0x3d2c86af	0.04212063
109	0x3df3ceaf	0.11904656
110	0xbb594692	-0.0033153635
111	0x3d13ebf9	0.036113713
112	0x3ad28363	0.0016060885
113	0x3d74c593	0.059758734
114	0x3c2b54fa	0.010457272
115	0x3d9a99c7	0.07548862
116	0x3d9f42ec	0.07776436
117	0xbcad2b66	-0.021138858
118	0xbda6997a	-0.08134742
119	0xbc37a711	-0.011209265
120	0x3c3bff12	0.011474388
121	0x3c488ca8	0.012240566
122	0xbd6a1b10	-0.057154715
123	0xbd909485	-0.07059578
124	0xbd8f2c37	-0.06990855
125	0xbdd26185	-0.102725066
126	0xbab8c377	-0.0014096339
127	0x3d8d275b	0.06892272
128	0x3cdbb7c5	0.026821027
129	0xbd491d40	-0.04910016
130	0xbc954abf	-0.018224118
131	0xbe01c669	-0.12673344
132	0x3e129275	0.14313681
133	0x3daf3ac6	0.08556132
134	0x3e4f2cda	0.20231953
135	0x3cd5650f	0.026049165
136	0xbcf197ef	-0.029491393
137	0xbc574f83	-0.013141516
138	0x3bb2f5e4	0.0054614414
139	0x3d8e46d6	0.06947105
140	0x3dd28dc2	0.102809444
141	0xbd8f8f30	-0.07009733
142	0xbaedb2c6	-0.0018134944
143	0x3de6a30b	0.11261567
144	0xbe27189c	-0.16317981
145	0xbc99d88a	-0.018780012
146	0xbe3bf9fe	-0.18357083
147	0x3dd5c794	0.10438457
148	0x3dfa95e1	0.122356184
149	0x3dcb3125	0.09921483
150	0xbcbf06e6	-0.02331872
151	0xbe25898f	-0.16165756
152	0x3cbf87ce	0.023380186
153	0xbc052515	-0.008126517
154	0x3d764cda	0.060131885
155	0xbd740714	-0.059577063
156	0xbd7a84f1	-0.06116194
157	0xbc92220a	-0.017838497
158	0xba85fb9a	-0.0010222078
159	0xbd7d02af	-0.061770137
160	0x3dce6512	0.100778714
161	0xbc5e5d2d	-0.0135720195
162	0x3d85fa1c	0.06541845
163	0x3c002d10	0.007823244
164	0x3df0cbec	0.11757645
165	0x3c4f4b80	0.012652278
166	0xbd877f8c	-0.066161245
167	0x3e0800e6	0.13281593
168	0x3de3bbc9	0.111198016
169	0x3db59139	0.0886559
170	0x3d8abfef	0.0677489
171	0xbd4ac105	-0.049500484
172	0xbe4c596e	-0.1995599
173	0x3d8a3b38	0.06749576
174	0xbce9e251	-0.028550299
175	0x3df99415	0.121864475
176	0xbdfa044b	-0.1220785
177	0xbd8fff44	-0.0703111
178	0xbd9912bd	-0.07474277
179	0x3e1daf50	0.15398908
180	0x3d84d8ee	0.064866886
181	0x3dded949	0.108812876
182	0xbe1bde47	-0.15221511
183	0x3d842cfe	0.06453894
184	0xbc03d8aa	-0.008047262
185	0xbd92335a	-0.07138701
186	0x3ddc871e	0.10767959
187	0x3ba01a7a	0.0048859688
188	0xbd8dce59	-0.06924123
189	0x3d7b599f	0.061364766
190	0x3da11379	0.07865042
191	0xbd061552	-0.032735176
192	0xbd869bbe	-0.06572674
193	0xbe0a80d4	-0.13525707
194	0xbde58ee2	-0.11208893
195	0x3e04bb76	0.12962136
196	0xbd9b8a32	-0.07594718
197	0xbdd3f822	-0.10350062
198	0xbc027f35	-0.007964899
199	0x3e11ddef	0.14244817
200	0xbe15e366	-0.14637527
201	0x3b523080	0.0032072365
202	0xbd88d8c6	-0.06681971
203	0xbc9ccafe	-0.019139763
204	0x3e065c05	0.1312104
205	0x3d3e5934	0.04647179
206	0x3c9f6bee	0.019460645
207	0x3e6660f3	0.2249792
208	0xbebc11d2	-0.36732346
209	0x3cde6a83	0.027150398
210	0x39cc9cd3	0.00039026755
211	0x3e4f04a5	0.20216615
212	0xbb74f6b8	-0.00373785
213	0xbd9b2ad9	-0.07576532
214	0xbd1f2834	-0.0388567
215	0xbd3ba248	-0.04580906
216	0xbe924037	-0.28564617
217	0xbd2dd114	-0.04243572
218	0x3e4366a8	0.19082129
219	0xbdd25db2	-0.10271777
220	0x3dae9001	0.0852356
221	0xbd61046a	-0.05493585
222	0x3c77aef7	0.015117398
223	0xbe1ee573	-0.15517215
224	0xbdba3c88	-0.09093577
225	0xbdd38697	-0.10328405
226	0xbd0d3d91	-0.034482542
227	0xbbaffc16	-0.005370627
228	0x3d816327	0.0631774
229	0x3d27c673	0.04096074
230	0xbe72a63c	-0.23696226
231	0x3dc80880	0.09767246
232	0x3dd071cd	0.10177956
233	0xbd030a01	-0.031991962
234	0x3d2a48e0	0.041573405
235	0x3da84fa3	0.082183145
236	0xbc95a679	-0.018267857
237	0x3e00fd19	0.12596549
238	0xbe20ee10	-0.15715814
239	0xbca564a4	-0.02018959
240	0xbe5282b1	-0.20557667
241	0xbd3dbfcd	-0.046325494
242	0xbd204708	-0.03913024
243	0x3d24b81f	0.040214654
244	0xbd86217f	-0.065493576
245	0x3c4561bf	0.01204723
246	0xbe8df16c	-0.27723253
247	0xbdfb3167	-0.12265282
248	0x3cde27cc	0.027118586
249	0xbd665c28	-0.05624023
250	0xbdfb5bc3	-0.122733615
251	0xbcd92c99	-0.026510524
252	0x3cca0870	0.024662226
253	0xbe08c5b7	-0.13356672
254	0x3d8405f9	0.06446452
255	0x3cfde0fe	0.030991074

transformer.layers.0.0.norm.gamma f4 [8]
0	0x3ea6c36a	0.32570964
1	0x3d9978fc	0.07493779
2	0x3e963108	0.29334283
3	0x3ea628d5	0.32453027
4	0x3e35ca9f	0.17753075
5	0x3f09f0e6	0.53883207
6	0x3f102381	0.56304175
7	0x3dfbf360	0.123022795

transformer.layers.0.1.static_alpha f4 [4, 5]
0	0xbe652def	-0.22380804
1	0x3f800000	1.0
2	0x00000000	0.0
3	0x00000000	0.0
4	0x00000000	0.0
5	0xbabf4e11	-0.0014595409
6	0x00000000	0.0
7	0x3f800000	1.0
8	0x00000000	0.0
9	0x00000000	0.0
10	0x3dccd1d2	0.100009575
11	0x00000000	0.0
12	0x00000000	0.0
13	0x3f800000	1.0
14	0x00000000	0.0
15	0x3f3c7c69	0.73627335
16	0x00000000	0.0
17	0x00000000	0.0
18	0x00000000	0.0
19	0x3f800000	1.0

transformer.layers.0.1.dynamic_alpha_fn f4 [8, 5]
0	0xbe163c28	-0.14671385
1	0x00000000	0.0
2	0x00000000	0.0
3	0x00000000	0.0
4	0x00000000	0.0
5	0xbe10929d	-0.14118429
6	0x00000000	0.0
7	0x00000000	0.0
8	0x00000000	0.0
9	0x00000000	0.0
10	0xbe564c5c	-0.20927566
11	0x00000000	0.0
12	0x00000000	0.0
13	0x00000000	0.0
14	0x00000000	0.0
15	0xbdfc0ae4	-0.12306765
16	0x00000000	0.0
17	0x00000000	0.0
18	0x00000000	0.0
19	0x00000000	0.0
20	0x3e877316	0.2645499
21	0x00000000	0.0
22	0x00000000	0.0
23	0x00000000	0.0
24	0x00000000	0.0
25	0x3e81d897	0.25360557
26	0x00000000	0.0
27	0x00000000	0.0
28	0x00000000	0.0
29	0x00000000	0.0
30	0xbcba434d	-0.02273717
31	0x00000000	0.0
32	0x00000000	0.0
33	0x00000000	0.0
34	0x00000000	0.0
35	0xbd816639	-0.063183255
36	0x00000000	0.0
37	0x00000000	0.0
38	0x00000000	0.0
39	0x00000000	0.0

transformer.layers.0.1.static_beta f4 [4]
0	0x3f8f2290	1.1182423
1	0x3f7d3d55	0.9892171
2	0x3f63bf7e	0.8896407
3	0x3f645190	0.89186954

transformer.layers.0.1.dynamic_beta_fn f4 [8]
0	0xbe22cb88	-0.15897954
1	0xbee801b7	-0.45313808
2	0xbe8ef17e	-0.2791862
3	0xbe4bc384	-0.19898802
4	0x3d2ec332	0.04266662
5	0x3eecb1cb	0.46229395
6	0x3e7fd763	0.24984507
7	0xbed3246d	-0.41238728

transformer.layers.0.1.branch.0.weight f4 [8]
0	0x3f8203d1	1.0157415
1	0x3fa1fcd5	1.2655283
2	0x3f8377ca	1.0270932
3	0x3f8f3c7f	1.1190337
4	0x3f7ae135	0.9799989
5	0x3f8e5dda	1.1122391
6	0x3f857722	1.0426981
7	0x3f7af3fb	0.98028535

transformer.layers.0.1.branch.0.bias f4 [8]
0	0x3d20268b	0.039099257
1	0xbc207267	-0.009792901
2	0x3dcbae3b	0.09945341
3	0xbdadd41d	-0.08487723
4	0xbdbdb829	-0.092636414
5	0x3de6e16c	0.112734646
6	0x3db31cf2	0.08745755
7	0xbdb01bb8	-0.08599037

transformer.layers.0.1.branch.1.weight f4 [64, 8]
0	0x3d27dc2f	0.040981468
1	0x3d892f76	0.066985056
2	0x3e5bd18d	0.21466656
3	0xbe7c6a2b	-0.24649875
4	0x3e2d0bf9	0.16899098
5	0xb8cc0e67	-9.730161e-05
6	0x3ebaa91c	0.36457145
7	0x3dbb00fd	0.09131048
8	0xbe773e3a	-0.24144831
9	0x3ef14e35	0.4712998
10	0xbe586df6	-0.21135697
11	0xbe142b6b	-0.14469688
12	0x3eada2bd	0.33913222
13	0xbead9e5e	-0.33909887
14	0xbeb8f28e	-0.36122555
15	0x3b8a64e7	0.0042234543
16	0xbe0d8e0d	-0.1382372
17	0x3cbfbc1c	0.023405127
18	0x3e5851dc	0.21124977
19	0x3c2a341b	0.0103883995
20	0xbba9580a	-0.005167966
21	0xbe8b2345	-0.27175346
22	0xbe9e9b1b	-0.3097771
23	0x3de621f7	0.11236947
24	0xbed23a30	-0.4106002
25	0x3e652706	0.22378168
26	0xbd3d7c70	-0.04626125
27	0x3ef3196e	0.4748034
28	0x3e0bc15a	0.13647977
29	0x3ead69bf	0.3386974
30	0xbe0b1494	-0.13582069
31	0x3e17d271	0.14826371
32	0xbe9117a5	-0.28338352
33	0x3e357a03	0.17722325
34	0xbe99ec75	-0.30063215
35	0x3e437c61	0.19090416
36	0x3c37a9c2	0.011209907
37	0xbefc20fb	-0.49243912
38	0xbe454ee4	-0.19268376
39	0x3ef5a160	0.47974682
40	0xbef99643	-0.48747453
41	0x3f11324a	0.5671736
42	0x3cf66d29	0.030081348
43	0x3e2ec240	0.17066288
44	0xbc1f684f	-0.009729459
45	0xbe4c00a8	-0.19922125
46	0xbc26fc72	-0.010192024
47	0xbdd643d8	-0.10462159
48	0xbe388319	-0.1801876
49	0xbf2ee8b1	-0.6832381
50	0xbd0cd279	-0.03438041
51	0xbd527899	-0.051384542
52	0x3e04c852	0.12967041
53	0xbe01cc1e	-0.12675521
54	0x3dce6095	0.10077015
55	0xbe633711	-0.22188975
56	0x3e7a6064	0.24450833
57	0x3d25ecd0	0.040509045
58	0xbd9f3fc2	-0.07775833
59	0xbe10e58e	-0.14150068
60	0xbd95fe4d	-0.07323895
61	0x3e8d932d	0.2765135
62	0x3e5273c9	0.20551981
63	0xbe633c43	-0.22190957
64	0x3ea0e9d0	0.31428385
65	0x3d37b7b0	0.044852912
66	0x3ecdf075	0.40222517
67	0xbed3b799	-0.4135101
68	0xbdc09201	-0.09402848
69	0x3ddfebed	0.10933671
70	0x3e044401	0.12916566
71	0xbda0bfd7	-0.078490905
72	0xbe63a038	-0.22229087
73	0x3f2246c0	0.63389206
74	0xbd18690f	-0.037209567
75	0x3efd790c	0.49506414
76	0x3e8c82ec	0.27443635
77	0xbd097580	-0.033559322
78	0xbebd7a75	-0.3700749
79	0x3dcd5b25	0.1002715
80	0xbe24987d	-0.16073795
81	0xbda28319	-0.07935161
82	0x3eaa7ae2	0.33296877
83	0x3d16d4fb	0.036824208
84	0xbec98db8	-0.39365935
85	0x3ea00376	0.3125264
86	0x3e8a0249	0.26954868
87	0x3e34ad7f	0.17644309
88	0x3e1aadd3	0.15105371
89	0x3ee7b2a8	0.4525349
90	0xbe14db2b	-0.14536731
91	0x3ee8d1ac	0.45472467
92	0x3ea7b2ab	0.327535
93	0xbef162c9	-0.4714568
94	0x3e9a1bb8	0.30099273
95	0xbe09d4ce	-0.13460085
96	0x3e301a0a	0.17197433
97	0xbec686b9	-0.3877466
98	0x3d8a9c8b	0.067681395
99	0xbe98fb2c	-0.2987913
100	0xbe8a8b4b	-0.27059397
101	0x3edc1e51	0.4299188
102	0xbc64dbb4	-0.013968397
103	0x3e330f46	0.17486295
104	0xbe47a2ac	-0.19495648
105	0xbef54e9e	-0.47911543
106	0xbe70c06f	-0.23510908
107	0xbeab2206	-0.33424395
108	0x3db56bce	0.08858453
109	0x3dae314f	0.085054986
110	0xbe4d591c	-0.20053524
111	0x3c1bb6ab	0.009504001
112	0x3d1ff42f	0.03905123
113	0x3f15c0b9	0.58497196
114	0xbdc83312	-0.09775366
115	0xbe34eda8	-0.17668784
116	0xbe99e666	-0.30058593
117	0xbdc99729	-0.09843285
118	0xbe92a9d1	-0.28645185
119	0x3e105573	0.14095096
120	0x3d2a21f4	0.041536286
121	0xbe61ae27	-0.2203909
122	0xbe7aea93	-0.24503545
123	0xbec4cb16	-0.38436192
124	0xbee206e9	-0.44145897
125	0x3e9030f7	0.28162357
126	0x3eb06119	0.3444908
127	0xbe4e7d6e	-0.20165035
128	0xbe1a8ced	-0.15092821
129	0xbd8c967c	-0.0686464
130	0xbeeb1728	-0.45916104
131	0x3e807b3d	0.25094023
132	0xbe3f3610	-0.18672967
133	0xbf087dcb	-0.53316945
134	0x3dae79d5	0.08519331
135	0xbd33e3f7	-0.043918576
136	0x3e2f7fa5	0.17138536
137	0xbe1a8a1e	-0.1509175
138	0x3e8eb1ba	0.2786997
139	0xbedf141c	-0.4357003
140	0x3d0e8fd6	0.03480514
141	0x3e3dc478	0.18531978
142	0x3ef04901	0.46930698
143	0xbd9c284b	-0.07624873
144	0x3ee9240b	0.4553531
145	0xbe5ae647	-0.21376906
146	0x3f0f8f38	0.5607791
147	0xbea4045c	-0.32034576
148	0xbc832427	-0.01600845
149	0x3e9d7bee	0.30758613
150	0x3ec26ca3	0.37973508
151	0xbda5d251	-0.08096755
152	0xbdc95dfb	-0.098323785
153	0xbf30dc3f	-0.6908607
154	0x3e5c566e	0.21517345
155	0xbe3c134f	-0.1836674
156	0x3e327ac0	0.17429638
157	0x3e8b9d08	0.27268243
158	0x3e2efb8f	0.1708815
159	0xbe975aec	-0.29561555
160	0x3c578c0f	0.013155951
161	0xbf104e6d	-0.5636967
162	0x3e6d96ae	0.23202011
163	0xbcc0d64d	-0.023539687
164	0xbd81da2b	-0.0634044
165	0xbc885b07	-0.016644968
166	0xbdbefe4b	-0.09325846
167	0xbe93594f	-0.28779075
168	0x3e8e272c	0.2776426
169	0xbe568bd1	-0.20951773
170	0x3e9dd46e	0.30826133
171	0x3d00dce7	0.03146067
172	0x3d6ecc77	0.05830046
173	0x3ec3e984	0.38264096
174	0xbe286581	-0.1644497
175	0x3d54c232	0.05194301
176	0xbd859bb4	-0.06523839
177	0xbeefbfc9	-0.46826008
178	0x3ce2f7e0	0.027706087
179	0xbea9b213	-0.33143672
180	0x3e84c4c7	0.2593138
181	0x3e5c703a	0.21527186
182	0x3d635b3a	0.055506922
183	0xbefc4470	-0.49270964
184	0x3d85cd98	0.065333545
185	0xbf0492a0	-0.5178623
186	0x3e2074c6	0.15669546
187	0xbe2ec18e	-0.17066023
188	0xbd6eacb3	-0.058270168
189	0x3e932d66	0.28745574
190	0x3f038d15	0.5138715
191	0x3e9c59f2	0.30537373
192	0x3d9e8c92	0.077416554
193	0x3e8182bf	0.25295064
194	0x3e9a171e	0.30095762
195	0xbc56b247	-0.013104028
196	0xbaaa3ccd	-0.0012988091
197	0xbe8b2dc9	-0.2718337
198	0x3d342a90	0.043985903
199	0x3d46e3e5	0.04855718
200	0x3e7be196	0.24597773
201	0xbdb9d9cc	-0.090747446
202	0x3c7178e9	0.0147383
203	0xbee1015e	-0.43946356
204	0x3d8f591e	0.0699942
205	0xbf05dd6e	-0.52291
206	0x3f076ebf	0.5290336
207	0x3eeedb57	0.46651718
208	0xbe9ec218	-0.31007457
209	0x3ebf30d7	0.3734195
210	0xbe4876fa	-0.19576636
211	0x3ebf23ce	0.37332004
212	0x3d6c3796	0.0576702
213	0xbf0b0bd8	-0.5431495
214	0xbeb4c4ec	-0.3530649
215	0xbe240f2f	-0.16021417
216	0x3da38068	0.07983476
217	0x3e1bc249	0.15210833
218	0xbe086a1c	-0.13321728
219	0xbddb2ba8	-0.10701686
220	0x3eab40ba	0.3344782
221	0x3ca92b74	0.020650603
222	0x3e05b758	0.13058221
223	0xbe46a8f0	-0.19400382
224	0xbcea25ad	-0.028582418
225	0xbeb3922d	-0.3507246
226	0xbc1ae289	-0.009453424
227	0xbf258457	-0.6465506
228	0xbec315a1	-0.3810244
229	0x3eb6293a	0.35578328
230	0x3d423b81	0.04742003
231	0xbe5db5bd	-0.21651359
232	0xbe637715	-0.22213395
233	0x3de1a5dc	0.11017963
234	0x3e4df710	0.20113778
235	0xbee607de	-0.44927877
236	0x3e245833	0.1604927
237	0xbe869a07	-0.2628939
238	0xbdd3c0b0	-0.103394866
239	0x3e8c142f	0.2735915
240	0x3da785e2	0.08179833
241	0x3e861c2f	0.26193377
242	0xbed6d1bc	-0.4195689
243	0x3e3c9d5f	0.18419407
244	0x3edafcbc	0.42770946
245	0xbeecd8c0	-0.46259117
246	0xbcb3e06f	-0.021957604
247	0x3d0d8c13	0.034557413
248	0x3e29fbb6	0.16599926
249	0xbe92ba28	-0.2865765
250	0xbdcc8b42	-0.09987499
251	0xbdbe908f	-0.09304916
252	0xbe8716a6	-0.26384467
253	0x3e955b06	0.29171008
254	0x3e982407	0.29714987
255	0xbe95fc17	-0.29293892

transformer.layers.0.1.branch.1.bias f4 [64]
0	0xbe2e462f	-0.1701896
1	0xbe906893	-0.28204784
2	0xbed40a1a	-0.41413957
3	0x3c916ed9	0.017753052
4	0xbd0b15d3	-0.03395636
5	0xbedab4fc	-0.42716205
6	0x3e04fa5f	0.12986134
7	0x3ea49701	0.32146457
8	0x3e373f46	0.1789523
9	0x3e4e949b	0.20173876
10	0x3e3f7df4	0.18700391
11	0xbedf7eeb	-0.43651518
12	0x3e19767b	0.14986603
13	0x3ea1a5dd	0.31571856
14	0x3e1a53f9	0.15071096
15	0xbe4337dc	-0.19064277
16	0xbe7ba442	-0.24574378
17	0xbe1fd02b	-0.15606754
18	0x3e84b4f7	0.25919315
19	0x3e8dc125	0.2768642
20	0x3d82a71c	0.0637953
21	0x3ebd52c7	0.36977217
22	0xbcddde94	-0.027083673
23	0xbc876208	-0.016526237
24	0xbe17f4e5	-0.14839514
25	0xbdb7f740	-0.08982706
26	0x3dfa2cbe	0.12215565
27	0xbb5713ee	-0.0032818276
28	0xbea032d5	-0.31288782
29	0xbe9db39f	-0.30801103
30	0xbee60067	-0.44922182
31	0x3c0096c1	0.0078484425
32	0x3e6777b1	0.22604252
33	0x3dd7cddc	0.105373114
34	0x3ebce4a2	0.36893183
35	0xbe4bc396	-0.19898829
36	0xbdfc7dc1	-0.12328673
37	0xbdb25ba8	-0.08708888
38	0xbdd98e6f	-0.1062287
39	0x3df089a6	0.11745004
40	0xbe4e1937	-0.20126806
41	0x3e82d9f2	0.25556904
42	0xbed4a412	-0.41531426
43	0x3e01a483	0.12660412
44	0x3e715f39	0.23571481
45	0xbe21fc6b	-0.15818946
46	0x3e360647	0.17775832
47	0x3e4084f1	0.18800713
48	0xbd56e18f	-0.052461203
49	0x3ec1c6fa	0.3784712
50	0x3e41ebda	0.18937626
51	0xbce8fd15	-0.028440991
52	0x3d229df3	0.039701413
53	0x3e6e63b1	0.23280217
54	0x3e5180c1	0.20459272
55	0x3e3aeecd	0.18255158
56	0xbd162850	-0.03665954
57	0xbe24e99f	-0.16104744
58	0xbe7a31de	-0.24433085
59	0xbdf6ac32	-0.120445624
60	0xbd333b95	-0.043757994
61	0x3e2a8b07	0.16654597
62	0xbc88c858	-0.016697094
63	0x3ea86f0d	0.32897225

transformer.layers.0.1.branch.4.weight f4 [8, 32]
0	0xbd4965b8	-0.049169272
1	0x3dc7ef25	0.0976241
2	0xbcb5307f	-0.022117851
3	0xbb54a6f5	-0.0032448147
4	0xbe0f404a	-0.13989368
5	0x3d783482	0.06059695
6	0x3db04cfe	0.08608435
7	0x3e8fb3ea	0.2806695
8	0x3e551faf	0.20812868
9	0x3dd971f9	0.10617442
10	0x3e9f327d	0.31093207
11	0xbe4f9bfc	-0.20274347
12	0xbe4e4177	-0.2014216
13	0xbe4571a5	-0.19281633
14	0xbdccce05	-0.100002326
15	0x3e245ab9	0.16050233
16	0x3ca5b94c	0.020229958
17	0xbe255c27	-0.16148435
18	0x3e9d1737	0.30681774
19	0x3b708ade	0.0036703865
20	0xbdf840ef	-0.1212176
21	0xbe51cf75	-0.20489295
22	0xbda889b6	-0.08229391
23	0xbc6e23e2	-0.014534922
24	0x3d9d3a6a	0.07677157
25	0xbe16bbcc	-0.14720076
26	0xbecf8641	-0.40532115
27	0x3c3b72d4	0.011440951
28	0x3d6902b7	0.056887355
29	0xbdc352b4	-0.09537259
30	0xbeb52630	-0.35380697
31	0x3d10e056	0.035370193
32	0xbc9f7012	-0.019462619
33	0x3de15ac9	0.11003644
34	0xbd8d3121	-0.06894136
35	0x3e5aa3a2	0.21351483
36	0x3e4bed9c	0.1991486
37	0x3db69dcc	0.08916816
38	0xbc7c839e	-0.015412239
39	0x3d3d37bc	0.04619573
40	0xbc11718b	-0.008877168
41	0xbe1624f8	-0.1466254
42	0xbe3ee3c0	-0.18641567
43	0x3cb561df	0.022141395
44	0xbd6e8679	-0.058233712
45	0xbcbeeee5	-0.023307273
46	0x3e202dbd	0.15642448
47	0x3eacc161	0.33741286
48	0xbea75e5d	-0.3268918
49	0x3ea02bef	0.3128352
50	0xbdd12b34	-0.102133185
51	0xbd70ffa9	-0.058837567
52	0xbe0b77d5	-0.13619931
53	0xbd8380e2	-0.06421067
54	0x3e2d0412	0.16896084
55	0x3df93684	0.12168601
56	0x3dc6c904	0.097063094
57	0x3c22077f	0.0098894825
58	0x3beeeb59	0.007291239
59	0xbd749260	-0.059709907
60	0xbe2d8805	-0.16946419
61	0xbde8ee3f	-0.11373567
62	0x3ecb50e3	0.3971015
63	0x3d33c051	0.04388458
64	0xbe2e32d6	-0.1701158
65	0x3dfa527b	0.12222763
66	0xbc4c19f5	-0.0124573605
67	0xbdf5f19b	-0.12008973
68	0xbe7ea881	-0.24868967
69	0xbe73c68e	-0.23806211
70	0x3e1e7043	0.15472512
71	0x3e457ac2	0.1928511
72	0x3e94458f	0.2895932
73	0x3e682f3f	0.22674273
74	0xbca31bd2	-0.019910727
75	0xbeabfd1b	-0.33591542
76	0xbe233de6	-0.15941581
77	0xb96ebdab	-0.00022768106
78	0xbc458d67	-0.012057639
79	0xbcddabf2	-0.027059529
80	0x3e6896e4	0.2271381
81	0xbe3338b8	-0.17502105
82	0x3e7255e1	0.23665573
83	0xbe8b2490	-0.27176332
84	0x3e210ade	0.15726802
85	0x3cbf09ad	0.023320043
86	0xbe30bdef	-0.17259954
87	0xbe9e5f74	-0.309322
88	0xbcea4f58	-0.028602287
89	0xbebaea68	-0.36506963
90	0xbe2e0257	-0.1699308
91	0x3bda5efb	0.0066641546
92	0x3e94cf85	0.29064575
93	0xbd042d6d	-0.032269884
94	0xbe859f44	-0.26098073
95	0xbd385349	-0.045001302
96	0x3da54ef4	0.080717
97	0xbd8a862f	-0.06763875
98	0xbdfd9743	-0.123823665
99	0xbd62c2b1	-0.055361453
100	0xbe2960a2	-0.16540769
101	0xbe417938	-0.18893898
102	0x3dfebc77	0.124382906
103	0x3dcb6afd	0.09932516
104	0x3c0f7b46	0.008757418
105	0xbde205d0	-0.11036265
106	0xbdcf1842	-0.10112049
107	0x3d97e458	0.074166
108	0x3e1975aa	0.14986292
109	0xbc9aa402	-0.018877033
110	0x3d58f933	0.05297203
111	0x3ca02fa8	0.019553974
112	0xbbd647f6	-0.00653934
113	0x3c994d30	0.018713564
114	0xbd95f777	-0.07322591
115	0x3e5ea4cd	0.21742554
116	0xbca8dce2	-0.020613138
117	0xbc7767cf	-0.0151004335
118	0xbe323980	-0.17404747
119	0x3dcb514b	0.09927615
120	0xbbcda2e3	-0.006275521
121	0x3e21f1a5	0.15814836
122	0x3d8f9afe	0.07011984
123	0x3dae12d0	0.08499682
124	0xbe18c9f1	-0.14920785
125	0x3d9f736e	0.07785688
126	0xbddd953c	-0.1081948
127	0x3db1fa3c	0.086903065
128	0x3dc22a2b	0.09480699
129	0x3d85f46a	0.06540759
130	0xbda70287	-0.08154779
131	0x3df28601	0.118419655
132	0xbe1999b9	-0.15000047
133	0x3db7c0f1	0.089723475
134	0xbd05ee2d	-0.032697845
135	0xbe59b994	-0.21262199
136	0xbe96c580	-0.29447556
137	0xbbbf60d5	-0.0058404007
138	0xbe74804d	-0.23877068
139	0x3e6f436b	0.23365562
140	0x3e29bd3e	0.16576096
141	0x3d494c53	0.049145054
142	0x3e4d1418	0.20027196
143	0x3d47f9fa	0.04882238
144	0xbe00fdaa	-0.12596765
145	0xbe338470	-0.1753099
146	0xbe67e5ba	-0.22646227
147	0x3e370362	0.17872384
148	0x3d27be5c	0.040953025
149	0x3e5b5626	0.21419582
150	0xbd846733	-0.06464996
151	0xbe09b1ed	-0.1344678
152	0xbd1b3e25	-0.037901063
153	0xbde30bdf	-0.110862486
154	0x3e456b93	0.19279318
155	0xbdea72fe	-0.11447714
156	0xbdb59051	-0.08865417
157	0x3d4723be	0.04861807
158	0x3db05bc7	0.08611255
159	0xbda8c28e	-0.08240233
160	0xbdb9f370	-0.09079635
161	0xbe8b9c05	-0.2726747
162	0xbe7a6b90	-0.24455094
163	0xbe35f123	-0.17767768
164	0x3d12e30a	0.035861053
165	0xbdc696ea	-0.09696753
166	0x3e770e8f	0.24126647
167	0xbe0fe1b1	-0.14050938
168	0xbe0602c8	-0.13086998
169	0x3e0c480c	0.13699359
170	0xbe2b7753	-0.16744737
171	0xbba1eac8	-0.004941318
172	0xbcd740e1	-0.026276054
173	0xbbee7600	-0.0072772503
174	0xbe855ccd	-0.26047364
175	0x38df5c10	0.000106506166
176	0xbc22684b	-0.009912561
177	0xbe2baef6	-0.16765961
178	0xbe1c8801	-0.15286256
179	0xbdd59ce3	-0.104303144
180	0x3eb1a3d5	0.34695306
181	0x3e109223	0.14118247
182	0x3cdc27b3	0.026874399
183	0xbe1bf669	-0.15230717
184	0xbc94b3d1	-0.01815215
185	0xbea92758	-0.3303783
186	0x3e7625a9	0.24037804
187	0x3e356b08	0.1771661
188	0xbd81dfda	-0.063415244
189	0x3e8c1268	0.27357793
190	0xbd88297b	-0.06648537
191	0x3dcd2c72	0.10018243
192	0xbe64a33d	-0.22327895
193	0x3e889f58	0.2668407
194	0x3e7ddb35	0.24790652
195	0xbe219280	-0.15778542
196	0xbdba472c	-0.09095606
197	0xbeb73333	-0.3578125
198	0x3dfe4112	0.12414755
199	0x3df98aee	0.12184702
200	0x3de1f4b2	0.11033
201	0x3e0ec041	0.13940527
202	0x3e652941	0.22379018
203	0xbea2cb1e	-0.3179559
204	0xbe42f448	-0.19038498
205	0xbe87d024	-0.26525986
206	0x3d01b682	0.031668194
207	0xbead2afd	-0.3382186
208	0x3e37fd75	0.1796778
209	0xbe77e664	-0.24208981
210	0x3eb86ee4	0.36022103
211	0xbea0f371	-0.3143573
212	0xbc80ab4e	-0.015706684
213	0xbaa9da9f	-0.0012958831
214	0xbe56e555	-0.2098592
215	0xbec1301b	-0.37732014
216	0x3dc21d4e	0.09478246
217	0xbc957af0	-0.018247098
218	0xbe387ea2	-0.18017057
219	0xbe174b41	-0.14774801
220	0x3e8e8c3d	0.27841368
221	0xbdbd01c0	-0.092288494
222	0xbeaa6d1e	-0.33286375
223	0xbe48491a	-0.19559136
224	0x3c0b15d2	0.008489089
225	0xbd77754c	-0.060414597
226	0xbe9993d9	-0.2999561
227	0x3ea0e6c7	0.3142607
228	0x3ea9826d	0.3310732
229	0x3e1bcdde	0.15215251
230	0xbb70f37b	-0.003676622
231	0xbe040393	-0.12891988
232	0x3c8d4f89	0.01724984
233	0xbe849b0e	-0.25899547
234	0x3d42473d	0.04743122
235	0x3e91bdf0	0.28465223
236	0x3e1fa9ec	0.15592164
237	0x3d1e87d0	0.03870374
238	0x3dc2e089	0.09515483
239	0x3e9ac936	0.30231637
240	0xbde39597	-0.111125164
241	0x3eaa16a3	0.33220395
242	0xbe8198bd	-0.25311843
243	0x3e62afcb	0.22137372
244	0xbc89f603	-0.01684094
245	0x3de38049	0.11108453
246	0x3dd4fe7f	0.10400104
247	0x3e8270fd	0.25476828
248	0xbe7988f0	-0.24368644
249	0x3ea1d38f	0.3160672
250	0x3d9a33a8	0.07529384
251	0x3dd0948e	0.101845846
252	0xbe9e846e	-0.3096041
253	0xbe26e67d	-0.16298862
254	0x3ebc262e	0.3674788
255	0x3e8b6e7f	0.2723274

transformer.layers.0.1.branch.4.bias f4 [8]
0	0xbd04d329	-0.03242794
1	0x3e06d756	0.13168082
2	0x3d926a87	0.07149225
3	0xbd9eba7f	-0.07750415
4	0x3cbfcf9a	0.023414422
5	0x3deed0b2	0.11660899
6	0x3d6d89dd	0.057992805
7	0x3e223e76	0.1584414

transformer.layers.0.1.norm.gamma f4 [8]
0	0x3e64d6bf	0.22347544
1	0x3e724a0e	0.23661062
2	0x3ea27254	0.3172785
3	0x3d1f67c2	0.03891731
4	0x3e8c6c2a	0.27426273
5	0x3e9b6874	0.3035313
6	0x3ddb75dc	0.10715839
7	0x3e5cd1e2	0.21564439

transformer.layers.1.0.static_alpha f4 [4, 5]
0	0x3d4760a5	0.04867615
1	0x3f800000	1.0
2	0x00000000	0.0
3	0x00000000	0.0
4	0x00000000	0.0
5	0xbde7e85f	-0.11323618
6	0x00000000	0.0
7	0x3f800000	1.0
8	0x00000000	0.0
9	0x00000000	0.0
10	0xbdb876d5	-0.090070404
11	0x00000000	0.0
12	0x00000000	0.0
13	0x3f800000	1.0
14	0x00000000	0.0
15	0x3f60a68f	0.8775415
16	0x00000000	0.0
17	0x00000000	0.0
18	0x00000000	0.0
19	0x3f800000	1.0

transformer.layers.1.0.dynamic_alpha_fn f4 [8, 5]
0	0x3dc0ed9d	0.09420321
1	0x00000000	0.0
2	0x00000000	0.0
3	0x00000000	0.0
4	0x00000000	0.0
5	0xbd3b18da	-0.045677997
6	0x00000000	0.0
7	0x00000000	0.0
8	0x00000000	0.0
9	0x00000000	0.0
10	0xbd862b7e	-0.06551264
11	0x00000000	0.0
12	0x00000000	0.0
13	0x00000000	0.0
14	0x00000000	0.0
15	0xbe885bf3	-0.26632652
16	0x00000000	0.0
17	0x00000000	0.0
18	0x00000000	0.0
19	0x00000000	0.0
20	0xbe0c558a	-0.13704506
21	0x00000000	0.0
22	0x00000000	0.0
23	0x00000000	0.0
24	0x00000000	0.0
25	0xbe19e119	-0.15027274
26	0x00000000	0.0
27	0x00000000	0.0
28	0x00000000	0.0
29	0x00000000	0.0
30	0xbdf22d00	-0.11824989
31	0x00000000	0.0
32	0x00000000	0.0
33	0x00000000	0.0
34	0x00000000	0.0
35	0xbd996798	-0.07490462
36	0x00000000	0.0
37	0x00000000	0.0
38	0x00000000	0.0
39	0x00000000	0.0

transformer.layers.1.0.static_beta f4 [4]
0	0x3f917893	1.1364921
1	0x3f875dd3	1.0575508
2	0x3f72d285	0.9485248
3	0x3f3c9d1c	0.7367723

transformer.layers.1.0.dynamic_beta_fn f4 [8]
0	0xbe312403	-0.17298894
1	0xbedc3dbe	-0.43015856
2	0xbe5f0895	-0.21780618
3	0xbea68f65	-0.32531276
4	0x3e1308ab	0.14358775
5	0x3eee8fc6	0.46594065
6	0x3eca5f88	0.3952601
7	0xbee72260	-0.45143414

transformer.layers.1.0.branch.norm.weight f4 [8]
0	0x3f94f4d4	1.1637216
1	0x3fa425ba	1.2824013
2	0x3f93c505	1.15445
3	0x3f8e42b2	1.1114104
4	0x3f94465d	1.1583973
5	0x3f985d28	1.1903429
6	0x3f860b9e	1.0472295
7	0x3f8c7e87	1.0976113

transformer.layers.1.0.branch.norm.bias f4 [8]
0	0x3dddeddc	0.10836384
1	0xbe019e20	-0.12657976
2	0x3dd4658e	0.103709325
3	0xbd6ddf26	-0.05807414
4	0x3d8ab15c	0.0677211
5	0x3dc7b204	0.09750751
6	0xbdac7d3b	-0.08422323
7	0xbdaada52	-0.083424225

transformer.layers.1.0.branch.to_qkv.weight f4 [192, 8]
0	0x3e9d77eb	0.30755553
1	0xbd96c872	-0.07362451
2	0xbd5c6e60	-0.0538162
3	0xbeeb8495	-0.4599959
4	0xbeabdc27	-0.335664
5	0xbf17b626	-0.5926231
6	0xbeb87be6	-0.36032027
7	0x3ed2e8b5	0.41193166
8	0xbe2e8fe2	-0.17047074
9	0x3d0aa946	0.033852838
10	0x3ec17a33	0.37788543
11	0xbe2fbe66	-0.17162475
12	0xbddc7a64	-0.10765532
13	0xbeedd001	-0.46447757
14	0x3e54f30b	0.20795839
15	0xbcfd2fd4	-0.030906595
16	0x3e7dd961	0.24789955
17	0xbed0b5ca	-0.40763694
18	0xbe3e4c47	-0.18583785
19	0xbec450f7	-0.3834302
20	0x3e05e6c9	0.13076319
21	0x3dcee3c2	0.10102035
22	0x3db8bbf2	0.09020223
23	0x3e470c1a	0.1943821
24	0x3e950592	0.29105812
25	0x3e61d656	0.22054419
26	0x3f28f651	0.6600085
27	0xbe304969	-0.17215504
28	0xbf2d5f9d	-0.6772402
29	0xbf1e3831	-0.6180449
30	0xbe178a55	-0.14798863
31	0x3d140b46	0.036143564
32	0xbd9b639d	-0.07587359
33	0xbda58b6c	-0.08083233
34	0xbe9cf7c6	-0.30657786
35	0x3d7292fc	0.059222206
36	0xbd2a774a	-0.04161767
37	0x3d3c696e	0.045998983
38	0xbd1e8af6	-0.038706742
39	0xbf187090	-0.59546757
40	0x3d40e4de	0.047093265
41	0x3be831aa	0.0070859985
42	0xbee74f1e	-0.4517755
43	0x3de2fe1d	0.110836245
44	0x3f07ce88	0.53049517
45	0x3efc8f5a	0.4932812
46	0x3a8d9af7	0.0010803629
47	0xbf0d343f	-0.55157846
48	0xbdae8454	-0.08521333
49	0xbe7ea5c0	-0.24867916
50	0xbe922308	-0.28542352
51	0xbe9566c3	-0.29179963
52	0x3eaff3a3	0.34365568
53	0x3ed4f838	0.41595626
54	0x3e25f00c	0.16204852
55	0xbe959de9	-0.29222038
56	0x3e8a78cf	0.27045295
57	0x3caf7706	0.02141906
58	0x3ea7ee39	0.32798937
59	0xbeb169e3	-0.34651098
60	0x3e86265f	0.2620115
61	0x3eb374bb	0.35049996
62	0x3e9fb473	0.3119236
63	0xbc6efb43	-0.014586273
64	0xbd6ce679	-0.057836983
65	0x3e0d7094	0.13812476
66	0x3d50adf4	0.050947145
67	0x3e92e566	0.28690642
68	0xbe83f115	-0.25769868
69	0xbea5961e	-0.32341093
70	0x3ea075f5	0.31339994
71	0x3bb4e3c3	0.0055203154
72	0x3eec666b	0.4617189
73	0xbee26f1c	-0.44225395
74	0x3e9fd896	0.3121993
75	0xbd9e1a77	-0.077198915
76	0xbc1fe4db	-0.009759153
77	0x3d79835e	0.060916297
78	0x3d89f947	0.06736999
79	0xbe54cb21	-0.20780613
80	0x3eeb81b2	0.45997387
81	0xbf131be8	-0.57464457
82	0xbc53d18f	-0.012928381
83	0x3d6180c2	0.055054434
84	0xbecf1966	-0.40449065
85	0xbe42c095	-0.19018777
86	0xbe313bc9	-0.17307962
87	0x3f2ee4dc	0.6831796
88	0xbe36cd08	-0.1785165
89	0x3e7babd7	0.2457727
90	0xbc943008	-0.01808931
91	0x3e96dadd	0.29463854
92	0x3ef31946	0.4748022
93	0x3e9efad0	0.3105073
94	0xbd2511d8	-0.04030022
95	0xbed3091b	-0.41217884
96	0xbe9f8e63	-0.3116332
97	0xbe645fbb	-0.22302143
98	0xbe092071	-0.13391282
99	0xbe63a3c6	-0.22230443
100	0x3cbc3716	0.022975486
101	0x3ecf30aa	0.40466815
102	0xbe3f4e40	-0.18682194
103	0xbe4112f2	-0.18854883
104	0x3e00e1be	0.12586114
105	0xbe5d049d	-0.21583791
106	0x3d7bba7b	0.06145714
107	0x3e10acb4	0.14128381
108	0x3d6e6a05	0.058206577
109	0x3c6ee3b5	0.014580657
110	0x3e288541	0.16457082
111	0x3e8284ce	0.25491947
112	0x3e0b2f35	0.13592227
113	0xbe86714a	-0.26258308
114	0x3eddd739	0.43328264
115	0x3dfe3c47	0.12413841
116	0xbdae0500	-0.084970474
117	0xbee3cc53	-0.44491825
118	0x3e75858b	0.23976724
119	0x3ea1827d	0.31544867
120	0xbeef170e	-0.46697277
121	0x3ddb90b2	0.10720958
122	0xbd9a2837	-0.075272016
123	0x3e410033	0.18847732
124	0xbe2cda8d	-0.16880246
125	0xbeb4c70e	-0.35308117
126	0x3d4247c0	0.047431707
127	0x3e66d803	0.2254334
128	0xbeb7d45e	-0.3590421
129	0x3eb0f11e	0.34558958
130	0xbea672b2	-0.3250938
131	0xbd8fce68	-0.07021791
132	0x3ea5ac92	0.32358223
133	0xbe33e3df	-0.17567395
134	0x3e7b598f	0.24545883
135	0x3d28aafb	0.041178685
136	0xbec8c3d2	-0.392119
137	0x3ea38310	0.3193593
138	0x3e85c6dc	0.2612828
139	0xbe3fab08	-0.18717587
140	0xbafac254	-0.0019131401
141	0xbed15c7d	-0.40890875
142	0x3e9cf25d	0.30653659
143	0x3e183511	0.14863993
144	0xbdb29173	-0.087191485
145	0xbe8be4a9	-0.2732289
146	0x3e91a572	0.28446537
147	0xbe8e1905	-0.27753463
148	0xbe91d6f2	-0.28484303
149	0x3d99e236	0.075138494
150	0x3e361ada	0.1778368
151	0x3e8ffcaa	0.28122455
152	0x3eddcbc7	0.43319532
153	0xbe166392	-0.1468642
154	0xbd2fe3cd	-0.042941857
155	0xbdf1ba4e	-0.11803113
156	0x3e089433	0.13337784
157	0xbdbe2108	-0.09283644
158	0x3e01bfa3	0.1267076
159	0xbe26c4d4	-0.16286021
160	0xbe512b72	-0.2042673
161	0xbd788304	-0.06067182
162	0x3d1bfb5c	0.03808151
163	0x3e7b36e4	0.24532658
164	0xbe55b6ea	-0.20870557
165	0x3ec6cf59	0.3883007
166	0x3de20fa1	0.11038137
167	0xbec167dc	-0.3777455
168	0xbec4340a	-0.38320953
169	0x3ed4bb3b	0.41549096
170	0x3e1f0870	0.15530562
171	0x3df551c9	0.1197849
172	0x3e0f4dbc	0.13994497
173	0xbe816844	-0.2527486
174	0xbef02b3a	-0.4690798
175	0xbd97e39e	-0.074164614
176	0x3ec9679f	0.3933687
177	0xbedc5946	-0.4303686
178	0xbe1581db	-0.14600317
179	0xbed97fc6	-0.42480296
180	0x3dd7a0e7	0.105287366
181	0x3e35a1aa	0.17737451
182	0x3dc7dd0f	0.097589605
183	0xbecc6c04	-0.3992616
184	0xbc06a393	-0.00821771
185	0xbea72964	-0.32648766
186	0xbdad8a83	-0.08473685
187	0x3dcac174	0.099001795
188	0xbe488fd2	-0.19586113
189	0x3ec9ef8b	0.3944057
190	0x3e7ca950	0.24673963
191	0xbed51aa1	-0.4162188
192	0x3e045151	0.12921645
193	0x3df036cd	0.117292024
194	0xbe354c3e	-0.17704865
195	0xbea9715d	-0.33094302
196	0x3df40ea7	0.11916857
197	0x3db701c9	0.08935887
198	0x3e76e0c4	0.24109179
199	0x3c5c9e35	0.013465454
200	0x3eb1e2e0	0.34743404
201	0xbc6b6a05	-0.014368539
202	0x3e89a0c1	0.26880458
203	0x3de83771	0.113386996
204	0xbd38c5bc	-0.04511045
205	0x3ebbd5ec	0.36686647
206	0xbdc34241	-0.09534121
207	0xbdac7464	-0.08420637
208	0x3e102aa4	0.14078766
209	0xbd293490	-0.041309893
210	0x3e428c8b	0.18998925
211	0xbebdc682	-0.37065512
212	0x3cbe6f1f	0.023246346
213	0xbe4e6f67	-0.20159684
214	0x3d0b6b41	0.034037832
215	0x3d417036	0.047226153
216	0xbda2a5f2	-0.07941808
217	0x3ea5897f	0.32331464
218	0x3d21df4c	0.039519593
219	0xbdb83072	-0.08993615
220	0x3e404721	0.18777134
221	0x3e1e0404	0.1543122
222	0xbe5377bc	-0.20651144
223	0xbcdb0bb9	-0.026738988
224	0xbd12b20e	-0.035814337
225	0xbc604b70	-0.013689861
226	0x3e87e72d	0.2654356
227	0xbd1ea15a	-0.038728096
228	0xbd810ede	-0.06301664
229	0xbea9a3a6	-0.33132666
230	0xbe864c51	-0.262301
231	0x3e2f2f33	0.17107849
232	0x3df92b62	0.12166478
233	0x3e83dc6f	0.25754115
234	0xbdbda777	-0.09260457
235	0xbe7e8851	-0.24856688
236	0xbdbfac83	-0.09359076
237	0x3cdff73d	0.027339572
238	0x3dada3ce	0.08478509
239	0xbc8fc149	-0.01754822
240	0xbe0da60f	-0.13832878
241	0x3e60c5c2	0.21950439
242	0x3ea19bbb	0.31564125
243	0xbd43a218	-0.047762007
244	0xbe545ddd	-0.20738931
245	0xbe848e9d	-0.25890055
246	0xbe04f02d	-0.12982245
247	0x3e935ff0	0.28784132
248	0xbe49825b	-0.19678633
249	0x3e04762d	0.12935705
250	0x3e3b25f4	0.18276197
251	0xbe39e1e4	-0.18152577
252	0x3e66979b	0.2251877
253	0xbd9f6ea4	-0.07784775
254	0xbe82ab25	-0.25521198
255	0x3e91ebd2	0.2850023
