trained_models/physical_error_training/model_lr0.00005_8_1_4_4_.1_.1Error_long_epoch49000.pt (torch, 95122 bytes, 87 tensors)

cls_token f4 [1, 1, 8]
0	0xc0019458	-2.0246792
1	0x3fc398b7	1.528098
2	0xbf19a90e	-0.6002358
3	0x3fc16861	1.5109979
4	0xbd922808	-0.071365416
5	0xbf22dc75	-0.6361764
6	0x3f3438e3	0.703993
7	0xbf8510ca	-1.0395749

categorical_embeds.weight f4 [3, 8]
0	0xbe365839	-0.17807092
1	0x3fceed43	1.6166157
2	0xbf109b8f	-0.56487364
3	0x3f4af239	0.7927585
4	0xbfc6a89f	-1.5520209
5	0x3ebcfb90	0.36910677
6	0xbf10e8d9	-0.566053
7	0x3efafc78	0.49020743
8	0x3f2f4c0e	0.68475425
9	0x3fc2dfd6	1.5224559
10	0x3e5e9eb7	0.21740232
11	0xbe40a9d7	-0.18814789
12	0x3e2c6366	0.16834792
13	0xbef91d33	-0.4865509
14	0x3ee1159b	0.43961796
15	0xbe01daf9	-0.12681188
16	0x3f0e09c8	0.55483675
17	0xbf098371	-0.5371619
18	0x3eadda4c	0.3395561
19	0xbfdd1828	-1.7272997
20	0x3e9ff22c	0.3123945
21	0x3c9f4626	0.01944263
22	0xbf50c9ab	-0.8155772
23	0x3f93662b	1.1515554

numerical_embedder.weights f4 [8, 8]
0	0xbfd6dd9b	-1.6786379
1	0x3d7f7899	0.06237087
2	0xbfab126a	-1.3364995
3	0x3f90003a	1.1250069
4	0x405120b2	3.2676206
5	0x3f0a6dfa	0.5407406
6	0x3ee95b4b	0.45577464
7	0xbfc5c9cd	-1.545221
8	0xbfac3c64	-1.345593
9	0x3f389f8c	0.7211845
10	0xbfcef963	-1.6169857
11	0x3f2397ff	0.639038
12	0xbdbe9eda	-0.09307642
13	0x3ee9d039	0.45666674
14	0x3e4820de	0.19543788
15	0xbe1dd2a4	-0.15412384
16	0x3fc1060c	1.507997
17	0xbf4ef0cd	-0.8083618
18	0xbf0e3af6	-0.5555872
19	0x3fb8783b	1.4411691
20	0x3ef318e6	0.47479934
21	0x3f028779	0.50987965
22	0x3f1145b8	0.5674701
23	0x3ece5f5b	0.40307125
24	0x3ea281cd	0.31739655
25	0xbcbc506d	-0.022987569
26	0x3fb2f7aa	1.3981831
27	0xbf3d41ee	-0.73928726
28	0x4016d39e	2.356666
29	0xbf650096	-0.8945402
30	0x3f9ced2e	1.2259881
31	0xbe4c0329	-0.1992308
32	0xbe2db2e8	-0.16962779
33	0xbe993241	-0.29921153
34	0x3ff0ca22	1.8811686
35	0x3f0f8aac	0.5607097
36	0x3ff2ad41	1.8959123
37	0x3f516d61	0.81807524
38	0xbfd476d1	-1.659876
39	0x3e8f2381	0.27956775
40	0x3e2a996f	0.16660093
41	0x3fe1fcbd	1.7655255
42	0xbfe22a26	-1.7669113
43	0xbeca0441	-0.3945637
44	0x3ebf9262	0.3741637
45	0xbe1928b4	-0.14956933
46	0xbed0ec15	-0.40805116
47	0xbfbfc5d9	-1.4982253
48	0x3cb84ae7	0.022496654
49	0x3e975208	0.29554772
50	0xbfa3c075	-1.2793108
51	0xbfa09ae6	-1.2547271
52	0xbf86ac16	-1.0521266
53	0x3cffad4c	0.031210564
54	0xbe1352d2	-0.14387062
55	0xbfc9695d	-1.5735279
56	0x3ec9d068	0.39416814
57	0x3fd622a6	1.6729324
58	0x3fe5ff76	1.7968585
59	0xc039db55	-2.904012
60	0x3ee02c81	0.43783954
61	0xbf4d4baf	-0.8019361
62	0xbf926290	-1.1436329
63	0x3fdbb05c	1.7163196

numerical_embedder.biases f4 [8, 8]
0	0xbf41a0de	-0.7563609
1	0xbe554d18	-0.2083019
2	0x3e081984	0.13290983
3	0xbfdf37d6	-1.7438915
4	0x3e9884a8	0.2978871
5	0xbf9842a8	-1.1895342
6	0xbe145c24	-0.14488274
7	0x3f9307c4	1.1486745
8	0xbeefd8c5	-0.4684507
9	0xbfb08e2d	-1.3793389
10	0x3eaae77b	0.3337973
11	0x3f3753ca	0.71612227
12	0x3f9bc533	1.2169555
13	0xc00e10ae	-2.219768
14	0x4078d9db	3.8882968
15	0xc08d0f74	-4.4081364
16	0x3f579a8d	0.842202
17	0x3f0aef32	0.54271233
18	0x3eff4ee2	0.4986487
19	0x3ffa910f	1.9575518
20	0x3eae7960	0.34076977
21	0xbfec4f14	-1.8461633
22	0x3df88e87	0.1213656
23	0x3f45baa9	0.77237946
24	0x4047a2e5	3.1193173
25	0x3ecf6197	0.40504143
26	0xbf8d99da	-1.1062577
27	0x3f8b02b3	1.0860199
28	0x3fa14b9d	1.26012
29	0xbed4b44f	-0.41543815
30	0xbfb2ab4e	-1.3958528
31	0x3f38577b	0.72008485
32	0x3f284bab	0.6574046
33	0x3f9343b9	1.1505042
34	0x3fc6a7d4	1.5519967
35	0x40058c32	2.0866818
36	0x3f1bf60f	0.6092233
37	0x4007d08f	2.1221044
38	0xbf94d091	-1.162615
39	0x3bd68085	0.0065460824
40	0xbf729cdc	-0.947706
41	0xbf217a4c	-0.63077235
42	0x3f74edf1	0.9567557
43	0x3e9ee8d2	0.31037003
44	0xbee326de	-0.4436559
45	0x3dde1dac	0.10845503
46	0xbf30b23f	-0.6902198
47	0x3f4a9270	0.79129696
48	0xbfee28a5	-1.8606154
49	0xbe9b2d16	-0.30307835
50	0xbeb377e1	-0.35052398
51	0xbe8a873f	-0.2705631
52	0xbeb0adcb	-0.34507594
53	0xbf80b9bc	-1.0056682
54	0xbf91c984	-1.1389623
55	0xbf0be11b	-0.5464036
56	0x3f7483ca	0.95513594
57	0x3ef5138c	0.47866476
58	0x3f438d5d	0.7638758
59	0x3eb968fd	0.36212912
60	0x3f3bc3dc	0.7334573
61	0x3f79f712	0.97642624
62	0x3f0f5013	0.5598156
63	0x3f9eaa9c	1.2395816

transformer.layers.0.0.static_alpha f4 [4, 5]
0	0x3d75f1ad	0.060044933
1	0x3f800000	1.0
2	0x00000000	0.0
3	0x00000000	0.0
4	0x00000000	0.0
5	0x3d75f1ad	0.060044933
6	0x00000000	0.0
7	0x3f800000	1.0
8	0x00000000	0.0
9	0x00000000	0.0
10	0x3d75f1ad	0.060044933
11	0x00000000	0.0
12	0x00000000	0.0
13	0x3f800000	1.0
14	0x00000000	0.0
15	0x3f87bbd3	1.0604194
16	0x00000000	0.0
17	0x00000000	0.0
18	0x00000000	0.0
19	0x3f800000	1.0

transformer.layers.0.0.dynamic_alpha_fn f4 [8, 5]
0	0xbe03eae4	-0.12882572
1	0x00000000	0.0
2	0x00000000	0.0
3	0x00000000	0.0
4	0x00000000	0.0
5	0x3d120648	0.03565052
6	0x00000000	0.0
7	0x00000000	0.0
8	0x00000000	0.0
9	0x00000000	0.0
10	0xbd0748bc	-0.03302835
11	0x00000000	0.0
12	0x00000000	0.0
13	0x00000000	0.0
14	0x00000000	0.0
15	0x3d084c93	0.033276152
16	0x00000000	0.0
17	0x00000000	0.0
18	0x00000000	0.0
19	0x00000000	0.0
20	0xbd6a802b	-0.057251137
21	0x00000000	0.0
22	0x00000000	0.0
23	0x00000000	0.0
24	0x00000000	0.0
25	0xbd8c3bc8	-0.0684734
26	0x00000000	0.0
27	0x00000000	0.0
28	0x00000000	0.0
29	0x00000000	0.0
30	0xbd6a8856	-0.057258926
31	0x00000000	0.0
32	0x00000000	0.0
33	0x00000000	0.0
34	0x00000000	0.0
35	0xbdbb34af	-0.09140908
36	0x00000000	0.0
37	0x00000000	0.0
38	0x00000000	0.0
39	0x00000000	0.0

transformer.layers.0.0.static_beta f4 [4]
0	0x3f6b0b45	0.9181407
1	0x3f55b08f	0.8347253
2	0x3f2e67a3	0.6812689
3	0x3fb045e5	1.377133

transformer.layers.0.0.dynamic_beta_fn f4 [8]
0	0xbe98f83f	-0.29876897
1	0x3e85ceef	0.2613444
2	0xbe257a3c	-0.1615991
3	0x3d00669b	0.031347852
4	0xbde4b692	-0.11167635
5	0xbe9ebea3	-0.3100482
6	0xbe47b08f	-0.19500946
7	0xbe59f9b9	-0.21286668

transformer.layers.0.0.branch.norm.weight f4 [8]
0	0x3fb11086	1.3833168
1	0x3f8bc6af	1.0920008
2	0x3f8abf23	1.083958
3	0x3f812439	1.0089179
4	0x3f8b3aa1	1.0877267
5	0x3f8166b0	1.0109463
6	0x3f89b158	1.0757246
7	0x3f835fcb	1.0263609

transformer.layers.0.0.branch.norm.bias f4 [8]
0	0x3c6600d0	0.01403828
1	0x3dfd97f8	0.12382501
2	0xbd6fb7f7	-0.058525052
3	0x3d0525f1	0.032506887
4	0x3d93419b	0.071902476
5	0xbcf2ac1c	-0.029623084
6	0xbc453192	-0.012035744
7	0x3d0e8582	0.03479529

transformer.layers.0.0.branch.to_qkv.weight f4 [192, 8]
0	0x3e8e5ae6	0.27803725
1	0xbc85d686	-0.016337644
2	0xbe774037	-0.2414559
3	0x3ae634eb	0.0017563378
4	0x3ea6ae9f	0.325551
5	0x3e2d11ba	0.16901293
6	0xbf016571	-0.5054541
7	0xbe62a453	-0.22132997
8	0xbe0b85f6	-0.13625321
9	0xbec571fd	-0.3856353
10	0xbd4ce141	-0.050019506
11	0x3ea2e8db	0.3181828
12	0xbe86b697	-0.2631118
13	0xbdcbc45f	-0.09949564
14	0xbddcdd56	-0.10784404
15	0x3cdf703b	0.027275195
16	0xbebbed62	-0.36704546
17	0xbe98d350	-0.2984872
18	0xbee9f13a	-0.45691854
19	0x3eeb2ec1	0.45934108
20	0xbd861eba	-0.065488294
21	0xbedc9375	-0.4308125
22	0x3f16d5a8	0.58919764
23	0x3e036b98	0.12834013
24	0x3eb045bb	0.344282
25	0xbec23ad1	-0.37935498
26	0x3d4360c3	0.0476997
27	0xbdeb45a8	-0.11487895
28	0x3e88b2dc	0.2669896
29	0x3d5ccfd1	0.053909127
30	0x3d3ca5de	0.04605662
31	0xbea0da2c	-0.31416452
32	0x3ebf56c3	0.3737088
33	0xbeaba611	-0.33525136
34	0x3ecea3e4	0.40359414
35	0xbeeb908f	-0.46008727
36	0xbea8a9f5	-0.32942167
37	0xbcca028e	-0.024659421
38	0xbe402bf3	-0.18766765
39	0x3e3f95bd	0.18709464
40	0xbcd2c225	-0.025727341
41	0xbdcefd05	-0.101068534
42	0x3dc51399	0.096228786
43	0xbeccfe90	-0.40037966
44	0xbd8f6130	-0.07000959
45	0x3ebcd2de	0.3687963
46	0xbdbeddcc	-0.09319648
47	0x3e993929	0.29926422
48	0x3dac038d	0.08399115
49	0x3e188672	0.14895037
50	0xbe8d6805	-0.27618423
51	0x3dba1525	0.09086064
52	0x3e51df37	0.20495306
53	0x3e120300	0.14258957
54	0xbe8c353b	-0.27384362
55	0xbd972abe	-0.07381199
56	0x3ea7a04a	0.32739478
57	0xbecc3492	-0.39883858
58	0x3d3a70e1	0.045517806
59	0x3deba551	0.11506141
60	0xbee99c1d	-0.45626917
61	0x3e32c310	0.17457223
62	0x3de604eb	0.11231407
63	0x3e142e17	0.14470707
64	0xbd8af9e2	-0.067859426
65	0x3e32bb72	0.17454317
66	0xbdb6f4f0	-0.08933437
67	0x3e8bf18b	0.2733272
68	0x3dc3c394	0.09558788
69	0xbe1d218d	-0.1534483
70	0x3e02025a	0.1269621
71	0x3d9c6a2d	0.07637439
72	0xbd2b9f9a	-0.041900255
73	0x3e6c6c59	0.23088206
74	0x3d0e6f62	0.03477419
75	0x3ebc4b98	0.36776423
76	0xbed41c89	-0.4142802
77	0x3d85d163	0.06534078
78	0xbb871993	-0.0041229217
79	0xbebb39a1	-0.36567405
80	0xbdb6ac9d	-0.08919642
81	0xbed00bd3	-0.4063402
82	0xb6dbb8cc	-6.548222e-06
83	0xbcce8492	-0.025209699
84	0x3ea82d56	0.3284709
85	0xbdeaf5b3	-0.11472645
86	0x3e045d8a	0.12926307
87	0xbe1458a2	-0.14486936
88	0xbe471b9b	-0.19444124
89	0xbecf4243	-0.4048024
90	0xbea87ba1	-0.3290682
91	0xbe95185b	-0.29120144
92	0xbdebf626	-0.115215585
93	0xbe869942	-0.262888
94	0x3d0c0299	0.034182165
95	0x3cc1176b	0.023570737
96	0x3e8841a1	0.2661257
97	0xbed81f5c	-0.42211425
98	0xbe33dd70	-0.1756494
99	0x3db10e77	0.08645337
100	0xbef1524b	-0.47133097
101	0xbebb5aef	-0.36592814
102	0x3e15ebf2	0.14640787
103	0xbd32b1be	-0.04362654
104	0x3cbac898	0.022800729
105	0x3db88438	0.09009594
106	0xbeae10d8	-0.33997226
107	0xbe9f39e1	-0.31098846
108	0x3e104045	0.14087017
109	0xbea05c1b	-0.3132027
110	0xbcc11bb7	-0.023572786
111	0x3e9a1420	0.3009348
112	0xbae24480	-0.0017262846
113	0x3e616840	0.22012424
114	0xbebd89e4	-0.37019265
115	0x3d2acad6	0.041697346
116	0x3cd41498	0.025888726
117	0xbeee69cf	-0.465651
118	0x3ed8d68d	0.4235119
119	0x3e86ba71	0.26314119
120	0x3e9f4e49	0.31114414
121	0x3e748f88	0.23882878
122	0x3e0904fb	0.13380806
123	0x3b997911	0.0046836217
124	0x3f1079f9	0.56436116
125	0x3e9a4159	0.3012798
126	0xbdfd9c69	-0.123833485
127	0x3e8dfb47	0.27730772
128	0x3e0d36b4	0.13790399
129	0x3db4ff61	0.08837772
130	0x3c3f33b6	0.011670044
131	0x3e4b240b	0.19837968
132	0xbe499aa6	-0.196879
133	0x3e5aa18a	0.21350685
134	0xbe10738b	-0.14106576
135	0x3ece8280	0.4033394
136	0x3e985544	0.29752553
137	0xbd96910c	-0.07351884
138	0xbe4f9cb4	-0.20274621
139	0xbddfdbd3	-0.109306
140	0x3edc966a	0.43083507
141	0x3d156c77	0.036480393
142	0xbeb6f9ef	-0.3573756
143	0xbdd42faf	-0.103606574
144	0x3d97068b	0.07374295
145	0x3d223e0b	0.03960995
146	0x3ea87132	0.3289886
147	0xbdc266fa	-0.094922975
148	0xbe887235	-0.26649633
149	0x3c7f2411	0.015572564
150	0x3e6fd586	0.23421296
151	0xbe3e27b8	-0.18569839
152	0x3e6f9521	0.23396732
153	0xbe8c6efb	-0.2742842
154	0xbde62072	-0.11236657
155	0xbe15aef1	-0.14617516
156	0xbdd673d6	-0.10471313
157	0xbe810d34	-0.25205386
158	0xbe236ef2	-0.15960291
159	0xbe90869c	-0.282277
160	0xbdf0aa10	-0.11751187
161	0x3e11f0ed	0.14252062
162	0x3c2f489d	0.010698465
163	0xbe9fe01c	-0.3122567
164	0x3d965a52	0.07341446
165	0xbde1ab12	-0.11018957
166	0xbe48a953	-0.19595842
167	0x3e78b139	0.24286355
168	0x3e8607fc	0.26177967
169	0xbdb89a52	-0.09013809
170	0xbe1d0fb3	-0.1533802
171	0x3cbd8f20	0.023139536
172	0x3d99d8c6	0.075120494
173	0x3c4f8502	0.012665989
174	0xbe6c17d0	-0.23055959
175	0x3e8114ad	0.25211087
176	0x3ef53f3e	0.47899812
177	0x3e88bed7	0.267081
178	0xbdfaafcd	-0.122405626
179	0xbe6e0314	-0.23243362
180	0xbdf55041	-0.11978198
181	0x3eb4a656	0.35283154
182	0xbe529d36	-0.20567784
183	0xbcd1aa89	-0.025594013
184	0x3e0aba01	0.13547517
185	0x3e923937	0.28559276
186	0x3d8a167f	0.06742572
187	0x3ead9708	0.3390429
188	0xbd9b1093	-0.07571521
189	0x3da1734e	0.07883321
190	0x3e9733c9	0.29531696
191	0xbdc855f2	-0.09782018
192	0x3e58697f	0.21133994
193	0xbe60c427	-0.21949826
194	0x3e1f23c0	0.15540981
195	0x3e848ba2	0.2588778
196	0x3d652512	0.055943556
197	0xbd6b4b75	-0.05744501
198	0x3dba5e64	0.09100035
199	0xbe3fbfe9	-0.18725552
200	0xbac51d14	-0.0015038573
201	0x3e98a01f	0.29809663
202	0x3dce7f52	0.10082878
203	0x3e37ae08	0.17937481
204	0x3c968ce2	0.018377725
205	0x3e8da151	0.27662137
206	0x3e933e02	0.28758246
207	0xbea8031f	-0.3281488
208	0xbd6d11c9	-0.05787829
209	0xbdc02dae	-0.09383713
210	0xbebb1798	-0.36541438
211	0x3ed82cd6	0.42221707
212	0xbdafadce	-0.085780725
213	0x3e3ab3d9	0.18232669
214	0x3e5036c2	0.20333388
215	0xbe630495	-0.22169717
216	0xbeccd52a	-0.4000638
217	0x3e9aa687	0.30205175
218	0xbe917c51	-0.28415158
219	0xbe6383f5	-0.22218306
220	0xbda5f58a	-0.081034735
221	0xbe44bd9e	-0.19212958
222	0x3edffa24	0.4374553
223	0xbe2c2d04	-0.16814047
224	0x3e83cd8f	0.25742766
225	0x3d943950	0.07237494
226	0x3dd6f8c2	0.104966655
227	0xbe9335f8	-0.28752112
228	0xbe717f95	-0.23583825
229	0xbe409b10	-0.18809152
230	0xbe96c9e5	-0.29450908
231	0x3eed2241	0.46315196
232	0xbe546677	-0.20742212
233	0x3b0da878	0.0021615308
234	0xbe4f8457	-0.20265327
235	0x3d8273e7	0.06369763
236	0x3e5c1da4	0.21495682
237	0xbe3e01ae	-0.18555328
238	0xbe2f0bae	-0.17094299
239	0xbe96ead3	-0.29476032
240	0x3eb7f29b	0.3592728
241	0x3e787d99	0.24266662
242	0xbdadb2bc	-0.084813565
243	0xbe8fa254	-0.28053534
244	0x3df9dda7	0.1220048
245	0x3e67b15e	0.22626254
246	0xbd80a9e8	-0.06282407
247	0xbd404d8f	-0.046948966
248	0xbe544c68	-0.20732272
249	0xbe5e2f8f	-0.2169783
250	0x3e56c2d5	0.2097276
251	0x3e6c7539	0.23091592
252	0xbe144e4c	-0.14482993
253	0xbe17255d	-0.14760347
254	0x3e664d83	0.22490506
255	0x3d97ccba	0.07412095

transformer.layers.0.0.branch.to_out.weight f4 [8, 64]
0	0xbd074a1e	-0.033029668
1	0xbda32bc3	-0.07967331
2	0xbd6ca95f	-0.057778712
3	0xbc8f61b0	-0.017502636
4	0xbc00d624	-0.007863555
5	0xbc11d3b8	-0.008900575
6	0xbd4f3a43	-0.050592672
7	0x3dae587d	0.085129716
8	0xbd5723d9	-0.05252442
9	0xbda2abe1	-0.079429395
10	0x3dd6c343	0.10486462
11	0xbc981115	-0.018562833
12	0xbd8f2ffa	-0.06991573
13	0x3d09d615	0.03365143
14	0x3c869870	0.01643011
15	0x3d32ce9c	0.04365407
16	0xbde43f40	-0.111448765
17	0xbd7b3680	-0.061331272
18	0xbd9690c7	-0.07351833
19	0xbd241a31	-0.04006404
20	0xbd9bbcdf	-0.07604384
21	0xbd7ecf36	-0.06220933
22	0xbd1261f2	-0.03573794
23	0xbcfc5bb0	-0.030805439
24	0xbdca74ab	-0.09885534
25	0x3d1a5226	0.037676
26	0xbd9ab5f7	-0.07554238
27	0x3c96781b	0.018367818
28	0x3c9f3eee	0.019439187
29	0x3d9c967c	0.0764589
30	0x3e0457eb	0.12924163
31	0xbcf8217a	-0.0302894
32	0x3d78a900	0.060708046
33	0x3ebeab27	0.37239954
34	0xbde2234f	-0.11041891
35	0x3de27627	0.11057692
36	0xbd30484a	-0.04303769
37	0xbcf27d25	-0.02960069
38	0xbd624952	-0.055245705
39	0xbde69e82	-0.11260702
40	0xbd85cdaf	-0.06533372
41	0x3d8be955	0.06831614
42	0xbe583b97	-0.21116482
43	0x3dd6f9e3	0.10496881
44	0x3e4ed485	0.20198257
45	0xbe019fc6	-0.12658605
46	0x3f28e95d	0.65981084
47	0x3e2e106a	0.16998449
48	0x3d8110a9	0.06302006
49	0x3de47d0e	0.11156665
50	0x3b4a518f	0.0030871367
51	0x3d386d12	0.045025893
52	0x3e1fd4fc	0.15608591
53	0xbd3f540e	-0.04671102
54	0xbe0c3a0e	-0.13694021
55	0xbcae309a	-0.02126341
56	0xbd581654	-0.05275567
57	0xbdd2d715	-0.1029493
58	0xbdbe7ce2	-0.09301163
59	0x3cd2eff6	0.025749188
60	0xbe464f35	-0.19366153
61	0xbe0bc52f	-0.13649438
62	0xbe20c0af	-0.15698503
63	0x3db23671	0.0870179
64	0xbc02414c	-0.007950138
65	0x3d8bc1ab	0.068240486
66	0x3d9cb9c6	0.07652621
67	0x3e0b0f0b	0.13579957
68	0xbc660ddd	-0.014041391
69	0x3ddb1a48	0.10698372
70	0xbd764c6b	-0.06013147
71	0x3b89489b	0.0041895634
72	0xbc061386	-0.008183366
73	0x3d833171	0.064059146
74	0x3c80cb63	0.015721982
75	0x3d887dc6	0.066646144
76	0x3c2c2ca0	0.010508686
77	0x3dacf102	0.08444406
78	0xbd04d951	-0.03243381
79	0x3d9421df	0.07233023
80	0x3da3424c	0.079716295
81	0x3d92c3f9	0.07166285
82	0x3d81657f	0.06318187
83	0xbca5b826	-0.02022941
84	0xbaff89c6	-0.0019496016
85	0x3d8b004b	0.06787165
86	0x3e021465	0.12703092
87	0x3d5e4c24	0.054271832
88	0x3d5eec49	0.054424558
89	0x3c526aa1	0.012842805
90	0xbd2e4c5d	-0.042553294
91	0x3d4bfb46	0.04980018
92	0xbde145df	-0.10999655
93	0xbcbce162	-0.02305669
94	0xbe025dda	-0.12731114
95	0xbceb12e3	-0.02869553
96	0x3cd252b5	0.025674203
97	0xbd00426f	-0.031313356
98	0x3dff44cb	0.12464293
99	0xbc18c64e	-0.009324623
100	0xbda26422	-0.07929255
101	0x3b1159a9	0.0022178686
102	0x3d1c2440	0.03812051
103	0x3dbbb7cb	0.09165915
104	0x3cac7317	0.021050973
105	0xbd37e9cc	-0.0449007
106	0x3da44fac	0.08023009
107	0x3d04edea	0.032453455
108	0x3cd40613	0.025881803
109	0xbac14bd1	-0.0014747326
110	0xbd83178f	-0.06400978
111	0xbdfd274b	-0.1236101
112	0xbcac8842	-0.021061067
113	0xbda5ac7a	-0.08089538
114	0xbd2c79a1	-0.042108182
115	0x3d011bf6	0.031520806
116	0xbd8e9d64	-0.06963614
117	0xbdb66c98	-0.08907431
118	0x3da59330	0.080847144
119	0x3b8e7d9d	0.0043484704
120	0xbd94091f	-0.07228302
121	0x3d3914ca	0.04518584
122	0x3c906e1d	0.017630631
123	0xbddd7704	-0.10813716
124	0xbb5def02	-0.0033864384
125	0x3da0ead0	0.07857287
126	0xbde408bd	-0.11134479
127	0xbd39a18e	-0.045320086
128	0x3dada3b0	0.084784865
129	0xbe0962c2	-0.1341658
130	0x3ce5e3fa	0.02806281
131	0xbdd5b539	-0.10434956
132	0xbc59f220	-0.013302356
133	0xbd6dfda1	-0.058103207
134	0x3d13eb7f	0.03611326
135	0x3db433e9	0.087989636
136	0xbdb3e437	-0.08783763
137	0x3d801bee	0.06255327
138	0xbdd1c799	-0.10243148
139	0xbb81f327	-0.0039657536
140	0xb9c1574f	-0.0003687688
141	0x3d99c5d0	0.07508433
142	0xbdb388cb	-0.087663256
143	0xbd3a9e76	-0.045561276
144	0x3dc2bbd5	0.09508482
145	0xbccd2354	-0.02504126
146	0x3ccb23f3	0.024797415
147	0x3cfd38fe	0.030910965
148	0xbe00c27f	-0.12574194
149	0xbd0076ab	-0.03136317
150	0xbda6751e	-0.08127807
151	0x3ab55f08	0.0013837526
152	0xbda2cdaa	-0.079493836
153	0xbd529bd0	-0.051418126
154	0xbd92f41f	-0.07175469
155	0x3c62737b	0.013821478
156	0x3de3bda0	0.111201525
157	0x3de47fdc	0.111572
158	0xbc603d38	-0.013686471
159	0xbd4f6837	-0.050636496
160	0xbde39158	-0.111117065
161	0x3e921e0b	0.28538546
162	0xbc7b6021	-0.015342743
163	0x3d01648c	0.03159003
164	0xbc1c9d9e	-0.009559063
165	0xbd14d211	-0.036333147
166	0xbe440204	-0.19141394
167	0xbd5e902b	-0.054336708
168	0xbdaf5d3a	-0.085627034
169	0x3dbe7aba	0.09300752
170	0xbb70f381	-0.0036766233
171	0xbd72f68e	-0.059317164
172	0x3dd3f307	0.10349088
173	0xbe01fad0	-0.12693334
174	0x3e49cd3e	0.197072
175	0x3e01bffc	0.12670892
176	0x3d4ca9a1	0.04996646
177	0x3d000a4c	0.03125982
178	0xbe26d42b	-0.16291873
179	0x3d80e330	0.062933326
180	0xbd98ab89	-0.07454593
181	0xbcd0ee4f	-0.02550426
182	0xbba21c10	-0.004947193
183	0xbe13da71	-0.14438798
184	0xbda92d2d	-0.0826057
185	0xbd43f44f	-0.047840413
186	0xbcfb8da7	-0.030707194
187	0x3da121e1	0.0786779
188	0xbd67069e	-0.056402795
189	0xbd2c8c91	-0.042126242
190	0xbe0d9c2d	-0.13829108
191	0x3d774a9e	0.060373895
192	0x3d0fde97	0.035124388
193	0xbdbd3d94	-0.09240261
194	0xbd0508ef	-0.032479223
195	0xbdbcbdcf	-0.092158906
196	0x3e280dc7	0.16411506
197	0xbc5316dd	-0.012883869
198	0x3de4ba3d	0.11168335
199	0xbd3d4e9d	-0.04621755
200	0xbd8ea2ae	-0.069646224
201	0x3ddafce0	0.10692763
202	0xbdb74834	-0.089493185
203	0x3da5bc9b	0.08092614
204	0x3da3912a	0.07986672
205	0xbc1ae684	-0.009454373
206	0xbda0dfb2	-0.078551665
207	0x3baab312	0.005209335
208	0x3d1490ea	0.036271013
209	0xbd67e17c	-0.056611523
210	0xbcd5a93c	-0.026081674
211	0xbca48690	-0.020083696
212	0x3b1b9e08	0.0023745317
213	0xbd044c74	-0.032299474
214	0xbd8a6f98	-0.06759566
215	0xbcbb26df	-0.022845684
216	0x3da16d27	0.07882147
217	0xbdb6457d	-0.088999726
218	0xbd6533fc	-0.05595778
219	0x3c9dbf72	0.019256327
220	0xbd0a1426	-0.03371062
221	0xbc058b0f	-0.00815083
222	0xbdebe1c6	-0.11517672
223	0xbcb106a0	-0.021609604
224	0x3d52d726	0.051474713
225	0xbecceefe	-0.40026087
226	0xbc09d11d	-0.008411673
227	0xbdcff088	-0.101532996
228	0x3cc02e99	0.02345972
229	0xbdca67e2	-0.09883095
230	0x3e6ba9df	0.2301402
231	0x3c606c49	0.013697692
232	0xbcbe578b	-0.023235103
233	0xbdcc3500	-0.099710464
234	0x3db642a6	0.08899431
235	0x3d5e7962	0.05431498
236	0xbde0458f	-0.10950767
237	0x3e0e1c66	0.1387802
238	0xbed3471b	-0.41265187
239	0xbe08df55	-0.13366444
240	0xbdaefedb	-0.085447036
241	0xbe3472bc	-0.17621893
242	0x3e19f0bd	0.1503324
243	0x3d889014	0.06668106
244	0xbdc928c1	-0.09822226
245	0xbdcea652	-0.10090317
246	0x3e10d760	0.14144659
247	0x3ea887f2	0.32916218
248	0x3db05864	0.08610609
249	0x3d2f39ce	0.042779736
250	0x3c85087f	0.016239403
251	0xbd987bd9	-0.07445497
252	0x3ccb72b4	0.024834968
253	0x3d9286da	0.07154627
254	0xbd8b1d6e	-0.06792723
255	0x3d2d2cdc	0.04227911

transformer.layers.0.0.norm.gamma f4 [8]
0	0x3eaa8661	0.33305648
1	0x3e918eb7	0.28429195
2	0x3e431b37	0.1905335
3	0x3d94ef91	0.07272256
4	0x3e0b17b6	0.13583264
5	0x3ea8d871	0.32977632
6	0x3e7763f5	0.24159224
7	0x3e7be031	0.24597241

transformer.layers.0.1.static_alpha f4 [4, 5]
0	0x3e493473	0.19648914
1	0x3f800000	1.0
2	0x00000000	0.0
3	0x00000000	0.0
4	0x00000000	0.0
5	0x3f33308e	0.69995964
6	0x00000000	0.0
7	0x3f800000	1.0
8	0x00000000	0.0
9	0x00000000	0.0
10	0xbe9e1a30	-0.30879354
11	0x00000000	0.0
12	0x00000000	0.0
13	0x3f800000	1.0
14	0x00000000	0.0
15	0x3e76d9a6	0.24106464
16	0x00000000	0.0
17	0x00000000	0.0
18	0x00000000	0.0
19	0x3f800000	1.0

transformer.layers.0.1.dynamic_alpha_fn f4 [8, 5]
0	0x3d32ced4	0.043654278
1	0x00000000	0.0
2	0x00000000	0.0
3	0x00000000	0.0
4	0x00000000	0.0
5	0xbda005ed	-0.0781363
6	0x00000000	0.0
7	0x00000000	0.0
8	0x00000000	0.0
9	0x00000000	0.0
10	0x3cb747cc	0.022373103
11	0x00000000	0.0
12	0x00000000	0.0
13	0x00000000	0.0
14	0x00000000	0.0
15	0x3c946bab	0.018117746
16	0x00000000	0.0
17	0x00000000	0.0
18	0x00000000	0.0
19	0x00000000	0.0
20	0x3d7d39b2	0.0618226
21	0x00000000	0.0
22	0x00000000	0.0
23	0x00000000	0.0
24	0x00000000	0.0
25	0xbdb4590f	-0.08806049
26	0x00000000	0.0
27	0x00000000	0.0
28	0x00000000	0.0
29	0x00000000	0.0
30	0x3e963235	0.2933518
31	0x00000000	0.0
32	0x00000000	0.0
33	0x00000000	0.0
34	0x00000000	0.0
35	0x3cb76247	0.02238573
36	0x00000000	0.0
37	0x00000000	0.0
38	0x00000000	0.0
39	0x00000000	0.0

transformer.layers.0.1.static_beta f4 [4]
0	0x3f88681e	1.0656774
1	0x3f8064d2	1.0030768
2	0x3f7cd2ae	0.9875897
3	0x3f74b2a4	0.95585084

transformer.layers.0.1.dynamic_beta_fn f4 [8]
0	0xbddfe538	-0.10932392
1	0x3d17912f	0.037003692
2	0x3bf7bf28	0.0075606294
3	0x3da4e3e8	0.08051282
4	0x3d5943a1	0.05304301
5	0xbd04d30d	-0.032427836
6	0x3dd375a3	0.10325172
7	0x3b26e12c	0.0025463803

transformer.layers.0.1.branch.0.weight f4 [8]
0	0x3f7bf3ea	0.9841906
1	0x3f6c379d	0.9227236
2	0x3f80677e	1.0031583
3	0x3f8d5a25	1.1043135
4	0x3f8f9f7f	1.1220549
5	0x3f786a44	0.9703715
6	0x3f8066aa	1.003133
7	0x3f8816e6	1.0631988

transformer.layers.0.1.branch.0.bias f4 [8]
0	0x3ca02616	0.01954941
1	0xbdba1b03	-0.09087183
2	0x3bf2cc88	0.007409636
3	0xbd225568	-0.03963223
4	0x3c9cdddd	0.019148761
5	0xbcd18388	-0.025575414
6	0xbbd355e3	-0.0064494475
7	0x3cc75ae0	0.024335325

transformer.layers.0.1.branch.1.weight f4 [64, 8]
0	0x3df9af40	0.121916294
1	0x3e8940ee	0.2680735
2	0x3d7df7aa	0.06200377
3	0x3e8d5423	0.27603254
4	0xbe727db6	-0.23680767
5	0xbcaa4b02	-0.02078772
6	0x3dafeafc	0.085897416
7	0xbede07fd	-0.4336547
8	0xbea2dd65	-0.31809536
9	0xbc92b987	-0.017910732
10	0xbd992426	-0.07477598
11	0x3c2ad252	0.010426121
12	0x3eb78cd9	0.35849646
13	0x3cd4de5b	0.025984934
14	0x3ea77b67	0.32711336
15	0x3dd48250	0.10376418
16	0x3dbdaf4f	0.09261953
17	0x3e39a084	0.18127638
18	0xbeadd6d8	-0.33952975
19	0x3e67fc2e	0.22654793
20	0xbe0412b1	-0.12897755
21	0x3e0bb67f	0.13643835
22	0xbd397dec	-0.045286104
23	0xbb631b08	-0.0034653563
24	0xbe217652	-0.15767792
25	0x3df76198	0.120791614
26	0xbe561788	-0.20907414
27	0xbda489d0	-0.08034098
28	0x3dfe2919	0.124101825
29	0xbddfeee2	-0.10934235
30	0xbe6f928d	-0.23395748
31	0x3ebd25a1	0.3694277
32	0xbdb5e4d8	-0.08881539
33	0x3e8eaab3	0.27864608
34	0x3c29e865	0.010370349
35	0xbe504a0f	-0.20340751
36	0x3e131af0	0.14365745
37	0xbe9cd941	-0.30634502
38	0x3dd3ae4c	0.10335979
39	0xbdf152dd	-0.11783383
40	0xbe94d6b6	-0.2907006
41	0x3ea049cb	0.313063
42	0xbe1284aa	-0.1430842
43	0xbe27f79c	-0.16403049
44	0x3e442822	0.19155934
45	0x3ea41ef4	0.32054865
46	0x3dda55b1	0.106608756
47	0xbd9d11f8	-0.07669443
48	0x3e06c3db	0.1316065
49	0x3c921b5d	0.017835313
50	0xbd6502d4	-0.0559109
51	0xbed8518c	-0.42249715
52	0x3d3ff582	0.046864994
53	0xbe97e444	-0.2966634
54	0xbe466f56	-0.19378409
55	0x3ec9986c	0.393741
56	0x3eb69625	0.35661426
57	0x3dbc763d	0.0920224
58	0xbd42fb92	-0.047603197
59	0xbe0a662d	-0.1351554
60	0xbde7f0f2	-0.113252535
61	0x3cb73316	0.022363227
62	0xbed25492	-0.41080147
63	0x3d40a0a6	0.047028206
64	0xbe4a037e	-0.19727895
65	0xbe165ed9	-0.14684619
66	0x3eb90c73	0.3614231
67	0xbdae29c4	-0.0850406
68	0x3d60277f	0.054725166
69	0x3ef56227	0.47926447
70	0x3e3846c8	0.17995751
71	0x3efe0ec6	0.49620646
72	0x3d2705a2	0.040776856
73	0x3e6afea5	0.22948702
74	0x3dd54582	0.10413648
75	0x3c9a517b	0.018837681
76	0x3e2e05a8	0.16994345
77	0x3c829544	0.015940316
78	0x3eae49ce	0.34040684
79	0xbe8bca42	-0.27302748
80	0x3eb5b856	0.354922
81	0x3e897ac3	0.26851472
82	0x3dfb1ffb	0.12261959
83	0x3c2d5bb0	0.010580942
84	0x3ebd14a7	0.3692982
85	0x3e2c7aa9	0.16843666
86	0xbe782f0b	-0.24236695
87	0xbe404790	-0.18777299
88	0xbd1f7fd5	-0.03894027
89	0xbd976cb1	-0.07393778
90	0x3ec4d97f	0.38447186
91	0xbd838374	-0.06421557
92	0xbeb8de19	-0.36106947
93	0xbe5ee800	-0.21768188
94	0x3d5bef2e	0.053694896
95	0x3e722d86	0.23650178
96	0x3e79dcc3	0.2440062
97	0xbec7a3ff	-0.38992307
98	0xbe0f5dad	-0.14000578
99	0xbdd678e0	-0.10472274
100	0x3e382ab5	0.17985041
101	0x3ebe2e80	0.37144852
102	0xbe9f21b8	-0.31080413
103	0x3e86ae76	0.26304978
104	0x3de580d8	0.112062156
105	0x3e1cab7f	0.15299796
106	0xbe473ad0	-0.19456029
107	0xbe5149ca	-0.20438305
108	0x3e9f962a	0.31169254
109	0x3d68818d	0.056764174
110	0x3d829c90	0.06377518
111	0x3df615a0	0.120158434
112	0x3e84a837	0.25909588
113	0x3e1a1da1	0.15050365
114	0x3c17a567	0.009255744
115	0xbdb0e7ae	-0.086379394
116	0x3edd9500	0.4327774
117	0xbdb86623	-0.09003856
118	0x3e724ef3	0.23662929
119	0x3e8533a5	0.26015964
120	0x3e37a70f	0.17934822
121	0x3ea9fd07	0.33200857
122	0xbe6ced33	-0.2313736
123	0xbe9ea533	-0.30985412
124	0xbde19ec9	-0.11016614
125	0x3e89d408	0.2691958
126	0xbe44d8df	-0.19223355
127	0xbd598bb9	-0.053111766
128	0x3bbf2401	0.0058331494
129	0xbef5c256	-0.4799983
130	0x3d50cf54	0.050978974
131	0x3e21a4f4	0.15785581
132	0xbd49d409	-0.049274478
133	0x3e4723d2	0.19447258
134	0x3e314e95	0.17315133
135	0x3ea28845	0.3174459
136	0xbebcfe78	-0.36912894
137	0x3e1b1ac4	0.15146929
138	0xbe477bc7	-0.19480811
139	0xbdb48699	-0.08814735
140	0xbe5c96af	-0.21541856
141	0xbd659f3e	-0.05606007
142	0xbe555af5	-0.20835479
143	0x3ea6070b	0.32427248
144	0xbd598d72	-0.05311341
145	0xbe6756ea	-0.22591749
146	0x3e39d78d	0.18148632
147	0xbe553d98	-0.20824277
148	0xbe2448cd	-0.16043396
149	0x3e2c106c	0.1680314
150	0xbd168eec	-0.036757395
151	0x3eb74f31	0.35802606
152	0x3e9b9c7f	0.30392835
153	0xbe016023	-0.1263433
154	0x3e411ccd	0.18858643
155	0xbdd01f07	-0.10162168
156	0xbe4e2c4a	-0.20134082
157	0x3d085dd8	0.03329262
158	0x3e96d466	0.29458922
159	0xbd115a43	-0.03548647
160	0x3e1c7e03	0.15282445
161	0x3e96aa17	0.29426643
162	0x3c1acef6	0.009448757
163	0x3ec10e64	0.37706292
164	0x3d62b04a	0.055343904
165	0x3e500aea	0.20316663
166	0xbea4a1e5	-0.32154766
167	0x3e3a2e69	0.18181767
168	0x3e5904c6	0.21193227
169	0x3e830aff	0.25594327
170	0x3e637fd0	0.22216725
171	0xbea4cb60	-0.32186413
172	0x3e697a1d	0.22800489
173	0xbe70e2c7	-0.23524009
174	0x3eb4318f	0.3519406
175	0x3e32d735	0.17464907
176	0xbdc3f7f7	-0.0956878
177	0x3d03739d	0.03209268
178	0x3de45221	0.11148477
179	0x3c89a6ac	0.016803108
180	0xbe878e26	-0.26475638
181	0xbcb66663	-0.022265619
182	0x3ea28611	0.3174291
183	0xbd6fb10b	-0.05851845
184	0xbab7bcab	-0.001401802
185	0xbdf96fb6	-0.1217951
186	0xbd1f91b2	-0.038957305
187	0x3e3de7b1	0.18545415
188	0xbe9a31d5	-0.30116144
189	0x3e803294	0.25038588
190	0x3cb2ade7	0.021811439
191	0xbe0da760	-0.1383338
192	0xbe135752	-0.14388779
193	0xbe6b4200	-0.22974396
194	0xbdc3f258	-0.09567708
195	0x3ea55b5c	0.32296264
196	0xbe582c87	-0.21110736
197	0x3cba0566	0.022707652
198	0x3d7377fa	0.05944059
199	0xbe1d507f	-0.15362738
200	0x3e8a062a	0.26957828
201	0x3e5bee18	0.21477544
202	0xbdf14484	-0.117806464
203	0x3e9e1727	0.3087704
204	0x3e0d7447	0.13813888
205	0x3e48d67c	0.1961307
206	0x3d7c2b1a	0.061564542
207	0xbe3e9967	-0.18613206
208	0xbaf8d07c	-0.0018983032
209	0xbe45db2d	-0.1932189
210	0xbe72e5a8	-0.2372042
211	0x3c6636ba	0.014051134
212	0xbeaf3071	-0.34216645
213	0xbe954746	-0.2915594
214	0x3e0bd821	0.13656665
215	0xbe082114	-0.13293868
216	0x3e4ebe3b	0.20189755
217	0x3dce5842	0.100754276
218	0x3caed702	0.021342758
219	0xbea8ad12	-0.32944542
220	0x3e681fbc	0.22668356
221	0xbe9d0b3a	-0.30672628
222	0xbe38f8ad	-0.18063612
223	0x3e3b9795	0.18319543
224	0xbc375210	-0.011188999
225	0xbe714608	-0.23561871
226	0xbea3860d	-0.3193821
227	0x3e885b77	0.26632282
228	0xbe906412	-0.28201348
229	0x3e656589	0.22402014
230	0x3d96a002	0.07354738
231	0xbe92d995	-0.28681627
232	0x3df9b52c	0.12192759
233	0xbd876ea9	-0.066129036
234	0xbec1b996	-0.37836903
235	0xbe74a073	-0.23889332
236	0xbe8cd503	-0.27506265
237	0x3d749eae	0.05972164
238	0xbdbb387d	-0.09141634
239	0x3db3eb13	0.08785071
240	0x3ca7e95b	0.020497015
241	0xbe893638	-0.26799178
242	0x3ccff26a	0.025384147
243	0x3d3fe570	0.046849668
244	0xbe791c64	-0.24327236
245	0x3d6d358c	0.057912394
246	0x3ec62fd1	0.38708356
247	0x3eafca8f	0.34334227
248	0x3e037511	0.12837626
249	0xbe4288cd	-0.18997498
250	0x3d268c63	0.040661227
251	0xbd2d1c21	-0.042263154
252	0x3ec51928	0.38495755
253	0xbe4752ba	-0.19465151
254	0xbe0dccbf	-0.13847636
255	0xbead51a8	-0.3385136

transformer.layers.0.1.branch.1.bias f4 [64]
0	0x3e040408	0.12892163
1	0x3ebc47a7	0.36773416
2	0xbe6c2093	-0.23059301
3	0x3eccbdac	0.39988458
4	0xbe6f0ce7	-0.23344766
5	0xbe891e24	-0.26780808
6	0xbe0d0bf5	-0.13774092
7	0xbd59a15e	-0.053132407
8	0x3da47cfc	0.080316514
9	0x3e0a3023	0.13494925
10	0xbe709d6b	-0.2349755
11	0x3e2249ec	0.15848511
12	0xbea1e17c	-0.31617343
13	0x3d2bbb5e	0.041926734
14	0x3e4b05d5	0.19826443
15	0x3e664b39	0.22489633
16	0x3e34b873	0.17648487
17	0xbe8e0895	-0.27740923
18	0x3e3e9b75	0.1861399
19	0x3ea28ff7	0.3175046
20	0x3d572bed	0.052532125
21	0xbe62be13	-0.2214282
22	0x3ec16b97	0.37777397
23	0xbe2840e8	-0.1643101
24	0xbec74521	-0.3891993
25	0x3df65cda	0.12029429
26	0x3e826265	0.25465694
27	0xbe6a499b	-0.22879641
28	0xbeb07984	-0.3446771
29	0x3e9c86db	0.30571637
30	0x3c04220d	0.008064759
31	0x3de8e12a	0.11371072
32	0x3ca50ed0	0.020148665
33	0x3cee6ef4	0.029105641
34	0x3de534a6	0.111916825
35	0x3dde345b	0.1084983
36	0x3ca79f82	0.020461801
37	0x3e89b5a5	0.26896396
38	0xbe3fa230	-0.18714213
39	0xbdc9de0d	-0.09856806
40	0xbc7e7ae9	-0.015532234
41	0xbec9c14d	-0.3940529
42	0x3dfc6757	0.12324398
43	0x3e4924f2	0.19643
44	0x3e6101ab	0.21973293
45	0xbe59efc7	-0.21282874
46	0x3e7334ad	0.23750563
47	0x3e3cafb1	0.18426396
48	0xbe61c543	-0.22047906
49	0xbd2f1a47	-0.04274967
50	0x3d84d410	0.0648576
51	0x3e41efc0	0.18939114
52	0x3e5904e6	0.21193275
53	0x3e814ecb	0.25255427
54	0x3d5f3389	0.054492507
55	0x3ed544cd	0.41654053
56	0x3e05a290	0.13050294
57	0xbe39e31a	-0.18153039
58	0xbdb4b994	-0.08824459
59	0x3e2dca86	0.16971788
60	0x3dd33e7e	0.10314654
61	0x3e5ecf6a	0.2175881
62	0x3dae9bc2	0.08525802
63	0x3e8e6aa9	0.2781575

transformer.layers.0.1.branch.4.weight f4 [8, 32]
0	0x3e38eea9	0.18059792
1	0x3e823814	0.2543341
2	0x3e5d02d7	0.21583115
3	0xbe3eaf0f	-0.18621467
4	0xbd6c22ae	-0.05765026
5	0xbcd5228c	-0.02601745
6	0x3e61e04d	0.2205822
7	0x3de2252d	0.11042247
8	0x3d4a8b9f	0.04944956
9	0x3def532c	0.11685786
10	0xbb89df25	-0.004207509
11	0xbdc7dded	-0.09759126
12	0xbddb47fd	-0.1070709
13	0x3d9dbbb2	0.07701816
14	0x3c4945df	0.012284725
15	0xbe2b4e90	-0.16729188
16	0x3e24ba95	0.160868
17	0xbdd0864e	-0.101818666
18	0x3d0e36ec	0.034720346
19	0xbbe803f9	-0.0070805517
20	0xbc818d54	-0.01581446
21	0x3e4d6673	0.20058613
22	0xbd021c8c	-0.031765506
23	0xbeb9f5b2	-0.36320263
24	0x3dea07ce	0.1142727
25	0x3e35763a	0.17720881
26	0x3de58834	0.11207619
27	0x3df3a512	0.11896719
28	0x3e296a53	0.16544466
29	0xbd940553	-0.07227578
30	0x3d8f156a	0.06986506
31	0x3dc0db9c	0.09416887
32	0xbccf15e3	-0.025278991
33	0xbda6119f	-0.0810883
34	0xbcac4bc9	-0.02103223
35	0x3e14f462	0.1454635
36	0x3d393ce4	0.045224085
37	0xbda0a07f	-0.07843112
38	0xbddc840d	-0.10767374
39	0xbe162568	-0.14662707
40	0xbd8512f6	-0.06497757
41	0x3e03ab7c	0.12858385
42	0xbd1cf220	-0.038316846
43	0x3be5c40b	0.0070118955
44	0x3e11909c	0.1421532
45	0x3c082f04	0.008311991
46	0x3d5c723a	0.053819872
47	0xbd3320f0	-0.043732584
48	0x3e076ee2	0.13225892
49	0xbd04f8e1	-0.032463912
50	0xbe25271c	-0.161282
51	0x3d5ee1dc	0.054414615
52	0xbce3e3cd	-0.027818585
53	0x3d83fcac	0.06444678
54	0xbda0af1a	-0.07845898
55	0x3eae2a4d	0.34016648
56	0xb9870d30	-0.00025759032
57	0x3e1de7ae	0.1542041
58	0x3d0089e8	0.031381518
59	0xbe23e935	-0.1600693
60	0xbe0f496f	-0.13992856
61	0x3e04c996	0.12967524
62	0xbd8fb156	-0.07016246
63	0xbda3e7eb	-0.08003219
64	0xbe0055d5	-0.12532742
65	0x3beaaabb	0.007161466
66	0xbdc552e0	-0.09634948
67	0x3cbabe4a	0.022795815
68	0xbe3b30f8	-0.18280399
69	0x3db2f559	0.087382026
70	0x3dbcd873	0.09220972
71	0xbd25f0b3	-0.04051275
72	0xbe4226b0	-0.1896007
73	0x3d8017b6	0.062545225
74	0xbd5a8015	-0.053344805
75	0xbd4da6b6	-0.050207816
76	0xbd1c1d7a	-0.03811405
77	0xbe9ccb88	-0.30624032
78	0xbc2a6592	-0.010400193
79	0x3d78da46	0.060755037
80	0xbd1d2288	-0.03836301
81	0x3c8383b4	0.016054012
82	0x3d9d6a91	0.076863416
83	0xbe1db674	-0.15401632
84	0xbe7c4bed	-0.24638338
85	0x3e63af8b	0.22234933
86	0xbc1716c2	-0.0092217345
87	0x3c795671	0.015218363
88	0xbda73e73	-0.08166208
89	0xbde00c0b	-0.10939797
90	0xbd0b7a70	-0.034052312
91	0x3d5e3bce	0.054256253
92	0xbd8d4666	-0.06898193
93	0xbd8169bd	-0.06318996
94	0x3cee7459	0.029108213
95	0xbcec17b7	-0.028819902
96	0x3d2f3d41	0.042783026
97	0xbe52074b	-0.20510595
98	0x3d90acc9	0.07064206
99	0x3d005f99	0.03134117
100	0x3e5b7dfa	0.21434775
101	0xbddbcf80	-0.10732937
102	0xbd9ec154	-0.07751718
103	0xbd99cdbf	-0.07509946
104	0x3e183866	0.14865264
105	0x3d84a4af	0.064767234
106	0x37ef2c70	2.8511713e-05
107	0x3df1e558	0.11811322
108	0x3de7a8c3	0.113114856
109	0x3e1a7ef1	0.15087487
110	0x3e33ac43	0.17546181
111	0xbe2af8a4	-0.16696411
112	0x3cb18f6f	0.02167484
113	0xbd2083f4	-0.03918834
114	0xbd86035d	-0.0654361
115	0x3db1983a	0.08671613
116	0xbc9e0898	-0.019291207
117	0xbd6b4d71	-0.0574469
118	0xbdc89967	-0.09794884
119	0xbd4f7d5e	-0.05065667
120	0x3e61c92e	0.220494
121	0xbdf6c61b	-0.12049504
122	0xbc92f49d	-0.017938906
123	0xbc83777b	-0.016048184
124	0xbe601e86	-0.21886644
125	0x3e128750	0.1430943
126	0xbe1a8a72	-0.15091875
127	0x3d24d103	0.04023839
128	0xbe0b4c23	-0.13603263
129	0x3e079e16	0.13243899
130	0xbdf29ec7	-0.118466906
131	0x3db68f47	0.08914047
132	0x3d76b93e	0.060235254
133	0xbd70141a	-0.05861292
134	0x3d4ff0d2	0.050766774
135	0x3d42a65a	0.047521926
136	0xbdb82949	-0.089922495
137	0x3dcab7bb	0.09898325
138	0xbdc31f4b	-0.09527453
139	0x3c808efa	0.015693177
140	0x3d791b6c	0.060817167
141	0xbe5ad2ff	-0.21369551
142	0xbcf49928	-0.029858187
143	0x3cb517f0	0.02210614
144	0x3e716183	0.23572354
145	0xbe4025cf	-0.18764423
146	0x3b2e05e2	0.00265538
147	0x3d084534	0.033269122
148	0xbe8bffd7	-0.27343628
149	0xbb7db51f	-0.0038712693
150	0xbd369f86	-0.044585727
151	0x3dd47b10	0.10375035
152	0x3d6ac158	0.057313293
153	0xbd0ba923	-0.03409685
154	0x3e27044c	0.16310233
155	0xbe00749e	-0.12544486
156	0xbe138c45	-0.14408977
157	0x3d6748fb	0.056466084
158	0x3dfb07c4	0.122573406
159	0xbe24e29b	-0.16102068
160	0x3d425aba	0.047449805
161	0x3a09208c	0.0005230985
162	0x3d702ad3	0.05863459
163	0xbdf81a73	-0.1211442
164	0xbdd11934	-0.10209885
165	0x3b83b6fa	0.0040196152
166	0x3d6654f5	0.056233365
167	0x3dfec73d	0.124403454
168	0x3dc0dc3a	0.09417005
169	0x3c70eda1	0.014705093
170	0x3cd3a40f	0.025835065
171	0x3d8834e9	0.06650717
172	0xbbc3ce60	-0.0059755296
173	0x3d806bd7	0.06270569
174	0xbc9b993c	-0.018993966
175	0xbca836d2	-0.020533953
176	0xbd332e91	-0.04374558
177	0x3dc696c0	0.09696722
178	0x3e0e61e3	0.13904528
179	0xbc4f86f4	-0.012666453
180	0x3d11b0d6	0.035569035
181	0x3e6e94ec	0.23298997
182	0xbc7113d8	-0.014714204
183	0x3dfc64f3	0.12323942
184	0xbd51a8e4	-0.051186457
185	0xbdbf2384	-0.09332946
186	0x3e0ff9af	0.1406009
187	0x3e3e6d09	0.18596281
188	0x3ba5615b	0.005047006
189	0x3d3aefba	0.045638777
190	0xbe07996b	-0.13242118
191	0xbe04cece	-0.12969515
192	0x3d1702b9	0.03686783
193	0x3e0bc765	0.13650282
194	0xbe40934c	-0.1880619
195	0x3e24c311	0.16090037
196	0xbe01de9b	-0.12682573
197	0x3e469158	0.19391382
198	0x3c97e6f3	0.018542742
199	0x3e848427	0.25882074
200	0x3bce0e92	0.006288358
201	0xbe351a96	-0.17685923
202	0x3cc35853	0.023845827
203	0xbd8735eb	-0.06602081
204	0xbe0f0029	-0.13964905
205	0x3d2021f6	0.039094888
206	0xbe83080c	-0.25592077
207	0x3e31f226	0.17377529
208	0xbe2b247b	-0.16713135
209	0x3e78ecc1	0.24309064
210	0x3e133b8e	0.14378187
211	0xbdac0bb1	-0.084006675
212	0x3d467283	0.04844905
213	0x3e0ca44a	0.13734546
214	0x3e1bfac9	0.15232386
215	0x3d69838e	0.057010226
216	0xbe8c644d	-0.27420273
217	0x3d588cb3	0.052868556
218	0xbd166c0a	-0.036724128
219	0x3e9068a5	0.28204837
220	0xbda06048	-0.07830864
221	0xbe0344cc	-0.12819213
222	0x3e51b857	0.20480476
223	0x3d8aa88d	0.0677043
224	0xbd034552	-0.03204853
225	0x3d9e9514	0.07743278
226	0xbdf76534	-0.1207985
227	0xbd2d47a3	-0.042304646
228	0xbe289652	-0.16463593
229	0x3cb90306	0.02258445
230	0x3e0fea7e	0.14054295
231	0x3e557609	0.20845808
232	0xbd9ea8bb	-0.077470265
233	0xbdbd5d4a	-0.09246309
234	0xbe83c885	-0.25738922
235	0x3cb7b63b	0.022425761
236	0xbd773a67	-0.06035843
237	0x3cbac4a6	0.022798847
238	0xbe64d5ec	-0.2234723
239	0x3dd856cc	0.1056343
240	0xbe3b3605	-0.18282326
241	0xbcab6814	-0.020923652
242	0x3e44b161	0.1920829
243	0xbd9b8227	-0.07593184
244	0xbda3c847	-0.07997184
245	0x3e74c5ed	0.23903628
246	0x3c65111d	0.013981131
247	0x3df22118	0.118227184
248	0xbe2d1a2f	-0.1690452
249	0xbe15a7e4	-0.14614826
250	0x3e7a7cc6	0.2446166
251	0x3dd9e1a4	0.10638741
252	0x3db81c7c	0.08989808
253	0x3b96383f	0.004584342
254	0xbcc51d16	-0.02406172
255	0xbe0dd206	-0.13849649

transformer.layers.0.1.branch.4.bias f4 [8]
0	0x3d5e28c3	0.054238092
1	0x3d612266	0.054964446
2	0x3e812198	0.25220942
3	0xbe3a34da	-0.18184224
4	0xbd4c2c09	-0.049846683
5	0x3dc8ed7b	0.09810921
6	0x3e1f073b	0.15530102
7	0x3e35b913	0.17746381

transformer.layers.0.1.norm.gamma f4 [8]
0	0x3e0884f9	0.13331975
1	0x3dae5b11	0.08513463
2	0xbcacb09c	-0.021080308
3	0x3de706f2	0.112806216
4	0x3d79409a	0.060852624
5	0x3d2968fe	0.041359894
6	0x3e4a8a0c	0.19779223
7	0x3cbc13e0	0.022958696

transformer.layers.1.0.static_alpha f4 [4, 5]
0	0xbdcfa753	-0.101393364
1	0x3f800000	1.0
2	0x00000000	0.0
3	0x00000000	0.0
4	0x00000000	0.0
5	0xbdc2b3ad	-0.09506927
6	0x00000000	0.0
7	0x3f800000	1.0
8	0x00000000	0.0
9	0x00000000	0.0
10	0xbdd2e792	-0.10298075
11	0x00000000	0.0
12	0x00000000	0.0
13	0x3f800000	1.0
14	0x00000000	0.0
15	0x3f616226	0.8804039
16	0x00000000	0.0
17	0x00000000	0.0
18	0x00000000	0.0
19	0x3f800000	1.0

transformer.layers.1.0.dynamic_alpha_fn f4 [8, 5]
0	0x3dfc255a	0.12311812
1	0x00000000	0.0
2	0x00000000	0.0
3	0x00000000	0.0
4	0x00000000	0.0
5	0xbe06c565	-0.13161238
6	0x00000000	0.0
7	0x00000000	0.0
8	0x00000000	0.0
9	0x00000000	0.0
10	0x3d8414e3	0.06449296
11	0x00000000	0.0
12	0x00000000	0.0
13	0x00000000	0.0
14	0x00000000	0.0
15	0x3d552433	0.052036475
16	0x00000000	0.0
17	0x00000000	0.0
18	0x00000000	0.0
19	0x00000000	0.0
20	0x3d7e8222	0.062135823
21	0x00000000	0.0
22	0x00000000	0.0
23	0x00000000	0.0
24	0x00000000	0.0
25	0x3da6ace9	0.08138449
26	0x00000000	0.0
27	0x00000000	0.0
28	0x00000000	0.0
29	0x00000000	0.0
30	0x3deabb9e	0.114615664
31	0x00000000	0.0
32	0x00000000	0.0
33	0x00000000	0.0
34	0x00000000	0.0
35	0x3d5f53f8	0.05452344
36	0x00000000	0.0
37	0x00000000	0.0
38	0x00000000	0.0
39	0x00000000	0.0

transformer.layers.1.0.static_beta f4 [4]
0	0x3f7731fa	0.96560633
1	0x3f92e899	1.1477233
2	0x3f90abf0	1.1302471
3	0x3f7f5fef	0.9975576

transformer.layers.1.0.dynamic_beta_fn f4 [8]
0	0xbe61fba1	-0.22068645
1	0x3e973ed6	0.29540128
2	0xbe005200	-0.1253128
3	0x3e93b684	0.28850186
4	0xbdb97b5f	-0.09056734
5	0xbd6fccb4	-0.05854483
6	0x3d898e0f	0.06716549
7	0xbce28a01	-0.027653696

transformer.layers.1.0.branch.norm.weight f4 [8]
0	0x3fabf77e	1.3434904
1	0x3f813bfb	1.009643
2	0x3f915b0d	1.1355911
3	0x3f945513	1.1588463
4	0x3f7858cd	0.970105
5	0x3fadf2b7	1.3589696
6	0x3f9673ab	1.1754049
7	0x3f988680	1.1916046

transformer.layers.1.0.branch.norm.bias f4 [8]
0	0xbe594395	-0.21217187
1	0x3d57d44d	0.0526927
2	0x3daac7da	0.083389
3	0xbdad680e	-0.084671125
4	0x3d947d09	0.07250411
5	0xbe18a425	-0.14906366
6	0x3e292499	0.16517867
7	0x3da17602	0.07883836

transformer.layers.1.0.branch.to_qkv.weight f4 [192, 8]
0	0xbe0bddf6	-0.1365889
1	0xbcc57df8	-0.024107918
2	0xbef537cd	-0.47894135
3	0x3e9392f6	0.2882306
4	0x3e0f6a44	0.14005381
5	0x3d116dc8	0.035505086
6	0x3e7153b7	0.23567091
7	0x3e142bfa	0.144699
8	0x3f024992	0.5089351
9	0xbefe0212	-0.49610955
10	0x3f04edde	0.51925457
11	0xbecfb62f	-0.40568683
12	0x3da85713	0.08219733
13	0x3ea98449	0.33108738
14	0xbe087167	-0.1332451
15	0x3ec4d7a9	0.38445786
16	0xbe253557	-0.16133629
17	0x3dfe7696	0.12424962
18	0x3dd1926e	0.10233007
19	0x3e2785b6	0.163596
20	0x3e2bc233	0.167733
21	0x3db9711e	0.090547785
22	0xbea54af8	-0.3228376
23	0xbdbc5b82	-0.09197141
24	0xbbf79e8e	-0.007556743
25	0xbea700d7	-0.32617828
26	0x3e6997e1	0.22811843
27	0x3de1ea83	0.11031058
28	0xbc91aab0	-0.017781585
29	0x3e755f6e	0.23962185
30	0xbd9e984f	-0.07743894
31	0xbd507f62	-0.05090273
32	0x3e1fd5ef	0.15608953
33	0xbdacb0df	-0.08432173
34	0xbdf6cb7d	-0.12050531
35	0x3dcc877d	0.0998678
36	0x3d99629d	0.07489512
37	0x3e75d061	0.24005271
38	0xbe9c21ab	-0.30494437
39	0x3e96905e	0.29407018
40	0x3d32b27f	0.04362726
41	0x3e44a69e	0.19204184
42	0xbd9b20e2	-0.07574631
43	0xbd817bb7	-0.06322425
44	0x3e84d8e3	0.2594672
45	0x3ddc5117	0.10757654
46	0xbecce7da	-0.4002064
47	0x3e93e4fd	0.28885642
48	0xbe3b5da4	-0.1829744
49	0x3e81bbbc	0.25338542
50	0x3eb33110	0.3499837
51	0x3e7138dc	0.23556846
52	0xbdad83a5	-0.08472375
53	0xbf10ad93	-0.56514853
54	0xbe457065	-0.19281156
55	0xbec0672b	-0.3757871
56	0xbd24e284	-0.040255085
57	0x3daafdc7	0.083491854
58	0xbc5603eb	-0.013062458
59	0xbe5f0d69	-0.2178246
60	0x3e91ef23	0.2850276
61	0xbf1f073d	-0.6212042
62	0x3e53de24	0.20690209
63	0xbeb8fdf9	-0.36131266
64	0x3e10dc3f	0.14146517
65	0x3ddee979	0.10884375
66	0x3dee647b	0.11640259
67	0xbe9e098b	-0.30866656
68	0x3e63ae16	0.22234377
69	0x3d0e46f0	0.03473562
70	0xbd5185ef	-0.05115312
71	0xbe9bcb54	-0.30428565
72	0xbeaba16d	-0.33521596
73	0xbd2e7404	-0.04259111
74	0xbee7bc2b	-0.45260748
75	0x3d8acb94	0.06777111
76	0xbe1514d6	-0.1455873
77	0x3e0024f4	0.12514096
78	0x3eaaaa9a	0.33333284
79	0x3e2b22cd	0.16712494
80	0xbe2f61d6	-0.17127165
81	0x3e6f50ab	0.23370616
82	0x3dda9a4e	0.106739625
83	0x3dff5a39	0.124683805
84	0x3e8c052b	0.27347693
85	0xbf066641	-0.5249978
86	0x3e3d081d	0.18460126
87	0x3d93e3b4	0.07221165
88	0xbb35e851	-0.002775688
89	0xbc1a9781	-0.009435535
90	0x3dc89662	0.09794308
91	0x3e9a7dd7	0.30174133
92	0xbe324c57	-0.17411934
93	0xbe58ad79	-0.21159925
94	0x3ef166d1	0.47148755
95	0xbdcc620f	-0.09979641
96	0xbd7a7d73	-0.061154794
97	0xbe85cce1	-0.26132873
98	0x3dca16e4	0.09867647
99	0xbe91b0d0	-0.2845521
100	0x3d9c0797	0.07618635
101	0x3da36ebe	0.07980107
102	0xbe0dc023	-0.13842826
103	0x3c7bee98	0.015376709
104	0x3dee4d4c	0.11635837
105	0xbea23321	-0.31679633
106	0x3ceb0ef6	0.028693657
107	0x3e931f27	0.28734705
108	0x3e96857e	0.2939872
109	0x3ea9d926	0.33173484
110	0x3d9412b4	0.0723013
111	0x3e6a583d	0.22885223
112	0xbe1cf513	-0.15327863
113	0x3e6756c9	0.225917
114	0xbd338227	-0.043825295
115	0x3cc2c3bf	0.02377498
116	0xbd9e7dcd	-0.07738838
117	0x3ead297b	0.3382071
118	0x3e192941	0.14957143
119	0xbd88093e	-0.06642388
120	0xbed0b56c	-0.40763414
121	0x3d985311	0.07437719
122	0xbddc4f12	-0.10757269
123	0xbe727d42	-0.23680595
124	0x3e072124	0.13196236
125	0xbd7195f8	-0.058980912
126	0x3f21c8c8	0.6319699
127	0xbc5e68d2	-0.013574796
128	0xbea4efb8	-0.3221414
129	0x3ed2f7ef	0.41204783
130	0xbe55f8c6	-0.20895681
131	0x3dc73cb4	0.09728375
132	0xbe85aec7	-0.26109907
133	0xbe9c4bd9	-0.30526617
134	0x3d503d26	0.050839566
135	0x3d0c2a1b	0.034219842
136	0xbe5777cf	-0.21041797
137	0xbe2a6e25	-0.1664358
138	0xbd0c4508	-0.03424552
139	0xbcb237ef	-0.021755187
140	0x3e61a9f8	0.22037494
141	0xbe49c659	-0.1970457
142	0x3e4e1297	0.20124279
143	0x3e7549fa	0.23954001
144	0xbe685772	-0.22689608
145	0x3e8f488e	0.27985042
146	0x3ea5ed74	0.32407725
147	0xbe600b8b	-0.21879403
148	0xbe325929	-0.17416824
149	0xbdad2ae8	-0.08455449
150	0x3e3b3fa9	0.18286003
151	0x3df0106d	0.11721883
152	0x3e842239	0.2580736
153	0x3e782b08	0.24235165
154	0x3eb0ad9f	0.34507462
155	0x3e785098	0.24249494
156	0xbe28444a	-0.164323
157	0x3dee8329	0.116461106
158	0xbe779587	-0.24178134
159	0xbde3deef	-0.111265056
160	0xbdc41ec4	-0.095761806
161	0x3e826883	0.2547036
162	0xbe94d655	-0.29069772
163	0x3ecd3ff2	0.4008785
164	0xbdee421c	-0.11633703
165	0xbe74aef6	-0.23894867
166	0x3e44e77c	0.1922893
167	0x3e658b63	0.22416453
168	0xbe971cfa	-0.29514295
169	0xbe1ebfc7	-0.15502845
170	0xbe870de0	-0.26377773
171	0x3ec26f34	0.37975466
172	0x3e0adb2a	0.13560167
173	0xbde13ae9	-0.10997564
174	0xbeb199b8	-0.3468759
175	0x3eb21c88	0.34787393
176	0x3debf4be	0.1152129
177	0x3dd1e42d	0.10248599
178	0x3e129ad3	0.14316873
179	0x3ec4997e	0.38398355
180	0x3db86be5	0.09004954
181	0x3e8a3fe0	0.27001858
182	0xbeb55176	-0.35413712
183	0xbe0285b1	-0.12746312
184	0x3d96c9a7	0.07362681
185	0x3d801d45	0.06255583
186	0x3d35f811	0.044426028
187	0xbe7f16c5	-0.2491103
188	0xbdab375c	-0.08360168
189	0x3e94e421	0.290803
190	0xbf063be2	-0.52435124
191	0x3e8ba1e1	0.2727194
192	0xbdf1a7f5	-0.117996134
193	0xbe0e24d3	-0.13881235
194	0x3e337a15	0.1752704
195	0xbe167a77	-0.14695154
196	0xbde566c0	-0.11201239
197	0x3eb9d04f	0.3629174
198	0xbeb8291f	-0.35968873
199	0x3e0e951b	0.13924067
200	0xbd451950	-0.048119843
201	0x3e097a4c	0.13425559
202	0xbc785bee	-0.0151586365
203	0xbda9a1b4	-0.082827955
204	0x3c8f1370	0.017465323
205	0xbe504b72	-0.2034128
206	0x3ea221f4	0.3166653
207	0x3e7a7687	0.24459277
208	0x3d47dfe4	0.048797503
209	0xb9a10b33	-0.00030716657
210	0x3dd0dff9	0.101989694
211	0x3e2294f3	0.15877132
212	0x3d2fb494	0.042896822
213	0xbe042c7b	-0.12907593
214	0x3f05b400	0.52227783
215	0xbe9bfeac	-0.30467737
216	0x3eb09db5	0.3449532
217	0x3e05772f	0.13033746
218	0x3e255ed7	0.1614946
219	0x3d6b2b74	0.057414487
220	0x3d3fa784	0.046790615
221	0xbe297d61	-0.16551735
222	0xbef6b47a	-0.48184568
223	0x3eaefc3a	0.3417681
224	0x3ea3ea67	0.32014772
225	0x3e152c07	0.14567576
226	0x3ea4c338	0.3218019
227	0xbce010fa	-0.027351845
228	0xbd68c4ff	-0.056828495
229	0xbede44be	-0.4341182
230	0x3e74b5d4	0.23897487
231	0xbd6ee7da	-0.05832658
232	0x3e85ca21	0.26130775
233	0x3e824b88	0.2544825
234	0x3eb69ae1	0.35665038
235	0x3e90ebd9	0.28304937
236	0xbe6defbf	-0.23235987
237	0xbd78a143	-0.060700666
238	0xbee561bb	-0.44801125
239	0x3e88132c	0.26577127
240	0xbeab66d4	-0.3347689
241	0x3e7ed48a	0.24885765
242	0xbe8a701e	-0.27038664
243	0x3d5902b6	0.0529811
244	0x3e2c27df	0.16812085
245	0xbe932d1d	-0.28745356
246	0xbe2877e4	-0.16451985
247	0xbd11ee6f	-0.03562778
248	0xbca219f4	-0.019787766
249	0xbebb31af	-0.36561343
250	0xbea48c2d	-0.32138196
251	0x3e9b41c7	0.30323622
252	0x3db9f77f	0.09080409
253	0x3e4d3414	0.20039397
254	0x3e82d00a	0.25549346
255	0x3e4fac03	0.20280461
