trained_models/physical_error_training/model_lr0.00025_8_1_4_4_.3_.3Errorbatch32_long_epoch6700.pt (torch, 96940 bytes, 87 tensors)

cls_token f4 [1, 1, 8]
00000000: e473 7c3c 448e 153f 4643 94bf 0531 283f
00000010: a074 fcbe 0145 50bf 8d6d 323e ce59 953f
0.01540849 0.58420205 -1.158303 0.656998 -0.49307728 -0.8135529 0.17424603 1.1668031

categorical_embeds.weight f4 [3, 8]
00000000: d81c a43f 8dd2 b33e 296a 2c40 3227 ce3f
00000010: f654 c8bf 15e0 bbbf 7065 1fbd e59e 82bf
00000020: 7aec 693f 1092 e33d d46a 373f 888b a53f
00000030: 075f 413e 925e 863f 4db5 53bf 1032 133f
00000040: 40f9 afbf 704a 4fbe 39a8 2f3f 2704 143d
00000050: f209 b73f 9c53 1d40 242b 16bf 3b62 a2be
1.2821302 0.35121575 2.6939795 1.6105711 -1.5650928 -1.467776 -0.038915098 -1.0204741
0.9137646 0.111118436 0.7164738 1.2933207 0.18883906 1.049761 -0.8269852 0.57498264
-1.374794 -0.2024324 0.6861606 0.036136772 1.429991 2.458228 -0.5865958 -0.3171557

numerical_embedder.weights f4 [8, 8]
00000000: e7aa 133f b112 31bf 0646 2c3f 5b22 293e
00000010: 321a 63bf 5c72 0340 ce32 0d3f 3f3e 04bb
00000020: 089c 3b3d 3ea1 40bf 81ab a8be c975 b93e
00000030: 2f19 c3bf 3b99 873e 8798 84bd f852 33bf
00000040: 1517 ee3c d7b9 9e3f a816 eabf 87b5 4c3f
00000050: 7a83 b33e 2dd2 7e3f 49e5 8abf 2cf4 33bf
00000060: fe60 e4bf 1d91 9e3f 054d 8ebf db4b 15c0
00000070: 6464 ad3d 3ecc f53d c7e0 58bd 8367 22bf
00000080: 0968 0dbf 20a6 88be a647 9dbe c937 903e
00000090: 97ca 1abf f81d 73bf 2bf3 dd3e 148e 673f
000000a0: 7d7a 80bf 3adb 4a3f 660b 96bf e060 da3f
000000b0: 353f 7f3f 5f3f 1d3f 5995 6dbf e0e2 81be
000000c0: d9e0 c03e 10c9 45bf f1bb 91bf a2dd 0440
000000d0: 8f02 873c 632a b33d b7e0 cabe dc38 b43f
000000e0: 2315 0fbf a602 5d3e 95f6 09bf b027 0e3f
000000f0: a718 9a3f f4be 8cbf 3d69 c13f 4a31 d2bd
0.5768265 -0.69169146 0.6729435 0.16517012 -0.88711846 2.053855 0.55155647 -0.0020178703
0.0458031 -0.75246036 -0.32943347 0.36222675 -1.524206 0.26484093 -0.06474405 -0.70048475
0.02906374 1.2400464 -1.8288164 0.7996449 0.35061246 0.9953945 -1.0851222 -0.7029445
-1.78421 1.2388035 -1.1117254 -2.3327549 0.084664136 0.12001847 -0.05294874 -0.63439196
-0.5523687 -0.26689243 -0.30718726 0.2816756 -0.6046538 -0.94967604 0.43349585 0.9045117
-1.003738 0.79240763 -1.1722229 1.7060814 0.9970582 0.6142482 -0.9280601 -0.25368404
0.37671545 -0.7725992 -1.138548 2.0760274 0.016480712 0.08748319 -0.3962457 1.4079852
-0.5589163 0.21583042 -0.5389188 0.5552931 1.2038773 -1.0995774 1.5110241 -0.102633074

numerical_embedder.biases f4 [8, 8]
00000000: 8f35 d2be f6b8 503f 9247 66bf 20e8 8dbe
00000010: bc35 d7be d34c 89bf 4777 c9be c266 f93e
00000020: b540 27c0 bf87 3dc0 7411 2f40 6a8d e7bf
00000030: 72c9 d5bf 3355 7dbf 4e45 ebbe 1924 403e
00000040: b948 8fbf 11c6 d53e d5de 733f 7e30 973f
00000050: 69fa ed3e b974 85bf 16d2 e73e 171a 08bf
00000060: a28b b2be bfe5 8bbd bd02 3bc0 c66f adbf
00000070: 4663 223e d1d6 7dbf 34e2 f63b 4032 0d3e
00000080: 7ac3 44bf fa01 053f 39eb a2bf 197c 9cbf
00000090: e052 56bf e8f3 dcbc 3cd9 773f 7273 3dbf
000000a0: fdd9 1b3f 7e2d d5be 3ff1 26bf 98a6 303e
000000b0: e44d e0bf a5aa 7cbd c120 043f 2d74 173f
000000c0: 00b5 6ebf 25c9 2abf e424 75bf f9ee b23f
000000d0: 1421 debe a4f7 993e f72a d0bf 0182 fa3e
000000e0: 657c 6f3f 9e94 533e bf1b 98bf b208 0abf
000000f0: 4831 04bf 1c84 53bf 988a bcbf 60d1 d8be
-0.41056487 0.8153223 -0.8995296 -0.2771616 -0.42033184 -1.072657 -0.39348814 0.4871121
-2.6133244 -2.9614103 2.7354403 -1.8090031 -1.6702101 -0.9895813 -0.45951313 0.1876377
-1.1194068 0.41752675 0.9526189 1.1811674 0.4648011 -1.0426246 0.4527747 -0.5316481
-0.34872156 -0.0683093 -2.9220421 -1.3549736 0.15858182 -0.9915591 0.0075342897 0.137887
-0.76860774 0.5195614 -1.2728034 -1.2225372 -0.8372021 -0.026971772 0.9681585 -0.7400428
0.608795 -0.4163627 -0.6521186 0.1725105 -1.752377 -0.061686177 0.5161248 0.59161645
-0.93244934 -0.6671317 -0.95759416 1.3979179 -0.43384612 0.30071747 -1.6263112 0.4892731
0.93549186 0.20662162 -1.1883467 -0.5391952 -0.516377 -0.8262346 -1.4729795 -0.4234724

transformer.layers.0.0.static_alpha f4 [4, 5]
00000000: 5ff4 da3d 0000 803f 0000 0000 0000 0000
00000010: 0000 0000 5ff4 da3d 0000 0000 0000 803f
00000020: 0000 0000 0000 0000 5ff4 da3d 0000 0000
00000030: 0000 0000 0000 803f 0000 0000 19af 8d3f
00000040: 0000 0000 0000 0000 0000 0000 0000 803f
0.10691141 1.0 0.0 0.0 0.0 0.10691141 0.0 1.0
0.0 0.0 0.10691141 0.0 0.0 1.0 0.0 1.106906
0.0 0.0 0.0 1.0

transformer.layers.0.0.dynamic_alpha_fn f4 [8, 5]
00000000: b3cb a1bd 0000 0000 0000 0000 0000 0000
00000010: 0000 0000 4679 e03d 0000 0000 0000 0000
00000020: 0000 0000 0000 0000 28ef 67bd 0000 0000
00000030: 0000 0000 0000 0000 0000 0000 6791 f33d
00000040: 0000 0000 0000 0000 0000 0000 0000 0000
00000050: da7c e6bd 0000 0000 0000 0000 0000 0000
00000060: 0000 0000 5280 f3bd 0000 0000 0000 0000
00000070: 0000 0000 0000 0000 fb07 c33d 0000 0000
00000080: 0000 0000 0000 0000 0000 0000 7024 dd3d
00000090: 0000 0000 0000 0000 0000 0000 0000 0000
-0.07900181 0.0 0.0 0.0 0.0 0.10960631 0.0 0.0
0.0 0.0 -0.05662456 0.0 0.0 0.0 0.0 0.11892968
0.0 0.0 0.0 0.0 -0.11254282 0.0 0.0 0.0
0.0 -0.118897095 0.0 0.0 0.0 0.0 0.095230065 0.0
0.0 0.0 0.0 0.107979655 0.0 0.0 0.0 0.0

transformer.layers.0.0.static_beta f4 [4]
00000000: 2a0f 833f a96d 773f b30a 8a3f 5502 693f
1.0239003 0.96651703 1.0784515 0.91019183

transformer.layers.0.0.dynamic_beta_fn f4 [8]
00000000: 5384 cfbe 65eb 8dbd 94c7 953d f524 4abe
00000010: 57b5 f43d f509 0c3e 2174 27be a014 76be
-0.40530643 -0.069296636 0.07313457 -0.1974066 0.1194865 0.13675673 -0.16352893 -0.24031305

transformer.layers.0.0.branch.norm.weight f4 [8]
00000000: 85b8 8a3f f9bc 723f 38ea 903f 499d 8d3f
00000010: 7136 8a3f 814b 863f 35bc 7a3f f03d 8e3f
1.0837561 0.948196 1.1321478 1.1063625 1.0797864 1.0491792 0.9794343 1.1112652

transformer.layers.0.0.branch.norm.bias f4 [8]
00000000: a541 2cbd 6a1f 083e a32b dbbd 1ea2 993d
00000010: c160 3bbe 3e88 5a3d c98b b2bb 44ad dc3c
-0.04205479 0.13293234 -0.107016824 0.075016245 -0.18298627 0.053352587 -0.0054487926 0.026938088

transformer.layers.0.0.branch.to_qkv.weight f4 [192, 8]
00000000: 94b4 69be 9f22 e03e 5c5e 98be d036 cabd
00000010: 1432 193d d337 48be c66c 72be d63d de3e
00000020: 112b 9bbb 8302 373e f634 79be 9bb9 b03d
00000030: b478 8e3e 0183 5fbe e108 1abe a74d 873e
00000040: 7fb8 27bf 228a f63c 279b 63be 8ae9 e9be
00000050: 8ca4 0fbc ef16 6aba 4af7 7dbe 89a6 5ebe
00000060: 3cb3 653e a27b c4be 178d 3fbe 9306 b5bd
00000070: 76e4 03bf d574 65be e2de 0e3e a432 7d3e
00000080: eee4 11bf 8120 4bbd 825e 4e3e 07bd a4bd
00000090: f7b2 713d 3a66 a03e 9c1c 7b3e 6a7a 89be
000000a0: d3d8 a33d 30a2 023d a275 6cbe e13d dabd
000000b0: 91db 7c3d 3ab5 693e 6feb a43d ccf8 793e
000000c0: 4fb0 46be e6a4 2d3e 229b 2fbc d467 973d
000000d0: 3dbe d03e 3437 61be c2d9 6cbe d543 03bc
000000e0: 8d9e b1bc 16eb 8d3e e9a9 c3be b9bc 33be
000000f0: 1ed9 ea3c 257b a8be 2f57 823c ee81 953d
00000100: 02d8 b0be 79d5 97be 3973 b73d 81e8 d63b
00000110: 27d6 33be a069 553e 656b 1bbe 7388 bdbe
00000120: 1382 14bc 86c8 9dbe ded5 1c3d 4684 e0bd
00000130: dab5 d33e 598f 40be fc32 d23e 0f73 8ebd
00000140: 4557 8cbe 3d63 403e d023 afbd 7c7a 44be
00000150: efa6 593e 1b89 5b3e 6927 8abe a702 74bd
00000160: 64f6 d8be 9993 aabd 19a2 b23d 2317 86be
00000170: 910b e9bd 7e49 24be 9a74 ad3d ce0d 1dbd
00000180: f391 35bc df22 6abd b1e2 aa3e b4b6 ee3d
00000190: 5426 7dbe 89d4 ab3e df36 26be fd02 32be
000001a0: 68a2 723e 927e a7be 7e5d 1b3e 5276 95be
000001b0: 8519 37be 2347 61bd b484 a2be 3136 a7bb
000001c0: 81aa e6bd b983 60be 8766 9dbd 613a 53bd
000001d0: 1311 a8be 2851 a9be c2ae fc3d bb3f 303e
000001e0: efd4 c83e 1fda 183e 1bcf 783d a315 ed3c
000001f0: 847f 3b3d 16f0 c6be 282f b93e 6a12 a53d
00000200: 1a92 e23e de74 c5be d273 a1be 3c79 d0bd
00000210: 90d2 91bc 69d5 d5be ad30 8abe b87a e53e
00000220: bd7e 053f d5b6 0e3e 96cc 603e c538 a93e
00000230: b88e bbbe 15f8 863e 6a71 aebe 44e4 4e3e
00000240: 20c4 0f3f 5576 d1bd 2218 2bbe b386 0f3d
00000250: 5a85 533d d3fe 26be fee9 8e3e ba67 dabd
00000260: 28c1 49bd 8946 77bd 7b07 cbbe d7b2 773e
00000270: d985 10bd 0445 8dbe 4189 9bbc 9503 6dbe
00000280: 1c00 04bf ef90 5dbd 9c71 0f3e 58bc e13a
00000290: 7b4d 863e 1755 81bc 191e ecbd c97a 0ebe
000002a0: 4d4d 193d 16ff 833d 732c 333e 0321 59be
000002b0: 5ca0 a03e f1fd 6c3e d4cf 753e 4133 863d
000002c0: 9336 33be 5091 7c3e 5049 8cbd 80ac 393e
000002d0: 71d2 8d3d 0eac b4bb 7b2d c43c eca4 93bd
000002e0: 8409 d4be f499 9f3e 5045 253e 4523 b1be
000002f0: d47e 673e 8825 223e c40b 9ebe 07a7 2bbe
00000300: d5b7 783e b81d 003e 181b b33d 606c 28bd
00000310: 37b6 d5be f2b6 5e3d 6972 123d 1ac8 893d
00000320: 931d 683d 801d 143d 4269 d4bd 9765 b93d
00000330: e328 973e e7bd cabc a82d b3be 4977 0c3c
00000340: ddd7 873e 56de 453e 0702 7db9 db72 25bd
00000350: 62c1 debd e76c 09be cf7c 6cbe 6cb9 63bd
00000360: d189 20be 963e 573e 4031 c63d aa4a ef3d
00000370: 21b2 5d3e 7419 963e 9314 86be e4ef 693e
00000380: cea5 ec3e 6784 093d af1c 8cbe b4a5 9f3e
00000390: 905f 68be 215e 0bbe 4570 323e 61c7 8cbd
000003a0: 79ee b93e 1b08 ccbe ba57 b2be bcc7 81be
000003b0: 77b4 b6be d4a6 f03d 9200 07be c44f 653d
000003c0: 00cc 9cbe 6b90 9c3e 52d5 883e f030 12be
000003d0: b4ed 8f3d 5768 a5bd 59c0 8bbe 4945 633e
000003e0: 2d90 b7be 302e 06be b7f1 503d dea7 653e
000003f0: bab3 8a3e 1d4a 9c3e 2f53 9a3e 1615 1f3e
-0.22822791 0.43776414 -0.2975949 -0.09873736 0.037401274 -0.19552545 -0.23674306 0.43406552
-0.0047353585 0.17872052 -0.24336609 0.086291514 0.27826464 -0.21827318 -0.1504245 0.26426432
-0.65515894 0.030095164 -0.22227155 -0.4568599 -0.008767258 -0.0008929809 -0.24801365 -0.21743216
0.22431654 -0.38375574 -0.18706165 -0.088391446 -0.5152048 -0.22407849 0.1395221 0.24726349
-0.56989944 -0.049591545 0.2015324 -0.080438666 0.059008565 0.31327993 0.24522632 -0.26851207
0.0800034 0.031892955 -0.23091748 -0.10656334 0.061732832 0.22823039 0.08052718 0.24411315
-0.19403194 0.16957435 -0.010718139 0.073928505 0.4077014 -0.21993715 -0.23129943 -0.008011778
-0.021682048 0.2771842 -0.3821557 -0.1755246 0.028667983 -0.32906452 0.015910713 0.07300173
-0.345398 -0.29655054 0.08957524 0.0065584783 -0.17562161 0.20841074 -0.15177687 -0.37018165
-0.009064215 -0.3081705 0.038289897 -0.10962729 0.4134968 -0.18804683 0.41054523 -0.069555394
-0.2741033 0.18787856 -0.085517526 -0.19187349 0.21255086 0.2143902 -0.26983193 -0.059572842
-0.4237548 -0.08328933 0.08722324 -0.26189527 -0.11379159 -0.1604366 0.084695056 -0.038343243
-0.01108216 -0.057162162 0.33376077 0.116559416 -0.24721652 0.3356059 -0.16231869 -0.17383952
0.23694766 -0.32713753 0.15172383 -0.29191834 -0.17880829 -0.054999482 -0.3174187 -0.0051028957
-0.1126299 -0.21925248 -0.07685571 -0.051569346 -0.32825527 -0.3306973 0.1233802 0.17211811
0.39224955 0.14926957 0.060744386 0.028940981 0.045775905 -0.38855046 0.3616879 0.08060153
0.44252092 -0.38565725 -0.31533676 -0.101793736 -0.0178006 -0.41764382 -0.26990262 0.4482019
0.5214651 0.13936932 0.21953043 0.33051124 -0.36632323 0.26361147 -0.34070903 0.20204264
0.5615864 -0.10227648 -0.16708425 0.03504057 0.051640846 -0.16308145 0.27912897 -0.106643155
-0.049256474 -0.060370002 -0.39654145 0.24189316 -0.035283897 -0.27591717 -0.018986346 -0.23145898
-0.51562667 -0.054093298 0.14008182 0.0017222269 0.26230988 -0.015787644 -0.11529178 -0.13914026
0.037427235 0.06445138 0.17497425 -0.21203999 0.31372344 0.23143746 0.24005061 0.06552745
-0.17501287 0.24664807 -0.06849921 0.1813221 0.06924904 -0.0055136746 0.023947468 -0.07209191
-0.4141351 0.31172144 0.16139722 -0.3459722 0.22606975 0.1583463 -0.3086835 -0.16762935
0.24288876 0.12511337 0.08745402 -0.04111898 -0.4174058 0.05437369 0.03575364 0.067276195
0.05666883 0.036160946 -0.10371639 0.0905258 0.29523382 -0.024748756 -0.3499577 0.008573362
0.26531878 0.19323096 -0.00024128715 -0.040392738 -0.108767286 -0.13420449 -0.23094486 -0.055596754
-0.15677573 0.21019968 0.096773624 0.11684163 0.21649982 0.29316294 -0.26187572 0.22845417
0.4622025 0.033573534 -0.27365634 0.3118111 -0.22692704 -0.13610126 0.1742564 -0.06873966
0.36314753 -0.39849934 -0.34832555 -0.25347698 -0.3568456 0.1175057 -0.13183811 0.055984274
-0.3062439 0.30578932 0.2672525 -0.1427648 0.0702776 -0.08076542 -0.27295187 0.22194399
-0.35852185 -0.13103557 0.051011767 0.22427318 0.27090245 0.30525294 0.3014159 0.15535387

transformer.layers.0.0.branch.to_out.weight f4 [8, 64]
00000000: 0d57 163b 49d3 afbc f9e2 3b3d cbc4 14be
00000010: 7e13 c0bd c39e 82bd b44e 603c ce9e 02be
00000020: 68cf f2bc c2fa 2b3e 4b73 23bd 8b10 333d
00000030: 0101 c8bd 6004 a43b ca6d c93d ae46 acbd
00000040: 66a5 b7bd 0e85 45bd 5c21 ff3d 62e9 2b3d
00000050: 3e4f 553d 8a9c 903d e978 a83d 3e86 3b3d
00000060: 403f f9bd f3fc c43d c7bb 433d e42e 9c3d
00000070: e582 5e3c 2449 be3d 5688 22bd c75d 073d
00000080: bf15 2d3d f5d2 f33d c922 e63d f97a 9cbc
00000090: 32ac 6c3b 5995 993d e09e 613d 93a0 60bd
000000a0: ff69 c3bd 0d94 5f3b 0086 54bd 7ef8 9bbc
000000b0: 7fd2 dbbd e410 48bd f68c 81bd df2f 0fbe
000000c0: 94da f1bd 895b 72bc d3ee 1a3e 8e49 2fbd
000000d0: 9c44 a13d 087a e13d cea0 3dbd 2453 813d
000000e0: 6802 7e3d 2cea c5bc da3c b3bc 4d11 e5bd
000000f0: d43a 3cbd 080a 9ebc 2d24 333d 3737 bcbd
00000100: 2010 99be f107 75bd 84d1 e83d 8f77 2abe
00000110: 1a02 063d 5411 8bbd 43a1 1abd 136e e9bd
00000120: 80b6 253d d38e e43d f44c 8fbd 1e7e 2e3e
00000130: 5952 22bd dfd7 ce3d c34f 2cbc c0f4 85be
00000140: 3dc1 d4bd 689c f03d 69be 073e 1c75 cbbb
00000150: cf3d 023e 7044 2dbe fe23 543e 22a2 0dbe
00000160: b6ac 55be f48e 473e 0229 2e3e 9d21 06be
00000170: 2a1c ee3d 484d 2d3e 3414 693d 42a3 41be
00000180: e9cd a43c 455e 3dbd fd41 c93d ae19 ff3c
00000190: b8b8 053d cbf5 063e bcb6 2c3e a845 88bd
000001a0: 693b cdbd 43cd 8a3d 241a 30be ad81 293e
000001b0: 6a9f c23d a016 6d3c 3896 433e b524 d3bd
000001c0: b1c7 c0bc ae36 3bbe 71e8 95bc c703 3f3c
000001d0: b325 31bb 6262 3b3d 2e92 ebbc 74ae 213e
000001e0: e0b6 3fbe 596f 43bd a81c b53d e259 0ebe
000001f0: 23e2 e43d 2a07 133e 9e15 1bbe 587b 10be
00000200: aa1e 36be d142 2bbc ab62 f3ba bb4b d63d
00000210: 327c 303e 85ac 033d 8e8b 1ebd d283 cd3d
00000220: d395 cfbd 6943 9ebd 7436 bc3c 7eb4 e03d
00000230: 4e08 dabd 2680 45be 7af9 46bb f6ac 353d
00000240: 1ab0 ccbd 8760 013b 06d1 1cbc b29d c13b
00000250: e844 ea3c fc30 d7bd b0cf 38bd 9450 21be
00000260: 917b fabc 37cb 783b d24f 163d e580 b1bd
00000270: 2b70 2e3e 336d 5b3b 2e95 cebd 9741 a2bd
00000280: 804f dc3c 4e8f 293c a540 f9bd 44a2 f53d
00000290: aeb5 45be 9321 b4bd 23d6 843d f55c 8ebd
000002a0: 0c98 6b3c d410 533e ce36 893d 71e9 ff3d
000002b0: 6cee b43d 40fa 9d3c 545d bc3d ea6a 0c3d
000002c0: 2d2a af3d 7149 8fbd ab87 a8bd c016 a23d
000002d0: a3e7 c33c 985f f93c 8fd8 2c3e ca9a 4cbd
000002e0: a4d0 8f3d 811b 71bd 8e64 5d3d b729 e6bb
000002f0: ad05 813a ca40 273c 1915 883c f1e1 18bc
00000300: d41b 043e 134a 693d 743b b738 fa9a 18be
00000310: c091 63be f8e3 d33d 4d05 803d 054b d5bc
00000320: 2c13 d9bd d418 a53d c34c 443e 43f9 fbbd
00000330: 11c6 5abd 8fe6 debd 8f4a 5d3c 9a8c c43d
00000340: aaaa dd3d 97e8 b13b 5bf9 f7bd 357b f2bd
00000350: 8ae4 103c 1ccc 253d 066f c7bd 5ee8 a13d
00000360: 84bb aebc f799 a8bc 349e 30bd 7789 413e
00000370: f779 c0bd 0800 a33d f720 43bd 85e7 553d
00000380: cde2 3dbd 00ae 79bc eebf 06bd bb7f 5f3c
00000390: 3fc3 273e ce5c a83d c3eb 19be 2394 1f3e
000003a0: e37c 99bd e9b8 80bd cdd9 8b3d 9e81 2ebd
000003b0: d425 5bbd 1676 983d 6db7 debd 429c ae3d
000003c0: 8410 913d 1aaf f73d 6bed 813c 188f abbd
000003d0: 074c 22be fdb1 173c f541 013d 7356 833d
000003e0: 64f0 013d 159a a43d 96bc 35bd 439d 223d
000003f0: 92b1 863d 4ad2 77bc cacc a7bd cea0 a2bd
0.002294007 -0.021463053 0.045870755 -0.14528196 -0.09378718 -0.06377938 0.013690639 -0.12755892
-0.029639915 0.16794875 -0.039904874 0.04371695 -0.097658165 0.0050054044 0.09835394 -0.084119186
-0.08967094 -0.048222594 0.12457535 0.041970618 0.052077524 0.070611075 0.08226187 0.04578232
-0.12170267 0.09618559 0.0477865 0.07626131 0.013581012 0.09291294 -0.0396808 0.033048417
0.042257067 0.11905471 0.112371035 -0.019101607 0.0036113379 0.07499189 0.055083156 -0.054840636
-0.095417015 0.0034115345 -0.051885605 -0.019039389 -0.10733508 -0.048844233 -0.06325714 -0.13983105
-0.118092686 -0.0147923315 0.15130167 -0.042794757 0.07874414 0.11009604 -0.046295933 0.06314686
0.062014014 -0.024159513 -0.021879602 -0.111849405 -0.04595454 -0.019291893 0.04373567 -0.09190219
-0.29895115 -0.059822027 0.11368087 -0.1664717 0.032716848 -0.067904145 -0.037751447 -0.11397948
0.04045725 0.11160054 -0.069970995 0.17040297 -0.039629314 0.10099768 -0.010517064 -0.26163292
-0.1038842 0.11748582 0.1325623 -0.006209029 0.1271889 -0.16920638 0.20716855 -0.1383138
-0.20866665 0.19488126 0.1700783 -0.1309876 0.116264656 0.16924012 0.056904033 -0.18909934
0.020117717 -0.04623248 0.098270394 0.031140175 0.032646865 0.131797 0.16866583 -0.06653911
-0.10021097 0.06777432 -0.17197472 0.16553374 0.09503062 0.014470726 0.19100273 -0.10309736
-0.02353272 -0.18282577 -0.018299313 0.011658615 -0.0027030527 0.045748122 -0.028756227 0.15789205
-0.18722105 -0.04771361 0.08843356 -0.13901475 0.11175945 0.14358202 -0.15144965 -0.14109552
-0.17785135 -0.010452942 -0.0018568834 0.10463663 0.17234877 0.03214695 -0.03870731 0.10034908
-0.101359986 -0.07727701 0.022975184 0.10971926 -0.10646115 -0.19287166 -0.0030361102 0.0443544
-0.09994526 0.0019741373 -0.009571319 0.0059086913 0.02859731 -0.1050739 -0.04511994 -0.15753394
-0.0305765 0.0037962922 0.036697216 -0.08667163 0.17034976 0.0033481836 -0.100870475 -0.079226665
0.026893377 0.010349108 -0.12170533 0.1199384 -0.19307587 -0.08795466 0.06486156 -0.06951324
0.0143795125 0.20611888 0.06699906 0.12495697 0.08834538 0.019284368 0.091974884 0.03428165
0.08552966 -0.0699643 -0.082290016 0.079144955 0.023914164 0.03044109 0.16879486 -0.049952306
0.07022217 -0.05886412 0.054050975 -0.0070240158 0.000984361 0.010208318 0.016611623 -0.009331212
0.1290124 0.05695541 8.737194e-05 -0.14902869 -0.22223568 0.10346216 0.06251011 -0.026036749
-0.1059936 0.08061376 0.19169907 -0.12303402 -0.053411547 -0.10883819 0.013506546 0.0959713
0.10823567 0.005429338 -0.12108108 -0.11839906 0.00884355 0.040477857 -0.09737973 0.07905649
-0.021329649 -0.020581229 -0.043119624 0.18900095 -0.09398263 0.0795899 -0.04763886 0.052222747
-0.046358872 -0.015239239 -0.032897882 0.013641293 0.16383074 0.08220826 -0.15031342 0.15583853
-0.074945234 -0.06285269 0.068286516 -0.04260408 -0.053502873 0.07444398 -0.108748294 0.085258976
0.07083228 0.12093945 0.01586028 -0.08376902 -0.15849315 0.009258744 0.031557042 0.06412973
0.031723395 0.08037201 -0.044369303 0.039700758 0.065768376 -0.01512582 -0.08193357 -0.07940827

transformer.layers.0.0.norm.gamma f4 [8]
00000000: b50e 013f 0223 8c3d 788a 5d3d 0086 483e
00000010: 7295 173e 8219 0f3e c66d 4e3e e547 7b3e
0.50413066 0.06842615 0.054087132 0.19582367 0.14803103 0.13974574 0.20159063 0.24539144

transformer.layers.0.1.static_alpha f4 [4, 5]
00000000: be52 603f 0000 803f 0000 0000 0000 0000
00000010: 0000 0000 50d0 d33b 0000 0000 0000 803f
00000020: 0000 0000 0000 0000 b5f1 64bd 0000 0000
00000030: 0000 0000 0000 803f 0000 0000 e769 f5bd
00000040: 0000 0000 0000 0000 0000 0000 0000 803f
0.87626255 1.0 0.0 0.0 0.0 0.006464042 0.0 1.0
0.0 0.0 -0.055894572 0.0 0.0 1.0 0.0 -0.1198309
0.0 0.0 0.0 1.0

transformer.layers.0.1.dynamic_alpha_fn f4 [8, 5]
00000000: 81ce 343d 0000 0000 0000 0000 0000 0000
00000010: 0000 0000 bf03 2b3e 0000 0000 0000 0000
00000020: 0000 0000 0000 0000 523a 30bd 0000 0000
00000030: 0000 0000 0000 0000 0000 0000 cd17 66be
00000040: 0000 0000 0000 0000 0000 0000 0000 0000
00000050: 87f7 183e 0000 0000 0000 0000 0000 0000
00000060: 0000 0000 8e42 ca3d 0000 0000 0000 0000
00000070: 0000 0000 0000 0000 50b0 28be 0000 0000
00000080: 0000 0000 0000 0000 0000 0000 613c a9bd
00000090: 0000 0000 0000 0000 0000 0000 0000 0000
0.04414225 0.0 0.0 0.0 0.0 0.16700648 0.0 0.0
0.0 0.0 -0.04302437 0.0 0.0 0.0 0.0 -0.22470017
0.0 0.0 0.0 0.0 0.14938174 0.0 0.0 0.0
0.0 0.098759755 0.0 0.0 0.0 0.0 -0.16473508 0.0
0.0 0.0 0.0 -0.082634695 0.0 0.0 0.0 0.0

transformer.layers.0.1.static_beta f4 [4]
00000000: 949e 833f 7328 7b3f 625b 7c3f bfde 723f
1.0282769 0.98108596 0.9857694 0.94871134

transformer.layers.0.1.dynamic_beta_fn f4 [8]
00000000: c682 acbd d4ac e53c 4379 10be f782 5dbe
00000010: 9015 3f3e f80f 4ebd 56fa 73bd 8263 5bbe
-0.084233806 0.028036512 -0.14108758 -0.2163199 0.18660569 -0.050308198 -0.05956491 -0.21424678

transformer.layers.0.1.branch.0.weight f4 [8]
00000000: f1ad 9a3f e6d5 8b3f 8deb 893f 31a9 8d3f
00000010: 7329 983f 10d1 993f 23cd 883f 94c3 4a3f
1.2084333 1.0924652 1.0775009 1.1067258 1.1887649 1.2016926 1.0687603 0.7920468

transformer.layers.0.1.branch.0.bias f4 [8]
00000000: f889 22be fa03 b13c 2a3e 9ebd a77b dfbd
00000010: 3e96 a13d ab73 b43c cc70 f9bc df84 2cbe
-0.15872943 0.021608341 -0.077267006 -0.10912257 0.078899845 0.022027811 -0.030449294 -0.16847561

transformer.layers.0.1.branch.1.weight f4 [64, 8]
00000000: 0c4d a2bd 61db 9abe de98 a03e 8b21 b53e
00000010: 4b55 373e d1e7 fbba 5233 353e fd6d 79be
00000020: 2d0c 6f3e 8c1f ecbc a2e8 e03d aa55 da3e
00000030: 058f c0be 0cdb 52be f0ed 073e 1c2c a33e
00000040: e544 54be 5c4f d03e d615 80be 50ce aa3d
00000050: 8173 f6bd 142d 62be c9f3 b2be dc55 9f3e
00000060: c9ed 83bd 6006 0dbd 55d7 893e 7ffe 23be
00000070: 1945 923c 4cc2 e83e 754f 8f3e 8d8a 89be
00000080: ee49 a03d 51ce 8e3d cf7d 663e d0e0 da3e
00000090: e960 d7be ad17 173e f14c 7cbe d240 bebd
000000a0: e70b e1be c28e 1abc 900f 94be 8505 c7be
000000b0: 9c1d 98be 6876 af3e e65b 31bd 82db 3f3e
000000c0: be03 b5be 0fea 173d af56 f7bd aebd 31be
000000d0: a050 f63e 95f4 be3d a3a1 6d3d cd9e 89be
000000e0: 71be 0c3c c5b3 86be 5e39 003f 1b54 033e
000000f0: 7840 8dbe 9e2f 023e 2919 0abe c8be b3be
00000100: 7834 673e fd96 0bbd 7bb2 b53e b9a2 eabc
00000110: 249b 843e 725d 203e 86a7 b23e af1d a4bb
00000120: 828d 7b3e e7d7 5bbe 6459 8fbd b180 76be
00000130: ec53 81be 07b1 90be 0cab b3bd f9ec 9fbd
00000140: 7a5d 83bd 9a6f ba3e 743c 28be 1c31 b73d
00000150: b617 80be 37b6 b33e 63ec c1be fd3c 843e
00000160: 3440 c63e b40a b9bd af8a 523e f629 1f3e
00000170: cda6 e1be d5ea 12be 771b 00bd 7ab5 9d3e
00000180: 01e0 213e 6445 8fbe cdf7 573e f131 d9bc
00000190: 0c4f 7abe 916c 47be 0a7d 30bd e7fc 193e
000001a0: e203 10be 181b e13e 5fda 37bc 6a64 8ebe
000001b0: 9c4c 39be c102 63bd 3f17 1c3e adce 103e
000001c0: 14be f13d dcc4 91be 3d87 573d 0bbe e83d
000001d0: 7487 5c3e 5d73 2b3e 4afb febd c20a 2ebe
000001e0: e90b 8ebe 8da8 9bbe fc2e c5bd 906f b8bd
000001f0: 0402 b8be 84d6 c93d fbd9 373e 7a9c 60be
00000200: 95a4 cfbe f64e 72be 03cd 5abe 0563 28be
00000210: 201e d3bd 106d 9d3e 2afb 2fbe 258c e9bd
00000220: 74c7 fb3e 4494 04be e474 40bd d334 d33e
00000230: b387 acbe 8310 d7be e074 553e 8eb2 923e
00000240: 7950 29bd 25ba 683e 8cbf a93b c27b a7be
00000250: 2b23 3abe c9c7 8abe aa81 8fbe 0012 e2be
00000260: bf73 1dbf cf68 af3e 0a51 22be 0b6e 69be
00000270: f96d d73d c8d0 323d 2b2d 4b3d 19f8 a2be
00000280: c921 d73d 7b16 833e 7871 d43e 2690 833e
00000290: 6762 f23d b8cf 5ebd 362d 15be d070 843e
000002a0: eeac 2f3d bbe6 013e 7e69 023e 8414 c6be
000002b0: 6e16 763e 7ba9 b3be 33d4 be3e b499 9a3c
000002c0: 74f2 5c3d 10d9 20bd b9b7 963e 3963 df3c
000002d0: eb32 fbbe 0e6f a4bd 31c7 8cbe d55d 11bd
000002e0: 4813 db3e ac11 3e3c b680 343e cf42 9d3e
000002f0: 81a3 b4be dc26 6dbe a2ef 8abe 0717 583e
00000300: 6ecc f33d ea37 fe3c 7dac 143e fac6 6cbe
00000310: d86c 953e 3905 fc3d 007e f63e 6cda be3e
00000320: a706 683d fbb6 04bd 5fc8 803d 226d 4fbe
00000330: a51e 733e 2725 773d b019 91be 359c 153e
00000340: 4241 0f3e be29 50bb a899 d9be 5417 2b3e
00000350: 2a07 79bd e491 47be ddb6 35be 2ab6 893d
00000360: b407 82be bde6 59bd b435 1abe cd69 a73e
00000370: bc34 d6bd cf3f 1c3e 82f7 d2bd 587b 943e
00000380: 2ba4 dd3d 03c6 0ebd 2da6 4ebe 2dac 12be
00000390: 09dd f33e 4e83 f3bd 8afa 113e df50 21be
000003a0: a7dc 06be 209f 923d f367 e5be bd2f 593e
000003b0: 4546 e4bc c3f7 293d ebb1 46bd c25b c33e
000003c0: 93fb 41be 1f78 093e 365b 2a3e 1412 d2be
000003d0: 8e90 913e 1a18 18be 3a1d 82bd d265 c4be
000003e0: e62f b2be a3db cf3e 642b 6b3b b8e6 79be
000003f0: e2b4 043d 7244 e53e b877 07bd cbdd 183e
-0.07924852 -0.30245498 0.31366628 0.35377154 0.1790363 -0.0019218867 0.17695358 -0.24358363
0.23344488 -0.028823636 0.10981871 0.42643481 -0.37609115 -0.20591372 0.1327436 0.3186959
-0.20729406 0.40685546 -0.2501666 0.08340132 -0.12033749 -0.22087508 -0.34951618 0.31120193
-0.06441838 -0.034429908 0.26922098 -0.16015051 0.017855214 0.45460737 0.27990308 -0.26863518
0.07826601 0.069729455 0.2250893 0.42749643 -0.42066124 0.14755125 -0.24638726 -0.09289707
-0.43954393 -0.00943345 -0.28918123 -0.388714 -0.2971009 0.34270024 -0.04330053 0.1873608
-0.35354418 0.03708845 -0.120770805 -0.17357513 0.48108387 0.09323994 0.058015477 -0.26878968
0.008590327 -0.26309028 0.50087535 0.12825052 -0.27588248 0.12713477 -0.1348616 -0.35106492
0.22578609 -0.03407954 0.35487732 -0.028642045 0.25899613 0.15660647 0.34893435 -0.0050084214
0.245657 -0.21469079 -0.06999472 -0.2407253 -0.2525934 -0.2826006 -0.08772859 -0.07808871
-0.064143136 0.3641327 -0.16429311 0.08944914 -0.2501809 0.35099956 -0.3787566 0.2582778
0.38720858 -0.090352446 0.20560716 0.1554335 -0.4407257 -0.14347394 -0.031276193 0.30802518
0.15808107 -0.27982628 0.21090622 -0.026513072 -0.24444216 -0.19475009 -0.043087997 0.15037881
-0.14063981 0.43965983 -0.011221497 -0.27810985 -0.1809563 -0.05542255 0.15243243 0.1414134
0.11803833 -0.28470504 0.052619208 0.11364373 0.21536046 0.16743226 -0.12450273 -0.16996291
-0.27743462 -0.30402032 -0.09628102 -0.09005654 -0.35939038 0.09855369 0.17954247 -0.21934691
-0.40555254 -0.23662934 -0.21367268 -0.16444023 -0.1030848 0.3074727 -0.17185655 -0.114036836
0.49175608 -0.12947184 -0.046986476 0.4125124 -0.3369728 -0.42004785 0.20845366 0.2865185
-0.04133651 0.22727259 0.005180305 -0.32711607 -0.18177478 -0.2710555 -0.28028613 -0.44154358
-0.6150474 0.3425965 -0.15851226 -0.22795884 0.105190225 0.04365614 0.049603622 -0.31829908
0.10504491 0.2560309 0.4149282 0.25695914 0.11835175 -0.054397315 -0.14568028 0.2586732
0.042889528 0.12685673 0.12735555 -0.38687527 0.24031994 -0.3509024 0.3727127 0.01887212
0.05394216 -0.039269507 0.29437044 0.027268993 -0.49062285 -0.080289945 -0.2749572 -0.035489876
0.42788148 0.011600893 0.17627224 0.30715033 -0.35280994 -0.23159355 -0.2713595 0.21102534
0.11904226 0.031032521 0.14518924 -0.23122779 0.29184604 0.12305684 0.48143005 0.37276018
0.05664697 -0.032401066 0.06288218 -0.20256475 0.23742159 0.060338166 -0.2833991 0.1461037
0.13989738 -0.0031763162 -0.42500043 0.16708118 -0.060797848 -0.19489247 -0.17745538 0.06724198
-0.25396502 -0.053198565 -0.15059549 0.32697907 -0.10459277 0.15258716 -0.103011146 0.29000354
0.10822328 -0.034856807 -0.20180579 -0.14323492 0.47629574 -0.11890279 0.1425573 -0.15753506
-0.1317011 0.07159257 -0.4480587 0.21209617 -0.027865538 0.04149605 -0.04850952 0.38155943
-0.18943624 0.13424729 0.16636357 -0.41029418 0.284306 -0.14852944 -0.06353231 -0.38358933
-0.3480217 0.40597257 0.0035884017 -0.24404418 0.032399066 0.44778782 -0.033073157 0.14928357

transformer.layers.0.1.branch.1.bias f4 [64]
00000000: d508 2bbe 0e62 04bd ea15 e0bc 2624 b6bd
00000010: e760 bbbd 64fc ca3e 8cdf 64be e64c 163e
00000020: 46f0 b2bd de8e 59be 2920 abbd f9b8 813e
00000030: ae10 3fbe 3d3e 39bd d6a6 da3d 72b4 9a3e
00000040: 28fb 983c 3a6c f63c 1e81 4e3e 9245 62be
00000050: e743 46be baa6 82bd 8368 57bd 943e f2be
00000060: 8ddc 833d 182e d0be 4af3 4a3e c9a9 0d3e
00000070: faa9 073e 8cdc 833d 0e56 943e 9ad6 653e
00000080: 0e54 5b3e 29ab 5d3e 2b5c 68be 1044 96bc
00000090: 5c27 4ebe 82cd 55be 41fe c43d 5f3f c03d
000000a0: 7dae b2be e908 8b3e 9e81 9c3d 580e ec3e
000000b0: 9d36 edbd 595d f03d 0e59 b8bc 81fc 913d
000000c0: 0991 80be 05b4 b23d 52b4 f5bc c8df af3d
000000d0: 3e70 2f3e c424 3e3e 6a04 b03e 7594 8b3d
000000e0: 0d20 863e 4b1b 94be 3fc5 5d3e 9da8 8e3e
000000f0: edb3 87be 5239 653e bc7b b2be f8c8 2abe
-0.16702588 -0.032320075 -0.0273542 -0.088936135 -0.09149342 0.39645684 -0.22350901 0.14677772
-0.08737235 -0.21245906 -0.083557434 0.25336435 -0.18658707 -0.04522537 0.10676353 0.30215794
0.018674448 0.030080903 0.20166442 -0.22096851 -0.1936184 -0.06379457 -0.052589905 -0.47313368
0.06438551 -0.40660167 0.1981937 0.13834299 0.13248435 0.0643855 0.28971905 0.22445145
0.21418783 0.21647324 -0.2269141 -0.018343002 -0.20132202 -0.20879176 0.096188076 0.09387087
-0.3489875 0.27155235 0.0764191 0.46104693 -0.11582682 0.11736555 -0.022503402 0.071282394
-0.25110653 0.08725742 -0.02999321 0.08587605 0.17132661 0.18568712 0.34378368 0.06815425
0.26196328 -0.28927073 0.21657275 0.27863017 -0.2650446 0.22385147 -0.34860027 -0.16678226

transformer.layers.0.1.branch.4.weight f4 [8, 32]
00000000: 438c 143e 575e 823d adfd 1b3e f95d 313b
00000010: f3c2 06be 9e72 993c 2887 a03d a138 ea3d
00000020: dc4e 70bc ee56 873d 75b0 cebd 4bd2 ed3c
00000030: d392 033e efad 723d 508d 9ebd bcc2 6c3c
00000040: e25d 8abd 5770 193d 1a63 e83a e835 03be
00000050: 3893 7d3d 625d 6f3e 4b3a 19be b487 843d
00000060: 91c7 d23c 9b28 343d a0c3 d63c 8790 ee3d
00000070: d5ae 073c 5f58 1a3e 5c4b 0f3e d818 89bd
00000080: de26 42bd 28c2 8d3e 4051 223e 12a4 adbd
00000090: d074 bebd aae9 0abe 34e4 cf3d fb63 d23d
000000a0: d7d9 abbd 46a4 3d3e 1580 8b3e 2086 473e
000000b0: 0560 4abe d854 c4bb 5ea5 0dbd 53ba 09be
000000c0: 73de 5dbe e9e5 263e b15c 303e 46cd 35be
000000d0: 5c16 15bd d7b7 0dbe 3dfb ad3d a39e 333e
000000e0: d33b 5d3c c799 80bd 8906 84bd f2ae 0e3e
000000f0: 15eb 453e 8a06 203e 8320 9e3e 1740 54be
00000100: a41d 103e a05b 8cbc f26c e33b b8df 7fbd
00000110: 31ec 6fbe 5dec 68be f665 c13c ac08 613e
00000120: 0101 b4bc d6f8 e8bd 9edd 123e 93db 9ebd
00000130: 7fa8 d03c 5928 e0bd 69a5 39be a09e 2bbe
00000140: 93a1 e73d 6e95 393e 7ca5 f3bd 1992 99bd
00000150: 459c 60bd e093 3e3e 8c0b ccbd 70e9 8f3d
00000160: 0b97 8a3e 947d 52bc 15c9 143e e5f7 3cbe
00000170: a89f 93bd c98a a6bd 696f ffbd 3884 6dbe
00000180: 4626 123d 2402 f5bd 9e60 0bbe 9ef9 5a3e
00000190: 4aab 78bd 1272 ae3d dc5c 29be 74b1 9fbc
000001a0: 8081 53bc 9ecb 0abe d0d7 173e 9e74 7abe
000001b0: 4980 e33d b7b8 2d3e 9ae4 ff3d f5e8 ad3d
000001c0: 50c2 633d 1eac 9a3d e4d1 7b3d 576f 5d3e
000001d0: 8b31 1dbe e542 3c3e 65f0 60be 2cda c9bd
000001e0: 93d4 38bd 0cdc 633e 1f41 3abd 115c 213c
000001f0: 0d03 08be 7111 62bd a550 8ebe 3141 083e
00000200: 2a01 693c 8335 4fbc ef99 e93d 3606 683d
00000210: 0524 933e 7c20 d0bd 0255 29bd 8058 e23d
00000220: fae0 bc3c 6282 a73d b014 473e 497e 823c
00000230: c828 65be 0748 8ebc e2ec 903b abc2 a23c
00000240: b9df 8abe f0de 28be becf 63bd 6ccb 10bb
00000250: 57b0 e1bc 6e4d 30be 4e9d 1d3e 30c2 54be
00000260: 7ca0 5e3d 055c 70be 4f7a 25be afe6 a2bc
00000270: 6a9c 973e ced0 d83d 1637 aa3d d38d 43bc
00000280: 0e14 1fbd f6df 9d3d 9e0d ce3a 4a0d 91be
00000290: 1a3c 853d e5aa 8abe 8bb8 2dbc 7c30 c03e
000002a0: bb1e 783e 322c a63c 8801 35be 94b1 b83d
000002b0: 99a6 8cbe 8a0d 05be 6862 f5bd fe8d 33be
000002c0: a2bf 22bd 0170 613d 5d3b 35be 23d9 63bd
000002d0: 7970 01bd b433 143d 9613 d2bc d66f 553e
000002e0: 5ba6 49bd 1611 85bd c5d6 bb3d 21cc 99be
000002f0: 0706 243e e16b 11be 5727 253d e8ed 16bd
00000300: 6da3 55be 41ea 5ebe ee10 7cbe 3e3e c93d
00000310: 17b8 3f3e 9b3e 3b3e d279 83be 92af 2abe
00000320: 58cc 183d 2380 43be 5a63 033e fb97 3dbe
00000330: bac1 6e3e 9768 893e 5697 233e 9a45 283c
00000340: 407d 173e 764a 07be b646 abbd 7ccf fa3d
00000350: c2f5 96be 4aa2 c3bd e9b2 79be ba72 77be
00000360: 311b 68be fa72 8f3d 3d77 0abd 530b d7bb
00000370: 5040 7dbd f414 9bbd 68a0 8bbe 012e b03e
00000380: 8aaa 1cbb c931 673d dc25 6abe ab9a a23d
00000390: 996d 503e 4fb5 f2bc 5ff9 2d3e 1975 cabd
000003a0: bcd9 95be f01d 3a3d 5f44 663d b3a4 6dbd
000003b0: a740 2d3e 6b69 db3c 3484 0d3e b1b3 173e
000003c0: 19b3 0ebe 386c 24bd 0165 f6bb 4ac2 8dbd
000003d0: 8a8a 5e3b 4c59 ed3c 40f9 8a3d 96ac 44bc
000003e0: 13ce af3d 019f 82bd ed5b 4cbe 03c7 183e
000003f0: c151 36bc 1819 a03e 7633 263e 63cc 33bd
0.1450663 0.0636565 0.15233488 0.0027064069 -0.13160305 0.018731412 0.07838279 0.11436582
-0.014667239 0.066083774 -0.1009225 0.02903094 0.12848978 0.059247907 -0.07741797 0.014450725
-0.06756188 0.03746065 0.001772973 -0.12813532 0.061907977 0.23375466 -0.14963643 0.06471196
0.025729926 0.043984037 0.026216328 0.1164866 0.008281429 0.15072773 0.13993591 -0.06694192
-0.047400348 0.27687192 0.15851307 -0.084785596 -0.09299624 -0.13565698 0.10150948 0.10272976
-0.08391159 0.18519697 0.27246156 0.19484758 -0.19763191 -0.0059915595 -0.034581535 -0.13449983
-0.21666889 0.16298641 0.17222859 -0.17754087 -0.036398277 -0.1383966 0.084951855 0.17540984
0.013503033 -0.06279331 -0.06446559 0.13933924 0.19327958 0.15627494 0.3088418 -0.20727573
0.14073807 -0.017133534 0.0069404775 -0.062469214 -0.23429944 -0.22746415 0.02360819 0.21975964
-0.021973135 -0.11375587 0.14342353 -0.07756724 0.02547097 -0.10945196 -0.18129505 -0.1675973
0.11310115 0.18123409 -0.11896798 -0.07498569 -0.05483653 0.18611097 -0.0996314 0.070269465
0.27068362 -0.012847323 0.14529832 -0.1845394 -0.072081864 -0.0813194 -0.12472422 -0.23194969
0.03568103 -0.11963299 -0.13611075 0.21384284 -0.06071023 0.08517851 -0.1653933 -0.019493796
-0.012909293 -0.13554236 0.1482842 -0.24458548 0.11108453 0.16964994 0.12494774 0.08491699
0.055605233 0.0755236 0.061479464 0.21624504 -0.1535093 0.18384893 -0.21966703 -0.09856066
-0.0451246 0.2225191 -0.04547226 0.0098486105 -0.13282414 -0.055192415 -0.27795902 0.13306119
0.014221469 -0.0126470355 0.11406314 0.05664655 0.28738418 -0.10162446 -0.041340835 0.11052036
0.023056496 0.081791654 0.19441485 0.015929358 -0.22378838 -0.01736833 0.00442277 0.019868216
-0.27123812 -0.16491294 -0.05561804 -0.0022093905 -0.027549906 -0.17217037 0.15392038 -0.20777202
0.05435227 -0.23472603 -0.16159938 -0.01988539 0.29611522 0.10586701 0.08311288 -0.011935669
-0.038837485 0.07708733 0.0015720611 -0.2833045 0.06505604 -0.27083507 -0.0106030805 0.3753699
0.24230473 0.020284746 -0.17676365 0.09018245 -0.27470854 -0.12993446 -0.1198166 -0.17534634
-0.039733537 0.055038456 -0.17698427 -0.055627 -0.031601403 0.03618212 -0.025644105 0.20843443
-0.049230915 -0.064973995 0.091718234 -0.3003855 0.16017924 -0.14201309 0.04032072 -0.03684798
-0.20863123 -0.21769048 -0.24615833 0.09826325 0.18722568 0.18285601 -0.2567888 -0.16668537
0.037304252 -0.19091849 0.12830868 -0.18515007 0.23316088 0.26837608 0.15975699 0.010270501
0.14793873 -0.13211998 -0.083630964 0.12246606 -0.29484373 -0.095524386 -0.24384655 -0.24164858
-0.22666623 0.07004352 -0.03380512 -0.0065626292 -0.06182891 -0.07572356 -0.27270818 0.34410098
-0.002390536 0.056443963 -0.22866005 0.07939657 0.20354308 -0.02962747 0.16989659 -0.09885616
-0.2926768 0.045438707 0.056217548 -0.058018398 0.16919194 0.026783666 0.13819963 0.1481464
-0.13935508 -0.040142268 -0.007519365 -0.06921823 0.0033957087 0.028973244 0.06785822 -0.012004038
0.085842274 -0.06377984 -0.19956942 0.14919667 -0.01112789 0.31269145 0.16230568 -0.04389609

transformer.layers.0.1.branch.4.bias f4 [8]
00000000: e035 3c3e 7579 9bbe 8f7f 3a3e efa5 36be
00000010: 7d1e abbe 3409 e5bd 59cf 1bbd ccd3 353e
0.18379927 -0.30366102 0.18212722 -0.17836736 -0.33421698 -0.11183396 -0.03803954 0.17756575

transformer.layers.0.1.norm.gamma f4 [8]
00000000: e02c 093e fb67 dd3d 5551 953e e6a3 9f3e
00000010: 9580 b53e 0014 963e f76c 9d3e 722f b13e
0.13396025 0.10810848 0.29163614 0.31179732 0.35449663 0.29312134 0.30747196 0.3460651

transformer.layers.1.0.static_alpha f4 [4, 5]
00000000: 2356 9b3e 0000 803f 0000 0000 0000 0000
00000010: 0000 0000 8a77 b73e 0000 0000 0000 803f
00000020: 0000 0000 0000 0000 2978 f2bc 0000 0000
00000030: 0000 0000 0000 803f 0000 0000 a90b 1a3f
00000040: 0000 0000 0000 0000 0000 0000 0000 803f
0.30339155 1.0 0.0 0.0 0.0 0.3583339 0.0 1.0
0.0 0.0 -0.029598312 0.0 0.0 1.0 0.0 0.6017404
0.0 0.0 0.0 1.0

transformer.layers.1.0.dynamic_alpha_fn f4 [8, 5]
00000000: b6c2 88be 0000 0000 0000 0000 0000 0000
00000010: 0000 0000 a106 49be 0000 0000 0000 0000
00000020: 0000 0000 0000 0000 60d0 f3be 0000 0000
00000030: 0000 0000 0000 0000 0000 0000 c807 263e
00000040: 0000 0000 0000 0000 0000 0000 0000 0000
00000050: 028e 66bd 0000 0000 0000 0000 0000 0000
00000060: 0000 0000 89ee 6abe 0000 0000 0000 0000
00000070: 0000 0000 0000 0000 1fa2 613d 0000 0000
00000080: 0000 0000 0000 0000 0000 0000 9554 903d
00000090: 0000 0000 0000 0000 0000 0000 0000 0000
-0.26711053 0.0 0.0 0.0 0.0 -0.19631435 0.0 0.0
0.0 0.0 -0.47619915 0.0 0.0 0.0 0.0 0.16213906
0.0 0.0 0.0 0.0 -0.056287773 0.0 0.0 0.0
0.0 -0.22942556 0.0 0.0 0.0 0.0 0.05508625 0.0
0.0 0.0 0.0 0.07047383 0.0 0.0 0.0 0.0

transformer.layers.1.0.static_beta f4 [4]
00000000: c499 703f 5078 613f 4eb0 a13f f1cf 523f
0.9398463 0.8807421 1.2631929 0.82348543

transformer.layers.1.0.dynamic_beta_fn f4 [8]
00000000: e69e 50bd 85fd 953e 831f 73bd d318 0fbe
00000010: 4389 843e 8da5 533e 15a4 6abe a2ba 28be
-0.050932787 0.29294983 -0.059356224 -0.13974313 0.25885972 0.20668621 -0.22914155 -0.16477445

transformer.layers.1.0.branch.norm.weight f4 [8]
00000000: fa77 853f 6d07 7f3f 4e50 873f b68c 683f
00000010: 5b6b 903f d7a8 8b3f 5759 8e3f 2f79 8e3f
1.0427239 0.99620706 1.0571382 0.9083971 1.1282762 1.0910901 1.1121014 1.1130732

transformer.layers.1.0.branch.norm.bias f4 [8]
00000000: 7162 f5bb f7d1 43bd 0b8d 95bd 7238 153c
00000010: 1d51 21be 67d6 a93c b268 113d 79b7 a33d
-0.007488542 -0.04780766 -0.073022924 0.009107696 -0.15753599 0.020732118 0.035500236 0.07993979

transformer.layers.1.0.branch.to_qkv.weight f4 [192, 8]
00000000: 0a61 02bf 5f8b 923e 0235 16bc 1baa 423e
00000010: 4cb9 2fbe 6ab1 5bbe 7536 5d3d ea6c 373e
00000020: 2641 3dbe 27ce c7bd 3459 80be a7f4 523a
00000030: 3de5 393e 609e e5bc 6465 4ebe c008 5abe
00000040: d52c 603e 5d90 1ebd 896b 1d3e 50c5 243e
00000050: 1d3a c5be 5c41 d7bd 0791 073c 5756 5d3e
00000060: 620c f63d fee6 9d3e e2e4 593e ac2c 18be
00000070: a030 38be 5124 9ebd 4cfc 1dbe f045 f23e
00000080: 29be 943e 8079 6f3d 518f d13e 487b 83bd
00000090: 2c59 d93d b584 8e3e cefa 6e3c 2b3b b33e
000000a0: 1db3 223e 8c82 e7bc 341b e8bb 9325 22bd
000000b0: 8e29 bcbe e557 c6be 2de3 c1be 5703 9dbe
000000c0: c436 fdbd 442a 723e 2704 323e 4fe0 b4bd
000000d0: 4e96 ecbd e06e 4cbe a9f3 4fbe 1fb9 b6be
000000e0: aeda af3d 180e a9be 5e1c 383e f615 e9be
000000f0: fa36 a73e f206 c6bd f655 9abe 3498 8f3e
00000100: 7c42 51be bcd4 9dba 1780 aebe 3633 d93e
00000110: 93d1 383e b8ac 943e 9614 d93e eb5f 49bd
00000120: 9daa 92be 0dd3 b23e cb08 0abe 1381 ff3d
00000130: f08d e33d c3fd c7bd c132 d63e dd6c df3e
00000140: 401a 813d 874b 9dbe 7876 51bd 552f 2d3e
00000150: a58e d6bb 4744 ebbd a066 6dbe eac0 dfbd
00000160: d2a4 60bd 9889 fb3d 7a87 27bd 6bc4 9d3e
00000170: e166 6d3e 2b0f 9abe 931e ddbe 6874 593c
00000180: 4c1e 133e 6873 363e 4a78 983e be3c 20be
00000190: 629f 8c3e 330f 9bbd 5471 693e 0323 a4be
000001a0: 6afb 67bd f9a8 063d 62bb 8e3e 4f79 893d
000001b0: 376d 35bd c74d 383d 0149 af3e d304 893e
000001c0: e977 d23e 2c7a 89be ebb1 8f3e 3c10 d2be
000001d0: 8d4c a43e fc8e 8cbe 0ac6 213d aed2 8e3c
000001e0: bcfd 4e3c 2534 aa3d 7a5d 123e f8b5 8a3e
000001f0: bd3e 7ebe b1c8 85be b45a 91bd 9995 ab3c
00000200: 6f0b b3be f3c0 053e 5008 b7bd bfe2 f6bb
00000210: e74e 32be f3d8 c53d e59f 3ebe 1ce9 c23e
00000220: 229a d03d d0c5 eabd 7bae 4cbe 848d 70bd
00000230: 12fd 24bd 85de 733e 4bd0 4c3e b7dd 903e
00000240: ed07 8c3d 5f77 283e d0ac d0bd f442 4dbc
00000250: d936 853d b0ea b9be 4e1d f2be b25c 973e
00000260: cd95 f3be 3210 6a3e 18be 91be cffc e83e
00000270: f6bd f93d f4a0 223e 06df 563e 9abc 723e
00000280: 1812 b13e d364 493d 71b6 1bbd f244 1fbe
00000290: 986b babe cd98 e0be f059 783e b163 983e
000002a0: 0ab1 b83d 69ce 88bc d7c0 dbbd 4d3b 293e
000002b0: 7ec5 b73d dcd6 84bd 0b90 9abd 4de3 92be
000002c0: 55d0 2dbe b2a8 a6be 3a74 1a3e 29ab 1b3e
000002d0: 7354 943c 6fdc 073e 5404 063d 4877 e5bc
000002e0: 6678 423e 2913 933d 82f0 b43e 8ade 4cbe
000002f0: 1c59 c73d 55a5 5abe 51fc a3be fc87 1fbe
00000300: 94fc d83e dc5f 353e 8c00 2abe 29bf a13e
00000310: 4238 023e 2999 1fbe 4cb4 58be 43b0 a83e
00000320: 5199 8f3e 46f4 d03d 7206 a0be 8616 163e
00000330: 40ab cdbe 524e debd fe65 cf3d 8df3 233e
00000340: 05c7 863e e950 ae3e 90e9 b4be 7cf9 f4bd
00000350: ec6d a5be 5a3f 0f3d 7543 d33d f496 943d
00000360: e934 9dbc 48ca 303e 034e 733e c8f1 7e3e
00000370: 2bf2 afbd 3947 9ebe 6273 2c3e b1d8 8cbd
00000380: e74d 1a3e 40d2 923e 36e4 0fbe 1d4f cebd
00000390: 944e 963c 1bbd d73e adf7 a4be 0ea7 fe3c
000003a0: 4e40 b1be b89f a83c bbfa f5bc ff86 f83c
000003b0: d8c8 ae3e 98a7 313e 34b4 3abd 681e 263e
000003c0: a46b 76be f760 8b3d 8290 9a3b 0f02 28be
000003d0: ea78 14be fc33 8ebe a68e 4ebe 5e67 32be
000003e0: b745 45be 3e0a ae3d a47d 9e3e bf3f 7ebd
000003f0: 9748 17be a9fb 93bd a503 9bbe 5672 903e
-0.5092932 0.28621957 -0.0091679115 0.19010203 -0.17160529 -0.21454397 0.054007012 0.17912641
-0.18481883 -0.09756117 -0.25068057 0.00080473203 0.18153854 -0.02802962 -0.20155865 -0.212924
0.21892102 -0.038711894 0.15373053 0.16090894 -0.385209 -0.10510513 0.008274323 0.21614967
0.120140806 0.30840296 0.21278718 -0.14860791 -0.17987299 -0.077217706 -0.15428275 0.47318983
0.2905133 0.05846548 0.40929654 -0.064199984 0.10612711 0.27835622 0.014586164 0.3500608
0.15888639 -0.028260492 -0.007083321 -0.039586615 -0.36750454 -0.38738933 -0.37868634 -0.3066661
-0.12363961 0.23648936 0.17384396 -0.08831846 -0.11552106 -0.1996417 -0.20307793 -0.3568811
0.08586632 -0.33018565 0.17979571 -0.45524567 0.3265913 -0.096692935 -0.30143708 0.2804581
-0.20435518 -0.0012041549 -0.340821 0.42421883 0.18048696 0.29038024 0.42398518 -0.04916374
-0.28645793 0.34926644 -0.13479917 0.12475791 0.11111057 -0.09765198 0.41835597 0.43637744
0.06303835 -0.30721685 -0.05113837 0.16912587 -0.0065477663 -0.11487632 -0.2318368 -0.10925467
-0.054844685 0.12282103 -0.040900685 0.30813918 0.23183776 -0.30089697 -0.4318739 0.013272382
0.14367026 0.17817461 0.29779273 -0.15648171 0.2746535 -0.075712584 0.22797137 -0.32057962
-0.05663625 0.03287599 0.27877337 0.06712591 -0.04429361 0.04499605 0.34235385 0.26761493
0.4110711 -0.26851022 0.28065428 -0.4102801 0.32089654 -0.27452838 0.039495505 0.017434444
0.012633737 0.08310727 0.14293471 0.27091956 -0.2482862 -0.26129678 -0.070973784 0.020945357
-0.3496966 0.13061886 -0.08937132 -0.0075343545 -0.17412911 0.096605204 -0.18615682 0.38068473
0.101856485 -0.11463511 -0.19988434 -0.05872871 -0.04028041 0.23815353 0.20001332 0.28294155
0.06837449 0.16451786 -0.10189211 -0.01252817 0.06504602 -0.36311865 -0.47287983 0.29562908
-0.47575226 0.2285774 -0.28465343 0.45505378 0.12194435 0.15881711 0.20983514 0.23704758
0.34584117 0.04916842 -0.038015787 -0.15553644 -0.36410213 -0.43866578 0.24253058 0.29763559
0.090181425 -0.016699987 -0.10730141 0.16526528 0.089732155 -0.06486294 -0.07547005 -0.28689042
-0.16974004 -0.3255058 0.150834 0.15202011 0.018106675 0.13267682 0.03271897 -0.02801098
0.18991241 0.07181389 0.35339743 -0.20006767 0.09733793 -0.21352132 -0.3202844 -0.15579218
0.42380202 0.17712349 -0.16601771 0.31591156 0.12716773 -0.1558577 -0.21162528 0.32946977
0.2804666 0.102028415 -0.31254917 0.1465703 -0.40169716 -0.10854782 0.10126875 0.16010876
0.26323715 0.34046105 -0.35334444 -0.11961648 -0.32310426 0.034972526 0.10315601 0.072553545
-0.019190269 0.17264664 0.23760228 0.2489692 -0.08591112 -0.30913714 0.1684089 -0.06877268
0.1506878 0.28676033 -0.140519 -0.100736834 0.018348016 0.42136464 -0.32220212 0.031085517
-0.34619373 0.020583972 -0.030026784 0.030337809 0.34137607 0.17349088 -0.04558201 0.16222537
-0.24064499 0.06805604 0.0047169337 -0.16407035 -0.1449925 -0.27774036 -0.20171604 -0.17422244
-0.19264875 0.08498047 0.3095523 -0.06207251 -0.14773785 -0.07225735 -0.30276218 0.2821223

transformer.layers.1.0.branch.to_out.weight f4 [8, 64]
00000000: 7e68 e73d 827f 21be e71d c43b b1d8 ea3c
00000010: 3768 54bd 423c bebd e5bc 04be a786 b13c
00000020: 699e 993c ce44 103e 4e77 e93c 57bc 10be
00000030: 9e42 24be 3d31 943d 33ec a83b d788 5d3d
00000040: 4912 e3bd 91a5 debd 0a6c 163e 5501 9b3c
00000050: d875 7f3b cf53 b8bd 8e0c 453d 28f0 dcbd
00000060: 5a8b 983d 54c3 bbbb 7611 453d 1059 5abd
00000070: cb96 db3d cca1 5ebe def3 463e 1b51 f73d
00000080: 5d10 ec3d 07f4 a33d baaa 223d e5ff 563e
00000090: 4148 fa3d 0fad 693d c684 563d 9c3c 9b3d
000000a0: 098e c33c a03e 943d 9a8e 93bd a6a6 5cbd
000000b0: ecc6 133d e595 23bc d46f fdbd 0673 2f3d
000000c0: 3cbb d03d d1df 5dbd bde6 443d 4976 48be
000000d0: a8fb b9bd c548 80bc 1b01 b13c bf44 543c
000000e0: 0eeb 5b3e fd90 b93d f8fb f83c 6bf1 dcbc
000000f0: 5459 c7bd bc5f 07be ada3 61bd 1cdf b9bd
00000100: 0458 933d 29ea 90bd 4627 8dbc 024d 393d
00000110: 2bfd 7b3d ebcd e4bd 4781 38bc 8183 d13c
00000120: aa0e 263d c609 113e e515 083e b297 9bbc
00000130: 22d7 57be 2f55 ac3d 1a74 883c 3811 cd3d
00000140: ef1a fabd 821e e2bd 90b8 ba3d b211 b13d
00000150: 841c 84bd 7e18 e7bc 96a8 ec3c 151c a8bd
00000160: 36d4 d33d 1193 42be 94fc 033d 161c aa3d
00000170: 088f 173e 21a2 dcbd 4b2e 393e 5a9c 0ebd
00000180: b686 123e 1ac8 c03d 2f12 d93d 3616 bc3d
00000190: eaca 143e 0f10 1dbd a8e2 47bb 27db 243e
000001a0: c3ee 043e 4315 1f3e 45be ebbd 3232 293c
000001b0: c29c 923d f11e 5abb fd4e c5bc b326 d7bd
000001c0: cc7c ebbb d468 b53c c45a 04be 0615 8dbd
000001d0: fe4a ffbc c64c ee3d 2a9c 013e dd71 9abd
000001e0: d37a 1d3e abf2 c6bd 53e8 113e 0a27 6dbd
000001f0: ed0f 9cbd da70 e33b 4deb debc e3ee e9bd
00000200: 7fe9 1f3d 9743 973c e566 933c 4c42 85bb
00000210: b2a8 9b3d d5ce 213d 487a 1b3d 77f3 6e3d
00000220: 7307 d73d db6e 013e e2d1 afbc ae52 fbbd
00000230: 10d2 07be ec4c fdbc 41ed 6dbd 7872 263e
00000240: 14dd 0e3c 698b 56bd eeef 6e3e 6ee0 113e
00000250: 0914 a23d 2e69 3e3d 19e6 463d aa52 593d
00000260: ceac c53d b956 24bd 9d3c 3a3d 269d 87bc
00000270: 2304 793d 5181 c9bd 3d9e 893d b4bb 003e
00000280: 4c83 763c a221 0c3e 05be 913c d620 bb3c
00000290: 25c6 c63d da78 723c 2474 1d3e c905 c13d
000002a0: 6f96 d53d f5ad e0bc bf78 24bd 380c acbd
000002b0: 54c9 a9bb e069 753c 70e0 f4bb 04e6 c23c
000002c0: 2135 ef3d f3b7 4c3d 47dd a43d 7b84 2fbe
000002d0: d9d0 f2bd 2c15 083d 8528 e43d 7b2c 7dbd
000002e0: 794d 403e 21fe 2b3c 2bae c03d 8600 c33c
000002f0: 3bdc 97bd 9708 5d3d 57f3 bebc 1383 873d
00000300: e401 23be a713 5abc 5d5a 923d 942e 9d3d
00000310: dfe6 b93d 5253 b3bd 3b4c 58bd 28d5 03be
00000320: 051a 09be 2da1 bebd 331f 04be 8085 003c
00000330: 8ad6 cb3d d866 0d3d 39ef 6fbc 8bf5 ddbd
00000340: b292 cc3d f352 6cbd d8ff 89bd cce3 97bd
00000350: 3ad1 003e c0fb 0d3e 91e2 1d3d cc3c 5e3e
00000360: 5b81 3bbc 5a97 b43c ae19 1e3c 04b0 e43a
00000370: ad51 553c c5c2 273e 1fa7 5bbe 1218 523d
00000380: f6d7 8cbc a1f4 a9bd 9479 1cbc bd48 36be
00000390: 7a4b 0cbe bff7 173d 5078 9fbd bc7d 803c
000003a0: b5f8 f2bd a64c 853d 011e 7f3d 3ece 1cbd
000003b0: 6fe6 d93c 905a a73c 7d0c db3d b7c8 d33d
000003c0: 5686 8f3d 36e6 de3b c71d d73a 6964 6a3d
000003d0: bcfa 33bd 3ffd 0abe 3ebf 9b3d a6bd bd3d
000003e0: 32f4 00be b1aa debd a6e1 ebbc b7f9 99bd
000003f0: c802 203e e513 d83d 5c67 163e 06be 853d
0.11299227 -0.15771297 0.00598501 0.02866778 -0.0518572 -0.09288837 -0.12962683 0.021670653
0.018752294 0.14088747 0.028499272 -0.14134346 -0.16041037 0.07235954 0.0051551103 0.05408558
-0.11087472 -0.10871423 0.14689651 0.018921534 0.0038980152 -0.0900036 0.048107676 -0.10787994
0.07448454 -0.005730072 0.048112355 -0.053307593 0.10722121 -0.21741408 0.19428965 0.120760165
0.115265585 0.08005529 0.0397136 0.20996054 0.122208126 0.057049807 0.052372716 0.0757992
0.023871439 0.07238507 -0.072049335 -0.053869866 0.03607838 -0.009984468 -0.12374845 0.042834304
0.10191962 -0.054168526 0.04807161 -0.19576372 -0.09081203 -0.0156597 0.021606972 0.0129558435
0.21476385 0.090608574 0.030393586 -0.026970586 -0.09733835 -0.13220114 -0.055087734 -0.09075758
0.07194522 -0.070759125 -0.017230641 0.045239456 0.061520737 -0.11172088 -0.011261291 0.025575401
0.04054133 0.14163885 0.13289602 -0.018993232 -0.2107816 0.08414685 0.016656924 0.1001305
-0.122121684 -0.11040975 0.09117234 0.08645953 -0.064507514 -0.028209921 0.028888982 -0.08208481
0.103432104 -0.19001414 0.0322233 0.08306138 0.14800656 -0.10773111 0.18084066 -0.034817077
0.143092 0.09413166 0.10599171 0.09183924 0.1453053 -0.038345393 -0.0030500088 0.16099225
0.12981705 0.15535454 -0.115109004 0.010326909 0.071588054 -0.0033282603 -0.024085516 -0.10505428
-0.007186508 0.022144713 -0.1292525 -0.068887755 -0.031163689 0.11635737 0.12657228 -0.07541249
0.15378885 -0.09714254 0.14248781 -0.05789856 -0.07620225 0.006940943 -0.02721181 -0.11422517
0.03904104 0.018464847 0.0179934 -0.004066741 0.076005355 0.03950389 0.037958413 0.058337655
0.10499468 0.12639944 -0.021462385 -0.12271629 -0.13263726 -0.030920468 -0.05808759 0.16254604
0.008719701 -0.052379046 0.23333713 0.1424577 0.07913978 0.046487026 0.048559282 0.05305735
0.096521005 -0.040121768 0.04546796 -0.016554426 0.06079496 -0.09839118 0.06719635 0.12571603
0.015045952 0.13684705 0.017790804 0.022842806 0.09705762 0.014799321 0.15376335 0.094249316
0.104290836 -0.0274267 -0.040154215 -0.08400768 -0.005181471 0.014978856 -0.007473044 0.02379132
0.116800554 0.049980115 0.08050018 -0.17140381 -0.11856241 0.033223316 0.11140541 -0.061809998
0.18779553 0.010497601 0.0940822 0.02380396 -0.074150525 0.05396327 -0.023309393 0.06616797
-0.1591869 -0.01331035 0.07146142 0.076749 0.09077238 -0.087561265 -0.052807074 -0.12874281
-0.13388832 -0.093080856 -0.12902527 0.007844329 0.099530295 0.034521908 -0.0146444375 -0.10837849
0.099889174 -0.057696294 -0.067382514 -0.07416496 0.12579814 0.13865566 0.03854615 0.2170288
-0.011444415 0.022044826 0.009649677 0.0017447476 0.013019961 0.16382892 -0.2145047 0.051292486
-0.017192822 -0.082986124 -0.009550471 -0.17801185 -0.13700667 0.037101503 -0.0778662 0.015684955
-0.11863843 0.0650876 0.062284473 -0.038282625 0.026599137 0.020428926 0.10695741 0.10341018
0.070080444 0.0068023456 0.0016412073 0.057224665 -0.04394029 -0.13573168 0.07604836 0.09264688
-0.12593153 -0.108724006 -0.028794121 -0.075183325 0.15626061 0.105506696 0.14687866 0.06530385

transformer.layers.1.0.norm.gamma f4 [8]
00000000: f3c0 b53d 343d db3e af7d 883e 4c91 553e
00000010: 055c 8c3e 633a 533e f7e3 823e 6bf8 663e
0.08874693 0.42820132 0.2665839 0.20856208 0.27413955 0.20627742 0.25564548 0.22555701

transformer.layers.1.1.static_alpha f4 [4, 5]
00000000: 603c 543f 0000 803f 0000 0000 0000 0000
00000010: 0000 0000 db30 803d 0000 0000 0000 803f
00000020: 0000 0000 0000 0000 2b1f 0bbd 0000 0000
00000030: 0000 0000 0000 803f 0000 0000 824c 2dbe
00000040: 0000 0000 0000 0000 0000 0000 0000 803f
0.82904625 1.0 0.0 0.0 0.0 0.062593184 0.0 1.0
0.0 0.0 -0.03396527 0.0 0.0 1.0 0.0 -0.16923717
0.0 0.0 0.0 1.0

transformer.layers.1.1.dynamic_alpha_fn f4 [8, 5]
00000000: 80fd 123d 0000 0000 0000 0000 0000 0000
00000010: 0000 0000 5db1 c6bc 0000 0000 0000 0000
00000020: 0000 0000 0000 0000 124f f63d 0000 0000
00000030: 0000 0000 0000 0000 0000 0000 49e1 8abd
00000040: 0000 0000 0000 0000 0000 0000 0000 0000
00000050: 77be 0e3e 0000 0000 0000 0000 0000 0000
00000060: 0000 0000 12c5 f43d 0000 0000 0000 0000
00000070: 0000 0000 0000 0000 2c33 ccbd 0000 0000
00000080: 0000 0000 0000 0000 0000 0000 131c 10be
00000090: 0000 0000 0000 0000 0000 0000 0000 0000
0.035886288 0.0 0.0 0.0 0.0 -0.024254495 0.0 0.0
0.0 0.0 0.120268 0.0 0.0 0.0 0.0 -0.06781251
0.0 0.0 0.0 0.0 0.13939844 0.0 0.0 0.0
0.0 0.11951651 0.0 0.0 0.0 0.0 -0.09970698 0.0
0.0 0.0 0.0 -0.1407321 0.0 0.0 0.0 0.0

transformer.layers.1.1.static_beta f4 [4]
00000000: 01e8 893f aa42 853f 86e1 603f 3d22 8a3f
1.0773927 1.0410969 0.8784412 1.0791699

transformer.layers.1.1.dynamic_beta_fn f4 [8]
00000000: e24e 15bd 841d d63d c3dd 58bd ceb5 30be
00000010: 303c de3d 9a97 abbd 2e0a 44bd 9d78 24be
-0.03645218 0.104548484 -0.052945863 -0.17256853 0.108513236 -0.08378525 -0.04786127 -0.16061635

transformer.layers.1.1.branch.0.weight f4 [8]
00000000: bb42 8e3f b23b 973f 9946 843f e0c2 7d3f
00000010: f62b 863f c6e4 713f 3f8b 8a3f b98c 7b3f
1.1114115 1.1815093 1.0334045 0.9912548 1.0482166 0.94489706 1.0823745 0.982616
