Projektarbeit_FTTransformer/trained_models/physical_loss_training/model_lr0.00025_8_1_4_4_.3_.3PhysicsLambda0.5_date_20250810_epoch10000.pt (torch, 99774 bytes, 87 tensors)

cls_token f4 [1, 1, 8]
00000000: 1ab5 b43d 816d d33e 8cd6 073f c5b0 323f
00000010: 79e8 cabe 3d47 983f 84cf 94be c8c2 91be
0.08823605 0.41294482 0.5306175 0.6980098 -0.39630488 1.189674 -0.29064572 -0.2846892

categorical_embeds.weight f4 [3, 8]
00000000: 5d04 c4be 3a31 923d 11a2 b9bd 8966 24c0
00000010: 7259 093f 4105 c9be 996d ab3f 66b2 b03f
00000020: 5931 a9bf 063c 553e c494 753f 5d2e a13f
00000030: f3e0 4ebf 4e78 4d3e 80e3 d73e 274c 3ebf
00000040: 51cf dcbd abe9 11bf aac8 b3bf 82ba a03f
00000050: 405d 243f 1a2b 9ebf f00c 15be 4075 c93e
-0.3828458 0.071382955 -0.09064115 -2.5687582 0.5365211 -0.3926182 1.3392822 1.3804443
-1.3218185 0.20823678 0.95930123 1.2592274 -0.80811995 0.20065424 0.42165756 -0.7433495
-0.1078173 -0.56997174 -1.4045613 1.2556918 0.6420479 -1.2356904 -0.14555717 0.39347267

numerical_embedder.weights f4 [8, 8]
00000000: 3a98 1fbf ab25 91bd c2b4 ca3f 430d 3f3f
00000010: ec88 d4be cf98 c7bf 4d96 693f cad4 9e3d
00000020: 127a 083f 66e9 d3bf a07d af3f 373e 20be
00000030: 72e8 063f 8fee 55bf f16e a53f e220 923f
00000040: cabc 523f 0a81 f53c 015f 0540 9b62 7e3f
00000050: 5958 2940 50ae 0c3e 91e8 513f 2e1f abbf
00000060: 4e91 1dbf 4fcf 80bf 5f87 92bf 8e03 0c3d
00000070: 3340 62c0 4b77 77bf 809e 853f 6c55 1e40
00000080: 97a0 16bf f773 c2bf 8d53 cd3f 819c bd3e
00000090: 0fa6 eb3d 8b52 0fc0 15ca 5b3f 43d7 efbe
000000a0: 10c8 9b3f 29a7 49bf 44f9 773f ab7f 9b3e
000000b0: 03e1 8ebf a085 39bf a7c8 ec3e 2399 71bf
000000c0: 52ed 02bf 6625 943f 9c72 d23e 83e3 24bf
000000d0: 9099 1abe 0558 4e3f e888 67bf 662d 013f
000000e0: 30fb babc ef61 21be 9af0 cd3e 49bf a83f
000000f0: 0c5b 3c3f 560d 7e3e de75 b83f 1baa 993f
-0.62341654 -0.07087263 1.5836413 0.7462961 -0.41510713 -1.5593508 0.91244966 0.0775543
0.53311265 -1.6555603 1.3710213 -0.15648733 0.52698433 -0.83567137 1.2924482 1.1416285
0.8231932 0.029968757 2.0839236 0.9936921 2.6460173 0.1373837 0.81995493 -1.336889
-0.6154984 -1.0063266 -1.1447562 0.034183078 -3.5351684 -0.966664 1.0438995 2.4739637
-0.5883879 -1.519164 1.6041123 0.37033466 0.115062825 -2.239413 0.8585523 -0.4684392
1.2170429 -0.7877069 0.96864724 0.3037084 -1.1162418 -0.7246952 0.46246836 -0.94374293
-0.5114337 1.1573913 0.41103065 -0.64409655 -0.15097642 0.8060306 -0.9044328 0.504599
-0.022824854 -0.15760015 0.40222627 1.3183376 0.73576427 0.24809775 1.441097 1.2005037

numerical_embedder.biases f4 [8, 8]
00000000: 8337 23bf 8c7b b2bf d0aa c43e 4e9d c93f
00000010: 0ddc a63e 2e63 583e efdf 183f ab73 76bf
00000020: 8cf6 ec3f b08e 3ebf 7aea 683f 77df 863f
00000030: e8b5 61bf 1839 0040 b18b 8e3f 2441 d03e
00000040: 01b2 f1be ecc1 a43e 26a6 cebd e14c cdbf
00000050: 99d0 35bf 7ddb 0940 c1fd 3fbf 2ca6 c4be
00000060: ddb6 d53e 36f9 913f 9c0d f63f 07f5 62bf
00000070: c7ee c2be a49e a9be e9ac 2bbf 45e6 173f
00000080: ad8b 95bf 02b5 813e 2aa0 183f 8b3f 9f3f
00000090: 704e 21bf 89f5 59bf fb5c 2ec0 ab93 12bf
000000a0: df60 02c0 63e0 723f 4d27 c8be 98b7 64bf
000000b0: cc58 abbf dfea b03d 4435 513e 4fee e63f
000000c0: 29f5 34bf 2bf7 553f 5d00 b83e 46b3 183f
000000d0: e08f 0a3d 6906 96bf 4c3e bd3f c5bd b03f
000000e0: 82b3 3a3f 56f7 11bf ec8d 0dc0 d1fc 4e3f
000000f0: ef66 b93e 0222 c8bf c518 c8bf fce6 7cbf
-0.6375658 -1.3943954 0.3841157 1.575113 0.3258976 0.21131584 0.59716696 -0.96270245
1.851274 -0.74436474 0.9098278 1.0536946 -0.8816819 2.0034847 1.113638 0.40674698
-0.4720612 0.321792 -0.10090284 -1.6039087 -0.7102142 2.1540215 -0.7499657 -0.3840803
0.41741076 1.1404178 1.9222903 -0.8865513 -0.38072798 -0.33128846 -0.67060715 0.5933574
-1.1683251 0.2533341 0.5961939 1.2441267 -0.6301031 -0.8514028 -2.724425 -0.57256573
-2.0371625 0.94873637 -0.39092484 -0.8934264 -1.3386474 0.08638548 0.20430475 1.8041476
-0.70686585 0.83580273 0.35937777 0.5964855 0.033828616 -1.1720706 1.4784636 1.3807913
0.7293016 -0.5701803 -2.2117872 0.8085452 0.36211345 -1.5635378 -1.5632559 -0.98789954

transformer.layers.0.0.static_alpha f4 [4, 5]
00000000: 2d85 823f 0000 803f 0000 0000 0000 0000
00000010: 0000 0000 974c a13c 0000 0000 0000 803f
00000020: 0000 0000 0000 0000 974c a13c 0000 0000
00000030: 0000 0000 0000 803f 0000 0000 974c a13c
00000040: 0000 0000 0000 0000 0000 0000 0000 803f
1.0196892 1.0 0.0 0.0 0.0 0.019689841 0.0 1.0
0.0 0.0 0.019689841 0.0 0.0 1.0 0.0 0.019689841
0.0 0.0 0.0 1.0

transformer.layers.0.0.dynamic_alpha_fn f4 [8, 5]
00000000: 1cbd 93bb 0000 0000 0000 0000 0000 0000
00000010: 0000 0000 25b7 0e3d 0000 0000 0000 0000
00000020: 0000 0000 0000 0000 0873 033d 0000 0000
00000030: 0000 0000 0000 0000 0000 0000 f113 813c
00000040: 0000 0000 0000 0000 0000 0000 0000 0000
00000050: b814 2abc 0000 0000 0000 0000 0000 0000
00000060: 0000 0000 fada 003d 0000 0000 0000 0000
00000070: 0000 0000 0000 0000 1e4e 6ebc 0000 0000
00000080: 0000 0000 0000 0000 0000 0000 c5ea 74bc
00000090: 0000 0000 0000 0000 0000 0000 0000 0000
-0.0045086276 0.0 0.0 0.0 0.0 0.03484263 0.0 0.0
0.0 0.0 0.032092124 0.0 0.0 0.0 0.0 0.01575658
0.0 0.0 0.0 0.0 -0.010380916 0.0 0.0 0.0
0.0 0.031458832 0.0 0.0 0.0 0.0 -0.014544992 0.0
0.0 0.0 0.0 -0.014948552 0.0 0.0 0.0 0.0

transformer.layers.0.0.static_beta f4 [4]
00000000: 916e 823f ec14 793f dbf1 7b3f 33fa 743f
1.0189992 0.9729755 0.9841592 0.95694274

transformer.layers.0.0.dynamic_beta_fn f4 [8]
00000000: 5dad 523d 7c23 9bbe 2137 8dbe fcdf aabe
00000010: 5456 b03e 3344 adbe 351d 8b3e b6bd 133e
0.051434863 -0.3030051 -0.27581123 -0.33374012 0.34440863 -0.33841094 0.2717072 0.14427838

transformer.layers.0.0.branch.norm.weight f4 [8]
00000000: f03f 803f 2e12 563f 1292 453f 8071 583f
00000010: 8032 463f 8336 6f3f 6e19 6f3f 301a 663f
1.0019512 0.8362149 0.7717601 0.8454819 0.77420807 0.93442553 0.9339818 0.8988371

transformer.layers.0.0.branch.norm.bias f4 [8]
00000000: 6ed6 45bd d07c 81bc 6cf6 41bd 5c41 25bd
00000010: 793b 0a3d 9de3 db3c 78c1 b23c 11dc eebc
-0.0483002 -0.015806586 -0.047354147 -0.040345535 0.033748124 0.026841933 0.021820769 -0.02915767

transformer.layers.0.0.branch.to_qkv.weight f4 [192, 8]
00000000: e44c 4abe 8611 343e cb9c c9bd d878 843e
00000010: 77bd 63be 6364 46be 014d aabe 8cb1 be3e
00000020: 32dc e6bd 89ef 8dbe 4c2b 86bd 554a 97be
00000030: 8eeb 313e 6d03 a83e 3ea8 7dbe 29b4 56be
00000040: c414 e5bd 61ce 95bd c35c d6be a16b 1cbd
00000050: b299 dc3e 3cee 8abe 1039 0bbe 19a6 e53e
00000060: 1a63 c3bd bff8 0abc 86b6 b23d 133c fcbc
00000070: 66c6 873e fe31 3e3c d2e1 b33e 1a33 e83d
00000080: 1c9b e3bd 27b6 833e 92a5 123e 4714 8a3e
00000090: 2f2b a7bd bce9 17bd fb92 713e 804b 933e
000000a0: b9d5 9c3e c796 1d3e 39bd e8be 79b7 a0b9
000000b0: 0e53 8d3e 9466 8dbd 1c25 a43e b803 5dbd
000000c0: c1b9 c1bd 984d b23e 173d 073d 4b8a 013e
000000d0: 76e6 3e3e 683b e63e ec07 83be 9272 95bd
000000e0: 52b7 30be 2ec9 d2bd 9f86 18be 9ada afbd
000000f0: 5280 8c3c 570d b63e 00d0 12be b0a5 7a3e
00000100: 1914 0e3c 7282 43be 193f 6abc 5869 8dbc
00000110: 8bf5 83be fb7c b0be 27eb d73e 928f 683d
00000120: 2a72 ec3e a378 e53c 5061 133d 2038 9abe
00000130: af57 473d 3dc5 a9be 2622 00be c9af ca3e
00000140: d9d6 a63d 9cb7 473e 2c54 883d d501 803e
00000150: 6d90 913e 7785 a4be 7530 9d3c 74a5 03be
00000160: cd78 9abe a6ea 27be a74b b33e 5819 c83d
00000170: c33d 24be 7587 cebd a426 a2be 3805 9ebe
00000180: 4d29 86be 7a0c 7c3e 64ef 093e 4ed7 9bbd
00000190: 199a 02bd 59eb 733e 568c 4bbe 4454 6ebd
000001a0: ff87 6cbd a4f2 0abe f5b3 623e 209c 403e
000001b0: e292 14be 5374 d53c f41a 8fbe b08d a43e
000001c0: 2259 b33e 76c5 6ebe 9049 673e fba6 98be
000001d0: 97a0 9d3c 1cdc 1dbe 7a42 3f3e ca8d 71bd
000001e0: 20af 09bd f3b3 cabe c988 243e 2274 56be
000001f0: 7ecc 90bd 7cf2 b5be 6454 903e 13cc 673e
00000200: 461d f03d 1a74 813e 58d9 c23c 22b0 97be
00000210: b4b1 713e 87d5 653e 7dee 293e 4f66 663e
00000220: 6a0f 8a3e bd80 5abe 0bef 73be 12d2 9bbd
00000230: ec31 7ebd acba 8dbe 6de0 38be 7d8b e63e
00000240: 9f7d 753e 243d 7ebd 274f 68bd e3d9 30bd
00000250: 96ba 36be 0f53 a03e f239 9a3e 8c99 d03d
00000260: eecd 973e 9c68 23be a351 cb3d 338b b3bd
00000270: e669 983d 522f 12be 5b7d 513e 0318 85be
00000280: 3bbd 9fbe d878 393e 3c0f cabd 476f b03e
00000290: 16f0 6c3e 13f9 9ebc 2ce4 883e 38e8 033e
000002a0: 1658 86bd bd58 04be be0d c8be 3ff5 1d3e
000002b0: b3db 56be d1f5 263d 68bf 7a3e 0def af3e
000002c0: 2dff 083e 0163 3dbe 75c3 243e 2388 a03d
000002d0: a49b 88be 7ad5 383e f571 b63c ddcf 86bd
000002e0: 38ee 953e 7cc5 0f3e ba02 1abe c992 4a3e
000002f0: 6bfb 393d 627e 93be c7a6 26be 9254 a73c
00000300: e5ec a53e 2725 4a3e 946b dcbc 7c1f 8b3b
00000310: f7e2 60bd fdec d5be 5aff 493e fa55 823d
00000320: 3123 5fbd 72f1 a4bd af75 043e cb5b 033e
00000330: 1d25 693e 95a6 803e 5801 c13b addf b6be
00000340: e6ce a5be 6838 9ebe 1919 e23d 00e3 8bbe
00000350: 6ffc 4b3e 814c 83be 7212 2ebe 287a 5bbe
00000360: 0773 73be 2d3e 3cbe a9da f13d 8a29 a0be
00000370: a256 f7bd 6a0b 813e d271 c2bb 0721 733e
00000380: 36a9 013e 5f91 633e 3310 383e b12b 993e
00000390: 5f34 d73c 6839 583e f016 a0be ace7 553d
000003a0: 583e bbbe c78a 8b3e f11b c3bd df57 693d
000003b0: 1f5a 06be 4305 ab3e 94a9 7fbc bd04 833e
000003c0: 6570 a63e 8315 8cbe f036 5d3e a667 833e
000003d0: 58b3 61be f0bc 61be ab82 473e 6f5a ce3d
000003e0: b376 743e b401 f23c 2189 d2bd 44ed 0fbe
000003f0: c94d f0b9 328b 2a3e 3c34 013c 653d 0ebe
-0.19755894 0.1758481 -0.09844359 0.25873446 -0.22240244 -0.19374232 -0.33261874 0.37244833
-0.11272468 -0.27721813 -0.06551227 -0.29548898 0.17375013 0.32815114 -0.2477121 -0.20967163
-0.11185601 -0.07314754 -0.41867647 -0.03818858 0.4308601 -0.27134883 -0.13595986 0.44853285
-0.095403865 -0.008482157 0.0872622 -0.030790364 0.26518553 0.011608599 0.35133225 0.11337872
-0.11113569 0.2572491 0.14320973 0.26968595 -0.081625335 -0.03708814 0.23591225 0.2876854
0.30631807 0.15389548 -0.45456865 -0.00030654276 0.27602428 -0.06904331 0.32059562 -0.053958625
-0.09459258 0.34824824 0.033017244 0.12650411 0.18642601 0.44967198 -0.2559198 -0.07297243
-0.17257431 -0.10292278 -0.14895104 -0.08586617 0.017151032 0.35557052 -0.14337158 0.24477267
0.008671784 -0.1909273 -0.01429727 -0.017262146 -0.25773272 -0.34470353 0.42171595 0.056777544
0.4618085 0.028011626 0.035981476 -0.30120945 0.048667606 -0.33158293 -0.12513027 0.39587238
0.08146448 0.19503635 0.066566795 0.25001398 0.284305 -0.32133076 0.019188145 -0.12856084
-0.3017029 -0.16398105 0.35018656 0.09770459 -0.16039185 -0.1008443 -0.31670105 -0.30863357
-0.26203385 0.24614134 0.13470227 -0.076094255 -0.03188524 0.23820247 -0.19877753 -0.05818583
-0.057746883 -0.13569123 0.2213896 0.18809557 -0.14509156 0.026056444 -0.2795025 0.3213935
0.3502894 -0.23317513 0.22586656 -0.29814896 0.019241614 -0.15415996 0.18677703 -0.05897311
-0.033614278 -0.39590415 0.16067804 -0.20942739 -0.07070254 -0.35536563 0.28189385 0.22636442
0.117243335 0.2528389 0.023785278 -0.29626566 0.23602945 0.22444735 0.16594882 0.22499965
0.26964885 -0.21338172 -0.23821656 -0.07608427 -0.062059328 -0.27681482 -0.18054362 0.45028296
0.23973702 -0.062070027 -0.05671611 -0.043176543 -0.17844614 0.3131337 0.30122334 0.10185537
0.296493 -0.15957874 0.0992768 -0.087667845 0.074420735 -0.14275864 0.20457976 -0.25994882
-0.3119906 0.18112504 -0.09866187 0.34459898 0.2313846 -0.019405877 0.2673658 0.12881553
-0.0655977 -0.12924476 -0.39072984 0.15425585 -0.20982246 0.040761773 0.24487078 0.3436207
0.13378592 -0.18494798 0.16090186 0.07838466 -0.26681244 0.18050185 0.022271136 -0.065826155
0.2928331 0.14040178 -0.15040103 0.19782557 0.045405786 -0.2880736 -0.16274558 0.020426068
0.324073 0.19740735 -0.026906766 0.0042456966 -0.05490395 -0.4178237 0.19726315 0.06364055
-0.05447692 -0.080538645 0.12935518 0.12827985 0.22768064 0.25127092 0.0058900528 -0.35717526
-0.32384413 -0.3090241 0.11039943 -0.27321625 0.19920515 -0.25644305 -0.16999224 -0.21433318
-0.23774348 -0.18383093 0.11809284 -0.31281692 -0.12077071 0.2520402 -0.0059339786 0.23743068
0.12662205 0.22223423 0.1797493 0.29916146 0.02627009 0.21115649 -0.312675 0.052222893
-0.36571002 0.27254316 -0.09526814 0.056968566 -0.13120316 0.33402452 -0.015604395 0.25589553
0.32507625 -0.27360162 0.21602988 0.25665015 -0.2204107 -0.2204473 0.1948344 0.100758426
0.23873405 0.029541828 -0.102800615 -0.14055353 -0.00045834322 0.16654661 0.007885989 -0.13890608

transformer.layers.0.0.branch.to_out.weight f4 [8, 64]
00000000: b302 f83c e939 843d 2c93 03be a29e c83d
00000010: 3a3e f5bd 3b64 a33d 598d 3bbd cd8b 8abd
00000020: 2506 ebbd 8459 0dbd 54d9 dabd 52d6 86bb
00000030: 6b92 1137 678d 6a3c fc18 8c3d ad81 9c3d
00000040: d385 313e a917 af3d a272 0f3b f658 94bc
00000050: c6c5 89bb f889 25be bf68 20be 54d7 723d
00000060: c07b ca3d 02db 7d3d e14a 71bd 4fd4 69bd
00000070: 1267 153e e3ec cabd ae9c 303d 94ff c23d
00000080: d2b9 a6bd ee29 02bd a123 94bd 93ce c7bd
00000090: c56e ff3d 4ee0 01bd 7781 02be 7d11 73bd
000000a0: 492e c4bd 2e1c c3bd 1da0 1f3e 469e 9b3c
000000b0: 6c12 573d 3eaa 9b3d 0c59 efbd de70 06bd
000000c0: 326f a03d 07ce 893d 667d 5c3d 3337 0d3d
000000d0: 07a5 07be 08ab f1bd a7e3 ef3c 01c8 bf3c
000000e0: 1cab b33d 2754 1a3e 7f4a 15be b23f 76bd
000000f0: df00 53bd ad60 b33d 7467 13bd f3b6 813c
00000100: afa2 c4bd b747 01be fd3b a23d ec51 e73b
00000110: 1a81 1a3d f2d3 58bb aa95 743d 7e88 fcbc
00000120: aa30 02be 6584 6cbc 9089 ae3d 01dc 963d
00000130: 6803 51bd 4a75 3ebb 75f7 05be 5609 1fbd
00000140: 2b9a b4bc 57ef 51bd f322 6c3d a790 c03d
00000150: 2f54 23bd 55fc 143d 4956 323e 19e8 cebc
00000160: 059c 55be 0a5c 85bc e0e4 ed3d 0108 dabb
00000170: a07a 3fbd 5f06 b93c 11b8 0bbd a0db a8bc
00000180: e383 7d3d 6d03 30bd df39 f4bd 29a1 283c
00000190: 594e 8a3b 9ddd 843d 357b 273d ae81 e33b
000001a0: 29d8 7f3d c689 8a3d 51b8 64bc 7629 d1bb
000001b0: 9cc3 603c fe11 cbbd 5d46 a03c 29f6 9abd
000001c0: e58d 7cbe 5bc3 cbbc 93ba 553c 59e7 043e
000001d0: 048d db3d 546c 063d bd85 adbd 31e1 303b
000001e0: 0a2e 83bd 6923 16be 98f2 e03c d1bd 32bd
000001f0: 1184 3f3d b9f0 f2bd 1503 973c 123a 90bd
00000200: 302b 913d 2faf 263d 8118 c1bc 8525 a63d
00000210: 7ca7 a9bd ff66 573e 8eb2 333d 0bcb 1bbe
00000220: 3210 56bd 2f27 03be c083 e63c 4cc0 1fbd
00000230: 0991 283e d7d8 01be 846c 4d3d 6e56 cd3d
00000240: dc4a a03c facc 1a3e be02 b83d 0a6b efbd
00000250: 3535 94bb dea0 7cbd bdcb 10bd 597a fe3c
00000260: 9356 1bbd 030e b13d d614 ce3d 85a8 c8bd
00000270: 0b37 ce3d b381 16be d6f1 14bd c802 0d3e
00000280: 5e4d 90bd af2a 193e 864b 17bd e2ea e5bd
00000290: 9ead 0b3c 6ef2 56bd c023 e63c 7051 c1bb
000002a0: bc75 5cbe a1ec 3bbd 2cbc fa3d 79c4 1abe
000002b0: da9b 983c 6258 f23d 2954 e5bd ccba e0bc
000002c0: 12f0 023d 70a6 d53b 2b61 bd3d 8031 45bd
000002d0: c41a 31bd e952 28bd 96ec 803c 15ad 7dbc
000002e0: dc84 3b3e 8d44 1e3d e930 fdbc 5572 a2bd
000002f0: 38c9 89bc 51fc 753d baa7 903d 3b3d 47bd
00000300: ffc7 d1bd dfa3 6fbd b689 b33d ecd3 29bd
00000310: e0c3 643d ea39 553c 764d 80bd b4f5 09bd
00000320: c362 2bbd 00d0 a03c 1ea0 9abc ffb6 25bd
00000330: 5354 3ebd 43de f43d a72a f8bd f1e5 84bd
00000340: c2b3 1cbe a4e5 243c b1a9 d5bd 7610 71bd
00000350: 4fb6 9e3c e314 a03d 6966 783d 3ccf 14bd
00000360: b020 93bd 9ba1 f3bd e13f 76bc 8da0 a13d
00000370: d003 d9bd 0a27 dbbc 1a79 b1bd 3a33 bc3d
00000380: 0cb6 8a3d b9e4 003d 81c0 50bd 1b24 f83b
00000390: e06b 8e3d b1e4 703d a982 003e 3c83 af3d
000003a0: 5387 b4ba a56f 843d cf53 32bd 4e33 ffbc
000003b0: a8a5 633b a77b 02bd 42d5 1f3c e2e4 143d
000003c0: 7705 c7bc 40e9 90bc d398 32bd 0ae6 5e3b
000003d0: 0408 d63d 8f64 1a3d d09e e2bd a8e0 72bd
000003e0: b36e 223d 463f 95bd a99d 933d 2bdb 8bbd
000003f0: 7044 a7bc 808a bfbd 6d3a 91bd 6ee0 2cbd
0.030274725 0.06456358 -0.1284911 0.09795882 -0.119747594 0.07978102 -0.045789097 -0.06764946
-0.11475781 -0.034509197 -0.10685983 -0.0041149044 8.676764e-06 0.0143159395 0.06840703 0.07641921
0.17336206 0.08549435 0.0021888395 -0.018108826 -0.0042044846 -0.16165912 -0.15664957 0.059287384
0.09886885 0.06197644 -0.0589093 -0.05708724 0.145901 -0.09908464 0.04311817 0.09521404
-0.08140911 -0.03177827 -0.07233358 -0.09756198 0.124722995 -0.031708054 -0.127447 -0.05934285
-0.09579141 -0.09526859 0.15588422 0.01899637 0.052507803 0.076008305 -0.11686906 -0.032822482
0.07833709 0.0672875 0.053830527 0.03447647 -0.13246547 -0.118002 0.029283358 0.023410799
0.08772871 0.15071164 -0.14579199 -0.06011934 -0.051514503 0.08758674 -0.035987332 0.015834307
-0.09601342 -0.12625013 0.07921598 0.0070593264 0.037720777 -0.0033085314 0.059713043 -0.030826803
-0.12713876 -0.014435862 0.08522332 0.07366181 -0.05102864 -0.002906161 -0.13082679 -0.038827263
-0.02204617 -0.051253643 0.057650518 0.0940259 -0.039875206 0.036373455 0.17415728 -0.025257157
-0.20860298 -0.01627924 0.1161592 -0.006653786 -0.046747804 0.022586046 -0.034111086 -0.020612538
0.061893355 -0.042972017 -0.119251005 0.01029233 0.0042207655 0.06487582 0.040888984 0.0069429493
0.062462006 0.067645594 -0.01395996 -0.0063831164 0.013718512 -0.09915541 0.019564802 -0.075664826
-0.24663503 -0.024873426 0.013044971 0.12978877 0.10720256 0.032818154 -0.08472774 0.0026989693
-0.06405266 -0.14661945 0.027459428 -0.043638054 0.046756808 -0.118623205 0.018434087 -0.07042326
0.070883155 0.04069441 -0.023571255 0.08112625 -0.08283898 0.21035384 0.043871455 -0.15214173
-0.05226154 -0.12807916 0.028138995 -0.039001748 0.16461577 -0.12680374 0.050152317 0.10026251
0.019566946 0.15117255 0.08984898 -0.11690338 -0.0045229443 -0.061676852 -0.03535055 0.0310642
-0.03792436 0.08645251 0.10062568 -0.097977675 0.10069092 -0.14697914 -0.036363445 0.13770592
-0.070460066 0.14957689 -0.03693726 -0.11226441 0.00852528 -0.052477293 0.028093219 -0.0058996007
-0.21529287 -0.045879964 0.12242922 -0.15114011 0.018629003 0.11833264 -0.11197693 -0.027432822
0.03196723 0.006520085 0.09247049 -0.04814291 -0.043238416 -0.041094694 0.015737813 -0.0154831605
0.183124 0.038639594 -0.030907111 -0.07931963 -0.016819581 0.06005508 0.07063241 -0.04864238
-0.10243224 -0.05850589 0.08766501 -0.04146187 0.055850863 0.013014296 -0.062647745 -0.033681586
-0.041842233 0.019630432 -0.018875178 -0.04045772 -0.046467137 0.119564556 -0.1211751 -0.0648917
-0.15302947 0.010064516 -0.10432757 -0.05885359 0.01937404 0.07816484 0.06064454 -0.036330447
-0.07183969 -0.11896058 -0.015029878 0.07891951 -0.1059643 -0.026752014 -0.086656764 0.09189458
0.06773004 0.031468127 -0.050964836 0.0075726635 0.06954169 0.058811847 0.12549843 0.08569953
-0.001377324 0.06466607 -0.043536957 -0.031152394 0.003473619 -0.031856205 0.0097554345 0.036351092
-0.024294598 -0.017689347 -0.043602776 0.0034011626 0.104507476 0.037693556 -0.11065447 -0.05929628
0.039656352 -0.07287459 0.07207806 -0.06828912 -0.020418376 -0.09352589 -0.07091222 -0.04220622

transformer.layers.0.0.norm.gamma f4 [8]
00000000: 5806 363c f32a 743e b53c 663e a942 953e
00000010: 44d8 8c3e aec3 9d3e 4188 443e c853 b43d
0.011109911 0.23844509 0.22484095 0.2915242 0.27508748 0.30813354 0.19192602 0.088050425

transformer.layers.0.1.static_alpha f4 [4, 5]
00000000: b144 2bbd 0000 803f 0000 0000 0000 0000
00000010: 0000 0000 ccf8 2fbd 0000 0000 0000 803f
00000020: 0000 0000 0000 0000 8096 78bc 0000 0000
00000030: 0000 0000 0000 803f 0000 0000 b00f 623f
00000040: 0000 0000 0000 0000 0000 0000 0000 803f
-0.041813556 1.0 0.0 0.0 0.0 -0.04296188 0.0 1.0
0.0 0.0 -0.015172601 0.0 0.0 1.0 0.0 0.8830519
0.0 0.0 0.0 1.0

transformer.layers.0.1.dynamic_alpha_fn f4 [8, 5]
00000000: 9e11 b2bd 0000 0000 0000 0000 0000 0000
00000010: 0000 0000 742b 15be 0000 0000 0000 0000
00000020: 0000 0000 0000 0000 86d8 dabd 0000 0000
00000030: 0000 0000 0000 0000 0000 0000 71f3 aebd
00000040: 0000 0000 0000 0000 0000 0000 0000 0000
00000050: d3da 823d 0000 0000 0000 0000 0000 0000
00000060: 0000 0000 4e94 02be 0000 0000 0000 0000
00000070: 0000 0000 0000 0000 913d 873d 0000 0000
00000080: 0000 0000 0000 0000 0000 0000 ccdc 5e3e
00000090: 0000 0000 0000 0000 0000 0000 0000 0000
-0.086947665 0.0 0.0 0.0 0.0 -0.14567357 0.0 0.0
0.0 0.0 -0.1068583 0.0 0.0 0.0 0.0 -0.085425265
0.0 0.0 0.0 0.0 0.06389394 0.0 0.0 0.0
0.0 -0.12751886 0.0 0.0 0.0 0.0 0.0660354 0.0
0.0 0.0 0.0 0.21763915 0.0 0.0 0.0 0.0

transformer.layers.0.1.static_beta f4 [4]
00000000: e26f 773f f9e3 723f 2b6b 823f 943a 6a3f
0.96655095 0.9487911 1.0188955 0.91495633

transformer.layers.0.1.dynamic_beta_fn f4 [8]
00000000: 7b48 48be c1f6 ff3d 0a0f 84be 9817 c2bd
00000010: 260c d63d bade 16bf bed2 903e e899 103f
-0.19558899 0.124982364 -0.25792724 -0.094771564 0.10451536 -0.58933604 0.28285784 0.5648484

transformer.layers.0.1.branch.0.weight f4 [8]
00000000: 5513 6e3f 4926 a93f 5d21 633f e4d3 9f3f
00000010: 8a1a 843f e423 8c3f 9108 923f 856c 893f
0.9299825 1.3214809 0.88722783 1.2486539 1.0320599 1.0948453 1.1408864 1.0736243

transformer.layers.0.1.branch.0.bias f4 [8]
00000000: 22aa 21be d2e9 bb3d 46d1 e9bd 27db 853c
00000010: edfa 933d e0bb 9dbd 16ac 86bc e2ac 933d
-0.15787557 0.09175457 -0.11416869 0.016339852 0.07225595 -0.0770185 -0.016439479 0.07210709

transformer.layers.0.1.branch.1.weight f4 [64, 8]
00000000: bd66 883c 234c 0cbf d243 45be 5e4c 653e
00000010: 5a3a d73d 8224 d6bd ca7f a1be f14f b33e
00000020: 5290 72be b0a1 d2bc 54fe 283e b832 293e
00000030: 93c7 6cbe e25a ab3e 3c26 99bd a82b 963e
00000040: a1c0 153e cb9b f0bd 77be dcbd 7b79 bc3e
00000050: ee45 18be fdfe 8cbe 7b76 15ba 9f13 a1be
00000060: 4e13 963e 2245 8bbc d4ca cbbe 4daf 78be
00000070: c045 21be 1956 e1be 181b 1ebc 79a2 d4bc
00000080: 257b 303d 2f8a dcbe f3ca 2ebe e864 c9be
00000090: 282a 4abe a4bc 113f c93e edbd d3b1 3abe
000000a0: 5e98 db3e 4a0b ce3c 9915 9c3e 3d64 d63e
000000b0: 94fc f0bd 22c9 643d 9208 bbbe d8b2 c1be
000000c0: a368 5abe 714d 81be ef2e 98be f0db b4be
000000d0: 192b 7a3e 7a7e bb3e a6aa 883e bb3b 123e
000000e0: 72fd 99be 007c a83e 3205 3c3e c174 a7be
000000f0: 3de3 1cbe d310 50bd 47c7 a7bc 8dab 8e3d
00000100: cab7 443e 60ac 8cbe 6a63 2abe 4895 dfbd
00000110: 9ce7 47be d531 f13d aa40 29bd 059b dc3d
00000120: 1912 d33d f593 823e 28a3 24be f9d9 8d3e
00000130: 457d d13d 3ddb ae3e 166b 803c 9707 cbbe
00000140: 6e6b 9dbe 7cbc 89be 4ced b93e 8426 8bbe
00000150: 0604 3a3e 124a 993e 824e 83be e061 c13e
00000160: 5f16 bcbc 6700 4f3e e786 f23e 32de a53e
00000170: d75a 5f3e 8856 5a3c 9f10 94be 9e7b 813d
00000180: 25d8 d7be 379a 9bbd 22a8 903e 10b9 e6bd
00000190: ee5f ccbe 57b9 a0be 4433 343e 9246 6a3c
000001a0: 5fc5 8fbb e04f 9cbe f608 d7bb 1356 4fbe
000001b0: 21fd 833e 32fc 593e e73e c03d 3a08 51be
000001c0: 4cfb 88be 3f4f de3e 43e9 8b3c d223 933e
000001d0: ba7e 2dbe 10f1 03bf d91a d03d fdd4 913e
000001e0: 8610 823e 5875 eb3d b1d9 4b3e dc5a 763c
000001f0: 9294 39be 2c38 d1bd da4c 153d 2801 763d
00000200: f313 4b3e 8b52 ab3e 5f4f ff3e 5cea fabe
00000210: 29c7 483d c571 b2be 7db8 dfbd e45b aa3e
00000220: 38fc 51be 4063 f03e 6b4b 16be 2f8c 353d
00000230: ec70 4f3e e517 7abe 3be7 70bd 406a 973e
00000240: 28d8 afbd 7eac 9bbe 6d2e dc3b 730e 023f
00000250: 5290 323e 9e18 efbd d684 043e d728 c53c
00000260: 01bb 2abe 193a 4abe d304 7ebe 5252 bfbd
00000270: a36b e73d 82a2 5fbe 6d02 123e 31ef c43e
00000280: ef18 ef3d 9aed f63e 6526 9ebd b5aa 363e
00000290: 15a5 163c 2411 03be 69b5 60be 2a59 9d3e
000002a0: e19c b1bb d0dd 52be 3ed3 b53d 5e28 6ebe
000002b0: fc1c 91be 514a 67bd 99dd e9be ad62 a5be
000002c0: 2992 bc3e eb88 d8be 64e7 cb3e c5b5 f83c
000002d0: 22ae 983e 8815 97be 0d6e 86be a1b6 b6bd
000002e0: 1f57 893d 550b b3bc a3f3 76be 830d 55be
000002f0: c547 bc3d 1835 223e a585 5cbe 6b61 33be
00000300: 1c63 19be 0d0d 1bbe 598f 573e 2d42 bfbe
00000310: deea 7dbe 0dc3 c73d 3662 8fbd 0cb0 b73d
00000320: c079 cebd 10a0 813e 2fa6 f5bc 58a2 15bf
00000330: d450 05bf 5985 553d 2499 943d abd4 1a3e
00000340: c0bf 47be 0b55 99bd 2cd7 f03e fe54 e03e
00000350: a9b5 423e db61 89be a8b6 5f3e 667a e1bd
00000360: 5419 9c3d 5cdd c7be 51a5 36bd 5ff9 9e3e
00000370: 5821 553e 02b5 e93e e4c1 303b 7dbd ac3e
00000380: a5d9 0dbd 690c 093f 71de 203e 9505 0ebe
00000390: 010e b53c c980 98bd 94a4 b73d 24ff 64be
000003a0: 810a 8a3e 40c0 1b3e 253a 91bd 8edd b73e
000003b0: cb55 adbc 156a 7dbe 0556 8cbe 5cf2 3d3e
000003c0: 645a 233e a48d 16bf 7bfb 99be 5aac e7be
000003d0: 886d e13e 58eb 51bd 202f 013e 163d 843e
000003e0: 62d3 a0be 4777 bcbd 634c 193e 57b0 f43e
000003f0: ee5c 11be bfe8 d83e aa90 cebd b09a 12be
0.016650552 -0.54803675 -0.19264153 0.22392413 0.105091766 -0.10456182 -0.31542808 0.35021928
-0.23687866 -0.025711864 0.16503268 0.16523254 -0.23123007 0.33467776 -0.07477996 0.29330182
0.14624263 -0.11748465 -0.10778516 0.36811432 -0.14870426 -0.2753829 -0.0005701554 -0.31460282
0.29311603 -0.017000739 -0.39803183 -0.24285622 -0.15749264 -0.44011 -0.009650014 -0.02595638
0.04308619 -0.43074176 -0.17069606 -0.39334798 -0.19742644 0.5692847 -0.11584241 -0.18231897
0.42889684 0.025151867 0.30485228 0.4187335 -0.117669255 0.055855878 -0.36529976 -0.3783176
-0.21328978 -0.25254396 -0.29723307 -0.3532405 0.24430503 0.3661993 0.26692694 0.14280598
-0.30076176 0.32907104 0.18361357 -0.32706264 -0.1532106 -0.050797295 -0.020480765 0.069663145
0.19210735 -0.27475262 -0.16639486 -0.10917145 -0.19521946 0.11777083 -0.041321434 0.10771755
0.10306186 0.25503507 -0.16077864 0.27705362 0.102289714 0.3415164 0.015676063 -0.39654228
-0.30746025 -0.26901615 0.36313856 -0.27177823 0.18165597 0.29939324 -0.25645834 0.37769985
-0.022959886 0.20214997 0.47368547 0.32396084 0.21811996 0.013326295 -0.2891893 0.06322406
-0.42157093 -0.075977735 0.28253275 -0.112657666 -0.3991694 -0.31391403 0.17597681 0.014299052
-0.004387542 -0.3052969 -0.0065623475 -0.20247678 0.2577906 0.21287611 0.09386998 -0.20413294
-0.26754224 0.43419835 0.017079001 0.28738266 -0.16942874 -0.5153971 0.10161371 0.2848281
0.2540323 0.11496991 0.19907261 0.015036311 -0.18123081 -0.10215792 0.036450244 0.060059696
0.19831829 0.33461413 0.49865243 -0.49006927 0.04901806 -0.34852424 -0.1092386 0.33273232
-0.2050637 0.46950722 -0.14677207 0.044323143 0.2025792 -0.24423178 -0.05881427 0.2957325
-0.085861504 -0.3040504 0.0067194016 0.508033 0.17437866 -0.11674617 0.12941298 0.024067326
-0.16672899 -0.19748725 -0.24806528 -0.09341873 0.11299827 -0.21839336 0.14258738 0.3846374
0.116746776 0.4822815 -0.07722167 0.17838557 0.009194632 -0.12799507 -0.21944202 0.3073209
-0.0054203128 -0.20592427 0.08878182 -0.23257586 -0.28342426 -0.056467358 -0.45676878 -0.32301846
0.3683026 -0.4229196 0.39824975 0.030360112 0.29820353 -0.29508615 -0.26255837 -0.089215524
0.0670607 -0.02185599 -0.24116378 -0.20805936 0.091933765 0.15840566 -0.21535356 -0.17517631
-0.14979213 -0.15141697 0.21050777 -0.37355176 -0.24796626 0.09754 -0.07001154 0.08969125
-0.10081816 0.2531743 -0.02998647 -0.5845084 -0.5207646 0.052129123 0.07255772 0.15120189
-0.1950674 -0.07486924 0.47039163 0.43814844 0.1901461 -0.2683247 0.21847022 -0.11009674
0.076220185 -0.3903607 -0.04459125 0.3104963 0.20813501 0.4564591 0.0026971037 0.33738318
-0.03463139 0.5353456 0.15709855 -0.13869317 0.022101404 -0.07446439 0.08966938 -0.22362953
0.2696114 0.15210056 -0.07091168 0.3591122 -0.021159073 -0.24747498 -0.27409378 0.18549484
0.1595245 -0.58809876 -0.30074677 -0.4524868 0.44028878 -0.051249832 0.12615633 0.25827855
-0.31411272 -0.09202438 0.14970545 0.47790787 -0.14195606 0.4236507 -0.10086186 -0.14316821

transformer.layers.0.1.branch.1.bias f4 [64]
00000000: 6037 903e 94bf b6bc 2f8a 9d3e 014a 343e
00000010: ff89 b7be 4309 76bd 6e8c b03d ebef 20be
00000020: bae6 8cbe 1ab2 b03e 2747 25be 650d ae3d
00000030: b65a cdbd 5cda 9ebd adb8 aa3e cac5 4fbe
00000040: 300f cd3e 6b2a 003e b339 5f3e 8400 cbbe
00000050: 7a39 00be 92d9 32be 1870 d0bd 3095 903e
00000060: 6243 02be 47dd 8e3e 9bb3 c53e 5e21 433e
00000070: 0e4f f9bd c1ae cb3e 6351 2ebe 39fd 95be
00000080: 0ea5 ca3e d073 f6be b821 c2bd 7e1d d5be
00000090: 0b87 383f 76cf dc3d be2b e0bd 6a18 80bd
000000a0: 45fc 983e 056e 99bd 8f60 b83e 35f7 d7bd
000000b0: 1e2e da3e e425 cabd 2cc5 343f ccf9 213d
000000c0: 24f5 223c a4fa 18be 6c90 25be d281 50be
000000d0: 5464 793e 2862 a23e cba1 61be a8cf 963e
000000e0: d7d4 233d bab0 8a3e 852e 423d 78a7 9bbe
000000f0: 5e68 95bd 0592 403e 07d3 8abc 552c 4fbe
0.28167248 -0.022308148 0.30769488 0.17606355 -0.3584747 -0.060067426 0.08620535 -0.15716521
-0.2751978 0.3451088 -0.16140424 0.084986486 -0.10027067 -0.077564925 0.3334402 -0.20290294
0.4005065 0.12516181 0.21799354 -0.3964883 -0.12521926 -0.17465809 -0.1017763 0.2823882
-0.12721017 0.27903196 0.3861359 0.19055697 -0.121732816 0.39781764 -0.17023234 -0.29294756
0.39579052 -0.48135233 -0.094790876 -0.41624063 0.7208106 0.107817575 -0.10945843 -0.062546566
0.29879966 -0.07491688 0.36011168 -0.10545198 0.4261331 -0.09870508 0.7061336 0.039544865
0.009946141 -0.14939362 -0.16168374 -0.20362023 0.24354678 0.31715512 -0.22034375 0.29455304
0.0399979 0.27087957 0.047407646 -0.30401206 -0.07295297 0.18805702 -0.016946329 -0.20231755

transformer.layers.0.1.branch.4.weight f4 [8, 32]
00000000: b005 bcbd 070d e6bd 53b7 ec3d 3251 4f3e
00000010: e746 923c cd58 993d 0ff9 443e 6420 5c3e
00000020: e803 66be 6647 f23d 02ba 803e 98c4 4cbe
00000030: 3be2 983c d561 1a3d 9405 90bd f41d 5cba
00000040: 3215 1abd 4554 dd3d bf18 033e a49a e23d
00000050: 7ed2 38be 3b69 b23d 2625 e6bd 4886 24bc
00000060: c55a 03be d5ac 2bbe c2d1 633e a851 5c3d
00000070: 4dce 053d 30d3 463e 1e06 25be 5f9c 0cbe
00000080: dc18 8bbd c5b9 18bc 00f2 43be 0458 b73d
00000090: d993 c43d b673 e4bd 3c2f 44bd bba1 193e
000000a0: f0e2 b53d dd83 89bd 7d9c eabc b3fa cb3c
000000b0: 176f 76be 6ce6 4f3e 0e5a 17be db21 783c
000000c0: 38e7 5dbe c24a bd3d 1b88 65be 503e cfbc
000000d0: 6d11 83be 53d6 18be 78b2 753d b9b0 2f3e
000000e0: 8a8b 4bbe 7b31 2dbe f173 e8be d053 4fbe
000000f0: e0ac 333e c0f4 2f3d ff0b 1a3e 93bc f0bc
00000100: b248 7c3e 3235 d93d 1e53 f93d cc26 d8bd
00000110: 9cc6 2dbe b6bc 893d d899 05bc 3762 48be
00000120: ce53 f03c d475 df3d 1597 76bc 7104 f8bd
00000130: 8112 193e 1d7b a33d d549 543e 1bef f6bd
00000140: 7550 e13d 6799 e6bd 19ce ff3d f9ba a6be
00000150: 993d 9fb9 52f4 aa3c dd20 d83c 8c04 15be
00000160: 8ed5 063c cf9e 413e fe72 8e3d e28a 913c
00000170: 159e 0fbd 89bf 19bd 9653 1cbe 0ef5 5bbb
00000180: 739f 043d 562e cabc ac22 debd 65e3 c93b
00000190: 15b2 dfbd 0a7a b9bd 49ef d7bc 4a36 4dbb
000001a0: 2242 963d 20f2 34bd 81ce 0d3e 9a8a b33b
000001b0: 8a22 793e 2cdb dcbd d74d df3d 467e 0abd
000001c0: 307e 3d3e 060d 86be a706 693e e5de 11be
000001d0: 55a1 0a3d 03f2 3cbc 0d9b c23c d962 97bd
000001e0: 686d 0d3e 07bf 993d 916e 0ebe 9855 d13d
000001f0: 7232 e7bb 137a dfbd 8124 133e 10e7 a7bd
00000200: b746 f6bd 6dd9 0abe 9d5b 653d 0b58 863d
00000210: b71c 313d 2458 94bd 4bc8 19bd b3f1 233c
00000220: e630 c9bb 9617 bdbc 08ec 9c3d 23be a1bd
00000230: c007 5e3d 3959 f9bc daca babd e67d 303e
00000240: c5ea 253e dd3e 4c3e b1c6 13bd b788 753c
00000250: f161 e03c e8f4 aabc 7f89 81bd 5142 0b3d
00000260: 2874 cf3d 62c4 23be d8a3 90bd 56f2 9fbd
00000270: 02b1 f23d e66d 6f3d 3f77 883d 6c4b 0bbe
00000280: f773 57be f25c 613e 9536 f53d 66fa 94be
00000290: 59db 713e 6c1e 4ebe ef8a 9bbe ae8d 673e
000002a0: ad1c 463d d991 3ebe 2bf3 5fbd 6d75 3f3e
000002b0: 76fe 16be a32b 963d 76df 7abe 7584 b8bd
000002c0: e68a 0fbe 66ac a43d 41b9 2fbe ac05 213e
000002d0: c7de ff3d fbb5 5ebe 0d99 343e 30b2 ec3d
000002e0: 80ef 893b 5ada 79be 180b 80bd 0482 a43e
000002f0: a22c 4b3e 4607 40be 05bf 333e 00be 173e
00000300: b9f0 4c3e ab61 7fbd 36ac f7bd 67e7 763b
00000310: 539a 4abe cc7f 99bd f433 2b3c 4987 05be
00000320: b4a5 083c e678 dcbc 3f5c 8dbd 3de8 4f3d
00000330: 8851 e23d e526 a1bc d060 273e c7cc 59bd
00000340: 818f 103e 5612 11be 505e 62bd c14c b63d
00000350: 18e2 313e f2e1 eebc c693 163d 6e76 cabd
00000360: 9b48 9ebd ea21 023e 5820 57bd 4eec 82bb
00000370: b080 96bc 96b7 adbc bdbf c03d 1093 22bd
00000380: ca2f 0c3e 765e 83be 1922 053d 6c0b 6e3e
00000390: 11b8 26be cfc8 78bc 4e65 c23c 86bc f3bc
000003a0: 2479 96bd f737 923d 21c0 70bd be86 e5bd
000003b0: 5294 163e 9260 8a3d 8e1e ff3d 5ab5 4a3e
000003c0: 4fc2 ac3d ba79 3dbc b649 b63d 4cee babd
000003d0: a4cb 8dbd ebf6 073e 063e eabd f5f5 09be
000003e0: 26db d53d 4405 c83d 3798 3d3e a5f6 39ba
000003f0: 35d3 81bd fbdd 423e 13f9 843d 5b03 6fbe
-0.09180772 -0.112329535 0.11558404 0.20245817 0.017856074 0.074876405 0.19235633 0.21496731
-0.22462428 0.118300244 0.25141913 -0.1999687 0.018662563 0.037690956 -0.07032314 -0.00083967973
-0.03761787 0.10807089 0.12802409 0.110646516 -0.18049046 0.08711477 -0.11237554 -0.010041781
-0.12827595 -0.16765149 0.22247985 0.05378881 0.032667447 0.19416499 -0.16115615 -0.13731526
-0.06791851 -0.009321635 -0.19135284 0.089523345 0.09598512 -0.111548826 -0.04789661 0.15003102
0.088811755 -0.06714604 -0.028639073 0.024899816 -0.24065815 0.20302743 -0.14780447 0.0151447905
-0.21670234 0.092427745 -0.22415201 -0.025298268 -0.25599232 -0.14925508 0.059984654 0.17157258
-0.19877449 -0.16913407 -0.45400956 -0.20246816 0.17546415 0.04295802 0.15043639 -0.029386794
0.24637106 0.10605849 0.121740565 -0.10554275 -0.16970295 0.06725447 -0.008154355 -0.19568716
0.029336836 0.10911146 -0.015050669 -0.12110222 0.14948465 0.07982466 0.2073129 -0.120573245
0.11001674 -0.11259728 0.12490482 -0.32564524 -0.00030372737 0.020868454 0.026382858 -0.14552516
0.008229626 0.18908237 0.06955527 0.01776642 -0.03506287 -0.037536178 -0.1526626 -0.0033562812
0.032378625 -0.024680298 -0.10846457 0.0061611407 -0.10922638 -0.0905648 -0.026359217 -0.0031312876
0.073368326 -0.04417622 0.13848306 0.005479169 0.24329582 -0.10783991 0.10903519 -0.03381183
0.18505168 -0.2618181 0.22756444 -0.14245184 0.033845264 -0.011532309 0.023755575 -0.073919006
0.13811266 0.07507139 -0.13909365 0.10221404 -0.007055574 -0.10911956 0.14369394 -0.081983685
-0.120252065 -0.13559504 0.055995572 0.065597616 0.043240275 -0.07243374 -0.03754453 0.010006356
-0.0061398624 -0.023082536 0.07662207 -0.07897594 0.05420661 -0.030438052 -0.09120722 0.17235526
0.16202839 0.19945855 -0.03607816 0.014986209 0.027390452 -0.020868734 -0.063250534 0.03399879
0.10129577 -0.15992883 -0.07062501 -0.07809894 0.11850168 0.058454417 0.066633694 -0.1360299
-0.21040331 0.22008112 0.11973301 -0.2909729 0.2361883 -0.20128793 -0.30379435 0.2261264
0.04836719 -0.18610324 -0.054675262 0.18697138 -0.14745507 0.07332542 -0.24499306 -0.09009639
-0.1401783 0.08040695 -0.17160513 0.1572482 0.12493663 -0.21749108 0.17636509 0.11557424
0.004209459 -0.24399701 -0.06252116 0.32130444 0.19841245 -0.18752775 0.17553337 0.14818573
0.20013703 -0.062349003 -0.120933935 0.0037674548 -0.19785433 -0.074950784 0.010449398 -0.13039888
0.008340288 -0.026913118 -0.0690236 0.05075859 0.11050707 -0.019671867 0.16345525 -0.053173807
0.14117242 -0.14167151 -0.055265725 0.089013584 0.17371404 -0.029160473 0.03676202 -0.0988587
-0.07728692 0.1270825 -0.05252108 -0.003995455 -0.01837191 -0.021205705 0.09411571 -0.03969103
0.13690105 -0.25658005 0.03250322 0.23246545 -0.16281153 -0.015184595 0.023729946 -0.02975298
-0.073473245 0.07139581 -0.05877698 -0.11207341 0.14705017 0.067567006 0.12457 0.19795743
0.08435499 -0.011564666 0.08900778 -0.09127483 -0.06923607 0.13277785 -0.11437611 -0.13472731
0.1044219 0.09766629 0.18515097 -0.0007093943 -0.06339113 0.19029991 0.0649282 -0.23341124

transformer.layers.0.1.branch.4.bias f4 [8]
00000000: 31f7 a43d 93b2 0bbe c9f2 1bbd da2c 0abe
00000010: 8c75 2bbe cef5 d2bc a88d d83d da35 a03d
0.080549605 -0.1364234 -0.038073335 -0.13493672 -0.1674406 -0.025751974 0.10573894 0.07822771

transformer.layers.0.1.norm.gamma f4 [8]
00000000: 3d88 a63e ffb6 043e 2cf5 973e 59d6 3b3e
00000010: c3a8 2d3e 270c 143f 3ecd af3e 0541 013f
0.32525817 0.12960432 0.2967924 0.18343486 0.16958909 0.57831043 0.34336275 0.50489837

transformer.layers.1.0.static_alpha f4 [4, 5]
00000000: a4f8 083e 0000 803f 0000 0000 0000 0000
00000010: 0000 0000 b3cb 7c3e 0000 0000 0000 803f
00000020: 0000 0000 0000 0000 3f82 bf3d 0000 0000
00000030: 0000 0000 0000 803f 0000 0000 e1cc ff3e
00000040: 0000 0000 0000 0000 0000 0000 0000 803f
0.13376099 1.0 0.0 0.0 0.0 0.2468708 0.0 1.0
0.0 0.0 0.09351014 0.0 0.0 1.0 0.0 0.49960998
0.0 0.0 0.0 1.0

transformer.layers.1.0.dynamic_alpha_fn f4 [8, 5]
00000000: 2128 873e 0000 0000 0000 0000 0000 0000
00000010: 0000 0000 e4be 743d 0000 0000 0000 0000
00000020: 0000 0000 0000 0000 ba38 2e3d 0000 0000
00000030: 0000 0000 0000 0000 0000 0000 5d2e 2f3d
00000040: 0000 0000 0000 0000 0000 0000 0000 0000
00000050: ec56 21be 0000 0000 0000 0000 0000 0000
00000060: 0000 0000 e3b0 463e 0000 0000 0000 0000
00000070: 0000 0000 0000 0000 41d4 98be 0000 0000
00000080: 0000 0000 0000 0000 0000 0000 1945 d03a
00000090: 0000 0000 0000 0000 0000 0000 0000 0000
0.26397803 0.0 0.0 0.0 0.0 0.05975236 0.0 0.0
0.0 0.0 0.042534567 0.0 0.0 0.0 0.0 0.042768825
0.0 0.0 0.0 0.0 -0.15755814 0.0 0.0 0.0
0.0 0.19403414 0.0 0.0 0.0 0.0 -0.29849437 0.0
0.0 0.0 0.0 0.0015889733 0.0 0.0 0.0 0.0

transformer.layers.1.0.static_beta f4 [4]
00000000: bf0b 813f d1ad 763f f342 7f3f 291b 6f3f
1.008171 0.9635897 0.9971153 0.9340082

transformer.layers.1.0.dynamic_beta_fn f4 [8]
00000000: d83e 91be b724 f33e b060 08be 1b5f 723e
00000010: b758 aabc ec31 a83e e79e 9d3d 6c49 df3b
-0.28368258 0.4748895 -0.13318133 0.23669092 -0.020794256 0.32850587 0.07696324 0.0068141725

transformer.layers.1.0.branch.norm.weight f4 [8]
00000000: 2d85 553f 555e 603f 4ad5 753f 218a 8b3f
00000010: 6715 813f c069 6c3f 62c0 6b3f f745 803f
0.83406335 0.8764394 0.9602858 1.0901529 1.0084656 0.9234886 0.9209043 1.0021352

transformer.layers.1.0.branch.norm.bias f4 [8]
00000000: 6e02 173d df18 833d f9be 13bd 68b2 0b3d
00000010: a167 6f3d 0882 933d 4350 7cbd 2c00 1a3d
0.03686755 0.06401228 -0.036070798 0.03410569 0.058448438 0.07202536 -0.06159998 0.03759782

transformer.layers.1.0.branch.to_qkv.weight f4 [192, 8]
00000000: e616 26be f863 423c 44bb 9fbe 7ab7 98be
00000010: 7b62 42bd b6a2 213e 8b21 b5be 3659 aabe
00000020: 7562 cd3d 5475 703e 45dd 923d 1f45 1e3e
00000030: 0b76 573e a82e 99be 4311 d5be 46cd 4a3d
00000040: fdb7 4ebe 6543 cebe e5ca 013e c1c1 9abe
00000050: 5274 a23e c5fe 9fbe ee3e 84bc ecff a43e
00000060: 6d16 013e 3f4a 88be ab24 a2be 6672 b53e
00000070: 688e 87be 356f 923e 4767 5bbe a8f8 c23e
00000080: acf5 8d3e 5a2a d6be 60a9 ab3d b98f b03c
00000090: 85d9 cc3d fae6 88be 5c2f f83c 986f 873e
000000a0: 39f0 1dbe edf9 463a 63ea 98bd 50ff e7be
000000b0: 0e53 293e 8508 fb3d c946 ae3e b433 a83e
000000c0: cdd7 49be 1560 d7be 564e dfbc 6d02 a4be
000000d0: 8117 08bd 3aba 31be ce54 7a3d 6a13 1cbe
000000e0: a334 913e 0d5f ad3d dfb4 ffbd 9aac 8f3e
000000f0: 52ea 90be fcb5 75bd a758 c6be af9c cd3c
00000100: 9dd4 52be 8c0f 2d3e b404 2ebe f707 82be
00000110: 030f b33c c7a7 803e bde7 593e 61bc 793e
00000120: 146a 96be 4d00 15be 6211 38be fe53 88bd
00000130: f40d 9c3e efbf 8bbe abb9 6bbe 1348 99be
00000140: 5870 8b3e c7f7 3a3e 38ab 383e 06c6 a1bd
00000150: fd3a 4d3e e184 9d3c ecc0 913d 32d3 493e
00000160: 0c98 84be 01d3 af3c 0079 113e c034 7fbe
00000170: a7ca 64be 220e 123d b0e9 9fbd ded8 ac3d
00000180: 7e35 abbe fa17 81be b589 b33e b9b5 c33d
00000190: 8986 633d fe98 b23e bbd6 873c bd1d bf3d
000001a0: d1cd 5c3e c87c c63e 3cf6 43b7 720f b83d
000001b0: 143e 9bbe 9903 49bd 4bfc 5a3d 32e3 1d3d
000001c0: 178a 0fbe c25b 433e 8743 dfbe 0ba0 1d3e
000001d0: eaeb 9f3e 8a2f 083b 3f29 213e 532a 17be
000001e0: f302 98be e750 2e3e 5293 bcbe ca50 643d
000001f0: fd82 b83d d573 433e 1a5f c53e e751 b63e
00000200: 7043 743e 834a 06bf 9b60 93be 19f3 0ebf
00000210: 7fa9 5b3e 5b3a 4cbe c1ef e93e 0a9b d43d
00000220: bfcb f5be 8967 e43e 2d9b f9bc aa70 61be
00000230: 2de9 a03e 3aeb 79be b111 09be 9182 6c3e
00000240: c7d8 c83e 18d8 ad3d 7315 1fbe aa2f 1dbe
00000250: 526f c43c 7f35 8d3d 0c7c e8bd 3ff1 3d3d
00000260: e0d1 36bd 04c3 71be c818 78be 4a97 82bd
00000270: 84a7 bf3d e9bf 073e 5e0f c6bd 249f 993e
00000280: 51e2 673d 1e62 2fbe 9e6f b23d ceca 8d3e
00000290: 4d95 b6be ed73 84be 2cb5 323e f239 5ebd
000002a0: 9bf6 d13c 74c2 6e3c 1329 073e 4200 69be
000002b0: 8ffb 59be d6eb c83e d08b aebc 1ee8 2dbe
000002c0: 4a35 e33d 85f5 b83e 0013 c3be 488d 863e
000002d0: 78d3 95be b99e 0b3e fe8f 683c 635f d83e
000002e0: 76fb 4c3e efbc 40be a31c d0bc a4f1 4fbe
000002f0: 97e8 623e 7c92 e03d 988e f23d 7224 4dbd
00000300: 21b7 8dbd 1e08 5a3d 2acb c5bd 7839 5a3e
00000310: 219e c53e 5997 953a 0e3d b8be 8257 213d
00000320: aaaa 0dbf 7373 a23e a362 3c3e a2a1 13be
00000330: 3743 b1bc 2c6c 82be cf80 a6bd 9ce7 713e
00000340: 32c8 af3d 43b4 28bd 2d04 943e fa90 0cbe
00000350: e578 4bbe 6021 c0be f284 3bbe 68b1 1cbd
00000360: b5b3 31be 332f 4cbe dcf6 353d 6172 923d
00000370: 2c66 903e 5499 f13c 438f 7b3e 5f5b b6be
00000380: 577c f7be 8119 af3b 03f4 dbbe d63d cd3d
00000390: 0d22 57be 182a ae3d 9a16 45bc 7d63 ecbd
000003a0: bdb2 073e 70be 8e3e 85af 0abe 00a8 01be
000003b0: b1de 8abe 895e 2f3e 896b 823e 5a62 a0be
000003c0: 1023 8d3e 7175 ff3d 67ef ca3d 991d 443e
000003d0: b8aa 8c3d c8db a6be 4249 37be 179d d9be
000003e0: e9ba 523e da08 ab3e 18b7 4d3d 2acf b8bd
000003f0: 23e4 913c 8dca a43d 9522 fc3d 9e22 c43e
-0.16219673 0.011864655 -0.3119756 -0.29827482 -0.0474572 0.15784726 -0.35377154 -0.33271188
0.10028545 0.23482257 0.0717111 0.15456055 0.21041124 -0.29918408 -0.41614732 0.04951217
-0.20187373 -0.40285793 0.12675054 -0.30225947 0.3172937 -0.3124906 -0.016143288 0.32226503
0.12606211 -0.26619145 -0.316686 0.35438842 -0.26475835 0.2860047 -0.21426116 0.38080335
0.27726495 -0.41829187 0.08381915 0.021552907 0.10002426 -0.2673872 0.03029602 0.26452327
-0.15423669 0.00075903424 -0.07466581 -0.45311975 0.16535589 0.12257484 0.3403838 0.32851946
-0.19711228 -0.42065492 -0.027259033 -0.320331 -0.03322554 -0.17356196 0.061116032 -0.15241781
0.2836047 0.08465395 -0.1248567 0.28061372 -0.28303772 -0.059988007 -0.3873951 0.025099127
-0.20588918 0.16900462 -0.16993982 -0.25396702 0.021857744 0.25128004 0.21279807 0.24388267
-0.29377806 -0.14550896 -0.17975381 -0.06656645 0.30479395 -0.2729487 -0.23020045 -0.299378
0.2723415 0.18258582 0.18034065 -0.07899098 0.20042033 0.0192284 0.07116875 0.19709471
-0.25897253 0.02146292 0.14206314 -0.24922466 -0.2234293 0.03565801 -0.07808244 0.08439802
-0.3343925 -0.25213605 0.35066 0.09556145 0.055548225 0.3488235 0.016581884 0.09331844
0.21562888 0.38767076 -1.1680237e-05 0.08987321 -0.303208 -0.049075697 0.05346326 0.03854675
-0.14017521 0.19077972 -0.43606207 0.15393083 0.31234676 0.0020780289 0.1573839 -0.14762239
-0.2968975 0.1702305 -0.36831146 0.05574111 0.09009359 0.19087155 0.3854912 0.35609362
0.2385385 -0.52457446 -0.28784642 -0.5583969 0.21451376 -0.19944136 0.4569073 0.10381134
-0.48007008 0.4461024 -0.030469501 -0.22015634 0.314279 -0.24406138 -0.13385655 0.23096682
0.39227888 0.08488482 -0.15535526 -0.15350214 0.023978863 0.06894969 -0.11351785 0.04637265
-0.044633746 -0.23609549 -0.24228203 -0.06376512 0.09358123 0.13256802 -0.096709 0.30004227
0.056612317 -0.17127272 0.087126955 0.2769379 -0.35660782 -0.25869694 0.17451924 -0.05425448
0.025630286 0.014572728 0.13199262 -0.22754005 -0.21287368 0.3924243 -0.021306902 -0.16983077
0.110941485 0.36124817 -0.38100433 0.26279664 -0.292629 0.13634767 0.014194487 0.42260274
0.200178 -0.18822072 -0.02540428 -0.20307022 0.22159038 0.1096544 0.11843604 -0.050083585
-0.06919695 0.053230397 -0.09657891 0.21310985 0.38597205 0.0011412903 -0.3598408 0.039390095
-0.5533854 0.31728706 0.18397002 -0.14417127 -0.021638496 -0.25473154 -0.08130037 0.23623508
0.08583106 -0.041187536 0.28909436 -0.13727179 -0.19870336 -0.37525463 -0.18312433 -0.038255125
-0.17353709 -0.1993988 0.044424877 0.07150722 0.2820295 0.029492058 0.24566369 -0.35616586
-0.4833705 0.0053436165 -0.42959604 0.1002156 -0.21009083 0.085041225 -0.012029314 -0.115424134
0.13251777 0.27879667 -0.13543518 -0.12661743 -0.27123025 0.17125906 0.25472668 -0.31325036
0.27565813 0.12473572 0.099089436 0.19151916 0.068684995 -0.32589555 -0.1789904 -0.42502663
0.20579113 0.3340519 0.05022344 -0.090238884 0.01780898 0.08046446 0.123112835 0.3830766

transformer.layers.1.0.branch.to_out.weight f4 [8, 64]
00000000: 771a 563d a588 93bd 262f f63d c96e a63d
00000010: d6d2 e93d f61b 503d 564d 98bc 78fa cdbc
00000020: 9c60 05be 724e 93bd f011 533c b580 ccbd
00000030: 424d c6bd dd21 c43d 89a2 2ebe 3416 f3bd
00000040: 6787 1a3e 1e81 0bbe c8a6 27be 875a 51bb
00000050: e81e efbd 405b b53d 4926 5a3c 2bb7 633b
00000060: cc51 073e 3180 263e 06c4 273d 1808 f53c
00000070: 96ec b93d e229 debd 2eb2 363d 5f45 0a3e
00000080: 25c9 c1bc 600e 063e 99f2 be3d 39cb 19be
00000090: 509b 123e 52e4 923a 9964 983c 8170 ac3d
000000a0: 8178 c63b 3ea1 0a3e 9645 19be a4ca 2d3d
000000b0: 3a51 ec3b ddc9 8ebd 6184 3cbd 96da 03bd
000000c0: 91ca 94bd 2794 3ebc d98e dd3d dddc db3c
000000d0: e7ce 793c 75c6 763d 7d90 89bd 074f 67bc
000000e0: efc3 a6bc 15e4 8dbc 3ad6 6e3d 2c5e 323c
000000f0: 80bb bfbd 480b e6bd 5bf9 37bc b9d5 dc3d
00000100: 5f3d c03d 48a9 e1bd 2274 163d f182 7c3c
00000110: eb1a 58bd f413 223d 4ab2 e13c a003 abbd
00000120: 57f3 5a3d ab7e b2bb c874 9e3d 9a68 c53d
00000130: b8a4 bd3d 65d5 e83c d57e db3c 79a4 ef3c
00000140: 6fb4 bcbd 1385 b93d c749 22bd 4c3a 8d3c
00000150: 93d7 a83d 3a5d 7dbd 5d70 fbbc a48d 743c
00000160: 8f45 b13c 5301 473c ccbe 003c 5b3e 34bc
00000170: 0831 e7bd 6eb1 d5bd f2da 9dbd 60a9 543d
00000180: 7c05 49bd 2256 b8bd c2ae cbbb 24bf 093e
00000190: 82c4 64bd 8623 ecbc 6683 23bd 6581 8abd
000001a0: cf54 503e da15 0f3c 6389 5fbd 8677 f5bd
000001b0: 9493 e03c 2a8c 6fbd 8abe 3e3d 51bb 29be
000001c0: a632 9cbd 7625 6abb e3bc b2bd db0c 823d
000001d0: 0b31 87bc 0c13 3fba 8f6a 403d cb91 5d3d
000001e0: 847a 03be 0220 ee3c 5eff e13d 0d12 77bc
000001f0: 52ff d03c 5902 843c e429 643d a673 df3a
00000200: 1c0f 063c d785 0a3e c61e b73d 555d be3d
00000210: b23b a03d 9b5b d53c dc2e 6a3c ab65 213d
00000220: 541f b63c 4037 36bd f666 85bc ec1e 483d
00000230: 0539 993a aa50 0d3e f8ac 66bd 706c 083c
00000240: b5ba ae3d db0c 1c3e c3ac 1abe 785b 453c
00000250: 2ee9 703d 4046 853d eaac 3dbc 80b1 95bd
00000260: bb49 0c3e 7e8c cb3d f40b 4d3b bf17 d83d
00000270: 6c15 2a3e 0f67 a6bd dd0c 523d 926f 05bc
00000280: c7c6 0a3c 491e a63d 049c 02bd 1912 39be
00000290: f566 7b3d ea4d 8a3c 7dc6 553e 48bb 01bd
000002a0: 235d ebbd 71a9 813d 0442 1abe 4d32 393e
000002b0: 86c4 253e be4a e5bd cd26 c5bd a627 153e
000002c0: 77ee 6a3d b2f4 53bc 56f3 833d ae80 f3bb
000002d0: 162b 25bb 6fcc c33d 359e 88bd e641 15be
000002e0: 71e8 753d e0dc acbd 1c68 163e d487 723d
000002f0: 8c9b 0cbe ba33 5fbc d6d2 2cbc 47f2 d93d
00000300: 82d8 0c3d ecfd 09be b2cb 93bd 85a1 3d3d
00000310: ae72 ecbc 768f 3a3d b3da 32be b20f cbbc
00000320: 0398 f53d a290 b93b e1ae 873d 1b67 df3d
00000330: a26a d93d e87c 3bbd 78d1 c5bb 1cd0 e03d
00000340: e4dc ae3c ddca afbd 0a3b a23d 2e2f e3bd
00000350: 23e5 593c 0abf 2d3d eb6b e13d d677 a93d
00000360: 70fd ec3c a756 63bc 4b7b 6dbc eda6 f9bd
00000370: 4cc0 b4bc 957b e0bd 7775 ddbd a50e 303e
00000380: 11a3 a0bc 1f72 84bc 0dc9 39bd d453 5bb9
00000390: 6f10 86bd bdeb 81bd 4af7 4dbc 700d 7abd
000003a0: 0d2c 203e 1dfe b23d 10a6 763d 1618 6fbd
000003b0: df85 d1bd 11df b93c 6db0 d73d 0ead e6bd
000003c0: e51c 173d 7e68 41bd 72d0 c1bd 992d b73d
000003d0: e23e 8a3d 5439 5dbc d62d 873c 4fa9 c33d
000003e0: 4621 6fbd 7f62 c3bc 07b3 fe3c 1ca3 04be
000003f0: e292 ca3d d086 fa3d a699 08bd 86ac e3bd
0.052271333 -0.07203797 0.120207116 0.08126599 0.11417167 0.050807916 -0.018591564 -0.025143847
-0.13025135 -0.07192697 0.012882695 -0.099854864 -0.096827045 0.095767714 -0.1705419 -0.11869469
0.15090714 -0.13623473 -0.16372216 -0.0031944828 -0.11675817 0.08855295 0.013314792 0.0034746628
0.13214797 0.16259839 0.040958427 0.029911086 0.09078328 -0.10847832 0.04460352 0.13503025
-0.023655483 0.13091421 0.093236156 -0.1501893 0.1431706 0.0011206961 0.018602656 0.08419896
0.0060568457 0.13538072 -0.14967951 0.04242958 0.0072118314 -0.06972096 -0.046024684 -0.03219088
-0.07265199 -0.011632002 0.10818262 0.026838714 0.015247083 0.060247857 -0.06717012 -0.014117963
-0.0203571 -0.017320672 0.05830977 0.01088671 -0.09361935 -0.112326205 -0.011228885 0.10782952
0.093867056 -0.11018616 0.036731847 0.015412078 -0.052760046 0.03956981 0.027550835 -0.08350301
0.053454723 -0.005447229 0.07737118 0.09639092 0.09259933 0.028422067 0.026793877 0.029253231
-0.092141025 0.09058585 -0.03962114 0.017239712 0.082442425 -0.061856486 -0.030693227 0.014926348
0.021639613 0.012146312 0.0078579895 -0.011001195 -0.11288649 -0.10434233 -0.07707776 0.05191934
-0.049077496 -0.090008035 -0.006215901 0.1345182 -0.055851467 -0.028825533 -0.039920233 -0.06762961
0.20344852 0.008733237 -0.05457438 -0.11985688 0.02741412 -0.05848328 0.04656843 -0.16575362
-0.07626848 -0.0035727895 -0.087274335 0.06350108 -0.016502878 -0.000728891 0.046976622 0.054094117
-0.12839705 0.029067997 0.110350356 -0.015079987 0.025512371 0.0161144 0.055704013 0.0017048016
0.008182313 0.13527618 0.089414164 0.092951454 0.07823886 0.026044657 0.014293399 0.0394036
0.022231735 -0.044486284 -0.016284447 0.048857614 0.0011689967 0.13800302 -0.0563173 0.008326635
0.08531705 0.15239279 -0.15104966 0.012045734 0.058816127 0.0650754 -0.01157687 -0.07309246
0.13700001 0.09938906 0.0031287642 0.10551404 0.16609734 -0.081251256 0.0512818 -0.008144276
0.008470244 0.08111245 -0.03188707 -0.1807331 0.061377484 0.016882855 0.20876499 -0.031672746
-0.11492374 0.063311465 -0.15064245 0.18085594 0.16188249 -0.111958966 -0.09626541 0.14565906
0.057356324 -0.012936758 0.06442897 -0.0074311113 -0.0025202683 0.09560477 -0.066708006 -0.1457592
0.060036127 -0.08440566 0.14688152 0.059211567 -0.13731211 -0.013623172 -0.010548314 0.10641914
0.034386165 -0.1347577 -0.07216586 0.046296615 -0.028863277 0.04554697 -0.1746624 -0.024787758
0.119918846 0.0056629935 0.066251524 0.10908338 0.10616042 -0.045773417 -0.0060369335 0.10977194
0.021345563 -0.08583615 0.07921417 -0.11092983 0.013299259 0.042418517 0.11006912 0.0827481
0.028929442 -0.01387564 -0.014494727 -0.12190042 -0.02206435 -0.109610714 -0.1081342 0.17193086
-0.019609006 -0.016167698 -0.045357753 -0.00020916696 -0.06546103 -0.06343792 -0.012571165 -0.06104797
0.15641804 0.087398745 0.060216963 -0.05837258 -0.10230612 0.022689374 0.105316974 -0.11263476
0.03689279 -0.047218792 -0.09463586 0.08944244 0.06750275 -0.013502438 0.016501348 0.095537774
-0.05838134 -0.023850678 0.031091226 -0.12952846 0.09891297 0.12232745 -0.033349656 -0.111168906

transformer.layers.1.0.norm.gamma f4 [8]
00000000: 9053 f43e 323f 4f3f d163 4d3e 4527 e03e
00000010: a1b7 e33c 6f20 0c3f 424b 5e3e b7b6 0c3d
0.47720003 0.80955803 0.20057608 0.4377996 0.027797522 0.5473699 0.21708396 0.034353938

transformer.layers.1.1.static_alpha f4 [4, 5]
00000000: e693 4b3d 0000 803f 0000 0000 0000 0000
00000010: 0000 0000 6648 963d 0000 0000 0000 803f
00000020: 0000 0000 0000 0000 4653 853d 0000 0000
00000030: 0000 0000 0000 803f 0000 0000 b93b 4e3f
00000040: 0000 0000 0000 0000 0000 0000 0000 803f
0.049701594 1.0 0.0 0.0 0.0 0.07338028 0.0 1.0
0.0 0.0 0.06510024 0.0 0.0 1.0 0.0 0.8055988
0.0 0.0 0.0 1.0

transformer.layers.1.1.dynamic_alpha_fn f4 [8, 5]
00000000: 41cf ad3d 0000 0000 0000 0000 0000 0000
00000010: 0000 0000 5e22 82be 0000 0000 0000 0000
00000020: 0000 0000 0000 0000 ca90 6cbd 0000 0000
00000030: 0000 0000 0000 0000 0000 0000 583a 8cbe
00000040: 0000 0000 0000 0000 0000 0000 0000 0000
00000050: 34c6 163d 0000 0000 0000 0000 0000 0000
00000060: 0000 0000 0349 cebe 0000 0000 0000 0000
00000070: 0000 0000 0000 0000 5fba b4bd 0000 0000
00000080: 0000 0000 0000 0000 0000 0000 9642 523d
00000090: 0000 0000 0000 0000 0000 0000 0000 0000
0.08486796 0.0 0.0 0.0 0.0 -0.25416845 0.0 0.0
0.0 0.0 -0.05775527 0.0 0.0 0.0 0.0 -0.27388263
0.0 0.0 0.0 0.0 0.036810115 0.0 0.0 0.0
0.0 -0.4029008 0.0 0.0 0.0 0.0 -0.0882461 0.0
0.0 0.0 0.0 0.051333033 0.0 0.0 0.0 0.0

transformer.layers.1.1.static_beta f4 [4]
00000000: ec3e 7a3f 60be 8c3f a6ec 873f 0d64 463f
0.9775226 1.0995598 1.0619094 0.77496415

transformer.layers.1.1.dynamic_beta_fn f4 [8]
00000000: 23d3 063d 1809 d93c a3e8 cfbb b778 fb3e
00000010: 5839 e8bc 8b40 4cbc 79e4 bebd e350 683d
0.0329162 0.026493594 -0.006344871 0.49115536 -0.028347656 -0.01246656 -0.093209215 0.056717765

transformer.layers.1.1.branch.0.weight f4 [8]
00000000: c0f0 6a3f bb49 923f ecad 813f 3553 a23f
00000010: 77cc 713f cb3d 8a3f 90e7 853f a904 913f
0.91773605 1.1428751 1.0131202 1.2681643 0.94452614 1.0800108 1.0461292 1.1329547
