Projektarbeit_FTTransformer/trained_models/physical_loss_training/model_lr0.00025_8_1_4_4_.3_.3PhysicsLambda1_date_20250811_epoch9700.pt (torch, 94456 bytes, 87 tensors)

cls_token f4 [1, 1, 8]
000000 41 0b e0 bf 01 d3 3b 3f 60 de 1e 3f 4a 96 8f 3d
       -1.7503434 0.7336884 0.6205807 0.07011087
000010 2c d2 b7 bf f3 50 72 bc b7 e1 1c bf 4b e9 29 3f
       -1.4361014 -0.014789808 -0.61281914 0.663716

categorical_embeds.weight f4 [3, 8]
000000 f5 5c 85 bf e4 2e a4 bf b4 5f 48 be 74 8f e9 be
       -1.0418993 -1.282681 -0.19567758 -0.4561726
000010 69 cf 3f be 84 6e a6 3d a1 e0 20 40 e1 67 00 c0
       -0.18731464 0.08126548 2.5137103 -2.0063403
000020 82 ca 87 3b 88 68 8b 3e 0b 30 00 bf 3f da ae bf
       0.004144014 0.2722819 -0.5007331 -1.3660353
000030 74 dc bb 3e de 49 60 3f 18 78 02 bf ef 24 ac be
       0.3669163 0.8761271 -0.509645 -0.33621928
000040 2b 33 75 3f 77 8c 30 40 aa 9c 9d 3e 79 33 82 3f
       0.957812 2.7585733 0.30783588 1.0171958
000050 80 0f 94 be ec ce fa 3f de fb a3 3e 59 01 2a bf
       -0.28918076 1.9594398 0.32028097 -0.66408306

numerical_embedder.weights f4 [8, 8]
000000 1d 75 55 3d c1 04 a8 bf 23 7b 7f 3f 31 75 c1 be
       0.05211364 -1.3126451 0.99797267 -0.37784722
000010 f4 0c 63 3f 07 c8 e8 bf 15 7e d1 bf 7a 75 41 3f
       0.8869164 -1.8186044 -1.6366602 0.7556988
000020 2c 6c 2f 3f 1b 24 fe be 68 89 2d bd b1 3e c4 be
       0.6852443 -0.4963692 -0.04236737 -0.3832908
000030 43 29 42 3d 1d 19 3a be 09 4d 2a bf 0d 36 ed 3f
       0.04740263 -0.18173642 -0.66523796 1.853212
000040 19 e6 a9 3f 71 2a 7d 3f 83 7a 1f bf c8 db 29 c0
       1.3273345 0.98892885 -0.62296313 -2.6540394
000050 d4 5f 11 bf 54 4f 47 3d 91 2e 83 3e e7 c8 98 bf
       -0.5678685 0.048659638 0.25621465 -1.193631
000060 bb b7 72 3f ff 7f 4c 3f 05 92 84 bf 85 1e 87 bf
       0.948116 0.79882807 -1.0357062 -1.0556189
000070 07 9c 98 be 38 ce e8 3f 3f e2 0a c0 54 77 16 40
       -0.2980654 1.8187933 -2.170059 2.3510332
000080 07 7b 88 bf f6 69 a0 bf 20 e5 c2 bf 02 ef fc 3c
       -1.0662545 -1.2532337 -1.5226173 0.030875687
000090 47 f7 ee be 3c cf c6 be d8 14 8c 3f b7 76 1a 3f
       -0.46673033 -0.38829982 1.0943861 0.60337394
0000a0 bc 93 e9 be 14 17 b3 3e 9d a2 8f 3e fe 3b 2c 3e
       -0.45620525 0.34978545 0.28053752 0.1681976
0000b0 ca 2b a1 3f 64 a7 03 bf 84 57 d8 bf a1 b2 d7 be
       1.2591488 -0.5142729 -1.6901708 -0.4212847
0000c0 68 73 ab be 83 ae 8d 3e 3d b0 24 bd d3 10 88 be
       -0.33486485 0.27672204 -0.040207136 -0.26575336
0000d0 ce 2c 9e bc 77 c3 e0 3e 89 ca 04 40 67 86 5b bf
       -0.019308474 0.43899128 2.0748618 -0.85751957
0000e0 93 5c d8 3f 45 dd c6 3f 2d f3 c0 3f 5a d6 4a bf
       1.6903251 1.5536276 1.5074211 -0.79233325
0000f0 f8 ee a0 bf 06 12 a4 3e cb b4 29 bd c1 1b c1 3f
       -1.2572927 0.32045 -0.041432183 1.5086595

numerical_embedder.biases f4 [8, 8]
000000 c0 f1 ce 3f b2 4d 3a 3d 2d f9 dc be 1b cf a6 be
       1.6167526 0.045484252 -0.43158856 -0.32579884
000010 cb 43 cc bd aa b3 b9 bf 91 f1 c7 bf e2 59 cc 3e
       -0.09973868 -1.4507954 -1.5620595 0.39912325
000020 f3 3d b4 3d 0b 3e 93 bf a6 fc 19 be c4 79 1c 3f
       0.088008784 -1.1503309 -0.15037784 0.611233
000030 b8 9b d9 3d ba c0 5e 3f 14 3d 5d 3e 73 2e cf 3f
       0.10625404 0.8701283 0.2160533 1.618605
000040 f9 72 e3 3e 53 b9 82 3d d7 b9 2d bf 93 7a cf bf
       0.44423655 0.06383004 -0.67861694 -1.6209282
000050 f9 b3 a5 3f a5 26 4f 3e 4c ac ed bf d8 f2 cc 3e
       1.2945548 0.20229585 -1.8568206 0.40029025
000060 31 07 5f be 82 50 9d 3f 26 24 27 3f 5e 7f 0a bf
       -0.21780087 1.2290194 0.65289533 -0.54100597
000070 df 13 83 3f b3 70 ff 3e 59 cb 47 3e e7 e1 1c 40
       1.0240439 0.4989067 0.19511165 2.451288
000080 4f 88 d8 3d 5b fb 04 bf 84 b0 50 bf f9 a7 b3 bf
       0.10572874 -0.5194604 -0.8151934 -1.4035636
000090 75 24 21 be 88 58 57 bf f7 bc 5c 3e 60 6a 39 bf
       -0.15736564 -0.8411946 0.2155646 -0.7242794
0000a0 97 3f bd 3c 71 49 0d bf eb 1b e1 bd 70 7b c6 3e
       0.023101611 -0.5519019 -0.10991653 0.3876605
0000b0 b5 9c 99 3f f7 e2 57 be 1e d0 a7 bf b0 87 9a 3f
       1.2000948 -0.21082674 -1.3110387 1.2072659
0000c0 8a ec f4 3e c2 6a 30 3f 85 2c c6 3f 36 cc 70 bc
       0.47836715 0.689129 1.5482336 -0.014697125
0000d0 a5 0a 77 3f 95 46 84 bf 21 8f d2 3e 3c 65 86 bf
       0.9650062 -1.033404 0.41124824 -1.0499644
0000e0 0a e6 07 3f f4 e9 09 c0 4e 84 aa bf 62 55 12 3d
       0.53085387 -2.1549044 -1.3321626 0.03572596
0000f0 36 89 d0 bc 6b 3b a4 bf 4b 59 de 3d 36 0b 2b bf
       -0.025456052 -1.2830633 0.10856875 -0.6681398

transformer.layers.0.0.static_alpha f4 [4, 5]
000000 af 77 b9 3b 00 00 80 3f 00 00 00 00 00 00 00 00
       0.0056600193 1.0 0.0 0.0
000010 00 00 00 00 af 77 b9 3b 00 00 00 00 00 00 80 3f
       0.0 0.0056600193 0.0 1.0
000020 00 00 00 00 00 00 00 00 af 77 b9 3b 00 00 00 00
       0.0 0.0 0.0056600193 0.0
000030 00 00 00 00 00 00 80 3f 00 00 00 00 81 b8 80 3f
       0.0 1.0 0.0 1.0056306
000040 00 00 00 00 00 00 00 00 00 00 00 00 00 00 80 3f
       0.0 0.0 0.0 1.0

transformer.layers.0.0.dynamic_alpha_fn f4 [8, 5]
000000 5c ff be bd 00 00 00 00 00 00 00 00 00 00 00 00
       -0.0932605 0.0 0.0 0.0
000010 00 00 00 00 00 03 13 3d 00 00 00 00 00 00 00 00
       0.0 0.035891533 0.0 0.0
000020 00 00 00 00 00 00 00 00 19 4a 5a 3c 00 00 00 00
       0.0 0.0 0.01332333 0.0
000030 00 00 00 00 00 00 00 00 00 00 00 00 7b 12 20 3d
       0.0 0.0 0.0 0.039080124
000040 00 00 00 00 00 00 00 00 00 00 00 00 00 00 00 00
       0.0 0.0 0.0 0.0
000050 b9 ee 39 bd 00 00 00 00 00 00 00 00 00 00 00 00
       -0.04539368 0.0 0.0 0.0
000060 00 00 00 00 dc 15 30 3d 00 00 00 00 00 00 00 00
       0.0 0.042989597 0.0 0.0
000070 00 00 00 00 00 00 00 00 90 0c 38 bb 00 00 00 00
       0.0 0.0 -0.002808366 0.0
000080 00 00 00 00 00 00 00 00 00 00 00 00 ec 16 c5 3c
       0.0 0.0 0.0 0.024058782
000090 00 00 00 00 00 00 00 00 00 00 00 00 00 00 00 00
       0.0 0.0 0.0 0.0

transformer.layers.0.0.static_beta f4 [4]
000000 85 bf 72 3f cd 1d 8c 3f e7 6f 78 3f 74 23 7c 3f
       0.94823486 1.0946594 0.9704575 0.984916

transformer.layers.0.0.dynamic_beta_fn f4 [8]
000000 bf 7d 48 bd a7 4b 3e 3d 6a cf 60 3d ce 1e f5 bb
       -0.048948046 0.046458866 0.054885305 -0.007480479
000010 a3 ba 50 bd 20 8e 86 3c 9c d3 64 bd 13 f5 49 3d
       -0.05095924 0.016425192 -0.05586587 0.049305987

transformer.layers.0.0.branch.norm.weight f4 [8]
000000 3d 11 5f 3f ca f0 81 3f 92 34 5c 3f 7f 94 7e 3f
       0.8713568 1.0151608 0.86017716 0.9944534
000010 6d 00 76 3f d6 79 87 3f db ba 5e 3f 0f 1c 5f 3f
       0.960944 1.0584056 0.8700387 0.8715219

transformer.layers.0.0.branch.norm.bias f4 [8]
000000 d4 be 1b 3d 05 a3 bb 3d e3 09 7b bd 9c 8e c4 bd
       0.038023785 0.09161953 -0.061288726 -0.09597513
000010 7b 5e 99 bd dc 32 10 be 65 aa 38 bd 9b 3b 8e 3d
       -0.07488724 -0.14081901 -0.045084376 0.069449626

transformer.layers.0.0.branch.to_qkv.weight f4 [192, 8]
000000 00 e6 7d 3e f6 6a c5 3c b3 26 64 be 91 b8 95 3d
       0.2479477 0.024098855 -0.22280388 0.07310594
000010 e4 d7 50 3e 51 68 ba 3d 69 53 b2 be 58 e2 4c 3e
       0.20394856 0.09101928 -0.34829262 0.20008218
000020 ba d0 59 3e 74 89 7e be e2 3c a2 be 39 1d 92 3c
       0.21271029 -0.24857122 -0.31687075 0.0178362
000030 a4 fd c6 3d 37 5c f8 3c 41 0c c1 3e 44 ac ea be
       0.09716347 0.030317409 0.3770466 -0.45834553
000040 dc cc 4a 3d 3d 2a b7 ba b7 d2 2c 3e 57 d3 fe 3d
       0.049511775 -0.001397438 0.16877256 0.124426536
000050 e4 e0 92 be ab 57 8d 3e c8 1f dc 3e 45 64 2d bd
       -0.28687203 0.27605948 0.42992997 -0.042331953
000060 d7 6a af be 3c e3 9e 3e 4b 9a b1 3e 83 20 3e be
       -0.342612 0.3103274 0.3468803 -0.1856709
000070 be ef a7 be 03 c8 be 3e 36 9f a6 3d b4 48 b1 bd
       -0.32800096 0.37261972 0.08135836 -0.08656445
000080 a7 60 20 3e 7f 6f 8b be 06 2b 8a bd 3b 95 62 3d
       0.1566187 -0.27233502 -0.06746487 0.0553181
000090 80 2b b3 bd d3 10 75 ba 42 84 c6 3e 05 c9 19 3e
       -0.08748531 -0.00093485153 0.3877278 0.15018089
0000a0 f8 8f 04 bd cd 42 72 3e 2f fc 72 be 38 7b 08 3e
       -0.03236386 0.23658295 -0.23729013 0.13328254
0000b0 51 e6 86 3e d6 d2 99 be e1 f3 e3 bd ba db 13 3e
       0.26347592 -0.30043668 -0.111305006 0.14439288
0000c0 a9 a7 0f 3e 24 be 51 bd 50 d2 e7 3d b4 72 14 3e
       0.14028801 -0.051206723 0.11319411 0.14496881
0000d0 06 61 4e be 58 95 2b 3e b3 e1 ac 3d 8c d6 89 3e
       -0.20154199 0.16756189 0.08441486 0.269215
0000e0 02 e5 7f 3d c7 28 40 be 9d 11 25 3e 18 21 95 3e
       0.06247426 -0.18765555 0.1612 0.2912681
0000f0 1d 8d eb bd 09 be 4c 3b 11 53 6f 3e fd 8f 9e be
       -0.115015246 0.00312412 0.23371531 -0.3096923
000100 66 83 0f be c3 f5 c7 bc 72 ee 42 3e 31 ec 9b 3d
       -0.14014968 -0.02440918 0.19036272 0.07613409
000110 31 15 42 be 66 ad 08 3e 07 35 16 be f2 23 ae 3d
       -0.18953396 0.13347396 -0.14668666 0.0850295
000120 89 03 a7 be ca 41 59 3e 68 90 bd bd 1a ad 87 be
       -0.32619885 0.21216503 -0.09256059 -0.26499254
000130 7d 3f af 3e 8f ea c6 be 1d e5 ac be 43 d2 a7 3e
       0.34228125 -0.3885083 -0.3376855 0.32777604
000140 0c 9c ee bd 88 83 ba 3e 7f 2c 86 3e 72 ad 92 3e
       -0.11650857 0.36428475 0.26205823 0.28647953
000150 79 2e a9 3c 46 75 8b be d9 0e c6 3d 8b 4d 62 3c
       0.020652043 -0.2723791 0.09670801 0.013812433
000160 24 42 e6 bd ba 64 9c 3d c6 49 8e 3d 01 b6 0a be
       -0.11243084 0.076363996 0.06947665 -0.13545991
000170 db 7b 5a 3e 85 e3 90 bd e5 dd 65 bd f6 da e6 3d
       0.2133631 -0.07074646 -0.05611982 0.11272232
000180 fd 2d aa 3e 1b 46 db 3c aa af 8f be 9d 66 e1 3e
       0.3323821 0.026766827 -0.2806371 0.440236
000190 d3 66 9d be 1f c0 8c be 88 dc 9e 3e 75 a4 83 bc
       -0.3074251 -0.27490327 0.31027627 -0.01606963
0001a0 0a fc 0e be 5c 98 c8 be 38 f0 f1 3d 82 71 a7 3e
       -0.13963333 -0.3917874 0.11813396 0.32703787
0001b0 82 97 97 3e 92 02 ae 3e 57 b3 5e bd 0b 8b 0b 3e
       0.2960778 0.33986336 -0.05437025 0.1362726
0001c0 56 d6 82 3e 01 ae 68 be 2d e0 bb be f8 9c 69 be
       0.2555415 -0.22722627 -0.3669447 -0.22813785
0001d0 7e b7 8b 3e 18 40 8e bd 8a 8d 3e be 52 d3 1d 3e
       0.2728843 -0.06945819 -0.1860868 0.15412644
0001e0 71 8f 83 3e 19 87 08 bd 5b a2 6a be e4 b8 6d 3d
       0.25695375 -0.033331964 -0.22913496 0.058037654
0001f0 4b 45 81 3e 80 ec df 3d 8f d4 90 3e 5c 6f bc 3c
       0.2524818 0.10933781 0.2828717 0.023002319
000200 45 db 9d be 66 a7 3c be a7 8d 8f bd 24 1d 50 be
       -0.30831352 -0.18423232 -0.0700944 -0.20323616
000210 ee 0d cf 3d 61 6d bd be 64 cf 23 3d 6f d3 90 be
       0.10110079 -0.36997512 0.039992705 -0.2828631
000220 0e bb 2b 3d 05 cb 54 3e c7 e6 b5 3e 8f be 9f bc
       0.041926436 0.20780571 0.35527632 -0.019500045
000230 bf ad 5a be a6 c4 4f 3e 97 94 a0 3d 4c 95 89 be
       -0.21355341 0.20289859 0.07840841 -0.26871717
000240 d9 d0 af be 74 3a 03 be fd 8a a4 be cc 30 6b 3d
       -0.34339026 -0.12815267 -0.3213729 0.057419583
000250 ac e0 9b be 6b 2b a2 be 85 43 48 3e 10 6c 9b bd
       -0.3044485 -0.3167375 0.19557007 -0.07588971
000260 54 8b 96 3e 79 69 03 be 75 70 cc 3d 62 02 53 3d
       0.29403174 -0.12833203 0.09982387 0.051515944
000270 a6 80 b8 be 61 98 2a be 4d ed 6f be 10 3c 45 3e
       -0.3603565 -0.1665969 -0.23430367 0.19261193
000280 68 b6 90 3e b4 8c ac bd 42 f7 e9 3a b1 7b b9 3e
       0.28264165 -0.084252745 0.0017850178 0.36227182
000290 50 06 bc bd 94 85 8c 3e e5 d7 ab be 24 75 b9 3e
       -0.091808915 0.27445662 -0.33563152 0.36222184
0002a0 b1 88 23 be c5 25 ba 3d 78 8c 39 be 3f 93 55 3c
       -0.15970112 0.09089235 -0.18119991 0.0130355945
0002b0 dc 14 bf bd b2 8a 3f 3e 47 3a 73 be b8 d7 09 bc
       -0.093301505 0.18705252 -0.237527 -0.008413248
0002c0 02 af bc bd 7a 91 b7 bd fa 3b f4 3c d1 c5 8d 3e
       -0.092130676 -0.08963294 0.029813755 0.27689984
0002d0 57 f6 ef 3c dd 4a aa 3e e7 bf 67 3d 88 bb ac be
       0.029292269 0.3326024 0.056579497 -0.33736825
0002e0 1c d8 72 3e ff fd 85 3e 3a 1d f6 3d 68 09 0c be
       0.23715252 0.26170346 0.12017293 -0.13675463
0002f0 d6 61 83 bd 0e 33 db 3e 1e f6 ec 3d 72 e6 3c 3e
       -0.06415145 0.4281239 0.11570381 0.18447283
000300 6b 89 1a bd 9d 18 4b be b6 aa d6 bd 1a 57 b2 3d
       -0.03772871 -0.19833608 -0.10481779 0.087080196
000310 01 81 25 3e f9 71 dc be e7 9c ff 3d c8 a9 b9 be
       0.16162492 -0.43055704 0.124810986 -0.36262345
000320 ea d9 25 be e0 46 d3 3d 52 7c 3c 3e a5 2a cd 3d
       -0.16196409 0.10316253 0.184068 0.100178994
000330 ab 2c 67 be c5 1a cd bd 97 ee e4 3c 0e cf 6b be
       -0.22575633 -0.100148715 0.0279458 -0.23028204
000340 44 02 ad bc 83 91 ad 3e 66 37 a6 be 3d 81 4b bd
       -0.021119244 0.3390008 -0.3246414 -0.049683798
000350 b3 c5 3f 3c 5f 69 d7 3e 48 a1 9c bd 0b 36 12 3e
       0.01170485 0.4207258 -0.076479495 0.14278428
000360 bf b4 73 3e 85 25 43 be d2 3e b5 3d 25 c4 9d 3e
       0.23799418 -0.19057281 0.08849873 0.3081371
000370 06 b0 61 3e f5 76 86 bc 77 be 51 bd ae 1c 4e 3e
       0.22039804 -0.016414145 -0.051207032 0.20128128
000380 d1 6a 0f 3e 3a 5a 76 be bf ac 87 be da 94 93 3e
       0.14005591 -0.24057856 -0.26498982 0.28824502
000390 2e 82 53 bc 8f 86 64 3e 23 44 f4 3d 6f d6 85 3b
       -0.012909455 0.22316955 0.119270585 0.0040844004
0003a0 59 83 e4 3d 45 68 8d 3e 46 e9 81 bb e6 fa 90 3e
       0.11157865 0.27618614 -0.003964576 0.2831642
0003b0 ef 8a 21 bd 3a 98 a5 be bc 43 85 3e 07 f4 41 bd
       -0.039439138 -0.32342702 0.2602824 -0.047351863
0003c0 0f 7a 85 be 70 a2 49 3e fc eb ee bd 58 5e d0 3e
       -0.26069686 0.19690871 -0.11666104 0.4069698
0003d0 ec f8 c5 3d 03 91 91 3e 18 d5 62 be 95 69 0e 3e
       0.09666619 0.28430948 -0.22151601 0.13907464
0003e0 a3 6a 83 3e 7d ae 3e be 7c 51 65 bd e8 64 95 be
       0.25667295 -0.1862125 -0.055985913 -0.29178548
0003f0 2a 05 3c be ef 93 8a 3e 0d 0f 07 3e 35 32 78 3d
       -0.18361345 0.2706599 0.13189335 0.060594756

transformer.layers.0.0.branch.to_out.weight f4 [8, 64]
000000 c4 ac 31 bc 7b 23 24 3e 71 67 00 3d 67 03 ce 3d
       -0.010844413 0.1602916 0.03134865 0.10059243
000010 f6 4c 87 3c c0 d2 a3 bd 84 da c5 3d fa 82 84 bd
       0.01651619 -0.07999182 0.09660819 -0.06470294
000020 da a4 4d bc 66 38 29 be fa a7 1c 3d 97 38 2d 3d
       -0.012551511 -0.1652542 0.038246132 0.042290296
000030 15 29 c9 bd 86 1f f2 bc d5 3f a4 3d 73 24 ff 3c
       -0.09822289 -0.029556047 0.080199875 0.03114531
000040 50 f6 c9 bd c8 c4 85 bc 06 dc 07 3e cf 3c 37 3d
       -0.098614335 -0.016329184 0.13267526 0.044735726
000050 1d af ab bb 32 65 0d be f5 bc db bc 3b ed 14 3e
       -0.005239381 -0.13808134 -0.0268235 0.14543621
000060 aa 88 01 3e 57 9c 85 bd ff 13 5b 3d f3 f5 3f 3d
       0.1264979 -0.0652396 0.053485867 0.046865415
000070 94 34 fc bc 68 40 d5 3d bb d2 ff 39 0e be a0 3d
       -0.03078679 0.10412675 0.00048794397 0.0784875
000080 e5 dc ed bd 46 63 1a 3d 14 22 21 3e 53 51 99 3c
       -0.11614398 0.03769233 0.15735656 0.018715536
000090 10 a4 ee bd bd 6e 78 bd 48 a4 c6 3c 22 3c c9 bc
       -0.11652386 -0.060652483 0.024248257 -0.024564806
0000a0 24 5b 09 be 7f f0 8f bd 1f f2 48 3e e1 65 0c 3e
       -0.13413674 -0.07028293 0.19623612 0.13710739
0000b0 61 fc e6 3d 25 93 50 3e 5b d6 b0 bd 64 ba f8 3c
       0.11278606 0.20368631 -0.08634635 0.030362315
0000c0 22 c5 c6 3b 88 b5 be bd b6 4a 91 3c 8c 12 b8 bb
       0.0060659805 -0.09311968 0.01773582 -0.0056174453
0000d0 fc 26 2f 3e be 82 c3 bd f2 54 07 3e e7 74 ab 3c
       0.17104715 -0.095464215 0.13215998 0.020929767
0000e0 61 da 00 bd 75 88 08 3e da d5 61 bd 8f 53 37 bd
       -0.031458262 0.13333304 -0.055135585 -0.044757422
0000f0 74 01 b9 bd 91 ee aa 3d 4e 2f 5f 3c 9d 94 fc 3d
       -0.0903348 0.08346284 0.013622118 0.12333033
000100 ae 91 7b bd a3 3f 34 bd ab 01 19 3e aa 73 05 be
       -0.061418228 -0.044006 0.14942043 -0.13032404
000110 39 89 9b 3d e8 c4 ee bd c8 c0 d7 bd a5 ca ff 3c
       0.075945325 -0.11658651 -0.10534817 0.031224558
000120 d6 1e b9 3c 61 ce 0e 3e 20 3c a6 3c be 23 38 bc
       0.022597712 0.13945915 0.020292342 -0.01123899
000130 29 de f3 bc 4e da 37 3d ac cf 89 bd e0 f0 89 bd
       -0.02976902 0.044885926 -0.067290634 -0.067353964
000140 4e da 60 3d 2e f1 04 bb 85 55 f5 bd 30 ef f4 bd
       0.05489569 -0.0020285356 -0.11979202 -0.11959684
000150 ea 9f 2c 3c 54 6a 0a 3d 04 fa 76 3a 50 5b ac ba
       0.010536173 0.03379281 0.00094214105 -0.0013149772
000160 e7 02 90 bd e0 0a 2f 3d a1 18 86 bd a4 e0 1c 3d
       -0.070318036 0.04273498 -0.06547666 0.03830017
000170 ab 56 13 3d d8 3e 97 3d 1f a4 e2 3d 39 1e 95 bd
       0.035971325 0.07385033 0.1106646 -0.07281155
000180 ed 2b 9e 3b da 78 87 bd 40 f1 ba 3c ff 2e 05 be
       0.0048270137 -0.066148475 0.022820115 -0.13006209
000190 49 24 dc 3c 52 ad 05 3e 73 25 9d bd 67 47 4b be
       0.02687277 0.13054398 -0.076731585 -0.19851457
0001a0 6b 44 d7 3d 90 34 85 bc bb 26 4d bd 1c 35 0b bc
       0.105110966 -0.016260415 -0.050085764 -0.008496549
0001b0 5c 26 85 3d 8f 02 b9 bd 7e cb fc 3d 52 07 8c bd
       0.06501457 -0.09033691 0.123435006 -0.06837334
0001c0 6a 95 fd bd f7 a6 8a bd e7 0a cd bc e4 af 60 bd
       -0.12382014 -0.06770127 -0.025029613 -0.054855242
0001d0 bb a8 d0 3d 5c 1a 26 bd a2 6b 21 be 52 ac 28 bd
       0.10188433 -0.040552482 -0.15763715 -0.041179962
0001e0 38 1a 2c bd f9 03 90 bc 6c 5b 18 3e 20 1b a6 3d
       -0.04201719 -0.01758002 0.14878625 0.081106424
0001f0 a5 7b dc 3d f7 19 43 bd b7 ca e8 b9 d8 42 e5 bc
       0.10765771 -0.047632184 -0.00044401523 -0.027985975
000200 f8 80 41 bd 1c aa 81 bb 79 dc 82 bd 00 93 bc bd
       -0.047242135 -0.003957046 -0.06389708 -0.092077255
000210 1a bc 8e 3d d3 1d 46 3d 9b a3 6f bd a6 c8 05 3d
       0.06969471 0.048368286 -0.058505636 0.032662056
000220 4d be 0a 3e 97 d4 90 bd e2 33 cb bd 04 18 ae bd
       0.13549156 -0.07071798 -0.09922005 -0.08500674
000230 78 72 c7 bc a6 d2 81 3d 27 91 a9 3d 26 22 41 bd
       -0.024346575 0.06339006 0.08279639 -0.047151707
000240 98 23 bc 3d ad 1b a2 3d d5 1b 9e bc 5f 83 ed bd
       0.091864765 0.07915435 -0.01930038 -0.11597323
000250 26 f0 83 3d 1c d4 4f 3d a6 78 5c bc a2 45 09 bc
       0.06442289 0.050739393 -0.013456499 -0.008378418
000260 60 a3 75 bc 3c ea 82 3d f1 80 a4 3d 59 4f c7 bc
       -0.014992565 0.06392333 0.08032406 -0.024329828
000270 a0 5c 9f bd 0d c5 c8 bc 83 af d0 bd 26 b5 21 bd
       -0.07781339 -0.024508024 -0.10189726 -0.039479397
000280 b5 d3 6a 3b 82 50 a9 bc cc 1e 02 3c ce 02 c1 bd
       0.0035831754 -0.020668272 0.007941913 -0.09424363
000290 df de c3 3d af 7a 8f bd 0a 1d bd bd 3a 9c 4c 3d
       0.09563994 -0.07005822 -0.092340544 0.049953677
0002a0 fd 9c 00 bd fe 6e 46 bd 78 48 a2 bd 9e 51 ba bd
       -0.031399716 -0.048445694 -0.079239786 -0.090975985
0002b0 9a 74 07 be 9a 13 bb bd 8e 67 a5 3d aa 0d e6 3d
       -0.13228074 -0.09134598 0.08076392 0.11233075
0002c0 ae 30 29 bd d3 c7 d2 bd 18 5b ec bd 5f fe 0b 3d
       -0.04130619 -0.1029202 -0.11540812 0.034178134
0002d0 67 7a 20 be 76 46 e0 bd da c1 96 bb 6b df 06 be
       -0.15671693 -0.10950939 -0.0046007456 -0.13171165
0002e0 1b d5 44 3d ec 2a c4 bc aa c7 a8 3d dc ea 45 bb
       0.048054796 -0.023946248 0.08241208 -0.0030199802
0002f0 8e d4 9d 3c b8 1b fe 3b 4f 67 f3 bc 99 34 a9 bd
       0.019266393 0.007754769 -0.029712347 -0.08261985
000300 93 e3 50 3d a1 cd cc 3c 10 e1 a7 3c d6 2d 1f 3b
       0.05099828 0.025000395 0.02049306 0.0024288795
000310 94 e7 a2 bd 7e 72 80 bd 3f 1f a5 3d 7c 7b 55 bd
       -0.07954326 -0.06271838 0.080626 -0.052119717
000320 91 70 be bd bc d0 ee bc 0d e0 27 bb 8e 38 4a bb
       -0.09298814 -0.029152267 -0.0025615722 -0.0030856463
000330 85 2f 01 be ae 6c 13 bd 46 0f 65 bd 2c 34 83 bc
       -0.12615784 -0.035992317 -0.05592277 -0.016016088
000340 c5 d4 f9 bc 44 00 3c 3d 75 c3 a1 3c 1d 2c ba 3c
       -0.030496964 0.04589869 0.019746521 0.022726113
000350 20 c4 9e 3d de 45 5c 3d a7 0d e4 3c 0e fb bb bc
       0.077522516 0.053777568 0.027838541 -0.02294686
000360 06 6c 0c 3e a0 7a 88 bd 08 22 ba 3d 38 af ea bc
       0.13713083 -0.06664014 0.09088522 -0.028648004
000370 a2 17 ee bd 40 2f 42 3c 58 eb 41 3c aa 88 50 bc
       -0.11625601 0.011852086 0.0118358955 -0.012727896
000380 ef 9a 06 bd e3 25 6c 3b 0c 90 4c 3d 4d 0d af 3d
       -0.0328626 0.0036033324 0.04994206 0.08547459
000390 23 d1 07 bd 8b 4d 9b bd 2c 26 6c 3c 1d 12 16 bd
       -0.033158433 -0.075831495 0.014413398 -0.036638368
0003a0 46 e1 8a bd f2 18 5e bd 1b e9 3c 3c 4c d2 fd 3d
       -0.06781249 -0.05422301 0.011530186 0.123936266
0003b0 dc a4 37 bd 59 ef bd 3d e7 08 7f 3d d8 4c 87 3d
       -0.044834957 0.092741676 0.06226435 0.06606454
0003c0 af b0 fe 3c 4b 54 5f bc 08 6d a2 bd b3 cd ac 3c
       0.031090109 -0.013630937 -0.07930952 0.021094179
0003d0 ed 2e 5b 3d 8d ec 15 bd 18 1e 0f 3d 6f 93 cd bd
       0.05351155 -0.036602546 0.03494081 -0.10037886
0003e0 09 d1 ed 3d 4b d5 19 3d 7d 4d 77 3d a4 4d 02 bd
       0.11612136 0.037556928 0.060376633 -0.031812325
0003f0 25 06 29 bd 45 89 0d 3d e3 b4 d2 3d 25 ed 3d bd
       -0.041265626 0.03455474 0.10288408 -0.046368737

transformer.layers.0.0.norm.gamma f4 [8]
000000 5d 70 01 3d c1 bd 1f 3d e1 11 67 3d 9b 14 a8 3d
       0.0316013 0.038999323 0.056413535 0.08207055
000010 4d a6 21 3d b5 67 39 bc 4f 61 21 3d 24 f7 f0 3c
       0.039465237 -0.01131623 0.03939944 0.02941472

transformer.layers.0.1.static_alpha f4 [4, 5]
000000 db fc a6 3d 00 00 80 3f 00 00 00 00 00 00 00 00
       0.08153697 1.0 0.0 0.0
000010 00 00 00 00 09 d2 5f 3f 00 00 00 00 00 00 80 3f
       0.0 0.87429863 0.0 1.0
000020 00 00 00 00 00 00 00 00 b1 62 40 3d 00 00 00 00
       0.0 0.0 0.04696912 0.0
000030 00 00 00 00 00 00 80 3f 00 00 00 00 f6 75 20 3e
       0.0 1.0 0.0 0.15669999
000040 00 00 00 00 00 00 00 00 00 00 00 00 00 00 80 3f
       0.0 0.0 0.0 1.0

transformer.layers.0.1.dynamic_alpha_fn f4 [8, 5]
000000 9e 73 b8 3e 00 00 00 00 00 00 00 00 00 00 00 00
       0.3602571 0.0 0.0 0.0
000010 00 00 00 00 5f 30 57 be 00 00 00 00 00 00 00 00
       0.0 -0.21014546 0.0 0.0
000020 00 00 00 00 00 00 00 00 ea d0 d4 be 00 00 00 00
       0.0 0.0 -0.4156564 0.0
000030 00 00 00 00 00 00 00 00 00 00 00 00 76 4f 32 bd
       0.0 0.0 0.0 -0.04353281
000040 00 00 00 00 00 00 00 00 00 00 00 00 00 00 00 00
       0.0 0.0 0.0 0.0
000050 fa f1 17 3e 00 00 00 00 00 00 00 00 00 00 00 00
       0.148384 0.0 0.0 0.0
000060 00 00 00 00 6d 7e f1 3d 00 00 00 00 00 00 00 00
       0.0 0.11791692 0.0 0.0
000070 00 00 00 00 00 00 00 00 bf d6 08 3e 00 00 00 00
       0.0 0.0 0.13363169 0.0
000080 00 00 00 00 00 00 00 00 00 00 00 00 0a 30 17 be
       0.0 0.0 0.0 -0.14764419
000090 00 00 00 00 00 00 00 00 00 00 00 00 00 00 00 00
       0.0 0.0 0.0 0.0

transformer.layers.0.1.static_beta f4 [4]
000000 64 78 6c 3f 9b 4d 7d 3f 2d 5e 76 3f 29 e7 6f 3f
       0.923712 0.9894654 0.9623745 0.937121

transformer.layers.0.1.dynamic_beta_fn f4 [8]
000000 26 3f ea 3c 69 82 98 bd 3d 34 e0 3d 55 59 cd be
       0.028594565 -0.07446749 0.10947464 -0.40107217
000010 30 ae cf 3e 8b cf 00 3d 30 88 8f 3e 3b 0f c6 bd
       0.40562582 0.03144793 0.2803359 -0.09670874

transformer.layers.0.1.branch.0.weight f4 [8]
000000 ac 73 71 3f 9e 1b 7e 3f fc bc 7c 3f fe fa 63 3f
       0.94317126 0.9926089 0.9872587 0.8905486
000010 4d 63 7c 3f 08 d3 85 3f 68 df 81 3f d9 b0 88 3f
       0.9858902 1.0455027 1.0146303 1.067897

transformer.layers.0.1.branch.0.bias f4 [8]
000000 51 6f 9f bc 43 09 19 bd 6d d8 2a b8 57 d3 88 bd
       -0.01946226 -0.03736235 -4.073272e-05 -0.06680935
000010 c6 c2 a0 3d f0 50 f9 3c cb 3f 6a bd 89 64 d6 bb
       0.0784965 0.030434102 -0.057189744 -0.0065427464

transformer.layers.0.1.branch.1.weight f4 [64, 8]
000000 e4 44 01 be 32 96 92 bd f2 ae 41 3d 6c eb 9f bd
       -0.12623936 -0.07157554 0.04728598 -0.07808575
000010 3a cc 06 3e 86 10 4b be 7f dd 67 3e e9 92 1b be
       0.13163844 -0.19830522 0.22643088 -0.1519276
000020 e8 a8 9e 3e ce 0f 98 3d 95 d3 ad be 0c 6e 29 bd
       0.3098824 0.074248895 -0.33950487 -0.041364715
000030 07 fb e0 3d c2 bf 00 3e 68 ea b3 be 86 09 b5 bd
       0.1098538 0.1257315 -0.35139775 -0.08839707
000040 23 d3 5e 3e c9 26 04 bd 99 59 c1 bd 19 ce d2 3e
       0.2176023 -0.03226355 -0.094409175 0.41172865
000050 ff f8 2b be c3 9d b0 3b bc b0 19 bd dc d8 d8 bd
       -0.16794203 0.0053899004 -0.037522063 -0.10588238
000060 eb be a8 bd ce 34 48 be de 3e 02 3e 45 90 d7 be
       -0.0823954 -0.19551393 0.12719294 -0.42102256
000070 8b 34 b4 3c f2 2d cf 3c 7c 26 d2 3e 31 d5 59 3e
       0.02199771 0.025290463 0.41044986 0.21272732
000080 07 71 3c 3e 6d 8b 42 bd 00 2e bd 3e fd f5 4c bd
       0.18402492 -0.047496248 0.36949158 -0.05003928
000090 26 4b 3e bd e1 92 1e 3d 35 6f 4b be ad 22 87 be
       -0.046458386 0.038714293 -0.19866641 -0.26393643
0000a0 78 ab 19 39 1e 82 68 3e 43 34 d4 3e ca c0 b3 3b
       0.00014655094 0.22705886 0.41446123 0.0054856287
0000b0 2a b0 53 bd 2d d4 8c 3e 0a 1c 16 3e 8f 3d ec bd
       -0.051681675 0.27505627 0.14659134 -0.11535179
0000c0 a3 db 4f 3e a7 e1 0c 3e 99 86 34 be ca e3 b1 be
       0.20298629 0.13757955 -0.1762947 -0.34744102
0000d0 41 90 a2 be cd 6f a0 bc fc ea 60 be 3d cc 55 3c
       -0.31750682 -0.01958456 -0.2196464 0.0130491825
0000e0 4e f8 b6 be 4b 92 00 be 2c 39 8b 3e 31 59 36 be
       -0.35736316 -0.12555806 0.27192056 -0.17807461
0000f0 f0 e9 0f 3e 41 9e 82 be 56 8e d3 3e e4 7b d7 be
       0.14054084 -0.25511363 0.4131953 -0.4208671
000100 bc e9 4a bd e0 45 88 3e 48 81 03 be e5 c7 4a 3d
       -0.049539313 0.2661581 -0.12842286 0.04950704
000110 78 01 7b 3e 3f 5d 86 be b5 28 98 be 09 e8 8b bd
       0.24512279 -0.26243016 -0.29718557 -0.068313666
000120 04 20 04 be 78 34 38 be b6 db 3b 3e 4c 76 ea 3d
       -0.12902838 -0.17988765 0.18345532 0.114483446
000130 0f 53 96 be b7 06 ea bd fd 51 a1 3e 0b 18 b3 be
       -0.29360244 -0.11427062 0.31507865 -0.3497928
000140 14 3d 6b 3d 7b 40 b9 be 62 84 80 be dc c3 ea 3e
       0.057431296 -0.36182007 -0.25101 0.45852554
000150 57 d3 f9 be 63 34 5c be 3a 50 75 bd 8f 26 ff bd
       -0.48794052 -0.21504359 -0.059890963 -0.12458526
000160 e5 eb 51 be 01 81 62 3d db 53 91 3e f2 3e fe be
       -0.20500143 0.05529881 0.2838429 -0.49657398
000170 92 81 21 3f 6b 7c f8 3e 12 c9 aa bd 4d 39 2f be
       0.63088334 0.48532423 -0.08339132 -0.17111702
000180 af dd 56 3e 23 d8 0d 3e b2 2d d9 3d a2 60 5e bd
       0.20983003 0.13851981 0.10604419 -0.054291375
000190 ce 06 34 be 03 a9 a7 be 79 93 ad 3e ad a0 8e bd
       -0.17580721 -0.32746133 0.33901575 -0.0696424
0001a0 67 5c 6e be 90 f8 81 3e bd c4 e1 bd ca d5 3d 3e
       -0.23277436 0.2538495 -0.11023853 0.18538585
0001b0 7a 2a ad 3e 65 e9 73 3d 99 6d 91 be 9b 86 82 3d
       0.3382147 0.059548754 -0.2840393 0.0637333
0001c0 f6 8c 73 3e 93 28 e4 bc 29 76 a2 bd 5a 4e a3 bc
       0.23784241 -0.027851379 -0.079326935 -0.019934822
0001d0 66 04 1f bd 76 f7 6c 3e 80 4c 19 bf e3 93 e9 bc
       -0.038822554 0.23141274 -0.59882355 -0.0285129
0001e0 42 73 85 be 11 cb 70 3d 34 c3 29 3e e5 e7 6f 3e
       -0.26064497 0.05878741 0.1657837 0.23428304
0001f0 8f 81 b0 3e cd 02 e1 be 4f 52 87 3e 25 62 4f be
       0.34473845 -0.4394745 0.26429984 -0.20252283
000200 55 15 30 be 99 69 e5 3d 0c 21 64 be 12 14 1d be
       -0.17195638 0.11201782 -0.22278231 -0.15339687
000210 e7 5e 5c 3e 45 a0 22 bd ee f7 b6 be b3 a5 9c 3e
       0.21520577 -0.039703626 -0.3573603 0.30595168
000220 41 3e 1d 3e a3 78 76 3e 0f 86 b0 bc a5 72 c4 3d
       0.15355779 0.24069457 -0.0215483 0.09592179
000230 11 42 89 be e1 11 71 be 08 1f 8a 3e 03 b9 8a be
       -0.26808217 -0.23541977 0.269768 -0.27094278
000240 8a 04 dc bd f6 35 10 be 03 7d 7e 3d 6a 5d 1e be
       -0.10743053 -0.14083084 0.06213094 -0.15465322
000250 a7 0d 42 bb bb d7 e1 be 65 19 5d 3d 18 1d d9 bd
       -0.0029610188 -0.44109902 0.053979296 -0.10601252
000260 9d 16 2a 3d b3 2e 87 3d 95 74 2c 3e 4a 3a 8c 3e
       0.041525472 0.06600704 0.16841348 0.2738822
000270 04 41 83 3e 78 f0 7c bd 85 f4 69 be 5c 51 22 be
       0.2563554 -0.061752766 -0.22847183 -0.15851349
000280 07 e6 9d 3e 15 f8 db bc cd 69 8c 3e 9e 57 8f be
       0.3083956 -0.026851693 0.2742447 -0.27996534
000290 91 26 37 be 47 4c f6 bd 4c a2 20 be bb 59 81 3e
       -0.17885806 -0.120262675 -0.15686911 0.2526377
0002a0 72 ef 67 be b7 de 74 be 6a 3f 3e 3e 47 f9 1c 3c
       -0.22649935 -0.23913084 0.18578878 0.009580917
0002b0 81 bd a3 be f1 67 8d bc 61 2f 8d 3e 83 2d 96 3d
       -0.31980518 -0.017261477 0.2757521 0.073328994
0002c0 09 c4 62 3e 23 20 27 3e 33 de 86 3e 21 c8 94 3e
       0.22145094 0.16320853 0.263414 0.29058936
0002d0 a6 be 51 3d 42 72 cf 3d 90 36 1f 3d a7 cf c9 3e
       0.051207207 0.10129215 0.038870394 0.3941624
0002e0 57 f7 88 be 09 a8 87 3e 99 d6 9d be 36 11 0f 3e
       -0.26751205 0.26495388 -0.30827788 0.13971409
0002f0 fa 34 92 be b8 a3 26 bc 7b 7c 5b be 4c b3 88 3e
       -0.28556043 -0.0101708695 -0.21434204 0.26699293
000300 cf cd b7 bd 48 09 04 3e 8b 5d a1 3e a3 a2 53 bc
       -0.08974802 0.12894166 0.3151668 -0.012917194
000310 36 d4 b9 3e ec 15 2c 3e fd 6b 70 3e 34 2d 7b 3e
       0.36294717 0.16805238 0.23478694 0.24528962
000320 86 b2 02 bf 7b e0 da 3e fa a9 b9 bd 2c 27 0a 3e
       -0.51053655 0.4274939 -0.090656236 0.13491505
000330 47 1d 88 be 0b f5 c0 3e e9 c4 6d bd 22 0a 2f 3d
       -0.26584837 0.37686953 -0.058049116 0.042734273
000340 97 e9 21 be 7a ca 61 be 30 9c f0 3d b9 8b a3 bd
       -0.15811764 -0.22049895 0.117485404 -0.07985634
000350 a9 ad 2c 3e 35 87 0b bf 08 ff a2 be b2 69 cc bd
       0.16863121 -0.54503185 -0.31835198 -0.09981097
000360 f2 f9 17 3e f8 ae 9d 3e dc 66 92 be af e2 59 be
       0.1484144 0.30797553 -0.285941 -0.21277879
000370 5b 3e 33 be 8f ba b8 bd 49 3c 6b 3e 99 fd 15 3e
       -0.17504255 -0.09019958 0.22972216 0.14647521
000380 38 38 94 bd 7e 4a 76 bd 7c f0 7d be 53 85 40 be
       -0.072372854 -0.060129635 -0.24798769 -0.18800859
000390 bd 0c 12 be 61 5a 8f 3e 6d 8a 9d 3e 96 4a e9 3c
       -0.14262672 0.2799864 0.30769673 0.028477948
0003a0 6c 1b ca be 31 85 01 3f ca 97 27 3f 33 f5 38 3f
       -0.39474046 0.5059386 0.65465987 0.72249144
0003b0 53 7e 5b bf 20 81 b7 bc a6 50 0c bf 6c fe a4 3f
       -0.8573963 -0.022400439 -0.5481056 1.2890143
0003c0 e3 21 3c 3e 56 c2 f4 bc ca 77 c9 be e4 1f 27 3e
       0.18372302 -0.029877823 -0.39349204 0.16320759
0003d0 13 ab ce 3d dc 84 7c 3e 1a d8 27 be f1 5a 54 be
       0.100912236 0.24660057 -0.1639103 -0.20737816
0003e0 84 71 4b bd 87 ba 45 3d 30 39 c5 3d fb 7b 9b be
       -0.049668804 0.04827359 0.09630048 -0.30368027
0003f0 e2 30 8b be 1d 49 04 bd bd 25 f9 3d cb b5 0c bd
       -0.27185732 -0.03229629 0.12165401 -0.03435306

transformer.layers.0.1.branch.1.bias f4 [64]
000000 f0 56 ba 3c 79 b3 be 3d c8 ae f8 3e 06 d7 b8 be
       0.022746533 0.093115754 0.48570848 -0.3610155
000010 cd 34 3f bd 5a 40 81 be 46 92 9b bd 1b d1 de be
       -0.046681214 -0.2524441 -0.07596259 -0.4351891
000020 ea 68 00 be 07 55 30 bd 5e 09 31 be 5d 95 ba be
       -0.12540022 -0.04304984 -0.1728873 -0.3644208
000030 02 d9 00 bc 1d cb 93 bd 61 2d 25 bd 68 65 8f 3e
       -0.007864239 -0.07216475 -0.04032648 0.28007054
000040 3f 74 04 be b8 ce a7 bd 5c dd 5d 3e ae cf 07 be
       -0.1293497 -0.08193725 0.21666473 -0.13262817
000050 91 69 b4 be 1f ba 3c be 4e 2a d3 be 87 ac 96 3e
       -0.3523679 -0.18430375 -0.41243213 0.29428503
000060 59 58 84 bd 96 64 aa 3d 23 54 3e 3e f3 c0 a4 3d
       -0.064621635 0.083199665 0.18586783 0.08044615
000070 1f 7a 41 bd 08 f5 b9 3d 47 c4 8e 3d d4 4f 38 be
       -0.047235604 0.09079939 0.06971031 -0.17999202
000080 5a f2 06 3d f1 72 df bb 6b 80 80 3e 6b 5b 94 3e
       0.03294597 -0.006819122 0.25097975 0.28975996
000090 92 86 7e bd a0 c6 06 3e 61 55 2e 3e d9 97 34 be
       -0.062140055 0.13161707 0.17024757 -0.1763605
0000a0 03 5d c6 3e ba f4 e8 3d 9a b0 80 3e e2 97 d2 be
       0.38742837 0.11374803 0.25134736 -0.41131502
0000b0 fc e2 79 3e ad 72 09 3e 33 ce 75 be dc f8 8f 3e
       0.24402994 0.13422652 -0.2400444 0.28119552
0000c0 ed 8a 0c be 23 54 4c 3e 8e 67 9c 3e 29 1b 3f be
       -0.13724871 0.1995397 0.30547756 -0.18662705
0000d0 17 b5 27 be d0 5d 76 3e f9 a9 62 be 37 8b 02 3d
       -0.16377674 0.24059224 -0.22135152 0.031871047
0000e0 6f 4d af be f7 47 55 3e 9f bf 3d be 1e 98 7b 3e
       -0.34238765 0.20828234 -0.18530129 0.24569747
0000f0 ad 9f c9 3d 89 c4 8b be bc ec 8e bd 75 93 6f 3e
       0.09844909 -0.27298382 -0.06978747 0.23396094

transformer.layers.0.1.branch.4.weight f4 [8, 32]
000000 2d d7 70 3d f8 d3 ee bd a1 c7 67 3e 08 63 be bd
       0.058798958 -0.116615236 0.22634746 -0.092962325
000010 48 54 91 3e 4d 4b 29 3e fa 8a 48 be 0e cf e1 bd
       0.28384614 0.16532631 -0.19584265 -0.11025821
000020 6d 86 5d be 36 d7 17 3e b8 cd 12 be ff 90 75 3e
       -0.2163331 0.1482819 -0.14336288 0.23981093
000030 a8 93 15 bd 65 3e 39 3e 5b 4c 45 bd 1d 50 88 bd
       -0.03651777 0.18090208 -0.04816852 -0.066559054
000040 a6 d4 8a 3d 44 b2 96 bb bf 30 1a be 49 91 2d bd
       0.06778841 -0.0045988876 -0.15057658 -0.042374883
000050 67 7d 35 3e cb 02 78 bd 8e dd fc bd 6f c9 bc 3d
       0.17723618 -0.06054954 -0.12346946 0.09218108
000060 4a c1 75 3d 61 2a c0 3d ef f4 8b bd 16 0c bf bd
       0.059998788 0.09383083 -0.06833827 -0.09328477
000070 52 88 3e be 63 68 c2 bd ac 58 02 3e ac 57 37 3d
       -0.1860669 -0.094925664 0.12729138 0.044761345
000080 c0 78 0e be bf 33 e8 3d e6 89 4f be ac 2d ff 3d
       -0.1391325 0.11337995 -0.20267448 0.12459883
000090 26 a6 1c be 40 e2 2b bd bd f1 e5 bd ce e4 0b be
       -0.15297756 -0.041963816 -0.112277485 -0.13661501
0000a0 f6 5b 46 be 6b f9 33 3d d8 96 1c 3d a2 32 19 be
       -0.19371018 0.043939035 0.038229793 -0.14960721
0000b0 c5 a0 f3 bc 70 59 10 be 7b d1 18 be 5e 4a b6 bd
       -0.029739747 -0.14096618 -0.1492366 -0.08900903
0000c0 f7 96 23 3e 00 ce 2a be 1c 3c ae bd 91 4d e9 3d
       0.15975557 -0.16680145 -0.08507559 0.11391748
0000d0 1f 04 35 3d 09 a9 a6 3d dc 05 54 be 41 b2 b1 3d
       0.044193383 0.0813771 -0.2070536 0.08676577
0000e0 b3 b7 b8 bd 8e 0e 35 be 62 50 d8 bb 9a 53 3c bd
       -0.09019413 -0.17681333 -0.0066013793 -0.045978166
0000f0 f7 ae 11 be cd 40 28 3e d0 7a 01 3e 82 32 64 3d
       -0.142269 0.1643097 0.12644506 0.05571223
000100 51 9e cd 3c 59 41 31 3e d8 95 03 be cf 6f be 3c
       0.025099905 0.17310084 -0.1285013 0.023246674
000110 a2 51 60 3e fc 5b b1 bd a8 4f c0 3b 9d 91 f0 3d
       0.2190614 -0.08660123 0.0058688708 0.117465235
000120 7b 9b 1a 3d 1f 15 2c be 9f 7b 6e 3e 59 af 9f bd
       0.037745934 -0.16804932 0.23289345 -0.07797117
000130 1c a8 16 3e 2e 9d 49 bc 5f 39 1a 3d 0f 62 ce 3d
       0.14712566 -0.012305541 0.03765237 0.10077297
000140 15 9b 90 bd 09 75 f6 3c 6e f6 4c 3e 1b 3a b2 3d
       -0.070608296 0.030085104 0.2001588 0.08702489
000150 48 68 fc 3c c8 07 d8 3d 68 63 3e 3d 46 01 5a be
       0.030811444 0.10548359 0.04648152 -0.21289548
000160 b6 49 af bd a6 03 ad bd 79 51 16 3e 53 37 8b 3e
       -0.08558981 -0.084479615 0.14679517 0.27190647
000170 ee b7 1a be 7b ea 2c 3e 0c 1a 52 3e 1d ce 3c bd
       -0.15109226 0.16886322 0.20517749 -0.046095002
000180 43 ef f2 bc 6d ca b0 bd ae df a8 3d 89 07 62 bd
       -0.029655105 -0.0863236 0.082457885 -0.055182967
000190 39 99 19 be 52 46 82 bb 60 31 2e 3e 7d 87 d7 bc
       -0.14999856 -0.003975668 0.17011023 -0.026309723
0001a0 f1 c0 7d be 8a ef 8b bc 2c 5a 72 be 74 ae 91 3d
       -0.24780633 -0.017081995 -0.2366721 0.071133524
0001b0 25 b1 f8 3d cb 6b 6b bb 16 b4 0e 3e 08 84 69 3e
       0.12143163 -0.0035922404 0.13935885 0.22804272
0001c0 0c 8c 04 be 31 56 88 3d b9 43 31 3e b3 29 5a 3e
       -0.12944049 0.06657065 0.1731099 0.2130497
0001d0 be 9a 3f be f4 01 b4 3c 27 19 95 3e 43 68 02 3d
       -0.18711373 0.021973588 0.29120752 0.031837713
0001e0 f6 41 ce 3d a9 4d 60 3c e3 cf 18 3e f5 34 43 3e
       0.10071175 0.013690391 0.14923052 0.1906317
0001f0 ba 94 9f 3e 6e f8 d4 bc 26 88 5b bc 95 55 b8 3d
       0.31168157 -0.025997367 -0.01339916 0.090006985
000200 83 82 6b 3d 4d 60 0e be df 5e b0 3d bb 68 11 bd
       0.057497513 -0.13903923 0.08611845 -0.03550027
000210 cf 3a 82 3d 1d bc 51 3c bc b4 bc 3d 6a 22 80 bd
       0.06358873 0.012801197 0.0921416 -0.06256564
000220 20 20 c9 be da ab 6c 3d da bf 43 3d 78 f3 15 3e
       -0.39282322 0.057781078 0.047790386 0.14643657
000230 16 f2 cf 3c 3b 9b 32 3e c2 4b 11 3e 28 ee 12 bd
       0.02538399 0.17442028 0.14189056 -0.035871655
000240 ee 2e 04 3e 4e a9 90 3d 19 79 a1 3d 86 4b de bd
       0.12908527 0.07063542 0.07884426 -0.10854249
000250 63 21 36 3e 97 ed e0 bb 16 40 3d 3c 38 e1 81 3e
       0.17786174 -0.0068642604 0.011550924 0.2536714
000260 9f 34 1c 3e 92 a0 34 3d 77 4b 41 3d db 94 8e 3d
       0.15254448 0.044098444 0.04719111 0.06961986
000270 95 3d 9e 3d cd 48 64 bd 17 91 dc 3d 32 f8 e3 3d
       0.077265896 -0.05573349 0.10769861 0.11131324
000280 a2 fc 07 bc cf 4e 14 3c b2 f1 ad bd 67 f2 66 3d
       -0.008299978 0.009051993 -0.08493365 0.056383517
000290 22 88 89 bd dc 2a 41 bc da 93 cb bd df 1f 2f be
       -0.067154184 -0.011790004 -0.0994031 -0.17102002
0002a0 6c 12 ae 3d 24 38 a3 3d cc 41 39 be c8 66 49 bd
       0.084996074 0.07969692 -0.18091506 -0.049170285
0002b0 65 5a 95 bd 44 1b 50 3d 74 c9 9a bd 0c 41 77 bd
       -0.07292632 0.050807253 -0.075579554 -0.060364768
0002c0 b6 4a ee 3d ca 46 ae 3d 58 f7 41 bd 29 b0 ae bd
       0.11635344 0.08509596 -0.047355026 -0.08529694
0002d0 dc 19 16 bc 07 7c ec 3d 74 a5 21 bd 36 0a 0e 3e
       -0.009161439 0.11547094 -0.03946443 0.13871083
0002e0 36 23 20 be b0 d4 b0 bd d9 9f 21 bc 3d 5e 3d 3d
       -0.15638432 -0.08634317 -0.009864771 0.04623245
0002f0 1f c2 21 be f2 5c df 3d e6 3e 2b be ad 33 ff 3d
       -0.15796708 0.109064 -0.16723213 0.12461028
000300 d9 4f f6 3d bd 7e 95 3d 50 e4 8f 3c c2 f9 df 3a
       0.120269485 0.07299564 0.017564923 0.0017087983
000310 8d 52 d7 bd bf d3 8e bc 88 df 49 3d 50 94 8e 3e
       -0.10513792 -0.017434953 0.04928544 0.27847528
000320 82 69 fb 3d 4e 69 b5 be 83 66 9a be 4b 70 1d 3d
       0.122759834 -0.35431904 -0.30156335 0.03843717
000330 ed c9 7f 3e 42 8b f4 3d 02 46 c6 3c 69 a7 f0 3d
       0.24979372 0.11940624 0.024203304 0.11750681
000340 ab dc 4e 3d d5 88 58 be 71 63 48 3e 32 3c 0e bd
       0.050503414 -0.21145947 0.19569184 -0.034725375
000350 2c 98 b9 be 7f 5e 86 3d ab 0e cb 3c fa e0 e9 3d
       -0.3624891 0.065609924 0.024787268 0.11419864
000360 07 ef 27 3e 09 82 1d bd ed df 79 3e 94 dc 12 be
       0.16399775 -0.03845409 0.24401827 -0.14341956
000370 46 02 7b 3d 1b c8 34 3d 3a 42 cd 3d af 25 23 bd
       0.061281465 0.044136148 0.10022397 -0.03983086
000380 7a 0c 55 3c 2c c2 24 bc 4b e1 ee bd 10 cc 81 3d
       0.013003463 -0.01005606 -0.11664065 0.0633775
000390 b8 d8 1c be 26 22 53 bd 4e b1 87 bd f3 d2 ac 3d
       -0.15317047 -0.05154624 -0.06625615 0.08438673
0003a0 a1 b4 01 3d 11 0b 78 3e 19 57 62 bb dc e8 c8 bd
       0.0316664 0.24222971 -0.0034536778 -0.098100394
0003b0 1f d1 28 be e0 3c 88 bc 1f 78 a5 be e9 eb 7f bd
       -0.16486023 -0.01663059 -0.32318208 -0.06248084
0003c0 91 22 9a bc dd 9c 71 3e 92 46 70 3d 01 01 96 3d
       -0.01881531 0.23594995 0.05866105 0.0732441
0003d0 7d 47 01 3e 23 23 92 3d e0 9d 01 3e 6c 69 e6 3d
       0.12624927 0.07135608 0.12657881 0.112505764
0003e0 ca 38 c7 3d 66 f5 06 be 75 67 d7 bd 5a 92 10 be
       0.097276285 -0.1317955 -0.1051778 -0.14118329
0003f0 7e d2 21 be cf 20 23 3e c3 d0 f1 3c b2 6a b3 bd
       -0.15802953 0.15930484 0.02951849 -0.08760585

transformer.layers.0.1.branch.4.bias f4 [8]
000000 69 18 6e bd b6 41 14 bd 00 56 b3 3d c4 aa 36 be
       -0.058128748 -0.03619548 0.087566376 -0.1783858
000010 30 8a 66 3d ef ab 07 3e 26 55 45 3c 7c a6 0a be
       0.05628413 0.13249181 0.012044227 -0.13540071

transformer.layers.0.1.norm.gamma f4 [8]
000000 e9 ba dd 3e 87 0e 1d 3e 44 29 50 3e 08 85 fb 3e
       0.43306664 0.15337573 0.20328242 0.49124932
000010 f8 8f 47 3f 18 65 96 3e d8 fb df 3e 73 dc c8 3e
       0.77954054 0.29374003 0.4374683 0.3923069

transformer.layers.1.0.static_alpha f4 [4, 5]
000000 9f 84 02 be 00 00 80 3f 00 00 00 00 00 00 00 00
       -0.12745903 1.0 0.0 0.0
000010 00 00 00 00 b1 5c 50 3f 00 00 00 00 00 00 80 3f
       0.0 0.81391436 0.0 1.0
000020 00 00 00 00 00 00 00 00 e3 67 23 be 00 00 00 00
       0.0 0.0 -0.15957598 0.0
000030 00 00 00 00 00 00 80 3f 00 00 00 00 6a 76 d4 bd
       0.0 1.0 0.0 -0.10374148
000040 00 00 00 00 00 00 00 00 00 00 00 00 00 00 80 3f
       0.0 0.0 0.0 1.0

transformer.layers.1.0.dynamic_alpha_fn f4 [8, 5]
000000 cb cb 7b be 00 00 00 00 00 00 00 00 00 00 00 00
       -0.2458946 0.0 0.0 0.0
000010 00 00 00 00 e8 a3 6f 3e 00 00 00 00 00 00 00 00
       0.0 0.23402369 0.0 0.0
000020 00 00 00 00 00 00 00 00 ac a4 30 3e 00 00 00 00
       0.0 0.0 0.17250317 0.0
000030 00 00 00 00 00 00 00 00 00 00 00 00 29 4b 69 3d
       0.0 0.0 0.0 0.056956444
000040 00 00 00 00 00 00 00 00 00 00 00 00 00 00 00 00
       0.0 0.0 0.0 0.0
000050 11 ff 8d 3c 00 00 00 00 00 00 00 00 00 00 00 00
       0.01733354 0.0 0.0 0.0
000060 00 00 00 00 8f c3 4a 3c 00 00 00 00 00 00 00 00
       0.0 0.012375726 0.0 0.0
000070 00 00 00 00 00 00 00 00 4c a6 b7 3d 00 00 00 00
       0.0 0.0 0.089672655 0.0
000080 00 00 00 00 00 00 00 00 00 00 00 00 15 94 46 3e
       0.0 0.0 0.0 0.19392426
000090 00 00 00 00 00 00 00 00 00 00 00 00 00 00 00 00
       0.0 0.0 0.0 0.0

transformer.layers.1.0.static_beta f4 [4]
000000 ab 31 81 3f 0a b4 86 3f e0 1a 88 3f a9 04 84 3f
       1.0093282 1.0523694 1.0633202 1.0313922

transformer.layers.1.0.dynamic_beta_fn f4 [8]
000000 64 42 b6 3c b5 1a 8a 3e 63 1b aa 3e f0 90 b5 be
       0.022248454 0.269735 0.3322402 -0.3546214
000010 84 48 2c 3e 76 7d 0e 3f 58 32 50 3e f8 91 89 3e
       0.16824538 0.5566019 0.20331705 0.26869178

transformer.layers.1.0.branch.norm.weight f4 [8]
000000 f5 1f 3e 3f 66 ad 53 3f f0 9f 47 3f 9f 45 3c 3f
       0.7426751 0.8268646 0.7797842 0.73543733
000010 33 c7 8f 3f 62 14 80 3f c1 47 1d 3f ba 98 22 3f
       1.1232666 1.000622 0.6143761 0.6351429

transformer.layers.1.0.branch.norm.bias f4 [8]
000000 6e a7 22 bd 6a 81 bf 3d 1d 26 42 3e 78 87 e7 3b
       -0.039710455 0.09350856 0.18959852 0.0070657097
000010 28 8b 34 bc af f3 fb bd f9 2b b8 bc 85 36 eb bc
       -0.011019506 -0.12302338 -0.022481905 -0.02871252

transformer.layers.1.0.branch.to_qkv.weight f4 [192, 8]
000000 94 d8 12 be dd ae 0d 3e 16 29 0f 3e 10 d5 ae be
       -0.1434043 0.13836236 0.13980517 -0.3414693
000010 5f b1 86 be 24 17 e7 be ce cb ad 3e 53 e8 5e 3d
       -0.26307198 -0.45134842 0.33944553 0.05442078
000020 12 25 12 3e 0f 85 a5 bb 8b 38 d2 3d 58 9a 7a 3e
       0.14271954 -0.005051262 0.10264691 0.2447294
000030 b9 f5 4d 3e 82 2e c9 be 95 8d 1b 3c 3b ba d1 be
       0.20113267 -0.39293295 0.009494205 -0.40962395
000040 86 31 c3 be 2b e8 63 3e e1 00 c4 3e 5f 46 91 be
       -0.3812372 0.22256534 0.3828192 -0.28374
000050 d2 71 a4 3d 31 6a 3a be dc cb 9d 3e 94 2a e0 3d
       0.08029522 -0.18204571 0.30819595 0.10945621
000060 55 81 17 be 31 54 dd 3d 48 9a f2 3d 9d 1b 9c bd
       -0.1479543 0.10807074 0.11845833 -0.07622454
000070 97 5b fa be f5 14 0c be 4a 56 64 3c 5c c7 fd 3d
       -0.48898003 -0.1367987 0.013936589 0.123915404
000080 7b c9 00 bd 2b 1d 56 3e 75 23 af 3d 9b b1 d4 3e
       -0.031442147 0.20909564 0.08551685 0.41541752
000090 a3 dd 6c be 50 8b 54 be 09 af bd be 8d 5d df 3e
       -0.23131423 -0.20756269 -0.37047604 0.4362606
0000a0 91 3f 8d be fb 69 4f 3e a7 1a dd 3d 51 7b ea bc
       -0.2758756 0.20255272 0.10796099 -0.028623255
0000b0 d5 56 18 bf 03 bd 9e 3e 97 78 48 be 6e 1c 06 3e
       -0.59507495 0.3100358 -0.19577251 0.13096783
0000c0 bf e3 82 3e 3b 5a 07 bf fb 3c 03 bf b5 99 7b be
       0.2556438 -0.52872056 -0.51264924 -0.24570353
0000d0 38 e7 83 bc f5 28 13 bb d0 65 83 3d ef 75 e4 be
       -0.016101465 -0.0022454832 0.064159036 -0.44621226
0000e0 fe ca 02 3e cd a6 08 be 6f df af be 9d af 47 3e
       0.12772748 -0.1334488 -0.34350154 0.19500585
0000f0 42 f3 02 3f 4e 51 ac be 45 4d b8 bd 14 d7 f0 be
       0.5115243 -0.3365578 -0.08999113 -0.47039092
000100 d2 8a 5d be d3 b7 19 3f aa 60 1e 3f 31 62 95 bd
       -0.21634987 0.6004612 0.6186625 -0.07294119
000110 c1 9f a6 be d1 0a 09 3f 43 21 92 3e a6 35 1a 3e
       -0.32543758 0.5353213 0.28541002 0.15059528
000120 2b c0 ea 3e ac 17 28 3e 08 fa 11 3e 1a 6c fb bd
       0.45849738 0.1641528 0.14255536 -0.12276478
000130 ad 24 fb 3e f5 53 6f 3d d3 35 8f be 9b 9c d7 be
       0.4905142 0.058429677 -0.27970752 -0.42111668
000140 ff 96 f2 3e 9b 23 fc be 01 01 db be 2c 01 99 3e
       0.47380826 -0.49245915 -0.42774203 0.29883707
000150 4f 0e 10 3f 1d 05 01 bf cc 5d 4f be 54 b9 09 bf
       0.56271833 -0.5039843 -0.20250624 -0.53798413
000160 65 b1 e6 be 4b 8e b9 3e 6f b0 65 3e e8 68 99 bd
       -0.45057216 0.36241373 0.22430585 -0.074907124
000170 a5 46 85 3d 93 ae ef 3d b5 e0 10 be 1b 6a 0b 3f
       0.06507615 0.11703219 -0.14148219 0.5445878
000180 03 b9 0b bd b4 0d 81 be e7 9c b8 3d e3 77 9c 3e
       -0.034111988 -0.25205767 0.09014302 0.30560216
000190 90 9b d5 3d 16 19 96 3e a7 89 be be 1c 64 36 be
       0.10430062 0.29316014 -0.37214395 -0.17811626
0001a0 ce 54 b6 bc 1b 9d 39 3e dc 98 3e 3d 8c 5f 4d be
       -0.022257235 0.18126337 0.046532497 -0.2005598
0001b0 e0 9b 1c 3e f9 76 91 be ba 79 be 3e 2d b1 7d bd
       0.15293837 -0.2841108 0.37202245 -0.061936546
0001c0 9d 81 cc 3d d3 ed 72 3e 4b bb 6c be 6e 5e 95 3e
       0.09985659 0.23723535 -0.23118322 0.29173607
0001d0 e7 2e 6e bd 5b 58 48 3d 4f a5 c5 be f5 68 69 3e
       -0.0581502 0.048912387 -0.38602683 0.22793944
0001e0 26 7b af be d9 85 82 3e c2 3b 7b bd 9a 4e 41 be
       -0.34273642 0.25492743 -0.061336286 -0.1887764
0001f0 85 fd 0b 3f e6 ec 1d 3e 96 9d fb bc 8d 9a 92 be
       0.54683715 0.15422401 -0.030714791 -0.28633538
000200 97 75 34 be a8 87 26 3e 91 3b f9 3e 61 e8 95 3e
       -0.17622982 0.16262686 0.48678258 0.29278854
000210 f9 09 39 bf b4 39 78 be af 01 15 3d f6 53 2e 3e
       -0.7228084 -0.24240762 0.03637856 0.17024216
000220 d0 0a 2f 3e ae 0a d3 3d 41 96 1f be 20 6f 1b be
       0.17093968 0.10304771 -0.15584661 -0.1517911
000230 f6 23 0f 3e 23 a1 34 be 23 d8 c7 bd 72 70 4f 3d
       0.13978562 -0.17639594 -0.09758022 0.050644346
000240 0f e2 61 be 41 61 b4 3e 04 a7 b9 3e 92 23 7d 3e
       -0.22058891 0.3523045 0.36260235 0.247206
000250 58 81 32 be d2 07 04 3f df 82 42 3e e7 62 0c 3f
       -0.17432153 0.5157443 0.18995236 0.54838413
000260 bd 1c dc 3e 33 09 a3 be 04 5e 8f 3c c1 36 f1 3c
       0.42990676 -0.31842956 0.017500885 0.029445054
000270 fc 45 33 be c3 89 08 be 12 62 9a 3d dd 60 5d be
       -0.17507166 -0.13333802 0.07538237 -0.21618982
000280 49 c7 3f be 26 0c c2 3a 5f e2 db 3e d9 6b 7e 3d
       -0.18728365 0.0014804646 0.42946145 0.06211457
000290 a9 4a f4 be da db 80 be d3 d1 33 3e 9a 69 b2 3e
       -0.4771321 -0.25167733 0.1756051 0.34846193
0002a0 24 2f dc bd 1a 33 66 be b8 37 89 be cb 26 b0 3e
       -0.10751179 -0.22480431 -0.26800323 0.34404597
0002b0 ce f9 ab 3e f8 45 a6 be 21 45 a0 3e cc c9 07 bf
       0.33589023 -0.32475257 0.3130274 -0.5304229
0002c0 78 d0 6a bd 4b 83 25 be 6a 51 82 be 28 68 5c be
       -0.057327718 -0.16163366 -0.2545274 -0.21524107
0002d0 4b 16 05 3f a3 e1 5b be 4b c9 63 3e d9 1a 72 be
       0.5198714 -0.21472792 0.22244756 -0.23643054
0002e0 df 3f a0 3d e8 db 61 3e b5 46 07 be 96 58 c3 3e
       0.078246824 0.22056544 -0.13210566 0.38153523
0002f0 5b 07 f3 be 68 1f b5 3e d9 a3 b9 3d a3 80 a6 3e
       -0.4746655 0.35375524 0.090644546 0.32520017
000300 2c bf 2f bd 36 34 57 be 91 8b 0f be 35 f0 ae 3e
       -0.042906925 -0.2101601 -0.14018084 0.34167638
000310 e2 ad 0d 3e 08 88 6c be 08 19 c1 bd 47 bd 0b bf
       0.13835862 -0.23098767 -0.094286025 -0.5458569
000320 47 40 83 3e 67 3e 00 bf d9 03 08 bf 94 08 1e 3e
       0.25634977 -0.5009522 -0.5313087 0.1543296
000330 7b 76 01 3d 87 8c 1b bc 37 7c f4 bd 93 40 0d be
       0.031607132 -0.009493954 -0.119377546 -0.13794164
000340 23 02 b2 be e5 22 d1 3c 6f 51 0e 3f 16 a9 f5 bd
       -0.34767255 0.025529334 0.5559301 -0.11995141
000350 fd 04 b6 be 95 1c 8b 3e c2 92 44 bc 66 a4 00 3f
       -0.3555068 0.27170244 -0.01199788 0.5025085
000360 f6 2c bd be 84 b0 ee 3e 32 27 da 3e f3 7a 87 3e
       -0.36948365 0.46619046 0.4260803 0.2646099
000370 b7 13 ce be 86 37 22 3e 10 b1 21 be 6f ea 0d 3e
       -0.40249416 0.15841493 -0.157902 0.1385896
000380 39 e8 ca be 18 1f 7a 3e 3f 87 48 be e1 c2 0d 3e
       -0.39630297 0.24425924 -0.19582842 0.13843872
000390 3b 48 a0 3d 16 65 1f 3e 2a 51 ed 3d 63 73 60 3e
       0.07826277 0.15565905 0.115877464 0.21919017
0003a0 42 d4 d3 be da d3 68 bd cb 61 98 3e 29 c8 9d 3d
       -0.41372877 -0.056842662 0.2976211 0.07704193
0003b0 e4 15 8e be de 42 96 3a 1c 8f 92 3e 10 f1 56 3e
       -0.27751076 0.001146402 0.2862481 0.20990396
0003c0 84 89 bc 3e e8 22 2d 3e df a5 b6 3d 68 09 6d bd
       0.36823666 0.16907847 0.08918356 -0.0578703
0003d0 1d cb 06 3f 06 e9 3d be 89 04 95 be a9 70 0b bf
       0.52653676 -0.18545923 -0.29105023 -0.5446878
0003e0 eb 03 04 3e 25 96 a0 be 8b 36 e4 be 08 e9 12 3e
       0.1289212 -0.3136455 -0.44572863 0.14346707
0003f0 05 83 75 3e 21 e9 78 bc a6 d8 66 be d1 51 e5 be
       0.23975761 -0.015192301 -0.22543582 -0.44788983
