Projektarbeit_FTTransformer/trained_models/physical_loss_training/model_lr0.00025_9_1_4_4_.1_.1PhysicsLambda0.2_epoch20000.pt (torch, 105004 bytes, 87 tensors)

cls_token f4 [1, 1, 9]
0.6781446 -0.12107797 -0.32453483 0.56429344 -1.4520183 1.0726491 -0.98061967 -0.7917628
0.16822386
00000000: e29a 2d3f baf7 f7bd 6e29 a6be 8975 103f
00000010: bcdb b9bf 914c 893f e409 7bbf f8b0 4abf
00000020: e042 2c3e

categorical_embeds.weight f4 [3, 9]
0.9090095 -1.6980014 0.40455604 -1.1487621 -1.8970948 -1.1056626 0.9855332 -1.7573006
0.34610412 -0.54542625 0.27392772 0.54657805 -0.55054927 0.33346927 0.7284316 1.3530005
0.20103861 0.9126228 0.4968146 0.08140834 -0.67935 1.3799613 -0.3610103 0.69227344
-1.4435753 -1.6749586 0.069161296
00000000: d9b4 683f 1c58 d9bf f821 cf3e a30a 93bf
00000010: 01d4 f2bf 5a86 8dbf e74b 7c3f 3aef e0bf
00000020: 8f34 b13e 0ea1 0bbf 4140 8c3e 8aec 0b3f
00000030: ccf0 0cbf 7cbc aa3e 7e7a 3a3f 1f2f ad3f
00000040: 11dd 4d3e a6a1 693f 7c5e fe3e 6ab9 a63d
00000050: e2e9 2dbf 92a2 b03f 58d6 b8be d538 313f
00000060: 13c7 b8bf 0b65 d6bf 70a4 8d3d

numerical_embedder.weights f4 [8, 9]
2.1669471 0.15803955 -0.17112595 -0.45960164 0.040034186 -0.42228258 -1.311241 0.7245452
-0.45643148 -1.1336404 0.51726913 -1.2057289 0.919281 -1.5799185 -0.8931189 -0.2700025
-0.08930454 -0.14077567 0.11655131 -0.6585042 0.69736904 -0.80218446 -0.9293411 -1.4245849
-0.4440843 0.109691456 0.117566355 -0.23167533 0.654844 -0.18740271 -0.21106482 -0.3181267
0.2703082 0.5818469 -0.40337288 0.119385 1.2123972 -1.4452246 -0.17054911 0.7314172
0.3603395 3.130784 1.0788575 -0.036708985 -0.8938657 -0.87185705 -0.8803357 0.76250607
-0.30200505 2.2735987 0.33480826 -1.0310938 -0.38021246 0.67672026 0.23730838 -1.5656497
1.6378973 -0.58637154 0.18284799 0.78088564 -2.5518742 -0.7117681 -0.083736315 -0.053912852
0.117137 0.82284284 1.2043427 0.19885515 1.627246 -1.2629738 0.45007247 0.03224462
00000000: 43af 0a40 1fd5 213e a43b 2fbe e850 ebbe
00000010: e3fa 233d 6c35 d8be bfd6 a7bf cb7b 393f
00000020: 63b1 e9be 211b 91bf c06b 043f 5355 9abf
00000030: 0056 6b3f c53a cabf 71a3 64bf c53d 8abe
00000040: 4ce5 b6bd 7f27 10be 74b2 ee3d bb93 28bf
00000050: c786 323f f65b 4dbf 4ce9 6dbf cc58 b6bf
00000060: 045f e3be eaa5 e03d a1c6 f03d 4c3c 6dbe
00000070: dba3 273f 7fe6 3fbe 6021 58be 81e1 a2be
00000080: d665 8a3e ebf3 143f e486 cebe 1f80 f43d
00000090: d52f 9b3f 1ffd b8bf 6da4 2ebe 283e 3b3f
000000a0: 6b7e b83e c45e 4840 0118 8a3f 295c 16bd
000000b0: 62d4 64bf 0632 5fbf ae5d 61bf 9933 433f
000000c0: 68a0 9abe a482 1140 fd6b ab3e e2fa 83bf
000000d0: 35ab c2be 8a3d 2d3f f800 733e 3667 c8bf
000000e0: 9ea6 d13f 721c 16bf 813c 3b3e 1fe8 473f
000000f0: e851 23c0 6f36 36bf f27d abbd b9d3 5cbd
00000100: 86e5 ef3d d4a5 523f e727 9a3f afa0 4b3e
00000110: 9949 d03f 20a9 a1bf e66f e63e ef12 043d

numerical_embedder.biases f4 [8, 9]
-1.8255337 -1.5526916 0.36082503 0.9282494 1.0682801 0.2086217 -0.32736272 1.2391793
1.279025 -5.056143 -4.011515 3.5117621 -0.8304371 -3.82104 -1.4164187 -2.9676654
2.9807377 3.1193297 -0.73791814 -1.8506169 -0.5697614 1.6804265 0.83552384 0.96944946
2.404654 0.10909166 -1.4137868 0.92459226 -0.60543036 -1.5183704 -2.1644392 -0.32227883
-1.4475794 -1.990636 2.4134815 -1.0735506 -0.004331478 0.31333733 -0.4754586 0.56382966
0.33254248 -0.39497736 -0.34132195 0.4410196 -0.45885086 0.74843585 0.6619785 -0.58556265
-0.29111353 -1.1676724 -0.49766567 1.3936479 -0.9459386 -0.08006168 -0.20007686 -0.15068807
-1.1555028 0.0053392285 -0.779467 -0.29095095 1.2671274 -0.4242902 1.2644353 0.80525666
0.47357237 -1.544732 1.1557612 -0.011638354 1.0397623 1.0282326 -2.068618 -0.20840146
00000000: 17ab e9bf 99be c6bf 0fbe b83e c1a1 6d3f
00000010: 67bd 883f eda0 553e 169c a7be 6d9d 9e3f
00000020: 17b7 a33f eccb a1c0 555e 80c0 b6c0 6040
00000030: 8797 54bf eb8b 74c0 354d b5bf 3bee 3dc0
00000040: 68c4 3e40 19a3 4740 34e8 3cbf 04e1 ecbf
00000050: e2db 11bf 3718 d73f e4e4 553f d72d 783f
00000060: dae5 1940 736b df3d f7f6 b4bf 14b2 6c3f
00000070: 7cfd 1abf f659 c2bf 2c86 0ac0 bb01 a5be
00000080: 484a b9bf 29cd febf 7b76 1a40 1b6a 89bf
00000090: 12ef 8dbb c06d a03e 4f6f f3be 2457 103f
000000a0: 0243 aa3e 793a cabe c0c1 aebe 52cd e13e
000000b0: 80ee eabe 7e99 3f3f 6c77 293f 6fe7 15bf
000000c0: d50c 95be 4a76 95bf 09ce febe 0e63 b23f
000000d0: 0829 72bf 61f7 a3bd f3e0 4cbe f94d 1abe
000000e0: 84e7 93bf b2f4 ae3b 268b 47bf 86f7 94be
000000f0: 3b31 a23f 913c d9be 04d9 a13f 4d25 4e3f
00000100: 1478 f23e c7b9 c5bf fcef 933f cbae 3ebc
00000110: ee16 853f 209d 833f 3d64 04c0 3167 55be

transformer.layers.0.0.static_alpha f4 [4, 5]
0.31996286 1.0 0.0 0.0 0.0 0.31996286 0.0 1.0
0.0 0.0 1.3199643 0.0 0.0 1.0 0.0 0.31996286
0.0 0.0 0.0 1.0
00000000: 2cd2 a33e 0000 803f 0000 0000 0000 0000
00000010: 0000 0000 2cd2 a33e 0000 0000 0000 803f
00000020: 0000 0000 0000 0000 97f4 a83f 0000 0000
00000030: 0000 0000 0000 803f 0000 0000 2cd2 a33e
00000040: 0000 0000 0000 0000 0000 0000 0000 803f

transformer.layers.0.0.dynamic_alpha_fn f4 [9, 5]
0.19954988 0.0 0.0 0.0 0.0 -0.08195006 0.0 0.0
0.0 0.0 -0.35839957 0.0 0.0 0.0 0.0 -0.060882572
0.0 0.0 0.0 0.0 -0.3332472 0.0 0.0 0.0
0.0 -0.016558817 0.0 0.0 0.0 0.0 0.06407953 0.0
0.0 0.0 0.0 -0.19022977 0.0 0.0 0.0 0.0
0.18621159 0.0 0.0 0.0 0.0
00000000: ce56 4c3e 0000 0000 0000 0000 0000 0000
00000010: 0000 0000 6fd5 a7bd 0000 0000 0000 0000
00000020: 0000 0000 0000 0000 2680 b7be 0000 0000
00000030: 0000 0000 0000 0000 0000 0000 0160 79bd
00000040: 0000 0000 0000 0000 0000 0000 0000 0000
00000050: 619f aabe 0000 0000 0000 0000 0000 0000
00000060: 0000 0000 5ba6 87bc 0000 0000 0000 0000
00000070: 0000 0000 0000 0000 213c 833d 0000 0000
00000080: 0000 0000 0000 0000 0000 0000 98cb 42be
00000090: 0000 0000 0000 0000 0000 0000 0000 0000
000000a0: 40ae 3e3e 0000 0000 0000 0000 0000 0000
000000b0: 0000 0000

transformer.layers.0.0.static_beta f4 [4]
1.0663373 0.83940804 0.84466785 1.156533
00000000: be7d 883f 72e3 563f 273c 583f 4609 943f

transformer.layers.0.0.dynamic_beta_fn f4 [9]
-0.5445812 0.43301618 0.031692915 -0.27696884 -0.1160368 -0.27460402 0.2068078 0.37239873
-0.1676576
00000000: ac69 0bbf 4cb4 dd3e 6ed0 013d dcce 8dbe
00000010: b4a4 edbd e698 8cbe 6dc5 533e 0cab be3e
00000020: 6fae 2bbe

transformer.layers.0.0.branch.norm.weight f4 [9]
1.1571791 1.0956001 1.2874918 0.97649086 1.2503238 1.034932 1.0762295 0.9973564
0.9352548
00000000: 721e 943f a03c 8c3f 88cc a43f 4efb 793f
00000010: 9c0a a03f a778 843f e3c1 893f c052 7f3f
00000020: dc6c 6f3f

transformer.layers.0.0.branch.norm.bias f4 [9]
0.034874212 -0.056958783 -0.012337614 0.1406874 0.0046456847 0.05913093 -0.051499274 0.01815925
-0.21843277
00000000: 43d8 0e3d 9d4d 69bd b423 4abc 5c10 103e
00000010: d43a 983b 4633 723d e7f0 52bd b5c2 943c
00000020: d7ac 5fbe

transformer.layers.0.0.branch.to_qkv.weight f4 [192, 9]
0.107659 -0.5136203 -0.07931723 0.20677648 -0.17943436 -0.23413025 0.32429114 -0.0512275
0.26244935 0.41143867 0.029834285 0.22905405 0.15595496 0.1902875 0.18227205 -0.34362522
-0.081204996 -0.20335597 -0.49520528 0.05483959 0.3173005 -0.078371115 0.100103 -0.2318431
0.0002380924 -0.15906474 0.042161696 -0.5158739 -0.19436245 0.09764537 -0.33120856 -0.019881405
0.030909073 0.481127 -0.18453509 -0.09499553 0.19388336 -0.019024145 -0.28628007 0.3215548
-0.447484 0.25451684 -0.33409545 -0.07767029 -0.1435343 -0.46091914 -0.04446848 -0.37082133
-0.02828671 -0.109024644 -0.50583667 0.3722724 0.5207911 0.22708546 0.6556696 0.4821932
-0.05447499 -0.17861845 -0.45034814 0.18724938 -0.43688935 0.30953738 -0.30772698 -0.0752042
0.36581185 -0.3078211 -0.062384643 -0.4708895 -0.1051056 -0.22928515 0.037244745 -0.30846044
-0.16882488 -0.302618 0.06118222 -0.31339487 -0.023323737 0.10480521 0.32513842 -0.07416658
0.2355812 0.5640378 0.2388493 0.0021561286 0.4298645 -0.3714077 0.17266883 -0.59112364
-0.11995207 -0.0910266 0.52720654 0.3518123 -0.31199053 0.4560344 0.12210742 0.3328704
-0.35376564 -0.089729816 -0.19363621 -0.31128338 -0.34186184 0.19126594 -0.35520688 0.407575
0.038183518 0.40741915 -0.37941575 -0.18401867 0.51545364 -0.27904934 0.32250324 0.10226483
-0.19939478 -0.13127235 -0.52950436 0.15169068 -0.35711572 -0.27223116 0.028140703 0.045807175
-0.24773316 0.10880588 -0.19329159 0.23879617 0.39229178 -0.016724933 -0.18040705 0.16037232
-0.13656071 0.16809438 -0.25086257 0.28777042 -0.38243508 0.37292588 -0.10120182 -0.48496082
-0.10381847 -0.14338513 -0.27099466 0.3182531 -0.31137976 0.08011568 0.25051773 -0.19917764
0.02758022 -0.16699253 0.4922483 -0.08201015 0.64319605 -0.61537397 0.2972856 0.2812946
-0.33504355 -0.57081926 0.10332649 0.22153905 -0.48379034 0.24097212 -0.49938717 0.21549837
0.38153806 -0.3841082 0.12675902 0.2501736 -0.032582313 -0.35080376 0.34887427 -0.53700346
0.3803873 -0.057328142 -0.033492275 -0.4225598 0.07270168 0.6779051 -0.2172008 0.6140844
-0.3246844 0.07791597 0.59165424 -0.39918035 -0.3860717 -0.1271367 0.19205646 -0.20096546
-0.11403109 -0.14667466 0.224041 0.17590262 -0.32691157 -0.019227093 -0.1947278 0.12524273
-0.11912622 0.02690112 -0.25588802 0.0455369 -0.12677327 0.102274664 0.008535141 -0.1616149
0.14726189 0.35380852 -0.016913725 0.085314155 0.07246988 -0.503742 -0.03838257 -0.07115676
-0.035371423 0.078641936 0.4019448 -0.038968105 0.03198732 0.2258805 -0.15589437 -0.28048033
0.2978392 -0.30642065 -0.1963403 0.21581501 -0.13671042 0.1761077 -0.47201607 -0.4498788
0.51080394 0.038637325 0.53452504 -0.25207195 -0.26742068 -0.013289126 -0.36269724 0.080699176
0.15620646 -0.4268537 -0.5815449 -0.43704394 0.17885725 -0.44880915 0.14973162 -0.25798258
0.35710216 0.30588722 -0.123629 0.2732152 -0.38170218 0.24817644 0.2346828 0.15257187
0.03665347 -0.031959817 -0.2507987 0.116049364 -0.5432474 0.03850135 0.037391853 -0.3358633
00000000: 527c dc3d 9f7c 03bf 1271 a2bd 37bd 533e
00000010: a4bd 37be d7bf 6fbe 7d09 a63e edd3 51bd
00000020: c35f 863e 17a8 d23e 0867 f43c 258d 6a3e
00000030: a8b2 1f3e bada 423e 86a5 3a3e a5ef afbe
00000040: ce4e a6bd 8c3c 50be 8c8b fdbe 7a9f 603d
00000050: 3675 a23e 0981 a0bd cd02 cd3d 4768 6dbe
00000060: 71a8 7939 dee1 22be beb1 2c3d 5010 04bf
00000070: f306 47be 4cfa c73d 2b94 a9be 54de a2bc
00000080: 0635 fd3c 4756 f63e c4f6 3cbe 048d c2bd
00000090: 5c89 463e 86d8 9bbc 4d93 92be d5a2 a43e
000000a0: 9f1c e5be 0850 823e 8f0e abbe 9a11 9fbd
000000b0: a8fa 12be 98fd ebbe 9524 36bd 4bdc bdbe
000000c0: 88b9 e7bc 5048 dfbd 837e 01bf 7d9a be3e
000000d0: 9152 053f 1789 683e f7d9 273f 07e2 f63e
000000e0: 2b21 5fbd c1e7 36be 0894 e6be 4dbe 3f3e
000000f0: f6af dfbe af7b 9e3e 648e 9dbe a904 9abd
00000100: b14b bb3e ba9a 9dbe 0a87 7fbd 6e18 f1be
00000110: 9b41 d7bd bac9 6abe f28d 183d 87ee 9dbe
00000120: 6ee0 2cbe bff0 9abe 359a 7a3d 4b75 a0be
00000130: 6c11 bfbc 1da4 d63d 8b78 a63e a6e4 97bd
00000140: 333c 713e c864 103f e994 743e d64d 0d3b
00000150: 3317 dc3e 2629 bebe 19d0 303e e153 17bf
00000160: 6ea9 f5bd 276c babd 02f7 063f be20 b43e
00000170: 39bd 9fbe 577d e93e 7413 fa3d fd6d aa3e
00000180: c520 b5be 44c4 b7bd 9248 46be 8960 9fbe
00000190: 8408 afbe 38db 433e addd b5be acad d03e
000001a0: 5266 1c3d 3e99 d03e c842 c2be 646f 3cbe
000001b0: c5f4 033f 8edf 8ebe 251f a53e 3970 d13d
000001c0: 252e 4cbe 426c 06be 998d 07bf cd54 1b3e
000001d0: dfd7 b6be e261 8bbe 5587 e63c 4ea0 3b3d
000001e0: c3ad 7dbe 9ed5 de3d 3bee 45be fc86 743e
000001f0: 78da c83e ba02 89bc a0bc 38be a438 243e
00000200: 92d6 0bbe ef20 2c3e 0f71 80be a556 933e
00000210: 88ce c3be 24f0 be3e e642 cfbd c94c f8be
00000220: c79e d4bd 8dd3 12be d0bf 8abe 12f2 a23e
00000230: 2b6d 9fbe b113 a43d dc43 803e 39f5 4bbe
00000240: eaef e13c 1700 2bbe f807 fc3e f0f4 a7bd
00000250: 7fa8 243f 2689 1dbf d135 983e d905 903e
00000260: d48a abbe 3621 12bf d79c d33d 22db 623e
00000270: 5eb3 f7be 65c1 763e adaf ffbe 9bab 5c3e
00000280: f558 c33e d4a9 c4be 1ecd 013e c116 803e
00000290: 0875 05bd 8d9c b3be a69f b23e 0f79 09bf
000002a0: 20c2 c23e ead0 6abd 322f 09bd c259 d8be
000002b0: 9ee4 943d 308b 2d3f e369 5ebe a334 1d3f
000002c0: 093d a6be 6892 9f3d a776 173f 5e61 ccbe
000002d0: 31ab c5be 2030 02be 73aa 443e e4c9 4dbe
000002e0: 2289 e9bd e231 16be 016b 653e d11f 343e
000002f0: f460 a7be 2382 9dbc b966 47be a13f 003e
00000300: 73f8 f3bd bd5f dc3c c103 83be e784 3a3d
00000310: dad0 01be 6175 d13d fad6 0b3c 607e 25be
00000320: d2cb 163e 6426 b53e a78e 8abc 30b9 ae3d
00000330: 176b 943d 3cf5 00bf 0b37 1dbd a3ba 91bd
00000340: a0e1 10bd 060f a13d b5cb cd3e 059d 1fbd
00000350: 2305 033d 384d 673e c6a2 1fbe 1e9b 8fbe
00000360: 617e 983e 2be3 9cbe 6e0d 49be 9cfe 5c3e
00000370: d1fd 0bbe 9455 343e 17ac f1be 8456 e6be
00000380: 0cc4 023f 2c42 1e3d a2d6 083f 930f 81be
00000390: 5deb 88be a2ba 59bc 74b3 b9be 9c45 a53d
000003a0: 96f4 1f3e 918c dabe 20e0 14bf 39c4 dfbe
000003b0: 5b26 373e 50ca e5be 3f53 193e 4b16 84be
000003c0: 18d6 b63e 409d 9c3e 3331 fdbd dde2 8b3e
000003d0: 786e c3be f721 7e3e b050 703e cd3b 1c3e
000003e0: f321 163d 4ce8 02bd b068 80be 4aab ed3d
000003f0: 4312 0bbf 97b3 1d3d 3328 193d 46f6 abbe

transformer.layers.0.0.branch.to_out.weight f4 [9, 64]
-0.08825434 -0.030557683 -0.042247802 0.06738216 -0.0034297362 0.107561685 -0.0055641467 0.09810367
-0.06208815 0.21387883 0.045839272 -0.077344574 0.061082188 -0.0037524083 -0.068834014 0.09774069
-0.052743845 0.13594392 -0.10287356 0.009766471 -0.03414997 0.19103307 0.010581126 -0.09464798
0.13559058 0.08675921 -0.10229274 -0.05062494 -0.034999687 0.016233949 0.06226739 -0.14143643
0.14138027 0.08064021 -0.18352133 -0.08874364 0.10651422 0.15801044 -0.2007237 -0.049991295
0.027188225 -0.099807106 -0.036310125 0.03413068 0.12218175 0.033956155 0.11169533 -0.032761514
0.044748366 0.05138769 0.15221602 0.008643805 -0.07049553 -0.0708084 -0.06972931 -0.024505578
0.032318983 0.077054635 -0.037255187 -0.002697936 -0.026877448 -0.067163825 0.1163012 0.1363188
-0.026087906 0.014206427 0.12574361 -0.07938503 -0.046315875 -0.107417084 -0.27919814 0.031696606
0.050394006 -0.40959656 0.011454615 0.13707861 0.09365271 -0.23767951 -0.12416078 -0.28465864
-0.076536946 -0.09014047 0.06893872 -0.06658471 0.05249967 -0.2939128 -0.040002503 0.0206174
-0.3530783 0.12206225 0.008997285 -0.08203698 0.20446105 0.31806198 -0.20531887 0.049132474
-0.2641675 -0.38168776 0.26455656 0.06349273 -0.02820016 -0.25263312 0.1035437 -0.016156964
-0.39031503 0.054902814 -0.003272355 -0.18941122 -0.008741677 -0.12751345 0.121508114 0.018745234
-0.07434907 -0.11803329 -0.016239423 0.0665567 -0.13096505 -0.072218575 -0.0421483 0.06848601
0.07746724 -0.017490033 0.12330776 -0.011675793 -0.037251487 0.05481396 -0.040225286 0.057763528
-0.081523985 0.011818905 -0.000772839 0.007229979 0.18171936 0.08607974 -0.084320836 -0.036002196
-0.072597496 0.12481036 0.18427952 0.10535095 0.06934286 -0.024307238 -0.012107455 0.065410085
0.06471952 -0.06691971 -0.120505586 0.1403133 -0.056275185 0.22862637 -0.009383195 -0.15231742
0.15239914 0.13122313 0.016290125 0.122817725 -0.1623628 -0.12850873 0.053052522 -0.10335565
0.046835832 0.076843955 -0.10870942 -0.08396548 -0.08839649 0.06930968 -0.27691764 0.02544323
0.20691627 -0.20668456 0.18666328 0.021680202 -0.04749115 0.024954403 -0.16972278 -0.0841894
-0.10671776 -0.0038664504 0.07235392 0.17969412 -0.07585018 0.19334301 -0.10625653 -0.02189751
-0.13207808 -0.01605997 -0.053134765 0.070906445 0.115076706 0.093583465 -0.040762804 -0.057193633
-0.10155911 -0.06576375 -0.06288772 -0.0070649553 -0.07534062 -0.050721798 -0.24330494 -0.08365126
0.06979285 -0.29277003 -0.11835074 -0.1398895 -0.09143211 -0.16966029 -0.09015804 -0.16824795
-0.08839097 -0.021053003 -0.1881267 0.031314075 0.15422408 -0.1955235 0.008953243 0.06770836
-0.11901707 -0.090774395 0.076663785 -0.28208202 0.060052276 0.13468133 -0.18838088 0.06637725
-0.13771 -0.24115033 0.20785475 0.12743706 0.029762974 -0.09016512 0.2565081 0.058024343
-0.2213252 0.14838405 -0.11798197 -0.08804358 -0.00040279166 -0.06094965 0.011288742 0.025703873
-0.037927624 0.12686719 -0.11946582 -0.01727869 0.011241561 0.15538639 -0.071442105 -0.114228874
-0.0064885365 0.057466973 0.06226823 -0.008688098 -0.058971547 -0.10681511 0.006588676 0.0152737945
00000000: b1be b4bd 1b54 fabc 080c 2dbd a8ff 893d
00000010: 6dc5 60bb 4d49 dc3d 7253 b6bb 94ea c83d
00000020: 2550 7ebd 0d03 5b3e f6c1 3b3d d566 9ebd
00000030: 5131 7a3d f7ea 75bb d9f8 8cbd 452c c83d
00000040: ee09 58bd e234 0b3e 5faf d2bd 8c03 203c
00000050: d7e0 0bbd 2c9e 433e 765c 2d3c cdd6 c1bd
00000060: 42d8 0a3e d0ae b13d db7e d1bd 195c 4fbd
00000070: d55b 0fbd 0ffd 843c 170c 7f3d b6d4 10be
00000080: fdc5 103e b226 a53d 04ed 3bbe 3abf b5bd
00000090: 2124 da3d 7dcd 213e 838a 4dbe acc3 4cbd
000000a0: d7b9 de3c ab67 ccbd edb9 14bd 9dcc 0b3d
000000b0: 6d3a fa3d 9c15 0b3d 85c0 e43d f030 06bd
000000c0: 104a 373d e67b 523d 84de 1b3e bf9e 0d3c
000000d0: f65f 90bd ff03 91bd 3ece 8ebd ecbf c8bc
000000e0: e960 043d d2ce 9d3d e598 18bd dbcf 30bb
000000f0: 182e dcbc 308d 89bd 532f ee3d 2897 0b3e
00000100: 4eb6 d5bc 13c2 683c efc2 003e 9e94 a2bd
00000110: b7b5 3dbd 7dfd dbbd 0ff3 8ebe 4dd4 013d
00000120: f269 4e3d a4b6 d1be 23ac 3b3c 565e 0c3e
00000130: fecc bf3d 4262 73be 0248 febd c7be 91be
00000140: 67bf 9cbd 919b b8bd be2f 8d3d 905d 88bd
00000150: e509 573d bd7b 96be aad9 23bd d2e5 a83c
00000160: aec6 b4be c6fb f93d 5969 133c 0103 a8bd
00000170: 3d5e 513e 05d9 a23e 1c3f 52be 223f 493d
00000180: f640 87be 946c c3be f573 873e 7a08 823d
00000190: 0604 e7bc 2159 81be b80e d43d 9c5b 84bc
000001a0: 5fd7 c7be c6e1 603d 0275 56bb 04f5 41be
000001b0: 4039 0fbc e392 02be 3fd9 f83d 9b8f 993c
000001c0: 5344 98bd 70bb f1bd 8a08 85bc e14e 883d
000001d0: b41b 06be 55e7 93bd b2a3 2cbd 6542 8c3d
000001e0: 25a7 9e3d 4247 8fbc c788 fc3d d34b 3fbc
000001f0: 0495 18bd 9a84 603d 45c3 24bd 7399 6c3d
00000200: 0cf6 a6bd 15a4 413c 5998 4aba 76e9 ec3b
00000210: a414 3a3e 934a b03d 67b0 acbd 0a77 13bd
00000220: ffad 94bd 939c ff3d c5b3 3c3e 3dc2 d73d
00000230: a103 8e3d f91f c7bc 595e 46bc b9f5 853d
00000240: ab8b 843d 330d 89bd a2cb f6bd 4aae 0f3e
00000250: cf80 66bd 081d 6a3e f9bb 19bc 19f9 1bbe
00000260: 850e 1c3e 5b5f 063e de72 853c dc87 fb3d
00000270: 6f42 26be cb97 03be 9a4d 593d 21ac d3bd
00000280: eed6 3f3d 5d60 9d3d 0ba3 debd 18f6 abbd
00000290: 3809 b5bd 3cf2 8d3d 26c8 8dbe 526e d03c
000002a0: dce1 533e 1ea5 53be a924 3f3e ae9a b13c
000002b0: 1586 42bd 2d6d cc3c cfcb 2dbe 7e6b acbd
000002c0: d78e dabd 4664 7dbb 4b2e 943d bc01 383e
000002d0: 5757 9bbd b6fb 453e 069d d9bd 6862 b3bc
000002e0: 7a3f 07be 3390 83bc d7a3 59bd 6637 913d
000002f0: 56ad eb3d b0a8 bf3d e6f6 26bd df43 6abd
00000300: 39fe cfbd 25af 86bd 47cb 80bd 2481 e7bb
00000310: 2f4c 9abd a9c1 4fbd ee24 79be 5a51 abbd
00000320: 8eef 8e3d f4e5 95be df61 f2bd 313f 0fbe
00000330: c240 bbbd 6dbb 2dbe c7a4 b8bd 3149 2cbe
00000340: 5306 b5bd 5977 acbc 49a4 40be 3043 003d
00000350: ebec 1d3e 5037 48be 9fb0 123c aeaa 8a3d
00000360: 39bf f3bd ede7 b9bd e701 9d3d 0e6d 90be
00000370: 60f9 753d e7e9 093e ebe6 40be ccf0 873d
00000380: da03 0dbe 1df0 76be e0d7 543e dc7e 023e
00000390: 7bd1 f33c 7ea8 b8bd 0855 833e efaa 6d3d
000003a0: 13a3 62be fdf1 173e 88a0 f1bd 3150 b4bd
000003b0: c82d d3b9 57a6 79bd 6af4 383c ee90 d23c
000003c0: ff59 1bbd 79e9 013e 7faa f4bd 0a8c 8dbc
000003d0: 862e 383c 9c1d 1f3e 3d50 92bd d4f0 e9bd
000003e0: ca9d d4bb 7d62 6b3d f90c 7f3d 8658 0ebc
000003f0: 268c 71bd e1c1 dabd d2e5 d73b f03e 7a3c

transformer.layers.0.0.norm.gamma f4 [9]
0.6997602 0.56389624 0.14800875 0.36824155 0.23961385 0.3575564 0.39572665 0.51304483
0.38154402
00000000: 7c23 333f 815b 103f 9b8f 173e 288a bc3e
00000010: 555d 753e a211 b73e af9c ca3e e856 033f
00000020: bd59 c33e

transformer.layers.0.1.static_alpha f4 [4, 5]
-0.009363043 1.0 0.0 0.0 0.0 0.7319927 0.0 1.0
0.0 0.0 0.1928236 0.0 0.0 1.0 0.0 0.20696999
0.0 0.0 0.0 1.0
00000000: 7367 19bc 0000 803f 0000 0000 0000 0000
00000010: 0000 0000 e063 3b3f 0000 0000 0000 803f
00000020: 0000 0000 0000 0000 8d73 453e 0000 0000
00000030: 0000 0000 0000 803f 0000 0000 f1ef 533e
00000040: 0000 0000 0000 0000 0000 0000 0000 803f

transformer.layers.0.1.dynamic_alpha_fn f4 [9, 5]
0.11786144 0.0 0.0 0.0 0.0 0.04959266 0.0 0.0
0.0 0.0 0.0666652 0.0 0.0 0.0 0.0 0.21681297
0.0 0.0 0.0 0.0 -0.1582875 0.0 0.0 0.0
0.0 0.1400295 0.0 0.0 0.0 0.0 -0.15340342 0.0
0.0 0.0 0.0 -0.121984415 0.0 0.0 0.0 0.0
0.13236922 0.0 0.0 0.0 0.0
00000000: 5761 f13d 0000 0000 0000 0000 0000 0000
00000010: 0000 0000 ac21 4b3d 0000 0000 0000 0000
00000020: 0000 0000 0000 0000 c487 883d 0000 0000
00000030: 0000 0000 0000 0000 0000 0000 3804 5e3e
00000040: 0000 0000 0000 0000 0000 0000 0000 0000
00000050: 1e16 22be 0000 0000 0000 0000 0000 0000
00000060: 0000 0000 e563 0f3e 0000 0000 0000 0000
00000070: 0000 0000 0000 0000 c915 1dbe 0000 0000
00000080: 0000 0000 0000 0000 0000 0000 f7d2 f9bd
00000090: 0000 0000 0000 0000 0000 0000 0000 0000
000000a0: cc8b 073e 0000 0000 0000 0000 0000 0000
000000b0: 0000 0000

transformer.layers.0.1.static_beta f4 [4]
0.8974317 0.78894377 0.89632636 1.2116777
00000000: 15be 653f 38f8 493f a575 653f 4118 9b3f

transformer.layers.0.1.dynamic_beta_fn f4 [9]
-0.216027 0.17933798 -0.44686785 0.03797456 -0.04457031 -0.08113891 0.14768812 0.085280985
-0.14674878
00000000: 2f36 5dbe 60a4 373e ddcb e4be 368b 1b3d
00000010: 5b8f 36bd 282c a6bd 8e3b 173e cca7 ae3d
00000020: 5045 16be

transformer.layers.0.1.branch.0.weight f4 [9]
1.0073999 1.1255945 1.0985425 1.1924381 1.0851039 1.037788 0.91175747 1.0335321
0.9261762
00000000: 7bf2 803f 7b13 903f 0a9d 8c3f d0a1 983f
00000010: afe4 8a3f 3dd6 843f f068 693f c84a 843f
00000020: e219 6d3f

transformer.layers.0.1.branch.0.bias f4 [9]
-0.11879996 0.008095207 -0.033953436 0.005086124 -0.040104244 -0.012075995 0.11250477 0.02396873
-0.17639892
00000000: 654d f3bd c2a1 043c c212 0bbd 80a9 a63b
00000010: 5944 24bd 65da 45bc e768 e63d 125a c43c
00000020: eba1 34be

transformer.layers.0.1.branch.1.weight f4 [72, 9]
0.26819256 0.5785078 -0.13038251 0.14108954 0.3998965 -0.4773399 0.008721076 0.14022335
0.27347085 0.37460908 -0.4206294 0.10138544 0.23963717 -0.45867154 -0.34586465 -0.34539938
-0.18469164 0.20063564 0.20982131 -0.15258116 0.36126545 -0.26326746 0.13842681 0.1805888
-0.17799634 0.42972615 -0.33743054 0.36131406 -0.30676207 0.29023856 0.526322 0.16811895
-0.07292208 0.121632986 -0.06554218 -0.24416788 -0.18344489 -0.42574403 0.22275035 0.18508837
-0.16102435 0.017972732 0.08349385 0.097699665 -0.17538719 -0.15558375 0.24612454 0.06985976
-0.6849624 0.62037647 -0.012968877 0.07366875 -0.019370833 -0.2857029 0.16533254 -0.2719315
0.032668967 -0.18405291 0.2549451 0.11128793 -0.2948207 -0.22746731 -0.28898624 -0.23877738
0.511846 0.19320309 -0.032118123 -0.08221307 -0.08154239 -0.08921912 -0.056161232 -0.42106983
0.2888474 0.16343775 -0.22123337 -0.17357543 -0.4426369 0.10813546 0.15502606 -0.14296108
-0.066733904 -0.3985896 0.18422008 0.0697951 0.15645081 0.0910571 -0.0025628896 0.3180896
0.04964852 0.2999907 -0.13668267 0.051272776 0.124533884 0.33787578 -0.2329205 -0.23999287
0.25742778 0.10009334 -0.009360544 -0.34274703 0.15062262 0.046266124 0.60594296 0.20454077
-0.22550096 -0.1595947 0.17884031 0.32272822 0.15577117 0.54364157 -0.40065378 0.023599902
-0.045274723 -0.32044214 -0.18971731 0.031551633 0.049467053 0.23011073 0.34618086 0.39615262
-0.47558522 -0.3556286 0.3007933 -0.16155319 -0.009260165 0.38471818 0.21676652 0.31524223
-0.03867818 -0.18726291 -0.4182173 -0.3744531 -0.07668916 -0.089048505 -0.114946626 0.27725253
-0.03586634 0.16037081 -0.13200532 0.61183 -0.22644594 0.026009297 0.293384 -0.21830569
0.053944167 -0.19589552 0.22613175 0.19237544 0.39219707 -0.84737486 0.12231944 0.47089246
0.22579621 -0.30180526 0.099166214 -0.46297592 -0.1891332 -0.18357043 -0.19795592 0.009005895
-0.34906897 0.2328702 -0.15667154 -0.26562092 0.13001737 0.54217994 -0.04334037 0.7650293
-0.12687296 -0.36437824 0.12521419 0.36188412 -0.32318223 0.39969447 -0.24386722 -0.08395465
-0.1046467 -0.14347628 0.00068813853 0.11691575 -0.014268514 -0.21577767 0.065055385 0.17021872
0.24474722 0.39465332 -0.2097685 0.40257186 -0.055060357 -0.15536705 -0.044765197 -0.1282399
-0.12507157 0.049733832 -0.081163526 0.50234 0.12822409 -0.3015702 -0.37350562 -0.12140937
-0.268826 0.4040437 -0.2116042 -0.21163753 0.24980341 0.21529807 0.19761078 -0.29085052
-0.43695575 0.07188815 0.31116188 0.21877676 -0.026598593 -0.2586633 0.11547009 -0.24280503
-0.17953084 0.048944954 0.13340025 -0.17138296 -0.08481009 0.32196483 -0.29232827 -0.18609923
0.09940443 0.09111446 -0.37418798 0.36522475 -0.19423595 -0.038619485 0.30291387 -0.3371517
-0.37919924 0.015797567 -0.017604956 0.47287595 -0.27162495 0.42334753 -0.32558677 0.0026461247
-0.25051507 0.40969098 -0.10883307 -0.2360743 -0.33344936 0.35256317 0.18725954 -0.16978441
0.12210177 -0.22741586 0.28557962 -0.3387427 0.004948907 0.43505168 0.020095024 -0.44380528
00000000: 8950 893e 1619 143f fe82 05be c779 103e
00000010: 3cbf cc3e e565 f4be d8e2 0e3c b696 0f3e
00000020: 5f04 8c3e c3cc bf3e bd5c d7be 2ba3 cf3d
00000030: 7263 753e ffd6 eabe 2c15 b1be 30d8 b0be
00000040: ce1f 3dbe 6e73 4d3e 66db 563e 3c3e 1cbe
00000050: c9f7 b83e feca 86be c2bf 0d3e 45ec 383e
00000060: ac44 36be 1105 dc3e b2c3 acbe 28fe b83e
00000070: eb0f 9dbe 269a 943e 0abd 063f 6027 2c3e
00000080: 2c58 95bd b71a f93d fa3a 86bd 2507 7abe
00000090: fad8 3bbe 1ffb d9be ab18 643e ce87 3d3e
000000a0: 91e3 24be 8d3b 933c d3fe aa3d c316 c83d
000000b0: b398 33be 5951 1fbe 1208 7c3e a212 8f3d
000000c0: b259 2fbf fed0 1e3f 6a7b 54bc a4df 963d
000000d0: 95af 9ebc a747 92be ef4c 293e 9b3a 8bbe
000000e0: e5cf 053d 5e78 3cbe 2a88 823e edea e33d
000000f0: bdf2 96be 31ed 68be 01f6 93be 0f82 74be
00000100: 5708 033f 08d7 453e 4b8e 03bd 535f a8bd
00000110: b2ff a6bd 84b8 b6bd 5209 66bd 7796 d7be
00000120: cee3 933e 3a5c 273e 008b 62be c2bd 31be
00000130: 4ea1 e2be 2076 dd3d 27bf 1e3e 6464 12be
00000140: c9ab 88bd f013 ccbe 30a4 3c3e bcf0 8e3d
00000150: a434 203e 257c ba3d 27f6 27bb a4dc a23e
00000160: 3f5c 4b3d 6298 993e 8bf6 0bbe 6703 523d
00000170: 9f0b ff3d 0efe ac3e b682 6ebe b1c0 75be
00000180: 93cd 833e bdfd cc3d f85c 19bc 8a7c afbe
00000190: d13c 1a3e 8c81 3d3d 141f 1b3f 2373 513e
000001a0: b9e9 66be cb6c 23be ea21 373e a23c a53e
000001b0: 7a82 1f3e 182c 0b3f 7e22 cdbe 9554 c13c
000001c0: fd71 39bd fe10 a4be 4145 42be 493c 013d
000001d0: f79d 4a3d 26a2 6b3e 9e3e b13e 84d4 ca3e
000001e0: e87f f3be f414 b6be 9401 9a3e 336e 25be
000001f0: f2b7 17bc c8f9 c43e 0bf8 5d3e 6e67 a13e
00000200: 036d 1ebd d9c1 3fbe 9420 d6be 51b8 bfbe
00000210: 350f 9dbd 105f b6bd 2369 ebbd 0bf4 8d3e
00000220: 95e8 12bd 3f38 243e 672c 07be e4a0 1c3f
00000230: 72e1 67be 7311 d53c 6d36 963e 878b 5fbe
00000240: 8ff4 5c3d d698 48be 158f 673e 11fe 443e
00000250: 0ece c83e 8fed 58bf 9d82 fa3d d118 f13e
00000260: 1f37 673e 3886 9abe a817 cb3d 2e0b edbe
00000270: 22ac 41be e3f9 3bbe f5b4 4abe 768d 133c
00000280: 2bb9 b2be 8775 6e3e 816e 20be 77ff 87be
00000290: 4623 053e 4ecc 0a3f ac85 31bd f6d8 433f
000002a0: fcea 01be c98f babe 2638 003e e048 b93e
000002b0: 2478 a5be c1a4 cc3e 54b8 79be 6af0 abbd
000002c0: 0251 d6bd 72eb 12be 3264 343a 8671 ef3d
000002d0: 7cc6 69bc d2f4 5cbe c23b 853d d14d 2e3e
000002e0: 049f 7a3e 0010 ca3e 8ecd 56be e61d ce3e
000002f0: f886 61bd 8a18 1fbe b65b 37bd 5251 03be
00000300: c312 00be b4b5 4b3d 1039 a6bd 5b99 003f
00000310: 2d4d 033e 6967 9abe 213c bfbe 7aa5 f8bd
00000320: 90a3 89be d1de ce3e c5ae 58be 82b7 58be
00000330: 77cc 7f3e 1977 5c3e 7b5a 4a3e 5cea 94be
00000340: aab8 dfbe 183a 933d 9c50 9f3e 0407 603e
00000350: 4be5 d9bc 846f 84be 957b ec3d e2a1 78be
00000360: efd6 37be 817a 483d 139a 083e 047f 2fbe
00000370: eab0 adbd 93d8 a43e 0dac 95be cc90 3ebe
00000380: 8d94 cb3d 389a ba3d 9195 bfbe bdfe ba3e
00000390: cae5 46be 772f 1ebd 8717 9b3e 269f acbe
000003a0: 6726 c2be e669 813c 4538 90bc cc1c f23e
000003b0: 6d12 8bbe 02c1 d83e 4fb3 a6be 9b6a 2d3b
000003c0: 8343 80be 04c3 d13e dfe3 debd 76bd 71be
000003d0: e0b9 aabe 2983 b43e f7c0 3f3e f7db 2dbe
000003e0: 7e10 fa3d b4df 68be 7e37 923e af6f adbe
000003f0: 712a a23b 18bf de3e 529e a43c 723a e3be

transformer.layers.0.1.branch.1.bias f4 [72]
0.13826665 0.59206223 -0.0034288762 -0.101035774 -0.46104056 0.009150166 -0.21295674 0.035447113
0.2130202 0.07380983 -0.13572179 0.07463026 0.12157929 0.13422526 -0.20983955 -0.114187405
-0.06962555 0.23994662 -0.067778565 -0.26083255 -0.23280543 0.1368202 0.228632 0.01839264
0.28698573 0.23160748 0.076405205 -0.281146 0.037066787 -0.2827253 0.028653903 -0.25838187
0.30171183 -0.047686733 -0.20898582 0.06805125 -0.15450023 0.10091828 0.004763753 0.42216966
-0.08002524 0.2497003 -0.01850215 0.3766557 0.09067941 0.49445206 -0.02920013 0.31334096
0.0437872 -0.0027629475 0.19555943 -0.18292588 -0.32527113 0.29746622 -0.17421749 0.06687427
0.14455214 -0.09803318 0.4084363 -0.601968 0.27513635 0.27752027 0.041311156 0.29580742
0.0015774233 0.1755168 0.22987556 0.35662627 -0.23535566 0.12193522 -0.108340845 -0.026525814
00000000: c695 0d3e 6491 173f ffb6 60bb d8eb cebd
00000010: 820d ecbe 94ea 153c 5511 5abe fe30 113d
00000020: f821 5a3e 9c29 973d a7fa 0abe c0d7 983d
00000030: 90fe f83d 5972 093e 2ee0 56be 16db e9bd
00000040: d797 8ebd 91b4 753e 7dcf 8abd d88b 85be
00000050: 8c64 6ebe 981a 0c3e 821e 6a3e 29ac 963c
00000060: cbef 923e 832a 6d3e 557a 9c3d 5ef2 8fbe
00000070: 58d3 173d 5fc1 90be 97bb ea3c a14a 84be
00000080: f979 9a3e 2a53 43bd 6100 56be 745e 8b3d
00000090: 4f35 1ebe 3eae ce3d 4219 9c3b 9f26 d83e
000000a0: 46e4 a3bd 6fb1 7f3e d291 97bc 04d9 c03e
000000b0: 20b6 b93d d228 fd3e 1c35 efbc 3a6e a03e
000000c0: 355a 333d 9112 35bb bb40 483e ec50 3bbe
000000d0: f089 a6be 7e4d 983e 1266 32be 61f5 883d
000000e0: 7a05 143e 9fc5 c8bd 901e d13e 931a 1abf
000000f0: acde 8c3e 2317 8e3e e335 293d 1274 973e
00000100: 8bc1 ce3a adba 333e 8064 6b3e b897 b63e
00000110: 1301 71be 2cb9 f93d cee1 ddbd aa4c d9bc

transformer.layers.0.1.branch.4.weight f4 [9, 36]
-0.041382674 -0.29562843 0.07932355 -0.014291147 -0.24822134 0.48717672 -0.08087351 -0.055160098
-0.057936016 0.2810012 0.1417794 -0.040820993 -0.18814136 -0.068421245 0.042002536 0.06870061
0.067159586 -0.042706277 0.075847805 0.01425112 0.07105208 -0.07674928 -0.15279888 0.11371032
-0.056410532 -0.00016200516 -0.091877714 0.06418518 0.16218746 0.26542312 -0.15899828 0.109090544
0.21737647 -0.11911918 0.06553768 0.0897055 -0.25866148 -0.072401285 0.12406257 -0.15911976
0.028812373 0.16117552 0.031784654 -0.04982547 -0.15836361 0.023229176 -0.05508978 -0.17074695
0.0047889673 0.34234467 0.10410167 0.002453108 -0.08076158 -0.12710135 0.15366372 -0.047614954
0.24272624 0.13137999 -0.26468384 0.11043265 -0.15650958 -0.04917928 0.10396261 0.17450969
0.23306091 0.38594946 -0.020189622 -0.019495897 0.06899682 0.1353892 -0.08638697 0.18751973
-0.06299156 0.28476733 -0.22692555 0.071125746 -0.20573206 0.017200299 -0.07204141 -0.13567255
0.23813754 -0.16084202 0.0055316 0.42507684 -0.20247066 -0.14865248 0.06525817 0.31617364
0.0017987372 0.13493198 0.04514761 0.12089959 0.09376284 -0.078262 0.37730289 -0.036671706
0.056146372 -0.28281668 0.049386602 -0.13391799 0.046134334 -0.2744925 -0.01111661 0.14632113
0.08100439 0.041931618 0.19383654 0.12879409 -0.21980095 0.11211191 0.12308829 0.17124552
-0.072030865 -0.03974212 0.053188376 -0.0018469017 0.12190545 -0.11037051 -0.1656107 0.07322198
0.040628098 -0.10663837 -0.19832869 -0.1071736 -0.08702484 0.11771653 0.074015476 -0.10785271
0.057231277 0.09773971 -0.058642823 -0.27026588 -0.04387344 0.0076917135 0.21750762 -0.10129483
-0.63855904 0.06534959 0.13887413 -0.040962793 0.13430616 -0.06334856 -0.20913902 0.12633896
-0.015510275 -0.002836213 0.24058399 0.054267175 -0.1313059 0.28986523 -0.08750028 -0.03071005
0.19028571 0.02445279 0.10596416 0.13988982 -0.12305786 0.11067372 -0.017093284 0.1590577
0.14483644 0.022563433 -0.043185074 0.2000993 0.056882195 -0.124597386 0.0118224155 -0.051791128
-0.08232844 -0.20785871 -0.44507062 0.165605 -0.29513827 0.07445672 -0.19072615 -0.07412402
0.32204616 -0.008135079 0.24538736 -0.051329587 -0.53755265 0.3294113 0.2576089 0.16485202
-0.40060374 -0.21574423 -0.17626876 -0.014705264 0.11751857 0.15081409 0.06850118 0.46029738
-0.18112685 0.20287685 -0.0999585 -0.44632787 -0.43081743 0.2630424 0.33056828 -0.43227652
0.22476394 0.27462757 -0.2923117 -0.39950168 -0.12582108 0.12735991 0.14290753 -0.3644427
0.089885615 0.14692672 0.31828308 -0.29331473 -0.25148684 0.25052372 -0.5594791 0.11338615
0.04448717 -0.30231768 0.5347078 0.06543871 0.25357175 0.3928511 -0.19576596 -0.16276158
0.2549191 -0.2661245 0.14482687 -0.2864 -0.36422852 -0.18798116 -0.2115787 -0.018045057
0.16752027 -0.22943059 0.018941222 -0.022451682 0.16435198 -0.14094678 -0.3561625 -0.063821584
-0.08189881 -0.05424445 -0.7134574 0.10493448 -0.051994108 0.4513739 -0.29995355 -0.20662266
0.03216518 -0.08064108 0.28936124 -0.051430624 0.37487027 -0.24068926 -0.19057547 -0.056443963
00000000: e180 29bd 9c5c 97be 6374 a23d 6a25 6abc
00000010: bc2d 7ebe 3a6f f93e 03a1 a5bd 8eef 61bd
00000020: 514e 6dbd 64df 8f3e 9e2e 113e ea33 27bd
00000030: 21a8 40be 7020 8cbd da0a 2c3d e8b2 8c3d
00000040: f78a 893d c7ec 2ebd 1856 9b3d 887d 693c
00000050: c183 913d ba2e 9dbd 4f77 1cbe f5e0 e83d
00000060: bb0e 67bd eedf 29b9 622a bcbd 8573 833d
00000070: 7814 263e 8ae5 873e 72d0 22be dd6a df3d
00000080: f097 5e3e c2f4 f3bd 9f38 863d 84b7 b73d
00000090: 476f 84be 2047 94bd 8414 fe3d 4af0 22be
000000a0: ed07 ec3c 320b 253e a030 023d cb15 4cbd
000000b0: 122a 22be 1d4b be3c d2a5 61bd 4ad8 2ebe
000000c0: c5ec 9c3b cd47 af3e 4233 d53d 53c4 203b
000000d0: 5466 a5bd db26 02be 065a 1d3e e607 43bd
000000e0: 3a8d 783e 7a88 063e a484 87be 832a e23d
000000f0: 0c44 20be 3670 49bd 59ea d43d abb2 323e
00000100: 85a7 6e3e 2b9b c53e b564 a5bc dcb5 9fbc
00000110: 344e 8d3d 77a3 0a3e a7eb b0bd 2c05 403e
00000120: b801 81bd 06cd 913e 2c5f 68be 60aa 913d
00000130: 6dab 52be a4e7 8c3c 728a 93bd bfed 0abe
00000140: 54da 733e c5b3 24be 6d42 b53b aca3 d93e
00000150: 7854 4fbe 5b38 18be 13a6 853d 83e1 a13e
00000160: 9bc3 eb3a 9c2b 0a3e b3ec 383d 349a f73d
00000170: bb06 c03d d447 a0bd d82d c13e 1235 16bd
00000180: bdf9 653d 59cd 90be 9b49 4a3d cc21 09be
00000190: 5bf7 3c3d 488a 8cbe 7122 36bc 35d5 153e
000001a0: a1e5 a53d 7dc0 2b3d 167d 463e 99e2 033e
000001b0: 8013 61be ee9a e53d b715 fc3d fc5a 2f3e
000001c0: eb84 93bd a2c8 22bd 0edc 593d bd13 f2ba
000001d0: 91a9 f93d ef09 e2bd da95 29be 68f5 953d
000001e0: a669 263d 3865 dabd ad16 4bbe d57d dbbd
000001f0: 143a b2bd 5d15 f13d 6d95 973d e2e1 dcbd
00000200: 586b 6a3d c22b c83d 7533 70bd 4a60 8abe
00000210: a3b4 33bd c50a fc3b 51ba 5e3e aa73 cfbd
00000220: 9b78 23bf 01d6 853d 0535 0e3e 9ac8 27bd
00000230: 8e87 093e e4bc 81bd 8a28 56be 005f 013e
00000240: cf1e 7ebc c2df 39bb a65b 763e 4247 5e3d
00000250: 0e75 06be 3769 943e 5933 b3bd a593 fbbc
00000260: 42da 423e 3851 c83c bd03 d93d 473f 0f3e
00000270: c205 fcbd e7a8 e23d 3707 8cbc 06e0 223e
00000280: 0150 143e f3d6 b83c d5e2 30bd d5e6 4c3e
00000290: 4efd 683d ea2c ffbd ceb2 413c ef22 54bd
000002a0: d09b a8bd ead8 54be 4ce0 e3be 5b94 293e
000002b0: 5d1c 97be c47c 983d b74d 43be 56ce 97bd
000002c0: 3ce3 a43e ff48 05bc d346 7b3e f93e 52bd
000002d0: 0d9d 09bf 99a8 a83e 50e5 833e f8ce 283e
000002e0: ef1b cdbe 0eec 5cbe cc7f 34be 59ee 70bc
000002f0: 93ad f03d 026f 1a3e 594a 8c3d 19ac eb3e
00000300: 5179 39be f3be 4f3e 0bb7 ccbd 1685 e4be
00000310: 1a94 dcbe 7ead 863e 3f40 a93e 5953 ddbe
00000320: 8528 663e fc9b 8c3e e1a9 95be 7c8b ccbe
00000330: 3ed7 00be a36a 023e 5a56 123e 3c98 babe
00000340: f315 b83d f573 163e 00f6 a23e 592d 96be
00000350: e2c2 80be a544 803e 063a 0fbf ff36 e83d
00000360: 2e38 363d 62c9 9abe 9ce2 083f bb04 863d
00000370: 28d4 813e c823 c93e df76 48be f9aa 26be
00000380: c284 823e 7841 88be 7f4d 143e 05a3 92be
00000390: 297c babe 227e 40be 16a8 58be 3ad3 93bc
000003a0: 6f8a 2b3e daef 6abe 9f2a 9b3c 97ec b7bc
000003b0: e34b 283e 5a54 10be ee5a b6be e4b4 82bd
000003c0: 90ba a7bd 6e2f 5ebd 25a5 36bf e3e7 d63d
000003d0: c6f7 54bd 7b1a e73e 8393 99be e494 53be
000003e0: a3bf 033d 2727 a5bd 2827 943e eba8 52bd
000003f0: ffee bf3e 3f77 76be 3726 43be c931 67bd

transformer.layers.0.1.branch.4.bias f4 [9]
-0.024951529 -0.03126392 0.14772935 -0.121126935 0.08209356 -0.30300194 0.02872247 0.13568762
0.021309612
00000000: 2667 ccbc 990e 00bd 5d46 173e 6611 f8bd
00000010: ab20 a83d 1223 9bbe 634b eb3c b2f1 0a3e
00000020: 7f91 ae3c

transformer.layers.0.1.norm.gamma f4 [9]
0.2378989 0.241934 0.61749595 0.06619424 0.15736194 0.04024397 0.33002952 0.0458484
0.14590989
00000000: c59b 733e 8cbd 773e 3714 1e3f d890 873d
00000010: 7d23 213e dcd6 243d a1f9 a83e 88cb 3b3d
00000020: 6769 153e

transformer.layers.1.0.static_alpha f4 [4, 5]
0.048224565 1.0 0.0 0.0 0.0 -0.33679283 0.0 1.0
0.0 0.0 -0.03286406 0.0 0.0 1.0 0.0 0.7138552
0.0 0.0 0.0 1.0
00000000: 1f87 453d 0000 803f 0000 0000 0000 0000
00000010: 0000 0000 1c70 acbe 0000 0000 0000 803f
00000020: 0000 0000 0000 0000 779c 06bd 0000 0000
00000030: 0000 0000 0000 803f 0000 0000 37bf 363f
00000040: 0000 0000 0000 0000 0000 0000 0000 803f

transformer.layers.1.0.dynamic_alpha_fn f4 [9, 5]
-0.06367301 0.0 0.0 0.0 0.0 0.30289316 0.0 0.0
0.0 0.0 -0.09352432 0.0 0.0 0.0 0.0 0.182198
0.0 0.0 0.0 0.0 0.108444005 0.0 0.0 0.0
0.0 0.169559 0.0 0.0 0.0 0.0 0.121924296 0.0
0.0 0.0 0.0 0.09641495 0.0 0.0 0.0 0.0
-0.16227888 0.0 0.0 0.0 0.0
00000000: ff66 82bd 0000 0000 0000 0000 0000 0000
00000010: 0000 0000 d014 9b3e 0000 0000 0000 0000
00000020: 0000 0000 0000 0000 ae89 bfbd 0000 0000
00000030: 0000 0000 0000 0000 0000 0000 1d92 3a3e
00000040: 0000 0000 0000 0000 0000 0000 0000 0000
00000050: e417 de3d 0000 0000 0000 0000 0000 0000
00000060: 0000 0000 e0a0 2d3e 0000 0000 0000 0000
00000070: 0000 0000 0000 0000 72b3 f93d 0000 0000
00000080: 0000 0000 0000 0000 0000 0000 3475 c53d
00000090: 0000 0000 0000 0000 0000 0000 0000 0000
000000a0: 6f2c 26be 0000 0000 0000 0000 0000 0000
000000b0: 0000 0000

transformer.layers.1.0.static_beta f4 [4]
1.0661576 1.1982743 1.2871727 1.0974925
00000000: da77 883f 0d61 993f 13c2 a43f a27a 8c3f

transformer.layers.1.0.dynamic_beta_fn f4 [9]
0.32071742 0.029874656 0.25355002 0.4728235 -0.16378807 0.3236922 -0.29050004 -0.27439088
0.15214801
00000000: 1335 a43e b2bb f43c 4fd1 813e ec15 f23e
00000010: 0fb8 27be fcba a53e 6cbc 94be f67c 8cbe
00000020: b0cc 1b3e

transformer.layers.1.0.branch.norm.weight f4 [9]
1.0454698 1.0823491 1.149092 1.3343453 1.0309594 1.2734516 1.0883814 1.1783915
0.8963146
00000000: f4d1 853f 6a8a 8a3f 7215 933f d4cb aa3f
00000010: 7af6 833f 7600 a33f 1550 8b3f 88d5 963f
00000020: e074 653f

transformer.layers.1.0.branch.norm.bias f4 [9]
0.07954437 -0.20998563 0.066759735 0.018750804 0.21584858 0.030089479 -0.08087001 -0.111493304
0.13874993
00000000: 29e8 a23d 7906 57be 54b9 883d 499b 993c
00000010: 6907 5d3e 367e f63c 2d9f a5bd 9a56 e4bd
00000020: 7614 0e3e

transformer.layers.1.0.branch.to_qkv.weight f4 [192, 9]
0.12436981 0.24329667 -0.1808729 0.066738494 0.3379534 -0.06622579 0.23882386 0.19854507
-0.25288454 0.17112419 -0.1724251 0.4787786 -0.36739978 -0.22815566 -0.04694871 -0.4212073
-0.4170769 -0.021323854 0.3053644 0.10024329 0.21941695 0.40064102 -0.3827059 0.2635605
0.22674721 -0.12586936 -0.10540371 -0.1321333 0.23901677 0.23709433 0.04839879 0.080133535
-0.031265624 0.38593686 -0.05268258 0.14613214 -0.32423684 0.28878784 -0.7000711 0.16958442
-0.25663948 0.5586007 0.32931682 0.32673064 -0.40638798 -0.22863911 0.07345887 0.017045932
0.44748452 -0.017051596 0.1733366 0.010185083 -0.13448484 -0.20809233 0.37520733 0.1115855
-0.05281647 -0.51230377 0.08628743 -0.29186046 0.024189873 -0.16983955 0.3928445 0.10742546
0.06261279 -0.044445604 0.2825673 0.04936182 0.44957668 -0.14749096 0.102415256 0.1638938
0.18264161 0.20332532 -0.17737962 0.23745647 0.23024048 -0.25718555 0.08239525 0.2541422
-0.038671114 -0.16754185 0.30718282 0.1586335 -0.2445764 -0.14894381 -0.526315 -0.119714
0.28411806 -0.080067664 -0.3037826 -0.24662821 0.26676813 -0.5572897 0.49974376 0.040444214
0.33794713 0.087423675 -0.27685842 0.11352286 0.2185712 0.018329209 -0.5362765 -0.27675873
-0.058218762 0.14334714 -0.0081702545 0.19868152 0.079198346 0.12899123 -0.24782838 0.516701
0.1985612 0.22816332 -0.2195945 -0.23444527 0.2769456 -0.19369903 0.09565928 -0.17855269
0.17480776 -0.20311612 -0.2427332 -0.065008745 -0.1815504 -0.4661297 -0.2050371 0.32211113
-0.21400051 -0.2808355 0.027041128 0.22452638 0.39459074 0.33309972 -0.40615866 0.21865296
-0.15895769 0.4530465 -0.70963717 -0.26520735 -0.5448211 -0.01547502 0.24833365 -0.038264405
0.2782347 -0.1312053 0.010707127 -0.2069701 0.2725699 -0.31879392 0.4372289 -0.046872575
0.35290357 0.11325136 0.04980326 -0.33313036 0.4234411 -0.14488512 0.6376648 0.15969035
-0.33923754 -0.0760576 -0.20246303 0.65081644 -0.028422711 0.78967 -0.4925424 0.3705733
-0.16740465 -0.029599207 -0.015352399 -0.1343726 0.26854345 -0.11794118 0.51105344 0.05102663
0.29839098 -0.16297819 0.10877763 -0.054685377 -0.07221028 0.23916662 -0.0913674 0.41643515
-0.20496769 0.37243876 0.017642941 -0.29627857 -0.23155236 -0.031120202 0.10560333 -0.18818724
0.8721537 -0.20228316 0.5755559 -0.11939668 0.085862905 -0.41896525 0.077967614 0.46431762
-0.20648931 -0.048751857 -0.43827268 0.14568155 -0.29085228 0.3189972 -0.14389923 0.18583873
-0.34074524 0.42092732 -0.70734054 -0.016685536 -0.18229549 0.33998048 0.28731033 -0.17145222
0.18872072 0.4329667 0.0252422 0.45418155 -0.3954794 0.2661274 -0.2617079 -0.1637081
0.029820476 -0.15306357 0.20841777 0.40706018 -0.8173672 0.28103706 -0.62666446 0.1650124
0.013563195 0.30157316 -0.15635446 -0.22332592 0.09728682 -0.28821355 0.0026181624 0.10274836
0.38664117 -0.091913484 0.40988111 0.12659024 0.22948632 0.10729037 0.22813922 0.06499472
0.6598767 -0.349305 0.114966236 -0.054895144 -0.19106369 -0.006575167 0.28379443 -0.449254
00000000: 99b5 fe3d c322 793e bf36 39be 31ae 883d
00000010: 3a08 ad3e 63a1 87bd 3e8e 743e 664f 4b3e
00000020: 157a 81be 2e3b 2f3e 3590 30be 7822 f53e
00000030: d31b bcbe a3a1 69be 4a4d 40bd 7ca8 d7be
00000040: 1a8b d5be 5daf aebc b958 9c3e 5b4c cd3d
00000050: d6ae 603e d220 cd3e 07f2 c3be 67f1 863e
00000060: 6c30 683e e6e3 00be e6dd d7bd f44d 07be
00000070: d0c0 743e dbc8 723e cf3d 463d 0d1d a43d
00000080: 6210 00bd 8499 c53e b0c9 57bd aaa3 153e
00000090: 5f02 a6be 00dc 933e dc37 33bf 8aa7 2d3e
000000a0: 4066 83be 7500 0f3f 379c a83e 3d49 a73e
000000b0: 1612 d0be 5f20 6abe 9b71 963d e9a3 8b3c
000000c0: b11c e53e caaf 8bbc 267f 313e 56df 263c
000000d0: 65b6 09be 2816 55be 2d1b c03e f086 e43d
000000e0: 1556 58bd 5726 03bf 77b7 b03d bc6e 95be
000000f0: d729 c63c 6bea 2dbe ea22 c93e e101 dc3d
00000100: 223b 803d 980c 36bd a9ac 903e 9f2f 4a3d
00000110: ea2e e63e df07 17be 17bf d13d c7d3 273e
00000120: 6706 3b3e 8334 503e 01a3 35be ca27 733e
00000130: 29c4 6b3e d3ad 83be d7be a83d ed1e 823e
00000140: 9a65 1ebd 1790 2bbe 1147 9d3e d270 223e
00000150: 3c72 7abe ba84 18be 94bc 06bf 9d2c f5bd
00000160: ec77 913e 84fa a3bd 6589 9bbe 1b8c 7cbe
00000170: d595 883e 8aaa 0ebf 6ade ff3e d5a8 253d
00000180: 6807 ad3e 2f0b b33d 63c0 8dbe ac7e e83d
00000190: 21d1 5f3e 2327 963c 6b49 09bf 52b3 8dbe
000001a0: cc76 6ebd 98c9 123e 88dc 05bc 2b73 4b3e
000001b0: be32 a23d 4716 043e b9c6 7dbe 8446 043f
000001c0: a153 4b3e a5a3 693e 61dd 60be 6c12 70be
000001d0: d0cb 8d3e 0a59 46be 03e9 c33d 84d6 36be
000001e0: ce00 333e acfd 4fbe 0d8f 78be 4e23 85bd
000001f0: 59e8 39be 8da8 eebe 3ff5 51be c0eb a43e
00000200: f322 5bbe acc9 8fbe 5b85 dd3c 3eea 653e
00000210: cc07 ca3e 0c8c aa3e 07f4 cfbe 90e6 5f3e
00000220: cec5 22be b6f5 e73e c8aa 35bf 42c9 87be
00000230: 6579 0bbf f08a 7dbc 2d4b 7e3e 23bb 1cbd
00000240: c774 8e3e af5a 06be f26c 2f3c f8ef 53be
00000250: 488e 8b3e f538 a3be 77dc df3e 75fd 3fbd
00000260: c7af b43e 54f0 e73d 81fe 4b3d 1090 aabe
00000270: 46cd d83e c45c 14be 003e 233f de85 233e
00000280: 8bb0 adbe 16c4 9bbd 7852 4fbe e89b 263f
00000290: bfd6 e8bc d027 4a3f 842e fcbe c9bb bd3e
000002a0: 206c 2bbe 097a f2bc a188 7bbc f998 09be
000002b0: 877e 893e 258b f1bd 66d4 023f 4d01 513d
000002c0: b4c6 983e c1e3 26be cec6 de3d c6fd 5fbd
000002d0: fce2 93bd 18e8 743e d51e bbbd fd36 d53e
000002e0: 0de3 51be 4bb0 be3e ee87 903c d3b1 97be
000002f0: 101c 6dbe cbef febc 8f46 d83d 28b4 40be
00000300: 7745 5f3f 5123 4fbe a257 133f 3f86 f4bd
00000310: e4d8 af3d 9d82 d6be 7cad 9f3d 0abb ed3e
00000320: ef71 53be 07b0 47bd 4765 e0be 8b2d 153e
00000330: 97ea 94be 9a53 a33e 525a 13be 824c 3e3e
00000340: 2976 aebe c983 d73e 4514 35bf 1bb0 88bc
00000350: abab 3abe ec11 ae3e 571a 933e 2c91 2fbe
00000360: 0140 413e d0ad dd3e bbc8 ce3c 7c8a e83e
00000370: 477c cabe da41 883e 94fe 85be 19a3 27be
00000380: 124a f43c b2bc 1cbe 786b 553e 316a d03e
00000390: fa3e 51bf 17e4 8f3e 156d 20bf 03f9 283e
000003a0: 2a38 5e3c cc67 9a3e 621b 20be 8daf 64be
000003b0: 503e c73d ba90 93be 7a95 2b3b bb6d d23d
000003c0: d5f5 c53e 233d bcbd f0db d13e dfa0 013e
000003d0: 76fe 6a3e 0ebb db3d 549d 693e f41b 853d
000003e0: aeed 283f 1bd8 b2be 6b73 eb3d bbd9 60bd
000003f0: 33a6 43be 8074 d7bb 814d 913e 9f04 e6be

transformer.layers.1.0.branch.to_out.weight f4 [9, 64]
0.118342556 -0.117124796 0.16003712 0.07203161 0.03191134 -0.00812665 -0.037451956 -0.047660816
0.05059821 -0.09728404 -0.055668503 -0.019802911 -0.0016253697 0.055225413 0.07532762 -0.02454352
-0.22608872 0.08146752 0.025855742 -0.36785918 0.074026786 0.17018148 0.12043925 0.2329736
0.042511635 0.07679522 0.47740504 0.27044594 -1.2955006 -0.10622168 -0.11094765 -0.20149891
-0.053593416 -0.06712939 0.008985847 0.058574934 0.01776602 0.029239617 0.08648901 -0.06328267
0.0059459847 -0.059641637 -0.07386393 -0.043768387 0.0007205666 -0.049984656 -0.07898465 -0.10797655
0.106731035 -0.08760829 0.0810158 0.03674894 -0.026884122 -0.08476369 -0.02187633 -0.043606285
-0.2642101 -0.15615149 0.032252062 0.21385811 -0.13003808 -0.100125164 0.026641147 0.065068826
-0.0658833 0.015175956 -0.029806757 -0.012250998 -0.044249963 -0.1889965 -0.11036751 -0.106811106
-0.052802347 0.049047653 0.04931289 -0.067572355 -0.108500734 0.12314189 -0.08903728 -0.071986385
0.096593305 0.0759965 -0.06507634 0.21448296 0.030716652 -0.018565273 0.057744894 -0.16668297
0.0011171028 0.14269724 -0.18817668 -0.041130926 0.847276 -0.09026167 0.16654623 0.122093484
0.10900497 0.011142168 -0.01979512 -0.024914382 0.075548366 0.01886477 0.060864985 -0.17978238
0.004809165 -0.02871498 -0.12865518 0.01903522 0.1502054 -0.057979062 -0.07144725 0.027126342
0.04686316 -0.05666519 -0.053586822 -0.041173346 -0.14076504 0.010820089 0.09893419 0.064338066
0.39577103 0.11943233 0.023272837 -0.13423172 0.12124233 0.03671272 -0.03666129 -0.09844548
0.12641 -0.030257102 0.1252864 0.1451356 0.10217582 -0.018239526 0.045509532 -0.122757055
0.05204332 0.055252064 0.019071057 0.083683774 0.015866002 -0.15167695 -0.087010935 0.06747922
0.017787956 0.1872093 0.15068725 -0.2651212 0.07125321 -0.025825938 0.03906492 0.17965274
-0.043059368 0.045888033 0.37727445 0.37368467 -1.0737221 -0.04636362 -0.32002342 -0.070060804
-0.01550168 -0.04825253 0.09152234 -0.027450223 -0.06696576 -0.12319827 0.046434723 -0.021105198
0.30766797 -0.25772974 -0.13670336 -0.32411152 -0.16930191 0.15079615 0.09249758 -0.04772915
-0.064133056 0.17100134 -0.102654755 0.22473612 0.15759572 0.040367987 0.18893217 0.24446408
0.32505992 0.197923 0.061446 -0.10375631 0.14676158 0.09457629 -0.20290022 0.07179264
0.060899418 -0.07417959 -0.12682615 -0.040258653 0.18056679 0.16520077 0.021598317 -0.14213747
0.033823166 0.18774016 -0.02147 0.18643363 -0.0024136642 0.060231667 0.044464637 -0.069556184
-0.059484567 0.16293955 -0.08803042 0.08586834 -0.10736898 -0.0551622 -0.12172638 -0.25784737
-0.13639309 -0.02691946 -0.3436034 -0.22190052 1.3978546 0.03191208 0.15315594 0.11939103
0.0038506007 -0.03988674 -0.03130932 0.05419273 0.027195465 -0.10920477 -0.013072446 0.018917624
0.0027165567 0.11292344 -0.079254195 -0.06823087 -0.0750343 0.033548363 -0.13278624 -0.08162635
0.011173806 0.16943647 -0.0546519 0.12363382 0.11329476 0.07871322 -0.010355183 0.21594714
0.43349597 0.19568358 -0.09242811 -0.29408246 -0.104078926 0.14449705 0.120099954 0.101406544
00000000: 955d f23d 20df efbd c5e0 233e 4f85 933d
00000010: 77b5 023d a425 05bc 3967 19bd fd37 43bd
00000020: 1240 4f3d db3c c7bd a804 64bd b739 a2bc
00000030: 5b0a d5ba 0b34 623d 5e45 9a3d 7e0f c9bc
00000040: cd83 67be 71d8 a63d 6ccf d33c 0a58 bcbe
00000050: 5b9b 973d 0e44 2e3e daa8 f63d a290 6e3e
00000060: ae20 2e3d d046 9d3d 6f6e f43e e477 8a3e
00000070: f7d2 a5bf c18a d9bd 8638 e3bd bb55 4ebe
00000080: c584 5bbd 227b 89bd 6039 133c 45ec 6f3d
00000090: 0b8a 913c ec87 ef3c 2621 b13d 589a 81bd
000000a0: 89d6 c23b ca4a 74bd f945 97bd 7b46 33bd
000000b0: 68e4 3c3a b6bc 4cbd b4c2 a1bd cf22 ddbd
000000c0: cd95 da3d fa6b b3bd 9deb a53d 0e86 163d
000000d0: 173c dcbc 9698 adbd fd35 b3bc 819c 32bd
000000e0: 8c46 87be 2de6 1fbe bd1a 043d 9ffd 5a3e
000000f0: b428 05be 6c0e cdbd 893e da3c ce42 853d
00000100: d3ed 86bd 93a4 783c 4d2d f4bc 69b8 48bc
00000110: 733f 35bd 4c88 41be 5c08 e2bd c8bf dabd
00000120: 4647 58bd 31e6 483d 50fc 493d 6063 8abd
00000130: a235 debd d131 fc3d 2d59 b6bd 996d 93bd
00000140: b6d2 c53d 0ea4 9b3d bf46 85bd 6ca1 5b3e
00000150: 7da1 fb3c 3316 98bc e985 6c3d f1ae 2abe
00000160: c06b 923a 3a1f 123e 63b1 40be e778 28bd
00000170: 14e7 583f 1cdb b8bd 188b 2a3e 260c fa3d
00000180: ff3d df3d a48d 363c 6029 a2bc 3f19 ccbc
00000190: 1ab9 9a3d 4a8a 9a3c 904d 793d df18 38be
000001a0: 3396 9d3b ae3b ebbc 2fbe 03be c0ef 9b3c
000001b0: 72cf 193e 747b 6dbd f052 92bd 1038 de3c
000001c0: 96f3 3f3d c219 68bd db7d 5bbd 62a5 28bd
000001d0: b624 10be be46 313c 029e ca3d adc3 833d
000001e0: 80a2 ca3e f098 f43d ada6 be3c 0a74 09be
000001f0: e64d f83d 1460 163d 262a 16bd c99d c9bd
00000200: 9f71 013e bedd f7bc 144b 003e 6d9e 143e
00000210: 8e41 d13d 0f6b 95bc 3468 3a3d 0d68 fbbd
00000220: 602b 553d fd4f 623d e83a 9c3c 6662 ab3d
00000230: 6bf9 813c 3451 1bbe ca32 b2bd 8c32 8a3d
00000240: 0cb8 913c cbb3 3f3e c24d 1a3e f7bd 87be
00000250: 34ed 913d eb90 d3bc 8a02 203d e3f6 373e
00000260: 055f 30bd 17f5 3b3d 1e2a c13e 9953 bf3e
00000270: ba6f 89bf c7e7 3dbd 1cda a3be 0a7c 8fbd
00000280: c2fa 7dbc 72a4 45bd 1170 bb3d 4adf e0bc
00000290: 5825 89bd 604f fcbd 5632 3e3d cfe4 acbc
000002a0: a886 9d3e 27f5 83be f7fb 0bbe f2f1 a5be
000002b0: 7b5d 2dbe 4e6a 1a3e 5f6f bd3d a47f 43bd
000002c0: 3158 83bd fa1a 2f3e a83c d2bd 3a21 663e
000002d0: c660 213e e758 253d 6f77 413e cb54 7a3e
000002e0: 416e a63e 54ac 4a3e cdae 7b3d 307e d4bd
000002f0: ab48 163e 37b1 c13d 13c5 4fbe 0508 933d
00000300: ab71 793d 78eb 97bd b7de 01be 42e6 24bd
00000310: 80e6 383e 642a 293e f4ee b03c 7c8c 11be
00000320: 298a 0a3d f53e 403e dae1 afbc 75e8 3e3e
00000330: 912e 1ebb 7bb5 763d 8d20 363d 7973 8ebd
00000340: 17a6 73bd a0d9 263e 4b49 b4bd bedb af3d
00000350: 45e4 dbbd c2f1 61bd ae4b f9bd 9204 84be
00000360: a1aa 0bbe 3386 dcbc c9ec afbe e439 63be
00000370: e6ec b23f 3eb6 023d e9d4 1c3e 4983 f43d
00000380: 5c5a 7c3b 4760 23bd 343e 00bd 32f9 5d3d
00000390: 06c9 de3c c0a6 dfbd d02d 56bc 22f9 9a3c
000003a0: 4208 323b 6844 e73d 0650 a2bd a0bc 8bbd
000003b0: 95ab 99bd 026a 093d 1ef9 07be b72b a7bd
000003c0: 5712 373c c180 2d3e acda 5fbd ba33 fd3d
000003d0: 1507 e83d 6634 a13d c9a8 29bc 3f21 5d3e
000003e0: 2ff3 dd3e 4761 483e f34a bdbd fa91 96be
000003f0: 5527 d5bd 09f7 133e f7f6 f53d 3cae cf3d

transformer.layers.1.0.norm.gamma f4 [9]
0.38873193 0.24172568 0.3315661 0.6139214 0.24983524 0.3232391 0.15577352 0.2788192
0.17913997
00000000: df07 c73e f086 773e 08c3 a93e f429 1d3f
00000010: cfd4 7f3e 987f a53e 1883 1f3e 64c1 8e3e
00000020: 7870 373e

transformer.layers.1.1.static_alpha f4 [4, 5]
0.87003016 1.0 0.0 0.0 0.0 0.009028653 0.0 1.0
0.0 0.0 0.03850513 0.0 0.0 1.0 0.0 -0.02757727
0.0 0.0 0.0 1.0
00000000: 4cba 5e3f 0000 803f 0000 0000 0000 0000
00000010: 0000 0000 eaec 133c 0000 0000 0000 803f
00000020: 0000 0000 0000 0000 8eb7 1d3d 0000 0000
00000030: 0000 0000 0000 803f 0000 0000 bae9 e1bc
00000040: 0000 0000 0000 0000 0000 0000 0000 803f
