Projektarbeit_FTTransformer/trained_models/physical_loss_training/model_lr0.00025_8_1_4_4_.3_.3PhysicsLambda8_date_20250811_epoch10100.pt (torch, 99552 bytes, 87 tensors)

cls_token f4 [1, 1, 8]
0.2750329 -0.312488 -0.9527062 -0.970383 1.1987549 -0.76485974 -0.32268316 1.0259125
00000000: 1dd1 8c3e 6dfe 9fbe 8ee4 73bf 056b 78bf
00000010: cd70 993f d9cd 43bf ba36 a5be 1a51 833f

categorical_embeds.weight f4 [3, 8]
0.8584291 1.7706426 -0.4039365 -0.5398834 -3.298643 0.9736429 1.3101962 -0.014903721
-0.33988726 -0.101280004 1.0083231 -1.4505717 -1.4799194 -2.0194018 1.1899272 0.59410304
1.2648528 -1.0762243 0.7675278 0.7653657 -0.8957174 -0.823554 1.4596406 0.85214585
00000000: 02c2 5b3f 6ba4 e23f c4d0 cebe cc35 0abf
00000010: f81c 53c0 a940 793f 82b4 a73f bd2e 74bc
00000020: b405 aebe e46b cfbd bb10 813f 55ac b9bf
00000030: 006e bdbf e13d 01c0 894f 983f 2317 183f
00000040: b2e6 a13f b8c1 89bf b47c 443f 02ef 433f
00000050: bc4d 65bf 6fd4 52bf 81d5 ba3f 3b26 5a3f

numerical_embedder.weights f4 [8, 8]
1.5952966 0.20454422 -0.70994896 -0.14932925 -1.123435 -1.586366 -0.23824824 -0.5983126
-0.325679 -1.6886197 0.84063643 0.6102378 -0.056562394 0.35536313 -0.42249644 -0.0037923998
0.19478276 2.5832741 0.36729673 -1.0981144 -1.8271762 0.40353817 -1.1467693 1.4349943
0.46223173 -0.48843646 -0.25854218 -0.10612152 -0.10479845 -0.2144117 1.0171427 0.33185124
-0.7856706 -0.95380366 0.09278187 -0.19672649 0.012329135 1.1229008 0.40943912 -1.3374394
0.6190961 -1.5646801 -0.10348118 -0.8012332 0.09844381 -0.951947 -0.6993415 -0.4518975
-0.8922222 1.1178123 1.6815989 -1.4411923 0.15819661 -0.57514125 -0.9663706 0.33232784
-1.1763784 -0.8493013 0.12788512 -2.0710163 -0.6236977 -0.204309 -0.06537846 0.92432076
00000000: ae32 cc3f 0a74 513e 37bf 35bf c4e9 18be
00000010: b8cc 8fbf 0b0e cbbf 59f7 73be 042b 19bf
00000020: 66bf a6be b124 d8bf f333 573f 8b38 1c3f
00000030: f8ad 67bd 28f2 b53e 7451 d8be e989 78bb
00000040: 2275 473e 5d54 2540 510e bc3e 038f 8cbf
00000050: e9e0 e9bf 8e9c ce3e 56c9 92bf e5ad b73f
00000060: a3a9 ec3e 5814 fabe a45f 84be 3d56 d9bd
00000070: 92a0 d6bd be8e 5bbe bb31 823f 68e8 a93e
00000080: b521 49bf 7a2c 74bf 6c04 be3d ab72 49be
00000090: 2400 4a3c 37bb 8f3f 01a2 d13e 3731 abbf
000000a0: 157d 1e3f 7047 c8bf f1ed d3bd 9e1d 4dbf
000000b0: e99c c93d ccb2 73bf 0b08 33bf 1c5f e7be
000000c0: ad68 64bf 7914 8f3f a23e d73f fd78 b8bf
000000d0: 4bfe 213e 753c 13bf 1064 77bf e026 aa3e
000000e0: 9193 96bf cf6b 59bf 51f4 023e 888b 04c0
000000f0: a7aa 1fbf 6136 51be 24e5 85bd 49a0 6c3f

numerical_embedder.biases f4 [8, 8]
-0.784379 -0.83711666 -0.5398812 0.6153304 0.21810766 -1.0083599 -0.37618673 -0.07003868
-1.8436948 0.73116094 -0.39909327 0.6988743 -0.45110363 0.5105895 -0.17008355 -1.6316334
0.71512675 -1.3113258 0.5355077 0.6880185 -1.1218505 -1.3180083 -0.142417 0.30400506
0.37551838 0.27522188 0.88709044 -2.2460015 2.0395007 0.73017913 -0.060049023 -1.4950861
0.78076637 -0.85219055 0.050556935 -0.5783718 -1.9648784 -0.64337593 -0.45336837 1.6251498
0.5358798 -1.04281 -0.37330294 0.66451484 -2.8953705 -2.9405742 -0.36393636 -0.21338889
-0.87120885 -0.8229349 -0.40238345 -0.2584721 -1.0245312 1.3192172 -0.69934934 0.6706564
-0.23101862 0.37069413 0.26505774 0.57528865 -1.7987 1.4507455 1.1040784 -0.5467487
00000000: 10cd 48bf 474d 56bf a835 0abf 4b86 1d3f
00000010: 9d57 5f3e f011 81bf 8c9b c0be 7170 8fbd
00000020: 31fe ebbf 5d2d 3b3f f455 ccbe 6de9 323f
00000030: 0ef7 e6be feb5 023f 622a 2ebe 5dd9 d0bf
00000040: 8c12 373f 86d9 a7bf 0817 093f fb21 303f
00000050: cc98 8fbf 7fb4 a8bf c3d5 11be 8da6 9b3e
00000060: f243 c03e e2e9 8c3e 5c18 633f 7dbe 0fc0
00000070: 2e87 0240 05ed 3a3f f7f5 75bd fb5e bfbf
00000080: 4ee0 473f 2929 5abf ca14 4f3d 2d10 14bf
00000090: 2381 fbbf 49b4 24bf e61f e8be e904 d03f
000000a0: 6b2f 093f cc7a 85bf 9021 bfbe a51d 2a3f
000000b0: c04d 39c0 5e32 3cc0 de55 babe 9e82 5abe
000000c0: 8b07 5fbf ddab 52bf 3405 cebe 7556 84be
000000d0: d723 83bf 1cdc a83f 8f08 33bf 23b0 2b3f
000000e0: 2590 6cbe 9fcb bd3e a6b5 873e 1e46 133f
000000f0: cd3b e6bf 07b2 b93f 7152 8d3f b9f7 0bbf

transformer.layers.0.0.static_alpha f4 [4, 5]
0.097614795 1.0 0.0 0.0 0.0 0.097614795 0.0 1.0
0.0 0.0 0.097614795 0.0 0.0 1.0 0.0 1.0975827
0.0 0.0 0.0 1.0
00000000: 44ea c73d 0000 803f 0000 0000 0000 0000
00000010: 0000 0000 44ea c73d 0000 0000 0000 803f
00000020: 0000 0000 0000 0000 44ea c73d 0000 0000
00000030: 0000 0000 0000 803f 0000 0000 977d 8c3f
00000040: 0000 0000 0000 0000 0000 0000 0000 803f

transformer.layers.0.0.dynamic_alpha_fn f4 [8, 5]
-0.29651275 0.0 0.0 0.0 0.0 -0.04297833 0.0 0.0
0.0 0.0 -0.021122165 0.0 0.0 0.0 0.0 -0.12196393
0.0 0.0 0.0 0.0 -0.049146336 0.0 0.0 0.0
0.0 0.08646594 0.0 0.0 0.0 0.0 -0.07032641 0.0
0.0 0.0 0.0 0.1145234 0.0 0.0 0.0 0.0
00000000: 85d0 97be 0000 0000 0000 0000 0000 0000
00000010: 0000 0000 0c0a 30bd 0000 0000 0000 0000
00000020: 0000 0000 0000 0000 6408 adbc 0000 0000
00000030: 0000 0000 0000 0000 0000 0000 3ac8 f9bd
00000040: 0000 0000 0000 0000 0000 0000 0000 0000
00000050: ab4d 49bd 0000 0000 0000 0000 0000 0000
00000060: 0000 0000 0e15 b13d 0000 0000 0000 0000
00000070: 0000 0000 0000 0000 4b07 90bd 0000 0000
00000080: 0000 0000 0000 0000 0000 0000 3f8b ea3d
00000090: 0000 0000 0000 0000 0000 0000 0000 0000

transformer.layers.0.0.static_beta f4 [4]
1.0295441 1.0214846 0.88246185 0.91856104
00000000: 1ac8 833f 02c0 823f 05e9 613f d126 6b3f

transformer.layers.0.0.dynamic_beta_fn f4 [8]
-0.12293291 0.12322905 0.3201888 0.5039501 -0.3113154 0.08460721 -0.13664646 -0.28337577
00000000: 40c4 fbbd 835f fc3d c9ef a33e e002 013f
00000010: bb64 9fbe 8b46 ad3d 0ded 0bbe a116 91be

transformer.layers.0.0.branch.norm.weight f4 [8]
0.7908022 0.866683 0.9255228 0.9743203 0.9723716 1.0035954 0.8746878 1.0761272
00000000: 0372 4a3f f0de 5d3f 10ef 6c3f 0e6d 793f
00000010: 58ed 783f d075 803f 8aeb 5f3f 89be 893f

transformer.layers.0.0.branch.norm.bias f4 [8]
-0.073837355 -0.04368221 0.06757401 -0.03687838 -0.047657896 -0.12198757 -0.07776334 0.08875918
00000000: 0a38 97bd 1eec 32bd 3e64 8a3d c90d 17bd
00000010: ed34 43bd 9ed4 f9bd 6342 9fbd 5fc7 b53d

transformer.layers.0.0.branch.to_qkv.weight f4 [192, 8]
-0.34947732 0.004513501 -0.24447481 0.20620091 -0.250759 -0.33636943 0.30200607 0.43229002
-0.205062 0.12793611 0.32854235 0.09152605 -0.076760285 0.45681322 0.23433287 -0.43448287
0.33851025 -0.13658306 -0.05839242 -0.2733267 0.5971749 0.14700349 -0.32091016 -0.1639316
0.38882664 0.12410437 0.19031036 0.3457372 0.17105784 -0.16040084 -0.37897074 -0.14548674
-0.43006057 -0.15390609 -0.040869154 -0.28270417 -0.017752968 -0.20448756 0.0264664 0.022649974
0.197289 -0.10581112 -0.41368476 0.35145923 0.24305166 0.12804644 -0.054611567 -0.15758868
-0.07702746 0.12416269 0.08332609 -0.15201697 0.3809116 0.24887566 -0.10025907 -0.34236023
-0.34239328 0.25868872 0.19528866 0.033632234 -0.19817796 0.19497976 -0.064003944 0.42314458
0.16320181 0.07988319 -0.056835562 -0.20699449 -0.06873948 -0.2792134 -0.20633562 0.21205518
-0.45267907 -0.24254249 0.4453078 -0.24409519 0.18810253 -0.37503394 0.3981682 0.60963637
0.22189642 -0.12881804 0.0197018 -0.1498763 -0.51081795 0.16667835 -0.16360924 0.44593832
0.15070768 -0.14978594 -0.03959159 0.16766131 0.35239208 -0.119389765 0.1204443 -0.45817053
-0.110543996 0.034241077 -0.38796827 0.41386142 0.13186032 -0.06515532 -0.380518 -0.5321045
0.22323109 -0.3054236 0.32388312 -0.19936073 -0.35537112 0.17201152 0.06900172 0.07916618
0.14943966 -0.31700757 0.46717277 -0.15438123 -0.049884558 -0.2740089 0.3674273 0.65280294
0.18084013 -0.256409 -0.09889092 0.33162946 -0.37671995 0.42147633 0.44554475 0.29269832
0.092356555 -0.05454293 -0.17829984 -0.22595713 -0.04302432 -0.19145066 0.06869458 0.072547056
0.07059502 0.062087122 -0.19151619 -0.21808188 -0.31586462 0.323852 -0.092337094 0.33971792
-0.12068025 -0.10778552 0.30907997 0.12092725 0.05768983 0.18201956 0.41700938 -0.23991066
-0.067835525 0.19572368 -0.27592957 -0.33408076 0.1038849 0.003188657 -0.38941848 0.26010013
-0.22423828 -0.25863984 -0.08682366 0.19468096 -0.11510092 0.024146527 0.11864368 -0.10024392
-0.21971926 0.260081 0.0010927193 0.26411626 0.15627025 0.29848912 -0.047439087 -0.16676305
0.11637808 0.32333162 0.16828004 -0.1760359 -0.002349632 0.21297646 -0.06224714 -0.4496902
-0.18023041 -0.16002995 -0.10014352 0.01352245 -0.10720706 0.29124802 -0.32133952 0.40530673
-0.040587027 0.3785052 0.28188822 -0.048698258 0.12684123 -0.20059656 -0.20495029 0.089368574
0.18787184 -0.06379572 -0.160022 0.01355146 0.2617603 -0.39128858 -0.18300155 0.063187264
-0.26420364 0.2760484 -0.12829192 -0.26546034 -0.3021455 -0.17986134 0.25157714 -0.14198112
-0.27013308 -0.0583436 0.20659715 -0.34737587 0.301085 -0.35788292 0.04218437 -0.17047857
0.3146865 -0.16377491 0.10589242 -0.32338068 0.36439043 -0.35833085 -0.5282063 0.2418554
-0.40498063 -0.12286157 0.14448969 -0.18156502 -0.03929299 -0.121691614 -0.17935057 0.19055213
0.12461828 -0.044889893 0.094255716 -0.27539825 -0.22861138 0.18173482 -0.13626868 0.16837706
0.098790646 -0.108739585 0.19439515 0.2676755 -0.28065908 0.3999324 0.4521529 -0.19218346
00000000: b1ee b2be fee5 933b 9b57 7abe 5526 533e
00000010: 7c63 80be 9d38 acbe 8aa0 9a3e 1e55 dd3e
00000020: c6fb 51be af01 033e b436 a83e 0272 bb3d
00000030: 7f34 9dbd 6ce3 e93e f5f4 6f3e 8a74 debe
00000040: 3751 ad3e 6edc 0bbe e42c 6fbd 7af1 8bbe
00000050: 74e0 183f 1588 163e 564e a4be afdd 27be
00000060: 4914 c73e 6f2a fe3d b8e0 423e 7704 b13e
00000070: c929 2f3e 1e40 24be 7408 c2be 7afa 14be
00000080: e630 dcbe 8f99 1dbe 6a66 27bd 9abe 90be
00000090: ac6e 91bc 3065 51be 10d0 d83c 708c b93c
000000a0: 2106 4a3e 80b3 d8bd 7dce d3be 77f2 b33e
000000b0: 89e2 783e 9b1e 033e 61b0 5fbd ed5e 21be
000000c0: 93c0 9dbd 0249 fe3d dea6 aa3d 56aa 1bbe
000000d0: d806 c33e 43d9 7e3e a154 cdbd d749 afbe
000000e0: 2c4e afbe d972 843e c0f9 473e f4c1 093d
000000f0: 2aef 4abe c6a8 473e 8014 83bd 68a6 d83e
00000100: 601e 273e cc99 a33d 68cc 68bd 5df6 53be
00000110: 49c7 8cbd 0ff5 8ebe a549 53be fe24 593e
00000120: 8dc5 e7be 0f5d 78be 62ff e33e 17f4 79be
00000130: f39d 403e 7304 c0be b4dc cb3e 2111 1c3f
00000140: d138 633e e0e8 03be ab65 a13c 2c79 19be
00000150: f7c4 02bf bbad 2a3e 2e89 27be 0752 e43e
00000160: 1d53 1a3e 7c61 19be cb2a 22bd 68af 2b3e
00000170: bc6c b43e 9f82 f4bd 80ab f63d 5495 eabe
00000180: e464 e2bd 5f40 0c3d c7a3 c6be a5e5 d33e
00000190: 6406 073e 2770 85bd 41d3 c2be 0038 08bf
000001a0: b196 643e 7b60 9cbe 02d4 a53e 3825 4cbe
000001b0: 34f3 b5be ca23 303e c650 8d3d e121 a23d
000001c0: b606 193e d14e a2be 4531 ef3e 1d16 1ebe
000001d0: c053 4cbd e54a 8cbe 6e1f bc3e 181e 273f
000001e0: 282e 393e 0a48 83be 5387 cabd 56cb a93e
000001f0: 70e1 c0be bfcb d73e 711e e43e 8edc 953e
00000200: 6f25 bd3d 6868 5fbd 3c94 36be 4e61 67be
00000210: 453a 30bd a40b 44be beaf 8c3d 8d93 943d
00000220: 1f94 903d 114f 7e3d d21c 44be db50 5fbe
00000230: 02b9 a1be eecf a53e 3b1b bdbd 82ef ad3e
00000240: 3527 f7bd a8be dcbd bb3f 9e3e b5a8 f73d
00000250: 2c4c 6c3d 5663 3a3e 4182 d53e 24ab 75be
00000260: 5aed 8abd ca6b 483e a446 8dbe a20c abbe
00000270: 9bc1 d43d caf8 503b dc61 c7be d82b 853e
00000280: b89e 65be 716c 84be 9ad0 b1bd 725a 473e
00000290: 08ba ebbd f0ce c53c 75fb f23d af4c cdbd
000002a0: 16fe 60be 5629 853e 9339 8f3a 3f3a 873e
000002b0: 4f05 203e 91d3 983e 7d4f 42bd efc3 2abe
000002c0: a157 ee3d b98b a53e 9a51 2c3e c142 34be
000002d0: 49fc 19bb 8016 5a3e dbf6 7ebd cb3d e6be
000002e0: 528e 38be e4de 23be 0c18 cdbd 448d 5d3c
000002f0: 608f dbbd 761e 953e 9d86 a4be 5d84 cf3e
00000300: 953e 26bd 6fcb c13e a753 903e d377 47bd
00000310: abe2 013e 2f69 4dbe 7dde 51be df06 b73d
00000320: 7a61 403e 55a7 82bd cfdc 23be f106 5e3c
00000330: 7205 863e fa56 c8be c264 3bbe 5368 813d
00000340: b345 87be 3756 8d3e f55e 03be 6bea 87be
00000350: d1b2 9abe 922d 38be b8ce 803e 8063 11be
00000360: e24e 8abe b3f9 6ebd 348e 533e 40db b1be
00000370: d027 9a3e 6e3c b7be 85c9 2c3d ef91 2ebe
00000380: 971e a13e 9cb4 27be 20de d83d 2792 a5be
00000390: 6291 ba3e 2477 b7be 8738 07bf f1a8 773e
000003a0: 9f59 cfbe d99e fbbd 1bf5 133e 2eec 39be
000003b0: b0f1 20bd 7439 f9bd ada7 37be 1920 433e
000003c0: de37 ff3d 77de 37bd 2409 c13d 0001 8dbe
000003d0: 1a19 6abe b118 3a3e 048a 0bbe 096b 2c3e
000003e0: c052 ca3d dcb2 debd 860f 473e c30c 893e
000003f0: 8cb2 8fbe f1c3 cc3e 9680 e73e becb 44be

transformer.layers.0.0.branch.to_out.weight f4 [8, 64]
0.05256621 0.06429762 -0.122076355 0.050141625 -0.03595453 0.008331007 -0.1075561 0.02375632
0.06610232 -0.04101386 -0.038949534 -0.04927087 0.06605024 0.09144065 -0.0057401233 -0.029999763
0.030975007 -0.057586595 0.08032228 -0.1415338 -0.006435264 -0.10500756 0.13052726 -0.16373283
0.062274814 0.01286344 -0.13813849 0.1466716 -0.11667108 0.0739389 0.053661898 0.06694313
-0.0167954 0.05207863 -0.04854574 0.08966614 0.07070463 -0.0329958 -0.13074453 0.13388342
0.059600454 0.062161434 -0.057342526 -0.06126614 -0.015353903 -0.04104071 0.05192429 0.023691313
0.12638003 0.1691267 -0.042115357 -0.003659647 -0.0708646 0.032557506 0.038000714 -0.047230568
-0.07365443 0.071724355 0.034100674 0.15697438 -0.09561481 -0.023962984 0.044669904 0.049675524
-0.088412054 0.002347752 -0.16337614 0.078159824 0.11227328 -0.1708803 -0.10328249 0.011838736
-0.081266485 -0.01278734 0.059693728 0.031849038 -0.07643437 0.018972257 -0.22001144 -0.08735042
-0.02622621 -0.019832002 -0.01763468 0.08032053 0.011948551 0.024829721 0.11016137 -0.13486382
0.03417654 -0.017940205 0.039280806 -0.069405645 -0.010025892 -0.026542092 0.013612555 0.110405676
0.05396121 0.07706097 0.13025181 0.15492441 -0.106167465 0.09277561 -0.10268682 -0.019705359
-0.036897507 -0.056914635 0.22332732 -0.13790932 -0.044182032 0.05963584 -0.29641902 -0.018778443
0.10760448 -0.008537279 0.0629075 -0.05227432 -0.085297085 0.107405774 -0.029291013 0.05852076
-0.07672468 -0.013258662 -0.07331478 -0.1267404 0.124553725 -0.05864862 0.1055896 0.011245713
0.010405316 0.102637924 0.03412595 0.048076097 -0.10545634 0.06521404 -0.09648915 0.070199825
0.1651945 0.17874172 -0.15909834 0.0056941747 0.079621576 -0.092211336 0.3845835 0.014705314
-0.04581232 -0.031011736 -0.076798834 -0.1335429 0.14594428 0.018171525 0.092466466 -0.01519118
0.012209625 0.10219385 0.048345163 0.046129484 0.015335986 -0.0010819476 -0.006815064 0.008920609
-0.025118615 0.1212573 -0.109166354 -0.1659443 0.106410705 -0.046428036 -0.039355088 0.026620401
-0.005542175 0.052704543 -0.29447576 0.05571331 0.074308276 0.13390747 0.32595953 -0.08160242
0.16548999 0.16620119 -0.03349736 -0.13125713 0.023528328 -0.04994997 -0.07730416 -0.009855783
0.009308618 0.012271664 0.04661852 0.015261001 -0.06631106 0.13078357 0.1514866 -0.15400045
0.02751131 -0.054894675 -0.13218363 -0.06270799 0.055004496 -0.023089115 0.0035889444 -0.013770031
-0.08559084 -0.061736852 -0.051563118 0.051645767 0.10965815 0.017157787 -0.03199506 -0.0829189
-0.046195507 0.0063384282 -0.111716814 0.028955968 -0.049429048 -0.08387634 0.011418976 -0.08229478
0.15654603 -0.0315942 -0.010587479 -0.05951136 -0.04901758 0.04303634 0.09344672 -0.0651279
-0.015374394 0.07061712 -0.018184898 0.144493 -0.0736565 -0.021357724 0.01163746 0.09782405
0.004351878 0.054222096 0.20418224 -0.15112661 -0.116665535 -0.031978246 -0.058742087 -0.044152297
0.0879318 0.124652445 -0.008308066 -0.0059557217 -0.06937768 -0.09767628 0.052693162 -0.028817285
-0.02466361 0.028258866 0.09499625 0.022284867 -0.0025205028 0.06010651 0.14306054 0.073468104
00000000: ab4f 573d 78ae 833d 2b03 fabd 4e61 4d3d
00000010: 0f45 13bd c77e 083c 5f46 dcbd 9d9c c23c
00000020: a760 873d 26fe 27bd 8c89 1fbd 40d0 49bd
00000030: 5945 873d 3c45 bb3d a517 bcbb 10c2 f5bc
00000040: 4cbf fd3c ecdf 6bbd 0280 a43d 3dee 10be
00000050: e8de d2bb 340e d7bd f0a8 053e 94a9 27be
00000060: e013 7f3d 2ec1 523c 2d74 0dbe 1431 163e
00000070: 3ff1 eebd 476d 973d 94cc 5b3d 7b19 893d
00000080: 8296 89bc 6750 553d e6d7 46bd e2a2 b73d
00000090: 97cd 903d 9b26 07bd e5e1 05be bc18 093e
000000a0: 9b1f 743d fd9c 7e3d ffdf 6abd 34f2 7abd
000000b0: f08e 7bbc 4e1a 28bd 90ae 543d 4914 c23c
000000c0: c469 013e 8d2f 2d3e 2781 2cbd b0d6 6fbb
000000d0: 7621 91bd 055b 053d a3a6 1b3d d774 41bd
000000e0: 22d8 96bd 38e4 923d 26ad 0b3d e4bd 203e
000000f0: b3d1 c3bd 054e c4bc caf7 363d 9078 4b3d
00000100: 6111 b5bd bedc 193b 134c 27be 4212 a03d
00000110: 89ef e53d 3ffb 2ebe c585 d3bd 42f7 413c
00000120: 0b6f a6bd fe81 51bc 6981 743d 2374 023d
00000130: 9f89 9cbd b56b 9b3c ae4a 61be c7e4 b2bd
00000140: 59d8 d6bc b976 a2bc 9b76 90bc 177f a43d
00000150: dbc3 433c b367 cb3c 499c e13d be19 0abe
00000160: b3fc 0b3d 56f7 92bc e9e4 203d 8c24 8ebd
00000170: a443 24bc cd6e d9bc 3207 5f3c 5f1c e23d
00000180: 6e06 5d3d 24d2 9d3d bb60 053e 81a4 1e3e
00000190: 546e d9bd 2401 be3d 784d d2bd 226d a1bc
000001a0: d721 17bd 521f 69bd ebaf 643e 1a38 0dbe
000001b0: 38f8 34bd b644 743d 3cc4 97be 40d5 99bc
000001c0: bd5f dc3d f2df 0bbc a6d5 803d 991d 56bd
000001d0: 3db0 aebd 8ff7 db3d b5f3 efbc 77b3 6f3d
000001e0: d421 9dbd dc3a 59bc 0f26 96bd 3cc8 01be
000001f0: 0616 ff3d 8939 70bd 5c3f d83d f03f 383c
00000200: 0f7b 2a3c d533 d23d a7c7 0b3d 71eb 443d
00000210: 7ef9 d7bd f08e 853d 1a9c c5bd edc4 8f3d
00000220: bf28 293e 1208 373e adea 22be 3396 ba3b
00000230: a310 a33d 4cd9 bcbd 21e8 c43e 8fee 703c
00000240: b3a5 3bbd 530c febc b548 9dbd 78bf 08be
00000250: 6b72 153e 73dc 943c 0f5f bd3d 6de4 78bc
00000260: e10a 483c 024b d13d 9405 463d 45f2 3c3d
00000270: ca43 7b3c 23d0 8dba e750 dfbb bf27 123c
00000280: 8ec5 cdbc bf55 f83d 9c92 dfbd 4ded 29be
00000290: dbed d93d 532b 3ebd cd32 21bd 0713 da3c
000002a0: 229b b5bb b8e0 573d 87c5 96be a433 643d
000002b0: f02e 983d 0a1f 093e 2be4 a63e 2b1f a7bd
000002c0: 3576 293e a530 2a3e 8734 09bd 4568 06be
000002d0: 7bbe c03c 5798 4cbd a551 9ebd 267a 21bc
000002e0: 2c83 183c 170f 493c 10f3 3e3d 4709 7a3c
000002f0: 18ce 87bd 21ec 053e 4e1f 1b3e 4bb2 1dbe
00000300: 665f e13c 3dd9 60bd 255b 07be 0c6d 80bd
00000310: 654c 613d 6225 bdbc 7f34 6b3b b29b 61bc
00000320: 404a afbd c8df 7cbd d933 53bd 838a 533d
00000330: 7494 e03d 7d8e 8c3c 410d 03bd 62d1 a9bd
00000340: 8037 3dbd 97b2 cf3b c9cb e4bd 1135 ed3c
00000350: 1d76 4abd 5cc7 abbd a816 3b3c 2a8a a8bd
00000360: 9a4d 203e eb68 01bd 1b77 2dbc 2fc2 73bd
00000370: a8c6 48bd e046 303d fe60 bf3d c761 85bd
00000380: e2e4 7bbc b59f 903d 7ff8 94bc f9f5 133e
00000390: 38d9 96bd 65f6 aebc 0cab 3e3c fa57 c83d
000003a0: 339a 8e3b fd17 5e3d 2615 513e efc0 1abe
000003b0: 57ee eebd 9ffb 02bd 8b9b 70bd 0ad9 34bd
000003c0: 9615 b43d c849 ff3d 8e1e 08bc 3728 c3bb
000003d0: e315 8ebd 800a c8bd c9d4 573d 3a12 ecbc
000003e0: 570b cabc 237f e73c 658d c23d c18e b63c
000003f0: 052f 25bb 3e32 763d 767e 123e 7276 963d

transformer.layers.0.0.norm.gamma f4 [8]
0.33372843 0.20026201 0.67580885 0.7993278 0.6942914 0.23774177 0.2762961 0.4880824
00000000: 74de aa3e 7c11 4d3e cf01 2d3f bfa0 4c3f
00000010: 15bd 313f 9472 733e af76 8d3e f0e5 f93e

transformer.layers.0.1.static_alpha f4 [4, 5]
0.9255922 1.0 0.0 0.0 0.0 -0.07075995 0.0 1.0
0.0 0.0 -0.07363486 0.0 0.0 1.0 0.0 -0.03310105
0.0 0.0 0.0 1.0
00000000: 9cf3 6c3f 0000 803f 0000 0000 0000 0000
00000010: 0000 0000 98ea 90bd 0000 0000 0000 803f
00000020: 0000 0000 0000 0000 e0cd 96bd 0000 0000
00000030: 0000 0000 0000 803f 0000 0000 f794 07bd
00000040: 0000 0000 0000 0000 0000 0000 0000 803f

transformer.layers.0.1.dynamic_alpha_fn f4 [8, 5]
-0.23401913 0.0 0.0 0.0 0.0 0.16304478 0.0 0.0
0.0 0.0 0.18663819 0.0 0.0 0.0 0.0 0.15752529
0.0 0.0 0.0 0.0 -0.14151028 0.0 0.0 0.0
0.0 0.18666579 0.0 0.0 0.0 0.0 0.067527264 0.0
0.0 0.0 0.0 -0.15481938 0.0 0.0 0.0 0.0
00000000: b6a2 6fbe 0000 0000 0000 0000 0000 0000
00000010: 0000 0000 36f5 263e 0000 0000 0000 0000
00000020: 0000 0000 0000 0000 151e 3f3e 0000 0000
00000030: 0000 0000 0000 0000 0000 0000 4f4e 213e
00000040: 0000 0000 0000 0000 0000 0000 0000 0000
00000050: 12e8 10be 0000 0000 0000 0000 0000 0000
00000060: 0000 0000 5125 3f3e 0000 0000 0000 0000
00000070: 0000 0000 0000 0000 bc4b 8a3d 0000 0000
00000080: 0000 0000 0000 0000 0000 0000 f988 1ebe
00000090: 0000 0000 0000 0000 0000 0000 0000 0000

transformer.layers.0.1.static_beta f4 [4]
0.94580764 1.0539954 1.0139892 1.0542954
00000000: 7320 723f 52e9 863f 66ca 813f 27f3 863f

transformer.layers.0.1.dynamic_beta_fn f4 [8]
0.17647167 -0.07509701 -0.19506164 -0.059876453 0.14779353 -0.042789295 -0.13997746 0.09813048
00000000: fdb4 343e 76cc 99bd 3dbe 47be 0341 75bd
00000010: 3057 173e d443 2fbd 4056 0fbe a2f8 c83d

transformer.layers.0.1.branch.0.weight f4 [8]
0.96033335 1.0543026 1.0143204 0.9306214 0.9874135 1.0601213 0.89907277 0.86853564
00000000: 68d8 753f 63f3 863f 40d5 813f 343d 6e3f
00000010: 22c7 7c3f 0eb2 873f a229 663f 5a58 5e3f

transformer.layers.0.1.branch.0.bias f4 [8]
0.0020786612 -0.052199997 0.077932596 0.10217934 0.015118186 -0.01399003 0.02648524 -0.10304266
00000000: 263a 083b aacf 55bd 209b 9f3d 6743 d13d
00000010: 45b2 773c 7036 65bc 93f7 d83c 0808 d3bd

transformer.layers.0.1.branch.1.weight f4 [64, 8]
-0.16526695 -0.20991811 -0.13799301 -0.0781677 0.05966466 0.33943033 0.32718512 0.52355623
0.002616959 0.26522005 -0.053652965 -0.3566168 0.15618992 0.37595665 -0.0039770775 -0.054588705
0.109725185 -0.25972158 -0.21163405 -0.1703842 0.13585311 0.38823208 0.3060324 -0.34356838
-0.41661364 -0.18843807 0.0048504057 -0.0322792 -0.39382786 0.11577957 -0.009660333 0.15637118
-0.0782566 -0.1887912 -0.6040991 0.27626327 0.60842705 -0.4883525 0.19005364 0.14413093
-0.0720713 0.2046258 0.013032059 0.19876455 0.40358642 -0.0069201356 -0.12024901 0.10410531
0.09903273 0.37169078 -0.20775014 -0.1116937 -0.03570767 0.3359806 -0.21133354 0.2594136
0.045107458 -0.029423632 0.15874457 0.07560729 0.07030236 -0.004693787 0.30856824 -0.037677813
0.15111068 0.069155425 0.10596987 -0.025361747 0.1984291 -0.10964752 -0.20302513 0.26801452
-0.20027706 0.013763909 0.07168106 0.09756106 -0.10868348 0.08526728 0.12840603 0.068732835
-0.09049329 -0.21234262 -0.28034186 -0.1246025 -0.008758033 -0.24426147 -0.3156199 0.03913002
0.17981277 0.006122841 0.037029356 0.1696902 -0.32944968 0.04266578 0.16816337 0.13335483
-0.12931451 -0.17115536 0.29254577 0.021605834 0.21574907 0.10940479 0.22851615 0.20571728
-0.4254488 -0.3057861 -0.011706704 -0.21520051 -0.116297156 0.16562806 0.036609057 -0.1381023
-0.15909614 0.24785551 -0.040393833 -0.114330664 -0.036015883 0.17726107 -0.18819222 -0.21232224
0.15191415 0.005165542 0.11092327 0.23267733 -0.027793694 0.1563858 0.20109434 0.10239534
-0.20123483 -0.30893248 0.3134065 0.15157747 0.09386832 -0.13166416 0.26750535 -0.3693398
0.46039227 0.035763476 0.28986436 -0.15260285 -0.269676 -0.35862148 -0.04068056 0.27934003
0.32626402 0.27798462 0.17942162 0.15251614 0.25410315 -0.36409792 0.34295043 0.25273338
0.30619052 0.13974921 0.121398956 -0.037168752 0.18385354 0.14101301 -0.35527667 -0.238985
0.12389512 0.6155505 0.3019233 -0.22716111 0.25592193 -0.09809447 0.28417087 0.1538425
-0.055694714 0.31383273 0.2614032 -0.027735587 0.00096578035 -0.25078076 -0.25655746 0.25517592
0.30582452 0.06670544 -0.26521096 0.07516453 -0.2004499 0.08907798 0.11276463 0.26824933
0.20935287 0.15492137 0.2717073 0.072367795 -0.1488476 -0.2841267 -0.04733735 -0.43392766
-0.41770378 0.34420446 0.033265345 0.4732587 -0.047097143 0.03368674 0.29797804 -0.08285529
0.14038488 -0.019405428 0.16967277 -0.41322958 -0.12270034 0.08711403 0.16407384 -0.092998214
0.43833652 -0.0121235745 -0.32858655 0.15974733 -0.1702887 -0.47033218 0.024078993 0.17133424
0.30055222 -0.17155714 0.13622476 0.2820806 -0.12865932 -0.02458634 0.04365429 -0.16893846
-0.24684203 -0.25561726 0.27719074 0.049125575 -0.3641008 0.5460107 0.37001064 0.00306456
-0.04215854 -0.14090078 0.16317129 0.20032626 0.25479594 0.04431326 -0.29267174 -0.0036088456
0.2123151 0.37917414 0.08300019 0.38778332 -0.35700685 -0.0077768303 -0.15508161 0.10755952
-0.10195565 -0.19329153 0.09162885 0.048648655 -0.55485326 0.14483996 0.17952943 0.04279376
00000000: bd3b 29be c6f4 56be 0a4e 0dbe 6316 a0bd
00000010: ee62 743d d0c9 ad3e cf84 a73e c807 063f
00000020: 4981 2b3b ecca 873e 36c3 5bbd 7a96 b6be
00000030: 40f0 1f3e 647d c03e 2552 82bb 6898 5fbd
00000040: 99b7 e03d 3afa 84be 99b6 58be 3279 2ebe
00000050: 141d 0b3e 5bc6 c63e 47b0 9c3e 32e8 afbe
00000060: 624e d5be e9f5 40be 27f0 9e3b 3237 04bd
00000070: cea3 c9be d71d ed3d 6046 1ebc c41f 203e
00000080: ff44 a0bd 7b52 41be 3da6 1abf 6172 8d3e
00000090: e0c1 1b3f 5709 fabe 6c9d 423e 0f97 133e
000000a0: 1e9a 93bd 6d89 513e 6b84 553c ef88 4b3e
000000b0: e1a2 ce3e 4ec2 e2bb 1d45 f6bd 2a35 d53d
000000c0: acd1 ca3d 414e be3e 74bc 54be abbf e4bd
000000d0: 3542 12bd a605 ac3e d267 58be dcd1 843e
000000e0: 99c2 383d d409 f1bc f08d 223e ffd7 9a3d
000000f0: affa 8f3d 57ce 99bb a8fc 9d3e 0d54 1abd
00000100: c2bc 1a3e 5ca1 8d3d bb06 d93d 70c3 cfbc
00000110: ff30 4b3e e18e e0bd d2e5 4fbe 3339 893e
00000120: 6e15 4dbe 0582 613c 85cd 923d 18ce c73d
00000130: 7295 debd 9da0 ae3d df7c 033e cdc3 8c3d
00000140: 8c54 b9bd 5870 59be f888 8fbe 982f ffbd
00000150: da7d 0fbc ae1f 7abe ee98 a1be cd46 203d
00000160: d720 383e 1da2 c83b 18ac 173d 45c3 2d3e
00000170: a1ad a8be 50c2 2e3d 0533 2c3e 2b8e 083e
00000180: 066b 04be 5a43 2fbe 8fc8 953e b8fe b03c
00000190: 53ed 5c3e 9e0f e03d 2300 6a3e 8da7 523e
000001a0: 6dd4 d9be ff8f 9cbe 7acd 3fbc 865d 5cbe
000001b0: 342d eebd 679a 293e 61f3 153d b06a 0dbe
000001c0: 19ea 22be d6cd 7d3e 0174 25bd 3226 eabd
000001d0: 6485 13bd ed83 353e 76b5 40be 006b 59be
000001e0: 628f 1b3e b543 a93b bd2b e33d f742 6e3e
000001f0: 9aaf e3bc 9923 203e adeb 4d3e a6b4 d13d
00000200: 8110 4ebe 662c 9ebe d176 a03e 2037 1b3e
00000210: 093e c03d f8d2 06be 76f6 883e 1b1a bdbe
00000220: 89b8 eb3e b97c 123d 1a69 943e ec43 1cbe
00000230: f912 8abe 3c9d b7be a9a0 26bd a805 8f3e
00000240: 140c a73e 0054 8e3e 4dba 373e 312d 1c3e
00000250: cf19 823e 0b6b babe 3397 af3e 4566 813e
00000260: 01c5 9c3e 6b1a 0f3e 04a0 f83d 433e 18bd
00000270: 1a44 3c3e b765 103e d3e6 b5be 7cb8 74be
00000280: babc fd3d b894 1d3f b195 9a3e ec9c 68be
00000290: 3308 833e c1e5 c8bd d87e 913e e388 1d3e
000002a0: 2420 64bd afae a03e a4d6 853e be35 e3bc
000002b0: 6c2c 7d3a 5666 80be 805b 83be 6ba6 823e
000002c0: 0895 9c3e dd9c 883d bbc9 87be dcef 993d
000002d0: bd42 4dbe 846e b63d 24f1 e63d fa57 893e
000002e0: 9960 563e b5a3 1e3e 381d 8b3e 9135 943d
000002f0: 816b 18be 0e79 91be cfe4 41bd c42b debe
00000300: 45dd d5be 913b b03e 3e41 083d f74e f23e
00000310: efe8 40bd 1bfb 093d 9490 983e 09b0 a9bd
00000320: 0ec1 0f3e 22f8 9ebc b3be 2d3e d492 d3be
00000330: 514a fbbd d768 b23d f902 283e d975 bebd
00000340: a56d e03e f5a1 46bc 7f3c a8be ce94 233e
00000350: 2960 2ebe 61cf f0be 4f41 c53c 3e72 2f3e
00000360: fbe1 993e adac 2fbe 817e 0b3e de6c 903e
00000370: 45bf 03be 4b69 c9bc d7ce 323d 34fe 2cbe
00000380: 28c4 7cbe 44e0 82be f2eb 8d3e e637 493d
00000390: 6c6b babe 5bc7 0b3f 0972 bd3e c9d6 483b
000003a0: 6fae 2cbd 4b48 10be 6016 273e 5422 4d3e
000003b0: 9d74 823e d281 353d 12d9 95be 6282 6cbb
000003c0: 2169 593e 1d23 c23e 01fc a93d 898b c63e
000003d0: 9ac9 b6be c8d4 febb b7cd 1ebe 2a48 dc3d
000003e0: 20ce d0bd 37ee 45be e8a7 bb3d d043 473d
000003f0: dd0a 0ebf ed50 143e 90d6 373e 8248 2f3d

transformer.layers.0.1.branch.1.bias f4 [64]
0.0073218565 -0.31591403 0.25745085 -0.16828948 0.1402165 -0.2696749 -0.33857742 0.2247941
0.13108537 0.09197288 0.23995703 0.2170119 -0.1186963 -0.1301642 0.2507366 -0.002402001
0.006129922 -0.3568996 -0.12648827 0.009297181 -0.16547863 0.07875921 -0.16287947 0.03669559
-0.3992166 0.074961275 -0.21259429 0.20711239 -0.398029 -0.38115114 0.009906348 0.41377994
-0.17037429 -0.118858315 -0.27299663 0.26119575 -0.39864406 -0.12958194 0.057113495 -0.18863524
-0.21543764 0.0033378983 0.25489336 0.2173774 0.020304417 0.1477534 0.09009844 -0.09534723
0.11370815 0.016966574 0.2430849 -0.025729995 -0.17965482 -0.22290978 -0.03430363 -0.30739218
-0.30236903 0.12652867 -0.641868 -0.27006605 -0.10047678 -0.07716283 -0.043829285 -0.11958312
00000000: 2fec ef3b 7cbf a1be 99d0 833e 1454 2cbe
00000010: ea94 0f3e d412 8abe 055a adbe 6d30 663e
00000020: 3e3b 063e 475c bc3d 4cb7 753e 5e38 5e3e
00000030: 0c17 f3bd c449 05be 8c60 803e e46a 1dbb
00000040: 83dd c83b 8bbb b6be 2486 01be 3453 183c
00000050: 3b73 29be 824c a13d e0c9 26be 1d4e 163d
00000060: 1e66 ccbe 4c85 993d 51b2 59be 4515 543e
00000070: 75ca cbbe 3e26 c3be 3c4e 223c f7da d33e
00000080: 9976 2ebe fd6b f3bd 37c6 8bbe 73bb 853e
00000090: 131b ccbe 21b1 04be d7ef 693d 9929 41be
000000a0: af9b 5cbe a4c0 5a3b 6281 823e 2e98 5e3e
000000b0: 7355 a63c ab4c 173e 8885 b83d 6945 c3bd
000000c0: d2df e83d 7cfd 8a3c 3feb 783e b6c7 d2bc
000000d0: 6ff7 37be 7642 64be f781 0cbd 8262 9dbe
000000e0: 1dd0 9abe bb90 013e 7651 24bf 1946 8abe
000000f0: c5c6 cdbd 8c07 9ebd 5686 33bd ffe7 f4bd

transformer.layers.0.1.branch.4.weight f4 [8, 32]
-0.17032926 -0.051503923 -0.09985188 0.022815352 0.11667891 0.14352928 -0.01360704 -0.13855863
0.08033489 0.14376415 -0.034577116 -0.010925603 -0.1474364 -0.038234483 0.002331917 -0.12714526
0.041957736 0.060244575 -0.07171493 0.03352716 -0.06762929 0.14237386 0.08879393 0.015586983
0.104810506 0.16787665 0.03132751 -0.042686455 -0.11987707 0.16621704 -0.11574171 -0.17883958
-0.15169938 -0.13485046 -0.1404782 0.12418202 0.027166978 -0.01892977 -0.16377722 -0.11844992
0.093150586 -0.08630318 -0.03869739 0.09529351 -0.04945552 0.043722965 0.13114813 0.007448417
0.0036362289 -0.10481687 0.033781994 0.014980519 -0.10274762 0.062058233 -0.079797156 0.016997127
0.06820688 0.020152638 0.0043141814 -0.022534503 -0.043225456 0.06401652 -0.07587583 -0.04514667
0.08131609 0.16064002 -0.031683877 -0.08234615 -0.18142846 -0.1556793 -0.045233395 -0.041347973
-0.14975692 0.07710286 -0.057191167 -0.0006058212 -0.09824047 -0.04027672 0.041131087 -0.043924544
-0.05329137 0.17455953 0.050255835 -0.0655588 0.15814406 -0.05709439 0.0053604413 -0.19988967
-0.23521885 0.055733334 -0.22994226 -0.14702363 0.13364857 -0.16361076 0.17762378 0.1235072
-0.091188006 0.19458571 -0.13598657 0.03718103 0.017581731 -0.0151567515 0.06409651 -0.06468886
-0.030666512 0.18604814 -0.10674025 0.017251173 -0.06264035 0.0693289 0.02845383 -0.12699749
0.017101388 0.016781589 0.12245426 0.007642825 -0.002943782 0.10901353 0.026503112 0.009120814
-0.044476945 -0.11362511 -0.010704151 -0.062169325 -0.057269767 0.028520323 -0.08527277 -0.08141164
-0.22276747 -0.06951264 0.12907247 0.2393279 0.13166367 0.18841563 0.069411695 -0.14207295
0.079547614 -0.06943877 0.01683819 0.120767824 -0.101370655 0.109922364 0.14319088 0.16336393
0.19856861 -0.21922213 -0.19227771 0.10630934 -0.12980354 0.11142518 -0.19308099 0.20566446
0.20357968 -0.09823024 0.17395523 0.15963496 -0.1520875 0.16502786 0.060736224 -0.14576524
-0.009003076 -0.2114335 0.42131358 0.06333615 -0.1728068 -0.14954077 0.00865967 0.10722761
-0.11630966 -0.101563156 -0.038904555 0.18284687 -0.14893734 0.18676011 0.19832677 -0.034631606
-0.01580296 -0.08366291 0.31299633 0.039479624 -0.09107562 -0.0035296297 -0.12998445 -0.039497696
-0.25120646 -0.20772575 -0.042867705 -0.23202835 0.1469874 -0.16200197 0.046536848 0.10543105
0.016815454 0.06327009 0.14199626 0.012420305 0.047238197 -0.030091617 0.11671369 -0.02747179
-0.01566051 0.028958222 0.0036225193 0.02917712 0.05943239 0.0543054 0.10792956 -0.028636936
0.108964816 0.08215028 0.06265657 -0.1313171 -0.07486405 0.13230254 -0.04871173 -0.089666225
0.005408811 -0.044155426 0.020891245 -0.086125895 -0.044726767 0.07474825 -0.2056488 0.010117296
-0.10740471 -0.025034795 0.045324344 0.053094313 -0.041875925 0.097668976 -0.07465699 0.17273079
-0.036967922 -0.015073586 -0.03575501 0.11630707 -0.09809691 -0.024098089 0.13873631 0.03583395
0.0028616537 -0.056656264 -0.11613544 -0.011261703 -0.16274671 0.058955926 -0.022959616 0.052702557
-0.0555088 -0.18849237 -0.0427022 -0.034272708 0.0046526464 -0.04294439 0.008500843 -0.045068197
00000000: cb6a 2ebe c7f5 52bd 247f ccbd 43e7 ba3c
00000010: 5af5 ee3d 57f9 123e 10f0 5ebc 50e2 0dbe
00000020: 9e86 a43d e936 133e bca0 0dbd 4d01 33bc
00000030: 91f9 16be c39b 1cbd 13d3 183b 5e32 02be
00000040: e0db 2b3d 04c3 763d 47df 92bd c653 093d
00000050: 3a81 8abd 74ca 113e 98d9 b53d 8c60 7f3c
00000060: e4a6 d63d dbe7 2b3e 4651 003d fed7 2ebd
00000070: 1c82 f5bd cd34 2a3e fd09 edbd b921 37be
00000080: 1557 1bbe 3d16 0abe 84d9 0fbe 2553 fe3d
00000090: 488d de3c 9b12 9bbc 37b5 27be df95 f2bd
000000a0: bcc5 be3d b9bf b0bd 2881 1ebd 3e29 c33d
000000b0: df91 4abd da16 333d b24b 063e da11 f43b
000000c0: cc4d 6e3b 3aaa d6bd fd5e 0a3d da70 753c
000000d0: 586d d2bd c630 7e3d b16c a3bd 8f3d 8b3c
000000e0: 0cb0 8b3d 2517 a53c fa5d 8d3b 479a b8bc
000000f0: 2d0d 31bd 181b 833d ca64 9bbd b7eb 38bd
00000100: 0d89 a63d d17e 243e f4c6 01bd 19a5 a8bd
00000110: 62c8 39be 656a 1fbe a746 39bd 7e5c 29bd
00000120: e159 19be 1be8 9d3d 4941 6abd f9cf 1eba
00000130: 4d32 c9bd 34f9 24bd 1279 283d 39ea 33bd
00000140: 0d48 5abd bcbf 323e 10d9 4d3d b143 86bd
00000150: 84f0 213e cfdb 69bd a4a6 af3b e1af 4cbe
00000160: 36dd 70be a348 643d fc75 6bbe 5d8d 16be
00000170: 2cdb 083e 9489 27be 02e3 353e 58f1 fc3d
00000180: c7c0 babd 7a41 473e 1040 0bbe 234b 183d
00000190: 9007 903c 0654 78bc 0845 833d 987b 84bd
000001a0: 5638 fbbc 6783 3e3e a29a dabd 5552 8d3c
000001b0: 9549 80bd 4ffc 8d3d 0218 e93c a10b 02be
000001c0: 3618 8c3c 8b79 893c 4dc9 fa3d aa70 fa3b
000001d0: 77ec 40bb 7c42 df3d 0e1d d93c 776f 153c
000001e0: 752d 36bd 48b4 e8bd 7760 2fbc 43a5 7ebd
000001f0: b493 6abd 74a3 e93c 7da3 aebd 25bb a6bd
00000200: 281d 64be a55c 8ebd 932b 043e 5f12 753e
00000210: d7d2 063e 07f0 403e b827 8e3d 927b 11be
00000220: dce9 a23d ea35 8ebd 3ef0 893c 1f55 f73d
00000230: 6b9b cfbd fa1e e13d a1a0 123e e048 273e
00000240: 9255 4b3e c47b 60be 73e4 44be b6b8 d93d
00000250: 38eb 04be e332 e43d 06b7 45be b499 523e
00000260: 3177 503e f02c c9bd 5221 323e 5977 233e
00000270: d3bc 1bbe 10fd 283e 8cc6 783d 7c43 15be
00000280: a381 13bc 0682 58be 6ab6 d73e 62b6 813d
00000290: 44f4 30be 3721 19be 4ae1 0d3c 269a db3d
000002a0: c233 eebd 5800 d0bd 625a 1fbd 363c 3b3e
000002b0: 0883 18be 0b3e 3f3e 2c16 4b3e dfd9 0dbd
000002c0: 3675 81bc 7657 abbd 0e41 a03e 63b5 213d
000002d0: db85 babd 5c51 67bb a51a 05be 56c8 21bd
000002e0: 229e 80be 0fb6 54be 0c96 2fbd d798 6dbe
000002f0: dd83 163e d8e3 25be 6c9d 3e3d 3cec d73d
00000300: 90c0 893c c093 813d 7867 113e 897e 4b3c
00000310: d77c 413d b282 f6bc 9607 ef3d 850c e1bc
00000320: 784a 80bc cb39 ed3c ca67 6d3b db04 ef3c
00000330: 616f 733d 576f 5e3d 2c0a dd3d 0298 eabc
00000340: f228 df3d 683e a83d 1652 803d fd77 06be
00000350: 5352 99bd 517a 073e f385 47bd eda2 b7bd
00000360: 653c b13b 52dc 34bd 1e24 ab3c c662 b0bd
00000370: 6a33 37bd 9c15 993d 9995 52be 04c3 253c
00000380: 00f7 dbbd c515 cdbc 05a6 393d 6c79 593d
00000390: 1786 2bbd ac06 c83d c4e5 98bd 57e0 303e
000003a0: ad6b 17bd 34f7 76bc d873 12bd 6732 ee3d
000003b0: 08e7 c8bd 5b69 c5bc e410 0e3e 9fc6 123d
000003c0: 958a 3b3b 6610 68bd 6bd8 edbd 0283 38bc
000003d0: 13a7 26be c57b 713d ce15 bcbc a3de 573d
000003e0: 325d 63bd 2504 41be 81e8 2ebd 8a61 0cbd
000003f0: 3a75 983b 75e6 2fbd 1f47 0b3c 6e99 38bd

transformer.layers.0.1.branch.4.bias f4 [8]
-0.020508185 0.20972359 0.11583718 0.1793915 -0.22358075 0.37048504 -0.06608998 -0.15342073
00000000: c800 a8bc c8c1 563e 0b3c ed3d 68b2 373e
00000010: 5af2 64be 37b0 bd3e 2f5a 87bd 531a 1dbe

transformer.layers.0.1.norm.gamma f4 [8]
0.11107277 0.045690678 0.14520991 0.059654225 0.12230845 0.15542252 0.0647533 0.075087085
00000000: 1f7a e33d 2626 3b3d e8b1 143e fd57 743d
00000010: da7c fa3d 1527 1f3e 619d 843d 42c7 993d

transformer.layers.1.0.static_alpha f4 [4, 5]
-0.03524592 1.0 0.0 0.0 0.0 -0.010490836 0.0 1.0
0.0 0.0 0.9246372 0.0 0.0 1.0 0.0 -0.11541272
0.0 0.0 0.0 1.0
00000000: 075e 10bd 0000 803f 0000 0000 0000 0000
00000010: 0000 0000 c1e1 2bbc 0000 0000 0000 803f
00000020: 0000 0000 0000 0000 06b5 6c3f 0000 0000
00000030: 0000 0000 0000 803f 0000 0000 815d ecbd
00000040: 0000 0000 0000 0000 0000 0000 0000 803f

transformer.layers.1.0.dynamic_alpha_fn f4 [8, 5]
-0.22823697 0.0 0.0 0.0 0.0 0.08866386 0.0 0.0
0.0 0.0 0.084832 0.0 0.0 0.0 0.0 0.18716241
0.0 0.0 0.0 0.0 -0.035539705 0.0 0.0 0.0
0.0 -0.060801644 0.0 0.0 0.0 0.0 0.1818499 0.0
0.0 0.0 0.0 -0.19329102 0.0 0.0 0.0 0.0
00000000: f4b6 69be 0000 0000 0000 0000 0000 0000
00000010: 0000 0000 6695 b53d 0000 0000 0000 0000
00000020: 0000 0000 0000 0000 66bc ad3d 0000 0000
00000030: 0000 0000 0000 0000 0000 0000 81a7 3f3e
00000040: 0000 0000 0000 0000 0000 0000 0000 0000
00000050: 1592 11bd 0000 0000 0000 0000 0000 0000
00000060: 0000 0000 250b 79bd 0000 0000 0000 0000
00000070: 0000 0000 0000 0000 dc36 3a3e 0000 0000
00000080: 0000 0000 0000 0000 0000 0000 15ee 45be
00000090: 0000 0000 0000 0000 0000 0000 0000 0000

transformer.layers.1.0.static_beta f4 [4]
0.9924367 0.9827797 0.98935497 1.018016
00000000: 5510 7e3f 7397 7b3f 5e46 7d3f 594e 823f

transformer.layers.1.0.dynamic_beta_fn f4 [8]
0.2760327 0.18809089 -0.2416911 0.08049107 0.16129649 -0.5662088 0.013832188 -0.099042416
00000000: 2854 8d3e e69a 403e df7d 77be 81d8 a43d
00000010: e82a 253e 0ff3 10bf 67a0 623c c0d6 cabd

transformer.layers.1.0.branch.norm.weight f4 [8]
0.81892496 0.7742754 0.86716986 0.9583963 0.9641505 0.7733084 0.77400243 0.81755036
00000000: 11a5 513f ea36 463f d8fe 5d3f 7659 753f
00000010: 91d2 763f 8af7 453f 0625 463f fb4a 513f

transformer.layers.1.0.branch.norm.bias f4 [8]
0.01416172 0.05789663 -0.06219579 -0.07152546 -0.065643124 0.016152196 0.021820838 0.03641332
00000000: 8f06 683c 0425 6d3d 03c1 7ebd f17b 92bd
00000010: e76f 86bd 9c51 843c 9dc1 b23c 2226 153d

transformer.layers.1.0.branch.to_qkv.weight f4 [192, 8]
-0.3637534 -0.11748831 -0.1498448 0.26087996 -0.37868568 0.32960936 -0.18691619 0.23396166
0.17236668 0.29404488 -0.23050238 -0.17406759 0.1295877 0.23812892 -0.21632835 0.08333929
0.1292192 0.07333649 -0.35222307 -0.24820267 -0.2858397 -0.14146201 -0.11931542 0.15788198
0.14317256 0.065514244 0.094384216 -0.22124691 -0.33415735 -0.2648275 -0.2504181 0.35603184
0.08154103 -0.13830946 -0.3339787 -0.15561715 -0.06305791 -0.16022386 -0.3916475 0.32427078
0.004337393 0.037066374 0.54930604 0.23620188 -0.15011963 0.008085667 -0.04369338 -0.3053347
-0.16005567 -0.027571106 -0.1343319 0.03343267 0.29409286 0.314748 0.022073144 0.34401157
-0.21406144 -0.40579298 0.3796866 -0.1521296 0.079570964 0.32280543 -0.110988766 0.054229114
0.3208681 0.32041365 -0.40874198 0.044323366 -0.16108711 -0.56184477 0.1723465 0.20249875
-0.30311242 0.023156893 -0.15872774 0.09562395 0.0706586 0.077744335 0.020945663 -0.28370112
-0.28787297 -0.14107928 0.06865142 0.2779958 -0.2475345 -0.054549247 0.21197103 0.29078653
-0.12968217 -0.015044214 -0.2650172 0.06576092 0.026334468 0.32183486 0.24927384 0.16937076
-0.016445713 -0.36921397 0.16727448 0.07923941 -0.31321615 -0.19334836 -0.41235888 -0.25918987
0.011783235 -0.21770558 0.090956375 0.035416115 0.27819315 -0.1164164 0.24277923 0.22806552
0.100490026 0.5913547 0.15324286 -0.05934351 0.16728644 -0.3454082 -0.25942752 0.21331084
0.16112728 -0.5214479 -0.15981387 -0.005280251 0.09768164 0.04509734 -0.011905779 0.08619591
0.30183253 -0.08606679 -0.0697996 -0.07076365 -0.08511512 -0.35315695 -0.34273 0.32128474
0.05159697 0.0010222174 0.24560109 0.20764357 -0.35654697 0.31107214 0.10270956 -0.1355718
-0.0068079717 -0.12975077 -0.237304 -0.04908916 0.013208713 0.14880767 0.19444813 0.44007576
0.3858946 0.3162789 0.036644924 0.10079336 -0.24489321 -0.41211164 0.36164045 -0.01767736
-0.048084553 0.00062885653 0.2024757 -0.047300577 0.27069858 -0.47925216 0.14139856 -0.20566146
-0.24653503 -0.09153065 -0.1349389 -0.22965328 -0.22918493 0.03248478 0.22129706 -0.06845037
-0.038048778 0.030066885 0.0033384045 0.18485536 0.2816397 -0.3696544 0.036549095 0.13956611
-0.17109959 0.3328718 -0.01913397 0.18898961 0.14712575 -0.042097166 0.3803078 0.13857129
-0.28757977 -0.009016038 -0.1836567 -0.04667455 0.14935413 -0.35565498 -0.13971335 0.026904382
-0.1386704 -0.16786921 0.18621315 -0.24095711 0.16900949 -0.36032543 0.11413546 -0.37232324
0.31611404 -0.03154024 -0.10235408 -0.26784435 -0.33976778 0.103057146 0.324826 0.19256833
0.19182627 -0.28342414 -0.15395269 0.01142584 -0.284014 0.07120066 -0.19065247 0.20035774
0.1839294 -0.13302313 0.23488879 -0.1678973 0.03731049 -0.012656957 0.51737964 0.16671741
0.14894706 0.21533892 -0.05438484 -0.21686916 0.21860771 -0.18290852 -0.22620882 0.14237605
0.20942259 0.13608877 0.2235737 -0.10886328 -0.11207489 -0.16752076 0.18640807 -0.27039936
0.32613206 -0.13590533 0.16580127 -0.08961223 0.1460648 -0.085696734 -0.3734335 -0.09958596
00000000: e33d babe b69d f0bd ea70 19be 0f92 853e
00000010: 17e3 c1be 8fc2 a83e f566 3fbe a593 6f3e
00000020: e480 303e 0d8d 963e d108 6cbe c63e 32be
00000030: a3b2 043e 11d8 733e 2e85 5dbe caad aa3d
00000040: 0a52 043e 7131 963d 9556 b4be d728 7ebe
00000050: 9559 92be 6bdb 10be a55b f4bd d0ab 213e
00000060: d49b 123e 552c 863d 834c c13d 8d8e 62be
00000070: ac16 abbe 7897 87be cd36 80be ce49 b63e
00000080: fcfe a63d ffa0 0dbe 42ff aabe 1a5a 1fbe
00000090: 8124 81bd b911 24be 0586 c8be d206 a63e
000000a0: b120 8e3b e9d2 173d 529f 0c3f e8de 713e
000000b0: f6b8 19be bf79 043c d4f7 32bd d454 9cbe
000000c0: a2e5 23be cddc e1bc 4d8e 09be b2f0 083d
000000d0: 5793 963e a626 a13e bdd2 b43c 4922 b03e
000000e0: ec32 5bbe 19c4 cfbe 4866 c23e ddc7 1bbe
000000f0: 1af6 a23d c146 a53e 144e e3bd 591f 5e3d
00000100: d348 a43e 420d a43e a146 d1be 6b8c 353d
00000110: 05f4 24be 0fd5 0fbf 9a7b 303e d55b 4f3e
00000120: 8d31 9bbe 86b3 bd3c 8689 22be 7dd6 c33d
00000130: 75b5 903d 6c38 9f3d 3d96 ab3c 4641 91be
00000140: 1664 93be 1677 10be 1e99 8c3d 7755 8e3e
00000150: af79 7dbe 086f 5fbd ef0e 593e f9e1 943e
00000160: 67cb 04be 027c 76bc 56b0 87be a9ad 863d
00000170: 62bb d73c 8ac7 a43e a441 7f3e 876f 2d3e
00000180: 29b9 86bc 9d09 bdbe 004a 2b3e 4648 a23d
00000190: de5d a0be 1dfd 45be b420 d3be 89b4 84be
000001a0: 780e 413c 36ee 5ebe 5647 ba3d 7d10 113d
000001b0: 556f 8e3e b96b eebd 1e9b 783e 028a 693e
000001c0: b7cd cd3d 0663 173f b2eb 1c3e 2e12 73bd
000001d0: 234d 2b3e 58d9 b0be afd3 84be 286e 5a3e
000001e0: 8dfe 243e 9c7d 05bf 3fa6 23be f505 adbb
000001f0: 500d c83d fdb7 383d 7510 43bc 7b87 b03d
00000200: cb89 9a3e c943 b0bd 18f3 8ebd 88ec 90bd
00000210: d650 aebd fdd0 b4be 4e7a afbe 6f7f a43e
00000220: 5857 533d edfb 853a da7e 7b3e 84a0 543e
00000230: 538d b6be d944 9f3e 6459 d23d 55d3 0abe
00000240: 6815 dfbb 63dd 04be d2ff 72be b711 49bd
00000250: 5c69 583c 0a61 183e 691d 473e 9c51 e13e
00000260: fa93 c53e 4fef a13e fd18 163d c06c ce3d
00000270: 49c5 7abe 4c00 d3be f028 b93e 1cd0 90bc
00000280: 4ff4 44bd d9d9 243a ca55 4f3e 40be 41bd
00000290: 0199 8a3e 8a60 f5be c9ca 103e eb98 52be
000002a0: ae73 7cbe 6c74 bbbd 6c2d 0abe 3b2a 6bbe
000002b0: 74af 6abe c30e 053d b29b 623e b52f 8cbd
000002c0: 09d9 1bbd d44e f63c 22c9 5a3b b94a 3d3e
000002d0: 1433 903e 5743 bdbe 81b4 153d 6bea 0e3e
000002e0: bb34 2fbe 2c6e aa3e d8be 9cbc 7e86 413e
000002f0: 22a8 163e 146e 2cbd b4b7 c23e a2e5 0d3e
00000300: a83d 93be 01b8 13bc 8110 3cbe d02d 3fbd
00000310: 4af0 183e 6918 b6be 0411 0fbe 9466 dc3c
00000320: 9dff 0dbe e8e5 2bbe a9ae 3e3e 76bd 76be
00000330: d310 2d3e 937c b8be dabf e93d 27a1 bebe
00000340: b3d9 a13e 5730 01bd 049f d1bd e522 89be
00000350: 0bf6 adbe a00f d33d 984f a63e a230 453e
00000360: 1b6e 443e f81c 91be c6a5 1dbe 7233 3b3c
00000370: 486a 91be a7d1 913d 673a 43be 942a 4d3e
00000380: fd57 3c3e 3737 08be b086 703e 45ed 2bbe
00000390: e2d2 183d 205f 4fbc fe72 043f f8b7 2a3e
000003a0: 9485 183e ce81 5c3e a3c2 5ebd f312 5ebe
000003b0: b3da 5f3e 5f4c 3bbe 49a3 67be 07cb 113e
000003c0: e072 563e db5a 0b3e 81f0 643e b6f3 debd
000003d0: 8587 e5bd 908a 2bbe c2e1 3e3e c971 8abe
000003e0: c8fa a63e c42a 0bbe cfc7 293e 9e86 b7bd
000003f0: 0392 153e c581 afbd ad32 bfbe b9f3 cbbd

transformer.layers.1.0.branch.to_out.weight f4 [8, 64]
0.13496011 -0.07329284 0.022552678 -0.025742954 0.03437248 0.0721895 -0.036381837 -0.10498086
0.15292293 0.05408171 -0.08724436 -0.030234562 -0.026267512 0.096542686 -0.06302134 -0.007670065
-0.109830044 0.08904311 -0.071985036 -0.008165174 0.13125475 0.021447927 0.04050466 -0.12587102
-0.15179841 0.0032826224 0.0038771168 -0.03989114 0.043041352 -0.15967584 -0.016152674 0.074854955
-0.023762751 -0.016283765 0.07263004 0.17417268 0.05675346 0.01925013 -0.03410851 0.08661091
-0.055135023 -0.07277121 0.015115609 -0.12165928 0.026522145 0.047336392 0.07178992 -0.11403897
-0.058429766 -0.0071240314 -0.15152933 0.07553886 0.020302529 -0.020922216 -0.047685202 -0.05282832
-0.068074994 -0.025308374 -0.069635 0.11281787 0.13713476 0.07899476 0.14212823 0.024407422
0.042425867 0.0508948 0.067749925 -0.032483906 -0.007974458 0.11370555 0.15822347 -0.07949836
0.030233644 0.1468855 0.03908061 0.0755097 0.094137356 0.014566375 -0.019912617 0.05535796
-0.07358201 -0.005151623 -0.08416345 0.13138008 0.055823002 0.068630435 0.13507847 -0.016664967
-0.010117139 0.10259572 -0.016048687 0.035794362 0.22115093 -0.14295551 0.023187544 0.01225482
-0.06862658 -0.07820039 0.03500444 0.03177534 -0.011465171 -0.0029700384 -0.111010164 0.03327048
0.018921468 -0.043326553 -0.070348464 0.030707465 0.062512495 -0.09517772 0.029027313 -0.024206989
-0.04573636 0.033830147 -0.026452187 0.07109765 0.071957596 -0.012414304 -0.01397799 -0.000595428
-0.15310353 0.06634076 0.015533491 0.018510405 0.074098475 -0.03572881 0.20358928 0.004920935
0.115741946 0.024119645 -0.03118954 -0.12693545 0.029254958 -0.12859029 0.15004939 0.11621708
-0.026178023 0.054871377 -0.09464323 -0.14280377 -0.12199044 0.004683628 -0.13197418 -0.025340911
0.115675114 0.13330415 0.07310524 -0.039087582 0.07887003 0.146045 -0.064992525 0.029953435
-0.017863609 -0.1255361 0.08470119 0.13320887 -0.11625305 0.17983289 -0.08109746 -0.046073817
0.04904605 -0.10251671 0.04053154 -0.032043 -0.11299579 -0.10196523 0.15128791 0.08652664
0.18455261 -0.12966423 0.087515905 0.08801465 -0.045258492 0.08218297 0.119975254 0.077105284
0.11140992 -0.1549791 -0.035393864 -0.042313315 -0.14655557 0.08865633 0.09445933 0.14115459
0.11862852 -0.067816876 -0.09341267 -0.05288079 -0.049852595 -0.03635276 -0.05459105 -0.0905095
0.12292977 -0.11830612 -0.006613626 -0.105932884 -0.059999548 0.018675905 -0.05135873 -0.05044034
0.0804627 0.038103454 -0.040325228 0.05759028 0.025072455 0.022165557 -0.0679478 0.117042035
-0.14692357 -0.104368284 0.07007217 0.034174368 0.053300157 0.034726124 -0.17652036 -0.044984154
0.027631978 -0.11552997 0.025988862 -0.029696835 0.04437487 -0.112481825 0.08462844 -0.036523424
0.010825633 -0.12736464 0.120341614 0.008935828 -0.08444795 -0.072189145 0.0029871627 -0.013373225
0.08277377 -0.07181322 0.09321261 0.06601253 0.06473349 0.050127678 -0.018642558 0.019100357
-0.066494495 -0.08566338 7.887477e-05 0.01800471 0.015989773 0.033259712 -0.0057967436 0.12492048
0.07619937 -0.046891242 -0.036648594 0.01773533 -0.05323229 0.0359375 0.013052289 -0.07943311
00000000: fc32 0a3e 8e1a 96bd 65c0 b83c e3e2 d2bc
00000010: 28ca 0c3d 17d8 933d 1f05 15bd 3500 d7bd
00000020: d497 1c3e c884 5d3d 2cad b2bd 79ae f7bc
00000030: f72e d7bc 2cb8 c53d 5511 81bd 2b55 fbbb
00000040: 93ee e0bd 3c5c b63d e46c 93bd 39c7 05bc
00000050: a567 063e 90b3 af3c 37e8 253d 55e4 00be
00000060: 0b71 1bbe 4421 573b 3a17 7e3b e464 23bd
00000070: 214c 303d 1082 23be 9d52 84bc 8e4d 993d
00000080: 1aaa c2bc 8865 85bc 0fbf 943d 535a 323e
00000090: 5176 683d 73b2 9d3c 5db5 0bbd 1061 b13d
000000a0: 43d5 61bd 1209 95bd 76a7 773c 8028 f9bd
000000b0: f844 d93c cee3 413d 9806 933d 438d e9bd
000000c0: 0d54 6fbd b570 e9bb 812a 1bbe 1eb4 9a3d
000000d0: 7d51 a63c 1165 abbc 8f51 43bd 8262 58bd
000000e0: e76a 8bbd 8253 cfbc cb9c 8ebd 0e0d e73d
000000f0: 0e6d 0c3e 01c8 a13d 108a 113e 13f2 c73c
00000100: bfc6 2d3d 1177 503d 79c0 8a3d d80d 05bd
00000110: 4da7 02bc 75de e83d 5505 223e 09d0 a2bd
00000120: 8cac f73c 2769 163e fd12 203d d4a4 9a3d
00000130: 16cb c03d cea7 6e3c c91f a3bc 07bf 623d
00000140: 2ab2 96bd f2ce a8bb e35d acbd 8088 063e
00000150: a9a6 643d 1d8e 8c3d 0352 0a3e f884 88bc
00000160: 5bc2 25bc b41d d23d 8978 83bc 1c9d 123d
00000170: 6475 623e ee62 12be cef3 bd3c 71c8 483c
00000180: 188c 8cbd 8727 a0bd d160 0f3d dc26 023d
00000190: 6ad8 3bbc faa4 42bb 4c59 e3bd a046 083d
000001a0: 3201 9b3c 2f77 31bd db12 90bd 398e fb3c
000001b0: 8d06 803d 89ec c2bd b0ca ed3c bc4d c6bc
000001c0: 0d56 3bbd 7b91 0a3d 42b2 d8bc a59b 913d
000001d0: 815e 933d 5d65 4bbc f003 65bc 7f16 1cba
000001e0: 2cc7 1cbe aadd 873d 2f80 7e3c 22a3 973c
000001f0: f1c0 973d 5f58 12bd b579 503e cb3f a13b
00000200: 1d0a ed3d 9096 c53c 3581 ffbc 5efb 01be
00000210: 18a8 ef3c 2cad 03be 8ca6 193e 3803 ee3d
00000220: 4b73 d6bc cfc0 603d 4fd4 c1bd 273b 12be
00000230: 20d6 f9bd 1f79 993b 3d24 07be be97 cfbc
00000240: 13e7 ec3d e280 083e 33b8 953d 4d1a 20bd
00000250: 9c86 a13d d28c 153e cd1a 85bd e860 f53c
00000260: b456 92bc 898c 00be d177 ad3d e867 083e
00000270: 1416 eebd 1d26 383e 6d16 a6bd e6b7 3cbd
00000280: 83e4 483d 48f4 d1bd 6604 263d 853f 03bd
00000290: 566a e7bd 26d3 d0bd 38eb 1a3e e134 b13d
000002a0: 5cfb 3c3e b3c6 04be 8a3b b33d 0641 b43d
000002b0: f860 39bd 8c4f a83d 96b5 f53d 60e9 9d3d
000002c0: e22a e43d d7b2 1ebe 28f9 10bd ba50 2dbd
000002d0: aa12 16be 7391 b53d e573 c13d d48a 103e
000002e0: 82f3 f23d 93e3 8abd 244f bfbd 8799 58bd
000002f0: 3c32 4cbd a2e6 14bd dd9a 5fbd 0b5d b9bd
00000300: 9ac2 fb3d 7b4a f2bd 1eb7 d8bb 57f3 d8bd
00000310: 16c2 75bd 36fe 983c 885d 52bd 889a 4ebd
00000320: a1c9 a43d 5e12 1c3d 112c 25bd c9e3 6b3d
00000330: c064 cd3c 8b94 b53c 3728 8bbd bcb3 ef3d
00000340: 2273 16be 0abf d5bd ff81 8f3d 6cfa 0b3d
00000350: 4451 5a3d fb3c 0e3d c1c1 34be 4e41 38bd
00000360: 755c e23c fa9a ecbd 98e6 d43c c746 f3bc
00000370: 6cc2 353d df5c e6bd ad51 ad3d 9699 15bd
00000380: ff5d 313c e06b 02be aa75 f63d 9467 123c
00000390: 0cf3 acbd e7d7 93bd 46c4 433b 5f1b 5bbc
000003a0: 4b85 a93d cf12 93bd 41e6 be3d 9431 873d
000003b0: fe92 843d ae52 4d3d 47b8 98bc 5a78 9c3c
000003c0: 442e 88bd 4870 afbd 9269 a538 9d7e 933c
000003d0: fcfc 823c 563b 083d 9cf2 bdbb 4fd6 ff3d
000003e0: 6a0e 9c3d 0811 40bd d61c 16bd af49 913c
000003f0: 1a0a 5abd 3333 133d 45d9 553c d4ad a2bd

transformer.layers.1.0.norm.gamma f4 [8]
0.28743047 0.0173154 0.20707163 0.021228159 0.12931004 0.446195 0.05899497 0.036192823
00000000: 162a 933e 07d9 8d3c 960a 543e ade6 ad3c
00000010: da69 043e ac73 e43e b6a4 713d ed3e 143d

transformer.layers.1.1.static_alpha f4 [4, 5]
0.5854744 1.0 0.0 0.0 0.0 0.25196537 0.0 1.0
0.0 0.0 0.13504107 0.0 0.0 1.0 0.0 -0.010952441
0.0 0.0 0.0 1.0
00000000: a6e1 153f 0000 803f 0000 0000 0000 0000
00000010: 0000 0000 9b01 813e 0000 0000 0000 803f
00000020: 0000 0000 0000 0000 3548 0a3e 0000 0000
00000030: 0000 0000 0000 803f 0000 0000 de71 33bc
00000040: 0000 0000 0000 0000 0000 0000 0000 803f

transformer.layers.1.1.dynamic_alpha_fn f4 [8, 5]
-0.13434212 0.0 0.0 0.0 0.0 0.04520687 0.0 0.0
0.0 0.0 0.2883014 0.0 0.0 0.0 0.0 0.10539994
0.0 0.0 0.0 0.0 -0.31671143 0.0 0.0 0.0
0.0 0.14588019 0.0 0.0 0.0 0.0 0.020432472 0.0
0.0 0.0 0.0 -0.07208925 0.0 0.0 0.0 0.0
00000000: fb90 09be 0000 0000 0000 0000 0000 0000
00000010: 0000 0000 d72a 393d 0000 0000 0000 0000
00000020: 0000 0000 0000 0000 3e9c 933e 0000 0000
00000030: 0000 0000 0000 0000 0000 0000 ecdb d73d
00000040: 0000 0000 0000 0000 0000 0000 0000 0000
00000050: 0028 a2be 0000 0000 0000 0000 0000 0000
00000060: 0000 0000 9e61 153e 0000 0000 0000 0000
00000070: 0000 0000 0000 0000 0062 a73c 0000 0000
00000080: 0000 0000 0000 0000 0000 0000 87a3 93bd
00000090: 0000 0000 0000 0000 0000 0000 0000 0000

transformer.layers.1.1.static_beta f4 [4]
1.0675964 1.0069067 1.004175 0.989885
00000000: 00a7 883f 52e2 803f ce88 803f 1a69 7d3f

transformer.layers.1.1.dynamic_beta_fn f4 [8]
-0.05188693 0.25551295 -0.058408257 0.020244157 0.0019967642 -0.05929486 0.062386803 -0.03906462
00000000: 6487 54bd 98d2 823e 7f3d 6fbd 13d7 a53c
00000010: 25dc 023b 2bdf 72bd 4e89 7f3d 3902 20bd

transformer.layers.1.1.branch.0.weight f4 [8]
1.0037656 0.9905213 1.0149689 1.0419927 0.94983935 0.91767573 0.9742679 1.037219
00000000: 647b 803f ce92 7d3f 80ea 813f 0460 853f
00000010: ac28 733f ccec 6a3f 9f69 793f 98c3 843f
