Projektarbeit_FTTransformer/trained_models/physical_loss_training/model_lr0.00025_8_1_4_4_.3_.3PhysicsLambda4_date_20250811_epoch10000.pt (torch, 99552 bytes, 87 tensors)

cls_token f4 [1, 1, 8]
00000000: cde4 033f 37db 22bf 07b8 b73e dc89 34bf
00000010: 2521 26bf 5104 283f d1bc 1dbf 120d a4be
0.51521 -0.63615745 0.3588259 -0.70522857 -0.64894325 0.65631586 -0.61616236 -0.32041222

categorical_embeds.weight f4 [3, 8]
00000000: 447b 84bf 682c 9dbf 6c56 b53e 20be f4bd
00000010: a416 2a3f cfbd 4cbe 9bc8 b0be a0bc b73f
00000020: 4d83 ce3e a581 82bf 284d af3d 5f8d b03c
00000030: f3e0 13bf d8ce 1bbe d575 00c0 ac7c 1fbf
00000040: 199c 263d 1f76 98be 3e8e a3bd 934b 413e
00000050: 38d5 503f bf21 383e ebf3 bbbf d1f2 71bf
-1.0350118 -1.2279177 0.35417497 -0.11950326 0.66440797 -0.19994281 -0.3452805 1.4354439
0.4033455 -1.0195814 0.08559638 0.021551786 -0.5776512 -0.15215623 -2.007192 -0.6229961
0.04067621 -0.2977762 -0.07986115 0.18876486 0.81575346 0.17981623 -1.4683813 -0.94511133

numerical_embedder.weights f4 [8, 8]
00000000: 94c1 e7be 0ae6 adbd 46d6 953f 8863 b2be
00000010: e790 f23f c619 883f 8e8f 8dbe 8da6 263f
00000020: 137a e3bb bf37 05bf c971 563f b40a 9cbf
00000030: 08f2 473f 1817 a0be 30e7 91bf 4fce 973f
00000040: 80f2 22bf 2346 823f cfa1 ff3f fa3e a9be
00000050: 68be d3be dafd 63bf 7ee1 023e 6220 7e3e
00000060: f0cd d83d f625 d23e ce2a de3e 9373 8ebf
00000070: bb21 1a40 1359 443f 1659 793f be26 813f
00000080: bf6a a73f 1dec 17bf d463 873e 3dd2 cd3e
00000090: 9ab8 db3d 5da2 a53f 54b1 ccbf 60b7 893f
000000a0: 5899 bc3f d516 0f3f eb8b 73bf d6c4 953b
000000b0: 0fd9 e0bd 22b7 4e3f d666 8cbe 7800 2e3f
000000c0: 3983 ebbf bfcc 77be 1d2f f13e 4247 6cbf
000000d0: dca4 bdbf b53e c73f 74ff 5c3f 831d a43d
000000e0: 2176 fb3d c3f8 1e3f 3220 5bbf f140 d6be
000000f0: 0c3a d33f cba1 903f 5719 b0bf 1e65 9d3e
-0.45264876 -0.08491142 1.1706016 -0.3484156 1.8950471 1.0632865 -0.27648586 0.65097886
-0.0069420426 -0.52038187 0.8376737 -1.2190766 0.78103685 -0.3126762 -1.1398678 1.1859835
-0.63651276 1.0177654 1.9971255 -0.3305586 -0.41356206 -0.8905922 0.12781331 0.2481704
0.105861545 0.41044587 0.43392032 -1.112902 2.4083087 0.76698416 0.9740156 1.0089948
1.3079451 -0.59344655 0.2644335 0.40199462 0.10728569 1.2940174 -1.5991616 1.0759087
1.4734297 0.55894214 -0.9513537 0.004570584 -0.10978901 0.8074819 -0.27422208 0.67969465
-1.8399421 -0.24199198 0.47106257 -0.9229623 -1.4815936 1.5566012 0.8632729 0.080134414
0.12278391 0.6209833 -0.85596 -0.4184642 1.650209 1.1299375 -1.3757733 0.3074121

numerical_embedder.biases f4 [8, 8]
00000000: 0c45 a33f 497e 04bf 75ab 71bf ce14 de3e
00000010: 7dd3 45bf 3d97 bbbf 7ca1 39c0 407d 17bf
00000020: ebf6 44bf 5f5b df3f 1bfb d83f 0e30 81bf
00000030: 26c5 c7be 0d43 303f ecc5 eabf eb49 97be
00000040: a55a 76be a861 2abf 88db 0240 a173 23bf
00000050: 0cb4 59bf 0950 d23c d922 de3e f90b d7be
00000060: 201c c4bd c308 d9bd 1c7d 9e3f ed6c d73e
00000070: 1d05 733f 71ea 9f3f fcb1 a6bf 38c7 983e
00000080: a658 a7be 0d85 483b 7957 7dbf 8082 01bf
00000090: cda3 5d3d 10b5 72be 91d6 313f 460f a43d
000000a0: 445b 8d3f bd21 9b3e 4936 2bbe 8650 aebf
000000b0: cac6 7dbf 6c01 993f 64d3 4d3f de6c 80be
000000c0: 7566 8c3e 36ac c83f 7cf8 9cbe 2c50 a63e
000000d0: 82b9 653e efdb 9cbe addd 633e 388b 93be
000000e0: d02e da3f 2743 b0bf 62ec 9d3f 8615 3ebf
000000f0: 0736 893e 5f07 0c3f 1879 f63e 8416 c13f
1.2755446 -0.51755196 -0.9440225 0.43375248 -0.7727583 -1.4655529 -2.9004812 -0.5917549
-0.76939267 1.7449759 1.6951631 -1.009279 -0.390176 0.6885231 -1.8341651 -0.29548582
-0.24058016 -0.6655526 2.0446491 -0.6384831 -0.85040355 0.02567293 0.43385962 -0.42001322
-0.09575677 -0.10597374 1.238193 0.4207529 0.9492968 1.2493421 -1.3023067 0.29839492
-0.3268482 0.0030596883 -0.989616 -0.5058975 0.05411129 -0.23701882 0.6946803 0.08010726
1.1043477 0.30299178 -0.16719927 -1.3618324 -0.99131453 1.1953559 0.8040068 -0.2508306
0.2742192 1.5677555 -0.3065833 0.3248304 0.22434047 -0.30636546 0.22252531 -0.28817153
1.7045536 -1.3770493 1.2337763 -0.7425159 0.26799032 0.5469875 0.48139262 1.5084996

transformer.layers.0.0.static_alpha f4 [4, 5]
00000000: 092f 603e 0000 803f 0000 0000 0000 0000
00000010: 0000 0000 092f 603e 0000 0000 0000 803f
00000020: 0000 0000 0000 0000 d805 9c3f 0000 0000
00000030: 0000 0000 0000 803f 0000 0000 092f 603e
00000040: 0000 0000 0000 0000 0000 0000 0000 803f
0.21892942 1.0 0.0 0.0 0.0 0.21892942 0.0 1.0
0.0 0.0 1.2189283 0.0 0.0 1.0 0.0 0.21892942
0.0 0.0 0.0 1.0

transformer.layers.0.0.dynamic_alpha_fn f4 [8, 5]
00000000: e4a9 12bd 0000 0000 0000 0000 0000 0000
00000010: 0000 0000 f06f dc3d 0000 0000 0000 0000
00000020: 0000 0000 0000 0000 6caa 1d3e 0000 0000
00000030: 0000 0000 0000 0000 0000 0000 0851 7dbe
00000040: 0000 0000 0000 0000 0000 0000 0000 0000
00000050: 6023 4fbe 0000 0000 0000 0000 0000 0000
00000060: 0000 0000 2fab 933e 0000 0000 0000 0000
00000070: 0000 0000 0000 0000 a507 653d 0000 0000
00000080: 0000 0000 0000 0000 0000 0000 79b3 8f3b
00000090: 0000 0000 0000 0000 0000 0000 0000 0000
-0.03580655 0.0 0.0 0.0 0.0 0.10763538 0.0 0.0
0.0 0.0 0.15397042 0.0 0.0 0.0 0.0 -0.24737942
0.0 0.0 0.0 0.0 -0.20228338 0.0 0.0 0.0
0.0 0.2884154 0.0 0.0 0.0 0.0 0.055915494 0.0
0.0 0.0 0.0 0.0043854085 0.0 0.0 0.0 0.0

transformer.layers.0.0.static_beta f4 [4]
00000000: 0b8b 723f 6a18 873f 090a 833f c698 7b3f
0.9474341 1.0554326 1.0237437 0.9827999

transformer.layers.0.0.dynamic_beta_fn f4 [8]
00000000: 6454 4c3e 7d55 483e df53 0dbe db8c f4bc
00000010: 2245 523e 9ef4 123e eae4 543d 93ab 643e
0.19954067 0.19563861 -0.13801526 -0.029852321 0.20534185 0.14351127 0.051976122 0.22331075

transformer.layers.0.0.branch.norm.weight f4 [8]
00000000: fa9c 913f 65a1 8c3f 61c7 9f3f 5b56 a13f
00000010: e974 803f 8cad 963f eb20 8a3f 3278 713f
1.137603 1.0986754 1.2482721 1.2604479 1.0035678 1.1771712 1.0791296 0.9432403

transformer.layers.0.0.branch.norm.bias f4 [8]
00000000: 2693 f2bb 5962 c3ba 7430 f13d 3237 5bbe
00000010: 9e88 b33b a1b7 f23d 3d71 03be cf48 723d
-0.0074027954 -0.0014906629 0.1177682 -0.21407774 0.0054789325 0.11851431 -0.12836166 0.059151467

transformer.layers.0.0.branch.to_qkv.weight f4 [192, 8]
00000000: 4b56 89be d37c 333c 78e5 003e 23d9 0d3f
00000010: ba02 c13e 48cf adbd a4b3 d13e e06a 683e
00000020: 5886 a93e caec f93d 9cb2 55be 574e a43e
00000030: ebf8 05bd f309 66bd eeb0 44be 7480 61be
00000040: 26ce c13e 08d1 c5be e764 2e3e c429 5abe
00000050: b8e3 8cbd 5878 1ebe 1c9f 74be 81ff b43d
00000060: a9b5 b43e f725 b5be 2acf ed3e 672b 0abd
00000070: 9114 07bf 78a5 e23d 3eeb a0be 1338 d83d
00000080: 34bc f1bd fee3 cf3e 8d85 963e 2290 a43d
00000090: bb44 6d3e 754c ccbe 8f4c 483e 88ca 89be
000000a0: d2fc 963e 21d4 b53d dfcd 253d d904 b0be
000000b0: 63ad 8d3e fc18 013d d3a0 b3be 475b a1be
000000c0: a63c 3abf 421b e03e 3f6a 67be 62e8 183f
000000d0: c037 a33c 4a6f 6ebe bac3 793d 9970 ee3c
000000e0: 361c b63e 265d df3c 148b 8fbd bdc2 34be
000000f0: f9b4 95be 9536 14be 763d 89bd 4739 3c3e
00000100: 5812 d23e 3c4d 503e 1d07 163e 2643 3cbe
00000110: 3040 93be 7704 c03e a2f5 ec3c bdb9 bfbe
00000120: 46ec 4cbe 60fb 28be b95f 6ebe 4f75 563d
00000130: f7b8 313d 57eb b1be dff2 083e 2890 95be
00000140: 1ad2 a0bd c95a c23e bc59 24be ed38 b83e
00000150: f9cb a03e b341 163e 5182 c8bd ae09 c4bd
00000160: 1a78 863d 8ae8 913e 5ce5 893e 7e1d aa3e
00000170: bb52 303e 4039 e2bd ee1b 2cbd 3de8 b7be
00000180: ca07 4b3e eb1e 3f3d 063d cfbd a981 46be
00000190: 1c8f ddbe 6d20 6f3e 16ba 2dbe 9a3b 6fbe
000001a0: 3eea 483e fe7b 563d e835 4abe 5084 983d
000001b0: 528f 4fbe 1b53 4ebe 4934 dd3e 5d1b a7be
000001c0: 8979 583d f19d b5be aaab b73e 8431 afbe
000001d0: 8175 acbe ef93 013e 8fa0 16be b092 653e
000001e0: ff04 e1bd 676c 9bbd db3b 193e 8461 81bc
000001f0: 750c adbe 1a61 a63e d065 98be 4cd6 b0be
00000200: 6d8a dbbe 0fe4 173d 655d 8dbe e65b 303e
00000210: be67 c23e 4d5b f23d 01ef 033f aac8 1a3e
00000220: 817f 53bd c3e7 a63e 76b7 edbe 9deb c53d
00000230: b324 9e3e a501 78be 040a 303e 6a8f c0bd
00000240: 7373 12bf 2ce1 e23e a2b1 a2bd c9bd 043f
00000250: 8258 b03b 8004 94bd b8a6 b63e 1968 cabd
00000260: 1e52 85be cd67 963e 0421 0dbe 3ef2 973b
00000270: 4754 20bd f248 92bc 0afb 01be 908a a13e
00000280: 2e1a 5cbe a6cf 833e cbab 6b3e f723 903d
00000290: 5aad 54be 823a 9cbe 68e4 e23d 3f85 b5be
000002a0: 900e 1d3d cc6c babd 06db 14bd 51a1 94be
000002b0: 60df 033c c284 ef3e 0eef 89be 5706 a43d
000002c0: 6634 ba3e c2c8 833e 06b0 b53e 03e2 acbe
000002d0: 4685 a3be 0f9d c43e 73a4 01be 0bd6 88be
000002e0: fbff b13e b793 303e 7f4d 643e a060 32be
000002f0: 0da6 e5bd 1f44 793e 689b 9ebd 5d32 16be
00000300: 7fca bb3e d15c 833e 4edf abbc b1c8 80be
00000310: d8df dfbd d48f abbe 075a a3be c31a 9e3e
00000320: d033 623d 5e69 053e faf2 00bf 15c6 2b3e
00000330: df5d 873e 23fb 28bf 8b6c 9b3e 00ab 1b3e
00000340: 27cf dabd 13e2 ab3d a9cd 92bc 9180 5abe
00000350: be58 65be dac5 babd d4cf 10be 33f0 8c3e
00000360: abd3 23be 01bb 723e 704a e1be f2b1 8e3e
00000370: af38 1b3e eec4 16be fd98 7d3e e2ca 1bbe
00000380: 3110 cdbe 167a 063f 6ac4 efbe 0209 f63e
00000390: 1c49 36be e58d 77bd 6965 0f3f b9c0 963e
000003a0: 04ab fb3e 234e 273e 4df4 683c 24bb fcbe
000003b0: 53a5 b8be 7629 cd3e 40b5 28be 41b0 96be
000003c0: 6c38 be3e 0f8a 593c e620 a7bd 31f8 14bf
000003d0: dd2e 27be be44 fd3e 8adb 9abd c785 bcbe
000003e0: 5033 cabe 76f5 ea3e 898a 43be 5b77 893e
000003f0: 9e11 a43e d461 88be cefa 113e 5f68 1cbe
-0.2682365 0.010955053 0.12587535 0.5540945 0.37697393 -0.084868014 0.40957367 0.2269702
0.3311031 0.12203367 -0.20868915 0.3209102 -0.03270809 -0.056161832 -0.19208118 -0.22021657
0.3785259 -0.3863604 0.17030679 -0.21304995 -0.068793714 -0.15475595 -0.2388882 0.08837796
0.35294846 -0.35380527 0.46447116 -0.033732798 -0.52765757 0.11066717 -0.31429476 0.1055757
-0.11803475 0.40603632 0.29398766 0.08035304 0.2317075 -0.39902082 0.19560455 -0.26912332
0.29489762 0.08878351 0.040479537 -0.34378698 0.27671346 0.031517968 -0.35083637 -0.31514952
-0.7274879 0.43770796 -0.22599123 0.5972959 0.019924045 -0.23284641 0.060977675 0.029106425
0.35568398 0.027266096 -0.07008949 -0.17652412 -0.29239634 -0.14473946 -0.06701176 0.18381225
0.4102962 0.20341963 0.14651151 -0.1838499 -0.2875991 0.37503406 0.02892572 -0.37446395
-0.20012006 -0.16502142 -0.23278703 0.052357968 0.043389287 -0.34749863 0.13373898 -0.29211545
-0.07852574 0.3795989 -0.16049856 0.3598093 0.3140562 0.146735 -0.09790481 -0.09572159
0.06565876 0.28497726 0.269328 0.33225626 0.17219059 -0.11046076 -0.042018823 -0.3591937
0.1982719 0.046660345 -0.10119061 -0.19385399 -0.43273246 0.23352213 -0.16965517 -0.2336258
0.19620606 0.052364342 -0.19747126 0.074471116 -0.20269516 -0.2014889 0.43203953 -0.32638064
0.05285028 -0.35472062 0.35873157 -0.34217465 -0.33683398 0.12654088 -0.14709686 0.22419238
-0.10987281 -0.075890355 0.1496424 -0.01579357 -0.33798566 0.32495958 -0.29765177 -0.34538496
-0.42879048 0.037082728 -0.27610317 0.17222556 0.37969774 0.118338205 0.51536566 0.1511561
-0.05163527 0.32598695 -0.46429032 0.0966408 0.30887374 -0.24219377 0.1719132 -0.09402354
-0.5720741 0.44312418 -0.07944037 0.5185209 0.0053816447 -0.07227421 0.3567407 -0.09883136
-0.26039213 0.2937607 -0.13782126 0.004637032 -0.039142873 -0.017857049 -0.1269342 0.31551027
-0.21494362 0.2574436 0.23014753 0.0703811 -0.20769253 -0.30513388 0.11078721 -0.3545322
0.038343966 -0.091027826 -0.03634169 -0.29029325 0.008048862 0.46780974 -0.26940197 0.08009022
0.36368102 0.25739104 0.35485858 -0.33766183 -0.31937617 0.38401076 -0.12660389 -0.26725802
0.3476561 0.17243849 0.22295187 -0.17419672 -0.11213312 0.24342392 -0.07744485 -0.1466765
0.3667793 0.2565675 -0.020980503 -0.25153115 -0.10931367 -0.3350817 -0.31904623 0.30879793
0.055225194 0.13028476 -0.5037075 0.16774781 0.26438805 -0.66008204 0.3035625 0.1520195
-0.106840424 0.083927296 -0.017920332 -0.21338107 -0.22397134 -0.091197684 -0.1414178 0.27527007
-0.15998714 0.23704149 -0.44002104 0.27870136 0.15158342 -0.1472356 0.24765392 -0.15214112
-0.40051416 0.5253004 -0.4682954 0.48053747 -0.17801327 -0.060438056 0.56014115 0.2944391
0.49153912 0.163384 0.014218402 -0.49361527 -0.36063632 0.40070695 -0.16475391 -0.29431346
0.3715242 0.013277545 -0.08160572 -0.5819121 -0.1632647 0.4946651 -0.07561405 -0.36820814
-0.39492273 0.45890397 -0.19095816 0.26848873 0.3204469 -0.26637137 0.1425583 -0.1527419

transformer.layers.0.0.branch.to_out.weight f4 [8, 64]
00000000: e825 9dbd 58be a03d 31bb 9fbd 92f4 60bd
00000010: d60b 9ebd 0282 83bd 1287 febd d41f 193e
00000020: 18aa 5dbd a45a a73d 8449 003e 53a7 c3bc
00000030: 271b 8d3d 40b7 adbb 560c 843d 62b4 313d
00000040: a028 413d 0ef6 b4bc 7d6f cc3d e488 77bd
00000050: 374a b13d 2903 013e 729f ebbc 1cf9 4c3d
00000060: cb56 a43d d30c 223e 54db 573d a92e 253e
00000070: 4bc6 3bbc c235 af3d bfae a8bc 661e 973d
00000080: 96db 10be e81e 01be 3b34 a3bd cfd5 d03c
00000090: ca5c bc3d f995 31bc 46b4 e2bd dbd4 103e
000000a0: 9525 c93b cc3c 83bd d47d 923d 91d6 86bd
000000b0: ba97 92bd c57b 213d 3195 abbd 3ca6 b1bb
000000c0: 3ca8 17bd 1cd2 d23d 6875 eabd 00c9 01bd
000000d0: 4e72 8c3b b54a f63d 4516 a13c eb88 803b
000000e0: 083a 5e3d 7562 473d 4cfc ad3d a9c8 98bd
000000f0: 9632 d33d 4b44 dd3c 5760 82bd 196c 28bc
00000100: d7fd 6b3e 73f9 34bc adea 48be dc75 d03d
00000110: 84db e13d 162b cebd 60b4 24be cd45 973d
00000120: de06 bf3d 7840 b7bd 3efe f8bd ebe2 3f3e
00000130: ff92 113d bdf8 fabd 37f1 6bbe 2a76 713e
00000140: 9cb1 023e 158a 07bf aa31 f93c 075c 9f3e
00000150: b355 dbbd 26f8 86bd 4c90 0f3e 8f9e 0d3e
00000160: 40f5 0abe 29f5 8bbd c656 fbbe c33c ffbe
00000170: 5da8 10be f23e 12bf 11c4 d9bd fe21 38be
00000180: 262b 52be ba9f b13d 38e8 55be 5d24 02bc
00000190: 5a51 85bb 920c 993e d490 d03d c085 15bc
000001a0: 0681 41be 2d7d 623d 2fbc bdbd 04d9 483d
000001b0: 1be4 acbc f2cd b6bb 8826 51bd df93 c8bd
000001c0: 9a1e 98bd 1464 43be 0c1c 1cbe d812 193e
000001d0: c23f e0bc 77f4 18bc a0a2 b7bc 4e34 123e
000001e0: b346 01bd 6ec6 18bc c1e2 babd 3e21 963c
000001f0: 343e d83d bbbc b23c 5bf0 753e 9682 263d
00000200: 254d bcbd 4c1a 683d a6d0 383e 555a 04bb
00000210: 806b 20bd f1a9 ca3d b372 3a3e b1e3 fbba
00000220: d8fb b5bd 10e9 423e b85c aa3d 7b99 6ebd
00000230: 1686 5abe 5bb3 c73d 03d4 203e 2046 39be
00000240: c18c e8bd 5de8 463e 2fce 6c3d fc8b 36be
00000250: 5148 353e 86fd 013d 2623 0abe 8b18 6abe
00000260: 8556 bb3d c23c 403e 8af5 e63e 51cb c93e
00000270: 7fa6 a43d 7639 303e ec68 903d b1d8 7e3d
00000280: 84b6 0e3e 8c5c 803c 7723 253e 9cb6 123e
00000290: 894e 8cbd a2ec 4bbe 8aa5 4bbd 2529 c5bd
000002a0: 39cb d23d 378a 593d 2683 763d b697 3fbe
000002b0: 444e 093e f95a 12bd 2e0d 15be 27d3 26bd
000002c0: 81b8 c73d a9ef 8a3d 652c 633d 1ef7 0dbe
000002d0: cb20 9a3b e4d5 16be a9bd de3d a2a4 e0bd
000002e0: 52f6 8e3d 33cc 8e3d c48f 683e 2109 b3bc
000002f0: 7d0e 25bc 0af4 debd 18f1 2dbe 8689 9a3d
00000300: 05d0 15bd 952e 5a3d 1c89 893c 94d3 183d
00000310: a961 983c 8515 32bc 8776 0fbd 9996 c63d
00000320: baba 8b3d 7626 453d aea3 f5bc 9f39 983a
00000330: dc67 19bd 5edd 533c bbec 0dbe bd95 9cb9
00000340: b5c9 023d ddfe 433e 91e5 e8bc 58c6 79be
00000350: faa4 143d 3e80 813d bd54 8d3d 2c95 05be
00000360: 63bd c03d 8b81 893c 6380 7c3e e8b0 4b3e
00000370: 942c 933b b728 1f3f ddb2 903c 97a4 eb3c
00000380: d7d7 143d d7f6 a53b d2ba b33c d97e 9b3d
00000390: 0864 c4bc 5a83 1bbe caa5 9e3b 6c0e 7b3d
000003a0: 1638 05bd b208 4abd 240f ee3d 5117 763e
000003b0: 0d29 0dbe 6249 e93d 119f 533d a65c bfbd
000003c0: 8f17 eebc 6fdb 99bd 9ea8 15bd 6f29 e8bd
000003d0: 1ee9 243d 0cec 9fbd 3748 033e 8b24 c9bd
000003e0: fbe7 b5bd 586c 4f3d e9ac d03d a105 ae3c
000003f0: f088 3dbc 7675 d1bd 3306 1ebe 7042 67bd
-0.07673246 0.07848805 -0.07799376 -0.05492074 -0.07717101 -0.064212814 -0.12428106 0.14953548
-0.054117292 0.08171585 0.12528044 -0.023883497 0.068899445 -0.005301386 0.064476654 0.043384917
0.047157884 -0.022089984 0.09982202 -0.060433283 0.086567335 0.12598862 -0.028762553 0.050042257
0.08024367 0.15825205 0.052699402 0.1613108 -0.011460851 0.08555175 -0.020591138 0.07378845
-0.14146265 -0.12609446 -0.079689465 0.025492577 0.091973856 -0.010838979 -0.11069541 0.14143698
0.0061385133 -0.064080805 0.07152906 -0.06583894 -0.07157846 0.039424676 -0.083780654 -0.005421428
-0.037025675 0.102939814 -0.11448175 -0.03168583 0.004286087 0.12025968 0.01966394 0.003922572
0.05425456 0.04867788 0.084953874 -0.07460148 0.10312383 0.027010104 -0.063660316 -0.010279679
0.23046051 -0.011045801 -0.19620772 0.1017873 0.110281974 -0.10066812 -0.16084433 0.0738636
0.09327482 -0.08947843 -0.12157868 0.18738906 0.035540577 -0.12254474 -0.23041235 0.23580232
0.12763065 -0.5294507 0.03041919 0.311249 -0.10709705 -0.06590299 0.14019889 0.13830017
-0.13570118 -0.0683387 -0.4908964 -0.49851045 -0.14126725 -0.57127297 -0.106331 -0.17981717
-0.20524272 0.086730435 -0.20889366 -0.00794324 -0.0040685358 0.29892403 0.10183874 -0.009126127
-0.18896875 0.05529516 -0.09264409 0.049035087 -0.021104863 -0.00557875 -0.051062137 -0.09793829
-0.07427712 -0.19081146 -0.15245074 0.14948595 -0.027374152 -0.009335629 -0.022416413 0.14277765
-0.031561565 -0.009324653 -0.09125281 0.018326398 0.10558739 0.02181851 0.2401747 0.04065188
-0.09194402 0.056665704 0.18048343 -0.0020195444 -0.03916502 0.09895695 0.18207817 -0.0019217638
-0.08885926 0.19034219 0.08318466 -0.05825184 -0.21340212 0.09751006 0.15705876 -0.18093157
-0.11354972 0.19424577 0.05781382 -0.17826837 0.17703368 0.03173592 -0.1348997 -0.22860925
0.09147362 0.18773177 0.45109206 0.3941293 0.08039569 0.1720942 0.07051262 0.06221837
0.13936812 0.01566913 0.1612681 0.14327472 -0.06850917 -0.19914487 -0.049718417 -0.09626988
0.10292668 0.053110328 0.060183667 -0.18710217 0.13408762 -0.03573129 -0.14555809 -0.040728714
0.09751988 0.06783993 0.05546226 -0.13863799 0.0047036163 -0.1473003 0.108760186 -0.10968901
0.069805756 0.06972542 0.22711092 -0.021854939 -0.010074255 -0.108863905 -0.16986501 0.07545762
-0.036575336 0.05326708 0.016789012 0.03731115 0.018601255 -0.0108693885 -0.035025146 0.09696693
0.06822725 0.048132382 -0.029985275 0.0011613852 -0.037452564 0.012931196 -0.13859837 -0.00029866202
0.031930644 0.19140191 -0.028429778 -0.24392068 0.036290146 0.063232884 0.06900928 -0.13045186
0.09411123 0.016785404 0.2465835 0.19891703 0.004491398 0.621715 0.017663414 0.028765006
0.036338653 0.005064826 0.021939669 0.07592554 -0.02397348 -0.15186825 0.004841541 0.06129305
-0.03252419 -0.0493247 0.116239816 0.24032332 -0.13785191 0.1139095 0.05166537 -0.09343843
-0.029063968 -0.07512557 -0.03653776 -0.11336028 0.04026138 -0.07808694 0.12820517 -0.09821423
-0.088821374 0.050640434 0.1018923 0.021242918 -0.011568293 -0.10227482 -0.15432052 -0.056459844

transformer.layers.0.0.norm.gamma f4 [8]
00000000: 77a8 df3e 33d2 103f 92a2 e93e 4143 ac3e
00000010: 6e68 133f a011 d93e a849 ac3e a3a1 f93e
0.43683216 0.5657074 0.45631844 0.3364506 0.5758122 0.4239626 0.33649945 0.48756132

transformer.layers.0.1.static_alpha f4 [4, 5]
00000000: e4a3 c0bd 0000 803f 0000 0000 0000 0000
00000010: 0000 0000 1688 5c3f 0000 0000 0000 803f
00000020: 0000 0000 0000 0000 1016 b0bd 0000 0000
00000030: 0000 0000 0000 803f 0000 0000 1f0a c9bd
00000040: 0000 0000 0000 0000 0000 0000 0000 803f
-0.0940626 1.0 0.0 0.0 0.0 0.8614515 0.0 1.0
0.0 0.0 -0.08597958 0.0 0.0 1.0 0.0 -0.098163836
0.0 0.0 0.0 1.0

transformer.layers.0.1.dynamic_alpha_fn f4 [8, 5]
00000000: 17c7 0ebe 0000 0000 0000 0000 0000 0000
00000010: 0000 0000 8d2f 06bd 0000 0000 0000 0000
00000020: 0000 0000 0000 0000 12d1 a63d 0000 0000
00000030: 0000 0000 0000 0000 0000 0000 28ca 673e
00000040: 0000 0000 0000 0000 0000 0000 0000 0000
00000050: aef1 3d3e 0000 0000 0000 0000 0000 0000
00000060: 0000 0000 2be3 2bbe 0000 0000 0000 0000
00000070: 0000 0000 0000 0000 9716 273e 0000 0000
00000080: 0000 0000 0000 0000 0000 0000 a5e7 523c
00000090: 0000 0000 0000 0000 0000 0000 0000 0000
-0.13943134 0.0 0.0 0.0 0.0 -0.03276019 0.0 0.0
0.0 0.0 0.08145346 0.0 0.0 0.0 0.0 0.2263571
0.0 0.0 0.0 0.0 0.18549225 0.0 0.0 0.0
0.0 -0.16785876 0.0 0.0 0.0 0.0 0.16317211 0.0
0.0 0.0 0.0 0.012872611 0.0 0.0 0.0 0.0

transformer.layers.0.1.static_beta f4 [4]
00000000: fed3 6a3f dedd 813f be40 7d3f fbc9 703f
0.91729724 1.0145833 0.98926914 0.940582

transformer.layers.0.1.dynamic_beta_fn f4 [8]
00000000: 75cd 66bd bc8d 013f 2319 0cbf b6ca d43d
00000010: 62fb 143e 6169 8c3d 2ea5 a43c bfb7 b0bd
-0.056348283 0.50606894 -0.54725856 0.103902265 0.1454902 0.06856037 0.020098295 -0.08628797

transformer.layers.0.1.branch.0.weight f4 [8]
00000000: b0f8 883f 0859 983f c2af 833f 8fe3 563f
00000010: 77fb 6f3f 0513 823f 529c 903f 819f 633f
1.0700893 1.190217 1.0288012 0.83940977 0.9374308 1.0162054 1.1297705 0.8891526

transformer.layers.0.1.branch.0.bias f4 [8]
00000000: 6050 9a3d 378b 8a3c 6025 f2bd 774c 933d
00000010: db05 623e 5b04 093d 84f3 0dbd c578 d5bd
0.075348616 0.016912086 -0.11823535 0.07192319 0.22072546 0.03345142 -0.034656063 -0.104234256

transformer.layers.0.1.branch.1.weight f4 [64, 8]
00000000: 2988 e13d 7090 773d 5a2c 33bf 1890 d7be
00000010: 9af6 c3be 5a5e 08be 7a6b 523e f399 213e
00000020: 4bec bebd 6160 2f3e 5ca5 853e e7cc 1fbe
00000030: f457 91be dbc6 5abd fc0e c3bd 429c 203e
00000040: f1b0 d1be d3c8 2e3e 00ab 1e3e 3815 f8bd
00000050: 4c14 abbe 9dee 54be 3c5b 41bc c95c 5e3e
00000060: 4652 34be ae26 f5bc 6a67 513e e191 50be
00000070: 0f8d f0bd 650f 483e 848f 043e 699d a5be
00000080: 78d8 80bd c49c 223e 203f e3be d55b 243e
00000090: 9299 053e 330c ea3c a95c a9bc 8a2d c93e
000000a0: 7eb8 373e a82c 4bbe a33f 9c3e 0740 cc3d
000000b0: cbd3 3dbd 0b50 8f3e 57cd bc3e 33fd 8c3d
000000c0: 5be6 a23e 1429 e5bc e762 42be 614d 993e
000000d0: 0cf1 6a3e 88b2 ef3c 16b6 06bf 7efb 59bc
000000e0: 7b8b dd3e 9201 a43d c78f 833e 4292 fb3d
000000f0: 1c82 06bd 4ac3 633e 712a 4cbe d783 d53e
00000100: 6231 e63c 5964 9b3e d38f 94be df66 c8be
00000110: 8e46 df3e ab4d 3e3d 9daa cbbe f070 f2bd
00000120: 9bf4 00be b648 99be fcce 38be 1091 99be
00000130: 07d3 cd3d 71a6 593d b857 3abe 0d7c 82be
00000140: 7c51 2dbe d082 c43e 3ce4 dfbb d49f 4fbe
00000150: 6513 1d3e 9adf 5b3e 6f9a eabd 8d46 9f3d
00000160: e272 6ebe 8184 1ebe a49e 7e3c ec31 933e
00000170: 79c2 383e 488d f53c d09e 873e b011 36be
00000180: 0406 493d 7b4c cb3e eece b13d e750 44be
00000190: 2882 dbbd 7837 5739 7db7 a03e 4d99 043d
000001a0: b012 c6bd 148a a8be 7985 1d3d 55c5 c5bd
000001b0: 1213 883e 1f95 00be 02ba 0d3c f8af 033e
000001c0: 6ab3 da3d 9055 8d3e 0aaf a83d c697 e03e
000001d0: ca21 883e 8020 293e 6ff0 9ebd ca9c 15bc
000001e0: 8c34 b6bd 6fb6 b53e c894 01be 28a4 a9be
000001f0: ad6e c6bd 2138 743e dd6d bdbe d705 8fbe
00000200: 89d7 ab3d 011d e53d 972e c1be 006b 3c3e
00000210: 61db 4a3e 318d 733e b4b1 5abe 00dd 653d
00000220: 39bd 28be da0d 6ebe 640c 2dbe 062b e93d
00000230: 9a03 9fbc 1924 493c 8ae9 443d cd5e 2dbe
00000240: 204a 83be fe19 9abe c49c 263e 64f2 6ebe
00000250: c410 d2be 7fad c2bd 2f08 9d3e 3705 a83e
00000260: 619a a23e acfc fb3d f5fa 14bf 1a78 d0bd
00000270: f010 ee3e dfa6 af3d 7bbf 0ebe 99bd 89be
00000280: ddce 8d3e ddb1 4dbe 899e 323e cf59 49bd
00000290: b554 c13d 30d6 00be 38cd 0a3e 0d66 f4be
000002a0: fc3e 033e 9ece e8be a203 0b3e 1da5 693c
000002b0: 60f5 aa3e dd9e 7dbe 6851 aabd c857 f43c
000002c0: c903 8d3e 6695 04be 58b4 e13c 55c2 843e
000002d0: 7492 fabd 70af e43d 59ec c6bd 7217 683e
000002e0: d622 c3be f4b6 dfbd 4032 bdbe acec c93e
000002f0: c816 e73e 8012 a3be 73ff fb3e 8b03 f7bd
00000300: 8eb5 b03e 4b83 bdbc 9c0d 03be 6cb1 823d
00000310: b8a6 5f3e 57ed cdbd c844 76be 23dc b2bb
00000320: 58ea 02be c17c 01bd b5a7 0d3f 5ef3 b93e
00000330: 0a5a a23e 9903 acbd ccc4 66be e7d7 623d
00000340: 6ce4 4cbe 5d48 30bd b34b d43d cb8b a43b
00000350: 753e babe 6f01 2abd c99e 8a3e ddb9 033e
00000360: bcdf f33c b332 f9be 4645 3dbe fcde 9dbb
00000370: 89ed 543e b279 b6bd 2e58 a4bd 801b 78be
00000380: a3cd bc3e 469e b63d ddfc 96be 5855 88be
00000390: c3ff 99be d0fd 93be adaf 88bd 0094 853e
000003a0: 7e0a 1b3e 94b7 dd3e d640 68be 2a51 823e
000003b0: 9488 403e 22f6 5d3e 678c bebe 52a8 cf3e
000003c0: cd01 843e 9108 20be 136f 9a3e ef5d 31be
000003d0: 5ffd 273e a88a a9be db71 893e d35a dcbd
000003e0: e01c 9f3c d34c 6ebe 0dd1 0e3e 4059 64bd
000003f0: 7504 65be 7851 c8bd d8fc 863e dff5 543e
0.110122986 0.06044048 -0.6998955 -0.42102122 -0.3827408 -0.13317242 0.20548812 0.15781383
-0.09322413 0.1712661 0.26102722 -0.15605508 -0.28387415 -0.0534123 -0.095243424 0.15684608
-0.40955308 0.17068796 0.15494919 -0.12113422 -0.33413923 -0.20794149 -0.011801537 0.21715082
-0.1760951 -0.02992567 0.20449606 -0.20368148 -0.11745655 0.19537123 0.12945372 -0.32346657
-0.06291288 0.15880114 -0.44384098 0.16050656 0.13046864 0.02857027 -0.020674067 0.39292556
0.17941472 -0.19841254 0.305173 0.0997315 -0.04634456 0.27990755 0.36875412 0.068842314
0.31816372 -0.02797369 -0.18983041 0.29941848 0.22943515 0.029259935 -0.5262159 -0.013304589
0.43270478 0.08008112 0.2569563 0.12283756 -0.032838926 0.22242466 -0.19938065 0.41702148
0.02809972 0.30349997 -0.2901598 -0.39140984 0.43608516 0.04646079 -0.39778605 -0.11837947
-0.1259331 -0.29938287 -0.18047708 -0.29993486 0.10050016 0.053137247 -0.18197525 -0.25485268
-0.16925615 0.38381052 -0.0068326276 -0.20275813 0.1533943 0.21472016 -0.11455237 0.07777128
-0.23286012 -0.15480234 0.015540753 0.28749025 0.18042935 0.029974595 0.26488352 -0.17780185
0.049078003 0.39706787 0.08682047 -0.19171487 -0.10718185 0.00020524662 0.3138999 0.03237276
-0.09671533 -0.32917845 0.038457368 -0.09656779 0.2657705 -0.12556885 0.008650305 0.12860096
0.10678752 0.27604342 0.08236511 0.43865794 0.2658828 0.16516304 -0.07760703 -0.00913162
-0.08896741 0.35490748 -0.12654412 -0.33133054 -0.096890785 0.23849536 -0.36997882 -0.27934143
0.083907194 0.11187173 -0.37730858 0.18400192 0.19810249 0.23784329 -0.21356851 0.056118965
-0.16478433 -0.23247471 -0.16899258 0.11385159 -0.019410897 0.012276673 0.048074283 -0.16930695
-0.2564249 -0.30097955 0.16270739 -0.23334652 -0.41028416 -0.09505748 0.30670306 0.3281648
0.31758407 0.12304053 -0.5819543 -0.101791576 0.46497297 0.0857675 -0.13940232 -0.26902464
0.27696887 -0.2008738 0.17443289 -0.049157914 0.09439985 -0.12581706 0.13554847 -0.4773411
0.12816995 -0.45470136 0.13575605 0.0142605575 0.3339033 -0.24767633 -0.08316308 0.029827014
0.2754195 -0.12947616 0.027551815 0.25929514 -0.12234965 0.111662745 -0.097130485 0.22665194
-0.38112515 -0.109235674 -0.369524 0.3943838 0.45134568 -0.31850052 0.4921833 -0.12061223
0.34513515 -0.023133894 -0.1279816 0.06381497 0.21840942 -0.100550346 -0.24049675 -0.0054583712
-0.12784708 -0.031613115 0.55334026 0.36318487 0.3170932 -0.08399124 -0.2253601 0.05538168
-0.20009011 -0.04303776 0.10366001 0.0050215474 -0.36375776 -0.041505273 0.27074268 0.1286387
0.02976977 -0.48671493 -0.18483457 -0.0048178416 0.20793737 -0.0890993 -0.080246314 -0.2422924
0.36875638 0.08916907 -0.29489794 -0.26627612 -0.30077943 -0.2890458 -0.066741325 0.26089478
0.15140721 0.43304121 -0.22680983 0.25452548 0.188021 0.21675923 -0.37216493 0.40558106
0.25782624 -0.15628268 0.30162868 -0.17320989 0.16405247 -0.331136 0.26844677 -0.10759511
0.019422948 -0.23271494 0.13946934 -0.055749178 -0.22364981 -0.09781164 0.2636478 0.20796917

transformer.layers.0.1.branch.1.bias f4 [64]
00000000: 8061 a03c ab0a 4d3e 4f77 bcbd 01cb 87be
00000010: 1af0 cbbc a672 d2bd c655 e03c f517 91bc
00000020: c8dc 57ba 1580 743e 5675 443e 4f45 113b
00000030: 72b8 0bbe f2fa 39be 8938 933d d358 0abe
00000040: 906f 8d3e 0dbc b5bd 86e2 e9bd af0e c73e
00000050: 3e35 e6bd 2bc3 00be 5582 d13e fc5e 86bd
00000060: ceaa 253e 575e 083d c30b 4abd 8755 353d
00000070: e483 c4bd 9955 e63d 0868 f2bd d9dc 0bbf
00000080: b9c5 4dbe 254f 48be 82bc 623d cbfe 6d3e
00000090: 8249 283e 7156 1abe 2775 87bd 3a42 89bd
000000a0: 36a2 de3d 4c8f c9bd a450 fc3e 888f 42be
000000b0: e071 873e 5b68 0dbd b415 ca3d aae8 e33e
000000c0: d56f 5d3e e3f8 a4bd 2620 d7bd 69a2 3a3d
000000d0: b7b1 893e e3ce a03e 1a80 6cbc 98c9 a1bd
000000e0: 74c1 2a3e 1275 7e3e 31f6 013e b5a7 c63c
000000f0: 2961 3bbe a94c 9abe 8b86 dc3e 54ef 2db8
0.019577742 0.20023601 -0.09202444 -0.26522067 -0.024894763 -0.10275774 0.02738465 -0.017711619
-0.0008234498 0.23876984 0.19185385 0.0022166555 -0.13644579 -0.18162134 0.071885176 -0.13510446
0.27624178 -0.088737585 -0.11420159 0.3887839 -0.11240624 -0.1257445 0.40919748 -0.065610856
0.16178438 0.033293094 -0.049327623 0.04427102 -0.09595469 0.11246795 -0.11836249 -0.5463386
-0.20094956 -0.19561441 0.055355556 0.23241727 0.16434291 -0.15072037 -0.06614142 -0.06702085
0.10870783 -0.09841785 0.49280274 -0.19000065 0.26454067 -0.03452335 0.09867421 0.44513446
0.21624692 -0.08055284 -0.10504179 0.045565043 0.26893398 0.31407842 -0.014434839 -0.07899779
0.16675359 0.24849346 0.12691571 0.02424989 -0.18298782 -0.30136612 0.43071398 -4.1469306e-05

transformer.layers.0.1.branch.4.weight f4 [8, 32]
00000000: d01a cdbc 02b6 78be 52c1 713e b481 e9bd
00000010: 9fc8 9a3b 31a4 21be a43c 2b3e 5221 34be
00000020: d4d2 043e 4b11 c5bd 66c1 b23d 2244 5e3e
00000030: 075c fa3d a870 cdbd dc8a 0f3b 2001 103e
00000040: e650 4c3e 831e 213e 25e5 c0bd ab87 133e
00000050: 6e52 8e3e a426 31bd 7c32 983d b0d1 08bd
00000060: d471 fd3d 38b2 a5bd d5f7 5bbe 853e 5dbe
00000070: e9bc 10be ec55 9ebd 3c78 37be 3a91 dbbd
00000080: 5f64 4dbe de74 443d b4ce f63d bf94 e4bb
00000090: ac16 2ebe 7e9e 203d 3bc5 8f3d 24bd 0c3e
000000a0: b37d e23d 8165 1a3e 587d b13d de1f 91bd
000000b0: 5a17 4cbc 9bbe 9c3d 3575 b7bd f0d3 b53b
000000c0: df38 ee3d 3db4 cebc ea6e 8cbd 7be0 8a3d
000000d0: 1c98 ff3d 003e 3f3d eb7f 2cbe 68a9 523d
000000e0: 274d 433e f5a2 3c3d 9cc3 9ebd 5ce5 f2bd
000000f0: 23c7 cd3d a570 e53c 0f11 21bd 934b 0dbe
00000100: 062b 913d ad14 933d 8fe0 2fbd 6f92 e23c
00000110: 1eac c63d 46ac 2e3d d904 c0bd c684 58bd
00000120: bc03 43be 344d b2bb 3e2c 15be f451 85b9
00000130: 04cd 22be 01fc 973d c290 a9bd ef56 21be
00000140: d822 e3bd c4c1 49bd 090f 3b3e b72e 10be
00000150: d2c2 a13d 6393 363e 68fd c03d 9c1f 6a3c
00000160: 18ed 54be 3924 043d d51b 8abc 3504 67bb
00000170: 7274 8dbd 78a9 1b3e c702 063d 23c8 7cbe
00000180: d628 81bd a989 2a3e 5fc7 ddbd 6a22 1b3e
00000190: 59ce a2bc c56a cc3d 2962 70be cb04 0f3e
000001a0: 672e 9fbe 0329 a13d 0712 94be 16b1 04be
000001b0: 8c8a 0ebe 789a 673e f1e7 8fbe 43b8 abbe
000001c0: cff6 4abe c375 16be 4c69 873e 046d 39be
000001d0: fb5f 83bd ee20 843e 095f 00bd e613 063e
000001e0: 5e0f 60be 0341 f13d f8e0 bf3d 72ea f63d
000001f0: 4ef1 703d da81 ee3e 082f 963e a6cb 78be
00000200: 3049 7c3e 4dbb f23c 31e7 82bd 2d83 9cbd
00000210: 9f5c 5b3c 9dd7 0ebe e35d 7f3e 592e bd3d
00000220: 79c1 c33d 1466 873d 7d29 873c 1d70 003d
00000230: 3f90 ec3d 3e85 3bbd b90d 313d 4d43 e33d
00000240: f5a3 653e 5a9d 81bd 923f 93bd 371b 063e
00000250: dc36 0abc 96d9 34be b515 143d b801 2abd
00000260: 7b8c 0d3e 0632 9dbe 0a50 ab3d 2bbd b1bd
00000270: e34e 633d 367e 18be 1b66 3abe a5fe 293e
00000280: 505a 08be 25d7 b7bd 1b5d a73d cff2 19be
00000290: 17ce 123e d5cf d0bd c62b 1b3e 990b eebd
000002a0: f549 1b3d 53f7 1ebd b753 703d d445 0e3e
000002b0: 2229 3f3e f680 a7bb 90b4 e03c aa3c 7c3d
000002c0: 2ed8 233e f4d7 5c3d b820 17bd 803e 9a3d
000002d0: 47cb 133e 1af9 8fbd ddb6 7a3e b2c4 5bbe
000002e0: ef06 be3b 8a1e 363d 6a70 113e f6d1 62be
000002f0: edc2 f9bd d93a 07be 0161 ec3d c4d0 553e
00000300: 8146 cdbe 47bf 0d3e cd51 19bd 58d7 9d3d
00000310: bda4 8e3c 3c04 0f3e a4b4 28be 0965 c63d
00000320: 54ef 29be 7d4d 4a3d ff15 e2bd 7f7e 0cbe
00000330: 6e49 01bd 8248 2f3e 6420 dfbd 4052 15be
00000340: a12b 18be 277c d9bd e8fe 4f3e 09e2 2cbe
00000350: f221 103c a8ee df3d ba03 cfbc 3f68 a43c
00000360: b116 48be f33e aa3e 310f bebb 2f3a 263d
00000370: b856 a43d 3e54 533e 0e62 09bc efdd 02be
00000380: bf9a a73e 81c3 d53d 083c 4a3e a203 14bd
00000390: f6b0 1dbe c11a 27be e91e 4e3e d65c f03d
000003a0: 9434 703e 6133 2e3d 8e1c 3c3e 54de 0abe
000003b0: f278 e4bc e3b4 873d a876 ed3d 99e7 3d3e
000003c0: 8715 8a3e 69e9 06be 47e4 42be 06bc 483e
000003d0: 1799 5bbd 6228 0ebe a9d1 60be af11 c23d
000003e0: a3fa 173e f1b8 97be 2295 58be 839a 5ebe
000003f0: c7ea cb3d 6937 f3bd 48d4 a5bd 9d27 933c
-0.0250372 -0.2428818 0.23608902 -0.11401692 0.004723623 -0.1578529 0.16722351 -0.17590836
0.1297105 -0.09622439 0.08728294 0.21705678 0.12224584 -0.10031253 0.0021902835 0.14062929
0.19952735 0.15734296 -0.09418706 0.14407222 0.27797264 -0.04324974 0.07431504 -0.0334031
0.123752266 -0.08090633 -0.21481259 -0.2160588 -0.14134564 -0.07731232 -0.1791696 -0.10721059
-0.2005782 0.047963016 0.12051144 -0.0069757397 -0.17000836 0.03921365 0.070200406 0.13744026
0.110591315 0.15077783 0.086664855 -0.07086156 -0.012456739 0.076535426 -0.08957902 0.0055489466
0.11631941 -0.025232429 -0.06857093 0.067810975 0.124801844 0.046689987 -0.16845672 0.05143109
0.190724 0.046053845 -0.07752153 -0.11860153 0.10047748 0.028007815 -0.03932291 -0.1379836
0.07088284 0.07181678 -0.042938765 0.027657716 0.097007975 0.04264476 -0.093759246 -0.052860998
-0.19044393 -0.0054413322 -0.14567658 -0.00025428797 -0.1589852 0.07421113 -0.082795635 -0.15755819
-0.1109063 -0.049257055 0.18267454 -0.1408032 0.07898487 0.17829661 0.094233334 0.014289763
-0.20793569 0.032261107 -0.016858974 -0.003525031 -0.06906976 0.15201366 0.032717492 -0.24685721
-0.06306617 0.16654076 -0.10829043 0.15149847 -0.019873785 0.09981302 -0.23474945 0.13966672
-0.3109009 0.078691505 -0.28920004 -0.12958178 -0.13920039 0.22617519 -0.28106645 -0.33539018
-0.19820713 -0.1469336 0.26447523 -0.18107992 -0.06414791 0.25806373 -0.031340633 0.13093528
-0.21880862 0.11779978 0.09369081 0.12056436 0.058823876 0.46583444 0.29332757 -0.24296436
0.24637294 0.029630328 -0.063917525 -0.07642207 0.013388782 -0.13949437 0.24938159 0.09237356
0.09558386 0.06611267 0.016499275 0.03135692 0.1155095 -0.045781367 0.043225978 0.11096821
0.22425826 -0.063288406 -0.071898594 0.13096319 -0.008435931 -0.17661127 0.036153514 -0.041505545
0.1382312 -0.30702227 0.083648756 -0.08678659 0.055495154 -0.14891896 -0.18203013 0.16601045
-0.13315701 -0.089765824 0.08172055 -0.1503403 0.1433643 -0.10195891 0.15153417 -0.11623306
0.037912328 -0.038810086 0.058673587 0.13893825 0.18668035 -0.005111809 0.027429849 0.06158129
0.16000435 0.053916886 -0.036896437 0.07531452 0.14433013 -0.07029934 0.2448382 -0.21461752
0.0057991664 0.044462718 0.14203039 -0.22150406 -0.12195382 -0.13206042 0.115419395 0.20880419
-0.40092853 0.13842498 -0.037431527 0.07707089 0.017412538 0.13966459 -0.16475159 0.0968724
-0.16595203 0.049390305 -0.11039352 -0.1372013 -0.03156417 0.17117503 -0.1089485 -0.14582157
-0.14860393 -0.10619383 0.20312083 -0.168831 0.008797156 0.10934192 -0.025270332 0.02006924
-0.19539906 0.3325115 -0.005800151 0.040582832 0.08024353 0.20637605 -0.008385194 -0.12779973
0.3273525 0.1043768 0.19749463 -0.036136277 -0.15399536 -0.163188 0.20128979 0.11736457
0.23457557 0.042529467 0.18370268 -0.13561374 -0.027889702 0.06626298 0.115948975 0.18545379
0.2696955 -0.13174976 -0.19032393 0.19602975 -0.053612795 -0.13882592 -0.21954979 0.09476029
0.14841704 -0.29633287 -0.2115064 -0.21738629 0.099568896 -0.11875803 -0.0809713 0.017963225

transformer.layers.0.1.branch.4.bias f4 [8]
00000000: 0b85 3e3c 5b15 623d f9df 88bd d5ae 073e
00000010: 9175 8dbd ff01 423d c439 2abd 9aa9 1f3e
0.0116284 0.055196147 -0.066833444 0.13250287 -0.0690719 0.047365185 -0.041558996 0.15592042

transformer.layers.0.1.norm.gamma f4 [8]
00000000: ef38 d43c e728 523e ff97 133e 0102 923d
00000010: 2819 473d b069 993c 72c0 153d 0850 3d3c
0.025906054 0.20523416 0.1441345 0.071292885 0.048607975 0.018727154 0.036560483 0.0115547255

transformer.layers.1.0.static_alpha f4 [4, 5]
00000000: 0480 3ebe 0000 803f 0000 0000 0000 0000
00000010: 0000 0000 7ab1 593f 0000 0000 0000 803f
00000020: 0000 0000 0000 0000 1e10 e8bc 0000 0000
00000030: 0000 0000 0000 803f 0000 0000 fa39 03bd
00000040: 0000 0000 0000 0000 0000 0000 0000 803f
-0.18603522 1.0 0.0 0.0 0.0 0.8503643 0.0 1.0
0.0 0.0 -0.028327998 0.0 0.0 1.0 0.0 -0.032037713
0.0 0.0 0.0 1.0

transformer.layers.1.0.dynamic_alpha_fn f4 [8, 5]
00000000: a245 81be 0000 0000 0000 0000 0000 0000
00000010: 0000 0000 934b 85bd 0000 0000 0000 0000
00000020: 0000 0000 0000 0000 224e 5e3d 0000 0000
00000030: 0000 0000 0000 0000 0000 0000 48e7 de3d
00000040: 0000 0000 0000 0000 0000 0000 0000 0000
00000050: 55ac 7abc 0000 0000 0000 0000 0000 0000
00000060: 0000 0000 72ed 8e3c 0000 0000 0000 0000
00000070: 0000 0000 0000 0000 4f95 843e 0000 0000
00000080: 0000 0000 0000 0000 0000 0000 9ac8 c0bc
00000090: 0000 0000 0000 0000 0000 0000 0000 0000
-0.25248438 0.0 0.0 0.0 0.0 -0.06508555 0.0 0.0
0.0 0.0 0.054273732 0.0 0.0 0.0 0.0 0.10883957
0.0 0.0 0.0 0.0 -0.015299876 0.0 0.0 0.0
0.0 0.017447207 0.0 0.0 0.0 0.0 0.25895163 0.0
0.0 0.0 0.0 -0.023533154 0.0 0.0 0.0 0.0

transformer.layers.1.0.static_beta f4 [4]
00000000: e3fc 6f3f bc80 893f 3cb4 813f 26c0 7b3f
0.9374525 1.0742412 1.0133128 0.9834007

transformer.layers.1.0.dynamic_beta_fn f4 [8]
00000000: db4a 41be aede d13d 9b13 003c fa0d 263e
00000010: 84dd e83d 3085 923d 4dda 7b3e d8a7 24bf
-0.18876211 0.10247551 0.007817174 0.16216269 0.11370376 0.0715431 0.24594994 -0.6431861

transformer.layers.1.0.branch.norm.weight f4 [8]
00000000: 4457 6f3f 757a 523f 2957 763f 519f 723f
00000010: 7be4 4d3f 8201 743f c131 7b3f 2a76 6c3f
0.9349253 0.82218105 0.96226746 0.9477435 0.8042676 0.953148 0.98122793 0.92367804

transformer.layers.1.0.branch.norm.bias f4 [8]
00000000: 7a28 903d 6a83 3bbc 1614 963c 8c90 a6bc
00000010: 60bb c4bd 46e1 563d 41d6 75bc 9214 abbd
0.0703897 -0.011444906 0.018320125 -0.020332597 -0.096060514 0.05246093 -0.015004695 -0.08353533

transformer.layers.1.0.branch.to_qkv.weight f4 [192, 8]
00000000: 54b4 b3bd daf1 bcbe 85ba ac3e b8c4 a43c
00000010: c3a8 c53e b39b 863e dacd 15be 20e4 743d
00000020: 312c a6be 5184 b13c b33d b3bc 4a7f c83d
00000030: b796 b23d c349 c0bc c429 1cbe d75e 53be
00000040: f577 26be 0e56 aebd 1d36 813e 9b12 253e
00000050: e68c 0c3e cfbc 953e 1b16 b33e a6c5 c0bd
00000060: af1e 993e 63be de3e a04d 91be ff05 03bd
00000070: 056b 36be 3b53 653e 376f c4be 3ce2 9f3e
00000080: 5dff a9be d892 0fbf beb1 9abd 5e62 50be
00000090: 4d33 e93d 8cfc 9ebe e41a 823e dbab 81be
000000a0: 2617 06be 2422 82be 7ea0 98be 26ba 05be
000000b0: 48b0 d33d 657b 53be 8d33 773e 4ca0 c33c
000000c0: 6fac b1be 0586 d5be 3b2a acbd 46a4 50bd
000000d0: 9d3f d23d a71a 29be fcbd 0cbd abac b3be
000000e0: 2a52 f3bd e355 58be a0c7 d23d fa52 593e
000000f0: 36f8 6bbe 21cd 5dbd 795d 253e 3dbc 5cbe
00000100: 9202 163e cdba 613c 6fd4 8b3e 1bb1 433d
00000110: f99e 753e 9e54 fd3d e3f8 e93d 4732 8bbe
00000120: e1c4 cb3e e655 b93d d2d8 31be 49da a4be
00000130: 31cd 88be 20f3 abbe e07c febd e452 e1bd
00000140: 25d9 253e 99b7 de3e e0fa fc3d ec29 cebe
00000150: 24ca 273c b969 85be a5cf d6bc 9498 63be
00000160: 1d4c 81bd bfea d23d eee6 ec3d 55d4 273e
00000170: 9ae2 5f3d b7d0 093e a349 cabe 9141 8d3e
00000180: 4897 623e 0694 57be 6c3b ecbd e0d6 b43e
00000190: f087 523d 218b cc3e b167 d53e c6ad 05bf
000001a0: 5643 d8bd 8134 5c3e 2700 033c afad d5bd
000001b0: caee cb3e 3248 79be 2327 3c3d 2bb5 f43d
000001c0: 79cc ef3d 5ba0 fc3d 2fab 4abe eae5 44be
000001d0: 3990 623e c11f b1be 9721 bcbe 1a46 9b3e
000001e0: 0997 cbbd 923c 803e 150f 3dbe d99c 92be
000001f0: f119 c4bd 2db0 58be 8e1c 683e 1489 19be
00000200: baf6 9c3e 9a79 1c3e b94e debd bee4 06be
00000210: 0a6f 243e 6a7d e3bd 54e7 053e 525c e43e
00000220: 5b47 e33d c31b 98be a607 c63d 7233 e83e
00000230: 7139 723e 1973 be3e 7a1a e63e 00e0 f3be
00000240: 23cd 41bd 2543 993e f961 98be 4abb 283e
00000250: 4d47 6fbd 6cdc 08be f15a ccbe f413 103f
00000260: a64d 383d 1356 103c 0502 153e bf1a 6bbe
00000270: 82e6 8bbd 97f6 afbd 3755 743e eb80 6cbd
00000280: 35c8 90bd a514 0dbf d4da 073e f0af 98be
00000290: cc4c 3e3e 70c5 ea3e 8e7e b23e efc0 76be
000002a0: 6d69 bd3e d660 b43e eda2 9c3d 5497 963e
000002b0: e988 c73c b21d e8be e041 583d 7021 fabd
000002c0: 2188 02be f736 b6bd a5a8 b5bb b3aa 43be
000002d0: 49b6 98be dae7 d9be 330c 563e 34cb b13e
000002e0: f545 463e 7760 b53e b68d 1e3e 62c2 833d
000002f0: 978d a13d ec6a a9be 206a b6be 2dcc 943d
00000300: 4e82 9a3e e82a 723e 7bbc 353e 4cf8 333d
00000310: 50d3 c9be ba36 4a3e 09bd febe 78bf 083c
00000320: 4e33 a63e 2190 093f 2473 8bbe ba02 6ebe
00000330: 6ea1 5dbd a667 92bd 6977 0bbe 0c91 c63e
00000340: c5ab a53b 262d 913d 46bb 7dbd aa23 e83b
00000350: 1396 763d e86c c9bd f799 9cbe 0f60 783e
00000360: 088d 923e 67fb 10bf 41a8 833d 0b61 ae3d
00000370: c017 903e 1462 83bd 57f5 7dbe 5a9c f6bd
00000380: afe6 903e 9b06 063f 4f25 9d3d 3a54 05bd
00000390: 668a b93e 8dc4 acbb 668e adbe 82af 873e
000003a0: df97 b4be f9f0 bfbe 7ae3 603e b005 65be
000003b0: aea5 35be d74b 1b3e bec7 bc3d 8054 54be
000003c0: ffe3 aebe 16b5 65bd 0b5f 7fbe 153e f7bd
000003d0: 8b9e 803e bba2 b23e aa90 ba3d 2fbc b4be
000003e0: da6a cabc b81f 8b3e 6559 a3be 8ab8 893e
000003f0: 62b1 823c b822 c4be 11cb 4e3e 41a3 0b3f
-0.08774629 -0.36903268 0.33736053 0.020113334 0.38605317 0.26290664 -0.14629307 0.05978787
-0.3245559 0.021669539 -0.021880006 0.097899035 0.08720153 -0.023472672 -0.15250307 -0.20641647
-0.16256697 -0.085125074 0.25236598 0.16120379 0.13725623 0.29245612 0.34977803 -0.094126984
0.29906222 0.4350463 -0.28379536 -0.03198814 -0.17814262 0.22395031 -0.383661 0.3122729
-0.3320264 -0.5608344 -0.07553433 -0.20350024 0.11386738 -0.31052053 0.2541114 -0.25326428
-0.13094768 -0.25416672 -0.29809946 -0.13059291 0.10336357 -0.2065254 0.24140759 0.023880146
-0.3470187 -0.4170381 -0.08406492 -0.050937913 0.102660395 -0.16514073 -0.03436087 -0.35092673
-0.11880906 -0.21126513 0.10291982 0.2122306 -0.23043904 -0.054150704 0.16148938 -0.21556182
0.14649418 0.013777447 0.2731051 0.047776323 0.23986425 0.12369655 0.114244245 -0.27186796
0.39798644 0.09049587 -0.17367867 -0.32197788 -0.2671905 -0.33583927 -0.12426162 -0.11002138
0.16196115 0.4349945 0.12352538 -0.4026636 0.010241065 -0.26057222 -0.02622206 -0.22226173
-0.063133456 0.102986805 0.11567484 0.16389592 0.054659463 0.13458525 -0.39509305 0.27589086
0.22128022 -0.2105256 -0.11534771 0.35320187 0.05139917 0.39949897 0.41680673 -0.5221828
-0.10559718 0.21504404 0.007995642 -0.10433518 0.3983062 -0.24343947 0.04593576 0.119486175
0.11708922 0.12335273 -0.19791864 -0.1922833 0.22125329 -0.3459454 -0.36744377 0.3032692
-0.09940917 0.2504621 -0.18462785 -0.2863529 -0.095752604 -0.21160956 0.22667143 -0.14993697
0.30656987 0.15280762 -0.10854859 -0.13173196 0.16057983 -0.11107905 0.13076526 0.44601685
0.11097594 -0.2970868 0.096694276 0.4535175 0.23654725 0.37197188 0.44942075 -0.47631836
-0.047314774 0.2993404 -0.29762247 0.16477695 -0.058417607 -0.13365334 -0.39913133 0.56280446
0.044995926 0.008809584 0.14551552 -0.22959422 -0.06831075 -0.08591955 0.23860632 -0.057740133
-0.070694365 -0.55109626 0.1326707 -0.2982173 0.18583983 0.45853758 0.3486218 -0.24097036
0.36994496 0.3523013 0.07648263 0.2941233 0.024357276 -0.45335156 0.0527972 -0.12213409
-0.12747242 -0.088972025 -0.0055437856 -0.19108085 -0.29826573 -0.425597 0.20903091 0.34725344
0.19362624 0.3542516 0.15483746 0.0643356 0.07888334 -0.33089387 -0.35627842 0.07265506
0.3017754 0.2364918 0.17747681 0.043937966 -0.3941903 0.19747439 -0.49753597 0.008346431
0.32461017 0.5373555 -0.27236283 -0.23243228 -0.05410903 -0.071486756 -0.1361977 0.38782537
0.005055877 0.070886895 -0.061946176 0.0070843296 0.060201716 -0.09835225 -0.30586216 0.24255393
0.28623223 -0.5663361 0.06428576 0.08514603 0.2814312 -0.06415191 -0.24800621 -0.120415404
0.28300998 0.5235383 0.07673132 -0.032551028 0.36238402 -0.005272454 -0.33897704 0.2650109
-0.35272118 -0.37488535 0.21961775 -0.22365451 -0.17738983 0.1516565 0.09217785 -0.20735359
-0.34158322 -0.0560809 -0.249386 -0.12072388 0.2512096 0.34889778 0.09109624 -0.35299823
-0.024709154 0.27172637 -0.3190414 0.26898605 0.015953723 -0.38307738 0.20194651 0.5454598

transformer.layers.1.0.branch.to_out.weight f4 [8, 64]
00000000: 8659 acbd bf24 b23d 0ad5 de3c 91d0 c13d
00000010: 0305 47bd 6597 a93d 593f 723d 6995 d2b9
00000020: fa10 ecbd efc6 38bd fbae aabd eb26 023d
00000030: 802f 203e 11fb a93c f078 523d 1b91 4bbc
00000040: db9f c9bd 4350 8dbc db6c d4bd a2cb cabc
00000050: 68dc 853d 7218 b93c 7e29 f0ba aff8 a4bd
00000060: bc23 363d 1dc2 c43a 9571 6a3d 352b a3bc
00000070: 0466 1fbd 6d87 9abd a77c 32bd a408 9a3d
00000080: 2660 25be aa95 b6bc d883 96bd e7bc 96bd
00000090: 240b cc3c f427 f9bc a9f8 95bd 5b19 e2bd
000000a0: 3ab2 1f3d 43f3 8cba fee1 933d d780 68bc
000000b0: e940 123e 80a1 8c3c 56dd 87bd 9901 343d
000000c0: 72ed 4abb a1c5 cdbd cf2e 07be 7f18 f8bc
000000d0: f0ef a2bd af74 d2bc 1a3e f0bd e21f 8ebc
000000e0: 3e2b 8e3c 4481 98bd dda9 88bd 5d5f 243d
000000f0: 8e98 a13d c9da 253d c822 58bd 4ca0 823d
00000100: c8b2 e93d e117 0d3d 0e12 8ebd 51ff b83c
00000110: 6e24 06bc e343 5ebc c613 01bd 9fc5 ccbd
00000120: 3623 203d f15f 17bc 5711 943c 6997 e93d
00000130: deb6 2b3e ae9a 90ba d089 a83d 5e8c a7bd
00000140: d276 0f3c 6019 57bc 665f c3bd 8ba2 a0bd
00000150: 6caf 2abd 14e5 3fbc 39d9 073e 7ff6 7d3d
00000160: 0e4f 34bd 8fcf 123e feda 4d3d 8c93 05be
00000170: cb18 813d b45b a7bd a46f ef3c 0005 0f3d
00000180: c546 1e3d 649a 863d 6675 333d 34d7 8f3c
00000190: 71e0 543a 29e5 773d 4ec1 8fbd db5d 0abe
000001a0: 2a1b ba3c e039 683d c2f4 973c 0a50 fa3d
000001b0: 5751 50bd e6ba 80bd 1b06 13be e53b 943d
000001c0: 4cb5 e2bd 40e3 12be 4bc9 1abe ac11 84bd
000001d0: c714 d9bd 8199 33be 93fd 8abd 58fc 053d
000001e0: 5467 9ebd 3ead 1abd 51e8 06bd 9c9d 9dbc
000001f0: ffe1 683d 032e b83d d83a 04bd 333e 64bd
00000200: 22b0 dabd 4e43 bcbd bc57 b43c ce60 713d
00000210: cb1e d93d 43d1 0bbd da2f 8e3d b432 883d
00000220: 4bda c03d 4bb6 44bd d184 9dba fe32 f8bb
00000230: def0 13be 302a 2e3d 4914 8bbc 54dd 283d
00000240: 71ef a73d d5ee 89bd 554e fabd 5489 863d
00000250: b4fe 8b3d 7489 a3bd ee2c e2bd 3bb4 0b3d
00000260: d9d1 e5bd 82a9 f1bd 23b3 d03c cf3a 5b3c
00000270: 560c 0ebc 7bd4 9b3d 520e 96bc 64e4 babd
00000280: a539 30bd 348d d13d 877f 97bd 2457 b9bd
00000290: 5c15 88bc 3d4d 393c c62c 963d 229d 57bd
000002a0: 98c6 3f3d 59f4 c03d 6037 69bd 0a48 42bd
000002b0: 292f c2bd 189e 3cbd 7c2f 56bc 4461 abbd
000002c0: 8a6b d2bd 88e8 8cbc 31af 193e 5ddc 043e
000002d0: b1a5 b23b 3cc6 1dbd e1ed ce3a da47 b83d
000002e0: b1be c03d cfc8 3b3c e9bc 9ebd bfb8 0b3e
000002f0: 3626 063d 2363 373d db0c 00be af62 bc3c
00000300: a3ce c4bd 5e3d 55bc 8331 5d3d 9352 023b
00000310: ed15 33be 96be 6f3d af44 463d 1109 1b3d
00000320: b2a4 99bd cfb1 e63d 85a5 11be d5fd 58bc
00000330: f7cd d23c 46c8 0e3c 2593 9fbc 19e6 273d
00000340: 3cc8 b13d 1390 12be 05d5 c93d a374 c8ba
00000350: d3aa 60bd cb5b eebd 9fec 713d 2858 043d
00000360: 8f0a 9b3c 737d 1b3b c84c c63d 8ae5 e9bc
00000370: f6ba a23d 52a3 eb3c c6d3 dc3c 3de5 cdbb
00000380: 4c1e 39bd a98d c23d 897a 31bd a8f7 633d
00000390: 8322 cebc d923 d1bb 4eed b7bd 8a1b e43d
000003a0: 7f1b b03c 2bce dbbb 44f3 4a3d 8977 f9bd
000003b0: d93a de3c c229 59bc e82f 79bd 9690 313d
000003c0: f0fc 133d bd82 de3b 853a 333d f75c 67bd
000003d0: 7f53 9c3d 4248 7ebc 6645 92bc 54ac c33d
000003e0: 8e0c 113e 7bc3 a23d 2b50 c93d b4f1 d13c
000003f0: 585d a43d fd1b 3e3d 128a c43d 38d1 963d
-0.08415513 0.08698415 0.027201194 0.09463609 -0.048588764 0.08280829 0.059142444 -0.0004016564
-0.115266755 -0.045111593 -0.08334156 0.031775396 0.1564312 0.0207496 0.051384866 -0.012424733
-0.09844943 -0.017250186 -0.10372325 -0.024755303 0.0653618 0.022594664 -0.0018322913 -0.08055245
0.044467673 0.0015011464 0.057237227 -0.019918064 -0.03891565 -0.07545362 -0.04357591 0.07521179
-0.16149959 -0.022288162 -0.07349366 -0.07360249 0.024907656 -0.030414559 -0.07322819 -0.110399924
0.03898833 -0.001075365 0.07220839 -0.014190874 0.14282574 0.017166853 -0.06634013 0.043946836
-0.0030964282 -0.1004746 -0.1320145 -0.030285118 -0.07955921 -0.025690405 -0.11730595 -0.017349187
0.017354604 -0.074465305 -0.06673024 0.040130008 0.078904256 0.040491853 -0.052767545 0.063782305
0.11411053 0.0344466 -0.069370374 0.022582682 -0.008187396 -0.01356599 -0.031512998 -0.09998631
0.03909608 -0.009239183 0.018074675 0.11405832 0.16768977 -0.0011032426 0.08229411 -0.0818107
0.008756356 -0.013128608 -0.0953968 -0.078435026 -0.0416712 -0.011712331 0.13266458 0.062002655
-0.044020705 0.1433699 0.050257675 -0.13044566 0.06303557 -0.08171788 0.02922804 0.034916878
0.03864171 0.065724164 0.04381313 0.017558672 0.00081206026 0.06052128 -0.07019292 -0.13512366
0.022718031 0.05669582 0.018549327 0.122222975 -0.05085882 -0.06285648 -0.14357798 0.072379865
-0.11069736 -0.14344501 -0.1511585 -0.06448683 -0.10599666 -0.17539026 -0.06786647 0.032711357
-0.07734552 -0.037762873 -0.032936398 -0.019240193 0.05685615 0.08993151 -0.03228268 -0.05572338
-0.10678126 -0.09192525 0.022014491 0.05893021 0.106015764 -0.034135114 0.06942721 0.06650296
0.09416636 -0.04802541 -0.0012017732 -0.007574438 -0.14447352 0.042520702 -0.016977446 0.0412267
0.08199967 -0.06735007 -0.12221972 0.06569162 0.0683569 -0.079852015 -0.11043726 0.034107428
-0.11221666 -0.11799909 0.025476044 0.01338072 -0.008669933 0.07608887 -0.018317375 -0.09125593
-0.043023724 0.102320105 -0.07397371 -0.09049824 -0.016611747 0.011309919 0.073327586 -0.052640088
0.046820253 0.094216056 -0.056937575 -0.047431983 -0.09481651 -0.046049207 -0.013072845 -0.08368161
-0.10274418 -0.017200723 0.15008236 0.12974687 0.005451881 -0.03851913 0.0015787446 0.089980796
0.094113715 0.011461451 -0.077508755 0.13644694 0.032751285 0.04477228 -0.12504904 0.022996275
-0.09609725 -0.013015119 0.054002296 0.0019885644 -0.17488833 0.058531366 0.048405346 0.037850443
-0.07502116 0.11264383 -0.14223297 -0.013244112 0.025732977 0.008714741 -0.019479344 0.040990923
0.0868077 -0.14312772 0.098550834 -0.001529355 -0.05485041 -0.11638602 0.05906355 0.032310635
0.018925933 0.0023725897 0.096826136 -0.028551836 0.07945816 0.0287644 0.02695645 -0.006283431
-0.04519491 0.09499676 -0.04332975 0.055656105 -0.02516294 -0.006382447 -0.08980809 0.11138065
0.021497486 -0.0067079267 0.049548402 -0.12181003 0.02712767 -0.013254585 -0.060836703 0.04335078
0.036129892 0.0067904876 0.04375698 -0.056485143 0.07633113 -0.015520157 -0.017855357 0.09554353
0.14164945 0.07947441 0.09829744 0.025627948 0.080256164 0.04641341 0.09596647 0.07364124

transformer.layers.1.0.norm.gamma f4 [8]
00000000: dbcd 193e 264b 4cbb d9b1 cd3d 424d 8a3d
00000010: 2186 d23d efb6 ed3d c259 0e3e b938 123f
0.15019934 -0.0031172722 0.100436874 0.06753017 0.10279489 0.116071574 0.13901427 0.571178

transformer.layers.1.1.static_alpha f4 [4, 5]
00000000: c4f4 043e 0000 803f 0000 0000 0000 0000
00000010: 0000 0000 66d7 f9bd 0000 0000 0000 803f
00000020: 0000 0000 0000 0000 f32f 3a3d 0000 0000
00000030: 0000 0000 0000 803f 0000 0000 b2e2 4b3f
00000040: 0000 0000 0000 0000 0000 0000 0000 803f
0.12983996 1.0 0.0 0.0 0.0 -0.12199287 0.0 1.0
0.0 0.0 0.045455884 0.0 0.0 1.0 0.0 0.79642785
0.0 0.0 0.0 1.0

transformer.layers.1.1.dynamic_alpha_fn f4 [8, 5]
00000000: d03f 9c3d 0000 0000 0000 0000 0000 0000
00000010: 0000 0000 8143 273e 0000 0000 0000 0000
00000020: 0000 0000 0000 0000 8691 e7bd 0000 0000
00000030: 0000 0000 0000 0000 0000 0000 298e 13be
00000040: 0000 0000 0000 0000 0000 0000 0000 0000
00000050: 3537 debc 0000 0000 0000 0000 0000 0000
00000060: 0000 0000 bb1e bf3c 0000 0000 0000 0000
00000070: 0000 0000 0000 0000 8418 0cbe 0000 0000
00000080: 0000 0000 0000 0000 0000 0000 8261 0a3e
00000090: 0000 0000 0000 0000 0000 0000 0000 0000
0.07629359 0.0 0.0 0.0 0.0 0.16334344 0.0 0.0
0.0 0.0 -0.11307053 0.0 0.0 0.0 0.0 -0.14409699
0.0 0.0 0.0 0.0 -0.027125934 0.0 0.0 0.0
0.0 0.023330083 0.0 0.0 0.0 0.0 -0.13681227 0.0
0.0 0.0 0.0 0.13513759 0.0 0.0 0.0 0.0

transformer.layers.1.1.static_beta f4 [4]
00000000: 4f1d 863f fe87 7f3f 8d56 763f c27a 8f3f
1.0477694 0.9981688 0.96225816 1.1209338

transformer.layers.1.1.dynamic_beta_fn f4 [8]
00000000: 8a53 013e 0862 0f3d 0ded d43d 5f7a dabd
00000010: 436c 55be 2865 c63d 2514 a0be ef50 693d
0.12629524 0.0350056 0.10396776 -0.10667872 -0.2084208 0.09687263 -0.3126537 0.05696195

transformer.layers.1.1.branch.0.weight f4 [8]
00000000: 9345 843f 3092 8a3f e1c9 853f 895d 833f
00000010: 2c02 813f 4459 8c3f 989e 873f 30ca 6d3f
1.0333732 1.0825863 1.0452234 1.026292 1.0078788 1.0964742 1.0595274 0.9288664
