Projektarbeit_FTTransformer/trained_models/physical_loss_training/model_OnlyPhysicsLambda1_date_20250809_epoch10000.pt (torch, 94567 bytes, 87 tensors)

cls_token f4 [1, 1, 8]
0	0xbf152a31	-0.58267504
1	0x3f2468eb	0.6422259
2	0xbfec4d53	-1.8461097
3	0xbf1a70af	-0.6032819
4	0x3f495b65	0.7865508
5	0x3f1f6148	0.62257814
6	0x3edc981f	0.4308481
7	0xbfbb2f43	-1.4623798

categorical_embeds.weight f4 [3, 8]
0	0x3fdaff2a	1.710912
1	0xbfd2a235	-1.6455752
2	0x3f5257eb	0.821654
3	0x3f4501db	0.76955956
4	0xbf666f1f	-0.9001331
5	0xbf5939e3	-0.84853953
6	0x3ede5dbd	0.43430892
7	0xbf86e131	-1.0537473
8	0xbf5cbc86	-0.86225164
9	0xbe28f5df	-0.16500042
10	0x3fb17528	1.3863878
11	0x3f502729	0.81309754
12	0x3fb449e5	1.4085051
13	0x3d4e4d18	0.05036649
14	0xbf3f713d	-0.7478216
15	0xbf8b34ed	-1.0875527
16	0xbe831c94	-0.2560774
17	0x3e944b74	0.28963816
18	0xbf3eb2a7	-0.7449135
19	0xbf07e715	-0.5308698
20	0xbf5d26f4	-0.8638756
21	0xbf16fec3	-0.58982486
22	0x3f93fbef	1.1561259
23	0xbf996410	-1.1983662

numerical_embedder.weights f4 [8, 8]
0	0xbe3d5287	-0.18488513
1	0xc041c8a6	-3.0278716
2	0xbf7caafa	-0.9869839
3	0xbdcbe458	-0.099556625
4	0x3f4e6b64	0.80632615
5	0x3dcada3e	0.09904908
6	0x3e76a327	0.24085675
7	0x3f8089a0	1.0042
8	0xbf95de38	-1.1708441
9	0xbdc045ef	-0.09388339
10	0xbf96fe2a	-1.1796315
11	0xc00ac57a	-2.168303
12	0xbfcd56b0	-1.604208
13	0x3e962686	0.29326266
14	0xbe6ae21b	-0.22937815
15	0x3df88996	0.121356174
16	0xbf296688	-0.66172075
17	0x3fa22149	1.2666408
18	0xbf1fff7a	-0.624992
19	0xbe509745	-0.20370205
20	0xbe4bd31e	-0.19904754
21	0x3e4bc9da	0.19901219
22	0x3f98316d	1.1890084
23	0x3fa2e97e	1.2727506
24	0xbe3fd1c4	-0.18732363
25	0xbfd92a8a	-1.6966107
26	0xbf0b91b6	-0.5451921
27	0x3f207ca6	0.626902
28	0x3f552f26	0.8327507
29	0xbde04a0b	-0.109516226
30	0x3e7dc5cd	0.24782486
31	0x3f5f3d56	0.87202966
32	0x3e8c0060	0.27344036
33	0x3e8fd738	0.28093886
34	0x3e9a6d59	0.3016155
35	0x3f96ff23	1.1796612
36	0x40351c32	2.829846
37	0x3f688068	0.9082093
38	0x3fc992fc	1.5747981
39	0x3f66887c	0.9005201
40	0x3e9b487f	0.30328748
41	0xbc74e12d	-0.014946264
42	0xc00655a7	-2.0989778
43	0xbee4f7ee	-0.44720405
44	0xbd23d2f7	-0.039996114
45	0x3f1f704a	0.62280715
46	0x3e4fb1d3	0.20282678
47	0x3d67c64c	0.056585595
48	0x3d900b64	0.070334226
49	0x3f3adc06	0.7299198
50	0xbf0457da	-0.5169655
51	0xbe66f3c0	-0.22553921
52	0xbf5534ef	-0.83283895
53	0x3efd06f8	0.4941938
54	0xbf527188	-0.82204485
55	0x3f33065b	0.6993157
56	0xbdf98e9d	-0.121854044
57	0x3f2f524a	0.6848494
58	0xbd79bca2	-0.06097091
59	0xbf78bd81	-0.9716416
60	0xbebc10bd	-0.3673152
61	0x3e9a878a	0.30181533
62	0xbeafc8f7	-0.34333012
63	0xbf8371d4	-1.0269113

numerical_embedder.biases f4 [8, 8]
0	0xbf1e97f7	-0.6195063
1	0xbe04ba79	-0.12961759
2	0x3f70f309	0.9412084
3	0xbf194921	-0.5987721
4	0x3e8ac2b5	0.27101675
5	0xbe424d50	-0.18974805
6	0xbfc9d22f	-1.5767268
7	0x3df289e4	0.11842707
8	0xbe1bd79e	-0.1521897
9	0xbfac9262	-1.3482172
10	0x3f6abe6c	0.9169681
11	0x401a8611	2.4144328
12	0xbf576d97	-0.84151596
13	0x3ecf1ab9	0.40450075
14	0x3effbf74	0.49950755
15	0xbd416283	-0.04721309
16	0xbee20f5f	-0.44152352
17	0x3ec61b0d	0.38692513
18	0xbf4c2374	-0.797416
19	0xbf1d920a	-0.6155096
20	0x3ec675c1	0.38761714
21	0xbd83d7b7	-0.06437629
22	0x3f51864e	0.8184556
23	0xbfab11bd	-1.3364788
24	0x3ee47ce6	0.4462654
25	0x3e3b79a1	0.18308116
26	0x3f4f432a	0.8096186
27	0x3d6e4151	0.05816776
28	0xbf18c702	-0.5967866
29	0xbffa3468	-1.9547243
30	0x3fba986e	1.4577768
31	0xbdbefc38	-0.09325451
32	0xbf9e46d4	-1.2365365
33	0xbfd400d7	-1.6562756
34	0x3f34fb55	0.70696
35	0x3ebae931	0.36506036
36	0x3f8f318b	1.1186994
37	0x3f03d1dd	0.514921
38	0x3f6dfc44	0.9296305
39	0xbf883cd8	-1.0643568
40	0xbc8555b9	-0.016276227
41	0x3e9559e7	0.29170153
42	0x3f488b20	0.7833729
43	0x3e783232	0.24237898
44	0x3f670835	0.902469
45	0x3f0a07b3	0.53918
46	0x3fa32147	1.274453
47	0xbfb6b091	-1.4272634
48	0xbf939b24	-1.153172
49	0xbf8f4156	-1.1191814
50	0xbf06dd1d	-0.5268114
51	0xbfb879d0	-1.4412174
52	0xbe2ff1d7	-0.17182098
53	0x3f713f6d	0.94237405
54	0x3d95b4b8	0.0730986
55	0x3ea1e53a	0.31620198
56	0x3ec27949	0.37983158
57	0xbea9a71f	-0.33135316
58	0xbd9e6125	-0.077333726
59	0x3f6c3689	0.92270714
60	0x3f1ad7a6	0.60485303
61	0xbedb29bc	-0.42805278
62	0x3fad3752	1.3532507
63	0x3df77ef0	0.12084758

transformer.layers.0.0.static_alpha f4 [4, 5]
0	0x3e664390	0.2248671
1	0x3f800000	1.0
2	0x00000000	0.0
3	0x00000000	0.0
4	0x00000000	0.0
5	0x3f9cc860	1.224865
6	0x00000000	0.0
7	0x3f800000	1.0
8	0x00000000	0.0
9	0x00000000	0.0
10	0x3e664390	0.2248671
11	0x00000000	0.0
12	0x00000000	0.0
13	0x3f800000	1.0
14	0x00000000	0.0
15	0x3e664390	0.2248671
16	0x00000000	0.0
17	0x00000000	0.0
18	0x00000000	0.0
19	0x3f800000	1.0

transformer.layers.0.0.dynamic_alpha_fn f4 [8, 5]
0	0x3df69b77	0.12041371
1	0x00000000	0.0
2	0x00000000	0.0
3	0x00000000	0.0
4	0x00000000	0.0
5	0x3e2d4f8d	0.16924877
6	0x00000000	0.0
7	0x00000000	0.0
8	0x00000000	0.0
9	0x00000000	0.0
10	0xbdc208bb	-0.094743215
11	0x00000000	0.0
12	0x00000000	0.0
13	0x00000000	0.0
14	0x00000000	0.0
15	0xbe7cd77a	-0.24691573
16	0x00000000	0.0
17	0x00000000	0.0
18	0x00000000	0.0
19	0x00000000	0.0
20	0x3dac74eb	0.08420738
21	0x00000000	0.0
22	0x00000000	0.0
23	0x00000000	0.0
24	0x00000000	0.0
25	0x3e03a814	0.12857085
26	0x00000000	0.0
27	0x00000000	0.0
28	0x00000000	0.0
29	0x00000000	0.0
30	0x3e1539d7	0.14572845
31	0x00000000	0.0
32	0x00000000	0.0
33	0x00000000	0.0
34	0x00000000	0.0
35	0xbe4a57e0	-0.19760084
36	0x00000000	0.0
37	0x00000000	0.0
38	0x00000000	0.0
39	0x00000000	0.0

transformer.layers.0.0.static_beta f4 [4]
0	0x3f7af2e7	0.9802689
1	0x3f85226d	1.0401131
2	0x3f748293	0.9551174
3	0x3f8e0ebe	1.1098249

transformer.layers.0.0.dynamic_beta_fn f4 [8]
0	0xbe408579	-0.18800916
1	0xbcf73f85	-0.030181656
2	0xbe29ba95	-0.16575082
3	0xbdcbbf0f	-0.09948551
4	0x3e1a53ea	0.15071073
5	0x3e794a3b	0.24344723
6	0x3e8c6a82	0.2742501
7	0xbdab75e3	-0.083720945

transformer.layers.0.0.branch.norm.weight f4 [8]
0	0x3f8f6002	1.1201174
1	0x3f851cd9	1.0399429
2	0x3f93b15f	1.1538504
3	0x3f8e2b3c	1.1106944
4	0x3f8b21e1	1.0869714
5	0x3f95aadc	1.1692767
6	0x3f93b951	1.1540929
7	0x3f81c6e1	1.0138818

transformer.layers.0.0.branch.norm.bias f4 [8]
0	0xbe107817	-0.1410831
1	0x3db86869	0.0900429
2	0xbc66d167	-0.014088011
3	0xbdd8da23	-0.10588481
4	0x3e136e14	0.1439746
5	0xbc54f86d	-0.012998682
6	0x3dccbade	0.099965796
7	0x3d0ae510	0.033909857

transformer.layers.0.0.branch.to_qkv.weight f4 [192, 8]
0	0x3c060de2	0.008182021
1	0xbe8b429b	-0.27199253
2	0xbd2c0265	-0.04199447
3	0xbe374e54	-0.17900974
4	0xbdf983f2	-0.1218337
5	0x3bd3b515	0.0064607956
6	0x3dfc886b	0.12330707
7	0xbe710cd8	-0.23540056
8	0x3e433d1c	0.1906628
9	0x3eb88138	0.36036086
10	0x3d6e5ffd	0.05819701
11	0xbd36a781	-0.044593338
12	0x3dbeca25	0.093159
13	0xbe38090f	-0.17972206
14	0xbe81ce05	-0.25352493
15	0xbea4f2be	-0.32216448
16	0x3da74352	0.08167137
17	0x3e26a86d	0.16275187
18	0xbe3e16fa	-0.18563452
19	0x3e64dbc7	0.22349463
20	0x3d8d8371	0.06909836
21	0x3e353865	0.17697294
22	0x3e4c2e6c	0.19939584
23	0xbd806df6	-0.062709734
24	0xbe7d096c	-0.24710625
25	0xbe04da81	-0.12973978
26	0xbcd07d19	-0.025450276
27	0xbe703b80	-0.23460197
28	0x3e20c75f	0.15701054
29	0x3de16d80	0.110072136
30	0x3eda1e8b	0.42601427
31	0x3e2073fb	0.15669243
32	0x3d095a34	0.03353329
33	0x3e11d389	0.1424085
34	0x3e737091	0.2377341
35	0x3e011410	0.1260531
36	0x3dc3ef25	0.095670976
37	0xbe325c87	-0.17418109
38	0x3e3416db	0.17586844
39	0x3d60abbf	0.05485129
40	0xbd0a07f7	-0.033699002
41	0xbdd36004	-0.10321048
42	0x3dba7ca0	0.091058016
43	0xbe2e8678	-0.17043483
44	0x3e85eefd	0.26158896
45	0x3d894501	0.067026146
46	0x3dbf882d	0.09352145
47	0x3e620743	0.22073083
48	0x3e888e80	0.2667122
49	0xbddfce5d	-0.109280325
50	0xbe1ab01b	-0.15106241
51	0xbc8f5336	-0.017495733
52	0xbe5e6fb8	-0.21722305
53	0x3e194ba6	0.14970264
54	0x3de42f1a	0.111417964
55	0x3e8d3c55	0.27585092
56	0xbe74f5be	-0.23921868
57	0xbea84f76	-0.32873124
58	0x3c87a116	0.016556304
59	0xbe594c28	-0.21220458
60	0x3c21ab4b	0.0098675
61	0x3e4a134c	0.19733924
62	0xbcdd34d0	-0.027002722
63	0xbd038342	-0.0321076
64	0x3ddb65ae	0.10712753
65	0xbdd46951	-0.1037165
66	0x3ea574ca	0.32315665
67	0xbecf0bf1	-0.40438798
68	0x3e4d7682	0.20064738
69	0xbe153ec9	-0.14574732
70	0x3e1f0d7f	0.15532492
71	0x3e92b9e6	0.28657454
72	0x3d8857c8	0.06657368
73	0xbe339cd7	-0.17540298
74	0x3e19430a	0.1496698
75	0xbde27a66	-0.11058502
76	0xbda79a6e	-0.08183752
77	0x3da9fe33	0.08300438
78	0x3e4518cc	0.1924774
79	0xbe983648	-0.29728913
80	0xbe902ee9	-0.2816079
81	0xbecd3469	-0.40079048
82	0xbe96e862	-0.2947417
83	0x3dea83e0	0.114509344
84	0x3eaa1ffc	0.33227527
85	0x3e03359c	0.12813419
86	0xbd2dab43	-0.042399656
87	0xbc05e148	-0.008171387
88	0xbdf84602	-0.12122728
89	0x3e63b3a2	0.22236493
90	0xbe9f158f	-0.31071135
91	0xbd3f97b6	-0.046775542
92	0x3e332a10	0.17496514
93	0xbe203fd7	-0.15649353
94	0xbdbc5c23	-0.09197261
95	0x3e620514	0.2207225
96	0x3ec8f15a	0.39246637
97	0x3ddc0a37	0.10744136
98	0x3e8bd7e8	0.2731316
99	0x3da4c5d3	0.080455445
100	0x3cc11af4	0.023572423
101	0x3df46ae5	0.11934451
102	0x3e196253	0.14978914
103	0x3d8b5dfc	0.068050355
104	0xbea758ce	-0.3268494
105	0x3e3db362	0.1852546
106	0xbda82ae9	-0.082113095
107	0xbda495d9	-0.08036394
108	0x3e586980	0.21133995
109	0xbd52c8a1	-0.051460866
110	0xbe5bd804	-0.21469122
111	0x3dd782c5	0.10522989
112	0x3e4a8c77	0.19780146
113	0x3df19054	0.117951065
114	0xbd0b7514	-0.0340472
115	0xbed13d6b	-0.4086717
116	0x3dc00e93	0.0937778
117	0x3eb67480	0.35635757
118	0x3dd51111	0.10403646
119	0xbe1637ee	-0.14669773
120	0x3e3d92d3	0.1851304
121	0x3e6ba2c3	0.23011307
122	0x3c77a37d	0.015114662
123	0xbe0445cd	-0.12917252
124	0xbd608d31	-0.05482215
125	0xbda1073b	-0.07862707
126	0x3ddf24a3	0.1089566
127	0xbe9185ac	-0.28422296
128	0x3d0fd76a	0.035117544
129	0xbe5fdb33	-0.21860962
130	0x3e166948	0.14688599
131	0x3d1bc0da	0.038025714
132	0x3e35f27c	0.17768282
133	0xbe571d53	-0.2100728
134	0xbe6be14e	-0.23035166
135	0xbeab9c47	-0.33517668
136	0x3ee4225d	0.44557467
137	0xbe82f2d4	-0.25575888
138	0x3f09d5a0	0.5384159
139	0xbdc36a3e	-0.095417485
140	0xbcca0b35	-0.024663547
141	0xbcb7a74d	-0.022418642
142	0xbb9044ed	-0.004402748
143	0x3eadc652	0.3394037
144	0xbe757010	-0.2396853
145	0x3e66a359	0.2252325
146	0x3e9973e3	0.29971227
147	0xbe08b41b	-0.13349955
148	0x3e1ae5d6	0.15126738
149	0x3da0cc07	0.07851415
150	0xbd22c9e2	-0.03974331
151	0xbe999180	-0.2999382
152	0xbe6bc5da	-0.23024693
153	0xbe06c57d	-0.13161273
154	0x3e939a74	0.28828776
155	0x3e8f3b6d	0.27975026
156	0xbed0a939	-0.40754107
157	0x3e8e268a	0.27763778
158	0xbd5200dd	-0.051270355
159	0x3d30abd3	0.043132614
160	0x3ea6d009	0.32580593
161	0xbeb17dcf	-0.34666297
162	0xbd9790b6	-0.07400648
163	0x3dd44d99	0.10366363
164	0xbeb27f91	-0.3486295
165	0xbe231fb2	-0.1593006
166	0xbe0f3da4	-0.13988358
167	0x3d68238b	0.05667452
168	0x3ee18ff9	0.44055155
169	0xbebd883e	-0.37018007
170	0x3ee0f1b9	0.4393442
171	0x3ee49ee9	0.4465249
172	0xbf0c225c	-0.5473993
173	0xbdaf9bc1	-0.085746296
174	0x3e1a7cd0	0.15086675
175	0x3eecc54e	0.46244282
176	0x3ed47e61	0.4150267
177	0x3e58ec4f	0.21183895
178	0x3e596032	0.21228102
179	0x3ea3ea9c	0.3201493
180	0xbe95aee8	-0.29235005
181	0x3e8d0efa	0.2755049
182	0xbeaf8af8	-0.34285712
183	0xbe3701d1	-0.17871787
184	0x3e7723ca	0.24134746
185	0x3eb965bb	0.36210427
186	0x3e5decdf	0.2167239
187	0xbeeb077e	-0.45904154
188	0xbd271653	-0.040792774
189	0x3e847c65	0.25876155
190	0x3eac7f69	0.33690956
191	0xbe5ac988	-0.2136594
192	0xbdb70187	-0.08935838
193	0xbcef7940	-0.029232621
194	0xbe3cb1ec	-0.18427247
195	0xbeb99d64	-0.36252892
196	0xbe2f930e	-0.1714594
197	0x3eb24b43	0.34823045
198	0x3ea5b534	0.3236481
199	0xbec108a3	-0.37701902
200	0x3bcb780d	0.0062093795
201	0x3db3a6ac	0.087720245
202	0xbd97a4cf	-0.074044816
203	0xbe93517d	-0.28773108
204	0x3eed6d34	0.46372378
205	0x3eb715ac	0.35758722
206	0x3f0f6d73	0.5602638
207	0xbe3f4688	-0.1867925
208	0xbd268960	-0.040658355
209	0x3e6a367e	0.2287235
210	0xbe9b5ca8	-0.3034413
211	0x3e72d37a	0.23713484
212	0x3e4efeee	0.20214435
213	0x3eadf1a7	0.3397343
214	0xbd43ac2c	-0.047771618
215	0x3e96c361	0.29445937
216	0x3dcd84b4	0.10035077
217	0xbe6dc73f	-0.23220538
218	0x3e5c7769	0.21529926
219	0x3ed40d5a	0.41416436
220	0xbe8d5042	-0.27600294
221	0x3dbc74ed	0.09201989
222	0x3c956d26	0.018240523
223	0x3ee16d38	0.4402864
224	0x3e734580	0.23756981
225	0xbe8d972f	-0.27654406
226	0x3dcb6563	0.09931447
227	0xbdb1047c	-0.086434335
228	0xbe94f60b	-0.29093966
229	0x3d7a814f	0.061158475
230	0x3e325c9d	0.17418142
231	0xbe4d23e6	-0.20033225
232	0xbe37286e	-0.17886516
233	0xbe9085d1	-0.28227094
234	0x3d035db5	0.032071788
235	0xbe776aac	-0.24161786
236	0xbac54609	-0.0015050779
237	0xbe7b86f4	-0.245632
238	0x3d1fee0b	0.039045375
239	0xbeb9b973	-0.362743
240	0x3f042e81	0.5163346
241	0x3e82a77b	0.25518402
242	0x3e697f13	0.22802381
243	0xbcca78c0	-0.024715781
244	0xbb0e4ae9	-0.002171213
245	0xbed82029	-0.42212036
246	0xbec53329	-0.38515595
247	0xbc8fc717	-0.017550988
248	0xbe654dae	-0.22392914
249	0x3eb12cc0	0.34604454
250	0xbce78365	-0.028260896
251	0xbe9efc4d	-0.31051865
252	0x3e8ae650	0.2712884
253	0xbe2e0c76	-0.16996941
254	0x3e82937a	0.2550314
255	0xbd4b3812	-0.04961402

transformer.layers.0.0.branch.to_out.weight f4 [8, 64]
0	0x3d10082f	0.035164054
1	0xbd71d5df	-0.059041854
2	0x38063752	3.199961e-05
3	0xbd9b616b	-0.075869404
4	0x3deb4ee2	0.11489655
5	0xbc76868c	-0.015046727
6	0xbd76b68d	-0.060232688
7	0xbd0ca963	-0.034341227
8	0xbd0f97ee	-0.035057
9	0x3d8185ba	0.063243344
10	0x3d3b9012	0.045791693
11	0x3ccf8e50	0.025336415
12	0xbcaca998	-0.021076962
13	0x3cdba56b	0.026812276
14	0x3dbf0117	0.0932638
15	0xbdfe5d29	-0.12420113
16	0x3d44db0b	0.04806046
17	0xbcee598a	-0.02909543
18	0x3e1ad907	0.15121852
19	0x3d3dd9b7	0.046350207
20	0x3dbedeeb	0.09319862
21	0x3d50e389	0.050998244
22	0xbbe95801	-0.0071210866
23	0xbc0d2bd9	-0.008616411
24	0x3d575e27	0.052580025
25	0x3c49560f	0.012288584
26	0xbe103510	-0.14082742
27	0x3d29dead	0.041472126
28	0xbc88093a	-0.016605962
29	0xbdd88d68	-0.10573846
30	0xbc26d10f	-0.010181679
31	0xbafe4f4c	-0.0019402294
32	0x3bd59b3e	0.0065187505
33	0xbc81e25a	-0.015855003
34	0x3cf5ecdc	0.03002017
35	0xbd422da8	-0.047406822
36	0x3d8227ca	0.063552454
37	0x3db40bad	0.087912895
38	0xbd5e5d8a	-0.054288425
39	0xbd8e6409	-0.06952674
40	0xbdda6446	-0.10663657
41	0x3e0efb37	0.13963018
42	0x3dde9a7b	0.108693086
43	0xbe1ba7ec	-0.15200776
44	0x3cb2c11c	0.021820597
45	0x3da6563d	0.081219174
46	0xbd067600	-0.032827377
47	0xbd1f9b46	-0.03896644
48	0x3dac2439	0.084053464
49	0x3e23c95d	0.15994783
50	0x3e61607a	0.22009459
51	0x3e2b6fd3	0.16741876
52	0x3e19cf58	0.15020502
53	0xbda0e432	-0.07856025
54	0x3e0964a8	0.13417304
55	0x3dcb47b7	0.09925788
56	0xbd6b76fc	-0.05748652
57	0xbe07b4f0	-0.13252616
58	0xbde6c0b7	-0.11267226
59	0x3f05fc20	0.5233784
60	0x3d9f56d9	0.07780237
61	0x3dfe9263	0.12430265
62	0x3eb02e15	0.34410158
63	0x3cc42e09	0.023947733
64	0x3c909b16	0.017652076
65	0x3cd71bc9	0.026258366
66	0x3e090f5d	0.13384767
67	0x3ddb5ba1	0.10710836
68	0x3d4b915d	0.049699176
69	0x3e5ed4fc	0.21760935
70	0xbbbea436	-0.0058179153
71	0x3deefa1a	0.11668797
72	0xbd869c6d	-0.065728046
73	0x3e36e089	0.17859091
74	0x3dc0bb97	0.0941078
75	0xbd30237f	-0.0430026
76	0xbd3c95e7	-0.046041396
77	0x3d351930	0.044213474
78	0x3de03a1c	0.109485835
79	0xbe345da1	-0.17613842
80	0x3dc04322	0.093878046
81	0xbcc1cc86	-0.023657095
82	0x3da54f76	0.080717966
83	0xbe102e8f	-0.1408026
84	0xbda21530	-0.079141974
85	0x3c5b34d9	0.013379299
86	0xbe02ff8f	-0.127928
87	0xbc086c59	-0.008326613
88	0xbd08a105	-0.033356685
89	0xbdde7ad5	-0.10863272
90	0x3d802177	0.06256383
91	0x3e083094	0.13299781
92	0xbe05ff50	-0.13085675
93	0xbcaacda7	-0.020850016
94	0x3cf1b842	0.029506806
95	0xbdd4b74b	-0.10386523
96	0x3dbdb1cd	0.092624284
97	0xbd3df955	-0.04638036
98	0xbe368169	-0.17822804
99	0x3c89b82e	0.016811457
100	0xbd96c749	-0.073622294
101	0xbd57961c	-0.05263339
102	0x3e21cd00	0.15800858
103	0xbe4c465a	-0.19948712
104	0xbdb212e4	-0.08695009
105	0xbdbf271e	-0.09333633
106	0x3dd081c2	0.10180999
107	0xbd968239	-0.07349057
108	0x3ca3e5bc	0.020007007
109	0xbdd3f5b2	-0.10349597
110	0x3d108f28	0.035292774
111	0x3d8fb3e3	0.070167325
112	0x3e47c8b1	0.19510151
113	0xbe28de63	-0.16491084
114	0xbc3a48a5	-0.011369859
115	0xbe48777d	-0.19576831
116	0x3c284c43	0.010272088
117	0x3e4ae064	0.1981216
118	0xbd911c1e	-0.07085441
119	0xbcaeba52	-0.021329079
120	0x3b9574d3	0.0045610457
121	0x3dcd5a8b	0.10027035
122	0x3e827762	0.25481707
123	0xbf01267e	-0.5044936
124	0xbe056d17	-0.13029896
125	0xbddddf60	-0.10833621
126	0xbee303fa	-0.4433897
127	0x3d9b26c2	0.07575752
128	0xbd9b529f	-0.07584118
129	0xbdae1d23	-0.08501651
130	0xbc758c0d	-0.014987004
131	0xbd870ec1	-0.06594611
132	0x3dab036f	0.08350264
133	0xbc57761f	-0.013150721
134	0xbda3d91f	-0.08000397
135	0xbce691fb	-0.02814578
136	0x3e1a815b	0.15088408
137	0x3caeb2a9	0.021325426
138	0x3d8e4419	0.06946582
139	0x3ddc7708	0.10764891
140	0x3d7da7c3	0.06192757
141	0xbda632d9	-0.08115167
142	0x3d3639b1	0.044488613
143	0x3d2383e4	0.039920703
144	0x3db1efba	0.08688302
145	0x3d3cad0f	0.04606348
146	0x3d9d6232	0.07684745
147	0xbd2beb3c	-0.041972384
148	0x3d722048	0.059112817
149	0x3dae5bb6	0.08513586
150	0xbe043c52	-0.12913635
151	0xbe0138ee	-0.12619373
152	0xbb8aa30d	-0.004230863
153	0xbd69d0d8	-0.057083935
154	0x3dd16b79	0.10225577
155	0xbd01930b	-0.03163437
156	0xbc3ac164	-0.011398647
157	0x3d98b504	0.07456401
158	0xbcefc7f4	-0.02927015
159	0x3a84457b	0.0010091508
160	0xbd8c7291	-0.06857789
161	0x3d7d9d29	0.061917458
162	0x3b14d6c6	0.0022711023
163	0x3d082854	0.033241585
164	0xbd063d78	-0.032773465
165	0xbd374046	-0.04473903
166	0x3e1491af	0.14508699
167	0xbe10a98e	-0.1412718
168	0xbd938270	-0.07202613
169	0x3d99494e	0.07484685
170	0xbd59116f	-0.05299514
171	0xbe2034a1	-0.15645076
172	0xbdb02bbb	-0.08602091
173	0x3d83c0ef	0.064332835
174	0xbd144a5c	-0.036203727
175	0x3cb53fb4	0.022125103
176	0x3e2b2cc8	0.16716301
177	0xbdafa6a4	-0.08576706
178	0xbb8274db	-0.0039812154
179	0x3dd4b6b8	0.10386413
180	0x3d2b3760	0.041800857
181	0x3e08b743	0.13351159
182	0x3ca5fd92	0.020262513
183	0xbc90aadf	-0.017659603
184	0x3d817c34	0.06322518
185	0x3e24aebc	0.16082281
186	0x3d527532	0.051381297
187	0xbf022a9f	-0.50846285
188	0xbe11e42c	-0.14247197
189	0x3c220c3f	0.009890615
190	0xbe4a7be2	-0.1977382
191	0x3c23222a	0.009956876
192	0xbde468d4	-0.11152807
193	0xbc207b6a	-0.009795049
194	0x3df18a88	0.11794001
195	0x3db09c28	0.086235344
196	0x3bcc9827	0.006243724
197	0x3e0ee21c	0.13953441
198	0x3d0c33cc	0.034229085
199	0x3e5bc1cb	0.21460645
200	0x3c17b084	0.009258393
201	0x3defad2f	0.11702954
202	0xbd0fbf4b	-0.03509454
203	0xbd3da544	-0.046300188
204	0xbca56d8b	-0.020193836
205	0xbd2536e6	-0.04033556
206	0x3ca26914	0.019825496
207	0xbd31554a	-0.04329423
208	0x3d938f59	0.07205076
209	0xbda9d4fc	-0.08292577
210	0xbda2bae2	-0.07945801
211	0xbe213b4e	-0.15745279
212	0xbd9a598e	-0.075366125
213	0x3cd81980	0.026379347
214	0xbda481de	-0.08032583
215	0x3d6da1b2	0.058015533
216	0xbdc8a8ff	-0.097978584
217	0xbd6604fc	-0.056157097
218	0x3e4b4f46	0.19854459
219	0x3e01903e	0.1265268
220	0xbdb9d1c4	-0.09073213
221	0xbd063192	-0.032762118
222	0xbd219eab	-0.03945796
223	0xbe0aaf61	-0.13543464
224	0x3e1430d4	0.14471751
225	0x3db457a0	0.08805776
226	0x3cbac75b	0.022800138
227	0xbd993ca7	-0.07482272
228	0xbe112fad	-0.14178343
229	0xbd66e56e	-0.056371145
230	0x3da0e412	0.07856001
231	0xbd504636	-0.05084821
232	0xbd5c5031	-0.053787414
233	0xbcce7234	-0.02520094
234	0xbd23e36d	-0.040011812
235	0xbdf27301	-0.118383415
236	0xbdee31c6	-0.11630587
237	0x3bc16c2f	0.005902789
238	0xbd822d40	-0.06356287
239	0x3d0b4955	0.03400548
240	0xbc931581	-0.01795459
241	0x3c7cefd0	0.015438035
242	0x3cd3de1f	0.025862752
243	0xbda2ddf3	-0.0795249
244	0x3dbecebc	0.09316775
245	0x389eb5ae	7.5678676e-05
246	0xbdd1482f	-0.10218846
247	0x3e555f76	0.20837197
248	0x3d061539	0.032735083
249	0x3db9a81b	0.09065267
250	0x3d3b3702	0.045706756
251	0x3d6589b9	0.056039546
252	0x3bfded46	0.0077492325
253	0xbda297ae	-0.07939087
254	0xbe7241e2	-0.23657945
255	0x3dbb6283	0.09149649

transformer.layers.0.0.norm.gamma f4 [8]
0	0x3e50ec52	0.20402649
1	0x3d7c9928	0.0616695
2	0x3e2d6ce2	0.16936067
3	0x3e3cdcf8	0.18443668
4	0x3e8d7e61	0.27635482
5	0x3e8c0f9f	0.27355668
6	0x3f012ee5	0.5046218
7	0x3db37e20	0.08764291

transformer.layers.0.1.static_alpha f4 [4, 5]
0	0x3f85fe99	1.0468322
1	0x3f800000	1.0
2	0x00000000	0.0
3	0x00000000	0.0
4	0x00000000	0.0
5	0x3c1d0723	0.009584221
6	0x00000000	0.0
7	0x3f800000	1.0
8	0x00000000	0.0
9	0x00000000	0.0
10	0x3a535551	0.00080617244
11	0x00000000	0.0
12	0x00000000	0.0
13	0x3f800000	1.0
14	0x00000000	0.0
15	0x3c882539	0.016619312
16	0x00000000	0.0
17	0x00000000	0.0
18	0x00000000	0.0
19	0x3f800000	1.0

transformer.layers.0.1.dynamic_alpha_fn f4 [8, 5]
0	0xbc46208f	-0.0120927235
1	0x00000000	0.0
2	0x00000000	0.0
3	0x00000000	0.0
4	0x00000000	0.0
5	0x3d844556	0.06458537
6	0x00000000	0.0
7	0x00000000	0.0
8	0x00000000	0.0
9	0x00000000	0.0
10	0xbd2c643e	-0.042087786
11	0x00000000	0.0
12	0x00000000	0.0
13	0x00000000	0.0
14	0x00000000	0.0
15	0xba428b19	-0.000742124
16	0x00000000	0.0
17	0x00000000	0.0
18	0x00000000	0.0
19	0x00000000	0.0
20	0x3b7297b1	0.0037016685
21	0x00000000	0.0
22	0x00000000	0.0
23	0x00000000	0.0
24	0x00000000	0.0
25	0xbd65aa49	-0.0560706
26	0x00000000	0.0
27	0x00000000	0.0
28	0x00000000	0.0
29	0x00000000	0.0
30	0x3b05e861	0.0020432698
31	0x00000000	0.0
32	0x00000000	0.0
33	0x00000000	0.0
34	0x00000000	0.0
35	0xbc4860f5	-0.012230148
36	0x00000000	0.0
37	0x00000000	0.0
38	0x00000000	0.0
39	0x00000000	0.0

transformer.layers.0.1.static_beta f4 [4]
0	0x3f813699	1.0094787
1	0x3f874e6a	1.0570805
2	0x3f7e7301	0.9939423
3	0x3f8731b3	1.0562042

transformer.layers.0.1.dynamic_beta_fn f4 [8]
0	0x3b2efc2b	0.0026700597
1	0xbd8652d0	-0.06558764
2	0xbdcaa305	-0.09894375
3	0xbd25cbc9	-0.040477548
4	0x3e1cbfed	0.15307589
5	0x3d11af60	0.03556764
6	0x3e0b95a6	0.13631305
7	0xbd51990f	-0.05117136

transformer.layers.0.1.branch.0.weight f4 [8]
0	0x3f86cfdc	1.0532184
1	0x3f8da0c3	1.1064686
2	0x3f8259b1	1.0183622
3	0x3f87a2a6	1.0596511
4	0x3f7f59d7	0.9974646
5	0x3f742e17	0.9538283
6	0x3f8fedac	1.1244407
7	0x3f7acb75	0.979667

transformer.layers.0.1.branch.0.bias f4 [8]
0	0xbd1ba199	-0.03799591
1	0xbdde7dab	-0.10863813
2	0x3d420991	0.047372404
3	0xbc2c1e5f	-0.010505288
4	0xbc783a02	-0.015150549
5	0xbcbcda46	-0.0230533
6	0xbd7636b9	-0.06011078
7	0xbbe9e510	-0.007137902

transformer.layers.0.1.branch.1.weight f4 [64, 8]
0	0xbe2c91d2	-0.16852501
1	0x3e68989b	0.22714464
2	0x3e1f63fc	0.15565485
3	0xbcda2d3e	-0.026632901
4	0xbeb11c61	-0.34591964
5	0xbe1de9c5	-0.15421207
6	0x3deb6480	0.11493778
7	0xbeabd920	-0.3356409
8	0xbe82cfcf	-0.2554917
9	0x3e0f3c0d	0.13987751
10	0x3e4690ae	0.19391128
11	0xbee319da	-0.4435566
12	0x3f011451	0.50421625
13	0x3ec7219c	0.3889283
14	0xbd020c53	-0.031750035
15	0xbef291c2	-0.4737683
16	0x3d1c18ed	0.03810971
17	0x3dff5b95	0.1246864
18	0xbe84ebe4	-0.2596122
19	0x3c6cff29	0.014465132
20	0xbe135b1f	-0.14390229
21	0x3d9afefb	0.07568165
22	0x3ec87344	0.3915044
23	0x3e8a0c46	0.2696249
24	0xbe669a32	-0.22519758
25	0xbe3376e3	-0.1752582
26	0x3de16b52	0.11006798
27	0x3ee56d0b	0.44809756
28	0x3ec51cb4	0.3849846
29	0x3d4a9669	0.04945985
30	0xbdec86e1	-0.115491636
31	0xbc0791fb	-0.008274551
32	0xbd69d313	-0.05708606
33	0xbb802334	-0.0039104465
34	0xbe6799a5	-0.22617204
35	0x3eb2ded2	0.34935623
36	0x3e9f2b8c	0.3108791
37	0x3d0f548a	0.034992732
38	0x3e763485	0.24043472
39	0x3d49bc92	0.0492521
40	0x3dca8fc6	0.09890704
41	0x3e1446a5	0.14480074
42	0xbc97181f	-0.018444119
43	0x3e0368a8	0.12832892
44	0xbea5bafe	-0.32369226
45	0xbddd16dd	-0.107953764
46	0x3e1fe4eb	0.15614669
47	0x3eb1fa9c	0.34761512
48	0xbd8c8a77	-0.068623476
49	0x3e901851	0.28143552
50	0xbe3bd6c2	-0.18343642
51	0x3ebdb003	0.3704835
52	0x3eddf4bf	0.4335079
53	0xbe3f5b21	-0.18687107
54	0x3c8a5fe7	0.016891433
55	0xbee6c063	-0.45068654
56	0x3eb4ac37	0.3528764
57	0x3d4d6273	0.050142717
58	0xbf293b88	-0.6610646
59	0xbc625887	-0.013815052
60	0xbaf198b7	-0.0018432353
61	0x3d9f3202	0.0777321
62	0x3eb0f3ad	0.3456091
63	0xbcda9593	-0.02668265
64	0x3d67fa38	0.05663511
65	0xbe9ff151	-0.31238797
66	0x3ee1f33d	0.4413089
67	0x3d5bc19a	0.05365143
68	0x3e47c4c3	0.19508652
69	0xbe4c4f98	-0.19952238
70	0xbf22c417	-0.6358046
71	0xbe0e5def	-0.1390302
72	0xbe6c0d7e	-0.23052022
73	0x3f059869	0.52185684
74	0x3e0b4f9e	0.1360459
75	0x3d3b7988	0.045770198
76	0xbecca0c0	-0.39966393
77	0xbeafa103	-0.3430253
78	0x3ddeb6a5	0.108746804
79	0xbd3d78b0	-0.046257675
80	0x3e6d47cf	0.23171924
81	0x3dce15f8	0.10062784
82	0xbe21c66f	-0.15798353
83	0xbe6b41f5	-0.2297438
84	0x3e42bbd7	0.19016968
85	0x3d6be2f7	0.057589497
86	0x3eb9582d	0.36200085
87	0x3e6a2f68	0.22869647
88	0xbd15dd5d	-0.03658806
89	0x3e80aa64	0.25129998
90	0x3eae0cce	0.33994144
91	0xbe9ece78	-0.31016898
92	0xbe18cbf7	-0.14921556
93	0x3e702b6b	0.23454063
94	0xbef52098	-0.4787643
95	0xbc65dd49	-0.014029809
96	0x3db21e53	0.0869719
97	0x3ec29bb4	0.38009417
98	0xbe3cb75f	-0.18429326
99	0x3c65c131	0.014023111
100	0x3e886cd1	0.2664552
101	0xbe6d190a	-0.23154083
102	0x3e82400a	0.25439483
103	0xbebb397c	-0.36567295
104	0x3db3039d	0.087409236
105	0xbf2ca555	-0.67439777
106	0xbe8d7874	-0.2763096
107	0xbdc4f45d	-0.09616921
108	0x3ec01e5e	0.37523168
109	0x3c0804a7	0.00830189
110	0xbe38f8a1	-0.18063594
111	0xbaa0a91f	-0.0012257433
112	0x3cb403b8	0.02197443
113	0x3e736259	0.23767985
114	0xbe92279a	-0.2854584
115	0x3e2bdf49	0.16784395
116	0xbc04e138	-0.008110337
117	0x3e0b2f36	0.13592228
118	0xbed62c2e	-0.4183058
119	0x3e68ab89	0.22721685
120	0xbe5e42e4	-0.21705204
121	0x3e81d74a	0.25359565
122	0x3e1cd48e	0.15315458
123	0xbeaa2667	-0.33232424
124	0xbe1bdb76	-0.15220436
125	0xbdf62323	-0.120184205
126	0xbe22b329	-0.15888657
127	0xbc38584b	-0.011251519
128	0x3ebc1ec7	0.3674223
129	0x3eee4a30	0.46540976
130	0xbd3d315c	-0.04618965
131	0xbe0a5145	-0.13507564
132	0x3dea477d	0.114394166
133	0xbd821528	-0.063516915
134	0x3ec9cd98	0.39414668
135	0xbdd56e50	-0.10421431
136	0x3cb3a361	0.021928491
137	0xbf166815	-0.58752567
138	0x3eca0276	0.39455003
139	0xbe6cafb7	-0.23113905
140	0x3c44d3be	0.012013374
141	0x3d34e23b	0.044161063
142	0xbef3c06e	-0.4760775
143	0x3e8f0bbf	0.2793865
144	0x3e158121	0.1460004
145	0x3e317d46	0.17332944
146	0xbe3f27cf	-0.1866753
147	0x3d2563da	0.04037843
148	0xbdb0a1a7	-0.08624583
149	0x3d9809af	0.07423722
150	0x3eed65ab	0.4636663
151	0xbe91d624	-0.2848369
152	0x3e873a26	0.2641155
153	0x3ef5d772	0.48015934
154	0x3e73035d	0.23731752
155	0xbe269b28	-0.16270125
156	0xbeed128f	-0.46303222
157	0xbe1c5562	-0.15266946
158	0x3e750cba	0.23930636
159	0x3ddfa3c3	0.10919907
160	0xbee6f23c	-0.45106685
161	0xbd0cb9d4	-0.034356907
162	0x3d06c8f7	0.0329065
163	0xbd6e6c54	-0.05820878
164	0x3eee5d01	0.4655533
165	0x3eb200b7	0.3476617
166	0xbe4e8694	-0.20168525
167	0x3e5f0a0b	0.21781175
168	0x3ed2f907	0.41205618
169	0xbead29ae	-0.33820862
170	0xbe4796b9	-0.1949109
171	0x3f229b73	0.63518447
172	0x3d3cfba7	0.046138432
173	0x3e41772c	0.18893117
174	0xbd3cd0ff	-0.04609775
175	0x3c9e3f53	0.019317305
176	0x3d6a7c95	0.057247717
177	0x3e90eb0b	0.28304324
178	0xbe5f7168	-0.21820605
179	0xbe0cf38f	-0.13764785
180	0x3e9f7495	0.31143633
181	0xbe97b688	-0.29631448
182	0x3ef360d3	0.4753481
183	0xbd85a1ba	-0.065249875
184	0x3e5a2200	0.21302032
185	0xbecf41aa	-0.40479785
186	0x3ddac703	0.1068249
187	0xbe7cb302	-0.24677661
188	0xbeb4c1a2	-0.3530398
189	0x3d7732bd	0.060351122
190	0x3eb40e3c	0.3516711
191	0xbea93fc0	-0.3305645
192	0xbdb6b0ac	-0.08920416
193	0x3ea6111a	0.32434922
194	0x3e837b36	0.2567994
195	0xbe68367c	-0.22677034
196	0x3e8e2328	0.27761197
197	0xbde61d1c	-0.11236021
198	0x3dce177e	0.100630745
199	0x3e6b4d9c	0.22978824
200	0xbca96b6e	-0.02068111
201	0x3f0ab87c	0.5418775
202	0xbdfd1d8b	-0.123591505
203	0x3e1c8756	0.15286002
204	0x3d1aeaf0	0.03782171
205	0x3de1303b	0.10995527
206	0x3e6fa9ac	0.23404568
207	0xbbb48cc5	-0.005509945
208	0xbf02b74e	-0.5106095
209	0xbf09da7d	-0.5384901
210	0x3dd716e5	0.10502414
211	0xbe77217b	-0.24133866
212	0x3e93a8c0	0.28839684
213	0x3ef18982	0.47175223
214	0xbf1c88dd	-0.61146337
215	0x3d99d990	0.075122
216	0x3e9367e9	0.28790215
217	0x3de02fa2	0.10946585
218	0xbe79e360	-0.24403143
219	0x3df0c20f	0.11755764
220	0x3d961a03	0.0732918
221	0xbe4968a3	-0.19668822
222	0x3e2cf117	0.16888843
223	0xbe4db587	-0.20088778
224	0xbd7e20a4	-0.062042847
225	0xbe1240c4	-0.14282519
226	0xbdc7295e	-0.09724687
227	0xbe085e7d	-0.13317294
228	0xbe81688f	-0.25275084
229	0x3d98d928	0.07463294
230	0x3eb0b718	0.3451469
231	0xbe935495	-0.28775468
232	0xbd9ad644	-0.07560399
233	0x3e59b303	0.21259694
234	0xbd3a5eeb	-0.045500677
235	0x3dfe2b81	0.124106415
236	0xbceb5ba0	-0.028730214
237	0xbdb09a42	-0.08623172
238	0x3ec7e1a8	0.3903935
239	0xbd242f9a	-0.04008446
240	0xbe0becce	-0.13664553
241	0x3e0da56b	0.13832633
242	0x3dbef0f4	0.09323302
243	0x3d8099d8	0.06279343
244	0x3d5ceb18	0.05393514
245	0xbe888b6e	-0.26668876
246	0x3d4b6459	0.049656246
247	0xbef2eb08	-0.4744494
248	0xbeb7d2e3	-0.3590308
249	0xbeb14f00	-0.34630585
250	0xbe4c2fba	-0.19940081
251	0xbdab89cf	-0.08375894
252	0x3c162c61	0.009165854
253	0xbca56951	-0.02019182
254	0xbe9289d3	-0.28620777
255	0xbef8e68d	-0.48613396

transformer.layers.0.1.branch.1.bias f4 [64]
0	0x3e7fbebb	0.24975102
1	0x3eaf88c2	0.34284025
2	0x3e1d7e9d	0.1538033
3	0x3dcbc4b1	0.09949625
4	0xbe5e9bdf	-0.21739148
5	0x3d86ca8a	0.065816
6	0xbeb0d268	-0.34535527
7	0x3e77abd8	0.24186647
8	0xbe8920a3	-0.26782712
9	0x3e2367ef	0.15957616
10	0xbe49b359	-0.19697322
11	0x3dcb6351	0.099310525
12	0x3e3c01c9	0.18360056
13	0x3d858183	0.06518843
14	0xbb42f0c7	-0.0029745565
15	0x3d64d54d	0.055867482
16	0xbe1a09dd	-0.15042825
17	0xbdd2d781	-0.1029501
18	0x3ea95f4c	0.33080518
19	0xbda1f1ca	-0.07907446
20	0xbd9172cd	-0.07101975
21	0x3e6a0dd4	0.22856838
22	0x3e6fb750	0.23409772
23	0x3e8481e4	0.2588035
24	0x3e2f18b3	0.17099266
25	0x3df06750	0.11738455
26	0x3e4ed8af	0.20199846
27	0x3d994123	0.07483127
28	0x3e3229e2	0.1739879
29	0x3ac13dff	0.0014743208
30	0x3e5d59e5	0.21616323
31	0x3e952fba	0.29137975
32	0xbe5d692a	-0.21622148
33	0x3eaa9ed7	0.3332431
34	0x3ed6e734	0.4197327
35	0xbe6e7e7b	-0.23290436
36	0x3ed0fb7c	0.40816867
37	0xbcc2d2ac	-0.023782097
38	0x3e73e004	0.23815924
39	0xbd7ae989	-0.061257873
40	0x3dd1902d	0.102325775
41	0x3e3351fd	0.17511745
42	0xbca2bca0	-0.019865334
43	0x3dee453b	0.116342984
44	0x3ccf2987	0.025288356
45	0xbdcfb3d3	-0.101417206
46	0xbe8fe561	-0.2810469
47	0xbc8857e0	-0.016643465
48	0x3dbd5621	0.092449434
49	0xbee21578	-0.44157004
50	0xbe15a8c2	-0.14615157
51	0x3e8ff538	0.28116775
52	0x3dc8008e	0.09765731
53	0xbea0abef	-0.31381175
54	0x3e102285	0.14075668
55	0x3e8cea50	0.27522516
56	0x3e90fd3f	0.2831821
57	0xbe27019d	-0.16309209
58	0xbe8b2d17	-0.27182838
59	0x3e95ed00	0.2928238
60	0xbe896e66	-0.2684204
61	0x3e0e307b	0.13885681
62	0xbd2440e1	-0.040100936
63	0xbe9f39e6	-0.3109886

transformer.layers.0.1.branch.4.weight f4 [8, 32]
0	0x3ddf1341	0.10892344
1	0xbdb442aa	-0.08801778
2	0x3d1aad77	0.037763085
3	0xbb6ea034	-0.0036411406
4	0x3e0e93d3	0.13923578
5	0x3c9e07a4	0.019290753
6	0xbd03174e	-0.032004647
7	0x3d66618b	0.056245368
8	0xbdc4b5cd	-0.09604988
9	0xbde9b0f9	-0.11410708
10	0x3e0199f7	0.12656389
11	0x3d08a771	0.03336281
12	0xbd26da5c	-0.040735587
13	0xbe3eb4d1	-0.18623663
14	0xbcd13437	-0.025537593
15	0xbd0bd072	-0.034134336
16	0xbd45c913	-0.048287462
17	0x3bdf4571	0.006813698
18	0xbdcf8e04	-0.10134509
19	0x3dfdcb88	0.12392336
20	0xbd18cb63	-0.03730334
21	0x3e02f873	0.12790088
22	0xbdce77b3	-0.100814246
23	0x3bac1df7	0.0052525955
24	0x3e11d462	0.14241174
25	0x3de629db	0.11238452
26	0xbdc9686d	-0.09834371
27	0x3ce5257e	0.02797198
28	0x3d392a0b	0.04520611
29	0xbd4e024d	-0.050295163
30	0xbe2731ca	-0.16327587
31	0xbcbd9a06	-0.023144733
32	0xbe0fd4b7	-0.14045988
33	0xbcecbb0e	-0.028897788
34	0xbdd13208	-0.10214621
35	0x3ea351de	0.31898397
36	0xbe5e8b79	-0.21732892
37	0xbe84f977	-0.25971577
38	0x3e2c1bf6	0.16807541
39	0xbdc77805	-0.09739689
40	0xbe7ee41b	-0.24891703
41	0x3de644bd	0.112435795
42	0xbd6e4e4e	-0.058180146
43	0x3c89c9e3	0.0168199
44	0xbd7842c1	-0.060610536
45	0xbc915c48	-0.017744198
46	0x3eb9f6c9	0.36321095
47	0xbeb354e0	-0.35025692
48	0xbdef1d4e	-0.11675511
49	0xbd84239b	-0.06452104
50	0xbe17b47f	-0.14814948
51	0x3e206be3	0.15666156
52	0x3e6ab617	0.22921024
53	0x3edd2448	0.43191743
54	0x3ded719d	0.11593936
55	0x3e0baa7c	0.13639253
56	0xbd0b1129	-0.033951912
57	0x3e6cb0b1	0.23114277
58	0xbde6707e	-0.11251925
59	0xbdbbaa50	-0.09163344
60	0x3e3f91bd	0.18707938
61	0xbdbbbb02	-0.09166528
62	0xbe56c4c1	-0.20973493
63	0xbdab124e	-0.08353101
64	0x3de732b0	0.11288965
65	0x3bd4f639	0.0064990786
66	0xbcdff0fe	-0.027336594
67	0xbd8fd38e	-0.07022773
68	0x3d513f28	0.05108562
69	0x3d19d328	0.03755489
70	0xbcb46d41	-0.022024753
71	0x3ec24d41	0.37949565
72	0xbc11cabe	-0.008898435
73	0xbe275255	-0.16340001
74	0x3e5f48e8	0.21805155
75	0x3dd2c9cd	0.10292397
76	0x3e05e9ec	0.13077515
77	0xbea00132	-0.31250912
78	0x3de8d84c	0.1136938
79	0xbda7ff4e	-0.082029924
80	0xbe32b2f4	-0.17451078
81	0x3e23b389	0.15986456
82	0x3b445940	0.0029960424
83	0xbcc925bc	-0.024554126
84	0xbe17e92f	-0.14835046
85	0xbd6b5ea8	-0.057463318
86	0xbe7690fc	-0.24078745
87	0xbe358298	-0.17725599
88	0xbc3ec304	-0.011643175
89	0xbe4d8f19	-0.20074119
90	0xbd8e6a27	-0.06953841
91	0x3d7e68fe	0.062111847
92	0xbdd8472e	-0.105604514
93	0x3ddaae30	0.10677755
94	0xbe41df31	-0.18932797
95	0xbb075436	-0.002064956
96	0xbde660ca	-0.1124893
97	0x3d592285	0.053011436
98	0xbc26ca59	-0.010180079
99	0xbd7fab3e	-0.06241917
100	0x3e99f2a4	0.30067933
101	0xbcb80464	-0.022463031
102	0xbe34b0e6	-0.17645606
103	0xbd23833f	-0.039920088
104	0x3ce5820a	0.028016109
105	0xbd877f41	-0.06616069
106	0xbda54ac3	-0.080709
107	0x3da5f74d	0.081038095
108	0xbd1af8bb	-0.037834864
109	0xbddc56dd	-0.10758755
110	0xbe0b04bb	-0.13576023
111	0x3daacc8c	0.083397955
112	0x3cde418a	0.02713086
113	0x3e56f452	0.20991638
114	0xbe273a54	-0.16330844
115	0xbd661016	-0.056167684
116	0xbc9a904e	-0.018867638
117	0xbd8d86a6	-0.06910448
118	0xbcf8b99e	-0.030361947
119	0x3eb8e07b	0.36108765
120	0x3e773975	0.24143012
121	0xbe5eae8b	-0.2174627
122	0x3d044b67	0.03229847
123	0x3d84ca6c	0.064839214
124	0xbdffb65a	-0.12485953
125	0x3d2895d0	0.041158497
126	0x3d9780e8	0.07397634
127	0x3e09cccb	0.13457029
128	0x3e3ee1d9	0.18640842
129	0x3e662515	0.22475083
130	0x3d0e10e2	0.03468407
131	0x3dc72e99	0.09725685
132	0x3d8b50c9	0.06802518
133	0xbd0c1fb4	-0.034209922
134	0xbe76f627	-0.24117337
135	0x3db2cd5e	0.08730577
136	0x3c5d6064	0.013511751
137	0x3dafe55a	0.08588667
138	0xbb7bf55b	-0.0038445804
139	0xbe8ed10e	-0.2789387
140	0x3c69436b	0.014237265
141	0xbe89c6e8	-0.26909566
142	0xbdcacf72	-0.09902848
143	0xbe3cdadd	-0.18442865
144	0x3e27e1d2	0.16394737
145	0x3de1ce7e	0.110257134
146	0x3e539a2d	0.20664282
147	0x3e17ee57	0.14837013
148	0x3e16c759	0.14724483
149	0x3d13ad1b	0.036053758
150	0xbdc47962	-0.095934644
151	0xbdaba157	-0.083803825
152	0xbe580f24	-0.21099526
153	0x3e1fc88c	0.15603846
154	0x3df46ac4	0.119344264
155	0x3dba1412	0.09085859
156	0xbdc3eff0	-0.09567249
157	0x3c720512	0.014771717
158	0x3e0cd086	0.1375142
159	0x3d20c358	0.039248794
160	0x3e0b155f	0.13582371
161	0x3d9aff0e	0.07568179
162	0x3e3210bc	0.17389196
163	0x3d9330af	0.0718702
164	0x3df34d19	0.118799396
165	0x3db8ccca	0.090234354
166	0x3cc35856	0.023845833
167	0x3d4f2241	0.050569776
168	0x3dd150b1	0.10220469
169	0xbd4ac77c	-0.04950665
170	0x3dfaf6b9	0.1225409
171	0xbe1f9edc	-0.15587944
172	0x3d8ccb91	0.06874765
173	0xbd20cbaa	-0.03925673
174	0x3e15fa67	0.14646302
175	0xbe0d11ee	-0.13776371
176	0x3e70965b	0.23494856
177	0x3e5f015d	0.21777864
178	0x3e3a62c5	0.1820174
179	0x3d9b78f6	0.07591431
180	0x3d9ae4b7	0.07563155
181	0xbdac196a	-0.08403285
182	0xbe22f827	-0.15914975
183	0xbe42eaf4	-0.1903494
184	0x3d2fb15d	0.042893756
185	0x3c6442de	0.013931958
186	0x3e53a98c	0.20670146
187	0x3de38f9e	0.11111377
188	0x3c95f7a1	0.018306555
189	0x3da6c78d	0.0814353
190	0x3e101b5d	0.14072938
191	0x3dd39183	0.103304885
192	0x3e0debe3	0.13859515
193	0xbe6b37b7	-0.22970472
194	0xbd9a5664	-0.07536009
195	0x3e25f2ef	0.16205953
196	0xbe0b6c30	-0.13615489
197	0xbdee56eb	-0.11637672
198	0x3d35cdc9	0.044385705
199	0xbdfbd060	-0.12295604
200	0xbea72368	-0.326442
201	0x3cd40c84	0.025884874
202	0x3d724089	0.059143577
203	0xbdce47fd	-0.100723244
204	0xbe24e75f	-0.16103886
205	0x3c102dd3	0.008799988
206	0x3dec9138	0.11551136
207	0xbda324b6	-0.079659864
208	0xbd25d5a8	-0.04048696
209	0xbe5cf2fc	-0.21577066
210	0xbe313651	-0.17305876
211	0x3e5c9692	0.21541813
212	0x3de5c0f2	0.11218442
213	0x3e5793c5	0.21052463
214	0x3e2ebba7	0.17063771
215	0xbdd839e8	-0.1055792
216	0xbca47b3f	-0.0200783
217	0x3ec45aea	0.38350612
218	0xbe091957	-0.13388573
219	0xbcb7a6ea	-0.022418458
220	0x3df2608b	0.1183482
221	0xbe5c3b95	-0.21507104
222	0xbe65219b	-0.223761
223	0xbd9bf83b	-0.076157056
224	0x3c958ccb	0.018255612
225	0xbe403718	-0.18771017
226	0x3d93bcfe	0.07213782
227	0xbe71e169	-0.23621143
228	0x3e30d6eb	0.17269485
229	0x3e2b9dc3	0.167594
230	0x3ead17b5	0.3380715
231	0x3d8690ef	0.06570613
232	0x3dd822b8	0.10553497
233	0xbe11b270	-0.14228225
234	0x3d0e1817	0.034690943
235	0x3dac219d	0.08404849
236	0x3c17236b	0.009224753
237	0x3ddd2598	0.10798186
238	0x3e35f590	0.17769456
239	0x3ea0fac7	0.31441328
240	0x3d13aef6	0.036055528
241	0x3e912834	0.28350985
242	0xbd87a9ec	-0.06624207
243	0xbdb21f02	-0.086973205
244	0xbe7c2638	-0.24623954
245	0xbe8f6b1d	-0.28011408
246	0xbe1559e3	-0.1458507
247	0xbb939610	-0.004503973
248	0xbde0e1cd	-0.10980568
249	0xbe80a058	-0.25122333
250	0x3c33a331	0.010964201
251	0x3db7aee5	0.08968905
252	0xbdfdb8a3	-0.12388732
253	0x3dcb796e	0.0993527
254	0x3d70ceae	0.058790855
255	0x3e219068	0.15777743

transformer.layers.0.1.branch.4.bias f4 [8]
0	0xbe00c4d8	-0.1257509
1	0xbe89b865	-0.26898494
2	0xbd0cfb3c	-0.034419283
3	0xbd2d81a4	-0.042359963
4	0xbb40662f	-0.0029357781
5	0x3d28277d	0.041053284
6	0x3cf159d9	0.029461788
7	0x3e462181	0.19348718

transformer.layers.0.1.norm.gamma f4 [8]
0	0xbd2e8fd7	-0.042617645
1	0x3d0abc72	0.03387112
2	0xbbc245f9	-0.0059287515
3	0xbca86baf	-0.02055916
4	0x3dcd96d3	0.10038533
5	0xbc81f562	-0.015864078
6	0x3da95bdc	0.08269474
7	0xbd494a5d	-0.049143184

transformer.layers.1.0.static_alpha f4 [4, 5]
0	0x3ee47584	0.44620907
1	0x3f800000	1.0
2	0x00000000	0.0
3	0x00000000	0.0
4	0x00000000	0.0
5	0x3e19ca44	0.15018564
6	0x00000000	0.0
7	0x3f800000	1.0
8	0x00000000	0.0
9	0x00000000	0.0
10	0xbdd0dadf	-0.10197996
11	0x00000000	0.0
12	0x00000000	0.0
13	0x3f800000	1.0
14	0x00000000	0.0
15	0x3ef9e07d	0.48804083
16	0x00000000	0.0
17	0x00000000	0.0
18	0x00000000	0.0
19	0x3f800000	1.0

transformer.layers.1.0.dynamic_alpha_fn f4 [8, 5]
0	0xbd0c6167	-0.034272578
1	0x00000000	0.0
2	0x00000000	0.0
3	0x00000000	0.0
4	0x00000000	0.0
5	0xbb1c99ad	-0.002389531
6	0x00000000	0.0
7	0x00000000	0.0
8	0x00000000	0.0
9	0x00000000	0.0
10	0x3d0b531b	0.034014802
11	0x00000000	0.0
12	0x00000000	0.0
13	0x00000000	0.0
14	0x00000000	0.0
15	0xbe181ddc	-0.1485514
16	0x00000000	0.0
17	0x00000000	0.0
18	0x00000000	0.0
19	0x00000000	0.0
20	0x3e59dd9f	0.21275948
21	0x00000000	0.0
22	0x00000000	0.0
23	0x00000000	0.0
24	0x00000000	0.0
25	0x3e9449f6	0.28962678
26	0x00000000	0.0
27	0x00000000	0.0
28	0x00000000	0.0
29	0x00000000	0.0
30	0xbed710e5	-0.42005077
31	0x00000000	0.0
32	0x00000000	0.0
33	0x00000000	0.0
34	0x00000000	0.0
35	0xbd572a89	-0.0525308
36	0x00000000	0.0
37	0x00000000	0.0
38	0x00000000	0.0
39	0x00000000	0.0

transformer.layers.1.0.static_beta f4 [4]
0	0x3f7b6e6c	0.98215365
1	0x3f9e9d3b	1.2391733
2	0x3fa40d65	1.2816588
3	0x3fa3e250	1.280344

transformer.layers.1.0.dynamic_beta_fn f4 [8]
0	0xbf04cad4	-0.5187199
1	0xbd884024	-0.06652859
2	0xbedc0b4c	-0.4297737
3	0xbf209871	-0.6273261
4	0x3ea2059a	0.316449
5	0x3f2a799d	0.6659182
6	0xbe50ada8	-0.20378745
7	0xbf18c418	-0.59674215

transformer.layers.1.0.branch.norm.weight f4 [8]
0	0x3f89b61d	1.0758702
1	0x3f9d8dda	1.2308915
2	0x3f82d064	1.0219846
3	0x3f8c4379	1.0958091
4	0x3f8a7b22	1.0818827
5	0x3f909e84	1.1298375
6	0x3f81017a	1.0078576
7	0x3f914a6c	1.1350837

transformer.layers.1.0.branch.norm.bias f4 [8]
0	0xbdb5a058	-0.08868474
1	0xbdc5dd99	-0.09661407
2	0xbd77a5c7	-0.060460832
3	0xbbdf85a2	-0.00682135
4	0x3dc99c8c	0.09844312
5	0x3dd5651d	0.104196765
6	0x3db81679	0.08988661
7	0xbdaa964c	-0.08329448

transformer.layers.1.0.branch.to_qkv.weight f4 [192, 8]
0	0xbe990c5b	-0.2989224
1	0x3dc05a34	0.09392205
2	0xbe050377	-0.12989603
3	0x3ee7e061	0.45288375
4	0xbe87aaad	-0.26497403
5	0xbeafb816	-0.34320134
6	0xbc43369b	-0.011914874
7	0xbea347ea	-0.31890804
8	0x3c565e88	0.013084061
9	0xbe38d39a	-0.1804947
10	0xbd9cfd26	-0.07665472
11	0x3de577af	0.112044685
12	0xbe5ca23f	-0.21546267
13	0xbebd0f1a	-0.36925584
14	0xbe9181da	-0.2841938
15	0x3d4a326f	0.049364503
16	0xbe8b189d	-0.27167216
17	0xbe68ebea	-0.22746244
18	0xbe072e55	-0.13201268
19	0xbd0e351d	-0.03471862
20	0x3e91138a	0.2833522
21	0xbe8ad4e1	-0.2711554
22	0xbee7e3d0	-0.45290995
23	0xbe21b0a0	-0.15790033
24	0xbeb18acc	-0.34676206
25	0xbdb877dd	-0.09007237
26	0x3e1d4f13	0.15362196
27	0x3c4dbddc	0.012557473
28	0x3e2ec892	0.17068699
29	0xbec50fb0	-0.3848853
30	0x3e852d6e	0.26011223
31	0xbc8930f1	-0.01674697
32	0xbe39291e	-0.18082091
33	0xbe0ac367	-0.13551103
34	0x3d71f5f4	0.05907245
35	0x3d807b98	0.06273574
36	0xbebaa8da	-0.3645695
37	0xbd225d8c	-0.039639995
38	0xbd9cb156	-0.07651012
39	0x3d986319	0.074407764
40	0x3e105700	0.14095688
41	0xbdc01d27	-0.0938056
42	0x3e41c8f0	0.18924308
43	0x3ec049b2	0.37556225
44	0xbd982825	-0.07429532
45	0xbe09b1de	-0.13446757
46	0xbea4ae2e	-0.3216414
47	0xbce64cc5	-0.028112778
48	0x3e6a4538	0.22877967
49	0x3ddae922	0.10688998
50	0x3eb980ab	0.36230978
51	0x3e3ca93d	0.18423934
52	0x3dec1e13	0.11529174
53	0xbda3d332	-0.07999267
54	0xbe8b75e9	-0.27238396
55	0x3eb1407d	0.34619513
56	0x3d8a2ee9	0.06747229
57	0x3f04e92a	0.5191828
58	0xbe949974	-0.29023325
59	0x3e93c5cf	0.28861853
60	0xbe04df92	-0.1297591
61	0xbeb3b5ee	-0.3509974
62	0x3f00eee3	0.5036451
63	0x3e3778a5	0.17917116
64	0xbdaac1d8	-0.08337754
65	0x3e62e6c4	0.22158343
66	0x3e978c31	0.29599145
67	0x3ead2185	0.33814636
68	0xbe3b7a42	-0.18308356
69	0x3e0d4343	0.1379519
70	0x3eb16d67	0.3465378
71	0x3c0337cc	0.0080089085
72	0x3ebab261	0.36464217
73	0xbecfca14	-0.4058386
74	0xbea115e7	-0.31462023
75	0x3e6d23de	0.23158213
76	0x3e99077e	0.2988853
77	0xbdde7531	-0.10862196
78	0xbdc2608e	-0.094910726
79	0x3df1d3e1	0.11807991
80	0x3e7b202a	0.24523988
81	0x3e3cbcfa	0.18431464
82	0x3e6dba37	0.23215567
83	0x3ea58171	0.32325318
84	0x3cd4ee96	0.025992673
85	0xbe893561	-0.26798537
86	0xbe0af3c7	-0.13569556
87	0x3ea1bb4b	0.31588206
88	0x3eee01d9	0.46485785
89	0x3f2ae27d	0.66751844
90	0x3da1c285	0.0789843
91	0x3e48b4a4	0.19600159
92	0xbe8ecb20	-0.27889347
93	0x3bb9214f	0.0056497226
94	0xbc47eb89	-0.012202152
95	0x3e406eb9	0.18792237
96	0xbea1ac75	-0.31576887
97	0xbe0c9d9c	-0.13731998
98	0x3e5cce1f	0.21563004
99	0x3e108e91	0.14116885
100	0x3ebc8a06	0.36824054
101	0x3ec7a935	0.38996282
102	0xbedbadcc	-0.42906034
103	0xbeb7793e	-0.35834688
104	0x3dfe6bfd	0.12422941
105	0x3f0d0005	0.55078155
106	0x3e600580	0.21877098
107	0x3eac31be	0.336317
108	0xbe8f7a44	-0.2802297
109	0xbd17ea15	-0.037088472
110	0xbd370c58	-0.044689506
111	0xbc0cb237	-0.008587412
112	0x3daed0cb	0.08535918
113	0x3d9b4548	0.07581574
114	0xbec7100b	-0.38879427
115	0xbda56d2e	-0.08077465
116	0xbccc612a	-0.024948675
117	0x3ef4dfcb	0.4782699
118	0xbea41308	-0.3204577
119	0xbe4d2ef7	-0.20037447
120	0xbe1a2911	-0.15054728
121	0x3e054b12	0.13016918
122	0x3e97bc99	0.29636076
123	0x3ec62734	0.38701785
124	0xbefbea56	-0.49202222
125	0x3dabc881	0.083878525
126	0x3eff234e	0.49831623
127	0xbe9c3d45	-0.30515495
128	0xbe974431	-0.29544213
129	0xbe38fccf	-0.18065189
130	0x3e062f06	0.13103876
131	0xbea21519	-0.3165672
132	0x3ea4bf43	0.3217717
133	0x3f2fa767	0.6861481
134	0xbed24012	-0.41064507
135	0xbe9d899c	-0.3076905
136	0x3ed340d4	0.41260397
137	0x3d21fc2d	0.039547134
138	0x3d770c45	0.060314436
139	0xbe270793	-0.16311483
140	0xbefd3dab	-0.4946111
141	0xbe11600a	-0.14196792
142	0x3e86570d	0.2623829
143	0x3eb3118b	0.34974322
144	0xbe8da68a	-0.27666122
145	0xbf044a8d	-0.51676255
146	0xbe925750	-0.2858224
147	0xbe831e4b	-0.2560905
148	0x3ea98dd3	0.33116016
149	0x3efbeaf9	0.49202707
150	0xbd9dff06	-0.077146575
151	0x3e2535d2	0.16133812
152	0x3eb5a8c7	0.3548033
153	0x3ea70013	0.32617244
154	0x3e87020d	0.26368752
155	0x3d38c2ba	0.04510758
156	0xbe8989e2	-0.2686301
157	0x3d944330	0.072393775
158	0xbe3f9e53	-0.1871274
159	0xbbccaa74	-0.0062459055
160	0xbe99dcd0	-0.3005128
161	0x3d0e3575	0.03471895
162	0x3ca87433	0.02056322
163	0x3dd53680	0.10410786
164	0x3e12eb98	0.14347684
165	0x3f048d40	0.5177803
166	0x3e40c78e	0.18826124
167	0xbe45b5e5	-0.19307669
168	0x3ea2a1eb	0.3176416
169	0xbe1a050a	-0.15040985
170	0xbe2ad214	-0.16681701
171	0x3f176857	0.59143585
172	0xbccf4360	-0.025300682
173	0xbd508ba9	-0.05091444
174	0x3bfd150c	0.0077234562
175	0x3e989178	0.29798484
176	0x3ea19d7b	0.3156546
177	0xbeab1bb6	-0.3341958
178	0xbe86175d	-0.261897
179	0xbe2a3c55	-0.16624577
180	0xbdd9c940	-0.106340885
181	0x3e85508d	0.26038018
182	0xbecc3d09	-0.39890316
183	0xbe08add8	-0.13347566
184	0xbee28270	-0.4424014
185	0x3d31d54d	0.04341631
186	0x39b3dd3c	0.00034306373
187	0xbeddb2a9	-0.4330037
188	0xbbd0e00d	-0.006374365
189	0x3efe9404	0.49722302
190	0xbf106e0a	-0.56417906
191	0xbdbfc072	-0.09362878
192	0x3d0fe31b	0.035128694
193	0x3e8e36ac	0.27776086
194	0x3f022e2b	0.50851697
195	0x3ecb14a5	0.39664188
196	0xbec7249b	-0.38895115
197	0xbf269ed7	-0.6508612
198	0x3e8a94fd	0.27066794
199	0x3e4ead6f	0.20183347
200	0x3e29fe0c	0.16600817
201	0x3e1d6bd5	0.15373166
202	0xbe504cdf	-0.20341824
203	0xbe41dc82	-0.18931773
204	0x3e400a04	0.1875382
205	0x3ef4bb33	0.47799072
206	0xbe7b5a0c	-0.24546069
207	0xbdd4f0e6	-0.1039751
208	0xbf0001e7	-0.500029
209	0xbded16bd	-0.115766026
210	0x3d63c56e	0.055608205
211	0xbeb15f10	-0.3464284
212	0x3e78af9f	0.24285744
213	0x3e18879e	0.14895484
214	0x3e346ddf	0.17620037
215	0xbe33cc31	-0.17558362
216	0x3e0fe699	0.1405281
217	0x3eb2cc86	0.34921664
218	0x3e5cfb97	0.21580349
219	0x3f05985d	0.5218561
220	0xbee2a24e	-0.44264454
221	0xbf0d5453	-0.55206794
222	0xbdef4971	-0.1168393
223	0x3e980501	0.29691318
224	0xbe4084d3	-0.18800668
225	0xbde7e89d	-0.11323664
226	0xbeb062e1	-0.3445044
227	0xbecb6454	-0.39724982
228	0x3eb3af3a	0.35094625
229	0x3d121dcc	0.035672948
230	0xbebad8b1	-0.36493447
231	0xbef6821c	-0.4814614
232	0x3c76c2ce	0.0150610935
233	0xbd2e5331	-0.042559806
234	0x3e69c83a	0.22830287
235	0xbe0dc2c6	-0.13843831
236	0xbf06c228	-0.5264001
237	0xbe2cb019	-0.16864051
238	0x3bc6a59f	0.006062224
239	0x3df2f265	0.11862639
240	0x3f0c5382	0.5481492
241	0x3ede39e1	0.43403533
242	0x3f1bc535	0.6084779
243	0x3ec04120	0.37549686
244	0xbc9efa23	-0.019406384
245	0xbf0fab8f	-0.5612115
246	0x3ed89eae	0.42308563
247	0x3e778d76	0.24175057
248	0xbe446a53	-0.19181184
249	0xbdbf6072	-0.09344567
250	0x3dd4d2c8	0.10391766
251	0xbd928e1c	-0.071560115
252	0xbdeec09d	-0.11657832
253	0x3ed8b320	0.42324162
254	0x3e80ff58	0.25194812
255	0xbe20ca7e	-0.15702245
