Projektarbeit_FTTransformer/trained_models/physical_loss_training/model_lr0.00025_9_1_4_4_.1_.1PhysicsLambda0.2_epoch100.pt (torch, 104701 bytes, 87 tensors)

cls_token f4 [1, 1, 9]
0.7115721 -0.12371808 -0.33975947 0.5239667 -1.5292816 1.0831633 -1.1036636 -0.76946807
0.21645306
00000000: 9729 363f e85f fdbd f4f4 adbe af22 063f
00000010: 80bf c3bf 18a5 8a3f d944 8dbf dcfb 44bf
00000020: dfa5 5d3e

categorical_embeds.weight f4 [3, 9]
0.9090095 -1.6980014 0.40455604 -1.1487621 -1.8970948 -1.1056626 0.9855332 -1.7573006
0.34610412 -0.54542625 0.27392772 0.54657805 -0.55054927 0.33346927 0.7284316 1.3530005
0.20103861 0.9126228 0.4479189 -0.005659546 -0.52057815 1.3162161 -0.24718283 0.5716436
-1.5581496 -1.6516602 0.03420811
00000000: d9b4 683f 1c58 d9bf f821 cf3e a30a 93bf
00000010: 01d4 f2bf 5a86 8dbf e74b 7c3f 3aef e0bf
00000020: 8f34 b13e 0ea1 0bbf 4140 8c3e 8aec 0b3f
00000030: ccf0 0cbf 7cbc aa3e 7e7a 3a3f 1f2f ad3f
00000040: 11dd 4d3e a6a1 693f a055 e53e b673 b9bb
00000050: 9c44 05bf c579 a83f 7f1d 7dbe 3c57 123f
00000060: 7271 c7bf 9a69 d3bf ce1d 0c3d

numerical_embedder.weights f4 [8, 9]
2.1498864 0.1503464 -0.12149826 -0.4629007 0.14223649 -0.54504794 -1.3248012 0.8381469
-0.6281202 -1.039942 0.5149078 -1.2223786 1.3667336 -1.80536 -0.74137956 -0.35671964
-0.19986121 -0.021253685 0.089645796 -0.43664992 0.6925835 -0.8947119 -0.86017156 -1.4404944
-0.630923 0.00090310804 0.2989116 -0.20804687 0.89317715 -0.21102946 -0.25282842 -0.5110847
0.25635844 0.9144506 -0.42668638 0.16230242 1.092701 -1.5776634 -0.24324642 0.6558686
0.48738492 2.976658 1.2105917 0.06931604 -0.85769314 -0.85307205 -0.8561413 0.72727156
-0.28796273 2.2604523 0.21899578 -0.99561685 -0.35721424 0.69000244 0.257265 -1.5730528
1.6329579 -0.5398442 0.17675489 0.8182941 -2.5524719 -0.8312112 -0.051437754 -0.22076006
0.18710434 0.7475542 1.2622132 0.26159483 1.6249022 -1.2506384 0.52402616 -0.12758964
00000000: bd97 0940 68f4 193e 14d4 f8bd 5201 edbe
00000010: 71a6 113e 4388 0bbf 1693 a9bf cc90 563f
00000020: 7ccc 20bf d21c 85bf ffd0 033f e776 9cbf
00000030: 20f1 ae3f 0916 e7bf 0dcb 3dbf f5a3 b6be
00000040: 6ba8 4cbe 351c aebc 3798 b73d 9490 dfbe
00000050: 274d 313f d70b 65bf 3434 5cbf 1f62 b8bf
00000060: 2b84 21bf 8ebe 6c3a f10a 993e 3d0a 55be
00000070: 42a7 643f 1b18 58be ba72 81be 72d6 02bf
00000080: 6a41 833e 6f19 6a3f a376 dabe 9b32 263e
00000090: a0dd 8b3f e0f0 c9bf 9715 79be 01e7 273f
000000a0: 848a f93e 9181 3e40 abf4 9a3f 91f5 8d3d
000000b0: c791 5bbf ee62 5abf 142c 5bbf 782e 3a3f
000000c0: da6f 93be 40ab 1040 6e40 603e bfe0 7ebf
000000d0: c9e4 b6be 00a4 303f 3db8 833e cb59 c9bf
000000e0: c404 d13f 3b33 0abf 3cff 343e b97b 513f
000000f0: b35b 23c0 42ca 54bf 65b0 52bd ed0e 62be
00000100: 4898 3f3e b65f 3f3f 3490 a13f c2ef 853e
00000110: ccfc cf3f eb14 a0bf 9426 063f dca6 02be

numerical_embedder.biases f4 [8, 9]
-1.3869127 -0.6126393 -0.063124165 1.3795574 0.3969468 0.6845987 0.039727863 1.3695701
0.7128496 -0.5582348 0.45106852 -0.7710939 -1.0917684 -1.7260224 1.0080398 -0.47248468
-0.86910146 -0.21456884 -0.8234537 -1.7420815 -0.5204998 1.4651792 0.8165542 0.8891561
2.3945384 0.18854764 -1.3920157 0.714731 -1.3727739 -0.76863694 -1.2254834 -0.57200587
-0.6317167 -1.9412951 1.4502109 -0.08831929 0.3003748 0.3630073 -0.57896197 0.52273774
0.28618526 -0.55384713 -0.41452178 0.34936693 -0.50968397 0.76262623 0.6774611 -0.6072194
-0.29469204 -1.1709803 -0.61796635 1.4187647 -0.9476036 -0.054393932 -0.16595967 -0.19058736
-1.1349673 0.04150135 -0.76505595 -0.221843 1.2448311 -0.57504565 1.2863245 0.61759084
0.53912264 -1.641614 1.2193754 0.068630055 1.0878688 1.0657066 -1.9884735 -0.3795897
00000000: 5b86 b1bf eed5 1cbf 3e47 81bd 5695 b03f
00000010: 9c3c cb3e dc41 2f3f afb9 223d 134e af3f
00000020: 507d 363f 7ae8 0ebf 74f2 e63e 6966 45bf
00000030: 11bf 8bbf 4dee dcbf 7307 813f 83e9 f1be
00000040: 6f7d 5ebf efb7 5bbe ddcd 52bf 87fc debf
00000050: 7a3f 05bf fe8a bb3f b209 513f bc9f 633f
00000060: 1e40 1940 a212 413e 922d b2bf 9cf8 363f
00000070: 0eb7 afbf 64c5 44bf a4dc 9cbf fa6e 12bf
00000080: 30b8 21bf 5c7c f8bf 83a0 b93f bee0 b4bd
00000090: baca 993e 18dc b93e da36 14bf 24d2 053f
000000a0: e086 923e edc8 0dbf 333c d4be 39e0 b23e
000000b0: a67a 02bf 793b 433f 176e 2d3f bb72 1bbf
000000c0: e0e1 96be afe2 95bf 0b33 1ebf 159a b53f
000000d0: 2696 72bf 2ccc 5ebd 55f1 29be 5529 43be
000000e0: 9c46 91bf 52fd 293d b5da 43bf d02a 63be
000000f0: a056 9f3f 3136 13bf 48a6 a43f 6f1a 1e3f
00000100: f103 0a3f 6820 d2bf 7e14 9c3f ea8d 8c3d
00000110: 493f 8b3f 1369 883f 4d86 febf 9559 c2be

transformer.layers.0.0.static_alpha f4 [4, 5]
0.21147522 1.0 0.0 0.0 0.0 0.21147522 0.0 1.0
0.0 0.0 1.2114671 0.0 0.0 1.0 0.0 0.21147522
0.0 0.0 0.0 1.0
00000000: f68c 583e 0000 803f 0000 0000 0000 0000
00000010: 0000 0000 f68c 583e 0000 0000 0000 803f
00000020: 0000 0000 0000 0000 5b11 9b3f 0000 0000
00000030: 0000 0000 0000 803f 0000 0000 f68c 583e
00000040: 0000 0000 0000 0000 0000 0000 0000 803f

transformer.layers.0.0.dynamic_alpha_fn f4 [9, 5]
0.21331052 0.0 0.0 0.0 0.0 -0.024621826 0.0 0.0
0.0 0.0 -0.2590855 0.0 0.0 0.0 0.0 -0.10181435
0.0 0.0 0.0 0.0 -0.22012511 0.0 0.0 0.0
0.0 -0.10265645 0.0 0.0 0.0 0.0 0.11598321 0.0
0.0 0.0 0.0 -0.19787064 0.0 0.0 0.0 0.0
0.15163589 0.0 0.0 0.0 0.0
00000000: 136e 5a3e 0000 0000 0000 0000 0000 0000
00000010: 0000 0000 b6b3 c9bc 0000 0000 0000 0000
00000020: 0000 0000 0000 0000 dba6 84be 0000 0000
00000030: 0000 0000 0000 0000 0000 0000 0b84 d0bd
00000040: 0000 0000 0000 0000 0000 0000 0000 0000
00000050: 7a68 61be 0000 0000 0000 0000 0000 0000
00000060: 0000 0000 8b3d d2bd 0000 0000 0000 0000
00000070: 0000 0000 0000 0000 9b88 ed3d 0000 0000
00000080: 0000 0000 0000 0000 0000 0000 9a9e 4abe
00000090: 0000 0000 0000 0000 0000 0000 0000 0000
000000a0: 7046 1b3e 0000 0000 0000 0000 0000 0000
000000b0: 0000 0000

transformer.layers.0.0.static_beta f4 [4]
1.04705 0.93570167 0.9991302 1.0276358
00000000: bc05 863f 258a 6f3f ffc6 7f3f 9289 833f

transformer.layers.0.0.dynamic_beta_fn f4 [9]
-0.26023936 0.16715476 0.33871526 -0.2717616 0.1703817 -0.23014458 0.18963553 0.31128642
-0.17197222
00000000: 183e 85be 9e2a 2b3e 166c ad3e 5624 8bbe
00000010: 8a78 2e3e 05ab 6bbe d12f 423e ef60 9f3e
00000020: 7c19 30be

transformer.layers.0.0.branch.norm.weight f4 [9]
1.120516 1.1105632 1.0041971 1.0050125 1.2043171 1.0175984 1.0348358 1.0340811
0.9591769
00000000: 116d 8f3f ef26 8e3f 8889 803f 40a4 803f
00000010: 1027 9a3f aa40 823f 8075 843f c55c 843f
00000020: 9e8c 753f

transformer.layers.0.0.branch.norm.bias f4 [9]
0.059117693 -0.06955476 -0.014692918 0.093034394 0.0037511433 0.0318232 -0.046286765 -0.02788789
-0.088174105
00000000: 6525 723d ba72 8ebd 91ba 70bc d188 be3d
00000010: bed5 753b 0b59 023d 3197 3dbd 2575 e4bc
00000020: a094 b4bd

transformer.layers.0.0.branch.to_qkv.weight f4 [192, 9]
-0.0036926968 -0.42176726 -0.20473653 0.23601672 -0.23935542 -0.30277142 0.31649402 0.028118161
0.1725928 0.28223726 0.11977172 0.007560911 0.28017455 0.083060555 0.11946656 -0.25632665
-0.027974855 -0.20271224 -0.47463948 0.079213195 0.3223514 -0.2284989 0.11041779 -0.1667181
0.008185188 -0.14999938 0.0015428959 -0.42385843 -0.18401876 0.17626907 -0.38721108 0.082354374
0.03479803 0.40442902 -0.084686294 -0.20987333 0.16337101 -0.03347829 -0.37808275 0.38617292
-0.4691576 0.17271695 -0.3335743 -0.040265296 -0.06286358 -0.35351136 -0.09904641 -0.13598317
-0.14240964 -0.0147161 -0.42732158 0.32448697 0.43123436 0.23192763 0.51696694 0.5191301
-0.14391103 -0.12574422 -0.5035658 0.14040188 -0.33067372 0.23193955 -0.251276 0.001293398
0.26097885 -0.20434809 -0.02942837 -0.4893747 -0.021094082 -0.24635528 -0.10187961 -0.11287269
-0.0658498 -0.32592908 0.13434003 -0.22363618 0.08786794 0.0213156 0.18865807 0.13294892
0.1227484 0.43673852 0.29254362 -0.17877848 0.546698 -0.46011624 0.086656265 -0.54142714
-0.037658207 -0.09604178 0.42668694 0.324959 -0.34890756 0.45373985 0.0773808 0.31240103
-0.25640655 -0.20720764 -0.07494448 -0.3053829 -0.2827591 0.16238278 -0.29707792 0.4410218
-0.08634963 0.36171427 -0.2065388 -0.34286004 0.3178887 -0.14491841 0.046159733 0.1316557
-0.36963302 -0.16017611 -0.36416233 0.15325896 -0.35896397 -0.24306394 0.08474993 0.115774415
-0.33878753 0.16734803 -0.17645764 0.27252114 0.33286834 -0.108779095 -0.10075509 0.050268404
-0.038212795 0.12360059 -0.24171081 0.387212 -0.35907432 0.24901746 0.048989035 -0.4079103
-0.12169496 0.018140351 -0.36512196 0.36603644 -0.2228988 0.08277999 0.12746781 -0.1931236
-0.041219167 -0.098960444 0.44130147 -0.09102754 0.5708992 -0.49475178 0.26690826 0.26098457
-0.30810437 -0.578155 0.16617641 0.062625945 -0.55148965 0.15305321 -0.3645599 0.25900227
0.27181742 -0.39129215 0.11997236 0.2601515 -0.09316473 -0.45412883 0.3549499 -0.47436222
0.45865467 -0.1962965 0.016291462 -0.4761233 0.048894327 0.57973206 -0.22518794 0.55327094
-0.29128063 0.113616765 0.5844624 -0.4025048 -0.22195414 -0.16026129 0.16846 -0.19635303
-0.062706076 -0.23210704 0.25487408 0.12717259 -0.3862496 -0.011315938 -0.193548 0.075275965
-0.064776205 -0.015576862 -0.23001523 -0.040684666 -0.112568885 0.09953211 0.04473224 -0.10654246
0.002211424 0.4052302 -0.052758723 0.09366453 0.09277129 -0.4895943 -0.16589312 -0.09518365
-0.12455289 0.18667445 0.46801993 -0.013839152 -0.002876639 0.13810576 -0.027057352 -0.23650533
0.13707043 -0.21584673 -0.2501758 0.27188784 -0.19136108 0.16728881 -0.50526744 -0.37835974
0.457615 0.16015333 0.4113599 -0.14746764 -0.31810242 0.049991652 -0.3527404 0.096613765
0.07316063 -0.35803384 -0.562483 -0.39005867 0.14684638 -0.5104025 0.10167178 -0.13426667
0.3176493 0.26882124 -0.11790346 0.23590055 -0.32863125 0.113285646 0.30235785 0.10744831
0.031448573 -0.017308122 -0.24237888 0.044376556 -0.49796465 0.07763359 -0.04630956 -0.39578667
00000000: 2c01 72bb e1f1 d7be 74a6 51be 5eae 713e
00000010: 9619 75be db04 9bbe 810b a23e 0f58 e63c
00000020: 2bbc 303e 6781 903e e04a f53d 85c1 f73b
00000030: 0a73 8f3e a71b aa3d e2aa f43d 3f3d 83be
00000040: 862b e5bc cc93 4fbe f203 f3be 873a a23d
00000050: 3e0b a53e 9efb 69be b922 e23d 26b8 2abe
00000060: 2b1b 063c 7099 19be ff3a ca3a f903 d9be
00000070: 6a6f 3cbe e17f 343e 8840 c6be 69a9 a83d
00000080: 6188 0e3d 5211 cf3e 0270 adbd 09e9 56be
00000090: bb4a 273e 8820 09bd 1094 c1be 75b8 c53e
000000a0: 6d35 f0be b6dc 303e 40ca aabe 39ed 24bd
000000b0: 9fbe 80bd 71ff b4be d8d8 cabd 2c3f 0bbe
000000c0: d5d3 11be cc1b 71bc e5c9 dabe 2823 a63e
000000d0: c0ca dc3e 707e 6d3e f257 043f b6e5 043f
000000e0: 6a5d 13be 18c3 00be b0e9 00bf 83c5 0f3e
000000f0: 114e a9be 9081 6d3e 3fa7 80be 3c87 a93a
00000100: 059f 853e a040 51be c413 f1bc 528f fabe
00000110: 7fcd acbc 8f44 7cbe 42a6 d0bd cc29 e7bd
00000120: 43dc 86bd 2de0 a6be 6f90 093e e200 65be
00000130: 1bf4 b33d 0e9e ae3c 952f 413e c323 083e
00000140: 8363 fb3d 319c df3e 47c8 953e b511 37be
00000150: 66f4 0b3f 5b94 ebbe d778 b13d f89a 0abf
00000160: 7e3f 1abd 8eb1 c4bd b676 da3e 0761 a63e
00000170: 03a4 b2be 9750 e83e d379 9e3d 07f3 9f3e
00000180: b847 83be 3d2e 54be 7e7c 99bd 265b 9cbe
00000190: cdc5 90be ac47 263e 991a 98be 9ccd e13e
000001a0: 13d8 b0bd 9d32 b93e e87e 53be 5a8b afbe
000001b0: 4fc2 a23e 7e65 14be fd11 3d3d c0d0 063e
000001c0: 8a40 bdbe 3505 24be 7c73 babe ebef 1c3e
000001d0: 20ca b7be c1e5 78be 5f91 ad3d 231b ed3d
000001e0: 8f75 adbe 485d 2b3e 50b1 34be e487 8b3e
000001f0: b86d aa3e 93c7 debd af58 cebd 3ee6 4d3d
00000200: 0585 1cbd 4e22 fd3d 0a83 77be a740 c63e
00000210: 97d8 b7be 6ffe 7e3e baa8 483d 9ed9 d0be
00000220: 353b f9bd 139b 943c 44f1 babe 2169 bb3e
00000230: 953f 64be 8e88 a93d ec86 023e 31c2 45be
00000240: 6ed5 28bd c6ab cabd 44f2 e13e a66c babd
00000250: 7326 123f 1b50 fdbe 33a8 883e c59f 853e
00000260: dbbf 9dbe f701 14bf 262a 2a3e 0842 803d
00000270: 6d2e 0dbf fbb9 1c3e 98a7 babe f29b 843e
00000280: a72b 8b3e 7257 c8be 12b4 f53d 9432 853e
00000290: 26cd bebd 9383 e8be febb b53e 9bdf f2be
000002a0: c9d4 ea3e f301 49be ac75 853c 6fc6 f3be
000002b0: 6b45 483d 5269 143f ab97 66be 2aa3 0d3f
000002c0: bc22 95be e8af e83d 549f 153f 1c15 cebe
000002d0: f247 63be 891b 24be c780 2c3e c510 49be
000002e0: 0b6c 80bd 78ad 6dbe db7e 823e 8839 023e
000002f0: 82c2 c5be 7c66 39bc 7231 46be 492a 9a3d
00000300: 63a9 84bd 1836 7fbc 1d89 6bbe f7a4 26bd
00000310: 848a e6bd 7ed7 cb3d 2739 373d ef32 dabd
00000320: 8aed 103b 557a cf3e 8819 58bd 30d3 bf3d
00000330: e0fe bd3d 1bac fabe e3df 29be a5ef c2bd
00000340: 9615 ffbd 9627 3f3e 4fa0 ef3e 9cbd 62bc
00000350: fe85 3cbb 996b 0d3e 61a7 ddbc 742e 72be
00000360: 315c 0c3e ed06 5dbe 0b17 80be e234 8b3e
00000370: 29f4 43be c24d 2b3e 3559 01bf 5eb8 c1be
00000380: 834c ea3e 3cff 233e c49d d23e c201 17be
00000390: 52de a2be 0cc4 4c3d 649a b4be 70dd c53d
000003a0: 3ed5 953d 3650 b7be e3fe 0fbf c5b5 c7be
000003b0: e65e 163e bda9 02bf 4b39 d03d 347d 09be
000003c0: eea2 a23e f0a2 893e 5f77 f1bd ea8f 713e
000003d0: 5b42 a8be 4e02 e83d a6ce 9a3e dc0d dc3d
000003e0: 38d0 003d c3c9 8dbc 2b32 78be 31c4 353d
000003f0: 39f5 febe 5cfe 9e3d 18af 3dbd 8da4 cabe

transformer.layers.0.0.branch.to_out.weight f4 [9, 64]
-0.06584999 -0.005033609 -0.023128266 -0.010762803 -0.026477236 0.062353805 -0.06527134 0.089555606
-0.021465922 0.17248219 0.0028783055 -0.106495954 0.053970437 0.0041861543 -0.08819761 0.08631115
-0.06563719 0.104087524 -0.091226116 0.045447942 -0.028279992 0.14378296 0.03419301 -0.09221258
0.06271053 0.108031705 -0.07189952 -0.06278667 -0.008955745 0.07223749 0.023768913 -0.09286344
0.09484902 0.031084595 -0.0743704 -0.09176374 0.09323638 0.088322155 -0.1448099 -0.055658113
-0.015361239 -0.068272285 -0.03809246 0.034530047 0.12154191 0.091867924 0.14633556 -0.04756288
0.087271415 0.05588878 0.108984284 -0.00208166 -0.053031135 -0.09282123 -0.023140807 -0.087249145
0.07000517 0.057122856 -0.051940355 -0.038646474 -0.0737853 0.029024748 0.14354993 0.13025542
-0.013769928 -0.009609015 0.12933607 -0.041075602 -0.12610178 -0.14692226 -0.29195142 0.05662951
0.09219915 -0.44301638 -0.028025396 0.11843992 0.06681021 -0.2872749 -0.025191924 -0.3109525
-0.039057802 -0.06741877 0.063625515 -0.019497843 0.027271139 -0.14854194 -0.0500993 -2.6777549e-05
-0.18397672 0.13793291 -0.040836364 -0.044470284 0.1622362 0.1716172 -0.15497176 0.00064626307
-0.15247534 -0.2853361 0.14752257 0.046353478 -0.018632516 -0.14483368 0.005723632 -0.03300296
-0.26074532 0.0212421 0.0072409646 -0.15608853 -0.026839051 -0.05601469 0.075609185 0.010878405
-0.06730812 -0.07857714 0.0031689382 0.08353101 -0.10604203 -0.027737934 -0.08153261 0.041111745
0.0823572 -0.032385085 0.08963789 0.042218912 0.019182535 0.02320604 -0.01424652 0.026904104
-0.076729104 0.039113615 0.025317803 0.04558417 0.10998161 0.008564447 -0.18699543 -0.062664665
-0.01851563 -0.030996658 0.1648789 0.10301254 0.10488899 -0.079715155 -0.032192424 -0.038240936
0.022034511 -0.103418306 -0.095250316 0.114750914 -0.06302514 0.13826369 0.011782488 -0.13388127
0.026168035 0.1254061 0.07216237 0.08286967 -0.11899698 -0.017520338 -0.015966307 -0.034191333
-0.021572478 -0.032427274 0.0070769703 -0.037269194 -0.10548802 -0.023344412 -0.1788707 0.05117485
0.10800968 -0.15041956 0.1625486 0.005679047 -0.033739224 -0.025190037 -0.097938485 -0.075519085
-0.10612978 -0.004572194 0.040296968 0.13907744 -0.07036769 0.11989758 -0.05592105 -0.06929728
-0.11437166 -0.0354052 -0.045696467 0.032595906 0.040435083 0.085360564 0.010863149 -0.046554927
-0.116760455 -0.05147133 -0.04546697 0.056685995 -0.106373094 -0.04780187 -0.23371695 -0.084523976
0.08422311 -0.37049797 -0.13014291 -0.13537398 -0.100850575 -0.22109224 -0.04155846 -0.24576628
-0.084237985 -0.0068270285 -0.16871206 -0.030243466 0.100197725 -0.10795083 0.009808296 0.04405948
-0.062128093 -0.1098521 0.056075003 -0.2554546 0.018985415 0.05703406 -0.16094059 0.042898662
-0.09442047 -0.20726132 0.15924767 0.12583703 0.03353188 -0.079948515 0.20373811 0.03466716
-0.19929466 0.12862448 -0.11158533 -0.084974065 -0.030858187 -0.098687194 -0.009092091 0.007754672
-0.045275696 0.056612045 -0.10468248 -0.01404798 -0.002027296 0.1122192 -0.09056516 -0.090687804
-0.017885096 0.052195095 0.12055714 -0.016719887 -0.08952664 -0.12073091 0.009989638 0.015406343
00000000: 5cdc 86bd f9f0 a4bb 7d77 bdbc 7856 30bc
00000010: cae6 d8bc b466 7f3d fbac 85bd ee68 b73d
00000020: 4dd9 afbc 2c9f 303e f4a1 3c3b 8d1a dabd
00000030: 1b10 5d3d 022c 893b f3a0 b4bd e6c3 b03d
00000040: cb6c 86bd d72b d53d c2d4 babd 9f27 3a3d
00000050: 71ab e7bc d73b 133e f80d 0c3d f3d9 bcbd
00000060: 616e 803d ba3f dd3d 0e40 93bd 4c96 80bd
00000070: 1ebb 12bc 40f1 933d 06b7 c23c 302f bebd
00000080: 3440 c23d 1fa5 fe3c 824f 98bd a1ee bbbd
00000090: b7f2 be3d 3fe2 b43d 0c49 14be c3f9 63bd
000000a0: b5ad 7bbc 57d2 8bbd d706 1cbd 616f 0d3d
000000b0: f7ea f83d 4025 bc3d fdd8 153e 4bd1 42bd
000000c0: 5bbb b23d a2eb 643d 2733 df3d 766c 08bb
000000d0: 2d37 59bd 0f19 bebd ca91 bdbc aeaf b2bd
000000e0: df5e 8f3d a8f9 693d 69bf 54bd c44b 1ebd
000000f0: bf1c 97bd 4fc5 ed3c c1fe 123e ad61 053e
00000100: 449b 61bc 216f 1dbc ad70 043e e43e 28bd
00000110: d320 01be ca72 16be a87a 95be 58f4 673d
00000120: e8d2 bc3d 0bd3 e2be 8495 e5bc a190 f23d
00000130: cbd3 883d b215 93be 4b5f cebc 2b35 9fbe
00000140: 13fb 1fbd da12 8abd 184e 823d f1b9 9fbc
00000150: b967 df3c 611b 18be ec34 4dbd 59a0 e0b7
00000160: 6564 3cbe 493e 0d3e 0844 27bd 7926 36bd
00000170: 3f21 263e 6bbc 2f3e ebb0 1ebe fb69 293a
00000180: 7f22 1cbe 9317 92be 2810 173e 25dd 3d3d
00000190: 38a3 98bc 484f 14be 4e8d bb3b 1d2e 07bd
000001a0: 6980 85be ea03 ae3c 9d45 ed3b acd5 1fbe
000001b0: 92dd dbbc a96f 65bd fdd8 9a3d 563b 323c
000001c0: d7d8 89bd 0ded a0bd f6ad 4f3b 4e12 ab3d
000001d0: 902c d9bd aa3a e3bc 92fa a6bd ca64 283d
000001e0: e4aa a83d 39a6 04bd 1294 b73d bded 2c3d
000001f0: b124 9d3c 981a be3c 3c6a 69bc ff65 dc3c
00000200: 2624 9dbd 9935 203d 4867 cf3c 77b6 3a3d
00000210: 0a3e e13d e551 0c3c bb7b 3fbe 5556 80bd
00000220: 17ae 97bc b4ec fdbc 04d6 283e 3df8 d23d
00000230: 0ad0 d63d b341 a3bd 34dc 03bd 87a2 1cbd
00000240: b881 b43c facc d3bd 9912 c3bd 8702 eb3d
00000250: 5313 81bd ff94 0d3e 560b 413c 2c18 09be
00000260: 595e d63c 756a 003e ddc9 933d 93b7 a93d
00000270: b0b4 f3bd d086 8fbc c6cb 82bc 360c 0cbd
00000280: c4b8 b0bc 76d2 04bd eee5 e73b 95a7 18bd
00000290: 1a0a d8bd c83c bfbc e129 37be b89c 513d
000002a0: 2e34 dd3d 9607 1abe 2473 263e 4d17 ba3b
000002b0: 2432 0abd 565b cebc f993 c8bd c0a9 9abd
000002c0: 925a d9bd 58d2 95bb 6f0e 253d 516a 0e3e
000002d0: ef1c 90bd dd8c f53d 790d 65bd bbeb 8dbd
000002e0: b03b eabd 0b05 11bd 382c 3bbd 4983 053d
000002f0: 429f 253d 85d1 ae3d 59fb 313c 61b0 3ebd
00000300: 1b20 efbd 9ad3 52bd 933b 3abd 932f 683d
00000310: 23da d9bd e5cb 43bd 7f53 6fbe e81a adbd
00000320: 2a7d ac3d e9b1 bdbe 2f44 05be 7a9f 0abe
00000330: bf8a cebd 0166 62be 3439 2abd 28aa 7bbe
00000340: f784 acbd 44b5 dfbb dbc2 2cbe 25c1 f7bc
00000350: 7734 cd3d 5315 ddbd fab2 203c b777 343d
00000360: 077a 7ebd 23fa e0bd e7ae 653d f2ca 82be
00000370: 4d87 9b3c 8c9c 693d 9ccd 24be 82b6 2f3d
00000380: 855f c1bd 503c 54be d211 233e 6cdb 003e
00000390: b958 093d 0cbc a3bd b9a0 503e 27ff 0d3d
000003a0: e613 4cbe 23b6 033e d986 e4bd e206 aebd
000003b0: 4fca fcbc 831c cabd fef6 14bc e71a fe3b
000003c0: 0273 39bd 08e2 673d c563 d6bd 8029 66bc
000003d0: 62dc 04bb 2ed3 e53d 3a7a b9bd 87ba b9bd
000003e0: c483 92bc 86ca 553d a9e6 f63d 25f8 88bc
000003f0: be59 b7bd c441 f7bd 94ab 233c e36a 7c3c

transformer.layers.0.0.norm.gamma f4 [9]
0.41507283 0.29547524 0.4634522 0.36246204 0.32765642 0.31724352 0.38141787 0.45472246
0.3933844
00000000: 6d84 d43e 8848 973e 9b49 ed3e a094 b93e
00000010: 95c2 a73e be6d a23e 3449 c33e 62d1 e83e
00000020: ae69 c93e

transformer.layers.0.1.static_alpha f4 [4, 5]
-0.08837634 1.0 0.0 0.0 0.0 0.76191986 0.0 1.0
0.0 0.0 0.1373287 0.0 0.0 1.0 0.0 0.12715511
0.0 0.0 0.0 1.0
00000000: a8fe b4bd 0000 803f 0000 0000 0000 0000
00000010: 0000 0000 2e0d 433f 0000 0000 0000 803f
00000020: 0000 0000 0000 0000 e59f 0c3e 0000 0000
00000030: 0000 0000 0000 803f 0000 0000 f334 023e
00000040: 0000 0000 0000 0000 0000 0000 0000 803f

transformer.layers.0.1.dynamic_alpha_fn f4 [9, 5]
0.04324565 0.0 0.0 0.0 0.0 0.1081089 0.0 0.0
0.0 0.0 0.037677012 0.0 0.0 0.0 0.0 0.287312
0.0 0.0 0.0 0.0 -0.094839625 0.0 0.0 0.0
0.0 0.16516216 0.0 0.0 0.0 0.0 -0.084546104 0.0
0.0 0.0 0.0 -0.06262713 0.0 0.0 0.0 0.0
0.032485068 0.0 0.0 0.0 0.0
00000000: 5a22 313d 0000 0000 0000 0000 0000 0000
00000010: 0000 0000 3368 dd3d 0000 0000 0000 0000
00000020: 0000 0000 0000 0000 3653 1a3d 0000 0000
00000030: 0000 0000 0000 0000 0000 0000 8f1a 933e
00000040: 0000 0000 0000 0000 0000 0000 0000 0000
00000050: 473b c2bd 0000 0000 0000 0000 0000 0000
00000060: 0000 0000 4520 293e 0000 0000 0000 0000
00000070: 0000 0000 0000 0000 8226 adbd 0000 0000
00000080: 0000 0000 0000 0000 0000 0000 a742 80bd
00000090: 0000 0000 0000 0000 0000 0000 0000 0000
000000a0: 100f 053d 0000 0000 0000 0000 0000 0000
000000b0: 0000 0000

transformer.layers.0.1.static_beta f4 [4]
0.9322888 0.92868745 1.0112145 1.1129837
00000000: 7baa 6e3f 76be 6d3f 7a6f 813f 4076 8e3f

transformer.layers.0.1.dynamic_beta_fn f4 [9]
-0.066437714 0.03415 -0.20932627 -0.096696146 0.06839209 -0.016666312 0.1190927 -0.035506982
-0.007999108
00000000: 7f10 88bd dfe0 0b3d a059 56be a108 c6bd
00000010: 2711 8c3d ca87 88bc e0e6 f33d c56f 11bd
00000020: b10e 03bc

transformer.layers.0.1.branch.0.weight f4 [9]
0.9329049 1.0650433 1.0377332 1.1276155 0.98028034 1.0624164 0.9593678 1.034996
0.9958732
00000000: dbd2 6e3f 5753 883f 71d4 843f b455 903f
00000010: a7f3 7a3f 43fd 873f 2199 753f c07a 843f
00000020: 8cf1 7e3f

transformer.layers.0.1.branch.0.bias f4 [9]
-0.087397896 -0.0002922369 -0.027281804 0.006742149 0.022768762 -0.0011352893 0.050548352 0.012340872
-0.12090663
00000000: abfd b2bd 5f37 99b9 177e dfbc 3fed dc3b
00000010: 8e85 ba3c fdcd 94ba ca0b 4f3d 5e31 4a3c
00000020: e59d f7bd

transformer.layers.0.1.branch.1.weight f4 [72, 9]
0.19388855 0.47715446 -0.20438778 0.14347443 0.35005376 -0.2859677 0.04905762 0.05422431
0.21212944 0.32931706 -0.2624029 0.0034771075 -0.052713666 -0.5199861 -0.37465268 -0.19145378
-0.32314947 0.16282013 0.052460447 -0.0023155222 0.13227728 -0.13107412 -2.8703646e-05 0.070923105
-0.069283046 0.37848964 -0.1631444 0.25364602 -0.24152748 0.21370646 0.3964258 0.20303817
-0.2080673 0.19509938 -0.0020901533 -0.25963286 -0.08928294 -0.2965128 0.22900523 0.19204073
-0.25038 -0.06036415 0.071889214 0.1059123 -0.16231929 -0.0030243804 0.1532086 0.10655412
-0.2789738 0.35949716 -0.00277992 -0.21240704 0.0352804 -0.17561719 0.17732152 -0.015286679
-0.12188133 -0.11996278 0.070520714 0.22380377 -0.2264818 -0.20281437 -0.32801053 -0.20939511
0.29122934 0.3036151 -0.056198306 0.054001797 -0.017674586 -0.13982661 -0.043747257 -0.3935112
0.33000892 0.28211263 -0.054806963 -0.021490872 -0.4275277 -0.14834912 -0.12501839 -0.05203322
-0.21538799 -0.37951636 0.14958328 0.06533639 0.19285938 0.071038574 0.056749776 0.255446
0.020334216 0.3610204 -0.088005416 0.029306607 0.201873 0.31949362 -0.24749844 -0.25127795
0.20125277 0.044147998 -0.079576045 -0.3083514 0.29691526 0.062448673 0.30128306 0.10679675
-0.15336493 -0.04247055 -0.08356933 0.32600456 0.23407781 0.35854083 -0.23249993 0.011353342
0.045313172 -0.2368673 -0.25909323 -0.0003704264 0.02990926 0.4162236 0.051001597 0.59998244
-0.04489799 -0.29545632 -0.008143716 -0.47470284 0.18873581 0.4298444 0.17838113 0.18054233
-0.07966279 -0.13148554 -0.29788068 -0.3121383 -0.019731745 0.0051956084 -0.25474912 0.18045925
0.20640993 -0.034144565 -0.12658937 0.4386352 -0.19936453 0.15584484 0.25039443 -0.23956937
0.077737994 -0.05108397 0.20562391 -0.12048189 0.33672208 -0.59742016 0.22674625 0.1761079
0.17899022 -0.3662105 -0.08559328 -0.30755013 -0.1886314 -0.09184637 -0.2664297 0.01950811
-0.20359774 0.2108228 -0.13396963 -0.11425703 0.11720606 0.47583634 -0.06740002 0.69394124
-0.07733901 -0.35895804 0.2256225 0.26699075 0.03682238 0.25034773 -0.33738416 -0.23469096
-0.08220823 0.0040018554 -0.08175257 0.16719188 0.058291417 -0.111667804 0.031823795 0.25879613
0.11899903 0.33148286 -0.24166454 0.3370895 0.07152221 -0.17131099 -0.0013557934 -0.17361157
0.039980736 0.12566414 -0.14120896 0.35219583 0.229172 -0.37198627 -0.33007044 -0.3121081
-0.14874901 0.15159589 -0.053936034 -0.22485171 0.34888002 0.17931882 0.17944254 -0.30381545
-0.2493435 -0.019087272 0.28615165 0.063994184 -0.0019748264 -0.20935442 0.069987416 -0.3171587
-0.11022169 -0.0022279937 0.22117841 -0.22452767 -0.13221326 0.35436535 -0.2768781 -0.26271152
0.13852444 0.1462595 -0.39363715 0.36651495 -0.25047803 0.06512154 0.3243344 -0.3295835
-0.38691822 -0.04072241 0.16334154 0.116705164 0.1423178 0.09961056 -0.17759365 -0.06867446
-0.29852635 0.33233243 -0.21978869 -0.21465823 -0.3094439 0.40512618 0.07853438 -0.1767743
0.11289003 -0.1951108 0.21446042 -0.21526238 -0.08209598 0.34677228 -0.06344349 -0.42424303
00000000: b88a 463e 974d f43e 084b 51be f6ea 123e
00000010: 3f3a b33e 5c6a 92be a5f0 483d 4f1a 5e3d
00000020: 7638 593e 3f9c a83e ac59 86be 2fe0 633b
00000030: 49ea 57bd cf1d 05bf 7ad2 bfbe 760c 44be
00000040: d973 a5be 52ba 263e c4e0 563d 04c0 17bb
00000050: b273 073e 4b38 06be 9cc8 f0b7 2240 913d
00000060: 45e4 8dbd 65c9 c13e 530f 27be e4dd 813e
00000070: fb52 77be ded5 5a3e 53f8 ca3e 3de9 4f3e
00000080: 980f 55be 22c8 473e f4fa 08bb 99ee 84be
00000090: f9d9 b6bd 87d0 97be 5980 6a3e 53a6 443e
000000a0: cf31 80be 6640 77bd a73a 933d 8ce8 d83d
000000b0: 0737 26be af34 46bb b7e2 1c3e 0c39 da3d
000000c0: a7d5 8ebe 0310 b83e 512f 36bb 3b81 59be
000000d0: 2e82 103d fed4 33be c693 353e fb74 7abc
000000e0: eb9c f9bd 0caf f5bd 2a6d 903d d12c 653e
000000f0: d8ea 67be 92ae 4fbe fff0 a7be ac6b 56be
00000100: 031c 953e 7073 9b3e 3230 66bd fd30 5d3d
00000110: 4bca 90bc b52e 0fbe 5330 33bd 4d7a c9be
00000120: eef6 a83e 1171 903e 447d 60bd a00d b0bc
00000130: e9e4 dabe d5e8 17be d204 00be c920 55bd
00000140: ab8e 5cbe f84f c2be 5c2c 193e 16cf 853d
00000150: ee7c 453e ac7c 913d 7472 683d d1c9 823e
00000160: f193 a63c aad7 b83e 2f3c b4bd 6914 f03c
00000170: ccb7 4e3e ab94 a33e 3b70 7dbe 81a7 80be
00000180: 3515 4e3e 88d4 343d c4f8 a2bd 3ce0 9dbe
00000190: 4705 983e 2eca 7f3d c641 9a3e 41b8 da3d
000001a0: b20b 1dbe 99f5 2dbd 6626 abbd 12ea a63e
000001b0: 18b2 6f3e aa92 b73e 7614 6ebe 5e03 3a3c
000001c0: 4e9a 393d 578d 72be dea7 84be ca35 c2b9
000001d0: 4404 f53c 421b d53e 0de7 503d 7398 193f
000001e0: f4e6 37bd 0d46 97be 386d 05bc 400c f3be
000001f0: f643 413e 9114 dc3e 8ba9 363e 17e0 383e
00000200: 3f26 a3bd 25a4 06be d183 98be 97d0 9fbe
00000210: 78a4 a1bc ec3f aa3b 7a6e 82be 4fca 383e
00000220: 205d 533e 2cdb 0bbd a5a0 01be cb94 e03e
00000230: 3726 4cbe ca95 1f3e b333 803e ac51 75be
00000240: 1935 9f3d 6d3d 51bd 138f 523e 36bf f6bd
00000250: d666 ac3e 87f0 18bf 2b30 683e a155 343e
00000260: 3649 373e f17f bbbe 884b afbd 3677 9dbe
00000270: 9728 41be f319 bcbd 7969 88be 79cf 9f3c
00000280: ed7b 50be efe1 573e 562f 09be 97ff e9bd
00000290: bb09 f03d d2a0 f33e 0609 8abd 22a6 313f
000002a0: ea63 9ebd 59c9 b7be 9609 673e 03b3 883e
000002b0: 10d3 163d 942d 803e 9ebd acbe d452 70be
000002c0: ca5c a8bd ff21 833b e46d a7bd 5934 2b3e
000002d0: fbc2 6e3d 17b2 e4bd ab59 023d ed80 843e
000002e0: c3b5 f33d 1fb8 a93e e976 77be ff96 ac3e
000002f0: 3d7a 923d 266c 2fbe e1b4 b1ba 3bc7 31be
00000300: d7c2 233d 1aae 003e 1599 10be 0353 b43e
00000310: 11ac 6a3e fc74 bebe fefe a8be a2cc 9fbe
00000320: a951 18be f43b 1b3e 08ec 5cbd 873f 66be
00000330: 67a0 b23e 5a9f 373e c9bf 373e b38d 9bbe
00000340: e753 7fbe e95c 9cbc 7882 923e 620f 833d
00000350: 176c 01bb 0161 56be 9055 8f3d a062 a2be
00000360: e9bb e1bd 8803 12bb 987c 623e 95ea 65be
00000370: ea62 07be 606f b53e f7c2 8dbe 2082 86be
00000380: 5ad9 0d3e 0dc5 153e cf8a c9be d9a7 bb3e
00000390: a83e 80be 715e 853d 290f a63e 2bbf a8be
000003a0: 251a c6be 8bcc 26bd 0143 273e 1e03 ef3d
000003b0: c2bb 113e 9f00 cc3d 1cdb 35be 32a5 8cbd
000003c0: 72d8 98be 7a27 aa3e 4910 61be 5ecf 5bbe
000003d0: 6e6f 9ebe b36c cf3e a2d6 a03d 5204 35be
000003e0: e332 e73d 20cb 47be 839b 5b3e be6d 5cbe
000003f0: f021 a8bd 238c b13e a9ee 81bd 6236 d9be

transformer.layers.0.1.branch.1.bias f4 [72]
0.17147711 0.6392783 0.14984581 -0.07729287 -0.34678063 0.075882636 -0.17383231 -0.07288072
0.16931273 0.041690107 -0.12338448 0.22759031 0.03729122 0.10973209 -0.22444427 0.010416714
0.004688985 0.1722527 -0.010388373 -0.17768547 -0.11745461 -0.0015244494 0.18862225 0.11801654
0.33224195 0.2005166 -0.017648628 -0.135805 -0.0048011853 -0.20958342 0.12753233 -0.35547125
0.28433216 -0.13522336 -0.21320255 0.14536089 -0.21353003 0.14279518 -0.12679608 0.2656088
-0.084460676 0.08169994 0.0037242183 0.33020553 0.053282417 0.46323252 0.012984318 0.252853
-0.034894474 -0.056292847 0.056281075 -0.10841245 -0.2652166 0.27807152 -0.19072327 0.17703423
0.109281555 -0.014781048 0.32526812 -0.45114177 0.38471937 0.1464923 0.02805152 0.37437382
-0.16789123 0.20378503 0.20250097 0.2895185 -0.15558708 0.2751637 -0.02727135 -0.044009205
00000000: b297 2f3e bea7 233f 2e71 193e b94b 9ebd
00000010: 3b8d b1be 5b68 9b3d 1901 32be 7d42 95bd
00000020: 5160 2d3e 3fc3 2a3d 01b1 fcbd 6f0d 693e
00000030: aebe 183d 38bb e03d b8d4 65be ddaa 2a3c
00000040: 0fa6 993b 0363 303e ff33 2abc 2ef3 35be
00000050: 0b8c f0bd 09d0 c7ba 3126 413e a8b2 f13d
00000060: 9e1b aa3e 3954 4d3e db93 90bc 7710 0bbe
00000070: 4353 9dbb 099d 56be d697 023e 5400 b6be
00000080: fc93 913e fe77 0abe c551 5abe 7cd9 143e
00000090: 9ea7 5abe e638 123e d5d6 01be e0fd 873e
000000a0: b8f9 acbd 4c52 a73d 0412 743b b310 a93e
000000b0: aa3e 5a3d d02c ed3e 2dbc 543c f375 813e
000000c0: 82ed 0ebd 5493 66bd fc86 663d 5907 debd
000000d0: 78ca 87be 645f 8e3e f64c 43be 7648 353e
000000e0: 02cf df3d 352c 72bc 8b89 a63e 0efc e6be
000000f0: f0f9 c43e 1402 163e 4dcc e53c edad bf3e
00000100: aeeb 2bbe 06ad 503e 6a5c 4f3e c53b 943e
00000110: 3852 1fbe 42e2 8c3e 2b68 dfbc ff42 34bd

transformer.layers.0.1.branch.4.weight f4 [9, 36]
0.011266079 -0.23689805 0.111325115 0.07474992 -0.20320767 0.04517421 -0.14507307 -0.048193198
-0.03634897 0.25250393 0.1412142 0.1437722 -0.020850794 -0.004066901 0.015290213 0.055056922
0.03967651 0.15516713 -0.05965178 0.034039572 0.061455324 0.045940693 0.10703899 -0.047321584
0.0070161293 -0.1028237 0.147088 -0.064299606 0.07478085 0.10116691 0.06093797 0.13813616
0.18182535 -0.041816983 0.021062985 0.15680765 -0.14725336 0.005589352 0.07769044 -0.10991214
0.048819732 0.091278985 -0.0346067 0.031133208 -0.2559979 0.11001131 -0.07885341 0.090040416
0.05778408 0.33614585 0.034963466 -0.07492283 0.0059766835 -0.020944225 0.056714706 -0.0062102317
0.11929228 0.08326162 -0.15884003 0.012960247 -0.08927322 0.026425237 0.2572354 0.16049185
0.23317482 0.03444324 0.06560488 0.009170176 0.1375811 0.009612262 -0.06671913 0.025936106
0.052291736 0.094288446 0.10240505 -0.04122009 -0.18857792 0.0787695 -0.10123604 -0.0079231
0.14816397 -0.0071191024 -0.00540947 0.07821088 -0.19907096 -0.06225559 0.05363272 0.13919964
0.025767686 0.12051005 -0.07425616 0.10824503 0.12849295 0.023080101 0.09828912 0.00015108631
0.044787798 -0.20652191 0.04599704 -0.1562783 0.1591564 0.03243633 -0.017729213 0.13681564
0.12913647 0.019963045 0.13032961 0.11937559 -0.17532128 0.16859339 0.09556312 0.029092671
0.0371003 0.008832609 -0.03304537 0.010487596 0.0036570604 0.06009079 -0.122702636 0.14404655
0.02970685 -0.014563673 -0.11417495 -0.17553456 -0.007917212 0.057485983 0.12317071 -0.091685064
0.032748498 0.13474786 -0.13941695 -0.20116161 -0.11616528 0.109131426 0.2310408 0.007827792
-0.55064964 0.13173473 0.13490488 -0.07384686 0.19562185 -0.06086135 -0.15735818 0.13267566
0.13163602 0.050142623 0.07956395 -0.020996695 -0.006200853 0.14811048 -0.027325911 0.019399205
0.27722093 -0.024684295 0.04293056 -0.010357957 -0.035735313 0.13275483 -0.09694987 0.06623103
0.05355174 0.015812926 -0.0634525 0.13390769 -0.034206714 -0.12556802 -0.029012153 -0.03941765
-0.1423068 -0.09094381 -0.4060515 0.17676127 -0.31376788 -0.03784268 -0.25293234 -0.008797671
0.34003463 0.03365471 0.122229375 0.044175275 -0.44326568 0.33963767 0.104334846 0.10789245
-0.29603654 -0.16153774 -0.09046267 0.001958441 0.015597908 0.24858505 0.089016765 0.44590318
-0.14303172 0.08994911 -0.038768474 -0.2473375 -0.18834744 0.14044753 0.27003697 -0.30475044
0.1485921 0.28139892 -0.14839919 -0.15909928 -0.18743797 0.23014072 0.04602192 -0.30637532
0.24451901 0.16565762 0.24044093 -0.18340169 -0.19979835 0.15883423 -0.34189352 0.049847923
0.050788105 -0.021162923 -0.008039312 -0.03287727 0.2668585 0.08208149 0.0010394066 0.027578967
0.15501384 -0.2012695 -0.08925221 -0.11814788 -0.08907808 -0.09404023 -0.10511171 0.03213519
0.046790782 -0.19305408 -0.030246492 0.051947113 -0.08534685 -0.06487826 -0.0966247 0.018568525
-0.1556101 0.0029434022 -0.50345135 0.15378363 0.018693022 -0.13725086 -0.14013894 -0.012037101
0.08950531 -0.18410705 0.025362542 -0.12017931 0.13491647 -0.2948273 0.018757267 0.023165787
00000000: 5c95 383c 6795 72be 6cfe e33d 7c16 993d
00000010: ac15 50be 9808 393d 098e 14be 3b66 45bd
00000020: a8e2 14bd 3248 813e 759a 103e 0539 133e
00000030: 49cf aabc a343 85bb cd83 7a3c 5e83 613d
00000040: d683 223d 22e4 1e3e 6d55 74bd 146d 0b3d
00000050: 94b8 7b3d 4f2c 3c3d 4237 db3d 47d4 41bd
00000060: 8fe7 e53b 3b95 d2bd 3d9e 163e 83af 83bd
00000070: b426 993d 9930 cf3d 189a 793d 9173 0d3e
00000080: 6d30 3a3e 4948 2bbd 488c ac3c 2f92 203e
00000090: 96c9 16be e226 b73b 2a1c 9f3d 9e19 e1bd
000000a0: 33f7 473d 7af0 ba3d c1bf 0dbd 120b ff3c
000000b0: 2812 83be 9c4d e13d e67d a1bd 1c67 b83d
000000c0: 00af 6c3d 4f1b ac3e da35 0f3d 2471 99bd
000000d0: 0ed8 c33b 3993 abbc ae4d 683d 337f cbbb
000000e0: 834f f43d 1185 aa3d f6a6 22be 3757 543c
000000f0: e1d4 b6bd bd79 d83c 5cb4 833e fa57 243e
00000100: 61c5 6e3e 5b14 0d3d da5b 863d 823e 163c
00000110: 0fe2 0c3e c07c 1d3c 0aa4 88bd f577 d43c
00000120: dc2f 563d 4d1a c13d bdb9 d13d 66d6 28bd
00000130: 921a 41be e751 a13d d754 cfbd e4cf 01bc
00000140: 4cb8 173e 5c47 e9bb ec41 b1bb 072d a03d
00000150: 42d9 4bbe b8ff 7ebd fcad 5b3d 5a8a 0e3e
00000160: c116 d33c f9cd f63d 9d13 98bd 92af dd3d
00000170: a893 033e 7b12 bd3c ce4b c93d ec6c 1e39
00000180: 6973 373d 7b7a 53be 6467 3c3d 6b07 20be
00000190: e5f9 223e f5db 043d db3c 91bc 6619 0c3e
000001a0: 5a3c 043e 8a89 a33c 2075 053e 307b f43d
000001b0: 6c87 33be bfa3 2c3e 99b6 c33d c153 ee3c
000001c0: 7cf6 173d a6b6 103c 955a 07bd 2ad4 2b3c
000001d0: 4bab 6f3b c321 763d 854b fbbd f080 133e
000001e0: c85b f33c 799c 6ebc 8ed4 e9bd 55bf 33be
000001f0: 32b7 01bc 6c76 6b3d ed40 fc3d 61c5 bbbd
00000200: 4a23 063d 58fb 093e 51c3 0ebe 4ffd 4dbe
00000210: 10e8 edbd 4c80 df3d f695 6c3e 2440 003c
00000220: 60f7 0cbf 78e5 063e 8124 0a3e 063d 97bd
00000230: 1851 483e c049 79bd 8122 21be 21dc 073e
00000240: 98cb 063e 5a62 4d3d 6df2 a23d 4301 acbc
00000250: 8630 cbbb 46aa 173e 97da dfbc 15eb 9e3c
00000260: e7ef 8d3e b836 cabc f4d7 2f3d 6cb4 29bc
00000270: 315f 12bd e2f0 073e a78d c6bd 22a4 873d
00000280: 1259 5b3d 1c8a 813c 62f3 81bd 191f 093e
00000290: 571c 0cbd e794 00be e5aa edbc 6774 21bd
000002a0: e0b8 11be c040 babd fbe5 cfbe e800 353e
000002b0: 2fa6 a0be ed00 1bbd 5980 81be 1b24 10bc
000002c0: 0519 ae3e 85d9 093d 6553 fa3d 22f1 343d
000002d0: b8f3 e2be fde4 ad3e 82ad d53d b8f6 dc3d
000002e0: 1a92 97be 266a 25be 7e44 b9bd 3059 003b
000002f0: 5e8e 7f3c 148d 7e3e 6c4e b63d 6c4d e43e
00000300: e876 12be 3d37 b83d b1cb 1ebd 0b46 7dbe
00000310: 27de 40be 7ad1 0f3e 4942 8a3e 4008 9cbe
00000320: 8728 183e 8513 903e f5f5 17be ecea 22be
00000330: bdef 3fbe 02aa 6b3e 7b81 3c3d 3add 9cbe
00000340: 3163 7a3e 27a2 293e 2636 763e a7cd 3bbe
00000350: f097 4cbe 71a5 223e ab0c afbe 562d 4c3d
00000360: 3007 503d de5d adbc 52b7 03bc 51aa 06bd
00000370: ada1 883e 571a a83d b33c 883a 49ed e13c
00000380: f3bb 1e3e 9819 4ebe ddc9 b6bd 84f7 f1bd
00000390: 926e b6bd 2a98 c0bd cf44 d7bd 30a0 033d
000003a0: b1a7 3f3d f8af 45be 7ec7 f7bc 7fc6 543d
000003b0: 54ca aebd e5de 84bd 2ce3 c5bd 051d 983c
000003c0: 4158 1fbe 18e6 403b 30e2 00bf 7579 1d3e
000003d0: 1c22 993c 7d8b 0cbe 9580 0fbe 4337 45bc
000003e0: 8f4e b73d 8f86 3cbe 1bc5 cf3c 9220 f6bd
000003f0: 8b27 0a3e 9bf3 96be d7a8 993c 2dc6 bd3c

transformer.layers.0.1.branch.4.bias f4 [9]
0.02954305 -0.03580473 0.18515038 -0.13204864 0.009569568 -0.15634033 0.04467083 -0.11753915
0.103162035
00000000: 4404 f23c fba7 12bd 1098 3d3e c237 07be
00000010: adc9 1c3c ae17 20be c3f8 363d 5eb8 f0bd
00000020: 9e46 d33d

transformer.layers.0.1.norm.gamma f4 [9]
0.09859279 0.15146855 0.38149667 0.20346306 0.1660838 0.053838003 0.31148198 -0.030339405
-0.022884483
00000000: 04eb c93d 921a 1b3e 8853 c33e 9f58 503e
00000010: df11 2a3e 3d85 5c3d 917a 9f3e 588a f8bc
00000020: 3d78 bbbc

transformer.layers.1.0.static_alpha f4 [4, 5]
0.09135996 1.0 0.0 0.0 0.0 -0.2668296 0.0 1.0
0.0 0.0 0.02497916 0.0 0.0 1.0 0.0 0.7410556
0.0 0.0 0.0 1.0
00000000: ee1a bb3d 0000 803f 0000 0000 0000 0000
00000010: 0000 0000 e49d 88be 0000 0000 0000 803f
00000020: 0000 0000 0000 0000 18a1 cc3c 0000 0000
00000030: 0000 0000 0000 803f 0000 0000 d2b5 3d3f
00000040: 0000 0000 0000 0000 0000 0000 0000 803f

transformer.layers.1.0.dynamic_alpha_fn f4 [9, 5]
-0.006876613 0.0 0.0 0.0 0.0 0.27190337 0.0 0.0
0.0 0.0 -0.08105132 0.0 0.0 0.0 0.0 0.17009032
0.0 0.0 0.0 0.0 0.009606874 0.0 0.0 0.0
0.0 0.14165272 0.0 0.0 0.0 0.0 0.04751951 0.0
0.0 0.0 0.0 0.031667136 0.0 0.0 0.0 0.0
-0.095236085 0.0 0.0 0.0 0.0
00000000: 3655 e1bb 0000 0000 0000 0000 0000 0000
00000010: 0000 0000 eb36 8b3e 0000 0000 0000 0000
00000020: 0000 0000 0000 0000 3cfe a5bd 0000 0000
00000030: 0000 0000 0000 0000 0000 0000 282c 2e3e
00000040: 0000 0000 0000 0000 0000 0000 0000 0000
00000050: 2666 1d3c 0000 0000 0000 0000 0000 0000
00000060: 0000 0000 690d 113e 0000 0000 0000 0000
00000070: 0000 0000 0000 0000 d1a3 423d 0000 0000
00000080: 0000 0000 0000 0000 0000 0000 66b5 013d
00000090: 0000 0000 0000 0000 0000 0000 0000 0000
000000a0: 230b c3bd 0000 0000 0000 0000 0000 0000
000000b0: 0000 0000

transformer.layers.1.0.static_beta f4 [4]
1.0679823 0.94174546 0.99310994 0.8985875
00000000: a5b3 883f 3b16 713f 743c 7e3f d509 663f

transformer.layers.1.0.dynamic_beta_fn f4 [9]
0.07367204 0.09039211 -0.04558563 0.69266176 -0.090923615 0.46285233 -0.07988234 -0.08031729
-0.026019903
00000000: 5ee1 963d 801f b93d ffb7 3abd 4852 313f
00000010: 2936 babd fbfa ec3e 5a99 a3bd 647d a4bd
00000020: b127 d5bc

transformer.layers.1.0.branch.norm.weight f4 [9]
1.0295199 1.0356998 1.0108517 1.0839015 0.95321006 1.0623411 0.9605998 1.0590401
0.98988205
00000000: 4fc7 833f d091 843f 9763 813f 49bd 8a3f
00000010: 9305 743f cbfa 873f dee9 753f a08e 873f
00000020: e968 7d3f

transformer.layers.1.0.branch.norm.bias f4 [9]
0.07797275 -0.0480925 -0.023814669 0.04315407 0.1224176 0.04555235 -0.02514095 -0.06617071
0.123286255
00000000: 2db0 9f3d a4fc 44bd fb16 c3bc 52c2 303d
00000010: 14b6 fa3d 1a95 3a3d 65f4 cdbc 8284 87bd
00000020: 817d fc3d

transformer.layers.1.0.branch.to_qkv.weight f4 [192, 9]
0.018687638 0.29811522 -0.17934114 0.00014615449 0.4036784 -0.10967341 0.30576533 0.19429392
-0.27897027 0.12547854 -0.15536447 0.3715203 -0.22988978 -0.31111598 -0.05924424 -0.452322
-0.31475163 -0.063158214 0.21367918 0.19580907 0.19144194 0.3558462 -0.3983339 0.18876092
0.23334931 -0.13468698 -0.15102997 0.009270958 0.35437813 0.19373801 0.13341697 -0.044898428
0.10841246 0.22379299 -0.1278964 0.07767756 -0.2873064 0.2509538 -0.46668845 -0.04737557
-0.13644525 0.3236028 0.38577747 0.3503631 -0.30664435 -0.15767106 0.20163068 0.022232499
0.46753335 -0.09600083 0.25796947 -0.14910796 -0.2156621 -0.24624622 0.42272517 0.10588712
-0.1584611 -0.39735138 0.000101525904 -0.19516289 -0.03348593 -0.13745144 0.37183642 0.17379119
0.2002745 -0.07142605 0.30699196 -0.057508096 0.43100482 -0.2513407 0.0835381 0.13032566
0.007210887 0.25072458 -0.20498191 0.23650302 0.26631677 -0.34200728 0.16727784 0.3244439
-0.07614296 -0.24049202 0.25919634 0.105220824 -0.19862841 -0.10110431 -0.42039025 -0.06232762
0.28338972 -0.120165505 -0.2804254 -0.2608104 0.24850453 -0.47489232 0.46673042 -0.010750162
0.31549355 0.22566496 -0.22498253 0.23132695 0.14835577 0.06732505 -0.4732998 -0.30722627
-0.06406478 0.08201155 0.0033827801 0.24826781 0.091747716 0.2899894 -0.33472502 0.5610722
0.0908991 0.32151163 -0.31987584 -0.27306 0.1973496 -0.26963797 -0.09207655 -0.018519448
-0.016313951 -0.011233953 -0.4101692 0.083755374 -0.16327721 -0.36036634 -0.1373801 0.15904911
-0.007846655 -0.45899248 0.1915776 0.1238997 0.42010054 0.2574081 -0.31227905 0.38578257
-0.16041464 0.3680896 -0.5433145 -0.37606233 -0.3605268 -0.17322615 0.18959112 -0.059357114
0.2506033 0.01790852 -0.032300375 0.040873148 0.145294 -0.32577682 0.3539875 0.057836667
0.24255167 0.22106351 0.043823984 -0.33356056 0.16400623 -0.268996 0.58865494 0.17030497
-0.2638927 -0.016070435 -0.17515732 0.3739316 -0.01868859 0.43494993 -0.30251297 0.4157569
-0.018212156 -0.0843004 0.115970105 -0.014314577 0.234381 -0.06865736 0.3222253 0.0026110215
0.2882634 -0.20000139 0.07445536 0.0068318048 0.07744597 0.1603499 0.07392445 0.21766227
-0.14888103 0.27597806 -0.014166266 -0.3697424 -0.11876763 0.22421135 0.09655763 -0.0181418
0.64634883 -0.3615423 0.38587862 -0.23481342 0.11100672 -0.3225045 0.10877098 0.38607106
-0.14703801 -0.22180589 -0.33768427 0.083337106 -0.22982943 0.25316963 -0.02918932 0.09017657
-0.2696093 0.35045218 -0.47556084 -0.072720364 -0.11409181 0.29998288 0.31021765 -0.27122307
0.30545372 0.33837464 0.16432779 0.34652877 -0.30726433 0.23288465 -0.28050816 -0.29823232
0.14233346 -0.2992448 0.23561665 0.3699243 -0.54125595 0.40522763 -0.55085427 0.17513019
-0.038373593 0.22202085 -0.18347895 -0.11321107 0.05205877 -0.1211141 -0.1042858 0.06974313
0.3229436 0.04781993 0.31434473 0.36711892 0.22661285 0.2883345 0.12045297 -0.011842776
0.49930188 -0.47896084 0.07711485 0.026900271 -0.17109932 -0.047589406 0.34585822 -0.46433407
00000000: d116 993c 8fa2 983e 34a5 37be 0c41 1939
00000010: efae ce3e 749c e0bd 468d 9c3e fcf4 463e
00000020: 31d5 8ebe 727d 003e dd17 1fbe e937 be3e
00000030: 3a68 6bbe 984a 9fbe 17aa 72bd c096 e7be
00000040: 2027 a1be 1859 81bd b7ce 5a3e 2c82 483e
00000050: 5b09 443e 7931 b63e 6cf2 cbbe 8b4a 413e
00000060: 1ff3 6e3e 62eb 09be 9aa7 1abe 37e5 173c
00000070: 0d71 b53e 4263 463e 759e 083e 6ae7 37bd
00000080: 5a07 de3d fd29 653e 46f7 02be 6a15 9f3d
00000090: d319 93be 047d 803e caf1 eebe e30c 42bd
000000a0: 4eb8 0bbe 44af a53e a084 c53e cb62 b33e
000000b0: 7d00 9dbe 8674 21be 4678 4e3e ee20 b63c
000000c0: 8860 ef3e 159c c4bd 9314 843e c2af 18be
000000d0: 87d6 5cbe f827 7cbe 6f6f d83e 59db d83d
000000e0: a043 22be a471 cbbe 4eea d438 c8d8 47be
000000f0: 8b28 09bd 12c0 0cbe 5861 be3e 51f6 313e
00000100: c214 4d3e d247 92bd 0d2e 9d3e 9c8d 6bbd
00000110: aaac dc3e baaf 80be 0616 ab3d 1774 053e
00000120: 4e49 ec3b f95e 803e c7e6 51be d92d 723e
00000130: ac5a 883e 941b afbe e24a 2b3e 831d a63e
00000140: d7f0 9bbd 8a43 76be 62b5 843e 047e d73d
00000150: 3f65 4bbe c70f cfbd 643d d7be 3f4b 7fbd
00000160: 7518 913e 5519 f6bd eb93 8fbe f188 85be
00000170: f977 7e3e 1625 f3be 4af7 ee3e 7321 30bc
00000180: 5f88 a13e b714 673e d261 66be f9e0 6c3e
00000190: 93ea 173e b7e1 893d 5a54 f2be c34c 9dbe
000001a0: 6534 83bd acf5 a73d a2b1 5d3b eb39 7e3e
000001b0: 3ae6 bb3d 7e79 943e 1461 abbe 6da2 0f3f
000001c0: 4f29 ba3d 2c9d a43e c4c6 a3be 85ce 8bbe
000001d0: 0316 4a3e fd0d 8abe a192 bcbd 19b6 97bc
000001e0: d6a4 85bc 9d0e 38bc b301 d2be f087 ab3d
000001f0: 2432 27be f081 b8be 5ead 0cbe c5dd 223e
00000200: 428f 00bc 1001 ebbe eb2c 443e 20bf fd3d
00000210: 6b17 d73e ffca 833e 0ae3 9fbe 4b85 c53e
00000220: bc43 24be 3d76 bc3e a916 0bbf 3e8b c0be
00000230: f896 b8be 3262 31be 2d24 423e 7220 73bd
00000240: 134f 803e e3b4 923c 664d 04bd 9a6a 273d
00000250: f3c7 143e 38cc a6be d93d b53e 24e6 6c3d
00000260: 775f 783e 795e 623e c780 333d 73c8 aabe
00000270: 40f1 273e d8b9 89be 17b2 163f 6d64 2e3e
00000280: f21c 87be 25a6 83bc 715c 33be f673 bf3e
00000290: d018 99bc c2b1 de3e fbe2 9abe 17de d43e
000002a0: a931 95bc b0a5 acbd bc81 ed3d b087 6abc
000002b0: 9301 703e 3b9c 8cbd b7fa a43e ac1d 2b3b
000002c0: 4397 933e 2acd 4cbe 0d7c 983d 55dd df3b
000002d0: fe9b 9e3d c432 243e b465 973d dce2 5e3e
000002e0: 4574 18be ff4c 8d3e a019 68bc e04e bdbe
000002f0: 713c f3bd a997 653e 02c0 c53d 1d9e 94bc
00000300: 1e77 253f 131c b9be e291 c53e ee72 70be
00000310: 7e57 e33d 4f1f a5be 52c3 de3d 1bab c53e
00000320: 2291 16be 1521 63be f4e4 acbe a5ac aa3d
00000330: 6858 6bbe 739f 813e 711e efbc 7eae b83d
00000340: 3b0a 8abe 786e b33e b67c f3be 6aee 94bd
00000350: f8a8 e9bd 5b97 993e d9d4 9e3e c0dd 8abe
00000360: 6e64 9c3e 713f ad3e 8b45 283e 386c b13e
00000370: c051 9dbe 5079 6e3e c49e 8fbe e8b1 98be
00000380: ddbf 113e 9d36 99be 7e45 713e b866 bd3e
00000390: c08f 0abf ff79 cf3e c904 0dbf 5455 333e
000003a0: a12d 1dbd 6f59 633e e8e1 3bbe 35db e7bd
000003b0: 943b 553d ab0a f8bd cb93 d5bd 7cd5 8e3d
000003c0: dd58 a53e d5de 433d cbf1 a03e 03f7 bb3e
000003d0: 330d 683e 94a0 933e 0cb0 f63d 3408 42bc
000003e0: 7fa4 ff3e 5b3a f5be 64ee 9d3d f55d dc3c
000003f0: a934 2fbe 1ced 42bd 5414 b13e 32bd edbe

transformer.layers.1.0.branch.to_out.weight f4 [9, 64]
0.1711704 -0.008528494 0.12241132 0.053759817 0.011196483 0.039512854 0.016825855 -0.045942318
0.008270988 -0.071527034 0.022239413 -0.049930412 0.045384694 0.023568599 0.08403416 0.0033734597
-0.10839089 0.059902113 -0.050506078 -0.1016199 0.07275572 0.08077241 0.054811835 0.02305608
0.04507246 0.017801536 0.13832903 -0.07238371 -0.16312101 -0.021095764 0.04449864 -0.029544739
-0.051099565 -0.10467934 0.013286727 -0.03463513 0.06669641 -0.07251813 0.1310911 -0.018023547
0.03346359 -0.12630944 -0.0788777 -0.090020075 -0.038709577 -0.024874499 -0.085581526 -0.13474537
0.047742903 0.009031554 -0.022007735 0.119541466 -0.08690507 -0.08574683 0.04636357 0.03704878
-0.051393513 -0.039638035 0.010458108 0.08813828 -0.07290385 -0.043106027 -0.02438841 0.07462547
-0.10673803 -0.026529154 -0.069162115 -0.042769536 -0.07117444 -0.09310588 -0.06470485 -0.07753496
-0.08988948 0.05753203 0.038433176 -0.009117914 -0.026481586 0.09755106 -0.08379316 -0.11199411
0.014488781 0.11870323 -0.060292467 0.038652815 0.0054205335 0.04879868 -0.011916536 -0.06063447
-0.036948107 -0.0029385395 -0.057808418 0.033784457 0.04552478 -0.13270573 0.02325032 0.062439755
0.10134224 0.023860937 0.002051913 -0.011417231 0.04725689 -0.03658115 0.13036607 -0.2213625
0.03580309 -0.07498899 -0.110846 -0.046655316 0.08820786 0.039856534 -0.023488604 0.042592265
0.00961039 -0.06465503 -0.01798497 -0.11732525 -0.0604342 0.066743016 0.020634262 0.060942117
0.15307634 0.046828065 -0.030416679 -0.048389733 0.029787512 0.042751186 0.041829623 -0.07622104
0.16719708 0.10234368 0.11153238 0.1417387 0.016225591 -0.006129723 0.043633893 -0.07079786
0.02658814 0.015321941 -0.055589102 0.027533129 0.048119433 -0.1815611 -0.076892465 0.16237634
0.03062402 0.22356348 0.08512571 -0.14494678 0.06353091 -0.057987586 -0.030055204 0.102014765
-0.042397544 -0.043703686 -0.011480062 0.096363574 -0.2861838 -0.035865296 -0.21082416 0.055228442
0.027710902 -0.10581042 0.04519742 -0.048326656 0.0032719818 -0.12521219 0.076444544 0.016880155
0.2261256 -0.17795745 -0.06968732 -0.23878627 -0.10122596 0.13186404 0.079677686 -0.035774376
-0.032494806 0.0799983 -0.012003102 0.07852789 0.08996269 0.06357781 -0.06661401 0.13165587
0.1332631 0.08044568 -0.027509328 0.06470362 0.029029395 -0.03582039 -0.1442298 -0.011567595
0.0023899858 -0.083755314 -0.08559546 0.033448618 0.06336578 0.02019709 -0.02438364 -0.15735662
0.050312024 0.08204256 -0.047707852 0.06262019 -0.058159765 0.03322063 -0.027271442 -0.038544916
-0.10993653 0.13418509 -0.09809405 -0.047985125 -0.060609274 -0.059405208 -0.02942608 -0.08038805
-0.07934358 -0.09553775 -0.054031383 0.08577227 0.10725036 0.039735146 0.03407276 0.037624955
0.030739428 0.018878557 -0.0050900267 0.108170375 0.0060426896 -0.08622466 -0.0020626027 0.0023490526
-0.08941556 0.17206271 -0.09869609 0.036235183 -0.015254434 0.11172521 -0.107089594 -0.024049584
0.14443547 0.015691523 0.09420209 0.12698881 0.02665688 -0.0081506455 0.004260414 0.067596585
0.05447551 0.016356844 -0.040255357 -0.07175435 -0.0543622 -0.0018910269 0.05938232 -0.03803659
00000000: 4b47 2f3e 19bb 0bbc c9b2 fa3d 4133 5c3d
00000010: 7471 373c 3bd8 213d 60d6 893c 032e 3cbd
00000020: 0a83 073c c47c 92bd 6e2f b63c d583 4cbd
00000030: 4de5 393d ef12 c13c 1a1a ac3d 4315 5d3b
00000040: 0bfc ddbd eb5b 753d 76df 4ebd 181e d0bd
00000050: f300 953d 016c a53d 6082 603d 1be0 bc3c
00000060: e69d 383d 87d4 913c 20a6 0d3e e93d 94bd
00000070: 3209 27be 06d1 acbc 3544 363d cf07 f2bc
00000080: c74d 51bd 1f62 d6bd 92b0 593c 91dd 0dbd
00000090: 2198 883d 6384 94bd bf3c 063e 1ea6 93bc
000000a0: 1e11 093d 4357 01be a28a a1bd 725c b8bd
000000b0: ef8d 1ebd 9bc5 cbbc 5e45 afbd b1fa 09be
000000c0: 108e 433d 15f9 133c 9149 b4bc 28d2 f43d
000000d0: 49fb b1bd 099c afbd bae7 3d3d 76c0 173d
000000e0: 0182 52bd 7e5b 22bd 7c58 2b3c d881 b43d
000000f0: 9d4e 95bd f28f 30bd 34ca c7bc 3dd5 983d
00000100: 7899 dabd ab53 d9bc dea4 8dbd 1c2f 2fbd
00000110: e8c3 91bd 4cae bebd fa83 84bd a6ca 9ebd
00000120: fa17 b8bd b5a6 6b3d 1b6c 1d3d 4e63 15bc
00000130: e9ef d8bc dac8 c73d c09b abbd 2b5d e5bd
00000140: 5a62 6d3c ae1a f33d 3cf5 76bd 6a52 1e3d
00000150: bb9e b13b 20e1 473d 933d 43bc da5b 78bd
00000160: e656 17bd 8394 40bb 85c8 6cbd 9261 0a3d
00000170: 3178 3a3d 03e4 07be 7577 be3c d4c0 7f3d
00000180: 858c cf3d 0378 c33c 6379 063b 560f 3bbc
00000190: 7190 413d 1ed6 15bd af7e 053e daac 62be
000001a0: 43a6 123d d493 99bd 3a03 e3bd a519 3fbd
000001b0: 53a6 b43d 9b40 233d 2c6b c0bc 3a75 2e3d
000001c0: e674 1d3c db69 84bd 3755 93bc 3848 f0bd
000001d0: da89 77bd 90b0 883d 2f09 a93c 719e 793d
000001e0: 0bc0 1c3e c9ce 3f3d 662c f9bc 5034 46bd
000001f0: f104 f43c de1b 2f3d 8a55 2b3d c719 9cbd
00000200: b635 2b3e 9099 d13d 176b e43d f323 113e
00000210: 88eb 843c d8db c8bb 74b9 323d 78fe 90bd
00000220: 5fcf d93c e108 7b3c 66b1 63bd 288d e13c
00000230: e218 453d 27eb 39be cc79 9dbd fc45 263e
00000240: 3adf fa3c d3ed 643e 6356 ae3d ee6c 14be
00000250: 7e1c 823d 6484 6dbd 5536 f6bc 1eed d03d
00000260: 0ca9 2dbd a302 33bd df16 3cbc 445a c53d
00000270: af86 92be 7de7 12bd 4ae2 57be 3837 623d
00000280: f901 e33c 22b3 d8bd ee20 393d 2cf2 45bd
00000290: bf6e 563b a037 00be f58e 9c3d 4048 8a3c
000002a0: 788d 673e 7a3a 36be 3ab8 8ebd 6384 74be
000002b0: 8e4f cfbd 5e07 073e 0e2e a33d 2788 12bd
000002c0: 4619 05bd 26d6 a33d a9a8 44bc 3bd3 a03d
000002d0: 5c3e b83d 1535 823d ed6c 88bd ccd0 063e
000002e0: 1f76 083e b4c0 a43d 3e5b e1bc 5583 843d
000002f0: 0ecf ed3c 67b8 12bd fab0 13be 0386 3dbc
00000300: 4fa1 1c3b e887 abbd ac4c afbd 6b01 093d
00000310: ebc5 813d 5e74 a53c 33c0 c7bc 1822 21be
00000320: fb13 4e3d ee05 a83d 4f69 43bd 043f 803d
00000330: ef38 6ebd 5b12 083d 5c68 dfbc 46e1 1dbd
00000340: 6726 e1bd d167 093e 89e5 c8bd 0d8c 44bd
00000350: 6e41 78bd e052 73bd f60e f1bc 7da2 a4bd
00000360: e37e a2bd 4ca9 c3bd 0350 5dbd 5fa9 af3d
00000370: 14a6 db3d 52c1 223d e18f 0b3d a01c 1a3d
00000380: 41d1 fb3c 34a7 9a3c 3dca a6bb 6e88 dd3d
00000390: c101 c63b 8e96 b0bd bb2c 07bb 90f2 193b
000003a0: 811f b7bd 3531 303e 2d21 cabd 586b 143d
000003b0: bced 79bc 30d0 e43d ca51 dbbd a203 c5bc
000003c0: e4e6 133e 828b 803c 06ed c03d 5b09 023e
000003d0: 875f da3c 498a 05bc f19a 8b3b 1470 8a3d
000003e0: b621 5f3d cafe 853c cde2 24bd f2f3 92bd
000003f0: e6aa 5ebd 55dc f7ba e03a 733d 41cc 1bbd

transformer.layers.1.0.norm.gamma f4 [9]
0.18254921 0.22069618 0.25288418 0.73213005 0.06290806 0.38251978 0.04204361 0.16916923
0.102642484
00000000: 2eee 3a3e 2efe 613e 097a 813e e06c 3b3f
00000010: f1d5 803d a2d9 c33e ec35 2c3d b33a 2d3e
00000020: 3936 d23d
