Projektarbeit_FTTransformer/trained_models/physical_loss_training/model_lr0.00025_8_1_4_4_.3_.3PhysicsLambda0.15_date_20250810_epoch10000.pt (torch, 101165 bytes, 87 tensors)

cls_token f4 [1, 1, 8]
00000000: 85d6 d3be 3986 3cbf f36c 07c0 301b b93f
00000010: 9133 7fbd ef4a 7fbe 0c73 ff3f e231 82bf
-0.41374603 -0.7364231 -2.1160247 1.4461422 -0.062305037 -0.24930929 1.9956985 -1.0171473

categorical_embeds.weight f4 [3, 8]
00000000: 0f9b 9fbe 8437 303f 87b1 edbf 931a 50be
00000010: a013 11c0 5b38 153f 768a 1fbf 4ddd fdbe
00000020: a53d 843f b923 ea3e d048 2b3f 8281 013e
00000030: de9c 2d3f ca10 43bf b795 9c3d 5e06 85bf
00000040: 7ca1 4a3f c851 10c0 95f7 0e3f b724 8c3f
00000050: a162 b4bf 31e2 213f b8fc c13f d7ee a93f
-0.31172988 0.6883471 -1.8569802 -0.20322637 -2.2668228 0.58289117 -0.6232065 -0.49582902
1.0331312 0.4573038 0.6690798 0.1264706 0.67817485 -0.76197493 0.07645743 -1.0392568
0.79152656 -2.2549915 0.5584653 1.0948704 -1.4092599 0.63235766 1.5155249 1.3276013

numerical_embedder.weights f4 [8, 8]
00000000: 56f4 07be 99eb b63f 41e3 b43d 15a9 0a40
00000010: 9e27 84bf eb3a 29bd 50a7 3dbe 78c0 25bf
00000020: b4c9 a83d 7dfe bd3f e7e4 63be 0be4 cdbf
00000030: 3e72 173e cfaf a43f a0fc e83e 9f8b 323f
00000040: 2688 263f 30fc 2a3e e6ae 15c0 c176 953e
00000050: b816 d73e 4161 3340 ef86 85bf a185 debd
00000060: 2b7e cb3e 3ae8 dcbd 1b78 56bf 0fe6 bebe
00000070: 6132 323f 1e2c ec3e 60a0 ebbe 6eac 83bf
00000080: 4542 1d3e 7c64 afbe 98e5 70bf cc5d 973f
00000090: 77a0 6b3e 8dc2 2f3f 6a6d 55be a4d3 913f
000000a0: a95e 763f c3df 8b3f ff97 adbf c86e 183f
000000b0: f5f1 653f b5c5 703f d794 7bbf 44a1 c7bf
000000c0: 9b2c d4bd ea05 59bf eca8 44bf 4f14 a13e
000000d0: d7ef 59bf 0220 34bd 8eea 9d3f 48d1 643f
000000e0: 48d7 933f f3b1 62be 3688 52bf 4c3a 543f
000000f0: 4fd8 443f 6bdf 423f 8180 a63f 5c1f 9dbf
-0.132768 1.4290649 0.08832408 2.16657 -1.032459 -0.041315954 -0.18520856 -0.6474681
0.08241597 1.4843289 -0.22255288 -1.6085218 0.14789674 1.2866153 0.45505238 0.69744295
0.65051496 0.16697764 -2.3388 0.29192165 0.4200952 2.802811 -1.0431803 -0.108653314
0.39744696 -0.10786481 -0.83777016 -0.37284896 0.6960812 0.4612741 -0.46020794 -1.0286996
0.15357311 -0.3425635 -0.9410033 1.18255 0.23010431 0.68656236 -0.2084252 1.1392713
0.9623819 1.0927662 -1.356201 0.5954404 0.8982232 0.94051677 -0.98273987 -1.5596089
-0.1036007 -0.8477465 -0.76820254 0.31460807 -0.8513159 -0.043975838 1.2337205 0.8938184
1.1550074 -0.22138195 -0.8223909 0.82901454 0.7689256 0.7612216 1.3007966 -1.2275195

numerical_embedder.biases f4 [8, 8]
00000000: 0c94 e6bc 326e 0a3f 69c8 e6bf cc9b 00be
00000010: 0678 cf3f df7c 1e3f 139e 0240 3f19 e03e
00000020: 6edd 18bf 2f5b 41bf 3c46 14bf a778 86be
00000030: dad3 c9be c470 9b3f c5e5 5d3c 0a35 2dbf
00000040: d8c2 06bf 6f1d 80bf c7f4 88bf d14b 92be
00000050: 0351 623f 8b50 fdbe b165 713f ef68 683e
00000060: e9a0 87be 6465 8c3f f789 3b3d 2319 963f
00000070: 8ab8 b7be 4240 eb3f 5e2e ef3e f828 773e
00000080: b128 dd3e c490 6fbf 2390 cabf a5e1 b3be
00000090: c89f 003f cfd5 1fbf f20e eabe 86df cebf
000000a0: eee7 0d3e e9bd e5bf ad42 9bbe 0524 e4be
000000b0: 9a56 b0be 1ae1 923f 6e46 a63f 1884 143d
000000c0: 740d 5e3e 9b1f 763e b872 8d3f c374 193f
000000d0: f3e3 e9be 6d49 d1be 330b 9e3f 7264 d23e
000000e0: 37a3 563f 4401 6d3d 3b7e 09bf f9ed 943e
000000f0: 50bb 0c3e ee05 ca3f c559 5c3f 46d7 94bf
-0.028146766 0.54074395 -1.802991 -0.12559432 1.6208503 0.6190929 2.040898 0.4376926
-0.59712875 -0.7552976 -0.5791967 -0.26263925 -0.39419442 1.2143788 0.013543551 -0.67659056
-0.5264106 -1.0008982 -1.06997 -0.28573468 0.88404864 -0.49475512 0.94295794 0.22696279
-0.26489952 1.0968442 0.04578587 1.1726421 -0.3588298 1.8378985 0.46715063 0.24136722
0.43195108 -0.9358027 -1.5825237 -0.3513309 0.50243807 -0.6243562 -0.45714527 -1.6161964
0.13858005 -1.7948581 -0.30324307 -0.4455873 -0.34441072 1.1474946 1.2990243 0.036258787
0.2168482 0.24035494 1.1050634 0.5994379 -0.45681724 -0.40876332 1.2347168 0.4109226
0.83842796 0.057862535 -0.5370824 0.2908781 0.13743329 1.578306 0.8607448 -1.1628196

transformer.layers.0.0.static_alpha f4 [4, 5]
00000000: 983d 333d 0000 803f 0000 0000 0000 0000
00000010: 0000 0000 e399 853f 0000 0000 0000 803f
00000020: 0000 0000 0000 0000 983d 333d 0000 0000
00000030: 0000 0000 0000 803f 0000 0000 983d 333d
00000040: 0000 0000 0000 0000 0000 0000 0000 803f
0.043759912 1.0 0.0 0.0 0.0 1.0437587 0.0 1.0
0.0 0.0 0.043759912 0.0 0.0 1.0 0.0 0.043759912
0.0 0.0 0.0 1.0

transformer.layers.0.0.dynamic_alpha_fn f4 [8, 5]
00000000: 5230 a9bc 0000 0000 0000 0000 0000 0000
00000010: 0000 0000 89e1 99bc 0000 0000 0000 0000
00000020: 0000 0000 0000 0000 77bd ebbc 0000 0000
00000030: 0000 0000 0000 0000 0000 0000 0cc7 69bb
00000040: 0000 0000 0000 0000 0000 0000 0000 0000
00000050: 6caf dc3c 0000 0000 0000 0000 0000 0000
00000060: 0000 0000 9d47 2abc 0000 0000 0000 0000
00000070: 0000 0000 0000 0000 6375 dc3c 0000 0000
00000080: 0000 0000 0000 0000 0000 0000 c01d 8cbb
00000090: 0000 0000 0000 0000 0000 0000 0000 0000
-0.020652924 0.0 0.0 0.0 0.0 -0.018784301 0.0 0.0
0.0 0.0 -0.028776867 0.0 0.0 0.0 0.0 -0.003567162
0.0 0.0 0.0 0.0 0.026939116 0.0 0.0 0.0
0.0 -0.0103930505 0.0 0.0 0.0 0.0 0.026911443 0.0
0.0 0.0 0.0 -0.0042760074 0.0 0.0 0.0 0.0

transformer.layers.0.0.static_beta f4 [4]
00000000: 81d9 863f 3acc 6d3f 5c49 833f 1514 7d3f
1.0535127 0.9288975 1.0256763 0.9885877

transformer.layers.0.0.dynamic_beta_fn f4 [8]
00000000: b0ef a23e 6304 693d ebad da3d 88e1 e2bc
00000010: 2976 a9be f314 943d e68f 79bb a751 ea3d
0.31823492 0.05688895 0.106777035 -0.027695432 -0.33097962 0.07230558 -0.0038080155 0.11441355

transformer.layers.0.0.branch.norm.weight f4 [8]
00000000: 8330 503f 5acc 673f 49f0 813f 5c93 673f
00000010: 9d84 673f ece9 563f 8b6b 833f ef08 593f
0.81324023 0.9054619 1.0151454 0.9045923 0.90436727 0.83950686 1.0267195 0.84779257

transformer.layers.0.0.branch.norm.bias f4 [8]
00000000: 04c5 8cbd c64c a2bd 12f7 5cbd f46e 69bb
00000010: 68d6 ad3d 94b9 dc3c 5872 de3d 7a5f 6dbd
-0.06873515 -0.079247996 -0.053946562 -0.0035619112 0.0848816 0.02694396 0.10861653 -0.05795238

transformer.layers.0.0.branch.to_qkv.weight f4 [192, 8]
00000000: a74a 85be a768 0e3d 11fe ac3d 2116 b7be
00000010: d498 1cbe 9a10 c03e 1e7c 723c 367e 733d
00000020: c233 0d3e 208e 233e e4a7 a43e 56f5 5a3d
00000030: 05e5 e23e 5790 b5bd a852 c5be 9901 93be
00000040: 7aa9 823d df48 b23c b08f abbe 4a4c 483e
00000050: f45b 873d 507c b1be f287 983e c5bd 3b3d
00000060: 8777 33bd 768b fc3c bc5a 62bd 54b6 483e
00000070: 6644 5ebe 4dea 86be 5e47 f5bc ff1c 05be
00000080: 7c7d 55bd f16e 3cbe 9b40 333e e05a 413d
00000090: 82b7 3dbe d192 38bd 0857 93bd 0fc7 3c3e
000000a0: f483 36bc 9423 863e cc6b 933e 9adb aa3c
000000b0: a08c 1fbe d179 8cbe c209 97be 5545 7dbe
000000c0: cc03 eabc 7e98 89bd 4e1b d4bd 8b6e 7bbe
000000d0: 986a 213e 4033 6fbe cd13 1ebe 9a13 92be
000000e0: 373c 243d 6505 543e 10e3 743e a37a 963e
000000f0: ad39 d73e de21 6c3e 39ce 49bd 2521 debd
00000100: 5322 a3be ddf0 623c 1486 b13e 7ab2 3dbe
00000110: 067a 883d 2e51 5abe ad9e e2bd ecea 423e
00000120: faf5 903e 34d6 c13e 1f44 f5bc f28c 883d
00000130: 144e c4bd fe97 423e 9f74 8b3d 85a3 1c3e
00000140: 1f2f ca3e 648e ad3e c784 a73e e3c1 8fbe
00000150: b08f 36be 8b73 af3d df8d 823e 041e a53e
00000160: eac8 92be 63fb 73be 65ba 9abe 28cb 1dbc
00000170: a7f5 79be a1e8 b8bd d9d5 28be 80e2 92be
00000180: 31b1 61be d05d cabe c6db 2dbd f965 64be
00000190: 0b33 38be 9c1c 983e 807a d83e 28e1 7ebe
000001a0: 3316 d53c 0551 91be bbe0 943e a111 1ebc
000001b0: 913f fa3d 7179 2b3e 5ebd 2a3b 5a80 963e
000001c0: 225f 76bd 84f1 773e 9ca4 67bd b701 373e
000001d0: e4e1 22be d06d 933e d7f1 b63d 869e 8ebc
000001e0: b1bd 713e 973b a13e 57b5 16be fefe 263d
000001f0: 56a9 2ebe d3bf 21be 460d 4abe 1785 60be
00000200: f0d7 703e 7039 92be 7254 6d3d e22c b33e
00000210: 1e36 61be ffc9 c33d d65f 173d 3cf2 51be
00000220: c257 b83e 62b0 71be 3dcc 1b3e dc3b a5bd
00000230: f76c 85be 4373 4bbd 046e be3e c2a1 e9bc
00000240: bf38 7c3e db61 533c 4092 b83d d630 2ebd
00000250: 4fce e53d 350e 993d 555d 93bd 1fca f73d
00000260: 7373 0b3e d74d 7fbd 4c80 c2bd 6a50 abbe
00000270: b29e 49be 8ea8 47be 88b3 d13d 6fda 903e
00000280: eeb6 9ebc 0310 99be 8f41 20bd 7206 8ebd
00000290: a7ff dcbd f6cc 293d bd6a a33c fbd6 61be
000002a0: fce8 b23e 8cc5 163e 3ecd 333e 96ab 4ebe
000002b0: d550 6e3c e94e 1a3e e052 f3bc de40 21be
000002c0: 4db5 e13d 673c ae3e 5ab5 c23c 92a5 08be
000002d0: 0d8c 3c3e 2ce4 25be e25c 6a3e f01b 75bc
000002e0: 8c49 003d 6596 9dbe c10a 553a c54c ba3d
000002f0: ab1a 213d e5c6 18be df24 b03d 0a4a e8bd
00000300: 0e51 873e b601 7f3e 86ce b4bd 8b83 c33e
00000310: 1d75 28be 5b32 aebd 1bc8 0bbd c67f a1be
00000320: d0da 7b3e d488 0a3e 67e2 a7be 375c 75bc
00000330: 94b1 f0bd ff5a 5f3e b0fb 5abe 4433 0fbe
00000340: 1401 4dbe a45c 823d 1184 8dbd 534c 1a3e
00000350: f3e6 4a3e f0bb 9bbd 1b10 06be f139 78be
00000360: 0d7f 773e d4cc a8bd 0457 79be 14e8 5ebe
00000370: 9859 583e d19c bebd 2434 6dbe b94d acbe
00000380: 92ad aebe e4f6 9c3e 8b23 e6bd bb9b 4bbd
00000390: a34a a2bd 3fce 0abe e05b d1bd eeb9 56be
000003a0: ab71 f63d 8310 f33d 4959 3cbe 01ed 00be
000003b0: e249 eb3c 3782 7f3e 0a35 aebe b814 24be
000003c0: 514d 973e dfce 463d 1370 15be 0120 ec3d
000003d0: 1472 ad3e 426c aebe 8640 e1bd 04eb 22bd
000003e0: 343b 4a3e 3f58 d63d 4e1e dcbd 6022 91bd
000003f0: 2253 b5be 6fed 61be 23d5 51bd 056a 303e
-0.26033518 0.034767773 0.08446897 -0.3575907 -0.15292674 0.37512666 0.0148001 0.059446536
0.13789275 0.15972185 0.3215934 0.053456627 0.44315353 -0.08865421 -0.38539624 -0.28712156
0.06379981 0.021763263 -0.33508062 0.19560352 0.066093355 -0.34665155 0.29791218 0.045835275
-0.043815162 0.030828219 -0.055262312 0.19600803 -0.2170578 -0.26350632 -0.029941257 -0.12999342
-0.052121624 -0.18401696 0.17505114 0.047205806 -0.18527034 -0.04506189 -0.07194334 0.1843531
-0.0111398585 0.2619902 0.2879318 0.020856667 -0.15580988 -0.2743669 -0.29499632 -0.2473348
-0.028566264 -0.06718539 -0.103567705 -0.24553888 0.15763319 -0.23359394 -0.15437241 -0.2853058
0.040096488 0.20705183 0.23914742 0.2939044 0.4203619 0.23059794 -0.049268935 -0.108461656
-0.31862125 0.013851372 0.34672606 -0.18525115 0.06663899 -0.2132003 -0.11065421 0.19034928
0.28312665 0.37858737 -0.02993971 0.06667508 -0.09585205 0.19003293 0.06809353 0.15296753
0.39489076 0.33897698 0.3271849 -0.2807761 -0.1782825 0.0856696 0.25498864 0.32249463
-0.2866891 -0.23826365 -0.30220333 -0.009630956 -0.24410115 -0.090287454 -0.16487826 -0.2868843
-0.2204025 -0.39524698 -0.04244592 -0.22304524 -0.17988221 0.29709327 0.4228096 -0.24890578
0.026011562 -0.28382125 0.29077706 -0.009647758 0.122191556 0.16745545 0.0026052813 0.293948
-0.06014932 0.24213225 -0.056553468 0.17871748 -0.15906483 0.28794718 0.08932846 -0.017409574
0.23607518 0.31490776 -0.14717613 0.040770523 -0.17056784 -0.15795831 -0.19731626 -0.2192577
0.23519874 -0.28559446 0.05794186 0.3499518 -0.219933 0.09560012 0.03695663 -0.20502561
0.36004454 -0.23602441 0.1521463 -0.08068058 -0.26059696 -0.04967047 0.3719331 -0.028519515
0.24631022 0.0129017485 0.0901227 -0.042527042 0.11220991 0.07473413 -0.07195536 0.120990984
0.13618259 -0.062330093 -0.09497127 -0.3345979 -0.19689444 -0.19497892 0.10239321 0.28291652
-0.019374337 -0.29895028 -0.03912502 -0.06934823 -0.10790949 0.04145523 0.019948358 -0.22054665
0.34943378 0.14723796 0.17558762 -0.20182642 0.014545639 0.15069164 -0.029702604 -0.15747401
0.110209085 0.34030458 0.023768116 -0.1334441 0.184128 -0.16200322 0.22886994 -0.014960274
0.03132014 -0.30778804 0.00081269076 0.09096674 0.039332073 -0.14919622 0.086007826 -0.11342247
0.26429027 0.24902996 -0.08828454 0.38186297 -0.16450925 -0.08505698 -0.034126382 -0.31542796
0.24595189 0.13528758 -0.3278992 -0.014975599 -0.1175262 0.21812056 -0.21385074 -0.139844
-0.20019943 0.06365326 -0.06909955 0.15068178 0.19814663 -0.076042056 -0.13092081 -0.24240853
0.2416956 -0.08242193 -0.243496 -0.21768218 0.21127927 -0.09307254 -0.23164421 -0.33653048
-0.341168 0.30657113 -0.11237248 -0.049709063 -0.07924392 -0.13555239 -0.10222602 -0.20969364
0.12033399 0.11868384 -0.18393435 -0.1259041 0.028721754 0.24952017 -0.3402484 -0.16023529
0.29551175 0.04853713 -0.14593534 0.11529542 0.33876097 -0.3406697 -0.10998635 -0.03977491
0.19749147 0.1046605 -0.10747968 -0.07086635 -0.35414988 -0.2206323 -0.051228654 0.17227943

transformer.layers.0.0.branch.to_out.weight f4 [8, 64]
00000000: f9da 93bd 0d1f 38bc 4c46 2ebd 637d 423c
00000010: 89ce 703d 304c 4d3d 1ede 8bbd 2f11 223d
00000020: ac87 013d c18e 823d ff18 a43c 3e14 163d
00000030: 6a84 2ebe b842 983d 136f 8dbd 787f 523e
00000040: 3625 383d 6184 f53d 1cd9 153d d081 1c3e
00000050: e5f2 c3ba 7c92 433d ce14 42bd 620c 853d
00000060: a794 983d 40a4 c63b ecdd c4bb a108 48bd
00000070: 569b 14bd 9529 9c3d c71d 363d f7f2 8ebd
00000080: e4d1 edbd 4e75 113e bd9d d83a 9e5e e2bc
00000090: 7d1a d8bd bad0 c73b d807 263d c61e 1dbe
000000a0: c069 0abd 67a9 ec3c b1fb 97bc d403 c8bc
000000b0: 7dab c7bc b3d9 a5bc c789 87bc 5d11 fb3d
000000c0: 8eeb 81bc b68b e33d e619 f2bd 0689 6dbc
000000d0: a951 323c 6857 d23d 6806 38bc cd22 8d3d
000000e0: 658a c53d 3792 e7bb 7268 a8bb f4e8 68bd
000000f0: c32d a0bc cbc5 6cbd de95 b03d 7894 60bd
00000100: ecb0 fbbd 3648 c7bc 08a7 843d b2e0 dabd
00000110: d1f3 853d 6d1d 033c a05f 093d 1c9f 433d
00000120: fb5c ecbd aaa5 c43c 4f73 263b 2d8a 933b
00000130: 9768 2f3c ad92 7f3d 3dea 533d 8735 f13d
00000140: 976b b9bb 80bd b8bd a79f a7bc 9c77 69b9
00000150: 3650 1b3d f314 23bd eeea 293d e236 fabb
00000160: ad2f 86bc d460 6a3d ae5b a8bd d719 b5bd
00000170: 30ae 69bd a3d9 513c c250 333c 8000 f8bd
00000180: 9c88 363c 48ae bc3d 7c3e 3cbd 12b5 a2bd
00000190: 51ff 243d 5ee7 153d dd0c 453d cec9 543c
000001a0: ca2c 74bb 8fbd 903d 3b1c debd 6c56 913c
000001b0: bab5 903c 47a3 90bb 4037 02be 4813 033e
000001c0: ef1c 78bd c6d5 4a3d 89a3 c9bd f0ab 373d
000001d0: f68d 263d 153b a43d 09f0 863c f443 083c
000001e0: 9e35 783d 7a55 d33c 0f04 2e3d 91ec 35bd
000001f0: f033 07bb 0a75 8d3d 535e 56bc 9193 acbc
00000200: 4a06 d2bc ba31 b0bd 3912 7e3c 1681 94bd
00000210: cc82 a43d 9471 ae3c 1758 453d e637 df3d
00000220: e5a8 8dbd 6b90 223d e333 503d e568 963a
00000230: 1d89 023d f294 89bd 6204 3c3d 3246 47bd
00000240: 26cf 91bd 30b0 35bd 19a1 61bd bb37 a4bd
00000250: 3d5f a3bb 390f 08bc cf92 833d 1dae 473d
00000260: 4849 1b3d 8d4b b03b 687d e63d 2862 133d
00000270: 55c6 b6bc 520d fabc a9f9 59bc 5bfd 3fbd
00000280: 7b5c d63b 5b0e 08bd 20da a43a 6eb4 9d3d
00000290: 4969 72b8 2fa2 c73d 9e82 f6bc bf08 db3b
000002a0: 704e 12bd 7ede 6dbc 7259 173e 0164 c9ba
000002b0: 9a69 e7bb 57de d23d f842 3eba 7f16 b13d
000002c0: da34 74bd 946b 193d c375 a73d 70b5 813d
000002d0: eba4 8abc f75d 33bd 1b11 c3bc f742 873d
000002e0: 7089 fcbc b4e4 543d a37b 52bd 053b 4dbc
000002f0: 7c0a 833c 2c76 263d 8f5b 393d 9df6 753d
00000300: e37e 45be 554b 2e3e e974 c93d 808a 15be
00000310: 0739 fabd 3154 0d3e 8003 323e 70ce 643e
00000320: c078 623b c4c8 353e 0bf8 c6bd a478 20bd
00000330: fac8 13bd 43d2 f53d f6f4 53be e24e 6e3e
00000340: 4aaf 0d3e beeb cdbd 8f80 a8bd f4ed a33d
00000350: 7abf 1f3e 9bd8 2d3d 424a 28be 5443 05be
00000360: 4bf2 a43c 0a44 be3d b8d6 3ebd 9203 40bc
00000370: dfed eebd dda8 d93c f869 08be 5cf4 11be
00000380: 60bc d33c d4e7 443e d0a0 0cbb 85e2 31be
00000390: 87fc 3abd 896e 5fbe de01 a13d 8602 3ebe
000003a0: 1a51 10be 11b7 483e 68c1 8d3c 3c89 cebd
000003b0: ded0 3ebe 7829 47bd c4ef 16be 3bd3 a6bc
000003c0: b656 213d ad92 2a3e 7f42 aabc 2f61 abbd
000003d0: 55d1 43be 622e 473d 9739 8e3d 5f7e e7bc
000003e0: 3a65 1e3e 1002 2f3e 7af2 923d 2e60 75bd
000003f0: 03f5 bd3d cc0a dc3d 2130 28bd 8041 1abe
-0.072195 -0.011237872 -0.04254751 0.011870715 0.058790717 0.050121486 -0.06829475 0.03956717
0.031623527 0.063748844 0.02003145 0.0366404 -0.170427 0.074346006 -0.06905951 0.20556438
0.044957362 0.1198814 0.036584005 0.15283895 -0.0014949708 0.04774712 -0.047383122 0.064965025
0.07450228 0.0060620606 -0.0060079005 -0.048836354 -0.036280952 0.07625119 0.04446199 -0.069799356
-0.11612299 0.14204904 0.0016526502 -0.027633008 -0.10551927 0.00609788 0.040534824 -0.1534377
-0.033792257 0.028889371 -0.018552633 -0.024415888 -0.024373764 -0.020245409 -0.01654519 0.12259171
-0.015859392 0.11110632 -0.11821346 -0.014498001 0.010883727 0.10270578 -0.011231996 0.06891403
0.09645537 -0.0070669907 -0.005139404 -0.056862786 -0.01955307 -0.057805818 0.08622335 -0.05482909
-0.122896045 -0.024326425 0.06477171 -0.106873885 0.06540645 0.008002621 0.03353846 0.04775916
-0.11541172 0.024004776 0.002539832 0.004502556 0.0107060885 0.06239574 0.05173706 0.11777788
-0.0056585777 -0.09020519 -0.02046187 -0.0002226517 0.037918292 -0.0398149 0.041483812 -0.007635937
-0.016380155 0.05722125 -0.082206115 -0.08842819 -0.057050884 0.012808236 0.010944547 -0.1210947
0.011140969 0.09212929 -0.045958027 -0.07944693 0.04028255 0.036597602 0.04810797 0.012987567
-0.0037258142 0.070674054 -0.10845228 0.017741404 0.017664779 -0.0044139954 -0.12716389 0.12800324
-0.06057447 0.049520276 -0.09845645 0.044841707 0.04066273 0.080190815 0.01647188 0.008316983
0.06059801 0.025797594 0.04248434 -0.04441506 -0.0020630322 0.06907089 -0.013084012 -0.021066459
-0.025637764 -0.086032346 0.015507274 -0.07251184 0.0803276 0.021294393 0.048179712 0.10899334
-0.0691698 0.03968851 0.050830733 0.0011475353 0.031869043 -0.06717862 0.045902617 -0.048650928
-0.071195886 -0.04435748 -0.055085275 -0.08018442 -0.0049857185 -0.008304411 0.06424486 0.04875003
0.037911683 0.0053801 0.11254388 0.03598228 -0.022311369 -0.03052393 -0.0133041525 -0.046872478
0.0065417862 -0.033216815 0.0012577213 0.0770043 -5.779535e-05 0.09747731 -0.03009158 0.006684392
-0.035719335 -0.014518378 0.14780214 -0.0015364886 -0.0070621492 0.10296314 -0.0007257904 0.08646869
-0.059620716 0.03745611 0.08176758 0.063334346 -0.016924342 -0.043790784 -0.023811867 0.066045694
-0.030827254 0.05197592 -0.05138744 -0.012526278 0.01599621 0.04064004 0.045253333 0.060049642
-0.19286685 0.17020924 0.09836752 -0.14603615 -0.12217908 0.13801648 0.17384148 0.22344375
0.0034556836 0.17752367 -0.09715279 -0.039177552 -0.036080338 0.12002995 -0.20698914 0.23272279
0.13836399 -0.1005473 -0.082276456 0.0800437 0.15600386 0.0424429 -0.16434577 -0.13013965
0.020135066 0.09290321 -0.04659149 -0.011719601 -0.11666464 0.026569778 -0.13321674 -0.14253372
0.02584666 0.1922906 -0.0021458156 -0.17371567 -0.045650985 -0.2181951 0.07861684 -0.1855565
-0.14093438 0.19601084 0.017304137 -0.10084769 -0.18634364 -0.048623532 -0.14739901 -0.020364394
0.039389335 0.16657515 -0.020783661 -0.08368146 -0.19122823 0.04862822 0.06944578 -0.0282585
0.15468302 0.1709063 0.07175155 -0.059906177 0.09275248 0.10744247 -0.041061524 -0.15064049

transformer.layers.0.0.norm.gamma f4 [8]
00000000: 1b3e cf3e 9672 fc3d aa79 293e e6df c23d
00000010: 45b4 eb3e 33c5 5d3e 9649 cd3d 0342 f63d
0.4047707 0.12326543 0.16550317 0.095153615 0.46035972 0.21657257 0.10023801 0.120243095

transformer.layers.0.1.static_alpha f4 [4, 5]
00000000: f3ae 1abd 0000 803f 0000 0000 0000 0000
00000010: 0000 0000 1b00 693f 0000 0000 0000 803f
00000020: 0000 0000 0000 0000 562d 5fbd 0000 0000
00000030: 0000 0000 0000 803f 0000 0000 3e5a 4ebd
00000040: 0000 0000 0000 0000 0000 0000 0000 803f
-0.0377645 1.0 0.0 0.0 0.0 0.91015786 0.0 1.0
0.0 0.0 -0.054486595 0.0 0.0 1.0 0.0 -0.05037903
0.0 0.0 0.0 1.0

transformer.layers.0.1.dynamic_alpha_fn f4 [8, 5]
00000000: 2fb2 d83d 0000 0000 0000 0000 0000 0000
00000010: 0000 0000 8129 b63d 0000 0000 0000 0000
00000020: 0000 0000 0000 0000 5229 c33d 0000 0000
00000030: 0000 0000 0000 0000 0000 0000 7cd2 6ebe
00000040: 0000 0000 0000 0000 0000 0000 0000 0000
00000050: 6eaa a0bd 0000 0000 0000 0000 0000 0000
00000060: 0000 0000 4ea3 bf3d 0000 0000 0000 0000
00000070: 0000 0000 0000 0000 9d69 bdbd 0000 0000
00000080: 0000 0000 0000 0000 0000 0000 fce3 843d
00000090: 0000 0000 0000 0000 0000 0000 0000 0000
0.10580861 0.0 0.0 0.0 0.0 0.08894635 0.0 0.0
0.0 0.0 0.095293656 0.0 0.0 0.0 0.0 -0.23322481
0.0 0.0 0.0 0.0 -0.07845007 0.0 0.0 0.0
0.0 0.0935732 0.0 0.0 0.0 0.0 -0.0924866 0.0
0.0 0.0 0.0 0.06488797 0.0 0.0 0.0 0.0

transformer.layers.0.1.static_beta f4 [4]
00000000: d708 8f3f da60 563f d740 893f 0b3b 703f
1.1174573 0.83741534 1.0722913 0.9384009

transformer.layers.0.1.dynamic_beta_fn f4 [8]
00000000: c4fc 023e 192e 853d 354e 6c3d d129 15be
00000010: 50a1 613d 3dbd 92bd 3b98 6abd b921 7c3d
0.12791735 0.06502933 0.05769177 -0.14566733 0.05508548 -0.071650006 -0.057274085 0.061555598

transformer.layers.0.1.branch.0.weight f4 [8]
00000000: 531c 8a3f a27d 6e3f 6854 813f 1e51 813f
00000010: af33 9a3f 7b33 803f 2635 703f a276 783f
1.0789894 0.9316045 1.0103884 1.010288 1.2047023 1.001571 0.938311 0.9705602

transformer.layers.0.1.branch.0.bias f4 [8]
00000000: 9a5a 01b9 bce1 8c3d 8057 ef3b 2f35 5a3d
00000010: 87bb 073d 6c19 febd b81e 87bd 14bb 233d
-0.0001233615 0.06878993 0.007304132 0.053273376 0.033137824 -0.124071926 -0.06597656 0.039973333

transformer.layers.0.1.branch.1.weight f4 [64, 8]
00000000: 4645 abbe 12fe 1d3e a492 72be edd6 92be
00000010: 1161 02be ff67 86bd d70c 123e f450 423e
00000020: ae78 a93e 1380 85bd f4c6 a33e 9076 103d
00000030: b44d 2bbe cf71 2bbd 93f9 633e e2dc 8fbc
00000040: 54c2 0f3e 63db 2fbe 31e1 fbbd 5406 a33d
00000050: 51e5 a23e 8feb 3bbd dd93 843e 992e 013e
00000060: ea2b 73bd 5087 c0bc 850d 06be 09b8 a73d
00000070: 0127 29be d8a2 d23d ed29 b43e 8e2f 33be
00000080: 3dd4 ddbd d5df a63e 980e 7dbe 8ea5 253d
00000090: 4b5b b23e a4e7 a3be 3273 ff3d 8cf6 8f3e
000000a0: d946 193f c197 a83e aaac ef3d 3a9f 4dbc
000000b0: c2fa a33d 2574 69be 61f5 1bbf 0222 423e
000000c0: d1e8 9f3e 02e8 bf3e e6a0 c63d 6dee b5bd
000000d0: 2017 b23e c2aa 833c 1fb6 92be 0c2b cb3e
000000e0: 8fa7 783c beed 62be 223b bfbd 1039 a5be
000000f0: 9e90 c73e 29bc 87bc 860d 853e 4d4d 75be
00000100: bda6 64be 8a3e 283e 20be 28bd 3fed 6e3e
00000110: 8688 023f fbcb c8be f53b b53e 2555 b03c
00000120: b27e b9bd 44d7 85be 6237 ec3c 6e0b f3bd
00000130: 61da b53e b5a8 a33d 6075 b83d 4e3e 893e
00000140: ac9b 0e3e 2ec1 b0be 51c1 e8bd 3cfa 89be
00000150: d953 c33e 6ac8 633d d706 85be 4d87 073e
00000160: 8201 9a3e b138 edbd 688f 3bbd e2be 823e
00000170: b0ab f93b 2b99 1cbf 0846 3bbe 21c7 40be
00000180: 9c04 913e c77e f8be 36de 543d e0c2 36be
00000190: 407a 35be dad0 6dbe 00ea 16bd a6fb a13d
000001a0: b9fe 07bd 7de5 1fbd 0b3f ca3e 6a21 243e
000001b0: 35bd 9ebe 9791 35bd fbe0 70bd ebc1 7cbe
000001c0: 6839 9fbc bb60 1e3e 4379 a6bb a00f ab3e
000001d0: 23ae 373e c9a3 9abe 2336 2c3e 3353 65be
000001e0: 9e32 aabc 61cf 46be 1dd6 c1bd c974 073e
000001f0: 1f2b ecbd bc4e 1dbc 922b c2be 39c1 2f3e
00000200: 93b8 58be 215f c8be 3765 a6be 41f6 093e
00000210: 887f 57be f647 8cbe e8fa 893d c932 663e
00000220: 5055 7fbe 98aa 5f3e e994 40be 6594 7fbe
00000230: 600a d83e 290a 93bd 4199 173e 8ed4 823e
00000240: 4c34 d7be d399 293e a4dc c23c 3abc 053e
00000250: dc59 b53d 208b 3a3e f73b 84be 30ac afbe
00000260: beaf 7cbd 1a26 56be 0a83 f1bd c1a2 a0be
00000270: e335 f3bd b18e 143e 27e0 14be b6cf 70be
00000280: 366d 72be 967c 7dbe 80dd ac3d c677 b23c
00000290: 439c d03c bd5a c63e 940f 7bbe d33a 93bd
000002a0: f44c 15be 90a5 41be b8d8 3ebd b788 d1be
000002b0: 0e5e 60bd f6d2 63be c7ea 0d3e ad61 b9bd
000002c0: 9f72 493e ad7c 3c3e d085 09bd 69ab b53e
000002d0: fa87 b63e c0a9 2fbd 7ff8 313e c07b a43e
000002e0: e02a eebd e4a5 513e e3e1 92bc f608 aa3e
000002f0: f5e5 a93e c329 8dbc 3481 d0be 6a2d 573e
00000300: fd9f 613d b73c 393d 3e82 02be 9ba4 95be
00000310: 2302 b33e ed6d 7cbe afcc 66be c88d 9a3d
00000320: 6a56 8ebe 9aa0 dd3d 7277 373b df89 173e
00000330: 4aae fb3d 5fd2 7cbe fa98 803e 003f 643d
00000340: 2951 f93e d6f0 cabc 9df4 603e e465 8abe
00000350: 0a65 443d 035e 62be 0ada b13e 8a60 2ebe
00000360: 7955 8fbd 4907 afbe 2ff1 58be c29f abbd
00000370: a700 c8be e1a5 db3d 28fb 08bd ffcf 7f3e
00000380: 2aed e23d 61fd 453e 9231 2d3e ded8 75be
00000390: 2d79 78bd 6776 143d eab0 0c3e 84f3 88bd
000003a0: 8a77 bf3d 6adc d2bd 4373 45be e576 5d3d
000003b0: 16bb febe 5304 6fbe 7a45 9a3d 083e 9ebb
000003c0: 4952 0abe 2158 c5be d1ed 303e c10e b43c
000003d0: d25d 833e c5fb aabe 8ae5 ba3e 8c0d 3f3e
000003e0: 0ae8 0e3e 2437 a93d b13a 65be 0d7f d6bd
000003f0: 3690 2dbe cb89 a0bd b3b0 9a3e 6164 df3c
-0.3345129 0.15428951 -0.23688751 -0.286796 -0.1273234 -0.065628044 0.1426271 0.18976194
0.33099884 -0.06518569 0.31987727 0.03526932 -0.1672886 -0.041856583 0.22263174 -0.01756138
0.14038974 -0.17173533 -0.12298811 0.07960191 0.3181558 -0.045878943 0.2589406 0.12615432
-0.05936805 -0.023502022 -0.13091095 0.08189399 -0.16518785 0.10284966 0.35188237 -0.1749861
-0.10831497 0.32592645 -0.24712598 0.04044109 0.34835276 -0.32012665 0.12473144 0.28117788
0.5987373 0.3292828 0.11702855 -0.01255017 0.08006813 -0.22798212 -0.60921293 0.18958285
0.31232312 0.37481695 0.09698658 -0.08883367 0.34783268 0.016072635 -0.28654572 0.3968128
0.015176668 -0.22161004 -0.093374506 -0.32270098 0.38977522 -0.016569214 0.2598688 -0.23955269
-0.2232923 0.16430107 -0.041196942 0.2333269 0.5098957 -0.39218125 0.35397306 0.021524975
-0.09057368 -0.26140797 0.028835002 -0.118674144 0.35518172 0.07991163 0.090067625 0.26805347
0.13926572 -0.34522384 -0.11364997 -0.26948726 0.38149908 0.05561105 -0.2598178 0.13235207
0.30079275 -0.11583079 -0.04579106 0.25536257 0.0076193437 -0.61171216 -0.18288434 -0.18825962
0.2832383 -0.48534223 0.05196973 -0.17847776 -0.17722416 -0.23224202 -0.036844254 0.07909326
-0.033201907 -0.039037216 0.39501223 0.16028371 -0.31003729 -0.0443283 -0.058808308 -0.24683349
-0.019436553 0.15466587 -0.0050803735 0.33410358 0.17937522 -0.30203083 0.16817527 -0.22395019
-0.02077609 -0.19415046 -0.09464667 0.13228144 -0.11531662 -0.009601291 -0.37923867 0.17163552
-0.2116416 -0.39135078 -0.32499096 0.13472845 -0.21044743 -0.27398652 0.0673731 0.2248031
-0.24934888 0.2184242 -0.18806805 -0.24958952 0.42195415 -0.07179672 0.14804555 0.2555279
-0.42032087 0.16562586 0.02378685 0.13060084 0.0885503 0.18217134 -0.25827 -0.34311056
-0.06169104 -0.20912972 -0.11792572 -0.3137417 -0.118755125 0.14507557 -0.14538632 -0.23516735
-0.23674473 -0.24754557 0.08440685 0.021785628 0.025465136 0.38741103 -0.24517661 -0.07188954
-0.14580137 -0.18910813 -0.046593398 -0.40924618 -0.054777198 -0.22248444 0.13859092 -0.09051833
0.1967263 0.18406935 -0.03357488 0.35482338 0.35650617 -0.042886496 0.1737995 0.32125664
-0.116292715 0.20473439 -0.017929977 0.33209962 0.33183256 -0.017231828 -0.40723574 0.21013418
0.055084217 0.045223918 -0.12744996 -0.29227147 0.34962568 -0.24651308 -0.22539018 0.07546574
-0.27800304 0.10821648 0.002799478 0.14798687 0.122891024 -0.24689625 0.25116712 0.055724144
0.48694733 -0.024773043 0.21968313 -0.2703086 0.04794792 -0.22106175 0.34736663 -0.17029014
-0.069987245 -0.34185246 -0.21185754 -0.08380081 -0.39062998 0.10724998 -0.033442646 0.24981688
0.11080392 0.19334938 0.16913441 -0.2400851 -0.060662437 0.03624573 0.13739362 -0.06687072
0.09348972 -0.10295947 -0.1928225 0.054068465 -0.4975211 -0.23341493 0.07532783 -0.004829172
-0.13507952 -0.385438 0.1727822 0.021979691 0.25657517 -0.3339521 0.3650325 0.18657511
0.13955703 0.0826247 -0.2238567 -0.10473452 -0.16949543 -0.07838782 0.30212936 0.027269544

transformer.layers.0.1.branch.1.bias f4 [64]
00000000: 3e95 5ebe 06ca f03d 5662 53be 0aae 963e
00000010: c799 393e cfbe c3be c468 db3d 7d52 783e
00000020: 4f09 9d3e 41dd 873d 11af bb3c 1017 30be
00000030: da09 a63e fce9 833e 4985 6e3d 9f91 4f3e
00000040: 6872 f4bd 98d1 88bd bfad 09be 55fb cbbe
00000050: 3113 58be 7dda 3cbc 9aae f73d 2b9e 72be
00000060: 8909 cabd cbb6 4cbe cb06 743e e79c b53d
00000070: cf0e f73d 07a1 e3be 2674 31be c4fc 9b3e
00000080: f672 a3be 6162 373e 5a0b 383d c729 54be
00000090: f0ab 9cbe 9b8b a2be c380 57be 1381 48bd
000000a0: 0be3 8dbe 0c83 043e eb9a 42be 80e3 36be
000000b0: 5fbf 673e 37f2 dbbc a473 a63e f511 903e
000000c0: b8e3 adbd 48f2 c83e 562e 3c3c 9759 873b
000000d0: c78c c13d cc2e e8bd 127f 2cbe 566f 39bd
000000e0: 63e4 b3bd 40f3 dbbd c252 2cbd 30e5 b73d
000000f0: a5c9 4d3e 4355 ee3d d310 74be cc18 143e
-0.21736619 0.11757283 -0.20642981 0.29429656 0.18125068 -0.38231513 0.10713342 0.24250217
0.30671164 0.06633998 0.022910627 -0.17196298 0.3242939 0.25764453 0.05823258 0.20270394
-0.11935884 -0.06680602 -0.13445185 -0.3984019 -0.21101071 -0.011526701 0.120938495 -0.23693149
-0.098651 -0.19991605 0.23830716 0.08867817 0.120633714 -0.44458792 -0.17329463 0.30466282
-0.31923646 0.17908622 0.0449327 -0.20719062 -0.30599928 -0.31747136 -0.21045212 -0.04895122
-0.27712283 0.12940615 -0.19004409 -0.17860222 0.22631596 -0.026848895 0.32510102 0.281387
-0.084906995 0.39247346 0.011485657 0.004130553 0.09450679 -0.11337051 -0.16845348 -0.045272194
-0.08783796 -0.10739756 -0.04207111 0.08979261 0.20096453 0.11637356 -0.23834543 0.14462584

transformer.layers.0.1.branch.4.weight f4 [8, 32]
00000000: 4bb0 18be fa53 873c 4f74 7ebc 8c0b 4c3d
00000010: 2dd0 df3c 6aa1 5fbd 9e58 ae3d 52a4 53bd
00000020: c496 ed3c be80 ed3d 5754 6d3d cb75 83bb
00000030: 0406 c0bc c790 9fbd caf6 ae3c 7f01 273e
00000040: 58be cb3c 86c7 223e 006c 41be ca2e c63d
00000050: cf90 9dbd c68e 97bc a5f9 1abd a361 c7bc
00000060: fb42 87bd 1a45 b53d 50ba 38be 9ab9 833d
00000070: 072c 083d a628 8ebd b2c6 b8bd ec17 073e
00000080: ef86 31be 7e37 173e 2099 c83d 4ed4 86bc
00000090: e7d5 aa3b 90fe 1ebd 1ecd bf3d 76df 24bd
000000a0: af3c 193d 8d82 8d3c 96d3 eabd 9d9f 91bd
000000b0: 0b42 823d 8f7e 64bd 550a e03c 9dd1 eb3d
000000c0: 8b9a 993d a977 153d 2bda 27be 85c2 853d
000000d0: 1ae3 01bd 5b6b c83d 44a7 683b 9c38 873c
000000e0: 8e6a 273c ebcc 903d c8bf 3a3c 0a48 653c
000000f0: fa8d 01bc cae0 433d 1295 fb3c 2b6e 04bd
00000100: e005 41be 4f26 f9bd 004f 69bd 57c5 92bd
00000110: cd02 edbd fb93 663c a0d8 74bd f7eb be3d
00000120: 7bce abbd 09ed c03c 8a09 82bd 88fb 62be
00000130: ba94 c6bd 1d6c 093c 2fff 013e f442 ab3c
00000140: fb14 2fbd be20 4c3e d72b 5abd 4bb9 18bd
00000150: aa9a 84be a407 babd 133b e8bd a586 7fbe
00000160: 97d0 f0bd 1476 1b3e 23f0 d4bc 1021 193e
00000170: ea2c 24bd a53b 25be b9ca 90bb d12a f9bd
00000180: cfdb f9ba 94ce 933d 6517 5a3e b865 5dbe
00000190: 4573 153e e09e 02be 312b a13e ce3f 6bbe
000001a0: 2321 503e 8bc9 d73d 08a5 dfbd 530c 5f3e
000001b0: 066e 6f3c 069e f2bd 5d02 19be edf3 a3bd
000001c0: 9757 2e3e 2591 0b3e 8064 803d fda8 5b3e
000001d0: c5e2 ba3d 860c 1f3e 5bca 843d e5e4 843e
000001e0: 847b 293e 39b9 d2bd 8b3b fd3d a0e2 5cbe
000001f0: 01ed e53c 1f8a a93d 45d7 753e 8433 10be
00000200: 5806 4abd 4c1f b5bc ba8f 1c3e 79d1 993d
00000210: da21 f03d b7f4 89bd 9eac 1e3e 6435 e6bd
00000220: 1eb3 c63d 3dd9 bd3d a9a2 e13d c526 453d
00000230: 5d2b 36bd cba2 54bc a032 64bd 021d a13d
00000240: cdcf 073e 363c 8fbd 0672 d53d af36 f13d
00000250: 2963 0e3b be92 1f3e e537 363c b57b d93d
00000260: 2b98 0b3e 87b8 c13c d924 c03c d603 33bd
00000270: 3b72 a7bd 7687 d4bc d0e6 b13d 1789 393d
00000280: b30e 29be 16ec 963d 44ce 1bbe 8e04 3fbe
00000290: 35ac 98bd 392d 903e 4099 2abe b66f 623d
000002a0: 0d2f 55be d0b4 f3bc ad44 813e e4ef 9cbe
000002b0: cd1d fd3d 8a5b ed3d 1d04 373e 782e 0abd
000002c0: 4f14 06be 0e57 ff3d 6fe6 82bd 4003 5ebe
000002d0: 0124 35be 0c69 673c 2793 bbbd 59cf 48be
000002e0: 85e9 8b3c b0c6 4c3d af5e 493e 8483 fd3d
000002f0: 076c 86bb 79d8 88be 0298 4bbe e9da b63d
00000300: 8c9f dfbd 7cf7 0e3d b666 373d 30bf c53c
00000310: dd4b 853d 7c29 4b3e b579 16bb d59e 113d
00000320: 7432 85bd bbc7 a33d ba1b 75bb 8a4a 8bbd
00000330: 838c 373d 2a84 06bc f79e 4abd ffb8 693d
00000340: 7e22 303d ec0a d53d 080d 96bd 6d03 3cbd
00000350: fe20 143e c8ac 683e bc7c 183d c693 db3d
00000360: 9e37 9c3d 2ae0 30bd da22 18be 7275 a4bd
00000370: 8ff0 38bd f234 5b3d 1c20 6e3e 2945 133b
00000380: 6723 fbbd 4ff1 1cbe 5de1 ebbc 020c 893d
00000390: 0a64 abbd a047 833b 35fe 2abd 2427 033d
000003a0: a709 94bd cd0f 173e d274 42bc d6ad 67be
000003b0: cb78 c3bd 9e6f 6c3b 97de 363e 9078 c0bd
000003c0: c442 04bc 6775 3f3d 38c8 013d 4d6a b0bc
000003d0: 6038 65be 724c e6bd f3e9 01be 4993 76be
000003e0: 2835 bfbd 53cd 283e 2344 943d 35e2 4d3e
000003f0: 0393 5bbd 7666 82bd 8cfe 1fbd 8477 b6bd
-0.14911 0.016519535 -0.01553066 0.0498157 0.027320946 -0.054597296 0.08512996 -0.05167038
0.029002555 0.11596821 0.05794176 -0.0040118448 -0.023440368 -0.07791286 0.021357913 0.16309164
0.024871036 0.15896425 -0.18888855 0.09676893 -0.07693636 -0.018500697 -0.037835736 -0.024338549
-0.066045724 0.08851071 -0.18039823 0.06431885 0.033245113 -0.06941347 -0.09022273 0.13192719
-0.1733663 0.14767262 0.09794831 -0.016458657 0.0052134874 -0.03881699 0.09365295 -0.04025217
0.037411388 0.017274166 -0.11466138 -0.07110522 0.06360253 -0.05578476 0.027348677 0.1151459
0.0750018 0.03649107 -0.16391818 0.06531242 -0.03171072 0.097861014 0.0035500089 0.016506486
0.010218276 0.07070335 0.011398263 0.013994226 -0.007907385 0.047821797 0.03071073 -0.032331627
-0.18849897 -0.1216551 -0.056960106 -0.07166546 -0.115728 0.014073367 -0.059776902 0.093223505
-0.083889924 0.023550527 -0.06349476 -0.22166264 -0.09696336 0.008387593 0.12695001 0.02090595
-0.042744618 0.19934365 -0.053264465 -0.037286084 -0.2589925 -0.090834886 -0.113393925 -0.24953707
-0.11758535 0.15181762 -0.025993412 0.14954019 -0.040081896 -0.16136034 -0.0044186977 -0.1216637
-0.00190627 0.07217136 0.21297987 -0.21620834 0.14594753 -0.12755919 0.31478265 -0.22973558
0.2032514 0.10536488 -0.10920149 0.21782045 0.014613634 -0.11846547 -0.14942308 -0.080055095
0.170256 0.13629587 0.06269169 0.21451183 0.09125284 0.15532121 0.06483909 0.25955883
0.16551024 -0.10289235 0.123648725 -0.21570826 0.028067114 0.08278298 0.240079 -0.14082152
-0.049322456 -0.02210965 0.15289202 0.07510657 0.11725207 -0.06736129 0.15495536 -0.11240652
0.09702133 0.092699505 0.11017353 0.048132677 -0.04447495 -0.012978266 -0.055712342 0.07866861
0.13262863 -0.06993906 0.10422139 0.11778008 0.0021726585 0.15583321 0.011121725 0.10619298
0.13632266 0.02364756 0.02345507 -0.04370483 -0.081760846 -0.025943499 0.08686602 0.045296755
-0.16509514 0.073692486 -0.15215403 -0.18654081 -0.07454721 0.28159502 -0.16660023 0.055282317
-0.2081873 -0.029749304 0.25247708 -0.30651772 0.123592 0.11589725 0.17872663 -0.033735722
-0.13093685 0.12467776 -0.06391608 -0.21680927 -0.17689516 0.014124166 -0.091589265 -0.19610347
0.017079124 0.04999417 0.19665025 0.123786 -0.0041022333 -0.26727656 -0.19882205 0.089284725
-0.10919103 0.03490399 0.044775687 0.024139017 0.065086104 0.19840044 -0.0022960727 0.035551865
-0.06503764 0.0799708 -0.003740056 -0.068013266 0.044811737 -0.008210221 -0.049468007 0.05706119
0.043001644 0.10402474 -0.07326704 -0.045901705 0.1446571 0.22722161 0.03722833 0.10721545
0.07627796 -0.04318253 -0.14857045 -0.080302134 -0.04515129 0.05351729 0.23254436 0.0022471643
-0.12262612 -0.15326427 -0.028793985 0.066917434 -0.0836869 0.004006341 -0.041746337 0.03201975
-0.072284035 0.14752121 -0.011868672 -0.22624907 -0.09544524 0.0036077271 0.17858349 -0.093979955
-0.008072559 0.046742823 0.031685084 -0.021535063 -0.22384787 -0.112450495 -0.12686901 -0.24079622
-0.093363106 0.16484575 0.072395585 0.20105822 -0.053607 -0.06367199 -0.039061114 -0.089095145

transformer.layers.0.1.branch.4.bias f4 [8]
00000000: dc57 0ebe ee38 52bc d512 f53c 964d 9bbd
00000010: a162 49be a38d b43d e16e 53bd 1303 09bd
-0.13900703 -0.012830956 0.029916206 -0.07583158 -0.1966653 0.088160776 -0.051619414 -0.033450197

transformer.layers.0.1.norm.gamma f4 [8]
00000000: edd5 2f3b a948 8fbc d5bf bdbc d88e 143e
00000010: 6f37 893d b20b 4e3d 91d5 04bd 9b4c 40bd
0.002683039 -0.017490702 -0.023162762 0.14507616 0.06700026 0.050304122 -0.032430235 -0.046948057

transformer.layers.1.0.static_alpha f4 [4, 5]
00000000: 8d03 063c 0000 803f 0000 0000 0000 0000
00000010: 0000 0000 a4ca 7fbb 0000 0000 0000 803f
00000020: 0000 0000 0000 0000 132a 773f 0000 0000
00000030: 0000 0000 0000 803f 0000 0000 8358 7d3c
00000040: 0000 0000 0000 0000 0000 0000 0000 803f
0.0081795575 1.0 0.0 0.0 0.0 -0.0039030695 0.0 1.0
0.0 0.0 0.96548575 0.0 0.0 1.0 0.0 0.015462997
0.0 0.0 0.0 1.0

transformer.layers.1.0.dynamic_alpha_fn f4 [8, 5]
00000000: 0204 4ebe 0000 0000 0000 0000 0000 0000
00000010: 0000 0000 5c26 133d 0000 0000 0000 0000
00000020: 0000 0000 0000 0000 216f 0c3d 0000 0000
00000030: 0000 0000 0000 0000 0000 0000 b441 5dbd
00000040: 0000 0000 0000 0000 0000 0000 0000 0000
00000050: dcd7 8d3d 0000 0000 0000 0000 0000 0000
00000060: 0000 0000 9120 9bbd 0000 0000 0000 0000
00000070: 0000 0000 0000 0000 64e5 bebd 0000 0000
00000080: 0000 0000 0000 0000 0000 0000 3595 9ebd
00000090: 0000 0000 0000 0000 0000 0000 0000 0000
-0.20118716 0.0 0.0 0.0 0.0 0.035925254 0.0 0.0
0.0 0.0 0.03428567 0.0 0.0 0.0 0.0 -0.054017738
0.0 0.0 0.0 0.0 0.069259375 0.0 0.0 0.0
0.0 -0.07574571 0.0 0.0 0.0 0.0 -0.093210965 0.0
0.0 0.0 0.0 -0.07743303 0.0 0.0 0.0 0.0

transformer.layers.1.0.static_beta f4 [4]
00000000: b607 823f 8ccf 653f 32ff 663f cbe8 873f
1.0158603 0.89769816 0.9023315 1.0617918

transformer.layers.1.0.dynamic_beta_fn f4 [8]
00000000: db2c b63e 155c be3d 64e5 1a3d 1e54 4f3f
00000010: 1323 ef3d 0520 b5be 0cd0 02bd b49d d03d
0.35581097 0.09294907 0.03781642 0.8098773 0.11676612 -0.3537599 -0.03193669 0.101863295

transformer.layers.1.0.branch.norm.weight f4 [8]
00000000: a50c 5b3f 1dad 6f3f a61c 7a3f e423 663f
00000010: 52ea 6d3f 4dda 733f 1732 713f a6c8 5a3f
0.8556617 0.93623525 0.97699964 0.89898515 0.9293567 0.95254976 0.94217056 0.85462415

transformer.layers.1.0.branch.norm.bias f4 [8]
00000000: 5ffa f03d 0c38 c9bd a9fa 263c ca39 fb3d
00000010: 2791 1abb 8cec 08bd aea0 02b9 fa45 5cbd
0.117665045 -0.09825143 0.010191598 0.12266882 -0.0023585053 -0.033428714 -0.00012457624 -0.053777672

transformer.layers.1.0.branch.to_qkv.weight f4 [192, 8]
00000000: ec00 5a3e fcc1 6abe abe4 6e3e d980 08bf
00000010: 2eaf b6bc 0df2 0a3e 52ef a5bc 833f c73e
00000020: 80dd 8e3d 64ce 9b3d ee64 d4be 0df3 c83e
00000030: fd48 9bbe c764 54bd a44e de3b 496a aabe
00000040: f0e6 adbc 6ab7 4dbe 0962 073e f167 273e
00000050: 15a7 8fbe 97c6 f53e 5737 c93d 1c7b 9d3e
00000060: f84f ba3d 8ab1 803e df09 533d b0cf c73d
00000070: 3b0c 21be 44f9 51be 8a33 73be e052 fdbd
00000080: 21c4 e6bd dfc7 8fbd fcf1 d8bd acbb 83be
00000090: 893d 553e 3654 14be 3c12 14be a779 a4be
000000a0: 8a50 553e 568b f0bd 9409 cfbd 517a 0dbf
000000b0: a0fe 453e 9222 9a3d f018 04be d9e7 133d
000000c0: 8996 7b3e e31f 9d3e 82d5 02be 22fa 093f
000000d0: de5b 65bd b3ca 0c3e 66b3 a6bd e5c8 6ebe
000000e0: ff82 2d3e 762e 3cbd 4da4 d8bd f60c b0bd
000000f0: d9d8 343e 53f4 023e c28e 8bbe 9d65 723e
00000100: 2318 84bb c618 7f3d c032 31be 3129 0c3f
00000110: cc25 b7be 284e 20bd 6794 02be 1a38 31be
00000120: 85bf 783d 0b0f 4cbe 265a 5d3e 14d1 bfbe
00000130: 3b56 bcbe ecb8 013f 6a4e 7d3e f1ad 94be
00000140: 1966 3fbe 7780 403e 10b9 8b3e 2c2b a8be
00000150: e42c 513e dc44 00be 6967 afbb dbd4 28bd
00000160: 5dc9 b13e c361 c43c 0621 a53e 12af 24bc
00000170: 4025 813e 7e09 c63b 5c38 85be 56c8 2dbd
00000180: efb7 7c3e f787 53bd 5f34 aabd d3ed d83c
00000190: 0b26 8bbe e1bc 3b3c 2239 9abe d502 a7bd
000001a0: 28cb 833e a6eb 98be 3ffc 2bbd 0497 763d
000001b0: 273c 05be 0016 e43d 060a bc3d 7589 043e
000001c0: d896 c1bc 4755 e93e 7261 7d3d ec82 5abe
000001d0: 9c5f d23e eb0f d0be 09cb d0be 3626 6abe
000001e0: 7176 63be 55d6 21be 648d b4bd 9974 4b3c
000001f0: 69ac 8bbe 4828 1ab9 0956 0fbe 6847 fd3d
00000200: 8fa1 00be 438b 6a3e 34cc 50be c2cb 083e
00000210: 797c bebe 03c1 8abe b1fc b1be 794b 153e
00000220: 06e5 56bd 8adc d23c 34f7 7f3e d4f1 89be
00000230: d530 c9bb 84b5 dbbe 7f3e 6f3e e272 b63d
00000240: f641 5dbe fb32 8d3e abe8 383e b067 f13d
00000250: 06bb e03e 2f46 90be 5a6c 8abe 2c30 b5bd
00000260: 1c8d 5fbe 7577 603d 706e 2a3e edcb f73e
00000270: f256 bc3d 92df 153e cd06 aabe 12b1 9cbe
00000280: 2921 61be 4e7b d1bd af51 8b3e 2098 6a3e
00000290: c1db 123e 8006 323e 2ab0 363d 58b4 f33d
000002a0: f5b4 47be cc12 bc3e 9e59 a73e 6659 7cbe
000002b0: 2a87 8fbe 823e 863e 88b4 b6be a6d2 0fbd
000002c0: 124c 2a3e 1339 23bc 81f9 143e c390 e5be
000002d0: 88df 84be 6330 b1be b754 a4bd ec19 96be
000002e0: 0db0 e93d 4fbb 613e 966d edbe 18a4 dc3e
000002f0: 8a05 afba 2c97 3d3d 3fac fdbd 7d58 7a3e
00000300: fd37 eb3d 566e 8a3e ed0c ccbd d55c f2be
00000310: 1f4f 1dbe f872 2fbe dc5b 153e 41dd 6e3e
00000320: c125 9d3e 2826 28be 5813 83be c109 f13e
00000330: 6688 8c3e 585b 5b3e d8d8 1bbe 1543 713e
00000340: 462c 23be 2c50 bcbd 6404 cc3c 0477 793a
00000350: db12 7d3e a5dd c3be 48bd a1be c21c b83e
00000360: f253 263e 0e1c d83c 3d9a d93e ad5c 86bd
00000370: 0fc3 db3d 1426 983c db21 2c3e dbd0 99be
00000380: 5c39 903e 8be0 86be feb9 06be 64c3 823c
00000390: c458 2dbe a8df d9be 7fe9 543d 7f4f 74be
000003a0: dc6c a5bd 94c2 07be f358 f8bc 2975 21be
000003b0: f3fd 0a3c 25fc 473e 811c 0e3e 8481 40be
000003c0: ae97 7bbd e17a 72bc ac81 7dbe 93ac 823d
000003d0: bdd1 2a3e 3cf6 7b3e 0583 fabd 7d99 70be
000003e0: f7c8 02be 6bd5 b0bd f9f2 393e 749d 53bd
000003f0: 9e7a a9be 2184 93bd 1861 f1bd 6b27 2f3d
0.21289414 -0.22925562 0.23329417 -0.53321606 -0.022300329 0.13568898 -0.020255718 0.38915643
0.069758415 0.07607725 -0.41483253 0.39247933 -0.30329123 -0.05185392 0.006784277 -0.33284214
-0.021228284 -0.20089498 0.13220991 0.16348244 -0.2805716 0.48003075 0.09825008 0.30757987
0.09097284 0.25135452 0.051523086 0.0975641 -0.15727322 -0.20505244 -0.2375013 -0.12369323
-0.11267877 -0.07020544 -0.1059303 -0.2572912 0.20824255 -0.14485249 -0.14460081 -0.32124063
0.20831504 -0.11745326 -0.10109249 -0.55264765 0.19335413 0.07526125 -0.12900138 0.03610978
0.24569143 0.3068839 -0.1277676 0.538973 -0.055995815 0.13749199 -0.08139686 -0.23318823
0.16944502 -0.045942746 -0.10578213 -0.08596222 0.17660846 0.12788515 -0.27257353 0.23671575
-0.0040311976 0.062279485 -0.17304516 0.54750353 -0.35771024 -0.039137036 -0.12751924 -0.17306557
0.060729522 -0.19927613 0.2161642 -0.374642 -0.3678454 0.50672793 0.24736944 -0.29038957
-0.18691291 0.18799005 0.2728963 -0.32845438 0.2042728 -0.12526268 -0.0053529036 -0.04121862
0.3472394 0.023972398 0.32251757 -0.010051506 0.25223732 0.006043612 -0.2601956 -0.042427383
0.2467954 -0.051643338 -0.0831077 0.02648059 -0.27177462 0.011458606 -0.30121714 -0.08154837
0.25740933 -0.29867285 -0.041988607 0.060202613 -0.13011228 0.11137009 0.09181599 0.1294306
-0.023631498 0.45572874 0.06186051 -0.21339005 0.4108857 -0.40637144 -0.40779904 -0.22866139
-0.2221315 -0.15804417 -0.088160306 0.012417936 -0.27279976 -0.0001470159 -0.13997664 0.12367135
-0.1256163 0.22904687 -0.20390397 0.13358977 -0.3720434 -0.2710038 -0.347631 0.14579572
-0.052464508 0.025739927 0.24996644 -0.26942313 -0.0061398544 -0.42911923 0.23363684 0.08908631
-0.21607193 0.27577958 0.18057506 0.11787355 0.43892688 -0.28178546 -0.2703579 -0.08847079
-0.21831173 0.054801423 0.16643691 0.4839777 0.09196271 0.14636067 -0.33208314 -0.30603844
-0.21985306 -0.10228597 0.27210757 0.22909594 0.14341642 0.17385292 0.044601597 0.11899632
-0.19502623 0.3673309 0.3268556 -0.24643478 -0.2803281 0.26219565 -0.3568461 -0.035113
0.16630581 -0.009962338 0.14548303 -0.44837007 -0.2595179 -0.3460723 -0.080239706 -0.29316652
0.11410532 0.22044109 -0.4637267 0.43093944 -0.0013353091 0.046286747 -0.12386369 0.24447818
0.11485288 0.27037305 -0.09963403 -0.4733645 -0.15362214 -0.17133701 0.14585823 0.23326589
0.30692866 -0.16420805 -0.25600696 0.47077754 0.27447814 0.21421564 -0.15219438 0.23560746
-0.15934858 -0.09194979 0.024904437 0.0009516331 0.24714224 -0.3825504 -0.31589723 0.3595944
0.1624296 0.026380565 0.42500487 -0.06560645 0.10730564 0.018572845 0.1680979 -0.30042157
0.28168762 -0.26343188 -0.13156888 0.01596231 -0.16928393 -0.4255345 0.05198049 -0.2385845
-0.08077404 -0.1325782 -0.030315852 -0.1576735 0.008483398 0.1952978 0.13878061 -0.18799406
-0.06142395 -0.014799804 -0.24756497 0.06380572 0.16681571 0.2460565 -0.12232021 -0.23496051
-0.12771975 -0.08634456 0.18159093 -0.05166383 -0.33101362 -0.07202936 -0.11786097 0.0427622

transformer.layers.1.0.branch.to_out.weight f4 [8, 64]
00000000: 9c52 51bd 1f00 febd 2779 8b3c 4589 0d3b
00000010: 00a1 22be facb 34bd 489e 1cbe 4049 96bd
00000020: 8f6c 433d 67dd dc3c e089 d93d e712 28be
00000030: 3f36 093d 93ab 34bb 1092 d83d 5cf7 0dbd
00000040: c008 c03d 712a c5bc 9bc9 493c f864 b33d
00000050: 9415 92bd a58a d0bd 8d89 0c3e e17b ffbd
00000060: cf33 93bd a4e1 e5bc 33a3 e63c 4af8 0ebe
00000070: e347 5a3c a650 3abd aff6 aebd 5fb5 af3d
00000080: e7a4 cc3c 1927 953d 4916 ccbd 12c2 92bd
00000090: 2b90 f2bd 40ce 55bd 1e89 b6bd 7e9a f13b
000000a0: 7784 10bd 1f38 d53c c39c 26be 3cc7 8b3d
000000b0: 1554 c83c f2ce b73c d784 afbd 6981 fd3d
000000c0: 63b1 543d 5fb6 9d3c 3705 d0bd 6b5a 583d
000000d0: 5c57 ebbc f075 13be 3c0b 2cbd 6ca5 8c3c
000000e0: 1461 b8bc 7ebe 72bd e15f e63d 7330 2d3e
000000f0: 1972 a0bd df79 7b3d 5527 ab3d 253b 8c3d
00000100: 5403 b93d fae4 22be 0e98 9e3c a985 98bd
00000110: 4144 003d 2c02 9fbd 5e72 d0bd 4c10 883d
00000120: acaf fdbc 7292 633d 2d04 f6bc 2447 14be
00000130: b805 c4bc 1c25 423d 6698 a0bd a419 8a3d
00000140: 8627 da3d 1a47 03be 159d e63c 5026 cfbd
00000150: 59a0 02bc 7a7c b8bd 8deb 80bd 627e 3e3c
00000160: 7935 1d3b 0ddc f4bc 19ea 2e3d fca7 cebd
00000170: f831 42bd f1bb 89bd 771c c63c 6b63 a63d
00000180: 46a7 263d 42f7 773d 63b9 4bbd 3a67 dfbc
00000190: 5ace cabd ef44 9d3d a6d6 b3bd 3330 6b3d
000001a0: 908e 61bd 638b 3abd 135b 9ebd ca63 3b3d
000001b0: d90d a03c 9302 183d 2754 efbd 1f50 9ebd
000001c0: f552 c03b 90b4 46bd 1ea1 6fbd be2d b1bd
000001d0: d86a a9bd 63f3 9dbd 17d1 443d d41a a83d
000001e0: 6f8e 20bd 3de7 d9bd 843b 4e3d 3d2c e33d
000001f0: 847d 40bc d844 0d3c b7b8 6e3d 7de4 3ebd
00000200: 09a6 0dbd 4a50 6bba 7da2 493d 3c70 b1bd
00000210: 00ff 253d 6800 b9bd c553 3bbd b592 833d
00000220: 3696 a03c efa6 b43d 27e5 373b 2617 cebc
00000230: b71d 8d3d b134 b73c 6fc3 f4bc c9b3 443c
00000240: d26b 743c c386 dc3b 1e6c bd3a 5695 9b3d
00000250: 597f 07be f9b2 cbbd 36e8 b23c d335 95bd
00000260: 311f b73c f4b2 153d 6d17 6d3d 88a3 d03d
00000270: cdf8 283d ca97 c13d 04ef 923c 80d9 44bd
00000280: cf13 ab3b 4e93 b5bc befc 823d 63e3 41bd
00000290: e995 32bc 5e3e 4e3c 730e a3bd 0899 d6bd
000002a0: ca24 3ebd 2638 993c 8c9b 703b 2549 b2bc
000002b0: 1592 adbd d14c 5c3d 98df 45bd 4d31 0a3e
000002c0: 591c e03d ddd9 403d 637c b0bd 852c 1dbd
000002d0: bc6e e0bd 5056 c43c a51a d93b 3ece c4bd
000002e0: 7f73 3f3d ff09 87bd a422 66bd 7587 f73d
000002f0: eb88 2f3d 8db5 0abd 9bae 8fbc 25c4 96bd
00000300: 5e1a 493d 0c72 f8bd 32bf d6bd 6a84 dfbd
00000310: a6e0 abbd 1c39 13be e3ba 13be 823c d3bd
00000320: 7b44 233e 24a0 a73d 0beb 2d3e 4b3d 59bd
00000330: a4e9 14bd 4563 053c 7497 5abd ab3b 8b3c
00000340: caf8 203d 75cd 39be 206b 1fbe ff6a f8bd
00000350: 3489 14be 18b0 11bd e6fe 91bd 092d 01be
00000360: 4dd8 59bd 6d0e 13bd 1de2 253e 8da5 f33c
00000370: 38a9 2abc f53c 21bd 12b7 03be 8e3d 313e
00000380: c1fb d53d 8f8f 943d db36 6dbd 0d9f 33bc
00000390: e260 bfbd c50e 8c3c 83e9 05be 066d bf3d
000003a0: a061 45bd 7ec2 5e3d ac5f febc ff4b e33d
000003b0: c357 753d 09af dd3d f22b c9bd eae1 4b3e
000003c0: 1691 4bbb 1d7f 443b 1ff6 3abd 7a35 e3bd
000003d0: 9fce e3bd 0490 12be c2fd 803d 3a1c 1d3e
000003e0: a8cd 03be 7f0d 4e3b 3192 2ebd 4170 353e
000003f0: bbf3 d4bd afae ca3d fe27 b63d 4dfc 65bc
-0.051104173 -0.12402367 0.017025543 0.0021596712 -0.15881729 -0.04413984 -0.15294755 -0.0733819
0.04771095 0.026961042 0.10622001 -0.1641346 0.033499 -0.0027568087 0.10574734 -0.03465973
0.09376669 -0.02406809 0.012316133 0.08759493 -0.07133022 -0.10182694 0.13724346 -0.124748
-0.07187616 -0.028061695 0.028153991 -0.13961902 0.013322803 -0.04548707 -0.08543145 0.08579516
0.024980975 0.07282848 -0.09965188 -0.07165922 -0.11843904 -0.05219865 -0.08912872 0.007373153
-0.03528258 0.026027737 -0.16270737 0.0682511 0.024454156 0.022437546 -0.08570259 0.12378199
0.05192698 0.019252 -0.10157245 0.052820604 -0.02872818 -0.14400458 -0.0420029 0.017168723
-0.022507228 -0.0592637 0.11248756 0.16913013 -0.078342624 0.061395522 0.08357111 0.068472184
0.09033838 -0.1590766 0.019359615 -0.07447369 0.031315092 -0.07764086 -0.10178064 0.066437334
-0.030967556 0.055559583 -0.030031288 -0.14480263 -0.023928508 0.04739867 -0.07841568 0.06743172
0.1065207 -0.12820092 0.028151074 -0.101147294 -0.0079728 -0.09008117 -0.06294928 0.011626812
0.002398817 -0.029890085 0.04270372 -0.10090634 -0.047410935 -0.067253 0.024183495 0.08124431
0.040686868 0.060538538 -0.049737345 -0.027270902 -0.0990264 0.07679164 -0.08781175 0.057419013
-0.0550676 -0.045543086 -0.07732215 0.045749463 0.019537853 0.03711183 -0.11685973 -0.07730126
0.0058692642 -0.04851204 -0.058503263 -0.08651303 -0.08272332 -0.07712438 0.048050966 0.08208242
-0.039198335 -0.10639808 0.050349727 0.11092422 -0.011748675 0.008622371 0.058281627 -0.046604622
-0.03458217 -0.00089765026 0.049227227 -0.08663985 0.04052639 -0.090332806 -0.045734186 0.064244665
0.019602876 0.088209026 0.002806017 -0.025157522 0.06890433 0.022363992 -0.029878346 0.012005755
0.0149182845 0.006729932 0.0014451777 0.07596843 -0.13232173 -0.09946246 0.021839242 -0.07285657
0.02235374 0.036547616 0.05788367 0.10187441 0.0412529 0.094527796 0.017936237 -0.048058987
0.005220867 -0.022164967 0.06395863 -0.047335993 -0.010899999 0.012588112 -0.0796174 -0.10478407
-0.046421804 0.018703531 0.0036713807 -0.021763394 -0.084751286 0.053784195 -0.04830894 0.1349537
0.10942907 0.04708277 -0.08617475 -0.038372535 -0.10958621 0.023966938 0.0066254907 -0.0960965
0.046741005 -0.065937035 -0.05618538 0.12086383 0.042855185 -0.033864547 -0.017539313 -0.0736163
0.04909741 -0.12131128 -0.10485686 -0.10913928 -0.08392458 -0.14377254 -0.1442676 -0.10314275
0.15944092 0.08184841 0.16984193 -0.05303697 -0.03635563 0.0081413435 -0.053367093 0.016996225
0.039299764 -0.18144782 -0.15568209 -0.12129783 -0.14505464 -0.035568327 -0.07128696 -0.12614836
-0.053184796 -0.03590243 0.16199537 0.029742027 -0.010416321 -0.039364774 -0.12862805 0.17308637
0.10448409 0.07253944 -0.057913642 -0.010963214 -0.09344651 0.017096886 -0.13077359 0.093469664
-0.048188806 0.0543847 -0.03105148 0.110984795 0.05989815 0.10824401 -0.09822835 0.19910398
-0.003106182 0.0029982992 -0.045644876 -0.11094184 -0.11123394 -0.1431275 0.062984005 0.15342799
-0.1287142 0.003144115 -0.042619888 0.17718603 -0.103980504 0.098965995 0.08894347 -0.014037204

transformer.layers.1.0.norm.gamma f4 [8]
00000000: cb04 633e b27b a73d 99c7 663d e47c 153f
00000010: e51a 253e 08cb 5d3e 3e76 bf3c 0fa3 6e3d
0.22169797 0.0817789 0.056342695 0.5839369 0.1612354 0.21659482 0.023371812 0.058260974

transformer.layers.1.1.static_alpha f4 [4, 5]
00000000: 8f35 373f 0000 803f 0000 0000 0000 0000
00000010: 0000 0000 5a3d 32be 0000 0000 0000 803f
00000020: 0000 0000 0000 0000 8ac5 2c3e 0000 0000
00000030: 0000 0000 0000 803f 0000 0000 2a2d 633d
00000040: 0000 0000 0000 0000 0000 0000 0000 803f
0.715661 1.0 0.0 0.0 0.0 -0.17406216 0.0 1.0
0.0 0.0 0.1687223 0.0 0.0 1.0 0.0 0.055462994
0.0 0.0 0.0 1.0

transformer.layers.1.1.dynamic_alpha_fn f4 [8, 5]
00000000: 05fe 26bb 0000 0000 0000 0000 0000 0000
00000010: 0000 0000 a33c 223d 0000 0000 0000 0000
00000020: 0000 0000 0000 0000 7a63 c23c 0000 0000
00000030: 0000 0000 0000 0000 0000 0000 1299 323c
00000040: 0000 0000 0000 0000 0000 0000 0000 0000
00000050: 2d40 803b 0000 0000 0000 0000 0000 0000
00000060: 0000 0000 6bf5 283d 0000 0000 0000 0000
00000070: 0000 0000 0000 0000 45a2 30bd 0000 0000
00000080: 0000 0000 0000 0000 0000 0000 a7ac cc3c
00000090: 0000 0000 0000 0000 0000 0000 0000 0000
-0.0025480997 0.0 0.0 0.0 0.0 0.03960861 0.0 0.0
0.0 0.0 0.023729075 0.0 0.0 0.0 0.0 0.010900753
0.0 0.0 0.0 0.0 0.0039139003 0.0 0.0 0.0
0.0 0.041249674 0.0 0.0 0.0 0.0 -0.043123502 0.0
0.0 0.0 0.0 0.02498467 0.0 0.0 0.0 0.0

transformer.layers.1.1.static_beta f4 [4]
00000000: e2da 863f 75d7 633f 8bff 6f3f 2246 843f
1.0535548 0.89000636 0.937493 1.0333903

transformer.layers.1.1.dynamic_beta_fn f4 [8]
00000000: 7b93 933e 721b 0d3e 0ba7 383e e36c c9bc
00000010: 5839 783e babc 8bbe 5a07 16be 8efd 6c3e
0.28823456 0.13780001 0.18032472 -0.024588054 0.24240625 -0.27292424 -0.14651242 0.23143598
