Projektarbeit_FTTransformer/trained_models/physical_loss_training/model_lr0.00025_8_1_4_4_.3_.3PhysicsLambda0.8_date_20250810_epoch10000.pt (torch, 99774 bytes, 87 tensors)

cls_token f4 [1, 1, 8]
0	0x3e9eb61c	0.30998313
1	0x3e9967d9	0.29962042
2	0x3ff01c0e	1.8758562
3	0x3ebe0827	0.37115595
4	0x3fc776fb	1.5583185
5	0x3f8aef2e	1.0854242
6	0xbee69fd3	-0.4504381
7	0x3f1644fd	0.5869902

categorical_embeds.weight f4 [3, 8]
0	0xbf33d828	-0.70251703
1	0xbf0c25e1	-0.547453
2	0x3f546d31	0.8297911
3	0xbeac4f63	-0.33654317
4	0xbf8cae22	-1.0990641
5	0xbfc96d9b	-1.5736574
6	0xbf513c24	-0.8173239
7	0xbf1bb96e	-0.6082982
8	0x3fe3f81b	1.7810091
9	0xbe8879d9	-0.26655462
10	0x3ecce3c7	0.4001753
11	0xbf7a23ae	-0.9771069
12	0xbfc64fa8	-1.5493059
13	0x3edadb67	0.42745516
14	0x3ea60289	0.3242381
15	0xbfe84258	-1.8145247
16	0x3f9eb106	1.2397773
17	0x3e55fadc	0.20896477
18	0xbfacccfe	-1.3500059
19	0x3f2fa638	0.68613005
20	0xbf946533	-1.1593384
21	0xbee7f59c	-0.45304573
22	0x3f5ebc3f	0.8700599
23	0x3f857126	1.0425155

numerical_embedder.weights f4 [8, 8]
0	0x3eef946a	0.46792918
1	0x3ec332a1	0.38124564
2	0xbf7b6bf3	-0.9821159
3	0xbf968932	-1.1760619
4	0x4029223d	2.6427147
5	0xbf3cd665	-0.7376464
6	0xbd3f0b19	-0.046641443
7	0xbed5851d	-0.4170312
8	0xbf9dd483	-1.2330478
9	0x3f2ffb9b	0.68743294
10	0xbc0ff604	-0.008786682
11	0x3ec16b1d	0.37777033
12	0xbf2490bd	-0.64283353
13	0xbcb015e5	-0.021494815
14	0x3fe0f81f	1.757572
15	0xbfa8d160	-1.3188896
16	0x3fa839fe	1.3142698
17	0xbf99cd05	-1.2015692
18	0xbff5562c	-1.9166923
19	0x3fa39646	1.2780235
20	0x3edcb5ca	0.43107444
21	0xbf3cf265	-0.73807365
22	0x40149530	2.3216057
23	0x3f06ffe9	0.5273424
24	0x3f45c626	0.77255476
25	0xbf8546ad	-1.0412194
26	0xbff36de9	-1.9017917
27	0x3ef6bd33	0.48191223
28	0xbfe4b1e7	-1.7866791
29	0xbf052026	-0.5200218
30	0x3f94e2a9	1.1631671
31	0x3f825558	1.0182295
32	0xbfdc6b7d	-1.7220303
33	0xbebf1394	-0.37319624
34	0xbdd0c56d	-0.10193906
35	0xbea06be2	-0.31332308
36	0x3fa329f7	1.2747182
37	0x3d809b01	0.06279565
38	0x3f44d565	0.76888114
39	0xbfc33735	-1.5251223
40	0x3fbd33d3	1.478144
41	0x3dba5611	0.09098447
42	0x3f86c81c	1.0529819
43	0xbf1f0d42	-0.62129605
44	0x40028868	2.0395756
45	0x40060dd0	2.094593
46	0x3fa40f0a	1.281709
47	0x3fc8b3f8	1.5679922
48	0xbdd0a2f8	-0.10187334
49	0xbe400d17	-0.18754993
50	0xbf7e7710	-0.99400425
51	0xbdd239fe	-0.102649674
52	0x3f38c651	0.72177607
53	0x3f9bf76c	1.2184882
54	0x3ef18fee	0.47180122
55	0x3f0d34bc	0.5515859
56	0xc006e601	-2.1077883
57	0x3f926d7a	1.143966
58	0x3ffc89a4	1.9729505
59	0x3e34d8f3	0.17660885
60	0xbdcfc6ec	-0.10145363
61	0x40037baf	2.054424
62	0x3f487c1a	0.78314364
63	0x3f7fdf5a	0.9995018

numerical_embedder.biases f4 [8, 8]
0	0x3eacc087	0.33740637
1	0x3f92983d	1.145271
2	0x3d10158d	0.035176802
3	0xbe951ca0	-0.29123402
4	0x3f472dda	0.7780434
5	0xbc3c93f8	-0.011509888
6	0x3ee5e7c4	0.44903386
7	0xbfbb529c	-1.4634585
8	0xbee40575	-0.44535413
9	0x3fe1b673	1.7633804
10	0xbf4f4022	-0.80957234
11	0xbf24b9f4	-0.6434624
12	0xbebca8dc	-0.3684758
13	0x3f9c2927	1.2200059
14	0xbf92b8cd	-1.1462647
15	0xbf1a929d	-0.60379964
16	0xbf3e14a4	-0.74250245
17	0x3df9a6bd	0.12190006
18	0xbe75bd9b	-0.2399811
19	0xbf59c836	-0.8507112
20	0xbfee4f59	-1.8617965
21	0x3f731f56	0.9496969
22	0xbf8035df	-1.001644
23	0x3fbfc438	1.4981756
24	0x3e7b424c	0.24537009
25	0xbeca052d	-0.39457074
26	0xbfeca54a	-1.8487942
27	0x3efbb3ee	0.49160713
28	0xbe20cea1	-0.15703823
29	0xc002227a	-2.0333543
30	0x3f63e3c7	0.89019436
31	0xbfa238e1	-1.2673608
32	0xbf3fb021	-0.74878126
33	0xbe092c78	-0.1339587
34	0x3f0976bd	0.53696805
35	0xbe82de5d	-0.25560275
36	0xbf0fef5b	-0.562246
37	0xbff2cea4	-1.8969312
38	0x3fb5ea01	1.4212037
39	0x3ef82a24	0.4846965
40	0xbec7d3df	-0.39028832
41	0xbe07694c	-0.13223761
42	0x3f955008	1.1665049
43	0x3fcab11b	1.5835298
44	0xbeccda43	-0.4001027
45	0xbdd1d1bc	-0.10245082
46	0xbf704093	-0.9384853
47	0x3e5ca971	0.21549012
48	0x3ea19625	0.31559864
49	0xbff940d9	-1.9472915
50	0xbe19bca0	-0.15013361
51	0x3e958b4d	0.2920784
52	0x3f26ac4b	0.6510665
53	0xbf31a9c0	-0.6939964
54	0x3f8fe6ca	1.1242306
55	0x3f995d30	1.1981564
56	0xbee48437	-0.44632122
57	0x3f69c398	0.9131408
58	0xbdd939f7	-0.10606759
59	0x3c52650c	0.012841474
60	0xbf188dbf	-0.5959129
61	0x3fe410cf	1.781763
62	0x3f4f41c7	0.80959743
63	0xbd02063e	-0.031744234

transformer.layers.0.0.static_alpha f4 [4, 5]
0	0x3e2a91eb	0.16657226
1	0x3f800000	1.0
2	0x00000000	0.0
3	0x00000000	0.0
4	0x00000000	0.0
5	0x3f9550d6	1.1665294
6	0x00000000	0.0
7	0x3f800000	1.0
8	0x00000000	0.0
9	0x00000000	0.0
10	0x3e2a91eb	0.16657226
11	0x00000000	0.0
12	0x00000000	0.0
13	0x3f800000	1.0
14	0x00000000	0.0
15	0x3e2a91eb	0.16657226
16	0x00000000	0.0
17	0x00000000	0.0
18	0x00000000	0.0
19	0x3f800000	1.0

transformer.layers.0.0.dynamic_alpha_fn f4 [8, 5]
0	0x3d182c0e	0.03715139
1	0x00000000	0.0
2	0x00000000	0.0
3	0x00000000	0.0
4	0x00000000	0.0
5	0x3db670a4	0.08908203
6	0x00000000	0.0
7	0x00000000	0.0
8	0x00000000	0.0
9	0x00000000	0.0
10	0x3e3ddd2e	0.18541405
11	0x00000000	0.0
12	0x00000000	0.0
13	0x00000000	0.0
14	0x00000000	0.0
15	0x3e3e82d9	0.18604602
16	0x00000000	0.0
17	0x00000000	0.0
18	0x00000000	0.0
19	0x00000000	0.0
20	0x3e158d6f	0.14604734
21	0x00000000	0.0
22	0x00000000	0.0
23	0x00000000	0.0
24	0x00000000	0.0
25	0x3e26eabd	0.16300483
26	0x00000000	0.0
27	0x00000000	0.0
28	0x00000000	0.0
29	0x00000000	0.0
30	0xbe21aa03	-0.1578751
31	0x00000000	0.0
32	0x00000000	0.0
33	0x00000000	0.0
34	0x00000000	0.0
35	0x3e046f9e	0.12933204
36	0x00000000	0.0
37	0x00000000	0.0
38	0x00000000	0.0
39	0x00000000	0.0

transformer.layers.0.0.static_beta f4 [4]
0	0x3f88187d	1.0632473
1	0x3f852b47	1.0403832
2	0x3f89f82e	1.0778863
3	0x3f6ec83a	0.9327427

transformer.layers.0.0.dynamic_beta_fn f4 [8]
0	0xbe002b1b	-0.12516443
1	0xbe54df77	-0.2078837
2	0xbe2d22e6	-0.16907844
3	0xbe501a68	-0.20322573
4	0xbe302af3	-0.17203884
5	0xbe1e39a8	-0.15451682
6	0x3deed4d3	0.11661687
7	0xbe0e3199	-0.13886108

transformer.layers.0.0.branch.norm.weight f4 [8]
0	0x3f7a500e	0.97778404
1	0x3f6578ed	0.89637643
2	0x3f7f28ae	0.9967145
3	0x3f9f7431	1.2457334
4	0x3f81ea86	1.0149696
5	0x3f818e3f	1.0121535
6	0x3f744a10	0.9542551
7	0x3f69ef5d	0.91380864

transformer.layers.0.0.branch.norm.bias f4 [8]
0	0xbda80fde	-0.082061514
1	0xbe3ee196	-0.18640742
2	0x3d9d7be4	0.07689646
3	0xbe08a11f	-0.13342713
4	0x3da36177	0.07977574
5	0x3e71d30b	0.23615663
6	0x3c6b9aef	0.014380201
7	0x3b987046	0.004652056

transformer.layers.0.0.branch.to_qkv.weight f4 [192, 8]
0	0xbe9de854	-0.30841315
1	0xbedbd64d	-0.42936936
2	0x3eb099d3	0.3449236
3	0xbe4b5a36	-0.19858631
4	0x3ec067bd	0.37579146
5	0x3e950632	0.2910629
6	0xbd427752	-0.047477074
7	0xbd81ac6c	-0.06331715
8	0xbd3f7af3	-0.046748113
9	0x3cda9cd9	0.026686119
10	0x3da4d752	0.080488816
11	0xbe253b29	-0.16135849
12	0x3da1c815	0.07899491
13	0x3e55c0c3	0.20874314
14	0x3e3ada10	0.18247247
15	0x3ef737c7	0.48284742
16	0xbe8449be	-0.2583751
17	0x3ed0bafc	0.40767658
18	0xbec2d1a9	-0.38050583
19	0x3e846790	0.25860262
20	0xbe4f5563	-0.20247416
21	0x3e677d2a	0.2260634
22	0x3d14c716	0.036322676
23	0xbecb9486	-0.39761752
24	0xbee9dc4f	-0.45675895
25	0x3af143d0	0.001840705
26	0x3ec84880	0.39117813
27	0xbeb17dc4	-0.34666264
28	0x3dbaa987	0.09114366
29	0x3e6d8298	0.23194349
30	0xbe737449	-0.23774828
31	0xbdec08c0	-0.115251064
32	0xbe6c72ce	-0.2309067
33	0x3eeb657b	0.4597586
34	0xbecc3f8e	-0.39892238
35	0xbe09be7e	-0.13451573
36	0xbe996d3b	-0.2996615
37	0x3da45ef7	0.080259256
38	0x3da86937	0.08223193
39	0xbe264701	-0.16238023
40	0x3ece2774	0.40264475
41	0x3ec32421	0.38113502
42	0xbe596993	-0.2123168
43	0x3ed62385	0.41823974
44	0x3e467f91	0.193846
45	0xbef51532	-0.47867733
46	0x3da1ab94	0.07894054
47	0x3ec170fb	0.3778151
48	0x3ea3bd36	0.31980294
49	0x3e834d00	0.25644684
50	0xbe60af2e	-0.21941826
51	0xbdc67bce	-0.096915826
52	0xbe327dbe	-0.1743078
53	0xbee9e6d4	-0.4568392
54	0x3d8310cb	0.063996874
55	0x3dc5559f	0.096354716
56	0x3dac5a16	0.0841562
57	0xbebf4e66	-0.373645
58	0x3f0d34f2	0.55158913
59	0xbc1ae963	-0.009455058
60	0x3db09c56	0.08623569
61	0x3ef97fc2	0.48730284
62	0xbef9331e	-0.48671812
63	0x3e4423b2	0.19154242
64	0xbe8dab5f	-0.27669808
65	0x3e8e05b8	0.27738738
66	0x3e22c6e2	0.1589618
67	0xbdb7a0cd	-0.08966217
68	0x3c05ecdd	0.008174148
69	0xbba066de	-0.004895075
70	0xbe756a0f	-0.2396624
71	0xbe38244e	-0.17982599
72	0x3e136c00	0.14396667
73	0x3e686673	0.22695331
74	0xbecb4d94	-0.39707625
75	0x3db17359	0.08664579
76	0xbeb3cf86	-0.35119265
77	0xbdf6ed60	-0.120569944
78	0x3e46de99	0.19420852
79	0xbeab555a	-0.33463556
80	0xbf03dd9d	-0.5151003
81	0x3de402fc	0.11133382
82	0x3f02a3cd	0.5103119
83	0x3e13eab2	0.14444998
84	0x3ec492fa	0.38393384
85	0x3f0d4dcc	0.55196834
86	0xbed3c95b	-0.4136456
87	0x3e072d44	0.13200861
88	0xbea3e50d	-0.3201069
89	0xbeb2e8cf	-0.34943244
90	0x3f134790	0.5753107
91	0xbf156abe	-0.58366
92	0x3efbf20a	0.492081
93	0x3f1328ab	0.5748393
94	0xbf0da012	-0.5532237
95	0xbc8704d2	-0.01648179
96	0xbed32746	-0.412409
97	0xbeac4efc	-0.3365401
98	0x3ed4d93a	0.4157198
99	0x3d6fdeda	0.058562137
100	0x3eab27f0	0.33428907
101	0x3e84a7b2	0.2590919
102	0x3b2c3a96	0.0026280037
103	0x3e2ecb5e	0.17069766
104	0xbe758242	-0.2397547
105	0x3eb66717	0.35625526
106	0xbd9e505c	-0.07730171
107	0x3ee49a0b	0.44648775
108	0xbd99a64e	-0.07502423
109	0xbee72da4	-0.4515201
110	0x3bd240be	0.0064164093
111	0x3d5cb4db	0.053883415
112	0xbe050d59	-0.12993373
113	0x3eb45ac6	0.35225505
114	0xbe6f1f45	-0.23351772
115	0x3e84f576	0.25968522
116	0x3d1df647	0.038564947
117	0x3e96d022	0.29455668
118	0x3e3bdf10	0.1834681
119	0xbed3a4e9	-0.41336754
120	0x3e890574	0.26761973
121	0xbe5b86cd	-0.21438141
122	0xbd987f8b	-0.07446202
123	0x3d54e66c	0.05197756
124	0x3ec5d17c	0.38636386
125	0x3ed36306	0.41286486
126	0xbebdc4c5	-0.37064186
127	0xbbea1cb7	-0.0071445364
128	0x3e9d9b98	0.3078277
129	0x3e9b246a	0.3030122
130	0x3e65dfbf	0.22448634
131	0x3e533563	0.20625834
132	0xbcbcadd2	-0.023032103
133	0xbdbb52e6	-0.09146671
134	0x3dc8a6e8	0.0979746
135	0xba491790	-0.00076710526
136	0xbd1d7e4d	-0.038450528
137	0x3dd1dab6	0.10246794
138	0x3d4d574b	0.050132077
139	0x3e80758d	0.25089684
140	0x3e18a30e	0.1490595
141	0xbcaffca6	-0.021482777
142	0x3e958519	0.29203108
143	0x3e2110ac	0.15729016
144	0xbd50cfe0	-0.050979495
145	0x3d653af6	0.055964433
146	0xbe55a608	-0.20864117
147	0xbde24c57	-0.11049717
148	0x3d5b5396	0.05354651
149	0xbe9bf263	-0.30458364
150	0x3c4ee680	0.012628198
151	0x3e5a6c9c	0.21330494
152	0x3e4c3a8f	0.19944213
153	0x3d845625	0.06461743
154	0xbe6e0f16	-0.23247942
155	0x3e804fc9	0.2506087
156	0x3e0ebbd8	0.13938844
157	0x3df5ffa6	0.12011652
158	0xbe948887	-0.29010412
159	0x3e762444	0.24037272
160	0x3e4ebf78	0.20190227
161	0x3ec9b3ea	0.39395076
162	0xbe82e81f	-0.2556772
163	0x3f018d10	0.5060587
164	0xbe6b4f43	-0.22979455
165	0xbe95c63a	-0.29252797
166	0x3e373529	0.17891373
167	0xbdb9096d	-0.09035001
168	0x3eaf92fd	0.3429183
169	0xbeab67e8	-0.33477712
170	0x3d8ffbc2	0.07030441
171	0xbea6781c	-0.3251351
172	0xbe88b192	-0.26697975
173	0xbd9fdde4	-0.07805994
174	0x3e9e1785	0.3087732
175	0xbe8bca7c	-0.2730292
176	0x3e0278f4	0.12741452
177	0x3e9cecbf	0.30649373
178	0xbe8a21d2	-0.26978928
179	0x3ea39a09	0.31953457
180	0xbe90f7ef	-0.28314158
181	0x3e9b62e1	0.30348876
182	0xbdccee53	-0.10006394
183	0xbe2de62b	-0.16982333
184	0x3eaa247f	0.3323097
185	0xbe54a3a4	-0.20765549
186	0xbea61058	-0.32434344
187	0xbe80642f	-0.25076434
188	0x3d56649e	0.05234205
189	0xbdcd0723	-0.10011127
190	0xbcc9c0a9	-0.024628
191	0x3ea7435d	0.32668582
192	0xbeaa1b2b	-0.33223853
193	0x3d8d51ea	0.069003895
194	0xbe84ff63	-0.25976095
195	0xbcc6559e	-0.024210747
196	0x3d4d4145	0.050111074
197	0x3e14894e	0.14505503
198	0x3e5a6e44	0.21331125
199	0xbe6ebf38	-0.23315132
200	0xbe8eb29b	-0.2787064
201	0xbeeeb8f8	-0.46625495
202	0x3efc9c4b	0.49337992
203	0x3de6ce16	0.112697765
204	0xbbafe81d	-0.005368246
205	0xbe61174d	-0.21981545
206	0xbeb48520	-0.35257816
207	0xbeb3c243	-0.35109147
208	0xbd454a7e	-0.048166744
209	0xbe085193	-0.13312368
210	0x3d44fbbe	0.048091643
211	0xbec9e945	-0.39435783
212	0x3f0bae02	0.5456239
213	0xbdef339a	-0.11679764
214	0xbe3f3a60	-0.18674612
215	0xbf14c2cd	-0.5810974
216	0x3e41583b	0.18881314
217	0x3ebb4621	0.36576942
218	0xbe6fcf96	-0.23419032
219	0x3d9b98e1	0.07597519
220	0xbd0c8b56	-0.03431257
221	0x3e7760ec	0.24158067
222	0xbe86eb3c	-0.26351345
223	0xbe9ebd2b	-0.310037
224	0xbe2c2b96	-0.16813502
225	0x3a863afb	0.0010240966
226	0xbe1d02d5	-0.15333112
227	0xbea2c0c7	-0.31787702
228	0xbe107ee4	-0.14110905
229	0xbec8d67c	-0.3922614
230	0xbe7d8c1d	-0.2476048
231	0xbe1350ac	-0.14386243
232	0xbe0d0d40	-0.13774586
233	0xbe65f1fe	-0.22455594
234	0xbe12e5c4	-0.14345461
235	0x3ea43665	0.3207275
236	0x3e6feb0d	0.23429509
237	0x3ec9b881	0.39398578
238	0x3da8ce02	0.08242418
239	0xbe8080f7	-0.25098392
240	0xbd6c6fc7	-0.057723787
241	0x3ebc3b75	0.36764112
242	0x3e6dd707	0.23226558
243	0x3d2057b9	0.03914616
244	0x3eaaaae4	0.33333504
245	0xbeb1864a	-0.34672767
246	0x3e4b2560	0.19838476
247	0x3da4f470	0.08054435
248	0x3dc1ad3f	0.09456872
249	0x3d9c2cc7	0.07625728
250	0xbe910722	-0.28325754
251	0x3e27b3f9	0.16377248
252	0x3dc686da	0.0969369
253	0xbe806a56	-0.25081128
254	0xbe7a5327	-0.24445783
255	0x3e730fd3	0.23736505

transformer.layers.0.0.branch.to_out.weight f4 [8, 64]
0	0x3c93d14c	0.018044136
1	0x3dff7fe1	0.12475563
2	0xbc2dbc19	-0.010603928
3	0xbcd91fd4	-0.026504435
4	0xbd81c1e4	-0.0633581
5	0x3d91ea67	0.07124787
6	0xbd0d7df2	-0.03454394
7	0xbc9eeaff	-0.019399164
8	0xbe257028	-0.16156065
9	0x3cf93826	0.030422281
10	0xbda848f8	-0.08217043
11	0x3d8c2abd	0.06844089
12	0xba97f327	-0.0011592851
13	0x3db5a2f7	0.08868974
14	0xbc1cd6ec	-0.009572726
15	0x3dc5a393	0.0965034
16	0x3b89b29e	0.004202201
17	0x3cd0bf7c	0.025481932
18	0x3dd0d15d	0.10196183
19	0xbda407f2	-0.08009328
20	0x3bd7ef30	0.0065897927
21	0xbdb2be05	-0.087276496
22	0xbe118adf	-0.14213131
23	0xbc93fb5a	-0.01806419
24	0x3dc4070c	0.095716566
25	0x3c2698c6	0.01016826
26	0x3d2b3e14	0.04180725
27	0x3cf0dfb0	0.029403538
28	0x3dd2a915	0.10286156
29	0xbd8b11fd	-0.0679054
30	0xbcb993a7	-0.022653414
31	0xbda94a0a	-0.08266075
32	0xbde72407	-0.112861685
33	0x3ae11143	0.0017171282
34	0xbd68f7d6	-0.05687698
35	0xbcaa6672	-0.020800803
36	0x3d838a54	0.06422868
37	0x3dfdfa6c	0.1240128
38	0xbc434a49	-0.011919566
39	0x3e0b6eff	0.1361656
40	0xbbd47ee1	-0.0064848517
41	0xbd0f62fa	-0.0350065
42	0xbcb86142	-0.022507314
43	0x3d98fde3	0.074703
44	0x3dbf3940	0.093370914
45	0x3cf53571	0.02993271
46	0xbd41d03f	-0.04731774
47	0x3db4a42e	0.08820377
48	0xbd3f8dfe	-0.046766274
49	0xbd1f4ccd	-0.038891602
50	0xbda5bd38	-0.08092731
51	0x3d9a43d2	0.07532467
52	0x3e13a4cc	0.14418334
53	0xbd282c24	-0.04105772
54	0xbd6c424f	-0.057680424
55	0x3d1c45c4	0.03815247
56	0x3c7034cc	0.014661025
57	0xbcbee1ab	-0.023300966
58	0xbc5f57cc	-0.013631772
59	0xbb1abb8a	-0.0023610317
60	0x3c90be61	0.017668905
61	0x3d08f693	0.033438276
62	0xbdd5603c	-0.10418746
63	0xbdb095b6	-0.08622305
64	0x3de21c8b	0.110406004
65	0xbda13784	-0.07871917
66	0x3b95cae9	0.004571308
67	0xbd9d2a96	-0.07674138
68	0xbe852e21	-0.26011756
69	0xbd5545ed	-0.05206864
70	0x3ddb0b3d	0.10695503
71	0xbcac9879	-0.021068798
72	0x3e20234e	0.15638468
73	0x3d858685	0.06519798
74	0xbd79c38b	-0.0609775
75	0x3a5dad37	0.0008456292
76	0xbdb6bf38	-0.08923191
77	0x3d007d89	0.03136972
78	0x3d14a476	0.036289655
79	0xbd942d12	-0.07235159
80	0x3c86a3c9	0.01643552
81	0xbd8c1cca	-0.068414286
82	0xbd849e18	-0.064754665
83	0xbd2616d0	-0.0405491
84	0x3de96461	0.11396099
85	0x3cbba9c5	0.0229081
86	0x3c018995	0.007906337
87	0xbd899272	-0.06717385
88	0xbd8a485d	-0.067520835
89	0xbe045322	-0.12922338
90	0x3d85a149	0.06524903
91	0x3e35b9d6	0.17746672
92	0xbdb2885e	-0.08717416
93	0x3d3241d8	0.043519825
94	0xbdf20ba0	-0.118186235
95	0xbd4426ab	-0.04788844
96	0xbd2e466c	-0.04254763
97	0x3e965007	0.2935793
98	0xbe06e835	-0.13174517
99	0xbc390784	-0.011293296
100	0x3d8c6bce	0.068564996
101	0x3e2dc82f	0.16970895
102	0x3d12c72a	0.03583447
103	0xbe201468	-0.15632784
104	0xbe915d28	-0.28391385
105	0x3e428cbf	0.18999003
106	0x3de4d563	0.11173513
107	0xbe45ffa5	-0.19335802
108	0xbe25859d	-0.1616425
109	0xbc639e0f	-0.013892665
110	0x3d727150	0.059190094
111	0xbe667630	-0.22506022
112	0xba805e45	-0.000979372
113	0xbd4252f9	-0.04744241
114	0x3d330d69	0.04371396
115	0xbd13b4c4	-0.036061063
116	0xbc52f7db	-0.012876476
117	0xbc1f8a7f	-0.00973761
118	0x3c9e9034	0.01935587
119	0x3cec189b	0.028820327
120	0x3c409854	0.011755068
121	0xbd899167	-0.067171864
122	0x3dccf89d	0.10008357
123	0xbcbfbfae	-0.02340683
124	0x3ca65ee5	0.020308921
125	0x3d377245	0.04478671
126	0x3de53a21	0.11192728
127	0xbc7549e3	-0.014971229
128	0xbe1e0178	-0.15430248
129	0xbdcef9fd	-0.10106275
130	0x3dcc2d28	0.0996955
131	0xbd3992f6	-0.04530617
132	0xbbbad4de	-0.0057016453
133	0xbde93640	-0.113873005
134	0xbd8beb71	-0.06832016
135	0xbd9de916	-0.07710473
136	0x3d89cadd	0.06728146
137	0xbdbb6fca	-0.091521814
138	0x3d29e1a3	0.04147495
139	0x3d772489	0.060337577
140	0xbe12bb6d	-0.1432931
141	0xbd85c1ab	-0.0653108
142	0xbd034222	-0.03204549
143	0xba9a8f97	-0.0011792061
144	0x3cc0368d	0.023463512
145	0xbdb8ff83	-0.0903311
146	0xbda46fea	-0.080291584
147	0x3c6b92d0	0.014378265
148	0x3e454389	0.19264044
149	0xbdb4042e	-0.0878986
150	0x3e249e85	0.16076095
151	0xbe4398c4	-0.19101244
152	0xbe176586	-0.14784822
153	0x3dda7b35	0.10668031
154	0x3dc4c8b2	0.09608592
155	0xbd2ef23a	-0.042711474
156	0xbe48bace	-0.1960251
157	0xbd8c96cd	-0.068647005
158	0xbe128804	-0.14309698
159	0x3e0e2e4d	0.1388485
160	0x3e343481	0.17598154
161	0x3dbe4bef	0.09291827
162	0x3db1512a	0.08658059
163	0xbdce8a1a	-0.100849345
164	0xbc599fe7	-0.013282753
165	0x3d0ed8f0	0.034874856
166	0x3dd81e9a	0.10552712
167	0xbe1d92e6	-0.15388069
168	0x3c6ac2d3	0.014328676
169	0x3d5a697a	0.053323247
170	0xbe01a51d	-0.12660642
171	0xbd11dae8	-0.035609156
172	0xbdfc1aac	-0.12309775
173	0x3e1c17b2	0.15243414
174	0xbccd62a0	-0.025071442
175	0xbd4538b9	-0.048149798
176	0x3e1c4677	0.15261255
177	0x3d88dbcf	0.0668255
178	0xbd7b3c32	-0.061336704
179	0x3d093ddd	0.033506263
180	0xbe02b9c3	-0.12766175
181	0x3d9b6cfa	0.07589145
182	0x3ce0d9d8	0.027447626
183	0xbd8c6ad7	-0.068563156
184	0xbe5b9077	-0.21441828
185	0xbdcd8968	-0.10035974
186	0x3d8ad51c	0.06778929
187	0xbcd83c6a	-0.026395995
188	0xbe21083e	-0.157258
189	0xbd8c8c4f	-0.06862699
190	0x3d2f0536	0.04272958
191	0x3e64a7d9	0.22329654
192	0x3d2f1b23	0.04275049
193	0x3e053b44	0.1301089
194	0xbe188bcf	-0.14897083
195	0xbd3e1509	-0.04640678
196	0xbeac3f6e	-0.33642143
197	0x3cc600d8	0.024170324
198	0x3dd6b46c	0.104836315
199	0xbdc5964a	-0.09647806
200	0xbd9ba185	-0.07599167
201	0x3d1f0801	0.038825992
202	0xbd8f403c	-0.069946736
203	0xbcc7606c	-0.02433797
204	0xbd2432b8	-0.04008743
205	0x3d3b2361	0.045688037
206	0x3e2447fa	0.16043082
207	0x3cab6352	0.020921383
208	0xbdf6510a	-0.12027176
209	0x3e27a1d2	0.16370323
210	0xbc791073	-0.015201676
211	0x3b2af540	0.0026086122
212	0xbd320959	-0.043465946
213	0x3d976484	0.07392219
214	0x3be8884e	0.007096327
215	0x3e0ffb8c	0.14060801
216	0x3b993df5	0.0046765753
217	0x3cb0d758	0.021587059
218	0xbe07523c	-0.13214964
219	0x3da8e2e7	0.08246403
220	0x3e4c2dde	0.19939372
221	0xbd47d65e	-0.04878842
222	0x3c9bee18	0.01903443
223	0xbd670fc0	-0.056411505
224	0xbdf06fd4	-0.117400795
225	0x3e8002aa	0.25002033
226	0xbe7eb6e7	-0.24874459
227	0x3d172e66	0.036909483
228	0x3dc6d2b2	0.09708156
229	0x3ea1a444	0.31570637
230	0xbe410973	-0.18851261
231	0xbcedb555	-0.02901713
232	0xbd6eb6d1	-0.058279816
233	0x3e03404b	0.12817495
234	0x3dcae066	0.09906082
235	0xbcef9530	-0.029245943
236	0x3dfd3a73	0.12364664
237	0xbdb7f73f	-0.08982705
238	0x3bd532d6	0.0065063043
239	0xbde16ae1	-0.11006714
240	0xbdc61847	-0.09672599
241	0x3b3b8ae6	0.0028616725
242	0x3d4c36aa	0.04985682
243	0x3d4b55ca	0.04964236
244	0x3db0e5dc	0.08637592
245	0x3c929e62	0.017897788
246	0xbd801cf2	-0.06255521
247	0x3d1bf4ab	0.03807513
248	0x3cd37a8d	0.025815273
249	0x3cca37cc	0.02468481
250	0x3ac4d6b1	0.0015017596
251	0xbde52fcb	-0.111907564
252	0x3dec4a29	0.115375824
253	0x3d8b1a24	0.06792095
254	0xbd83a62d	-0.0642818
255	0xbdf4fa6c	-0.11961827

transformer.layers.0.0.norm.gamma f4 [8]
0	0x3dd17208	0.10226828
1	0x3e3eba35	0.1862572
2	0x3e2c0e42	0.16802314
3	0x3e3674d3	0.17818002
4	0x3e2e39ed	0.17014284
5	0x3e11ee32	0.1425102
6	0x3dbe6d0d	0.092981435
7	0x3dff2a1d	0.12459204

transformer.layers.0.1.static_alpha f4 [4, 5]
0	0xbdd38866	-0.1032875
1	0x3f800000	1.0
2	0x00000000	0.0
3	0x00000000	0.0
4	0x00000000	0.0
5	0x3f599467	0.8499207
6	0x00000000	0.0
7	0x3f800000	1.0
8	0x00000000	0.0
9	0x00000000	0.0
10	0xbe652ac5	-0.22379597
11	0x00000000	0.0
12	0x00000000	0.0
13	0x3f800000	1.0
14	0x00000000	0.0
15	0x3e1d714d	0.15375252
16	0x00000000	0.0
17	0x00000000	0.0
18	0x00000000	0.0
19	0x3f800000	1.0

transformer.layers.0.1.dynamic_alpha_fn f4 [8, 5]
0	0xbe0c7f73	-0.13720493
1	0x00000000	0.0
2	0x00000000	0.0
3	0x00000000	0.0
4	0x00000000	0.0
5	0x3d07ba33	0.033136558
6	0x00000000	0.0
7	0x00000000	0.0
8	0x00000000	0.0
9	0x00000000	0.0
10	0x3d94f9e8	0.07274228
11	0x00000000	0.0
12	0x00000000	0.0
13	0x00000000	0.0
14	0x00000000	0.0
15	0xbe342148	-0.17590821
16	0x00000000	0.0
17	0x00000000	0.0
18	0x00000000	0.0
19	0x00000000	0.0
20	0xbbdfbfb9	-0.006828275
21	0x00000000	0.0
22	0x00000000	0.0
23	0x00000000	0.0
24	0x00000000	0.0
25	0xbd83d41a	-0.064369395
26	0x00000000	0.0
27	0x00000000	0.0
28	0x00000000	0.0
29	0x00000000	0.0
30	0xbea7a5e7	-0.3274376
31	0x00000000	0.0
32	0x00000000	0.0
33	0x00000000	0.0
34	0x00000000	0.0
35	0xbda0f06c	-0.07858357
36	0x00000000	0.0
37	0x00000000	0.0
38	0x00000000	0.0
39	0x00000000	0.0

transformer.layers.0.1.static_beta f4 [4]
0	0x3f7a39a0	0.9774418
1	0x3f748e58	0.955297
2	0x3f7fce48	0.99924135
3	0x3f72a8cd	0.9478882

transformer.layers.0.1.dynamic_beta_fn f4 [8]
0	0xbe6bac48	-0.23014939
1	0xbd363617	-0.044485178
2	0xbedf4718	-0.43608928
3	0xbe92b7d3	-0.28655872
4	0xbe46dce8	-0.19420207
5	0xbf0091a4	-0.5022223
6	0x3ecf85b4	0.40531695
7	0x3ddad656	0.106854126

transformer.layers.0.1.branch.0.weight f4 [8]
0	0x3f7b02e7	0.98051304
1	0x3f81526c	1.0103278
2	0x3f82d9a3	1.0222667
3	0x3f8797b2	1.0593169
4	0x3f8336bc	1.0251079
5	0x3f824737	1.0177983
6	0x3f651fe7	0.89501804
7	0x3f9f48d7	1.2444104

transformer.layers.0.1.branch.0.bias f4 [8]
0	0xbd0d6edc	-0.034529552
1	0x3b135566	0.0022481321
2	0xbcf5766a	-0.02996369
3	0xbc8e4ea4	-0.017371483
4	0xbbc96bf6	-0.006146903
5	0xbc924ab7	-0.017857892
6	0x3df9e056	0.12200992
7	0x3dbea35c	0.09308502

transformer.layers.0.1.branch.1.weight f4 [64, 8]
0	0xbeb4b7f5	-0.35296598
1	0x3e6b313c	0.22968
2	0xbd35ef52	-0.044417687
3	0x3e8bc89b	0.27301487
4	0x3d5786f9	0.052618954
5	0xbea0a5bd	-0.31376448
6	0xbd5e242f	-0.054233726
7	0xbe197ca2	-0.1498895
8	0x3df5c9ed	0.12001405
9	0xbe01a04a	-0.12658802
10	0x3d5813f4	0.052753404
11	0xbe5b0209	-0.21387495
12	0x3de298fc	0.11064336
13	0x3e2ddedc	0.16979545
14	0x3e077b99	0.13230743
15	0xbdde8fe1	-0.108672865
16	0x3e20ca48	0.15702164
17	0x3e125212	0.1428912
18	0x3d4224a4	0.047398224
19	0xbe928309	-0.28615597
20	0xbe990e7a	-0.29893857
21	0xbe427535	-0.18990023
22	0xbe86258c	-0.2620052
23	0xbdce270a	-0.1006604
24	0x3e5c5709	0.21517576
25	0xbe7004b8	-0.234393
26	0x3e7d4208	0.2473222
27	0x3b34b118	0.0027571376
28	0x3e9daf5a	0.30797845
29	0xbe5e6c5b	-0.21721022
30	0x3eaa9107	0.33313772
31	0x3d36c26a	0.044619
32	0x3e4f916e	0.20270321
33	0xbe74a14b	-0.23889653
34	0x3dee79c3	0.11644318
35	0x3e7b2e9c	0.24529499
36	0x3e829fad	0.25512448
37	0x3df80911	0.12111104
38	0xbe924257	-0.28566238
39	0x3e6347ba	0.2219533
40	0x3eae3439	0.34024218
41	0xbe813bea	-0.25241023
42	0x3e371205	0.17877968
43	0xbec46647	-0.3835928
44	0x3d76a0a9	0.06021181
45	0xbe17d055	-0.14825566
46	0xbc2a3cd0	-0.010390475
47	0xbd6a9940	-0.057275057
48	0xbf0fb52f	-0.5613584
49	0xbd8dcf4b	-0.069243036
50	0x3e37cf73	0.1795023
51	0x3df373d6	0.11887328
52	0x3e9304b8	0.28714538
53	0x3e236703	0.15957265
54	0xbdbb6ef3	-0.09152021
55	0x3ec572ac	0.3856405
56	0x3edebe0e	0.43504375
57	0xbe63770e	-0.22213385
58	0x3ecb3a54	0.39692938
59	0x3eb30809	0.34967068
60	0xbe196a30	-0.14981914
61	0x3e8661a6	0.26246375
62	0xbec45a55	-0.38350168
63	0x3ea33a90	0.31880617
64	0xbe202a6a	-0.1564118
65	0x3d250b6a	0.04029409
66	0xbe8c0a7b	-0.27351746
67	0xbf23f2f6	-0.64042604
68	0x3e9bf793	0.30462322
69	0xbdd53e0c	-0.10412225
70	0x3e66a5fa	0.22524253
71	0x3d937ea5	0.0720189
72	0x3ea17666	0.31535643
73	0x3dfea768	0.12434274
74	0x3d587f0b	0.052855533
75	0xbe7dab52	-0.24772385
76	0xbb7c008e	-0.003845248
77	0xbe248254	-0.16065341
78	0xbe433af9	-0.19065465
79	0x3ef7ae54	0.4837519
80	0x3c9f6773	0.019458508
81	0xbec9fd1a	-0.39450914
82	0x3ebab454	0.36465704
83	0xbe1bf4a0	-0.15230036
84	0x3e855433	0.260408
85	0x3e5f75d0	0.21822286
86	0x3e67a1e6	0.22620353
87	0x3caf3e65	0.021392057
88	0xbe21aa1b	-0.15787546
89	0x3ea14e6d	0.31505147
90	0xbe8bdaf3	-0.27315482
91	0x3e77bce4	0.2419315
92	0xbea8031a	-0.32814866
93	0x3e5de335	0.21668704
94	0x3e8e3f05	0.27782455
95	0xbd25504d	-0.040359784
96	0x3d1bff0f	0.03808504
97	0xbd3f2cf5	-0.046673734
98	0x3ef11c65	0.47091976
99	0x3db08898	0.08619803
100	0x3e81c7e1	0.25347808
101	0xbbfb8771	-0.007676058
102	0x3e8dc5f3	0.27690086
103	0xbe9a2ffd	-0.30114737
104	0xbdde5049	-0.10855157
105	0x3efc4612	0.4927221
106	0x3e18d2c8	0.14924157
107	0xbebc4ca1	-0.36777213
108	0xbe8c21d5	-0.27369562
109	0x3e811512	0.25211388
110	0x3e8da324	0.2766353
111	0xbe9666ec	-0.29375398
112	0x3dc4c16a	0.09607203
113	0xbe933ad8	-0.28755832
114	0x3ecb3bb0	0.39693975
115	0xbd762304	-0.060091987
116	0x3c8ad120	0.016945422
117	0x3eb7edea	0.35923702
118	0x3e111b87	0.14170657
119	0x3e251f6f	0.16125272
120	0x3e1aa922	0.15103582
121	0xbeda1bca	-0.42599326
122	0xbdc49e92	-0.096005574
123	0xbd001a5e	-0.031275146
124	0x3db1032f	0.08643185
125	0xbea2f8a6	-0.3183033
126	0x3e533aad	0.20627852
127	0xbea44ba3	-0.32088956
128	0xbe44176a	-0.19149557
129	0x3e911d5a	0.28342706
130	0xbec673e5	-0.38760296
131	0xbeb8e626	-0.3611309
132	0xbe3b5f9b	-0.1829819
133	0x3d9009d4	0.070331246
134	0xbda084ee	-0.07837854
135	0xbe0341e7	-0.12818108
136	0x3ac9d7da	0.0015399412
137	0xbe6ada92	-0.2293494
138	0x3dab0bd4	0.083518654
139	0x3e5d64ba	0.21620455
140	0xbcf36fac	-0.029716335
141	0xbdb22a25	-0.08699445
142	0xbd1456f8	-0.036215752
143	0x3e0a7e20	0.13524675
144	0xbef57bce	-0.47946018
145	0xbc67a389	-0.014138111
146	0xbe566583	-0.20937161
147	0xbf1c2049	-0.60986763
148	0xbdcb7214	-0.09933868
149	0xbe520312	-0.20508984
150	0x3eb9a614	0.3625952
151	0x3ea1d006	0.31604022
152	0xbe48da91	-0.19614626
153	0xbe201121	-0.15631534
154	0xbda51ebe	-0.08062504
155	0xbca02c53	-0.019552385
156	0xbda7b96a	-0.08189662
157	0xbe9bd955	-0.3043925
158	0xbe731d44	-0.23741633
159	0xbe8c0610	-0.27348375
160	0xbe9a7ed0	-0.30174875
161	0x3dd20e1b	0.10256597
162	0xbe37499e	-0.17899176
163	0xbd954bd4	-0.07289854
164	0x3dd2ead9	0.102987
165	0x3e777290	0.24164796
166	0xbee88950	-0.4541726
167	0xbe4e9202	-0.20172885
168	0x3e2a108d	0.16607876
169	0xbe9aaca7	-0.30209848
170	0xbe3d46a4	-0.18483979
171	0xbbeb5705	-0.0071820044
172	0x3e578ffd	0.21051021
173	0xbe95a4e4	-0.29227364
174	0x3e079e6f	0.13244031
175	0x3f00770e	0.50181663
176	0xbe7a194f	-0.24423717
177	0x3e0a9419	0.13533057
178	0x3e78f00e	0.24310324
179	0xbdd999c4	-0.106250316
180	0x3d83aac7	0.064290576
181	0xbe68194f	-0.22665904
182	0xbe474d27	-0.19463025
183	0xbdcaf147	-0.09909301
184	0x3e434c06	0.1907197
185	0x3e39fb25	0.1816221
186	0x3e5a7442	0.21333411
187	0x3e6edd77	0.2332667
188	0x3e96a0a3	0.2941943
189	0xbdc578e6	-0.096422
190	0xbcf557ea	-0.029949147
191	0xbdbbeece	-0.09176408
192	0x3e732c5c	0.2374739
193	0xbed42737	-0.4143617
194	0x3baf612e	0.005352161
195	0xbe0a8749	-0.1352817
196	0x3df19565	0.11796073
197	0xbe20fc82	-0.15721324
198	0x3e77a094	0.2418235
199	0x3dcc2e6d	0.099697925
200	0xbe851c07	-0.25997946
201	0xbeb06d89	-0.3445857
202	0x3e9987f6	0.29986542
203	0xbc1f786f	-0.009733303
204	0x3e1c96af	0.15291856
205	0xbe7b8b9b	-0.24564974
206	0x3e57b0b1	0.21063496
207	0xbecfd0d2	-0.40589005
208	0x3eac9398	0.33706355
209	0xbeaaccdd	-0.33359423
210	0xbf94101e	-1.1567419
211	0xbdb238f1	-0.08702267
212	0xbf36aa40	-0.7135353
213	0xbedec9cc	-0.43513334
214	0x3f0cd767	0.5501618
215	0x3f1fee2c	0.62472796
216	0xbc390bd8	-0.011294328
217	0xbede8532	-0.43460995
218	0x3d0d6410	0.034519255
219	0xbda4bf3e	-0.08044289
220	0xbd367fdd	-0.044555534
221	0xbdf8ba2f	-0.12144887
222	0xbe841bb6	-0.25802392
223	0xbd92b1a2	-0.07162787
224	0xbd5f553b	-0.05452464
225	0xbe197a11	-0.14987971
226	0xbec2c6ca	-0.3804229
227	0xbdd40f5f	-0.10354494
228	0x3e5be494	0.21473914
229	0xbdfe6e2c	-0.12423357
230	0x3e8ceed2	0.27525955
231	0x3f5dbede	0.86619365
232	0x3db3787c	0.08763215
233	0x3cb9c940	0.022678971
234	0x3e515052	0.20440796
235	0xbe6b7fec	-0.22998017
236	0xbeb43171	-0.3519397
237	0xbea4062d	-0.32035962
238	0xbba55be7	-0.005046356
239	0x3ded2684	0.11579612
240	0x3daac905	0.08339123
241	0x3e61089d	0.21975942
242	0xbe4e32db	-0.20136587
243	0xbe096df1	-0.13420846
244	0xbd671dac	-0.05642478
245	0xbecaf152	-0.39637238
246	0x3d0499aa	0.032373108
247	0x3d7c3dd0	0.061582386
248	0xbe887632	-0.26652676
249	0xbd14ffce	-0.036376767
250	0x3e41b35a	0.18916073
251	0x3c722ddf	0.014781444
252	0xbe111694	-0.14168769
253	0xbdda06fb	-0.10645863
254	0xbe6f6221	-0.23377277
255	0x3b97028a	0.004608457

transformer.layers.0.1.branch.1.bias f4 [64]
0	0x3eadb649	0.33928135
1	0xbe0a3b1c	-0.13499111
2	0x3d4c7234	0.0499136
3	0xbe3f10d2	-0.1865876
4	0x3eae68d9	0.34064367
5	0xbea0d305	-0.31410995
6	0x3e0c9907	0.1373025
7	0x3e84401f	0.2583017
8	0xbe0170bf	-0.12640665
9	0x3e86105d	0.2618436
10	0x3eae61ad	0.34058896
11	0xbcded381	-0.027200462
12	0xbe79d501	-0.24397661
13	0x3e6a330d	0.22871037
14	0xbe8ee5a6	-0.27909583
15	0xbe22e63c	-0.1590814
16	0x3c10c5b7	0.008836201
17	0x3e5f7357	0.21821342
18	0xbe55ae1f	-0.20867203
19	0x3e6970aa	0.22796884
20	0xbe93b645	-0.28849998
21	0x3d74e03b	0.059784155
22	0x3e46e928	0.1942488
23	0x3d02dc85	0.031948585
24	0xbdb4bb02	-0.088247314
25	0xbe2c7016	-0.16839632
26	0x3f03bd80	0.5146103
27	0xbcc9205a	-0.02455156
28	0x3dddc6ea	0.108289555
29	0x3e3003b3	0.17188911
30	0xbd1fb870	-0.038994253
31	0xbe14d1d0	-0.14533162
32	0xbe47b076	-0.19500908
33	0xbe8d5b8b	-0.27608904
34	0x3dd07ef9	0.10180468
35	0x3e5c742f	0.21528696
36	0x3e05ea63	0.13077693
37	0x3daf9f61	0.08575321
38	0xbe7cb2f3	-0.24677639
39	0xbe207bc6	-0.15672216
40	0x3d2b728f	0.0418573
41	0xbd568bb3	-0.05237932
42	0xbe91502b	-0.28381476
43	0xbe1fcc91	-0.1560538
44	0x3e9a81c5	0.3017713
45	0xbe4d0ce9	-0.20024456
46	0x3ea314e5	0.3185188
47	0xbecca58b	-0.3997005
48	0xbe1e456a	-0.15456167
49	0xbebc4264	-0.36769402
50	0x3e00f844	0.12594706
51	0x3e307779	0.17233075
52	0xbe89bb36	-0.26900643
53	0x3ee19691	0.44060186
54	0x3d8a9dce	0.0676838
55	0xbe3ba0f5	-0.18323119
56	0xbe24e5b9	-0.16103257
57	0x3de52c54	0.111900955
58	0x3d35417e	0.04425191
59	0x3d34ebd9	0.044170234
60	0x3ed60d2c	0.41806924
61	0x3e82dbdb	0.2555836
62	0xbe3ac774	-0.18240148
63	0x3e156514	0.1458934

transformer.layers.0.1.branch.4.weight f4 [8, 32]
0	0xbdf9f492	-0.12204851
1	0x3d0de1b8	0.03463909
2	0xbe8c0ba8	-0.27352643
3	0xbe87a9df	-0.2649679
4	0xbe047d17	-0.12938343
5	0x3bd0e645	0.0063751065
6	0xbd25beff	-0.04046535
7	0xbd8fcbdb	-0.07021304
8	0xbd48adc3	-0.048993837
9	0x3e29384c	0.16525382
10	0x3d9b8107	0.075929694
11	0xbdc5f044	-0.09664968
12	0x3d414f16	0.047194563
13	0x3dc3bbb3	0.09557285
14	0x3e0b1188	0.13580906
15	0x3dd2c7dc	0.102920264
16	0x3e3ffa8b	0.18747918
17	0xbe0b05a2	-0.13576367
18	0x3d880e84	0.06643394
19	0x3da512a0	0.08060193
20	0xbd226563	-0.03964747
21	0xbe459d4f	-0.1929829
22	0x3d53c358	0.051699966
23	0x3df37496	0.118874714
24	0xbb24cec5	-0.0025147658
25	0xbd302c7f	-0.043011185
26	0x3c8eb83a	0.01742183
27	0x3dc33992	0.09532465
28	0xbc32a1d9	-0.010902845
29	0xbe2ffedb	-0.17187063
30	0xbe013e39	-0.12621392
31	0xbd483842	-0.048881777
32	0x3e354377	0.17701517
33	0x3dc305d9	0.095226
34	0xbd5d18a1	-0.053978566
35	0x3dbd6134	0.09247056
36	0x3d2ce2ad	0.042208362
37	0x3e28c5c5	0.16481693
38	0x3d2cfef6	0.042235337
39	0x3d535a41	0.051599745
40	0xbd987ae5	-0.07445315
41	0x3e309cab	0.17247264
42	0xbddfd41c	-0.109291285
43	0x3c9d1d72	0.01917908
44	0xbdf39fcc	-0.11895713
45	0x3dff1d04	0.12456706
46	0xbd89f990	-0.067370534
47	0xbdaf34c7	-0.08554988
48	0x3e65a145	0.224248
49	0xbc3339dd	-0.010939089
50	0xbb14d91b	-0.0022712413
51	0xbd9e8fd1	-0.077422746
52	0x3d64d0b5	0.0558631
53	0x3d8cd7e1	0.06877113
54	0xbd58bc04	-0.05291368
55	0x3b78d51d	0.0037968822
56	0x3e39c00f	0.18139671
57	0xbcdd20c0	-0.026993155
58	0x3d995af5	0.07488052
59	0x3de20e3f	0.110378735
60	0x3d49b441	0.04924417
61	0xbe14d4a2	-0.14534238
62	0xbcedec0b	-0.029043218
63	0x3cd3f951	0.02587572
64	0xbe0be8d8	-0.13663042
65	0xbc1fdce7	-0.009757257
66	0xbe146213	-0.14490537
67	0xbd6b3a9c	-0.05742894
68	0x3e8430fa	0.25818616
69	0x3ea58c45	0.3233358
70	0x3e335ddd	0.17516275
71	0x3e56e550	0.20985913
72	0x3e74e99d	0.23917241
73	0x3e6021da	0.21887913
74	0xbe8fc790	-0.28081942
75	0x3e0ec4a7	0.13942204
76	0x3d0bae11	0.03410155
77	0xbe4111c2	-0.1885443
78	0xbea369f2	-0.31916767
79	0xbd190365	-0.037356753
80	0xbde44ab5	-0.11147062
81	0x3e80cd28	0.25156522
82	0xbe48f40b	-0.19624345
83	0xbe8a445e	-0.27005285
84	0xbd7269d3	-0.059182953
85	0xbdde2b77	-0.10848134
86	0xbe177f48	-0.14794648
87	0xbe5a6ebc	-0.21331304
88	0xbe6ebc10	-0.23313928
89	0x3e6ea449	0.23304857
90	0xbe3ff0cf	-0.18744205
91	0x3dea0c38	0.11428112
92	0xbec0ac67	-0.37631533
93	0xbe6705f2	-0.22560862
94	0x3de53856	0.11192386
95	0x3e0ae6f5	0.13564666
96	0x3e7fc476	0.24977288
97	0x3c4c4ad5	0.012469013
98	0x3bccda42	0.0062516043
99	0xbe14c3b2	-0.14527777
100	0xbe2431c9	-0.16034617
101	0x3ad79911	0.0016448816
102	0xbcdc59d0	-0.026898295
103	0xbda7709a	-0.08175774
104	0xbe31493c	-0.17313093
105	0xbc657c8a	-0.014006743
106	0x3d1a0b17	0.037608232
107	0xbe03b8fb	-0.12863533
108	0x3cccfe5c	0.025023632
109	0xbda5c30d	-0.080938436
110	0x3dfc98e2	0.123338476
111	0x3db7fd92	0.089839116
112	0xba8e4bde	-0.001085635
113	0xbe392b85	-0.18083008
114	0x3db8629f	0.090031855
115	0x3da53ec7	0.080686145
116	0xbdae9963	-0.0852535
117	0xbdf24a15	-0.11830536
118	0x3d840d76	0.0644788
119	0x3e437c99	0.19090499
120	0x3df31a7a	0.118702844
121	0x3c14541d	0.009053257
122	0xbd5c3dd6	-0.05376991
123	0x3d3936ed	0.045218397
124	0x3d8e2761	0.06941105
125	0xbdaa85ef	-0.08326327
126	0xbe0b6d13	-0.13615827
127	0x3ca24df2	0.019812558
128	0x3df04207	0.11731344
129	0xbd3276ec	-0.043570444
130	0x3d396f50	0.04527217
131	0xbce2948c	-0.027658723
132	0x3dbb9e43	0.091610454
133	0x3d0f6743	0.035010587
134	0x3c8a8024	0.016906805
135	0x3dfc0050	0.12304747
136	0xbeabea75	-0.33577314
137	0xbe1f6d3e	-0.15569016
138	0xbdbe06cd	-0.09278641
139	0x3cc9f143	0.024651175
140	0xbdb0f45d	-0.086403586
141	0x3d1e8a6f	0.03870624
142	0xbdaf6973	-0.08565035
143	0x3e0784a1	0.13234188
144	0xbd7fde09	-0.06246761
145	0x3e27d37d	0.1638927
146	0xbe3e5292	-0.18586186
147	0xbe136eb7	-0.14397703
148	0x3da88f78	0.082304895
149	0x3cf141a3	0.029450243
150	0xbdf788c0	-0.1208663
151	0xbdfcd7e8	-0.12345868
152	0xbe044186	-0.1291562
153	0xbd49432a	-0.04913632
154	0xbdbd4071	-0.09240807
155	0x3db55c47	0.08855491
156	0xbe058158	-0.13037622
157	0x3d5097ef	0.050926145
158	0xbd41f114	-0.04734905
159	0xbd6dfb3a	-0.058100916
160	0xbe34a5c6	-0.17641363
161	0xbd96040a	-0.07324989
162	0x3d7e310a	0.062058486
163	0x3eadd8fb	0.33954605
164	0x3c9fa6da	0.01948874
165	0xbde34de4	-0.11098841
166	0xbe0633c7	-0.13105689
167	0x3cc54e82	0.024085287
168	0x3dc8d197	0.09805601
169	0xbe059eda	-0.13048878
170	0x3c851be9	0.01624866
171	0xbdc1fb28	-0.094717324
172	0xbce6b7f6	-0.028163891
173	0x3e100f00	0.14068222
174	0x3d234f47	0.039870527
175	0xbcd75062	-0.026283447
176	0xbcfb65a6	-0.030688118
177	0x3bdd9ced	0.006763092
178	0xbdcda43d	-0.100410916
179	0xbcea5a0b	-0.028607389
180	0x3d88e907	0.066850714
181	0x3dc6d81f	0.097091906
182	0xbd0ebc4a	-0.034847535
183	0xbbd77afd	-0.0065759406
184	0x3d8d10c5	0.06887964
185	0xbc3e932f	-0.011631771
186	0xbda5c751	-0.08094657
187	0xbde5ca87	-0.1122027
188	0x3d8f4f23	0.06997516
189	0x3d5c883d	0.053840864
190	0xbe2efd06	-0.17088708
191	0xbe01ff2a	-0.12694994
192	0xbe1d6fd6	-0.15374693
193	0xbd899e7b	-0.06719681
194	0xbc93ffea	-0.018066365
195	0xbe1a06a7	-0.150416
196	0xbe067412	-0.13130215
197	0xbd449681	-0.047995094
198	0xbe3d1961	-0.18466713
199	0xbdb86cc4	-0.090051204
200	0xbe1db159	-0.15399684
201	0xbe9230c7	-0.2855284
202	0x3dd8da05	0.10588459
203	0xbe250488	-0.1611501
204	0xbe8c10fc	-0.27356708
205	0xbe17691e	-0.14786193
206	0x3e3c8827	0.18411313
207	0x3d647ce0	0.055783153
208	0xbe60563d	-0.21907897
209	0xbe1e3569	-0.15450062
210	0x3d3228c8	0.043495923
211	0x3da3214d	0.07965336
212	0x3e2510ba	0.16119662
213	0x3e435960	0.19077063
214	0x3d1676f2	0.03673453
215	0x3e267635	0.1625603
216	0x3e9f91da	0.31165963
217	0xbea88d7f	-0.32920453
218	0x3e6d569c	0.2317757
219	0xbe1794ef	-0.14802907
220	0x3ec56d57	0.38559982
221	0x3e0c6900	0.1371193
222	0xbe606f59	-0.21917476
223	0xbd11a37a	-0.035556294
224	0xbe069c8b	-0.13145654
225	0xbe277317	-0.16352497
226	0xbd8d02dc	-0.06885311
227	0x3e207a27	0.15671597
228	0xbd5ed3b8	-0.05440113
229	0xbd50ba93	-0.05095918
230	0xbd281024	-0.041031018
231	0xbb2e91ab	-0.0026637118
232	0xbe97344d	-0.2953209
233	0x3e115eea	0.14196363
234	0x3d2e35d2	0.042531796
235	0xbca6fb69	-0.020383554
236	0xbe1021ae	-0.14075348
237	0xbe83cc6f	-0.25741908
238	0x3d8957a8	0.06706172
239	0xbe1a4a16	-0.15067324
240	0x3ed15b75	0.4089009
241	0xbd28f267	-0.041246798
242	0xbd8ec5fb	-0.069713555
243	0xbca64d56	-0.020300549
244	0x3d9c353f	0.076273434
245	0x3c7e7560	0.015530914
246	0xbcc96f00	-0.024589062
247	0x3c123745	0.00892431
248	0x3d302720	0.043006063
249	0xbe07b369	-0.13252033
250	0x3d6f8d92	0.05848462
251	0xbe7ede80	-0.24889565
252	0x3e2487b4	0.16067392
253	0x3dd06edb	0.10177394
254	0xbdb78942	-0.08961727
255	0xbd065040	-0.032791376

transformer.layers.0.1.branch.4.bias f4 [8]
0	0xbd72baa1	-0.059260014
1	0xbe34002e	-0.17578194
2	0x3cc167b1	0.023609014
3	0xbcd44df8	-0.025916085
4	0xbe2954b5	-0.1653622
5	0xbcb0f92f	-0.021603195
6	0x3e3dc458	0.1853193
7	0xbd9435e7	-0.072368436

transformer.layers.0.1.norm.gamma f4 [8]
0	0x3f010d17	0.504106
1	0x3e6161a4	0.22009903
2	0x3f31aa0b	0.6940009
3	0x3f002b55	0.5006612
4	0x3eca135b	0.39467892
5	0x3f2c1ddc	0.6723306
6	0x3f181110	0.59401035
7	0xbb096551	-0.002096493

transformer.layers.1.0.static_alpha f4 [4, 5]
0	0x3e248303	0.16065602
1	0x3f800000	1.0
2	0x00000000	0.0
3	0x00000000	0.0
4	0x00000000	0.0
5	0x3f2cb0f0	0.67457485
6	0x00000000	0.0
7	0x3f800000	1.0
8	0x00000000	0.0
9	0x00000000	0.0
10	0xbd4feb60	-0.05076158
11	0x00000000	0.0
12	0x00000000	0.0
13	0x3f800000	1.0
14	0x00000000	0.0
15	0xbe150e73	-0.14556293
16	0x00000000	0.0
17	0x00000000	0.0
18	0x00000000	0.0
19	0x3f800000	1.0

transformer.layers.1.0.dynamic_alpha_fn f4 [8, 5]
0	0xbe65b2eb	-0.22431533
1	0x00000000	0.0
2	0x00000000	0.0
3	0x00000000	0.0
4	0x00000000	0.0
5	0x3d319d18	0.043362707
6	0x00000000	0.0
7	0x00000000	0.0
8	0x00000000	0.0
9	0x00000000	0.0
10	0x3d609673	0.05483098
11	0x00000000	0.0
12	0x00000000	0.0
13	0x00000000	0.0
14	0x00000000	0.0
15	0xbe42deb7	-0.19030271
16	0x00000000	0.0
17	0x00000000	0.0
18	0x00000000	0.0
19	0x00000000	0.0
20	0xbc163437	-0.009167722
21	0x00000000	0.0
22	0x00000000	0.0
23	0x00000000	0.0
24	0x00000000	0.0
25	0xbd140129	-0.03613392
26	0x00000000	0.0
27	0x00000000	0.0
28	0x00000000	0.0
29	0x00000000	0.0
30	0xbe5d4a10	-0.21610284
31	0x00000000	0.0
32	0x00000000	0.0
33	0x00000000	0.0
34	0x00000000	0.0
35	0x3d1b32c1	0.0378902
36	0x00000000	0.0
37	0x00000000	0.0
38	0x00000000	0.0
39	0x00000000	0.0

transformer.layers.1.0.static_beta f4 [4]
0	0x3f857735	1.0427004
1	0x3f7b7f81	0.9824143
2	0x3f8a8c6c	1.0824103
3	0x3f6efc14	0.9335339

transformer.layers.1.0.dynamic_beta_fn f4 [8]
0	0xbecf4153	-0.40479526
1	0xbcae7ffc	-0.021301262
2	0x3d82e04e	0.06390439
3	0xbecbe45e	-0.39822668
4	0x3ccdfbc5	0.025144467
5	0x3c81ef6f	0.015861241
6	0xbdcdd7c4	-0.1005092
7	0x3d5f819e	0.054566972

transformer.layers.1.0.branch.norm.weight f4 [8]
0	0x3f6ba41a	0.92047274
1	0x3f8dc828	1.1076708
2	0x3f610aaa	0.879069
3	0x3f842b81	1.0325776
4	0x3f6ccdc2	0.9250146
5	0x3f876fef	1.0581034
6	0x3f5108c4	0.81654
7	0x3f81714a	1.0112698

transformer.layers.1.0.branch.norm.bias f4 [8]
0	0x3d17b0f6	0.037033997
1	0x3bba51c8	0.0056860186
2	0x3da9883a	0.08277936
3	0xbd125cb8	-0.035732955
4	0xbd900301	-0.07031823
5	0xbbfec369	-0.0077747595
6	0xbdbe1e2d	-0.09283099
7	0x3dc192b2	0.09451808

transformer.layers.1.0.branch.to_qkv.weight f4 [192, 8]
0	0xbc3db00a	-0.0115776155
1	0x3ebf1f7f	0.37328717
2	0x3d009a74	0.031397298
3	0x3e193573	0.14961796
4	0xbe195fd4	-0.14977962
5	0xbf01f571	-0.5076514
6	0x3efac6a3	0.48979673
7	0x3ecbe038	0.39819503
8	0x3dfa7e61	0.12231136
9	0x3e5c1147	0.21490966
10	0x3ded0867	0.11573868
11	0xbe953611	-0.29142812
12	0xbd2eb2ba	-0.042650916
13	0x3e62c3b6	0.2214497
14	0x3a62efc5	0.0008656944
15	0xbec1c455	-0.37845102
16	0xbe92635f	-0.2859144
17	0x3f380505	0.7188266
18	0xbc0ca7d9	-0.00858494
19	0xbe6f8aec	-0.23392838
20	0xbc8af6c2	-0.016963366
21	0xbea6df58	-0.32592273
22	0x3eccbbee	0.3998713
23	0x3f045707	0.51695293
24	0x3ea65b90	0.32491732
25	0xbec557cb	-0.38543543
26	0xbc5224a6	-0.0128261205
27	0x3e6d9f8a	0.2320539
28	0x3e010751	0.12600447
29	0x3dc3b069	0.09555132
30	0xbdbcd9fe	-0.09221266
31	0x3e3c7baa	0.18406549
32	0xbe6e5563	-0.2327476
33	0xbe1f8aa5	-0.15580232
34	0x3e903b2c	0.28170145
35	0x3d6425cb	0.055700105
36	0x3dd3cc98	0.103417575
37	0xbe354c8c	-0.17704982
38	0xbcd6c461	-0.026216688
39	0xbe4aa616	-0.1978992
40	0x3ef17e44	0.47166646
41	0xbf0e9db0	-0.5570936
42	0x3e928f42	0.28624922
43	0xbdbe3330	-0.09287107
44	0x3e31fc9c	0.17381519
45	0x3e267db7	0.16258894
46	0xbeb027e3	-0.3440543
47	0xbd8f1a44	-0.06987432
48	0xbe22f2e3	-0.15912966
49	0xbe8422fc	-0.2580794
50	0x3ea04379	0.31301478
51	0xbca9b781	-0.020717384
52	0x3ef24d14	0.4732443
53	0xbec5f9ca	-0.38667136
54	0xbcc12b9b	-0.023580363
55	0xbeec897d	-0.46198645
56	0x3cffe7a5	0.031238386
57	0x3ded2b7c	0.115805596
58	0x3d87a5eb	0.06623443
59	0xbdc3595f	-0.095385306
60	0xbb906525	-0.0044065886
61	0xbeb61d15	-0.35569063
62	0xbd9645ba	-0.07337518
63	0xbe987bc6	-0.29781932
64	0x3b9482e8	0.004532207
65	0xbf100e06	-0.562714
66	0x3ed284c0	0.41116905
67	0x3e9f7777	0.31145832
68	0x3e02702e	0.12738106
69	0xbe20ac52	-0.15690735
70	0xbe63a14c	-0.22229499
71	0xbec5cb96	-0.38631886
72	0x3ed39afd	0.41329184
73	0xbe59bf6a	-0.21264425
74	0x3f0ba695	0.5455106
75	0xbdd5b798	-0.10435408
76	0x3ec2c5cf	0.3804154
77	0x3e7601f5	0.24024184
78	0xbea26615	-0.31718507
79	0xbeb95378	-0.36196494
80	0xbe888914	-0.26667082
81	0xbe5fa6db	-0.21840994
82	0xbe3ca28d	-0.18421383
83	0x3e6f92a8	0.23395789
84	0x3c8583ab	0.016298136
85	0xbe9cd429	-0.30630615
86	0x3eda1548	0.4259436
87	0x3e202ca7	0.15642034
88	0x3cec7b48	0.028867379
89	0x3d82c919	0.063860126
90	0xbc2ba023	-0.010475191
91	0x3ba12b35	0.0049184808
92	0x3d8dfd6d	0.06933103
93	0x3e4841c9	0.19556345
94	0xbe5d8ffc	-0.21636957
95	0xbea95e21	-0.33079627
96	0xbe45fcae	-0.19334671
97	0xbed7a6e0	-0.42119503
98	0x3e1476ec	0.1449849
99	0xbd942a99	-0.07234687
100	0xbdb2aed4	-0.08724752
101	0xbbd3c99e	-0.0064632436
102	0x3d72d704	0.059287086
103	0xbe867d33	-0.26267394
104	0xbdc158d0	-0.09440768
105	0xbed96d62	-0.42466265
106	0xbc09234c	-0.008370232
107	0xbef2d2a0	-0.4742632
108	0x3ba80411	0.005127438
109	0xbbc87e98	-0.006118607
110	0xbe830c37	-0.25595257
111	0xbebb7598	-0.36613154
112	0xbe81a09a	-0.25317842
113	0xbe2c21a2	-0.16809705
114	0x3ee63913	0.4496542
115	0xbea0323f	-0.31288335
116	0x3eb283df	0.34866235
117	0x3e95d134	0.29261172
118	0xbf01a278	-0.5063853
119	0x3e61838e	0.2202284
120	0x3ce60192	0.02807692
121	0xbe52076b	-0.20510642
122	0xbdddd7d2	-0.1083218
123	0xbcf7389c	-0.03017836
124	0xbe0b3944	-0.13596064
125	0x3ebb8508	0.36624932
126	0xbe589831	-0.21151806
127	0xbe5c6ca5	-0.2152582
128	0x3e7cb13a	0.24676982
129	0xbdda32ec	-0.10654244
130	0x3e6dcecc	0.23223418
131	0xbdbec238	-0.09314388
132	0x3ec7340f	0.38906905
133	0xbe83dfef	-0.25756785
134	0xbedf981b	-0.43670735
135	0xbe87a94f	-0.2649636
136	0xbe7de579	-0.24794568
137	0x3f123585	0.57112914
138	0xbdda44c7	-0.106576495
139	0xbe0be61b	-0.13661997
140	0xbe6da875	-0.23208793
141	0x3e062818	0.13101232
142	0x3e19bed8	0.15014207
143	0x3cdab131	0.02669582
144	0x3ed06dde	0.40708822
145	0xbf19905a	-0.5998589
146	0x3bb41835	0.0054960498
147	0x3eb1a244	0.3469411
148	0x3ed55dbe	0.41673082
149	0xbe2048da	-0.1565279
150	0x3c20a20e	0.009804262
151	0x3e54bdb6	0.20775494
152	0x3c87b96e	0.016567912
153	0xbe215699	-0.1575569
154	0x3e17564d	0.14779015
155	0xbed0c1b1	-0.40772775
156	0x3e8fc552	0.2808023
157	0xbe908ae6	-0.2823097
158	0xbe10d4ff	-0.14143752
159	0x3d817908	0.06321913
160	0x3e34aa74	0.17643148
161	0xbf1009e8	-0.56265116
162	0x3e98336d	0.29726735
163	0x3ee316ce	0.44353336
164	0x3ef6c543	0.48197374
165	0x3c20a784	0.009805564
166	0xbe82e268	-0.2556336
167	0xbda7d889	-0.08195598
168	0x3ec6005f	0.38672158
169	0xbd331c7a	-0.04372833
170	0xbed0b047	-0.4075949
171	0xbd94f4fc	-0.072732896
172	0xbea6fea1	-0.3261614
173	0xbd8512dc	-0.06497738
174	0x3c4980b4	0.012298752
175	0x3e89ed58	0.2693889
176	0x3d17845e	0.03699147
177	0xbe86ed09	-0.26352718
178	0xbe3639c3	-0.17795472
179	0x3ee1e8a7	0.44122812
180	0x3dc92808	0.098220885
181	0x3ded27ae	0.11579834
182	0x3b127844	0.0022349516
183	0xbe4cc27d	-0.19996066
184	0x3e507422	0.20356801
185	0xbe955a4f	-0.29170462
186	0xbea3b21d	-0.31971827
187	0x3e61516a	0.22003713
188	0xbed96c20	-0.42465305
189	0xbeefc4c5	-0.4682981
190	0x3e98576b	0.29754195
191	0xbea08c27	-0.31356928
192	0xbec788e7	-0.38971636
193	0xbe96154c	-0.29313123
194	0x3d0e34f8	0.034718484
195	0x3d4d98da	0.0501946
196	0xbdd73154	-0.105074555
197	0x3eb34e0f	0.3502049
198	0xbec69d43	-0.38791856
199	0x3ebd5b43	0.3698369
200	0xbe7ad9e9	-0.24497189
201	0x3c5d9a63	0.013525578
202	0x3ec600fd	0.3867263
203	0x3db45fe1	0.0880735
204	0x3dd7c3dd	0.10535405
205	0x3e9ae292	0.30250984
206	0xbd1ee0d0	-0.038788617
207	0xbea6f034	-0.32605135
208	0x3e9a9ae3	0.30196294
209	0x3ece9c48	0.40353608
210	0xbe91fbc8	-0.28512406
211	0xbde497de	-0.11161779
212	0xbb8f1407	-0.004366401
213	0xbe84b255	-0.25917307
214	0xbcafae7a	-0.021445502
215	0xbe395cef	-0.18101858
216	0x3ebe09ed	0.37116948
217	0xbe8acac5	-0.27107826
218	0x3e9cbc56	0.3061244
219	0xbe86f99a	-0.26362306
220	0x3e170c1c	0.14750713
221	0xbdbdd04d	-0.09268246
222	0xbd5909d6	-0.052987896
223	0x3e81587a	0.25262815
224	0xbd0a10b0	-0.03370732
225	0x3cb7128b	0.02234771
226	0x3e0431c9	0.12909617
227	0x3e86ffe8	0.26367116
228	0xbedd63ba	-0.43240148
229	0xbed03f6d	-0.4067339
230	0x3ebe30e1	0.37146667
231	0x3e52aa87	0.20572864
232	0x3e059d89	0.13048376
233	0x3dd0353b	0.10166403
234	0x3ce35c67	0.027754022
235	0x3d5a958c	0.053365275
236	0x3e0dbed7	0.13842331
237	0xbeb53a07	-0.35395834
238	0x3d31af9e	0.043380372
239	0xbe00a38c	-0.12562388
240	0x3d3d3478	0.046192616
241	0x3e96ef64	0.29479516
242	0xbea5a0ec	-0.32349336
243	0x3dfaed50	0.12252295
244	0xbeeaceb3	-0.45860824
245	0xbe3b8ebb	-0.18316166
246	0x3e3c69a4	0.18399674
247	0xbd7cc9a5	-0.06171574
248	0x3dc4514e	0.0958582
249	0x3f044da2	0.5168096
250	0x3dc01c4c	0.09380397
251	0xbe0353eb	-0.12824981
252	0xbea31a3a	-0.31855947
253	0xbd030208	-0.03198436
254	0x3e14e688	0.14541066
255	0xbc1045fc	-0.008805748
