trained_models/physical_loss_training/model_PhysicsLambda0.1_date_20250810_epoch10000.pt (torch, 94789 bytes, 87 tensors)

cls_token f4 [1, 1, 8]
00000000: 99d4 29bf 6a98 433f e0f0 38bf 7275 20bf
00000010: 94f4 ba3e f021 4cbe 3a1c 22be 7a83 a53f
-0.66340023 0.7640444 -0.72242546 -0.6267921 0.36514723 -0.19934821 -0.1583108 1.2930748

categorical_embeds.weight f4 [3, 8]
00000000: c5ed 1b3e 25f0 45bf f30a 573f 870a 853f
00000010: 2e63 0fbe 1ecd 88be dd8a dfbe 0e93 27bf
00000020: 18db 0840 bd1b 63bf 026b 973e a879 61bf
00000030: 9b98 bebf 6527 ffbe 2e65 27bf dbd2 52bf
00000040: 2f65 a3bd 630d 2f3f 570b 833e 333e 61bf
00000050: 6788 403e c85e b7be 27ca 073f 5c11 823f
0.1522742 -0.77319556 0.8400108 1.0393838 -0.14002678 -0.26718992 -0.43660632 -0.6545876
2.1383724 -0.887142 0.29573828 -0.8807626 -1.4890321 -0.49834743 -0.6538876 -0.8235299
-0.079782836 0.683798 0.2559459 -0.87985533 0.18802033 -0.358145 0.53042835 1.0161548

numerical_embedder.weights f4 [8, 8]
00000000: 7190 d4bd 52e8 303f 6082 c23e 280f 4bbf
00000010: c270 2e3f 9206 38be a75a d23f cf24 203e
00000020: 7dbf 8e3f b0b9 b63f 6b29 aebf 4221 323d
00000030: 614a 493f 8ac7 e7bf 07cd b7be fefb b93e
00000040: d698 e5be 1aae 0540 4504 6f3e 978a 39bf
00000050: 7857 ebbf 987a 3c3f 6b86 fb3e d3e6 c03f
00000060: 01d0 9a3d b114 113f 6743 643f 470b 45bf
00000070: cb90 283f f71f 943e c9b8 a13d e6b2 04c0
00000080: cb54 3dbe 9466 be3f cf57 fbbf 0a04 2f3f
00000090: 9d31 c4be a7a0 1ebf 1795 fdbe 1c54 ee3e
000000a0: 38ab 26be 90f1 d5bf d6b7 53bd 90c3 36bf
000000b0: bd22 97be bdf9 07bf f110 a03f e2df 9c3f
000000c0: 614c 93bf 0b79 363e 2dfa 433f 1960 ef3f
000000d0: 3094 97bf ca4b 5d3f d213 ddbf b1c0 3abf
000000e0: 0d69 51bf d082 003e 42d4 0bbe e15c ccbf
000000f0: 9a5c a83d 5a4b a5bf bb48 d3be 8862 4f3e
-0.103791125 0.6910449 0.37990093 -0.7932 0.68140805 -0.17971256 1.6433915 0.15639041
1.1152188 1.4275417 -1.360639 0.04348875 0.7862912 -1.810777 -0.3589861 0.36325067
-0.44843167 2.0887513 0.23341472 -0.72477096 -1.8386068 0.73624563 0.4912599 1.5070442
0.07559205 0.566722 0.8916535 -0.7697033 0.65845937 0.28930637 0.07896573 -2.073419
-0.18489377 1.4875054 -1.9636172 0.6836554 -0.38319102 -0.61963886 -0.4952781 0.46548545
-0.16276252 -1.6714344 -0.05168899 -0.71392155 -0.2951869 -0.53115445 1.250517 1.2255824
-1.1507684 0.17819612 0.7655361 1.8701202 -1.1842098 0.8644377 -1.7271674 -0.72950274
-0.8180092 0.12549901 -0.13655189 -1.5965844 0.08220787 -1.291362 -0.41266426 0.2025243

numerical_embedder.biases f4 [8, 8]
00000000: 3334 2fbf fa95 063f e94b 16be 5c24 ca3f
00000010: e0ef cf3d dee8 05bf 3a31 21bf f570 583e
00000020: 07e9 7cbf e431 56be f086 3dbe 1d2c be3e
00000030: 441a a8bf 8743 013f 38dd e5bd e1de 72bf
00000040: 1e84 79be c878 933e f27c ccbf 45c7 6d3e
00000050: 54a6 b0bf 1c2e ecbd 8dcc 4cbf bbbf f03c
00000060: 5c67 edbf 2c3c 0340 2abb 8b3e 4dd6 d9bf
00000070: 3b37 bfbe 9f0d 5c3f 7e1f 81be 7108 17bf
00000080: 1438 81bf ee94 d43f 5bda 953f 6e99 f13e
00000090: 3267 6ebe 29d5 64be 1024 643f db80 adbd
000000a0: 600e 10bf 7171 fabc b62a c93e d55f 8f3f
000000b0: d402 fb3f 2972 a03f 9c99 493f ff38 5b3f
000000c0: fa8f bcbe 17f7 463e f17f 06c0 c5e4 f3bf
000000d0: 0992 3a3f 5565 51bf 4e09 b13e 937c f63f
000000e0: ca14 ce3e 9c71 083f b9c0 79bd 1a8d 80be
000000f0: cf2b 473f c5fa 953e 0837 663f 0888 d03f
-0.68439025 0.52572596 -0.14677395 1.5792346 0.101531744 -0.5230845 -0.6296574 0.2113684
-0.9879307 -0.2091747 -0.18508506 0.3714303 -1.3133016 0.50493664 -0.11223835 -0.94871336
-0.24366805 0.28803086 -1.597563 0.23220547 -1.3800759 -0.11532232 -0.7999962 0.0293883
-1.8547168 2.0505476 0.27291232 -1.7018524 -0.37346825 0.85958284 -0.2521934 -0.58997256
-1.0095239 1.660795 1.1707262 0.4718737 -0.23281553 -0.22346939 0.89117527 -0.08471843
-0.56271935 -0.030571671 0.39290398 1.1201121 1.9610238 1.2534839 0.78750014 0.85633844
-0.36828595 0.19430195 -2.101559 -1.905419 0.7287908 -0.81795245 0.3457741 1.9256767
0.40250236 0.53298354 -0.06097481 -0.25107652 0.7780122 0.29292884 0.8992772 1.6291513

transformer.layers.0.0.static_alpha f4 [4, 5]
00000000: 2e17 413d 0000 803f 0000 0000 0000 0000
00000010: 0000 0000 2e17 413d 0000 0000 0000 803f
00000020: 0000 0000 0000 0000 2e17 413d 0000 0000
00000030: 0000 0000 0000 803f 0000 0000 d008 863f
00000040: 0000 0000 0000 0000 0000 0000 0000 803f
0.047141246 1.0 0.0 0.0 0.0 0.047141246 0.0 1.0
0.0 0.0 0.047141246 0.0 0.0 1.0 0.0 1.0471439
0.0 0.0 0.0 1.0

transformer.layers.0.0.dynamic_alpha_fn f4 [8, 5]
00000000: 9263 19bd 0000 0000 0000 0000 0000 0000
00000010: 0000 0000 0e77 e43c 0000 0000 0000 0000
00000020: 0000 0000 0000 0000 410d b5bd 0000 0000
00000030: 0000 0000 0000 0000 0000 0000 8c62 a43a
00000040: 0000 0000 0000 0000 0000 0000 0000 0000
00000050: a315 e1bd 0000 0000 0000 0000 0000 0000
00000060: 0000 0000 8f94 87bc 0000 0000 0000 0000
00000070: 0000 0000 0000 0000 f2e0 a0bd 0000 0000
00000080: 0000 0000 0000 0000 0000 0000 c77e 943c
00000090: 0000 0000 0000 0000 0000 0000 0000 0000
-0.037448473 0.0 0.0 0.0 0.0 0.027888801 0.0 0.0
0.0 0.0 -0.088404186 0.0 0.0 0.0 0.0 0.0012541576
0.0 0.0 0.0 0.0 -0.10990455 0.0 0.0 0.0
0.0 -0.01655033 0.0 0.0 0.0 0.0 -0.07855405 0.0
0.0 0.0 0.0 0.018126858 0.0 0.0 0.0 0.0

transformer.layers.0.0.static_beta f4 [4]
00000000: 0ace 7c3f d3a6 803f b0a7 873f f863 7f3f
0.9875189 1.0050911 1.0598049 0.99761915

transformer.layers.0.0.dynamic_beta_fn f4 [8]
00000000: c890 2c3e 8df3 6fbe f4d1 853d f4aa 273e
00000010: 1f43 6bbe 9bfd 0b3e 8487 403e db24 94bd
0.16852105 -0.23432751 0.06534186 0.16373807 -0.22974823 0.13670962 0.18801695 -0.07233592

transformer.layers.0.0.branch.norm.weight f4 [8]
00000000: c2ba 273f ba44 5b3f f3cf 7f3f ef84 5a3f
00000010: d36c 553f 3b65 673f decd 2f3f 9a95 703f
0.65519345 0.85651743 0.9992668 0.8535909 0.8336918 0.9038884 0.68673503 0.93978274

transformer.layers.0.0.branch.norm.bias f4 [8]
00000000: 8967 d53d a240 9e3c f465 2abe 8ea3 8ebc
00000010: 4089 083e fe7a c7bd 6a04 42bd 1484 863d
0.104201384 0.019317929 -0.16640455 -0.017411973 0.13333607 -0.09740256 -0.04736749 0.06568161

transformer.layers.0.0.branch.to_qkv.weight f4 [192, 8]
00000000: a1df 0e3e d7fd 94be 180e 0b3e 9c9a 653e
00000010: 0acd 24be 2701 263e 0c1c b73d 6ed6 043e
00000020: f3a2 563e 7abe 85be 33ee f33e 5324 033e
00000030: 9696 263e 382b f93e 6a1f cf3e 6747 d1bd
00000040: f847 373e 2654 7ebe 6afa e63e 96e8 1bbe
00000050: 02cc b1be 8eea 8e3e 1d81 87be fa28 49be
00000060: 973f bfbe 2b42 0d3e 45a2 91bc ad86 b03d
00000070: 6c10 d43c 2d5b c7bd 744a c1bd f0ef 2d3e
00000080: 20c1 443e 95ff bc3d 6145 ba3d 357c 9e3c
00000090: b02b 633c 7bdd 16be ab9e bdbe cbdd 2b3e
000000a0: 8d86 5abe 8d4a a6bd 18ef 593e a328 4abe
000000b0: 22ec 2e3d 16a9 003e be15 973e f342 813e
000000c0: 94d9 2a3d accf c6be 4f0f 04be 4fe7 8abd
000000d0: 574f 90be be2e d3bd adc4 553e 8f21 5ebe
000000e0: 399b b1be 3b1f 683c 44b6 9fbe cf5a e4bc
000000f0: ca42 a43e b31f b1bd 8843 77bd 799a 7cbe
00000100: 6c7d 7bbe 736e c53c ed00 8bbe 304a 893e
00000110: 70d4 77bb 0572 c63c cb6d 92bd 3069 d2bd
00000120: 4421 d83d 3319 063e 4bfd 483d 563c e63d
00000130: 609e cebe ddf0 1dbe f701 293e 261a b3be
00000140: 729f 7c3e 2098 8fbe 23ac b6be d623 b9be
00000150: e4e4 11be 6d6a 34be 3cd7 c63e da6f b93e
00000160: bc18 d0bd 99f4 c33e 3ba5 f5be 1d30 7ebd
00000170: 8c05 fd3e ac77 6a3d 1b52 4d3e a012 78bd
00000180: adf7 a83e e63a a1be c4c7 1e3e f84e 04be
00000190: 9bc7 a13d 60ee 5d3e bbe5 aebe e1b0 a9bd
000001a0: 8ef0 94be c58c 9e3d 9365 563d 803c 283e
000001b0: aded f13e fe6e 8e3d bfd0 b9be ae62 ca3e
000001c0: 9622 b2bc 6e09 2b3e c713 79be 757c 713e
000001d0: 1aac a03d b12f 25be 402f 863e 8642 9bbe
000001e0: 5fcf 3dbd 0f89 93bd 3b0e d43e 6f47 6f3e
000001f0: 18de c9be ca32 f93d 704f b73e a854 8ebe
00000200: aa99 c7bd d841 fbbe ba96 3abe abdf 143e
00000210: fc01 9b3d b3e5 96bc 7b63 d03e e4ae 233e
00000220: 0510 50be 3a96 8ebe fb5f 583e ff3c b4bd
00000230: 6dac 58be f89a 07be 19c6 3f3e 6830 5fbc
00000240: d83a 4ebe 651f 983e 24f9 73be 9f0a 6e3e
00000250: bb70 b53d 6d6b d33d 06b4 27be 4f6c 05be
00000260: 2a7f 533e de4d 29be bef9 383d ca97 d7be
00000270: 9854 00be 20ba c0bd a6b7 99be 9737 7fbe
00000280: 2656 413e d251 70be 4870 453e 7c09 acbe
00000290: fae1 a9be e321 5e3d 6331 aebd c38f 37bd
000002a0: 3369 85be 5daf 8c3e 100d aabd 6e6d 103c
000002b0: 445a 46be 1293 10bd 8d94 fbbd 28f3 30be
000002c0: adcc 863d 85bc 82be 9480 e83d e9a3 11be
000002d0: 6bde 523e b737 63be 9f71 10bd 9a18 d6ba
000002e0: cca8 a83e 67ae 4b3e 77c3 8e3e 9a14 c5bc
000002f0: b82d f5ba c299 8d3e d205 883e 0153 1b3e
00000300: e214 be3e 798c f73c a20c 95be e7ff 01be
00000310: 63f8 313d f3dc 99be 22cd 3cbe ff74 86be
00000320: 1445 593e 15c8 463e 7446 c63e fc36 bdbd
00000330: 9468 753c b65c cd3d 7ac9 eabe bcf5 83be
00000340: eb43 cc3e 79a8 853e 8661 023b 8b9a a23d
00000350: 1fae bc3c 0f4d 153d 1425 143e 0558 eb3d
00000360: 6788 34bd 859d 713e a6db cebe cc01 b2be
00000370: 138e cebd 977c 283e af4b 50be 2cd6 a63b
00000380: 61be b93c f9b7 033e 50e3 163e 27c1 6a3e
00000390: 3e33 603d 7662 513e b1d6 253e f90e 823d
000003a0: ea84 40be 1189 f83d 1e7f b93d 5d93 3cbe
000003b0: 953f 7bbd 4cd5 04bd 62e5 9c3e ed3a 8d3e
000003c0: 351f 783d 7832 243e 1adc a43e 330c 943e
000003d0: c130 c8bd 014d 193e c84f ad3b 78f0 673e
000003e0: 15ad 323e 62f5 ab3e ed65 be3e 08c8 2e3e
000003f0: f3cb 7d3e eae5 4f3e 661c e3be 8361 853d
0.13952495 -0.29099914 0.13579595 0.2242226 -0.16093841 0.16211377 0.089408964 0.12972423
0.20960598 -0.26121885 0.4764267 0.12806825 0.16268381 0.48665786 0.40453655 -0.10218697
0.17898548 -0.24836788 0.45112926 -0.15225443 -0.34725958 0.27913326 -0.26465693 -0.19644538
-0.37353203 0.13794772 -0.017777571 0.08619437 0.025886737 -0.09734187 -0.09438029 0.1698606
0.19214296 0.09228436 0.09095264 0.019346336 0.013865396 -0.14732926 -0.37035117 0.16783826
-0.2134039 -0.08119688 0.21282613 -0.19742064 0.042705663 0.12564501 0.29508775 0.2524639
0.041711405 -0.38830316 -0.12896465 -0.067824 -0.28185531 -0.1031165 0.20875807 -0.21692489
-0.34688738 0.014167602 -0.31193745 -0.027875332 0.32082206 -0.08648624 -0.060367137 -0.24668302
-0.24559563 0.024100518 -0.27149144 0.26814413 -0.0037815832 0.02422429 -0.071498476 -0.10273969
0.1055322 0.1309555 0.049069684 0.11241977 -0.40355206 -0.15423913 0.16504656 -0.34980887
0.24670199 -0.2804575 -0.35678205 -0.36160153 -0.14247471 -0.17618723 0.38836086 0.36218148
-0.10160968 0.3827255 -0.47977623 -0.062057603 0.49418294 0.057243034 0.20050852 -0.060564637
0.33001462 -0.31490248 0.15505892 -0.12920749 0.078994 0.21672964 -0.34159645 -0.0828569
-0.2908978 0.077416934 0.052342962 0.16429329 0.47251645 0.06954764 -0.36292073 0.39528412
-0.021745007 0.16702816 -0.2432395 0.23582633 0.07845326 -0.16131474 0.26207924 -0.3032419
-0.046340343 -0.07203876 0.41417107 0.23367094 -0.39427257 0.1216789 0.35802794 -0.27798963
-0.09746106 -0.49073672 -0.1822156 0.14538448 0.07568738 -0.018420076 0.40700898 0.15984684
-0.20318611 -0.2784899 0.21130364 -0.088006966 -0.21159525 -0.1324271 0.18727912 -0.013622381
-0.20139635 0.29711452 -0.23825508 0.23246239 0.08859392 0.10323224 -0.16377267 -0.13029598
0.20653978 -0.1653361 0.045160048 -0.42107993 -0.1253227 -0.094105005 -0.30022925 -0.2492355
0.1888052 -0.23468712 0.19281113 -0.33600986 -0.3318022 0.054231536 -0.085055135 -0.044814836
-0.26056823 0.27477542 -0.08303273 0.008815153 -0.19370371 -0.035296507 -0.12284193 -0.17280257
0.065820076 -0.25534454 0.11352649 -0.14222683 0.20592658 -0.22189222 -0.035264608 -0.0016334236
0.32941282 0.19890748 0.27883503 -0.024057675 -0.0018705642 0.2765637 0.2656694 0.15168382
0.37125307 0.03021835 -0.291112 -0.12695275 0.04344977 -0.30051383 -0.18437627 -0.26261136
0.21217757 0.19412263 0.38725626 -0.09239003 0.014978547 0.10027449 -0.4585684 -0.25773418
0.39895567 0.26105097 0.0019894554 0.07939633 0.023032246 0.036450442 0.14467269 0.11491398
-0.044075396 0.23595245 -0.40401953 -0.34766996 -0.10085692 0.16453777 -0.20341371 0.0050914492
0.022673788 0.12863149 0.1473515 0.22925244 0.05473637 0.20447716 0.1619518 0.06350512
-0.18800703 0.12135518 0.09057449 -0.1841559 -0.061339933 -0.03242998 0.30643755 0.2758402
0.060576636 0.16034877 0.32199174 0.28915557 -0.09774924 0.14970781 0.0052890517 0.22650325
0.17448838 0.3358565 0.37187138 0.17068493 0.24784832 0.20302549 -0.44357604 0.065127395

transformer.layers.0.0.branch.to_out.weight f4 [8, 64]
00000000: b283 533d e93e a5bc 7feb 4dbd 4377 ee3d
00000010: c52a e7bc 3f94 d63b 4ced c33d 4faa 7fbd
00000020: 2340 3ebd 9fde 42bc f387 a9bb 2249 943b
00000030: bdda 273d f61c 67bd 2442 50bd 4a1e 653d
00000040: 6a9c 97bd caff 9d3c f36e d8bd 6720 a53c
00000050: 218c a93c 9178 d93d e525 573d 0b5d 4d3d
00000060: 55ea c83d a9df 7dbb 7e8e 3ebd 28c5 efbd
00000070: e501 043e 8076 b83b 36ad 193d d223 a63d
00000080: a506 85bc 2192 253d 6a64 9dbd 1e6a 7a3d
00000090: 1bcb 8fbd ffeb 79bd 5972 f73c e017 073c
000000a0: f5cf babc 1281 07be 9cf6 953d 4600 c43d
000000b0: 1f97 b8bd cfda fa3d 6e01 db3c 311e 83bc
000000c0: 6f68 fabb 992b 8dbc 20fa 133a 56f5 8dbb
000000d0: 598e d23c 489f 553d 25e4 303c 2e48 923c
000000e0: cf7c ca3d c2fa 99bc 9b31 243d 73e1 903d
000000f0: ede9 5c3b 3454 073e 6f6e a23b 90e2 ed3d
00000100: 3add 95bd 9ec6 abbd e51c 053d f534 a13d
00000110: 340d 72bd 7d8e 19be 1fb0 df3d c362 0abd
00000120: f31d d0bd e27e 7cbc fe1f 373e 0b6a a4bc
00000130: 09d3 7bbd 45b9 16bd 4037 d3bb 0ed8 53bd
00000140: dba4 e6bd 2b7f babd 6c24 5d3d bfbd c4bd
00000150: 2030 6dbd ba95 6a3d 1da2 f03d 8900 91bd
00000160: d035 e23d c81b bf3d 7c00 b0bd 6dc2 d7bd
00000170: 4614 a03d 746c c3bc 4673 8d3c 6fd7 90bd
00000180: dc68 04be e3fd 23bd f5f8 02be bd85 103c
00000190: 5ab3 bd3c 060a 35bb 1aa0 963d 0b4a b83c
000001a0: c4d9 8dbd 4e1b bcbc 964b a4bd e9ca 173c
000001b0: 2e7b 6fbd 2b30 1e3e 6dc0 083e 60bf e23d
000001c0: 3e3f 1abc 92ac 36bd 4432 33be a189 bcbd
000001d0: bd88 bfbd 7be9 013e 36f9 ad3c a21c 3b3d
000001e0: 62b6 7c3c afe9 b5bb 8a2d c63a bdb7 5abd
000001f0: 70ae 2bbe 0db4 e23d 8d09 c7bc aca7 11bd
00000200: 337e 9f3d 5dc8 e2bc b04c 73bc 7751 353d
00000210: aa11 19bd 7c00 213d 2478 0dbd 34e5 56bd
00000220: 6058 003c b8c0 853c 9b75 8fbd db2a 04bd
00000230: a9fa 783d 24e9 c6bd f044 23bc 3b8c 00bd
00000240: 19ad 103c 9f90 83bd d8a2 c9bd 0254 f73d
00000250: 29a3 b23d a764 ec3b 0acb 053c 3d33 f93d
00000260: 8152 743c bef8 f23c 044f 2bbd 8b94 e53d
00000270: d960 993d 55c0 973d d6ea 033e c1e5 93bd
00000280: 8701 ec3c f7a7 cabc a1b8 8a3d 0888 b13d
00000290: 1ffd c9bd 4f42 33bd 24a5 173c 8ed6 57bd
000002a0: 7294 49bd aa79 56bd d1ed 103e 5aeb a43d
000002b0: b9e4 37be 38b9 133d a6cf 0b3d b00f 9ebc
000002c0: ea8e d6bc eaac 8f3d 9345 5a3c ca83 10bc
000002d0: cefd b2bc a87a 7a3c e37f 893d 6009 dfbc
000002e0: ab72 fabd 57f0 00bb a8bc c0bb 6426 af3d
000002f0: d7cc f6bd d1a1 a1bd faf2 ca3d 2940 d83d
00000300: e8dd bd3c 1278 71bd 6e4f 80bd 4be9 733d
00000310: 0fb7 263d 89d9 bdbc 64ee 2dbd bc47 d13c
00000320: aa22 20bd e7ff df3c f9e7 223d 6b5c c53c
00000330: e6ef f33c 0874 89bd 508c 93bd 4681 1b3d
00000340: 6654 e8bc 3d7e c1bd 55ea 1abe 003d 303c
00000350: ebae 7cbb 9991 94bd 5fb0 dbbb 907a 8b3c
00000360: 6352 3c3d ea22 a7bc c1c3 87bd 3a53 59bc
00000370: 4ca4 063d 6cd3 efbb 45ce a43d 33af 96bd
00000380: 56d2 49bd 50d2 cf3d c095 35bd 283f 043d
00000390: b593 b0bd 5a81 0ebe f3af 80bd 66f4 643d
000003a0: 9976 453d 0556 15be f404 6e3d 9a9d 063b
000003b0: 9769 0abd f515 0d3e 65a2 4a3d e950 3d3d
000003c0: 2bb5 febc a9b8 2cbd 6b27 22bb 3efa 01bd
000003d0: bae8 b1bc 9744 f6bd 2dd3 07bd 309c 113d
000003e0: 68a6 c8bc b480 18bc 93cc fbbc 9a57 5d3d
000003f0: a1a4 71bd 7ce9 633d ccb9 afbd 253e 9fbd
0.051639266 -0.0201716 -0.050273415 0.11643841 -0.028218636 0.006548434 0.09566745 -0.06241828
-0.046447884 -0.011893897 -0.005173677 0.0045253197 0.04098009 -0.056424104 -0.050844327 0.05593709
-0.074028805 0.019287009 -0.10568037 0.020157052 0.020696701 0.10618699 0.052526373 0.05013756
0.0981032 -0.0038738048 -0.04652261 -0.117075264 0.12891348 0.0056293607 0.037518702 0.08112301
-0.01623852 0.040422563 -0.07685168 0.061136357 -0.07021161 -0.06101608 0.030205892 0.008245438
-0.02280424 -0.1323283 0.07322428 0.09570365 -0.09013199 0.12248766 0.02673408 -0.016005607
-0.007641844 -0.017232703 0.00056448765 -0.004332225 0.025702642 0.052153856 0.010796581 0.017856684
0.098870866 -0.018796328 0.04008637 0.07074251 0.0033708767 0.13215715 0.0049570124 0.11615479
-0.07317586 -0.083874926 0.03249826 0.07871429 -0.059094623 -0.14995761 0.10922264 -0.033785593
-0.10161962 -0.015411111 0.17883298 -0.020070096 -0.061480556 -0.03679778 -0.0064457953 -0.051719718
-0.112619124 -0.091062866 0.053989813 -0.09606504 -0.057907224 0.057271697 0.11749671 -0.0708018
0.1104542 0.09331471 -0.085938424 -0.10535131 0.07816367 -0.023855425 0.01726688 -0.07072341
-0.12930626 -0.040037047 -0.12790282 0.008820948 0.02315681 -0.0027624383 0.07354756 0.022496244
-0.06926301 -0.022962239 -0.080222294 0.009264686 -0.058467083 0.15448062 0.13354655 0.11071658
-0.009414492 -0.04459817 -0.17499644 -0.09205938 -0.09352253 0.12686722 0.021236997 0.045681603
0.015424343 -0.005551539 0.0015119773 -0.053397883 -0.16765761 0.11069498 -0.024296546 -0.035560295
0.077877425 -0.027683431 -0.014849827 0.044267144 -0.03737036 0.039307103 -0.034538403 -0.05246468
0.00783357 0.016327247 -0.07004853 -0.032267433 0.060785923 -0.09712437 -0.009965166 -0.031383734
0.008830332 -0.06424069 -0.09845513 0.1207657 0.087225266 0.007214147 0.008166084 0.12167976
0.014912249 0.029659625 -0.041823402 0.11209973 0.07489175 0.07409731 0.12882552 -0.072215565
0.028809322 -0.024738295 0.067734964 0.08668524 -0.09862732 -0.04376441 0.009255681 -0.05269485
-0.049213834 -0.05236212 0.1415322 0.08052702 -0.17958345 0.03606531 0.034133576 -0.01929459
-0.026191194 0.070154026 0.013322252 -0.008820483 -0.02184954 0.015288033 0.067138456 -0.02722615
-0.122289024 -0.0019674504 -0.0058818646 0.08552244 -0.12050789 -0.07892192 0.09909625 0.105591126
0.023177102 -0.0589524 -0.0626515 0.059548657 0.040701922 -0.023175018 -0.042463675 0.0255469
-0.03909556 0.027343703 0.039772008 0.02409192 0.029777478 -0.06711584 -0.07204497 0.03796508
-0.028360557 -0.09447906 -0.15128453 0.010756731 -0.0038556408 -0.07254333 -0.0067043747 0.017026216
0.045977008 -0.02040239 -0.06629134 -0.013264472 0.03287153 -0.0073189046 0.08047155 -0.07357635
-0.049272858 0.10147536 -0.044332266 0.032286793 -0.08621923 -0.13916531 -0.0628356 0.05589714
0.048208807 -0.14583595 0.058110192 0.0020540715 -0.033792105 0.13777907 0.049471278 0.04621974
-0.031092247 -0.042168293 -0.0024742733 -0.03173279 -0.021717418 -0.12024801 -0.033160377 0.035549343
-0.024493411 -0.009308029 -0.030737197 0.05403862 -0.058994893 0.05564259 -0.0858036 -0.07775525

transformer.layers.0.0.norm.gamma f4 [8]
00000000: cb27 513e 29b2 893e c9ac 053e 5b0d 483e
00000010: 5ea3 993e f43d 023e f0f0 473e 6697 ea3d
0.20425336 0.26893738 0.13054194 0.19536345 0.30007452 0.12718946 0.19525504 0.11454658

transformer.layers.0.1.static_alpha f4 [4, 5]
00000000: d66e b5bc 0000 803f 0000 0000 0000 0000
00000010: 0000 0000 1463 28be 0000 0000 0000 803f
00000020: 0000 0000 0000 0000 bde7 683f 0000 0000
00000030: 0000 0000 0000 803f 0000 0000 fef9 54bd
00000040: 0000 0000 0000 0000 0000 0000 0000 803f
-0.022147577 1.0 0.0 0.0 0.0 -0.16444045 0.0 1.0
0.0 0.0 0.90978605 0.0 0.0 1.0 0.0 -0.051996224
0.0 0.0 0.0 1.0

transformer.layers.0.1.dynamic_alpha_fn f4 [8, 5]
00000000: 9e00 48bc 0000 0000 0000 0000 0000 0000
00000010: 0000 0000 87b5 963e 0000 0000 0000 0000
00000020: 0000 0000 0000 0000 a4bd 55bd 0000 0000
00000030: 0000 0000 0000 0000 0000 0000 53ec 6c3d
00000040: 0000 0000 0000 0000 0000 0000 0000 0000
00000050: d658 0bbe 0000 0000 0000 0000 0000 0000
00000060: 0000 0000 36e9 0c3e 0000 0000 0000 0000
00000070: 0000 0000 0000 0000 32c2 b73d 0000 0000
00000080: 0000 0000 0000 0000 0000 0000 e770 99bd
00000090: 0000 0000 0000 0000 0000 0000 0000 0000
-0.012207178 0.0 0.0 0.0 0.0 0.2943537 0.0 0.0
0.0 0.0 -0.05218281 0.0 0.0 0.0 0.0 0.057842564
0.0 0.0 0.0 0.0 -0.13608107 0.0 0.0 0.0
0.0 0.13760838 0.0 0.0 0.0 0.0 0.08972587 0.0
0.0 0.0 0.0 -0.074922375 0.0 0.0 0.0 0.0

transformer.layers.0.1.static_beta f4 [4]
00000000: 63ef 923f 6595 8b3f 805c 7d3f c9c3 873f
1.1479305 1.0904967 0.9896927 1.0606624

transformer.layers.0.1.dynamic_beta_fn f4 [8]
00000000: 80de d5be b6ae 1bbf 171b f3be 53e0 8dbd
00000010: a71b bf3e 90d5 81be 580c 11bf 78eb c33e
-0.41771317 -0.6081346 -0.47481605 -0.06927552 0.37325785 -0.25358248 -0.5665946 0.38265586

transformer.layers.0.1.branch.0.weight f4 [8]
00000000: bdcd bc3f f810 a83f 5c26 a63f 75b5 aa3f
00000010: 4fe9 bb3f ecd0 0440 0ae1 0440 76f2 cb3f
1.4750286 1.3130178 1.2980456 1.3336626 1.4680575 2.0752516 2.0762353 1.5933368

transformer.layers.0.1.branch.0.bias f4 [8]
00000000: a0a0 dbbe 2cca 4dbe 977e 56be 5e16 babe
00000010: 0bc3 cf3e 228f 59bf f57e 5bbf 1e8a 043f
-0.42895985 -0.20096654 -0.20946728 -0.3634519 0.40578493 -0.8498403 -0.85740596 0.5177325

transformer.layers.0.1.branch.1.weight f4 [64, 8]
00000000: 26a2 eabc 121d 4b3e eb5d 27be efa1 a8be
00000010: 98dc 7ebe ca3f f63d 3ab3 69be efba 383d
00000020: ed70 903e 6aa6 b33d 6b51 7cbe 9d48 893d
00000030: 5a8d c9be bcee 35be fa74 c8bd 7db0 7e3e
00000040: 54d2 333e 8d1b a53e f49c d5bd 50ca 993e
00000050: e760 06be 8940 69bd f714 98bb 384d 803e
00000060: 9dd4 683d 87fd 6ebe 8971 f2bd b4a2 c63e
00000070: 99cb ee3d ece3 4ebe 8957 7bbe 11c7 fb3d
00000080: af6e 663e 1280 6ebc 624e 9b3e 56c9 09be
00000090: 9b41 24be 3be5 3abe 9e3a 8b3e 8baf 533e
000000a0: c491 60be 45c8 843e 2c6f 7cbe 0176 6abe
000000b0: e1fc 4bbe edf5 a03d ce4b b8bd 0f9c 1bbd
000000c0: 9a10 893e 41b3 f4be 4252 debc 8cea 3dbd
000000d0: 7002 063d 1816 a13d 6c46 60be 9ded e4bd
000000e0: ab73 863d 9f4b 3bbe 57f8 1e3e fd7f 67be
000000f0: 1b31 2abe 2c6f a2be 75a3 8bba 805e a7bc
00000100: af05 29be e905 87be 2782 dd3e 4993 933e
00000110: 98c4 43be b9e5 833d ef9d 65be 5a91 203e
00000120: e1f8 c03e 3b52 dfbe 436b 8d3e 41eb 6abd
00000130: f614 f8bd 118d 9bbe 1fda 823e 6867 443e
00000140: 6a48 713e 30af 623d d8ea b7be aaa3 563e
00000150: 47f8 073e 8188 29be 51cb aa3d f3da 58be
00000160: 34d8 b1bd c6e3 903e 23c4 7bbd 8513 7d3d
00000170: 570a 81bc f6db 52bd cfb4 9abe 1a5b 8bbe
00000180: 151d 483e 27c6 ea3d 5934 e63e ba0d 32bd
00000190: 768b 7a3d 0553 f4bc 78cf dabd c8de 683d
000001a0: cb04 36be c43d 383e 391d a6be 0fbf 77be
000001b0: cb23 90be bdc9 a0be 6ca6 d8bd 6d74 b1be
000001c0: 280d b23c 6cf8 babe 04d8 203e 0aae 653e
000001d0: a04a 70be 4fb5 803e 5435 c7be 0f24 d2bc
000001e0: 464b 383e 85fc 4bbe c816 abbe 1549 6f3d
000001f0: a97c 3cbe 6874 f5bc 268b c1be eee2 1bbe
00000200: b87e 4f3e 751d 4f3d f0d8 b9be 513f edbd
00000210: 0edd 60be f24e 693e b9c2 5abe 5b14 4d3e
00000220: 33c7 b2be c2d8 913e 7ca7 733e 2ab1 c3be
00000230: 026b 153e f2d9 dfbd 1572 063e 91ad 63be
00000240: 6d28 3cbe a3d4 943d 7c13 abbe 820a c4be
00000250: 5371 a1be 1b09 9b3e fa36 4ebe 35de 92bc
00000260: 6626 04bf eb7e 183e ced8 863d aefe ecbd
00000270: 5620 b83c 2cf3 073e 1222 053e 5ee7 a13c
00000280: a9dc 1dbd f95a 14bd 6fa3 683c 0d17 4bbd
00000290: fe87 143b 28ef 04be e94b e5be 75d2 8abe
000002a0: 7732 bebe 5a9f aabd 671d d5be 981a 3f3e
000002b0: 0aba 65be 62b5 133e e0b2 bfbe f2b9 86be
000002c0: 65c1 e2bd f224 8dbe 8d6c c23c 556d b0be
000002d0: dcf1 83be be3c dcbe c393 053e c596 a93d
000002e0: 3a51 8ac0 4233 4ac0 a395 84c0 df88 47c0
000002f0: 8189 a440 0013 96c0 4cd4 b1c0 661d 9b40
00000300: 4932 ee3c 656b f23d 0c65 cd3d a411 d7bd
00000310: 16fe 4abe 18e4 d6be 196f e6be 93ff a6be
00000320: 9621 c33e d95d 47ba 7f6a aa3e 13c8 e0bd
00000330: 28b4 7b3e 5c3e d03c dde6 b5be 6aaa 0cbe
00000340: e49e cd3e 097c 94be 4e38 543e 4d9f 5cbe
00000350: 195e 68be 4b88 8abe 472c 93bd b685 3bbd
00000360: 954a 5b3e 57ff 41be f3c9 f43e fbcb ce3e
00000370: 3aac 933e 816d 22be 5b3c 863e 8244 513e
00000380: 97f5 d2be 1e1f babe 611f 0ebd 8967 9a3e
00000390: 3686 d73d f8eb 873e ab8a 33bd 540b 55be
000003a0: b892 75bd 17dc f9bd 1456 bfbe e007 8c3d
000003b0: 02e7 103e 8b99 b53e 4fb5 583e b2c1 ed3d
000003c0: 4937 fb3d 8701 b33c 7d8f afbd 378b 473e
000003d0: f485 9ebd c8e2 063e 2182 07be 48cc 973c
000003e0: f29b 23bd df70 abbd c6b5 d83d a8c5 293e
000003f0: a365 95be 2420 983d bd5a 213e 89c9 fe3e
-0.028641772 0.19835308 -0.1634442 -0.32936046 -0.24888837 0.120238855 -0.22822276 0.04510015
0.28211156 0.08771975 -0.24640433 0.06703303 -0.39365655 -0.17766851 -0.097879365 0.24872012
0.17560703 0.32247582 -0.10430327 0.30037165 -0.13122903 -0.05694631 -0.004641171 0.25058913
0.05684339 -0.233389 -0.11838061 0.38796008 0.11659927 -0.20204133 -0.24545111 0.12293828
0.2250316 -0.0145569015 0.3033324 -0.1345571 -0.16040652 -0.18251507 0.2719316 0.20672433
-0.21930605 0.25934044 -0.24651784 -0.22896577 -0.19920684 0.078594066 -0.089988336 -0.037990626
0.26770478 -0.4779301 -0.027138833 -0.04636626 0.03271717 0.07865542 -0.21901864 -0.11178134
0.06565031 -0.18290566 0.15524422 -0.22607417 -0.16620295 -0.31725442 -0.0010653572 -0.020430803
-0.16506074 -0.26371697 0.4326336 0.28823307 -0.19117963 0.064403005 -0.22423528 0.15680447
0.3768988 -0.43617424 0.27620897 -0.05735326 -0.12113373 -0.30381063 0.25557038 0.19180071
0.2356278 0.055342853 -0.3592136 0.2096087 0.13278304 -0.16555978 0.08339561 -0.21177272
-0.086838156 0.28298777 -0.061466347 0.061786193 -0.015752 -0.051479302 -0.3021607 -0.27217942
0.19542344 0.11463576 0.44961813 -0.043470122 0.061168157 -0.029824743 -0.10684103 0.056853086
-0.17775266 0.17992312 -0.3244417 -0.24193977 -0.28152308 -0.31403914 -0.105786175 -0.34659138
0.021734789 -0.36517656 0.15707403 0.22429672 -0.23465967 0.25138327 -0.38907874 -0.02565196
0.17997465 -0.19920547 -0.33415818 0.058419306 -0.18406929 -0.029962733 -0.37801474 -0.15223286
0.20263183 0.0505652 -0.36298323 -0.11584342 -0.21959326 0.22784021 -0.21363343 0.20027296
-0.34917602 0.28485686 0.23794359 -0.38221103 0.14591601 -0.10930242 0.13129456 -0.22234179
-0.18374796 0.0726712 -0.33413303 -0.38289267 -0.31531772 0.30280384 -0.2013816 -0.017928222
-0.5162109 0.14892165 0.06584321 -0.11572014 0.022476356 0.13276356 0.13001278 0.019763645
-0.038540516 -0.03621957 0.014199122 -0.04958253 0.0022664065 -0.12981856 -0.44784477 -0.2711369
-0.37147877 -0.08331175 -0.41623995 0.18662488 -0.2243425 0.14424661 -0.37441158 -0.2631374
-0.11072043 -0.2756725 0.023733402 -0.34458414 -0.25770462 -0.43015093 0.13044648 0.0828071
-4.3224154 -3.1593785 -4.143266 -3.117729 5.141785 -4.6898193 -5.557165 4.8473387
0.029076712 0.1183689 0.10029039 -0.105014116 -0.19823489 -0.41970897 -0.45006636 -0.32616863
0.38111562 -0.0007605232 0.33284375 -0.10975661 0.24580443 0.02542036 -0.35527697 -0.13736883
0.40160286 -0.2900088 0.20724604 -0.21545143 -0.22692145 -0.27057108 -0.071861796 -0.045781814
0.2141517 -0.1894506 0.47810325 0.4039 0.28842336 -0.15862085 0.26217923 0.2043629
-0.41202995 -0.36351866 -0.034697894 0.30157116 0.105236456 0.26547217 -0.043833416 -0.20805103
-0.059954375 -0.12200182 -0.3737036 0.068374395 0.14150622 0.35468706 0.21162914 0.1160921
0.12266404 0.021851314 -0.0857229 0.194867 -0.07740393 0.13172448 -0.13233234 0.018530026
-0.039943643 -0.08371138 0.105815455 0.16579306 -0.29179105 0.07428005 0.1575727 0.49763134

transformer.layers.0.1.branch.1.bias f4 [64]
00000000: 485e c03d 0203 e6bc d1a9 5d3e 9861 9abe
00000010: 32a4 083e e737 343d bd9e 623e d53e 9e3d
00000020: dd45 43be 8730 92be cf68 243e 84a3 893e
00000030: a128 663d 88f2 9abd 195f 7ebc 0189 1a3e
00000040: 4f16 8abe 81b8 65be ab66 7cbe 9517 5c3e
00000050: efa8 e3bc bdaa 423e 252a 91be 0aee 8340
00000060: 2af4 ed3d 02fd c5bd 271f d3bd 5644 a2be
00000070: 1080 f13d 3614 ec3c bbbc 953e e54c 87be
00000080: 22cd 36be 094a 173e e982 65be 26ac 7fbd
00000090: 9e35 843d 17d3 7dbe e7b3 8cbe 8683 4f3e
000000a0: d331 d5be f794 233d 023e 4fbe a0ff b73e
000000b0: 3d4f 993e 6412 30be aad5 9ebe ffdc 113c
000000c0: 541e 333e a9a1 fc3d dcaf 803e 5ac6 abbe
000000d0: 491a dbbe 2807 ac3e fc18 903e 17b9 8340
000000e0: 13d4 28be 0a57 a4bc 7269 89be 5045 7fbe
000000f0: 1816 9a3e 2040 c2bd 22a7 66be e616 6f3b
0.09392983 -0.028077606 0.21646811 -0.30152583 0.13343886 0.043998625 0.22130866 0.07726828
-0.1906962 -0.28552648 0.16055606 0.26882565 0.05619109 -0.075657904 -0.015525603 0.15091325
-0.26970145 -0.22433664 -0.2464854 0.21493371 -0.027790515 0.19010444 -0.28352466 4.1228075
0.11618836 -0.09667398 -0.10308676 -0.3169276 0.11792004 0.028818231 0.29245552 -0.26425853
-0.1785169 0.14774336 -0.2241322 -0.062420033 0.06455539 -0.24787556 -0.27481005 0.20265016
-0.41639575 0.039936986 -0.20238498 0.35937214 0.29943267 -0.17194515 -0.31022388 0.008902787
0.17492038 0.12335522 0.2513417 -0.33549768 -0.4279349 0.3359921 0.28144062 4.116344
-0.1648715 -0.020061035 -0.2683826 -0.24928784 0.3009498 -0.09484887 -0.22524694 0.0036482154

transformer.layers.0.1.branch.4.weight f4 [8, 32]
00000000: 5db5 083d a6c1 0abd 652c 37bd 0208 cd3d
00000010: 6034 10be 920e fabd 198a 263e 4ffc cb3c
00000020: 2b8b 103d a4cf 243e 8f55 85bd 27d5 c23d
00000030: 9501 f03c a71f d13d e5d1 d43d 0127 33bd
00000040: 7ac8 3c3d b550 073d d2a6 ec3a 9091 93bb
00000050: 0672 c23d 193b 0ebe 7e56 26bd c27e 34be
00000060: bd4e c53d 1479 ea3d 3759 9d3e edaa eb3d
00000070: 4c39 e23d f892 a1bd 2e28 7abd cfe4 753c
00000080: 7134 e2bd 3ac6 f3bd f340 7e3e 3d7f a0bd
00000090: fc01 cdbd fac3 0a3e 1763 5ebe 3f15 e6bd
000000a0: 3c70 febd ac63 afbe 6743 443e a3e4 39be
000000b0: ff74 e6bd c835 8bbd 686a 6dbe b56f 143d
000000c0: a6aa 48be 56c0 dd3c 4d91 813e 76cc b5bd
000000d0: 6bb5 0cbe f4bc 463c 0e1b 55be 6e4d 35be
000000e0: 64c8 6bbd 938c 49be 2a6a 9cbd f563 1cbe
000000f0: 2927 863e 3535 933d efc5 913d ac98 3cbe
00000100: 214c 9e3d 6d48 cb3d 400e c6bd f207 f83d
00000110: 3d65 8ebd abcc 14be 8206 423e a4dd ba3d
00000120: 4138 14bc d92e 183e d6c5 56bd a4a7 163e
00000130: 8cbf ca3c 5929 c83d 8626 203e d993 8f3c
00000140: 485d 013e c939 143e 8814 adbd 4c55 d43d
00000150: fa21 153d b94e 33be 1bba 01be 6909 23be
00000160: 7cae 2c3e 2d10 4a3e 64ac a53e 42e1 b63d
00000170: 71a4 05bc c23f 42be d947 e73d f1e6 3b3a
00000180: 58c1 d23d 3ea2 b73d fd75 fbbc ac52 063e
00000190: 49e5 143e a82d 33be 1b03 313e f1c8 773d
000001a0: 9329 7e3c 80c1 fd3d 9609 13bd 2a06 213e
000001b0: 8b76 2b3c 3c2f 013d d9ce 003e ffa3 b63c
000001c0: 5fa0 5e3d 5899 b23d 4317 efbd 21b6 533d
000001d0: 59b8 c03d 3045 42be 505b 4cbd 66cd 2fbe
000001e0: 5073 2f3e 1084 233e 3b15 873e 3562 203e
000001f0: abc7 f5bd adc2 f1bd e61d abbd 42c9 ffbc
00000200: 470d 073d 9413 69bd 0f2e 36be 7077 873e
00000210: ea64 323e 6014 933b 7473 d53d 5a71 da3d
00000220: 88ec fd3d 8619 e73d 7de4 11be e7c4 073e
00000230: 533f 923d a0ee 633d 9daf 393e ffbe b4bd
00000240: 977f d23d 3a2f 0a3d 8bc1 90bd 505b 383e
00000250: b6dd 853e 33d4 0bbe 9f48 553e 33c0 bb3e
00000260: 1a45 b43d 3db8 473e 773d ea3c 8ec1 d53d
00000270: 4742 6d3d 8f10 6abe d6b5 69bd ccc5 2c3e
00000280: ca36 09bd 20d0 b5bd cf74 853d 625b 243d
00000290: 885f d03d c43a c4ba a571 66bd 62ab c1bc
000002a0: 3119 a9bc 53e9 e2bd 3e4e e13c 29bc 98bd
000002b0: 4285 04bd af00 e03b cefd cbbd 0f7c 0d3d
000002c0: 135c d6bd 37c6 5cbd ef1a 1a3e d7b5 37b9
000002d0: 44a8 89bc 3a65 9abd f542 06bd 0d09 25be
000002e0: 1527 bbbd f602 2cbd 26d2 5b3d f369 13bd
000002f0: c86d f83c 60c8 af3d fe3d af3a 4fdb 04bd
00000300: 9fec babc ead0 83bd 01cb 153e 7d95 13bd
00000310: f0d1 1a3d 72b9 2bbc 4503 d2bd 4b13 f1bd
00000320: 6106 91bd 4c17 01be 3222 fb3d 77db 25be
00000330: 26d2 03be 822d 42bd 600c 30be f472 6f3d
00000340: 399a febd 0990 f1bc d688 bf3d 2b71 02bd
00000350: d1de 02be bcb9 64bc ea47 c9bc 2640 39be
00000360: b40f 89bd 1a70 50be da75 353d b074 16be
00000370: b4e8 d53d 89c9 f93d 7de8 5c3a 15a9 27be
00000380: a077 30be d507 2cbe c735 063e 9678 7e3d
00000390: ad37 8d3d 4b9e 2b3e 6326 5bbe 0a26 8dbd
000003a0: ae53 a6bc a4aa 06be 9a0c 813d 9c6a 75bd
000003b0: 70de d3bd 2fe3 bfbd 0f36 993d c2cf 84bc
000003c0: c2ee 53be a4fb 4bbe 0b94 923d e4b9 ab3d
000003d0: f0ea 9d3d e9d1 e73c 3415 aabd d8af ba3e
000003e0: 8147 b7bc 9c96 a3bd 0ca3 05be 3e25 90bd
000003f0: 1a24 6a3e a940 38bd 1041 dcbd 96d2 ae3c
0.033376087 -0.033876084 -0.044720072 0.10011293 -0.1408248 -0.1220981 0.16263618 0.024900584
0.03528897 0.16094834 -0.0651046 0.09513312 0.02929763 0.10211115 0.10391597 -0.04373837
0.046089627 0.033035953 0.0018055087 -0.0045034364 0.094944045 -0.13889731 -0.04060983 -0.1762648
0.09634159 0.11448875 0.30732128 0.11507211 0.11046085 -0.0788936 -0.061073475 0.0150081655
-0.11045159 -0.11903043 0.24829464 -0.07836769 -0.10010144 0.13551322 -0.21717487 -0.11234521
-0.12423751 -0.3425573 0.19166337 -0.18153624 -0.11252784 -0.06797367 -0.23185122 0.036239345
-0.19596347 0.027069252 0.25306168 -0.088768885 -0.1374108 0.012130011 -0.20811102 -0.17705318
-0.057564154 -0.19682531 -0.07637437 -0.15272506 0.26201752 0.07187883 0.07117831 -0.18417615
0.07729364 0.099259235 -0.09670687 0.121108904 -0.069529034 -0.145312 0.18947795 0.09124306
-0.009046615 0.14861621 -0.052434765 0.14712387 0.02474954 0.097735114 0.15639696 0.017526554
0.1263324 0.14475168 -0.08451182 0.103678316 0.036409356 -0.17510499 -0.1266865 -0.15921558
0.16863436 0.19732733 0.32358086 0.08929683 -0.008156882 -0.18969634 0.11293001 0.0007167897
0.10290784 0.08966492 -0.03069591 0.13117474 0.1454059 -0.17497885 0.17286341 0.060494367
0.015512842 0.12390423 -0.035897814 0.15725008 0.010465275 0.031539187 0.12578906 0.022294996
0.05435216 0.08720654 -0.11674359 0.051687364 0.094101615 -0.18971705 -0.04989177 -0.17168197
0.17133832 0.15968347 0.26383385 0.15662463 -0.12000974 -0.118047096 -0.08355312 -0.031223897
0.032971647 -0.056903437 -0.17791007 0.2645831 0.17421308 0.004488513 0.104224116 0.10666151
0.123986304 0.11284165 -0.14247318 0.13258706 0.071409844 0.055647492 0.18133397 -0.08825492
0.10278242 0.033736445 -0.070681654 0.18003583 0.26145715 -0.13655166 0.20828484 0.36670074
0.088022426 0.19503875 0.028593762 0.10437308 0.057924535 -0.22857879 -0.057058178 0.16872329
-0.033499517 -0.08877587 0.0651642 0.040126212 0.10174471 -0.0014971127 -0.056260724 -0.023641292
-0.020641895 -0.11079659 0.02750313 -0.07457764 -0.032353647 0.006836019 -0.09960519 0.03454214
-0.104667805 -0.05389997 0.15049337 -0.0001751998 -0.016803868 -0.07538839 -0.0327787 -0.16116734
-0.09138314 -0.04199501 0.05366721 -0.035989713 0.030325785 0.085831404 0.0013369916 -0.03243571
-0.022817908 -0.064363316 0.14628221 -0.036031235 0.03779787 -0.010481225 -0.1025453 -0.11771258
-0.07081295 -0.12606543 0.122623816 -0.16197 -0.12873134 -0.04740668 -0.1719222 0.058459237
-0.124317594 -0.029487627 0.09352271 -0.031846207 -0.1278031 -0.013960298 -0.024570424 -0.18090877
-0.06692448 -0.20355263 0.044301845 -0.1469295 0.10444775 0.12196643 0.00084269774 -0.16373093
-0.17233133 -0.16799863 0.13106452 0.06212672 0.06895385 0.16759603 -0.21401362 -0.06892021
-0.020303573 -0.13151032 0.06301232 -0.059916124 -0.10345161 -0.09369504 0.07481014 -0.016212348
-0.20696548 -0.19920212 0.07157143 0.08385065 0.077108264 0.028298335 -0.083048254 0.36462283
-0.022372963 -0.07987711 -0.13050479 -0.070383534 0.22865334 -0.04498354 -0.10754597 0.02134065

transformer.layers.0.1.branch.4.bias f4 [8]
00000000: d58a 1f3e 78af d1bd cf2f 92bb 201e 02bb
00000010: 4d41 d8bc 1c6c fabd 006b 99bd 8ff7 34bd
0.15580304 -0.10238546 -0.0044612656 -0.0019854382 -0.026398325 -0.122276515 -0.07491112 -0.044181403

transformer.layers.0.1.norm.gamma f4 [8]
00000000: 76ce dd3d 7a02 013f b28d 483e 1924 10bd
00000010: 2d80 fc3d 6d07 ef3d 3459 783e aee5 2f3e
0.10830395 0.50394404 0.19585302 -0.035190675 0.12329135 0.11671338 0.24252778 0.1717746

transformer.layers.1.0.static_alpha f4 [4, 5]
00000000: b9b6 363d 0000 803f 0000 0000 0000 0000
00000010: 0000 0000 982b aabe 0000 0000 0000 803f
00000020: 0000 0000 0000 0000 587e 9f3e 0000 0000
00000030: 0000 0000 0000 803f 0000 0000 7dee 2a3f
00000040: 0000 0000 0000 0000 0000 0000 0000 803f
0.04460785 1.0 0.0 0.0 0.0 -0.33236384 0.0 1.0
0.0 0.0 0.3115108 0.0 0.0 1.0 0.0 0.66770154
0.0 0.0 0.0 1.0

transformer.layers.1.0.dynamic_alpha_fn f4 [8, 5]
00000000: 765e 0c3d 0000 0000 0000 0000 0000 0000
00000010: 0000 0000 e63a 44bc 0000 0000 0000 0000
00000020: 0000 0000 0000 0000 e77a 7c3d 0000 0000
00000030: 0000 0000 0000 0000 0000 0000 70f2 223e
00000040: 0000 0000 0000 0000 0000 0000 0000 0000
00000050: e25c b4bd 0000 0000 0000 0000 0000 0000
00000060: 0000 0000 2b0d bd3d 0000 0000 0000 0000
00000070: 0000 0000 0000 0000 268c bf3d 0000 0000
00000080: 0000 0000 0000 0000 0000 0000 246e 5cbc
00000090: 0000 0000 0000 0000 0000 0000 0000 0000
0.034269772 0.0 0.0 0.0 0.0 -0.011976933 0.0 0.0
0.0 0.0 0.061640646 0.0 0.0 0.0 0.0 0.15912795
0.0 0.0 0.0 0.0 -0.088067785 0.0 0.0 0.0
0.0 0.09231027 0.0 0.0 0.0 0.0 0.09352903 0.0
0.0 0.0 0.0 -0.013453994 0.0 0.0 0.0 0.0

transformer.layers.1.0.static_beta f4 [4]
00000000: 2db5 513f aec7 823f 72bd b73f 9b76 8b3f
0.8191708 1.0217187 1.4354689 1.089557

transformer.layers.1.0.dynamic_beta_fn f4 [8]
00000000: 3822 66be d1aa 36be a075 48be 0e63 53be
00000010: d4e0 bf3e 22ce 86be 202b e63c 7b33 833e
-0.22473991 -0.17838599 -0.1957612 -0.20643255 0.37476218 -0.26329142 0.028096735 0.25625214

transformer.layers.1.0.branch.norm.weight f4 [8]
00000000: 8fd3 863f 3f89 833f 434d 7a3f f260 8c3f
00000010: f162 b03f 006b 893f b660 813f b8e6 973f
1.0533313 1.0276259 0.9777414 1.0967085 1.3780195 1.0735779 1.0107639 1.1867285

transformer.layers.1.0.branch.norm.bias f4 [8]
00000000: 87a9 ccbd 4bf1 6dbd ac06 b43d 39e5 2ebe
00000010: 37d4 4a3e e8f4 b7bd 171f 863d 92f9 1d3e
-0.09993272 -0.058091443 0.08790335 -0.17079629 0.19807516 -0.08982259 0.06548899 0.15427235

transformer.layers.1.0.branch.to_qkv.weight f4 [192, 8]
00000000: 716a 90be c0c7 d8be b60e 3cbf ed67 07bf
00000010: 5c46 ce3e 55d4 20bf ed09 18bf 2c67 bb3e
00000020: e0bb 08bf 15e5 4ebe 43f5 65be abbe 1abe
00000030: 3df1 e83e 33a2 c3be b6c1 7cbe 1d7b a53e
00000040: 429a a3bd ff16 8fbd cb04 083f 140a 79be
00000050: 09f9 08be 9d3a cf3e 698e ca3e 3c1c e8be
00000060: 27dd 933e 398e 183e 40a4 873e 0b1d e0bc
00000070: bd33 b4be 6382 473d ccb7 ec3e 3b32 84be
00000080: 4985 8fbe bd85 0cbe 6167 1d3d 3ea7 953e
00000090: db81 ca3e 8577 a73e 82ab 82be 27c7 adbe
000000a0: cbda 44be 4369 19be f6de 2ebd 71ce e5be
000000b0: 6c89 213f c733 adbe c9cc 12bf 2c62 0c3f
000000c0: 60cb 343e 795b 803d 567c 983e 0172 9a3d
000000d0: 0379 acbe 03ea 403e 0f49 6f3e e281 d9be
000000e0: 203c 1b3e 1458 493e b558 8bbc be6b bf3e
000000f0: 279a be3d f0c4 93be 7efc 66be d4b9 d33d
00000100: 2402 cbbe efa5 113e 391d 76be 08d6 76bd
00000110: 21b1 1e3f 9a16 13bf f473 cdbe 7f3f 183e
00000120: a071 01bf 3484 f6be 03db fdbe bb15 3b3e
00000130: 3b4a 523c 0e2f 8fbd 7efd dbbe d50a 263f
00000140: 3922 f2bd c4ac 7a3c 7e1d 3b3e 205f 8e3d
00000150: 5a99 b5bd 7256 b03e 7aff 09be 7977 9dbe
00000160: c730 81be bfdf 933e 8af1 af3d 3612 893d
00000170: bafc c63d a557 b3be f883 31bc 1d15 d73e
00000180: 66d9 b6bd 2b38 35be 9513 96be 0905 413c
00000190: 18ff 8c3e e2ba 323d f347 6f3d c1e7 873e
000001a0: 9b88 7fbd 0d3e 06be e689 9cbe e467 743e
000001b0: 5b47 d8bd f4ed c33c b941 c7bd 3132 873d
000001c0: cc1a 423e ff53 833e f225 71be 26e7 a7be
000001d0: 1136 153e b220 7cbe 3b28 723c cde1 c43e
000001e0: 8540 f0be df6d f1be 5c5f 98be 69c9 90be
000001f0: 07ab 77bd a84b 8dbe 3ff5 6b3d c224 12bc
00000200: 0b67 193e 3b9e 033d dabd 593e 045c 95be
00000210: 8cf8 683c 1719 02ba 8d46 c83d 6be4 69be
00000220: 977e e43c 4eaf 823e 1823 6f3d 46a1 423e
00000230: dad5 d03e 6f59 b9bd c1ba acbe e696 ca3e
00000240: f109 3abe e184 9b3e 630e 983e 83b1 a93e
00000250: 89a2 85be 6f7e 7cbe d4ea 4abe 35d8 0cbb
00000260: 6ab2 83be 87a3 1e3e 29a8 d03e 800b 79be
00000270: 7d4c 72bc dadf 4fbe 30cc 0dbf 6edc 553e
00000280: 67f2 72be 5c02 c53e 57a4 d03d c850 1c3e
00000290: 7602 033e 6d31 2cbe 5216 67be a5cf 70be
000002a0: a45f bc3d 2e65 223e 9210 983d 99fc b8be
000002b0: c3e1 c23d 86f3 ddbd 0258 7dbe d434 453e
000002c0: a7af 903e 8b97 4ebe 0398 5c3c be41 a1be
000002d0: 3f59 803c 8056 f83e d913 b73b 713b d8be
000002e0: 01c0 7bbe 8fea e3bd c385 a63e db56 03bd
000002f0: ffe0 423f 7699 1a3d 405f a5bd 3644 793e
00000300: adbb a6be bee5 8bbe 37dd 37be b96c 56be
00000310: 9862 7b3e b595 cb3d fdd7 47be 99b4 46bd
00000320: 8bc2 03be 5828 42bd e3b1 043e f0cd d23e
00000330: ab95 90be 7041 f63e 899b 103f c375 fe3d
00000340: 1112 9abe 34ae 993c f052 07be ec71 f73d
00000350: 65e0 de3e 0f70 27bc 4233 183e a3e3 c2bd
00000360: 8e30 043e 2dc9 7ebe bef8 d73d ae7e be3e
00000370: 4bd1 60be 5680 493d 6b0a 1a3e bb9c 4fbe
00000380: 0cdf c53e 14b5 963e 241b b33e fa51 cc3d
00000390: 4308 b03d 1ccc 943d 9dc3 703c f40e e2be
000003a0: 651f 4bbe 0104 7fbe 0d7f 04be ba1a 4d3e
000003b0: 1ae9 273e a260 d9bd 6fac ccbd ac01 2dbe
000003c0: c128 293d 0dac 11bd ba40 203e 4c7f 08be
000003d0: 73d9 bd3e 6d82 0ebd 1585 87be 74d4 63bd
000003e0: 0375 2abd 3d82 1b3e 8c23 98be fa93 61be
000003f0: feca 073e f066 9fbe 2cc7 00be 51ca 593d
-0.28206208 -0.42339897 -0.7345995 -0.52892953 0.40288055 -0.6282399 -0.59390146 0.3660215
-0.53411674 -0.20204575 -0.22456841 -0.15111797 0.4549655 -0.38209686 -0.2468327 0.3232049
-0.07988407 -0.06986808 0.53132313 -0.24320251 -0.1337625 0.40474406 0.39561775 -0.4533404
0.28879663 0.14898004 0.264925 -0.027357599 -0.35195723 0.04870833 0.46233976 -0.25819573
-0.28031376 -0.13722892 0.038428668 0.29229158 0.39552197 0.32708374 -0.25521475 -0.33941004
-0.19224088 -0.1498156 -0.0426931 -0.44884065 0.63100314 -0.33828565 -0.5734373 0.548373
0.17655706 0.06267447 0.2978236 0.07541276 -0.33686075 0.18839268 0.23367713 -0.42481905
0.15159655 0.19662505 -0.017010072 0.37386888 0.09306746 -0.2886119 -0.22557256 0.10338178
-0.3965007 0.14223455 -0.24034585 -0.06026271 0.6198903 -0.5745636 -0.40127528 0.14867972
-0.50564003 -0.48147738 -0.49581155 0.18270008 0.012835081 -0.06991397 -0.42966837 0.6486028
-0.11822934 0.01529998 0.18272969 0.069517374 -0.0886714 0.34440953 -0.13476363 -0.30755213
-0.25232527 0.28881642 0.08590992 0.066929266 0.097161725 -0.35027805 -0.010834686 0.42008296
-0.08928184 -0.17697208 -0.29311815 0.011780986 0.2753837 0.043635257 0.058418225 0.26544002
-0.062386137 -0.13109608 -0.30573958 0.23867756 -0.10560485 0.023917176 -0.097293325 0.0660137
0.18955535 0.2565002 -0.23549631 -0.3279354 0.14571406 -0.24621847 0.0147800995 0.38453522
-0.46924224 -0.47154137 -0.29760253 -0.28278664 -0.06046584 -0.27596784 0.05760693 -0.008919897
0.14980714 0.032133322 0.21263829 -0.29171765 0.014219414 -0.0004962845 0.097790815 -0.22841041
0.027892394 0.25524372 0.058383077 0.19006833 0.40788156 -0.09050261 -0.33736232 0.3956825
-0.18167855 0.30374816 0.29698476 0.33143243 -0.26100567 -0.24657606 -0.19816142 -0.0021491174
-0.25722057 0.15492068 0.40753296 -0.24320793 -0.014788744 -0.20300236 -0.5538969 0.20884869
-0.23725282 0.38478363 0.10187595 0.1526519 0.12793908 -0.1681573 -0.22567108 -0.2351671
0.091979295 0.1585891 0.074250355 -0.36130217 0.09515717 -0.10837464 -0.24740604 0.19258434
0.28259012 -0.20174997 0.013463977 -0.3149547 0.015667556 0.48503494 0.005587083 -0.4223285
-0.24584962 -0.11128723 0.32523927 -0.032065254 0.76124567 0.037744008 -0.08074808 0.24342427
-0.3256506 -0.27323717 -0.1795548 -0.20939912 0.2454933 0.09940664 -0.19515987 -0.048512075
-0.12867181 -0.047401756 0.12958483 0.41172743 -0.28239188 0.480968 0.5648733 0.12424805
-0.3009191 0.018759824 -0.13215232 0.12082276 0.43530574 -0.010219588 0.14863303 -0.095160745
0.12909147 -0.2488143 0.10545491 0.37206024 -0.21954839 0.049194656 0.15043037 -0.20274632
0.38646734 0.29435027 0.34981644 0.09976573 0.08595326 0.07265493 0.014695075 -0.44152033
-0.19836195 -0.24903871 -0.12939091 0.20029727 0.16397515 -0.10614134 -0.099938266 -0.16895169
0.04129863 -0.03556447 0.15649691 -0.1332981 0.37079963 -0.034792352 -0.2646872 -0.055622533
-0.041615497 0.151864 -0.2971462 -0.22029105 0.13261029 -0.31133223 -0.12575978 0.05317146

transformer.layers.1.0.branch.to_out.weight f4 [8, 64]
00000000: 6ab0 4bbd 0fa2 a3bc 162a 9a3d f99d d6bd
00000010: cef6 95bd 6a84 59bc c64d 803d c095 1abd
00000020: 2aac f2bd 961c e7bb 985a 09bd 3d2e 923d
00000030: 7fb2 073e c4d7 0dbd bbed 6f3d 07ce 46bc
00000040: a05f 9d3d 6c96 36bd f0a9 be3d 84ba 0abd
00000050: a6f7 86bd c250 1dbd 8fcc d73d c9da 92bd
00000060: 226c c9ba 5751 8c3d ab39 9e3b a1fa 9d3d
00000070: 8178 973d 38a5 57bc 7f94 0dbd 8ecc c1bd
00000080: f5fa ae3c d012 a1bd 243f 5abd 2b26 253d
00000090: 0d63 0f3d f495 b13c a2e1 87bb 827d 3fbe
000000a0: fcb5 3bbd f1a7 96bd a5eb 26bd 9216 07bd
000000b0: d1cb 88bd 1744 b03d 0443 133e 7e3b 113e
000000c0: a19d 6e3d be2f be3c 2d6d 623d 34c8 213d
000000d0: e352 b5bd dd49 bebd 0ba3 953d 3d97 a4bc
000000e0: 9a22 f63b 8b99 c9bc d0a3 8a3d e660 cd3d
000000f0: 3589 29bd 4b26 243c d96b f7bd 2b2a 0e3d
00000100: 414d c03c a856 ec3d 94fe d53c 2a95 43be
00000110: 93b1 83bd 166f c23b e70a 803d 5c1b 9dbd
00000120: 4641 4dbc ecfc 06bc 1d62 bab9 c007 ae3d
00000130: f14f 0ebd ab2d c3bd 16f5 31bd 158e 48be
00000140: 55df a53d a078 93bd 6d91 de39 1014 133e
00000150: d20c 2abd 0d32 0abd c7aa ce3d 9366 0abe
00000160: ab01 04be 974a 8f3d 78b9 f6bc ed61 b63c
00000170: 8fb2 07bd a619 febb 300b 963d e92b d33c
00000180: 6d55 573d 6b42 32bd ee5c 8c3d 860c c0bc
00000190: 1ebb 0e3e 400d 9f3d 6573 22be 1d18 2d3d
000001a0: 2bbc 9bbc ede2 e9bd f881 9c3b f668 9c3d
000001b0: c227 f23d bfc2 d13d ddb7 94bd 18e7 a73d
000001c0: 6f6c 893d 5db8 8b3d a3e2 10bd b050 843c
000001d0: 6d3b b4bd bdc1 24be f296 bbbc 5bb0 c5bc
000001e0: f466 0ebd ec7f 323c e96f 1d3d 1d5f 25bd
000001f0: 9568 7f3d a6c8 c33c 817a 66bd 227b cf3b
00000200: ca85 333c 6a52 a13d c206 173d 0f7b 103e
00000210: 74d2 4a3c 0ac1 18be 854c 743d c1f8 4bbb
00000220: 938a c43d 0af3 51bb b4ee 813d 754d a33a
00000230: 6b52 0cbd b89e 1f3d 09de 80bd ac69 6c3c
00000240: 052a ebbc 6e60 103d 7cd0 3cbd b49d 0b3e
00000250: b3ac bd3c 2dfe 6fbd 8c21 853d 6504 00be
00000260: 8002 08be 563b f83d 61da 2dbd 0770 8bbd
00000270: a188 ba3a a775 75bc 123f 33bd 30ab 94bd
00000280: 2273 f23c bab7 b7bd 0b70 0ebd aa53 7f3d
00000290: 4ec0 003d e542 91bd b473 813d 0994 02bd
000002a0: 42a3 0bba e6ad 36bd 57e5 0cbe b7b8 bc3d
000002b0: 7605 6d3d 9061 afbb 945d 0c3e 5384 d43d
000002c0: b573 e33d 0a66 3abd b73d cc3d 2f9a 253d
000002d0: 171d 953c 49f6 dfbd 0111 0d3e dbb7 243d
000002e0: 0cfc c43d 4fe7 57bd c7a9 08bd a69a 523d
000002f0: 171f fcbd 95b4 05be c38e 1fbc b57c 9b3d
00000300: 5791 90bd 56d4 ed3c a7d3 d03d 65a3 2bbd
00000310: 3afb 29bd e363 b2bd d64b 863d a962 20bd
00000320: d190 393b acbb 8b3c 53ea 493d 57fe d13c
00000330: 8ef8 b5bc ef1f 1e3d 55bc 8b3d 83f8 b1bd
00000340: 21d1 8d3d 43d0 4abd f7ea f43d 57f8 6c3d
00000350: 1523 e7bd e00b 51bc 08ae f83d eb04 f5bc
00000360: c0de 3bbd 93ec 0a3d d5b6 2f3d efca 4a3d
00000370: 67a9 c9bc 60b7 eebc c3ed 15bd 22bf bebc
00000380: 6277 983d 2acd 32bd 5a42 5bbc 120b 863c
00000390: 790b a63d 0116 15bd 4478 bcbd 3157 efbd
000003a0: c8f7 9cbc 4553 c1bd 6c18 8e3d cab7 8d3d
000003b0: 5096 8bbd 6309 a73d d7c4 cb3c 79ec 223e
000003c0: 4a8c 723e 9cc6 0dbe ba24 ec3d 1d7d f43d
000003d0: ebe1 953d f9d6 41be b57b 443d ba9b 313e
000003e0: 34bc 8f3d 1787 7e3d ecd4 c0bc d6c6 e83d
000003f0: 4b7e bdbd 222c 73bd bbe2 0abb 6c7c b53d
-0.04972879 -0.019974736 0.075275585 -0.1047935 -0.07322465 -0.013276199 0.06264834 -0.03774047
-0.11849244 -0.0070529683 -0.033533663 0.071377255 0.13251685 -0.0346296 0.058576327 -0.012134082
0.07684255 -0.044577047 0.09309757 -0.03386928 -0.06590204 -0.038407095 0.10537063 -0.07170636
-0.0015367309 0.06851452 0.004828652 0.07713819 0.07396031 -0.01316195 -0.034565445 -0.09462844
0.0213599 -0.07864916 -0.05328287 0.040319603 0.03500657 0.021677949 -0.0041467706 -0.18700221
-0.04582785 -0.07356251 -0.040752072 -0.03298051 -0.066795 0.08606737 0.14381033 0.1418285
0.058255795 0.023216125 0.0552799 0.03949757 -0.088537 -0.09291432 0.073064886 -0.020091647
0.007511449 -0.024609348 0.06769526 0.100282475 -0.041390616 0.010018895 -0.12081117 0.034708183
0.023474338 0.11539966 0.026122369 -0.1909987 -0.06430354 0.0059336526 0.062520795 -0.07671234
-0.012527769 -0.008239012 -0.00035549785 0.08497572 -0.034744207 -0.09530195 -0.043446623 -0.1958545
0.08099238 -0.07200742 0.0004245149 0.14363122 -0.041516133 -0.03373914 0.10091167 -0.13515691
-0.12891261 0.06996649 -0.030117735 0.022263492 -0.03312927 -0.0077545224 0.073263526 0.025777774
0.052571703 -0.043520372 0.068536624 -0.023443472 0.13938567 0.07766199 -0.15864332 0.042259324
-0.019010624 -0.11420236 0.0047762357 0.07637207 0.118239895 0.10242223 -0.07261632 0.081983745
0.06710135 0.06822274 -0.035372388 0.016151756 -0.08800397 -0.1608953 -0.022899125 -0.024131944
-0.034766153 0.010894757 0.038436804 -0.04037391 0.062355597 0.023899388 -0.056269173 0.0063318172
0.010957191 0.07877047 0.03687168 0.14109443 0.0123792775 -0.14917389 0.059643287 -0.003112361
0.095967434 -0.0032035732 0.06344357 0.0012458997 -0.034258287 0.038969725 -0.0629235 0.014429491
-0.02870656 0.035248213 -0.046097264 0.13634378 0.023153638 -0.05859201 0.06500539 -0.12501676
-0.13282204 0.121206924 -0.04244459 -0.06808477 0.0014231392 -0.014981664 -0.04376132 -0.07259214
0.029595915 -0.0897059 -0.03477482 0.062335648 0.031433396 -0.07092837 0.06320897 -0.03187946
-0.00053267565 -0.044599436 -0.13759361 0.09214919 0.057866536 -0.0053522065 0.13707572 0.10376801
0.11106054 -0.04550747 0.09972709 0.040430244 0.018202348 -0.10935647 0.13776018 0.0402144
0.096183866 -0.052710827 -0.033365037 0.051417015 -0.123106174 -0.13057168 -0.009738627 0.07592145
-0.070589714 0.029031914 0.101966195 -0.041903872 -0.041499354 -0.08710458 0.06557433 -0.03915659
0.0028315077 0.017057262 0.049295735 0.025633974 -0.022213247 0.038604673 0.06823031 -0.08689978
0.06924654 -0.04951502 0.119588785 0.057854023 -0.11285988 -0.012759179 0.12142569 -0.029909572
-0.045866728 0.03391702 0.04289897 0.04950994 -0.02461691 -0.029140174 -0.0366037 -0.023284499
0.074446455 -0.04365269 -0.013382519 0.0163627 0.08107657 -0.036397938 -0.09202626 -0.11686552
-0.01916112 -0.094397105 0.06938252 0.069198206 -0.06815779 0.08156087 0.024874134 0.1591052
0.23686329 -0.13845295 0.115304425 0.11937926 0.07318481 -0.18929662 0.04796954 0.17344561
0.07018319 0.06214055 -0.023539029 0.1136605 -0.09252604 -0.05936826 -0.002119227 0.08861622

transformer.layers.1.0.norm.gamma f4 [8]
00000000: f383 943e 14c4 ec3d f489 a53e 1c5f 8d3e
00000010: 192d c33e aa64 b23e b1eb 0c3e be72 bb3e
0.2900692 0.115608364 0.32331812 0.27611625 0.38120344 0.34842426 0.13761784 0.3661098

transformer.layers.1.1.static_alpha f4 [4, 5]
00000000: 05b5 6f3f 0000 803f 0000 0000 0000 0000
00000010: 0000 0000 5ccb 0fbd 0000 0000 0000 803f
00000020: 0000 0000 0000 0000 498b 9bbd 0000 0000
00000030: 0000 0000 0000 803f 0000 0000 81b1 a6bd
00000040: 0000 0000 0000 0000 0000 0000 0000 803f
0.9363559 1.0 0.0 0.0 0.0 -0.035106048 0.0 1.0
0.0 0.0 -0.07594926 0.0 0.0 1.0 0.0 -0.08139325
0.0 0.0 0.0 1.0

transformer.layers.1.1.dynamic_alpha_fn f4 [8, 5]
00000000: b882 6e3b 0000 0000 0000 0000 0000 0000
00000010: 0000 0000 ea80 903d 0000 0000 0000 0000
00000020: 0000 0000 0000 0000 e74b 4bbb 0000 0000
00000030: 0000 0000 0000 0000 0000 0000 a9ee 813d
00000040: 0000 0000 0000 0000 0000 0000 0000 0000
00000050: 8a30 cdbd 0000 0000 0000 0000 0000 0000
00000060: 0000 0000 c5c2 3b3d 0000 0000 0000 0000
00000070: 0000 0000 0000 0000 af8a b33d 0000 0000
00000080: 0000 0000 0000 0000 0000 0000 1956 37bd
00000090: 0000 0000 0000 0000 0000 0000 0000 0000
0.0036393832 0.0 0.0 0.0 0.0 0.070558384 0.0 0.0
0.0 0.0 -0.0031020583 0.0 0.0 0.0 0.0 0.06344349
0.0 0.0 0.0 0.0 -0.10019024 0.0 0.0 0.0
0.0 0.045840044 0.0 0.0 0.0 0.0 0.08766686 0.0
0.0 0.0 0.0 -0.044759843 0.0 0.0 0.0 0.0

transformer.layers.1.1.static_beta f4 [4]
00000000: b949 7e3f f88b 543f 3bef 823f c6e9 533f
0.9933124 0.83026075 1.0229257 0.82778585

transformer.layers.1.1.dynamic_beta_fn f4 [8]
00000000: 1086 4d3e dbeb 0b3e 93f0 ef3d f3cc 3f3d
00000010: dc8f 29be 38d6 0e3e cf16 9b3d 837d 22be
0.20070672 0.1366419 0.11715808 0.046826314 -0.16558784 0.13948905 0.0757271 -0.15868191
