trained_models/physical_loss_training/model_lr0.00025_8_1_4_4_.3_.3PhysicsLambda4_date_20250811_epoch9500.pt (torch, 99377 bytes, 87 tensors)

cls_token f4 [1, 1, 8]
000000 6c 4f a6 3e e4 64 c4 3e 6b ce 15 3f ad 49 04 3f
       0.3248247 0.38358223 0.58518094 0.5167492
000010 a7 21 b2 3e 44 12 94 bf ab 14 14 c0 f7 ee d8 3f
       0.347913 -1.1568074 -2.3137615 1.6947926

categorical_embeds.weight f4 [3, 8]
000000 a7 7c 35 40 65 f2 59 bf 33 57 7d 3e 3f a4 f6 be
       2.8357332 -0.8513549 0.24740295 -0.48172185
000010 39 a1 21 3f e1 43 16 bf 49 df a3 be 7d 52 59 3f
       0.6313663 -0.58697325 -0.3200629 0.8489149
000020 05 b1 a9 be 2a 72 5f bf a2 08 be 3e 4b 35 03 bf
       -0.33142868 -0.87283576 0.3711596 -0.51253194
000030 02 73 16 bf 0f 7e 02 be d8 65 9c 3e d0 09 63 3f
       -0.5876924 -0.127434 0.3054645 0.8868685
000040 64 40 46 bf 5f 6a ca be ca f1 3f bf b8 e7 16 3f
       -0.77442 -0.3953428 -0.74978316 0.58947325
000050 1c 14 9d 3f 4d 19 40 3f 42 61 39 3f a6 38 ad bf
       1.2271762 0.75038606 0.7241403 -1.3532913

numerical_embedder.weights f4 [8, 8]
000000 ad 86 2a bf 02 c9 60 3f 8a 28 0c 3f d2 3e 61 bf
       -0.6661175 0.87806714 0.5474936 -0.8798648
000010 b7 6a 74 3f 1b 99 2b bf 3e 50 9e bc 65 75 c5 3f
       0.95475334 -0.67030495 -0.019325372 1.5426451
000020 b2 b1 12 3f 07 ba 10 3e 51 32 2b bf 24 19 04 bf
       0.5730239 0.14133464 -0.6687365 -0.5160086
000030 0d c9 02 bf a2 ef 03 bf 73 18 98 3f 76 9f 0e bf
       -0.5108803 -0.51537526 1.1882461 -0.5571207
000040 33 83 13 3f 18 36 4c bf 32 2a d1 bd 8d 5c 95 3f
       0.5762207 -0.7977004 -0.10213126 1.1668869
000050 71 33 20 c0 21 af 97 be ce 1d 42 bf b0 43 c7 3e
       -2.5031397 -0.296258 -0.7582673 0.3891883
000060 cb 26 24 bf e9 d6 99 3f 22 b1 c5 be 55 37 c5 3e
       -0.64121693 1.201871 -0.38611704 0.38518777
000070 47 33 e2 bd 16 dc 08 40 0b 26 08 bf d6 35 ed bf
       -0.110449366 2.138433 -0.5318305 -1.8532054
000080 02 ae c2 3d ff 23 ab be 38 60 30 bf b9 98 37 c0
       0.095058456 -0.334259 -0.6889682 -2.8686965
000090 15 3c c0 be 27 59 05 3f a3 37 c4 bf a2 2c 18 3f
       -0.3754584 0.5208916 -1.5329479 0.59443104
0000a0 ea ba 4a 3d 90 b4 83 3e d1 f2 15 3d 36 f0 ed bd
       0.04949466 0.25723696 0.03660852 -0.11618082
0000b0 b2 7a 2e bf b4 a5 52 bf 6b 73 04 40 f3 de 07 c0
       -0.6815597 -0.8228409 2.0695446 -2.1229827
0000c0 62 5d f2 3b 4f c2 d1 3e 7e 1c f4 3e 53 98 86 3f
       0.007396386 0.40968558 0.47677988 1.0515236
0000d0 46 eb 49 bf f7 28 b2 bd af f9 28 3f 75 d8 09 3f
       -0.78874624 -0.0869922 0.66005987 0.5384591
0000e0 73 3f 5b 3f 77 03 88 bf 31 32 44 bf 55 ed a6 be
       0.8564369 -1.0626057 -0.76639086 -0.32602945
0000f0 1a 18 02 bf a0 14 a2 3f f5 d3 4c 3f f4 d4 2e bf
       -0.50818026 1.2662544 0.8001092 -0.6829369

numerical_embedder.biases f4 [8, 8]
000000 58 78 ba bf 64 bc 9c 3e 85 6e 27 3f 5f 2e 14 40
       -1.4567976 0.3061248 0.65403014 2.3153303
000010 41 eb b2 3f bc 29 6c bf 77 d9 48 be a0 91 d8 3e
       1.3978044 -0.9225118 -0.19614206 0.42298603
000020 41 02 9f 3f c3 a8 f1 be 2b 87 6d 3f 97 00 29 40
       1.2422563 -0.47199067 0.92784375 2.640661
000030 4d 5d ea 3f 08 83 2e bf 7c ad a1 bf d0 e1 3c c0
       1.8309723 -0.6816869 -1.2631068 -2.9512825
000040 9d b1 0f 3f b5 b9 64 bf 96 3f f7 3e aa da 1d bf
       0.5613039 -0.89345866 0.482907 -0.6166178
000050 a3 00 5c 3f 1f 81 02 3e 69 c9 88 3e c5 c0 6c 3e
       0.8593847 0.12744568 0.26716164 0.2312041
000060 29 93 18 40 76 65 41 be 5a 39 1c 3f 4c ef 6c 3f
       2.383982 -0.1888636 0.6102501 0.9255264
000070 28 21 a0 3f 6c 52 32 c0 51 83 86 bf fd 1b 25 c0
       1.2510118 -2.7862806 -1.0508825 -2.5798333
000080 1d 95 bc 3f 4b bf 6e bf 0b 72 e6 3f 0e 6b 2c 3f
       1.4733006 -0.9326064 1.8003553 0.6735085
000090 88 cf 1b 3e c4 8d 3d 3f 08 94 96 3f 9b 06 a8 bf
       0.15215886 0.7404444 1.1763926 -1.3127016
0000a0 8d 63 9c bf 51 17 ed 3f 49 24 df bf 8a 43 bf bf
       -1.221788 1.8522741 -1.7432948 -1.4942486
0000b0 46 e2 b0 3f d2 2a 93 be bb ea 2b 3f 75 7f 87 3f
       1.3819053 -0.28743607 0.67155045 1.0585772
0000c0 0f e1 cc 3d 4d 6d 00 3f d4 40 25 3f 15 51 20 bf
       0.10003864 0.5016678 0.64552045 -0.6262372
0000d0 ed 3d 24 3f 30 ae 19 bf af 43 5d bf ad ca cf 3f
       0.6415699 -0.60031414 -0.864314 1.6233727
0000e0 d9 74 19 be ef 4a 07 c0 86 00 70 3e ee 41 00 be
       -0.1498598 -2.1139486 0.234377 -0.1252515
0000f0 a9 77 9e 3e 15 2e 22 bf 23 b4 a8 3e e4 30 96 be
       0.30950668 -0.63351566 0.32949933 -0.29334176

transformer.layers.0.0.static_alpha f4 [4, 5]
000000 65 df 18 bb 00 00 80 3f 00 00 00 00 00 00 00 00
       -0.0023326513 1.0 0.0 0.0
000010 00 00 00 00 65 df 18 bb 00 00 00 00 00 00 80 3f
       0.0 -0.0023326513 0.0 1.0
000020 00 00 00 00 00 00 00 00 0c 67 7f 3f 00 00 00 00
       0.0 0.0 0.9976661 0.0
000030 00 00 00 00 00 00 80 3f 00 00 00 00 65 df 18 bb
       0.0 1.0 0.0 -0.0023326513
000040 00 00 00 00 00 00 00 00 00 00 00 00 00 00 80 3f
       0.0 0.0 0.0 1.0

transformer.layers.0.0.dynamic_alpha_fn f4 [8, 5]
000000 a3 7e 0c 3c 00 00 00 00 00 00 00 00 00 00 00 00
       0.008575114 0.0 0.0 0.0
000010 00 00 00 00 d7 2d 90 bc 00 00 00 00 00 00 00 00
       0.0 -0.017599983 0.0 0.0
000020 00 00 00 00 00 00 00 00 67 e1 21 bc 00 00 00 00
       0.0 0.0 -0.0098804 0.0
000030 00 00 00 00 00 00 00 00 00 00 00 00 59 af 22 3b
       0.0 0.0 0.0 0.0024823754
000040 00 00 00 00 00 00 00 00 00 00 00 00 00 00 00 00
       0.0 0.0 0.0 0.0
000050 51 d6 59 3c 00 00 00 00 00 00 00 00 00 00 00 00
       0.013295726 0.0 0.0 0.0
000060 00 00 00 00 95 f3 c3 bc 00 00 00 00 00 00 00 00
       0.0 -0.02391986 0.0 0.0
000070 00 00 00 00 00 00 00 00 9a f7 d2 bd 00 00 00 00
       0.0 0.0 -0.103011325 0.0
000080 00 00 00 00 00 00 00 00 00 00 00 00 93 cb dc bb
       0.0 0.0 0.0 -0.006738135
000090 00 00 00 00 00 00 00 00 00 00 00 00 00 00 00 00
       0.0 0.0 0.0 0.0

transformer.layers.0.0.static_beta f4 [4]
000000 34 20 70 3f 54 b4 8b 3f 69 07 8b 3f d2 6c 86 3f
       0.9379914 1.0914407 1.0861636 1.0501959

transformer.layers.0.0.dynamic_beta_fn f4 [8]
000000 68 45 7e 3e a0 9c c2 bd 97 8c 26 3e f8 8d 9e 3e
       0.24831164 -0.0950253 0.16264568 0.3096769
000010 ab 04 cf 3d b4 74 3a bc b4 56 6f be e7 4b 14 3e
       0.10108312 -0.011380363 -0.23372918 0.1448208

transformer.layers.0.0.branch.norm.weight f4 [8]
000000 71 c9 a2 3f 52 68 83 3f 12 23 47 3f ee 93 77 3f
       1.2717725 1.0266211 0.7778789 0.967101
000010 a7 03 8b 3f a5 df 8a 3f 9a 1d 86 3f a2 ce 8a 3f
       1.086049 1.0849501 1.0477784 1.0844309

transformer.layers.0.0.branch.norm.bias f4 [8]
000000 bd 46 0f 3d d1 d6 d5 bc 74 d3 0c 3e a3 47 4e 3d
       0.03497957 -0.026103409 0.13752538 0.050361287
000010 f9 64 43 3c 4d 02 c7 bd 59 c2 64 3c 16 b8 a1 3c
       0.011925929 -0.09717236 0.013962352 0.0197411

transformer.layers.0.0.branch.to_qkv.weight f4 [192, 8]
000000 cb 7d 3d bb 8f eb 1c bf b8 2c 85 be 89 a8 65 3e
       -0.002891409 -0.61296934 -0.2601068 0.22427572
000010 53 31 e0 bd 05 cf d9 3e 27 6f 8d 3e 00 06 1e be
       -0.10946908 0.42540756 0.27623865 -0.15431976
000020 93 3c 24 be 6d 81 0b bd f0 fc 38 3e 89 fa 36 3e
       -0.16038732 -0.034058977 0.18065238 0.17869009
000030 61 3f 52 be e6 0b 36 be c9 47 2c 3e 6c 3e 01 3d
       -0.2053199 -0.17777976 0.16824259 0.03155367
000040 37 de d9 bb 4d 4d ad 3e 07 2f d6 3d 89 6c ba bc
       -0.0066488045 0.33848038 0.104581885 -0.022756832
000050 15 fb cd be 16 29 bd 3c 34 1d 1a be 0d 49 8e bd
       -0.40230623 0.02309088 -0.15050203 -0.06947527
000060 18 09 14 3e 18 20 e3 bc 8b d8 6d 3e 34 96 70 be
       0.14456594 -0.027725264 0.23227136 -0.23494798
000070 01 68 71 3e 4c de 2b be f3 c7 82 3b 9b d3 3b 3d
       0.2357483 -0.16784018 0.003991121 0.0458561
000080 8f 23 6c be 17 96 0b bf 48 59 16 be c2 b1 c7 be
       -0.2306044 -0.54525894 -0.14682496 -0.39002806
000090 21 f9 53 be 45 ca f8 3c 5d 88 b3 3e 57 84 fc bd
       -0.20700504 0.030369887 0.35064974 -0.12329929
0000a0 71 fd 74 be e2 90 2e 3e 73 3d f1 bd f5 ae 9d be
       -0.23924805 0.17047456 -0.11779299 -0.30797544
0000b0 30 a1 96 be 04 a4 5e be fe a8 3b be ff e0 9c 3c
       -0.2941985 -0.21742254 -0.18326184 0.019150255
0000c0 6e b2 07 3e 6a c7 17 3f 14 da 14 be 20 f7 51 be
       0.1325166 0.59288657 -0.14536315 -0.20504427
0000d0 20 bb ee be 6b 23 a3 be b7 4d 2b be 94 31 31 be
       -0.4662714 -0.3186296 -0.16728865 -0.17304069
0000e0 72 d2 0c bd 2a a6 f5 be 9c a8 9d bc 6c 4b d2 bd
       -0.034380384 -0.47978336 -0.019245438 -0.10268292
0000f0 80 14 39 bd ed d2 7f be ae 2e 09 be 3f 02 8e be
       -0.045185566 -0.24982806 -0.13396713 -0.2773609
000100 bd 33 0f 3d 6b 0b ff bd 0d 80 9c be e1 f9 a5 be
       0.03496145 -0.1245335 -0.30566445 -0.32417205
000110 92 3e 98 be 95 73 a0 3e 33 a0 ad bd 0f db 59 be
       -0.29735237 0.31338182 -0.08477821 -0.2127497
000120 a0 28 85 bd f3 37 da be a4 82 aa be d6 41 e0 3d
       -0.06501889 -0.4262081 -0.33302796 0.10950057
000130 29 11 56 be 94 12 6a bd 8d a8 19 3d fd bf 21 be
       -0.20904984 -0.057146624 0.03751426 -0.15795894
000140 8d db 99 be 3a 0e b9 be e1 82 8a bc 1e 84 7d bd
       -0.30050316 -0.36143667 -0.016908111 -0.061893575
000150 58 6c 27 3e e0 34 29 be 21 cb 91 3e ce ae e6 bd
       0.16349924 -0.16524076 0.28475288 -0.1126381
000160 1e 6c 72 3e 97 43 8c 3e 37 37 25 be 8a 89 91 be
       0.23674056 0.27395317 -0.16134344 -0.28425246
000170 aa ac 21 3e cb 7c 06 3e 34 4e 5a 3e 82 84 53 be
       0.15788522 0.13133542 0.21318895 -0.20656016
000180 c5 d3 81 3e b2 ff 1c 3e 29 23 17 be ff 53 3a 3d
       0.2535688 0.15331915 -0.14759506 0.04549026
000190 f2 23 91 be 5d b4 94 3c 03 b3 54 be 6d c8 e8 be
       -0.28347737 0.01815241 -0.20771413 -0.45465413
0001a0 cb 54 a9 be ff 6e c8 3e b1 25 a9 be d4 80 4a be
       -0.33072504 0.39147183 -0.3303657 -0.19775707
0001b0 2d c4 a5 be 59 71 ff 3d 44 0f 8e 3d bc 99 72 be
       -0.32376233 0.12472791 0.069365054 -0.23691458
0001c0 83 16 09 be 5a 97 a4 be d0 e9 82 be 1c 5e 6a 3e
       -0.13387494 -0.32146722 -0.2556901 0.22887462
0001d0 64 8b c1 3e 36 65 2b 3d 50 0e 1f 3e 60 1e 44 3d
       0.3780166 0.04184457 0.15532804 0.04788053
0001e0 a4 e7 cc bc 05 c4 4c bd b4 c4 8e bd cc 3c 1b 3e
       -0.025012799 -0.049991626 -0.06971112 0.15159911
0001f0 b3 94 a5 be 9b 25 be bd 83 24 b4 bd 5d 1b c3 be
       -0.3234001 -0.092845164 -0.087960266 -0.38106814
000200 95 80 91 3d 7b 1e 1d be 38 56 e0 bd fa 15 c8 bd
       0.07104603 -0.15343659 -0.10953945 -0.09769817
000210 5c 21 51 3e e0 76 ac 3e 64 bd 85 3d 10 36 9e be
       0.20422882 0.33684444 0.06530264 -0.3090062
000220 3c 6c 5c bd 46 3b ab be 19 74 c8 be 00 dd d9 be
       -0.053814158 -0.3344366 -0.39151075 -0.42551422
000230 66 f5 68 3e 20 04 52 bd 4a b0 8b be c9 b2 95 3e
       0.22749862 -0.051273465 -0.27282935 0.29237965
000240 47 94 9f 3e 80 01 79 bc bb 29 57 3e d4 61 db 3e
       0.31167814 -0.0151981115 0.21012013 0.42848074
000250 41 86 b2 3d d8 48 03 3e 0d 8a f1 bd 6f 01 de 3e
       0.08717013 0.12820756 -0.11793909 0.4336047
000260 72 1b 59 be 8f b7 af 3e 32 e5 39 bd 5f e5 3f 3e
       -0.21201876 0.34319732 -0.045384593 0.18739842
000270 34 8e 5f 3d ae 76 3f be 79 f8 c5 be 88 fe 95 bb
       0.054578975 -0.18697616 -0.38666132 -0.0045774616
000280 45 0b 34 be ff ab 64 be ba ad b6 be 50 63 88 bd
       -0.17582424 -0.22331236 -0.35679418 -0.06659567
000290 3b 21 28 bd 02 48 89 be dc 81 8f 3e c4 61 59 be
       -0.041047316 -0.2681275 0.28028762 -0.21228701
0002a0 e5 22 99 be e7 16 8f 3e 17 69 02 be 91 1f ed bd
       -0.29909435 0.2794716 -0.12735401 -0.115782864
0002b0 2f c8 5b 3d c6 c4 9f 3d a6 9c 41 be f1 95 78 3e
       0.053657707 0.078012034 -0.18907413 0.24275948
0002c0 5a a5 a2 3e 07 ed aa be 55 34 a2 3e 99 b8 4b be
       0.31766778 -0.33383963 0.3168055 -0.19894637
0002d0 d6 c2 22 3d 51 7c 20 3e de 76 91 3e 35 1a 8d be
       0.03973659 0.15672423 0.28411 -0.27559057
0002e0 86 ab 23 be 95 cb b2 be ba c1 6a 3d 26 dc ff 3d
       -0.159834 -0.34920946 0.05731366 0.12493162
0002f0 f8 8f dc 3c 42 a4 e8 3e 36 09 af 3e e3 68 67 be
       0.026924118 0.4543782 0.34186715 -0.22598605
000300 f5 bf 46 bd be fe bc 3e 45 64 2b be cc 33 96 3e
       -0.04852291 0.36913103 -0.16737469 0.29336393
000310 fe bd 93 3e 94 1a b3 be 17 53 df be 26 68 8b 3e
       0.2885589 -0.34981215 -0.4361808 0.27227896
000320 6f 79 c0 be a7 33 7c be ff 0e 4c be a4 f1 cc bd
       -0.37592646 -0.24629079 -0.19927596 -0.10007027
000330 3e e0 6d bd 0b cc 47 3e 5e e7 58 3e ff 7f 84 be
       -0.058075182 0.1951143 0.2118201 -0.25878903
000340 e4 f9 9f be 6d 74 f4 3d ad c0 b1 be 79 1d e1 be
       -0.3124534 0.11936269 -0.34717312 -0.43967798
000350 fc c9 19 bd 75 c1 94 3e 4a d1 95 3e c8 c0 08 bf
       -0.037546143 0.29053846 0.29261237 -0.5341916
000360 9d 6d a5 3d 3b 65 95 3e 37 dd 1b be 2b 5d a5 3e
       0.08077548 0.29178795 -0.15221106 0.32297644
000370 e2 82 23 be 2e 74 af be c2 cc d8 bd bb 61 04 3f
       -0.15967897 -0.34268326 -0.105859295 0.51711625
000380 ea 90 83 3e 18 a0 8c 3e 87 b8 99 3e b0 cb d0 3d
       0.25696498 0.27465892 0.30023596 0.101951
000390 c9 41 9c bd dc 96 e1 be 7a 17 76 bb df 94 f6 3e
       -0.07629735 -0.4406041 -0.0037550614 0.48160455
0003a0 89 01 15 3d 26 ae 84 3c f1 08 d9 3e 7d 7c dc 3e
       0.036378417 0.016196322 0.42389634 0.43063727
0003b0 1e 99 21 3e 72 a0 ce be d5 af c8 be e1 f9 8d bc
       0.15781066 -0.40356785 -0.3919665 -0.017331066
0003c0 87 2f 2a 3e 27 99 76 3e 0d e2 ec 3e 32 17 a1 3e
       0.16619693 0.2408186 0.46266213 0.3146301
0003d0 75 01 c4 3c 83 a6 95 be 14 03 26 bf fb 15 89 3e
       0.023926476 -0.292286 -0.64848447 0.26774582
0003e0 52 c0 9b be 7b 8a 2c be 09 b6 0a 3e 7f a8 4a 3e
       -0.30420166 -0.16849701 0.13546003 0.19790839
0003f0 83 e4 10 3d 90 89 c8 3e 1e a3 c8 3e f2 1b 9d bd
       0.035374176 0.39167452 0.3918695 -0.07671346

transformer.layers.0.0.branch.to_out.weight f4 [8, 64]
000000 70 65 b4 bd e7 76 11 3e e2 d1 20 bc 62 20 cc bc
       -0.0880841 0.14205514 -0.009815665 -0.024917785
000010 3b 2f 25 3e 03 a6 cd bc 35 21 13 3e 28 4e 4d be
       0.16131298 -0.025103575 0.14368136 -0.20049345
000020 e2 64 a8 3d 0c 2e 25 3e f2 89 1c 3d b4 b6 8e bc
       0.08222367 0.16130847 0.038217492 -0.017421104
000030 1b fe 4f bd 40 c6 31 bd a4 11 49 3d 60 4d 1c 3d
       -0.050779443 -0.043401957 0.04908909 0.038159728
000040 88 d0 c0 bd 3c b9 09 3d 95 f0 62 3c 43 f3 1f 3c
       -0.09414774 0.03362392 0.013851305 0.009762588
000050 7a 4e f8 bd 50 15 30 bc 27 79 25 bd f3 51 b5 bd
       -0.12124343 -0.010747269 -0.040398743 -0.08853521
000060 65 92 95 bd 75 06 8c bd 41 10 b4 bd 1f f5 5e bd
       -0.07303313 -0.06837169 -0.08792163 -0.054432984
000070 5e 26 7f 3d da 58 0c 3e aa 90 3c 3d e5 8f a9 bd
       0.06229245 0.13705769 0.0460364 -0.08279399
000080 2a fd 9a 3d 41 5d 0e 3d 2e 9a bd bd 49 45 c0 bd
       0.075678185 0.034756903 -0.09257923 -0.09388215
000090 26 d7 1b 3e dd 69 a6 bd 9c 28 11 3c 82 33 7d ba
       0.15218791 -0.081256606 0.00885978 -0.00096588593
0000a0 52 9e 69 bd c9 82 f8 bd a3 42 13 3e 02 a2 e7 bc
       -0.05703575 -0.1213432 0.14380889 -0.028275494
0000b0 6f 7f b6 bc 66 41 a8 3c 42 b2 b8 bd ec ab d3 bd
       -0.022277562 0.020538997 -0.09018375 -0.10335526
0000c0 83 72 12 3d 07 96 4b 3e 87 8a d0 3c cb 47 f5 3d
       0.035753738 0.1988145 0.02545668 0.11976584
0000d0 58 82 f7 3e 1d 99 99 3c 95 a4 03 bf e7 d1 bc 3c
       0.48341632 0.018749768 -0.5142301 0.023049308
0000e0 ef 8c 77 3a bf ad f2 3e a7 74 8b bd 9e 9f 16 bc
       0.0009443303 0.47398183 -0.06809359 -0.009193329
0000f0 cf d7 8c 3d 0f f2 75 bd 0f 5c 06 3d 97 6a 38 bd
       0.068771 -0.0600453 0.032802638 -0.045023527
000100 5c 7b c0 3d 05 3b bc 3d 82 f8 a6 3d 2b bf 0c 3e
       0.09398529 0.091909446 0.08152868 0.137448
000110 33 50 b7 3d 9c fb 61 be e0 ce 4d 3e 72 5e 24 be
       0.08950844 -0.22068638 0.20098448 -0.16051653
000120 6c bb fa bd 19 00 0f bd 3d 73 d6 3c 94 2d a0 bd
       -0.12242779 -0.034912203 0.026177997 -0.07821193
000130 6f b2 21 bd b6 7c 3f be ff 49 f7 3d 76 de 18 3e
       -0.03947681 -0.18699917 0.120746605 0.14928612
000140 7b 1d d9 bd f1 1a 67 bc e8 71 e9 b9 e7 c2 fd bd
       -0.10601326 -0.014105544 -0.0004452609 -0.1239069
000150 3a 74 b6 bd 5f b3 af bc 40 a1 c9 bd 1c 38 a2 3d
       -0.08908887 -0.021447835 -0.09845209 0.07920858
000160 75 e7 79 bd f4 a6 19 3d f7 70 11 3e 84 c4 a4 bd
       -0.06101175 0.037512735 0.14203249 -0.08045295
000170 75 50 34 3d d2 7b 35 3c 05 f5 26 3d 90 24 a9 bd
       0.044022042 0.011076884 0.040761013 -0.08258927
000180 d5 bf 09 3d 3c a5 2d 3e 59 e1 40 3c 83 58 a6 3d
       0.03363021 0.16957563 0.011772477 0.08122351
000190 35 f9 b5 bc 6f 8f 78 bd 92 76 cd 3d 63 69 e3 3d
       -0.022213558 -0.060683664 0.10032381 0.11104085
0001a0 84 51 8b bc f0 0e 88 bd 76 42 e4 bd 39 5f fc 3c
       -0.017006643 -0.06643474 -0.11145489 0.030807124
0001b0 82 93 e9 3c 02 77 ba 3d d7 06 9e bd b0 02 96 bc
       0.02851272 0.0910473 -0.07716148 -0.018311828
0001c0 3e 8d 76 3d 08 36 0d be aa a2 cd bd e2 36 20 be
       0.060193293 -0.13790143 -0.10040791 -0.15645936
0001d0 36 42 ea be 93 58 86 be dd af 13 3f 2b 09 3b bd
       -0.4575364 -0.26239452 0.5769022 -0.04566304
0001e0 df a2 a9 bd 6e a5 61 bf e3 3b b8 3d a3 53 a6 bd
       -0.08283018 -0.8814305 0.089957975 -0.08121421
0001f0 16 7f 74 3d 3f 3f 5d 3e 9d 07 b6 be 64 98 58 bd
       0.05969151 0.21606158 -0.35552683 -0.052879706
000200 4b 9b 22 be 00 f8 9b bc 47 52 83 bd 80 53 c0 bd
       -0.15879552 -0.019039154 -0.064121775 -0.09390926
000210 86 47 88 3c 85 57 0a 3e 93 e7 e7 bc 63 dd 8d 3d
       0.016635668 0.13509949 -0.028308665 0.06926992
000220 03 d0 54 3e 93 2c d4 bd f1 1f eb bd 7f f1 89 3d
       0.20782475 -0.10360064 -0.11480702 0.06735515
000230 cf 18 41 3e a1 7e 9a bd 1e ce ac bd 6f 51 2a be
       0.1885712 -0.07543684 -0.08437751 -0.16632627
000240 09 35 74 3d bf 0b 12 3c 9d 28 bd bd 42 80 c3 3d
       0.05962089 0.008913933 -0.09236262 0.095459476
000250 0c 86 c8 3d 96 c6 47 bd d1 cd 61 3d 0e 9c 85 3d
       0.097911924 -0.04877337 0.055127922 0.06523906
000260 37 f8 04 be be ad 25 3d 27 13 04 bd 3e b0 ef bd
       -0.12985311 0.040448897 -0.032244828 -0.117035374
000270 b3 7b f2 3d e2 34 94 bc 27 05 02 bd 46 f9 6b 3d
       0.1184 -0.018091623 -0.031743195 0.057610773
000280 78 7f 95 3d 18 fa c3 bc fa 4b 99 bd a0 ec 5f 3d
       0.07299703 -0.023922965 -0.074851945 0.054669023
000290 ee 69 b2 3c 77 d6 84 3b 15 5e 94 bd 34 2d 12 3c
       0.021779027 0.0040538865 -0.07244507 0.00892191
0002a0 90 6f df bc 56 7b 1c 3d aa 35 83 bb 15 66 89 bc
       -0.027274877 0.03820356 -0.0040042 -0.01677231
0002b0 55 de b9 3c b5 a4 19 3e 26 fc c3 3d 2d 3d 3c bd
       0.022689024 0.15004237 0.09569578 -0.04595678
0002c0 78 74 07 3d 3c 07 e2 3d ad e9 f6 3d 12 27 35 bb
       0.033070058 0.11036536 0.12056289 -0.0027641696
0002d0 3a 8b c5 3b 5d cf 1f 3c a7 2c c0 be 89 aa e3 3d
       0.00602856 0.009754029 -0.37534067 0.111165114
0002e0 56 a3 0b bd f0 df 4a 3e f9 38 13 be cb 16 04 3c
       -0.034091316 0.19811988 -0.14377202 0.008062075
0002f0 9c 9a a6 3d 01 88 2f be 44 56 42 3d 33 2f 0c 3e
       0.08134958 -0.17141725 0.04744555 0.1368988
000300 3d 79 78 bd 9a b6 d9 bb af 3f 2e bd a8 a0 80 3d
       -0.060662497 -0.0066440823 -0.042541202 0.06280643
000310 b1 cb 13 3e dc 97 88 3d 7e a5 38 bc fe b2 1e be
       0.14433171 0.0666959 -0.011269925 -0.15497968
000320 92 91 8f 3d bd 3b 88 3c 1b 58 3e bd d9 32 24 be
       0.07010187 0.016630048 -0.046470743 -0.16035022
000330 34 76 d7 3b f4 ed 49 bd db c3 c2 3d 50 82 99 3d
       0.00657537 -0.049299195 0.09510013 0.07495558
000340 73 91 70 bd 59 19 e2 bd 4c e5 1a bb ac b2 af bc
       -0.05873246 -0.11039991 -0.0023635207 -0.021447502
000350 4a 41 98 bd eb 36 22 bd 02 12 2d 3d ea e2 6c bd
       -0.07434328 -0.039603155 0.0422535 -0.05783359
000360 73 10 70 3c 76 10 0c 3e 7b 81 f2 bd 25 25 cd 3d
       0.014652359 0.13678154 -0.11841103 0.100168504
000370 da d9 2a 3d bf 2b 6d 3d 3b 5c 7f 3d 20 25 f3 3d
       0.041711666 0.057903048 0.062343817 0.118723154
000380 4b 20 e6 bc ce 00 8d bd 40 79 88 bd 47 ce bc bd
       -0.02809157 -0.06884919 -0.066637516 -0.09219032
000390 e2 f9 23 bd 92 e3 be bb 4d a9 33 be 45 22 c0 3d
       -0.04003323 -0.0058254683 -0.17545052 0.093815364
0003a0 e1 a8 f5 bc 37 75 35 3e 16 75 91 3d f8 7a 43 be
       -0.029987754 0.17720495 0.071024105 -0.19089878
0003b0 75 f1 25 bd 34 f3 46 bd 4b b8 91 3d dd a9 66 bd
       -0.040513474 -0.04857178 0.07115229 -0.056314338
0003c0 cb 7d 1e be 3c 5b 10 3e bb 0e 08 3d af 7a ac 3d
       -0.15477674 0.14097303 0.033217173 0.084218375
0003d0 05 43 ee 3e c8 c0 2d 3e 09 90 97 be 21 4f 0a bd
       0.46535507 0.16968071 -0.29602078 -0.03376687
0003e0 15 7d 69 bd 78 dd eb 3e aa 24 88 3d d5 3a 06 3e
       -0.057004053 0.46067405 0.06647618 0.1310838
0003f0 cf e3 fb 3c d3 5c 4f be d8 67 02 3e d7 24 9d 3d
       0.030748276 -0.20250253 0.12734926 0.07673042

transformer.layers.0.0.norm.gamma f4 [8]
000000 73 78 93 3e 4b 0f 95 3d 01 3e 30 3e eb 5b a2 3e
       0.28802833 0.072783075 0.17211153 0.31710753
000010 c0 66 e3 3d a7 29 86 3c ca e5 81 3e 0a a3 29 3e
       0.111035824 0.016377283 0.25370628 0.165661

transformer.layers.0.1.static_alpha f4 [4, 5]
000000 53 81 61 3f 00 00 80 3f 00 00 00 00 00 00 00 00
       0.8808796 1.0 0.0 0.0
000010 00 00 00 00 df f4 c9 bd 00 00 00 00 00 00 80 3f
       0.0 -0.098611586 0.0 1.0
000020 00 00 00 00 00 00 00 00 ff b7 e6 bd 00 00 00 00
       0.0 0.0 -0.11265563 0.0
000030 00 00 00 00 00 00 80 3f 00 00 00 00 83 60 1c be
       0.0 1.0 0.0 -0.15271191
000040 00 00 00 00 00 00 00 00 00 00 00 00 00 00 80 3f
       0.0 0.0 0.0 1.0

transformer.layers.0.1.dynamic_alpha_fn f4 [8, 5]
000000 23 14 ea bc 00 00 00 00 00 00 00 00 00 00 00 00
       -0.028574055 0.0 0.0 0.0
000010 00 00 00 00 20 e2 17 be 00 00 00 00 00 00 00 00
       0.0 -0.14832354 0.0 0.0
000020 00 00 00 00 00 00 00 00 98 17 79 3e 00 00 00 00
       0.0 0.0 0.24325407 0.0
000030 00 00 00 00 00 00 00 00 00 00 00 00 37 e8 5d bc
       0.0 0.0 0.0 -0.013544134
000040 00 00 00 00 00 00 00 00 00 00 00 00 00 00 00 00
       0.0 0.0 0.0 0.0
000050 16 db 7a 3d 00 00 00 00 00 00 00 00 00 00 00 00
       0.061244093 0.0 0.0 0.0
000060 00 00 00 00 d2 76 d0 3d 00 00 00 00 00 00 00 00
       0.0 0.10178913 0.0 0.0
000070 00 00 00 00 00 00 00 00 13 87 b2 bd 00 00 00 00
       0.0 0.0 -0.087171696 0.0
000080 00 00 00 00 00 00 00 00 00 00 00 00 0d 33 ff 3d
       0.0 0.0 0.0 0.12460909
000090 00 00 00 00 00 00 00 00 00 00 00 00 00 00 00 00
       0.0 0.0 0.0 0.0

transformer.layers.0.1.static_beta f4 [4]
000000 a8 6e 39 3f 5a c3 a3 3f 2c a1 8b 3f 12 ac 56 3f
       0.72434473 1.2793992 1.0908561 0.8385631

transformer.layers.0.1.dynamic_beta_fn f4 [8]
000000 a0 2e aa be 88 83 cd bd 3f 36 5e be 92 e5 7a be
       -0.33238697 -0.10034853 -0.2170038 -0.24501637
000010 90 4b 5c 3e 5c c1 b6 3e 9f df 41 3e 02 43 0d bf
       0.215132 0.35694396 0.18932961 -0.5518037

transformer.layers.0.1.branch.0.weight f4 [8]
000000 51 11 73 3f 8b 9a 89 3f 5a 1b 82 3f 22 dc 6d 3f
       0.949483 1.0750288 1.0164597 0.9291402
000010 46 31 8b 3f 4b a4 87 3f 6f df 76 3f 8d 97 a1 3f
       1.0874412 1.0597013 0.9643468 1.2624375

transformer.layers.0.1.branch.0.bias f4 [8]
000000 88 fa de 3b 9d 01 b1 3d 96 53 84 3d 90 71 9e bd
       0.006804768 0.08642886 0.06461255 -0.07736504
000010 83 99 a7 bd 4d f3 bd 3d 40 d3 16 3d db 62 66 3d
       -0.08183577 0.092749216 0.036822557 0.05624662

transformer.layers.0.1.branch.1.weight f4 [64, 8]
000000 ec 30 42 3d 9b 74 3e 3e 39 2a 04 3f da 59 c5 3e
       0.047409937 0.18599169 0.51626927 0.38545114
000010 89 94 2b be 1b 0d 11 3f 79 16 f1 bc 19 36 b2 bd
       -0.1675588 0.5666062 -0.029429661 -0.087017246
000020 31 7d 8c bd cc b4 bc 3e 3b 97 6f be 0e a6 36 be
       -0.06859816 0.36856687 -0.23397534 -0.17836782
000030 a1 2d 1e be c7 7a e9 3e 24 ee 74 be b3 37 fc 3a
       -0.15447094 0.45601484 -0.23918968 0.0019242674
000040 8a 24 d7 be ac 7c fa 3c 3e f1 2c be 7e e1 cb bd
       -0.42020065 0.030577026 -0.16888902 -0.099551186
000050 b2 46 aa 3e 22 d4 57 3e 51 a4 80 be 4d 45 3d 3e
       0.3325706 0.21077016 -0.25125363 0.18483467
000060 3e 67 b4 3d 10 b7 80 be dc 4d 04 3d 0b 9d 50 be
       0.088087544 -0.25139666 0.032300815 -0.20372407
000070 72 13 d8 bd 9e 64 66 3d 90 96 8f be ca 93 83 be
       -0.10550584 0.0562483 -0.28044558 -0.25698692
000080 45 33 4d bd 6f 9c 92 3e ff 06 3e be 24 6d 6d be
       -0.050097723 0.28634974 -0.18557356 -0.23186165
000090 0b fc 06 3d 9f ae b1 3e a7 55 8c be 61 e2 d3 3e
       0.03295521 0.34703538 -0.27409098 0.4138365
0000a0 76 07 a8 3d 24 71 89 3e 06 e1 e0 bd a8 9b a2 be
       0.08204548 0.26844132 -0.1098042 -0.3175938
0000b0 0a d3 06 3c 35 d7 55 3d c9 97 dd 3e 91 13 d9 3e
       0.008229027 0.05220719 0.43279865 0.4239774
0000c0 95 41 53 be c2 0e ca bd 2a 31 7f be be aa 9e 3d
       -0.20630486 -0.09866096 -0.24921098 0.0774741
0000d0 09 d6 a0 bd 06 50 33 3d 0a 0e 21 3e 9e 68 81 be
       -0.07853324 0.04377749 0.15728012 -0.2527513
0000e0 93 38 cf be 16 b7 97 3d 9a b6 19 3d ad c4 18 be
       -0.4047285 0.07407968 0.037527658 -0.14918776
0000f0 b6 72 c9 3e d0 bd 8d be a4 ea 9c be 24 39 66 be
       0.3934533 -0.27683878 -0.30647767 -0.22482735
000100 4b 92 33 be 77 7c 54 be e6 09 48 3e d7 05 2f bc
       -0.17536275 -0.20750605 0.19535026 -0.010682545
000110 80 de 83 3b f5 41 47 be 65 75 ce bd 82 36 6a be
       0.004024327 -0.19458754 -0.10080985 -0.22872356
000120 d5 ff 8f 3e c8 d4 14 bd b9 92 5a be 08 1d 16 be
       0.28124872 -0.036335737 -0.21345033 -0.14659512
000130 e5 bc 7e 3e d2 b9 82 bd 9f 26 3b be fd ba fd ba
       0.24876745 -0.06383099 -0.18276452 -0.0019358095
000140 93 86 53 be 06 dc 99 be 50 9b e9 3e b1 51 a1 bc
       -0.20656805 -0.30050677 0.45626307 -0.019692274
000150 cd cd c0 bd 81 cb 82 bc bd cb 9a bc 65 df 44 bb
       -0.094142534 -0.015966179 -0.018895978 -0.003004038
000160 87 80 bb bc e0 f7 36 be fa bb a7 3e 25 f7 2d 3e
       -0.022888435 -0.17867994 0.32760602 0.1698881
000170 5c 81 af be 8e 5c ca bd 68 75 21 3e a9 a2 d9 be
       -0.3427838 -0.09880935 0.15767443 -0.42506912
000180 11 b9 ba 3d 49 80 2e 3e ee 81 b8 bb 54 31 af be
       0.0911733 0.17041124 -0.005630723 -0.34217322
000190 cb 97 20 be 82 e2 29 be 59 3a b8 3e 64 a8 f8 3e
       -0.15682904 -0.16590312 0.35982016 0.48565972
0001a0 20 16 8d 3d ec f7 04 be 73 f0 ff bd e1 c4 59 3e
       0.06888986 -0.129852 -0.12497034 0.2126651
0001b0 49 cf e2 3e 43 d0 80 be 35 30 60 bd 4c 23 3e 3e
       0.4429877 -0.2515889 -0.054733474 0.18568152
0001c0 40 18 ce 3e d2 03 d3 3b 34 4c 83 3d 57 30 7f bd
       0.40252876 0.0064396644 0.06411019 -0.06230196
0001d0 d1 fd 21 3e 57 c1 c6 be c5 cb 43 3e b4 6f cb 3e
       0.1581948 -0.38819382 0.191207 0.3973366
0001e0 29 9a 61 bb a7 17 95 3e 45 43 1b bd ac 8c bb be
       -0.0034424162 0.29119608 -0.03790595 -0.36630762
0001f0 f5 cc 12 bc 5b a7 d9 be 6a 60 66 be 41 0a 00 be
       -0.008959998 -0.42510495 -0.22497717 -0.12503912
000200 ab 71 c3 bc 35 7e 2d be ec 8d a9 3e 1e 78 82 be
       -0.023857912 -0.16942675 0.3311609 -0.25482267
000210 49 86 e2 be 65 24 43 3e 8f 57 22 be 55 5a 13 3e
       -0.44243076 0.19056852 -0.15853713 0.14389928
000220 8f 61 92 3e d7 5a be 3c 4a ca 60 be be 8f 18 3d
       0.28590056 0.023236675 -0.21952167 0.03724646
000230 dd d3 af 3e 1a 45 9f bc 13 fb 42 3e 2c 48 21 3e
       0.34341326 -0.01944213 0.1904109 0.15750188
000240 ea dd 94 be 26 3e 3b bd a8 4d 2a 3e 81 3c 78 bd
       -0.29075557 -0.045713566 0.16631186 -0.060604576
000250 8e d8 20 3d da 11 94 3e 9b 1d 83 be 17 fc ad be
       0.039269023 0.2891987 -0.25608525 -0.33981392
000260 79 bd eb bd c4 6c 3d be 5e 4b ff bd 9a 3b a0 3e
       -0.115107484 -0.18498522 -0.12465547 0.31295472
000270 b2 a6 7a be 9e 2a 6e be 00 19 34 be fc 1c 36 be
       -0.24477652 -0.23258445 -0.17587662 -0.17784494
000280 57 49 f6 bd cf 3c 90 3d ad fc c4 be 55 f9 21 be
       -0.12025707 0.07042848 -0.38474026 -0.15817769
000290 d9 a9 83 3e cf 26 6c be 55 c1 28 3e 09 81 02 3f
       0.2571552 -0.2306168 0.1648 0.5097814
0002a0 27 ed 39 bc 2d a1 84 bd a2 af 74 bd f4 4b 92 3d
       -0.011348045 -0.06476054 -0.05973781 0.07143393
0002b0 2d cd 98 bd de 4b 90 3e 66 81 ac be 87 21 55 be
       -0.07461009 0.28182882 -0.33692473 -0.20813571
0002c0 25 ea f0 bb 83 25 d3 bd 55 bd ec 3d 8d f5 20 be
       -0.007352131 -0.10309889 0.1155955 -0.1571867
0002d0 aa d9 84 3e b3 d8 8d bd 48 cc 64 3d 24 4d 51 3e
       0.25947315 -0.06926098 0.05585888 0.20439583
0002e0 ab 75 c8 bc 19 09 31 bf ae f1 cf bd 16 88 66 3e
       -0.024470171 -0.69154507 -0.101535186 0.2251285
0002f0 3e 59 bd bd d3 5b 2a 3e bc 42 4e be 32 c9 c0 3e
       -0.09245537 0.1663659 -0.20142645 0.376535
000300 d7 b4 30 bd 36 6b 0b 3d c6 a4 05 bd af 48 c5 3d
       -0.043141212 0.03403779 -0.032627843 0.09633004
000310 9f 18 9b be c1 4e e3 3e 06 66 84 3d 2e c1 6b be
       -0.30292222 0.44396022 0.06464772 -0.23022911
000320 af 7d 1d be bc 8b bb 3e c2 1f f6 bd 2c 3b a8 be
       -0.15379976 0.36630046 -0.12017776 -0.32857645
000330 e0 c0 5a 3e c0 82 ee 3d 36 15 b3 3c 36 5b a6 be
       0.21362638 0.11646032 0.0218607 -0.32491463
000340 85 d1 c9 3e 1b cd 18 3e e2 99 a6 3d bf 54 aa be
       0.39417663 0.14921992 0.081348196 -0.3326778
000350 9c 98 64 be fa 13 f8 bd 05 50 30 be 21 8c d1 3e
       -0.22323841 -0.12113185 -0.17218025 0.40927222
000360 c3 63 16 3e 84 1d 31 3e 9c d7 8e be 2d 72 c1 bd
       0.14686494 0.17296416 -0.27898872 -0.094456054
000370 57 6c c6 be c1 34 80 3e 72 c0 3a be 68 5e fb bd
       -0.38754532 0.25040248 -0.18237475 -0.12273866
000380 c6 09 32 3e a9 d3 ed bd b2 50 4f 3e 51 8d 91 bd
       0.17386541 -0.116126366 0.20245627 -0.07107032
000390 88 1c 67 3e e1 f8 c7 3d 32 ab 59 bc dc 13 c8 3e
       0.22569478 0.09764267 -0.013285445 0.39077652
0003a0 d2 53 66 3e 0e 24 97 be 14 d6 59 be d7 e0 3c bd
       0.22492912 -0.29519695 -0.2127307 -0.04611286
0003b0 15 98 9a 3e b0 d7 62 be 37 12 c5 bd 11 21 bb be
       0.30194154 -0.22152591 -0.09622615 -0.36548665
0003c0 8e ed b4 bd ff d1 bd 3d 4f cb 06 bd 51 e8 d6 3d
       -0.088343725 0.09268569 -0.032908734 0.104935296
0003d0 16 56 96 3e c6 e8 18 bf 1a fe 1f 3e 74 c4 be 3d
       0.29362553 -0.59730184 0.15624276 0.09314814
0003e0 ab 96 b4 be 89 ad ec bd c2 b9 07 3e b5 90 5d 3e
       -0.352712 -0.11556537 0.13254455 0.21637233
0003f0 94 95 b1 3d e8 7e e9 bd c5 c2 7c be 09 63 e1 be
       0.08671108 -0.114011586 -0.24683674 -0.4402087

transformer.layers.0.1.branch.1.bias f4 [64]
000000 87 6c a6 be c9 56 a9 3d 82 e2 55 3d 1d b0 a6 be
       -0.32504675 0.08268506 0.052217968 -0.3255624
000010 3c e9 02 be ce eb a3 3e b0 a9 99 3d 64 db 64 3e
       -0.12784284 0.32015842 0.075030684 0.22349316
000020 89 f5 9e bd bf bd b1 be 1a a9 5e 3e b4 77 f5 3e
       -0.07761676 -0.34715077 0.21744195 0.4794289
000030 85 7e 0e be 75 54 b9 be 8d 2e 96 be a1 0f c8 be
       -0.13915451 -0.36197248 -0.2933239 -0.39074424
000040 75 4c 19 3e 97 c7 78 bc 66 4c 7b 3c 90 22 28 3e
       0.14970572 -0.015184305 0.015338039 0.16419435
000050 ac 31 4e be 1a 59 97 3e 6c 85 99 be ca ed 94 bc
       -0.20136136 0.29560167 -0.29984605 -0.018179793
000060 78 37 8b 3e 93 40 75 3e 79 1e b7 bd 16 34 a8 3c
       0.27190757 0.23950414 -0.08941359 0.020532649
000070 93 17 56 be 15 8e d3 3d c3 99 ad be 3e 52 3b be
       -0.2090743 0.10329834 -0.33906373 -0.18293092
000080 e3 f0 3a 3e d6 3d d3 39 ea c7 8f 3e da 19 99 be
       0.18255953 0.00040291128 0.2808221 -0.29902536
000090 f2 e1 89 3e c0 53 33 be 1d c6 02 3e c8 8c 17 3d
       0.26930195 -0.17512417 0.12770887 0.036999494
0000a0 2f 11 bc 3d f6 d7 5d 3d 56 d6 80 be 22 20 86 3e
       0.09182965 0.054161035 -0.25163525 0.2619639
0000b0 c2 57 87 bb 63 58 39 be 76 25 8b be 2e 17 b1 3e
       -0.0041303346 -0.18100123 -0.27177018 0.34587997
0000c0 01 11 67 3e ca 90 8a 3e 00 1e 17 be d3 c9 03 3e
       0.2256508 0.2706359 -0.14757538 0.12869959
0000d0 ed 03 9d 3e 4e 4e 70 3e 81 78 c3 be 0e ae 8a be
       0.30667058 0.23467371 -0.38177875 -0.27085918
0000e0 05 ad a5 3d c8 32 e0 bd 10 97 9a 3c fe 6f 62 be
       0.080896415 -0.10947186 0.01887086 -0.22113034
0000f0 82 d0 88 be 4b 4c b3 3e 59 d7 bd 3c 7b 55 50 3e
       -0.2672158 0.35019144 0.023173975 0.20345108

transformer.layers.0.1.branch.4.weight f4 [8, 32]
000000 55 32 27 3e bf b5 7b 3e 34 72 84 3d 53 52 63 bb
       0.16327794 0.2458105 0.06467095 -0.003468652
000010 61 5f 80 bd 9a a2 58 bd 00 91 3a be 29 c9 29 3e
       -0.06268192 -0.052889444 -0.18219376 0.16580643
000020 48 af 1e bd 35 56 80 3d 06 12 9d bd df a8 12 be
       -0.03874138 0.06266443 -0.07669453 -0.14322232
000030 2d 85 40 be 4e 00 20 3d f2 f5 98 3d 33 47 8b 3e
       -0.18800803 0.03906279 0.07468785 0.27202758
000040 7d b9 d2 3d 24 3b 97 bd af 9d 93 3c 7d f7 22 3d
       0.10289285 -0.07384327 0.018019525 0.039786804
000050 b7 8a 10 be 03 50 d4 bc d7 8a 32 3e 9d d9 34 3c
       -0.14115416 -0.025917059 0.17435776 0.011038211
000060 a5 3b 6a bd 06 f1 1b 3e d9 15 01 bd cd 7e 98 be
       -0.057185788 0.15228662 -0.031514976 -0.2978424
000070 c7 2c 1b 3e f1 be 5d be 8d d7 66 be ed af 3a be
       0.151538 -0.2165487 -0.22543164 -0.18231173
000080 a5 1d f7 3d 80 50 30 bd 8a b2 39 3d 23 a8 40 3d
       0.12066201 -0.04304552 0.045336284 0.047035348
000090 72 f9 c2 3d 31 31 b3 bd eb d1 9a 3d 31 df 2d 3d
       0.09520234 -0.08749617 0.0755957 0.04244918
0000a0 9d cd fd 3d 09 87 23 3d f9 69 7d be c0 f9 5f 3d
       0.12392733 0.0399237 -0.24747457 0.05468154
0000b0 40 ab dc 3c 52 bf 07 be ad fe 23 3e 06 d8 40 3d
       0.026937127 -0.13256577 0.1601512 0.047081016
0000c0 46 c3 1c bd f6 7e 84 3e a8 8d 53 bd 57 97 44 3e
       -0.038272165 0.25878114 -0.051648766 0.19198357
0000d0 ba 2b c7 bc 54 6b af 3d 54 bd 2e bd 0b 28 12 3e
       -0.024312843 0.08565393 -0.042661026 0.14273088
0000e0 5c 30 50 3d d9 aa 35 bd 9f 54 1a be aa 61 f2 bc
       0.05082737 -0.044352386 -0.15071343 -0.029587585
0000f0 bb 91 93 bd 5e d1 3d 3e f0 6b b3 3d a9 50 a3 3d
       -0.0720553 0.18536898 0.08760822 0.07974369
000100 08 5c 8d be 3a a0 85 3e 03 6c d7 bc e1 b0 09 3d
       -0.27609277 0.26098806 -0.026296621 0.03361595
000110 d7 6f 4f be aa d4 3a bd bd 7c a8 bd 5a 62 7b bd
       -0.20257507 -0.04561297 -0.08226917 -0.061373092
000120 36 b5 d7 bd d6 26 0f bd 7b 77 19 3e 59 62 58 3e
       -0.1053261 -0.034949146 0.14986984 0.21131267
000130 4f c8 0f bd 14 18 db bc 03 05 d5 3c 6a a3 f2 bd
       -0.03510314 -0.02674488 0.026003366 -0.11847575
000140 77 22 97 3c 84 d6 11 be f3 67 5f be f2 9b df 3c
       0.018449051 -0.14241987 -0.21816997 0.02729604
000150 6c d0 1f bd 47 26 eb bd 21 dc 1a 3e ab d0 53 be
       -0.039017126 -0.1148191 0.15123035 -0.2068507
000160 46 0e 9f 3d 1d bf e1 3d d2 cb 96 3c f9 3f 9f bd
       0.07766394 0.1102278 0.018407736 -0.07775874
000170 95 bd 0e 3e 5f b0 23 3d c7 cd 5f bc b9 fb b9 3c
       0.13939507 0.039963122 -0.013659901 0.022703039
000180 3f 20 4e 3e 6a 5e 1a be 64 70 31 bd 6e c8 82 be
       0.20129488 -0.15075079 -0.043320075 -0.2554354
000190 c5 8e b9 bd d5 9e 75 be 10 43 64 be 62 30 2b 3e
       -0.09060434 -0.23986371 -0.22291207 0.16717675
0001a0 55 76 1e be 45 b3 d3 bc 85 e5 10 3c a1 b2 26 3d
       -0.15474828 -0.025842318 0.008843784 0.040697698
0001b0 f1 b2 8c 3e bf c2 40 bd 93 96 0a 3e 37 2c 9a 3e
       0.2748027 -0.047060724 0.13534002 0.30111858
0001c0 76 d1 36 be e3 99 ea bd a7 b1 39 3d 4b 93 40 3e
       -0.1785334 -0.11455133 0.045335438 0.18806188
0001d0 74 6f 79 3e 0d e5 2a 3d 2b ec 01 3d 87 bf 3c bd
       0.24358922 0.041722346 0.031719368 -0.046081092
0001e0 3f 4e 91 3d 67 a3 54 be ae dd 13 be bb 68 18 3d
       0.070950024 -0.20765458 -0.14440033 0.037209254
0001f0 66 27 7d 3e df 95 8f be 18 f8 8d 3e 57 87 8b be
       0.2472206 -0.2804403 0.27728343 -0.27251694
000200 58 f0 a5 bd d0 8f f9 3d 4a 1b fe bd b7 86 e9 3d
       -0.081024826 0.12185633 -0.12407549 0.11402648
000210 08 c9 50 3d 89 9d ca 3d 22 cd aa 3d 3b 55 82 bd
       0.05097297 0.09893329 0.08339907 -0.06363913
000220 6b ad 77 3d 71 f3 d8 3d ef 9c a2 3d 80 f9 e0 bc
       0.06046812 0.10593308 0.07940089 -0.02746272
000230 24 d0 44 3d 2d 34 e0 3d 09 93 4f be e3 41 91 be
       0.04805006 0.10947452 -0.20270933 -0.2837058
000240 f4 19 6a bd 87 f6 97 3d 96 a0 24 be 3e e5 1a bd
       -0.057153657 0.07420068 -0.16076884 -0.03781628
000250 46 d7 54 bd 2b ee 03 3d 0a 1d df 3d 69 9c f4 3b
       -0.051963113 0.032209557 0.10894211 0.0074649346
000260 5f d2 97 be c3 52 c2 3e ff 5d f2 3d e6 41 86 be
       -0.29652688 0.37953767 0.118343346 -0.26222152
000270 4e 53 7c 3d 4b 54 91 3d 04 43 fe bd 83 c8 a2 3d
       0.061602883 0.07096156 -0.12415126 0.07948401
000280 36 29 ab 3d b7 a0 ad be ec 4d 01 3c 32 65 74 3d
       0.0835747 -0.33911678 0.007892113 0.05966682
000290 65 cd e8 3d 0c a3 ea 3d fb fa 72 3e 49 80 cc 3b
       0.11367301 0.1145688 0.23728554 0.0062408787
0002a0 8a e7 a1 3d d5 c9 16 3e a0 84 b8 bc a1 6a de be
       0.07905491 0.1472543 -0.022524178 -0.43440726
0002b0 cc 0e 2f 3e f5 d8 08 be b5 00 78 3e 9f 7b 01 be
       0.17095488 -0.13364013 0.2421902 -0.12644814
0002c0 90 bd a7 ba 7c 4b d5 3d 61 43 8f 3d e7 f3 dc bc
       -0.0012797583 0.10414788 0.069952734 -0.02697177
0002d0 32 a0 65 3d c9 cc c1 3d 86 43 2f be fa a5 82 3e
       0.056060977 0.09462888 -0.17115602 0.25517255
0002e0 e1 f3 65 bc 59 00 0e be 2e 50 de bd 05 1a 78 3e
       -0.014035196 -0.1386732 -0.10855137 0.24228676
0002f0 8c 53 bc 3c 51 10 09 bd f7 02 88 3e df 80 bc bc
       0.022989057 -0.033462826 0.26564762 -0.02301067
000300 1f 11 89 be 0f f4 9f 3e 8f 97 36 be 83 dc 7e 3d
       -0.26770875 0.3124089 -0.17831253 0.062222015
000310 ad f2 04 be b6 c9 45 3e e9 5a 32 3d 9c 40 91 bd
       -0.12983198 0.19315228 0.04354373 -0.070924014
000320 8a 7d fb 3d 56 84 e3 bd aa 46 fb bd b8 8b 8c 3e
       0.12279804 -0.111092255 -0.122693375 0.27450347
000330 66 99 be be 69 2b 02 3e ec b3 44 3d 01 63 77 bd
       -0.3722641 0.12711872 0.04802315 -0.06039715
000340 9d 54 11 bc 36 45 8c bd 1c 37 85 be 57 80 3a be
       -0.008870271 -0.068491384 -0.26018608 -0.1821302
000350 2f bf c4 bd 87 78 64 be ba af 74 3e 58 a7 60 be
       -0.09606778 -0.22311603 0.2389516 -0.21938837
000360 e6 5c 26 be 54 20 1e 3e d7 aa 91 bd 09 40 49 3d
       -0.16246375 0.1544202 -0.07112663 0.049133334
000370 5a 4b 36 3e f0 a8 39 3e f6 df 96 bd 6f b9 20 3e
       0.17802182 0.18130851 -0.07366936 0.15695737
000380 46 66 31 3e d5 2a e2 be 66 b3 a5 3e 84 39 64 3c
       0.1732417 -0.44173303 0.32363433 0.013929728
000390 dd 02 28 3e 05 a2 1d be 73 fe b6 3d 23 4b fb 3d
       0.16407342 -0.15393837 0.08935251 0.122701906
0003a0 63 4d 8b bd ee 40 80 3e a7 df c8 3d 94 bb ae be
       -0.0680187 0.25049537 0.09808283 -0.34127486
0003b0 cf e7 a8 3e 72 90 0f be 56 50 5b 3e 08 18 92 bd
       0.32989356 -0.14019945 0.21417364 -0.0713349
0003c0 4e b4 0e be f8 ac 90 3e 2b b4 3e 3e 85 21 81 bd
       -0.13935968 0.28256965 0.18623416 -0.063052215
0003d0 f1 1c 8f 3e 27 e1 8d 3e c7 e3 27 be 50 86 95 3e
       0.27951768 0.2771084 -0.16395484 0.29204035
0003e0 ad 54 56 3e ef 02 73 be 68 b8 7e bd 90 16 63 3e
       0.20930739 -0.23731588 -0.062187582 0.22176576
0003f0 e4 0d 63 3d 87 2b 80 3b ff 8b 22 3e 11 d2 0b 3c
       0.05543317 0.003911439 0.15873717 0.00853397

transformer.layers.0.1.branch.4.bias f4 [8]
000000 11 38 d5 bd ac 05 b4 ba a2 58 85 3d 98 fe a6 bd
       -0.104110844 -0.00137346 0.06511046 -0.08154029
000010 47 be b6 bd 49 7a 4d be 2a a0 82 bd 82 22 f6 bc
       -0.08923011 -0.2006618 -0.06378205 -0.030045751

transformer.layers.0.1.norm.gamma f4 [8]
000000 04 c5 01 3e 0c dd c6 bd e1 c9 a5 3e 16 72 1e 3c
       0.12672812 -0.0971013 0.32380584 0.009670755
000010 49 a8 bd 3d 5f 52 51 3e f2 96 35 3d 5e 71 c2 3e
       0.092606135 0.20441578 0.044333406 0.37977117

transformer.layers.1.0.static_alpha f4 [4, 5]
000000 c7 34 02 be 00 00 80 3f 00 00 00 00 00 00 00 00
       -0.12715445 1.0 0.0 0.0
000010 00 00 00 00 7d e1 56 3f 00 00 00 00 00 00 80 3f
       0.0 0.8393782 0.0 1.0
000020 00 00 00 00 00 00 00 00 4b 9e ae bd 00 00 00 00
       0.0 0.0 -0.08526286 0.0
000030 00 00 00 00 00 00 80 3f 00 00 00 00 49 58 00 be
       0.0 1.0 0.0 -0.12533678
000040 00 00 00 00 00 00 00 00 00 00 00 00 00 00 80 3f
       0.0 0.0 0.0 1.0

transformer.layers.1.0.dynamic_alpha_fn f4 [8, 5]
000000 9d 4c ac 3c 00 00 00 00 00 00 00 00 00 00 00 00
       0.021032626 0.0 0.0 0.0
000010 00 00 00 00 d2 2b 09 be 00 00 00 00 00 00 00 00
       0.0 -0.13395622 0.0 0.0
000020 00 00 00 00 00 00 00 00 35 88 1f be 00 00 00 00
       0.0 0.0 -0.15579303 0.0
000030 00 00 00 00 00 00 00 00 00 00 00 00 4f 4b 68 be
       0.0 0.0 0.0 -0.22684978
000040 00 00 00 00 00 00 00 00 00 00 00 00 00 00 00 00
       0.0 0.0 0.0 0.0
000050 b8 f3 6c bd 00 00 00 00 00 00 00 00 00 00 00 00
       -0.057849616 0.0 0.0 0.0
000060 00 00 00 00 19 04 1e 3c 00 00 00 00 00 00 00 00
       0.0 0.009644532 0.0 0.0
000070 00 00 00 00 00 00 00 00 22 06 c3 3d 00 00 00 00
       0.0 0.0 0.09522654 0.0
000080 00 00 00 00 00 00 00 00 00 00 00 00 ff 4e d3 3d
       0.0 0.0 0.0 0.10317802
000090 00 00 00 00 00 00 00 00 00 00 00 00 00 00 00 00
       0.0 0.0 0.0 0.0

transformer.layers.1.0.static_beta f4 [4]
000000 b1 9d 53 3f a3 ec a1 3f de 4b 9b 3f 89 5d 6b 3f
       0.82662493 1.2650341 1.2132528 0.919396

transformer.layers.1.0.dynamic_beta_fn f4 [8]
000000 b6 14 76 bd df b3 39 bd 76 d6 19 3f 4e 0a 54 3d
       -0.060078345 -0.045337554 0.60092866 0.05176764
000010 1f f6 d1 3e 47 d0 e6 bd 86 96 63 be 8c 5d 01 3f
       0.41008088 -0.112701945 -0.22225389 0.50533366

transformer.layers.1.0.branch.norm.weight f4 [8]
000000 72 55 79 3f e0 f7 9c 3f 80 bf 9f 3f 1f 8d 3b 3f
       0.97396004 1.2263145 1.2480316 0.7326221
000010 1e 60 94 3f 2c af 96 3f f8 4a 84 3f ce ac 8c 3f
       1.1591833 1.1772208 1.0335379 1.0990236

transformer.layers.1.0.branch.norm.bias f4 [8]
000000 62 06 a6 3c 07 62 19 bc b8 49 12 3c fe e8 e7 3d
       0.020266715 -0.00936175 0.008928709 0.113237366
000010 7a a6 84 3c 9b 42 48 bd 7e 8c fd bb 53 c2 33 bd
       0.016192663 -0.048891645 -0.0077376952 -0.043886494

transformer.layers.1.0.branch.to_qkv.weight f4 [192, 8]
000000 60 c5 e7 b9 20 83 c8 3e 5a 71 a6 3d a6 59 e3 3e
       -0.0004420681 0.3916254 0.08127089 0.44404334
000010 c2 b3 4d be 7a 23 e5 bb 32 b9 61 be 86 41 61 3e
       -0.20088103 -0.0069927545 -0.22043303 0.21997651
000020 33 0e 8a 3e 9b 0f c4 be 49 0a 9d be 3a 34 3b bc
       0.26963958 -0.38293156 -0.3067191 -0.011426026
000030 bf 26 79 be ea 40 0c be d7 12 b0 3e a4 62 38 bc
       -0.24331187 -0.13696638 0.34389374 -0.0112539865
000040 f9 99 a8 be df dc 0c bd 77 15 76 be 75 96 72 be
       -0.32929972 -0.034390327 -0.24031626 -0.23690207
000050 6f e0 01 3f 05 e0 8f be c2 b6 f6 3d d5 13 b0 3e
       0.50733083 -0.281006 0.12046577 0.3439013
000060 b7 d6 9f be 69 3d 6d be 05 c7 2a 3f 34 e1 c6 be
       -0.31218502 -0.23167957 0.6670993 -0.3884369
000070 34 fb 14 be 33 be 6e be 20 03 53 be 32 48 4f be
       -0.14548951 -0.23314743 -0.20606661 -0.20242384
000080 76 49 7f bd a4 2e 5e be 50 69 ca 3d 88 79 2e 3e
       -0.062325917 -0.2169748 0.09883368 0.17038548
000090 f8 28 ed be f7 b8 ad 3d f0 64 26 be ab 59 71 bd
       -0.4632032 0.08482545 -0.16249442 -0.058923405
0000a0 48 35 61 3e ed ef 18 bf ea 5a 8a be 3c 49 b7 be
       0.21992981 -0.597411 -0.27022487 -0.3579806
0000b0 5b 82 75 3d 4a 7f 1f 3f 32 d5 16 3f 28 a4 4e 3e
       0.05993877 0.623036 0.5891906 0.20179808
0000c0 a1 15 a7 3e 1e 81 4a be fc a6 bc be 2b 4c 14 be
       0.3263369 -0.19775817 -0.3684615 -0.14482181
0000d0 07 eb 35 be 93 9b b3 3e b8 c8 3c 3d 4b da 37 3e
       -0.17765437 0.3507963 0.046089858 0.17954366
0000e0 d0 77 ad bc c8 db a4 be af 20 41 bc 68 13 04 be
       -0.021175295 -0.3219893 -0.0117875775 -0.12898028
0000f0 d8 5b 36 bd 04 ea 18 3f f2 76 4d 3d 40 36 dd 3d
       -0.044521183 0.5973208 0.050162263 0.10801363
000100 6b af cc be 9e c1 b3 3e 24 c2 87 be 75 03 3d 3e
       -0.39977583 0.35108656 -0.26515305 0.1845835
000110 e1 fe 02 3f c8 1b 0e be d0 67 5b 3e ea 84 05 3e
       0.51170164 -0.13877785 0.2142632 0.13038984
000120 02 69 d1 be 6f 2a f3 be e6 45 e6 3e 3a 42 4f bd
       -0.40900427 -0.47493312 0.44975203 -0.050600268
000130 aa 61 d7 be fc ac 75 3d a2 1d fa 3d 03 4a 2b 3e
       -0.420667 0.059979424 0.12212683 0.16727452
000140 97 e5 15 3d 36 16 41 3e 3a c0 d0 be 12 31 60 be
       0.036595907 0.18856129 -0.40771657 -0.21893719
000150 b7 25 72 3d cf d0 a4 3e bc 3f 2d be 7e 7d f4 bc
       0.059118 0.32190558 -0.16918844 -0.029844996
000160 1e ae 73 3e fb b9 1f 3e 5a 83 c2 be 58 27 73 3e
       0.23796889 0.1559829 -0.37990838 0.23745477
000170 fe 33 7f be b7 65 c0 be b2 16 51 3e a7 fa 77 3e
       -0.24922177 -0.37577602 0.20418814 0.2421671
000180 67 0a ae bb 8f 60 32 bf f2 3b b0 3e 78 0c 62 be
       -0.0053112986 -0.69678587 0.34420735 -0.22075069
000190 df 2e 10 bf 64 7a 41 3f 94 e4 a1 3e ea 70 f9 be
       -0.5632152 0.7557738 0.31619704 -0.4871896
0001a0 10 3c 71 3e 51 14 13 bf 92 7f 96 be 13 bb 9c be
       0.23558068 -0.57452875 -0.29394203 -0.30611476
0001b0 c7 5d 78 3e df fd ea 3e cb 1f 52 3e ce b3 89 3e
       0.24254523 0.45896813 0.2051994 0.26894993
0001c0 db 01 5b 3e 2e b2 a8 bc 12 b6 46 3e fb a2 ba bb
       0.21387427 -0.020592775 0.19405392 -0.0056956983
0001d0 76 8e 18 be 52 ce 3c bd e3 a3 9a 3e 95 6d 48 be
       -0.14898095 -0.0460952 0.3020316 -0.19573052
0001e0 38 9a 82 be 0e be 0c bf fa 6b 4a 3e ee 59 9d bd
       -0.25508285 -0.549775 0.19767752 -0.07683168
0001f0 d8 37 78 3d 45 ce ba 3d 11 b7 66 be 57 c6 c7 3c
       0.06060013 0.09121374 -0.22530772 0.024386568
000200 c5 8e 6c be 34 ab 48 be 6a 61 73 be b1 df be be
       -0.23101337 -0.19596559 -0.2376763 -0.37280038
000210 13 05 be 3e 08 70 8c 3e 5b 38 77 3e 42 a8 9b be
       0.37113246 0.27429223 0.24142592 -0.30401808
000220 8d 05 39 be 6e 26 86 be f8 81 05 be ae 55 17 3e
       -0.18068524 -0.26201195 -0.1303786 0.14778778
000230 82 e6 7e 3e 61 51 b8 3e 9d 49 03 be 7b 8f 44 be
       0.24892619 0.35999587 -0.1282105 -0.19195358
000240 7c 37 b1 3e b8 03 b1 be 50 59 a2 bd fa 38 80 be
       0.34612644 -0.3457315 -0.07927191 -0.2504347
000250 7a 8c 10 3f 21 a5 17 be 96 1a 88 3e 60 25 d4 3d
       0.5646435 -0.14809085 0.26582783 0.10358691
000260 2b 8c be 3e 1b b3 a1 bd 96 f3 a3 be 47 84 75 3e
       0.37216315 -0.0789549 -0.3202178 0.23976241
000270 3e 09 81 3d fc c4 f0 3c f1 c1 1d be 32 27 a4 3e
       0.06300591 0.029390804 -0.15406014 0.32061154
000280 c0 f7 a0 3a e6 08 cd be ef 7b 5a 3e ad 93 6b bd
       0.0012280867 -0.4004585 0.2133634 -0.05751388
000290 8c 99 40 3e 1b 34 d9 3e 45 ca 0c bb d3 35 09 be
       0.18808573 0.42422566 -0.0021482867 -0.13399439
0002a0 6e 85 87 be a5 5a a3 3e b7 00 26 3e 48 9b 83 be
       -0.26468986 0.31905094 0.1621121 -0.25704408
0002b0 ca 1d 0c 3d 87 5f 56 bc 07 90 84 3d 83 ea 0f 3e
       0.034208097 -0.013084299 0.064727835 0.14054303
0002c0 53 14 78 3d be 27 7b be 67 81 c7 3e 35 9f 5f 3d
       0.060566258 -0.24526879 0.38965914 0.05459519
0002d0 14 59 35 3e 08 c4 b9 bd 08 8e d4 3e c1 c8 4b 3e
       0.17709762 -0.09070593 0.4151461 0.199008
0002e0 7e a6 bf be 8f 91 52 3c dc a9 24 3e 17 a8 ec bd
       -0.3743171 0.012852087 0.16080421 -0.11555498
0002f0 4f 2b 82 bc 6c c4 d6 3d 14 e0 19 3e aa 11 89 3e
       -0.015889792 0.10486683 0.15026885 0.2677129
000300 b7 5e 9a 3e 27 8a c6 3e 94 88 8e bd 21 6c a2 3d
       0.30150387 0.38777277 -0.06959644 0.0793078
000310 22 d3 8d 3e a3 1f f6 3d 74 04 f7 be 2b 7a cb bc
       0.27700144 0.12017753 -0.48245585 -0.024838528
000320 1c 96 ec bb 84 ff 9d be a8 45 bb 3e 77 66 1c be
       -0.007220043 -0.30859005 0.3657658 -0.15273462
000330 c5 02 28 3c a4 ad 30 3e 7c cb 2f be c5 d6 92 3e
       0.010254567 0.17253739 -0.17167467 0.2867948
000340 46 1e 90 3d 89 e3 08 be 4b 6d 59 bd 43 27 b9 be
       0.07037024 -0.13368048 -0.053082746 -0.36162767
000350 ca f8 20 be 6a e2 9b 3d b5 a7 d5 3e 31 ce 1c 3e
       -0.15719905 0.076115444 0.41729513 0.15313031
000360 cd 84 9e 3e bb a3 e9 3c 66 a2 b5 be 7a 06 7e 3e
       0.30960694 0.028520456 -0.35475463 0.24807158
000370 aa 20 ef 3e 16 a4 b1 3e 52 59 14 3e 10 1b 9e 3e
       0.46704608 0.346955 0.14487198 0.30880022
000380 15 4e 9a 3e e4 97 87 be 04 d6 ee be 95 06 9a 3e
       0.30137697 -0.2648307 -0.46647656 0.30083147
000390 c0 c1 8c be 63 0c a4 3e 46 82 96 be 5b 17 c8 3d
       -0.2749157 0.320407 -0.29396266 0.0977008
0003a0 be a0 2e bc c5 5b 98 bd 42 ed 9c be 7a 38 65 3d
       -0.010658441 -0.07439379 -0.30649763 0.055962063
0003b0 d5 a1 0d bf f7 32 d2 3d 36 ac 06 be 1f 4b 6b bd
       -0.5532506 0.10263627 -0.13151631 -0.057444688
0003c0 98 13 a8 3c a1 4c 4f be fb cb cd 3e 24 4b 85 bd
       0.020517156 -0.20244075 0.40194687 -0.065084726
0003d0 bb ee 75 3e d6 2a 4b be ce f6 ab be 59 b3 b4 3e
       0.2401685 -0.1984056 -0.33586735 0.3529308
0003e0 d7 63 08 3d 19 53 e4 be 7f a5 6f 3e e7 0a d4 3b
       0.03329834 -0.44594648 0.23402975 0.006471026
0003f0 77 f8 93 3d e7 2f ca 3e 84 da dd 3c 56 8e 51 3c
       0.07225125 0.39489672 0.027081735 0.012790283
