trained_models/physical_loss_training/model_lr0.00025_8_1_4_4_.3_.3PhysicsLambda0.2_date_20250810_epoch10000.pt (torch, 99774 bytes, 87 tensors)

cls_token f4 [1, 1, 8]
0	0x3ec0e0ca	0.376715
1	0x3f0163c3	0.5054285
2	0x3f688226	0.9082359
3	0xbf3dd6ea	-0.7415606
4	0xbf954cd0	-1.1664066
5	0x3d7e85ae	0.062139206
6	0xbc83dabd	-0.016095513
7	0xbdd94245	-0.10608343

categorical_embeds.weight f4 [3, 8]
0	0x3fc5e446	1.5460289
1	0x3f804bfa	1.0023186
2	0xbfd2fb05	-1.6482855
3	0x3e063726	0.13106975
4	0x3e7367e8	0.23770106
5	0xbf54e494	-0.8316128
6	0x3fa59ec7	1.293908
7	0xbe79ed3d	-0.24406905
8	0x3f771928	0.9652276
9	0x3f68e89a	0.9097992
10	0x3f17f560	0.5935879
11	0x3f2a0dda	0.66427386
12	0xbeababbd	-0.33529463
13	0xbeac8b98	-0.33700252
14	0xbfa43959	-1.2830001
15	0xbd0b019f	-0.033937093
16	0x3f428cc5	0.7599605
17	0xbe534828	-0.20632994
18	0x3fedc783	1.8576511
19	0x3f3dc2ba	0.74125254
20	0x3fa67ffe	1.300781
21	0xbf87d7b4	-1.0612702
22	0x3f665e5b	0.89987725
23	0xbd783e5a	-0.060606338

numerical_embedder.weights f4 [8, 8]
0	0x3ed0625c	0.40700042
1	0x3d1c5869	0.038170252
2	0x3f8f2c42	1.1185381
3	0x3e002bd4	0.12516719
4	0xc00d72df	-2.2101362
5	0xbf8e2b91	-1.1107045
6	0xbea4ba4a	-0.32173377
7	0xbf2e6872	-0.6812812
8	0xbf7836ca	-0.969586
9	0xbf2bcdca	-0.67110884
10	0x3eef1641	0.46696666
11	0x3f4448e5	0.7667373
12	0xbf100ee0	-0.562727
13	0xbfbfb3e1	-1.497677
14	0xbeba8b7f	-0.36434552
15	0x3eae1fa3	0.34008512
16	0x3e9cecde	0.30649465
17	0x3c2675f3	0.010159957
18	0x3fa690fc	1.3012996
19	0xbc47ba66	-0.012190437
20	0x3f54a48b	0.8306357
21	0xbf98b47a	-1.1930077
22	0xbde2a0cb	-0.11065825
23	0xbedc9172	-0.43079716
24	0x3f8b420b	1.087953
25	0xbe241523	-0.16023688
26	0x3ebeb355	0.37246194
27	0x3e9a3155	0.30115762
28	0xbfab891b	-1.3401216
29	0xbfb32da8	-1.3998308
30	0xbf92e2c5	-1.1475455
31	0xbf79a79d	-0.9752138
32	0xbfb1a359	-1.3877975
33	0x3fe6a484	1.8018956
34	0xbfa95bfb	-1.3231195
35	0x3fa7d325	1.3111311
36	0x3ef016cf	0.46892402
37	0x3e84412e	0.25830978
38	0xbf553928	-0.8329034
39	0xbd479323	-0.048724305
40	0xbf287259	-0.6579948
41	0x3f103db8	0.56344175
42	0x3f7cf668	0.98813486
43	0x3e17413e	0.14770982
44	0xbecb3812	-0.39691216
45	0xbf8700fd	-1.0547177
46	0xbfc5730a	-1.5425732
47	0xbfcd9104	-1.605988
48	0x3fdfce44	1.7484822
49	0x3de02f73	0.1094655
50	0x3e1e6666	0.1546875
51	0x3f7e97b4	0.9945023
52	0xbe6321f5	-0.22180922
53	0x3f2a6b60	0.6657009
54	0xbef5d867	-0.48016664
55	0xbfcd4dd1	-1.6039373
56	0xbfb08676	-1.3791034
57	0xbd81ebf8	-0.063438356
58	0xbef43374	-0.47695506
59	0xbe885db3	-0.26633987
60	0xbf4da522	-0.803301
61	0xbfae06fa	-1.3595879
62	0xbf1599a1	-0.58437544
63	0xbf2fed52	-0.687215

numerical_embedder.biases f4 [8, 8]
0	0xbefceb5e	-0.4939832
1	0xbe1f416c	-0.155523
2	0xbf799f19	-0.9750839
3	0xc00100f4	-2.0156832
4	0xbec09535	-0.37613836
5	0x3e34e432	0.17665175
6	0x3f2877af	0.6580762
7	0x3eedc23c	0.46437252
8	0x3c036104	0.008018736
9	0x3f13b114	0.57692075
10	0xbebacda1	-0.36485007
11	0xbf856626	-1.0421798
12	0xbfc461ff	-1.5342406
13	0x3f588906	0.8458408
14	0xbfa8001b	-1.3125032
15	0xbec59c0a	-0.3859561
16	0x3eaaef61	0.33385757
17	0xbe8548f2	-0.26032215
18	0xbf5e456d	-0.86824685
19	0xbf0d8390	-0.55278873
20	0xbe792b2a	-0.24332872
21	0xbf1de662	-0.6167966
22	0x3e955681	0.2916756
23	0x3f679345	0.9045909
24	0xbf822935	-1.0168825
25	0xbefff97a	-0.49995023
26	0xbf8322da	-1.0245011
27	0x3f1602e0	0.58598137
28	0xbf0b5d45	-0.54439193
29	0x3eda6fba	0.42663366
30	0x4023be52	2.5584912
31	0x3fcccf43	1.6000751
32	0x3f0aacf6	0.5417017
33	0x3fca2793	1.5793327
34	0x3db6568f	0.089032285
35	0xbed202b4	-0.41017687
36	0x3f08b6ca	0.53403914
37	0x3e8d2b0e	0.2757191
38	0xbfbbd7b5	-1.4675204
39	0x3e8f76bb	0.28020272
40	0xc0208869	-2.5083258
41	0x3fe32f27	1.7748765
42	0xbf86a83a	-1.0520089
43	0x3f6eff13	0.9335796
44	0x3ec36032	0.3815933
45	0xbc45be7b	-0.01206934
46	0xbeeb3657	-0.45939896
47	0xbfa713a4	-1.3052869
48	0xbebd85a6	-0.37016028
49	0x3efe648b	0.49686083
50	0xbe0118ab	-0.12607066
51	0x3e1ee217	0.15515934
52	0xbfff1409	-1.9927989
53	0xbeab99ba	-0.33515722
54	0xbf236594	-0.6382687
55	0x40400b14	3.0006762
56	0x3fd186a3	1.6369213
57	0x3eb05b7c	0.34444797
58	0x3f0baf7e	0.54564655
59	0x400f9313	2.2433517
60	0xbfcad897	-1.5847348
61	0x3ee7d2c1	0.4527798
62	0x3d04424c	0.032289788
63	0x3fd89b97	1.6922482

transformer.layers.0.0.static_alpha f4 [4, 5]
0	0x3f8efb04	1.1170354
1	0x3f800000	1.0
2	0x00000000	0.0
3	0x00000000	0.0
4	0x00000000	0.0
5	0x3defb1d9	0.117038436
6	0x00000000	0.0
7	0x3f800000	1.0
8	0x00000000	0.0
9	0x00000000	0.0
10	0x3defb1d9	0.117038436
11	0x00000000	0.0
12	0x00000000	0.0
13	0x3f800000	1.0
14	0x00000000	0.0
15	0x3defb1d9	0.117038436
16	0x00000000	0.0
17	0x00000000	0.0
18	0x00000000	0.0
19	0x3f800000	1.0

transformer.layers.0.0.dynamic_alpha_fn f4 [8, 5]
0	0x3d111009	0.035415683
1	0x00000000	0.0
2	0x00000000	0.0
3	0x00000000	0.0
4	0x00000000	0.0
5	0x3ca9f4ee	0.020746674
6	0x00000000	0.0
7	0x00000000	0.0
8	0x00000000	0.0
9	0x00000000	0.0
10	0x3d98d888	0.07463175
11	0x00000000	0.0
12	0x00000000	0.0
13	0x00000000	0.0
14	0x00000000	0.0
15	0xbc4a4e26	-0.012347734
16	0x00000000	0.0
17	0x00000000	0.0
18	0x00000000	0.0
19	0x00000000	0.0
20	0xbcf3f8f6	-0.0297818
21	0x00000000	0.0
22	0x00000000	0.0
23	0x00000000	0.0
24	0x00000000	0.0
25	0xbd8374da	-0.06418772
26	0x00000000	0.0
27	0x00000000	0.0
28	0x00000000	0.0
29	0x00000000	0.0
30	0x3d0885a0	0.03333056
31	0x00000000	0.0
32	0x00000000	0.0
33	0x00000000	0.0
34	0x00000000	0.0
35	0xbc5b1c32	-0.0133734215
36	0x00000000	0.0
37	0x00000000	0.0
38	0x00000000	0.0
39	0x00000000	0.0

transformer.layers.0.0.static_beta f4 [4]
0	0x3f745887	0.9544758
1	0x3f8bff8d	1.0937363
2	0x3f6d5f2b	0.9272334
3	0x3fa3032f	1.2735347

transformer.layers.0.0.dynamic_beta_fn f4 [8]
0	0x3ed16761	0.40899184
1	0x3ebf52bd	0.37367812
2	0x3eb03f46	0.34423274
3	0xbeab3c08	-0.33444238
4	0xbebb33c2	-0.36562926
5	0xbe8cec72	-0.27524143
6	0x3d976fb0	0.073943496
7	0x3e18ba44	0.14914805

transformer.layers.0.0.branch.norm.weight f4 [8]
0	0x3f82d681	1.0221711
1	0x3f8e49fd	1.111633
2	0x3fb160a7	1.3857621
3	0x3f99becf	1.2011355
4	0x3fae0ace	1.3597047
5	0x3f99b3e4	1.2008023
6	0x3f6252bd	0.884075
7	0x3f97528f	1.182207

transformer.layers.0.0.branch.norm.bias f4 [8]
0	0x3d891fa5	0.06695489
1	0x3e038074	0.1284197
2	0x3e940f9a	0.28918153
3	0x3df9c4ed	0.12195764
4	0xbe5fbe5f	-0.21849965
5	0xbe6cdd01	-0.23131181
6	0xbd6cc6a7	-0.057806637
7	0x3df2d148	0.118563235

transformer.layers.0.0.branch.to_qkv.weight f4 [192, 8]
0	0xbeaa2002	-0.33227545
1	0xbeb4c173	-0.3530384
2	0xbed7831c	-0.42092216
3	0xbbc5d422	-0.006037251
4	0x3e4177bb	0.1889333
5	0x3eeef3cf	0.46670386
6	0x3e364dcd	0.17803116
7	0x3e95f62f	0.29289386
8	0xbb84d81b	-0.004054082
9	0xbe3b025a	-0.18262616
10	0xbe4ee9ef	-0.20206426
11	0x3e82e1b2	0.25562817
12	0xbe557981	-0.20847131
13	0xbe91838e	-0.2842068
14	0x3e204a88	0.15653431
15	0x3e8b5a60	0.27217388
16	0x3e26c9f6	0.1628798
17	0xbc72d7b9	-0.01482194
18	0x3d8b3ef1	0.067991145
19	0x3e908392	0.2822538
20	0x3b6bfac0	0.0036007613
21	0x3e8ca514	0.27469695
22	0x3e18be74	0.14916402
23	0xbe6534e2	-0.22383454
24	0xbd1db11a	-0.038498975
25	0x3e64a186	0.22327241
26	0x3ccb6115	0.024826566
27	0x3de02f9c	0.10946581
28	0xbc5b7ecf	-0.013396933
29	0x3ebb148d	0.36539117
30	0x3eae5306	0.34047717
31	0x3ebf737a	0.3739279
32	0x3daa946e	0.08329092
33	0x3e4ec106	0.2019082
34	0x3eb97390	0.3622098
35	0xbe1057f9	-0.14096059
36	0x3e81bf8f	0.2534146
37	0x3e8f9c27	0.28048822
38	0x3e85e1db	0.26148877
39	0x3ede25b2	0.43388134
40	0xbe37b2e6	-0.17939338
41	0xbe7b7c07	-0.24559031
42	0xbea463ae	-0.321073
43	0x3c807ad0	0.015683562
44	0x3e41a6ff	0.1891136
45	0x3ee096ef	0.43865153
46	0xbeb2f663	-0.34953603
47	0xbe3bc1ac	-0.18335599
48	0x3daf988c	0.08574018
49	0xbe829436	-0.255037
50	0xbd9daf82	-0.07699491
51	0xbd1be113	-0.038056444
52	0x3de46e2b	0.11153825
53	0x3d88c397	0.06677931
54	0xbd855e2f	-0.06512105
55	0x3d838152	0.0642115
56	0xbdef9c8a	-0.11699779
57	0xbc6b1808	-0.014348991
58	0x3e6c7b85	0.23093994
59	0x3ed4e7ee	0.41583198
60	0x3eb72dfc	0.3577727
61	0x3ef14752	0.47124726
62	0xbe07120e	-0.13190481
63	0xbe2c4e9e	-0.16826865
64	0xbea6c75c	-0.32573974
65	0x3d193f18	0.037413687
66	0xbed1917a	-0.40931302
67	0x3d632034	0.055450633
68	0xbd8e2390	-0.06940377
69	0x3e7aab3d	0.24479385
70	0xbeb741d6	-0.35792416
71	0xbf060c4f	-0.5236253
72	0xbeb35358	-0.35024524
73	0x3e5b822a	0.21436372
74	0xbe88bab2	-0.26704937
75	0x3ec2df5f	0.38061044
76	0xbc8d2dbb	-0.01723372
77	0xbd956592	-0.072947636
78	0x3e5ad523	0.21370368
79	0xbdd6291b	-0.10457059
80	0xbdaba9cc	-0.083819956
81	0x3de26fb7	0.11056464
82	0x3da42d7a	0.080164865
83	0xbeb163cc	-0.3464645
84	0xbe7fcd3c	-0.24980634
85	0xbd014b4a	-0.031565942
86	0x3eab584e	0.3346581
87	0x3ecb4651	0.39702085
88	0x3e52e96b	0.20596854
89	0x3da84f85	0.08218292
90	0x3ce8409b	0.028351119
91	0x3eb7ee11	0.35923818
92	0x3eba079d	0.36333933
93	0x3d965598	0.073405445
94	0x3ea22c51	0.31674436
95	0xbd6fe7a1	-0.058570508
96	0x3e3aeeb9	0.18255128
97	0x3eacd1bc	0.33753765
98	0x3ea4bc83	0.32175073
99	0x3d0db9a8	0.034600884
100	0x3d9bf2ee	0.076146945
101	0x3e50fd3e	0.20409104
102	0xbe9f2370	-0.31081724
103	0xbe85e2e8	-0.26149678
104	0x3f09cfe3	0.53832835
105	0x3ecc3749	0.3988593
106	0x3e79e32a	0.24403062
107	0xbe2c193c	-0.16806501
108	0xbeb74a03	-0.35798654
109	0xbd45edf6	-0.04832264
110	0xbe0a8425	-0.13526972
111	0x3ee58928	0.44831204
112	0x3e18ff02	0.14941028
113	0x3e32b8da	0.17453328
114	0xbec94b5f	-0.39315316
115	0x3eae3a43	0.34028825
116	0x3edcf6e5	0.43157116
117	0x3dcadff0	0.09905994
118	0xbebc70a9	-0.36804703
119	0xbe2bc401	-0.16773988
120	0x382fd202	4.1918836e-05
121	0xbeace73f	-0.33770177
122	0xbe54768f	-0.20748352
123	0x3c77b62f	0.01511912
124	0x3d9ba88d	0.07600508
125	0x3f056e2c	0.52121234
126	0xbe8b0e42	-0.27159315
127	0xbee47992	-0.44624
128	0x3e8e85d0	0.27836466
129	0x3efe8852	0.4971338
130	0x3e1b1dbc	0.15148062
131	0xbe522d1c	-0.2052502
132	0xbcf40361	-0.029786767
133	0xbe7448cd	-0.23855896
134	0x3ead1e69	0.33812264
135	0xbd99b36b	-0.075049244
136	0xbd7c54c8	-0.06160429
137	0xbe6629d0	-0.22476888
138	0x3e1d31d4	0.15351039
139	0xbe60fe3d	-0.21971984
140	0xbee0d266	-0.4391052
141	0x3dd3133a	0.103064016
142	0xbe113d73	-0.14183597
143	0x3df48c4e	0.119408235
144	0xbd9043df	-0.070441954
145	0xbe8dde46	-0.27708644
146	0xbe89ad6f	-0.26890132
147	0x3ea6e73d	0.32598296
148	0x3e8f7d65	0.28025356
149	0xbd202d8b	-0.039105933
150	0x3ec03080	0.37537003
151	0xbac9992c	-0.0015380732
152	0xbeb9271f	-0.3616266
153	0xbd3d551a	-0.046223737
154	0xbea39bcd	-0.31954804
155	0x3e9d4507	0.30716726
156	0x3e4307b3	0.19045906
157	0x3e17940e	0.14802572
158	0xbe791332	-0.24323729
159	0x3e1be1c3	0.1522284
160	0x3e8cec62	0.27524096
161	0x3e18ccd6	0.14921889
162	0x3e908b33	0.282312
163	0xbd9bbc1f	-0.076042406
164	0xbed0e43a	-0.40799123
165	0x3dab09b8	0.08351463
166	0xbd225db3	-0.03964014
167	0x3ec195cc	0.37809598
168	0x3ef0caad	0.4702963
169	0x3de235db	0.11045428
170	0x3ec7ad48	0.3899939
171	0xbf09bf3f	-0.53807443
172	0x3e14c679	0.14528836
173	0xbeae0298	-0.33986354
174	0xbe2ebd17	-0.1706432
175	0x3ebbacad	0.3665518
176	0xbb808b15	-0.00392283
177	0x3ea24f19	0.31700972
178	0xbe11728b	-0.14203851
179	0xbea0460e	-0.31303447
180	0xbf19e279	-0.60111195
181	0xbe1f87c9	-0.15579142
182	0x3e394e1f	0.18096207
183	0x3dab9103	0.08377268
184	0x3e4a94e3	0.19783358
185	0x3e5f8235	0.21827014
186	0x3ee1068b	0.43950304
187	0xbed94e81	-0.42442706
188	0xbe895089	-0.26819256
189	0x3ecc4b5b	0.39901242
190	0x3e29393e	0.16525742
191	0xbd73ee81	-0.059553627
192	0x3e9add7d	0.30247107
193	0x3e471ff1	0.19445778
194	0x3f1791dc	0.5920694
195	0xbee4fe8f	-0.44725463
196	0xbf17579d	-0.5911806
197	0xbf0025f6	-0.50057924
198	0x3daac629	0.08338577
199	0x3ee29042	0.44250685
200	0xbdbdb0f9	-0.092622705
201	0x3ed5d25b	0.4176205
202	0x3ddd3961	0.1080196
203	0xbe4145ae	-0.18874237
204	0xbe468744	-0.19387537
205	0x3d7e6f45	0.062117834
206	0x3e9cf054	0.30652106
207	0x3ee9f9bf	0.45698354
208	0x3e962ded	0.29331914
209	0xbdfbaf85	-0.12289337
210	0x3e3927b0	0.18081546
211	0xbef7ba86	-0.48384494
212	0xbea1b730	-0.31585073
213	0xbe0c5b12	-0.13706616
214	0xbe44359a	-0.19161072
215	0x3de64bc2	0.112449184
216	0x3c75df77	0.015006891
217	0x3eefb86e	0.46820396
218	0x3f01ec7c	0.5075147
219	0xbd24e421	-0.040256623
220	0x3dad70d8	0.08468789
221	0xbe0f0451	-0.1396649
222	0x3e97b0bd	0.29627028
223	0x3e87c113	0.2651449
224	0xbd79d367	-0.060992625
225	0xbd9acac2	-0.07558204
226	0xbe0bedd2	-0.1366494
227	0x3e84b835	0.2592179
228	0x3e05c4f0	0.13063407
229	0xbdcf92d9	-0.10135431
230	0x3cd0dac9	0.02549495
231	0x3c15966c	0.009130102
232	0x3ea017f8	0.31268287
233	0x3e51ab12	0.20475414
234	0x3eb2e573	0.3494068
235	0xbdcbdb1d	-0.09953902
236	0xbe9e2c18	-0.30893016
237	0xbe75cde5	-0.24004324
238	0x3e87a3d8	0.2649219
239	0x3ecba750	0.39776087
240	0xbec79dd0	-0.3898759
241	0xbe4f9b99	-0.202742
242	0xbea48980	-0.32136154
243	0x3ee38389	0.4443629
244	0x3d2e2261	0.042513255
245	0x3dd4661c	0.10371038
246	0xbebd90cc	-0.37024534
247	0xbdd48098	-0.1037609
248	0x3dd5eacd	0.10445175
249	0xbd6ec4cc	-0.05829315
250	0xbea0fbd2	-0.31442124
251	0x3e04cff0	0.12969947
252	0x3cfe854b	0.031069418
253	0x3ba86783	0.0051392927
254	0x3e2b9fd8	0.16760194
255	0xbf18122b	-0.5940272

transformer.layers.0.0.branch.to_out.weight f4 [8, 64]
0	0x3c978fb0	0.018501133
1	0xbe008fe3	-0.12554888
2	0x3e3619db	0.177833
3	0x3c8d8254	0.01727406
4	0x3dc7ae6f	0.097500674
5	0xbd3d6c24	-0.04624571
6	0xbd8ba148	-0.06817871
7	0xbc852ed6	-0.016257685
8	0xbcc70c11	-0.024297746
9	0xbd29b545	-0.041432638
10	0xbddf37a7	-0.10899287
11	0x3cd7acd3	0.026327526
12	0xbd3e742a	-0.0464975
13	0xbe24eed8	-0.16106737
14	0xbd608b33	-0.05482025
15	0x3bd32a6c	0.006444266
16	0xbdebbb15	-0.115102924
17	0xbc732824	-0.014841113
18	0xbe00c8dc	-0.12576622
19	0xbdae9b85	-0.08525757
20	0x3dbf30f8	0.09335512
21	0xbdbc74c0	-0.09201956
22	0x3d03717a	0.03209064
23	0x3d60b6b8	0.054861754
24	0x3d734f3b	0.059401732
25	0x3de81402	0.11331941
26	0xbdd1eb81	-0.10249997
27	0x3d5223ab	0.051303547
28	0xbe0951e3	-0.13410144
29	0x3e1f8126	0.1557661
30	0x3e05e59d	0.13075872
31	0xbd873b7b	-0.06603142
32	0xbc75feb9	-0.015014344
33	0xbdafd25a	-0.08585043
34	0xbd945d6a	-0.0724438
35	0xbd515ea9	-0.051115666
36	0x3c6aad90	0.014323607
37	0xbe1645b4	-0.14675027
38	0xbe0396f6	-0.12850556
39	0xbdd731f5	-0.105075754
40	0xbdcb5eb0	-0.099301696
41	0x3ceb4790	0.028720647
42	0xbd804466	-0.06263046
43	0xbd09b1da	-0.033616878
44	0xbd050498	-0.032475084
45	0xbce52ba0	-0.027974904
46	0xbda8b5aa	-0.08237775
47	0xbe2b8317	-0.16749226
48	0x3e091cbc	0.13389868
49	0xbe023543	-0.1271563
50	0x3cb7062c	0.02234181
51	0x3da9e5d4	0.08295789
52	0xbe06a80e	-0.13150045
53	0xbdbaebea	-0.09127028
54	0xbd10c1fc	-0.035341248
55	0xbde699ab	-0.112597786
56	0x3e2425a8	0.1602999
57	0x3d7e974a	0.062156
58	0x3d80e2f9	0.062932916
59	0xbd1be725	-0.038062233
60	0x3d71c020	0.059021115
61	0xbc39a3b8	-0.0113305375
62	0xbd003a46	-0.031305574
63	0x3da1f9ea	0.079089954
64	0x3d53b97a	0.051690556
65	0x3e061a82	0.1309605
66	0x3bf382ee	0.0074313795
67	0x3e2fbcf4	0.17161924
68	0xbe2a54f5	-0.16633971
69	0xbcc3534d	-0.023843432
70	0xbde6da8a	-0.11272152
71	0x3d66dda4	0.056363717
72	0x3d2d77e3	0.04235066
73	0x3a3c575a	0.0007184647
74	0x3d95dc82	0.07317449
75	0x3da9d8a2	0.082932726
76	0x3dc666e5	0.09687594
77	0x3e2b2dc6	0.1671668
78	0xbd336987	-0.04380181
79	0xbde4858a	-0.11158283
80	0x3d207803	0.039176952
81	0x3d843426	0.06455259
82	0xbdaef047	-0.08541923
83	0x3e32b861	0.17453147
84	0xbc718d3e	-0.014743147
85	0xbc927954	-0.01788012
86	0xbe0c7228	-0.13715422
87	0x3e26ccff	0.16289137
88	0x3d4bf590	0.049794734
89	0xbdaad9f0	-0.083423495
90	0x3da38d4d	0.07985935
91	0x3dd691f7	0.10477059
92	0x3e187188	0.14887059
93	0xbca9e6a6	-0.020739865
94	0x3acf102f	0.001579767
95	0x3da25848	0.079269946
96	0x3e184db9	0.14873399
97	0x3df41d11	0.119196065
98	0x3dc3c3bd	0.095588185
99	0x3d824d71	0.06362427
100	0xbd696579	-0.056981537
101	0x3db132f6	0.08652298
102	0x3e1d64d0	0.15370488
103	0x3e394dc6	0.18096074
104	0xbda235d3	-0.079204224
105	0xbd4c93fe	-0.049945824
106	0x3d7e8b1b	0.06214438
107	0xbd55c874	-0.05219312
108	0x3b6a66ba	0.0035766796
109	0x3dfe9c3c	0.12432143
110	0x3ddc6ec4	0.10763314
111	0x3e076ae7	0.13224374
112	0xbd2e4860	-0.04254949
113	0x3dc05212	0.09390654
114	0xbd7e5d87	-0.062100913
115	0xbdf8c821	-0.121475466
116	0x3e148697	0.14504467
117	0x3da7d9c7	0.081958346
118	0x3a877f02	0.0010337534
119	0x3c4fb820	0.012678176
120	0xbdd163c4	-0.10224107
121	0x3b97eabf	0.004636138
122	0x3de57b49	0.112051554
123	0x3e4c6a58	0.19962442
124	0xbe520074	-0.20507985
125	0xbe192050	-0.14953732
126	0x3bdf36d7	0.0068119573
127	0x3d293eae	0.04131954
128	0xbd300244	-0.04297091
129	0x3d471ff2	0.04861445
130	0xbd99b99d	-0.07506106
131	0x3de7f36c	0.11325726
132	0xbdbab854	-0.09117189
133	0x3bedbd79	0.007255253
134	0xbe1c2348	-0.15247834
135	0x3dd02dc3	0.10164978
136	0x3da8c23c	0.08240172
137	0x3cdf2e4a	0.027243752
138	0x3cd9ce94	0.026587762
139	0x3e0ced83	0.13762479
140	0x3dd3e064	0.103455335
141	0x3d0f0a50	0.034921944
142	0xbe02914f	-0.12750743
143	0xbbd13393	-0.006384322
144	0xbc8b317c	-0.01699137
145	0x3e0796ab	0.13241069
146	0x3d90edc6	0.07076602
147	0xbd41d1d7	-0.04731926
148	0xbd90d420	-0.0707171
149	0xbc3bb2a0	-0.011456162
150	0x3b9cc898	0.004784655
151	0x3dfc0da3	0.123072885
152	0xbc711ec7	-0.014716811
153	0xbe1ee688	-0.15517628
154	0x3e39124e	0.18073389
155	0x3e12932a	0.14313951
156	0x3dd6758b	0.10471638
157	0x3cf7e271	0.030259343
158	0xbd9b6c40	-0.075890064
159	0x3e26b207	0.1627885
160	0x3d265f1b	0.040618043
161	0xbc50daa2	-0.012747439
162	0x3df2e398	0.11859816
163	0xbe043126	-0.12909374
164	0x3cba1e56	0.022719543
165	0x3e1e4431	0.154557
166	0x3dd3d9ed	0.103443004
167	0x3ddd8698	0.10816687
168	0xbb820f99	-0.0039691445
169	0x3d87101a	0.06594868
170	0x3bafcfc6	0.0053653447
171	0x3e03a667	0.12856446
172	0x3d9e1b6f	0.07720076
173	0x3d2ca76e	0.04215186
174	0x3dee9dbb	0.116511784
175	0xbd38f641	-0.04515672
176	0xbd9151c5	-0.070956744
177	0x3df27f56	0.11840694
178	0x3d0c99dd	0.034326423
179	0xbcdb5b55	-0.026776949
180	0x3de52834	0.11189309
181	0x3db50f7f	0.08840846
182	0x3e0f41d4	0.13989955
183	0x3dc6c350	0.09705222
184	0xbb9e2816	-0.004826556
185	0xbd052187	-0.032502677
186	0x3d25c517	0.040471163
187	0x3dc99603	0.098430656
188	0xbcdd783f	-0.027034877
189	0xbd815e8e	-0.06316863
190	0xbcc8c8ba	-0.024509776
191	0x3e12e9f5	0.1434706
192	0xbd6bc8e3	-0.057564627
193	0xbe40e81a	-0.1883854
194	0xbd9abaad	-0.07555137
195	0xbdf4a716	-0.119459316
196	0x3cc95901	0.024578573
197	0xbddf64b7	-0.10907882
198	0xbd3c5e0d	-0.04598813
199	0xbe2baeb5	-0.16765864
200	0xbd9c4fbb	-0.07632395
201	0xbdc3151f	-0.09525513
202	0x3bd381c4	0.0064546783
203	0x3c34d966	0.01103816
204	0xbdbaa31c	-0.09113142
205	0xbe0b6304	-0.1361199
206	0xbd1012ed	-0.0351743
207	0x3dde73e3	0.108619474
208	0x3dd546c5	0.10413889
209	0xbe1e7642	-0.154748
210	0xbce88afb	-0.028386584
211	0x3d8e7195	0.06955258
212	0x3da0f8fb	0.07859989
213	0x3b0e8d16	0.0021751574
214	0x3dcd39e1	0.10020805
215	0xbcff292a	-0.031147558
216	0xbd29bacf	-0.04143792
217	0x3d87a110	0.06622517
218	0xbcfc2967	-0.03078146
219	0x3d9db317	0.07700174
220	0xbe01f4b3	-0.12691002
221	0x3d9c6763	0.07636907
222	0x3d8a46c5	0.067517795
223	0xbdacee70	-0.08443916
224	0xbd89259a	-0.06696625
225	0xbd0ab2bf	-0.03386187
226	0x3ca3fb2f	0.020017235
227	0x3e262ffc	0.16229242
228	0x3db10d1f	0.08645081
229	0xbcecdeef	-0.028914897
230	0xbb87727b	-0.00413352
231	0xbdb76ebb	-0.08956667
232	0x3caa9ca8	0.020826653
233	0xbd54a660	-0.05191648
234	0xbc856e85	-0.016288051
235	0xbd876e63	-0.066128515
236	0x3bc94e8c	0.0061433967
237	0x3dcb8286	0.09937005
238	0xbe3402f6	-0.17579255
239	0xbcb712fc	-0.02234792
240	0x3d31fed9	0.043455932
241	0xbda9eb85	-0.08296875
242	0xbc3a36ce	-0.0113656055
243	0x3cc43937	0.023953063
244	0xbe0125ee	-0.12612125
245	0xbd3ecd7d	-0.046582688
246	0x3d02db9c	0.031947717
247	0xbd95ca7c	-0.073140115
248	0x3d851a37	0.06499141
249	0xbd88d81a	-0.06681843
250	0xbe42323f	-0.1896448
251	0xbe3d3d1b	-0.18480341
252	0x3e086ccc	0.13322753
253	0x3d9cf348	0.0766359
254	0x3da86803	0.08222964
255	0xbcc959e4	-0.024578996

transformer.layers.0.0.norm.gamma f4 [8]
0	0x3f0d25ea	0.5513598
1	0x3f00ed27	0.50361866
2	0x3eeaf015	0.45886293
3	0x3eedc830	0.46441793
4	0x3f00a941	0.5025826
5	0x3ebb6c10	0.36605883
6	0x3d62fc56	0.055416428
7	0x3e70b85a	0.23507825

transformer.layers.0.1.static_alpha f4 [4, 5]
0	0xbc75f1cc	-0.015011262
1	0x3f800000	1.0
2	0x00000000	0.0
3	0x00000000	0.0
4	0x00000000	0.0
5	0xbd67f805	-0.056633014
6	0x00000000	0.0
7	0x3f800000	1.0
8	0x00000000	0.0
9	0x00000000	0.0
10	0x3f6b035c	0.91802
11	0x00000000	0.0
12	0x00000000	0.0
13	0x3f800000	1.0
14	0x00000000	0.0
15	0xbcae26f1	-0.021258803
16	0x00000000	0.0
17	0x00000000	0.0
18	0x00000000	0.0
19	0x3f800000	1.0

transformer.layers.0.1.dynamic_alpha_fn f4 [8, 5]
0	0x3e83bf34	0.25731814
1	0x00000000	0.0
2	0x00000000	0.0
3	0x00000000	0.0
4	0x00000000	0.0
5	0xbe36bd94	-0.17845756
6	0x00000000	0.0
7	0x00000000	0.0
8	0x00000000	0.0
9	0x00000000	0.0
10	0x3d905f5f	0.070494406
11	0x00000000	0.0
12	0x00000000	0.0
13	0x00000000	0.0
14	0x00000000	0.0
15	0x3e28ad7c	0.16472429
16	0x00000000	0.0
17	0x00000000	0.0
18	0x00000000	0.0
19	0x00000000	0.0
20	0x3d8496b7	0.06474059
21	0x00000000	0.0
22	0x00000000	0.0
23	0x00000000	0.0
24	0x00000000	0.0
25	0x3db244f1	0.08704556
26	0x00000000	0.0
27	0x00000000	0.0
28	0x00000000	0.0
29	0x00000000	0.0
30	0xbdd46219	-0.10370273
31	0x00000000	0.0
32	0x00000000	0.0
33	0x00000000	0.0
34	0x00000000	0.0
35	0xbe129a86	-0.14316759
36	0x00000000	0.0
37	0x00000000	0.0
38	0x00000000	0.0
39	0x00000000	0.0

transformer.layers.0.1.static_beta f4 [4]
0	0x3f78cd7c	0.97188544
1	0x3f6b938e	0.92022026
2	0x3f7823c4	0.96929574
3	0x3f6ee7d6	0.93322504

transformer.layers.0.1.dynamic_beta_fn f4 [8]
0	0xbdbe297f	-0.092852585
1	0xbe6eab96	-0.23307642
2	0xbe500b93	-0.20316915
3	0x3d96590c	0.07341203
4	0x3dafd9cc	0.08586463
5	0xbeabc96d	-0.33552113
6	0x3dbfbd3a	0.09362264
7	0x3e9a8b6d	0.30184498

transformer.layers.0.1.branch.0.weight f4 [8]
0	0x3f74abe0	0.9557476
1	0x3f73c39b	0.95220345
2	0x3f80f7ff	1.0075682
3	0x3f82cb94	1.0218377
4	0x3f7d8dc1	0.99044424
5	0x3f80a254	1.0049539
6	0x3f75fa78	0.9608531
7	0x3f7dc75a	0.9913231

transformer.layers.0.1.branch.0.bias f4 [8]
0	0x3cd6a745	0.026202807
1	0xbcd51e36	-0.026015382
2	0xbc6047be	-0.01368898
3	0x3b53edd2	0.0032337797
4	0xbcf2b2cc	-0.029626273
5	0x3bf85876	0.0075789047
6	0x3d4106eb	0.047125738
7	0x3ccf6c60	0.025320232

transformer.layers.0.1.branch.1.weight f4 [64, 8]
0	0x3cc05efb	0.02348279
1	0xbe97ab9a	-0.2962311
2	0xbe00171b	-0.12508814
3	0x3b8ca06f	0.004291586
4	0xbe825d78	-0.25461936
5	0x3e1f118a	0.15534034
6	0x3eb21760	0.3478346
7	0xbe8f9fd7	-0.28051636
8	0xbeaf1242	-0.34193617
9	0x3ecb9de9	0.39768913
10	0x3eade5ec	0.3396448
11	0xbf15be5f	-0.5849361
12	0xbec58595	-0.38578478
13	0x3f13dd51	0.5775958
14	0xbee4f7c6	-0.44720286
15	0xbde666ac	-0.11250052
16	0x3e593425	0.21211298
17	0x3e2d4819	0.16922034
18	0x3d8e5ce5	0.06951312
19	0xbe41aaab	-0.18912761
20	0xbdd9a583	-0.10627272
21	0xbeb4ce93	-0.35313854
22	0x3de3d344	0.1112428
23	0x3e92c3b7	0.28664944
24	0xbe25d183	-0.16193204
25	0x3e33bf2c	0.17553395
26	0x3e8a641d	0.27029505
27	0xbdb85c4c	-0.09001979
28	0xbd3cc220	-0.04608357
29	0x3e56b813	0.20968656
30	0x3e64f2be	0.22358224
31	0xbe912d7d	-0.28355017
32	0x3df7844e	0.12085782
33	0xbe48d7b2	-0.19613531
34	0xbdc2e3fc	-0.09516141
35	0xbec3873f	-0.38189122
36	0xbea1f1a2	-0.31629664
37	0xbeb19dc5	-0.3469068
38	0xbb0c0488	-0.0021365006
39	0xbeb1b3e5	-0.3470756
40	0xbe8702ed	-0.2636942
41	0xbe5a679c	-0.21328586
42	0x3e3425e2	0.17592576
43	0x3ebb2e7e	0.36558908
44	0x3df7b91c	0.12095854
45	0x3ea14690	0.31499147
46	0xbe860f0a	-0.2618335
47	0x3e005b97	0.12534939
48	0xbe5ff545	-0.21870907
49	0x3d9dc362	0.07703282
50	0x3d17bafc	0.037043557
51	0xbd05bdc8	-0.032651693
52	0xbe2941ff	-0.16529082
53	0x3db1a1ff	0.086734764
54	0x3e6ca1ef	0.23108648
55	0xbe67cebe	-0.2263746
56	0xbe2843d4	-0.16432124
57	0xbdcbb1fb	-0.099460565
58	0xbd5768f9	-0.052590344
59	0xbe86c43c	-0.2632159
60	0x3e35a9f3	0.17740612
61	0x3d9bdc67	0.07610398
62	0x3eab64fa	0.33475477
63	0x3e7a293a	0.24429789
64	0x3d12a852	0.035805054
65	0x3d204fcb	0.039138597
66	0xbec37654	-0.38176215
67	0x3d214515	0.039372522
68	0x3eb6d70c	0.35710943
69	0x3d14a306	0.036288284
70	0xbe0890f2	-0.13336542
71	0xbd3e4cbd	-0.046459902
72	0x3e1f9c1c	0.15586895
73	0xbcd4f2e7	-0.025994731
74	0xbead3c95	-0.33835283
75	0xbe60619b	-0.21912234
76	0xbe71278f	-0.23550247
77	0x3d378158	0.044801086
78	0xbdb41834	-0.08793679
79	0xbc0ddaa1	-0.008658082
80	0xbead5874	-0.33856547
81	0x3d682be6	0.05668249
82	0x3e39a3b2	0.18128851
83	0xbe4f3d4e	-0.2023823
84	0xbdf4dfc6	-0.11956744
85	0xbf00b267	-0.5027222
86	0xbe1313ed	-0.1436307
87	0xbd698be3	-0.057018172
88	0xbe18c632	-0.14919356
89	0x3dc8e9af	0.098101966
90	0x3e8b8d38	0.2725618
91	0x3e815a17	0.25264046
92	0x3e0997ca	0.13436809
93	0xbe8071b4	-0.2508675
94	0xbe9e8eed	-0.3096842
95	0xbe1d593f	-0.15366076
96	0xbeb1be38	-0.34715438
97	0x3e788d78	0.24272716
98	0xbe27bd89	-0.16380896
99	0xbcb879d0	-0.022519022
100	0xbdeb0d5f	-0.1147716
101	0x3e8089a9	0.25105026
102	0xbd130ef3	-0.03590293
103	0x3da7ae0a	0.08187492
104	0x3e6eda23	0.233254
105	0x3d56e6ab	0.052466076
106	0xbe4a9f94	-0.19787437
107	0x3d3df253	0.046373677
108	0x3e2f646c	0.17128152
109	0x3e14b12d	0.14520712
110	0xbe0db1ef	-0.13837408
111	0xbeb06468	-0.34451604
112	0xbde724b6	-0.11286299
113	0xbe687486	-0.227007
114	0x3df0c7f5	0.11756889
115	0xbe18c270	-0.14917922
116	0x3db1f7aa	0.08689816
117	0x3e305e94	0.17223579
118	0xbe9e5af5	-0.3092877
119	0x3e67a0cc	0.22619933
120	0xbe838686	-0.2568857
121	0xbdfe63ec	-0.12421402
122	0xbe2bfe15	-0.16796143
123	0x3dc8f2a8	0.09811908
124	0x3e926d7f	0.28599164
125	0x3e59a354	0.21253711
126	0xbe44a8ca	-0.19205013
127	0x3ea01abc	0.31270397
128	0xbe4a49cd	-0.19754715
129	0x3e15a468	0.14613497
130	0x3e43b3a9	0.19111504
131	0xbe15137d	-0.14558215
132	0x3dbc6c77	0.092003755
133	0xbe3131fc	-0.17304224
134	0x3c32c779	0.010911816
135	0x3f0369bd	0.5133322
136	0xbe5c897e	-0.21536824
137	0x3e851ed0	0.2600007
138	0xbdffd77e	-0.12492274
139	0xbb168097	-0.002296483
140	0x3e8c9dbf	0.274641
141	0xbeb95a5a	-0.36201745
142	0xbea94080	-0.33057022
143	0xbd1e04a9	-0.038578663
144	0xbe666324	-0.22498757
145	0x3d902ac4	0.07039407
146	0x3dd797dd	0.105270125
147	0x3e6a68fc	0.22891611
148	0xbe7b7b9d	-0.24558873
149	0x3ea00fc3	0.31262025
150	0x3e3afa9b	0.18259661
151	0xbece2eff	-0.4027023
152	0xbdc44c05	-0.09584812
153	0xbe17a3eb	-0.14808623
154	0xbe038177	-0.12842356
155	0x3e1a76d3	0.1508439
156	0xbe677683	-0.22603802
157	0x3eb0e294	0.34547865
158	0xbc884639	-0.016635047
159	0xbe8ab774	-0.2709309
160	0x3ce2402f	0.027618496
161	0x3e3ac33c	0.18238539
162	0x3df3d9f3	0.11906805
163	0xbbbbab4a	-0.0057272064
164	0xbe40ce10	-0.18828607
165	0x3c350483	0.011048439
166	0x3e81c8d5	0.25348535
167	0x3d32e614	0.04367645
168	0x3e83ed05	0.2576677
169	0x3dccc9bd	0.09999416
170	0x3e45742a	0.19282594
171	0xbc6b5f87	-0.014366037
172	0xbdbf72f0	-0.093480945
173	0x3e1ec50a	0.15504852
174	0x3eaedeb4	0.34154284
175	0x3d869f37	0.065733366
176	0x3e8614ab	0.26187643
177	0x3e0dafd3	0.13836603
178	0xbc5f684f	-0.013635709
179	0x3d2b5e54	0.041838005
180	0x3ddbc409	0.1073075
181	0x3dccfcd4	0.10009161
182	0x3e9b026b	0.30275282
183	0x3da8aa37	0.08235591
184	0x3c98fc3c	0.018674962
185	0xbe71af0a	-0.23601928
186	0xbda814c2	-0.08207084
187	0x3e6867e7	0.22695886
188	0x3e84eaf6	0.2596051
189	0x3e1c82fa	0.15284339
190	0xbe2e604a	-0.17028919
191	0xbdb747c3	-0.08949234
192	0x3ea16792	0.3152433
193	0xbe344ee8	-0.17608225
194	0xbdd74151	-0.10510505
195	0x3e067e73	0.13134174
196	0x3d410303	0.047122013
197	0x3eda64a1	0.426549
198	0xbe915199	-0.28382567
199	0xbea228fd	-0.31671897
200	0x3e7e1967	0.24814378
201	0xbdad6c9e	-0.08467983
202	0xbe2ec60e	-0.1706774
203	0xbe5855e3	-0.21126513
204	0x3cea7ec3	0.028624898
205	0xbe650978	-0.22366893
206	0xbe04f096	-0.12982401
207	0xbe70cd18	-0.23515737
208	0xbd37dee2	-0.044890292
209	0xbe55cde3	-0.20879321
210	0x3dd8a253	0.10577836
211	0x3e8d6256	0.27614087
212	0xbeb5f671	-0.35539582
213	0x3e7e747f	0.24849127
214	0x3db92469	0.09040148
215	0xbd1d35f6	-0.03838154
216	0x3d4183fa	0.047245003
217	0xbe063be0	-0.13108778
218	0xbc6cff5b	-0.014465178
219	0xbec69e77	-0.38792774
220	0xbe7a3221	-0.24433185
221	0xbd5515b2	-0.052022643
222	0xbd7f74b7	-0.062367167
223	0xbcd4bd3c	-0.02596914
224	0x3e25824e	0.16162989
225	0x3e89c24a	0.26906043
226	0x3ec6c65a	0.38823205
227	0xbe633876	-0.22189507
228	0x3db7bdad	0.08971725
229	0xbe436822	-0.19082692
230	0x3e48f5e9	0.19625057
231	0xbeab6939	-0.33478716
232	0x3da8acdc	0.08236095
233	0xbe98cc0c	-0.29843175
234	0xbe41055d	-0.18849702
235	0xbeb20281	-0.34767535
236	0xbe53146c	-0.20613259
237	0xbc0420f9	-0.008064502
238	0x3e51acd7	0.2047609
239	0xbdc8b50b	-0.09800156
240	0x3e44b518	0.19209707
241	0x3db16449	0.08661706
242	0xbe6a37e9	-0.2287289
243	0x3e811c30	0.25216818
244	0x3d648d95	0.055799086
245	0xbd481fb0	-0.048858345
246	0xbe261468	-0.16218722
247	0xbdd35657	-0.103192024
248	0x3da91add	0.08257077
249	0xbe25450c	-0.1613962
250	0x3de6358f	0.11240684
251	0xbdcc0258	-0.099613845
252	0xbe419467	-0.18904267
253	0x3f0c984d	0.5491989
254	0x3d814b14	0.06313148
255	0xbdfdc4c0	-0.12391043

transformer.layers.0.1.branch.1.bias f4 [64]
0	0x3e74286d	0.23843546
1	0x3f2095e5	0.6272872
2	0x3e75aa8e	0.23990843
3	0xbea7732d	-0.3270506
4	0x3dd039dc	0.10167286
5	0xbeb8bf66	-0.36083525
6	0x3e56115d	0.20905061
7	0x3eae4c20	0.34042454
8	0xbe782d7d	-0.24236102
9	0x3e2cd16f	0.16876768
10	0xbea3912c	-0.31946695
11	0xbe304b06	-0.17216119
12	0x3ea02e06	0.31285113
13	0x39bc483d	0.00035911976
14	0xbc896216	-0.016770404
15	0xbc14d77a	-0.009084577
16	0x3e102f62	0.14080575
17	0xbeb9c770	-0.3628497
18	0xbe232449	-0.1593181
19	0x3e5b8502	0.21437457
20	0x3d3eaebb	0.046553355
21	0x3e02b5a5	0.12764604
22	0xbe1f83b4	-0.15577585
23	0x3e766780	0.2406292
24	0xbd186b60	-0.037211776
25	0x3e721446	0.23640546
26	0xbe19aa78	-0.15006435
27	0xbe5e25b5	-0.21694072
28	0x3b45b07c	0.0030165007
29	0xbd82c0eb	-0.063844524
30	0x3cb1bca4	0.021696396
31	0x3e8cd0ee	0.2750315
32	0x3bdadb0a	0.0066789435
33	0xbec4facc	-0.38472593
34	0x3e1173a3	0.14204268
35	0x3dbe2ed8	0.092862785
36	0xbf031b2c	-0.51213336
37	0xbe875f44	-0.2643987
38	0x3eb88545	0.36039177
39	0xbc7ff26d	-0.015621764
40	0xbd94970a	-0.07255371
41	0xbe16fcdc	-0.14744896
42	0xbee30534	-0.44339907
43	0x3d34a4b7	0.044102397
44	0x3cbff3c2	0.023431662
45	0xbe5e992b	-0.21738116
46	0xbe78e774	-0.24307042
47	0xbbabd789	-0.0052441997
48	0x3e55c980	0.20877647
49	0x3e9d3254	0.3070246
50	0xbeaea245	-0.34108177
51	0xbe55a8b2	-0.20865133
52	0xbdcbc5fb	-0.09949871
53	0x3e696c7f	0.22795294
54	0x3e6a481f	0.22879075
55	0xbe89b596	-0.26896352
56	0xbd2e7608	-0.042593032
57	0x3b33caf0	0.0027434193
58	0xbdd30896	-0.10304372
59	0xbe05e3b8	-0.13075149
60	0x3dc48747	0.095961146
61	0x3eb181fa	0.34669477
62	0xbda03655	-0.07822863
63	0x3be90513	0.0071112006

transformer.layers.0.1.branch.4.weight f4 [8, 32]
0	0x3e62127b	0.22077362
1	0x3e2c7329	0.16840805
2	0x3e7c6193	0.24646597
3	0x3e90546f	0.28189418
4	0x3e1aa339	0.15101327
5	0xbd85ad0e	-0.06527148
6	0xbe0b83d2	-0.13624504
7	0xbe3252ea	-0.17414442
8	0xbe2f01e5	-0.17090566
9	0x3e8326f1	0.25615647
10	0x3c8ac58e	0.016939905
11	0xbd6c0927	-0.057625916
12	0xbe3b2f2d	-0.18279715
13	0xbe4ea2c5	-0.20179279
14	0x3d7e179f	0.062034246
15	0x3e2472f0	0.1605947
16	0x3e43d2af	0.19123338
17	0xbdda79f1	-0.1066779
18	0xbe249e3b	-0.16075985
19	0x3e046ef6	0.12932953
20	0x3de8d240	0.11368227
21	0xbe8b21d8	-0.27174258
22	0xbe6f141d	-0.23347516
23	0x3d1edb64	0.038783446
24	0xbc7f53e2	-0.015583964
25	0xbe20b192	-0.15692738
26	0x3dbb453a	0.09144063
27	0x3e70261d	0.23452039
28	0xbe563a11	-0.20920588
29	0x3ead711d	0.3387536
30	0xbdde848a	-0.108651236
31	0xbe1f1ffa	-0.15539542
32	0x3dce74de	0.100808844
33	0xbd88f01d	-0.06686423
34	0xbce70c39	-0.02820407
35	0xbd3016fb	-0.042990666
36	0xbddcce2c	-0.10781512
37	0x3e1ea5f4	0.15492994
38	0x3c949241	0.018136146
39	0xbc8fc4d7	-0.017549915
40	0x3da51fbf	0.08062696
41	0xbd699a06	-0.057031654
42	0x3d1f3255	0.03886636
43	0xbd4e5c60	-0.050381064
44	0x3d34486b	0.044014376
45	0x3d6940f4	0.05694671
46	0x3d22d34d	0.039752293
47	0xbdcb48cc	-0.09925994
48	0xbd3e9415	-0.04652794
49	0xbe0dcef1	-0.13848473
50	0x3df9b4a5	0.12192658
51	0xbdb04284	-0.08606437
52	0x3d29c9a7	0.041452076
53	0xbd85831a	-0.06519146
54	0x3dd04d02	0.10170938
55	0x3d6e8e30	0.05824107
56	0xbd657dd6	-0.05602821
57	0x3e0a2e28	0.1349417
58	0xbc47981e	-0.012182264
59	0x3d61ff6a	0.055175222
60	0xbdd7a73b	-0.105299436
61	0xbdfb8306	-0.1228085
62	0x3e2154f0	0.15755057
63	0x3c6e3cc5	0.014540856
64	0xbcc9d796	-0.024638932
65	0xbd20117c	-0.039079174
66	0x3d51cfc8	0.051223546
67	0xbcb3d07b	-0.021949997
68	0xbd34fe46	-0.044187807
69	0x3dece241	0.11566592
70	0xbd30fd69	-0.04321042
71	0x3ddfccc7	0.1092773
72	0x3d2f7b44	0.042842165
73	0x3cd535d3	0.026026642
74	0xbde18907	-0.11012464
75	0x3eaa5063	0.33264455
76	0x3d03eb13	0.032206606
77	0xbc0ec6c3	-0.008714381
78	0x3db78b3a	0.08962102
79	0xbdea17a7	-0.114302926
80	0xbd01959b	-0.031636816
81	0xbdf17c22	-0.117912546
82	0x3d89d764	0.067305356
83	0xbd3b83b9	-0.045779917
84	0xbca9fd8d	-0.020750785
85	0xbdbecebd	-0.09316776
86	0x3d38bd8f	0.045102652
87	0x3ccf5a8f	0.025311736
88	0xbdff14e3	-0.12455156
89	0x3d43c59f	0.047795888
90	0x3d953b6e	0.07286726
91	0x3d23c275	0.03998037
92	0xbe366796	-0.17812952
93	0xbd9e0f95	-0.07717816
94	0x3dc5289f	0.096268885
95	0xbb86dd4b	-0.0041157356
96	0x3d4a05de	0.049322
97	0x3e099d6a	0.13438955
98	0x3ce11773	0.027477002
99	0x3ba169ce	0.004925943
100	0xbe154727	-0.14577924
101	0xbe458bb8	-0.1929158
102	0xbcb96537	-0.02263127
103	0xbdc95730	-0.09831083
104	0xbd8d1700	-0.068891525
105	0xbd602145	-0.05471923
106	0xbd595720	-0.053061604
107	0xbe388493	-0.18019323
108	0xbda5836b	-0.080817066
109	0x3c18392d	0.0092909755
110	0xbd3523b4	-0.044223502
111	0x3e02abbe	0.12760827
112	0xbdc64478	-0.09681028
113	0x3dd49389	0.103797026
114	0x3e080544	0.13283259
115	0x3da68c09	0.08132178
116	0xbdd68208	-0.1047402
117	0x3d794c65	0.06086387
118	0x3dc17fe6	0.09448223
119	0xbdfff5ac	-0.1249803
120	0xbdf8b8ab	-0.121445976
121	0xbd00c362	-0.03143633
122	0xbdab973e	-0.083784565
123	0xbcb0ed9d	-0.021597678
124	0xbca71ceb	-0.020399531
125	0x3cc056ce	0.023478892
126	0xbc6de74e	-0.014520479
127	0xbe0f6b1b	-0.14005701
128	0x3cbe1662	0.023204032
129	0x3ce9fdc6	0.028563391
130	0xbddf741b	-0.10910817
131	0xbe04e916	-0.1297954
132	0xbe815c16	-0.25265568
133	0xbe8392a7	-0.25697824
134	0x3dbf0ef7	0.09329026
135	0xbe71d503	-0.23616414
136	0x3d42bf83	0.04754592
137	0xbe6a96d6	-0.22909102
138	0x3dedc4a7	0.11609774
139	0xbe5fbb17	-0.21848713
140	0x3cd1b136	0.025597196
141	0x3e51693b	0.20450298
142	0xbe34b3a6	-0.17646655
143	0xb9006074	-0.00012242963
144	0xbe08f39d	-0.13374181
145	0x3dd82ef9	0.10555834
146	0x3e519511	0.2046702
147	0xbdd42ce8	-0.10360128
148	0xbe8ba309	-0.27272823
149	0x3e2e5f4a	0.17028537
150	0x3e6c2279	0.23060025
151	0xbe1ffe2d	-0.15624304
152	0xbe2738ab	-0.16330211
153	0xbd77b82f	-0.060478386
154	0xbe1e8c39	-0.15483178
155	0xbe028b8a	-0.12748542
156	0x3e652b2c	0.2237975
157	0xbdceab06	-0.10091214
158	0x3e4af088	0.19818318
159	0x3d1f5044	0.038894907
160	0x3dce6b20	0.10079026
161	0xbdbb3686	-0.09141259
162	0xbc15141b	-0.009099032
163	0xbd8301e7	-0.06396847
164	0xbdbd450c	-0.09241685
165	0x3dd5d5b2	0.1044115
166	0x3c7df448	0.015500136
167	0xbdc9d069	-0.09854204
168	0x3dc6970d	0.096967794
169	0xbd9bde9e	-0.0761082
170	0xbe3d2a71	-0.18473221
171	0x3d4ade19	0.049528215
172	0x3d9ac1be	0.07556485
173	0x3dc94182	0.09826948
174	0x3d946bda	0.072471336
175	0xbe3fe00f	-0.18737815
176	0xbd95c145	-0.07312254
177	0xbdff5a0e	-0.124683484
178	0x3dc2d526	0.09513311
179	0xbdbc0fc1	-0.09182692
180	0xbb3c9d4b	-0.0028780277
181	0xbd905efc	-0.07049367
182	0x3dbd1241	0.09231997
183	0x3c96a817	0.018390698
184	0xbd207514	-0.039174154
185	0x3d93d4b0	0.07218301
186	0x3b9271d1	0.0044691344
187	0xbbe18a1c	-0.006882919
188	0xbd8edd18	-0.06975764
189	0xbde39126	-0.11111669
190	0x3e263766	0.1623207
191	0x3e0f0cc8	0.1396972
192	0x3bb8a419	0.0056347963
193	0x3e1ff207	0.1561967
194	0x3df5bac0	0.1199851
195	0x3de05145	0.10953001
196	0xbd5be1e4	-0.053682223
197	0xbddf7e57	-0.10912769
198	0xbd83e753	-0.06440606
199	0x3c994570	0.018709868
200	0xbdb768fd	-0.08955572
201	0x3da7660d	0.081737615
202	0xbc5113ea	-0.012761096
203	0x3d5d1d72	0.05398316
204	0xbdc1f114	-0.0946981
205	0xbd967259	-0.07346029
206	0xbd9a270f	-0.07526981
207	0x3de4e654	0.11176744
208	0xbd632b6f	-0.055461343
209	0xbd0255d0	-0.03182012
210	0x3d3bb11e	0.04582321
211	0x3db94916	0.09047143
212	0xbc397a74	-0.011320699
213	0xbd7a1491	-0.06105477
214	0xbc7e58c4	-0.015524093
215	0xbb2bd90f	-0.0026221906
216	0xbd3608c2	-0.044441946
217	0xbe2c99c8	-0.16855538
218	0x3e24cdf8	0.16094196
219	0x3df6abe5	0.12044505
220	0xbdc909c1	-0.098163135
221	0x3dcf554a	0.101236895
222	0xbd4da22c	-0.050203487
223	0xbe0525f9	-0.13002767
224	0xbd07bade	-0.033137195
225	0x3df10580	0.11768627
226	0x3ddced59	0.10787458
227	0x3df69918	0.12040919
228	0x3c238e04	0.00998259
229	0xbe064193	-0.13110952
230	0xbd10c670	-0.035345495
231	0x3c2d97f7	0.010595313
232	0xbdfc58a0	-0.123215914
233	0x3d08fe2c	0.033445522
234	0xbc45a67c	-0.012063619
235	0x3dfc03ce	0.12305413
236	0xbe151b78	-0.1456126
237	0xbcadbf0d	-0.021209264
238	0xbd65d80c	-0.05611424
239	0x3df64d3b	0.12026449
240	0xbdd0a357	-0.101874046
241	0xbcaf78f3	-0.021419978
242	0xbd0b5474	-0.034016088
243	0x3e0173f5	0.1264189
244	0xbd868cc7	-0.0656982
245	0xbdd53b71	-0.10411728
246	0xbd9f11b4	-0.077670485
247	0x3ca4bf71	0.020110818
248	0xbd1260c2	-0.035736807
249	0xbd380628	-0.044927746
250	0xbd23dca6	-0.04000535
251	0x3c1f9548	0.009740181
252	0xbdd903da	-0.10596438
253	0x3e38a159	0.18030299
254	0xbc05a446	-0.008156842
255	0xbdb464ac	-0.08808264

transformer.layers.0.1.branch.4.bias f4 [8]
0	0x3d6be553	0.057591747
1	0x3cdc13c2	0.02686489
2	0xbddd9614	-0.10819641
3	0x3dbf4072	0.09338464
4	0x3de7afda	0.11312838
5	0x3e2ebcdd	0.17064233
6	0x3db096db	0.086225234
7	0x3d16cd41	0.03681684

transformer.layers.0.1.norm.gamma f4 [8]
0	0x3e4ace7f	0.19805335
1	0x3eee92c3	0.46596345
2	0x3f0335f6	0.5125421
3	0x3e9a4da4	0.3013736
4	0x3e8fc909	0.28083065
5	0x3f03fee6	0.5156082
6	0x3e9230d7	0.28552887
7	0x3ef12700	0.47100067

transformer.layers.1.0.static_alpha f4 [4, 5]
0	0x3f5da3b2	0.86577904
1	0x3f800000	1.0
2	0x00000000	0.0
3	0x00000000	0.0
4	0x00000000	0.0
5	0xbdccfab8	-0.10008758
6	0x00000000	0.0
7	0x3f800000	1.0
8	0x00000000	0.0
9	0x00000000	0.0
10	0xbdbd326e	-0.09238134
11	0x00000000	0.0
12	0x00000000	0.0
13	0x3f800000	1.0
14	0x00000000	0.0
15	0xbdf0055b	-0.117197715
16	0x00000000	0.0
17	0x00000000	0.0
18	0x00000000	0.0
19	0x3f800000	1.0

transformer.layers.1.0.dynamic_alpha_fn f4 [8, 5]
0	0xbd420791	-0.047370497
1	0x00000000	0.0
2	0x00000000	0.0
3	0x00000000	0.0
4	0x00000000	0.0
5	0xbda33b44	-0.079702884
6	0x00000000	0.0
7	0x00000000	0.0
8	0x00000000	0.0
9	0x00000000	0.0
10	0xbe4a3441	-0.19746496
11	0x00000000	0.0
12	0x00000000	0.0
13	0x00000000	0.0
14	0x00000000	0.0
15	0x3d208105	0.039185543
16	0x00000000	0.0
17	0x00000000	0.0
18	0x00000000	0.0
19	0x00000000	0.0
20	0x3e1eaa97	0.15494762
21	0x00000000	0.0
22	0x00000000	0.0
23	0x00000000	0.0
24	0x00000000	0.0
25	0xbdc72be0	-0.09725165
26	0x00000000	0.0
27	0x00000000	0.0
28	0x00000000	0.0
29	0x00000000	0.0
30	0x3d6ea170	0.058259428
31	0x00000000	0.0
32	0x00000000	0.0
33	0x00000000	0.0
34	0x00000000	0.0
35	0x3dcf8cf9	0.1013431
36	0x00000000	0.0
37	0x00000000	0.0
38	0x00000000	0.0
39	0x00000000	0.0

transformer.layers.1.0.static_beta f4 [4]
0	0x3f866c91	1.0501882
1	0x3f76ad75	0.96358424
2	0x3f81afb4	1.0131745
3	0x3f83f5ec	1.0309424

transformer.layers.1.0.dynamic_beta_fn f4 [8]
0	0x3e0db5fb	0.13838951
1	0x3d3a8d65	0.045545
2	0x3d96e5dd	0.07368062
3	0xbde5cbce	-0.11220513
4	0xbe089239	-0.1333703
5	0xbe5a00d5	-0.2128938
6	0x3c883771	0.016627999
7	0xbd185d89	-0.037198577

transformer.layers.1.0.branch.norm.weight f4 [8]
0	0x3f69e374	0.9136269
1	0x3f804232	1.0020201
2	0x3f924098	1.1425962
3	0x3f6596f1	0.89683443
4	0x3f85ebd6	1.0462596
5	0x3f7ee0d4	0.9956181
6	0x3f7cd16d	0.9875706
7	0x3f64fc52	0.8944751

transformer.layers.1.0.branch.norm.bias f4 [8]
0	0x3cb73238	0.022362813
1	0x3d00fded	0.031492162
2	0x3e22d17f	0.15900229
3	0x3c97ddca	0.018538374
4	0xbdbdc28a	-0.09265621
5	0xbdd06e9c	-0.10177347
6	0xbdcecbdb	-0.10097476
7	0xbd1b3ea4	-0.037901536

transformer.layers.1.0.branch.to_qkv.weight f4 [192, 8]
0	0xbe0b145b	-0.13581984
1	0x3e65d34b	0.22443883
2	0x3e7fb599	0.24971618
3	0xbd301e29	-0.042997513
4	0x3ea83074	0.32849467
5	0xbddbdf99	-0.10736007
6	0xbd85cfc8	-0.06533772
7	0x3ce77d5a	0.028258014
8	0x3cdd9383	0.027047878
9	0x3e274cad	0.16337843
10	0xbe8c1b1c	-0.27364433
11	0xbda51381	-0.08060361
12	0xbe725bf7	-0.23667894
13	0xbe4d7e0b	-0.20067613
14	0xbe18f20a	-0.1493608
15	0x3e8172ea	0.25282985
16	0x3f03e7f0	0.51525784
17	0x3d460c6e	0.048351698
18	0xbe9e0aec	-0.30867708
19	0xbe584dbf	-0.21123408
20	0x3d155e34	0.036466792
21	0x3e158e69	0.14605106
22	0xbe695d25	-0.22789438
23	0x3d87d54d	0.06632481
24	0x3cf46912	0.029835258
25	0x3e939539	0.28824785
26	0x3ea4262d	0.32060376
27	0xbde93bad	-0.113883354
28	0xbd6d9738	-0.05800554
29	0x3eb26a5d	0.34846774
30	0xbecff679	-0.4061773
31	0xbf11e74b	-0.5699355
32	0x3eb56d21	0.3543482
33	0x3eda6291	0.42653325
34	0xbe001a0d	-0.12509938
35	0xbd91184d	-0.07084713
36	0xbcd5f2e7	-0.026116801
37	0xbd35949d	-0.04433118
38	0x3e9b204a	0.30298072
39	0xbe343b83	-0.17600827
40	0x3e9f95c1	0.3116894
41	0xbe51562c	-0.20443028
42	0x3dc449f5	0.09584419
43	0x3ec273a7	0.3797886
44	0xbe9f40d3	-0.31104144
45	0x3e8bbb66	0.2729141
46	0xbeb0cb1d	-0.34529963
47	0x3e8cdb02	0.2751084
48	0x3ef29d67	0.47385713
49	0xbe84acea	-0.25913173
50	0x3e040a1d	0.12894483
51	0x3e09a116	0.13440356
52	0x3d74e6e7	0.059790518
53	0x3aef051f	0.0018235779
54	0x3ec9c8a3	0.39410886
55	0x3d269963	0.040673625
56	0x3de00672	0.10938729
57	0x3dc4f5ca	0.09617193
58	0x3e7060d5	0.23474438
59	0x3db6e2e5	0.089299954
60	0xbe9f411f	-0.3110437
61	0x3e162c3c	0.14665312
62	0xbea825e0	-0.32841396
63	0xbee1ba28	-0.44087338
64	0x3ea39fdf	0.3195791
65	0xbed57309	-0.41689327
66	0xbe919bf7	-0.28439304
67	0xbd22a092	-0.039703913
68	0x3e94e683	0.29082116
69	0xbe904c6c	-0.28183305
70	0xbc900227	-0.017579151
71	0x3e70ecf1	0.23527886
72	0xbf02316e	-0.50856674
73	0x3e9fb140	0.3118992
74	0x3e361198	0.17780149
75	0xbdc5bd15	-0.09655205
76	0x3eb57bdf	0.3544607
77	0x3e4842e3	0.19556765
78	0xbe670fe6	-0.22564659
79	0xbdc71547	-0.09720855
80	0xbdced163	-0.10098531
81	0xbe96f728	-0.2948544
82	0x3c962d97	0.018332286
83	0x3e0ef0cc	0.13959044
84	0x3e16b1af	0.14716218
85	0x3e1d4f5c	0.15362304
86	0xbe89ce65	-0.2691528
87	0x3e942a58	0.28938556
88	0xbd304def	-0.043043073
89	0x3e2d239f	0.1690812
90	0xbebe23fa	-0.37136823
91	0x3e7fee7b	0.24993317
92	0xbe280bfe	-0.16410825
93	0xbf0c9f44	-0.5493052
94	0x3ec92dde	0.39292806
95	0x3c0ac86f	0.008470639
96	0x3e14f4ea	0.14546552
97	0x3e13ef96	0.14446864
98	0xbe8e77a2	-0.27825648
99	0xbeab3253	-0.33436832
100	0x3d37019e	0.044679277
101	0xbe1e1aaa	-0.15439859
102	0x3d86ccf6	0.06582062
103	0xbdfed782	-0.124434486
104	0x3dbc21b6	0.09186117
105	0x3e99f65b	0.30070767
106	0x3c7a5f20	0.015281469
107	0xbecc0108	-0.39844537
108	0x3e03ca9a	0.12870255
109	0x3e15c6e3	0.1462665
110	0xbecce02f	-0.40014789
111	0xbe34933e	-0.17634293
112	0xbd0be033	-0.03414936
113	0xbe727552	-0.23677567
114	0xbe7de1dd	-0.24793191
115	0x3e20efc3	0.15716462
116	0xbe848a6c	-0.25886858
117	0x3d86752f	0.0656532
118	0xbd98cef0	-0.07461345
119	0x3e6e2bcc	0.23258895
120	0x3da52573	0.080637835
121	0x3da99b17	0.08281534
122	0xbeb04ae9	-0.34432152
123	0xbe584793	-0.21121053
124	0x3dacdaea	0.08440192
125	0xbe12ffa4	-0.14355332
126	0x3e30d324	0.17268044
127	0x3ede664e	0.43437427
128	0x3defc82a	0.117081
129	0xbdd365c6	-0.10322146
130	0x3dd7a068	0.10528642
131	0x3d90e54e	0.070749864
132	0x3ea60e43	0.32432756
133	0xbe41d2be	-0.18928048
134	0xbe05c0ef	-0.1306188
135	0xbd741a12	-0.059595175
136	0xbefa6b48	-0.48909974
137	0x3d39c7b5	0.04535647
138	0xbdd17ca3	-0.10228851
139	0xbd3cdd80	-0.046109676
140	0x3e592ec2	0.21209243
141	0x3edbab22	0.42904
142	0xbedc6d79	-0.4305227
143	0x3e008c88	0.12553608
144	0xbe643854	-0.22287112
145	0x3ee7e983	0.45295343
146	0x3ea1f753	0.31634006
147	0xbeac0448	-0.33597016
148	0xbedf002d	-0.43554822
149	0x3e5019e2	0.20322374
150	0xbea000b6	-0.31250542
151	0x3c51b76e	0.012800081
152	0xbe3bb36a	-0.1833016
153	0xbec26163	-0.37964925
154	0xbed547f2	-0.41656452
155	0x3ea73b97	0.3266265
156	0x3eb3b9dc	0.35102737
157	0x3daf0abd	0.0854697
158	0x3ea7ac59	0.32748678
159	0x3ea00bfe	0.3125915
160	0xbe6aff33	-0.22948913
161	0xbdf7c946	-0.12098937
162	0x3e08da27	0.13364469
163	0xbe8f7f5b	-0.28026852
164	0xbe27329c	-0.163279
165	0xbe5dd6fb	-0.2166404
166	0xbeb1d3a3	-0.34731779
167	0xbeb8f638	-0.3612535
168	0xbe27bd5f	-0.16380833
169	0xbe529748	-0.20565522
170	0x3ea99519	0.33121565
171	0xbee656d7	-0.4498813
172	0xbe64c79b	-0.22341768
173	0x3e27ab97	0.1637405
174	0x3e3b29df	0.18277691
175	0xbeb6fc05	-0.3573915
176	0x3e9bb885	0.30414215
177	0x3dda0016	0.10644548
178	0xbbdaa896	-0.006672929
179	0x3e778a92	0.24173954
180	0xbe46b461	-0.19404747
181	0x3e3026cb	0.17202298
182	0xbcef3922	-0.029202048
183	0x3eb0ab4f	0.34505698
184	0x3de6c6d4	0.11268392
185	0xbeba8554	-0.36429846
186	0xbd9f14b7	-0.07767623
187	0x3e7f8e86	0.24956712
188	0xbd8aa189	-0.06769092
189	0xbec02798	-0.37530208
190	0xbe156eba	-0.1459302
191	0xbdaf48e5	-0.085588254
192	0x3eabba94	0.33540785
193	0xbe1df0f2	-0.15423945
194	0x3e91bb93	0.2846342
195	0xbdf989b7	-0.1218447
196	0xbeccb563	-0.39982137
197	0x3c9c5086	0.019081365
198	0x3d9c8034	0.0764164
199	0xbe2c468b	-0.16823785
200	0xbecd5757	-0.40105698
201	0xbe58184e	-0.21103022
202	0x3e684cdb	0.22685568
203	0x3e09957a	0.13435927
204	0x3dfb2521	0.12262941
205	0xbe74151d	-0.23836179
206	0xbed51bb7	-0.41622707
207	0xbec30bf6	-0.38095063
208	0x3eb02c08	0.34408593
209	0xbe5f30b8	-0.21795928
210	0x3e6b96b6	0.2300671
211	0x3d8cba16	0.068714306
212	0x3e675c9b	0.2259392
213	0xbe27d1ef	-0.16388677
214	0x3e1e931e	0.15485808
215	0xbc530658	-0.01287993
216	0x3df8f983	0.121569656
217	0xbe96bf71	-0.29442933
218	0xbe5f8bbb	-0.21830647
219	0x3dc459b7	0.09587424
220	0x3eb7f2f9	0.3592756
221	0x3df484a2	0.1193936
222	0xbd731da5	-0.059354443
223	0x3e06b630	0.13155437
224	0xbea9c805	-0.33160415
225	0xbd9f91cb	-0.0779148
226	0xbec2c033	-0.3803726
227	0xbd799024	-0.06092848
228	0xbcc86dfe	-0.02446651
229	0xbe6e3a1c	-0.23264354
230	0x3d8e22f3	0.0694026
231	0x3e398923	0.1811872
232	0xbeb0c61c	-0.34526145
233	0x3d812dee	0.063075885
234	0x3e8655a9	0.2623723
235	0xbe818564	-0.2529708
236	0xbe792f7f	-0.24334525
237	0x3e984a98	0.2974441
238	0xbd7d6b86	-0.06187012
239	0xbe84d919	-0.25946882
240	0xbd9d121c	-0.0766947
241	0x3dda79fc	0.10667798
242	0xbea4a008	-0.32153344
243	0xbe98c03b	-0.2983416
244	0x3e832484	0.25613797
245	0x3dae5383	0.08512022
246	0x3d6e7076	0.05821272
247	0xbe8a0038	-0.26953292
248	0x3d97a209	0.07403953
249	0xbe843060	-0.25818157
250	0xbe3e2ae2	-0.18571046
251	0xbc14065a	-0.009034717
252	0x3d1dbc40	0.038509607
253	0x3ecfb982	0.4057122
254	0x3e8282ce	0.2549042
255	0xbda9e027	-0.08294707
