trained_models/physical_loss_training/model_PhysicsLambda1_date_20250810_epoch100.pt (torch, 94345 bytes, 87 tensors)

cls_token f4 [1, 1, 8]
00000000: 7337 3dbf 9ed8 dd3f 4d55 ec3e ed0b a83f
00000010: 4b04 efbf 8c76 e8be 4181 923d 0e83 813f
-0.73912734 1.7331731 0.4615883 1.312864 -1.8673185 -0.45402944 0.071535595 1.011812

categorical_embeds.weight f4 [3, 8]
00000000: 070f a03f 7b22 e33a 3d6b b0bf 460c 1a3f
00000010: 5f4c ad3e 85c2 f03e dc57 37be 6beb 57be
00000020: fd1c d9bb 92cd d53e a400 f73e a501 86be
00000030: f1a7 b0be 8e04 a6bf 64e2 383e d799 2e3f
00000040: a8b8 963f a34f e8bd c56e 21bf 5f9c f23f
00000050: 730c 913e a61f 8dbf 3f5f 04c0 5f97 443f
1.2504586 0.0017329002 -1.3782727 0.6017498 0.3384733 0.47023407 -0.1790461 -0.21085899
-0.00662577 0.417584 0.48242676 -0.2617313 -0.3450313 -1.297014 0.18055111 0.6820349
1.1775103 -0.113433145 -0.63059646 1.8953971 0.2832981 -1.1025283 -2.0683134 0.76793474

numerical_embedder.weights f4 [8, 8]
00000000: c913 92be 0fe9 05be 071c c23f db3e ef3b
00000010: 0857 bc3f 68a3 cdbe 0c0c 753f c799 68bf
00000020: cfd4 bd3e da6f 23c0 4ac1 c2bd a952 083f
00000030: 0d22 c8bf d141 e53c f461 483f caa2 b73f
00000040: 6e33 d13e b13e 07be 8ff9 38bf 14bf 833f
00000050: b3d5 80bf b9a5 63be 13e7 8ebf ca6c 04bf
00000060: 886c 75bf b535 413f 0b6e 8f3f f049 e7bf
00000070: 2504 e23c 59cf 2a3f c0dd cd3e d77a 923f
00000080: 4712 4b3e 6c34 86bf 2e52 35bf c68a b3bf
00000090: 5ea2 c13e 2715 5bbf 6459 3bbe e583 903f
000000a0: 656a b13e b2e6 073f 7bb8 7cbf a21e 343e
000000b0: b405 653e 72eb d73d e7c3 763f e433 913f
000000c0: cbe6 b1bf 648b 7a3f 0345 e3bd 51b7 e13e
000000d0: 47d1 36bf 2577 e13e b37e 9e3f 9587 573f
000000e0: c012 95be 8322 8ebf a84e e6be a597 273f
000000f0: 39df 0140 c3b4 84be 1903 a43e 7616 573f
-0.2853072 -0.13077186 1.5164803 0.007301194 1.471406 -0.40163732 0.9572151 -0.90859646
0.37076423 -2.5537019 -0.09509523 0.5325113 -1.5635391 0.027985485 0.78274465 1.4346554
0.4085955 -0.13207509 -0.72255796 1.0292687 -1.0065216 -0.22231187 -1.1164268 -0.517285
-0.9586873 0.75472575 1.1205457 -1.8069439 0.027589867 0.6672264 0.40208244 1.1443738
0.19831191 -1.0484748 -0.7082852 -1.4026725 0.3781919 -0.8557915 -0.18295819 1.1290251
0.34651485 0.5308639 -0.98718995 0.1758981 0.22365457 0.105429545 0.96392673 1.1343961
-1.3898557 0.97868943 -0.11097147 0.44085172 -0.7141308 0.44036213 1.2382416 0.84191257
-0.29115868 -1.1104282 -0.44981885 0.65465766 2.0292494 -0.2591916 0.32033613 0.8401865

numerical_embedder.biases f4 [8, 8]
00000000: 4806 2e3e 8db0 1d3f 4534 84bd a027 86bf
00000010: e736 c43f 7fb3 213f 954e a03d 18ef 3d3f
00000020: 959c 113e b8a1 a03e 5f56 2e40 3359 9ebf
00000030: cdd3 1940 f933 563e 54d0 ad3f 16c2 efbe
00000040: 5b12 81bf 95d6 aebe 68e3 aabb 9a73 28bf
00000050: 2a13 13be f640 0e3f f9f1 383e 82d6 123f
00000060: 26c1 78bf c868 08bf e17e c63f 0c3c 193f
00000070: 0413 75bd 7161 16bf c5ae c53f bf8a 823e
00000080: 1ae7 5b3e ea89 0fbd a8ee 1e3f 2020 49bf
00000090: 32f2 bf3e 7588 453f 1b06 39bf 26d7 8f3f
000000a0: 2aea 8bbe 9a55 813f 7fa4 29be a5d9 eabe
000000b0: 5d0c d4bf 4d0f ee3e 2e91 5c3f 5ae1 ac3f
000000c0: 6f9d 08be 5d7b 433f d53c 943d 1147 6f3f
000000d0: a000 ffbe 45ec 863f be1d 0ec0 8597 7e3e
000000e0: b342 2f3f 4502 37bf c6d5 b2be 4221 98be
000000f0: 0238 0e40 589e 00bf d897 fc3e 4533 2940
0.16994584 0.6159752 -0.06455282 -1.0480843 1.5329255 0.63164514 0.07827488 0.74192953
0.14219888 0.31373382 2.7240217 -1.2370971 2.4035523 0.20918263 1.3579202 -0.46827763
-1.0083727 -0.34148088 -0.005215097 -0.65801394 -0.1436278 0.5556787 0.18061055 0.5735856
-0.9716972 -0.53284883 1.550747 0.5985725 -0.059832588 -0.58742434 1.544396 0.2549648
0.21474877 -0.035043634 0.6208291 -0.78564644 0.37489468 0.7716134 -0.7227494 1.1237533
-0.2732709 1.0104249 -0.16566657 -0.45869175 -1.6566273 0.4649605 0.86159027 1.3506272
-0.13341306 0.7636011 0.07238165 0.93467814 -0.49805164 1.0540854 -2.2205653 0.24862488
0.6846115 -0.7148784 -0.3492872 -0.29712874 2.2221684 -0.50241613 0.49334598 2.6437542

transformer.layers.0.0.static_alpha f4 [4, 5]
00000000: 20e2 d13c 0000 803f 0000 0000 0000 0000
00000010: 0000 0000 20e2 d13c 0000 0000 0000 803f
00000020: 0000 0000 0000 0000 20e2 d13c 0000 0000
00000030: 0000 0000 0000 803f 0000 0000 8547 833f
00000040: 0000 0000 0000 0000 0000 0000 0000 803f
0.02562052 1.0 0.0 0.0 0.0 0.02562052 0.0 1.0
0.0 0.0 0.02562052 0.0 0.0 1.0 0.0 1.0256201
0.0 0.0 0.0 1.0

transformer.layers.0.0.dynamic_alpha_fn f4 [8, 5]
00000000: 92fd 8ebc 0000 0000 0000 0000 0000 0000
00000010: 0000 0000 43be cb3b 0000 0000 0000 0000
00000020: 0000 0000 0000 0000 dc6b 20bb 0000 0000
00000030: 0000 0000 0000 0000 0000 0000 2296 a4bb
00000040: 0000 0000 0000 0000 0000 0000 0000 0000
00000050: 720f 7fbc 0000 0000 0000 0000 0000 0000
00000060: 0000 0000 613d 413c 0000 0000 0000 0000
00000070: 0000 0000 0000 0000 8fa9 003c 0000 0000
00000080: 0000 0000 0000 0000 0000 0000 96cf 9b3c
00000090: 0000 0000 0000 0000 0000 0000 0000 0000
-0.017454896 0.0 0.0 0.0 0.0 0.0062177493 0.0 0.0
0.0 0.0 -0.0024478352 0.0 0.0 0.0 0.0 -0.00502278
0.0 0.0 0.0 0.0 -0.015567647 0.0 0.0 0.0
0.0 0.011794419 0.0 0.0 0.0 0.0 0.007852926 0.0
0.0 0.0 0.0 0.019019883 0.0 0.0 0.0 0.0

transformer.layers.0.0.static_beta f4 [4]
00000000: 06bf 853f bbe2 7c3f 5c8e 873f bbe2 7c3f
1.0448921 0.98783463 1.059032 0.98783463

transformer.layers.0.0.dynamic_beta_fn f4 [8]
00000000: cf5a 10bd 8333 1e3d 81c7 a43c b3f5 293d
00000010: 7193 1abd bba7 0ebd 7686 53bd 4275 5b3d
-0.03524285 0.038623344 0.020114662 0.041494083 -0.037738267 -0.03482793 -0.051641904 0.053578623

transformer.layers.0.0.branch.norm.weight f4 [8]
00000000: 8091 853f b6dc 7b3f f0b0 7a3f eb63 833f
00000010: 01b9 7f3f 083b 7d3f 77b4 813f 5a85 843f
1.0435028 0.98383653 0.97926235 1.0264868 0.9989167 0.989182 1.0133198 1.0353196

transformer.layers.0.0.branch.norm.bias f4 [8]
00000000: 5555 1fbd d782 a5bc b7f7 a63c fb2c f03c
00000010: 5447 74bc 81fa 1abb 4edc cf3c cfbf 123d
-0.03889974 -0.02020399 0.020381792 0.029318323 -0.014909584 -0.0023647847 0.025373604 0.035827454

transformer.layers.0.0.branch.to_qkv.weight f4 [192, 8]
00000000: cb5a bc3e bd7d b3be 4625 8b3e 064d 883e
00000010: 6a97 1a3e 68cf 6a3e 0164 a5be ff4f 98be
00000020: 0981 2dbd 7e4d 09bd 4879 6dbe e67c 843e
00000030: 0b1d 073e e14c 23be c0ee b33e 662c b0be
00000040: b20d 9ebe b0d3 90ba 72a1 3b3e 321f 25be
00000050: b384 aebd e492 a73e 3563 483c 7a27 49be
00000060: 438f 70bd 4119 7f3e e7b5 493e f46d fbbc
00000070: 60c2 4f3e d9b2 acbe a614 bb3e 4bf1 2dbd
00000080: 4b82 50be d7b0 3cbe e8b6 ae3e 7033 b53e
00000090: aadd 78be 1a2c ecbd 5a22 39bd e864 b13e
000000a0: 8160 4ebe 0d0d b9bd 8395 613c f187 823e
000000b0: 00bc 82bd 6611 46bd 9b69 203e 3066 e8bc
000000c0: 599a 343e 7d54 8dbe cbd4 86be aa58 03be
000000d0: 025f f73d ce81 77be 03ce 07bd f46c 1abd
000000e0: d0bd 32be c61f c1be 101d b9be 08c9 063e
000000f0: 4d78 963e b276 ee3d df87 923e bc85 45be
00000100: 957e 1c3e b260 bb3d 8439 aa3e 6cf3 9bbe
00000110: cc76 6cbe fcd1 93be 2698 b53d 4c98 04be
00000120: 400f bfbb 5b50 1fbe 2ef1 ab3e 4d01 dcbc
00000130: bb6f 3e3e df59 89be cc38 93be daf8 9bbd
00000140: 48cb 8cbe 05b0 20bd 5eb5 9abe 25bd 16be
00000150: 2184 b6bd caf1 383d 8c94 a23c 558b cf3d
00000160: 7ffa 2e3e 90d4 5a3e f87e 04be 0b9c 61bd
00000170: 1bf0 c83b 4199 08be eab4 313e 4e66 0a3d
00000180: 9d60 f43b e962 db3d 0afe 74be 40bb 963e
00000190: c836 1cbe ee36 9fbe 547e ac3e 0bd4 efbd
000001a0: f1b3 8ebe 2649 63be 9a9c 233d eff8 d33d
000001b0: 65bd a33e 81ab a0bd 4558 a73e 7b22 45be
000001c0: 4f56 8cbc 33d9 c1be 9a1b a63e effc 14be
000001d0: e605 553e b9ea 413e e296 4cbe 6445 6c3e
000001e0: 72a3 1dbe f2a8 073e 3ddf 3c3e b96d 003e
000001f0: 2303 373d cac7 85bd 0779 5f3d a891 90bd
00000200: a517 8e3e 6f39 29b9 0380 9ebe 81c3 adbc
00000210: 3e1a a83e 6733 5f3e ca57 58bd cb07 4f3e
00000220: 144a d63d 396e 973e 3a35 69be fbdb 37bd
00000230: ef3e dbbd 356a 96be b935 dabd 8ed3 583c
00000240: 01d4 fe3c 3301 a2be c620 53be 470a febc
00000250: 02f6 97be ea66 313e 8eec a4be b8df 3dbe
00000260: 3f71 f1bd 9a8e 1e3e c0d0 60be 5310 b0be
00000270: 719b 86bd 891a e23d 25f3 87be f610 543e
00000280: aba6 48be aa32 013e d0b0 97be d4df 22be
00000290: f0fc 8bbe 0977 5c3e 3f9f 8bbc 51d1 3fbe
000002a0: 6663 973e cbaf 6ebc cb85 95bc 8392 9e3e
000002b0: 0d4d 3e3d c8b4 c1bd 22e1 3ebd 14b7 063e
000002c0: d0e0 83be aca0 9b3e f61b 1ebc bc07 82bd
000002d0: 8f6c 243e a2d5 303e 6b8e a23e df39 913d
000002e0: 6d12 4abb 4530 843e 687a b0be ee6b 823c
000002f0: 8c92 403d 5175 983c 8219 90be c6ab b6bd
00000300: 258d b0be 8bf5 d3bc 77f3 22bd 5f18 973e
00000310: 3bbf fa3d 39d0 af3d 3a6c 08be 954b aabe
00000320: 3c20 5abe 3f30 553d c17b d13d 09e4 54be
00000330: a395 5bbe 45bb a33e 7fc3 93be d189 413d
00000340: 3827 71bd 35bc 1d3e eb59 803e d14a 483e
00000350: 6bfb 66be f062 8c3e cd45 173e bf7e 98bc
00000360: 8eec 9a3e 5676 9dbe 3d06 7bbd 9842 2c3e
00000370: 12d2 fbbd a6d9 02bb 3822 6ebe 4278 703e
00000380: 4afb 26be 86da 04be 66d6 9cbd b704 51be
00000390: c53b 5d3e 26dd 323e 4d81 9ebe 1bbc 073e
000003a0: 571c 87be 6ac1 9ebe 8f64 bfbe e042 ff3d
000003b0: 8dcf 3a3c 59be c2bd 9006 8cbe ba86 84bd
000003c0: c9ff 7fbe fc29 513a 2f02 773e f4c3 98be
000003d0: dd88 75be 3239 9b3e b4cd 733e f049 213e
000003e0: 5b77 b93d 1612 a3be f7c9 65be f165 023e
000003f0: 00cb 9bbe 7037 1e3e 03dd f1bd 6f53 ba3e
0.3678802 -0.35056868 0.27176875 0.26621264 0.15096822 0.22930682 -0.3230286 -0.29748532
-0.042359386 -0.033521168 -0.23190796 0.2587654 0.13194673 -0.15947296 0.3514309 -0.34408873
-0.30869824 -0.0011049416 0.18323305 -0.16125181 -0.08521404 0.32729256 0.012230684 -0.19643965
-0.058730375 0.24911977 0.19698296 -0.030692078 0.20288992 -0.337302 0.3653919 -0.042466443
-0.20362203 -0.18426834 0.3412392 0.35390806 -0.24303308 -0.11531849 -0.045198776 0.34647298
-0.20154001 -0.09035692 0.0137685565 0.2549434 -0.063835144 -0.048356436 0.15665285 -0.02836904
0.17637004 -0.27603522 -0.26334223 -0.12826791 0.12078668 -0.2417061 -0.033155452 -0.037701562
-0.1745522 -0.37719554 -0.36154985 0.13162625 0.29388657 0.11643733 0.28619286 -0.19289297
0.15282662 0.091493025 0.33247006 -0.30459154 -0.23092192 -0.28871143 0.08866911 -0.12948722
-0.0058306754 -0.15557997 0.33582443 -0.026856089 0.1859731 -0.2682638 -0.2875427 -0.07615824
-0.2749884 -0.039230365 -0.30216497 -0.1472059 -0.0891192 0.045152463 0.019846223 0.10133997
0.17087744 0.21370149 -0.1293906 -0.055080455 0.0061321384 -0.13339712 0.1735417 0.03378897
0.0074578063 0.10712225 -0.23925033 0.29439735 -0.15255272 -0.31096596 0.3369013 -0.11710366
-0.2787166 -0.22195873 0.03994427 0.10350215 0.31980434 -0.07845212 0.32684532 -0.19251435
-0.017130999 -0.37861022 0.32442933 -0.14549612 0.20803031 0.18937196 -0.19979432 0.23073345
-0.1539438 0.13248041 0.18444534 0.12541856 0.044680726 -0.06532247 0.05455878 -0.07059032
0.27752414 -0.00016138492 -0.3095704 -0.021211388 0.3283252 0.21796952 -0.052818097 0.20217817
0.10463348 0.2957628 -0.2277421 -0.044887524 -0.10705363 -0.29377905 -0.10654778 0.013234032
0.03110695 -0.3164154 -0.20617971 -0.03101076 -0.29679877 0.17324415 -0.32211727 -0.18542373
-0.11789178 0.15484086 -0.21954632 -0.34387454 -0.06572617 0.110402174 -0.26552692 0.20709595
-0.19594829 0.12616983 -0.29627085 -0.15905696 -0.27341413 0.21529783 -0.017043708 -0.18732192
0.29568022 -0.0145682795 -0.018252274 0.30971155 0.0464602 -0.094583094 -0.046601422 0.13155776
-0.25757456 0.3039602 -0.009650221 -0.063491315 0.16057037 0.17268994 0.3174928 0.07091116
-0.0030833737 0.25818077 -0.3446839 0.015920606 0.047014758 0.018610628 -0.2814446 -0.08919482
-0.34482685 -0.02587392 -0.039782967 0.2951078 0.122435056 0.08584637 -0.13322535 -0.3326079
-0.21301359 0.052047964 0.10228682 -0.20790114 -0.214438 0.31978813 -0.2886009 0.047250573
-0.058875293 0.15403827 0.25068602 0.1955979 -0.22556846 0.27419233 0.1477272 -0.018615125
0.30258602 -0.30754346 -0.061285246 0.16822278 -0.12295927 -0.0019966154 -0.23255241 0.23483375
-0.16306797 -0.12973985 -0.07658081 -0.20411955 0.21604832 0.17467174 -0.30958024 0.1325535
-0.2638881 -0.31006938 -0.37381408 0.12463927 0.011402023 -0.09508962 -0.27348757 -0.064710096
-0.24999918 0.00079789734 0.24121927 -0.29837 -0.2397799 0.30317074 0.23808938 0.15750861
0.090559684 -0.31849736 -0.22440325 0.127342 -0.30428314 0.15450835 -0.11809733 0.3639178

transformer.layers.0.0.branch.to_out.weight f4 [8, 64]
00000000: 2e1e f53c 49c1 9a3d 0084 4a3d 89ab f43c
00000010: aa36 7a3d 3b63 013e d5d0 263d 1b1c 5dbd
00000020: 60e5 9fbd efd0 303c a586 ffba 14dc 2a3c
00000030: ca97 823d b8ea 75bd e499 cb3d d7ba edbc
00000040: 917c b7bd d1b1 ccbd 84fe 953d e84b d9ba
00000050: 5606 a53d b922 993c 91a7 c1bd a7fb 88bd
00000060: 0efa a33d c00a 0ebc e6cd f23d f337 5d3d
00000070: 329c 783d 8e83 fc3c 65b7 d5bd 4168 51ba
00000080: ce0b 0d3e 3924 d9bc 106b b8bb 5f13 bd3d
00000090: 5f98 e23c 9297 303b 77b5 d63d e745 3fbb
000000a0: 96a5 cbbc e7d9 ccbd fb43 803d 363d 083e
000000b0: ba18 bdbd 16de ac3a a779 96bc 19e7 9b3d
000000c0: 4ff6 533d 2aaf 12bd eef4 aebd 3d4f 843c
000000d0: 8ae4 aa3d f709 39bd 30fc ab3d 20f7 5fbd
000000e0: e77c 273c c427 d23c 4813 fcbd a535 9e3d
000000f0: ac5b 963c c962 f9bd cc49 c83b 3536 703d
00000100: 3155 5dbd ead9 263d b5ed 9dbd ff92 babd
00000110: 08bb 0cbe 6b03 833d 5f2a 433d de3f 86bd
00000120: 9a7c 413d 9795 b7bd 4606 9ebd 332f 33bd
00000130: 37d0 8cbc 80ee 573c d216 d1bc 3bf7 c93d
00000140: 7160 a9bd c5f4 d8bd 5381 bbbc 8f26 363c
00000150: 5c0d 80bb 1f48 073e ed0c ea3d eadf aabd
00000160: 5c5a 6e3d bf62 933d de4e 78bd 110d ccbc
00000170: 2183 cfbb 5f32 72bd 07ff 383d fe7d 4cbd
00000180: c0fc b33d 5305 abbd 21ed 55bd 4fa8 093e
00000190: 8033 91bd 3926 ee3d bdc5 4fbc 2aca 48bd
000001a0: 0ffb a53d 340e d2bd 4308 02bc 67b0 ccbd
000001b0: eb10 d33d 007d 83bd 8f54 843d 35dd e33c
000001c0: a6b7 a83d 82a1 613d bb6c f5bd 7897 6abd
000001d0: 4f99 0dbd 447d 023e 3d21 c1bc a8b9 963b
000001e0: bfa7 763d 6a70 36bd d201 693d 0645 533d
000001f0: c4cc 2b3d b4c0 a93d c8af a13d 9ffb 87bd
00000200: 3bfb 023e 7536 823c 8ab5 0fbe 95e7 be3a
00000210: 8339 c63d 259b 6e3b 95b0 33bc e318 353c
00000220: 9edd c33a 53f3 25bd b017 273a dada f6bd
00000230: 7af9 a9bd 3470 8b3d c4b4 0abc f023 d5bc
00000240: 9e48 33bd 6551 bd3c eabb 22bd 23a8 d53d
00000250: a2f9 d0bc 8162 f73d 7a31 8bbc 2c32 7e3d
00000260: 6441 0e3d d02e e13d e21a 71bc 3825 81bd
00000270: 54f8 f83c fa93 57bd f300 09bd 5767 debd
00000280: 2fe5 0d3e bc23 e4bd bd72 18be 4c2e d13c
00000290: 4659 a33d 8252 b63c 0bd0 a13d 3689 d43d
000002a0: d7d1 233c 2582 c8bd cc0a d5bd e597 843d
000002b0: 74c5 ea3b e869 8a3d 17eb 403d 3fae ed3c
000002c0: 4d1f c03c f8d9 9f3d 3ce0 90bc 0998 b0bd
000002d0: d27a df3b 7f44 cebd 244b 73bd 8010 623d
000002e0: cdeb 2cbb 673f 093e 8866 9dbc ef5e 043e
000002f0: 9055 1b3e ea46 533d 5902 e4bc 568c b5bd
00000300: b485 dcbd 2ab2 0bbe 4268 dd3d 6e70 963c
00000310: caa0 513d 546a c23d 7975 3bbd 7461 cdbd
00000320: c124 373d 0e56 a63c eda0 a03d 62d7 63bd
00000330: 85d1 84bc 4b23 b63d d711 d63d ad48 96bd
00000340: 1608 f63d 625e 7fbd 6ddc 633c ba4b 8bbd
00000350: b28c a43d ffb6 12bd 195b ecbd 4128 863d
00000360: cf9c 593d c63a 3fbd 6e86 fcbc 6f0d a83c
00000370: 3975 e4bd 3d92 103e 9f19 a5bd 8111 033e
00000380: b735 6dbb 4347 373a 6f50 fbbc 2334 dbbc
00000390: 5713 833d 8003 bfbd e6cb 963d a243 c03c
000003a0: fb8c 4fbc 656f bcbd 244f d03d cc74 87bd
000003b0: c90b 14be 385f bcbd 6370 873d 3203 b9bd
000003c0: 77a4 94bd e51c dbbd fb71 253d 4a06 c3bd
000003d0: ba8c 143d 721f da3c 0a37 b4bd 1059 073d
000003e0: dbd2 413d d431 d1bd f38c a13c fdff 813d
000003f0: 9656 373d 295a 39bd 7771 95bc dd9f 1cbd
0.029921617 0.075563975 0.04944229 0.02986695 0.061087288 0.1263551 0.0407265 -0.05398188
-0.07807422 0.010792001 -0.0019495083 0.010428447 0.06376608 -0.0600383 0.09941462 -0.029019756
-0.08959306 -0.09994853 0.07323936 -0.0016578408 0.08057849 0.018693315 -0.09455789 -0.06688624
0.080066785 -0.008669555 0.11855678 0.054008435 0.060695834 0.030824449 -0.1043537 -0.00079882523
0.13774034 -0.02650653 -0.005627997 0.0923221 0.027660547 0.0026945812 0.104838304 -0.0029185952
-0.024859231 -0.10002499 0.06262966 0.133046 -0.09233232 0.0013188745 -0.018368555 0.07612438
0.05174857 -0.03581158 -0.085428104 0.016151065 0.083443716 -0.04517552 0.0839771 -0.054679036
0.01022265 0.025653727 -0.12308365 0.07725076 0.01835426 -0.12177045 0.006112313 0.058645446
-0.054036323 0.040735163 -0.07711355 -0.091100685 -0.13743222 0.06397136 0.04764783 -0.065551504
0.04723797 -0.08964079 -0.0771604 -0.043746185 -0.017189128 0.013179421 -0.025523577 0.098616086
-0.08270348 -0.10593561 -0.022888815 0.0111175915 -0.0039078426 0.13211106 0.11428247 -0.083434895
0.058191642 0.07196569 -0.06062209 -0.024908574 -0.0063327705 -0.05913007 0.045165088 -0.049924843
0.087884426 -0.08350625 -0.052228097 0.13443111 -0.07089901 0.11628384 -0.012681422 -0.049020924
0.08104526 -0.10256615 -0.00793654 -0.099945836 0.10305961 -0.06420326 0.06461441 0.02781544
0.08238153 0.055085666 -0.11983629 -0.057273358 -0.034570035 0.12743098 -0.02357542 0.0045997687
0.06021857 -0.0445408 0.0568865 0.051579498 0.041943327 0.08288708 0.07894856 -0.0663979
0.1279115 0.015895108 -0.14034095 0.0014564866 0.09678938 0.0036408391 -0.010967393 0.011053297
0.0014943366 -0.040515255 0.0006374074 -0.120534614 -0.08299537 0.068085104 -0.008465949 -0.026018113
-0.043770425 0.023110101 -0.03972999 0.1043246 -0.02550966 0.12079335 -0.016991366 0.062059566
0.03473033 0.10995257 -0.014715882 -0.06305927 0.03039185 -0.052631356 -0.03344817 -0.10859554
0.13856958 -0.11139628 -0.14887519 0.025534771 0.07976012 0.02225614 0.07901009 0.103777334
0.00999876 -0.09790448 -0.1040245 0.06474284 0.0071646515 0.06758481 0.0470992 0.029013751
0.023452425 0.07805246 -0.017685048 -0.086227484 0.0068200612 -0.10071658 -0.05939783 0.055191517
-0.0026385665 0.13403092 -0.01921393 0.1292684 0.15169358 0.0515813 -0.02783315 -0.088646576
-0.10767689 -0.13642183 0.10810901 0.018364158 0.05117873 0.09492937 -0.045766328 -0.10028353
0.044712786 0.020304706 0.07843194 -0.055625327 -0.016213188 0.0889345 0.104526214 -0.073380806
0.12013261 -0.06234587 0.013907534 -0.06801553 0.08034648 -0.03581905 -0.11540813 0.065506466
0.05312806 -0.04668691 -0.03082582 0.020514218 -0.11155171 0.14118285 -0.080615275 0.12799646
-0.0036195347 0.0006991515 -0.030678002 -0.02675826 0.06400173 -0.093268394 0.07363109 0.02346975
-0.01266789 -0.09200934 0.10171345 -0.06614074 -0.1445762 -0.09197849 0.06613233 -0.090338126
-0.07257932 -0.106988706 0.040391903 -0.09522684 0.03626702 0.026626322 -0.0879956 0.03304392
0.047320228 -0.10214582 0.01972053 0.06347654 0.04476031 -0.045252 -0.01824258 -0.038238395

transformer.layers.0.0.norm.gamma f4 [8]
00000000: 1c11 833d 1f01 923d a443 dc3c 809a 9b3d
00000010: a69c 8e3d 47b3 673d 5e84 c03d fbd7 d73d
0.06399748 0.0712912 0.026887722 0.07597828 0.06963472 0.056567457 0.09400247 0.10539242

transformer.layers.0.1.static_alpha f4 [4, 5]
00000000: b6a4 18bd 0000 803f 0000 0000 0000 0000
00000010: 0000 0000 a668 fbbd 0000 0000 0000 803f
00000020: 0000 0000 0000 0000 3e9f 583f 0000 0000
00000030: 0000 0000 0000 803f 0000 0000 a668 fbbd
00000040: 0000 0000 0000 0000 0000 0000 0000 803f
-0.037266456 1.0 0.0 0.0 0.0 -0.122758195 0.0 1.0
0.0 0.0 0.84617984 0.0 0.0 1.0 0.0 -0.122758195
0.0 0.0 0.0 1.0

transformer.layers.0.1.dynamic_alpha_fn f4 [8, 5]
00000000: 2a26 143e 0000 0000 0000 0000 0000 0000
00000010: 0000 0000 1ff6 18be 0000 0000 0000 0000
00000020: 0000 0000 0000 0000 61e9 2bbd 0000 0000
00000030: 0000 0000 0000 0000 0000 0000 a6dd 19be
00000040: 0000 0000 0000 0000 0000 0000 0000 0000
00000050: e14d 143e 0000 0000 0000 0000 0000 0000
00000060: 0000 0000 4b83 0f3e 0000 0000 0000 0000
00000070: 0000 0000 0000 0000 0794 dc3d 0000 0000
00000080: 0000 0000 0000 0000 0000 0000 6732 1abe
00000090: 0000 0000 0000 0000 0000 0000 0000 0000
0.14467683 0.0 0.0 0.0 0.0 -0.14937638 0.0 0.0
0.0 0.0 -0.041970614 0.0 0.0 0.0 0.0 -0.15025958
0.0 0.0 0.0 0.0 0.14482833 0.0 0.0 0.0
0.0 0.14014928 0.0 0.0 0.0 0.0 0.107704215 0.0
0.0 0.0 0.0 -0.1505829 0.0 0.0 0.0 0.0

transformer.layers.0.1.static_beta f4 [4]
00000000: b71a 833f bb9f 783f 9599 7b3f bb9f 783f
1.0242528 0.9711873 0.9828122 0.9711873

transformer.layers.0.1.dynamic_beta_fn f4 [8]
00000000: 1cc2 5a3d f073 44bd 52b5 23bd 025b 57bd
00000010: 6794 493d fce1 703d 6f9e 573d 314e 60bd
0.053407773 -0.04796213 -0.039967842 -0.052577026 0.049213793 0.058809265 0.05264133 -0.05476207

transformer.layers.0.1.branch.0.weight f4 [8]
00000000: c314 793f 04c0 813f bfed 7c3f 511d 7a3f
00000010: 927f 773f 3379 7e3f a47d 813f d1b2 793f
0.97297305 1.0136724 0.9880027 0.97700983 0.9667903 0.99403685 1.0116467 0.9753848

transformer.layers.0.1.branch.0.bias f4 [8]
00000000: d2a1 cc3c ef8a 613c ff15 11bd 9f03 943a
00000010: 29c4 163d 9e90 713c 20ec 1cbc e7f3 97bc
0.024979506 0.0137660345 -0.035421368 0.0011292583 0.036808167 0.014743952 -0.009577781 -0.018548919

transformer.layers.0.1.branch.1.weight f4 [64, 8]
00000000: f2b5 163e 5433 273e caa4 3ebe 8e32 d53d
00000010: e438 b43e eaff 383e 0aa1 dcbd 4be8 683d
00000020: 6bbe 10be 7b57 89bd dc9e 7b3d ab90 863e
00000030: 496d 2fbc 562b c33d f12d dc3d 0e32 8e3e
00000040: fbb8 4bbd de92 f4bd ef05 86be 5e59 993d
00000050: fe27 613d abbf a3be d7c5 a7bd 81d2 8b3e
00000060: 445a 903e 0be4 edbd c190 b13d ef51 313e
00000070: ac4b 95be bff2 a6be 4a99 893d 9191 eabc
00000080: fb06 f23d 012b f2bd 2d1b 98be fe4b 783e
00000090: b48f a1be 2899 2fbe d42f fdbc 65a9 9c3e
000000a0: 9d54 503e e00b 34be bdaf f33d b22d 48be
000000b0: c213 62bd 4689 2e3c 5e84 8b3e 54de 183e
000000c0: 5f75 803e e3d6 2d3e 56ad 993e 4538 c03d
000000d0: 5575 9fbe dc15 c83d 311d 8fbd f339 de3b
000000e0: cd5e c7bd 9de7 30be 291e a0be dcd4 a13d
000000f0: fd1f a53d c57b 613e af54 eebd 5fee 6f3e
00000100: 5ed7 4abe fd2b af3d 37a1 303e 825d c13d
00000110: ca17 793d ba4d 6abe d631 79be bd82 6c3e
00000120: cce5 893e d13e 4d3e 826c 31be 1c3c 013e
00000130: c572 843c b9e0 94be 4d32 45be 575b 1e3e
00000140: b0b4 8e3d 1e6f 56be 7a88 7b3d 4078 003e
00000150: 4740 223e 7fda 96be 2bd1 463d 206a d03d
00000160: 53a6 873d 5a63 e53d 9b2f f23d 8ac1 9ebe
00000170: 05ce 62be 9d62 423e 2ecc a4bc 74da 8dbe
00000180: 76ea 35be acda 9bbe d82b 89bd f934 643e
00000190: f463 63bd 4d7e 703e 9d32 883e d3b2 133e
000001a0: e347 273d 8797 043e 8931 833e 5972 89bd
000001b0: f6d1 70be a46e 213e ef87 5c3e 0855 a03d
000001c0: 426c 323e 0892 ddbb 9408 83be 7e53 da3d
000001d0: 257f 85be f038 1abe 2790 58bd 892e 843e
000001e0: 94f2 3a3d 1c6a d5bc 99d3 a6be 0825 703c
000001f0: e733 b4bd f509 e5bd bf0e 7ebe 5d5b 68be
00000200: c74e 913e d6ee 19be fdb2 61be e1a0 74be
00000210: f986 d8bd f80d 9d3e 2a6f 9c3e 1707 22be
00000220: 834f 3dbe 8817 c4be 21b8 2cbe 79e8 10bd
00000230: d270 fb3d 58ef 29be beeb 9f3e c25a 85be
00000240: 5349 65be 299d 833e b17d c9bc 23da 433e
00000250: 2975 acbe ce68 6bbe 4f11 1dbd f9f1 8e3e
00000260: 5644 7abe 0840 01be ec9a aabe 5fa2 54be
00000270: e740 2fbd 7e7f cdbd 1eaa 2d3e 5117 743e
00000280: 89b5 14be 74de 0dbe fa4f 853e 1cb3 babb
00000290: c2a1 513d 0c44 c63d 7abe 6dbe ccfc 7abe
000002a0: a920 9f3e 5687 2abe 63eb c3bd 9f22 e33d
000002b0: f0ea 7dbe 8779 7cbe 781a c03e 72d9 aebd
000002c0: 67a9 1cbd 53ea a13e ef44 cdbd a3c6 7d3d
000002d0: 49e1 9e3d 799c e93b bf0b 83be d340 7b3d
000002e0: 335c 3f3d 9594 80be 8008 52bd 3984 aabe
000002f0: 25d3 47be db17 783e b2f1 9ebd 7c0c 663e
00000300: 5fab 923e a631 97be 3f3e b4be 3661 febc
00000310: e4d9 abbd b138 dbbd f61d e7bd d51a 7e3d
00000320: 4e9d 80be a958 4c3e 5bb1 b43c 00f2 5c3e
00000330: b0b7 e83d 6225 fa3c 2456 bc3e c19e 903e
00000340: 45fa e43d abf8 1dbe 89e8 f83c bab2 7dbe
00000350: 571b 2a3e ef03 06bd 5b1c 273e 1286 5d3e
00000360: 6aad a43e cd5f a43e 6be8 22be f29a 873e
00000370: 2a7b 463e d131 17be 0be4 6f3d 541e dcbd
00000380: b17e 713e 8481 10be 4f8f 54be 0f87 bdbc
00000390: ee85 b4be 1bb5 2dbd f450 05bd 3a47 ad3e
000003a0: 287a 8d3d 3792 3cbd e19f a0bd 603f f03d
000003b0: 3729 3f3e 9404 e8bc 3268 363e fb30 6abc
000003c0: d5b9 75be 94b3 873c 9806 95be 604c 973e
000003d0: 4143 183e d3c8 b2be 68a1 7ebe 5160 98be
000003e0: 9ed4 463d 2372 783d 83ba a53d a7eb 71be
000003f0: 3062 943e 4539 2e3e 1edc ec3d b7fa 323e
0.14717844 0.16328174 -0.1861755 0.10410033 0.35199654 0.18066373 -0.10772903 0.056862157
-0.14135139 -0.06706139 0.061430797 0.26282248 -0.010707208 0.0952975 0.1075095 0.27772564
-0.049736958 -0.11942075 -0.26176402 0.074877486 0.05496978 -0.3198217 -0.08192032 0.2730904
0.28193867 -0.11615761 0.08670188 0.17316411 -0.29159296 -0.32607076 0.06718691 -0.028633865
0.11817738 -0.118246086 -0.29708233 0.24247739 -0.3155495 -0.17148268 -0.030906595 0.30597988
0.20344777 -0.17582655 0.11898754 -0.19548681 -0.055194624 0.010652846 0.27249426 0.14928561
0.25089547 0.16976504 0.30015057 0.093857326 -0.31144205 0.09769794 -0.0698799 0.0067818104
-0.09734879 -0.17275853 -0.3127301 0.07901928 0.08062742 0.2201987 -0.11637246 0.23430775
-0.19808719 0.08553312 0.17248999 0.09441663 0.060813703 -0.22881213 -0.24335417 0.23096748
0.26933134 0.20043494 -0.17326549 0.12620586 0.016168008 -0.290777 -0.1925747 0.15464531
0.06968057 -0.20940825 0.06140945 0.12545872 0.15844832 -0.29463574 0.048539322 0.10176492
0.06623521 0.112005904 0.11825486 -0.31007034 -0.22148903 0.1898293 -0.020116892 -0.2770573
-0.17765221 -0.3044027 -0.06697816 0.22285832 -0.055515245 0.2348568 0.26601115 0.14423685
0.04084004 0.12948428 0.2562373 -0.06711263 -0.23517594 0.15764862 0.2153623 0.078287184
0.1742411 -0.006761793 -0.25592482 0.10660456 -0.26073566 -0.15060782 -0.05287185 0.25816754
0.045641497 -0.026051573 -0.3258331 0.014657266 -0.08798962 -0.1118354 -0.24810313 -0.22691102
0.28380415 -0.15032515 -0.22040935 -0.23889495 -0.10572619 0.3067472 0.3055356 -0.15823017
-0.18487363 -0.38299203 -0.16867115 -0.035377953 0.12277378 -0.16595209 0.31234545 -0.26045805
-0.22391252 0.2570584 -0.024596067 0.19126181 -0.33683136 -0.22989199 -0.038346585 0.27918985
-0.2444013 -0.12622082 -0.3332132 -0.20765065 -0.042786505 -0.10034083 0.16959426 0.2383702
-0.14522375 -0.1385439 0.2603758 -0.005697621 0.051179655 0.09680948 -0.23217192 -0.24510497
0.31079605 -0.16653189 -0.09566381 0.11090588 -0.24796653 -0.24655734 0.37520194 -0.08537568
-0.038247492 0.31624088 -0.10022914 0.061957013 0.077578135 0.0071292487 -0.255949 0.061341118
0.046718787 -0.2511336 -0.051277637 -0.33304003 -0.19514139 0.2422785 -0.077609435 0.224657
0.2864637 -0.29530066 -0.3520374 -0.031052213 -0.08391169 -0.107041724 -0.112850115 0.062037308
-0.25120014 0.19955696 0.022057226 0.2157669 0.113631606 0.030535404 0.3678447 0.2824612
0.111805476 -0.1542689 0.030384319 -0.2477521 0.16611992 -0.032718595 0.1631941 0.21633175
0.32163554 0.3210434 -0.15908973 0.264854 0.19382921 -0.14765097 0.058567088 -0.10747972
0.23583485 -0.14111906 -0.20757793 -0.02313569 -0.3525843 -0.042409044 -0.032547906 0.33843404
0.06908065 -0.04603788 -0.078429945 0.11730838 0.18668066 -0.028322496 0.17813185 -0.014293904
-0.2399667 0.016565122 -0.29106593 0.29550457 0.14869405 -0.34918842 -0.24866259 -0.29760984
0.04854261 0.060655724 0.08092215 -0.2362505 0.2898116 0.17014034 0.115654215 0.17478453

transformer.layers.0.1.branch.1.bias f4 [64]
00000000: aaca 14bd f490 98be ee8f 86bd 069e 0a3d
00000010: 25ee 653d 3012 cdbc d7c2 8c3e 3b33 a13e
00000020: 67c6 00bd 1bcf 793e 4352 503e 29e7 a83d
00000030: d0dd 3bbe 751b 6e3b 4966 acbe 6c10 93be
00000040: f0b3 c33c 23ca 813e ccf8 ccbd aef7 313e
00000050: fc37 a53c bc78 553d 487f a7be 3657 73bd
00000060: 270c d4bd 6025 44be 4ffc ba3e 23d9 0f3e
00000070: 20fe 79be aaf4 c13d c6c3 46bd 553d bd3e
00000080: ffd5 2ebe 4418 bbbd 3b84 82be ccde 1f3e
00000090: f086 273d 191d 55be 2b01 a6be 80be 1bbe
000000a0: 9829 babe dcdf f6bd a52f 95bd 548d 043e
000000b0: 99f9 00bc ea0c 8cbd bbf2 3c3e 3340 05bd
000000c0: 0de7 58bd 1073 96be c1ed 18be 9c48 8ebe
000000d0: 3eb7 993e 014f 95be 40c9 e23b 297b 52be
000000e0: 499a 133e 2a04 cdbd 68f4 9b3e 6a29 23bd
000000f0: e283 95be bdd9 4ebe 99ea 9e3d f566 8dbe
-0.036326088 -0.2979809 -0.06570421 0.03384211 0.056135315 -0.025033087 0.274924 0.31484398
-0.03143921 0.2439541 0.2034388 0.08247215 -0.18346334 0.0036332284 -0.33671787 -0.28723466
0.023889512 0.2534953 -0.10008392 0.17379639 0.020168297 0.052117094 -0.32714295 -0.059409343
-0.103538804 -0.19154882 0.3652062 0.14047675 -0.24413347 0.09470494 -0.048526548 0.36960855
-0.1707382 -0.09135488 -0.2549151 0.15612334 0.04090017 -0.20811881 -0.32422766 -0.15209389
-0.3635986 -0.120544165 -0.07284478 0.12944537 -0.007872009 -0.06838401 0.1845197 -0.03253193
-0.052954722 -0.2938466 -0.14934446 -0.27789772 0.30022615 -0.29161838 0.0069209635 -0.20554794
0.14414324 -0.1001056 0.30459905 -0.039834417 -0.2920218 -0.20200248 0.0775959 -0.27617612

transformer.layers.0.1.branch.4.weight f4 [8, 32]
00000000: 49f9 02be 8ef0 f3bd bd69 c13d b600 8dbc
00000010: 9e86 a1bb be5f 05be 4722 7ebd 3170 273d
00000020: 56c3 0bbc e1da 0bbe d73c c33d 9c95 903c
00000030: 5a0f 033e f507 51bc d0bd b13d c444 a83c
00000040: 07ce df3c 0d6c e43d d981 813b 5555 2dbe
00000050: 3dff 273e 811d 9d3d 05f5 5dbd 23c4 1b3e
00000060: 811b 213e 92fc 37be 47dc e1bd a408 7b3d
00000070: 95a5 393d 3871 0f3e f443 ec3d ced8 ecbd
00000080: f730 fd3d 8dae 8bbd b089 98bd 27f8 80bd
00000090: 2230 153e ad20 c13d 36a1 2b3d 4531 e93d
000000a0: ddda d53a e559 14be 52a0 79bd 381b fc3d
000000b0: a7e5 403d 4305 173e 517f 143e 71a9 03bd
000000c0: 8576 043e e614 57bd 3faa 003e 8b35 47bc
000000d0: fa9d 7abd ec3a d6bd bd1a 143d 8c43 ddbc
000000e0: 508c 1b3e cca8 dbbd 6eb5 febb 79e5 923d
000000f0: 6cc0 883d 6191 cd3d b645 c93d fce9 b5bc
00000100: 990f 2b3e 43f0 813d abc7 1fbd 570f 14be
00000110: f02c 143e c178 693d cf05 3ebe 7918 013d
00000120: ae5d 89bc 42c5 773d 5178 1a3e 9403 6c3c
00000130: 5c26 cc3c 4e94 b7bc cea8 1ebd 9380 18be
00000140: 64a9 1cbd a6ba 0c3b ddd8 16be fb7f af3c
00000150: 3cba 0f3e 2bd1 c53c d5c4 00bd 5940 d3bd
00000160: bea2 133e f1bf 933d e17e aa3d 5223 e93c
00000170: 18d1 513c c29a c9bc e612 fe3d 48a7 aa3d
00000180: 6432 0d3e 8619 0b3d 2db7 5ebd 4251 24be
00000190: 6fa4 983d cf37 183e 0282 82bd 6931 223e
000001a0: 0178 5e3d 1d77 273e cb91 06be cccd b1bd
000001b0: 679f cc3d c4fc 1bbe 2f96 fd3d 36ef 143e
000001c0: ccb3 893c 5691 8e3d 7381 b83d f107 1cbe
000001d0: 49e0 f7bc a26c 913d 61e6 1ebe ff15 debd
000001e0: e9f2 563c 0ca0 113e a90a b23c e4f0 45bd
000001f0: f275 58be cfcd 2b3d 31f8 bb3d 132a a9bc
00000200: c90c 12bc 11db acbd 83e1 413d 8b87 823d
00000210: 3387 353e c296 313e 3479 04be a410 b2bd
00000220: 8155 73bc 7bae 22be 491b ffbd 7c12 92bd
00000230: 7181 5f3d b1d7 e53d 952b fd3d bea0 1dbd
00000240: 91e4 d0bd 3d5d 7dbc 8547 3c3e f980 8a3c
00000250: 410a f33d 89c1 f83d 3889 353e a121 a73d
00000260: 680e 18be 7a19 06be 0a2c 29be 7089 ee3d
00000270: d99c c2bc bbfe 85bd 51b0 00be aea2 b7bd
00000280: ad18 b8bd 5620 6ebb 324f 9c3c ac45 e2bd
00000290: 1168 b23d f920 a9bd c9ab cebd 8008 e93b
000002a0: 586c 9ebd c309 f03d 24e8 1c3e f13f 163e
000002b0: 3d33 15be 6c07 ddbc 6f1e bebd 22a7 253c
000002c0: 3c60 233e 66d1 8abd 0ace a0bd 7505 98bc
000002d0: 7873 083e b3d2 0f3d ca94 2ebe 3713 8abd
000002e0: d5f5 b43d 3d40 c8bd b7b0 b5bd 08cd bf3c
000002f0: c4eb 403d a873 333e 89a1 08be 0f75 ce3d
00000300: c7e2 35bd 99fc d23d 5173 2ebc 3ef3 133e
00000310: 6871 c03d 9a49 e03d 665b e03d fbed de3c
00000320: bcab 93b9 9f4a f6bc a13d 4a3d 4054 6c3d
00000330: 5ea9 e53d 91ef d93c e4d6 fc3d c4ce b63d
00000340: 7e70 c8bc e77b 30be 5324 3ebc 929c 3cbc
00000350: 9c47 08be 1ec4 0cbe de6f 3f3e f385 db3b
00000360: ce97 053d 4f5a 05be 5f0b d33d 743e 1b3d
00000370: 2ad6 653e 4184 dabd 5191 223d 9488 c9bd
00000380: e5cd ca3c befd 693d e995 1a3d f544 033e
00000390: 0802 b7bc 0699 a43d ce94 a83d 1f94 29be
000003a0: b115 8b3c a584 e6bd ea1c a03c e6f7 213d
000003b0: 8061 d43b 27a4 a93d c82f dbbc c2e4 e1bd
000003c0: 6477 d93b beed 983d bdf4 b63c a6bc 193d
000003d0: 10c0 513d f06f 3cbd c99a d8bc 8484 fb3d
000003e0: 04ac 103d 24a0 edbd 2014 363d 307e c83d
000003f0: 8153 bfbc 10d3 b5bd bab8 13be 6d44 f5bd
-0.12790407 -0.119111165 0.09443996 -0.017212253 -0.0049293777 -0.13024804 -0.06204441 0.04087848
-0.008530458 -0.13657714 0.09533089 0.017649464 0.12798825 -0.012758245 0.08678782 0.020540603
0.027319921 0.111534216 0.0039522466 -0.16927083 0.1640596 0.07671643 -0.054188747 0.15211539
0.15733148 -0.17967442 -0.11028343 0.061287537 0.045323927 0.14008033 0.115363985 -0.1156479
0.12362855 -0.06820402 -0.07448137 -0.06297331 0.14569142 0.094300605 0.04190179 0.113863505
0.0016315837 -0.14487417 -0.06094391 0.12309879 0.047094014 0.14748101 0.14501692 -0.032144014
0.12935837 -0.052510165 0.12564944 -0.012158762 -0.061185814 -0.10460457 0.036158312 -0.027009748
0.15190244 -0.10725555 -0.007773093 0.07172675 0.066773266 0.100374945 0.098277494 -0.022206299
0.16705169 0.063446544 -0.039008778 -0.14458977 0.14470267 0.056999926 -0.18556903 0.03151748
-0.016768303 0.060490854 0.1508496 0.01440515 0.024920635 -0.022409584 -0.038735203 -0.14892797
-0.03824748 0.0021473556 -0.14731164 0.02142333 0.14035887 0.02414759 -0.031437714 -0.10315008
0.1441755 0.07214344 0.083249815 0.028459225 0.0128061995 -0.024609927 0.12405948 0.083326876
0.13788754 0.033959888 -0.05437391 -0.16046622 0.07453238 0.1486504 -0.06372453 0.15839161
0.054313663 0.16354032 -0.13141553 -0.08681831 0.09991341 -0.15233141 0.12382161 0.14544377
0.016809367 0.069613144 0.090090655 -0.15237404 -0.030258315 0.07100798 -0.1551757 -0.10844039
0.013119438 0.1422121 0.021733599 -0.048325434 -0.21138743 0.04194432 0.09178198 -0.020649945
-0.008914181 -0.08440221 0.047334205 0.06373509 0.17727356 0.17342666 -0.1293686 -0.0869458
-0.014851929 -0.15886872 -0.12456376 -0.07132432 0.054566804 0.112227805 0.12361828 -0.038483374
-0.101998456 -0.015464124 0.18386658 0.016907202 0.1186719 0.12146289 0.17728126 0.08160711
-0.14849246 -0.13095656 -0.16520706 0.11647308 -0.023756431 -0.065427266 -0.1256726 -0.089665756
-0.089890815 -0.0036335192 0.019080732 -0.11048445 0.08711255 -0.08258242 -0.10091359 0.007111609
-0.07735509 0.11720612 0.1532293 0.14672829 -0.14570327 -0.026981078 -0.092831485 0.010110648
0.15954679 -0.06778221 -0.07851799 -0.01855729 0.13325298 0.035113048 -0.17048946 -0.06741946
0.08835951 -0.097778775 -0.08871596 0.023413196 0.047099844 0.17524588 -0.13342871 0.10080921
-0.044405725 0.103020854 -0.010647611 0.14448258 0.093966305 0.109515384 0.10954933 0.027213087
-0.00028165977 -0.030064879 0.04937518 0.057697535 0.11213945 0.026603492 0.12345675 0.08926156
-0.024467703 -0.17234765 -0.01160534 -0.011511939 -0.13308567 -0.13746688 0.18695018 0.0066993176
0.032615475 -0.13022731 0.10304903 0.037901357 0.22444978 -0.10669757 0.039689366 -0.09840503
0.024756381 0.057126753 0.03774062 0.12819274 -0.022339836 0.080369994 0.08231507 -0.1656041
0.016978117 -0.11255769 0.019545037 0.039543055 0.0064813495 0.08283263 -0.026756182 -0.1102996
0.006636547 0.07467221 0.022333497 0.037533425 0.051208556 -0.04600519 -0.026440995 0.12281135
0.035320297 -0.1160281 0.044452786 0.09789693 -0.023355247 -0.088781476 -0.14425936 -0.11975942

transformer.layers.0.1.branch.4.bias f4 [8]
00000000: 4018 e53d 6633 033e 30aa 0c3e d42e 383e
00000010: f867 9abd 1135 3fbd ed83 44bd 0e9f c23d
0.11186266 0.12812576 0.13736796 0.17986614 -0.07539362 -0.046681467 -0.047977377 0.095029935

transformer.layers.0.1.norm.gamma f4 [8]
00000000: 44da d23d fa03 be3d 56b2 973c a8b1 c53d
00000010: 9672 b73d 2dcc cd3d 4e31 8f3d 9b8f d93d
0.10295537 0.09278102 0.018517654 0.09653026 0.089574024 0.10048709 0.06991826 0.10623094

transformer.layers.1.0.static_alpha f4 [4, 5]
00000000: e73b 543f 0000 803f 0000 0000 0000 0000
00000010: 0000 0000 9d0f adbd 0000 0000 0000 803f
00000020: 0000 0000 0000 0000 60ac 86bd 0000 0000
00000030: 0000 0000 0000 803f 0000 0000 9d0f adbd
00000040: 0000 0000 0000 0000 0000 0000 0000 803f
0.82903904 1.0 0.0 0.0 0.0 -0.084502436 0.0 1.0
0.0 0.0 -0.06575847 0.0 0.0 1.0 0.0 -0.084502436
0.0 0.0 0.0 1.0

transformer.layers.1.0.dynamic_alpha_fn f4 [8, 5]
00000000: be27 063e 0000 0000 0000 0000 0000 0000
00000010: 0000 0000 c850 17be 0000 0000 0000 0000
00000020: 0000 0000 0000 0000 c15a 0e3e 0000 0000
00000030: 0000 0000 0000 0000 0000 0000 fd29 1ebe
00000040: 0000 0000 0000 0000 0000 0000 0000 0000
00000050: 84d3 293e 0000 0000 0000 0000 0000 0000
00000060: 0000 0000 eb21 11bd 0000 0000 0000 0000
00000070: 0000 0000 0000 0000 44cd be3d 0000 0000
00000080: 0000 0000 0000 0000 0000 0000 8bfd 26be
00000090: 0000 0000 0000 0000 0000 0000 0000 0000
0.13101098 0.0 0.0 0.0 0.0 -0.1477691 0.0 0.0
0.0 0.0 0.13901807 0.0 0.0 0.0 0.0 -0.15445705
0.0 0.0 0.0 0.0 0.16584593 0.0 0.0 0.0
0.0 -0.035432737 0.0 0.0 0.0 0.0 0.09316495 0.0
0.0 0.0 0.0 -0.16307656 0.0 0.0 0.0 0.0

transformer.layers.1.0.static_beta f4 [4]
00000000: 14c5 833f d90e 833f 4638 893f d90e 833f
1.0294518 1.0238906 1.0720298 1.0238906

transformer.layers.1.0.dynamic_beta_fn f4 [8]
00000000: 5d05 8bbd 99d0 743d 8216 2c3d 301b 8f3d
00000010: 3a2a 92bd a58d 94bd 86d1 e7bd e54b a23d
-0.06788132 0.059769247 0.042013653 0.069876075 -0.0713696 -0.07253579 -0.1131926 0.07924632

transformer.layers.1.0.branch.norm.weight f4 [8]
00000000: ed3d 823f 7abe 823f 7890 7f3f ec3a 843f
00000010: a295 823f 93e5 7a3f 5b99 843f 0d37 863f
1.0175148 1.0214379 0.99829817 1.0330482 1.0201914 0.9800655 1.03593 1.048555

transformer.layers.1.0.branch.norm.bias f4 [8]
00000000: 25bd e5bc cf3a be3c 07bb 933c 98a2 0f3d
00000010: d054 a5bc 8445 dc3b 9a52 edbc 23dd 303d
-0.028044293 0.023221401 0.018033518 0.03506717 -0.020182043 0.006722154 -0.028970052 0.043179642

transformer.layers.1.0.branch.to_qkv.weight f4 [192, 8]
00000000: 7991 473d 6967 0bbe bcdd 03be 12d4 5b3e
00000010: 728d 493e 2844 8ebd 1b28 713e c779 e5bd
00000020: 1db0 98be c501 163e ddaa a9be ce76 07be
00000030: c749 563c 5e5b 9fbe 42a8 633e 506d b4be
00000040: e864 613d 4ebb f1bd cf16 b6bd b58e 1b3e
00000050: b149 5ebe 9197 1f3e ce65 72be 28ae 8b3e
00000060: 14a8 95bd 47ae 96be d737 11be fe31 863c
00000070: cb7e 743e 3e83 a9be 4fff ac3b 8175 473d
00000080: 7927 ee3d d6f7 913e f8f0 85be 8bbd 133d
00000090: cce7 3fbe c6de 953e d47f bfbe e509 8ebe
000000a0: 60c7 543e 2bc2 46be 0369 043e 2bee 4e3e
000000b0: 2987 f53c c87a dc3d cb24 1a3c 85bb 2f3e
000000c0: 1d3c 393c 445f 2c3e 6628 27be 1c45 203e
000000d0: e947 2e3e ebfb 3c3e 7211 5fbd 76ed 8cbe
000000e0: bea7 213c 4fc8 94bd 8242 ae3e 153f 77be
000000f0: 8781 9f3e 663a f8bd fca4 043e 943b 8b3e
00000100: 162b b13d 2f45 ebbd c333 8a3d efb6 893e
00000110: 5c20 7f3d cd22 ca3c 14e0 0c3e 299f 9bbe
00000120: 9ba5 3a3e 746e 03be 5ae1 42be 11aa 3c3e
00000130: c83c 933e d9d1 173e c019 29be d747 9ebc
00000140: 0ead f3bd 92d6 00be 198b 2dbd 1be9 35be
00000150: edaf 413e 1448 523e 75ae 233d e286 b2bb
00000160: b7fd ea3d f12e a73d 5c4f 14bc 855d 98be
00000170: 1564 643e cc59 463d 5172 583e 508f ccbd
00000180: 1263 b53e a7a9 713d 85c7 fcbd 7746 2a3c
00000190: 6030 853e dd05 a83e 74e6 a8be 4eab 0fbe
000001a0: 4599 0b3e 52a8 c8bb b443 bebb 09b5 98bd
000001b0: f413 8bbe 9a9a cebd 414c c0be d2ef 96be
000001c0: 010c ec3c bb16 64be 9bbf 353e 04b5 423e
000001d0: e547 b0be 40f1 0bbe ac74 853e 318b adbd
000001e0: eb85 67be f898 563e cd8d 5bbe c61c 84be
000001f0: 7828 40be de51 94be c57f 223c 084d 5fbe
00000200: 3228 c1be e946 f13d 0387 24be 5119 a8bc
00000210: 9dc2 cc3d 829f 963e 234a bdbc a2e4 433e
00000220: 0fb4 643e 8109 f0bd 4cb2 2abe 65cf acbe
00000230: 3924 5a3d 2389 33be 5057 a23e 5ba2 573e
00000240: 3ab0 413e 3104 acbe fffc 893e 643d e2bd
00000250: 6845 01be ff3a 01be 3da1 ca3b f3e9 4b3d
00000260: ec8f 0b3e 6a27 20be b3b3 3abd 864b b4be
00000270: e76b bc3e 8e14 44bd 5986 313b f4f5 a1be
00000280: d078 7cbe 7579 663c c4ba 533e 5a89 04be
00000290: 2935 53be 4d36 973c e2ec 25be 220e a5be
000002a0: 8284 f3ba aa3f 283d 4728 283e 7c7c 833e
000002b0: a5b3 ccbd 0496 7fbe 79ae 8fbd 8008 103e
000002c0: 46b5 a13e dfb1 27bd d5ca 4f3e 9e07 d0bd
000002d0: 6843 aebd 7865 15be a680 10be c87a 7e3e
000002e0: 4a38 54be dda1 9d3e d603 a93e f51c a9bd
000002f0: 175a 73bd f39f c4bd a46d 15be 539b 023e
00000300: 404b 19bd 6dc9 6a3d 45df 4b3e c5f0 98bd
00000310: 43bb 68be 7cb5 00be cfe1 80bc f7e0 b63d
00000320: c40f 093e 71e6 ffb9 5ef3 2bbe 7184 943e
00000330: 2d24 77be 8fa0 543d a97b b2bd 9b95 873e
00000340: bb15 80be 1308 e9bc f614 9ebc 1c5e 0d3d
00000350: e518 423e 7e8b 09be c6b2 87be d450 ae3d
00000360: f770 803e e1f6 b53d 037a a33e d8ec bdbd
00000370: 091f 083e 184d c5bd a0af 87bd 841d 69be
00000380: 533d 7a3e 30f5 7f3d 358b b7be 16f8 fa3d
00000390: 07d9 be3e f6f9 74be a6e6 b23e 5195 5ebe
000003a0: 5a41 2c3e 844c 9d3e 200b acbd 4dfb b73e
000003b0: 5d6f 0dbe f3d8 383e ec8d adbe 84ca c33d
000003c0: 4ae1 92be acca 7a3d 2511 993e 6536 a43e
000003d0: 0862 473e 24ca 3e3e 4e72 263e 107a 693e
000003e0: 9d5d 0c3e 67ff 973e 8447 a9bd 3335 9e3e
000003f0: b205 76bd c5cd 1cbb b440 5f3e 6ea0 27be
0.048722718 -0.13613667 -0.12877554 0.21467617 0.19682863 -0.069465935 0.23550455 -0.11204868
-0.29821864 0.14649113 -0.3313817 -0.13228914 0.013079113 -0.31124395 0.22232154 -0.3523965
0.055027872 -0.11803304 -0.08891069 0.15191157 -0.21707799 0.15585162 -0.23671648 0.27281308
-0.07307449 -0.29429838 -0.14181457 0.01638126 0.23876493 -0.33107942 0.0052794586 0.048696045
0.116286226 0.28509396 -0.26160407 0.036069434 -0.18740767 0.29271525 -0.37402213 -0.27741924
0.2077918 -0.19410007 0.12930684 0.20208041 0.029971676 0.10765606 0.009408186 0.17161377
0.011305836 0.16833216 -0.16324005 0.15651363 0.17019619 0.18455474 -0.054459997 -0.27524918
0.009866653 -0.07264768 0.34035116 -0.24145158 0.3115351 -0.121205136 0.12953562 0.27193892
0.08650796 -0.11487805 0.06748154 0.2689738 0.06228672 0.024674797 0.13757354 -0.30394867
0.18227236 -0.12835103 -0.19031277 0.1842425 0.2875731 0.14826144 -0.16513729 -0.019321365
-0.11898242 -0.12581852 -0.042368982 -0.17764704 0.18914767 0.20535308 0.039961297 -0.005448208
0.114741735 0.0816325 -0.009052124 -0.2975885 0.22303803 0.04842548 0.21137358 -0.09988272
0.35427147 0.058999684 -0.12342743 0.010392777 0.2601347 0.32816973 -0.32988322 -0.14030191
0.13632686 -0.006123581 -0.0058064107 -0.07456405 -0.2716366 -0.10088082 -0.37558177 -0.29479843
0.028814318 -0.22274296 0.17748873 0.19014364 -0.3442985 -0.13666248 0.26065576 -0.08473814
-0.2260968 0.2095679 -0.21440811 -0.25803202 -0.18765438 -0.2896871 0.009918158 -0.21806729
-0.3772598 0.11781103 -0.16067128 -0.020519884 0.09998057 0.2941857 -0.02310664 0.19130185
0.22334312 -0.11720563 -0.16669577 -0.3375198 0.0532572 -0.17532782 0.3170724 0.21058027
0.18914881 -0.33596948 0.26950833 -0.110468656 -0.12624133 -0.12620161 0.006183772 0.04978366
0.1362912 -0.15640035 -0.04558153 -0.3521387 0.36801073 -0.047871165 0.0027088134 -0.3163296
-0.24655461 0.014067044 0.20676714 -0.1294302 -0.20625748 0.01845851 -0.16203645 -0.32237345
-0.0018578919 0.04107634 0.16421615 0.25680912 -0.09995202 -0.2495957 -0.070157 0.14065742
0.31583613 -0.040941115 0.20292218 -0.10157703 -0.085089505 -0.14589489 -0.14111575 0.24851525
-0.20724598 0.30787554 0.3301074 -0.08257476 -0.05941209 -0.096008204 -0.14592606 0.12754564
-0.03742528 0.057321 0.1990939 -0.07467798 -0.22727685 -0.12569231 -0.015732674 0.089296274
0.1338492 -0.00048809082 -0.16792056 0.29007295 -0.24134894 0.051910933 -0.087149926 0.26481327
-0.2501658 -0.028446233 -0.019297104 0.034513578 0.18954809 -0.13432118 -0.2650358 0.085115105
0.25086185 0.08884979 0.31929025 -0.0927369 0.13293089 -0.09633845 -0.06625295 -0.22765166
0.24437456 0.06248969 -0.35848394 0.1225435 0.37274954 -0.23923478 0.34941596 -0.21736647
0.16821805 0.3072244 -0.084005594 0.35933915 -0.13812013 0.1805151 -0.3389734 0.09560111
-0.28687507 0.06122844 0.29895893 0.3207275 0.1947099 0.18631798 0.16254541 0.2280047
0.13707586 0.29687044 -0.08265594 0.30899963 -0.060064025 -0.002392636 0.21802026 -0.16369793

transformer.layers.1.0.branch.to_out.weight f4 [8, 64]
00000000: c3bc 8a3d 8039 893d 6f8b 3cbc 5887 65bd
00000010: ec51 2e3d 0855 60bd 4635 533d 3555 c43b
00000020: a990 e73d bc37 9abd 518c 9f3c 206c 78bd
00000030: 7add 753d afab 723d e850 71bd f1aa b53d
00000040: 030e 2ebc 8f2c 5a3d 76e4 4fbd 620b a63c
00000050: ae49 83bd 7244 3bbb 5226 efbd 4fe4 7fbd
00000060: d301 e53d 8515 2fbd 3e25 95bc e655 dbbc
00000070: d014 d2bd 1034 c2bd 3aa6 f2bd 818a aebd
00000080: 71d8 ce3d 2ad2 473d ac31 b63d 6162 71bd
00000090: 2c59 84bd 0088 8cbd 29bf af3d 384d f03d
000000a0: 3e03 8dbd 09b4 ccbc 7f95 ecbd 7199 833d
000000b0: 80de 87bd 44a9 f6b9 47fb 573d 0de3 e3bc
000000c0: 04e6 dabc 1831 97bc 10b3 b03c 5ec7 0aba
000000d0: 4c16 6b3d 3c7e 123d 9eef 813d 157d 67bd
000000e0: adf8 bbbd ca3d 813c b59f 78bd 86f9 95bc
000000f0: 051d 353d 4efb b73c 9210 b93d bb26 c73d
00000100: 688c 7a3d 2961 a33d 2c5a 3abd 2d6d 393c
00000110: 529c c13c e13d 88bb 2fec 633d e62c 9e3d
00000120: 86ea 5bbd d8d9 81bc 75b0 90bd 98f7 dd3d
00000130: ad7a d5bd 5c5a bd3c 8f38 fc3c ec67 7dbd
00000140: aee3 e23d 7780 113e 75fe 89bd 47d3 0cbe
00000150: 81f8 e4bd 5fef ecbd 862d bfbd 017d 273d
00000160: 3745 76bd 3ab5 acbd dda3 1cbd 2c96 903d
00000170: 7527 2d3c 781c 43bd b270 9ebd 7cd1 f2bd
00000180: 08ec 073d 1358 053e e658 83bd 2c03 e4bc
00000190: 4c31 763c 7b3e fa3d 0df6 a2bc 7732 153e
000001a0: e759 393c fff2 843c 9ef4 b5bd b549 233d
000001b0: 0c3e a03d 4b6b f8bb 50ba 03bd 0abb e5bd
000001c0: 9ae4 a4bd 4450 183d 84c7 ee3b 55fa 043e
000001d0: be8d ca3b 627c 793d e420 db3d 3c6a 8d3b
000001e0: 38f5 41bd dc36 a63c 9708 f8bd e475 6cbd
000001f0: da1b f23d 38e5 803c 0901 d03c f34d 06be
00000200: 0a33 e73a 307b 083e 899b adbd 56af 28bd
00000210: 5c7b 6abd 3c60 c6bd 8c00 b83d 24fb c3bd
00000220: b6ae febc ae37 c9bd 1f6c 59bc daf7 e73d
00000230: 2fe8 873d 563c 253d 0031 0f3c 9a0e 07be
00000240: d02c 0c3d f308 96bd 7640 063d 1ad6 61b9
00000250: 1619 febc e450 fbbd 63b3 76bd b42d 8c3c
00000260: 6c7e f93d 3115 00bd e728 debd 9270 03be
00000270: b9e5 493c 3312 8f3d 15f2 09bc 71c5 f5bd
00000280: 19b3 913d 60cd b53d aadc 86bd 5f31 103e
00000290: 549a aabd befb 42bd 98a0 adbc c89a fe3c
000002a0: 670f 9bbd 7328 a2bd 8cfa 9d3b ad3f 4dbd
000002b0: 2095 a6bd c7c5 0f3e 9089 b03d e6ce 19be
000002c0: 9b63 df3d 1999 ef3a a178 babd 3793 52bd
000002d0: 35e8 c93c c544 a1bc 7774 833d 8081 41bb
000002e0: b1d6 893d d385 d43d 2fb1 8ebc 2210 c0bd
000002f0: b206 3a3d 8b04 4c3d 6a09 4f3d 11e6 5f3d
00000300: d63f c53d ee29 98bd 9815 c7bd d815 9d3d
00000310: ea24 a63d 4a65 b2bd 812f bcbd 680c e3bc
00000320: 468c 3abd 1d3b 93bd 6c4d 0bbe 2d8a 31bc
00000330: d1d8 e13d 29e4 713d befd 24bd e0ed 513d
00000340: 97af 693d 303e cc3c 78ee 133e 6dd8 623d
00000350: b96d 9a3d 842f f5bc e160 12bd 1cef 08be
00000360: 525e d9bd 82cb 113d 2d1b 8cbd db20 b63b
00000370: 7b47 0cbd 09c8 99bd 0b31 4fbd 301d 833d
00000380: 3e16 2d3d 48be ac3d 5f42 bf3d 64d6 cfbd
00000390: 511e 083e 3c2b 903d a421 21bd 7607 11be
000003a0: 1e65 47bd 11d0 ebbd 222c 103e b655 c83b
000003b0: 00a9 cc3d 57a4 cb3d ecd8 c7bd f5f3 743d
000003c0: 3347 833d 660b e83d 9f9a 00be 3560 8fbc
000003d0: 0904 14be 783e 2b3d 4e4e bbbd 6622 263c
000003e0: 8dee acbd 0a22 89bd f130 0e3e 00af 3a3d
000003f0: 560b 28bd 3edb a03c 7c37 093c 6dc9 81bd
0.06774285 0.067004204 -0.011507853 -0.056037277 0.042558596 -0.054768592 0.051564477 0.005991603
0.113068886 -0.07530162 0.019476088 -0.06064999 0.06002567 0.05924576 -0.05891505 0.08870495
-0.010623458 0.05326515 -0.050754987 0.0202691 -0.06410538 -0.0028574732 -0.11677231 -0.06247359
0.111819886 -0.042745132 -0.018206235 -0.026774358 -0.10257876 -0.094825864 -0.118481115 -0.08522511
0.10099877 0.048784412 0.08896193 -0.058931712 -0.06462321 -0.068618774 0.08581383 0.11733478
-0.06885384 -0.024988191 -0.115519516 0.06425751 -0.066342354 -0.0004704689 0.05272987 -0.027818227
-0.026721008 -0.018456027 0.021569759 -0.000529399 0.05739431 0.035764918 0.063445315 -0.056515772
-0.091782905 0.015776534 -0.060699183 -0.018307459 0.04421713 0.022458699 0.09036364 0.09724184
0.061169058 0.07977516 -0.04549615 0.011317533 0.02363411 -0.004157767 0.055645164 0.077234074
-0.053690456 -0.015850946 -0.070649065 0.108382404 -0.10423789 0.023114376 0.030788688 -0.061866686
0.11078583 0.14209162 -0.06737987 -0.13752471 -0.11180211 -0.11569094 -0.09334855 0.040890697
-0.060124602 -0.08433004 -0.03824221 0.07059893 0.010568489 -0.04763457 -0.07736339 -0.11856362
0.03318408 0.13021879 -0.064134404 -0.027833544 0.015026402 0.122189485 -0.019892717 0.14570032
0.011312938 0.01622915 -0.08884548 0.039865214 0.078243345 -0.0075811497 -0.032160103 -0.112173155
-0.08051415 0.037185922 0.0072869677 0.12986119 0.0061814478 0.060909636 0.10699633 0.0043156426
-0.047353 0.02028983 -0.121110134 -0.057729617 0.118217185 0.0157343 0.025391119 -0.13115673
0.0017639112 0.13328242 -0.084769316 -0.04118284 -0.05724655 -0.09686324 0.08984479 -0.09569386
-0.031089168 -0.09825073 -0.013270407 0.11326571 0.066360824 0.040340744 0.00873971 -0.13189164
0.034222424 -0.07325926 0.03277632 -0.00021537431 -0.031017821 -0.12271288 -0.06022967 0.017111637
0.12182316 -0.03127021 -0.10847645 -0.12835911 0.012322837 0.06985893 -0.008419533 -0.120005496
0.07114238 0.08877063 -0.06585057 0.14081334 -0.08330217 -0.04760336 -0.021194741 0.031079665
-0.07571297 -0.07917871 0.0048211273 -0.050109554 -0.08133912 0.1404029 0.08619988 -0.15020332
0.1090767 0.001827988 -0.091050394 -0.051409926 0.024646858 -0.019686112 0.06418698 -0.002952665
0.06730402 0.103770874 -0.017418472 -0.09378077 0.04541654 0.04980902 0.050546087 0.054662768
0.09631316 -0.074298725 -0.097209156 0.07670182 0.081125095 -0.087107256 -0.09188748 -0.027715877
-0.04554393 -0.07189009 -0.13603753 -0.010836166 0.110276826 0.05905548 -0.04028105 0.051252246
0.05705222 0.024931997 0.14446437 0.05538218 0.07540459 -0.029929884 -0.035736922 -0.13372463
-0.10613693 0.03559447 -0.06841121 0.005558116 -0.034247857 -0.07508857 -0.05058388 0.064020514
0.04225754 0.08434731 0.09338831 -0.10148314 0.13292815 0.07039496 -0.039338723 -0.14163002
-0.048680417 -0.11514295 0.14079335 0.006113733 0.09993172 0.09943455 -0.097581714 0.059802968
0.064100645 0.11330299 -0.12558983 -0.01750193 -0.14454664 0.04180762 -0.09145795 0.010140037
-0.084439375 -0.066959456 0.13885857 0.04557705 -0.041026436 0.019635793 0.008375045 -0.06337247

transformer.layers.1.0.norm.gamma f4 [8]
00000000: 57f7 a13d 5e70 af3d ee12 a63d c6a0 ba3d
00000010: 46a3 df3d 99a9 813d 7856 f33d 4a96 dc3d
0.079085045 0.08566354 0.08109079 0.09112696 0.10919814 0.06331176 0.11881727 0.10770853

transformer.layers.1.1.static_alpha f4 [4, 5]
00000000: 0195 783f 0000 803f 0000 0000 0000 0000
00000010: 0000 0000 7543 ccbc 0000 0000 0000 803f
00000020: 0000 0000 0000 0000 3867 fc3c 0000 0000
00000030: 0000 0000 0000 803f 0000 0000 7543 ccbc
00000040: 0000 0000 0000 0000 0000 0000 0000 803f
0.9710236 1.0 0.0 0.0 0.0 -0.02493451 0.0 1.0
0.0 0.0 0.030810937 0.0 0.0 1.0 0.0 -0.02493451
0.0 0.0 0.0 1.0

transformer.layers.1.1.dynamic_alpha_fn f4 [8, 5]
00000000: 2a51 273c 0000 0000 0000 0000 0000 0000
00000010: 0000 0000 6974 a33b 0000 0000 0000 0000
00000020: 0000 0000 0000 0000 2636 293d 0000 0000
00000030: 0000 0000 0000 0000 0000 0000 6826 87bc
00000040: 0000 0000 0000 0000 0000 0000 0000 0000
00000050: 427b 1c3b 0000 0000 0000 0000 0000 0000
00000060: 0000 0000 8b10 4e3d 0000 0000 0000 0000
00000070: 0000 0000 0000 0000 0d4b bc3d 0000 0000
00000080: 0000 0000 0000 0000 0000 0000 6053 77bc
00000090: 0000 0000 0000 0000 0000 0000 0000 0000
0.010212222 0.0 0.0 0.0 0.0 0.0049882424 0.0 0.0
0.0 0.0 0.041311406 0.0 0.0 0.0 0.0 -0.016497806
0.0 0.0 0.0 0.0 0.0023877178 0.0 0.0 0.0
0.0 0.050308745 0.0 0.0 0.0 0.0 0.09194002 0.0
0.0 0.0 0.0 -0.015095562 0.0 0.0 0.0 0.0

transformer.layers.1.1.static_beta f4 [4]
00000000: 3278 763f c90f 803f 6054 813f c90f 803f
0.96277153 1.0004817 1.0103874 1.0004817

transformer.layers.1.1.dynamic_beta_fn f4 [8]
00000000: 97e0 d03c 5907 1d3b a603 533d 9ed6 47bc
00000010: 843b 673c 8670 d03c 9686 893d 02a2 80bc
0.025497718 0.0023960678 0.05151715 -0.012197165 0.014113311 0.02544428 0.06715123 -0.015702251
