Projektarbeit_FTTransformer/trained_models/physical_error_training/model_lr0.00025_9_1_4_4_.1_.1Errorbatch70_long_epoch9400.pt (torch, 105004 bytes, 87 tensors)

cls_token f4 [1, 1, 9]
000000 6e 93 56 3f 25 bd a9 bf 2d 9c 30 3f 0e 5e 99 3e
       0.8381871 -1.3260847 0.68988305 0.2995457
000010 de 33 a2 3f a7 27 7d bf 77 cf 51 bd b4 3c 19 3f
       1.2672079 -0.9888863 -0.051223245 0.5985825
000020 2f f0 5d be
       -0.21673654

categorical_embeds.weight f4 [3, 9]
000000 83 82 a9 be c6 98 1e 3f 43 ca 8b be f4 6a bd 3e
       -0.33107385 0.61951864 -0.2730275 0.3699566
000010 ac 62 9d be 57 51 7e bf 20 98 70 3e 07 c0 52 3d
       -0.30739343 -0.99342865 0.23495531 0.051452663
000020 d8 ff 29 c0 13 1d de be f1 91 16 3f 2f 18 68 bf
       -2.6562405 -0.43381557 0.5881644 -0.906619
000030 30 ba b0 bf 71 d5 8b 3f f1 cb 73 3e d6 9f 63 bf
       -1.380682 1.0924512 0.23808266 -0.88915765
000040 e3 d1 ed be 2f 60 07 c0 c1 e9 9e 3f 86 7a e4 3f
       -0.46449193 -2.1152456 1.2415086 1.7849891
000050 14 46 9a bf ce a8 6d bf c9 33 db be 14 0d 10 40
       -1.2052636 -0.928357 -0.42812946 2.2507982
000060 e1 9e 07 3f 81 44 64 3f 2e d1 0b 3f
       0.52976805 0.8916703 0.5461606

numerical_embedder.weights f4 [8, 9]
000000 d8 d7 f9 3d bc ed 2d 3e 2c 24 e4 be fb 60 83 bf
       0.12199372 0.1698522 -0.44558847 -1.0263971
000010 5f 40 8d 3f e5 d5 47 be f0 9c f6 be a4 13 3c 3f
       1.103527 -0.19515188 -0.4816661 0.7346747
000020 4f 57 8c be af 0a 24 bf 48 d0 18 bf b9 b4 21 3c
       -0.2741036 -0.640788 -0.5969281 0.009869748
000030 cf 05 86 3e fe de 4a bf 63 6e d4 3e f5 ed 9c 3f
       0.26176307 -0.7924651 0.41490468 1.2260119
000040 cc f1 03 3e 9a c8 97 3e 8b dd 9c 3e 0c 35 ab 3e
       0.12885207 0.29645234 0.30637774 0.3343891
000050 1a 39 8b bf 27 d0 43 be 49 11 0a 3f 96 73 29 3f
       -1.0876801 -0.19122373 0.53932625 0.66191995
000060 57 1d 0d c0 52 f4 c8 3e b0 80 e1 be a5 43 09 3f
       -2.2049158 0.39248902 -0.44043493 0.5361884
000070 50 9b bd bd fc 09 1a 3e 5a 4d f7 3e 0a 88 b0 bf
       -0.09258139 0.15042871 0.48301202 -1.3791516
000080 57 35 0f 3e 6f 39 2b 3f c2 d8 29 bf ad c2 c0 be
       0.13985191 0.6688451 -0.6634637 -0.37648526
000090 db 3b e6 be 17 88 1c be b5 04 49 3e d5 c2 ea bf
       -0.4496754 -0.15286289 0.19630702 -1.8340708
0000a0 62 1d b1 bf 8f 5f 9d be 91 0f d2 3f 1f 72 16 bf
       -1.3837092 -0.30736968 1.6411 -0.58767885
0000b0 e0 94 a8 3f a2 40 ae bf 14 53 96 3e 10 ca 41 bf
       1.3170433 -1.3613474 0.2936026 -0.7569895
0000c0 d4 02 9b 3e 4a 93 84 3f 6c 2f 88 bf 00 2d 2a bf
       0.30275595 1.0357449 -1.0639472 -0.66474915
0000d0 d3 b1 f0 3e 2d a7 d8 be 5e 40 9a bf 00 ad 19 3f
       0.4701067 -0.42315045 -1.2050893 0.600296
0000e0 63 73 00 3f 9d 15 16 3f 8f 97 5d 3e 7f bb b8 be
       0.50176066 0.5862673 0.21639846 -0.36080548
0000f0 31 c0 81 3d cd 3c f4 bf 73 86 be bf 8d cc a9 3c
       0.06335486 -1.9081055 -1.4884781 0.02072742
000100 20 fa d7 3e ee ad 09 3f 14 ae b9 bf 43 75 61 3f
       0.42183018 0.5378102 -1.450625 0.8806955
000110 6b 3d 97 3f 67 84 49 bf 05 a3 86 be f1 7e a3 3e
       1.1815618 -0.78717655 -0.2629625 0.31932786

numerical_embedder.biases f4 [8, 9]
000000 5e 67 a1 3f 60 6e f1 be b9 f9 1e bf 01 5c 12 c0
       1.260967 -0.47154522 -0.62099797 -2.2868655
000010 f4 d3 6d 3f 00 00 aa 3f 11 d0 53 3f 73 50 8a be
       0.9290154 1.328125 0.8273936 -0.27014503
000020 f3 48 93 3f 5a 60 d4 bf ba fd 60 3f 34 95 5d bf
       1.1506637 -1.6591904 0.87887156 -0.8655579
000030 bc 36 a1 bf f4 40 cd 3f 9a b2 14 3f c7 4d 5d 3f
       -1.2594829 1.6035447 0.58085024 0.86446804
000040 88 fc 0c be 86 43 35 3f e6 0a 42 3e 4a 2a 6b be
       -0.13768208 0.7080616 0.1894947 -0.22965351
000050 bd 81 c5 bf a4 a2 2f bf 78 33 30 3f c8 d5 03 3f
       -1.5430218 -0.68607545 0.68828535 0.5149808
000060 94 f9 de bb 31 50 eb bd 02 d4 0d 40 b7 8b c4 bf
       -0.0068046544 -0.11489905 2.216065 -1.5355138
000070 35 9d eb 3f 14 24 34 3f b6 68 fd bf 0b ec 83 bf
       1.8407351 0.7036755 -1.979758 -1.030641
000080 d7 63 51 be 94 9a 2b c0 3f fa 19 3f aa 90 cd be
       -0.20448242 -2.6813097 0.6014747 -0.40149432
000090 1a f0 52 3f cc 37 68 3e 3d 77 8e 3e b9 a5 9a 3f
       0.82397616 0.22677535 0.27825347 1.2081825
0000a0 03 6e 4a bf c0 a0 03 40 89 a9 92 bf 67 68 b7 bf
       -0.79074115 2.0566864 -1.1457988 -1.4328736
0000b0 ad c4 f1 bd 38 2c 22 bf a9 c7 a9 3e 74 41 7e 3e
       -0.11805091 -0.6334872 0.3316014 0.24829656
0000c0 87 f0 77 be b6 9c 07 bf 09 1c 13 3f 39 a6 f1 be
       -0.24212848 -0.52973497 0.57464653 -0.4719713
0000d0 a3 8c 32 3e 76 5f 1e 3f 1f dd 1e 3f 89 b5 ba bd
       0.17436461 0.6186441 0.62056154 -0.09116656
0000e0 3e a0 b1 3e 45 3b 67 3f c5 39 fd 3e f0 05 70 bf
       0.34692568 0.90324813 0.49458137 -0.9375906
0000f0 73 e5 0c bf 36 cd dc bf 30 a1 97 bf 6f f7 02 c0
       -0.5503761 -1.7250125 -1.1846066 -2.0463521
000100 6d 33 03 3f b0 d2 0d bf 2b d8 a4 bc f4 2e 01 bf
       0.51250345 -0.5539961 -0.020122608 -0.5046227
000110 7c 74 b7 bf 4e 17 79 3f 3b db 11 3e bc ce 5d bf
       -1.4332423 0.97301185 0.14243786 -0.86643577

transformer.layers.0.0.static_alpha f4 [4, 5]
000000 75 aa 89 3f 00 00 80 3f 00 00 00 00 00 00 00 00
       1.0755144 1.0 0.0 0.0
000010 00 00 00 00 12 9d 9a 3d 00 00 00 00 00 00 80 3f
       0.0 0.0754949 0.0 1.0
000020 00 00 00 00 00 00 00 00 12 9d 9a 3d 00 00 00 00
       0.0 0.0 0.0754949 0.0
000030 00 00 00 00 00 00 80 3f 00 00 00 00 12 9d 9a 3d
       0.0 1.0 0.0 0.0754949
000040 00 00 00 00 00 00 00 00 00 00 00 00 00 00 80 3f
       0.0 0.0 0.0 1.0

transformer.layers.0.0.dynamic_alpha_fn f4 [9, 5]
000000 93 12 64 3c 00 00 00 00 00 00 00 00 00 00 00 00
       0.013920444 0.0 0.0 0.0
000010 00 00 00 00 d9 80 19 bd 00 00 00 00 00 00 00 00
       0.0 -0.037476394 0.0 0.0
000020 00 00 00 00 00 00 00 00 ed 46 69 3c 00 00 00 00
       0.0 0.0 0.014238101 0.0
000030 00 00 00 00 00 00 00 00 00 00 00 00 d9 2c ec 3c
       0.0 0.0 0.0 0.028829979
000040 00 00 00 00 00 00 00 00 00 00 00 00 00 00 00 00
       0.0 0.0 0.0 0.0
000050 a6 33 86 3d 00 00 00 00 00 00 00 00 00 00 00 00
       0.0655282 0.0 0.0 0.0
000060 00 00 00 00 fa 16 62 bc 00 00 00 00 00 00 00 00
       0.0 -0.013799423 0.0 0.0
000070 00 00 00 00 00 00 00 00 e1 d5 4a bd 00 00 00 00
       0.0 0.0 -0.049520377 0.0
000080 00 00 00 00 00 00 00 00 00 00 00 00 52 90 c2 3d
       0.0 0.0 0.0 0.09500183
000090 00 00 00 00 00 00 00 00 00 00 00 00 00 00 00 00
       0.0 0.0 0.0 0.0
0000a0 1e 11 08 bc 00 00 00 00 00 00 00 00 00 00 00 00
       -0.008304862 0.0 0.0 0.0
0000b0 00 00 00 00
       0.0

transformer.layers.0.0.static_beta f4 [4]
000000 f7 3d 87 3f 96 2f 64 3f 47 c5 8c 3f 4c a2 7e 3f
       1.0565785 0.8913511 1.0997704 0.99466395

transformer.layers.0.0.dynamic_beta_fn f4 [9]
000000 ec 76 bc 3e 72 a4 9f be b0 6a d0 3e d9 72 d7 3e
       0.3680948 -0.3118015 0.40706396 0.4207981
000010 c2 fc b9 bb ab 3b 1a be ee 07 2e 3d ed 6b 94 bd
       -0.005675883 -0.15061824 0.04248803 -0.07247148
000020 62 40 01 bf
       -0.50488865

transformer.layers.0.0.branch.norm.weight f4 [9]
000000 04 a6 81 3f e9 cb aa 3f 22 b8 96 3f 00 89 8c 3f
       1.0128789 1.3343478 1.1774943 1.0979309
000010 97 4b 8a 3f f2 a3 7b 3f 3f 55 92 3f ee c3 8a 3f
       1.0804318 0.98297036 1.1432265 1.0841043
000020 8d a5 82 3f
       1.0206772

transformer.layers.0.0.branch.norm.bias f4 [9]
000000 6f 8a 0a 3c 35 7c f9 bc a6 f0 85 3c 1b f5 4e bd
       0.008455857 -0.030454734 0.016350102 -0.05052672
000010 72 a0 ce 3c b6 1d ed bd 88 b3 27 bc f4 52 72 3d
       0.02522299 -0.115779325 -0.010235675 0.05916114
000020 27 15 06 3d
       0.032735016

transformer.layers.0.0.branch.to_qkv.weight f4 [192, 9]
000000 30 8a 02 3e 19 b8 eb be 20 74 d8 3e fb 82 7c 3e
       0.12748027 -0.46038893 0.42276096 0.2465934
000010 f2 ef 40 be 63 da 3b 3e cf 00 45 be da 1f 89 3c
       -0.18841532 0.18345027 -0.1923859 0.01673882
000020 a6 cf 08 3e 9a 4d c0 3e d1 10 10 bf b3 21 c7 3e
       0.13360462 0.37559205 -0.5627566 0.38892898
000030 4b 2e 04 3a dd 0d 1e 3e c0 3c 81 be b6 c7 a2 be
       0.00050422986 0.15434976 -0.2524166 -0.31792992
000040 78 c7 b0 3b c4 cc ed be 43 eb 28 3e 0e 19 78 be
       0.0053948723 -0.46445286 0.16495995 -0.24228308
000050 e9 52 9f bc 8f 1e d1 3e 65 e5 a4 3e 37 5d 27 bd
       -0.019448714 0.40843627 0.32206264 -0.04086038
000060 20 60 1d be 49 86 51 3e a2 f9 08 3e e3 e2 a4 3e
       -0.153687 0.20461382 0.13376477 0.3220435
000070 2b fc ef bd 0a 9d cd be 3f f9 81 be cf eb de ba
       -0.11718019 -0.40158874 -0.25385472 -0.0017007532
000080 dd ea 90 3e f7 84 85 bd b5 42 cd bd 8d e2 13 3e
       0.28304186 -0.06519502 -0.10022489 0.14441891
000090 0f 6a 72 3e a7 f2 93 3e 96 14 f1 3d 09 23 4f 3e
       0.2367327 0.28896067 0.117715046 0.20228209
0000a0 f8 63 63 3e e3 b7 a3 3d 59 89 91 be de 59 3a bd
       0.22206104 0.07994058 -0.284251 -0.04549586
0000b0 bd de 38 be fa 43 7a 3e 07 dd eb be 50 5c e8 3e
       -0.18053718 0.24439994 -0.46067068 0.4538293
0000c0 76 79 44 3e 6e 97 d1 3e 2d 3b 7a be 14 54 c4 be
       0.19186959 0.40935844 -0.24436636 -0.38345397
0000d0 72 6c 97 3e b2 c2 4d bc 81 e8 a7 3e 6d 80 b2 be
       0.29574925 -0.012558626 0.32794574 -0.34863606
0000e0 4b 61 09 3e ed 74 57 3e 84 1c 04 bd 88 fc 12 be
       0.1341602 0.21040697 -0.032253757 -0.14354146
0000f0 26 bd e1 3c 1e 4c 50 be 94 78 19 be 6f 06 13 be
       0.027556013 -0.20341536 -0.14987403 -0.14357923
000100 e2 e8 cd 3e 75 34 bc be ed 70 a8 bc 73 85 fc be
       0.40216738 -0.36758772 -0.02056166 -0.49320564
000110 3e 32 62 3e c4 db ec bd 5b 9a 1a 3e 16 3b 23 3f
       0.22089478 -0.115653545 0.15097944 0.63762033
000120 f5 64 d0 3d 8a 11 f1 be 8b f3 dd 3e 9f 16 b0 3e
       0.10175506 -0.47083694 0.4334987 0.3439226
000130 67 1d 8f 3e 18 b6 ce be 57 03 ce be d0 bd 73 be
       0.2795212 -0.40373302 -0.40236923 -0.23802876
000140 53 21 0c bf e9 4b 54 be 7f 28 f1 bd 6a b7 cb be
       -0.5473835 -0.20732082 -0.11775302 -0.3978837
000150 19 fc 22 be 2e 1a b2 3e d9 12 7a 3c 9b 10 12 be
       -0.1591648 0.347856 0.015263283 -0.14264147
000160 ee f4 b8 3e 36 32 2e 3d be 07 63 3e ba 9e a0 be
       0.36124367 0.042528354 0.22170922 -0.313711
000170 02 d9 5a be e7 6d f6 bd 1f 95 06 bb 51 36 47 be
       -0.21371844 -0.12032681 -0.002053566 -0.19454314
000180 a9 f4 a3 3d ba 5f 9d 3e f2 9b d7 bd c6 14 3b 3e
       0.080056496 0.30737096 -0.10527791 0.18269643
000190 cc 23 8d 3d a2 8e 70 3e aa 80 8d 3e e6 17 bb be
       0.06891593 0.2349191 0.27637225 -0.3654167
0001a0 ac ce d8 3e b9 b4 2d 3e 8a 37 27 3d c6 65 95 3d
       0.42345178 0.16963471 0.04082445 0.07294802
0001b0 33 c7 49 be 82 0c f2 3e 9d 92 1b 3e 82 00 fc be
       -0.19704895 0.47275168 0.15192647 -0.49219137
0001c0 70 bf b8 bd 71 b6 98 be 90 30 0c be f7 f1 c8 3c
       -0.09020889 -0.29826692 -0.136904 0.02452944
0001d0 3b 08 f9 3c ff 5a 0b 3d fe 41 9e 3e de 4c b2 be
       0.030399432 0.034022328 0.30909723 -0.3482427
0001e0 83 84 0d bf a3 2b c2 be b8 a4 03 3f 1e a6 c2 3e
       -0.5528032 -0.37923917 0.51423216 0.38017362
0001f0 eb 3f 50 be ec 56 46 3e 95 d9 50 3e f1 4c 45 3e
       -0.20336883 0.19369096 0.20395501 0.19267632
000200 a3 ec 99 be 79 dd 96 3e dc 97 fd bd a3 4c c1 3d
       -0.30063352 0.29465845 -0.123824805 0.094384454
000210 e8 e8 c0 3e ce 27 97 be 89 2f 37 3e 93 9f 2e be
       0.37677693 -0.29522556 0.17889227 -0.1705306
000220 ee 4f 6e be 74 a1 6b bd cf ee e0 be 3b b2 9f be
       -0.23272678 -0.05752702 -0.43932196 -0.31190667
000230 71 26 ac 3e 1b a4 37 3c a6 51 46 be b0 f5 fc 3e
       0.33623078 0.011208559 -0.19367084 0.49406195
000240 b1 10 9d be 65 29 c5 3e 18 08 c6 3d c3 f4 56 be
       -0.30676797 0.38508144 0.096695125 -0.20991807
000250 9e 5f 4e bd a8 36 95 3e 50 c6 2e be 86 93 24 3e
       -0.050384156 0.29143262 -0.17067838 0.160719
000260 f1 f4 d1 3e be 51 6e be a5 ba c3 3e ce 02 b2 be
       0.41007188 -0.2327337 0.38228336 -0.34767765
000270 f7 cf c0 3d ba 9f b8 3e 67 d8 e5 bd a5 3f 66 3c
       0.09414666 0.36059362 -0.11222916 0.01405326
000280 97 2a 43 be 7b 40 5a be 4d 69 6a 3e 3e 18 a9 3e
       -0.19059215 -0.2131366 0.22891732 0.33026308
000290 47 70 ae bd db 58 4f be e5 81 65 be bb e8 57 3c
       -0.08517509 -0.2024874 -0.22412832 0.013178046
0002a0 71 70 88 bb ab 41 6e bd e4 fe 99 be e0 17 b3 3e
       -0.0041637947 -0.058168095 -0.3007728 0.34979153
0002b0 a6 06 af 3c c1 54 9c 3e 14 25 b3 3e 4c 73 71 be
       0.021365475 0.30533412 0.34989226 -0.23579139
0002c0 23 6b 85 bd 4e 7c c3 bd 18 31 3d 3e 21 60 8d be
       -0.06514575 -0.095451936 0.18475759 -0.27612403
0002d0 9a 7f f8 bd a6 b7 85 be 3c c2 f9 bd 8a 19 19 be
       -0.12133713 -0.26116675 -0.121952504 -0.14951149
0002e0 28 9f 0c 3e fd 55 03 be d9 0f 64 bd 79 2d 6f be
       0.13732588 -0.1282577 -0.055679176 -0.2335719
0002f0 ca 88 24 be 41 1d 6a be 23 6c 8e 3e 4d 8a c1 3d
       -0.16067806 -0.22862722 0.27816877 0.09450207
000300 09 8d 1a 3e 5e a0 f7 3d 7d ad 91 3e 1a 08 e3 3e
       0.15092863 0.120911345 0.28452674 0.44342119
000310 8e c8 3c 3e c0 67 12 3e 81 1e 9d be bc 5c 7c 3d
       0.1843588 0.1429739 -0.30687335 0.061611876
000320 ce 3e 93 bc 06 d3 61 3e 3e 1d 1f bd 8a 06 d8 be
       -0.017974284 0.22053155 -0.038846247 -0.4219249
000330 54 45 97 3e 82 3a 85 3e ef a5 db 3d bf 11 1e be
       0.2954508 0.260212 0.10725009 -0.15436457
000340 d8 bc 2c 3d 62 dc 9c bd f0 2c 3a 3e 4f bf 41 be
       0.042172283 -0.07659222 0.18181205 -0.18920635
000350 9c b4 4e be 69 5b cd bd 66 59 05 3e af c5 3b 3e
       -0.20186085 -0.10027201 0.13022384 0.18337129
000360 25 9c 3a 3e 2a 8a 03 3e 0c e7 1b be da c2 1e be
       0.18223627 0.12845674 -0.15224856 -0.15504017
000370 0a 39 5f 3c 89 a1 44 bb cc 51 e6 be 28 47 50 3e
       0.013624439 -0.003000351 -0.4498428 0.20339644
000380 57 24 64 bd 85 92 43 3d 14 6b 6a be f2 da ae bb
       -0.05569872 0.047747154 -0.2289241 -0.005336159
000390 d1 24 c6 bd c1 8e e1 3d f2 1d 74 3e be 80 c1 be
       -0.09674991 0.11013556 0.23839548 -0.37793535
0003a0 66 4e 57 be 14 3e cb 3d 9d 23 ce be f9 13 8c 3e
       -0.21026 0.0992395 -0.40261546 0.27358988
0003b0 94 a5 81 3e f1 10 a4 be 87 14 6a be 7f 5a 60 3e
       0.2532164 -0.32044175 -0.22859393 0.21909522
0003c0 e7 9b e3 3d c5 bb 83 be 3c 3b 6f 3e 9d fc 9f 3e
       0.111137204 -0.25729194 0.2336244 0.31247416
0003d0 37 2c 45 3e b1 78 30 3e b1 00 71 3e 44 ec db be
       0.19255148 0.1723354 0.2353542 -0.42953694
0003e0 ad 88 5f be 16 5e 91 3e be 5b 03 3d 95 e4 68 3e
       -0.21829481 0.28392094 0.032069914 0.22743447
0003f0 41 ae 26 3e af c4 51 be d3 5a 5c 3e d8 7c c9 bd
       0.1627741 -0.20485185 0.21519022 -0.09838265

transformer.layers.0.0.branch.to_out.weight f4 [9, 64]
000000 3e 1f 7b 3d d9 5f bc 3d 49 55 f2 bd f4 d2 99 be
       0.06130909 0.09197969 -0.11832673 -0.30043757
000010 6f 5b c1 bd 27 36 c5 be 88 d0 05 3e 9c 5e 47 3c
       -0.09441268 -0.38517877 0.1306783 0.012168553
000020 63 6d 11 3d 84 f1 36 be c3 67 49 3c 2e 45 e5 3d
       0.03550471 -0.17865568 0.012292805 0.111948356
000030 02 6b d0 bd 1d b1 87 3d 74 61 85 bd 0e 5d 7d bd
       -0.1017666 0.066255786 -0.06512728 -0.061856322
000040 1e 8a 4a 3c 1e 5b 1a be 3f eb 00 ba 22 a8 a5 bd
       0.012362031 -0.15073821 -0.0004917867 -0.080887094
000050 71 6b 74 bd ea 95 12 be 6a 27 89 bd 0b 43 54 3c
       -0.059672777 -0.14315 -0.06696971 0.012955437
000060 03 72 32 bd 60 95 b7 bc ef ff ee bd d3 26 05 3c
       -0.04356576 -0.022410095 -0.11669909 0.008126932
000070 7a 81 9d 3c 94 c1 5b 3e e4 47 08 3d 52 75 a9 3c
       0.019226778 0.21460563 0.033271685 0.020685825
000080 30 e7 f0 3d 02 0c 97 3d df 65 d0 3d 2e ec 02 3e
       0.117628455 0.07375337 0.1017568 0.12785408
000090 3c 21 28 3e 9c 9a 2a bc dd 6e c8 3c 70 7f 55 bd
       0.16418928 -0.010412838 0.024466926 -0.052123487
0000a0 2a 4c c8 bc ec d6 fa 3d d9 d1 c5 3d 64 8a 11 3d
       -0.02445038 0.12248024 0.09659166 0.03553237
0000b0 3b 8f 3e 3d 6c 6d aa 3c bb 69 95 3d be 90 9a 3d
       0.046523314 0.02080413 0.07295557 0.07547139
0000c0 73 e8 bf ba 4c 74 28 be 48 cb 88 be 09 88 c0 bc
       -0.0014641419 -0.16450614 -0.2671759 -0.023502367
0000d0 1d 81 8d bd 57 61 e3 3d a4 c6 73 bd 05 c1 20 3d
       -0.06909392 0.111025505 -0.05951561 0.039246578
0000e0 be 8f 21 be 9e 72 92 3d 06 26 ae 3d 84 9c 82 3c
       -0.1577749 0.07150768 0.08503346 0.015943773
0000f0 56 90 79 3d 30 b5 3a bd 13 b8 e3 3d e1 52 86 3d
       0.060928665 -0.04558295 0.11119094 0.06558777
000100 04 f4 ab bd 96 3a 37 be 6b 56 6b 3d 4f e0 08 3e
       -0.08396152 -0.17893443 0.05745546 0.13366817
000110 2a c0 95 3d d3 f5 0e 3e 0d 63 93 bd b4 83 f4 bd
       0.07312043 0.13960962 -0.07196627 -0.11939183
000120 83 73 cb 3c 27 74 57 3d b3 7a 3d 3d 34 e5 89 bc
       0.024835354 0.052601006 0.046259593 -0.016832925
000130 51 5f 56 bd 76 79 86 3a 6e 4e 86 bc 9e 9b a2 3c
       -0.052336995 0.0010259587 -0.01639482 0.019849595
000140 5a fe 51 3d 8c d1 a6 3d c3 b6 3b 3e 55 52 28 3d
       0.05126796 0.08145437 0.18331437 0.041094143
000150 36 e2 0b be 89 e3 ae 3c 5c 95 05 3d 3c 04 e1 bb
       -0.13660511 0.021348732 0.032613143 -0.00686696
000160 d0 ff 85 3c f3 8e 1d be af 4b c7 3c 9a 14 15 be
       0.016357332 -0.15386562 0.024328081 -0.1455864
000170 b8 63 f7 bd d0 ef 2c be 5f 12 fa bd 81 da 40 be
       -0.12079567 -0.16888356 -0.12210535 -0.18833353
000180 72 c6 2a 3c 30 2f 59 bd 90 fc f0 bc 38 e2 4e be
       0.01042329 -0.053023517 -0.029417306 -0.20203483
000190 18 6f 55 bd 0e 57 cc bd 19 1b 32 be c7 42 ef 3d
       -0.0521079 -0.09977542 -0.1739315 0.11682659
0001a0 45 09 e2 bd 6b 60 02 3c 55 00 cc bd a8 ec b5 bd
       -0.11036924 0.007957558 -0.09961001 -0.08883029
0001b0 9a 8f 6a be c4 73 81 bd e2 32 87 bd 1c 3b ce bd
       -0.22906342 -0.06320909 -0.06601502 -0.10069868
0001c0 96 34 f5 bd 14 21 8f 3b c2 51 63 3e 0b e3 22 bd
       -0.119729206 0.004367957 0.22199157 -0.039767306
0001d0 bf 38 10 3e ec 64 69 bc 02 63 69 3d 3c 7d e6 bc
       0.14084147 -0.014245253 0.056979187 -0.028135888
0001e0 c0 67 0d bd 8b a3 45 be b5 c7 55 3d 01 07 d3 3d
       -0.03452277 -0.19300668 0.05219241 0.1030407
0001f0 71 c0 cc bd ac 8c 0d 3e 4e 2a 9a bd 6d 1a 49 be
       -0.09997643 0.13823193 -0.075276 -0.19638987
000200 2c 87 55 bd 00 fd 0c bc 76 c3 69 3d 49 eb 47 3e
       -0.052130863 -0.008605242 0.05707117 0.19523348
000210 b8 f1 6d 3d 63 84 38 3e e0 86 5f bd a0 05 25 be
       0.05809185 0.18019252 -0.054571986 -0.16115427
000220 4a e2 3a bd 33 1b 26 3e 24 fb ad 3c 3e 8c 06 be
       -0.045625962 0.16221313 0.021237917 -0.13139436
000230 71 5e f2 3d 23 46 a3 3c 3e ad c0 3d 17 85 f6 bc
       0.118344195 0.019930905 0.09408043 -0.030092759
000240 63 9a 1b 3d 90 da d6 3d 9d 51 41 3e 95 42 78 bc
       0.03798903 0.10490906 0.18878789 -0.015152593
000250 fa 1c c2 bc 70 f0 f9 3d 74 10 9e 3d e0 a5 17 3d
       -0.023695458 0.12204063 0.07717982 0.037023425
000260 b0 20 25 3e ed 26 ae bd 74 16 b8 3c 13 1e 55 bd
       0.1612575 -0.08503518 0.022471644 -0.052030634
000270 bb a1 08 bd 1c 33 08 be 3e a7 5c 3d 6f a1 50 be
       -0.033357363 -0.13300747 0.053870432 -0.20374082
000280 1d 12 33 3d 12 f9 aa bd 8d 91 87 bd 05 19 4a bc
       0.043718446 -0.08348288 -0.066195585 -0.012335067
000290 a9 28 25 be 76 18 01 3e 82 9d 80 bd 43 60 9c 3c
       -0.16128792 0.12606987 -0.06280042 0.01908887
0002a0 7d 58 b6 3d 8f 1d 74 bd 3f 25 00 bd c6 80 76 bc
       0.089035966 -0.0595985 -0.03128552 -0.01504535
0002b0 b2 c4 2e be c7 23 53 3d 34 62 9a bd c6 a6 2e bd
       -0.17067221 0.05154779 -0.07538262 -0.042639516
0002c0 95 78 58 bd 87 6e 0d 3e 65 b9 72 3e 85 98 b5 3d
       -0.05284937 0.13811694 0.23703535 0.088669814
0002d0 c1 30 03 3e fc 2f e0 bd 93 a5 0f 3e 47 59 b4 bd
       0.12811567 -0.10946652 0.14028005 -0.08806091
0002e0 af be 25 3e d8 b1 00 be 36 40 03 be e8 26 e6 bd
       0.16186021 -0.12567842 -0.12817463 -0.112378895
0002f0 31 3b 16 bd 85 21 80 3d fd 1e 25 be 30 da 4f bd
       -0.036677543 0.06256393 -0.16125102 -0.05074519
000300 da 34 91 bc 4d 87 06 3e ad 09 a8 3d 18 b7 ab be
       -0.017725397 0.1313755 0.082049705 -0.33538127
000310 5d a7 11 be c8 d6 bd be 2d 4b c1 3d 09 33 a3 3d
       -0.14224 -0.37077928 0.09438167 0.079687186
000320 42 e0 15 be a6 25 b5 bd 9b d6 e5 3d 77 ed e6 3b
       -0.14636329 -0.088450715 0.11222573 0.007047351
000330 31 ee 44 bd 8b e9 27 3e af 8c 6d bd b6 c8 05 be
       -0.04807872 0.16397683 -0.057995494 -0.13064846
000340 b4 0e 85 3d 61 2d df 3c 4b 4f ea 3b 26 1a 16 be
       0.06496945 0.027243318 0.0071505657 -0.14658412
000350 53 d7 61 3d 83 b5 a3 3c 5a 39 03 be 6e 5b 01 3c
       0.05513699 0.019984012 -0.12814847 0.007895334
000360 d4 b6 34 bd f6 04 42 3c 49 86 48 bc 9e 42 3f bd
       -0.04411967 0.011842003 -0.012239047 -0.04669439
000370 d6 76 32 3d 15 07 d2 3d 44 a5 3b 3c e2 40 0c 3d
       0.043570362 0.10255257 0.011452977 0.034241565
000380 b9 ef a6 3c f4 3c 6a bd e6 43 1a 3d 26 01 27 3e
       0.02037798 -0.057187036 0.03766241 0.16309032
000390 95 1b fc ba ec 69 a8 3b 95 32 d1 3d 00 aa bb bb
       -0.0019234294 0.00513958 0.10214726 -0.0057270527
0003a0 38 5b e8 3d b1 7a 0b 3e bc e9 8f 3d e0 83 8d ba
       0.113455236 0.13621022 0.07027003 -0.0010796748
0003b0 c0 5b ba 3d 43 d3 8a bc 63 5d ef 3d 13 28 9d 3c
       0.09099531 -0.01694644 0.11687734 0.019184148
0003c0 63 26 fb 3d b2 c7 55 be 82 8b a2 be ba 2f bb 3d
       0.12263181 -0.20876959 -0.3174706 0.091399625
0003d0 4c fb 33 3d 57 72 10 3d 7e cb 48 be a4 32 b2 bd
       0.043940827 0.035265293 -0.19608876 -0.08701065
0003e0 8a 40 96 bd 03 c4 ee 3c 24 8a 0a be 52 66 29 be
       -0.073365286 0.0291462 -0.13529259 -0.16542938
0003f0 59 35 5b 3e 02 25 5f bd 4d 0b bb 3d c4 ad 4a 3e
       0.2140707 -0.054478653 0.09133015 0.19792849

transformer.layers.0.0.norm.gamma f4 [9]
000000 4e c1 01 3f 37 fb e5 3e f4 c8 0b 3f dc 94 1a 3f
       0.50685585 0.44918224 0.54603505 0.6038339
000010 dc 7d cb bc 5a b3 8f 3e 32 68 01 3d 51 b8 1a 3e
       -0.024840288 0.28066522 0.03159351 0.15109374
000020 03 89 23 3f
       0.6388094

transformer.layers.0.1.static_alpha f4 [4, 5]
000000 c3 13 4a 3f 00 00 80 3f 00 00 00 00 00 00 00 00
       0.78936404 1.0 0.0 0.0
000010 00 00 00 00 f7 63 b5 bc 00 00 00 00 00 00 80 3f
       0.0 -0.022142394 0.0 1.0
000020 00 00 00 00 00 00 00 00 02 d8 2a bc 00 00 00 00
       0.0 0.0 -0.010427477 0.0
000030 00 00 00 00 00 00 80 3f 00 00 00 00 98 10 0d be
       0.0 1.0 0.0 -0.13775861
000040 00 00 00 00 00 00 00 00 00 00 00 00 00 00 80 3f
       0.0 0.0 0.0 1.0

transformer.layers.0.1.dynamic_alpha_fn f4 [9, 5]
000000 85 d4 07 bd 00 00 00 00 00 00 00 00 00 00 00 00
       -0.03316166 0.0 0.0 0.0
000010 00 00 00 00 7a 20 13 bc 00 00 00 00 00 00 00 00
       0.0 -0.008979911 0.0 0.0
000020 00 00 00 00 00 00 00 00 bd aa 8f be 00 00 00 00
       0.0 0.0 -0.2805995 0.0
000030 00 00 00 00 00 00 00 00 00 00 00 00 c6 29 ad be
       0.0 0.0 0.0 -0.33820933
000040 00 00 00 00 00 00 00 00 00 00 00 00 00 00 00 00
       0.0 0.0 0.0 0.0
000050 9e 44 40 3e 00 00 00 00 00 00 00 00 00 00 00 00
       0.18776175 0.0 0.0 0.0
000060 00 00 00 00 67 12 cf bc 00 00 00 00 00 00 00 00
       0.0 -0.02527733 0.0 0.0
000070 00 00 00 00 00 00 00 00 60 79 ad be 00 00 00 00
       0.0 0.0 -0.33881664 0.0
000080 00 00 00 00 00 00 00 00 00 00 00 00 63 31 24 3c
       0.0 0.0 0.0 0.01002154
000090 00 00 00 00 00 00 00 00 00 00 00 00 00 00 00 00
       0.0 0.0 0.0 0.0
0000a0 d8 fb 71 3d 00 00 00 00 00 00 00 00 00 00 00 00
       0.059078068 0.0 0.0 0.0
0000b0 00 00 00 00
       0.0

transformer.layers.0.1.static_beta f4 [4]
000000 de fa 8c 3f d6 25 70 3f 12 9b 7a 3f 1a 6b 7c 3f
       1.1014059 0.93807733 0.9789287 0.98600924

transformer.layers.0.1.dynamic_beta_fn f4 [9]
000000 7f fc 0a be c8 ff a2 3e ba 72 6b 3e 7b 8f 2f bd
       -0.13572882 0.3183577 0.22992983 -0.042861443
000010 9d c1 a7 be 5d ac a4 3e d9 f6 d6 3e c1 27 89 be
       -0.32764903 0.32162753 0.41985205 -0.26788142
000020 97 eb 94 3d
       0.07271498

transformer.layers.0.1.branch.0.weight f4 [9]
000000 e1 31 84 3f 73 7e 85 3f 8c a5 8e 3f 63 48 83 3f
       1.0327722 1.0429214 1.1144271 1.0256466
000010 0e 18 8d 3f 09 34 90 3f 4a 0d 9b 3f 10 62 8e 3f
       1.1022966 1.126588 1.211343 1.1123676
000020 4c 1a 93 3f
       1.14924

transformer.layers.0.1.branch.0.bias f4 [9]
000000 a3 83 54 bd 61 92 d4 3c c5 96 5a bd a1 ec dd 3d
       -0.05188335 0.025948705 -0.05336644 0.10836149
000010 4c 3d 55 bd e5 64 05 bd 0f da d7 3c d0 b8 dd bc
       -0.05206041 -0.032566924 0.026349096 -0.027065665
000020 6c 84 3f bd
       -0.046757147

transformer.layers.0.1.branch.1.weight f4 [72, 9]
000000 f2 03 c3 3a 6b 63 81 be 08 b2 e8 bc 3e 03 50 3e
       0.0014878495 -0.25271162 -0.028405204 0.20313737
000010 8e b3 3e 3e 50 da 05 3e 66 3c 58 be 14 27 03 be
       0.18623182 0.13071561 -0.2111679 -0.12807876
000020 b9 ff cf 3d ce 29 43 be f1 0f 5f 3c 79 ea 25 be
       0.10156197 -0.19058916 0.013614641 -0.16202725
000030 55 1d 84 be 6d 15 de 3d bd d0 c4 3a da 03 0f bf
       -0.2580363 0.108439304 0.0015015822 -0.5586525
000040 50 e0 e3 bd a3 f0 b5 be d1 60 7f be ea c8 6a be
       -0.111267686 -0.35535154 -0.24939276 -0.22928205
000050 59 e9 a4 bd 95 7d fb 3d 15 66 9c bd 3c f5 08 3f
       -0.0805232 0.12279812 -0.07636658 0.534992
000060 79 df 82 3e 32 40 f6 3d af a0 88 3e f5 03 7e 3e
       0.2556112 0.12023963 0.26685092 0.24806197
000070 32 be 1d be 7a 32 00 3e 28 4d fc bb 13 77 7f be
       -0.15404585 0.12519255 -0.0076996274 -0.24947767
000080 85 df 72 3e d2 0c 40 3e a1 fb a5 bd ac 1c ef 3c
       0.23718078 0.1875489 -0.08104635 0.029188477
000090 1c e6 c8 bd 2a 8a 80 3e 07 fa a0 3e 08 45 f0 3d
       -0.09809515 0.2510541 0.31440756 0.11731917
0000a0 6d 04 0f 3e 6a b2 a4 3e d4 d7 9b 3e 0a cd 80 3d
       0.13966532 0.3216737 0.304381 0.06289108
0000b0 be 7b e5 bc 65 08 9c bd 36 6c 77 be 5d 22 d5 bd
       -0.028013106 -0.07618789 -0.24162373 -0.10406945
0000c0 dc c6 21 be 90 12 d3 3c 5d 94 a5 3d 91 fa 08 3e
       -0.15798515 0.025765687 0.08084939 0.13376833
0000d0 1c 9b 58 3d fa d7 9a 3d 58 22 b9 3e 30 95 2a be
       0.0528823 0.075607255 0.36159015 -0.16658473
0000e0 8c f3 42 3e 82 1d 83 3e 56 11 fa be ea 85 b1 bc
       0.19038218 0.2560845 -0.4884135 -0.0216703
0000f0 69 91 9e 3e d9 be 95 3d 88 a2 85 3c 71 d7 51 be
       0.30970314 0.07311792 0.016312853 -0.2049234
000100 22 b0 61 3b d4 e3 a5 3e 6a 3c 46 be e3 af 71 3e
       0.0034437259 0.32400382 -0.19358984 0.23602252
000110 a6 29 c6 3e 4d 33 14 3e 92 97 88 be ff 69 e0 3c
       0.3870365 0.14472695 -0.2667814 0.027394293
000120 7c 22 7e be 75 d9 ba be 52 72 d1 3e 7f 1f 09 3e
       -0.24817842 -0.36494032 0.40907532 0.13390921
000130 ce 08 a3 be fc 0a 7c 3e 6f 14 d4 bc 98 f0 b0 bd
       -0.31842655 0.24613565 -0.02588865 -0.086396396
000140 55 8c 91 3e 3e 9e f0 3d e9 14 2e 3e aa 5d fd 3e
       0.28427377 0.11748932 0.17000164 0.49485523
000150 56 fb 78 3d 32 6a 1b 3e 22 8b 86 3e 4b 4f b3 3e
       0.060786568 0.15177229 0.26278025 0.35021433
000160 3b bc 91 be 99 ad 9c be bf 3e c2 3c 04 a8 98 be
       -0.2846392 -0.30601195 0.02371156 -0.29815686
000170 5c a7 88 bc 70 56 5f bc 0c d1 88 3e 3e 56 d7 be
       -0.016681366 -0.013631448 0.2672199 -0.42057985
000180 ff d1 db be ef ce 19 3e 99 15 4e 3e 53 d0 ce be
       -0.42933652 0.15020345 0.20125426 -0.40393314
000190 1e 32 99 3e d0 b3 1c be 48 6f 1f be 3d eb 13 3e
       0.2992105 -0.15302968 -0.15569794 0.14445205
0001a0 27 b9 2b be 0d 67 de be 57 5a 6b 3e 2d a3 d7 3d
       -0.16769849 -0.43437997 0.2298368 0.1052917
0001b0 f5 e8 36 3e b0 35 7f bd cb af 74 3e 1b 4d 4f be
       0.17862304 -0.06230706 0.23895185 -0.20244257
0001c0 f2 a4 ac 3d 5c b1 9f 3c b1 0f b0 3e 53 5a 7b bd
       0.08429898 0.019493751 0.34386972 -0.061365437
0001d0 99 de 92 be a0 ab 5c 3e e1 e2 c7 3e ea 62 25 be
       -0.28685454 0.21549845 0.39040282 -0.16151014
0001e0 93 a7 51 3e e1 62 0a 3e cf b6 52 be 97 e5 c2 bd
       0.2047408 0.13514282 -0.20577548 -0.09516447
0001f0 ec d9 13 3e 06 8f 41 be a2 3c 77 3e b0 a9 af 3d
       0.144386 -0.18902215 0.24144223 0.08577287
000200 14 b3 ac bd e4 9c 85 3e 1d 6d 87 be c5 05 31 bd
       -0.08432594 0.2609626 -0.26450434 -0.043218393
000210 55 ac fe 3e 96 57 95 be a0 d0 18 3e 43 10 23 be
       0.49740854 -0.29168385 0.14923334 -0.15924172
000220 28 88 66 bc e1 cb bc 3e 16 2d e7 3d fb 8a 86 be
       -0.014070548 0.36874297 0.11287896 -0.2627791
000230 d5 40 33 3e 8c 60 34 3d 7b 8f b7 bd 4e d0 0f be
       0.175052 0.044037387 -0.089629136 -0.14044306
000240 e8 96 93 bd fa 37 4d be 38 ef a2 3d a9 36 53 3e
       -0.072065175 -0.20040885 0.079557836 0.2062632
000250 45 90 b0 3e 2c c5 a5 be e4 d4 bb be 37 0d 1d 3d
       0.3448507 -0.32376993 -0.3668586 0.03834268
000260 f7 4f 13 3e 86 84 87 be 22 23 14 be aa 72 1b 3e
       0.14385973 -0.26468295 -0.14466527 0.1518046
000270 4a 98 24 be e6 04 ad 3e ed 6f a3 3e de 60 c5 be
       -0.16073719 0.337928 0.3192133 -0.38550466
000280 75 02 50 3d 2a a6 ab 3d fb 9f 54 3e 01 8e 71 be
       0.050783593 0.08381303 0.20764153 -0.23589326
000290 c4 a5 51 3e d9 f4 1c 3e 1a f7 a2 be 94 5b 32 be
       0.20473391 0.15327777 -0.3182915 -0.17417747
0002a0 57 ba 29 3e 95 5c 0a be 1e 6b 3e be ad c0 0d bd
       0.1657499 -0.1351188 -0.1859555 -0.034607578
0002b0 1d 4b 5a 3e 8c b9 44 3e f4 81 9b be 17 38 44 be
       0.21317716 0.19211406 -0.30372584 -0.19162022
0002c0 a0 d6 41 3e d7 7b 38 3d 5b 52 c2 be c2 dc 18 3e
       0.18929529 0.045039978 -0.37953457 0.14927962
0002d0 d1 2c c2 3e 0d 05 31 be a5 7d 2d be c5 2a da bd
       0.37924817 -0.17287083 -0.16942461 -0.10652689
0002e0 2e ca b4 be 8f a8 9f bd 2f 12 d8 bd 35 4e 00 be
       -0.353105 -0.07795822 -0.10550343 -0.12529834
0002f0 25 49 64 3e 33 a2 25 3e 8e e3 30 3e 16 23 8c 3e
       0.22293527 0.16175155 0.17274305 0.27370518
000300 ab 29 0e bd 44 0f 6b be c3 09 be bd 7c 85 94 3e
       -0.034707706 -0.22955042 -0.09279206 0.2900809
000310 82 02 ad 3e 69 8d de 3d ff d7 f7 3d 91 d0 3e be
       0.33790976 0.108668156 0.12101745 -0.1863425
000320 db e0 46 3d 06 59 6e 3e c2 fb b0 be 88 b1 97 3e
       0.048554283 0.23276147 -0.34567076 0.29627633
000330 75 de a5 be 19 33 96 3d 0e 4a f8 3c ca f7 95 be
       -0.32396284 0.07333965 0.03030875 -0.2929061
000340 f0 bd 91 be de 87 c2 3e 46 23 14 be da 6f 27 be
       -0.28465223 0.37994283 -0.14466581 -0.16351262
000350 ab 8c 89 be d9 3d 2a 3e d6 e3 8e 3e 6d 9e 98 be
       -0.26865134 0.16625156 0.279082 -0.2980837
000360 1e 85 32 be 23 04 d3 3d 43 95 c2 be 62 07 a0 bd
       -0.17433593 0.103035234 -0.38004503 -0.07813908
000370 dc 7e e7 3e 28 38 98 be 0a 0b 03 bf df 9b 97 bd
       0.45213974 -0.29730344 -0.5118872 -0.07402777
000380 89 fe bc 3e 5f 8b 2c bd 0f c2 79 3e 7c b3 92 bd
       0.36912945 -0.042125102 0.24390434 -0.0716314
000390 20 37 a4 3e b6 f7 2e be 24 20 90 3e e7 64 71 3e
       0.32073307 -0.17086682 0.2814952 0.23573647
0003a0 63 98 eb bd 53 6f b5 be 32 80 42 be 22 01 72 bc
       -0.11503675 -0.35436496 -0.18994215 -0.014770778
0003b0 56 dc 83 3e 1e 0c b4 3d 35 86 b7 3c 26 6d a3 be
       0.2575404 0.08791374 0.022402862 -0.3191921
0003c0 2c 5c 1e bb 65 b7 28 be 51 80 75 3e d4 b9 30 3e
       -0.0024163825 -0.1647621 0.2397473 0.17258388
0003d0 20 3b 8c be ef 86 2a 3e 5f a2 b2 3e d0 f3 be 3e
       -0.2738886 0.16653036 0.34889504 0.3729539
0003e0 f7 bf d8 bd b7 31 78 be 03 40 45 3e ce f1 35 3e
       -0.105834894 -0.24237715 0.192627 0.17768022
0003f0 48 b7 b9 be 43 79 24 3e aa e3 b8 3c 1c 30 3a 3e
       -0.36272645 0.16061883 0.022569496 0.18182415

transformer.layers.0.1.branch.1.bias f4 [72]
000000 81 a5 b6 3e ef 0c 00 be 10 bc 65 be 1b 45 04 3d
       0.35673144 -0.12504934 -0.22435021 0.032292467
000010 0e 9c c2 be 8e 58 5d 3e 95 27 aa be 7e de d6 3d
       -0.38009685 0.21615812 -0.33233324 0.10491656
000020 61 db 97 3d 4b ed 9f bd b5 fc 27 be f1 40 65 3e
       0.0741489 -0.07808932 -0.16404994 0.22388054
000030 d5 0f fe 3c e9 11 9b be 7b 90 98 bd 79 2e 60 3e
       0.031013409 -0.30287102 -0.074494325 0.21892728
000040 14 ba 05 bd ea 04 b8 bd 9b cd 05 3e 02 13 fd bd
       -0.03264816 -0.08985312 0.13066714 -0.12357141
000050 f1 a1 a9 be 93 1b 7f be 7c 18 d0 be 29 7d 00 bd
       -0.33131364 -0.24912862 -0.4064368 -0.031369362
000060 97 49 b1 3d df 9d 55 be c1 9f ae 3d 19 ad 0f 3e
       0.08656614 -0.20861004 0.085265644 0.14030875
000070 37 92 97 bd 69 61 99 be 24 67 d6 be 23 86 b3 3e
       -0.07400935 -0.2995713 -0.41875565 0.35063276
000080 66 da 4a be 81 89 85 bc a4 35 26 3d 70 b0 0b be
       -0.19809875 -0.016300919 0.0405785 -0.13641524
000090 09 db 84 be 3e 27 11 3c b0 37 a2 3e 37 a5 b4 bd
       -0.2594836 0.008859454 0.3168311 -0.08820575
0000a0 f2 93 95 3e db a6 c4 bc cc c2 a8 3d 85 42 80 3e
       0.29214436 -0.024005344 0.082402796 0.2505075
0000b0 bc f1 32 bd d6 3d 75 3d 64 d2 bf 3d b0 ba a1 be
       -0.043687567 0.059873424 0.09366301 -0.31587744
0000c0 30 a5 a6 3c e2 c9 62 be 5d 1c b7 3e 5b f4 e0 3d
       0.02034244 -0.22147325 0.35763827 0.10984107
0000d0 25 24 67 be c9 83 8f be 8d 57 b6 3c 39 c0 7b 3e
       -0.22572382 -0.28030232 0.022258544 0.24585046
0000e0 0a 31 88 3c c0 55 21 3e d1 c5 00 3e a5 3a 4f bd
       0.016624946 0.15755367 0.12575461 -0.050593037
0000f0 17 33 72 3e 29 58 7b be f6 62 f9 bd ff 2d b9 3e
       0.23652302 -0.24545349 -0.121770784 0.36167905
000100 e2 b1 d4 3e 94 dd 65 3e 16 d3 d3 bc a0 bc 82 3e
       0.41541964 0.22447807 -0.02585749 0.25534534
000110 ed 53 bf bd 2e 5f 16 be d9 7f c7 3d 41 26 e2 bd
       -0.093421794 -0.14684746 0.09741182 -0.110424526

transformer.layers.0.1.branch.4.weight f4 [9, 36]
000000 7b 44 6f bd 65 d1 8c 3c 3e 3f a8 3c e9 a0 d1 3d
       -0.058414917 0.01718969 0.020537969 0.10235769
000010 04 5b d9 bd 11 4c 0b bb b9 3d 3e 3d 2a 12 8a 3e
       -0.10613063 -0.0021255056 0.046445582 0.26966983
000020 28 81 32 bd 4e 44 95 3c 19 eb 37 3d 66 5b 16 3d
       -0.043580204 0.018221047 0.04490194 0.036708258
000030 31 53 1d be 67 ac 28 3e 42 3f a9 bd e6 22 51 3c
       -0.15363766 0.16472016 -0.082640186 0.012764668
000040 d3 32 a2 bd 87 f9 be 3d 61 76 cd bb a9 02 cc 3b
       -0.0791985 0.09324937 -0.0062702154 0.006225903
000050 40 4e 8a bd 32 fe ac 3d 12 2b 78 3d d9 fb 93 bc
       -0.06753206 0.084469214 0.06058795 -0.018064426
000060 e3 57 d3 3d 9d 7a 1d be 3a 65 18 3e 6a cf c5 3d
       0.103194974 -0.15378805 0.14882365 0.09658702
000070 b7 96 46 3e de c5 6a 3b 35 40 dd 3d 36 9f 54 3d
       0.1939343 0.0035823504 0.10803262 0.051909648
000080 9f 68 b4 3d ce 8d a6 bd 51 49 b7 bc cb 60 c0 bd
       0.088090174 -0.08132516 -0.022373827 -0.09393462
000090 b8 53 5a 3e 9f 06 d6 3d 99 45 9e 3b 92 97 46 3d
       0.21320999 0.104504816 0.004830074 0.048484392
0000a0 ed 94 45 be af 5b eb 3b 57 36 74 3e e0 87 e2 bc
       -0.19295092 0.0071825604 0.23848854 -0.02765268
0000b0 cb 6a bd 3e c7 71 6a be 7c 66 12 be 41 ad 48 be
       0.3699554 -0.22894965 -0.14296907 -0.19597341
0000c0 e2 3d b3 3d 3a 77 a9 3c fa eb ab 3e 39 f9 37 be
       0.087520376 0.020686734 0.33578473 -0.17966165
0000d0 d1 35 20 3d 52 be 82 3d a3 e6 1e 3b 53 47 26 be
       0.039113823 0.06383957 0.0024246357 -0.16238146
0000e0 76 7d ff 3d 8d 8a 90 3e a7 08 3f 3d 08 b4 98 3c
       0.12475102 0.28230706 0.04663911 0.018640533
0000f0 b2 00 e2 bd 47 b7 43 3e b3 c4 5d bc fd c6 fe 3d
       -0.11035289 0.19112884 -0.013535666 0.12440298
000100 3e e8 9f bd 8e 8b a8 be 88 56 ca 3d ea 93 03 be
       -0.078079686 -0.32918972 0.09879786 -0.12849393
000110 60 99 21 bd 29 6f 49 be 94 7b 3d be f4 73 61 3e
       -0.03945291 -0.1967131 -0.18504173 0.22016889
000120 35 06 b5 3d b0 f3 c5 3d b9 24 73 3e 4a b4 36 bd
       0.088390745 0.0966562 0.23744477 -0.04460553
000130 15 95 f1 bd 68 a1 ae 3b f3 63 be 3d f1 73 84 3d
       -0.11796013 0.0053292997 0.092964076 0.064674266
000140 a5 7c 2e 3e 21 52 00 3e 32 f2 62 be 8d 2f 14 be
       0.17039736 0.1253133 -0.22162703 -0.14471264
000150 1d ac 37 3c a9 2a 2f be 7e 33 ab 3e 77 0a 29 bd
       0.011210469 -0.17106117 0.33437723 -0.041269746
000160 2f a2 ac 3d 4a 79 f7 3b 06 7e ee 3d e7 2c 8b 3d
       0.084293716 0.0075523006 0.11645131 0.06795674
000170 3f da 11 be 60 c1 29 3d 26 df 9a 3b c8 08 2d 3e
       -0.1424341 0.041444182 0.0047263084 0.16897881
000180 8d 54 78 be 79 e9 8f 3d 89 11 2a be b2 17 35 3d
       -0.24251004 0.07026953 -0.16608252 0.04421205
000190 d9 ee 82 bd 8a 2f 07 be e3 71 00 3e d4 f7 c9 bd
       -0.06393213 -0.13201728 0.12543444 -0.098617226
0001a0 8e 88 26 be 19 bd 50 bd 9f c6 ac bd c8 e8 be 3e
       -0.16263029 -0.050961588 -0.084363215 0.37286973
0001b0 bb f6 30 be 4f 80 60 be 81 16 f1 3d 3e 12 01 be
       -0.1728162 -0.21923946 0.117718704 -0.12604615
0001c0 08 0f db 3d 88 cd 8a bb f4 de bf be 0d d0 9c 3b
       0.10696226 -0.004235927 -0.37474787 0.004785544
0001d0 08 ff f2 bd 22 72 9e 3e 82 6e 0c 3e c4 01 84 3e
       -0.118650496 0.3094645 0.1371403 0.25782597
0001e0 31 dc 71 be 07 58 75 3d 20 ec 8f be 5f 5e b9 3d
       -0.23619153 0.059898403 -0.28109837 0.09051203
0001f0 95 8c b8 bd bc 40 1c be ec 96 7a 3d be 26 bc 3d
       -0.09011189 -0.15259069 0.061179087 0.09187077
000200 60 2e 17 3e b6 f4 f9 bd 94 3a 96 be 7d 21 d3 3c
       0.14763784 -0.12204878 -0.29341567 0.025772804
000210 66 7a 6a 3e cb fd 3d be e6 2c 1c 3e 79 5d 74 be
       0.22898254 -0.18553846 0.15251502 -0.23863782
000220 af e4 54 3e 23 d9 4d 3e 28 f0 71 3d 3a 82 4e be
       0.20790361 0.20102362 0.05906692 -0.20166865
000230 96 e6 3e 3e 20 28 9f 3d 5b 03 95 3e 38 89 0f be
       0.18642649 0.07771325 0.29104123 -0.14017189
000240 fa 07 c2 bd 00 c4 d7 bd 7e 86 7a bd d3 c3 d8 3d
       -0.09474178 -0.10535431 -0.061163418 0.105842255
000250 9a 9b 75 be 8f a0 06 3e 0c f8 05 bd 5b 21 97 3d
       -0.23985139 0.13147186 -0.03270726 0.07379409
000260 1b a7 5b be c2 58 34 be 19 b9 d1 bd 76 ed 6b bb
       -0.21450464 -0.17611983 -0.10240383 -0.0035999692
000270 72 c3 c0 bc ff bf a8 bd 11 b8 cf 3d 29 49 8d bd
       -0.023530696 -0.08239745 0.1014253 -0.0689872
000280 eb eb 93 3e c5 d1 aa 3d 64 85 86 bd 9b 8c 8a bd
       0.2889093 0.083407916 -0.06568411 -0.067650996
000290 be 01 8b 3d 33 5f 0e be 7c 43 dd bd 66 f5 e9 bd
       0.06787442 -0.13903503 -0.10803887 -0.11423759
0002a0 8b 93 c0 bd 98 17 5b 3c 51 36 33 3e ec 58 4d 3e
       -0.094031416 0.013372324 0.17501189 0.20053452
0002b0 03 70 d3 be e0 4c 16 be b3 1a bf bd 74 e1 8a 3e
       -0.41296396 -0.14677763 -0.09331264 0.27125132
0002c0 23 1c 97 be ff b8 3a be 79 8e af bd 6d 98 e0 bd
       -0.29513654 -0.18234633 -0.085720964 -0.10966573
0002d0 42 3e 7f bc 58 05 9d 3e 5f 5e 9c 3d 8d 35 35 3d
       -0.015578808 0.3066814 0.07635187 0.044240523
0002e0 ae 64 ca bd 44 69 ea 3b c9 cf 16 3e 22 fe 86 3e
       -0.098824844 0.007153662 0.14727701 0.26365763
0002f0 6f 42 72 3d 5a 7b c5 3b eb b6 4f 3e 06 57 49 3e
       0.059145387 0.0060266675 0.20284621 0.19662103
000300 36 c0 80 3d 8e 25 21 3e c6 95 5d bd 19 1c 53 3d
       0.06286661 0.15736982 -0.054097913 0.051540468
000310 98 4a 2a bb b9 62 57 3e b0 75 e0 3d 1a 66 6c be
       -0.0025984403 0.21033753 0.10959947 -0.23085824
000320 35 6e 99 be da b4 93 bc 8b dc 48 3e c7 f0 23 3b
       -0.29966894 -0.018030573 0.1961538 0.002501534
000330 46 b4 7e 3e ac 80 11 bd ba fe 2d be 69 1c c4 bd
       0.24873456 -0.0355231 -0.16991702 -0.09575731
000340 a9 8b 21 3e 60 0d 22 3e cc de 4a 3e 98 28 b2 3c
       0.15775932 0.15825415 0.19811553 0.021747872
000350 79 2f 16 3d 14 37 82 3d 5e fb fa bd ad bc f3 3c
       0.036666367 0.063581616 -0.12254976 0.029753054
000360 03 a1 e0 bd 34 f0 47 be d5 5d eb 3c cf 3c c3 be
       -0.109682105 -0.19525224 0.028731266 -0.3813233
000370 7d f2 5d 3d 92 c4 00 3e 86 f8 84 be 74 32 9f bc
       0.054186333 0.12574986 -0.25970858 -0.019433238
000380 78 9b c7 bd ab ca 32 3e 87 df aa 3e 2d be b7 3d
       -0.0974645 0.17460124 0.33373663 0.0897182
000390 e1 c6 7d bd 0c 04 20 be 4a d1 57 be ce 61 96 3e
       -0.061957244 -0.15626544 -0.21075931 0.29371494
0003a0 2a 55 3d be a0 63 7d be 6b 66 95 be ac 5a 87 3e
       -0.18489519 -0.24745035 -0.291797 0.26436365
0003b0 a4 28 4a 3e 10 2e 7a 3c 24 7e 6e be c7 8a 35 3c
       0.19742066 0.015269771 -0.23290306 0.01108045
0003c0 46 7a eb 3e 6a 71 81 be 96 c8 23 be d7 79 55 be
       0.45991725 -0.2528184 -0.15994486 -0.2084726
0003d0 0d 96 bb 3e 29 6c f0 3e 31 5d b8 be f3 d9 e8 3d
       0.36637917 0.4695752 -0.360086 0.113696955
0003e0 62 6d 26 3e e9 ba 20 3e 8c 19 41 3e df 13 e6 bd
       0.16252664 0.156963 0.18857402 -0.11234259
0003f0 b6 0c 9e bd 0e 11 89 bd 1a 59 8f 3d f4 5f 15 3d
       -0.07717268 -0.06692706 0.06999417 0.03646846

transformer.layers.0.1.branch.4.bias f4 [9]
000000 d0 51 43 be 59 b7 d1 3d b5 9a 44 3e cb 88 ae bd
       -0.19074178 0.10240049 0.19199641 -0.08522185
000010 b1 bd 3e 3d 3c ab 02 3e 0f 43 b7 be 76 06 fc 3c
       0.046567623 0.12760633 -0.3579335 0.0307648
000020 db 0f 43 3e
       0.19049017

transformer.layers.0.1.norm.gamma f4 [9]
000000 8b 6d 81 3e 92 6d e7 3e 32 5f 8d 3e c9 d9 4b 3e
       0.25278887 0.45200783 0.2761169 0.19907297
000010 b6 18 00 3f ac f7 f4 3e 4d 34 22 3f 2d 8c 90 3e
       0.50037706 0.4784521 0.63361055 0.28231946
000020 f2 8e 7e 3e
       0.24859217

transformer.layers.1.0.static_alpha f4 [4, 5]
000000 c8 e5 0f be 00 00 80 3f 00 00 00 00 00 00 00 00
       -0.14052498 1.0 0.0 0.0
000010 00 00 00 00 bf 3f fe bd 00 00 00 00 00 00 80 3f
       0.0 -0.12414502 0.0 1.0
000020 00 00 00 00 00 00 00 00 54 4b 2c 3f 00 00 00 00
       0.0 0.0 0.6730244 0.0
000030 00 00 00 00 00 00 80 3f 00 00 00 00 0c 9b 67 3b
       0.0 1.0 0.0 0.0035340218
000040 00 00 00 00 00 00 00 00 00 00 00 00 00 00 80 3f
       0.0 0.0 0.0 1.0

transformer.layers.1.0.dynamic_alpha_fn f4 [9, 5]
000000 02 c6 33 3e 00 00 00 00 00 00 00 00 00 00 00 00
       0.17556003 0.0 0.0 0.0
000010 00 00 00 00 ae 43 04 be 00 00 00 00 00 00 00 00
       0.0 -0.12916443 0.0 0.0
000020 00 00 00 00 00 00 00 00 2e 5e ab 3d 00 00 00 00
       0.0 0.0 0.08367573 0.0
000030 00 00 00 00 00 00 00 00 00 00 00 00 94 d8 41 3e
       0.0 0.0 0.0 0.18930274
000040 00 00 00 00 00 00 00 00 00 00 00 00 00 00 00 00
       0.0 0.0 0.0 0.0
000050 2c c2 81 bd 00 00 00 00 00 00 00 00 00 00 00 00
       -0.063358635 0.0 0.0 0.0
000060 00 00 00 00 e1 30 f6 bc 00 00 00 00 00 00 00 00
       0.0 -0.030052604 0.0 0.0
000070 00 00 00 00 00 00 00 00 5b 6c d4 bd 00 00 00 00
       0.0 0.0 -0.1037223 0.0
000080 00 00 00 00 00 00 00 00 00 00 00 00 6d d1 4d 3e
       0.0 0.0 0.0 0.20099421
000090 00 00 00 00 00 00 00 00 00 00 00 00 00 00 00 00
       0.0 0.0 0.0 0.0
0000a0 8d 0e 76 3e 00 00 00 00 00 00 00 00 00 00 00 00
       0.24028988 0.0 0.0 0.0
0000b0 00 00 00 00
       0.0

transformer.layers.1.0.static_beta f4 [4]
000000 1b 36 86 3f ad 00 7a 3f d1 8e 7f 3f 69 95 72 3f
       1.0485262 0.9765728 0.99827296 0.9475923

transformer.layers.1.0.dynamic_beta_fn f4 [9]
000000 6e 71 a8 bd c5 9c 00 3e 90 b2 fc 3e 73 de 5c 3e
       -0.0822476 0.12559803 0.49354982 0.21569233
000010 03 38 31 be e6 9f 07 3e ca d8 ce 3d 52 59 21 3e
       -0.17306523 0.1324459 0.10099943 0.15756729
000020 0c 0e 80 bd
       -0.06252679

transformer.layers.1.0.branch.norm.weight f4 [9]
000000 81 a9 8f 3f 9c b9 88 3f 49 26 8a 3f a3 41 8b 3f
       1.1223603 1.0681643 1.0792934 1.0879406
000010 e2 90 80 3f 18 fe 81 3f 82 cf 85 3f 1c 0c 90 3f
       1.0044215 1.0155668 1.0453951 1.1253695
000020 95 64 7f 3f
       0.9976285

transformer.layers.1.0.branch.norm.bias f4 [9]
000000 83 eb 77 bb c7 cb 20 3d b2 3b e5 bb 3d 97 ab bd
       -0.0037829585 0.039256837 -0.0069956416 -0.08378456
000010 ba 16 41 3e 60 3e 11 3d 8c cc 7b bc 06 71 f2 3c
       0.18856326 0.035459876 -0.015368592 0.02959491
000020 c3 c5 ee 3d
       0.11658814

transformer.layers.1.0.branch.to_qkv.weight f4 [192, 9]
000000 9b 9c e8 3c c3 e1 0b bd ec 34 16 3e 6c d8 61 be
       0.028394988 -0.03415085 0.14668626 -0.22055215
000010 e5 e8 9a 3e 8d 94 23 b9 3f ed b0 3d e9 2c fb 3d
       0.3025581 -0.00015600231 0.08639001 0.12264425
000020 9e 7b aa 3e a2 35 ce 3e bf 4c 4c be 54 56 f4 bd
       0.33297437 0.40275294 -0.19951151 -0.11930528
000030 fc ef 8f be b9 bf c7 3d de 54 1f 3d 1a d5 c4 3d
       -0.2811278 0.09753365 0.038899295 0.096109584
000040 39 ca d5 bc 42 4f 04 3d 88 40 84 39 a0 48 8c be
       -0.026097404 0.03230215 0.00025225081 -0.27399158
000050 9c 5e 8e be 0a ac ae bd 4a 80 32 3e 98 ed 7d bd
       -0.27806556 -0.085289076 0.17431751 -0.061994165
000060 7f 23 58 be 8a 89 3e 3e b5 41 8c bd d5 74 77 be
       -0.2110729 0.18607154 -0.0684847 -0.24165662
000070 57 85 91 be d4 fe 9a bd f3 6a f5 be b6 e9 54 be
       -0.28422043 -0.07568136 -0.47933158 -0.20792279
000080 19 f4 51 be 8d a1 a2 be 6f 3d 2a 3d 0d 1f 18 be
       -0.20503272 -0.31763878 0.041562494 -0.14855595
000090 f4 55 89 3d b2 79 fc bd 7b 0e 93 be d1 64 90 bd
       0.067058474 -0.12327899 -0.28721985 -0.07050479
0000a0 ee 18 6a be 2b 7e b4 be e0 b1 a1 be e9 9c 4d be
       -0.22861072 -0.3525251 -0.3158102 -0.20079388
0000b0 6a 22 a4 be 04 60 0e 3e 2d 88 ee 3c b1 a9 be bd
       -0.32057506 0.13903815 0.029117668 -0.0930971
0000c0 f6 7c 1d be 62 48 27 be a4 08 3a bd 61 37 aa 3d
       -0.153797 -0.16336206 -0.045418397 0.08311344
0000d0 d9 78 37 bd ed d1 3f 3e b6 98 28 3d 20 71 93 3e
       -0.044792984 0.18732424 0.04116126 0.28797245
0000e0 29 b9 70 be e6 ec 84 3d db 92 b5 3e 34 af c7 be
       -0.23508133 0.06490497 0.35463604 -0.39000857
0000f0 d9 92 a7 bd 91 ab 81 3e 5d 0d a1 3e af 95 25 3e
       -0.08182306 0.25326207 0.31455508 0.16170381
000100 95 03 dc 3d 2b 16 93 be c6 8f 89 3e 63 2d bd bd
       0.10742871 -0.2872785 0.26867503 -0.092371725
000110 8b 88 4d be a5 b2 d7 3e e0 cd bb be 20 5c 5b be
       -0.20071618 0.42128482 -0.36680508 -0.21421862
000120 00 11 80 bc 8b 35 92 bd 7b bd 44 bd ee 7f 2e 3d
       -0.015633106 -0.07139119 -0.048032265 0.042602472
000130 0c 98 99 3d 52 da 9d 3e 9c 89 ec 3c 67 23 dd bd
       0.07499704 0.30830628 0.028874211 -0.10797768
000140 1a ad af 3e 27 cf 2c bc 36 db 0e 3e c7 90 4e 3b
       0.34311754 -0.010547436 0.1395081 0.00315194
000150 4e 37 44 be e2 47 c9 3e 9f 15 64 be 5f 2f 96 be
       -0.19161722 0.39312655 -0.22273873 -0.29333016
000160 1d 58 89 3e 19 aa 17 3e ba 0d 82 3c 74 d1 e2 3d
       0.26825038 0.14810981 0.015875686 0.11075106
000170 97 11 14 be cd e1 e4 3d e0 e1 83 be 67 8d a4 be
       -0.14459835 0.111758806 -0.25758266 -0.3213913
000180 79 48 cf 3d b4 0a a4 3e bb a9 7a be 76 84 06 be
       0.10121245 0.32039416 -0.2447881 -0.13136467
000190 60 0a 60 be 20 a2 3c 3e 07 c7 ec 3c 17 a6 44 bd
       -0.21878958 0.18421221 0.028903497 -0.048009958
0001a0 af a0 81 be 42 e0 24 3e ba 9c a3 3e f0 0a 0d 3e
       -0.25317904 0.16101173 0.3195551 0.13773704
0001b0 e2 2c 52 be a8 36 fa bc bc 97 21 3e ee 59 35 3e
       -0.20524934 -0.03054364 0.15780538 0.17710087
0001c0 b8 dd 35 3e 9f 21 88 be c0 c4 2e be 53 15 b6 be
       0.1776036 -0.2658815 -0.17067242 -0.35563144
0001d0 3b 69 d0 3e b3 a3 39 bd 01 bd 81 3c 54 1d 75 3e
       0.40705284 -0.04532213 0.015837194 0.23936969
0001e0 63 87 bf 3b ca 6c 6e bc a8 0a 40 3d 61 af 9b be
       0.005844997 -0.0145523045 0.046885163 -0.3040724
0001f0 4d 15 e2 be 40 f6 89 be 02 12 65 be 87 6d 83 be
       -0.44156876 -0.26945686 -0.2237015 -0.256695
000200 22 52 19 3e d1 2d 90 3e 0a a0 28 3e c0 45 7a be
       0.14972737 0.28159955 0.164673 -0.2444067
000210 7b 9e a6 3d 0e 1b c3 3e c2 4f 82 be 5b ba 52 be
       0.081356965 0.3810658 -0.25451475 -0.20578901
000220 df 13 b4 bc a6 ae 80 be e5 77 a3 3e 49 f8 a3 3e
       -0.021982132 -0.25133246 0.3192741 0.32025364
000230 e7 30 f3 bd cc 97 be 3e 60 49 37 be 08 18 5b 3d
       -0.11874562 0.37225187 -0.17899084 0.053489715
000240 36 b7 ff 3d 8c 44 99 be be 05 89 be ed c2 09 3e
       0.124861166 -0.2993511 -0.26762193 0.13453265
000250 cf 99 58 be cb f8 75 bc 99 0b 1e bc 23 5e 83 be
       -0.21152423 -0.01501293 -0.00964632 -0.25657758
000260 f1 ef ba bd 57 2f 61 3e e9 a8 c9 be 07 de 6a be
       -0.091277964 0.21990715 -0.3938668 -0.22936259
000270 70 31 fe 3d 2e 44 da 3d f7 3b 50 bd ad 1d b1 be
       0.12411773 0.106575355 -0.050838437 -0.34592953
000280 5b f7 1a 3e 9f 6c 1a be 4d 83 ff bc 25 d6 95 3e
       0.15133421 -0.15080498 -0.031190539 0.29264942
000290 6a 33 85 be 8f c0 5c 3d b4 3c 7d bd b7 42 97 3e
       -0.26015788 0.053894576 -0.06182547 0.29543087
0002a0 23 d1 aa be 1d 5a 8e 3c f6 1e 75 3e 18 1c 35 3e
       -0.33362684 0.017376954 0.23937592 0.17686498
0002b0 48 1f b8 bb 0e 83 ea 3d 0d e1 2f be ef 9d 6b 3d
       -0.0056189634 0.11450778 -0.17175694 0.057523664
0002c0 27 bc c2 3e 07 5e 15 bd d1 8e e2 3e 05 d0 c7 bb
       0.38034174 -0.036466625 0.44249585 -0.006097796
0002d0 39 38 3c 3e 8d eb 45 be 94 cd 43 be dd af ce be
       0.18380822 -0.19328137 -0.1912139 -0.40368548
0002e0 00 2a df bc d5 2b 25 be 85 61 9f be 3f 4c 80 be
       -0.027241707 -0.16130002 -0.3112909 -0.2505817
0002f0 ba 1b 9a be 19 aa cc bb 60 41 7a 3d ef 26 58 be
       -0.3009928 -0.006245863 0.061097503 -0.21108602
000300 77 37 c6 be 4b 4c 8d 3e 1c 93 b5 3d 04 67 60 3e
       -0.3871419 0.2759727 0.088659495 0.21914297
000310 1c 95 c2 bd 96 5c af be 1d 51 15 be 5d b0 70 be
       -0.095010966 -0.34250325 -0.14581724 -0.23504777
000320 1e f0 41 be 94 5e 82 3e a9 f5 27 be f7 24 b8 bc
       -0.18939254 0.25462782 -0.16402306 -0.022478564
000330 7c e0 b7 be cd 6a cc 3e d8 f3 a1 3d 67 2a 9c be
       -0.35913455 0.39925233 0.07907838 -0.305011
000340 24 f0 7f 3d 19 6e 19 be 55 5f 73 3e 74 d2 9d 3d
       0.062484875 -0.14983405 0.23766835 0.077061564
000350 16 3b 94 be 98 b3 97 bd e4 d9 52 3e fc 42 3d bd
       -0.2895133 -0.07407302 0.20590931 -0.04620646
000360 35 91 93 bd ba f2 61 be f7 79 a1 be c8 c3 79 be
       -0.072054304 -0.22065249 -0.31538364 -0.24391091
000370 2e 78 79 bd c1 37 b3 3d c0 3c 19 be fb 7f 68 be
       -0.060905628 0.087508686 -0.1496458 -0.2270507
000380 8c 26 11 be 25 24 82 3e 6e fe 36 3e 0d 41 51 3e
       -0.1417486 0.254182 0.17870495 0.20434971
000390 99 be 8f 3d af 19 04 be 18 1f a2 3d 3d b2 17 3e
       0.070187755 -0.12900423 0.07916087 0.14814086
0003a0 46 f4 c1 be 7d c4 7f be 41 c4 a2 3d 01 ff 00 3c
       -0.37881678 -0.24977298 0.07947589 0.007873298
0003b0 5a 90 95 be d3 de 77 be 13 ad ec 3c 54 ee 65 bc
       -0.29211694 -0.24206094 0.028891122 -0.014033873
0003c0 d3 18 81 3e 64 3b 5e 3e 56 76 c9 bd 12 96 87 3d
       0.25214252 0.21702343 -0.09837024 0.066204205
0003d0 44 50 a1 3e 7f 53 c1 3d 7e 80 df 3d 1c fa 88 bd
       0.3150655 0.09439754 0.1091318 -0.066883296
0003e0 c4 41 13 3e e1 74 a4 3e 55 4a 9c be be 5e ae bc
       0.14380556 0.32120422 -0.3052546 -0.021285411
0003f0 ce 93 69 be 4d 66 7e bd 2e bc 02 be 68 eb b7 3d
       -0.2281029 -0.06210928 -0.12767097 0.08980447
