Projektarbeit_FTTransformer/trained_models/physical_error_training/model_lr0.00025_8_1_4_4_.1_.1Error_date_20250812_epoch7700.pt (torch, 97162 bytes, 87 tensors)

cls_token f4 [1, 1, 8]
000000 a9 18 55 be fb c3 2d bf c0 53 98 be 5c a4 79 bf
       -0.20810188 -0.6787717 -0.29751396 -0.9751642
000010 dd 51 44 3b 72 ee 8e 3e 4a a8 a0 bf 58 f2 63 bf
       0.002995602 0.27916294 -1.2551358 -0.8904166

categorical_embeds.weight f4 [3, 8]
000000 e0 fc 57 bf ad a3 4e 3e b4 a9 e4 be 72 31 b7 3f
       -0.8437023 0.20179625 -0.44660723 1.4311965
000010 44 2e c2 be 95 c2 f5 be ad e9 e1 3f 79 4e 37 3f
       -0.37925923 -0.48000017 1.7649437 0.71604115
000020 70 81 31 bf 03 e8 10 bf 15 d9 b5 3f ef 12 d0 bf
       -0.6933813 -0.5660402 1.4206873 -1.6255778
000030 64 0d c2 3f 5f a2 b9 bf 72 dc 26 3e 6f 0e f7 3f
       1.5160336 -1.4502677 0.1629503 1.930128
000040 43 f0 c3 be d6 c3 c5 3e 6c f5 84 3e 98 84 cd be
       -0.38269243 0.38625973 0.25968492 -0.40140224
000050 b6 a4 52 bf 2b 46 31 3f c4 32 bf be e2 c9 20 3f
       -0.8228258 0.6924769 -0.3734342 0.6280805

numerical_embedder.weights f4 [8, 8]
000000 f4 00 8a 3f b0 b6 bf bf a7 84 8b bf ab 34 da 3e
       1.0781541 -1.4977627 -1.0899857 0.42618307
000010 98 f1 1e bf a0 81 ef 3e 0a 01 89 3e 08 ce e5 be
       -0.6208739 0.46778584 0.26758605 -0.44883752
000020 f6 48 70 3f e2 2b 6d 3f 5f 79 42 bf 56 05 eb bf
       0.9386133 0.92645085 -0.7596645 -1.8361003
000030 75 6d b2 3f 18 73 39 3f ef b7 e8 be 71 42 13 bf
       1.3939654 0.72441244 -0.4545283 -0.57523257
000040 85 5e 0b c0 47 66 51 3f 8c 01 98 3e 4d 74 b3 bf
       -2.177644 0.8179669 0.2968868 -1.4019867
000050 24 e0 84 bf 1b 51 d4 3f 54 24 90 bf c0 c3 50 3f
       -1.0380902 1.6587251 -1.1261086 0.8154869
000060 df 30 fd 3e 44 18 bf 3d 5b 15 cb be 5f 8e f0 bb
       0.49451348 0.093308 -0.3966473 -0.0073411907
000070 c0 4d 76 bf f8 33 2e 3f a9 b4 a7 3f f4 d4 67 3f
       -0.9621239 0.6804805 1.3102008 0.90559316
000080 56 fc a9 bc 7f f5 70 be 60 18 8a be 37 02 51 3f
       -0.020750206 -0.2353115 -0.26971722 0.81644005
000090 25 6f 12 bf 2b d8 c9 3f c8 f0 be 3e 9a ac 3c 3f
       -0.57200843 1.5769094 0.37293077 0.7370087
0000a0 f5 22 00 bf 02 10 c0 be 3a 06 4e be 64 47 84 bd
       -0.5005334 -0.37512213 -0.20119563 -0.06458929
0000b0 04 98 68 3f 25 95 16 be 43 ea f9 3f 57 37 ef 3e
       0.9085696 -0.14705332 1.9524616 0.46721908
0000c0 7e bf 01 c0 7a 2b ae 3f b8 d8 c2 bd 30 bf 55 bf
       -2.0273128 1.3607018 -0.09513992 -0.83494854
0000d0 76 7d 4c 3f df 17 2b bf 4c de 59 3f 0c 7a b7 3f
       0.7987894 -0.668333 0.85104823 1.4334121
0000e0 66 34 b9 3e b7 4d 06 40 06 ec 90 be 7f d2 06 40
       0.3617279 2.0984933 -0.28305072 2.1065977
0000f0 38 1e 83 3f 4e 2e 20 bf cd de a1 3f 9c d8 09 3f
       1.0243597 -0.62570655 1.2646118 0.53846145

numerical_embedder.biases f4 [8, 8]
000000 f8 ac 67 bd 3b f3 e9 3e 2c 61 b4 3f 97 28 ad 3e
       -0.05656144 0.45693383 1.4092155 0.3382003
000010 c9 1b 62 3e 6e de 09 3f d8 de dc be 5f 4a 10 3f
       0.22080912 0.53855026 -0.43138766 0.5636348
000020 14 82 dd 3f 04 78 f2 bf f1 52 c4 3e b8 c7 cd be
       1.7305322 -1.8942876 0.3834453 -0.40191436
000030 f7 e6 31 3f 41 d1 80 3f 48 4d 9f 3d c8 26 90 bf
       0.6949305 1.0063859 0.07778412 -1.1261835
000040 95 ab b3 bf 92 6f ea bf 12 4f 9d bf f0 2a 85 3f
       -1.4036738 -1.8315299 -1.2289755 1.0403728
000050 b5 47 b0 bf e0 c1 9a 3f 42 a5 97 bb b8 0d d3 3f
       -1.3771883 1.2090416 -0.0046278546 1.6488562
000060 43 bb d2 be d4 69 09 40 06 6c 94 3f ab d2 71 3f
       -0.41158494 2.1470842 1.1595466 0.9446208
000070 42 ab 9f be 1c fa 32 c0 c5 cc 17 bf e8 7a ff 3e
       -0.31185347 -2.7965155 -0.5929683 0.49898458
000080 2d e3 b7 3f 07 71 8b 3f ee dc 0b c0 63 3f 02 3e
       1.4366204 1.0893868 -2.1853595 0.12719493
000090 e6 c3 98 bf 93 15 65 3f 0f 09 e2 3e 22 51 1c bf
       -1.1934783 0.89486045 0.44147536 -0.610613
0000a0 03 fd 0b 3f 22 aa 38 3f 50 39 14 3f ca f6 80 3f
       0.5468294 0.721346 0.5789995 1.0075314
0000b0 9d 74 1a 3e 28 24 ab be 15 dc 05 be c1 2b ac 3f
       0.15083547 -0.33426023 -0.13072236 1.3450853
0000c0 ae 1c bc 3f af 4e 5c be c2 56 86 be 25 2e c7 bf
       1.4696252 -0.2151439 -0.26238066 -1.5560957
0000d0 fc fd 4d bf 41 f6 97 3e cb 51 f8 3e 3a a3 26 bf
       -0.80465674 0.29680064 0.48499903 -0.65092814
0000e0 ee e2 6e 3b 29 3b 61 3f 5f 5c ed bd 49 e8 fc 3e
       0.0036451179 0.87980896 -0.11589884 0.4939597
0000f0 e2 bf 4e bf b7 02 75 3e a5 29 b3 bf 7b 81 24 40
       -0.8076154 0.23926817 -1.3997084 2.5704029

transformer.layers.0.0.static_alpha f4 [4, 5]
000000 36 38 8a 3f 00 00 80 3f 00 00 00 00 00 00 00 00
       1.0798404 1.0 0.0 0.0
000010 00 00 00 00 a1 88 a3 3d 00 00 00 00 00 00 80 3f
       0.0 0.07985044 0.0 1.0
000020 00 00 00 00 00 00 00 00 a1 88 a3 3d 00 00 00 00
       0.0 0.0 0.07985044 0.0
000030 00 00 00 00 00 00 80 3f 00 00 00 00 a1 88 a3 3d
       0.0 1.0 0.0 0.07985044
000040 00 00 00 00 00 00 00 00 00 00 00 00 00 00 80 3f
       0.0 0.0 0.0 1.0

transformer.layers.0.0.dynamic_alpha_fn f4 [8, 5]
000000 d0 81 b4 bb 00 00 00 00 00 00 00 00 00 00 00 00
       -0.005508639 0.0 0.0 0.0
000010 00 00 00 00 5b 7f ae 3c 00 00 00 00 00 00 00 00
       0.0 0.021300962 0.0 0.0
000020 00 00 00 00 00 00 00 00 01 3a c0 3c 00 00 00 00
       0.0 0.0 0.023465158 0.0
000030 00 00 00 00 00 00 00 00 00 00 00 00 ca 17 ca 3a
       0.0 0.0 0.0 0.0015418467
000040 00 00 00 00 00 00 00 00 00 00 00 00 00 00 00 00
       0.0 0.0 0.0 0.0
000050 23 f5 1d 3c 00 00 00 00 00 00 00 00 00 00 00 00
       0.009640965 0.0 0.0 0.0
000060 00 00 00 00 ce f0 a1 3a 00 00 00 00 00 00 00 00
       0.0 0.0012355091 0.0 0.0
000070 00 00 00 00 00 00 00 00 d0 e2 16 3c 00 00 00 00
       0.0 0.0 0.00920935 0.0
000080 00 00 00 00 00 00 00 00 00 00 00 00 3e 91 85 3b
       0.0 0.0 0.0 0.004076152
000090 00 00 00 00 00 00 00 00 00 00 00 00 00 00 00 00
       0.0 0.0 0.0 0.0

transformer.layers.0.0.static_beta f4 [4]
000000 f2 44 83 3f 31 02 77 3f a9 ac 6d 3f 16 57 7f 3f
       1.0255415 0.9648772 0.92841583 0.9974226

transformer.layers.0.0.dynamic_beta_fn f4 [8]
000000 25 0e 45 3e 47 2e 76 3e 24 7a 8c 3e 66 81 ea 3d
       0.19243677 0.24041091 0.27436936 0.11450462
000010 17 db da be 77 0a c2 bd c3 d0 85 3e 42 a6 85 3e
       -0.42745277 -0.09474652 0.26135835 0.26103407

transformer.layers.0.0.branch.norm.weight f4 [8]
000000 4f 13 72 3f aa cf 7d 3f 33 b3 77 3f e5 7d 87 3f
       0.9456071 0.99144995 0.9675781 1.0585295
000010 0a f9 83 3f ea 6c 81 3f 5a c9 81 3f 3a fe 82 3f
       1.0310376 1.0111363 1.0139573 1.0233834

transformer.layers.0.0.branch.norm.bias f4 [8]
000000 00 5c 43 bc 95 39 d1 3c d0 96 84 bd 93 b4 ab bc
       -0.01192379 0.025540153 -0.06474078 -0.020960128
000010 4e fd 3d bd 52 04 07 3c 6f 77 1c bd ab 5e 2e 3d
       -0.04638415 0.008240776 -0.03819984 0.04257075

transformer.layers.0.0.branch.to_qkv.weight f4 [192, 8]
000000 88 8d 59 bc 00 65 b1 be aa 72 60 be 2e f2 37 3e
       -0.013278373 -0.3464737 -0.21918741 0.17963478
000010 bf fd c4 3e 5c 87 bf be a8 ce 94 3d 60 42 88 3b
       0.38474843 -0.37407959 0.07265979 0.004158303
000020 5f d1 41 3e 10 27 5c 3e f4 48 86 3e 77 01 0a 3e
       0.18927525 0.21499276 0.26227534 0.13477121
000030 54 16 8f bd 5c e6 30 3e 18 d1 23 bd 77 ce fc bd
       -0.069866806 0.17275375 -0.03999433 -0.123440675
000040 e6 12 f6 bd 16 3a 3e be 1a 9a 8b be 20 d0 82 be
       -0.12015323 -0.18576846 -0.27266008 -0.25549412
000050 56 7e 09 be 66 f0 fa 3c 0c d2 0a 3e c0 84 83 3e
       -0.134271 0.030632209 0.13556689 0.25687218
000060 bb ea 64 bc cb 65 95 3d f4 9b e9 bd fc 3f 21 3e
       -0.01397198 0.07294806 -0.11406699 0.15747064
000070 4a 36 58 bc f5 24 b9 be 04 6d a9 3e 02 a7 f9 3e
       -0.013196537 -0.36161008 0.33090985 0.4876023
000080 8a 22 9c 3e 8b d5 a4 3e 13 ff cc be 99 0b 81 be
       0.304951 0.3219417 -0.40038356 -0.2520416
000090 86 30 77 be 7c 0e 92 be 24 2d 81 bd 01 b8 99 3e
       -0.24139604 -0.28526676 -0.06307438 0.30023196
0000a0 c2 65 54 be e7 54 ec 3d b9 2a c9 3c 3a 07 91 be
       -0.20741943 0.11539631 0.024556505 -0.28325826
0000b0 a8 f7 e1 be eb f2 58 be 1a 79 b3 3e bb f8 ab 3e
       -0.4413426 -0.21186416 0.3505333 0.33588204
0000c0 35 c3 fb bd f3 29 a4 3d 4c dd 7f 3e 83 37 52 3e
       -0.12293092 0.08015814 0.24986762 0.20528989
0000d0 7e 70 89 3e 40 0a 45 3e 42 81 50 be 9e f9 57 3e
       0.26843637 0.19242191 -0.20361808 0.21091315
0000e0 f4 ff 9d 3e a4 a4 c2 be e1 11 cc 3d 89 40 c1 3d
       0.3085934 -0.38016236 0.09964348 0.09436137
0000f0 52 6c 8f 3e db cc 14 bd 61 d9 c4 be 2d 5b eb 3c
       0.2801233 -0.036328178 -0.38447097 0.02873
000100 1f a6 1f 3d e3 3a 8b 3e af 5e 09 bd 2c 3f 6a bd
       0.038976785 0.27193365 -0.033537563 -0.05718915
000110 a0 4e 65 3c aa 9d a5 be df bb ce 3e fe 90 50 3e
       0.013995796 -0.3234685 0.4037771 0.2036781
000120 3c ab 82 3c a2 ae b3 bd 13 44 9f 3e db 75 e9 3d
       0.015950792 -0.08773543 0.31106624 0.11399432
000130 56 ca 7e 3e 95 e5 9f 3e c9 29 ad be 60 53 bd 3d
       0.24881873 0.31229845 -0.33820942 0.09244418
000140 1c 95 aa be ba ac ae bc 42 23 57 be 42 bf a7 3d
       -0.33316886 -0.021322597 -0.21009544 0.081907764
000150 d1 74 24 be 22 f0 20 3d da 0a ac 3e 6f 4c d4 3e
       -0.16060187 0.03929151 0.3360203 0.41464564
000160 23 d7 38 3e 4b 62 7e 3e c6 93 74 3c ce d3 ae 3e
       0.18050818 0.24842183 0.01492781 0.3414597
000170 2b b9 93 bd 1f 36 84 3e c9 7f 92 3e ea ab 94 be
       -0.07213052 0.2582254 0.28613117 -0.2903741
000180 f3 5c 42 bd 4f 43 19 3d b3 26 53 be 5b 5c 97 be
       -0.047451925 0.037417706 -0.20620231 -0.2956265
000190 2e ac b8 3e 25 fa bb be ac 42 a8 be bf 6f 01 be
       0.36068863 -0.36714283 -0.32863367 -0.12640284
0001a0 75 df 10 be 83 60 2c be 1e 1c 26 3e 97 fa 42 be
       -0.14147742 -0.16833691 0.16221663 -0.19040905
0001b0 69 e1 d3 3e d2 84 42 3e 78 5e ee 3d 00 37 b3 3d
       0.41382912 0.1899598 0.11639112 0.08750725
0001c0 05 f3 69 3e 4c 5f 10 3e 12 6d 6a bb 5a a2 81 3e
       0.22846611 0.14098853 -0.0035770577 0.25319177
0001d0 26 43 8c 3e 23 e9 ac be a9 e4 80 bc b3 67 3f 3e
       0.2739498 -0.3377162 -0.015734034 0.18691902
0001e0 ca bb ae be ea 17 26 be ee c3 9a be 4a eb 5a 3e
       -0.34127647 -0.1622006 -0.30227607 0.21378818
0001f0 dc ce 34 3e 2c 47 64 be 47 9d 6c 3e 01 e5 60 3e
       0.17657036 -0.22292775 0.23106872 0.21962358
000200 98 3d c6 be ad ae ba 3e c4 3c b0 be a9 aa 8a be
       -0.38718867 0.36461392 -0.3442136 -0.27083328
000210 c1 81 ac be ae 7e ec bc 77 0e 9d 3e 0c 51 0e 3e
       -0.33692744 -0.028869 0.30675098 0.13898104
000220 ff e4 5d 3e b2 a9 c7 bd 29 6b a0 bd 75 82 32 3e
       0.21669386 -0.09749164 -0.07832939 0.17432578
000230 75 85 75 be 44 c8 12 3e e9 ac b4 be e4 ec 7a be
       -0.23976691 0.14334208 -0.3528817 -0.24504429
000240 31 94 62 be fe 69 b3 3e bc 86 24 be 8d cc c8 be
       -0.22126843 0.35041803 -0.16067022 -0.3921856
000250 9a e2 0a be b4 4a 7e bc 29 10 cd 3e b0 b9 6b be
       -0.13563004 -0.01552074 0.40051392 -0.23020053
000260 e3 52 7c 3d 4c 27 43 bd 87 3d 29 bd e8 2e 33 be
       0.061602484 -0.0476449 -0.041318443 -0.17498362
000270 20 97 98 be 90 bd e9 3d 18 2a ae 3e 16 69 b4 be
       -0.298028 0.11413109 0.3401649 -0.35236424
000280 cb c5 a4 be 66 68 cf bc 84 c9 3a 3d 5a 38 81 be
       -0.32182154 -0.025318336 0.045602337 -0.25238305
000290 b5 a1 2b be 13 69 93 3e 87 ea 86 be 61 41 35 3c
       -0.16760905 0.28791103 -0.26350805 0.011062951
0002a0 84 1b c4 3e ac 28 c1 3c 30 dc 79 be 1a c3 a0 be
       0.38302243 0.023578964 -0.24400401 -0.3139885
0002b0 9c c7 d3 be 39 87 33 be 95 35 50 be 6a f4 c9 3e
       -0.41363227 -0.17532052 -0.2033294 0.39444286
0002c0 8c 6e f4 3c 31 84 a3 be 8e 75 5b 3e 58 66 9b 3e
       0.02983787 -0.31936792 0.21431562 0.3035152
0002d0 95 d7 b0 be 5d c2 38 be fd b8 b6 3e ec ee 86 3e
       -0.34539476 -0.18042894 0.3568801 0.26354158
0002e0 6a d4 be 3e 7f 95 01 be bd 37 33 be 7f 6f 04 3c
       0.37271434 -0.12654684 -0.17501731 0.008083223
0002f0 35 69 fb be 77 d2 b8 3e fb d7 36 be af 2e ac 3d
       -0.49103704 0.36098072 -0.17855828 0.08407342
000300 7f d8 92 be 19 52 80 bc f4 c2 23 3d a0 26 82 3e
       -0.28680798 -0.015664147 0.039980844 0.25420094
000310 fe 0f f8 bd 67 e1 a5 3e ca 38 0f 3e 98 49 99 be
       -0.12112425 0.3239853 0.13986507 -0.2993896
000320 13 3b 46 3d b1 f6 96 3d 52 e4 07 3e 3e 08 9e be
       0.04839618 0.073712714 0.13270691 -0.30865663
000330 6b 11 20 3e cc ba 78 3e 97 a7 fa 3d 33 28 76 3d
       0.15631644 0.24290007 0.122389965 0.06009693
000340 9f ea 6a bd 81 4e e6 bc 1b 68 a8 be 82 4a 3a 3e
       -0.05735266 -0.028113605 -0.32891926 0.18192485
000350 c2 30 c0 bd ac 5a ad be c6 01 68 3e 8b eb a0 be
       -0.093843 -0.3385824 0.22656927 -0.31429705
000360 37 c6 88 be ab e2 b0 3e b6 45 79 bd 6b 3b 47 3e
       -0.26713726 0.34547934 -0.060857497 0.1945626
000370 a2 b3 00 3d 2f e6 88 3e 53 c3 aa 3e 28 c9 a6 3e
       0.03142131 0.26738116 0.33352146 0.32575345
000380 a0 56 9b 3b e8 1b c4 3e 85 69 83 bd e9 8c 8b be
       0.004740551 0.3830254 -0.06416611 -0.27255943
000390 f6 27 c7 3c 8e 79 4e 3e 5c 4f 28 3e 74 d5 50 3e
       0.024311047 0.20163557 0.16436523 0.20393926
0003a0 58 8c 5a 3e 6b a5 44 3e 3b dc 0c be 7c 06 08 be
       0.213426 0.19203727 -0.13755886 -0.13283724
0003b0 78 e2 5d 3e 83 b4 7f 3e fa 4d 99 3e 3a 0d d0 3e
       0.21668422 0.24971204 0.29942304 0.4063509
0003c0 2b 37 01 3e 7c 9b a3 3e f4 1f 16 3e 11 5c 10 3e
       0.12618701 0.31954563 0.14660627 0.1409762
0003d0 02 42 9c 3e 87 7a eb bd 0d 26 84 3e 8c e6 92 be
       0.3051911 -0.114979796 0.2581028 -0.28691518
0003e0 10 07 81 be 4d 24 82 be bc 16 a5 3e 3d 7c 5e be
       -0.252007 -0.2541832 0.32243907 -0.2172708
0003f0 61 a7 8a bd 99 77 2d 3e 72 44 9c be fb 6a d0 3e
       -0.06770206 0.16940154 -0.3052097 0.4070662

transformer.layers.0.0.branch.to_out.weight f4 [8, 64]
000000 fe cc 92 3d fa 20 0c 3e 4d ac 85 3d 83 9d b4 bd
       0.071680054 0.13684455 0.065270044 -0.088191055
000010 b0 74 3d 3d e3 bb 4b be 6a 0d ce 3d 83 49 f6 bc
       0.04625386 -0.19895892 0.10061152 -0.03006435
000020 7c b1 b1 3d 58 2d 7c bb 5b 49 27 3e 76 f2 db bd
       0.086764306 -0.0038479175 0.16336577 -0.10739605
000030 4a 31 33 bd 30 de 7b 3c 6a ca 04 3d 9a 65 74 3c
       -0.043748178 0.015372798 0.0324196 0.014916802
000040 0a ad 94 3d cc 0e 18 3e c2 63 0a 3d a5 a3 41 be
       0.07259567 0.14849395 0.033786543 -0.18910082
000050 6c 53 b4 3d a8 f4 ab bc 3d ed b1 3d c6 c4 8a 3d
       0.08804974 -0.020990685 0.08687828 0.06775813
000060 b5 2f 8d bd a1 78 34 bc 67 fd 0f 3d 65 99 69 bd
       -0.06893865 -0.011015088 0.035153773 -0.057031054
000070 c1 e5 2d bd b6 ab 4a bd 29 fe 80 bc cb 2d e0 3c
       -0.04245544 -0.049480163 -0.015746193 0.027365586
000080 27 ad 30 3d f2 c9 0c be 3a 99 ba 3d 9a 0a 21 3d
       0.04313388 -0.13748911 0.09111257 0.03931675
000090 1d 58 17 bd b0 e2 8c bd d0 04 dc bd 56 73 84 3c
       -0.036949266 -0.06879175 -0.107431054 0.016168278
0000a0 b2 c1 df 3c fb 7e 93 3d 94 31 2b 3d 68 fa 98 bc
       0.02731404 0.07201954 0.04179533 -0.01867409
0000b0 23 b2 33 3e cf 01 92 bd 67 9c f3 3d 20 85 cc 3d
       0.17548423 -0.07129251 0.11895066 0.09986329
0000c0 71 2d 9d 3c dc 61 fd bc e0 c0 32 be 59 b8 e7 3c
       0.019186707 -0.030930452 -0.17456388 0.028286146
0000d0 97 9e cf 3c cb 28 1a be 33 98 c8 bc 87 7c bd 3d
       0.025344176 -0.15054624 -0.024486637 0.09252267
0000e0 36 9f 94 bd 54 95 8b bc 13 07 7d 3d b8 74 20 bd
       -0.072569296 -0.017038979 0.061774325 -0.03917381
0000f0 90 d4 37 3c cd ee 84 3d 63 8d 93 3b 46 de 0a 3e
       0.011220112 0.0649086 0.0045029386 0.13561353
000100 49 0f 26 be 5d 18 b7 bd 3d 64 77 bd f4 fd 4e 3d
       -0.16216768 -0.08940194 -0.06039833 0.050535157
000110 3a cc f5 3d 2e 12 d2 3d 3d de a8 3c 7c 6c 9f 3d
       0.12001844 0.10257374 0.020613784 0.077843636
000120 a3 95 6c 3d b7 40 ae 3d 6c 23 e7 3b a7 52 89 bd
       0.057759892 0.08508437 0.007053783 -0.06705218
000130 c1 4e a1 3d e9 9f 90 3d e6 64 04 be 31 59 af 3d
       0.07876349 0.070617504 -0.12929115 0.08561934
000140 6a f2 8e bc a9 e0 bd bd ee 77 35 bd 36 48 1a bd
       -0.017449576 -0.09271366 -0.044303827 -0.037666522
000150 5b 56 19 bd 0c 2a 8b 3b 60 4d ba bd 26 20 09 be
       -0.03743587 0.0042469557 -0.09096789 -0.1339117
000160 af e4 a0 3d 43 74 d0 bd ec a1 16 3d d5 3b b8 bd
       0.07856118 -0.10178425 0.036775514 -0.08995787
000170 9c cf a3 bc 12 77 80 3c 0f 4e 26 be 71 ca 46 3d
       -0.019996457 0.015681777 -0.16240714 0.048532907
000180 78 58 99 3c 7f 79 d4 bc a9 ad 02 be 1f 7f 95 bd
       0.018718943 -0.02593684 -0.12761559 -0.07299637
000190 97 42 4f bd 62 97 b9 3c 07 95 87 3d 78 b9 db bc
       -0.050600614 0.022655193 0.066202216 -0.026821837
0001a0 04 5d e7 bd 71 d9 b2 3d c1 e4 0e 3e 88 8d b8 3a
       -0.11297038 0.0873288 0.1395445 0.0014080266
0001b0 f2 14 50 bb 2d 70 01 3d 70 6e 05 3e 57 bd 94 bd
       -0.0031750766 0.03160112 0.1303041 -0.07262676
0001c0 36 94 13 be ed 6d e7 3c 19 32 b4 bd c7 3b bd 3d
       -0.14412007 0.028250659 -0.08798618 0.09239917
0001d0 33 94 69 3d 25 52 ab 3d 53 17 7c 3c ed 2d 75 3d
       0.0570261 0.08365277 0.01538642 0.05985825
0001e0 b6 7f d6 3d 9a 55 52 bd 81 41 f5 bd bc 97 d2 bb
       0.10473578 -0.051351167 -0.119753845 -0.0064267796
0001f0 49 b5 9f bd c6 21 54 3d 06 9e 8c 3d 35 69 0a be
       -0.07798249 0.05179002 0.06866078 -0.13516696
000200 bc 00 cb bd 84 9a e7 bd c9 20 ae 3c c7 77 65 3e
       -0.099122494 -0.113087684 0.021255868 0.22408973
000210 b8 8b 35 be e1 8c 11 3e 56 4d 3d be cd ef fe 3d
       -0.1772908 0.14213897 -0.18486533 0.12448082
000220 b3 35 52 be 31 f7 40 3e bb 0d 36 be bd cb 12 bd
       -0.20528297 0.18844296 -0.17778675 -0.03583883
000230 6a c4 31 3b 67 83 c6 3d d6 e2 1e 3d 2d a9 30 3e
       0.0027125129 0.09693032 0.038790546 0.17252035
000240 93 ca 2d bd 1f ef 47 be a1 91 27 be ec 65 24 3e
       -0.042429518 -0.19524811 -0.16364147 0.16054505
000250 ff 7f 5a 3e d5 99 30 3e e4 c4 3f be 8d af 8f bc
       0.21337889 0.17246182 -0.18727452 -0.017539764
000260 59 4c 95 ba 3b bf f0 3c 51 4b 70 be ee c6 0c 3e
       -0.0011390551 0.02938806 -0.23466231 0.1374776
000270 1b a5 42 be 27 f3 38 be 02 d0 3c 3e 2e 2d 0c 3e
       -0.19008295 -0.18061505 0.18438724 0.1368911
000280 39 1e 2d be 8f fe aa 3d 06 9f e1 bd 4b a0 3d be
       -0.1690606 0.083493344 -0.110166594 -0.18518178
000290 73 e9 3d 3e a0 45 8d bd 1c c1 52 3e a4 66 d9 bd
       0.18546085 -0.068980455 0.20581478 -0.1061528
0002a0 0d 9b 77 3c f1 77 bf 3d f0 c1 84 be 4b f6 01 be
       0.015112651 0.09349049 -0.25929213 -0.1269161
0002b0 0f 5b ae bc 7c fa 4e 3e ff 50 80 bd 9a ba 0d be
       -0.021283654 0.2021274 -0.06265449 -0.13840714
0002c0 08 4b 7b bd 9b 7e 43 3e cb 69 43 3e b1 b4 3f be
       -0.061350852 0.19091265 0.19083326 -0.18721272
0002d0 41 3d d7 bc 48 50 40 3e a9 b2 54 be d2 76 c2 bd
       -0.026274325 0.18780625 -0.20771278 -0.094953194
0002e0 26 cd 3b 3e 41 d8 c6 3d e7 40 69 be fe 1c 30 3c
       0.18339977 0.09709216 -0.22778665 0.0107491
0002f0 44 62 4f 3d b8 4c 02 3e db 7a 42 3e c0 9f 68 be
       0.050630823 0.12724578 0.18992178 -0.2271719
000300 be ee fe 3d 96 4c ad 3d 50 b4 11 3d e4 ea 92 3d
       0.1244788 0.08461873 0.03557235 0.07173708
000310 fe c2 a0 bd a6 f6 5f bc 9f 72 70 3d 05 83 b0 bd
       -0.07849692 -0.013669645 0.05870306 -0.0861874
000320 72 07 55 3d c4 6e 0a 3d 42 f5 ca bd 2f e8 2d 3b
       0.052009054 0.03379704 -0.099100605 0.0026536097
000330 80 89 e2 3d fc d9 79 3d d1 13 1c 3d 68 70 93 bd
       0.11061382 0.0609989 0.038104836 -0.07199174
000340 9a b7 b4 bd e4 78 4c bd 01 b7 c2 bb 73 4c 3d 3d
       -0.08824082 -0.049919978 -0.005942226 0.046215486
000350 c7 90 0a be cd 4e d7 bd 59 ea 5b bc 7f 7b fc bc
       -0.1353179 -0.10513077 -0.013422572 -0.030820606
000360 ac 48 f1 bc ae df d0 bd bb a2 98 bc 1a 84 df bc
       -0.029453598 -0.101989135 -0.018632283 -0.02728467
000370 75 7f a0 bd f9 e9 d6 3d a7 7d 3f be f4 93 f1 bd
       -0.078368105 0.104938455 -0.18700276 -0.11795798
000380 c2 71 88 3d c4 60 c8 3d 95 a9 6e bd 61 87 17 bd
       0.066623226 0.097840816 -0.058267195 -0.03699434
000390 cc 2c 0b bd 5e 82 9c 3d f2 33 26 bd 1f f3 13 3e
       -0.03397827 0.07642053 -0.040576883 0.14448212
0003a0 20 d0 ae bc 9b 12 5d 3c 17 c5 09 3e cc d1 bd bc
       -0.021339476 0.013493205 0.1345409 -0.023171328
0003b0 d6 de 12 bd a4 11 90 bc 86 e9 32 3d 22 aa b5 3d
       -0.035857044 -0.017586537 0.043679737 0.08870341
0003c0 f3 6d ba bd a1 db ef bd b4 d7 a9 3d 56 a5 97 bc
       -0.091030024 -0.11711813 0.08293095 -0.018511456
0003d0 6a 3c 3a be 23 44 a6 bb f8 53 f8 3c 57 12 e1 3d
       -0.18187109 -0.0050740405 0.030313477 0.10989826
0003e0 35 d5 d0 bd c2 d7 57 bc f1 de 71 bd 59 60 3c bd
       -0.10196916 -0.013173999 -0.059050504 -0.04599032
0003f0 2d 81 03 bd 5d c8 c7 3d c3 e2 bf bc aa fa 9e 3d
       -0.032105613 0.09755013 -0.023423558 0.07762654

transformer.layers.0.0.norm.gamma f4 [8]
000000 d4 0a 71 3e 17 e5 a4 3e df 6e ae 3e 1f b2 1c 3e
       0.23539287 0.32206032 0.34068963 0.15302323
000010 a8 14 15 3f c0 5d 0a 3e 5e 9d a2 3e 41 c7 ad 3e
       0.58234644 0.13512325 0.31760687 0.3394108

transformer.layers.0.1.static_alpha f4 [4, 5]
000000 d9 98 6c 3f 00 00 80 3f 00 00 00 00 00 00 00 00
       0.92420727 1.0 0.0 0.0
000010 00 00 00 00 19 6f 8b bd 00 00 00 00 00 00 80 3f
       0.0 -0.068082996 0.0 1.0
000020 00 00 00 00 00 00 00 00 7e c5 95 bd 00 00 00 00
       0.0 0.0 -0.07313059 0.0
000030 00 00 00 00 00 00 80 3f 00 00 00 00 4c 1c a4 bd
       0.0 1.0 0.0 -0.0801321
000040 00 00 00 00 00 00 00 00 00 00 00 00 00 00 80 3f
       0.0 0.0 0.0 1.0

transformer.layers.0.1.dynamic_alpha_fn f4 [8, 5]
000000 0a fa 24 3e 00 00 00 00 00 00 00 00 00 00 00 00
       0.16111007 0.0 0.0 0.0
000010 00 00 00 00 90 84 0c 3e 00 00 00 00 00 00 00 00
       0.0 0.13722444 0.0 0.0
000020 00 00 00 00 00 00 00 00 04 6c ac bd 00 00 00 00
       0.0 0.0 -0.0841904 0.0
000030 00 00 00 00 00 00 00 00 00 00 00 00 89 60 15 3e
       0.0 0.0 0.0 0.14587606
000040 00 00 00 00 00 00 00 00 00 00 00 00 00 00 00 00
       0.0 0.0 0.0 0.0
000050 b7 62 2f be 00 00 00 00 00 00 00 00 00 00 00 00
       -0.171275 0.0 0.0 0.0
000060 00 00 00 00 9f 2c e2 bd 00 00 00 00 00 00 00 00
       0.0 -0.11043667 0.0 0.0
000070 00 00 00 00 00 00 00 00 79 7c c3 3d 00 00 00 00
       0.0 0.0 0.09545226 0.0
000080 00 00 00 00 00 00 00 00 00 00 00 00 24 ae e1 3d
       0.0 0.0 0.0 0.11019543
000090 00 00 00 00 00 00 00 00 00 00 00 00 00 00 00 00
       0.0 0.0 0.0 0.0

transformer.layers.0.1.static_beta f4 [4]
000000 7f be 7b 3f 21 c4 91 3f 7d 3e 66 3f b1 83 92 3f
       0.9833755 1.1387979 0.899391 1.1446439

transformer.layers.0.1.dynamic_beta_fn f4 [8]
000000 a2 ef 5a bd a1 e3 1b 3e 92 4f b1 3c a6 65 82 3d
       -0.053451188 0.15223552 0.021644387 0.06367044
000010 f2 d2 03 bd 1b b7 e8 3d 28 db 95 3d 2b 34 c5 3d
       -0.032183595 0.113630496 0.07317191 0.09629091

transformer.layers.0.1.branch.0.weight f4 [8]
000000 6d a4 6f 3f 5f d8 7f 3f 51 76 81 3f 53 90 89 3f
       0.9361027 0.9993953 1.0114232 1.0747169
000010 95 42 86 3f 98 eb 72 3f 36 c7 84 3f 98 fd 8f 3f
       1.0489069 0.9489074 1.0373294 1.1249266

transformer.layers.0.1.branch.0.bias f4 [8]
000000 a9 33 bb 3c 10 c8 8d bd 78 d0 26 bd fe 19 b8 bd
       0.022851782 -0.069229245 -0.040726155 -0.089893326
000010 80 cb fc bd d1 7a 9f bb 6f 55 9e 3d 1f eb 98 3d
       -0.12343502 -0.004866936 0.07731139 0.07466721

transformer.layers.0.1.branch.1.weight f4 [64, 8]
000000 e5 6e 7e be bc 28 9e 3e ce 8b 2a 3e 28 c8 d1 be
       -0.2484699 0.30890453 0.16654894 -0.4097302
000010 6c 99 85 3d 4f 27 7b 3e ac 5e 16 bd 3e 73 e7 be
       0.065234035 0.24526714 -0.03671138 -0.4520511
000020 99 27 19 be ef 34 7f 3d 33 6f de be 15 19 6f be
       -0.14956512 0.06230634 -0.43444213 -0.23349412
000030 7e c7 80 3c b7 bc 20 3d 58 b9 60 3e be 10 81 3c
       0.015720125 0.039242472 0.21945703 0.015755054
000040 9c 6c f0 3c 51 1e aa bd 42 e2 ce 3e 7e 7f 1b be
       0.029348664 -0.08306564 0.40406996 -0.15185353
000050 93 4a db bd 9c a6 22 3e 71 5e 57 3e 53 4a c0 3d
       -0.10707583 0.15883869 0.2103212 0.09389176
000060 a6 65 9d be 31 97 88 be fc 3b dd 3d 5f 74 5a bd
       -0.30741614 -0.2667785 0.10802457 -0.053333636
000070 d7 82 ac 3e ba fc 8a 3e 6a 96 86 bd 63 f3 ab be
       0.33693573 0.2714594 -0.06571658 -0.33584127
000080 ab 47 82 be fd 92 3b be 7b d7 9d be 1b 17 bf be
       -0.25445303 -0.1831779 -0.3082846 -0.37322316
000090 7a 10 cd be 3a 7d 5a 3c d7 bb 32 be 13 8c 7c 3e
       -0.40051633 0.01333552 -0.17454468 0.24662809
0000a0 00 28 90 bd f1 28 2e be 93 ec 71 bd 76 dd 75 3d
       -0.070388794 -0.17007805 -0.059063505 0.060025655
0000b0 46 a9 db bd 4d 8f 93 be 82 47 92 3e dc db a2 3d
       -0.10725646 -0.28820267 0.2857018 0.07952091
0000c0 82 d9 45 3e f4 0d 9e be e7 fa 2b 3e 97 d7 0f be
       0.19321254 -0.3087002 0.1679493 -0.14047085
0000d0 e5 88 8a be 67 2b 71 3e ac 0f 0c 3e b7 8d 32 3e
       -0.27057567 0.23551713 0.13677853 0.17436872
0000e0 b7 7a 39 be 5a e7 66 3e 3f 06 00 bb 40 75 8b be
       -0.18113218 0.22549191 -0.0019534973 -0.27237892
0000f0 c5 1c 66 be ee b3 63 bd 0f 65 61 3c 42 de b5 bd
       -0.22471912 -0.055591516 0.013757004 -0.08880283
000100 ca 72 d0 3e 14 6f 9b 3e 8a b3 26 be 6f 3c c7 3e
       0.40712577 0.30358183 -0.16279426 0.38913295
000110 d6 17 e3 3e 5f 14 18 3e 5c 40 79 3e 67 8d 93 be
       0.44354123 0.14851521 0.24340957 -0.2881882
000120 ea 71 2a 3e f6 98 81 be 38 fe 15 be 5d fe a6 bd
       0.16645017 -0.25312012 -0.14647758 -0.08153985
000130 0b 95 89 be 80 55 04 bd d4 ec ce bd 32 a1 02 3f
       -0.26871523 -0.0323081 -0.10103765 0.51027215
000140 68 68 e9 3d 87 66 ab be 15 e0 a4 3e f5 8a 86 bd
       0.11396867 -0.3347666 0.3220221 -0.06569473
000150 1d f8 c3 3d 47 3e 99 3d c4 ce ce be e7 d0 0c bf
       0.09568808 0.074825816 -0.40392125 -0.5500626
000160 ce 46 0c be 97 b7 2b 3e ea 00 8d bd a1 5e fa bc
       -0.13698885 0.16769253 -0.0688494 -0.0305627
000170 fd c3 04 3e ff fe 9c 3d 0e cb 5c be ae d5 b0 be
       0.12965389 0.07665824 -0.21561834 -0.34538025
000180 8b 69 a5 bd 10 48 b9 be 7a de d3 3d c7 f2 de be
       -0.08076771 -0.36187792 0.103451684 -0.435446
000190 8f ed 8c be 88 6b 5c bd 7f ac 78 3e 5c c8 8c 3e
       -0.27524993 -0.053813487 0.24284552 0.27496612
0001a0 57 ed 82 3e c1 01 0b 3d 20 68 89 bd 09 87 57 3d
       0.255717 0.03393722 -0.067093134 0.052619014
0001b0 b8 b5 0a bf cc 31 ac 3e ba 84 6c bd c9 46 24 bd
       -0.5418353 0.33631742 -0.057743765 -0.04010657
0001c0 2e 86 14 3e c8 71 d2 3e 45 3c 18 3e e4 13 62 3e
       0.1450431 0.41102433 0.14866741 0.220779
0001d0 ca 54 06 3c 89 c4 b1 be c9 d6 b2 bd 4e 2d 32 3e
       0.008198926 -0.34720257 -0.08732373 0.17400095
0001e0 ea 14 41 3e 97 76 9a 3e 6e 80 b3 3e e5 8b 23 3e
       0.18855634 0.30168602 0.35058922 0.15971334
0001f0 f0 76 1d 3e a3 86 d3 3d 9d ea db bd 39 30 28 bd
       0.15377402 0.10328414 -0.10738108 -0.041061614
000200 9b e4 f4 3c d3 27 b0 3c 01 2b c9 bc a1 70 be be
       0.029894164 0.021503365 -0.024556639 -0.37195304
000210 e5 4a cd 3d a0 4c bb be dc d8 36 be 8c 46 33 bd
       0.100240506 -0.36581898 -0.17856163 -0.04376845
000220 32 54 72 be ac e2 5a 3d 44 a8 df be 1c ff a5 3e
       -0.2366493 0.053438827 -0.43683064 0.32421196
000230 be 14 e5 be 9a d5 a2 be 0f 16 24 bd 39 aa 32 3d
       -0.44742388 -0.3180359 -0.0400601 0.04361937
000240 0e 0c 97 3e 00 2c 63 3e df 2f 33 3e 60 6e 68 3e
       0.29501384 0.22184753 0.1749873 0.22698355
000250 62 b7 0c 3f ee 90 a0 3e b6 19 fe be 31 3a cc 3d
       0.5496732 0.31360573 -0.4962899 0.09972037
000260 4a 56 9c 3e b8 3e 0b be 25 ba 10 3e a0 09 97 3d
       0.30534583 -0.13598144 0.14133509 0.07374883
000270 cf 05 54 be 56 9d d7 3b 4a b9 37 3e 57 33 00 3b
       -0.20705341 0.006580035 0.17941776 0.001956185
000280 b5 3d fa bd 4a ae 0f 3d 12 15 08 3c 75 93 15 3d
       -0.12218801 0.035078324 0.008305805 0.03651758
000290 27 a1 c6 3e b8 23 91 bd f1 a9 fd 3d cf ca e2 be
       0.38794824 -0.07086891 0.123859294 -0.44295356
0002a0 d1 2d a5 bb ab 6a 88 bd f1 4d 29 be 7c e6 46 be
       -0.005040862 -0.0666097 -0.16533639 -0.1942386
0002b0 a6 72 73 3e 9a 6c 75 be 91 9d b8 3d 1a 5d c2 be
       0.23774204 -0.2396721 0.090144284 -0.37961656
0002c0 5b 36 a3 3e 62 b2 fa be 1f 75 4a be 51 cb 13 be
       0.31877407 -0.4896422 -0.1977124 -0.14433028
0002d0 de f8 df be d2 4e 29 be 4b e0 cf 3e ff e6 a2 3e
       -0.43744558 -0.16533974 0.4060081 0.3181686
0002e0 39 19 b2 3e 49 74 45 3e 2a 6d ae bd fd 55 8c be
       0.34784868 0.1928264 -0.08516915 -0.27409354
0002f0 e4 5f f0 3e 1f 4f a3 bd ea a5 67 bd 9b 3a e8 be
       0.4694816 -0.079740755 -0.056554712 -0.45357212
000300 93 fe 83 3e 37 5a 7a be 8e ac 8e be 1d 5f fa be
       0.25780162 -0.24448477 -0.27866024 -0.4890069
000310 0a c9 36 3d e9 2d d3 bd 35 04 27 3e ae e8 e2 3e
       0.04462532 -0.10311491 0.16310199 0.44318146
000320 9e dc 34 3c dd 2e a1 3e bf 4e 52 be 90 b3 45 bd
       0.011038927 0.31481066 -0.20537852 -0.048266947
000330 b2 35 f8 be 85 3e 04 be 95 f3 e3 bd 25 84 b6 3d
       -0.48478466 -0.12914474 -0.11130444 0.08911923
000340 9c 71 3d bd 8a e5 2f be 6d 9f 36 be 37 af 68 be
       -0.046250924 -0.17177406 -0.17834254 -0.22723089
000350 4b 48 45 be 0c 30 82 3e 4b b1 8a 3e a9 68 59 bd
       -0.19265859 0.25427282 0.2708839 -0.053078327
000360 48 74 39 be aa 6a 8c 3e 69 28 a3 3e 5f 1f a5 3e
       -0.18110764 0.27425128 0.31866768 0.32250497
000370 dd 39 14 be 78 b0 96 bd db d5 93 3e 0f ad ce be
       -0.14475198 -0.073578775 0.28874096 -0.40366408
000380 dc 35 92 3e de 24 95 3e c1 ad 45 be 67 ac a5 be
       0.28556716 0.2912969 -0.19304563 -0.32358095
000390 9b 14 df be ae ff ff bd 1f 73 44 3e e2 6a bc 3d
       -0.43570408 -0.12499939 0.1918454 0.09200074
0003a0 15 f9 a6 3e a9 a4 a5 3e 7b 18 c7 be a5 da 49 bc
       0.3261191 0.32352188 -0.38885865 -0.012320195
0003b0 7a 57 ab 3d ae 5b 23 3e 1f 2c 14 be 17 f7 97 3e
       0.08366294 0.15952942 -0.14469956 0.29680702
0003c0 8f db 99 be d5 d9 e1 bc e6 a0 4d 3e c7 8d af 3e
       -0.30050322 -0.02756969 0.20080909 0.34287855
0003d0 4f 5f ae 3e cf fc 9c be f3 5f 5c be 14 e4 75 be
       0.3405709 -0.30661628 -0.21520977 -0.24012786
0003e0 55 c8 15 be 08 b4 00 be 8f 3a a4 bd 2b b1 7d 3e
       -0.14627202 -0.12568676 -0.08018982 0.24774615
0003f0 37 6c 27 3e 7b 16 d5 3e 91 bb 54 3e 00 72 be 3d
       0.16349874 0.41618714 0.20774676 0.092990875

transformer.layers.0.1.branch.1.bias f4 [64]
000000 df b2 66 bd 8a 9f af 3e 6f be d1 3b 85 8e 22 be
       -0.05632293 0.34301406 0.0064008753 -0.1587468
000010 c7 7f b7 3e 82 cc b6 3e e8 45 d6 3d b6 dd cf 3e
       0.35839674 0.35702902 0.10462552 0.4059884
000020 8d ba ee 3d 68 12 c6 3e 0b fc 16 3d 47 b8 a5 be
       0.116566755 0.38685918 0.03686146 -0.32367155
000030 6e b3 cf 3d cd 5d 9f 3e 9e 67 5b bd a5 18 8d 3e
       0.10141645 0.31126252 -0.053565614 0.27557865
000040 78 46 c4 be 95 49 9d 3e 84 2d 9a 3d d5 ce 8f 3e
       -0.38335013 0.307202 0.07528213 0.28087488
000050 5f 04 64 be 96 d0 32 be ad c2 83 3e 01 86 69 be
       -0.22267292 -0.17462382 0.25734463 -0.22805025
000060 78 0c ff bd 04 fc 0b bc ff 09 a6 3e e7 2c b0 bd
       -0.1245355 -0.008543972 0.324295 -0.086023144
000070 85 0d 83 3e 0b 5b 66 be a9 48 91 be 80 79 f8 3d
       0.25596252 -0.22495668 -0.28375748 0.12132549
000080 ee 4b b3 be 5f 2b 42 3d c2 69 89 be 0c 53 0c be
       -0.35018867 0.047404643 -0.268385 -0.13703555
000090 f7 75 72 be f3 af c7 3e 3e 1b 9e be 50 e1 e0 bd
       -0.23677813 0.39001426 -0.3088016 -0.10980475
0000a0 5d e0 db 3d ca eb 2f 3e 15 11 35 3d 1b 80 6a 3e
       0.10736153 0.1717979 0.044205744 0.22900431
0000b0 84 c3 94 be 0d c1 89 be e6 73 00 3c 53 b9 aa be
       -0.29055417 -0.269051 0.007840132 -0.33344516
0000c0 a5 9e f5 bd dc 70 18 be d7 01 66 be 95 23 36 3e
       -0.1199315 -0.14886802 -0.2246164 0.17787011
0000d0 d6 72 98 bd 09 34 97 3e 4f 4b d2 be 0a f4 02 be
       -0.07443778 0.29531887 -0.4107308 -0.12788406
0000e0 7f 36 c0 3d 70 02 14 be 9d 70 c8 3e 42 22 4b 3e
       0.09385394 -0.14454055 0.39148417 0.19837287
0000f0 9b ef a8 bd 90 e7 18 3e b7 aa 2b 3e 60 90 28 3d
       -0.08248826 0.14932084 0.16764341 0.04115331

transformer.layers.0.1.branch.4.weight f4 [8, 32]
000000 ef 8c 45 be f6 3b c3 bd b9 d0 51 3e e3 fd 17 3e
       -0.19292043 -0.09532921 0.20489778 0.14842944
000010 cf 73 2e 3e de f9 db bd d0 19 4a 3e 73 0f 80 be
       0.17036365 -0.10741018 0.19736409 -0.25011787
000020 fb 52 4f 3d ac d3 d0 3d c5 2e ba 3d 78 f4 fd 3b
       0.050616246 0.10196623 0.09090952 0.00775009
000030 12 ca 5a 3e fb 58 e0 3c d6 45 73 3e 5e 28 81 be
       0.21366146 0.02738618 0.23757109 -0.2522611
000040 f7 23 0d be e1 2b 48 3e b1 0c 7b 3d 7c 04 82 bd
       -0.13783251 0.19547988 0.0612914 -0.063485116
000050 3e 64 bb bc 4f f6 c9 3d 6b 9f 60 3e dc 6d 73 be
       -0.022874948 0.09861433 0.21935813 -0.23772377
000060 85 72 0c be ea 2e 28 3e c0 50 19 3e 6b ba 2a 3d
       -0.1371556 0.16424146 0.1497221 0.04168169
000070 fe 31 d0 bd 00 1c c0 bd 15 92 e2 bd da 0a 8b 3d
       -0.10165785 -0.093803406 -0.11063019 0.06789179
000080 04 dc af bc 6d aa c0 3d 23 1d 24 bd 8c f7 a5 bd
       -0.021467216 0.09407506 -0.04006685 -0.081038564
000090 22 5e b8 be 87 69 2d be ca 10 a6 bd a4 85 3a 3e
       -0.36009318 -0.16934787 -0.08108671 0.18215042
0000a0 b5 27 ab 3e 91 27 2f be 3c 11 79 3d 1a f3 dc bd
       0.33428732 -0.17104937 0.06080745 -0.107885554
0000b0 5d c2 bd bd e0 79 04 be aa 49 09 3e 3c 4f 29 3d
       -0.092655875 -0.12937117 0.13407007 0.04133533
0000c0 93 d4 41 3e 34 76 bb 3b 13 d9 2c be d4 25 d8 38
       0.18928747 0.005720878 -0.16879682 0.00010306729
0000d0 51 07 3f 3e be 68 90 bc 83 f8 48 be f8 6a c7 3d
       0.18655135 -0.01762807 -0.1962605 0.097371995
0000e0 27 4c ca 3d e2 11 11 3d d1 16 5f 3e fa 8e 1d 3e
       0.09877806 0.035417445 0.21786048 0.15386572
0000f0 6a c7 5d 3d 42 7b 92 3d 6a cf cc 3d fb 7b a4 3d
       0.054145254 0.07152416 0.100004986 0.0803146
000100 2f 8b 9b 3e 3b 24 b3 3d 6b 32 4d be f9 8b 25 be
       0.30379626 0.08747145 -0.20038764 -0.16166677
000110 42 42 d5 be fe d0 a6 3e 9f 20 8f be 4a b3 00 3e
       -0.41652113 0.32581323 -0.27954575 0.12568393
000120 22 e6 48 3e 55 25 34 bc 29 e7 ee be f5 ed a1 bd
       0.19619039 -0.010995229 -0.46660736 -0.07906715
000130 92 9e 89 be 5c 18 59 be ed 2d 1d be 0c 75 71 3e
       -0.26878792 -0.21200699 -0.1534955 0.23579806
000140 ce 8a 0e 3e 84 ae af be 48 cb a9 3e 83 2d ac 3e
       0.13920137 -0.34312832 0.33162904 0.33628473
000150 b2 e9 11 3e 2f 84 39 bc 30 02 8f be 3c 8e 01 3e
       0.14249304 -0.011323019 -0.27931356 0.12651914
000160 08 29 32 3e c0 b9 36 be db b1 24 3e df 76 25 be
       0.17398465 -0.17844296 0.16083471 -0.16158627
000170 f8 ac 68 3e 73 d6 20 be 0e 3e 4d bd ff d9 a1 bc
       0.22722232 -0.15706806 -0.050108008 -0.019757269
000180 97 4d 2d bd fe 61 80 3b d7 5e 6c 3c 14 82 a5 bb
       -0.042310324 0.0039179316 0.014426908 -0.005050907
000190 22 a0 61 be 54 1b 89 3e 3b 39 9b bd d5 e0 90 3d
       -0.22033742 0.26778662 -0.07579275 0.07074133
0001a0 09 c2 e0 3d f4 46 87 bc 42 49 64 be ab c8 80 bd
       0.10974509 -0.016513325 -0.2229357 -0.062882744
0001b0 f4 70 72 bd ae e4 0d be 93 59 06 3c 84 20 a5 3d
       -0.05918975 -0.13856766 0.008200067 0.080628425
0001c0 c1 f2 0b 3e fe be 97 3d d9 04 43 bc 4b 2e ac 3d
       0.13666822 0.07409476 -0.011903011 0.08407267
0001d0 f9 21 91 3e 64 7e af 3d 4f 43 b0 bd 27 bc ce 3d
       0.28346232 0.08569029 -0.08606588 0.10094481
0001e0 25 34 03 bd 66 97 40 bc 94 29 41 3e 3e 8b 60 3d
       -0.03203215 -0.011754846 0.18863517 0.05482029
0001f0 3e 7a e6 3d 9f dd 3b 3d 1b 95 8e bd 35 43 2d 3d
       0.112537846 0.04586565 -0.06962033 0.04230042
000200 e4 72 c1 3d a6 fb fb 3d b7 04 0a bc 9e e6 b4 bd
       0.09445742 0.123038575 -0.008423976 -0.08833049
000210 94 df a5 bd 9c 65 03 3d e8 34 ac 3b ff 4b 54 3d
       -0.08099285 0.032079324 0.0052553304 0.051830288
000220 a8 77 18 be 16 39 db 3d c9 04 cb 3d 5b 2e 2f be
       -0.14889395 0.10704248 0.09913022 -0.17107527
000230 b0 f6 0a be 49 1a a0 bd af d3 43 bc e9 c7 90 3d
       -0.13570666 -0.078175135 -0.011952325 0.0706938
000240 dc 59 6c 3d d5 71 e0 bd e2 b6 bb 3d 5c ae 48 bd
       0.057702884 -0.10959212 0.091657415 -0.048994407
000250 be 62 21 be d5 5a 0f bd b9 04 3b bd a6 47 d4 3d
       -0.15760323 -0.034998734 -0.0456588 0.10365228
000260 87 57 93 bd 88 40 5e bd 8f 5e 3f 3d 65 aa 2a 3d
       -0.07194429 -0.05426076 0.046721037 0.041666407
000270 ab 8e 5a 3e 58 55 78 3d df 96 24 be 69 8b 27 bc
       0.21343486 0.060628265 -0.16073178 -0.010226109
000280 60 8f d7 3b 06 b7 6b be 86 90 d5 3d b6 f7 12 3e
       0.006578371 -0.23019037 0.10427956 0.14352307
000290 8f 59 cb 3e d3 5c f4 bd 19 c6 a0 3e d8 5e 57 be
       0.39716765 -0.11931767 0.31401137 -0.21032274
0002a0 29 f9 38 be eb 96 88 3e 9a 11 6a 3d 16 a7 6e 3e
       -0.18063797 0.2667764 0.057145692 0.23305926
0002b0 f5 e0 6b 3e 14 f4 83 3e bd 9c 56 bd 9a 5b 59 3d
       0.23035033 0.25772154 -0.05239557 0.053065874
0002c0 c9 cd 98 3d 65 71 30 3e a7 44 86 be a5 9b d8 bd
       0.074611254 0.17230757 -0.26224253 -0.10576562
0002d0 0e ca cf be 63 e6 ab 3e 8f a6 a8 3e 29 8f b8 be
       -0.40583843 0.3357421 0.32939574 -0.36046723
0002e0 a9 8c ab be 12 0b 0b 3e 95 6b 3a be 32 2e d6 3d
       -0.33505753 0.13578442 -0.18205102 0.1045803
0002f0 50 94 40 bc 31 8a d3 3c c7 50 42 be 20 98 2c 3d
       -0.01175411 0.02582273 -0.18976127 0.042137265
000300 e8 2a 17 3e eb e3 27 be 74 e1 93 be e4 ae b0 3d
       0.14762461 -0.16395538 -0.28882945 0.08627108
000310 c1 70 89 3e 0e 81 40 be 10 a6 0e be e9 8f 0a be
       0.26843837 -0.1879923 -0.13930535 -0.1353146
000320 0e 44 df bd ef f3 0f 3e f0 6b a5 3d 13 64 46 3e
       -0.10901652 0.14057897 0.08077228 0.19374113
000330 13 3f ef bc 28 d5 b7 bd b1 14 b5 be 2f d0 12 3e
       -0.02920488 -0.08976203 -0.3536735 0.14337228
000340 24 46 68 be 55 8b f6 ba e9 59 92 bd ec c0 b7 bd
       -0.22683007 -0.0018809835 -0.07146055 -0.08972344
000350 a3 f4 db bd c0 1c 85 bc 3a 93 11 bb 16 0f d8 3c
       -0.1074002 -0.01624906 -0.0022212998 0.026374381
000360 4a 38 d5 bd cc 2f 80 be 21 d3 10 be 91 52 96 3c
       -0.10411127 -0.25036466 -0.1414304 0.018349918
000370 5a 9f e9 bd 37 10 be bc 36 61 21 3e 22 73 ac 3d
       -0.11407347 -0.023201091 0.1575974 0.08420397
000380 fe 2d ae 3d 1d 2a 92 be b9 04 ea bd 7d e3 9d 3e
       0.08504866 -0.28547755 -0.11426682 0.30837622
000390 85 cb d4 3d 82 75 6b be f6 66 a2 bc f0 00 8b 3d
       0.10390381 -0.22994044 -0.019824486 0.06787288
0003a0 43 c2 32 bd 4b 45 50 3d d3 75 25 3e 0b c5 81 3e
       -0.043642294 0.050847333 0.16158228 0.25345644
0003b0 6d 0a 26 bd 2e 9a dc bc 0a ed 0b bd 9a 62 89 bd
       -0.040537287 -0.026928987 -0.034161605 -0.0670826
0003c0 96 03 05 3e e3 f8 0e 3d 59 7b 9f be 86 2f a8 be
       0.12989649 0.034905326 -0.31148794 -0.32848758
0003d0 8b 8d 88 3d 96 8a 8f 3d ee 91 30 3e fe bc 65 3d
       0.06667622 0.07008855 0.17243168 0.05608844
0003e0 7e d4 f5 bd 9c a0 e5 3d bd 0c 11 bd f8 c1 20 3e
       -0.1200342 0.112122744 -0.03541254 0.15698993
0003f0 99 e7 82 be b7 a4 42 be 22 aa b0 3d bd 80 f1 bc
       -0.2556732 -0.19008146 0.086262 -0.029480333

transformer.layers.0.1.branch.4.bias f4 [8]
000000 e7 ee 6d bd 49 c2 18 be 37 bc 4e 3e f9 b8 29 be
       -0.058089163 -0.14917864 0.20188986 -0.16574468
000010 ef 7d 80 3d 33 d3 26 3d 07 16 ee bd 6b 9a 0b be
       0.0627402 0.04072876 -0.11625295 -0.13633125

transformer.layers.0.1.norm.gamma f4 [8]
000000 ce c3 9c 3d 6a c2 88 3d 4f a4 f4 3d 6e c0 81 3d
       0.07654534 0.066777065 0.11945402 0.06335531
000010 b3 86 d2 3d ab 44 73 3c c2 d3 99 bb 7d 7c 1c 3d
       0.10279598 0.014847915 -0.004694433 0.03820466

transformer.layers.1.0.static_alpha f4 [4, 5]
000000 72 33 35 bd 00 00 80 3f 00 00 00 00 00 00 00 00
       -0.044238515 1.0 0.0 0.0
000010 00 00 00 00 93 f9 5c 3f 00 00 00 00 00 00 80 3f
       0.0 0.8631832 0.0 1.0
000020 00 00 00 00 00 00 00 00 62 76 10 be 00 00 00 00
       0.0 0.0 -0.1410766 0.0
000030 00 00 00 00 00 00 80 3f 00 00 00 00 4f 32 b8 bd
       0.0 1.0 0.0 -0.089939706
000040 00 00 00 00 00 00 00 00 00 00 00 00 00 00 80 3f
       0.0 0.0 0.0 1.0

transformer.layers.1.0.dynamic_alpha_fn f4 [8, 5]
000000 3b 47 72 bd 00 00 00 00 00 00 00 00 00 00 00 00
       -0.059149962 0.0 0.0 0.0
000010 00 00 00 00 ef 58 dd bc 00 00 00 00 00 00 00 00
       0.0 -0.027019946 0.0 0.0
000020 00 00 00 00 00 00 00 00 17 d5 15 bd 00 00 00 00
       0.0 0.0 -0.03658017 0.0
000030 00 00 00 00 00 00 00 00 00 00 00 00 8c dc 66 bd
       0.0 0.0 0.0 -0.056362674
000040 00 00 00 00 00 00 00 00 00 00 00 00 00 00 00 00
       0.0 0.0 0.0 0.0
000050 d3 ca 47 be 00 00 00 00 00 00 00 00 00 00 00 00
       -0.19510965 0.0 0.0 0.0
000060 00 00 00 00 97 f2 31 3e 00 00 00 00 00 00 00 00
       0.0 0.17377697 0.0 0.0
000070 00 00 00 00 00 00 00 00 09 91 ac bd 00 00 00 00
       0.0 0.0 -0.08426101 0.0
000080 00 00 00 00 00 00 00 00 00 00 00 00 95 57 4c be
       0.0 0.0 0.0 -0.19955285
000090 00 00 00 00 00 00 00 00 00 00 00 00 00 00 00 00
       0.0 0.0 0.0 0.0

transformer.layers.1.0.static_beta f4 [4]
000000 d6 a2 79 3f 5c 31 7f 3f 4d 63 73 3f 51 fb 88 3f
       0.9751409 0.9968469 0.95073396 1.0701696

transformer.layers.1.0.dynamic_beta_fn f4 [8]
000000 09 b9 a9 bd e3 75 ce 3c c4 50 b3 3d 11 90 79 3c
       -0.08287246 0.025202697 0.08755639 0.015232102
000010 c7 9a bf 3d a8 a1 6f 3e a7 56 03 3e de 10 19 3e
       0.09355693 0.2340151 0.12826024 0.1494784

transformer.layers.1.0.branch.norm.weight f4 [8]
000000 ce d8 7a 3f c1 74 8f 3f a9 2c 92 3f 08 3b 8a 3f
       0.9798707 1.1207505 1.1419879 1.0799265
000010 54 16 95 3f 37 ab 8b 3f 98 57 91 3f 3c f8 81 3f
       1.1647439 1.0911626 1.1354856 1.015388

transformer.layers.1.0.branch.norm.bias f4 [8]
000000 d9 18 b9 bb 13 1d 1a bb 22 f6 a3 3d b6 77 e2 bd
       -0.005648714 -0.0023515865 0.080059305 -0.11057989
000010 e5 a5 8d 3d 98 f3 03 3e 91 7d 87 bd e9 1b ae bc
       0.069164075 0.12885892 -0.06615747 -0.021253543

transformer.layers.1.0.branch.to_qkv.weight f4 [192, 8]
000000 5c cc ca be 40 db 60 bd 83 f2 c4 3e 8a 83 8a 3d
       -0.3960904 -0.054896593 0.38466272 0.0676337
000010 e2 cd 06 be 10 f4 5e 3e 50 63 b7 be 0e 21 08 3e
       -0.13164476 0.2177279 -0.35817957 0.1329386
000020 2b 3a b7 bd 1c 07 45 be d8 0d 9f 3e d3 5b d0 bd
       -0.089466415 -0.19240993 0.3106525 -0.10173764
000030 47 2e d9 be ab 3e 37 be ef fd 93 3e 03 e5 41 be
       -0.4241812 -0.17895 0.28904673 -0.18935017
000040 40 aa 53 3d 6f a5 91 be 8a dc a8 be 9f 05 a9 3e
       0.051676035 -0.28446528 -0.32980758 0.330121
000050 6c 7d 0b be 01 05 a2 be 1b 4a 32 3d 17 2c 8a 3e
       -0.13622063 -0.31644443 0.043527704 0.26986763
000060 9d a6 49 3e 6f 3b 5b be 0f c6 6d be 84 f3 7c 3e
       0.19692464 -0.21409391 -0.23220085 0.24702269
000070 f2 74 e3 3e 8d cb 00 3d 08 ad 6b be 6d a0 59 be
       0.4442516 0.03144412 -0.23015225 -0.21252604
000080 14 5b 9d 3e 5c ea 5c 3e 4d 91 5d 3c 63 a6 6e be
       0.3073355 0.21573776 0.013523412 -0.23305659
000090 a8 2e 34 be a8 93 41 be ce 85 e4 3e 21 87 64 3e
       -0.17595923 -0.18903983 0.44633335 0.22317173
0000a0 b6 d0 2e 3e 92 54 8f be 2d 2a 23 3d d1 f1 8b 3e
       0.17071804 -0.2799421 0.039835144 0.2733293
0000b0 cd 79 99 3d ef 8a bb bd 65 31 0a be 4f 6a 82 bc
       0.07493935 -0.09157359 -0.13495405 -0.015919833
0000c0 a9 65 a5 3e 7e 41 2a 3e eb a1 cc bd 5e 17 dd bd
       0.32304123 0.16626546 -0.09991821 -0.107954726
0000d0 e2 1c 30 be 8d 7a 88 3e 5e 18 a3 be a5 e9 99 be
       -0.17198518 0.26656 -0.31854528 -0.3006107
0000e0 29 ad c0 3d 70 f6 df 3d 35 dc 4d 3e f7 e8 1d be
       0.09408028 0.10935676 0.20103534 -0.154209
0000f0 ea 7e b8 bc 52 c4 22 3e 30 d2 eb bd 9c 17 62 3e
       -0.022521455 0.15895203 -0.115146995 0.22079319
000100 d8 b4 0c 3e 8e a2 02 be b0 94 99 be 6a a3 47 3e
       0.13740861 -0.12757322 -0.29996252 0.19495931
000110 1d e0 da bd 6c 76 81 be dc 27 f4 bd 8d 17 89 bd
       -0.106872775 -0.2528566 -0.11921665 -0.06693945
000120 f9 a7 87 bb a8 20 30 3e 19 7b 31 3e 12 5d cd 3d
       -0.004139897 0.17199957 0.17332114 0.100275174
000130 39 54 d5 3e f9 bb 6a 3e 6b 0c 86 be 98 8b 47 bd
       0.4166582 0.22923268 -0.2618135 -0.04871711
000140 b8 ec 20 be d0 61 de be 12 49 75 bd 32 a0 9b 3e
       -0.15715301 -0.43434 -0.05988414 0.30395657
000150 76 92 5d 3d 70 43 30 3e 68 b6 57 3e 67 7f ad 3e
       0.054094754 0.17213225 0.21065676 0.33886263
000160 4f ce 6d 3e 5c 94 28 3e e2 72 95 be 2f 8c ce be
       0.23223232 0.16462845 -0.2918921 -0.40341327
000170 d4 62 c7 3e 26 c1 12 3e 96 74 6b be 45 f4 0c be
       0.38942587 0.14331493 -0.22993693 -0.13765056
000180 dc d2 30 be 31 11 aa 3e 91 0a 4f 3e bf 0a 53 3e
       -0.17267936 0.3321624 0.20218875 0.20609568
000190 7f a1 9c be 7d d6 74 3d 4c ef df bd 25 b9 34 3e
       -0.30591962 0.059774864 -0.10934314 0.17648752
0001a0 25 4f cb bd 2b 25 28 bc 05 80 8e be ca 0b 83 3e
       -0.09927205 -0.010262768 -0.27832046 0.25594932
0001b0 5e 4e ac 3e aa ae 7f 3e 8b 82 27 be c5 de bd be
       0.3365354 0.24968973 -0.16358392 -0.37084022
0001c0 52 d4 22 3d 24 f4 0d 3e 04 2f 94 bc 62 83 3a be
       0.039753266 0.13862664 -0.018088825 -0.18214181
0001d0 a9 fb 7a bd 85 aa 8c be 2a 3a 45 be 98 2e 65 be
       -0.061275158 -0.27473846 -0.19260469 -0.22381055
0001e0 30 55 9d 3d 22 07 12 3d 3f 3c ca 3e c5 ac ce be
       0.07682264 0.035651334 0.3949909 -0.40366188
0001f0 62 c4 e4 3e 7a de 7a be f0 0a 3b 3e 7a f9 66 be
       0.44681078 -0.2449893 0.18265891 -0.22556105
000200 ab 9d 84 bd 72 a7 25 3e 76 68 5f be 26 9b be bc
       -0.06475385 0.16177157 -0.21817192 -0.02326734
000210 d8 b0 83 be 5b fa 7e 3e da 91 f0 3d 17 e9 91 be
       -0.2572086 0.2490019 0.11746569 -0.28498146
000220 2c 98 26 3e e7 2a a7 be 07 f7 b1 3e e8 c6 3a be
       0.16268986 -0.3264992 0.3475878 -0.18239939
000230 88 61 aa be 28 b1 c3 3d 6e 70 1d be a7 34 7d bc
       -0.33277535 0.09555274 -0.1537492 -0.015454448
000240 07 c5 62 3e 75 59 5a 3e ce 7a 1d bd 26 2b 1b bc
       0.22145472 0.21323188 -0.038447194 -0.009470737
000250 85 aa c3 be a9 7a a1 3d 54 29 95 3d 3e fb 8a 3e
       -0.38216034 0.07884724 0.07283273 0.27144808
000260 bf f9 64 3e 8e 4a 47 be 45 90 4a be 66 3e 42 be
       0.22360896 -0.19462034 -0.19781597 -0.18969116
000270 24 91 d5 3e b6 73 81 be cf f6 13 bc 67 a0 57 be
       0.41712296 -0.25283593 -0.009031012 -0.21057282
000280 d7 d5 5d be 4f 13 cf 3d 31 c5 42 3e 9e 59 1f be
       -0.21663605 0.10111105 0.19020535 -0.1556153
000290 bb a0 a6 be 29 1b d3 3c 28 13 93 bd e5 97 aa 3e
       -0.32544503 0.025769787 -0.07181388 0.3331901
0002a0 85 ff 48 3e 47 e2 b8 3d e0 48 e5 3d 94 f7 9d bd
       0.19628723 0.09027534 0.111955404 -0.077132374
0002b0 67 8b d6 3e a2 5a de 3d 33 a7 b2 be 8d 51 9b be
       0.4190323 0.108571306 -0.34893188 -0.30335656
0002c0 23 7a 82 3d 1c 7a dc be a0 bb 9f 3e cc fd bb be
       0.06370952 -0.43061912 0.31197834 -0.3671707
0002d0 db 91 58 be 01 53 01 3f 9e 9b 7c be 27 fe 03 3e
       -0.2114939 0.5051728 -0.24668738 0.1288992
0002e0 23 5c 34 3c 22 c0 4f be 45 1b 97 3e 6f ac ae be
       0.011008295 -0.20288137 0.29512993 -0.3411593
0002f0 a9 05 34 3d bd 9b 52 3e b3 70 23 bd 4b b9 27 be
       0.04395071 0.20567222 -0.0399024 -0.16379277
000300 5a f5 22 bd 7f f9 77 3d 93 a4 3f bd f9 43 8f 3e
       -0.039784767 0.060540672 -0.04678781 0.27981547
000310 05 e2 e2 be 11 47 9e be a1 7e 30 3e 43 62 62 3d
       -0.44313064 -0.30913594 0.17235805 0.05526949
000320 46 fb 4b bc a7 45 90 3e 3c 61 63 3e 90 d8 99 bd
       -0.012450045 0.2817814 0.2220506 -0.07512009
000330 bc 8a d0 be 23 07 8c 3c a8 8a c1 3e 27 ea e1 3e
       -0.40730846 0.017093247 0.378011 0.44123957
000340 1a 46 33 3d e0 56 e0 bd dd 54 bd 3e 1d 63 c8 bc
       0.043768026 -0.1095407 0.36978808 -0.024461323
000350 3e 32 25 bc 3d 79 43 be ac d4 91 3e 33 a5 55 3e
       -0.010082779 -0.19089217 0.28482568 0.208638
000360 7c e0 d4 3e da fa 17 be e2 ef ae 3e cb 88 75 bd
       0.41577518 -0.14841786 0.3416739 -0.05994491
000370 ea 3a aa ba 4b 73 9a bc b1 89 db bd b0 3f 13 3e
       -0.0012987528 -0.018853804 -0.10719622 0.14379764
000380 e6 de 4c be 48 41 9c bd c5 e7 6c 3e 78 b2 a4 3e
       -0.20006904 -0.07629639 0.23135288 0.3216741
000390 ea c9 ab 3e 2a c5 3a be 53 58 de 3d 85 89 95 be
       0.33552486 -0.18239275 0.1085669 -0.29206482
0003a0 a2 14 58 be 2a 87 fa 3d fa 11 cd bd ef 45 b0 3e
       -0.21101621 0.12232812 -0.100131944 0.34428355
0003b0 47 64 f5 3d 90 58 a6 be 1a 61 3f be 6a f1 d4 3e
       0.11982017 -0.32489443 -0.18689385 0.41590434
0003c0 46 76 92 be 82 93 84 be 99 b5 cb 3e 99 2b a1 be
       -0.2860586 -0.2589379 0.39786986 -0.31478575
0003d0 de ee 22 3e c7 c5 6c bd be f0 8c bd 4f 8a 87 be
       0.15911433 -0.057805803 -0.068818554 -0.2647271
0003e0 ec ad 79 be cb 6e 19 be 48 57 01 be 2f 9d cb 3c
       -0.24382752 -0.1498367 -0.12630951 0.024855224
0003f0 dc a3 8d be 1c b6 65 3e 48 cc 6d 3e 58 a1 cd 3e
       -0.27664077 0.2243275 0.23222458 0.40162158
