Projektarbeit_FTTransformer/trained_models/physical_error_training/model_lr0.00025_8_1_4_4_.3_.3Error_date_20250812_epoch9500.pt (torch, 97162 bytes, 87 tensors)

cls_token f4 [1, 1, 8]
0	0xbf8425c7	-1.0324029
1	0x3f431f89	0.76219994
2	0xbeaca362	-0.337184
3	0xbe426711	-0.18984629
4	0xbeb8f62c	-0.36125314
5	0xbf8dd41f	-1.1080359
6	0xbf0b6a15	-0.54458743
7	0xbda3fe37	-0.08007472

categorical_embeds.weight f4 [3, 8]
0	0xbebf4edf	-0.3736486
1	0xbeab6c87	-0.33481237
2	0xbf4478b8	-0.767467
3	0x3ed63d9c	0.4184388
4	0xbe94defb	-0.2907637
5	0x3f515cd1	0.8178225
6	0xbf71997c	-0.94374824
7	0xbf04dd7e	-0.5190047
8	0x3e76ca44	0.24100596
9	0x3eb1469d	0.34624186
10	0x3f65e7f3	0.8980705
11	0x3f2c486d	0.6729801
12	0x3f92816d	1.1445748
13	0xbdcf9631	-0.101360686
14	0xbfad0cf5	-1.3519579
15	0xbf0843d6	-0.5322851
16	0x3ed97bbd	0.42477217
17	0xbfef9f54	-1.8720498
18	0x3f74d572	0.9563819
19	0xbfde9971	-1.7390577
20	0xbfc23635	-1.5172793
21	0x3fe4e2c5	1.7881705
22	0xbf78c91f	-0.97181886
23	0xbf0d3a67	-0.5516724

numerical_embedder.weights f4 [8, 8]
0	0xbe06bc05	-0.13157661
1	0x3ef047f7	0.46929905
2	0x3ebc3346	0.3675787
3	0xbf73bad2	-0.9520694
4	0xc0067489	-2.1008627
5	0xbec6ef19	-0.38854292
6	0x3fbfb2e4	1.4976468
7	0x3ffc2e7f	1.970169
8	0xbf10bc68	-0.56537485
9	0xbf219ac9	-0.6312681
10	0x3f8562dd	1.0420796
11	0xbf5add9c	-0.854944
12	0xbf619627	-0.8811974
13	0xbed94a06	-0.42439288
14	0x3fb8dbf7	1.4442128
15	0x3e88ed7b	0.26743683
16	0xbf1f023b	-0.6211278
17	0x3e189ac7	0.14902793
18	0x3eb7e443	0.35916337
19	0xbee16118	-0.4401939
20	0x3f03b3df	0.51446337
21	0xbfac1d2b	-1.3446401
22	0x3f6d43cd	0.9268158
23	0x40604d45	3.5047162
24	0x3fe9b11d	1.8257176
25	0x3ea92b5d	0.33040896
26	0xbf1d5013	-0.6145031
27	0xbecc0829	-0.39849976
28	0xbe671400	-0.22566223
29	0xbe9d9f3d	-0.30785552
30	0x40029708	2.0404682
31	0x3ea098c1	0.31366542
32	0xbf301bbf	-0.6879234
33	0xbf0e735c	-0.55644774
34	0x3ec76698	0.3894546
35	0x3f8b7492	1.089495
36	0x3fb90f5c	1.4457812
37	0x3f3d161f	0.7386188
38	0x3e322659	0.17397441
39	0xbf983d4d	-1.1893708
40	0xbf73f394	-0.95293546
41	0xbf544011	-0.8291026
42	0x3f018736	0.5059694
43	0x3f276c27	0.653994
44	0xbf953d10	-1.165926
45	0x3d9da38a	0.07697208
46	0xbe57a216	-0.21057925
47	0xbf316ded	-0.6930836
48	0xbee8d87c	-0.45477664
49	0x3f47d706	0.78062475
50	0xbedf73f3	-0.4364315
51	0xbf7b697d	-0.9820784
52	0xbf8bb9a8	-1.0916033
53	0xbdbc20e9	-0.091859646
54	0x3de7e290	0.1132251
55	0x3f740530	0.95320415
56	0xbe683d42	-0.22679618
57	0x3f480548	0.7813306
58	0x3feb6713	1.8390831
59	0x3f089180	0.53347015
60	0x3e11fa30	0.14255595
61	0x3f987128	1.1909533
62	0x3f072620	0.5279255
63	0x3f3c7e68	0.7363038

numerical_embedder.biases f4 [8, 8]
0	0xbf238a27	-0.6388268
1	0xbe88a140	-0.26685524
2	0xbfecfbde	-1.8514364
3	0x3ed31df3	0.41233787
4	0x400c3e07	2.1912858
5	0x3f88e30a	1.0694287
6	0xbee7833f	-0.4521732
7	0xbd6737c3	-0.056449663
8	0x3fd861bf	1.690483
9	0xbecda63c	-0.4016589
10	0x4003d105	2.0596325
11	0x3fa314a5	1.2740675
12	0xbf089272	-0.5334846
13	0x3f01acec	0.5065448
14	0xbfe6ef46	-1.804177
15	0x3f5d2bf9	0.8639522
16	0xbf5d22c2	-0.8638116
17	0xbf321809	-0.69567925
18	0xbc6d57ae	-0.0144862365
19	0xbfbe2228	-1.4854174
20	0xbe80945a	-0.25113183
21	0x3fafa94b	1.3723539
22	0xbdd83f36	-0.105589315
23	0x3f010b89	0.50408226
24	0xbf8025a8	-1.0011492
25	0xbf35776a	-0.70885336
26	0x4021284e	2.518085
27	0xc0196f28	-2.3974094
28	0x3fa9d05c	1.3266711
29	0x3fbf3eaf	1.4941005
30	0xc0023827	-2.0346773
31	0xbe8117b2	-0.2521339
32	0x3cd9df38	0.026595697
33	0xbd8e8d10	-0.06960499
34	0xbe3be499	-0.18348922
35	0xbd7e635d	-0.06210648
36	0xbf831e18	-1.0243559
37	0x3edd73e2	0.43252474
38	0x3f64478c	0.8917167
39	0x3ef1b580	0.47208786
40	0xbe891891	-0.26776555
41	0xbef5cb27	-0.48006555
42	0xbf714515	-0.94246036
43	0xbf37293c	-0.71547294
44	0xbf8d9dd8	-1.1063795
45	0x3f985a94	1.1902642
46	0xbedb6d16	-0.42856663
47	0xbefcb45d	-0.49356356
48	0xbf807b47	-1.0037621
49	0xbf14ff97	-0.582025
50	0xbfa3bfc3	-1.2792896
51	0x3ffd45ad	1.9786888
52	0x3df685c8	0.120372355
53	0xbf741538	-0.9534488
54	0xbfdf8f0e	-1.7465532
55	0xc003e5f4	-2.0609102
56	0xbe944395	-0.2895781
57	0x3e43e26f	0.19129346
58	0xbf348167	-0.7050995
59	0x3e70e6fa	0.2352561
60	0xbf7b9e22	-0.98288167
61	0x3ed7602c	0.4206556
62	0xbebf3de1	-0.37351897
63	0xbf08f782	-0.53502667

transformer.layers.0.0.static_alpha f4 [4, 5]
0	0xbc7a813a	-0.015289599
1	0x3f800000	1.0
2	0x00000000	0.0
3	0x00000000	0.0
4	0x00000000	0.0
5	0x3f7c168c	0.98471904
6	0x00000000	0.0
7	0x3f800000	1.0
8	0x00000000	0.0
9	0x00000000	0.0
10	0xbc7a813a	-0.015289599
11	0x00000000	0.0
12	0x00000000	0.0
13	0x3f800000	1.0
14	0x00000000	0.0
15	0xbc7a813a	-0.015289599
16	0x00000000	0.0
17	0x00000000	0.0
18	0x00000000	0.0
19	0x3f800000	1.0

transformer.layers.0.0.dynamic_alpha_fn f4 [8, 5]
0	0xbbfc5179	-0.007700142
1	0x00000000	0.0
2	0x00000000	0.0
3	0x00000000	0.0
4	0x00000000	0.0
5	0x3d48c0e0	0.049012065
6	0x00000000	0.0
7	0x00000000	0.0
8	0x00000000	0.0
9	0x00000000	0.0
10	0xbc0be828	-0.008539237
11	0x00000000	0.0
12	0x00000000	0.0
13	0x00000000	0.0
14	0x00000000	0.0
15	0x3d0b8a64	0.034067526
16	0x00000000	0.0
17	0x00000000	0.0
18	0x00000000	0.0
19	0x00000000	0.0
20	0x3d39513b	0.045243483
21	0x00000000	0.0
22	0x00000000	0.0
23	0x00000000	0.0
24	0x00000000	0.0
25	0xbd4f9db6	-0.050687514
26	0x00000000	0.0
27	0x00000000	0.0
28	0x00000000	0.0
29	0x00000000	0.0
30	0x3ab079ef	0.0013464073
31	0x00000000	0.0
32	0x00000000	0.0
33	0x00000000	0.0
34	0x00000000	0.0
35	0x3b61b40c	0.0034439592
36	0x00000000	0.0
37	0x00000000	0.0
38	0x00000000	0.0
39	0x00000000	0.0

transformer.layers.0.0.static_beta f4 [4]
0	0x3f437187	0.76345104
1	0x3f437187	0.76345104
2	0x3f9582dc	1.168056
3	0x3f4a3746	0.7899059

transformer.layers.0.0.dynamic_beta_fn f4 [8]
0	0x3e8a96ed	0.27068272
1	0x3c961601	0.01832104
2	0x3e80fba0	0.25191975
3	0x3e4cb9da	0.19992772
4	0x3d9ac950	0.075579286
5	0x3dc59e6c	0.09649357
6	0x3ebb403f	0.36572453
7	0x3e97d706	0.29656237

transformer.layers.0.0.branch.norm.weight f4 [8]
0	0x3f85a5f4	1.044127
1	0x3f83ac19	1.0286895
2	0x3f673497	0.9031462
3	0x3f70f415	0.9412244
4	0x3f7fa094	0.998544
5	0x3f844bff	1.0335692
6	0x3f947b2d	1.160009
7	0x3f8debef	1.1087626

transformer.layers.0.0.branch.norm.bias f4 [8]
0	0xbe33d7a5	-0.1756273
1	0xbca24c88	-0.019811884
2	0x3e337dab	0.17528407
3	0xbcb6b5ef	-0.02230355
4	0xbde3a85c	-0.111160964
5	0x3e392287	0.18079577
6	0x3e4316e6	0.19051704
7	0x3d273f23	0.040831696

transformer.layers.0.0.branch.to_qkv.weight f4 [192, 8]
0	0x3da3d649	0.07999856
1	0xbda7df3c	-0.081968755
2	0xbe3776c4	-0.17916399
3	0xbda62b42	-0.081137195
4	0xbe8174bc	-0.25284374
5	0x3db08e08	0.0862084
6	0x3e2c6acf	0.16837619
7	0xbeeb0df8	-0.45909095
8	0x3e455578	0.19270885
9	0xbea2c8da	-0.31793863
10	0x3a97de5f	0.0011586657
11	0x3e5da4bf	0.21644877
12	0x3eb45bec	0.3522638
13	0xbdd671a5	-0.10470895
14	0x3d91099f	0.07081913
15	0x3e935761	0.28777602
16	0xbe882feb	-0.26599059
17	0xbe9069da	-0.28205758
18	0xbe8b159a	-0.27164918
19	0xbdd1a9be	-0.10237454
20	0xbe93af0a	-0.28844482
21	0xbe7f3b66	-0.24925002
22	0xbe2a9e3f	-0.16661929
23	0x3d97f9d5	0.074206986
24	0xbe431a86	-0.19053087
25	0x3c5f9df3	0.013648498
26	0xbec49e42	-0.3840199
27	0xbe42c994	-0.19022208
28	0xbde0f197	-0.109835796
29	0x3e6d1a77	0.23154627
30	0x3defafdc	0.117034644
31	0x3df39eb9	0.11895508
32	0xbe3ae368	-0.18250811
33	0xbe63df6d	-0.22253199
34	0x3e4f068c	0.20217341
35	0xbdaa7cfd	-0.08324621
36	0xbd59f270	-0.053209722
37	0x3b9c62eb	0.004772534
38	0x3ed6f35a	0.41982538
39	0x3efff398	0.49990535
40	0xbe4b7c98	-0.19871747
41	0xbd4fc041	-0.050720457
42	0x3dc60f0c	0.09670839
43	0x3e20f53b	0.15718548
44	0xbded1f5f	-0.11578249
45	0x3e890745	0.2676336
46	0xbe552de4	-0.20818287
47	0xbeb9ba1c	-0.36274803
48	0xbe8f282c	-0.27960336
49	0xbe373b90	-0.17893815
50	0x3dd2aa12	0.102863446
51	0x3db0267d	0.08601091
52	0xbe9a2c2a	-0.3011182
53	0x3eb67610	0.3563695
54	0xbf0c1962	-0.5472623
55	0x3e6367cb	0.22207563
56	0x3e99a8d3	0.30011615
57	0xbe2d861a	-0.16945687
58	0xbc7614ca	-0.015019605
59	0x3e833801	0.25628665
60	0xbe4fe38b	-0.20301645
61	0xbe4d5605	-0.20052345
62	0xbe436f22	-0.19085363
63	0xbe537466	-0.20649871
64	0xbe7ad9e2	-0.24497178
65	0xbe81a78c	-0.2532314
66	0xbd2903b3	-0.041263293
67	0x3e0478ce	0.12936708
68	0x3e6463aa	0.22303644
69	0xbcdcb5e9	-0.02694221
70	0xbd7b7340	-0.061389208
71	0xbe256ecc	-0.16155547
72	0xbe23c5ad	-0.15993376
73	0xbd5651f7	-0.05232426
74	0x3de7a3a3	0.11310508
75	0xbeae35ac	-0.34025323
76	0xbe92f7b3	-0.28704605
77	0xbde85aad	-0.1134542
78	0x3e3692f7	0.178295
79	0x3db92728	0.090406716
80	0xbe50a51c	-0.20375484
81	0xbe6fac0e	-0.23405477
82	0x3e85898c	0.26081502
83	0xbe3ebdf6	-0.18627152
84	0x3ea6301e	0.32458586
85	0x3e57aee6	0.21062812
86	0xbe213f54	-0.15746814
87	0xbeb8392c	-0.3598112
88	0x3e92e628	0.2869122
89	0x3e5a4876	0.21316704
90	0x3c98cc1e	0.018652018
91	0xbe394d71	-0.18095948
92	0x3e01c876	0.12674126
93	0xbe8a2deb	-0.26988158
94	0xbdd5fdc5	-0.10448793
95	0xbe83d383	-0.25747308
96	0xbe12aaee	-0.14323017
97	0x3e05f14a	0.13080326
98	0x3d8d631e	0.06903671
99	0xbde4807d	-0.1115732
100	0xbe3f69f1	-0.18692757
101	0xbe51cc32	-0.2048805
102	0x3da66906	0.081255004
103	0x3ea85120	0.32874393
104	0x3ec7475e	0.38921636
105	0x3de48ace	0.111592874
106	0xbe8533d9	-0.2601612
107	0xbe73f2c4	-0.23823076
108	0xbeb8d46d	-0.36099568
109	0xbd8ff67d	-0.07029436
110	0xbe3fae05	-0.18718727
111	0x3d7891f6	0.060686074
112	0xbec1187e	-0.37714
113	0xbd824bbf	-0.06362104
114	0xbe81d38e	-0.25356716
115	0xba91a342	-0.0011111277
116	0x3e53cf9e	0.20684668
117	0x3ed71888	0.42010903
118	0xbec6e4ab	-0.38846335
119	0x3e86f4cf	0.2635865
120	0x3dd606c5	0.1045051
121	0x3cbde599	0.02318077
122	0x3e86c081	0.26318744
123	0xbe65878c	-0.22414988
124	0xbe12f99c	-0.14353031
125	0x3e82e2c9	0.25563648
126	0xbedcf78f	-0.43157622
127	0x3eb26ddc	0.3484944
128	0xbd27c318	-0.04095754
129	0x3dd325c8	0.103099406
130	0xbe9da541	-0.3079014
131	0x3e3741bd	0.17896171
132	0x3e7ef77a	0.24899092
133	0x3e189350	0.14899945
134	0x3d8fd0f8	0.070222795
135	0x3e989b42	0.29805952
136	0xbd2b18b6	-0.041771613
137	0xbdbadbc4	-0.09123948
138	0xbc60d1df	-0.013721912
139	0xbd756649	-0.059912
140	0x3eb08097	0.34473106
141	0x3e21e703	0.1581078
142	0x3e774c6b	0.24150245
143	0x3e301fed	0.17199679
144	0xbeb16c04	-0.34652722
145	0x3e7bbc61	0.2458358
146	0x3e695404	0.22785956
147	0x3ed104aa	0.4082387
148	0xbd6305ba	-0.055425383
149	0x3eb33360	0.35000134
150	0xbe7777bc	-0.24166769
151	0xbdf90e14	-0.12160888
152	0xbe3918fd	-0.18075939
153	0xbe8a3a8c	-0.26997793
154	0x3d8f390e	0.06993304
155	0x3e92ba88	0.28657937
156	0x3dfabe29	0.122433014
157	0xbe825cf8	-0.25461555
158	0xbe32c77d	-0.17458911
159	0xbeb94694	-0.3618666
160	0x3eb5043e	0.353548
161	0x3e96fb33	0.29488525
162	0xbde2c9f6	-0.11073677
163	0xbce151e8	-0.027504876
164	0xbe8be6cf	-0.2732453
165	0xbe7caa6b	-0.24674384
166	0x3ead8f86	0.33898562
167	0x3c70eea2	0.014705332
168	0x3cad3c68	0.021146968
169	0x3e9c9d91	0.30588964
170	0x3e1571c4	0.1459418
171	0xbd73e9ea	-0.05954925
172	0x3e90c05f	0.28271767
173	0x3b40a43e	0.002939477
174	0xbe434ce6	-0.19072303
175	0xbe3a6e13	-0.18206052
176	0x3e977dcd	0.29588166
177	0xbe410263	-0.18848567
178	0xbea759fa	-0.32685834
179	0x3d840c80	0.06447697
180	0xbdc4760a	-0.09592827
181	0xbec37d80	-0.38181686
182	0xbddb92e6	-0.10721378
183	0x3eac7993	0.33686504
184	0xbe5624cb	-0.20912473
185	0x3ea20858	0.3164699
186	0xbe44f78d	-0.19235058
187	0x3e9888b4	0.29791796
188	0xbe46f9fb	-0.19431297
189	0x3e82604b	0.2546409
190	0xbee5174e	-0.44744343
191	0xbdd1a238	-0.10236019
192	0x3e59133f	0.21198748
193	0x3e857fd1	0.2607408
194	0x3e53a9e2	0.20670274
195	0xbcfecea6	-0.031104397
196	0x3dde8e36	0.10866968
197	0x3e8c16a1	0.27361014
198	0xbeaa39a6	-0.33247107
199	0xbd552a96	-0.052042566
200	0xbe78021c	-0.24219555
201	0xbd87d713	-0.06632819
202	0xbeaa09eb	-0.33210692
203	0x3d84ceba	0.064847425
204	0x3df27c43	0.11840107
205	0xbda0735e	-0.078345045
206	0xbd82f6bd	-0.06394718
207	0x3e47d0e9	0.19513287
208	0x3e36bd8e	0.17845747
209	0xbe412881	-0.18863107
210	0xbe97c25a	-0.29640466
211	0xbe6642c9	-0.22486414
212	0x3db7585c	0.089524
213	0xbeabd4a5	-0.33560672
214	0x3e0402d8	0.1289171
215	0x3e04004c	0.12890738
216	0xbea9542c	-0.3307203
217	0x3ec62bf3	0.38705406
218	0x3c003e18	0.007827304
219	0x3e0bc550	0.13649487
220	0x3da07848	0.07835442
221	0x3c4295f4	0.011876572
222	0xbd8f8773	-0.07008257
223	0x3e878bc1	0.2647381
224	0xbd5e0db0	-0.054212272
225	0x3d71a154	0.058991745
226	0x3ea64358	0.32473254
227	0x3e1ca4e5	0.15297277
228	0x3e8902a3	0.26759824
229	0x3dcf26a0	0.10114789
230	0xbe8357fb	-0.2565306
231	0x3e9dde89	0.30833843
232	0x3da9606b	0.082703434
233	0x3daea668	0.08527833
234	0xbd5824dc	-0.052769527
235	0x3e8b9574	0.2726246
236	0x3db024c9	0.08600766
237	0x3a9d2330	0.0011988636
238	0x3e1db5dc	0.15401405
239	0xbc830a1c	-0.015996031
240	0x3dd93ba6	0.1060708
241	0xbe4f1668	-0.20223391
242	0x3dd493fe	0.1037979
243	0x3e132c8a	0.14372459
244	0x3e2ffb9d	0.17185827
245	0x3d8b02fc	0.067876786
246	0xbe9f3c78	-0.31100821
247	0x3ef6312c	0.4808439
248	0x3dcb63b2	0.09931125
249	0x3daca22c	0.08429369
250	0x3d496b8d	0.049174834
251	0x3e25043d	0.16114898
252	0x3dc1fdd8	0.09472245
253	0xbd6cc83b	-0.057808142
254	0x3ed23591	0.41056493
255	0x3d9ddbb8	0.07707924

transformer.layers.0.0.branch.to_out.weight f4 [8, 64]
0	0x3dca12d7	0.09866875
1	0xbd761728	-0.060080677
2	0xbbd75d30	-0.006572388
3	0xbd696031	-0.0569765
4	0x3e655c54	0.22398502
5	0xbd7f5a9e	-0.06234228
6	0x3dd8ba12	0.10582365
7	0xbe895efe	-0.26830286
8	0x3daa2016	0.08306901
9	0x3d022521	0.03177369
10	0xbc92b027	-0.017906262
11	0xbdb2091d	-0.086931445
12	0xbe699e44	-0.2281428
13	0xbd9029bf	-0.070392124
14	0xbe0136fb	-0.1261863
15	0x3dba8e0d	0.09109125
16	0xbe84fc89	-0.2597392
17	0x3cc51559	0.02405803
18	0x3d4408b8	0.047859877
19	0x3e836b29	0.25667694
20	0x3df420bf	0.11920308
21	0x3c954522	0.018221442
22	0x3df6f73e	0.120588765
23	0x3da00a7d	0.078145005
24	0xbd16be2e	-0.036802463
25	0xbd3a295b	-0.045449596
26	0xbe1877f4	-0.14889508
27	0x3d08dac7	0.033411767
28	0x3d91ff6a	0.071287945
29	0x3ac24601	0.0014821888
30	0x3e011c91	0.12608553
31	0xbdba828a	-0.091069296
32	0x3d9220d7	0.0713517
33	0x3d1aea49	0.037821088
34	0xbe74a303	-0.23890309
35	0xbd8ba1d9	-0.06817979
36	0xbd70eab5	-0.058817584
37	0x3e1ed210	0.1550982
38	0x3e18bca5	0.14915712
39	0xbd4ae79d	-0.04953729
40	0x3da1b372	0.078955546
41	0xbe03e842	-0.12881568
42	0x3d537cec	0.051632807
43	0xbe1d7017	-0.1537479
44	0xbcc3b5f0	-0.023890465
45	0x3d595246	0.053056978
46	0x3e2a8ddb	0.16655676
47	0x3de93736	0.11387484
48	0xbd18c433	-0.037296485
49	0xbe2c8018	-0.16845739
50	0x3cd20424	0.02563674
51	0xbda23893	-0.07920947
52	0xbdc86fb5	-0.097869314
53	0x3e15c748	0.14626801
54	0xbe5cfdc1	-0.21581174
55	0x3e126ca4	0.14299256
56	0x3db30a75	0.08742229
57	0xbe8f8f3e	-0.28038973
58	0x3e375cb9	0.17906465
59	0xbe2803a2	-0.16407636
60	0xbe0cdf09	-0.13756956
61	0x3e1f63fe	0.15565488
62	0x3d9bfb66	0.0761631
63	0xbdab6f8f	-0.083708875
64	0x3d1898a3	0.03725494
65	0x3cfaa57b	0.030596485
66	0x3e177744	0.1479159
67	0x3dc3ef04	0.09567073
68	0xbd9d145a	-0.076698974
69	0x3dc42c61	0.09578777
70	0xbc0a8800	-0.0084552765
71	0xbd1053a2	-0.03523601
72	0xbe23015a	-0.15918484
73	0x3d05f9c9	0.032708917
74	0x3c194536	0.00935488
75	0xbd01479c	-0.031562433
76	0x3bbe1652	0.0058010006
77	0xbda8a605	-0.08234791
78	0xbe08572c	-0.13314503
79	0x3d77acb5	0.06046744
80	0xbde0e3b9	-0.10980935
81	0x3da3d893	0.08000293
82	0x3d14ceef	0.03633016
83	0x3cc7d09f	0.02439147
84	0x3d8bc5d0	0.06824839
85	0x3cc1da01	0.023663523
86	0x3cd282b3	0.025697088
87	0xbd0380ab	-0.03210513
88	0xbe0ff00f	-0.14056419
89	0xbcb54343	-0.0221268
90	0x3d0043e0	0.03131473
91	0x3d6be11f	0.05758774
92	0xbd51e571	-0.051244203
93	0xbd98e022	-0.07464625
94	0x3ca06eeb	0.01958414
95	0x3c8368a6	0.016041111
96	0x3bcc1f92	0.0062293494
97	0x3c1be950	0.009516075
98	0xbd7671bf	-0.06016707
99	0xbd5994a6	-0.053120278
100	0xbcdd9884	-0.027050264
101	0xbd19afab	-0.037521046
102	0x3daaa4d3	0.08332219
103	0x3c18b92f	0.009321495
104	0xbe1cd5a1	-0.15315868
105	0x3d1c918f	0.038224753
106	0x3dafa5dc	0.08576557
107	0xbe3ee7cc	-0.18643111
108	0xbd3dc4e3	-0.046330344
109	0xbd2d2419	-0.042270754
110	0xbd204dc4	-0.039136663
111	0x3de41df9	0.11138529
112	0x3d05bf88	0.03265336
113	0x3cb2aa06	0.02180959
114	0xbe20ffe3	-0.15722613
115	0x3d0b824e	0.034059815
116	0x3dc9d219	0.09854526
117	0x3e3355e6	0.17513236
118	0x3d241534	0.040059283
119	0x3d091341	0.033465628
120	0x3e315c42	0.1732035
121	0x3d4e2ca2	0.050335534
122	0x3d779fcf	0.06045514
123	0x3861f2c5	5.3870277e-05
124	0xbdf4fa41	-0.11961795
125	0x3dd83888	0.105576575
126	0x3d7ea5b0	0.06216973
127	0xbdb09fb0	-0.08624208
128	0x3d97b5fd	0.074077584
129	0x3dd94bff	0.10610198
130	0xbcfbffa0	-0.03076154
131	0x3d6c312a	0.057664074
132	0x3d91406a	0.07092364
133	0xbdef9623	-0.11698558
134	0x3df6e509	0.12055404
135	0x3bf53ec5	0.0074842894
136	0x3df0c110	0.11755574
137	0xbd81e39e	-0.06342243
138	0x3e21fee8	0.15819895
139	0x3dc39d15	0.095514454
140	0x3e375b5c	0.17905945
141	0x3d89aa1f	0.06721901
142	0x3e257e13	0.16161375
143	0x3db9d688	0.09074122
144	0x3dac5485	0.08414558
145	0xbdb700c7	-0.08935695
146	0xbd1465b3	-0.0362298
147	0xbd07d53d	-0.033162344
148	0xbdd89689	-0.10575587
149	0xbe46c8a1	-0.19412471
150	0xbe8711f0	-0.26380873
151	0xbd3406d8	-0.04395184
152	0x3d538a26	0.05164542
153	0x3e208f28	0.1567961
154	0x3d93a908	0.072099745
155	0xbd105314	-0.03523548
156	0x3e2b880b	0.16751115
157	0xbc6b83ac	-0.014374655
158	0xbde82a7e	-0.1133623
159	0xbdf5ea3f	-0.120075695
160	0xbb555302	-0.0032550697
161	0xbd55574b	-0.052085202
162	0x3bf18013	0.007370004
163	0x3d878924	0.066179544
164	0x3e0bbfbf	0.13647364
165	0x3e28b8ae	0.164767
166	0xbdd7f827	-0.10545378
167	0xbe3c2fb0	-0.18377566
168	0xbcf19161	-0.029488267
169	0x3cbf0038	0.023315534
170	0xbdaefac4	-0.085439235
171	0x3c277390	0.010220423
172	0xbdfa263a	-0.122143224
173	0x3cbff720	0.023433268
174	0x3d12fba8	0.03588453
175	0xbdb48a44	-0.088154346
176	0xbd5a7b48	-0.053340226
177	0x3dc6e83f	0.09712266
178	0x3dcf2d86	0.10116105
179	0x3e0c7a8f	0.13718627
180	0x3dd69dd1	0.1047932
181	0xbe0099bc	-0.12558645
182	0xbbc7c144	-0.006096037
183	0x3d32a7fa	0.043617226
184	0xbdec385b	-0.115341865
185	0xbe7b50a2	-0.24542478
186	0x3b3051df	0.0026904268
187	0xbdc59cd6	-0.09649055
188	0x3c7e0ceb	0.01550601
189	0xbdc6a15a	-0.09698744
190	0xbe370d46	-0.17876157
191	0x3db9c02e	0.090698585
192	0x3dbdbde8	0.09264737
193	0xbe410a44	-0.18851572
194	0x3e271bc6	0.16319188
195	0xbe0b4e86	-0.13604173
196	0xbcdd0629	-0.026980476
197	0x3c48fe37	0.012267641
198	0x3d8b4ab5	0.068013586
199	0xbe90fb03	-0.28316507
200	0xbd4450b1	-0.047928516
201	0x3dc8d064	0.09805372
202	0xbcc38c8b	-0.023870727
203	0xbd92179c	-0.071334094
204	0xbdc12219	-0.09430332
205	0x3e003cf9	0.12523259
206	0xbe2a1716	-0.16610369
207	0x3dca33a1	0.09873129
208	0xbe1f8781	-0.15579034
209	0xbd099eec	-0.033598825
210	0x3e12c61f	0.1433339
211	0x3d9edd3a	0.07757039
212	0x3e313880	0.1730671
213	0x3d55124d	0.052019406
214	0x3d31b470	0.04338497
215	0x3d04515b	0.03230415
216	0xbd94374b	-0.07237109
217	0xbce036cb	-0.027369877
218	0xbdd5bdec	-0.10436615
219	0xbd431f15	-0.047637064
220	0x3cf4d3c5	0.029886136
221	0xbdb44a97	-0.088032894
222	0xbe2c2b09	-0.16813292
223	0x3bc12cb4	0.0058952216
224	0x3e20cc5a	0.15702954
225	0xbdf649af	-0.12025773
226	0xbe75b74f	-0.23995708
227	0xbe1e0d91	-0.15434863
228	0xbdcfc698	-0.101453006
229	0x3da2e3b5	0.07953588
230	0x3dc0e819	0.09419269
231	0x3b037eff	0.002006471
232	0xbd5a3e13	-0.053281855
233	0x3bbb9cd5	0.005725483
234	0xbd6dd99b	-0.058068853
235	0xbe3f927c	-0.18708223
236	0xbe15b2be	-0.14618966
237	0xbd7dcab2	-0.061960883
238	0x3da35026	0.079742715
239	0x3d7d5eaa	0.061857857
240	0x3e215c28	0.15757811
241	0xbe133200	-0.14374542
242	0xbe24a373	-0.16077976
243	0xbe2343d3	-0.15943842
244	0xbe3b780b	-0.18307512
245	0x3e367015	0.17816193
246	0xbbdfcd3e	-0.0068298867
247	0x3d25fbc3	0.0405233
248	0x3e0733e5	0.1320339
249	0xbb9f9a21	-0.0048706685
250	0x3d427e13	0.047483515
251	0xbe178c23	-0.14799552
252	0xbe73ace5	-0.23796423
253	0x3e4f2449	0.20228685
254	0x3d7f0c3f	0.06226754
255	0xbe3a7b8f	-0.18211196

transformer.layers.0.0.norm.gamma f4 [8]
0	0x3e9bb78c	0.30413473
1	0x3d2b6685	0.041845817
2	0x3ea9f21c	0.33192527
3	0x3eb4ffbf	0.3535137
4	0x3db00a73	0.08595743
5	0x3e27df8b	0.16393869
6	0x3ecf2124	0.40454972
7	0x3e975a03	0.2956086

transformer.layers.0.1.static_alpha f4 [4, 5]
0	0x3e656ec5	0.22405536
1	0x3f800000	1.0
2	0x00000000	0.0
3	0x00000000	0.0
4	0x00000000	0.0
5	0x3e656ec5	0.22405536
6	0x00000000	0.0
7	0x3f800000	1.0
8	0x00000000	0.0
9	0x00000000	0.0
10	0x3f37da12	0.71817124
11	0x00000000	0.0
12	0x00000000	0.0
13	0x3f800000	1.0
14	0x00000000	0.0
15	0x3e5021e9	0.20325436
16	0x00000000	0.0
17	0x00000000	0.0
18	0x00000000	0.0
19	0x3f800000	1.0

transformer.layers.0.1.dynamic_alpha_fn f4 [8, 5]
0	0xbe23c98a	-0.1599485
1	0x00000000	0.0
2	0x00000000	0.0
3	0x00000000	0.0
4	0x00000000	0.0
5	0xbd3b7b55	-0.045771915
6	0x00000000	0.0
7	0x00000000	0.0
8	0x00000000	0.0
9	0x00000000	0.0
10	0xbe52eae2	-0.20597413
11	0x00000000	0.0
12	0x00000000	0.0
13	0x00000000	0.0
14	0x00000000	0.0
15	0xbe5f622a	-0.2181479
16	0x00000000	0.0
17	0x00000000	0.0
18	0x00000000	0.0
19	0x00000000	0.0
20	0xbd8e993a	-0.069628194
21	0x00000000	0.0
22	0x00000000	0.0
23	0x00000000	0.0
24	0x00000000	0.0
25	0xbbd58317	-0.0065158713
26	0x00000000	0.0
27	0x00000000	0.0
28	0x00000000	0.0
29	0x00000000	0.0
30	0xbdf41070	-0.11917198
31	0x00000000	0.0
32	0x00000000	0.0
33	0x00000000	0.0
34	0x00000000	0.0
35	0xbd6336d1	-0.0554722
36	0x00000000	0.0
37	0x00000000	0.0
38	0x00000000	0.0
39	0x00000000	0.0

transformer.layers.0.1.static_beta f4 [4]
0	0x3f4d96d4	0.8030827
1	0x3f4d96d4	0.8030827
2	0x3f97dac4	1.1863637
3	0x3f5d85f1	0.86532503

transformer.layers.0.1.dynamic_beta_fn f4 [8]
0	0x3dbe8e71	0.09304512
1	0x3d5913b9	0.052997325
2	0x3e24e8e1	0.16104461
3	0xbd0eb383	-0.034839164
4	0xbe7d01bb	-0.24707691
5	0x3d58874b	0.0528634
6	0x3dc0db45	0.09416822
7	0xbe347723	-0.17623572

transformer.layers.0.1.branch.0.weight f4 [8]
0	0x3f6bfd3a	0.9218327
1	0x3f87150a	1.0553296
2	0x3f926ca8	1.1439409
3	0x3f941912	1.1570151
4	0x3f92b3d4	1.1461129
5	0x3f8192d9	1.0122939
6	0x3fa33eb0	1.2753506
7	0x3f68f2f4	0.9099572

transformer.layers.0.1.branch.0.bias f4 [8]
0	0x3e035e69	0.12828983
1	0xbd6a4ba6	-0.05720105
2	0xbc658146	-0.014007872
3	0xbd804473	-0.06263056
4	0x3c07823f	0.008270799
5	0xbdfa78ab	-0.12230047
6	0x3dff2d4c	0.124598116
7	0xbc7dd7d6	-0.015493354

transformer.layers.0.1.branch.1.weight f4 [64, 8]
0	0xbe9c23e8	-0.30496144
1	0x3e85af0f	0.26110122
2	0x3e3c42f6	0.18384919
3	0x3ee13627	0.43986627
4	0xbe2c957e	-0.16853902
5	0xbe6733da	-0.22578374
6	0xbe8f4d97	-0.27988884
7	0xbee58593	-0.44828472
8	0xbe390288	-0.18067372
9	0xbea45b9e	-0.32101148
10	0xbcf92643	-0.030413752
11	0x3eba08d4	0.3633486
12	0x3e652a17	0.22379337
13	0xbe4561cf	-0.19275592
14	0xbe91257f	-0.2834892
15	0xbe20c7db	-0.15701239
16	0xbcd30d9b	-0.025763324
17	0x3d31f3cc	0.043445393
18	0x3e612095	0.21985085
19	0x3e9f666d	0.31132832
20	0x3cc2dde2	0.023787443
21	0x3caee3bb	0.021348825
22	0xbe8de220	-0.27711582
23	0x3e2d204a	0.16906849
24	0xbd3961b7	-0.045259204
25	0xbc0b128f	-0.008488311
26	0x3e8c03f0	0.27346754
27	0x3e48394c	0.19553107
28	0xbe90f397	-0.28310844
29	0x3d89a220	0.06720376
30	0xbea6278a	-0.3245204
31	0xbe6c9f94	-0.23107749
32	0x3e061123	0.13092475
33	0xbec5b76f	-0.3861651
34	0x3e15a84f	0.14614986
35	0x3d83db7f	0.0643835
36	0x3e104083	0.1408711
37	0xbcaf4f68	-0.021400169
38	0x3ee21192	0.4415403
39	0xbd92aab1	-0.07161463
40	0xbe90213b	-0.28150353
41	0xbc70c2c1	-0.01469487
42	0xbe6863cf	-0.22694324
43	0x3ed6a924	0.4192592
44	0x3e5138af	0.2043178
45	0x3da71089	0.08157451
46	0xbeb0b1f4	-0.34510767
47	0x3c729692	0.014806407
48	0x3d8944cb	0.06702574
49	0x3dc61d35	0.096735395
50	0xbc81a3e7	-0.015825225
51	0xbeabd849	-0.3356345
52	0x3d95ceb9	0.0731482
53	0x3d378458	0.044803947
54	0x3f082129	0.531756
55	0x3daa45f5	0.083141245
56	0xbdb382dd	-0.087651946
57	0x3ebc4b76	0.36776322
58	0xbe0f9eee	-0.1402547
59	0x3d60819d	0.05481111
60	0xbdefb2fe	-0.11704062
61	0x3bbe9ff0	0.005817406
62	0xbed21982	-0.41035086
63	0x3e1398de	0.14413783
64	0xbda8f104	-0.08249095
65	0x3d8f1b5e	0.06987642
66	0xbe12b645	-0.14327343
67	0xbe11facf	-0.14255832
68	0x3ec55a8b	0.3854564
69	0x3ec11028	0.3770764
70	0xbe959e56	-0.29222363
71	0xbd8b3ec1	-0.06799079
72	0xbe5ab186	-0.21356782
73	0xbeb9ab66	-0.3626358
74	0x3df5c9d4	0.12001386
75	0xbed92c46	-0.4241659
76	0xbe68c526	-0.22731456
77	0x3e981e61	0.29710677
78	0x3f0387bd	0.51378995
79	0xbe91d2c5	-0.28481117
80	0xbed9525e	-0.42445654
81	0xbba51fba	-0.0050391825
82	0xbc0082a1	-0.007843644
83	0x3e9d39eb	0.3070825
84	0x3eb18208	0.34669518
85	0x3e9c65e3	0.30546483
86	0xbe92206c	-0.2854036
87	0x3b9ac1e2	0.0047228197
88	0x3e4ba92d	0.19888754
89	0xbdf7434c	-0.12073383
90	0xbbc60aef	-0.006043784
91	0x3dfc744c	0.12326869
92	0x3e1d1662	0.1534057
93	0xbe8c06ef	-0.2734904
94	0x3f2ffbc0	0.68743515
95	0xbe2f95fe	-0.17147061
96	0xbc32a2ca	-0.01090307
97	0x3de88e12	0.11355223
98	0xbdcfdc7c	-0.10149476
99	0xbe55435c	-0.20826477
100	0xbe89bf56	-0.2690379
101	0xbcd3456e	-0.025789943
102	0x3e19fb21	0.15037204
103	0x3d1e183c	0.03859733
104	0x3ec1bcd5	0.3783938
105	0xbef626e4	-0.48076546
106	0xbe97150e	-0.2950825
107	0x3e35a379	0.17738141
108	0xbe971791	-0.29510167
109	0x3e596532	0.21230009
110	0x3e720ba0	0.23637247
111	0xbe871e16	-0.2639014
112	0x3ea4be69	0.3217652
113	0xbe31b00a	-0.1735231
114	0xbd4ae522	-0.049534924
115	0x3e4d9a11	0.20078303
116	0xbda9fc04	-0.08300021
117	0x3e18429c	0.1486916
118	0xbd8a2bf1	-0.067466624
119	0xbe6a0bed	-0.22856112
120	0x3dc8b9c4	0.09801057
121	0x3e86253b	0.2620028
122	0xbe696047	-0.22790633
123	0xbdb1f9e6	-0.086902425
124	0xbee70f5f	-0.45128915
125	0x3cdf6a5f	0.027272401
126	0x3e3e1562	0.18562844
127	0xbe732266	-0.2374359
128	0xbece3158	-0.4027202
129	0x3ec4276a	0.3831132
130	0xbec3bf45	-0.38231865
131	0xbd4b3927	-0.04961505
132	0x3d906c32	0.070518866
133	0x3e531bac	0.20616025
134	0xbdfd4cfe	-0.12368201
135	0x3de106aa	0.10987599
136	0x3ec3efa7	0.38268778
137	0xbe7ad499	-0.24495162
138	0xbdcfdaba	-0.10149141
139	0xbe6fee09	-0.23430647
140	0xbe1103d7	-0.14161621
141	0xbe99c99d	-0.3003663
142	0x3df32840	0.118729115
143	0xbe1a5f45	-0.15075405
144	0x3df3de6c	0.11907658
145	0x3b57ea4c	0.0032946048
146	0x3d13cf8e	0.03608661
147	0x3ceef317	0.029168649
148	0x3e149969	0.14511646
149	0xbe8b412c	-0.2719816
150	0x3d8929e3	0.066974424
151	0x3da08622	0.07838084
152	0x3e3ae98c	0.18253154
153	0x3d88ef21	0.06686235
154	0x3c11739d	0.008877662
155	0x3eb2930f	0.34877822
156	0x3e8c4b90	0.274014
157	0x3e92ffc2	0.28710753
158	0xbeed2bd3	-0.46322498
159	0xbe8c0d18	-0.2735374
160	0xbe5c782a	-0.21530214
161	0x3f08a0ab	0.5337016
162	0xbe7ab79a	-0.24484101
163	0x3e4e620b	0.20154588
164	0x3efa0c0a	0.4883731
165	0xbe57d1de	-0.21076152
166	0xbeed942b	-0.46402106
167	0x3e8f0216	0.2793128
168	0x3e2882c5	0.16456135
169	0x3e8b17e5	0.27166668
170	0xbe8d40f3	-0.27588615
171	0x3e7c42bf	0.24634837
172	0xbe149e94	-0.14513618
173	0xbe17b2c0	-0.14814281
174	0x3ee35ca6	0.44406623
175	0xbe9d61a7	-0.30738565
176	0x3e191eb0	0.14953113
177	0xbe47c99f	-0.19510506
178	0x3d4fc79a	0.050727464
179	0xbe341998	-0.17587888
180	0xbde45008	-0.11148077
181	0xbedaf0a6	-0.42761725
182	0x3eb4f995	0.35346666
183	0xbdfed991	-0.12443841
184	0xbeeaca9a	-0.45857698
185	0x3ed30c15	0.41220155
186	0x3ef80674	0.48442423
187	0x3d461528	0.04836002
188	0xbd356a34	-0.044290736
189	0x3e815920	0.2526331
190	0xbf0b6a2b	-0.54458874
191	0xbc11751d	-0.00887802
192	0xbeb44fbf	-0.3521709
193	0xbe0117f6	-0.12606797
194	0x3daac72b	0.083387695
195	0x3e98f2c1	0.29872707
196	0x3f053d6f	0.52046865
197	0xbca9064a	-0.020632882
198	0xbf339eb2	-0.70164025
199	0xbe001a28	-0.12509978
200	0xbe0afc74	-0.13572866
201	0xbddda088	-0.108216345
202	0xbe86c3d1	-0.2632127
203	0x3eb4c00f	0.3530278
204	0x3e24127f	0.1602268
205	0x3c7b87a8	0.015352167
206	0xbe1dcd42	-0.15410331
207	0x3d56d00d	0.052444506
208	0xbe15d7b9	-0.14633073
209	0xbccd57d1	-0.025066288
210	0x3debc8be	0.11512898
211	0x3ec594ca	0.3859008
212	0x3e0a80a3	0.13525634
213	0x3d81d059	0.06338567
214	0xbe0303d6	-0.12794432
215	0x3c0ea1ae	0.00870554
216	0x3e4be43a	0.1991128
217	0x3ebfd7b3	0.37469253
218	0xbe5493e9	-0.20759548
219	0x3e7d0c1c	0.2471165
220	0xbda22487	-0.07917123
221	0x3e537328	0.20649397
222	0x3ed62282	0.41823202
223	0x3e566dc1	0.20940305
224	0x3e3f9116	0.1870769
225	0xbea67c70	-0.32516813
226	0xbea99697	-0.33122703
227	0xbeb1b4ae	-0.3470816
228	0xbea970fe	-0.3309402
229	0xbe02bc6a	-0.12767187
230	0xbd453865	-0.048149485
231	0x3e9a0b4d	0.30086747
232	0xbc3cc65e	-0.011521904
233	0xbebe4cdf	-0.37168023
234	0xbedfb992	-0.43696266
235	0xbe254ffa	-0.1614379
236	0xbd3480ad	-0.044068027
237	0x3e0b2ea0	0.13592005
238	0x3f24f203	0.6443178
239	0xbe5bfc58	-0.2148298
240	0x3e9c9338	0.3058107
241	0x3e5a9035	0.21344073
242	0xbe1d5472	-0.15364245
243	0x3ed3606d	0.41284505
244	0x3eab1175	0.33411756
245	0x3d289a45	0.041162748
246	0x3d7cc3c9	0.061710153
247	0xbecd8ea0	-0.40147877
248	0xbe4960ee	-0.19665882
249	0x3e114ab1	0.14188649
250	0xbe8eccfb	-0.27890763
251	0x3ee9b004	0.45642102
252	0x3e82fcb6	0.25583428
253	0xbd97964f	-0.07401716
254	0xbda4e54b	-0.08051547
255	0x3e815517	0.2526023

transformer.layers.0.1.branch.1.bias f4 [64]
0	0xbe6f833a	-0.23389903
1	0x3e37b839	0.17941369
2	0x3ddd9712	0.1081983
3	0x3e90da02	0.28291327
4	0x3e577e22	0.2104421
5	0xbc8069ac	-0.015675388
6	0xbe85e4df	-0.26151177
7	0xbee4b6c1	-0.4467068
8	0xbe5b5248	-0.21418107
9	0x3e06ed1f	0.13176392
10	0xbd036518	-0.032078832
11	0x3ed8c1d7	0.42335388
12	0x3f120e1a	0.5705277
13	0xbea357bf	-0.31902882
14	0xbd34a91a	-0.04410658
15	0x3f24465c	0.6416986
16	0x3e5bf106	0.21478662
17	0xbeaeef1d	-0.34166804
18	0xbefaceec	-0.48985994
19	0xbeb7ffd8	-0.3593738
20	0xbc8447cd	-0.016147519
21	0x3e84dc57	0.25949356
22	0x3ef26d0d	0.47348824
23	0xbf078917	-0.5294356
24	0x3ea7847f	0.32718274
25	0xbe98c0e2	-0.29834658
26	0xbe1c16c4	-0.1524306
27	0xbed00f97	-0.40636894
28	0x3eab921d	0.33509913
29	0x3da1155b	0.07865401
30	0x3e73165a	0.23738995
31	0xbea8b76c	-0.3295244
32	0xbcc632de	-0.024194177
33	0x3d57efae	0.05271881
34	0x3e320885	0.17386062
35	0xbea43176	-0.32068986
36	0x3e2506ee	0.16115925
37	0x3e0e53c2	0.13899139
38	0xbe950b4c	-0.2911018
39	0x3cac6c75	0.02104781
40	0x3e8766d6	0.26445645
41	0xbe46e051	-0.19421507
42	0xbc9d06c3	-0.019168263
43	0x3e00c316	0.1257442
44	0x3e1f1279	0.1553439
45	0x3ec0e4f4	0.37674677
46	0xbe72f371	-0.23725678
47	0x3eb0c4ab	0.34525046
48	0x3e8b179a	0.27166444
49	0x3d2108c7	0.03931501
50	0x3e9003be	0.28127855
51	0x3e122d0f	0.14275001
52	0xbd7fd93a	-0.062463023
53	0xbe2ec7f1	-0.17068459
54	0xbeae3441	-0.34024242
55	0xbec1c6ea	-0.37847072
56	0xbda5a1a8	-0.08087474
57	0xbe3170d3	-0.17328195
58	0x3ef3bb95	0.4760405
59	0x3e29abb6	0.16569409
60	0x3e9a842f	0.30178973
61	0xbbcef9ec	-0.006316414
62	0xbe58b0eb	-0.21161239
63	0x3d1ba57b	0.03799961

transformer.layers.0.1.branch.4.weight f4 [8, 32]
0	0xbd0d746e	-0.034534864
1	0xbcca54e4	-0.024698682
2	0xbd9dc4d3	-0.07703557
3	0xbe4e7d33	-0.20164947
4	0x3d9ed9b8	0.0775637
5	0x3e10a7e9	0.14126553
6	0xbe44dcb8	-0.19224823
7	0xbe8392b5	-0.25697866
8	0xbd981283	-0.07425406
9	0x3d18d7fc	0.037315354
10	0x3ca6f748	0.020381585
11	0x3d530766	0.051520728
12	0x3d4dc246	0.0502341
13	0x3d98d5e3	0.07462671
14	0x3e4cd7a5	0.20004137
15	0xbe6f8517	-0.23390613
16	0xbd7eb83c	-0.06218742
17	0xbd9b799f	-0.07591557
18	0x3e237e91	0.1596625
19	0x3d065188	0.032792598
20	0xbdb9c125	-0.090700425
21	0x3e113b1b	0.14182703
22	0xbcbd1326	-0.02308042
23	0x3e118cf9	0.14213933
24	0xbc1a485d	-0.009416667
25	0x3e4cffa5	0.20019396
26	0xbdbc1e86	-0.091855094
27	0x3e6d2de1	0.23162033
28	0xbbba430b	-0.0056842617
29	0x3d2eca39	0.042673323
30	0x3e9f16f3	0.31072196
31	0x3e641009	0.22271742
32	0x3c94bd6c	0.01815673
33	0xbd922925	-0.07136754
34	0x3db1a1d8	0.08673447
35	0x3baf84d9	0.005356413
36	0xbe0ce939	-0.13760842
37	0xbeb0dd6d	-0.34543934
38	0xbe01658a	-0.1263639
39	0x3d937627	0.0720027
40	0x3e68fd3d	0.22752853
41	0xbe068dcc	-0.13140029
42	0x3d1891e4	0.037248507
43	0xbc1156f9	-0.008870834
44	0xbe9537d5	-0.2914416
45	0xba7d74f3	-0.0009668611
46	0x3d112b38	0.035441607
47	0x3e5aab9e	0.2135453
48	0x3d9913ff	0.07474517
49	0xbe8e4ccb	-0.27792963
50	0xbc917378	-0.017755255
51	0x3da5f8db	0.08104106
52	0x3d8af7b5	0.067855276
53	0xbe120d58	-0.14262903
54	0x3e911d83	0.28342828
55	0xbe3cf6d2	-0.1845353
56	0xbea1c78c	-0.31597555
57	0xbdd2b7cd	-0.102889635
58	0xbd42d70c	-0.047568366
59	0xbe114e1f	-0.14189957
60	0x3dac94f5	0.08426849
61	0x3e294e92	0.16533878
62	0x3ce9f190	0.028557569
63	0xbde54fa3	-0.1119683
64	0xbdf5b951	-0.11998237
65	0xbe899ed5	-0.26878992
66	0xbd37fd47	-0.04491928
67	0xbe128e00	-0.14311981
68	0x3dd727ab	0.10505613
69	0x3e0a9d6f	0.13536619
70	0x3df61519	0.12015743
71	0xbe3e7f66	-0.18603286
72	0x3c2cbe31	0.010543392
73	0x3e1a6dec	0.15080994
74	0xbe31337b	-0.17304794
75	0x3cf35c8d	0.029707218
76	0xbb37909a	-0.0028009773
77	0x3d9971f8	0.07492441
78	0x3e24e59f	0.16103218
79	0xbe5c4ae9	-0.21512951
80	0x3dc37869	0.09544451
81	0xbd820cd4	-0.06350103
82	0x3cc2d01e	0.023780879
83	0xbe117276	-0.1420382
84	0xbde0295a	-0.10945387
85	0x3dbbc7e4	0.091689855
86	0xbe856b56	-0.26058453
87	0x3eca30c5	0.39490333
88	0x3e30ff39	0.1728486
89	0x3cc54c6f	0.024084298
90	0x3be6b81e	0.0070409914
91	0x3dbc3b38	0.091909826
92	0x3de7a3cb	0.11310538
93	0xbe7064c5	-0.2347594
94	0x3cff1143	0.03113616
95	0x3d0d5d29	0.034512673
96	0x3e2d3eb2	0.16918448
97	0x3d021d6e	0.031766348
98	0xbd484e6e	-0.04890292
99	0x3c3e154b	0.011601756
100	0xbd680618	-0.056646436
101	0xbdc593f9	-0.09647364
102	0xbea1ce37	-0.31602642
103	0xbc236651	-0.009973125
104	0x3de82af0	0.11336315
105	0xbe4bfb9d	-0.19920202
106	0x3d80fec1	0.062985905
107	0x3de6fb65	0.112784185
108	0xbddc9a76	-0.107716486
109	0x3d405c59	0.04696307
110	0x3bfec74f	0.0077752243
111	0xbe82ffc8	-0.2558577
112	0xbdfe4ff5	-0.12417594
113	0xbe53f0c8	-0.2069732
114	0x3e0a457b	0.13503067
115	0xbd52dece	-0.051482014
116	0x3e2a83ad	0.16651793
117	0x3d04e57e	0.032445423
118	0x3e15e319	0.14637412
119	0xbd5851db	-0.05281244
120	0xbe9fbb4d	-0.31197587
121	0x3e08cb9f	0.13358925
122	0x3d8c171f	0.068403475
123	0xbe1e9575	-0.15486701
124	0x3cdb48d1	0.02676812
125	0x3e9d6d4b	0.30747446
126	0x3e50fb2c	0.20408314
127	0x3d77a3a6	0.0604588
128	0xbdbf1208	-0.09329611
129	0xbdf6f174	-0.12057772
130	0xbe152f8c	-0.14568919
131	0x3e038736	0.12844548
132	0x3e60ca1c	0.21952099
133	0x3c94ad9b	0.018149188
134	0x3cf06cc0	0.029348731
135	0xbd8aaa97	-0.06770819
136	0xbe1843a9	-0.1486956
137	0x3df4373a	0.11924596
138	0xbe231a1f	-0.15927933
139	0x3e0af5f8	0.13570392
140	0x3e16260c	0.14662951
141	0x39deb947	0.00042481182
142	0x3dea7e12	0.11449827
143	0xbec62849	-0.3870261
144	0xbda9b4ed	-0.08286462
145	0xbc66ca97	-0.014086387
146	0x3ddbfa94	0.10741153
147	0x3d649dd5	0.055814583
148	0xbdb90aa3	-0.09035232
149	0x3df32e81	0.11874104
150	0xbeaae350	-0.3337655
151	0x3e9d1a85	0.30684295
152	0x3d3eebf6	0.04661175
153	0x3e20164a	0.15633503
154	0xbe0cb829	-0.13742127
155	0xbbf0d8bd	-0.007350056
156	0x3e142acc	0.1446945
157	0xbd14fcb0	-0.036373794
158	0x3e2871cb	0.16449659
159	0x3d712cca	0.058880605
160	0x3d0ae81a	0.033912756
161	0xbe4361f2	-0.19080332
162	0xbe92fa91	-0.28706792
163	0x3e35c816	0.17752108
164	0x3eb9b249	0.36268833
165	0x3e14fcba	0.14549533
166	0x3d15eddd	0.036603797
167	0xbe18c6c9	-0.1491958
168	0xbec05ddf	-0.37571618
169	0x3e1040c8	0.14087212
170	0xbde73f02	-0.11291315
171	0x3e3ddc15	0.18540986
172	0x3edc137a	0.4298361
173	0xbe8c7499	-0.27432707
174	0xbe4859f0	-0.19565558
175	0xbe85bf6f	-0.26122615
176	0x3ca08215	0.019593278
177	0x3eb38739	0.35064104
178	0x3e01d8d5	0.12680371
179	0xbe484aa6	-0.19559726
180	0xbe9d6ce3	-0.30747136
181	0x3e2d4856	0.16922125
182	0xbf05c521	-0.5225392
183	0x3ea5f01d	0.32409754
184	0x3f01484b	0.50500935
185	0x3dd2bf4f	0.102903955
186	0xbe8a64b3	-0.27029952
187	0x3da400de	0.08007978
188	0x3e7cf6bb	0.24703495
189	0xbeaca779	-0.33721521
190	0xbc1b8d92	-0.009494202
191	0x3d957286	0.07297234
192	0x3e5bc088	0.21460164
193	0x3dc4af96	0.09603803
194	0x3dd8f936	0.10594408
195	0xbe37770d	-0.17916508
196	0xbd98d074	-0.07461634
197	0xbdf317c6	-0.11869769
198	0xbd584814	-0.052803114
199	0x3ec97cb7	0.39352962
200	0x3e09e470	0.13466048
201	0xbe18dfac	-0.14929074
202	0x3e39a3e8	0.18128932
203	0xbe6b8625	-0.23000391
204	0xbde7d619	-0.11320133
205	0xbe317c85	-0.17332657
206	0xbe20891e	-0.15677306
207	0x3e8a01e5	0.2695457
208	0x3e049abb	0.1294965
209	0x3d954954	0.07289377
210	0xbd31f4e8	-0.04344645
211	0x3eacdc74	0.33761942
212	0xbd164daa	-0.03669516
213	0x3d943d12	0.07238211
214	0x3e0743d5	0.1320947
215	0xbea0f97a	-0.31440336
216	0x3d35419c	0.044252023
217	0xbd88879f	-0.06666493
218	0x3e8200d8	0.2539127
219	0x3e03ae90	0.12859559
220	0xbe73a2ed	-0.2379262
221	0x3e8c0907	0.27350637
222	0xbdae803f	-0.08520555
223	0xbd0712a3	-0.032976758
224	0x3d5629f3	0.0522861
225	0x3dda134e	0.10648213
226	0x3daf4d17	0.085596256
227	0xbe2c7f98	-0.16845548
228	0x3ca199b0	0.019726604
229	0xbe69970d	-0.22811528
230	0xbd7c216b	-0.061555307
231	0x3dd24bac	0.102683395
232	0x3e05d8df	0.13071011
233	0xbd30451b	-0.043034654
234	0x3ded70b1	0.1159376
235	0xbe0e9135	-0.1392258
236	0xbe19db90	-0.15025163
237	0xbe055cef	-0.13023733
238	0xbc55fb2b	-0.013060371
239	0x3eb6f16d	0.35731068
240	0x3e2e4275	0.17017539
241	0xbdfec691	-0.12440217
242	0xbe68fbc9	-0.22752298
243	0x3e8e0e4d	0.27745286
244	0x3dfe4032	0.12414588
245	0xbd67928b	-0.05653624
246	0x3d83a6c6	0.06428294
247	0xbdbf26bf	-0.09333562
248	0x3e21721b	0.15766184
249	0xbe58c382	-0.2116833
250	0x3e012d37	0.12614904
251	0x3dc07762	0.093977705
252	0xbea5ff6d	-0.32421437
253	0xbb0412f4	-0.0020152899
254	0xbe701c85	-0.2344838
255	0xbde6755c	-0.11252853

transformer.layers.0.1.branch.4.bias f4 [8]
0	0xbd5d6358	-0.05404982
1	0xbe49e673	-0.19716816
2	0x3d9bd581	0.07609082
3	0xbe51f7e1	-0.20504715
4	0xbe2f5c54	-0.17125064
5	0x3eca4a14	0.39509642
6	0x3dc6b32b	0.09702142
7	0x3ddfebc1	0.10933638

transformer.layers.0.1.norm.gamma f4 [8]
0	0x3d6641d0	0.056215107
1	0x3cf4ed05	0.029898176
2	0x3eb78bc2	0.35848814
3	0x3dc8fb3e	0.09813546
4	0x3e6b9af4	0.23008329
5	0x3d420955	0.04737218
6	0x3e1f34e8	0.15547526
7	0x3ee80424	0.4531566

transformer.layers.1.0.static_alpha f4 [4, 5]
0	0xbdf5c24b	-0.11999949
1	0x3f800000	1.0
2	0x00000000	0.0
3	0x00000000	0.0
4	0x00000000	0.0
5	0xbdf5c24b	-0.11999949
6	0x00000000	0.0
7	0x3f800000	1.0
8	0x00000000	0.0
9	0x00000000	0.0
10	0x3f6281dc	0.884794
11	0x00000000	0.0
12	0x00000000	0.0
13	0x3f800000	1.0
14	0x00000000	0.0
15	0xbdfa1b27	-0.1221221
16	0x00000000	0.0
17	0x00000000	0.0
18	0x00000000	0.0
19	0x3f800000	1.0

transformer.layers.1.0.dynamic_alpha_fn f4 [8, 5]
0	0x3cdb475e	0.026767429
1	0x00000000	0.0
2	0x00000000	0.0
3	0x00000000	0.0
4	0x00000000	0.0
5	0x3dbb8272	0.0915574
6	0x00000000	0.0
7	0x00000000	0.0
8	0x00000000	0.0
9	0x00000000	0.0
10	0x3c6b5199	0.014362716
11	0x00000000	0.0
12	0x00000000	0.0
13	0x00000000	0.0
14	0x00000000	0.0
15	0x3d04d1ac	0.03242652
16	0x00000000	0.0
17	0x00000000	0.0
18	0x00000000	0.0
19	0x00000000	0.0
20	0x3df30e92	0.118680134
21	0x00000000	0.0
22	0x00000000	0.0
23	0x00000000	0.0
24	0x00000000	0.0
25	0xbd28eb47	-0.041240003
26	0x00000000	0.0
27	0x00000000	0.0
28	0x00000000	0.0
29	0x00000000	0.0
30	0x3e3d3a15	0.18479188
31	0x00000000	0.0
32	0x00000000	0.0
33	0x00000000	0.0
34	0x00000000	0.0
35	0x3e35e37f	0.17762564
36	0x00000000	0.0
37	0x00000000	0.0
38	0x00000000	0.0
39	0x00000000	0.0

transformer.layers.1.0.static_beta f4 [4]
0	0x3f28b5d8	0.6590247
1	0x3f28b5d8	0.6590247
2	0x3f9ee9ae	1.2415063
3	0x3f44d4e8	0.7688737

transformer.layers.1.0.dynamic_beta_fn f4 [8]
0	0x3effd592	0.4996763
1	0xbeaa2866	-0.33233947
2	0x3ed334fe	0.41251367
3	0x3edd1ae0	0.43184566
4	0xbecbe883	-0.3982583
5	0xbcf0d204	-0.029397018
6	0x3f0628d2	0.52406037
7	0xbe7ca9e3	-0.24674182

transformer.layers.1.0.branch.norm.weight f4 [8]
0	0x3f8a4c23	1.0804485
1	0x3f880a23	1.0628093
2	0x3f7e02c7	0.9922299
3	0x3f8fb9fd	1.1228634
4	0x3f8dafa2	1.1069224
5	0x3f9daebf	1.2318953
6	0x3f89a640	1.075386
7	0x3f85bbf2	1.0447981

transformer.layers.1.0.branch.norm.bias f4 [8]
0	0xbdd0ac60	-0.10189128
1	0xbd64ee83	-0.055891525
2	0x3d9cb95d	0.07652543
3	0xbcec7c34	-0.028867818
4	0xbe8102be	-0.25197405
5	0x3d8994f2	0.06717862
6	0x3e21d73e	0.15804765
7	0x3e3aacd6	0.18229994

transformer.layers.1.0.branch.to_qkv.weight f4 [192, 8]
0	0xbe95204f	-0.29126212
1	0x3ed54c9c	0.4166001
2	0x3dbf9226	0.093540475
3	0x3db1bad7	0.08678215
4	0x3dc4d949	0.09611756
5	0x3e108e2f	0.14116739
6	0x3e826777	0.25469562
7	0xbb5ae27a	-0.003339915
8	0xbd969e88	-0.07354456
9	0xbe7fb5cd	-0.24971695
10	0x3daf7afd	0.0856838
11	0x3e92d2bb	0.286764
12	0xbebbab95	-0.36654344
13	0xbe8e1cf1	-0.27756456
14	0xbe30e4d4	-0.17274791
15	0xbe9f3c77	-0.3110082
16	0x3c098160	0.008392662
17	0x3e0ef66f	0.13961194
18	0xbde8b9bc	-0.11363551
19	0x3e93d042	0.28869826
20	0xbebd3022	-0.36950785
21	0xbe9e73b2	-0.30947644
22	0xbe76b41d	-0.24092145
23	0x3dd77d3c	0.105219334
24	0xbe663bd3	-0.22483759
25	0xbd78fcca	-0.060787953
26	0xbd492916	-0.04911145
27	0xbe59e91c	-0.2128033
28	0xbd9d61ea	-0.07684691
29	0x3e6632c8	0.22480309
30	0xbee43f09	-0.44579342
31	0x3e182d67	0.1486107
32	0xbe79f38e	-0.24409315
33	0x3d740a7d	0.059580315
34	0xbe0b254b	-0.13588445
35	0xbcdb1f9b	-0.02674847
36	0xbeabca9f	-0.33553025
37	0xbe808dc3	-0.25108156
38	0x3eb4c98b	0.35310015
39	0xbe0bb572	-0.13643435
40	0xbe18f25b	-0.14936201
41	0x3e34d122	0.17657903
42	0xbe1beaf7	-0.1522635
43	0x3e848a1b	0.25886616
44	0x3eae7732	0.34075314
45	0x3d75c5e5	0.06000318
46	0xbe0304a3	-0.12794738
47	0x3e8d941d	0.27652064
48	0x3e9484e9	0.29007652
49	0xbdbf7319	-0.09348125
50	0x3e9f17c7	0.31072828
51	0xbe8789a2	-0.26472193
52	0xbe058eee	-0.13042805
53	0xbe2c5f13	-0.16833143
54	0x3e135153	0.14386491
55	0x3d77b26a	0.060472883
56	0x3e760bf1	0.24027993
57	0x3e269689	0.16268362
58	0x3e98e29f	0.29860398
59	0xbe2177d6	-0.1576837
60	0xbea6ad12	-0.32553917
61	0x3e003cdb	0.12523215
62	0x3e0d79db	0.13816015
63	0xbe1455fe	-0.14485928
64	0x3e9deb33	0.30843505
65	0xbed19747	-0.40935728
66	0x3e699ab3	0.2281292
67	0x3d91aacc	0.07112655
68	0x3e729c4b	0.23692434
69	0xbebf3752	-0.37346894
70	0xbe5979ae	-0.21237823
71	0xbe47adc3	-0.19499879
72	0x3d4450b5	0.04792853
73	0xbe81b297	-0.25331566
74	0xbe9f13b9	-0.31069735
75	0xbd3bfa28	-0.045892864
76	0xbe18b3e3	-0.14912371
77	0x3e0c67d3	0.13711481
78	0xbd830da7	-0.06399088
79	0x3aa80ca9	0.0012821156
80	0xbe8a873c	-0.270563
81	0x3e83a455	0.25711313
82	0xbdc8422e	-0.09778248
83	0x3dc6ea37	0.09712642
84	0xbe412e1a	-0.18865243
85	0xbdc44f15	-0.09585396
86	0xbe25ca1f	-0.16190384
87	0x3e2ea0b3	0.1705349
88	0x3e848304	0.25881207
89	0x3e44d96a	0.19223562
90	0xbe4f708e	-0.2025778
91	0x3d649c74	0.055813268
92	0xbe3efe3e	-0.18651673
93	0xbc98f3b2	-0.01867089
94	0xbe915af5	-0.28389707
95	0x3d0ea600	0.03482628
96	0xbe476ad9	-0.19474353
97	0x3ecb5382	0.3971215
98	0x3def59f8	0.11687082
99	0x3ea60de2	0.32432467
100	0xbe40a3f8	-0.18812549
101	0xbefbd804	-0.49188244
102	0x3d587a0f	0.05285078
103	0xbe2b7746	-0.16744718
104	0xbcfd9a75	-0.03095744
105	0xbecce884	-0.40021145
106	0xbce35eb5	-0.02775512
107	0xbe7b2ccb	-0.24528806
108	0x3c6eb29b	0.01456895
109	0x3ee80b99	0.45321348
110	0x3e532ad7	0.20621811
111	0xbdabb122	-0.08383395
112	0xbe252f07	-0.16131221
113	0x3e832bad	0.2561926
114	0xbdcf0092	-0.10107531
115	0xbe509ad1	-0.20371558
116	0xbe0488a5	-0.12942751
117	0x3e4d1b2b	0.20029895
118	0xbe1eef17	-0.15520893
119	0xbe15a4cf	-0.1461365
120	0x3e0f026f	0.13965772
121	0xbe9b54cf	-0.3033814
122	0xbe197db7	-0.14989363
123	0xbdc1baaa	-0.094594315
124	0x3ef0e6bd	0.4705104
125	0xbe466551	-0.19374587
126	0x3e2f235d	0.17103334
127	0xbdbfefd3	-0.09371915
128	0x3e0dc7ce	0.1384575
129	0x3e9343a9	0.28762558
130	0x3d1b2010	0.037872374
131	0x3ebb9930	0.3664031
132	0xbdfc48ed	-0.12318597
133	0xbee1ff91	-0.44140294
134	0x3e6875b7	0.22701155
135	0xbe66a103	-0.22522359
136	0xbe86c2c8	-0.2632048
137	0xbe194551	-0.14967848
138	0xbdd0a301	-0.101873405
139	0xbdebabaa	-0.11507352
140	0xbe4cf54d	-0.2001545
141	0xbe817b17	-0.25289223
142	0x3d26df55	0.04074033
143	0x3cbb185a	0.02283876
144	0x3e783df7	0.24242388
145	0xbec8e893	-0.3923994
146	0x3e499584	0.19685942
147	0xbdad3742	-0.08457805
148	0xbe2e25e6	-0.17006645
149	0x3d352ca9	0.044232044
150	0x3ea0d28c	0.31410635
151	0x3dfc863c	0.12330291
152	0xbe60f56b	-0.2196862
153	0xbc7bad3f	-0.015361129
154	0x3eb64e04	0.35606396
155	0xbeae7e1e	-0.34080595
156	0x3e8323b8	0.2561319
157	0x3de49f0b	0.111631475
158	0x3e005637	0.12532888
159	0xbe972359	-0.29519156
160	0x3da203bd	0.07910869
161	0xbea684b4	-0.3252312
162	0xbc03408d	-0.008010996
163	0xbeb1d2d9	-0.34731176
164	0xbe95137e	-0.29116434
165	0x3d47c72a	0.048773922
166	0x3e8fe116	0.28101414
167	0x3d802682	0.06257345
168	0xbeb0b130	-0.34510183
169	0x3e97c77b	0.2964438
170	0xbdd028c9	-0.10164029
171	0xbe4d8936	-0.20071873
172	0x3df9979c	0.1218712
173	0xbc45e209	-0.012077817
174	0xbed3e352	-0.4138437
175	0x3e06cab7	0.13163267
176	0x3e5c81d1	0.21533896
177	0x3cce50a6	0.02518494
178	0x3eae0cab	0.3399404
179	0xbe8deb34	-0.27718508
180	0x3e251400	0.1612091
181	0x3d83f500	0.064432144
182	0xbe79000f	-0.24316429
183	0x3e2dd4a1	0.16975643
184	0x3e76a225	0.2408529
185	0x3c99e237	0.018784625
186	0xbdfc0fb1	-0.123076804
187	0xbdd169dc	-0.10225269
188	0xbe52f010	-0.20599389
189	0xbeb6230b	-0.3557361
190	0x3e6a2166	0.22864303
191	0x3d918a06	0.07106404
192	0xbd7d401b	-0.061828714
193	0xbded6053	-0.11590638
194	0xbe46485b	-0.19363539
195	0xbe97d8b7	-0.29657528
196	0xbd913d13	-0.07091727
197	0x3dbffd11	0.093744405
198	0xbd99b235	-0.075046934
199	0xbc049d80	-0.008094192
200	0x3e68d6c3	0.22738175
201	0xbe244b61	-0.1604438
202	0xbd65ccb3	-0.05610342
203	0x3d81ec9c	0.06343958
204	0x3e89cb9d	0.26913157
205	0xbec54b83	-0.38534173
206	0x3e752411	0.2393954
207	0x3e181caf	0.14854692
208	0xbd53dd64	-0.051724806
209	0xbebb7f7f	-0.3662071
210	0x3e0b5de3	0.13610034
211	0xbcff1f88	-0.031142965
212	0x3eb099cc	0.34492338
213	0x3cb67800	0.022274017
214	0xbe822628	-0.25419736
215	0xbdd43410	-0.10361493
216	0x3eae8679	0.3408697
217	0x3e130604	0.14357764
218	0xbe887820	-0.26654148
219	0xbebfba15	-0.37446657
220	0x3e5b2f64	0.21404797
221	0xbea8e5df	-0.32987878
222	0x3ed2f27e	0.41200632
223	0xbc2d30d8	-0.010570727
224	0x3e30a357	0.17249809
225	0x3e704ad8	0.2346605
226	0xbd4594a6	-0.048237465
227	0xbebeb391	-0.37246373
228	0x3e1165e5	0.14199026
229	0xbebce156	-0.36890668
230	0x3e0b1bd5	0.13584836
231	0xbdcf71aa	-0.101291016
232	0xbeafe781	-0.3435631
233	0x3db2854d	0.08716831
234	0xbcfc961e	-0.0308333
235	0xbea89713	-0.3292776
236	0xbdc02825	-0.09382657
237	0x3e67f0f5	0.22650512
238	0x3cb6510e	0.022255447
239	0xbd5f83c8	-0.054569036
240	0x3cbf788d	0.023372913
241	0x3def159e	0.11674045
242	0x3ef8a2f1	0.48561814
243	0x3eb81fa6	0.35961646
244	0xbd85d3c0	-0.06534529
245	0xbe9103e6	-0.28323287
246	0x3e522bd0	0.20524526
247	0xbe9081f9	-0.2822416
248	0xbed8fc09	-0.42379788
249	0x3eb35cf8	0.35031867
250	0x3e13c02b	0.14428775
251	0x3d8be568	0.06830865
252	0xbebc2fe5	-0.3675529
253	0x3d59d3ce	0.05318051
254	0xbd12b701	-0.035819057
255	0x3ebc02fa	0.3672102
