Projektarbeit_FTTransformer/trained_models/regular_training/model_FTTransformer_lr0.00025_8_1_4_4_.3_0.3__epoch14700.pt (torch, 96637 bytes, 87 tensors)

cls_token f4 [1, 1, 8]
-0.92138016 -0.18954614 -1.0511655 -0.94134456 -1.1269546 -0.32746592 -0.80392784 -0.00081164646
00000000: 92df 6bbf 6218 42be 978c 86bf f5fb 70bf
00000010: 0c40 90bf 9da9 a7be 37ce 4dbf acc4 54ba

categorical_embeds.weight f4 [3, 8]
0.93274564 -0.707476 -1.1055075 -1.3460947 -0.5602212 -1.3676844 -1.080675 1.5155171
0.26356375 2.6770554 0.010963923 -0.0002598397 0.7829587 -0.7148438 0.8936349 0.6308793
-1.4003334 -1.4953147 -0.0067116325 -2.2130725 -0.71599424 -2.0462534 0.06891514 1.2575477
00000000: 6bc8 6e3f 261d 35bf 4581 8dbf d54c acbf
00000010: a86a 0fbf 4810 afbf 8f53 8abf 77fc c13f
00000020: d4f1 863e e054 2b40 07a2 333c 183b 88b9
00000030: fb6f 483f 0100 37bf 42c5 643f 4e81 213f
00000040: 203e b3bf 7966 bfbf 41ed dbbb fba2 0dc0
00000050: 664b 37bf d1f5 02c0 6223 8d3d 53f7 a03f

numerical_embedder.weights f4 [8, 8]
0.4618333 0.309019 -0.95080423 0.5102442 1.0577348 -0.96787935 0.8195001 0.06963222
-1.8606125 -0.054427855 1.2142537 0.79615754 0.24556872 -0.04760181 1.234834 0.78891724
0.26222667 0.1528668 0.23890379 -0.27769223 0.41023085 0.20350596 0.05783794 -0.12596513
1.5615258 -0.16357899 1.473099 -0.410787 -1.0025363 0.4900309 0.0894697 2.4026732
0.76333284 1.3526094 -0.33931854 -0.69816977 0.24828215 0.6530582 -0.9078743 -0.49399224
-0.31509343 0.060238503 -1.5832378 0.13062677 1.5116897 -1.296471 -1.4087057 -0.6430508
-1.9360095 0.33780622 0.045459945 0.82672375 1.2852156 0.13990778 0.3197332 -0.43677777
-0.24096963 -1.807272 -0.2167275 -0.7314338 -1.136454 -1.429567 -0.94582975 1.4250383
00000000: 6a75 ec3e bd37 9e3e e867 73bf 5d9f 023f
00000010: db63 873f f1c6 77bf c2ca 513f 569b 8e3d
00000020: 8d28 eebf beef 5ebd aa6c 9b3f fbd0 4b3f
00000030: 5e76 7b3e 1efa 42bd 0a0f 9e3f 7bf6 493f
00000040: 9342 863e 1d89 1c3e 32a3 743e ad2d 8ebe
00000050: c709 d23e de63 503e 7ae7 6c3d 01fd 00be
00000060: 14e0 c73f 4081 27be 828e bc3f ac52 d2be
00000070: 1c53 80bf 55e5 fa3e e43b b73d 66c5 1940
00000080: c869 433f 4e22 ad3f 29bb adbe 41bb 32bf
00000090: ad3d 7e3e d22e 273f 736a 68bf 8dec fcbe
000000a0: ed53 a1be a6bc 763d 89a7 cabf 06c3 053e
000000b0: 0c7f c13f c3f2 a5bf 7850 b4bf fa9e 24bf
000000c0: 29cf f7bf f0f4 ac3e 3534 3a3d 2ba4 533f
000000d0: f281 a43f fc43 0f3e 12b4 a33e 56a1 dfbe
000000e0: bec0 76be b054 e7bf d0ed 5dbe 3f3f 3bbf
000000f0: 5377 91bf 0dfc b6bf e621 72bf a867 b63f

numerical_embedder.biases f4 [8, 8]
-0.73194504 -1.5343837 0.2661304 -0.06983032 0.07540815 -0.111006364 -2.1616368 -0.103171654
0.31496423 1.3231109 -0.49571928 -1.211973 -0.7016362 -0.49176607 0.82288224 0.57690716
-1.4869242 0.2236457 -1.1474729 0.8000266 0.07975588 0.08317923 -1.3698524 0.0535469
-0.55125445 0.5376629 0.5240955 -2.9664981 0.3489002 -1.2743422 1.102145 0.7716794
1.3558029 1.8494332 1.530733 -0.08850127 -1.2030752 -0.17712532 -0.15534756 0.99612075
3.0313532 -0.476834 0.028290473 2.0711849 0.50395525 0.18905966 0.85093546 0.5951551
-1.5133418 1.3282828 0.04769032 -2.00597 0.32137027 0.24641503 -0.33203033 0.42979404
0.6027532 -1.2640967 0.4978594 0.22033362 1.0961593 -1.628559 0.47260314 -0.37351707
00000000: c060 3bbf af66 c4bf 3e42 883e 3303 8fbd
00000010: 976f 9a3d 4e57 e3bd 4258 0ac0 a94b d3bd
00000020: fe42 a13e b35b a93f ebce fdbe ee21 9bbf
00000030: 6e9e 33bf c3c8 fbbe 69a8 523f 30b0 133f
00000040: 8853 bebf 6103 653e 64e0 92bf 8bce 4c3f
00000050: 0d57 a33d df59 aa3d 5357 afbf ff53 5b3d
00000060: 031f 0dbf 47a4 093f 1f2b 063f 1bdb 3dc0
00000070: 0ca3 b23e a51d a3bf 1613 8d3f c88c 453f
00000080: f38a ad3f 3aba ec3f 0fef c33f 2740 b5bd
00000090: 5efe 99bf 5760 35be 6e13 1fbe c501 7f3f
000000a0: b101 4240 9623 f4be 6cc1 e73c 4b8e 0440
000000b0: 3603 013f db98 413e e8d6 593f 165c 183f
000000c0: 2fb5 c1bf 2c05 aa3f ed56 433d d061 00c0
000000d0: a58a a43e 3954 7c3e e1ff a9be f70d dc3e
000000e0: 094e 1a3f eccd a1bf 6de7 fe3e 239f 613e
000000f0: f34e 8c3f 9f74 d0bf 0af9 f13e a13d bfbe

transformer.layers.0.0.static_alpha f4 [4, 5]
-0.023350766 1.0 0.0 0.0 0.0 -0.023350766 0.0 1.0
0.0 0.0 -0.023350766 0.0 0.0 1.0 0.0 0.9766965
0.0 0.0 0.0 1.0
00000000: 1b4a bfbc 0000 803f 0000 0000 0000 0000
00000010: 0000 0000 1b4a bfbc 0000 0000 0000 803f
00000020: 0000 0000 0000 0000 1b4a bfbc 0000 0000
00000030: 0000 0000 0000 803f 0000 0000 c808 7a3f
00000040: 0000 0000 0000 0000 0000 0000 0000 803f

transformer.layers.0.0.dynamic_alpha_fn f4 [8, 5]
0.06383436 0.0 0.0 0.0 0.0 -0.31985003 0.0 0.0
0.0 0.0 0.024663048 0.0 0.0 0.0 0.0 -0.06308012
0.0 0.0 0.0 0.0 -0.078364715 0.0 0.0 0.0
0.0 -0.1147646 0.0 0.0 0.0 0.0 0.03332054 0.0
0.0 0.0 0.0 0.19315296 0.0 0.0 0.0 0.0
00000000: 97bb 823d 0000 0000 0000 0000 0000 0000
00000010: 0000 0000 62c3 a3be 0000 0000 0000 0000
00000020: 0000 0000 0000 0000 290a ca3c 0000 0000
00000030: 0000 0000 0000 0000 0000 0000 2630 81bd
00000040: 0000 0000 0000 0000 0000 0000 0000 0000
00000050: ae7d a0bd 0000 0000 0000 0000 0000 0000
00000060: 0000 0000 b409 ebbd 0000 0000 0000 0000
00000070: 0000 0000 0000 0000 1e7b 083d 0000 0000
00000080: 0000 0000 0000 0000 0000 0000 e4c9 453e
00000090: 0000 0000 0000 0000 0000 0000 0000 0000

transformer.layers.0.0.static_beta f4 [4]
1.1293188 0.7945351 0.9135309 0.85307467
00000000: 858d 903f a766 4b3f 29dd 693f 1a63 5a3f

transformer.layers.0.0.dynamic_beta_fn f4 [8]
0.24598552 -0.15687552 0.4744526 0.42204309 0.13802433 -0.12858902 0.39038646 0.67110807
00000000: a1e3 7b3e faa3 20be 74eb f23e 0816 d83e
00000010: 4056 0d3e d7ac 03be bce0 c73e bdcd 2b3f

transformer.layers.0.0.branch.norm.weight f4 [8]
0.58685875 0.68484753 0.7512211 0.8203022 0.65050995 0.77923757 0.90338194 0.8586089
00000000: 603c 163f 2b52 2f3f 0750 403f 53ff 513f
00000010: d287 263f 1d7c 473f 0a44 673f cbcd 5b3f

transformer.layers.0.0.branch.norm.bias f4 [8]
0.071417175 0.027781779 0.1399408 -0.017923668 0.017707836 0.050352786 0.07048312 -5.6990517e-05
00000000: 2b43 923d 9d96 e33c a44c 0f3e a8d4 92bc
00000010: 0610 913c b93e 4e3d 7459 903d 1a09 6fb8

transformer.layers.0.0.branch.to_qkv.weight f4 [192, 8]
0.12000346 0.1517801 -0.3229376 0.24042162 0.20833741 0.21708429 0.16100186 -0.39734185
-0.13041782 0.023622815 0.30646163 -0.36805168 0.1849705 0.20007753 0.32293832 -0.30968204
-0.06870604 -0.26076454 -0.12076871 -0.07997641 -0.049170047 -0.28192875 0.2794858 -0.59070575
-0.17152207 -0.069037035 0.02003314 -0.034474354 -0.045851786 -0.30489343 0.08287705 -0.43967596
0.17649093 -0.013853271 0.086226255 -0.10834163 0.09332834 -0.2769124 -0.111305505 -0.017652681
-0.104798004 0.00493284 -0.044890575 0.14945969 -0.033606105 -0.27824435 0.017975377 -0.6091019
-0.07643252 0.11881604 -0.028742006 0.16818093 -0.13201721 0.13114223 0.010843155 0.2845659
-0.029944489 -0.35737285 0.02855181 -0.008123684 0.23831172 -0.42299744 0.043646805 -0.23467542
-0.20205082 -0.2928412 -0.33002678 -0.14595807 -0.039000366 -0.31060597 -0.058182076 -0.45553172
0.2029121 -0.2471354 -0.19813056 0.33478555 -0.26614773 -0.3040628 -0.34729454 0.31156787
-0.3418748 -0.20900908 -0.2820183 0.30608675 -0.023330234 0.31621855 0.030947216 0.15524405
0.14014585 -0.16210409 0.18543267 -0.2586223 -0.085117005 0.14087999 0.1678419 -0.3213069
-0.064499125 -0.13493115 -0.28284466 -0.24007605 0.1901334 0.3110826 0.007313625 -0.48038808
-0.21281055 0.29324198 -0.3460747 -0.16399534 -0.093170755 -0.08324035 -0.3603545 0.2761267
0.09575863 -0.12410223 0.24188118 -0.35850978 -0.19773553 0.12925841 0.19734974 0.23159581
-0.27012375 -0.27976447 -0.30285472 0.16133913 -0.098283194 -0.104428336 -0.08741932 0.17381833
0.27812967 0.085369036 0.029433466 -0.09598007 -0.16752344 -0.18528602 -0.22131886 -0.05455015
-0.06903644 0.29583284 0.14013973 -0.19758594 -0.31453684 0.23680677 -0.08074168 -0.05214743
0.2347546 0.15851371 -0.14430274 0.32251808 0.13719854 -0.13393137 -0.26866034 -0.060492035
-0.007367104 -0.33228037 -0.021157803 0.08880674 -0.26125756 0.29230416 0.27303773 0.24014843
0.0837808 0.068653345 0.14600465 -0.24484655 -0.16290116 -0.051172778 -0.25488394 -0.3209312
0.20958012 0.028079206 0.016507793 -0.24371125 -0.4208973 0.053330004 -0.001027633 -0.056462962
0.15987054 0.21137041 -0.26545495 -0.31034723 -0.09387656 -0.2034584 0.031737898 -0.15400867
0.29215994 -0.18392006 -0.30969986 0.15371868 -0.15002534 0.27814004 -0.048535958 -0.31347242
-0.29948825 -0.135474 0.17679255 -0.30122325 0.0419799 0.023536433 0.36355844 0.15025659
-0.01821564 0.0066493903 -0.12473173 0.07063978 0.058013853 -0.12950945 -0.22512174 -0.37241137
-0.0786606 -0.02925652 -0.12364631 -0.25644538 0.31624845 -0.2369455 0.017361607 -0.2641884
0.0137020685 0.2569497 -0.31353998 0.21983498 0.049939368 0.10805419 -0.26706418 0.051688224
-0.26992643 -0.19833513 -0.46168596 0.28846842 0.107219815 0.3039109 0.1625825 0.060859438
-0.082529575 -0.37270793 0.4234036 0.37279576 -0.08427641 -0.2245967 0.09054106 0.077731416
0.20692222 -0.3780547 0.3133977 0.02044037 -0.39457756 0.17106947 0.38294432 -0.08973493
0.0728633 0.40366197 -0.0071545932 0.14744747 -0.32032326 0.2708036 -0.109196894 0.4347223
00000000: 60c4 f53d 3e6c 1b3e 1458 a5be 1631 763e
00000010: 6756 553e 584b 5e3e acdd 243e 6470 cbbe
00000020: 408c 05be a284 c13c 8ae8 9c3e 4571 bcbe
00000030: e868 3d3e 20e1 4c3e 2c58 a53e a58e 9ebe
00000040: c1b5 8cbd ee82 85be 9655 f7bd acca a3bd
00000050: 8866 49bd f758 90be c318 8f3e 7e38 17bf
00000060: 7ba3 2fbe 4a63 8dbd 8a1c a43c fb34 0dbd
00000070: 15cf 3bbd fe1a 9cbe 71bb a93d 351d e1be
00000080: 0aba 343e d4f8 62bc 6497 b03d 37e2 ddbd
00000090: ee22 bf3d 76c7 8dbe 24f4 e3bd 5b9c 90bc
000000a0: 56a0 d6bd a9a3 a13b 2edf 37bd f60b 193e
000000b0: 8ea6 09bd 0b76 8ebe 1941 933c 1aee 1bbf
000000c0: a788 9cbd d355 f33d 5b74 ebbc 9f37 2c3e
000000d0: 852f 07be 264a 063e 7da7 313c 9fb2 913e
000000e0: 254e f5bc 93f9 b6be 7ce5 e93c 3319 05bc
000000f0: fd07 743e 1f93 d8be fec6 323d c14e 70be
00000100: 69e6 4ebe 48ef 95be 45f9 a8be 0876 15be
00000110: d9be 1fbd bf07 9fbe 5450 6ebd 743b e9be
00000120: 31c8 4f3e 1011 7dbe bde2 4abe 0369 ab3e
00000130: 8444 88be 1fae 9bbe 97d0 b1be d385 9f3e
00000140: 370a afbe 7a06 56be b464 90be 67b7 9c3e
00000150: 0c1f bfbc 66e7 a13e 0485 fd3c 4cf8 1e3e
00000160: 6582 0f3e 9dfe 25be 10e2 3d3e 246a 84be
00000170: d351 aebd d842 103e bfde 2b3e 5782 a4be
00000180: 1e18 84bd 642b 0abe 04d1 90be 7fd6 75be
00000190: 54b2 423e 3846 9f3e 22a7 ef3b 6df5 f5be
000001a0: 02eb 59be d023 963e b430 b1be 65ee 27be
000001b0: 4fd0 bebd eb79 aabd 6380 b8be 7b60 8d3e
000001c0: 1a1d c43d 4f29 febd b3af 773e 988e b7be
000001d0: 2f7b 4abe 515c 043e 0d16 4a3e 7427 6d3e
000001e0: a94d 8abe 4a3d 8fbe c60f 9bbe 1636 253e
000001f0: b348 c9bd 86de d5bd e708 b3bd 6ffd 313e
00000200: 0367 8e3e f6d5 ae3d 741e f13c 3391 c4bd
00000210: 448b 2bbe 9ebb 3dbe 69a1 62be fa6f 5fbd
00000220: fa62 8dbd 6777 973e ca80 0f3e f853 4abe
00000230: f90a a1be 797d 723e e55b a5bd 8b98 55bd
00000240: 8363 703e 6b51 223e 19c4 13be 1721 a53e
00000250: c67d 0c3e 4e25 09be d98d 89be 7fc6 77bd
00000260: bf67 f1bb a720 aabe 2153 adbc 4fe0 b53d
00000270: 8dc3 85be e4a8 953e 9acb 8b3e 78e9 753e
00000280: 4595 ab3d 209a 8c3d 3e82 153e 0eb9 7abe
00000290: 90cf 26be 8c9a 51bd 2680 82be 1851 a4be
000002a0: 2c9c 563e 5d06 e63c 5a3b 873c 718f 79be
000002b0: da7f d7be 9070 5a3d a4b1 86ba b545 67bd
000002c0: 1ab5 233e 7c71 583e b6e9 87be d5e5 9ebe
000002d0: 5b42 c0bd 6657 50be 99ff 013d 73b4 1dbe
000002e0: fd95 953e 8a55 3cbe fb90 9ebe 6e68 1d3e
000002f0: 3ea0 19be 5f68 8e3e a4cd 46bd 757f a0be
00000300: 8656 99be b2b9 0abe 1b09 353e ef39 9abe
00000310: 1ef3 2b3d 7acf c03c 5524 ba3e dddc 193e
00000320: f738 95bc 21e3 d93b 5973 ffbd 97ab 903d
00000330: ef9f 6d3d 209e 04be 5086 66be b4ac bebe
00000340: cf18 a1bd 5fab efbc 473a fdbd cf4c 83be
00000350: 51eb a13e d7a1 72be ee39 8e3c b443 87be
00000360: a47e 603c e98e 833e 5088 a0be 6c1c 613e
00000370: 398d 4c3d 844b dd3d a3bc 88be 08b7 533d
00000380: cc33 8abe 5d18 4bbe 1a62 ecbe 22b2 933e
00000390: 1096 db3d 369a 9b3e 077c 263e bf47 793d
000003a0: 4405 a9bd 93d3 bebe 5bc8 d83e 16df be3e
000003b0: 1c99 acbd adfc 65be 976d b93d a631 9f3d
000003c0: 6be3 533e 6390 c1be aa75 a03e 9072 a73c
000003d0: 1206 cabe d62c 2f3e 4711 c43e f2c6 b7bd
000003e0: 5b39 953d c8ac ce3e 1471 eabb 78fc 163e
000003f0: 6901 a4be c5a6 8a3e 9fa2 dfbd ec93 de3e

transformer.layers.0.0.branch.to_out.weight f4 [8, 64]
0.045588456 -0.08961016 -0.0027316015 -0.03383485 -0.025995132 0.03031038 -0.15802199 0.0897742
-0.109697625 0.17995138 0.034972947 -0.061915137 -0.13756226 0.0845761 -0.052800715 0.009225532
0.034739986 -0.069287665 -0.03394932 -0.052110996 -0.06015454 -0.13726792 0.05766576 -0.11389078
0.0427795 -0.085540146 -0.17715979 -0.0054063504 -0.06723228 0.04977187 -0.08197436 -0.060311455
-0.0041708797 0.11826132 -0.11384395 0.073366195 -0.05317018 0.11819213 0.10025782 -0.22578432
0.15141518 0.07228905 -0.21332833 0.08118201 0.20426309 0.12633131 0.018242264 -0.15898806
0.016770734 -0.022653794 -0.041824378 -0.023115681 -0.14705086 0.1390568 -0.05826204 -0.030160803
0.059999228 -0.020417018 0.017583089 -0.01171064 0.027805869 0.06846768 -0.20516373 0.008579074
-0.017252972 0.15225662 0.015144059 0.023790464 0.06284872 -0.027754214 0.06875692 0.009674914
-0.039317377 -0.12337909 0.087152556 -0.04103964 0.09248543 -0.07295627 0.014559221 -0.19266331
0.024645604 0.07722997 0.033249807 0.035787728 0.15473646 0.10288201 -0.170599 0.1855632
0.013631932 0.13337639 0.25834304 0.033028677 0.07789607 0.0017415788 0.06879096 0.043183718
-0.19206923 -0.10854633 0.23178817 -0.1311266 -0.009816699 0.047573444 -0.05550548 0.02047484
-0.084054306 0.02823538 0.20485932 -0.20750374 -0.023142608 -0.16550413 0.1965089 0.16489147
0.006755013 0.037834372 0.22785395 0.18886681 0.10691281 -0.009425139 0.0012510743 0.055447254
-0.063354895 -0.11745947 -0.13235891 -0.039534595 -0.14529777 -0.052944057 0.12925392 0.05119343
-0.098956645 -0.03911059 -0.010708738 0.1612172 0.080730364 0.010791611 0.060391232 -0.10746371
0.056294307 0.097898625 -0.030888632 0.03546781 -0.24038376 -0.019447986 -0.040397163 0.09678377
0.011331302 -0.008364373 -0.025865532 0.013079978 -0.039468314 -0.041687667 0.0018076309 -0.04853361
-0.011112524 0.11477716 0.017065069 -0.020378469 -0.0814665 0.076375894 -0.1110169 0.01419131
0.010386133 -0.024350861 -0.11538942 0.0171632 0.20488095 -0.16892317 -0.092254326 -0.1553952
0.07648943 0.032886207 -0.083972685 -0.012107102 -0.03002841 -0.13550958 -0.12974742 0.1470925
-0.097785816 0.060148355 0.058313582 0.021897415 0.2568847 -0.047548857 0.097026065 0.060508993
-0.12685515 -0.15088324 0.110851526 -0.18105428 -0.07032967 0.11266953 -0.002808203 0.0030616128
0.1922384 -0.12211554 0.12610188 -0.1498596 -0.16638611 0.07375899 0.1102597 0.09574515
-0.02116545 -0.0180093 0.02993641 -0.25412974 0.16595943 0.17337887 -0.1303197 -0.074203916
-0.091369346 0.042996854 -0.004670355 -0.18208024 0.022951555 -0.11265096 0.15727457 0.0224494
-0.05461077 -0.084725425 -0.059914492 0.254037 0.036328234 -0.12522301 -0.11010866 0.064134166
0.044822987 -0.041072067 -0.028249389 -0.030378848 -0.18571897 0.27971545 0.16319993 0.04068893
-0.04825737 -0.13822877 -0.11968924 0.014705798 0.042350497 0.0026676795 0.039423104 -0.25796983
0.14595698 -0.15838502 -0.21219327 0.058496796 -0.2287563 0.08342309 0.040429994 -0.17158203
0.020973936 0.048328575 -0.029068137 0.26024598 0.12882152 -0.22349744 -0.122809306 -0.080870815
00000000: f6ba 3a3d 8885 b7bd ab04 33bb 6996 0abd
00000010: bef3 d4bc 794d f83c 84d0 21be 89db b73d
00000020: 26a9 e0bd 2d45 383e cb3f 0f3d ba9a 7dbd
00000030: 1fdd 0cbe 3c36 ad3d 9045 58bd b026 173c
00000040: 844b 0e3d b1e6 8dbd 710e 0bbd 5772 55bd
00000050: 9b64 76bd f68f 0cbe ef32 6c3d 923f e9bd
00000060: 8f39 2f3d ac2f afbd 6069 35be c127 b1bb
00000070: 14b1 89bd 97dd 4b3d 2ce2 a7bd 2509 77bd
00000080: e0ab 88bb fe32 f23d 0427 e9bd 0441 963d
00000090: fac8 59bd b70e f23d f953 cd3d 0134 67be
000000a0: 950c 1b3e 480c 943d be72 5abe c142 a63d
000000b0: 582a 513e ff5c 013e cd70 953c c4cd 22be
000000c0: c762 893c 7394 b9bc 0a50 2bbd 195d bdbc
000000d0: 8094 16be e864 0e3e 2da4 6ebd ca13 f7bc
000000e0: c0c1 753d 9741 a7bc 690a 903c fcdd 3fbc
000000f0: 22c9 e33c c838 8c3d 7116 52be 3f8f 0c3c
00000100: 1b56 8dbc 29e9 1b3e ca1e 783c 38e4 c23c
00000110: d4b6 803d ce5c e3bc 6ed0 8c3d 8883 1e3c
00000120: 420b 21bd 2dae fcbd 0a7d b23d 2e19 28bd
00000130: 0069 bd3d 196a 95bd cd89 6e3c 8849 45be
00000140: 94e5 c93c bf2a 9e3d f330 083d 2796 123d
00000150: 3c73 1e3e ceb3 d23d 81b1 2ebe 4804 3e3e
00000160: 7858 5f3c d293 083e 8a45 843e 1449 073d
00000170: fa87 9f3d b045 e43a 46e2 8c3d 69e1 303d
00000180: ccad 44be 8a4d debd e159 6d3e 0d46 06be
00000190: 38d6 20bc 5fdc 423d b759 63bd daba a73c
000001a0: aa24 acbd e24d e73c a4c6 513e dc7b 54be
000001b0: 9195 bdbc ea79 29be a139 493e 4fd9 283e
000001c0: 2859 dd3b 37f8 1a3d 8c52 693e 4d66 413e
000001d0: 1af5 da3d e66b 1abc 16fb a33a a91c 633d
000001e0: 36c0 81bd 978e f0bd 1889 07be 07ef 21bd
000001f0: f0c8 14be dedb 58bd 245b 043e 34b0 513d
00000200: c8a9 cabd 6d32 20bd b473 2fbc 1f16 253e
00000210: f655 a53d 4ccf 303c cc5c 773d ef15 dcbd
00000220: dc94 663d 137f c83d 280a fdbc b246 113d
00000230: 2927 76be 6251 9fbc 7f77 25bd 9236 c63d
00000240: eda6 393c b90a 09bc f4e3 d3bc 674d 563c
00000250: 87a9 21bd b0c0 2abd 07ee ec3a 2ecb 46bd
00000260: 4e11 36bc 4a10 eb3d 0bcc 8b3c bff0 a6bc
00000270: e9d7 a6bd f76a 9c3d d45c e3bd ab82 683c
00000280: 992a 2a3c 757b c7bc 4a51 ecbd d799 8c3c
00000290: 50cc 513e 32fa 2cbe d6ef bcbd eb1f 1fbe
000002a0: 7ea6 9c3d b0b3 063d dff9 abbd de5c 46bc
000002b0: 24fe f5bc 06c3 0abe 82dc 04be 6b9f 163e
000002c0: ee43 c8bd 1f5e 763d 39da 6e3d 3562 b33c
000002d0: 6486 833e 97c2 42bd 9ab5 c63d 47d8 773d
000002e0: 51e6 01be 2381 1abe 2006 e33d 4b66 39be
000002f0: 0109 90bd 48bf e63d d409 38bb 57a5 483b
00000300: 25da 443e b617 fabd da20 013e cc74 19be
00000310: 1f61 2abe f40e 973d d6cf e13d 0916 c43d
00000320: 2a63 adbc 3d88 93bc 343d f53c 4b1d 82be
00000330: 45f1 293e 3b8a 313e 8772 05be 39f8 97bd
00000340: da1f bbbd 781d 303d c709 99bb 3e73 3abe
00000350: e604 bc3c 8cb5 e6bd 960c 213e cee7 b73c
00000360: 8baf 5fbd 8684 adbd e668 75bd 2311 823e
00000370: eacc 143d 763a 00be a680 e1bd c658 833d
00000380: 4f98 373d 2f3b 28bd 436b e7bc 10dd f8bc
00000390: 1d2d 3ebe dd36 8f3e e21d 273e 6fa9 263d
000003a0: 85a9 45bd d88b 0dbe a21f f5bd 96f0 703c
000003b0: b777 2d3d 3cd4 2e3b 1f7a 213d 9f14 84be
000003c0: bf75 153e af2f 22be 3149 59be 569a 6f3d
000003d0: 173f 6abe bad9 aa3d ec99 253d 33b3 2fbe
000003e0: 88d1 ab3c 2ff4 453d 4d20 eebc f63e 853e
000003f0: cae9 033e 83dc 64be 7283 fbbd 999f a5bd

transformer.layers.0.0.norm.gamma f4 [8]
0.41754395 0.3145637 0.6256012 0.6934011 0.3956457 0.25527474 0.5017732 0.8498498
00000000: 52c8 d53e 7e0e a13e 6627 203f bc82 313f
00000010: 1392 ca3e 5fb3 823e 3574 003f c28f 593f

transformer.layers.0.1.static_alpha f4 [4, 5]
-0.03379498 1.0 0.0 0.0 0.0 0.8110588 0.0 1.0
0.0 0.0 -0.15911727 0.0 0.0 1.0 0.0 -0.17802198
0.0 0.0 0.0 1.0
00000000: 9b6c 0abd 0000 803f 0000 0000 0000 0000
00000010: 0000 0000 8da1 4f3f 0000 0000 0000 803f
00000020: 0000 0000 0000 0000 a3ef 22be 0000 0000
00000030: 0000 0000 0000 803f 0000 0000 654b 36be
00000040: 0000 0000 0000 0000 0000 0000 0000 803f

transformer.layers.0.1.dynamic_alpha_fn f4 [8, 5]
0.060457584 0.0 0.0 0.0 0.0 -0.16289997 0.0 0.0
0.0 0.0 0.17765214 0.0 0.0 0.0 0.0 0.24965465
0.0 0.0 0.0 0.0 0.20573503 0.0 0.0 0.0
0.0 0.10637877 0.0 0.0 0.0 0.0 0.09184991 0.0
0.0 0.0 0.0 -0.0030939395 0.0 0.0 0.0 0.0
00000000: 5fa2 773d 0000 0000 0000 0000 0000 0000
00000010: 0000 0000 40cf 26be 0000 0000 0000 0000
00000020: 0000 0000 0000 0000 71ea 353e 0000 0000
00000030: 0000 0000 0000 0000 0000 0000 78a5 7f3e
00000040: 0000 0000 0000 0000 0000 0000 0000 0000
00000050: 34ac 523e 0000 0000 0000 0000 0000 0000
00000060: 0000 0000 1ddd d93d 0000 0000 0000 0000
00000070: 0000 0000 0000 0000 ce1b bc3d 0000 0000
00000080: 0000 0000 0000 0000 0000 0000 b1c3 4abb
00000090: 0000 0000 0000 0000 0000 0000 0000 0000

transformer.layers.0.1.static_beta f4 [4]
1.1586072 0.9026223 0.8044661 0.7296594
00000000: 3e4d 943f 4112 673f 7ef1 4d3f f5ca 3a3f

transformer.layers.0.1.dynamic_beta_fn f4 [8]
0.29957604 -0.28173253 0.6349475 0.24097182 0.09670137 0.69492835 0.83194566 -0.12874708
00000000: 0862 993e 3f3f 90be eb8b 223f 51c1 763e
00000010: 5e0b c63d d3e6 313f 64fa 543f 46d6 03be

transformer.layers.0.1.branch.0.weight f4 [8]
1.0860794 0.91689867 0.9139025 0.9057502 1.0876838 0.83739454 0.9438755 0.97426856
00000000: a604 8b3f dfb9 6a3f 84f5 693f 3fdf 673f
00000010: 3939 8b3f 7d5f 563f d3a1 713f aa69 793f

transformer.layers.0.1.branch.0.bias f4 [8]
0.13399981 -0.09581925 0.0630766 -0.053767134 0.1178091 0.055286005 0.06472354 -0.01362024
00000000: 3f37 093e e23c c4bd 4e2e 813d ed3a 5cbd
00000010: e645 f13d 9473 623d c68d 843d 6d27 5fbc

transformer.layers.0.1.branch.1.weight f4 [64, 8]
0.20065992 -0.0123575125 -0.34161022 -0.24052192 -0.38476464 -0.14384477 0.08161898 0.06219415
0.16168053 0.1624264 -0.3517209 0.17689289 0.017726803 -0.25230148 -0.19298822 -0.28103933
-0.58180046 -0.019297028 -0.033117693 0.22179563 -0.046935894 0.29675287 0.32612327 -0.33940786
0.2493788 -0.13564104 0.15936819 -0.24916896 -0.3577143 0.298428 0.10763121 0.030950867
-0.20779522 -0.21302165 0.010718936 -0.37706557 -0.20468313 -0.123504564 -0.0019472599 -0.033447072
-0.13342597 0.31785074 0.059675712 0.22847499 0.36378288 -0.00088117 -0.003316737 0.1961732
0.19051361 -0.2513249 0.44886008 -0.14116865 0.07672282 0.33213174 0.022972288 0.18453388
-0.1755971 -0.01832045 0.21983364 -0.2946012 0.00470185 0.19755328 -0.010915561 0.12960246
0.26123556 -0.17330742 0.16385964 0.07166885 -0.17198172 0.16522896 0.1550003 0.08217705
-0.24808381 0.2569488 0.2033659 0.26151136 0.1388125 0.39095578 0.17605078 -0.30423915
0.07364306 0.092100814 -0.020178085 0.26975626 -0.053885538 -0.40529647 0.16355914 0.23652664
-0.61107504 0.36512884 0.34277052 -0.12808013 0.18099836 0.4889931 0.16574048 -0.06477773
-0.16975108 0.24020177 0.3636732 0.053520948 -0.38865703 0.25932044 0.35604241 -0.34898755
-0.35831553 -0.108959086 0.2279184 0.2433667 -0.2900239 -0.19677627 0.16338852 0.05610161
-0.22557236 -0.33120665 0.39900666 0.35654786 0.11803551 0.10386076 0.5477726 -0.38342795
-0.42931283 0.2729931 0.33609495 -0.13506064 -0.18646489 0.097794995 0.026272519 -0.44912916
0.27130243 -0.19922285 0.15712574 -0.0058396063 -0.40853742 -0.19370943 -0.029293865 0.11732212
-0.40917554 0.102567725 0.27211675 0.07205833 0.102770716 -0.010997121 -0.4698373 0.03211283
0.17527214 -0.22027601 -0.12969209 -0.055937126 0.28850165 -0.10531509 -0.14372303 -0.031150818
0.040720806 -0.22038788 -0.22617559 0.14953132 -0.075541474 -0.2545895 -0.23592667 0.001485481
-0.23915356 0.038200896 0.18742827 0.013471903 0.02236011 0.13060321 -0.0056618107 -0.27463925
-0.27676067 -0.4145135 0.3235374 -0.27409834 0.22620271 0.36220223 -0.21865435 0.106366575
-0.13587816 0.19946364 -0.024026383 -0.04106918 -0.108980484 -0.105592705 0.014670627 -0.040512446
-0.33151233 0.06934695 -0.23641141 -0.28353956 0.21414992 0.21409887 0.3042772 -0.24465981
0.30442595 -0.19883244 -0.045979526 0.10426066 -0.69387376 -0.22442241 -0.13560253 0.14874421
0.09493118 0.11398626 -0.25330368 0.27879196 0.0766841 -0.11715055 -0.07730414 -0.10979518
-0.19374163 0.4014707 -0.22417542 0.36488584 0.052209474 -0.37088478 0.15326314 -0.31126875
-0.04106385 0.13860472 0.012002538 0.33682254 -0.09576373 0.0814104 0.10892747 -0.031399865
-0.020310173 0.23111163 0.11826171 -0.06322586 -0.3893349 0.31318223 -0.16121899 -0.16963187
0.16465652 -0.21529236 0.25080183 -0.04994567 -0.39454556 -0.112904906 0.02349554 0.23176928
-0.38686848 -0.09376602 0.29895815 0.07690637 -0.029971546 -0.027654275 0.09329966 0.2599115
-0.25324795 0.15256283 -0.13401927 -0.036109794 -0.19154815 -0.16990916 0.30043066 -0.23629938
00000000: cb79 4d3e 2a77 4abc 89e7 aebe 614b 76be
00000010: dfff c4be 0b4c 13be da27 a73d 4bbf 7e3d
00000020: 958f 253e 1b53 263e c314 b4be 6923 353e
00000030: cd37 913c a92d 81be b49e 45be 63e4 8fbe
00000040: e0f0 14bf cd14 9ebc 6ba6 07bd 651e 633e
00000050: da3f 40bd feef 973e a1f9 a63e dec6 adbe
00000060: 285d 7f3e 7ce5 0abe 6a31 233e 2626 7fbe
00000070: 5426 b7be 8ecb 983e c06d dc3d ac8c fd3c
00000080: 45c8 54be 5922 5abe 7a9e 2f3c bd0e c1be
00000090: 7498 51be f6ef fcbd 333b ffba ccff 08bd
000000a0: d1a0 08be 55bd a23e 856e 743d 59f5 693e
000000b0: c041 ba3e 51fe 66ba 9d5d 59bb a1e1 483e
000000c0: 0016 433e a8ad 80be fdd0 e53e 848e 10be
000000d0: db20 9d3d 2c0d aa3e 6130 bc3c 73f6 3c3e
000000e0: bacf 33be c514 96bc 121c 613e f8d5 96be
000000f0: fa11 9a3b 684b 4a3e 2ed7 32bc 82b6 043e
00000100: abc0 853e 8077 31be d2ca 273e 1ec7 923d
00000110: fa1b 30be c831 293e 66b8 1e3e 714c a83d
00000120: af09 7ebe cb8e 833e 273f 503e d1e4 853e
00000130: dd24 0e3e 5b2b c83e a846 343e 3cc5 9bbe
00000140: 2cd2 963d 5a9f bc3d 834c a5bc 7e1d 8a3e
00000150: 15b7 5cbd 0583 cfbe 0c7c 273e 0a34 723e
00000160: 6a6f 1cbf 2bf2 ba3e 9e7f af3e 7027 03be
00000170: a257 393e 4e5d fa3e dfb7 293e 30aa 84bd
00000180: 3ad3 2dbe 74f7 753e 6033 ba3e c838 5b3d
00000190: 0efe c6be a6c5 843e 314b b63e 7fae b2be
000001a0: 2275 b7be f125 dfbd 7163 693e 1f35 793e
000001b0: 037e 94be b87f 49be 524f 273e cdca 653d
000001c0: 71fc 66be eb93 a9be 9a4a cc3e 718d b63e
000001d0: 9abc f13d f3b4 d43d d33a 0c3f ab50 c4be
000001e0: e4ce dbbe c0c5 8b3e a314 ac3e 564d 0abe
000001f0: a7f0 3ebe be48 c83d 7739 d73c 42f4 e5be
00000200: 27e8 8a3e 1301 4cbe 92e5 203e 2b5a bfbb
00000210: d12b d1be c45b 46be b0f9 efbc 9446 f03d
00000220: 757f d1be 070f d23d e352 8b3e 5193 933d
00000230: 7479 d23d 452d 34bc 848e f0be be88 033d
00000240: 8a7a 333e 0990 61be 01ce 04be 541e 65bd
00000250: 7db6 933e 70af d7bd 212c 13be 0030 ffbc
00000260: dcca 263d 5cad 61be 939a 67be bd1e 193e
00000270: 7db5 9abd 8e59 82be c396 71be 79b4 c23a
00000280: ace4 74be 8b78 1c3d 32ed 3f3e 42b9 5c3c
00000290: 8d2c b73c d9bc 053e b686 b9bb 849d 8cbe
000002a0: 93b3 8dbe 1d3b d4be b2a6 a53e 9e56 8cbe
000002b0: afa1 673e 9272 b93e ede6 5fbe b8d6 d93d
000002c0: a523 0bbe 3240 4c3e fad2 c4bc 2838 28bd
000002d0: 2931 dfbd fd40 d8bd 125d 703c 61f0 25bd
000002e0: fcbb a9be c605 8e3d d515 72be 192c 91be
000002f0: 1e4a 5b3e bc3c 5b3e 39ca 9b3e 1a88 7abe
00000300: b8dd 9b3e bb9a 4bbe 0755 3cbd 9d86 d53d
00000310: b6a1 31bf fdce 65be 64db 0abe 6750 183e
00000320: 476b c23d a171 e93d 05b1 81be d2bd 8e3e
00000330: 8e0c 9d3d a1ec efbd a251 9ebd 4cdc e0bd
00000340: 3564 46be 918d cd3e 3e8e 65be 51d2 ba3e
00000350: 9ad9 553d 9ce4 bdbe 03f1 1c3e 9e5e 9fbe
00000360: 9132 28bd 65ee 0d3e 4ba6 443c 0174 ac3e
00000370: c61f c4bd 7fba a63d 5e15 df3d 259d 00bd
00000380: 8561 a6bc 87a8 6c3e 3233 f23d 8f7c 81bd
00000390: e756 c7be 6c59 a03e 9716 25be fab3 2dbe
000003a0: b89b 283e 9a75 5cbe 1969 803e d593 4cbd
000003b0: e001 cabe b03a e7bd b879 c03c ed54 6d3e
000003c0: a013 c6be 6608 c0bd 0b11 993e 1681 9d3d
000003d0: e386 f5bc 388b e2bc e413 bf3d 1f13 853e
000003e0: b7a9 81be 6e39 1c3e 593c 09be dde7 13bd
000003f0: 3325 44be abfc 2dbe 0cd2 993e 77f8 71be

transformer.layers.0.1.branch.1.bias f4 [64]
0.045957673 -0.07832356 -0.25233296 0.2457115 -0.034772497 -0.051765822 0.29015377 0.14824222
-0.0024786282 0.04000735 0.43313378 -0.14857852 0.023235826 0.25891218 -0.08803528 -0.04285026
-0.28124353 0.05031247 0.25681317 0.06805932 0.03045774 0.13528228 -0.47036782 -0.21755843
0.3381838 -0.036195062 -0.20550373 0.537849 -0.20199859 0.24249178 0.3285365 -0.22244349
-0.4343678 0.4447462 -0.44719505 0.15838845 -0.025270307 -0.020793507 -0.115512945 0.0495859
-0.10578627 -0.3006884 -0.3513895 -0.20180383 -0.2103159 0.19706395 -0.2474986 -0.18666938
0.011501803 -0.2619126 0.1251358 0.17579806 0.21865374 0.027985213 0.13236429 0.061848305
0.008870824 0.038164157 -0.10809126 0.12848404 -0.29722467 -0.17734557 0.07135785 0.2430413
00000000: 1d3e 3c3d 1a68 a0bd c931 81be cc9b 7b3e
00000010: 9b6d 0ebd 6608 54bd 098f 943e cfcc 173e
00000020: 7b70 22bb bfde 233d b6c3 dd3e f824 18be
00000030: 0f59 be3c 2390 843e d74b b4bd c183 2fbd
00000040: 27ff 8fbe 7314 4e3d 047d 833e af62 8b3d
00000050: 8382 f93c 7087 0a3e 0dd4 f0be a3c7 5ebe
00000060: 6d26 ad3e 4641 14bd 926f 52be 79b0 093f
00000070: b8d8 4ebe c44f 783e f035 a83e 3ac8 63be
00000080: 7565 debe c6b5 e33e c0f6 e4be 9530 223e
00000090: ad03 cfbc 2557 aabc 0d92 ecbd 961a 4b3d
000000a0: 79a6 d8bd d4f3 99be 53e9 b3be aaa5 4ebe
000000b0: 0d5d 57be 22cb 493e 4670 7dbe 4226 3fbe
000000c0: 0f72 3c3c 6919 86be 9923 003e 6804 343e
000000d0: c4e6 5f3e 3f41 e53c 818a 073e a654 7d3d
000000e0: ef56 113c 0552 1c3d f35e ddbd 5291 033e
000000f0: d52d 98be 149a 35be 1124 923d d2df 783e

transformer.layers.0.1.branch.4.weight f4 [8, 32]
0.12417719 0.22452442 -0.094540924 0.30060035 0.08049918 -0.21009701 -0.11637268 -0.058093995
-0.02897728 0.021475058 0.029234545 -0.044388432 -0.07851807 0.09814963 -0.13023427 0.07040055
0.0495825 0.09964179 -0.10871065 -0.10290876 0.14601433 -0.0043281745 0.117963836 0.15807459
0.28930178 -0.13613804 -0.18966694 -0.009006548 -0.07359037 0.16851392 -0.024409592 0.108858906
-0.20765708 -0.17839822 0.2613696 -0.011941265 -0.065755576 -0.10184169 0.122593835 0.1467251
0.00036646944 0.30793118 -0.20336923 -0.019602556 0.16048607 -0.07128302 0.23988797 -0.15618235
0.023574151 -0.015615909 -0.18565959 0.09777876 -0.033906154 -0.08871231 -0.15668118 -0.09486332
-0.19617087 0.20396674 0.33262303 -0.16293259 0.04279569 -0.02976674 -0.15925154 -0.19119486
-0.0013325791 0.15248866 -0.017309234 -0.08093225 0.05378646 -0.08147474 -0.2035193 -0.039375015
0.05410126 -0.19260712 -0.061323356 0.028198179 -0.047590133 0.0038388998 -0.09211052 0.07312681
0.055680268 -0.09212242 -0.0459795 0.028522184 -0.042423498 0.070044376 0.04958905 0.08098305
0.0003914418 0.07399252 -0.07359971 0.03616854 -0.08719679 0.0058760685 -0.040652364 -0.10277037
0.17262511 0.108755186 -0.3826302 0.021730572 0.19686715 0.18770681 0.003442046 -0.21466736
0.07951763 -0.26711005 0.20044945 0.1051128 -0.3473773 0.106610365 -0.2637366 -0.025398372
0.08908342 0.18246505 0.0979776 -0.21570842 0.19432797 0.15444498 0.18559593 0.16436361
-0.09694505 -0.2518526 -0.1946024 0.19710755 0.0012682368 -0.104813635 0.22039741 0.15314767
0.19717917 0.09778059 -0.099708125 -0.021618813 0.06163287 0.005118797 0.09646325 -0.03341601
-0.2381529 -0.16558456 0.065623894 -0.19106612 -0.20237069 0.18072985 -0.19459662 0.13165715
-0.3774971 0.14992695 0.2545383 -0.07514288 0.0749704 0.044225764 0.07993496 0.063953884
-0.060808055 -0.04876642 -0.1044445 0.08291805 -0.15651529 0.035494313 -0.019341419 0.04820472
0.100640245 0.090491205 -0.09448883 0.1306555 -0.04195524 -0.08789329 -0.10383721 -0.025688948
0.069206335 -0.049688973 0.013994383 0.07470629 -0.10020141 0.17654954 -0.15717071 -0.1341735
0.2088408 0.1123094 -0.14360586 -0.0015748284 -0.032970026 0.022770708 0.046761297 0.04626582
0.052266683 -0.039916985 0.039306536 -0.1450195 0.013851965 -0.016381504 0.049497828 0.11516635
-0.06558148 -0.016286345 -0.00026544477 0.10470445 0.050807197 0.12134657 -0.055159204 0.041142568
0.20143273 -0.06348134 0.019239841 0.29847646 -0.075104885 -0.012073956 -0.05911267 -0.26438195
0.2467062 0.056112617 -0.10574696 -0.040117875 -0.00565757 0.06637358 -0.06652267 -0.095154524
-0.30253735 0.06130199 -0.22555925 -0.04763956 -0.032935224 -0.38618273 -0.021233957 -0.033846226
-0.16264059 -0.10778156 0.071622685 0.04230678 -0.08448272 0.03465321 0.14372008 0.18932365
0.06604642 0.16544576 -0.038461667 -0.0022379817 0.07166766 -0.1068698 0.15665412 -0.06329575
0.1437848 -0.13032584 -0.17601778 0.048854038 0.01396482 -0.0687515 -0.043199696 0.031506244
-0.11596859 -0.00088806165 0.09852361 -0.065724485 0.046737462 0.07058814 -0.03384961 -0.06453812
00000000: 9c50 fe3d bbe9 653e ac9e c1bd 4ae8 993e
00000010: c1dc a43d ac23 57be cd54 eebd f8f3 6dbd
00000020: c361 edbc 76ec af3c 497d ef3c a5d0 35bd
00000030: 15ce a0bd ac02 c93d 225c 05be 2a2e 903d
00000040: 0517 4b3d ff10 cc3d b0a3 debd d4c1 d2bd
00000050: c884 153e 5cd3 8dbb 0697 f13d 4ede 213e
00000060: 5d1f 943e c567 0bbe 0d38 42be 3390 13bc
00000070: 8cb6 96bd ea8e 2c3e a0f6 c7bc 6bf1 de3d
00000080: 0fa4 54be 06ae 36be 3cd2 853e 4ca5 43bc
00000090: dcaa 86bd 6092 d0bd 7a12 fb3d 1b3f 163e
000000a0: b222 c039 28a9 9d3e 0640 50be 8a95 a0bc
000000b0: 7656 243e d5fc 91bd 31a5 753e 44ee 1fbe
000000c0: 941e c13c dfd9 7fbc 8c1d 3ebe 3b40 c83d
000000d0: 2ee1 0abd cdae b5bd 0871 20be b347 c2bd
000000e0: 04e1 48be a8dc 503e 914d aa3e cdd7 26be
000000f0: 894a 2f3d 61d9 f3bc d612 23be 96c8 43be
00000100: efa9 aeba fd25 1c3e 18cc 8dbc cfbf a5bd
00000110: 314f 5c3d 3adc a6bd 5d67 50be b247 21bd
00000120: 4899 5d3d cd3a 45be 332e 7bbd deff e63c
00000130: dfed 42bd 0d96 7b3b 71a4 bcbd 82c3 953d
00000140: fe10 643d aeaa bcbd 0055 3cbd 5ba7 e93c
00000150: 43c4 2dbd 6d73 8f3d e31d 4b3d 71da a53d
00000160: 6e3a cd39 6489 973d 72bb 96bd 7725 143d
00000170: 3b94 b2bd 098c c03b 1883 26bd 4679 d2bd
00000180: a3c4 303e 0abb de3d 1be8 c3be 5004 b23c
00000190: 8b97 493e 3736 403e f393 613b c3d1 5bbe
000001a0: 24da a23d a6c2 88be 9f42 4d3e 6145 d73d
000001b0: 70db b1be 8956 da3d 7c08 87be 3f10 d0bc
000001c0: 5e71 b63d 1ed8 3a3e 7ba8 c83d abe2 5cbe
000001d0: e9fd 463e d326 1e3e dc0c 3e3e ef4e 283e
000001e0: 208b c6bd d3f2 80be da45 47be 90d6 493e
000001f0: f73a a63a 88a8 d6bd dcaf 613e bed2 1c3e
00000200: 56e9 493e 3141 c83d c633 ccbd f019 b1bc
00000210: c072 7c3d 95bb a73b 868e c53d 3adf 08bd
00000220: 5bde 73be 008f 29be d265 863d d6a6 43be
00000230: 433a 4fbe 3f11 393e 5644 47be 22d1 063e
00000240: 4d47 c1be 7386 193e d852 823e 83e4 99bd
00000250: 158a 993d 1326 353d f1b4 a33d 41fa 823d
00000260: de11 79bd 4cbf 47bd ffe6 d5bd f0d0 a93d
00000270: 8b45 20be 7c62 113d e571 9ebc 5072 453d
00000280: 791c ce3d 7453 b93d 5c83 c1bd 8eca 053e
00000290: 42d9 2bbd 6601 b4bd 9aa8 d4bd a171 d2bc
000002a0: 0dbc 8d3d aa86 4bbd b248 653c 9dff 983d
000002b0: 6636 cdbd 67c9 343e 5cf1 20be c764 09be
000002c0: 5dda 553e 7902 e63d 6a0d 13be 796a ceba
000002d0: 940b 07bd a389 ba3c c688 3f3d 3a81 3d3d
000002e0: 9715 563d fe7f 23bd e4ff 203d fe7f 14be
000002f0: 5af3 623c 8132 86bc 3cbe 4a3d 56dc eb3d
00000300: 954f 86bd f16a 85bc 652b 8bb9 496f d63d
00000310: 351b 503d 8d84 f83d 9eee 61bd 1c85 283d
00000320: 6244 4e3e 8102 82bd df9c 9d3c e8d1 983e
00000330: 97d0 99bd d8d1 45bc 2120 72bd 125d 87be
00000340: 8da0 7c3e 58d6 653d dd91 d8bd a452 24bd
00000350: 2363 b9bb dfee 873d 0a3d 88bd 60e0 c2bd
00000360: 2de6 9abe cc17 7b3d 01f9 66be b321 43bd
00000370: 16e7 06bd beb9 c5be d6f2 adbc 57a2 0abd
00000380: 418b 26be 94bc dcbd eaae 923d e049 2d3d
00000390: 4705 adbd 86f0 0d3d 5b2b 133e 0fde 413e
000003a0: 5843 873d 9d6a 293e fb89 1dbd 1aab 12bb
000003b0: 7ec6 923d 8ede dabd f069 203e 34a1 81bd
000003c0: 533c 133e 2374 05be 013e 34be 2c1b 483d
000003d0: b3cc 643c 96cd 8cbd 2af2 30bd b10c 013d
000003e0: f180 edbd cfcc 68ba bfc6 c93d 8f9a 86bd
000003f0: c86f 3f3d 8490 903d e3a5 0abd 902c 84bd

transformer.layers.0.1.branch.4.bias f4 [8]
0.09743592 0.29345602 -0.05492775 -0.3462002 -0.02185569 0.040155727 0.251113 0.15230499
00000000: 7c8c c73d de3f 963e ecfb 60bd 2741 b1be
00000010: b40a b3bc 557a 243d e291 803e d7f5 1b3e

transformer.layers.0.1.norm.gamma f4 [8]
0.18091963 0.1586822 0.3392176 0.11125973 0.08743756 0.26069066 0.3423152 -0.080079764
00000000: ff42 393e 967d 223e eead ad3e 24dc e33d
00000010: 7712 b33d 3f79 853e f043 af3e dc00 a4bd

transformer.layers.1.0.static_alpha f4 [4, 5]
0.012923294 1.0 0.0 0.0 0.0 -0.14799412 0.0 1.0
0.0 0.0 0.021507103 0.0 0.0 1.0 0.0 0.84017783
0.0 0.0 0.0 1.0
00000000: 39bc 533c 0000 803f 0000 0000 0000 0000
00000010: 0000 0000 c58b 17be 0000 0000 0000 803f
00000020: 0000 0000 0000 0000 aa2f b03c 0000 0000
00000030: 0000 0000 0000 803f 0000 0000 e515 573f
00000040: 0000 0000 0000 0000 0000 0000 0000 803f

transformer.layers.1.0.dynamic_alpha_fn f4 [8, 5]
-0.004060112 0.0 0.0 0.0 0.0 -0.036003813 0.0 0.0
0.0 0.0 -0.016841697 0.0 0.0 0.0 0.0 0.08969693
0.0 0.0 0.0 0.0 -0.20954116 0.0 0.0 0.0
0.0 0.20218708 0.0 0.0 0.0 0.0 0.019720498 0.0
0.0 0.0 0.0 0.116077594 0.0 0.0 0.0 0.0
00000000: b00a 85bb 0000 0000 0000 0000 0000 0000
00000010: 0000 0000 bc78 13bd 0000 0000 0000 0000
00000020: 0000 0000 0000 0000 99f7 89bc 0000 0000
00000030: 0000 0000 0000 0000 0000 0000 06b3 b73d
00000040: 0000 0000 0000 0000 0000 0000 0000 0000
00000050: f591 56be 0000 0000 0000 0000 0000 0000
00000060: 0000 0000 210a 4f3e 0000 0000 0000 0000
00000070: 0000 0000 0000 0000 e28c a13c 0000 0000
00000080: 0000 0000 0000 0000 0000 0000 17ba ed3d
00000090: 0000 0000 0000 0000 0000 0000 0000 0000

transformer.layers.1.0.static_beta f4 [4]
1.0672687 0.74300665 0.8758141 0.86776584
00000000: 439c 883f af35 3e3f 5a35 603f e725 5e3f

transformer.layers.1.0.dynamic_beta_fn f4 [8]
0.33869284 -0.3716432 0.49794966 0.32114345 0.26489493 0.39717412 0.58036864 -0.012629082
00000000: 2669 ad3e 0448 bebe 42f3 fe3e ea6c a43e
00000010: 4fa0 873e 685a cb3e 0a93 143f 36ea 4ebc

transformer.layers.1.0.branch.norm.weight f4 [8]
0.8852341 0.74174434 0.8892368 1.0500311 0.8790561 0.8578387 0.94139177 0.862877
00000000: b49e 623f f5e2 3d3f 06a5 633f 6b67 863f
00000010: d209 613f 519b 5b3f 0dff 703f 82e5 5c3f

transformer.layers.1.0.branch.norm.bias f4 [8]
-0.07383772 -0.007971377 0.019746887 0.044129975 -0.0699576 0.16721673 0.012728585 -0.064040534
00000000: 3b38 97bd 619a 02bc 39c4 a13c a2c1 343d
00000010: ee45 8fbd dd3a 2b3e 8e8b 503c af27 83bd

transformer.layers.1.0.branch.to_qkv.weight f4 [192, 8]
-0.3675529 0.26975793 -0.42140138 -0.3183689 0.17597236 0.026700119 0.13515234 0.06409681
-0.14754575 0.28880388 0.26358762 0.12143081 -0.15244661 -0.0054056845 0.29082268 -0.14079416
0.28183207 0.26509884 -0.0653629 0.38560715 0.4177604 0.09804216 0.37773037 -0.0048665004
-0.19127202 -0.34388798 0.40434632 0.03469981 0.5389029 -0.40029332 0.30046308 -0.55520844
0.24013396 0.04195356 -0.032884203 0.5728222 0.20660971 0.11093937 0.18473622 -0.037549544
-0.42844245 -0.11662089 -0.12472578 -0.09516254 0.09276416 0.17746557 0.122032925 0.27861083
-0.30532002 0.44700512 -0.019243108 -0.5000315 0.040487014 -0.16953789 -0.06431364 0.48083347
-0.26579642 0.20686902 0.21519153 0.061425988 -0.3227812 -0.277049 -0.11094953 0.046369176
-0.4194534 0.32739428 0.054941952 -0.46252504 -0.027862823 -0.19376805 -0.46259442 0.3426884
-0.08317111 -0.10292828 0.18085809 0.029711528 -0.32067922 0.20918243 -0.08508426 0.06606503
-0.10494868 -0.37345287 -0.21086287 -0.12962838 -0.3607274 0.12725832 0.11298986 0.028388415
0.23384611 -0.32528874 0.016289765 0.12451892 0.34486696 0.27013335 0.01106704 -0.26729158
0.19492109 0.022248331 -0.100187525 0.23724021 0.12408718 -0.23365065 0.13983475 0.012148822
0.07148376 -0.052277636 -0.37479678 0.2100299 -0.2953251 -0.0062206956 0.22450435 0.32210243
-0.35103232 0.094082355 -0.30386674 -0.45908612 -0.20012157 0.40316013 -0.08991548 -0.039591737
0.25037706 0.20693773 -0.06763319 0.2689654 0.27401194 0.18172543 -0.10294115 -0.19612116
-0.4137898 -0.06951687 -0.32548457 -0.22877151 0.051938985 0.32561707 -0.44978866 0.53483784
-0.5602206 0.20976496 -0.267577 -0.3001871 -0.053845134 0.4189102 -0.14308998 0.17055671
-0.084383056 -0.43782306 0.00064488576 -0.009219452 0.076800525 -0.17274748 0.10741667 -0.17996207
-0.31475717 0.23446067 0.002411799 0.15229942 -0.20386252 0.13175625 -0.25688785 0.2664941
0.13700478 -0.018365264 0.19134313 -0.13287601 -0.08240459 0.3398652 -0.024260776 0.023666564
0.2394019 -0.5178133 0.20045361 0.4512479 0.086170346 -0.094334766 0.21719417 0.075273305
0.21244101 -0.2996887 0.16447891 0.23832303 -0.17632766 -0.20512936 0.118206605 -0.26438498
0.35513142 -0.4056209 0.14913681 0.120215714 0.21993136 -0.3723438 -0.18436149 -0.03257332
-0.101385474 0.5477087 -0.3544726 -0.34179875 -0.3962194 0.12784378 -0.2929253 -0.15158978
0.03169244 -0.14827423 0.0149855865 0.1395489 0.070048556 -0.33899683 0.28735343 -0.0994627
-0.032477025 -0.23610626 -0.37306878 -0.44512296 -0.37723222 0.12210009 0.18279622 0.3124934
-0.36918464 0.07711816 0.26018676 -0.23867202 0.25687402 -0.1072876 -0.14700434 -0.10966404
-0.18453775 0.42863765 -0.064873904 -0.3410324 -0.20554379 0.3812501 0.33510768 0.24241816
0.20370898 0.108089365 0.40967563 0.35125193 0.16715457 -0.054038398 0.226167 -0.1376819
-0.1548769 0.13576417 0.0042604725 -0.35302585 -0.39682665 0.2714459 -0.59485584 0.48168942
-0.49039122 0.17106804 0.000934383 0.046252128 -0.22128782 -0.18415749 -0.035323124 -0.2175842
00000000: e52f bcbe b61d 8a3e ecc1 d7be 4001 a3be
00000010: 1932 343e 35ba da3c 6065 0a3e 3045 833d
00000020: 3c16 17be 1ade 933e f5f4 863e b7b0 f83d
00000030: f71a 1cbe 2b22 b1bb b6e6 943e 582c 10be
00000040: 4b4c 903e 09bb 873e fcdc 85bd 4d6e c53e
00000050: b1e4 d53e 54ca c83d e065 c13e 2a77 9fbb
00000060: d0dc 43be 1612 b0be 7b06 cf3e 6321 0e3d
00000070: 8af5 093f 3ff3 ccbe 4cd6 993e 2422 0ebf
00000080: ade5 753e 7fd7 2b3d 96b1 06bd 7aa4 123f
00000090: 7f91 533e 2e34 e33d 7e2b 3d3e 8dcd 19bd
000000a0: cf5c dbbe efd6 eebd 3b70 ffbd 94e4 c2bd
000000b0: 23fb bd3d 89b9 353e 66ec f93d 14a6 8e3e
000000c0: e852 9cbe dbdd e43e b9a3 9dbc 1002 00bf
000000d0: b6d5 253d 579b 2dbe dfb6 83bd ce2f f63e
000000e0: 7816 88be 79d5 533e 2b5b 5c3e d199 7b3d
000000f0: 9443 a5be 5ed9 8dbe 8239 e3bd 9bed 3d3d
00000100: 99c2 d6be 39a0 a73e d00a 613d 15d0 ecbe
00000110: 9340 e4bc 226b 46be 2dd9 ecbe db74 af3e
00000120: 9d55 aabd 10cc d2bd dd32 393e 9765 f33c
00000130: 1130 a4be eb33 563e a840 aebd 1a4d 873d
00000140: 55ef d6bd 3735 bfbe 70ec 57be 4dbd 04be
00000150: 43b1 b8be 0150 023e 3a67 e73d d28e e83c
00000160: 5b75 6f3e 3f8c a6be 1d72 853c c703 ff3d
00000170: 6792 b03e eb4e 8a3e 8852 353c 71da 88be
00000180: 6599 473e 2242 b63c 1e2f cdbd 19ef 723e
00000190: 6b21 fe3d 1e42 6fbe d730 0f3e da0b 473c
000001a0: 1466 923d 1321 56bd 5de5 bfbe 1412 573e
000001b0: da34 97be fad6 cbbb 78e4 653e 9cea a43e
000001c0: 82ba b3be 40ae c03d 6c94 9bbe 560d ebbe
000001d0: abec 4cbe 016b ce3e 9b25 b8bd f22a 22bd
000001e0: 6c31 803e 7ce7 533e 4583 8abd d5b5 893e
000001f0: 4b4b 8c3e 3b16 3a3e cfd2 d2bd fcd3 48be
00000200: 42dc d3be dc5e 8ebd eaa5 a6be 1443 6abe
00000210: f9bd 543d 48b7 a63e b34a e6be 22eb 083f
00000220: 9e6a 0fbf a0cc 563e daff 88be 20b2 99be
00000230: b78c 5cbd 667b d63e 2e86 12be 6ba6 2e3e
00000240: 06d1 acbd 582a e0be 8d0d 293a 2f0d 17bc
00000250: 9849 9d3d b7e4 30be 45fd db3d fa47 38be
00000260: da27 a1be 7516 703e 460f 1e3b 61f4 1b3e
00000270: 56c1 50be 1ceb 063e ce86 83be ea71 883e
00000280: fb4a 0c3e c072 96bc 74ef 433e a610 08be
00000290: bdc3 a8bd d002 ae3e 89be c6bc 62e0 c13c
000002a0: c625 753e 6a8f 04bf b643 4d3e f709 e73e
000002b0: 147a b03d 9632 c1bd 2668 5e3e e428 9a3d
000002c0: 238a 593e cc70 99be 296d 283e f40a 743e
000002d0: 3d8f 34be 6e0d 52be 4e16 f23d 785d 87be
000002e0: c9d3 b53e 8bad cfbe 52b7 183e a833 f63d
000002f0: b035 613e d9a3 bebe 42c9 3cbe 9a6b 05bd
00000300: 30a3 cfbd a336 0c3f 6f7d b5be 3f00 afbe
00000310: 45dd cabe 7be9 023e 4efa 95be 5a3a 1bbe
00000320: efcf 013d 33d5 17be 1b86 753c e8e5 0e3e
00000330: 9e75 8f3d fe90 adbe fd1f 933e 1ab3 cbbd
00000340: a106 05bd d7c5 71be df02 bfbe 28e7 e3be
00000350: 9524 c1be 9d0f fa3d ef2e 3b3e 23ff 9f3e
00000360: c505 bdbe 20f0 9d3d 3337 853e 7066 74be
00000370: fe84 833e 9ab9 dbbd 4e88 16be 8a97 e0bd
00000380: 77f7 3cbe 6576 db3e 9cdc 84bd cc9b aebe
00000390: 127a 52be 3733 c33e 3c93 ab3e 773c 783e
000003a0: 1699 503e f55d dd3d 01c1 d13e 4bd7 b33e
000003b0: 912a 2b3e 5e57 5dbd 5298 673e 7cfc 0cbe
000003c0: 0d98 1ebe c305 0b3e 6f9b 8b3b cebf b4be
000003d0: dd2c cbbe f5fa 8a3e 7948 18bf ff9f f63e
000003e0: 8f14 fbbe 762c 2f3e 62f1 743a df72 3d3d
000003f0: 4699 62be c893 3cbe fbae 10bd 64ce 5ebe

transformer.layers.1.0.branch.to_out.weight f4 [8, 64]
0.03036988 0.007317422 -0.033319037 0.038357828 -0.09780543 -0.16207583 -0.056278802 0.050336096
0.09084238 0.21519244 0.053037483 0.08711001 0.11653543 -0.053677525 -0.06543325 -0.03151491
0.01146342 0.13907853 0.015658254 -0.12704739 0.040854543 -0.08158573 0.03196121 -0.0026396771
-0.06434692 -0.15802874 -0.03319515 0.03590639 -0.11997005 -0.050970264 0.13440104 -0.0062929164
0.00961505 -0.1290817 0.16665755 0.07477461 0.099010006 0.06711194 -0.08167022 -0.11945858
-0.0028271296 0.0578612 0.105785 -0.035049643 0.0783118 0.082802735 -0.18310598 -0.016306728
-0.14755556 -0.14660868 0.10793555 0.011031185 -0.0984313 0.025642572 -0.014198475 0.1394656
-0.0030417047 0.00084855634 0.051345117 -0.0029890717 -0.04251361 0.0800713 -0.054671887 -0.12673762
-0.06785506 -0.02268761 -0.041602697 0.14779566 0.18023305 0.020921707 -0.02705117 0.0353723
0.04072144 0.12174317 -0.06448925 -0.29914668 -0.03990477 -0.017764963 0.15208186 -0.0942967
0.16159715 -0.021050237 -0.06363 0.0058922977 -0.11628742 -0.034899533 -0.013845474 -0.024366284
-0.017742949 0.12282356 -0.014397965 -0.14495644 0.07682807 0.045378026 -0.20976852 0.13617632
-0.029123824 0.18250754 0.049407624 -0.10501397 -0.17164119 0.020366617 -0.16190891 -0.050439734
0.03616791 -0.17094918 -0.11111518 -0.10805263 -0.22742178 0.05041468 0.13624871 -0.12721802
0.046702966 0.23202832 -0.20831177 -0.20362204 0.107210755 0.039330073 0.023744596 -0.1199423
-0.12232216 -0.019257773 0.10575219 0.10690819 4.406395e-05 -0.1941042 -0.04434389 0.032828365
0.1603011 -0.050069466 -0.093499854 -0.019582698 -0.1699462 -0.074312836 -0.1034544 -0.059418883
0.005271139 -0.08579611 -0.047903217 0.07484029 0.08995977 -0.01389317 -0.11572615 -0.12203369
0.14664151 -0.028914751 -0.06886048 -0.1249869 0.07439395 0.0020469439 -0.0424301 0.048581593
0.034120925 -0.034222387 0.036299054 -0.08974729 -0.1886333 0.048946988 0.036773656 -0.008979329
-0.08245972 -0.14665975 0.14770596 0.085072815 0.123432845 0.054894708 -0.03102598 0.07791017
-0.0054059615 0.08914547 0.0030354809 -0.027517691 0.031488825 -0.049798433 -0.005187474 0.06378229
-0.031944707 -0.06850864 0.04620775 0.14281966 -0.010160929 -0.13973084 0.14930446 0.056723993
-0.015611523 0.04911847 -0.070568755 0.15167059 0.08993439 0.039994933 0.0013199716 -0.068603806
-0.026086606 0.060215637 0.12266619 -0.028053751 0.08053814 -0.13075921 0.16772242 0.076539434
-0.11869195 -0.038163442 0.15789694 0.035182465 -0.15632361 0.15072216 -0.065710366 0.062327772
-0.07774225 0.12935703 -0.06781504 0.037951957 -0.05123509 0.095757574 -0.0016180673 -0.049425174
-0.10963077 0.08029509 -0.10596083 -0.0100781135 0.07826822 -0.2311472 0.010708615 0.006591084
0.0044080038 -0.0134511795 -0.18370831 -0.17161873 -0.05983271 -0.016461985 0.046485286 -0.1953053
-0.07097671 -0.00043339617 0.044842247 -0.07021575 -0.017982148 0.023410505 -0.093802296 -0.08426578
0.11009488 0.05416842 0.0088808965 0.028295103 -0.076438375 0.058656737 -0.16310659 -0.021784453
-0.075402535 0.06630648 -0.08983416 -0.030343115 -0.22164613 0.044238597 -0.15692429 0.0750169
00000000: 41ca f83c fcc6 ef3b 8b79 08bd 191d 1d3d
00000010: 374e c8bd 35f7 25be 9a84 66bd 392d 4e3d
00000020: 920b ba3d 685b 5c3e d53d 593d bc66 b23d
00000030: 21aa ee3d f7dc 5bbd de01 86bd c715 01bd
00000040: 12d1 3b3c 9a6a 0e3e bd45 803c b618 02be
00000050: 1857 273d 6b16 a7bd c2e9 023d 6ffe 2cbb
00000060: 51c8 83bd 49d2 21be a3f7 07bd 9412 133d
00000070: dcb2 f5bd 32c6 50bd 6da0 093e cf34 cebb
00000080: 7188 1d3c fe2d 04be 47a8 2a3e 6e23 993d
00000090: c2c5 ca3d fc71 893d b742 a7bd b3a6 f4bd
000000a0: 5d47 39bb deff 6c3d cea5 d83d 3790 0fbd
000000b0: f061 a03d 7b94 a93d 2280 3bbe b095 85bc
000000c0: ce18 17be 9620 16be 500d dd3d 25bc 343c
000000d0: 5996 c9bd 5f10 d23c b8a0 68bc 12d0 0e3e
000000e0: 5657 47bb a771 5e3a 424f 523d 4de4 43bb
000000f0: c022 2ebd 6cfc a33d a1ef 5fbd 82c7 01be
00000100: 98f7 8abd 5edb b9bc 9767 2abd bf57 173e
00000110: 038f 383e 0064 ab3c 6a9a ddbc 8be2 103d
00000120: 86cb 263d 7c54 f93d f112 84bd c129 99be
00000130: 2f73 23bd d487 91bc 59bb 1b3e a11e c1bd
00000140: b979 253e 8c71 acbc 7250 82bd 2d14 c13b
00000150: 1928 eebd d0f2 0ebd 21d8 62bc cd9b c7bc
00000160: a959 91bc eb8a fb3d 71e5 6bbc 766f 14be
00000170: 0958 9d3d 4fde 393d 8fcd 56be ce71 0b3e
00000180: 1695 eebc 42e3 3a3e a65f 4a3d 9011 d7bd
00000190: b5c2 2fbe e4d7 a63c 73cb 25be e599 4ebd
000001a0: cd24 143d 4d0d 2fbe 5b90 e3bd b34a ddbd
000001b0: 41e1 68be a07f 4e3d c884 0b3e 7145 02be
000001c0: 9c4b 3f3d d598 6d3e ae4f 55be 4c82 50be
000001d0: 5091 db3d 9218 213d 0784 c23c 4fa4 f5bd
000001e0: 0a84 fabd 7ac2 9dbc 9b94 d83d aef2 da3d
000001f0: 4ed1 3838 40c3 46be f0a1 35bd 0977 063d
00000200: f925 243e a415 4dbd da7c bfbd e56b a0bc
00000210: 6006 2ebe 5431 98bd e7df d3bd 3761 73bd
00000220: 85b9 ac3b dfb5 afbd 2a36 44bd de45 993d
00000230: d43c b83d 2ea0 63bc d501 edbd cdec f9bd
00000240: 3129 163e a1de ecbc b906 8dbd 22f9 ffbd
00000250: db5b 983d 0526 063b 2fcb 2dbd 7efd 463d
00000260: 62c2 0b3d c62c 0cbd 51ae 143d 6dcd b7bd
00000270: 1629 41be a37c 483d f99f 163d 091e 13bc
00000280: a4e0 a8bd f92d 16be 3b40 173e a83a ae3d
00000290: 5cca fc3d 46d9 603d 322a febc 5e8f 9f3d
000002a0: 7e24 b1bb e691 b63d ebee 463b c86c e1bc
000002b0: 6dfa 003d 71f9 4bbd b0fb a9bb 4aa0 823d
000002c0: 74d8 02bd 424e 8cbd 5644 3d3d 513f 123e
000002d0: 067a 26bc 9a15 0fbe 45e3 183e 6b57 683d
000002e0: 79c7 7fbc 7330 493d 5a86 90bd 894f 1b3e
000002f0: 852f b83d bad1 233d e602 ad3a 2780 8cbd
00000300: 94b3 d5bc aca4 763d 6938 fb3d fbd0 e5bc
00000310: 2ef1 a43d bee5 05be 6dbf 2b3e b5c0 9c3d
00000320: c414 f3bd 4551 1cbd bcaf 213e 7d1b 103d
00000330: 4c13 20be e956 1a3e 2893 86bd 684b 7f3d
00000340: 5437 9fbd 2b76 043e 9de2 8abd 8373 1b3d
00000350: e3db 51bd 8c1c c43d 5415 d4ba 0d72 4abd
00000360: 1986 e0bd c171 a43d fe01 d9bd ac1e 25bc
00000370: 174b a03d dab1 6cbe 3073 2f3c 05fa d73b
00000380: 0471 903b 5662 5cbc 081e 3cbe d2bc 2fbe
00000390: 2513 75bd 49db 86bc 5b67 3e3d 1dfe 47be
000003a0: 3d5c 91bd 7339 e3b9 81ac 373d 46cd 8fbd
000003b0: 4c4f 93bc 63c7 bf3c 6b1b c0bd 8a93 acbd
000003c0: 6d79 e13d b5df 5d3d 2e81 113c 22cb e73c
000003d0: b98b 9cbd 0c42 703d 6a05 27be 4f75 b2bc
000003e0: a56c 9abd b1cb 873d f9fa b7bd 2092 f8bc
000003f0: 34f7 62be 8833 353d c3b0 20be 76a2 993d

transformer.layers.1.0.norm.gamma f4 [8]
0.49241355 0.40686986 0.626003 0.4978159 0.48232773 0.6062445 0.75485337 0.28948647
00000000: a11d fc3e 3f51 d03e bc41 203f bae1 fe3e
00000010: a9f3 f63e d732 1b3f 123e 413f 9237 943e

transformer.layers.1.1.static_alpha f4 [4, 5]
-0.15869266 1.0 0.0 0.0 0.0 0.77495164 0.0 1.0
0.0 0.0 -0.06926525 0.0 0.0 1.0 0.0 0.09330831
0.0 0.0 0.0 1.0
00000000: 5480 22be 0000 803f 0000 0000 0000 0000
00000010: 0000 0000 3b63 463f 0000 0000 0000 803f
00000020: 0000 0000 0000 0000 f0da 8dbd 0000 0000
00000030: 0000 0000 0000 803f 0000 0000 6d18 bf3d
00000040: 0000 0000 0000 0000 0000 0000 0000 803f

transformer.layers.1.1.dynamic_alpha_fn f4 [8, 5]
0.11378423 0.0 0.0 0.0 0.0 0.12213121 0.0 0.0
0.0 0.0 0.116090514 0.0 0.0 0.0 0.0 0.10245924
0.0 0.0 0.0 0.0 0.09697397 0.0 0.0 0.0
0.0 0.30655155 0.0 0.0 0.0 0.0 0.16065426 0.0
0.0 0.0 0.0 -0.20557214 0.0 0.0 0.0 0.0
00000000: b507 e93d 0000 0000 0000 0000 0000 0000
00000010: 0000 0000 ee1f fa3d 0000 0000 0000 0000
00000020: 0000 0000 0000 0000 ddc0 ed3d 0000 0000
00000030: 0000 0000 0000 0000 0000 0000 26d6 d13d
00000040: 0000 0000 0000 0000 0000 0000 0000 0000
00000050: 4a9a c63d 0000 0000 0000 0000 0000 0000
00000060: 0000 0000 53f4 9c3e 0000 0000 0000 0000
00000070: 0000 0000 0000 0000 8d82 243e 0000 0000
00000080: 0000 0000 0000 0000 0000 0000 8181 52be
00000090: 0000 0000 0000 0000 0000 0000 0000 0000

transformer.layers.1.1.static_beta f4 [4]
1.0300678 1.1488494 1.2442731 1.124058
00000000: 43d9 833f 7f0d 933f 5744 9f3f 22e1 8f3f

transformer.layers.1.1.dynamic_beta_fn f4 [8]
-0.34375557 0.03618067 -0.45561826 -0.45159256 -0.2457371 -0.19822057 -0.063787535 0.3301385
00000000: bb00 b0be 2f32 143d cc46 e9be 2437 e7be
00000010: 82a2 7bbe 55fa 4abe 0aa3 82bd ea07 a93e
