Projektarbeit_FTTransformer/trained_models/regular_training/model_FTTransformer_lr0.00025_9_1_4_4_.3_0.3_epoch9800.pt (torch, 107616 bytes, 87 tensors)

cls_token f4 [1, 1, 9]
1.4328105 0.9089158 -1.3077078 -1.1457118 -1.8631884 -1.0018842 0.9661957 0.5109676
-1.3358548
00000000: 5666 b73f b5ae 683f f862 a7bf afa6 92bf
00000010: f57c eebf be3d 80bf 9a58 773f c6ce 023f
00000020: 4afd aabf

categorical_embeds.weight f4 [3, 9]
0.4005271 0.094712585 -1.2660224 1.597747 -0.9154912 -0.7093497 0.7822232 -1.6803471
-1.1848619 -0.23283507 -0.6617035 -1.0667645 2.0498238 0.4856837 -0.8649417 -0.03787109
0.38114968 0.3609744 1.2553822 -1.4725881 1.6464053 -0.5196859 -1.4426594 -1.3020935
0.83083075 0.7858793 1.4778818
00000000: e311 cd3e acf8 c13d 060d a2bf f982 cc3f
00000010: a25d 6abf f197 35bf c83f 483f 9d15 d7bf
00000020: 8ea9 97bf 516c 6ebe 6765 29bf bd8b 88bf
00000030: 5030 0340 89ab f83e d26c 5dbf b71e 1bbd
00000040: 0d26 c33e a3d1 b83e 5db0 a03f c47d bcbf
00000050: 69bd d23f 230a 05bf 10a9 b8bf 00ab a6bf
00000060: 53b1 543f 632f 493f 3b2b bd3f

numerical_embedder.weights f4 [8, 9]
-0.72755826 0.5606133 0.6087103 0.122999005 1.5009077 -0.5487428 2.8007383 0.43568453
0.15693331 -0.24329743 -1.0830293 0.12594156 0.36312246 0.99351305 0.7659209 0.5092662
-0.31420568 0.4249886 0.016453458 -1.3822784 -0.0037033272 0.78115547 0.4111096 -1.6349444
0.69232196 1.5003194 -0.28061 -0.5624218 -1.1708213 1.1055578 0.6220662 -0.7962514
-0.034979794 0.01770336 -0.38991413 -0.3263185 0.4026591 0.7350784 -0.32524332 -1.9069966
-0.47548658 -0.380192 1.5759674 0.58309644 -0.69486827 -0.6868726 -0.78467697 0.97579294
-0.77836937 -1.2072942 -0.12543087 -0.17483275 -0.29976508 0.19363913 2.4590158 -0.89258903
0.14481129 0.6180523 -0.57603943 0.1406667 -0.5504085 1.0873355 0.16981031 -0.29301247
-0.6974645 -1.5416576 -0.5736889 -0.024936233 1.3931694 0.95058364 0.27016783 0.15297113
00000000: 4241 3abf 5a84 0f3f 70d4 1b3f e7e6 fb3d
00000010: be1d c03f 687a 0cbf 4c3f 3340 0b12 df3e
00000020: 20b3 203e f622 79be b4a0 8abf d3f6 003e
00000030: 30eb b93e df56 7e3f 6413 443f 455f 023f
00000040: 91df a0be 1b98 d93e 67c9 863c 80ee b0bf
00000050: 85b3 72bb cef9 473f f57c d23e dc45 d1bf
00000060: 033c 313f 770a c03f 1dac 8fbe e0fa 0fbf
00000070: 79dd 95bf eb82 8d3f bb3f 1f3f 22d7 4bbf
00000080: f946 0fbd a306 913c d3a2 c7be 3813 a7be
00000090: 5529 ce3e 192e 3c3f 4b86 a6be 7718 f4bf
000000a0: fa72 f3be 87a8 c2be 4db9 c93f cf45 153f
000000b0: e3e2 31bf e2d6 2fbf 97e0 48bf 91cd 793f
000000c0: 3743 47bf 9e88 9abf f370 00be 5b07 33be
000000d0: cf7a 99be 5649 463e 8460 1d40 b780 64bf
000000e0: 6949 143e ad38 1e3f 5277 13bf ee0a 103e
000000f0: 92e7 0cbf cf2d 8b3f c1e2 2d3e bb05 96be
00000100: 098d 32bf 0955 c5bf 47dd 12bf 1247 ccbc
00000110: 6053 b23f 7359 733f 7053 8a3e 77a4 1c3e

numerical_embedder.biases f4 [8, 9]
-1.135236 0.44676372 0.008371445 -0.9639381 -1.4615942 1.391931 -1.1726533 1.1945757
-0.6189544 -0.81127447 -0.8053532 -0.14045952 -0.2983069 0.4199388 1.4397041 0.031762578
-0.67083496 -0.086772926 1.3061056 0.49369544 -0.36219227 1.5298109 -0.2749994 0.22775957
0.6239728 1.0447388 1.5210726 -2.5763113 0.637386 -0.66550976 0.1620766 -0.022460494
-0.055927686 -1.9106619 -1.5066956 -0.09508455 0.61348844 -0.8065157 -0.22096162 0.9825348
-1.2530783 0.10060166 1.5632418 0.8014739 -2.1064026 0.40493095 0.7746879 -1.1755865
-0.46026307 0.14495084 1.1897329 1.8922014 -0.3601521 -0.24911441 0.7228548 1.6248924
-1.2868615 -0.32914814 -0.37363508 0.33201963 0.56410235 0.77149653 1.6130552 -0.5292758
0.74094415 -1.1084155 1.1102765 -0.45027074 -0.23229948 -0.81749284 -0.83363056 0.5938517
00000000: 6a4f 91bf 37be e43e 6328 093c a6c4 76bf
00000010: 8515 bbbf cc2a b23f 8119 96bf dbe7 983f
00000020: cc73 1ebf afaf 4fbf a12b 4ebf 9fd4 0fbe
00000030: afbb 98be 3802 d73e 3948 b83f 7a19 023d
00000040: d7bb 2bbf 01b6 b1bd 782e a73f a6c5 fc3e
00000050: 4471 b9be d8d0 c33f b9cc 8cbe ce39 693e
00000060: aebc 1f3f 00ba 853f 82b2 c23f 49e2 24c0
00000070: bb2b 233f d95e 2abf 69f7 253e 12ff b7bc
00000080: 6e14 65bd 9290 f4bf 67db c0bf b0bb c2bd
00000090: 940d 1d3f d077 4ebf c343 62be 6787 7b3f
000000a0: df64 a0bf 3e08 ce3d 4f18 c83f 652d 4d3f
000000b0: 4dcf 06c0 1c53 cf3e f251 463f 9e79 96bf
000000c0: 9aa7 ebbe fe6d 143e 2b49 983f a833 f23f
000000d0: db65 b8be d917 7fbe 030d 393f 79fc cf3f
000000e0: e1b7 a4bf 1b86 a8be 194d bfbe 7afe a93e
000000f0: 0369 103f cc80 453f 9878 ce3f 9e7e 07bf
00000100: 84ae 3d3f 8fe0 8dbf 8a1d 8e3f e389 e6be
00000110: eadf 6dbe 3647 51bf d068 55bf aa06 183f

transformer.layers.0.0.static_alpha f4 [4, 5]
0.12671272 1.0 0.0 0.0 0.0 0.12671272 0.0 1.0
0.0 0.0 1.1267047 0.0 0.0 1.0 0.0 0.12671272
0.0 0.0 0.0 1.0
00000000: fbc0 013e 0000 803f 0000 0000 0000 0000
00000010: 0000 0000 fbc0 013e 0000 0000 0000 803f
00000020: 0000 0000 0000 0000 dc37 903f 0000 0000
00000030: 0000 0000 0000 803f 0000 0000 fbc0 013e
00000040: 0000 0000 0000 0000 0000 0000 0000 803f

transformer.layers.0.0.dynamic_alpha_fn f4 [9, 5]
0.03870923 0.0 0.0 0.0 0.0 0.08248649 0.0 0.0
0.0 0.0 -0.13010854 0.0 0.0 0.0 0.0 -0.044107754
0.0 0.0 0.0 0.0 -0.094996996 0.0 0.0 0.0
0.0 0.035915207 0.0 0.0 0.0 0.0 0.09616833 0.0
0.0 0.0 0.0 0.011021839 0.0 0.0 0.0 0.0
-0.02228304 0.0 0.0 0.0 0.0
00000000: 928d 1e3d 0000 0000 0000 0000 0000 0000
00000010: 0000 0000 adee a83d 0000 0000 0000 0000
00000020: 0000 0000 0000 0000 2c3b 05be 0000 0000
00000030: 0000 0000 0000 0000 0000 0000 55aa 34bd
00000040: 0000 0000 0000 0000 0000 0000 0000 0000
00000050: c98d c2bd 0000 0000 0000 0000 0000 0000
00000060: 0000 0000 d31b 133d 0000 0000 0000 0000
00000070: 0000 0000 0000 0000 e7f3 c43d 0000 0000
00000080: 0000 0000 0000 0000 0000 0000 f294 343c
00000090: 0000 0000 0000 0000 0000 0000 0000 0000
000000a0: ec8a b6bc 0000 0000 0000 0000 0000 0000
000000b0: 0000 0000

transformer.layers.0.0.static_beta f4 [4]
1.0402672 1.0124959 1.04265 0.9979833
00000000: 7a27 853f 7799 813f 8e75 853f d57b 7f3f

transformer.layers.0.0.dynamic_beta_fn f4 [9]
-0.17645232 -0.15547259 0.096502565 0.1474299 0.094858095 0.040110074 -0.23366624 -0.21437357
0.118084066
00000000: ebaf 34be 3534 1fbe 23a3 c53d ddf7 163e
00000010: f644 c23d 764a 243d 3446 6fbe bf84 5bbe
00000020: 0fd6 f13d

transformer.layers.0.0.branch.norm.weight f4 [9]
0.9300993 1.0458351 0.945089 1.0146028 1.0973263 0.9718425 0.9072058 1.1529803
1.0296932
00000000: fd1a 6e3f eddd 853f 5af1 713f 81de 813f
00000010: 3075 8c3f acca 783f a43e 683f dc94 933f
00000020: fdcc 833f

transformer.layers.0.0.branch.norm.bias f4 [9]
0.10455707 -0.061836295 -0.042879928 -0.018520778 0.0058916444 -0.0056749405 -0.0047174646 0.051806398
-0.082854606
00000000: 0422 d63d 0e48 7dbd dda2 2fbd e3b8 97bc
00000010: b20e c13b daf4 b9bb f694 9abb f232 543d
00000020: adaf a9bd

transformer.layers.0.0.branch.to_qkv.weight f4 [192, 9]
0.28485617 0.22823869 0.19816203 0.2262567 -0.0300259 0.21833983 0.09970803 0.16422871
-0.3049475 0.29369286 -0.0811683 -0.1872015 0.14227574 -0.26489878 0.20092255 -0.29071304
-0.045848507 -0.096834436 -0.19975777 -0.1461292 -0.135443 0.16903669 0.22761436 -0.25014147
-0.2380703 0.33856973 0.07168008 -0.24676017 -0.44815266 0.34577322 -0.060464267 -0.021452583
-0.2079044 -0.25239497 -0.0619256 0.18994045 0.056045625 -0.23184498 0.056863707 -0.22360413
-0.19054161 0.27631286 0.10181457 -0.20938835 -0.012944752 -0.20478897 -0.5226408 0.08221481
0.11365641 0.14875942 -0.002330671 -0.34382373 -0.13128133 -0.1524248 -0.031437572 -0.26663148
-0.16152713 -0.011292041 0.005897758 -0.108116984 -0.074485995 0.2297139 -0.010866378 0.44965118
0.16757403 -0.1326767 -0.20511574 -0.2379474 -0.33527505 0.3307527 0.42926657 -0.18771656
0.19234316 -0.062403847 -0.52962625 0.057811562 -0.12914024 0.10993 0.20147356 0.28242645
0.018124852 0.37734166 -0.12604427 -0.43104792 -0.19284596 -0.34173885 0.14967553 0.2739115
0.321493 -0.38999122 0.2776514 0.29135394 0.040615108 0.16184661 0.1468089 -0.33933187
0.2150811 -0.16661161 -0.2901148 0.2322924 0.27271885 -0.11579436 -0.094884306 -0.001780416
-0.09378968 -0.19732158 -0.10367396 -0.17916751 -0.058251742 -0.051860806 -0.26721683 -0.13649821
0.07764003 -0.1797705 0.36452278 0.37004438 -0.20917949 0.22708182 0.03624402 -0.044853106
-0.3679104 -0.100959405 -0.060202066 -0.2247871 0.0064626858 -0.06831551 0.26207513 -0.14850447
0.046862807 -0.30130154 -0.13492307 0.3047237 0.13369486 0.100864224 -0.036088467 -0.47562584
-0.012343691 0.23654498 -0.06781104 -0.07246121 0.5128673 0.06317454 -0.42083248 0.3251104
-0.13114482 0.07491166 0.11714833 0.15185568 0.080331214 0.057895634 0.12628174 0.052734245
0.25114912 0.46344122 -4.1608968e-05 -0.46913883 -0.09542634 -0.037054345 -0.32867825 0.2020394
0.37257275 0.1512203 0.030538501 0.08398056 0.3017934 -0.15842566 0.059641175 -0.26761854
-0.12156495 0.023590596 -0.09989823 -0.032398134 0.107110105 -0.27038267 0.22438546 0.06544841
-0.35818824 0.16050091 0.23264258 -0.22295041 -0.01992213 -0.09035202 -0.14916147 -0.004430524
0.30079347 -0.036512956 -0.24775288 -0.3472726 -0.063720755 0.10415017 0.35644528 -0.68789035
-0.46650687 -0.46625546 -0.11521757 0.7166935 0.3001963 -0.1623336 0.21394742 -0.020950167
-0.07527911 0.2900266 0.023146098 0.15087658 0.15403786 -0.2809209 -0.18853635 0.044511754
0.31496704 -0.05290419 -0.050163165 0.07571022 -0.24406412 0.07901667 -0.13088557 -0.17908373
-0.40717483 -0.23717502 0.00695235 0.2906094 0.3061441 0.18217894 -0.2220899 -0.25073382
0.1334085 -0.16982546 0.26884744 0.11136921 0.20114747 0.023512729 -0.089635976 0.021966659
-0.22194493 -0.27930015 0.00017498311 -0.0040687015 0.19414529 0.27286077 0.28167948 -0.21777214
-0.12627062 0.07817357 0.3235292 -0.14868072 -0.4022007 0.2711539 0.13995996 0.4834857
0.3760522 -0.4311216 -0.18554558 0.5357043 0.06628012 -0.04703419 -0.13550468 0.08253607
00000000: abd8 913e 67b7 693e fdea 4a3e d6af 673e
00000010: e0f8 f5bc 7a94 5f3e b933 cc3d 922b 283e
00000020: 1422 9cbe e95e 963e 913b a6bd c0b1 3fbe
00000030: bbb0 113e d0a0 87be a4be 4d3e 57d8 94be
00000040: a5cb 3bbd 2251 c6bd 4d8d 4cbe e5a2 15be
00000050: 92b1 0abe f417 2d3e bd13 693e 8b12 80be
00000060: b3c8 73be 0359 ad3e 01cd 923d b3ae 7cbe
00000070: 4474 e5be 3009 b13e 61a9 77bd 54bd afbc
00000080: e4e4 54be ea39 81be b3a5 7dbd c07f 423e
00000090: 1990 653d c568 6dbe ebe9 683d 7bf8 64be
000000a0: 571d 43be e178 8d3e 2884 d03d e669 56be
000000b0: 3a16 54bc 33b4 51be cacb 05bf 3d60 a83d
000000c0: b1c4 e83d 6454 183e 2cbe 18bb aa09 b0be
000000d0: 9d6e 06be 3f15 1cbe afc4 00bd ec83 88be
000000e0: 5e67 25be 4102 39bc fb41 c13b 706c ddbd
000000f0: 1d8c 98bd 1f3a 6b3e e508 32bc ae38 e63e
00000100: 8798 2b3e 67dc 07be dc09 52be 7ca8 73be
00000110: 2ca9 abbe 6b58 a93e d4c8 db3e c538 40be
00000120: 9bf5 443e 2d9b 7fbd 9695 07bf d1cb 6c3d
00000130: 573d 04be fb22 e13d 164f 4e3e 339a 903e
00000140: 927a 943c ed32 c13e c011 01be 50b2 dcbe
00000150: 6979 45be 65f8 aebe 8b44 193e 213e 8c3e
00000160: bb9a a43e eeac c7be 5328 8e3e 582c 953e
00000170: 075c 263d 1ebb 253e 1355 163e e8bc adbe
00000180: 383e 5c3e 3c9c 2abe ed89 94be 0fde 6d3e
00000190: cea1 8b3e 9825 edbd b452 c2bd d95c e9ba
000001a0: ce14 c0bd ab0e 4abe 0353 d4bd b077 37be
000001b0: 6199 6ebd ff6b 54bd a5d0 88be 30c6 0bbe
000001c0: bc01 9f3d c215 38be bba2 ba3e 7576 bd3e
000001d0: 2633 56be 2388 683e 9c74 143d e4b7 37bd
000001e0: c05e bcbe cec3 cebd 7196 76bd 972e 66be
000001f0: f0c4 d33b 01e9 8bbd b62e 863e 8e11 18be
00000200: 37f3 3f3d 3244 9abe 4629 0abe bf04 9c3e
00000210: 4ee7 083e e791 ce3d 80d1 13bd 3b85 f3be
00000220: 313d 4abc d938 723e 84e0 8abd 8b66 94bd
00000230: 454b 033f a761 813d 5b77 d7be df74 a63e
00000240: d44a 06be 496b 993d 77eb ef3d 0e80 1b3e
00000250: b184 a43d f923 6d3d 0050 013e ddff 573d
00000260: 9e96 803e 2b48 ed3e 4a85 2eb8 f732 f0be
00000270: e36e c3bd 4cc6 17bd 8448 a8be 6be3 4e3e
00000280: dbc1 be3e 7fd9 1a3e e12b fa3c 00fe ab3d
00000290: aa84 9a3e 563a 22be 4e4a 743d 4c05 89be
000002a0: 0bf7 f8bd 1141 c13c 7197 ccbd e8b3 04bd
000002b0: 8b5c db3d 996f 8abe 4dc5 653e d109 863d
000002c0: 7364 b7be 5a5a 243e db39 6e3e 1d4d 64be
000002d0: bc33 a3bc 7b0a b9bd c9bd 18be ee2d 91bb
000002e0: 9a01 9a3e 9c8e 15bd eeb2 7dbe b7cd b1be
000002f0: 0780 82bd af4c d53d ff7f b63e 9519 30bf
00000300: fdd9 eebe 09b9 eebe 30f7 ebbd 3a79 373f
00000310: 54b3 993e c73a 26be 0815 5b3e af9f abbc
00000320: ef2b 9abd 5e7e 943e e39c bd3c 647f 1a3e
00000330: 1abc 1d3e ddd4 8fbe ac0f 41be f551 363d
00000340: 5c43 a13e 10b2 58bd e477 4dbd f60d 9b3d
00000350: f2eb 79be 7ed3 a13d de06 06be ba61 37be
00000360: 3879 d0be 02de 72be 8ad0 e33b c1ca 943e
00000370: ebbe 9c3e 1e8d 3a3e 896b 63be 2f60 80be
00000380: 3d9c 083e bae6 2dbe 5fa6 893e 8a15 e43d
00000390: 9af9 4d3e c49d c03c 1193 b7bd 6cf3 b33c
000003a0: 8845 63be 6e00 8fbe ac7b 3739 be52 85bb
000003b0: 06ce 463e 68b4 8b3e 4b38 903e a9ff 5ebe
000003c0: 164d 01be 7719 a03d 9fa5 a53e c23f 18be
000003d0: 40ed cdbe afd4 8a3e aa51 0f3e 708b f73e
000003e0: ea89 c03e f8bb dcbe a9ff 3dbe eb23 093f
000003f0: dfbd 873d eca6 40bd bdc1 0abe ac08 a93d

transformer.layers.0.0.branch.to_out.weight f4 [9, 64]
0.13603114 0.03786649 -0.08652527 -0.05172761 -0.36445972 -0.12745282 0.056448642 -0.14310862
-0.028188216 0.07575632 0.040869582 0.02072699 -0.22103897 -0.12687525 0.114254296 -0.069419265
0.04985942 0.20188075 -0.073344655 -0.03211273 -0.06760858 -0.18616153 -0.12322859 -0.13404849
0.06993363 0.0943036 -0.16647536 0.21123658 0.24068208 0.07400072 -0.00041007288 -0.10066325
-0.054635465 0.14419806 -0.131529 0.05669824 -0.24741744 0.07404981 0.06197894 0.10630686
0.37103194 -0.043260816 -0.113909066 -0.07041546 -0.0200621 -0.051603604 0.0010959796 0.118670166
-0.05789385 0.19984172 0.027216902 -0.08660068 0.020329148 -0.12648487 0.026110798 0.1427794
0.011659077 -0.072687335 0.009164228 0.06565659 0.3175224 0.071880676 -0.056619674 -0.0103678135
0.024503987 -0.0031577917 -0.0034603095 0.06455762 -0.053739168 0.053578056 0.011915807 -0.014183849
0.051431987 0.14187902 0.091269195 -0.062586054 -0.11826889 0.106514074 -0.04452587 -0.03722565
-0.033880506 0.058022894 -0.032320693 0.061374933 -0.06539458 0.035368156 -0.10649713 0.007015535
0.045533173 0.0412212 0.059848227 -0.0929416 0.1628326 -0.073216535 -0.08222888 -0.18754068
-0.098421566 -0.07889774 -0.07738186 -0.025941297 -0.09233276 0.046924565 0.006223373 -0.029909277
0.089658275 0.043054987 -0.051045585 -0.077794924 -0.07351274 0.07704077 -0.0540598 0.07952118
-0.06435983 0.008274612 0.0452336 -0.08073325 -0.071314365 0.009831375 0.12784798 0.12523025
-0.14788829 0.1296705 0.012327224 -0.0905939 0.013448863 -0.08885612 -0.10293032 0.035230726
-0.024997914 0.08742728 0.049352854 -0.057290856 -0.15803106 -0.04024257 -0.095060155 -0.03870257
0.07197919 -0.03579613 -0.054174002 -0.034075364 -0.04724632 -0.06508668 0.08499442 -0.043032322
0.046592113 -0.057903998 0.02299934 0.07322443 0.01029683 0.0055809254 -0.033921387 0.011875279
0.10613105 -0.048702314 0.0013405542 -0.012716808 0.09870179 -0.07797334 0.041796915 0.0442312
-0.028997561 0.11014765 -0.002972776 5.6337005e-05 -0.02691372 -0.03403942 0.021476194 0.123800635
0.10952139 0.063350454 -0.10627066 -0.098648466 0.06554502 -0.10045815 -0.028706009 -0.00517171
0.05930591 0.095631406 -0.07205052 -0.098077364 0.058757342 0.008999643 0.100566804 -0.0032138352
-0.04444268 0.06674608 0.07053882 0.011367969 0.13193013 -0.08700472 0.047576047 -0.092574134
-0.074716166 0.0020761162 -0.03498479 0.04272104 0.05116082 -0.014616208 0.04508935 0.09979226
0.014002713 0.081279345 0.012097284 -0.035257813 -0.033694673 0.02008058 -0.0036204786 -0.059137624
0.03325438 -0.12548871 0.0116125615 -0.08937798 0.1526392 -0.01481872 0.06871745 0.02105228
-0.0037592847 -0.13077368 -0.05701089 -0.1909796 0.020793848 -0.04293958 0.022256441 -0.04952054
0.06284934 -0.0833176 0.070764735 -0.0050106514 0.08596218 0.022070417 -0.03113757 -0.038778547
-0.11826006 -0.0036244816 0.09593689 -0.048512418 -0.027106099 0.047431756 0.011816213 -0.11034075
0.073105104 0.031593874 -0.1317216 0.11436387 -0.016583296 0.19068857 -0.012568377 -0.13154474
-0.040460724 0.082355544 0.0501548 -0.07361913 -0.006730672 -0.02140362 -0.10876118 -0.021131266
00000000: bf4b 0b3e e519 1b3d 2934 b1bd 55e0 53bd
00000010: 779a babe fe82 02be b136 673d 118b 12be
00000020: f9ea e6bc 2126 9b3d dd66 273d a6cb a93c
00000030: 0a58 62be 96eb 01be 28fe e93d b02b 8ebd
00000040: 6439 4c3d d4b9 4e3e b935 96bd a388 03bd
00000050: 5e76 8abd 21a1 3ebe 455f fcbd 0244 09be
00000060: 5d39 8f3d 3f22 c13d 8478 2abe 674e 583e
00000070: 5d75 763e b18d 973d 0dff d6b9 8928 cebd
00000080: 70c9 5fbd a8a8 133e 8aaf 06be 6a3c 683d
00000090: ff5a 7dbe 6da7 973d a1dd 7d3d 69b7 d93d
000000a0: e6f7 bd3e 4132 31bd 2849 e9bd fb35 90bd
000000b0: 4659 a4bc 4d5e 53bd f9a6 8f3a 5809 f33d
000000c0: 1a22 6dbd 4fa3 4c3e fbf5 de3c b35b b1bd
000000d0: 5089 a63c 4085 01be 50e6 d53c c334 123e
000000e0: b705 3f3c 19dd 94bd 8f25 163c f676 863d
000000f0: 4c92 a23e 2d36 933d 08ea 67bd c3dd 29bc
00000100: 96bc c83c f4f2 4ebb 5cc6 62bb c936 843d
00000110: 9a1d 5cbd aa74 5b3d 843a 433c 6063 68bc
00000120: 59aa 523d bc48 113e 58eb ba3d 1e2d 80bd
00000130: f636 f2bd 0d24 da3d c260 36bd ec79 18bd
00000140: 49c6 0abd 6aa9 6d3d b462 04bd 4864 7b3d
00000150: 98ed 85bd 33de 103d 2b1b dabd 93e2 e53b
00000160: fe80 3a3d 90d7 283d 6a23 753d 2a58 bebd
00000170: 97bd 263e 8df2 95bd 9d67 a8bd aa0a 40be
00000180: 3f91 c9bd 2395 a1bd 617a 9ebd d882 d4bc
00000190: f518 bdbd f933 403d 70ed cb3b 4d04 f5bc
000001a0: c29e b73d 6d5a 303d 2d15 51bd f252 9fbd
000001b0: d98d 96bd 8dc7 9d3d cf6d 5dbd 00dc a23d
000001c0: 16cf 83bd 3d92 073c de46 393d 7957 a5bd
000001d0: 440d 92bd c713 213c 95ea 023e 5c3c 003e
000001e0: 0770 17be 58c8 043e 20f8 493c 4b89 b9bd
000001f0: 9f58 5c3c 33fa b5bd 22cd d2bd 184e 103d
00000200: 6dc8 ccbc 130d b33d 3826 4a3d d1a9 6abd
00000210: e5d2 21be 65d5 24bd e6ae c2bd 9686 1ebd
00000220: d369 933d f69e 12bd 8fe5 5dbd 9c92 0bbd
00000230: 5b85 41bd 2a4c 85bd 8e11 ae3d a942 30bd
00000240: 5fd7 3e3d be2c 6dbd 1d69 bc3c b1f6 953d
00000250: 09b4 283c 32e0 b63b 27f1 0abd 8890 423c
00000260: 3c5b d93d 147c 47bd 89b5 af3a 295a 50bc
00000270: 2a24 ca3d 7db0 9fbd 3e33 2b3d c62b 353d
00000280: 4b8c edbc 1795 e13d e8d2 42bb 664b 6c38
00000290: 297a dcbc eb6c 0bbd d8ee af3c 308b fd3d
000002a0: c04c e03d e2bd 813d 6fa4 d9bd 3508 cabd
000002b0: 783c 863d 01bd cdbd dd28 ebbc 7377 a9bb
000002c0: c1ea 723d 66da c33d 398f 93bd c9dc c8bd
000002d0: 8aab 703d 3d73 133c f8f5 cd3d 359f 52bb
000002e0: 8709 36bd 2bb2 883d a876 903d b840 3a3c
000002f0: b118 073e 882f b2bd 1adf 423d 8297 bdbd
00000300: ca04 99bd 730f 083b 364c 0fbd 42fc 2e3d
00000310: 028e 513d d278 6fbc 9caf 383d e25f cc3d
00000320: a36b 653c c975 a63d b033 463c 7f6a 10bd
00000330: 6d03 0abd 0780 a43c 8d45 6dbb 4b3a 72bd
00000340: bf35 083d 1d80 00be 9d42 3e3c cd0b b7bd
00000350: 734d 1c3e 37ca 72bc bcbb 8c3d d575 ac3c
00000360: 555e 76bb 89e9 05be 4084 69bd 2890 43be
00000370: dc57 aa3c 6ae1 2fbd 2453 b63c 0dd6 4abd
00000380: 28b7 803d 6ba2 aabd 1aed 903d 6430 a4bb
00000390: f00c b03d 05cd b43c 3814 ffbc 41d6 1ebd
000003a0: 5532 f2bd b688 6dbb 8f7a c43d f5b4 46bd
000003b0: 9c0d debc cd47 423d ca98 413c 55fa e1bd
000003c0: 21b8 953d 9468 013d 07e2 06be 9b37 ea3d
000003d0: b1d9 87bc dd43 433e 98eb 4dbc aab3 06be
000003e0: 25ba 25bd 06aa a83d 1f6f 4d3d a0c5 96bd
000003f0: f88c dcbb a556 afbc 2ebe debd 7a1b adbc

transformer.layers.0.0.norm.gamma f4 [9]
0.19649477 0.11239543 0.16663682 0.20076914 0.14495273 0.09237115 0.23144834 0.21461286
0.18737023
00000000: ed35 493e 932f e63d d8a2 2a3e 6d96 4d3e
00000010: 7d6e 143e 162d bd3d cb00 6d3e 79c3 5b3e
00000020: fbdd 3f3e

transformer.layers.0.1.static_alpha f4 [4, 5]
-0.12557295 1.0 0.0 0.0 0.0 -0.09293167 0.0 1.0
0.0 0.0 -0.1172733 0.0 0.0 1.0 0.0 0.85475004
0.0 0.0 0.0 1.0
00000000: 3296 00be 0000 803f 0000 0000 0000 0000
00000010: 0000 0000 f652 bebd 0000 0000 0000 803f
00000020: 0000 0000 0000 0000 fc2c f0bd 0000 0000
00000030: 0000 0000 0000 803f 0000 0000 e6d0 5a3f
00000040: 0000 0000 0000 0000 0000 0000 0000 803f

transformer.layers.0.1.dynamic_alpha_fn f4 [9, 5]
-0.038472123 0.0 0.0 0.0 0.0 -0.13862994 0.0 0.0
0.0 0.0 0.04629158 0.0 0.0 0.0 0.0 -0.09674109
0.0 0.0 0.0 0.0 -0.064796366 0.0 0.0 0.0
0.0 -0.081500724 0.0 0.0 0.0 0.0 -0.06460797 0.0
0.0 0.0 0.0 -0.22822832 0.0 0.0 0.0 0.0
-0.2552568 0.0 0.0 0.0 0.0
00000000: f294 1dbd 0000 0000 0000 0000 0000 0000
00000010: 0000 0000 02f5 0dbe 0000 0000 0000 0000
00000020: 0000 0000 0000 0000 3d9c 3d3d 0000 0000
00000030: 0000 0000 0000 0000 0000 0000 3120 c6bd
00000040: 0000 0000 0000 0000 0000 0000 0000 0000
00000050: f5b3 84bd 0000 0000 0000 0000 0000 0000
00000060: 0000 0000 dae9 a6bd 0000 0000 0000 0000
00000070: 0000 0000 0000 0000 2f51 84bd 0000 0000
00000080: 0000 0000 0000 0000 0000 0000 afb4 69be
00000090: 0000 0000 0000 0000 0000 0000 0000 0000
000000a0: 05b1 82be 0000 0000 0000 0000 0000 0000
000000b0: 0000 0000

transformer.layers.0.1.static_beta f4 [4]
1.0312393 1.0384108 0.9783907 1.0022433
00000000: a6ff 833f a5ea 843f d077 7a3f 8249 803f

transformer.layers.0.1.dynamic_beta_fn f4 [9]
0.020643156 0.06436674 -0.11109733 -0.120547704 -0.1252411 -0.04075007 0.15987006 0.059477765
-0.10696866
00000000: d61b a93c b6d2 833d ff86 e3bd b7e1 f6bd
00000010: 343f 00be 8ce9 26bd fab4 233e f59e 733d
00000020: 6312 dbbd

transformer.layers.0.1.branch.0.weight f4 [9]
1.0882572 0.9301564 1.0688648 1.2580702 1.0389489 0.97076446 1.2781966 0.9403211
1.0434086
00000000: 034c 8b3f bb1e 6e3f 90d0 883f 7208 a13f
00000010: 47fc 843f 0584 783f f29b a33f e2b8 703f
00000020: 6a8e 853f

transformer.layers.0.1.branch.0.bias f4 [9]
0.007350902 -0.092781544 0.049294237 -0.001866163 -0.045935553 0.011025795 -0.023651265 -0.022281297
0.018472772
00000000: d6df f03b 4004 bebd c1e8 493d 0a9a f4ba
00000010: eb26 3cbd 89a5 343c 4cc0 c1bc 4487 b6bc
00000020: 3654 973c

transformer.layers.0.1.branch.1.weight f4 [72, 9]
0.4216269 0.23270324 0.091636166 -0.16024025 -0.34466547 -0.12532102 0.35273978 0.038992353
-0.552654 -0.14431661 0.26843596 0.40713462 -0.05348585 -0.14923336 0.3445815 -0.39749798
-0.11168698 0.115621485 -0.050372586 0.08680235 -0.22775693 -0.34226415 -0.1604811 0.2547214
0.7452758 -0.040283155 -0.31765494 0.34238797 0.11763797 -0.19580752 -0.1975968 0.14557661
0.18548284 0.71196264 -0.26027474 -0.275144 -0.3880411 -0.2789332 0.41026628 -0.05616386
-0.02190248 -0.28628188 -0.07334735 -0.30576313 -0.032397814 0.10275816 0.23814785 0.3534336
-0.048697352 0.2731251 -0.21955402 -0.03903307 -0.2065444 0.33976904 -0.3335911 -0.09034306
0.23170063 0.34744194 0.19235857 -0.22929433 -0.6209213 0.32141706 -0.3073025 -0.0067137945
-0.31392422 -0.3886493 -0.17337006 0.35184988 -0.24769366 0.08160735 0.20126845 0.003494495
-0.036898293 -0.008425298 0.0995873 0.018145293 -0.11825729 -0.21188241 -0.010022257 0.35946822
-0.035812777 0.109030925 0.25687563 -0.19105384 -0.22855018 0.4024865 0.27763844 0.18452318
-0.11441102 0.3317586 0.18915255 0.06166313 0.14267375 -0.37148267 0.18962026 -0.016505744
0.0924599 0.24980842 -0.2109783 0.24574777 0.2928428 -0.25748244 -0.3634983 0.06489692
0.21249196 -0.12821707 -0.222235 -0.33354893 0.26784992 0.42317104 -0.14217933 -0.062365167
0.020906799 -0.2629927 -0.048755128 0.18707493 -0.3749125 -0.08719805 0.07444794 -0.43445912
-0.079525575 0.23658541 -0.5056636 -0.06224763 -0.14402334 -0.18097824 -0.21691652 0.036813006
-0.21699345 0.25533965 0.061785668 0.14070584 -0.02284631 -0.43628624 0.107558295 -0.18697415
0.26288283 0.22037128 -0.17568271 0.14583033 0.056991164 0.4227979 -0.17336574 0.039385494
-0.28046525 -0.16097161 0.20618717 0.175173 -0.40930405 0.11593628 0.1477416 -0.21364722
-0.1470576 0.041019276 0.019365668 -0.08098732 0.48060822 -0.15301989 0.11907295 -0.22369036
-0.26722506 -0.16516674 -0.30733043 -0.21112463 0.32162207 -0.05707645 0.39539438 0.017410995
0.17847724 -0.13074519 -0.0014406242 -0.28928998 0.18703797 0.13699028 -0.1519127 -0.26601112
-0.031350814 0.02750991 0.30341893 0.121558525 0.05850236 0.11675269 0.027725374 -0.19977076
-0.18746997 -0.23402238 0.06208379 0.010585975 -0.13214415 -0.01003427 -0.07679528 0.11464972
0.031356428 -0.11743205 0.075075924 0.2601145 -0.089164965 -0.4688474 0.10762185 0.14067383
-0.15263145 -0.35626286 -0.38729784 -0.23348753 0.1614145 -0.21080126 -0.20430924 -0.25292978
-0.17230497 -0.29789382 0.0335584 -0.12257999 -0.062238853 -0.101287045 -0.15961078 -0.0012653703
0.012130732 -0.18754716 0.3880821 -0.24427368 -0.34202036 -0.0035949363 -0.24588233 0.19182315
0.32484332 0.28838316 -0.1462219 -0.18167217 0.19156303 0.07603486 0.3883071 0.012856606
0.42559057 0.09202909 -0.13571459 -0.09655784 -0.33129936 -0.32720476 0.35506895 -0.03065216
0.041280802 -0.027469393 -0.15689945 -0.31833196 -0.2470841 -0.17173058 0.34953776 0.2927631
0.015192513 -0.41113225 -0.28204617 -0.21659686 0.025271993 0.1386773 -0.19016361 -0.111450806
00000000: 7bdf d73e c249 6e3e beab bb3d 0516 24be
00000010: fe77 b0be 2754 00be 4f9a b43e 72b6 1f3d
00000020: bc7a 0dbf bcc7 13be 7070 893e f373 d03e
00000030: fb13 5bbd a1d0 18be fd6c b03e db84 cbbe
00000040: 25bc e4bd f5ca ec3d 7c53 4ebd 6ec5 b13d
00000050: 1d39 69be 3f3d afbe 2855 24be d86a 823e
00000060: 65ca 3e3f f3ff 24bd aba3 a2be 7a4d af3e
00000070: 2dec f03d c481 48be d156 4abe 0912 153e
00000080: 37ef 3d3e 2f43 363f bb42 85be addf 8cbe
00000090: 53ad c6be 55d0 8ebe 6c0e d23e 130c 66bd
000000a0: d46c b3bc 8a93 92be 2337 96bd fc8c 9cbe
000000b0: 92b3 04bd df72 d23d 08dd 733e 40f5 b43e
000000c0: e076 47bd 0ed7 8b3e c5d2 60be 24e1 1fbd
000000d0: 6080 53be 35f6 ad3e 74cc aabe c805 b9bd
000000e0: ee42 6d3e e9e3 b13e a5f9 443e 22cc 6abe
000000f0: b3f4 1ebf c790 a43e c156 9dbe 64ff dbbb
00000100: adba a0be 0bfd c6be ec87 31be ab25 b43e
00000110: 68a3 7dbe c121 a73d 5119 4e3e e603 653b
00000120: aa22 17bd 430a 0abc 6df4 cb3d 70a5 943c
00000130: e130 f2bd b4f7 58be 6534 24bc 380c b83e
00000140: 6bb0 12bd 9b4b df3d 3485 833e 9ea3 43be
00000150: 0f09 6abe b612 ce3e a026 8e3e a5f3 3c3e
00000160: 5350 eabd 43dc a93e 35b1 413e 7a92 7c3d
00000170: 1119 123e fa32 bebe d02b 423e 0e37 87bc
00000180: 9e5b bd3d c7cd 7f3e b20a 58be 4ea5 7b3e
00000190: 7eef 953e bdd4 83be 731c babe ade8 843d
000001a0: 7e97 593e 564b 03be 9291 63be edc6 aabe
000001b0: a023 893e e0a9 d83e 7597 11be 9e72 7fbd
000001c0: bc44 ab3c fba6 86be 75b3 47bd 9290 3f3e
000001d0: 88f4 bfbe e494 b2bd 2978 983d 6d71 debe
000001e0: 4ede a2bd 7243 723e 2b73 01bf 5ff7 7ebd
000001f0: db7a 13be 5c52 39be 5d1f 5ebe 3cc9 163d
00000200: 8833 5ebe e1bb 823e f812 7d3d 3115 103e
00000210: 2f28 bbbc e960 dfbe 8647 dc3d 2776 3fbe
00000220: 9498 863e 02a9 613e 2be6 33be 8c54 153e
00000230: 916f 693d f778 d83e ca86 31be af52 213d
00000240: 2499 8fbe bed5 24be bb22 533e 8d60 333e
00000250: 4d90 d1be 0070 ed3d 9349 173e 56c6 5abe
00000260: 4496 16be d403 283d c0a4 9e3c aedc a5bd
00000270: 4812 f63e 3fb1 1cbe 85dc f33d 160f 65be
00000280: b9d1 88be 7821 29be 6a5a 9dbe 0e31 58be
00000290: a6ab a43e ffc8 69bd 2271 ca3e 81a1 8e3c
000002a0: bdc2 363e 11e2 05be 54d3 bcba d11d 94be
000002b0: e286 3f3e 2e47 0c3e 018f 1bbe 9c32 88be
000002c0: b669 00bd 765c e13c ba59 9b3e adf3 f83d
000002d0: 2ca0 6f3d 091c ef3d 5320 e33c b590 4cbe
000002e0: 21f8 3fbe 90a3 6fbe 924b 7e3d cc70 2d3c
000002f0: cc50 07be c766 24bc d846 9dbd 79cd ea3d
00000300: 996f 003d 3780 f0bd 68c1 993d ba2d 853e
00000310: 1f9c b6bd c40c f0be d868 dc3d cd0c 103e
00000320: 6b4b 1cbe 1668 b6be e74b c6be 5b17 6fbe
00000330: d849 253e 49dc 57be 7136 51be 0380 81be
00000340: b770 30be 8a85 98be 8874 093d 380b fbbd
00000350: 2bee 7ebd 956f cfbd 0271 23be c8da a5ba
00000360: fabf 463c 5d0c 40be b2b2 c63e e122 7abe
00000370: 4b1d afbe 0699 6bbb 94c8 7bbe 4a6d 443e
00000380: dd51 a63e f5a6 933e 32bb 15be 4508 3abe
00000390: 1929 443e 2ab8 9b3d 30d0 c63e 84a4 523c
000003a0: 02e7 d93e bf79 bc3d c4f8 0abe 1ec0 c5bd
000003b0: 12a0 a9be 6287 a7be 99cb b53e 3d1a fbbc
000003c0: 0f16 293d 7e07 e1bc 40aa 20be 68fc a2be
000003d0: 9d03 7dbe 24da 2fbe 9df6 b23e 0ce5 953e
000003e0: 05ea 783c ed7f d2be 5b68 90be 91cb 5dbe
000003f0: 3607 cf3c 6c01 0e3e 40ba 42be 5240 e4bd

transformer.layers.0.1.branch.1.bias f4 [72]
0.3155787 -0.32607263 -0.34503844 -0.05556273 -0.0897185 0.058380954 0.014593764 0.2543467
-0.2689086 0.28280482 -0.22475433 -0.19295903 0.122198895 -0.090922244 -0.293787 0.16398741
0.2738738 0.043798923 -0.13463344 0.17397858 0.024028128 -0.21744719 0.332317 0.119219
0.077966146 -0.19577461 -0.15095119 0.022423003 0.009821122 0.15976962 0.10385376 -0.28769314
-0.015264344 0.3506634 0.011122001 -0.25577548 -0.1261185 -0.015503511 0.104536764 -0.110272914
0.28803885 0.24703428 -0.0001388179 0.14673802 0.08362199 -0.07179008 -0.103850245 -0.06254057
-0.12705217 0.20270605 -0.29086998 0.36763757 -0.44039437 -0.251495 0.12157007 0.027638214
0.33548862 -0.000852232 -0.04614246 -0.09091172 0.32659402 -0.05939726 -0.12776576 -0.041327775
-0.06585604 -0.05551316 0.22491455 0.11380178 -0.009285814 -0.0904946 0.2492574 0.17599139
00000000: 8893 a13e fef2 a6be e1a8 b0be bf95 63bd
00000010: 55be b7bd de20 6f3d af1a 6f3c bb39 823e
00000020: 63ae 89be cbcb 903e 0026 66be 0d97 45be
00000030: 6a43 fa3d 7135 babd 406b 96be 51ec 273e
00000040: 3039 8c3e 8066 333d 59dd 09be 7127 323e
00000050: a3d6 c43c 7aaa 5ebe 7425 aa3e 1729 f43d
00000060: b7ac 9f3d 2479 48be f392 1abe 72b0 b73c
00000070: c5e8 203c a69a 233e 48b1 d43d 844c 93be
00000080: 4d17 7abc 278a b33e 0e39 363c 01f5 82be
00000090: 3525 01be 7002 7ebc 5f17 d63d c4d6 e1bd
000000a0: d479 933e 8ef6 7c3e a58f 11b9 7e42 163e
000000b0: 0242 ab3d ad06 93bd 70af d4bd 4515 80bd
000000c0: f719 02be 2d92 4f3e e9ec 94be fe3a bc3e
000000d0: 5f7b e1be f4c3 80be bbf9 f83d 8969 e23c
000000e0: 2ac5 ab3e 5268 5fba e0ff 3cbd ed2f babd
000000f0: 5537 a73e 8b4a 73bd 07d5 02be 5047 29bd
00000100: 88df 86bd c461 63bd 0050 663e e810 e93d
00000110: 8723 18bc 3c55 b9bd 553d 7f3e 1637 343e

transformer.layers.0.1.branch.4.weight f4 [9, 36]
0.09284059 -0.2742919 0.08971801 0.25302392 -0.043178312 0.0324262 -0.12016896 -0.24353397
0.09681397 0.0701054 0.2106987 -0.082569785 0.032530576 -0.035866853 0.0067275385 -0.13346
-0.009335841 -0.12465306 0.009770472 0.2136418 -0.16936927 -0.03262266 0.0141467005 0.091003
0.15335609 0.12799485 -0.013655245 0.06813203 0.2513762 -0.15127452 -0.07006657 0.23035927
-0.07821931 -0.06535229 0.22190945 0.022217905 -0.042412788 -0.08684887 -0.2030957 -0.15418595
-0.1373327 -0.13934594 0.2466147 -0.010582622 0.011493405 -0.081253074 0.044405896 0.17601348
-0.027873015 -0.097818464 0.19163984 -0.23940979 0.24068119 0.09388406 0.11706043 0.21602607
-0.057462767 -0.06768273 0.08154705 0.020309512 0.10189164 0.13831203 -0.12433923 0.14776844
0.052726246 0.04887589 0.11717917 0.10961652 0.037893694 0.10554498 -0.090301074 0.20555319
-0.098209955 0.1768726 -0.088266775 0.00089208706 -0.027123498 -0.06665412 0.075466186 0.13612087
-0.16507399 -0.03373865 0.06382046 0.06047836 0.0140701085 0.2601604 0.064261355 0.03632913
-0.08009076 0.20098324 -0.05841178 0.014033614 0.08898342 -0.10894783 0.12847455 0.10877693
-0.11676624 0.051863227 0.12822258 0.14130378 -0.05575996 -0.013090508 0.10281707 -0.039669737
0.13974257 0.06002288 0.001768795 -0.031020567 -0.07955573 0.06697668 -0.13768026 0.014778715
0.021251734 0.033632245 0.07184051 0.1062238 -0.07013902 0.2850295 -0.051171303 0.012488477
0.09395566 -0.104054905 -0.04073437 0.060348194 0.18826093 0.026361728 -0.07235883 -0.04790327
0.035784062 0.012128245 -0.005018992 -0.088090114 -0.16955307 -0.076587245 -0.10427018 0.07680784
-0.052113246 -0.120493546 0.12494088 0.011010221 0.15482411 0.008713033 0.0209732 -0.018836353
-0.04416023 0.2678938 -0.11546983 -0.0796058 -0.07138517 -0.119828746 0.12099096 0.122147895
-0.15354852 0.04515731 -0.10901598 0.1034735 -0.029657252 0.033447374 0.105810314 0.15040039
0.017731471 0.16900215 0.034468416 -0.05478445 0.1628786 0.0023263912 0.106417894 -0.1430117
-0.14935526 -0.0595598 0.0076318146 0.03427141 -0.12515272 0.06826765 0.196393 -0.14714839
0.10059876 0.07815117 -0.25046033 0.106843404 -0.05782579 0.15842408 -0.16665842 -0.023347065
-0.013285499 0.042889703 0.06450201 0.106813006 -0.1024701 0.05922342 -0.12811655 0.14515865
0.09659901 0.009578682 -0.0016309309 0.18780595 0.07230091 0.048396714 -0.060908705 -0.0050892695
-0.009289807 0.020635227 0.030822344 -0.18373847 -0.128465 -0.05034405 -0.027532987 0.06304337
-0.013994504 0.16550389 0.18083131 -0.14183402 0.11345527 0.10062703 -0.17281407 0.03337895
0.30873397 -0.47433487 0.52251065 0.52367187 0.26805517 0.30214718 -0.43445516 -0.3347442
0.1737099 -0.1465366 0.101982355 -0.22580314 0.20656465 0.116752565 -0.23242544 -0.16489887
-0.12657912 0.08465712 -0.24838036 0.15506299 -0.115584224 -0.042920608 -0.16041526 -0.03848016
-0.008930515 -0.021542994 0.06327795 -0.09859473 0.26847735 0.013252962 -0.35068196 0.40482044
0.18600714 -0.2593414 -0.009307903 -0.30143803 0.021161465 -0.046859108 -0.00519133 0.12175898
00000000: 3523 be3d fd6f 8cbe 13be b73d 5a8c 813e
00000010: bedb 30bd 56d1 043d 251b f6bd f860 79be
00000020: 6746 c63d 6c93 8f3d 66c1 573e 591a a9bd
00000030: c83e 053d 1fe9 12bd af72 dc3b bda9 08be
00000040: 5bf5 18bc 1b4a ffbd 5414 203c ebc4 5a3e
00000050: 236f 2dbe 579f 05bd 90c7 673c c85f ba3d
00000060: 6109 1d3e 1511 033e 40ba 5fbc ce88 8b3d
00000070: 62b4 803e b5e7 1abe 107f 8fbd 4de3 6b3e
00000080: 7231 a0bd 6cd7 85bd 3b3c 633e 5302 b63c
00000090: 08b9 2dbd d2dd b1bd 52f8 4fbe ece2 1dbe
000000a0: f1a0 0cbe b4b0 0ebe 9088 7c3e bc62 2dbc
000000b0: d64e 3c3c 0368 a6bd f5e2 353d e13c 343e
000000c0: f355 e4bc 0c55 c8bd 3c3d 443e d727 75be
000000d0: 2175 763e 4946 c03d 61bd ef3d f035 5d3e
000000e0: 145e 6bbd 3e9d 8abd 2402 a73d 2260 a63c
000000f0: 90ac d03d aba1 0d3e 91a5 febd 9c50 173e
00000100: 7af7 573d 1632 483d a2fb ef3d a07e e03d
00000110: 6b36 1b3d f727 d83d c5ef b8bd 897c 523e
00000120: 4d22 c9bd 171e 353e 36c5 b4bd f3da 693a
00000130: 1932 debc f581 88bd 048e 9a3d 4563 0b3e
00000140: 2809 29be 8a31 0abd 4db4 823d 28b8 773d
00000150: 5086 663c be33 853e 759b 833d dbcd 143d
00000160: a006 a4bd 8dce 4d3e 3141 6fbd 3eed 653c
00000170: f03c b63d 0a20 dfbd d58e 033e 70c6 de3d
00000180: 2323 efbd 896e 543d c84c 033e f0b1 103e
00000190: 8e64 64bd 9279 56bc c291 d23d bc7c 22bd
000001a0: ad18 0f3e 8dda 753d e9d6 e73a d81e febc
000001b0: 1dee a2bd 122b 893d 0efc 0cbe 6c22 723c
000001c0: 1e18 ae3c f7c1 093d 1e21 933d dd8b d93d
000001d0: 0ca5 8fbd 63ef 913e 0099 51bd 789c 4c3c
000001e0: d36b c03d bd1a d5bd 15d9 26bd ab2f 773d
000001f0: 79c7 403e 8df4 d73c de30 94bd 3836 44bd
00000200: 4f92 123d 8cb5 463c 5b76 a4bb 9768 b4bd
00000210: 529f 2dbe c6d9 9cbd 9b8b d5bd 6e4d 9d3d
00000220: b374 55bd 52c5 f6bd 01e1 ff3d 3764 343c
00000230: 368a 1e3e 1cc1 0e3c fdcf ab3c b24e 9abc
00000240: 5be1 34bd 6029 893e 727b ecbd 5e08 a3bd
00000250: 6332 92bd c668 f5bd 1cca f73d ad28 fa3d
00000260: d33b 1dbe dff6 383d c543 dfbd eae9 d33d
00000270: c4f3 f2bc 1d00 093d 14b3 d83d 8f02 1a3e
00000280: 9741 913c e60e 2d3e c12e 0d3d a965 60bd
00000290: a6c9 263e 5e76 183b a0f1 d93d a971 12be
000002a0: 96f0 18be faf4 73bd 4d14 fa3b 2e60 0c3d
000002b0: 0928 00be e9cf 8b3d 3f1b 493e 11ae 16be
000002c0: b906 ce3d b80d a03d 563c 80be b7d0 da3d
000002d0: bcda 6cbd ec39 223e 81a8 2abe 5842 bfbc
000002e0: 6cab 59bc 1dad 2f3d a119 843d c7c0 da3d
000002f0: d8db d1bd 4294 723d fc30 03be 78a4 143e
00000300: b4d5 c53d e7ef 1c3c f6c4 d5ba 3450 403e
00000310: 8012 943d a23b 463d 687b 79bd e3c3 a6bb
00000320: 4634 18bc 350b a93c 247f fc3c f025 3cbe
00000330: 548c 03be 9035 4ebd dc8c e1bc e21c 813d
00000340: 3449 65bc da79 293e d82b 393e f03c 11be
00000350: 3d5b e83d 8b15 ce3d 2cf6 30be 5eb8 083d
00000360: 6112 9e3e 05dc f2be 42c3 053f 5c0f 063f
00000370: 873e 893e 09b3 9a3e e870 debe 9763 abbe
00000380: 02e1 313e b10d 16be 20dc d03d f038 67be
00000390: af85 533e f81b ef3d ef00 6ebe 40db 28be
000003a0: f59d 01be b660 ad3d 6c57 7ebe d5c8 1e3e
000003b0: 6cb7 ecbd 85cd 2fbd e643 24be 5f9d 1dbd
000003c0: 4b51 12bc ef7a b0bc df97 813d 09ec c9bd
000003d0: dd75 893e f422 593c 968c b3be a044 cf3e
000003e0: a878 3e3e 65c8 84be 2d80 18bc 1656 9abe
000003f0: cf5a ad3c 56ef 3fbd 081c aabb c65c f93d

transformer.layers.0.1.branch.4.bias f4 [9]
0.038724124 0.07736053 0.1189355 -0.054128733 0.16695745 -0.11800141 -0.16876017 0.2325921
0.21943231
00000000: 309d 1e3d 336f 9e3d 7594 f33d 17b6 5dbd
00000010: e5f6 2a3e b9aa f1bd 77cf 2cbe a02c 6e3e
00000020: ddb2 603e

transformer.layers.0.1.norm.gamma f4 [9]
-0.03356986 0.0172032 0.03757168 0.10550521 0.07558011 -0.002181649 0.00051512173 0.08962526
0.15806897
00000000: 8d80 09bd baed 8c3c c3e4 193d 1e13 d83d
00000010: bfc9 9a3d fff9 0ebb 3c09 073a 738d b73d
00000020: d5dc 213e

transformer.layers.1.0.static_alpha f4 [4, 5]
0.090224266 1.0 0.0 0.0 0.0 0.9457157 0.0 1.0
0.0 0.0 0.052895527 0.0 0.0 1.0 0.0 -0.003906562
0.0 0.0 0.0 1.0
00000000: 80c7 b83d 0000 803f 0000 0000 0000 0000
00000010: 0000 0000 6d1a 723f 0000 0000 0000 803f
00000020: 0000 0000 0000 0000 fba8 583d 0000 0000
00000030: 0000 0000 0000 803f 0000 0000 9e02 80bb
00000040: 0000 0000 0000 0000 0000 0000 0000 803f

transformer.layers.1.0.dynamic_alpha_fn f4 [9, 5]
-0.02256332 0.0 0.0 0.0 0.0 0.042076997 0.0 0.0
0.0 0.0 -0.06907546 0.0 0.0 0.0 0.0 -0.21209767
0.0 0.0 0.0 0.0 -0.00026979635 0.0 0.0 0.0
0.0 -0.16429457 0.0 0.0 0.0 0.0 -0.007868092 0.0
0.0 0.0 0.0 0.027781656 0.0 0.0 0.0 0.0
-0.06874822 0.0 0.0 0.0 0.0
00000000: b6d6 b8bc 0000 0000 0000 0000 0000 0000
00000010: 0000 0000 ee58 2c3d 0000 0000 0000 0000
00000020: 0000 0000 0000 0000 6f77 8dbd 0000 0000
00000030: 0000 0000 0000 0000 0000 0000 2230 59be
00000040: 0000 0000 0000 0000 0000 0000 0000 0000
00000050: 7473 8db9 0000 0000 0000 0000 0000 0000
00000060: 0000 0000 d63c 28be 0000 0000 0000 0000
00000070: 0000 0000 0000 0000 2be9 00bc 0000 0000
00000080: 0000 0000 0000 0000 0000 0000 5b96 e33c
00000090: 0000 0000 0000 0000 0000 0000 0000 0000
000000a0: decb 8cbd 0000 0000 0000 0000 0000 0000
000000b0: 0000 0000

transformer.layers.1.0.static_beta f4 [4]
1.1593089 0.8619002 0.8632135 0.8750116
00000000: 3c64 943f 7ea5 5c3f 8ffb 5c3f c300 603f

transformer.layers.1.0.dynamic_beta_fn f4 [9]
-0.09939456 -0.28437936 0.14946519 0.11804185 0.08788465 0.17601332 0.50513387 -0.36209282
0.2566442
00000000: 608f cbbd 2c9a 91be 670d 193e edbf f13d
00000010: defc b33d d63c 343e 7450 013f 3b64 b9be
00000020: de66 833e

transformer.layers.1.0.branch.norm.weight f4 [9]
0.98375505 0.9811029 0.92974275 1.0118486 0.9291555 1.0019524 1.074213 0.91553843
1.036447
00000000: 5fd7 7b3f 8f29 7b3f 9f03 6e3f 4184 813f
00000010: 23dd 6d3f fa3f 803f d07f 893f ba60 6a3f
00000020: 4caa 843f

transformer.layers.1.0.branch.norm.bias f4 [9]
0.10874261 -0.06608839 -0.056546602 -0.09150882 0.012145099 -0.027196512 0.03940664 -0.016115742
0.063697465
00000000: 72b4 de3d 5a59 87bd 699d 67bd fa68 bbbd
00000010: 3dfc 463c 38cb debc db68 213d 2905 84bc
00000020: d173 823d

transformer.layers.1.0.branch.to_qkv.weight f4 [192, 9]
-0.20727353 0.10607304 -0.07544256 -0.06006884 0.30230206 0.44918752 0.08601332 -0.44781113
0.38745865 -0.23398629 0.21968225 0.19272667 -0.17910902 0.029319137 0.046898566 0.23571555
-0.063494965 -0.09579912 0.1161507 0.36254624 -0.11303331 0.045631915 0.07344595 -0.25503567
0.005161794 -0.1810185 0.061209105 -0.27887702 -0.35911414 0.27214393 0.23496538 -0.26174176
0.10893281 0.0019591027 -0.23708615 0.2736835 0.100051984 -0.28472748 0.2224943 0.38105264
0.11793018 0.23154107 0.054806467 0.19973503 0.23496866 -0.12550914 0.26685685 0.10823996
0.43624818 0.33907488 0.28781986 -0.13728285 0.24689402 0.3229527 0.31827733 -0.124623105
0.15550606 -0.116548695 -0.19096763 0.241434 0.3498108 0.35156482 0.16569825 -0.07125898
-0.027117094 0.009352373 -0.12350008 -0.26602262 0.006912541 0.14711425 0.13676187 0.057776794
0.11642912 0.31046805 0.116701454 0.23958944 0.12863246 -0.04395445 -0.03437291 0.2466403
0.17429256 0.12645788 -0.31425703 -0.24312268 0.122115366 0.32328835 -0.10803517 -0.09404083
-0.37558377 0.11934371 0.22509125 0.109974295 -0.26561305 -0.32512125 0.24258667 0.22678687
0.24100634 0.19884941 0.23727508 -0.18658541 -0.0022707786 0.19589004 0.08977136 -0.2466589
0.03995621 0.26054454 -0.14491424 -0.11035196 0.03305346 0.40136358 -0.107742205 -0.42402115
-0.40646067 -0.34747764 0.0074551767 0.21901153 -0.22740859 -0.0035911568 -0.011258041 0.030329911
-0.08442756 0.2572126 -0.3371475 -0.019407444 0.034024313 -0.4251844 0.058698248 0.011194385
-0.21523948 0.04514992 0.0017431059 -0.08401174 -0.38737223 -0.12638757 -0.15810797 -0.15874903
0.3560212 0.0042018304 -0.36949393 -0.27936363 -0.32877904 0.2173106 0.13247955 -0.0679255
-0.25437495 -0.34637198 0.2082758 0.23896442 -0.031010304 0.384067 -0.037934106 -0.20604175
0.22681886 -0.16117707 -0.08684754 0.29684594 0.07803747 0.0031456733 0.036919814 0.06403045
-0.24685836 0.16006081 0.016027551 0.3417515 0.024197005 0.0045779212 -0.1997315 -0.05643303
-0.21380125 0.44692498 0.055041887 0.15855388 0.22805025 -0.15194827 -0.55847126 -0.22780965
-0.38271314 -0.5186773 0.29267713 0.0504643 -0.037286498 -0.13021767 -0.3931963 -0.3925047
-0.25054458 -0.010549207 -0.028109916 0.45598134 -0.40131968 0.04147596 0.047542147 0.33082065
0.26955715 -0.113564596 -0.116511144 -0.054033395 0.197755 -0.36438704 0.18358155 -0.4280084
0.16125067 -0.19538455 0.42836648 -0.2071574 0.10359935 -0.1741851 0.2620602 -0.3760827
-0.3063228 -0.05864465 -0.095847055 -0.2660058 0.39938053 0.08332749 -0.20389572 0.46704218
-0.09462243 -0.40483588 -0.0070814984 0.3296638 -0.2309496 -0.113886796 0.2723876 -0.41905645
0.2115368 -0.110417075 -0.09627512 0.1075962 0.29046398 0.22901545 0.083010055 0.09404244
0.0100181885 0.10584825 0.018778272 -0.09821652 -0.24380434 -0.04974359 -0.28713918 0.28722614
-0.040902138 0.035832155 0.47619542 0.0027062255 -0.512598 0.08882927 0.02564049 0.022664502
-0.015787728 0.39138186 -0.2942579 0.14997081 -0.06470433 0.03994947 -0.11423937 -0.29244837
00000000: 833f 54be d23c d93d a181 9abd be0a 76bd
00000010: 56c7 9a3e e8fb e53e c027 b03d 8047 e5be
00000020: fb60 c63e 1a9a 6fbe 62f4 603e 245a 453e
00000030: 5b68 37be b02e f03c b618 403d 6b5f 713e
00000040: a609 82bd 5432 c4bd 6be0 ed3d a99f b93e
00000050: 027e e7bd 88e8 3a3d d56a 963d 0994 82be
00000060: 4424 a93b ea5c 39be 66b6 7a3d f8c8 8ebe
00000070: cfdd b7be 7356 8b3e c49a 703e 0403 86be
00000080: 2a18 df3d 4a64 003b b6c6 72be 3e20 8c3e
00000090: 0ee8 cc3d cdc7 91be 8cd5 633e 5519 c33e
000000a0: 6185 f13d 1a19 6d3e bf7c 603d 5787 4c3e
000000b0: a09b 703e 7885 00be 76a1 883e eaac dd3d
000000c0: ec5b df3e 399b ad3e 205d 933e e093 0cbe
000000d0: c9d1 7c3e 0e5a a53e 3ff5 a23e 663a ffbd
000000e0: fb3c 1f3e 15b1 eebd 058d 43be 793a 773e
000000f0: 671a b33e 4e00 b43e cdac 293e 3af0 91bd
00000100: ab24 debc b23a 193c 9ced fcbd 1e34 88be
00000110: 9982 e23b 1ea5 163e 4e0b 0c3e 5ca7 6c3d
00000120: 6472 ee3d abf5 9e3e 2c01 ef3d ef56 753e
00000130: 3ab8 033e 9509 34bd 9cca 0cbd 468f 7c3e
00000140: c079 323e 2d7e 013e 4ce6 a0be 27f5 78be
00000150: 9f17 fa3d 0d86 a53e 8b41 ddbd 7b98 c0bd
00000160: 844c c0be 7a6a f43d 527e 663e 343a e13d
00000170: 6ffe 87be 4b76 a6be a468 783e d13a 683e
00000180: 5eca 763e 2e9f 4b3e 3df8 723e 3f10 3fbe
00000190: 58d1 14bb 6697 483e 0cda b73d 2794 7cbe
000001a0: 1fa9 233d 1866 853e 6664 14be 3500 e2bd
000001b0: 1163 073d 877f cd3e f2a7 dcbd 4d19 d9be
000001c0: 9d1b d0be 97e8 b1be 8e4a f43b 8f44 603e
000001d0: ccdd 68be 9d59 6bbb a573 38bc 6f76 f83c
000001e0: 5be8 acbd 5fb1 833e 999e acbe 5cfc 9ebc
000001f0: 145d 0b3d c5b1 d9be 936d 703d a768 373c
00000200: bd67 5cbe 1fef 383d ee78 e43a 590e acbd
00000210: a755 c6be be6b 01be 0ee7 21be 1b8f 22be
00000220: 6948 b63e 82af 893b 4f2e bdbe c008 8fbe
00000230: ba55 a8be ac86 5e3e b8a8 073e 861c 8bbd
00000240: 6f3d 82be ab57 b1be 4046 553e 17b3 743e
00000250: 5209 febc 6ea4 c43e cb60 1bbd 9cfc 52be
00000260: 3443 683e 9a0b 25be 20dd b1bd 31fc 973e
00000270: 1cd2 9f3d a427 4e3b 3b39 173d 6622 833d
00000280: 70c8 7cbe fbe6 233e 364c 833c 0dfa ae3e
00000290: cc38 c63c 6302 963b 6a86 4cbe 5226 67bd
000002a0: b7ee 5abe 5ad3 e43e 9a73 613d f35b 223e
000002b0: 0186 693e 5498 1bbe f9f7 0ebf ef46 69be
000002c0: faf2 c3be 09c8 04bf c7d9 953e a7b3 4e3d
000002d0: bab9 18bd c857 05be 0751 c9be 60f6 c8be
000002e0: 6147 80be 95d6 2cbc c446 e6bc 6376 e93e
000002f0: c679 cdbe b2e2 293d 8ebb 423d 5361 a93e
00000300: 6503 8a3e 8e94 e8bd 659d eebd 1f52 5dbd
00000310: 4980 4a3e f090 babe cdfc 3b3e eb23 dbbe
00000320: e51e 253e e312 48be da52 db3e 1221 54be
00000330: e52b d43d 945d 32be c12c 863e e98d c0be
00000340: 58d6 9cbe 5f35 70bd 764b c4bd ea31 88be
00000350: 9b7b cc3e 9aa7 aa3d 0aca 50be 2720 ef3e
00000360: 68c9 c1bd a646 cfbe ea0b e8bb b2c9 a83e
00000370: 0d7e 6cbe 7b3d e9bd 6376 8b3e 918e d6be
00000380: 1a9d 583e 5922 e2bd e42b c5bd 665b dc3d
00000390: b2b7 943e 0783 6a3e 2d01 aa3d 5399 c03d
000003a0: 5423 243c f8c6 d83d e4d4 993c be25 c9bd
000003b0: d8a7 79be efbf 4bbd e803 93be 4e0f 933e
000003c0: 0089 27bd bdc4 123d e3cf f33e ee5a 313b
000003d0: 9f39 03bf 1fec b53d 010c d23c e8aa b93c
000003e0: 4455 81bc 3463 c83e f9a8 96be f391 193e
000003f0: b483 84bd 0ea2 233d 55f6 e9bd cbbb 95be

transformer.layers.1.0.branch.to_out.weight f4 [9, 64]
-0.062370207 -0.15013711 0.121088386 0.10779419 -0.04280264 0.04063427 -0.15822455 -0.076194055
0.054597694 -0.101720594 -0.0076800603 -0.08061079 -0.09725707 -0.09014032 -0.0786616 -0.20982379
0.02646168 0.073480785 -0.061561972 -0.04306098 0.1698851 -0.18818909 0.1746252 0.10297699
0.0558849 -0.2667799 0.10726669 -0.141681 0.15227793 0.11827156 -0.015392565 0.056040045
-0.12961704 -0.017960722 -0.13128695 0.114108175 -0.0272989 0.042120885 -0.13156351 0.055301927
-0.062284373 0.119061485 -0.0817909 -0.021087324 -0.16759044 0.2193743 0.014963711 -0.13847724
0.03881862 -0.0721258 -0.055985566 -0.21977264 0.023713147 -0.108906165 -0.05577064 -0.008458129
-0.07293074 -0.007902803 -0.12707014 -0.19679663 0.09408168 -0.18499179 -0.13486747 -0.06402221
-0.027557448 -0.05748519 -0.026995169 0.20640814 -0.005068826 0.0024707357 -0.21159834 -0.24704108
0.054981597 0.1267667 -0.14275216 0.010599949 0.04936557 -0.060187083 -0.17762949 0.022290993
-0.09600749 0.054428313 -0.07199658 -0.00408832 0.15993638 -0.25135055 0.13238926 0.15422782
0.103790805 -0.18976231 -0.021896256 -0.15510544 0.12951647 0.06084074 0.23027489 0.10888955
-0.15804395 -0.02164164 -0.20106325 0.040542245 -0.24914986 0.24667688 -0.15347609 -0.046408083
-0.094074674 0.09999237 -0.015375757 0.10789161 -0.16885059 0.11752091 -0.042185795 -0.2711931
0.2032578 -0.048675537 -0.13499752 -0.3084858 -0.00084652676 0.10413329 -0.0628915 -0.12949798
-0.10816111 -0.15823686 -0.15625846 -0.26554686 0.016670518 -0.18609789 -0.24827872 -0.0692221
0.016335543 0.09856942 -0.009155016 0.044395495 -0.056473553 0.0027831043 0.02795833 0.07173554
0.1143756 -0.01882473 0.08789799 -0.09811039 0.08781679 0.08860127 0.1415555 0.08474222
0.07593844 -0.096617304 0.053280666 0.01655819 0.03835048 0.1672526 -0.011660393 -0.028825803
-0.16959167 0.10678743 0.029176611 0.020787295 -0.15415636 -0.06597996 -0.058800865 -0.08055536
-0.051719878 0.025643326 -0.034464136 -0.019163048 -0.008071782 0.009443584 0.071449324 -0.06141563
0.04577204 0.12964535 -0.09833928 -0.03533604 -0.014445479 -0.10945413 -0.029698439 0.12818669
-0.0518641 0.06291982 0.13689259 0.105029725 -0.11752333 0.116624735 -0.018019885 -0.10654516
0.060322303 -0.15099086 -0.04044925 0.17537615 0.068146266 0.017842289 0.029452262 0.10709586
0.093124315 0.12297671 -0.10567647 -0.16012862 0.021594033 -0.01936042 0.12747653 0.010479641
0.05891883 -0.05049371 0.08483753 -0.112686515 0.060446713 0.07851824 0.21170661 0.072856985
0.12311399 -0.10387304 0.11247686 0.12649971 -0.11888213 0.17268468 -0.10015932 -0.060939495
-0.04595843 0.09628448 0.028635869 -0.02973578 -0.09730385 -0.079213336 -0.17524774 -0.018065264
0.03132885 0.1235996 0.02448576 -0.13073131 0.13965483 -0.101496845 0.009818684 -0.091758035
-0.033280913 -0.04218079 0.023843393 -0.0715243 0.018226463 -0.19830245 -0.020181907 0.11809465
-0.11279714 0.04373673 0.26166373 0.10468538 -0.100147024 -0.004706007 0.07605721 0.11585579
0.16160783 -0.06749415 -0.08967743 0.058423445 0.08295852 0.13878506 0.022749273 0.16417277
00000000: e777 7fbd 8bbd 19be 30fd f73d 33c3 dc3d
00000010: d251 2fbd 1f70 263d 9e05 22be a10b 9cbd
00000020: d5a1 5f3d e352 d0bd 04a9 fbbb 4517 a5bd
00000030: b72e c7bd 7d9b b8bd 5519 a1bd 0cdc 56be
00000040: 2ac6 d83c 187d 963d 6828 7cbd b660 30bd
00000050: 5cf6 2d3e a4b4 40be f3d0 323e 9ae5 d23d
00000060: 91e7 643d 6097 88be a3ae db3d d314 11be
00000070: bfee 1b3e 5c38 f23d 1931 7cbc 3f8a 653d
00000080: 54ba 04be 5d22 93bc 1670 06be 8cb1 e93d
00000090: f1a1 dfbc f386 2c3d 96b8 06be 4684 623d
000000a0: e61d 7fbd 82d6 f33d fd81 a7bd 53bf acbc
000000b0: d49c 2bbe a8a3 603e 5a2a 753c facc 0dbe
000000c0: 4600 1f3d b1b6 93bd 1f51 65bd 140c 61be
000000d0: 1342 c23c 320a dfbd c16f 64bd f793 0abc
000000e0: b65c 95bd c27a 01bc ad1e 02be 0e85 49be
000000f0: e5ad c03d 7d6e 3dbe b31a 0abe 141e 83bd
00000100: 28c0 e1bc 9775 6bbd f924 ddbc a85c 533e
00000110: 6518 a6bb 11ec 213b 3cad 58be 56f8 7cbe
00000120: 6234 613d 21cf 013e 9f2d 12be 69ab 2d3c
00000130: 8d33 4a3d bb86 76bd 81e4 35be 9a9b b63c
00000140: 939f c4bd 39f0 5e3d f172 93bd 50f7 85bb
00000150: 5dc6 233e 05b1 80be 0d91 073e e6ed 1d3e
00000160: 4690 d43d 0d51 42be c75f b3bc f6d3 1ebe
00000170: f79f 043e 2434 793d 2ecd 6b3e 7c01 df3d
00000180: 46d6 21be cf49 b1bc 86e3 4dbe a00f 263d
00000190: 2421 7fbe dd98 7c3e d628 1dbe 6716 3ebd
000001a0: 39aa c0bd cdc8 cc3d 99ea 7bbc 47f6 dc3d
000001b0: 2be7 2cbe ceae f03d 03cb 2cbd d2d9 8abe
000001c0: d022 503e 0060 47bd ca3c 0abe daf1 9dbe
000001d0: 73e9 5dba d643 d53d 42cd 80bd 1e9b 04be
000001e0: 9283 ddbd d808 22be 3802 20be c2f5 87be
000001f0: 9c90 883c 7290 3ebe c73c 7ebe 51c4 8dbd
00000200: 1ed2 853c c4de c93d ecfe 15bc 0dd8 353d
00000210: d050 67bd be64 363b de08 e53c 15ea 923d
00000220: c13d ea3d 5236 9abc dd03 b43d 1aee c8bd
00000230: 4ad9 b33d 9574 b53d edf3 103e 548d ad3d
00000240: 9d85 9b3d 4bdf c5bd d43c 5a3d 0ba5 873c
00000250: 6515 1d3d 4444 2b3e 3c0b 3fbc 1724 ecbc
00000260: 70a9 2dbe 5eb3 da3d ca03 ef3c 1e4a aa3c
00000270: 2adb 1dbe 8020 87bd 2dd9 70bd 35fa a4bd
00000280: 39d8 53bd f411 d23c 442a 0dbd d3fb 9cbc
00000290: 823f 04bc 43b9 1a3c 0654 923d f58e 7bbd
000002a0: 767b 3b3d c0c1 043e 1b66 c9bd 86bc 10bd
000002b0: bbac 6cbc 7d29 e0bd 244a f3bc 5f43 033e
000002c0: 736f 54bd 1bdc 803d 922d 0c3e d319 d73d
000002d0: 12b0 f0bd f3d8 ee3d 709e 93bc 5934 dabd
000002e0: 8514 773d 599d 1abe 1dae 25bd ce95 333e
000002f0: 4590 8b3d fe29 923c df45 f13c 1355 db3d
00000300: f6b7 be3d 37db fb3d e86c d8bd c2f8 23be
00000310: f8e5 b03c be99 9ebc 3589 023e cdb2 2b3c
00000320: df54 713d 7ed2 4ebd 4dbf ad3d 30c8 e6bd
00000330: f996 773d 2cce a03d 9ec9 583e 0b36 953d
00000340: 3023 fc3d 63bb d4bd 455a e63d 2489 013e
00000350: 7978 f3bd 41d4 303e 5420 cdbd b19b 79bd
00000360: e83e 3cbd cc30 c53d c595 ea3c 7398 f3bc
00000370: 3e47 c7bd 9a3a a2bd 2574 33be 9bfd 93bc
00000380: ae52 003d c921 fd3d 5c96 c83c 6ede 05be
00000390: ad01 0f3e 94dd cfbd 8cde 203c a3eb bbbd
000003a0: 9151 08bd c4c5 2cbd 3853 c33c 557b 92bd
000003b0: aa4f 953c cc0f 4bbe 8754 a5bc 9cdb f13d
000003c0: 3002 e7bd 4925 333d caf8 853e 4a65 d63d
000003d0: e219 cdbd d934 9abb e2c3 9b3d cd45 ed3d
000003e0: 867c 253e 5f3a 8abd cda8 b7bd 6c4d 6f3d
000003f0: 28e6 a93d ac1d 0e3e af5c ba3c e81c 283e

transformer.layers.1.0.norm.gamma f4 [9]
0.11734807 0.32582706 0.21766627 0.18953249 0.1494157 0.22093457 0.5709091 0.40817532
0.3024464
00000000: 2f54 f03d ced2 a63e e8e3 5e3e ce14 423e
00000010: 6e00 193e ac3c 623e 1927 123f 5bfc d03e
00000020: 41da 9a3e
