Projektarbeit_FTTransformer/trained_models/regular_training/model_FTTransformer_lr0.0001_8_1_4_4_.1_0.1_epoch10000.pt (torch, 99663 bytes, 87 tensors)

cls_token f4 [1, 1, 8]
0	0xbfa09920	-1.254673
1	0x3edb38b5	0.42816702
2	0x3fb9f888	1.4528971
3	0xbdbb7d32	-0.091547385
4	0x3ecdd820	0.40203953
5	0xbd7c9ba7	-0.06167188
6	0x3fbab85c	1.4587512
7	0x3f3f5162	0.74733555

categorical_embeds.weight f4 [3, 8]
0	0x3ef9beeb	0.4877847
1	0x3fdaf47b	1.710586
2	0x3f6fa167	0.93605655
3	0x3f8b1d52	1.0868323
4	0x3ef5093c	0.47858608
5	0x3f8122ed	1.0088784
6	0xbcb37cf1	-0.021910163
7	0x3fec314a	1.8452542
8	0x3ef320c7	0.47485945
9	0xbcd75b3d	-0.026288623
10	0xbc0178b2	-0.007902311
11	0x3f811760	1.0085258
12	0xbf962fc5	-1.1733328
13	0x3ff5ca99	1.9202453
14	0xbec7425b	-0.38917813
15	0xbf7ec886	-0.99524724
16	0x3f325026	0.69653547
17	0x3f98b9ec	1.1931739
18	0x3f5794e3	0.8421156
19	0x3efa7019	0.4891365
20	0x3f5318a6	0.82459486
21	0x3eac1c44	0.33615315
22	0xbfa54ebb	-1.2914652
23	0xbecf1df2	-0.40452534

numerical_embedder.weights f4 [8, 8]
0	0x3db47265	0.088108815
1	0x3f9bca70	1.2171154
2	0x3f0398c8	0.51405
3	0xbf4af2bf	-0.7927665
4	0xbfb612be	-1.422447
5	0x3f903017	1.1264676
6	0x3eaad3c3	0.33364686
7	0x3e5f5ed3	0.21813516
8	0xbfdfef14	-1.7494836
9	0x3fec6e36	1.8471134
10	0xbee34b77	-0.44393513
11	0x3f1f54f9	0.62239033
12	0x3f3d76bc	0.740093
13	0xbf0a3925	-0.53993446
14	0x3f224b9a	0.6339661
15	0x3dc2f597	0.09519499
16	0xbf56a140	-0.838398
17	0xbe828b0e	-0.25496715
18	0x3feaa2c6	1.8330925
19	0x3f720992	0.94545853
20	0x3e12b780	0.14327812
21	0xbd022745	-0.03177573
22	0x3fc93438	1.5719061
23	0xbe7ba56c	-0.24574822
24	0xbf8c4cf4	-1.0960984
25	0xbd45eb39	-0.04832003
26	0x3e86b705	0.26311508
27	0x4005cbc3	2.0905616
28	0x3ef175f3	0.471603
29	0xbe38bf6e	-0.18041775
30	0x3f9d8c49	1.2308437
31	0x3ec25a9c	0.37959754
32	0xbf17e736	-0.59337175
33	0x3f4fefcb	0.8122527
34	0xbd40449c	-0.04694043
35	0xbec1f7b0	-0.37884283
36	0xbf524e8b	-0.821511
37	0x3f50e59e	0.8160037
38	0xbfa17c22	-1.2616007
39	0x3ede94f3	0.43473014
40	0xbd51f67c	-0.051260456
41	0xbe4826ab	-0.19546
42	0x3ed86d71	0.42270997
43	0x3ece1bc9	0.40255573
44	0x3fd5432f	1.6661128
45	0xbfd56ea4	-1.667439
46	0x3dad3d25	0.08458928
47	0xbef37758	-0.4755199
48	0x3e9bee31	0.30455163
49	0x3f8b871f	1.0900611
50	0xbf28444e	-0.65729225
51	0x3f06d4d2	0.5266849
52	0xbdae448d	-0.08509169
53	0xbf97d44c	-1.1861663
54	0xc00939fe	-2.1441646
55	0xbf364d7b	-0.71211976
56	0x3e936458	0.28787494
57	0x3fe63057	1.7983502
58	0xbfbf526e	-1.494703
59	0x3f85dba2	1.0457652
60	0x3f2233a2	0.63360035
61	0xbfaaffef	-1.3359355
62	0xbec58326	-0.3857662
63	0xbe0d42b4	-0.13794976

numerical_embedder.biases f4 [8, 8]
0	0xbfb82711	-1.4386922
1	0x3e6e0eef	0.23247884
2	0xbe3e0d9f	-0.18559884
3	0xbff2b7fb	-1.8962396
4	0xbc63d2b1	-0.013905213
5	0xbf05f922	-0.5233327
6	0xbfe5bace	-1.7947633
7	0xbfd5ee3d	-1.671333
8	0x3fb0037d	1.3751065
9	0x3d8e491a	0.06947537
10	0xbd0f2b4f	-0.03495341
11	0xbee77dbd	-0.45213118
12	0xbf0485fa	-0.5176693
13	0xc0625487	-3.5364091
14	0xbcc1842d	-0.023622597
15	0xbf160065	-0.5859435
16	0x3fce7dc2	1.6132128
17	0x3fd880c1	1.6914293
18	0x3fd06816	1.6281765
19	0xbf65d420	-0.897768
20	0x3f3589ae	0.7091321
21	0xbce24b4b	-0.027623793
22	0xbf913af6	-1.1346118
23	0x3fd776e5	1.6833159
24	0x3f3716d5	0.71519214
25	0x3f643731	0.89146715
26	0x3f728de2	0.94747746
27	0xbf9ce346	-1.2256858
28	0x3f473761	0.77818877
29	0x3e07bfa5	0.132567
30	0x3d0cac47	0.034343984
31	0x3f6822bc	0.90678
32	0x3f6890fa	0.90846217
33	0x3f8041e7	1.0020112
34	0xbdc907a6	-0.09815912
35	0xbf13f319	-0.5779281
36	0x3e5a7b31	0.21336056
37	0x3da2b907	0.079454474
38	0xbef9ab74	-0.4876362
39	0x3f04dc25	0.51898414
40	0xbf9adb19	-1.2098113
41	0xbfcc9ddf	-1.5985678
42	0x400f6afc	2.2409048
43	0xbf2a38dc	-0.6649301
44	0x3d4436c3	0.047903787
45	0xbea24946	-0.31696528
46	0x3f8f71d2	1.120661
47	0xbf7361dc	-0.95071197
48	0xbf84fc05	-1.038941
49	0xbe3db128	-0.18524611
50	0x3e877411	0.2645574
51	0x3f1dd423	0.6165182
52	0xbe5d2759	-0.21597041
53	0x4013e36d	2.310756
54	0xbf9bcb83	-1.2171482
55	0x3f9f92be	1.2466657
56	0xbc831d44	-0.016005166
57	0xbf80a912	-1.0051596
58	0x3f0dd785	0.5540698
59	0x3e935053	0.2877222
60	0xbec0619f	-0.3757448
61	0xbf93c9d2	-1.1545966
62	0xbe73cc58	-0.2380842
63	0x3fd205db	1.6408037

transformer.layers.0.0.static_alpha f4 [4, 5]
0	0x3f8314e0	1.0240746
1	0x3f800000	1.0
2	0x00000000	0.0
3	0x00000000	0.0
4	0x00000000	0.0
5	0x3cc8ab9e	0.024495896
6	0x00000000	0.0
7	0x3f800000	1.0
8	0x00000000	0.0
9	0x00000000	0.0
10	0x3cc8ab9e	0.024495896
11	0x00000000	0.0
12	0x00000000	0.0
13	0x3f800000	1.0
14	0x00000000	0.0
15	0x3cc8ab9e	0.024495896
16	0x00000000	0.0
17	0x00000000	0.0
18	0x00000000	0.0
19	0x3f800000	1.0

transformer.layers.0.0.dynamic_alpha_fn f4 [8, 5]
0	0xbc8c521e	-0.017129
1	0x00000000	0.0
2	0x00000000	0.0
3	0x00000000	0.0
4	0x00000000	0.0
5	0x3aa18ad6	0.0012324702
6	0x00000000	0.0
7	0x00000000	0.0
8	0x00000000	0.0
9	0x00000000	0.0
10	0x3ca66f94	0.020316876
11	0x00000000	0.0
12	0x00000000	0.0
13	0x00000000	0.0
14	0x00000000	0.0
15	0xbb91c1f0	-0.004448168
16	0x00000000	0.0
17	0x00000000	0.0
18	0x00000000	0.0
19	0x00000000	0.0
20	0x3b67bfcf	0.003536213
21	0x00000000	0.0
22	0x00000000	0.0
23	0x00000000	0.0
24	0x00000000	0.0
25	0x3bd23c93	0.0064159124
26	0x00000000	0.0
27	0x00000000	0.0
28	0x00000000	0.0
29	0x00000000	0.0
30	0x3c91acd6	0.01778261
31	0x00000000	0.0
32	0x00000000	0.0
33	0x00000000	0.0
34	0x00000000	0.0
35	0x3c4a5143	0.012348476
36	0x00000000	0.0
37	0x00000000	0.0
38	0x00000000	0.0
39	0x00000000	0.0

transformer.layers.0.0.static_beta f4 [4]
0	0x3f7bc0f7	0.98341316
1	0x3f695da4	0.9115851
2	0x3f9705de	1.1798666
3	0x3f854187	1.0410622

transformer.layers.0.0.dynamic_beta_fn f4 [8]
0	0xbe90b451	-0.2826257
1	0x3e0aba1d	0.13547559
2	0x3e5451cf	0.20734333
3	0xbe1a86c1	-0.15090467
4	0x3e4ee514	0.20204574
5	0xbe3526fb	-0.17690651
6	0x3e989400	0.29800415
7	0x3e9ed352	0.310206

transformer.layers.0.0.branch.norm.weight f4 [8]
0	0x3fac815d	1.3476979
1	0x3fbbd033	1.4672912
2	0x3fc6ffb1	1.5546781
3	0x3f805cd5	1.002833
4	0x3f8ce514	1.1007409
5	0x3f8e6ec2	1.1127551
6	0x3f95cdcc	1.1703429
7	0x3f7eb45e	0.9949397

transformer.layers.0.0.branch.norm.bias f4 [8]
0	0xbe99f4d9	-0.30069616
1	0x3e6fec74	0.23430043
2	0x3ec2cfef	0.38049266
3	0x3d5f8467	0.054569628
4	0xbd577b2f	-0.05260771
5	0x3d3a6436	0.045505725
6	0xbc46559e	-0.012105374
7	0x3e9b8b52	0.3037973

transformer.layers.0.0.branch.to_qkv.weight f4 [192, 8]
0	0xbea8c226	-0.32960624
1	0x3e93c95e	0.28864568
2	0xbdc79456	-0.0974509
3	0xbe253644	-0.16133982
4	0xbe5040fc	-0.2033729
5	0x3e034d14	0.12822372
6	0x3d8f5e5c	0.070004195
7	0xbc939140	-0.018013597
8	0xbc47d1a1	-0.0121959755
9	0xbeb542e8	-0.35402608
10	0x3dff1b8f	0.12456428
11	0xbd99ca00	-0.075092316
12	0x3e82c8a9	0.25543717
13	0xbdd2b058	-0.10287541
14	0x3ea2ceaa	0.31798297
15	0x3d192ba0	0.03739512
16	0xbd9c8c15	-0.07643906
17	0xbdbb12bf	-0.09134435
18	0x3e20aff8	0.15692127
19	0x3e4ea05a	0.20178357
20	0xbeb04e78	-0.34434867
21	0xbeb0754f	-0.344645
22	0x3edf58dc	0.43622482
23	0x3e2e9383	0.17048459
24	0x3eac2ded	0.3362879
25	0x3e511e99	0.20421828
26	0xbe189ced	-0.14903612
27	0x3e53f1dd	0.20697732
28	0xbe8ff3e2	-0.28115755
29	0x3e78918b	0.2427427
30	0x3e30f18c	0.17279643
31	0x3b76cf56	0.0037660203
32	0x3e41eca9	0.18937935
33	0xbe20cc78	-0.15702999
34	0xbddf2942	-0.10896541
35	0x3ea636ce	0.32463688
36	0x3d205e48	0.039152414
37	0xbe393590	-0.18086839
38	0xbe9e9cef	-0.30979106
39	0xbe908855	-0.28229013
40	0x3db47f1b	0.08813306
41	0xbec72b09	-0.3890002
42	0x3e7d01e3	0.24707751
43	0xbe97d3c0	-0.2965374
44	0xbe6f3c04	-0.23362738
45	0x3df2800b	0.118408285
46	0x3e9589d7	0.29206726
47	0x3ed10efa	0.4083174
48	0x3d8c1f8c	0.068419546
49	0x3ee3b81b	0.444764
50	0xbde5f5a2	-0.11228491
51	0x3ea13694	0.31486952
52	0xbe94ec42	-0.290865
53	0xbd8db6a0	-0.069195986
54	0xbe99c49a	-0.30032808
55	0xbe352bd0	-0.17692494
56	0x3ec9f225	0.39442554
57	0x3ee4f95d	0.447215
58	0xbe2cd741	-0.16878988
59	0xbddd4257	-0.10803669
60	0x3e2a53b0	0.16633487
61	0x3e962902	0.2932816
62	0xbeb65220	-0.3560953
63	0xbeec5fca	-0.4616683
64	0x3ebf1e10	0.37327623
65	0x3e9b69e0	0.30354214
66	0xbdc50d47	-0.09621673
67	0x3cb0a82b	0.021564564
68	0x3e5d6d94	0.21623832
69	0xbe8a0706	-0.26958483
70	0xbef1d57d	-0.4723319
71	0x3e54fda1	0.20799877
72	0xbdc972cf	-0.09836351
73	0x3e3e7db3	0.18602638
74	0x3e8de4e2	0.27713686
75	0x3dd72fdb	0.105071746
76	0x3e702c40	0.2345438
77	0xbea0b2d2	-0.3138643
78	0xbd4360cf	-0.047699746
79	0xbdd28c19	-0.10280628
80	0x3ebdf92d	0.3710417
81	0xbdc5a1b0	-0.0964998
82	0xbeaaeba0	-0.33382893
83	0x3ac3fc3b	0.001495249
84	0xbe77fd92	-0.24217823
85	0x3ea0bd89	0.31394604
86	0xbedb17cc	-0.42791593
87	0xbe23ef75	-0.16009314
88	0xbeca19fa	-0.39472944
89	0xbeaa9bc8	-0.33321977
90	0x3ea4bae7	0.32173845
91	0x3dd6504d	0.10464535
92	0xbdb686d8	-0.08912438
93	0xbeb56d2f	-0.35434863
94	0x3ee4bb04	0.44673932
95	0x3d2f47fd	0.042793263
96	0xbd16c57f	-0.03680944
97	0x3e39822e	0.18116066
98	0x3ead3b26	0.3383419
99	0xbe8b9007	-0.27258322
100	0xbe629c5c	-0.22129959
101	0xbebd39d5	-0.36958185
102	0x3e9553bc	0.29165447
103	0x3eb039d2	0.34419113
104	0xbf0fca34	-0.5616791
105	0x3e50542f	0.20344613
106	0x3d88bcfd	0.06676672
107	0x3cb4588b	0.022014877
108	0x3e9ac3fe	0.30227655
109	0xbed53e79	-0.41649225
110	0x3e08639b	0.13319246
111	0x3c5d4c57	0.01350697
112	0xbd0fe7b3	-0.035133075
113	0xbe8bbfae	-0.27294677
114	0xbe5cdca9	-0.2156855
115	0x3e567e55	0.2094663
116	0xbebf41db	-0.3735493
117	0x3eb3a0a9	0.3508351
118	0x3e31b77a	0.17355147
119	0xbd217ec0	-0.03942752
120	0x3ead3721	0.33831123
121	0x3ef90747	0.48638365
122	0x3da03d41	0.07824183
123	0xbe4bca4c	-0.19901389
124	0x3e4b68ab	0.19864146
125	0x3d8a37bd	0.067489125
126	0xbe9ddf1a	-0.30834275
127	0x3e0aba7f	0.13547705
128	0xbeb5ea0d	-0.3553013
129	0xbcd22916	-0.025654357
130	0xbcebdf26	-0.028792929
131	0xbeb46daf	-0.35239932
132	0xbcefef08	-0.029288784
133	0xbe2c3346	-0.16816434
134	0x3e4d8bc5	0.20072849
135	0x3eadc6a4	0.33940613
136	0x3d03bbb5	0.032161433
137	0xbd853552	-0.06504311
138	0x3e4a6250	0.19764066
139	0xbecc4a47	-0.3990042
140	0xbe1e6d0f	-0.1547129
141	0xbe53e04b	-0.2069103
142	0x3dc33dd5	0.09533278
143	0x3d631ec3	0.05544926
144	0x3e9eafac	0.30993402
145	0x3e8a77e4	0.27044594
146	0xbd5e5f07	-0.054289844
147	0x3e79c1d8	0.24390352
148	0x3e63a350	0.22230268
149	0xbcc5a484	-0.024126299
150	0xbe4ef81e	-0.20211837
151	0xbeb5caed	-0.35506383
152	0x3ddad38d	0.10684881
153	0x3ec3433e	0.3813724
154	0xbe78e8e2	-0.24307588
155	0xbd147910	-0.036248267
156	0xbe8f3f5f	-0.27978036
157	0x3e7a8949	0.24466433
158	0x3d16f3ff	0.036853787
159	0xbd6a718d	-0.057237197
160	0xbed611a2	-0.41810328
161	0xbdfeb793	-0.12437358
162	0x3ca31f20	0.019912302
163	0x3d54ab34	0.051921085
164	0x3dd9ec1b	0.10640737
165	0xbeb520b1	-0.35376504
166	0x3dffb63f	0.124859326
167	0x3e345e2f	0.17614053
168	0xbd60b989	-0.05486444
169	0x3ea7fa01	0.32807925
170	0x3d7a111f	0.061051484
171	0x3e9bd208	0.3043368
172	0xbe945536	-0.2897126
173	0x3de6257c	0.11237618
174	0xbe52bcae	-0.20579788
175	0x3e2ba546	0.16762266
176	0xbe40f4c1	-0.18843366
177	0x3ea8bb2a	0.32955295
178	0x3dae9149	0.08523805
179	0xbe30aad8	-0.17252672
180	0x3e889c8e	0.26681942
181	0xbe8d7aae	-0.2763266
182	0xbe542e18	-0.20720708
183	0xbe4dd883	-0.20102124
184	0x3e2bb3da	0.16767827
185	0x3e0159fb	0.12631981
186	0xbeff72bf	-0.49892232
187	0xbe1ff726	-0.15621623
188	0xbe846931	-0.25861505
189	0x3e7add98	0.24498594
190	0xbeff9e56	-0.49925488
191	0x3d96671a	0.07343884
192	0x3e996d32	0.29966122
193	0xbda7c477	-0.081917696
194	0xbea97ace	-0.33101505
195	0xbdc70f32	-0.09719695
196	0xbd66e863	-0.056373965
197	0x3eb7c3ba	0.35891515
198	0xbe214c0a	-0.15751663
199	0xbe80a922	-0.25129038
200	0xbc98f91a	-0.018673468
201	0xbe55be8a	-0.20873466
202	0x3e2f1306	0.170971
203	0xbe41d79a	-0.18929902
204	0xbdbd1f63	-0.09234502
205	0x3db4ad87	0.0882216
206	0xbd6f1ee0	-0.058379054
207	0xbdfce4cf	-0.12348329
208	0xbea72a44	-0.32649434
209	0xbe4110cc	-0.18854064
210	0x3e7adf1e	0.24499175
211	0xbdd9d05f	-0.10635447
212	0x3e936b21	0.2879267
213	0x3e1a49ea	0.15067258
214	0xbe3c79be	-0.18405816
215	0x3e9b8fbb	0.30383095
216	0xbe10be2d	-0.14135046
217	0xbdae9f92	-0.08526529
218	0xbda0287d	-0.078202225
219	0x3de3a3ff	0.11115264
220	0xbea0efc1	-0.31432918
221	0x3d4b2326	0.049594067
222	0x3ec9ed9e	0.394391
223	0xbc65679a	-0.014001751
224	0x3ed80e7d	0.42198554
225	0xbd4a82fa	-0.049441315
226	0x3e1b4f16	0.15166888
227	0x3d074a4e	0.033029847
228	0x3df8c8c4	0.12147668
229	0x3dd1a376	0.10236256
230	0xbddaafae	-0.106780395
231	0xbe819f97	-0.2531707
232	0xbebd9ae1	-0.37032226
233	0x3e075d7f	0.1321926
234	0x3e8e1679	0.2775152
235	0xbea0904d	-0.31360093
236	0xbebae080	-0.36499405
237	0x3dbd3a44	0.09239629
238	0xbdd29c51	-0.10283721
239	0x3d82ae13	0.06380858
240	0xbe988f3c	-0.2979678
241	0x3e42a83a	0.19009486
242	0x3cc0d988	0.023541227
243	0xbe9b88e4	-0.30377877
244	0xbd7b5956	-0.061364494
245	0x3e12f1b7	0.1435002
246	0x3e90d861	0.28290084
247	0x3d022fc6	0.03178384
248	0x3d4ee3bb	0.05051015
249	0xbe3efc1f	-0.18650864
250	0x3ee26768	0.44219518
251	0xbd3dbd00	-0.046322823
252	0x3e80eb94	0.25179732
253	0x3e590c25	0.21196039
254	0x3eab219b	0.33424076
255	0x3e527b94	0.20554954

transformer.layers.0.0.branch.to_out.weight f4 [8, 64]
0	0x3ccadad2	0.024762545
1	0xbdb7f97a	-0.08983131
2	0x3d3f2f9e	0.04667627
3	0xbd8578ea	-0.06517203
4	0x3d159a83	0.036524307
5	0xbd106f96	-0.035262667
6	0x3d4afe00	0.04955864
7	0xbdaa03aa	-0.0830148
8	0xbc9262c6	-0.017869364
9	0xbd5b27a4	-0.0535046
10	0x3d732c4e	0.059368424
11	0xbdacda59	-0.08440084
12	0x3dc72a23	0.09724834
13	0x3b082683	0.0020774908
14	0x3cb25d94	0.021773137
15	0xbacf8aa6	-0.0015834167
16	0xbd893e7e	-0.067013726
17	0x3dda984f	0.10673582
18	0xbd341b93	-0.04397161
19	0x3d2080b3	0.039185237
20	0xbdb88463	-0.09009626
21	0x3d2c8454	0.042118385
22	0xbd81153e	-0.0630288
23	0xbd862097	-0.06549185
24	0x3d410ad2	0.04712946
25	0xbe218f38	-0.1577729
26	0x3daa329c	0.08310434
27	0x3c841e33	0.016127681
28	0x3c666ae5	0.014063572
29	0x3d3f5a13	0.04671676
30	0x3e13ff6b	0.14452903
31	0x3dcff403	0.101539634
32	0xbd06a180	-0.032868862
33	0x3c8a1ee7	0.016860439
34	0xbd53ea52	-0.051737137
35	0x3a26e397	0.0006366311
36	0xbdf214dd	-0.118203856
37	0xbbbf11ee	-0.005830995
38	0xbdac1598	-0.08402556
39	0xbda5e861	-0.081009634
40	0x3d4c1b09	0.04983047
41	0x3c177c96	0.009246012
42	0xbd055e0e	-0.0325604
43	0xbde1c255	-0.11023394
44	0x3d843397	0.064551525
45	0xbd92f028	-0.071747124
46	0x3da99998	0.08281249
47	0xbe1f23ee	-0.1554105
48	0xbd6136cd	-0.054983903
49	0xbd7aa2a1	-0.06119025
50	0x3cb09d55	0.021559397
51	0xbd34391b	-0.043999773
52	0xbc5c8053	-0.013458329
53	0xbd554eb3	-0.052077007
54	0x3c95b6d6	0.01827566
55	0xbba54412	-0.005043515
56	0xbdc2a7db	-0.09504672
57	0xbd2dc5ec	-0.04242508
58	0x3d81afea	0.06332381
59	0x3cb6f1d8	0.022332117
60	0xbce30c19	-0.02771573
61	0x3d07ccdc	0.033154353
62	0x3d6f575d	0.058432925
63	0xbd265dd2	-0.040616818
64	0xbd528115	-0.051392633
65	0xbe613587	-0.21993075
66	0x3cf41ce6	0.029798936
67	0x3e2ebc01	0.17063905
68	0xbd00d546	-0.031453393
69	0x3e21e8a1	0.15811397
70	0xbb42b452	-0.002970953
71	0xbb3734ef	-0.0027955135
72	0xbd047a11	-0.032342974
73	0xbd935e67	-0.0719574
74	0x3b02ff58	0.0019988623
75	0xbe1adb6a	-0.15122762
76	0xbde2e6dd	-0.1107919
77	0x3cf91329	0.030404644
78	0x3e0f6026	0.14001521
79	0xbd24936d	-0.04017966
80	0xbe30b1ec	-0.17255372
81	0xbd093797	-0.03350028
82	0x3cdd0315	0.026979009
83	0xbd45e631	-0.04831523
84	0xbe0f9c3d	-0.14024444
85	0x3e2c6513	0.16835432
86	0xbbda6e79	-0.0066660014
87	0x3d1a31de	0.037645213
88	0xbd6a2c69	-0.05717126
89	0xbcd4d7dc	-0.025981836
90	0xbe303266	-0.17206725
91	0x3dc348f0	0.09535396
92	0x3d3123b8	0.043246955
93	0x3d99fe38	0.075191915
94	0xbc4c91f6	-0.012485972
95	0x3df6fdf4	0.120601565
96	0x3dda9109	0.106721945
97	0x3e1616f6	0.14657196
98	0xbe1c7410	-0.1527865
99	0xbe2fddc5	-0.17174442
100	0xbc2be9ca	-0.010492751
101	0xbbbad8fd	-0.0057021366
102	0x3d467a26	0.048456334
103	0xbda80de4	-0.082057744
104	0x3e232b0e	0.15934393
105	0xbd50bbc2	-0.05096031
106	0x3d8bc63c	0.068249196
107	0x3dfa0072	0.12207116
108	0x3d3a5980	0.04549551
109	0x3e411f6f	0.18859647
110	0x3c768040	0.015045226
111	0xbd916508	-0.07099348
112	0x3c7f0f87	0.015567667
113	0x3e16fd4e	0.14745066
114	0xbd6c1270	-0.05763477
115	0xbc90884f	-0.017643122
116	0x3d930368	0.07178384
117	0x3e1a53e5	0.15071066
118	0xbdaf7b62	-0.08568455
119	0xbe021186	-0.12701997
120	0xbe3df26f	-0.18549512
121	0x3d54999f	0.051904317
122	0xbe1972cb	-0.14985196
123	0x3deb164b	0.114788614
124	0xbe0c9f3f	-0.13732623
125	0x3dd5cc46	0.10439353
126	0xbdb21189	-0.08694751
127	0x3d74090c	0.05957894
128	0x3e050030	0.12988353
129	0x3d859408	0.06522375
130	0xbbecc3a1	-0.007225469
131	0xbd9b263a	-0.075756505
132	0x3db72463	0.08942487
133	0x3d0ff062	0.035141356
134	0x3da03ce2	0.078241125
135	0xbddd106e	-0.10794149
136	0x3da01d6e	0.07818113
137	0x3d8a3e07	0.06750112
138	0xbd7f702e	-0.062362842
139	0xbd2bd7af	-0.04195374
140	0xbd1fddac	-0.039029762
141	0x3d8adbc3	0.067801975
142	0xbdc9f09c	-0.09860346
143	0x3c7d9eb4	0.015479732
144	0xbba6dd7c	-0.005092321
145	0x3dbab3c8	0.09116322
146	0xbd482f38	-0.048873156
147	0x3c64941c	0.013951328
148	0xbdba5785	-0.09098724
149	0x3ca38290	0.019959718
150	0x3d3545d8	0.04425606
151	0xbd2e499c	-0.042550668
152	0xbd0e0c8e	-0.03467994
153	0x3b498d19	0.0030754267
154	0x3d932e67	0.07186585
155	0xbd7a29ff	-0.061075207
156	0x3dc5b90c	0.096544355
157	0x3dc72cf0	0.09725368
158	0x3de97041	0.11398364
159	0x3b8a474b	0.0042199246
160	0xbd906fc7	-0.0705257
161	0x3dade4b1	0.08490885
162	0xbc77374b	-0.015088866
163	0xbcc2b93a	-0.023769964
164	0x3d36af20	0.044600606
165	0x3cd19cd3	0.025587475
166	0x3d8c2473	0.0684289
167	0x3de65857	0.11247318
168	0xbceeb7fc	-0.029140465
169	0x3ddb6ccf	0.10714113
170	0xbdb26caa	-0.08712132
171	0xbd4682db	-0.048464637
172	0x3c9afc17	0.018919034
173	0xbdee4805	-0.116348304
174	0x3de38aa8	0.11110431
175	0xbb226d83	-0.0024784512
176	0xbd0532e6	-0.032519244
177	0x3c6f3e68	0.014602281
178	0xbd3c019b	-0.04589997
179	0xbd033baa	-0.032039322
180	0x3cafd177	0.021462185
181	0xbd886b98	-0.06661147
182	0xbd6ce2f9	-0.057833645
183	0x3d1ebe03	0.038755428
184	0xbce3ea7d	-0.027821774
185	0x3d984284	0.07434562
186	0x3d9177c0	0.071029186
187	0xbd985deb	-0.074397884
188	0x3dbe38fc	0.09288213
189	0xbdc96f6a	-0.09835704
190	0x3e02cff8	0.12774646
191	0x3d0e5d10	0.03475672
192	0xbcaedd8a	-0.021345872
193	0xbd5b4cf1	-0.053540174
194	0xbdb45d45	-0.08806852
195	0xbd919ea3	-0.07110336
196	0x3d533bea	0.05157081
197	0xbd531b0c	-0.051539466
198	0xbd5810cc	-0.052750394
199	0xbddd721a	-0.10812779
200	0xbd750fc6	-0.059829496
201	0x3d0077ba	0.03136418
202	0x3db7b437	0.0896992
203	0xbcea2e0c	-0.02858641
204	0x3dfbb3dc	0.12290165
205	0xbd55e8a7	-0.052223828
206	0xbdcbdc7a	-0.09954162
207	0x3d3b1f56	0.04568418
208	0xbbb2a090	-0.0054512694
209	0xbd010884	-0.03150226
210	0xbcd8f4ce	-0.02648392
211	0xbd70e8fe	-0.05881595
212	0x3d106e9b	0.03526173
213	0xbd8d4535	-0.06897966
214	0x3da3cec1	0.079984196
215	0xbd8447cd	-0.064590074
216	0xbd45e77a	-0.048316456
217	0xbdd30d0f	-0.10305225
218	0x3d993f8a	0.07482822
219	0xbd955ccd	-0.07293091
220	0x3d989486	0.074502036
221	0xbd3be70d	-0.045874644
222	0x3df5f573	0.12009706
223	0xbcf7c782	-0.0302465
224	0xbd5966bd	-0.053076494
225	0x3dad27a6	0.08454828
226	0xbc726e96	-0.014796874
227	0xbd22cd02	-0.039746292
228	0x3dea0313	0.114263676
229	0x3dc46087	0.09588724
230	0xbcce10ea	-0.02515455
231	0x3e00951a	0.12556878
232	0x3d24bf34	0.040221408
233	0xbd6f2f78	-0.05839488
234	0x3d7c2286	0.06155636
235	0xbd976699	-0.07392616
236	0xbe07e1a4	-0.13269669
237	0xbd9586c4	-0.07301095
238	0x3d3026b1	0.04300565
239	0x3cd543a5	0.026033232
240	0xbda0d3c1	-0.07852889
241	0x3d856e04	0.065151244
242	0xbd20b20d	-0.039232302
243	0xbd8f5243	-0.06998112
244	0x3d003279	0.031298134
245	0x3d1f03b4	0.03882189
246	0x39f49039	0.0004664676
247	0x3e1d15b4	0.1534031
248	0x3decd560	0.115641356
249	0xbe158e83	-0.14605145
250	0x3d622f52	0.05522091
251	0x3d5a5de2	0.05331219
252	0xbd13f6ec	-0.036124155
253	0x3d567d0f	0.05236536
254	0x3d993bc2	0.07482101
255	0xbd95083c	-0.07276961

transformer.layers.0.0.norm.gamma f4 [8]
0	0x3e2d2aad	0.16910811
1	0x3dc93f57	0.09826534
2	0x3e0fade6	0.1403118
3	0x3d3a5478	0.045490712
4	0x3de37bb9	0.111075826
5	0x3dc4d4e3	0.096109174
6	0x3e4eeda5	0.20207842
7	0x3e4260ab	0.18982188

transformer.layers.0.1.static_alpha f4 [4, 5]
0	0xbe1fd709	-0.15609373
1	0x3f800000	1.0
2	0x00000000	0.0
3	0x00000000	0.0
4	0x00000000	0.0
5	0x3f588c6a	0.84589255
6	0x00000000	0.0
7	0x3f800000	1.0
8	0x00000000	0.0
9	0x00000000	0.0
10	0xbcfbfa11	-0.03075889
11	0x00000000	0.0
12	0x00000000	0.0
13	0x3f800000	1.0
14	0x00000000	0.0
15	0xbe0673cd	-0.13130112
16	0x00000000	0.0
17	0x00000000	0.0
18	0x00000000	0.0
19	0x3f800000	1.0

transformer.layers.0.1.dynamic_alpha_fn f4 [8, 5]
0	0x3e0f5255	0.13996251
1	0x00000000	0.0
2	0x00000000	0.0
3	0x00000000	0.0
4	0x00000000	0.0
5	0xbe0419d2	-0.12900475
6	0x00000000	0.0
7	0x00000000	0.0
8	0x00000000	0.0
9	0x00000000	0.0
10	0xbcf5c763	-0.030002302
11	0x00000000	0.0
12	0x00000000	0.0
13	0x00000000	0.0
14	0x00000000	0.0
15	0x3d9c2a90	0.07625306
16	0x00000000	0.0
17	0x00000000	0.0
18	0x00000000	0.0
19	0x00000000	0.0
20	0x3d918987	0.071063094
21	0x00000000	0.0
22	0x00000000	0.0
23	0x00000000	0.0
24	0x00000000	0.0
25	0x3d9ba239	0.07599301
26	0x00000000	0.0
27	0x00000000	0.0
28	0x00000000	0.0
29	0x00000000	0.0
30	0xbe140f1f	-0.14458893
31	0x00000000	0.0
32	0x00000000	0.0
33	0x00000000	0.0
34	0x00000000	0.0
35	0xbd40c93c	-0.047066912
36	0x00000000	0.0
37	0x00000000	0.0
38	0x00000000	0.0
39	0x00000000	0.0

transformer.layers.0.1.static_beta f4 [4]
0	0x3f7f926e	0.9983281
1	0x3f558abb	0.8341481
2	0x3f83ac1a	1.0286896
3	0x3f81381d	1.009525

transformer.layers.0.1.dynamic_beta_fn f4 [8]
0	0x3cbe0d28	0.023199633
1	0x3d057fec	0.0325927
2	0xbd17f720	-0.03710091
3	0xbce35029	-0.027748184
4	0xbd686c3a	-0.056743838
5	0xbe62d414	-0.22151214
6	0xbc2ffb70	-0.0107411
7	0xbd977c57	-0.07396763

transformer.layers.0.1.branch.0.weight f4 [8]
0	0x3f861339	1.0474616
1	0x3f85d5a4	1.0455823
2	0x3f9b11b7	1.2114781
3	0x3f75c52e	0.96004
4	0x3f8b47e5	1.0881315
5	0x3f9551ae	1.1665552
6	0x3f77328f	0.9656152
7	0x3fa5f032	1.2963927

transformer.layers.0.1.branch.0.bias f4 [8]
0	0x3cde5010	0.027137786
1	0x3d6e66eb	0.05820362
2	0xbd5928bb	-0.05301736
3	0x3d32355c	0.04350792
4	0x3c949d3a	0.018141378
5	0x3c5c8398	0.013459109
6	0xbdc0c54f	-0.09412634
7	0x3d9b325c	0.07577965

transformer.layers.0.1.branch.1.weight f4 [64, 8]
0	0x3c3f29ae	0.011667652
1	0xbd2f31ac	-0.04277198
2	0x3d941bb7	0.07231849
3	0x3d286eeb	0.041121405
4	0x3e5cd998	0.2156738
5	0xbeb82c5c	-0.35971344
6	0xbdc90a47	-0.098164134
7	0xbe29863a	-0.1655511
8	0xbe631a41	-0.22177984
9	0x3eccf6cd	0.40032044
10	0xbd2da74d	-0.04239588
11	0x3e52328b	0.20527093
12	0x3e30c141	0.1726122
13	0xbec1b92d	-0.3783659
14	0xbe3c8700	-0.18410873
15	0xbc25bc27	-0.01011566
16	0xbd805104	-0.062654525
17	0x3de4b1b5	0.111667074
18	0x3e7737be	0.24142358
19	0xbe9d6d77	-0.30747578
20	0xbd3c6d14	-0.046002463
21	0x3e9b6e75	0.3035771
22	0xbda082cc	-0.078374475
23	0x3ed2083e	0.41021913
24	0x3e8517b3	0.25994644
25	0x3e2753fd	0.16340633
26	0x3e6bd2c1	0.23029615
27	0xbe431af4	-0.1905325
28	0x3ed8accb	0.4231933
29	0x3e09b8f2	0.13449457
30	0x3e1b0d38	0.15141761
31	0xbe12e161	-0.14343788
32	0x3e849166	0.2589218
33	0xbc6d61f5	-0.014488687
34	0xbe9a5066	-0.30139464
35	0x3ea1154b	0.31461558
36	0xbeb1aee0	-0.34703732
37	0xbe9f72db	-0.31142315
38	0x3ce26683	0.027636772
39	0xbe5d13ae	-0.21589538
40	0xbe03d7da	-0.1287531
41	0xbe20cd86	-0.15703401
42	0xbed6733f	-0.418848
43	0xbe1084e0	-0.14113188
44	0x3e8c9d85	0.27463928
45	0x3dfd01b3	0.1235384
46	0x3d8b41ee	0.067996845
47	0xbf0654de	-0.5247325
48	0x3ea9841e	0.3310861
49	0xbeb69b98	-0.35665584
50	0x3e97543f	0.29556462
51	0x3e02db0c	0.12778872
52	0x3e903974	0.28168833
53	0x3e26e017	0.16296421
54	0x3d941e93	0.07232394
55	0x3ef282a4	0.47365296
56	0xbde00634	-0.10938683
57	0xbdd05a09	-0.10173423
58	0xbdb2a9b3	-0.08723774
59	0x3ea02c4a	0.3128379
60	0x3eb98b6a	0.36239177
61	0xbe878e25	-0.26475635
62	0xbd789d45	-0.06069686
63	0xbe94b864	-0.2904693
64	0xbd9cb8d3	-0.0765244
65	0x3e75ac00	0.23991394
66	0xbe40b207	-0.18817912
67	0x3e591945	0.21201046
68	0xbe26d3b4	-0.16291696
69	0xbe966fee	-0.2938227
70	0xbe34b99e	-0.17648932
71	0x3f16b94e	0.588765
72	0x3de0a513	0.109689854
73	0x3ea99e41	0.3312855
74	0xbecc7a35	-0.39936987
75	0x3eb4db77	0.35323688
76	0xbe5ac6fb	-0.21364968
77	0x3e2bef58	0.16790521
78	0xbb976960	-0.004620716
79	0xbea62bb9	-0.32455233
80	0x3e9a45fc	0.3013152
81	0xbe8565a2	-0.26054102
82	0x3e789ff6	0.2427977
83	0xbc613e94	-0.01374783
84	0xbddd4aeb	-0.10805305
85	0x3e99a94f	0.30011985
86	0xbeb2e769	-0.34942177
87	0x3ed01db0	0.4064765
88	0x3e84b184	0.25916684
89	0x3ead3e6b	0.33836684
90	0x3d80c465	0.06287459
91	0x3e1b083c	0.1513986
92	0xbcb5a77e	-0.022174593
93	0x3e7de552	0.2479451
94	0xbe932994	-0.2874266
95	0x3ec31fba	0.38110143
96	0xbe4c1fb1	-0.19933964
97	0xbf01efbe	-0.5075644
98	0xbe07b74d	-0.13253517
99	0x3e4b08ec	0.19827622
100	0x3d99b6cc	0.07505569
101	0xbe82fa6a	-0.25581676
102	0x3e48a105	0.19592674
103	0x3d531757	0.05153593
104	0xbe479f1e	-0.19494292
105	0x3eb05f1a	0.34447557
106	0xbdacb7e3	-0.08433511
107	0x3d233494	0.039845064
108	0xbe831f69	-0.25609902
109	0xbed122af	-0.40846774
110	0xbbc0a87b	-0.0058794594
111	0xbe54c8d8	-0.20779741
112	0x3e490717	0.19631611
113	0x3de57b01	0.11205102
114	0x3c2c74c0	0.010525882
115	0x3e9646a0	0.29350758
116	0x3e1cfe2e	0.15331337
117	0xbea1b0db	-0.31580243
118	0xbcca40d8	-0.024689123
119	0x3e142153	0.14465837
120	0x3ecd84ae	0.4014029
121	0x3f17a796	0.5924009
122	0x3ea8d90c	0.32978094
123	0xbeee6dde	-0.46568197
124	0xbf093256	-0.5359243
125	0x3ed04373	0.4067646
126	0xbe320e3d	-0.17388244
127	0xbdc8e899	-0.098099895
128	0x3c9b7498	0.018976495
129	0xbca50d62	-0.020147983
130	0xbe6cff3c	-0.23144239
131	0xbe356149	-0.17712893
132	0x3e97f5b4	0.29679644
133	0x3d3b1752	0.045676537
134	0x3d401435	0.04689427
135	0xbed095af	-0.407392
136	0x3e7cb04e	0.2467663
137	0x3e8e8848	0.2783835
138	0xbed91af4	-0.42403376
139	0x3e85e6e9	0.26152733
140	0x3e0533b7	0.13008009
141	0x3e10899a	0.14114991
142	0x3e1b1a47	0.15146743
143	0xbec7cec7	-0.39024946
144	0xbde67db0	-0.11254442
145	0x3df5fbc5	0.12010912
146	0xbd99d9a8	-0.07512218
147	0xbe5359a0	-0.20639658
148	0xbe4ff926	-0.20309886
149	0xbeb449e7	-0.35212633
150	0xbe2b46f8	-0.16726291
151	0xbee5cb50	-0.44881678
152	0xbe25360e	-0.16133901
153	0x3cb2dc3a	0.021833528
154	0x3e3766bb	0.17910282
155	0x3eb4b382	0.35293204
156	0x3ced961a	0.029002238
157	0x3cc9d3e1	0.024637165
158	0x3cab9c8d	0.020948673
159	0x3e9cc59a	0.30619508
160	0x3e5c0468	0.21486056
161	0xbeb5ad02	-0.35483557
162	0xbe2cba3a	-0.16867915
163	0x3cadb273	0.021203255
164	0x3e9ec7ef	0.31011912
165	0xbe8c8230	-0.27443075
166	0x3e2d4519	0.1692089
167	0x3df03ece	0.11730729
168	0xbe1effdb	-0.15527289
169	0xbef02691	-0.46904424
170	0x3e6a9759	0.22909297
171	0xbe16e4bd	-0.14735694
172	0x3e928511	0.28617147
173	0x3cd6ffc7	0.026245011
174	0xbeb262a1	-0.34840873
175	0x3d000d78	0.031262845
176	0xbed9d046	-0.42541713
177	0x3eb4f29f	0.35341355
178	0x3ec37b65	0.3818008
179	0xbebf20df	-0.37329766
180	0xbed5791c	-0.41693962
181	0xbe71b62b	-0.23604648
182	0x3cefe547	0.029284133
183	0x3c4dc073	0.0125580905
184	0x3ebf6ae2	0.37386233
185	0x3e84e382	0.25954825
186	0xbdd9abe5	-0.106284894
187	0x3db24da4	0.08706215
188	0xbe5e996a	-0.2173821
189	0x3d25ae29	0.040449295
190	0x3e8b1fd7	0.2717273
191	0xbe94f9ac	-0.29096735
192	0xbdd45497	-0.10367697
193	0x3e9a79f7	0.30171177
194	0x3ea0b85e	0.3139066
195	0x3b1a3ca4	0.002353468
196	0xbe15c0c8	-0.14624321
197	0xbbdb1e7a	-0.0066869827
198	0xbec4bf5e	-0.38427252
199	0xbe67cff5	-0.22637923
200	0xbee8e965	-0.45490566
201	0x3ebe8478	0.3721044
202	0x3f01551d	0.505205
203	0xbe6ed308	-0.2332269
204	0xbc9c61e9	-0.019089656
205	0xbe9bcb37	-0.30428478
206	0x3e1a2740	0.15054035
207	0x3cc93366	0.024560641
208	0x3e820705	0.2539598
209	0xbe83e86b	-0.25763258
210	0x3e882f9b	0.2659882
211	0x3e7ef5cf	0.24898456
212	0xbd8c7d01	-0.0685978
213	0xbc2197ae	-0.009862823
214	0x3e9e4802	0.30914313
215	0xbecbed38	-0.3982942
216	0xbe422348	-0.18958771
217	0xbe3d998a	-0.18515602
218	0x3e2e9b4a	0.17051426
219	0xbe928da2	-0.28623682
220	0x3dab34eb	0.08359703
221	0xbdc4eac9	-0.09615094
222	0xbddf3135	-0.10898057
223	0x3f09a3b0	0.5376539
224	0x3ce33c69	0.027738767
225	0xbe0ec81b	-0.13943522
226	0x3e41cd9b	0.18926089
227	0x3bcbb38f	0.0062164734
228	0xbdfc15bd	-0.12308834
229	0xbe4ba6e2	-0.1988788
230	0x3e0f3efa	0.13988867
231	0xbe71bdf2	-0.23607615
232	0x3dec8086	0.115479514
233	0x3da3d3df	0.079993956
234	0x3d78e9cd	0.060769845
235	0x3dc2b95f	0.09508013
236	0x3eab1533	0.3341461
237	0xbec2924e	-0.38002247
238	0xbeb4c19b	-0.3530396
239	0xbe4760f6	-0.19470581
240	0x3dd76788	0.10517794
241	0x3e4dc7c8	0.20095742
242	0xbea15a56	-0.31514233
243	0xbed82be4	-0.42220986
244	0xbdf2f2f4	-0.11862746
245	0x3e747d76	0.23875985
246	0x3c3acf9d	0.011402038
247	0xbe339a20	-0.17539263
248	0x3e7f125e	0.2490935
249	0x3d7bb959	0.06145606
250	0x3eafada7	0.34312174
251	0x3d97bdbc	0.07409236
252	0x3e1cf512	0.15327862
253	0xbd53ca53	-0.051706623
254	0x3e09555f	0.13411473
255	0xbe4844b5	-0.1955746

transformer.layers.0.1.branch.1.bias f4 [64]
0	0xbd1c0372	-0.038089223
1	0xbdbc5182	-0.09195234
2	0xbd312ec3	-0.043257486
3	0xbe3d8364	-0.18507153
4	0x3e22b4ab	0.15889232
5	0x3d8e0363	0.0693424
6	0xbeb68ce9	-0.3565438
7	0x3e578d9b	0.21050112
8	0x3bee58e0	0.0072737783
9	0x3bd53bae	0.0065073585
10	0x3e6da1e8	0.23206294
11	0x3ecad9d1	0.39619306
12	0x3e4953d9	0.19660892
13	0x3e5225cb	0.2052223
14	0x3e3dfc95	0.18553384
15	0x3e814587	0.25248358
16	0xbd1c3de7	-0.038144972
17	0xbb856f66	-0.0040721176
18	0x3d4a31ff	0.049364086
19	0x3d7564b3	0.059910487
20	0x3e18a99f	0.14908455
21	0x3e88bc8e	0.26706356
22	0xbcd6cb2e	-0.02621993
23	0xbe97431e	-0.29543394
24	0x3e4725ad	0.19447966
25	0x3d0ae33e	0.03390812
26	0x3e1bda23	0.15219931
27	0xbacf7ac3	-0.0015829433
28	0xbe8dab7c	-0.27669895
29	0x3efe4ba8	0.49667096
30	0xbea1409c	-0.31494606
31	0x3ed2d0cd	0.41174927
32	0x3da42155	0.0801417
33	0xbe1a7082	-0.15081981
34	0x3c22a0ce	0.009926034
35	0x3dd8792b	0.10569986
36	0x3d9f71f5	0.077854075
37	0x3e613d2b	0.2199599
38	0x3d612724	0.054968968
39	0x3ea4e0aa	0.32202655
40	0x3bb3730c	0.005476361
41	0xbe9e3f25	-0.3090755
42	0x3d5573d6	0.052112423
43	0xbee9b2ad	-0.4564413
44	0x3e475117	0.19464527
45	0x3dbae9d8	0.091266334
46	0x3e04da93	0.12974004
47	0x3e9b056a	0.30277568
48	0x3e31e246	0.17371473
49	0xbee401da	-0.44532663
50	0x3dca5d90	0.09881127
51	0x3dbfaa9d	0.09358714
52	0x3d8a4b57	0.06752651
53	0x3cd59fd2	0.026077185
54	0xbe8f1582	-0.27946097
55	0x3d36da2c	0.04464166
56	0x3bb3a3eb	0.005482187
57	0xbd0a9056	-0.033829056
58	0x3e1027aa	0.1407763
59	0x3efa7089	0.48913983
60	0x3e8a71c9	0.27039936
61	0x3e032265	0.12806089
62	0x3ebb280f	0.36554
63	0x3ebfc127	0.3745205

transformer.layers.0.1.branch.4.weight f4 [8, 32]
0	0x3e0f8c39	0.14018334
1	0x3e5b98aa	0.21444955
2	0xbe9546aa	-0.29155475
3	0xbec3c1ef	-0.38233897
4	0x3e90433a	0.2817629
5	0xbe266eb6	-0.1625317
6	0x3e252f77	0.16131388
7	0xbec3e3d1	-0.38259748
8	0xbf028721	-0.5098744
9	0x3e653161	0.22382118
10	0xbe6d75ea	-0.23189512
11	0x3e40c69a	0.1882576
12	0xbccae69c	-0.024768166
13	0x3e49eaa1	0.1971841
14	0xbed4758b	-0.41495928
15	0xbe89fc4b	-0.26950297
16	0xbe875567	-0.26432344
17	0x3e5ad7cd	0.21371384
18	0x3e793fd6	0.24340758
19	0x3e53dd35	0.20689853
20	0xbd882a91	-0.06648744
21	0x3e89c9ee	0.26911873
22	0xbc927dbb	-0.017882219
23	0x3e95d2e3	0.29262456
24	0xbe6bcf07	-0.23028193
25	0xbba4a72a	-0.0050248103
26	0xbed1a1ed	-0.40943852
27	0xbd20f461	-0.039295558
28	0x3df6f1e1	0.120578535
29	0xbe2621c5	-0.1622382
30	0x3d125beb	0.03573219
31	0xbe4ffde7	-0.203117
32	0xbe634afa	-0.2219657
33	0x3d93dcc1	0.0721984
34	0xbdaa8b96	-0.08327405
35	0x3e41aa30	0.18912578
36	0x3e636abe	0.22208688
37	0xbe4c7dff	-0.19969939
38	0x3e4e3c1b	0.20140116
39	0x3e2c692b	0.16836993
40	0x3def983b	0.116989575
41	0x3e250c2d	0.16117926
42	0xbe6cbb74	-0.23118383
43	0xbd7280cc	-0.05920486
44	0x3df4ef21	0.11959673
45	0x3e229b43	0.1587954
46	0xbc630742	-0.013856711
47	0x3e85a033	0.26098785
48	0xbe3e27a1	-0.18569805
49	0x3e987406	0.2977602
50	0x3e3ef70f	0.18648933
51	0x3e435ada	0.19077626
52	0xbe2a7087	-0.16644488
53	0x3c836f0c	0.016044162
54	0x3e5e0bed	0.21684237
55	0x3e67e2b7	0.22645079
56	0x3e2126db	0.15737478
57	0x3e2dd58b	0.16975991
58	0x3e1982de	0.14991328
59	0x3e7867ee	0.24258396
60	0xbe1c99f9	-0.15293111
61	0x3e1f3814	0.15548736
62	0xbe753280	-0.23945045
63	0x3b87ae2d	0.0041406364
64	0xbcc32dd9	-0.023825573
65	0xbdeacb13	-0.114645146
66	0x3e0f3285	0.13984115
67	0xba4920b3	-0.0007672414
68	0xbe3a2908	-0.18179715
69	0x3e34756a	0.17622915
70	0xbe0263b2	-0.12733343
71	0x3e47c98e	0.19510481
72	0x3d979197	0.07400816
73	0xbe4b2722	-0.19839147
74	0xbc6194a0	-0.013768345
75	0xbd836e30	-0.06417501
76	0xbe2c9142	-0.16852286
77	0xbe171836	-0.1475533
78	0x3e0f1378	0.1397227
79	0xbdb424dc	-0.08796093
80	0xbd3d9fbe	-0.04629492
81	0xbe2a339e	-0.16621253
82	0xbdef40d5	-0.116822876
83	0xbda98126	-0.08276586
84	0x3caab165	0.020836541
85	0xbdb40880	-0.08790684
86	0xbde45b71	-0.111502536
87	0xbe8d9dfa	-0.2765959
88	0xbdf5dbf9	-0.12004847
89	0x3bf1820f	0.0073702405
90	0x3e0e5e28	0.13903105
91	0xbd53354e	-0.051564507
92	0xbe088424	-0.13331658
93	0xbc5efb12	-0.0136096645
94	0xbe4150f3	-0.18878536
95	0x3b104e68	0.002201939
96	0xbde48647	-0.11158424
97	0xbc8f9068	-0.017524913
98	0xbcc24663	-0.023715204
99	0x3ea19ea9	0.3156636
100	0xbbeb9485	-0.007189336
101	0x3dcc52fe	0.09976767
102	0xbdf34c8c	-0.118798345
103	0x3e46a48d	0.19398709
104	0x3e9c19d5	0.30488458
105	0xbda1a6f7	-0.07893174
106	0xbc7cdd21	-0.015433581
107	0xbe984770	-0.29742002
108	0x3ea27eaf	0.31737277
109	0xbd529ea6	-0.05142083
110	0x3e928875	0.28619733
111	0x3db7647b	0.08954712
112	0xbd4c7776	-0.049918614
113	0xbd3f47ff	-0.04669952
114	0xbc873070	-0.016502589
115	0xbd522cc5	-0.051312227
116	0xbd5d9228	-0.054094464
117	0xbd8da028	-0.06915313
118	0xbdfac120	-0.12243867
119	0xbcfe5567	-0.031046582
120	0x3def5e14	0.11687866
121	0xbcc04397	-0.02346973
122	0x3ea30cd7	0.31845734
123	0xbdc76e53	-0.097378395
124	0xbda9148d	-0.08255873
125	0x3e0609e8	0.13089716
126	0x3deb9699	0.115033336
127	0x3e853c17	0.26022407
128	0x3a3100e3	0.00067521463
129	0x3dd42c01	0.103599556
130	0xbe23d379	-0.15998639
131	0xbbadfc50	-0.005309619
132	0x3e110a72	0.14164141
133	0xbd2f7ee3	-0.042845618
134	0x3d189e1b	0.037260156
135	0xbca5601f	-0.020187436
136	0x3da431a5	0.080172814
137	0x3dac5fe6	0.08416729
138	0xbe0156c5	-0.12630756
139	0xbdcad01f	-0.09902977
140	0xbc6e19ba	-0.014532501
141	0x3da08377	0.07837575
142	0x3d3b08db	0.045662742
143	0xbd6ff46c	-0.05858271
144	0xbe238989	-0.15970434
145	0x3dad86f4	0.08473006
146	0x3df40051	0.11914123
147	0x3dac200e	0.084045514
148	0xbc7b437f	-0.015335917
149	0x3e1566c4	0.14589983
150	0xbd87bc54	-0.066277176
151	0x3df68262	0.12036587
152	0xbda141ce	-0.078738794
153	0xbc05690b	-0.00814272
154	0x3d88d6d4	0.066816
155	0xbd7c6195	-0.0616165
156	0xbd90f73e	-0.07078408
157	0xbccc1a05	-0.02491475
158	0xbcc172a6	-0.023614239
159	0xbcd648b4	-0.026157714
160	0x3dda28ff	0.10652351
161	0xbdae0232	-0.084965125
162	0x3d94cc72	0.07265557
163	0x3cbf7dd9	0.023375439
164	0xbde397d8	-0.11112946
165	0x3e2041bc	0.15650076
166	0xbe22f8cb	-0.1591522
167	0xbdd877dd	-0.10569737
168	0xbe45b8b1	-0.19308735
169	0xbe3339eb	-0.17502563
170	0x3b7279bf	0.0036998836
171	0x3a0542ff	0.00050835306
172	0x3d8345b0	0.06409776
173	0xbdee0313	-0.1162168
174	0x3a3a43f1	0.0007105461
175	0x3e1b6d74	0.15178472
176	0xbd08c23e	-0.03338837
177	0xbdf56d1f	-0.11983704
178	0xbda6140a	-0.08109291
179	0xbdb8566b	-0.09000858
180	0x3e313195	0.1730407
181	0xbe0404d5	-0.12892468
182	0xbddfbe00	-0.109249115
183	0xbe2343d1	-0.15943839
184	0x3dbf7372	0.09348191
185	0x3b1dcea8	0.0024079476
186	0xbd10f568	-0.035390288
187	0xbd77398d	-0.06035762
188	0x3e099b53	0.13438158
189	0x3d8ffbb4	0.070304304
190	0x3d6ca2c3	0.05777241
191	0x3d150d8c	0.036389872
192	0x3e7c7edb	0.24657767
193	0xbe0a0a22	-0.13480428
194	0x3e2691d0	0.1626656
195	0x3e241b81	0.16026117
196	0xbd37bcc3	-0.04485775
197	0x3d0f77d3	0.035026383
198	0xbd621863	-0.05519904
199	0x3ea93f11	0.33055928
200	0x3e52d214	0.20587951
201	0xbddf400b	-0.10900887
202	0xbd2a67d5	-0.04160293
203	0x3dcc618d	0.09979544
204	0xbd406539	-0.046971533
205	0xbd82016a	-0.06347926
206	0x3e02cfa3	0.1277452
207	0xbea45aa0	-0.3210039
208	0xbb7560cb	-0.0037441726
209	0x3d8a5fa2	0.06756522
210	0xbd5aaa20	-0.0533849
211	0xbd1974f6	-0.03746506
212	0x3cb8a5e6	0.022540044
213	0xbe7d9b1c	-0.24766201
214	0x3e11764e	0.14205286
215	0xbda449cf	-0.0802189
216	0xbe579fd1	-0.21057059
217	0x3e2b29ae	0.16715118
218	0x3e2e8069	0.17041172
219	0x3e5a93e0	0.21345472
220	0x3e832dcc	0.25620878
221	0xbe28cadd	-0.16483636
222	0xbe713107	-0.23553859
223	0xbdf77a89	-0.120839186
224	0x3e154f1c	0.14580959
225	0xbdb73d8a	-0.089472845
226	0x3d95af49	0.073088236
227	0x3e230d2b	0.15922992
228	0xbdefaf20	-0.11703324
229	0x3e2ece39	0.17070855
230	0xbe26e014	-0.16296417
231	0xbdc342f9	-0.095342584
232	0xbe1586f1	-0.14602257
233	0xbe2de9ba	-0.16983691
234	0x3c9c5f02	0.019088272
235	0xbdbcaad2	-0.09212269
236	0x3dd94765	0.106093206
237	0xbdfd47ba	-0.123671964
238	0xbe04b27a	-0.12958708
239	0x3e51ca63	0.2048736
240	0xbbc4a056	-0.006000559
241	0xbe0456c6	-0.12923726
242	0xbdbdfd5d	-0.09276841
243	0xbdd34024	-0.10314968
244	0x3e480545	0.1953326
245	0xbda0bfdd	-0.07849095
246	0xbe01ccfe	-0.12675855
247	0xbe37d016	-0.17950472
248	0x3dac8c1d	0.08425162
249	0xbbd06a55	-0.006360332
250	0x3dd1a0e7	0.10235768
251	0xbd9b45da	-0.075816825
252	0x3e002406	0.12513742
253	0x3d0a7df1	0.033811513
254	0x3dc7ac23	0.09749629
255	0x3e0897d9	0.13339175

transformer.layers.0.1.branch.4.bias f4 [8]
0	0xbdaf3d68	-0.08556634
1	0x3de0c81b	0.10975667
2	0xbd078808	-0.033088714
3	0x3cf2e710	0.029651195
4	0x3ced9583	0.029001957
5	0x3c6b0ccb	0.014346312
6	0xbd01081a	-0.031501867
7	0xbe504698	-0.2033943

transformer.layers.0.1.norm.gamma f4 [8]
0	0x3e080d52	0.13286331
1	0x3e084147	0.13306151
2	0x3d6a9344	0.05726935
3	0x3d407900	0.046990395
4	0x3d873570	0.06601989
5	0x3df1b95d	0.11802933
6	0x3e10d81c	0.14144939
7	0x3daeec62	0.0854118

transformer.layers.1.0.static_alpha f4 [4, 5]
0	0x3f57780d	0.8416756
1	0x3f800000	1.0
2	0x00000000	0.0
3	0x00000000	0.0
4	0x00000000	0.0
5	0xbe447839	-0.19186486
6	0x00000000	0.0
7	0x3f800000	1.0
8	0x00000000	0.0
9	0x00000000	0.0
10	0xbe0ead1c	-0.13933223
11	0x00000000	0.0
12	0x00000000	0.0
13	0x3f800000	1.0
14	0x00000000	0.0
15	0x3c1f78c9	0.009733387
16	0x00000000	0.0
17	0x00000000	0.0
18	0x00000000	0.0
19	0x3f800000	1.0

transformer.layers.1.0.dynamic_alpha_fn f4 [8, 5]
0	0x3cd0a5f0	0.02546975
1	0x00000000	0.0
2	0x00000000	0.0
3	0x00000000	0.0
4	0x00000000	0.0
5	0xbe2f3dfa	-0.17113486
6	0x00000000	0.0
7	0x00000000	0.0
8	0x00000000	0.0
9	0x00000000	0.0
10	0xbd152038	-0.03640768
11	0x00000000	0.0
12	0x00000000	0.0
13	0x00000000	0.0
14	0x00000000	0.0
15	0xbe080d8c	-0.13286418
16	0x00000000	0.0
17	0x00000000	0.0
18	0x00000000	0.0
19	0x00000000	0.0
20	0xbe0bc940	-0.1365099
21	0x00000000	0.0
22	0x00000000	0.0
23	0x00000000	0.0
24	0x00000000	0.0
25	0xbcb4dbe2	-0.022077505
26	0x00000000	0.0
27	0x00000000	0.0
28	0x00000000	0.0
29	0x00000000	0.0
30	0x3d539122	0.05165208
31	0x00000000	0.0
32	0x00000000	0.0
33	0x00000000	0.0
34	0x00000000	0.0
35	0xbd297dbf	-0.041379686
36	0x00000000	0.0
37	0x00000000	0.0
38	0x00000000	0.0
39	0x00000000	0.0

transformer.layers.1.0.static_beta f4 [4]
0	0x3fffe174	1.9990678
1	0x3ff65ed8	1.9247694
2	0x3f8effed	1.1171852
3	0x3ff8f91c	1.9451022

transformer.layers.1.0.dynamic_beta_fn f4 [8]
0	0xbf1dd132	-0.6164733
1	0x3e8c1118	0.27356791
2	0x3dae7046	0.08517508
3	0xbd8d5d42	-0.06902553
4	0x3ee39f6b	0.44457564
5	0xbefb8262	-0.49122912
6	0x3f342af9	0.7037807
7	0x3ded3148	0.11581665

transformer.layers.1.0.branch.norm.weight f4 [8]
0	0x3fd8e2d4	1.6944222
1	0x3fce7265	1.612866
2	0x3f7cdd65	0.9877532
3	0x3fb79873	1.4343399
4	0x3f72dd96	0.94869363
5	0x3fcf779e	1.6208379
6	0x4001855f	2.0237653
7	0x3f90bf87	1.130845

transformer.layers.1.0.branch.norm.bias f4 [8]
0	0xbf315f93	-0.6928646
1	0x3f2b19d8	0.6683631
2	0x3e3497a3	0.1763597
3	0x3ec93fba	0.39306432
4	0xbdaa45c7	-0.0831409
5	0xbe94a436	-0.29031533
6	0x3ec78441	0.3896809
7	0xbe99e0ae	-0.3005423

transformer.layers.1.0.branch.to_qkv.weight f4 [192, 8]
0	0x3ecf7482	0.40518576
1	0xbea50281	-0.32228473
2	0xbeadaaa7	-0.3391926
3	0x3edbb9ee	0.4291529
4	0x3ede944d	0.4347252
5	0x3efe55e1	0.49674895
6	0xbe07573d	-0.13216873
7	0xbe405d1f	-0.18785523
8	0x3e314906	0.17313012
9	0x3d2cd532	0.042195506
10	0xbe8ca4b5	-0.27469411
11	0x3ef1cffd	0.47228995
12	0xbe4c4bf2	-0.19950846
13	0x3f0db148	0.55348635
14	0xbf08c650	-0.534276
15	0xbe42e440	-0.19032383
16	0x3e2bccfb	0.16777413
17	0xbec97362	-0.39345843
18	0x3e537f4e	0.20654032
19	0x3dc3c3ac	0.09558806
20	0x3eac8e25	0.33702198
21	0x3dbe7b15	0.0930082
22	0xbee4c72b	-0.44683203
23	0x3da73a1d	0.08165381
24	0xbde26bc8	-0.11055714
25	0xbe55f58b	-0.20894448
26	0x3decee3a	0.115688756
27	0x3d0774eb	0.033070486
28	0xbe880484	-0.26565945
29	0x3dfd91bd	0.12381313
30	0x3ebdd9d2	0.37080246
31	0xbeb10854	-0.34576666
32	0x3e8cb3ec	0.2748102
33	0xbc839bd6	-0.01606552
34	0xbcc668a7	-0.024219824
35	0xbe966f1b	-0.29381642
36	0xbe27e22c	-0.16394871
37	0xbe457a93	-0.1928504
38	0x3d821d2c	0.0635322
39	0x3df8dd6c	0.12151608
40	0x3e15487f	0.14578436
41	0x3e8a2c38	0.2698686
42	0xbe490040	-0.19629002
43	0x3ecc9735	0.39959112
44	0xbdeb7381	-0.1149664
45	0xbe1c753e	-0.152791
46	0xbedea9f0	-0.43489027
47	0xbc7cc81c	-0.015428569
48	0x3baff942	0.00537029
49	0x3e5db413	0.21650724
50	0x3b8406b1	0.004029118
51	0x3cc0b0ce	0.023521807
52	0x3e281f46	0.1641818
53	0xbee77e36	-0.4521348
54	0xbccf98bb	-0.025341382
55	0xbea7c4bf	-0.32767293
56	0x3e56c8c7	0.20975028
57	0xbdaa0988	-0.08302599
58	0xbeeb2e55	-0.45933786
59	0x3e87c821	0.26519874
60	0x3e5ac91b	0.21365778
61	0x3e66c072	0.2253435
62	0xbf1496cb	-0.5804259
63	0xbe5245ee	-0.20534489
64	0xbef36228	-0.47535825
65	0xbdf9d6ae	-0.1219915
66	0x3dcf06d1	0.10108722
67	0xbe362e38	-0.17791069
68	0x3e507666	0.20357665
69	0xbe3efcd7	-0.18651138
70	0x3e0cd21a	0.13752022
71	0xbe1361e6	-0.14392814
72	0x3eb1a4ac	0.34695947
73	0xbe3c8d8d	-0.18413372
74	0x3e687aec	0.22703141
75	0x3ecab20a	0.39588958
76	0xbe895bf1	-0.26827958
77	0xbdd44379	-0.10364432
78	0xbf10f7ec	-0.566283
79	0x3c7de804	0.015497211
80	0x3e1a5217	0.15070377
81	0xbe206253	-0.15662508
82	0x3e5cbd00	0.21556473
83	0x3da7f45e	0.08200906
84	0x3c7b99c3	0.015356484
85	0x3e670903	0.22562031
86	0xbcbfd330	-0.023416132
87	0x3dd68c30	0.104759574
88	0x3f075de9	0.5287767
89	0x3d2e8aed	0.04261296
90	0x3e1fe4bb	0.15614597
91	0xbe0b0398	-0.1357559
92	0x3e3a0f70	0.18169951
93	0x3ec02bb2	0.37533337
94	0xbf129d86	-0.5727161
95	0xbd8d4b13	-0.06899085
96	0xbe3860a9	-0.18005623
97	0x3e8ca967	0.27472994
98	0x3db7b37e	0.08969782
99	0x3e8f927c	0.28041446
100	0x3eb36ad2	0.35042435
101	0x3eb762da	0.35817605
102	0x3d5f4ddf	0.054517623
103	0x3e8f56a7	0.27995798
104	0x3f15b16d	0.58473855
105	0xbebb15bc	-0.3654002
106	0xbecd0bfc	-0.40048206
107	0x3f0dad40	0.55342484
108	0x3d28988f	0.041161116
109	0x3ecb6dcf	0.39732215
110	0xbf0f8df3	-0.5607597
111	0x3d01a8b1	0.031655017
112	0x3d42da3f	0.047571417
113	0xbe601ce0	-0.21886015
114	0x3ec1b1d2	0.3783098
115	0xbe5ad4d4	-0.2137025
116	0x3d64dc1a	0.055873968
117	0x3dec4ecb	0.11538466
118	0x3ec6ec23	0.38852033
119	0x3e52dadb	0.20591299
120	0x3e4b1c98	0.19835126
121	0x3d46b793	0.048514914
122	0xbea38fbd	-0.319456
123	0xbebe7a40	-0.37202644
124	0xbde3a745	-0.111158885
125	0x3d4e353b	0.050343733
126	0x3ecf3d8c	0.40476644
127	0xbeda5389	-0.42641857
128	0x3c5f7842	0.013639512
129	0xbeb53474	-0.3539158
130	0xbdc4b8d4	-0.09605566
131	0x3d9c35ca	0.07627447
132	0xbe980387	-0.2969019
133	0xbda72615	-0.081615604
134	0xbe006410	-0.12538171
135	0x3e8eecff	0.2791519
136	0xbec7a1b8	-0.3899057
137	0x3d1a6103	0.037690174
138	0xbe823794	-0.25433028
139	0xbe066979	-0.13126172
140	0xbe974a60	-0.2954893
141	0x3c735209	0.014851102
142	0x3e6327e5	0.22183187
143	0xbde7b781	-0.113142975
144	0xbede494a	-0.4341529
145	0x3ed1c718	0.4097221
146	0x3cdb65b1	0.026781889
147	0xbdbe3fd4	-0.09289518
148	0xbe3cdd67	-0.18443833
149	0x3e32c78a	0.1745893
150	0x3d417e99	0.047239874
151	0xbe812213	-0.2522131
152	0x3ef1f538	0.472574
153	0x3e1f82ea	0.15577284
154	0x3e39c4ce	0.18141481
155	0x3ed29ebf	0.4113674
156	0x3e1d58ee	0.15365955
157	0x3ed40a33	0.4141403
158	0xbd8b96ee	-0.06815897
159	0xbe9425c6	-0.2893507
160	0x3ecdf793	0.40227947
161	0x3e75b37c	0.23994249
162	0xbec30792	-0.38091713
163	0x3e21d8c2	0.15805343
164	0x3dd39f5a	0.10333128
165	0x3f0c2926	0.5475029
166	0xbf1d4315	-0.61430484
167	0xbe10de3b	-0.14147274
168	0xbc6bd987	-0.014395124
169	0x3ead8852	0.33893067
170	0xbdc320b9	-0.09527726
171	0xbe1a9450	-0.15095639
172	0x3d3ab0ce	0.04557877
173	0x3e05bcd0	0.13060308
174	0x3d72ec80	0.059307575
175	0xbebfb015	-0.37439027
176	0x3e081597	0.13289486
177	0xbec17d5d	-0.37790957
178	0xbe82440e	-0.25442547
179	0x3dad9726	0.08476095
180	0x3e10bb3a	0.14133921
181	0x3e9e6f88	0.30944467
182	0xbf02881d	-0.5098894
183	0xbd59bfd4	-0.053161457
184	0xbec2ff33	-0.38085327
185	0xbe698e68	-0.2280823
186	0xbb768c46	-0.003762023
187	0xbee28793	-0.4424406
188	0xbe70de11	-0.23522212
189	0xbeac5acc	-0.33663023
190	0x3e749059	0.2388319
191	0xbddf07b6	-0.108901426
192	0x3eeb2e01	0.45933536
193	0x3e7fddb2	0.24986914
194	0xbec2aac0	-0.38020897
195	0xbda1c6fc	-0.078992814
196	0xbda90df2	-0.08254613
197	0x3e4579c4	0.19284731
198	0xbde80f18	-0.11331004
199	0x3de4c81b	0.111709796
200	0x3d6e06a0	0.058111787
201	0x3e4c34c9	0.19942011
202	0x3d956c3d	0.072960354
203	0x3e2fd166	0.17169723
204	0xbe2b6731	-0.16738583
205	0x3b4744db	0.0030406031
206	0x3e914e8b	0.28380236
207	0x3e3cea9e	0.18448874
208	0xbebe42c5	-0.37160316
209	0xbe2b97c3	-0.16757111
210	0xbdc5042f	-0.096199386
211	0xbeed223b	-0.46315178
212	0x3e84ba15	0.2592322
213	0xbddba6c5	-0.10725168
214	0x3ef4d811	0.47821096
215	0x3dd6d9f7	0.10490792
216	0xbdc5d004	-0.096588165
217	0xbea089c8	-0.3135512
218	0x3e1e6d8e	0.1547148
219	0x3d15f486	0.03661015
220	0xbcb51457	-0.022104425
221	0xbe3563ef	-0.17713903
222	0x3e68b0e1	0.22723724
223	0xbd8b0b24	-0.06789234
224	0xbf15a9f5	-0.5846246
225	0x3e8d6035	0.27612463
226	0x3ef4cf31	0.47814324
227	0xbea3a01c	-0.3195809
228	0xbcaf5118	-0.021400973
229	0xbf21c2f1	-0.6318808
230	0x3eab8aeb	0.33504423
231	0xbdbdb114	-0.092622906
232	0x3e7b0550	0.24513745
233	0x3cee3b26	0.029080939
234	0x3c3ae882	0.011407973
235	0x3e990d46	0.2989294
236	0x3d2c4636	0.042059146
237	0x3cae61ae	0.021286812
238	0xbe3f6431	-0.18690564
239	0xbea94163	-0.330577
240	0xbcd272ea	-0.02568956
241	0xbed4d499	-0.4156845
242	0xbeb700ae	-0.35742706
243	0x3d9b2dad	0.07577071
244	0x3ed45460	0.41470623
245	0x3e75f101	0.24017717
246	0xbf1820c1	-0.5942498
247	0x3eb5ae2a	0.3548444
248	0xbe2ce16e	-0.1688287
249	0x3ead0c88	0.33798623
250	0x3dc7ca97	0.09755438
251	0xbe24a46f	-0.16078351
252	0x3e4c5103	0.19952779
253	0xbe92bb9c	-0.2865876
254	0x3eefa1d7	0.46803162
255	0x3bf18619	0.007370722
