Projektarbeit_FTTransformer/trained_models/regular_training/model_FTTransformer_lr0.00025_9_1_4_4_.3_0.3__epoch16000.pt (torch, 104701 bytes, 87 tensors)

cls_token f4 [1, 1, 9]
00000000: 9632 af3f f1a4 663f dff1 a2bf cfa3 90bf
00000010: d959 f0bf 7209 83bf a5ad 683f 25a3 033f
00000020: 49ca 9dbf
1.3687313 0.9009543 -1.2730063 -1.129999 -1.8777419 -1.0237257 0.9088996 0.51420814
-1.2327358

categorical_embeds.weight f4 [3, 9]
00000000: e311 cd3e acf8 c13d 060d a2bf f982 cc3f
00000010: a25d 6abf f197 35bf c83f 483f 9d15 d7bf
00000020: 8ea9 97bf 516c 6ebe 6765 29bf bd8b 88bf
00000030: 5030 0340 89ab f83e d26c 5dbf b71e 1bbd
00000040: 0d26 c33e a3d1 b83e d301 a13f e656 b0bf
00000050: a9a8 d33f ea8d 19bf 1d8f cabf c411 9cbf
00000060: 434c 5a3f ab1d 403f 9b54 c33f
0.4005271 0.094712585 -1.2660224 1.597747 -0.9154912 -0.7093497 0.7822232 -1.6803471
-1.1848619 -0.23283507 -0.6617035 -1.0667645 2.0498238 0.4856837 -0.8649417 -0.03787109
0.38114968 0.3609744 1.2578682 -1.3776519 1.6535846 -0.5998217 -1.5824925 -1.2192922
0.85272616 0.7504527 1.5260195

numerical_embedder.weights f4 [8, 9]
00000000: bfae e3be b221 103f 68cc 043f 2516 92bc
00000010: fd38 ae3f 4883 00bf a0fe 3140 e4ae df3e
00000020: 1204 7a3e ef25 66be 19c4 85bf ed5e 553e
00000030: 89cc b03e d895 793f 376e 333f 1625 e33e
00000040: 1648 81be 09c0 ce3e 24a6 673e a724 a5bf
00000050: e573 c0bd 7cce 493f 683d f33e fe37 d7bf
00000060: f216 2b3f cee5 be3f 128f b8be f61b f6be
00000070: 4892 95bf 08ce 5f3f feb8 d53e b341 4ebf
00000080: 9d20 dabd 7564 893d db62 f5be 6033 5abe
00000090: 15cb a13e 6890 4a3f d929 97be 55a3 e7bf
000000a0: be1f 0abf edbf 94be f182 ce3f e16c 053f
000000b0: 8ce8 3ebf 038f 35bf 5a0a 58bf f075 843f
000000c0: e551 46bf ba67 a0bf ca02 d7bd b5d0 86be
000000d0: bb02 80be 9297 5f3e 1930 1b40 a700 7abf
000000e0: 0895 bb3e 45f5 473f f467 32bf d5dd b83d
000000f0: 06f2 32bf 8040 913f 3a9a 1c3e 923e 8bbe
00000100: b157 3ebf ceb0 bebf 64ac 31bf 5540 02bd
00000110: 7ce2 ae3f 0328 883f 9535 973e f729 813d
-0.44469258 0.56301415 0.518744 -0.017832825 1.3611141 -0.5020032 2.781166 0.43688118
0.24415615 -0.22475408 -1.0450469 0.20836993 0.34531048 0.9749427 0.7009005 0.44364232
-0.2525031 0.40380886 0.22621971 -1.290181 -0.09397105 0.78830695 0.47507787 -1.6813962
0.66831887 1.4913881 -0.36046654 -0.48068208 -1.1685266 0.87423754 0.417427 -0.80569
-0.10650752 0.06708614 -0.47926983 -0.2130866 0.31600252 0.79126596 -0.29524115 -1.809672
-0.53954685 -0.29052678 1.613371 0.5211926 -0.7457359 -0.70921344 -0.84390795 1.0348492
-0.7746871 -1.2531655 -0.10498579 -0.26331106 -0.25002083 0.21835163 2.4248106 -0.97657245
0.3663714 0.78108627 -0.6968987 0.09026686 -0.6990055 1.1347809 0.15293208 -0.27196175
-0.74352556 -1.4897707 -0.6940367 -0.031799633 1.3662868 1.0637211 0.29533067 0.06306832

numerical_embedder.biases f4 [8, 9]
00000000: 9c31 9cbf 74ad f73e 7162 e83d 068a 53bf
00000010: ac30 3cbf 266e 723f 76b4 06c0 0fa6 e53f
00000020: f0c4 b3bf 6df9 5dc0 e406 e93f 1587 8d3f
00000030: 67f4 26c0 6f8d 2abc 0c5b 9040 0254 0ebf
00000040: c66f 24c0 258a dd3f 35e9 aa3f eecc 0f3f
00000050: b69e c6be c40d bb3f 000d a3be 1df5 4f3e
00000060: ee64 203f c8c8 853f 6fce c63f aa96 31c0
00000070: d54a 6c3f 199b 81bf 7cfd 063f dc72 333e
00000080: 47c8 293e a0ec 0ac0 79ab bebf 0ca0 14bf
00000090: a23d 383f b487 4abf e949 c3bd a164 203f
000000a0: 6599 babf bbb2 753e cd98 af3f a2cd 893f
000000b0: a0f5 0ac0 ebb3 d93e 6c0f 413f 9134 94bf
000000c0: f92b d4be a94b 123e c6dc 953f f91c ec3f
000000d0: 0b09 a1be 1c52 89be cc45 303f 873c c53f
000000e0: 4a55 82bf 2b3a 25be 889b 0fbf 31cd 933e
000000f0: 0f63 de3e dae9 4b3f 193e cb3f 3c5f 19bf
00000100: cda3 263f 39b8 79bf 0006 8f3f c04e fbbe
00000110: 4fe2 a9be d8e2 4cbf d310 5abf 9f93 003f
-1.220264 0.48374522 0.11346901 -0.8263248 -0.7351177 0.94699323 -2.1047645 1.7941302
-1.4044476 -3.4683487 1.8205228 1.1056849 -2.6086671 -0.010409697 4.511114 -0.55596936
-2.569322 1.7307783 1.3352419 0.5617207 -0.38792962 1.4613576 -0.31845856 0.20308347
0.62654006 1.0451899 1.5531749 -2.7748208 0.92301685 -1.0125457 0.52730536 0.17524284
0.16580306 -2.1706924 -1.4896079 -0.5805671 0.71969044 -0.79113317 -0.095355816 0.6265355
-1.4578062 0.23993962 1.3718506 1.0765879 -2.1712418 0.4252008 0.75414157 -1.1578542
-0.41439798 0.14286675 1.1708 1.8446342 -0.31452212 -0.26820457 0.688565 1.5409096
-1.0182278 -0.1613547 -0.56096697 0.28867486 0.4343495 0.79653704 1.5878326 -0.5991094
0.6509369 -0.97546726 1.1173706 -0.4908352 -0.33180472 -0.80033636 -0.8518192 0.5022525

transformer.layers.0.0.static_alpha f4 [4, 5]
00000000: 4228 de3d 0000 803f 0000 0000 0000 0000
00000010: 0000 0000 4228 de3d 0000 0000 0000 803f
00000020: 0000 0000 0000 0000 46e2 8d3f 0000 0000
00000030: 0000 0000 0000 803f 0000 0000 4228 de3d
00000040: 0000 0000 0000 0000 0000 0000 0000 803f
0.10847522 1.0 0.0 0.0 0.0 0.10847522 0.0 1.0
0.0 0.0 1.1084678 0.0 0.0 1.0 0.0 0.10847522
0.0 0.0 0.0 1.0

transformer.layers.0.0.dynamic_alpha_fn f4 [9, 5]
00000000: e3f4 45bd 0000 0000 0000 0000 0000 0000
00000010: 0000 0000 a3ee f93b 0000 0000 0000 0000
00000020: 0000 0000 0000 0000 e301 e1bd 0000 0000
00000030: 0000 0000 0000 0000 0000 0000 a314 2ebe
00000040: 0000 0000 0000 0000 0000 0000 0000 0000
00000050: 26b6 eabd 0000 0000 0000 0000 0000 0000
00000060: 0000 0000 2716 823d 0000 0000 0000 0000
00000070: 0000 0000 0000 0000 472a e63d 0000 0000
00000080: 0000 0000 0000 0000 0000 0000 a6ab bbbd
00000090: 0000 0000 0000 0000 0000 0000 0000 0000
000000a0: 3922 e1bd 0000 0000 0000 0000 0000 0000
000000b0: 0000 0000
-0.048329245 0.0 0.0 0.0 0.0 0.0076273247 0.0 0.0
0.0 0.0 -0.10986688 0.0 0.0 0.0 0.0 -0.1700006
0.0 0.0 0.0 0.0 -0.11460523 0.0 0.0 0.0
0.0 0.063518815 0.0 0.0 0.0 0.0 0.112385325 0.0
0.0 0.0 0.0 -0.09163599 0.0 0.0 0.0 0.0
-0.109928556 0.0 0.0 0.0 0.0

transformer.layers.0.0.static_beta f4 [4]
00000000: 1a31 873f 7454 883f e188 843f dfe7 713f
1.056186 1.0650773 1.0354272 0.9449443

transformer.layers.0.0.dynamic_beta_fn f4 [9]
00000000: 2451 45be 0a77 2dbe 8ab7 483e e7b3 9e3e
00000010: a4b6 153e 01f7 9cbd 5ef4 e2be 356d 88be
00000020: 0cea 9d3d
-0.19269234 -0.16939941 0.19601265 0.3099663 0.14620453 -0.076643 -0.44327062 -0.26645818
0.077106565

transformer.layers.0.0.branch.norm.weight f4 [9]
00000000: 1014 543f 4ae6 833f 159d 683f fa25 873f
00000010: dcaa 963f 8c05 6a3f 363d 733f c92e 963f
00000020: 329d 853f
0.8284311 1.0304654 0.9086469 1.0558465 1.1770892 0.91414714 0.95015275 1.1733028
1.0438597

transformer.layers.0.0.branch.norm.bias f4 [9]
00000000: ec8f eb3d 405c 18bd 0a69 e0bd 9558 05be
00000010: 712a 08bd aad1 b03c 0f80 2a3d 1761 413d
00000020: 4da9 aebd
0.1150206 -0.03719735 -0.109575346 -0.13022073 -0.0332436 0.02158435 0.041626032 0.047211733
-0.08528385

transformer.layers.0.0.branch.to_qkv.weight f4 [192, 9]
00000000: 7619 573e 7b27 9a3e 2f13 783e 2a3a 343e
00000010: 8155 45bd c5c0 933e 352c 3d3e 81e4 a93c
00000020: 58e3 fdbe 4e4d 7e3e 3efc 243d e054 36be
00000030: 2664 463d 22c9 53be 42ca 6d3e f03e 7ebe
00000040: 70d3 18be 8ebe 6bbe ef09 17be 6a04 40be
00000050: d8c1 d7bd c99d 313e b4b8 153e e963 91be
00000060: 8498 66be 4fe6 b63e 1ada 163e 8d7b 90be
00000070: 1496 e2be 5c7f 983e d616 6ebd 941e dd3d
00000080: cab2 45be ad63 a7be 09e5 94bb 935d 873e
00000090: cf8e d83d 3782 abbe a7b1 d23d 333c 46be
000000a0: efcf a1be 7f1a 823e cd0c 013e 1c0c 33be
000000b0: 5f7e 863d fed8 8cbe 6d12 f4be b263 493d
000000c0: 2ec5 fb3d 1aa5 9d3e 5389 f53c 8e75 cbbe
000000d0: fa3a eabd 6e3b 23be 1496 863d e329 5fbe
000000e0: 036f 97be 7a7a 7ebd e5cb c1bd c879 65bd
000000f0: ef31 f6bc ec4a aa3e 0d99 dc3d d284 f43e
00000100: e076 463e aa8a 31be 105f 80be a0f1 c3be
00000110: d36b 8ebe d5e6 df3e 4c4a c63e 5336 5dbe
00000120: 2e43 6d3e 8e20 a5bd e3c1 f4be 4708 6c3d
00000130: 2bcd 94be 6f1f c43d d67d 983e fca5 6c3e
00000140: 377e 33bd 0c0a c13e ef63 06be 153e e7be
00000150: 7a4f 88be 7f10 0abf 1056 763e 63e2 ef3e
00000160: ea90 573e c925 efbe 765e 913e 64f8 b03e
00000170: 668b 81bd 8785 963d 5722 0a3d b0af 5dbe
00000180: 01a4 ae3e bfc3 74be 3cc5 aabe 5e0f 963e
00000190: 45b2 a43e a77a 73be 2605 08be de2d 93bc
000001a0: 403e 37bd a2d9 38be fd54 2bbd c2b6 0ebe
000001b0: 9d6d d53c bf7c 90bd 104f a1be 9bbd 13be
000001c0: f008 8ebd 8174 28be 0099 d63e 0a24 e33e
000001d0: 44e6 f1bd 9db3 4b3e 886d 4b3b 2249 3c3d
000001e0: 1288 c2be c5a1 85be 0984 44bd 9a44 e0bd
000001f0: 4555 fabd 6712 0cbe edf1 933e 8c28 91be
00000200: 7902 383e 3501 6dbe 19d5 7ebe 889c 593e
00000210: f525 f43d 1127 143e 616f bbbc 5260 eabe
00000220: 5db7 ffbc a18f 653e 9464 e5bc 6c6e 8b3d
00000230: 294c e63e fcc5 80bd bb18 9ebe 7af6 d93e
00000240: c990 62be 8796 a73d 6f61 223e 04be 6a3e
00000250: f600 e83d 815a 693d 06d8 d23d 8925 69bd
00000260: 4386 2b3e 4ea0 023f b8a7 28bb 7d31 dcbe
00000270: 6e91 0ebe 44f1 72bd e2d1 ccbe eb9d 583e
00000280: f5bd c73e 22bf 6b3d 6d20 9d3a d8ed b93d
00000290: acfd a83e 5a03 cbbd 5b35 ef3d c0a1 98be
000002a0: 1a02 39be 86b2 093d 0638 aabd aa2c 483d
000002b0: d61e 6f3d 7973 9dbe 8b36 5c3e adf2 cf3c
000002c0: f4d8 bdbe 7b14 363e 954e 893e 1cd6 5dbe
000002d0: 440f 69bd 03fb bdbd a098 33be 15b0 8b3d
000002e0: 277d a83e c35c 09bc 15a4 90be 4622 c1be
000002f0: 12d5 26bd 3c40 6d3e 10d7 9f3e 3a0f 3abf
00000300: 0170 03bf 9747 00bf 577b 2bbe 9fe4 363f
00000310: 4716 f23e 8e95 1bbe 69b7 823e 8413 27bd
00000320: 836c fbbd 1ec0 a33e cc28 be3c ada5 043e
00000330: 95e7 103e a600 83be d937 28be 0ca8 99bb
00000340: 8956 933e ba5e ad3c bb7b 82bc 8882 063d
00000350: cb0b 73be b5ea 003e cd13 83be d5c7 9ebe
00000360: 2465 02bf 9855 66be 6a9b 373d 4214 b83e
00000370: 63c5 b33e c2bd 4a3e 974e 7cbe 448d d3be
00000380: 2cb8 a93d 7613 82be e021 863e 76ce 4e3e
00000390: 1789 8f3e 966c 663d 7c57 f3bd 2d77 b6bc
000003a0: b8f7 a8be a885 bfbe 8d1a 6bbd d9b1 7b3d
000003b0: dc50 513e 7cd2 9a3e 180d 9a3e a806 4fbe
000003c0: ccbd 09be c4a1 743c 7b57 983e a7ef 50be
000003d0: 01ce c6be d76c b13e 26c8 333e 030e 013f
000003e0: 79da b63e ab37 eabe 6b07 7cbe 553e 073f
000003f0: ca79 663d fba8 20bd 4406 99bd 869b ac3d
0.21005806 0.30108246 0.24226068 0.17600313 -0.048177246 0.2885801 0.18473895 0.020738842
-0.49587512 0.24834177 0.04027962 -0.17805815 0.048435353 -0.20682195 0.23221686 -0.24828696
-0.14924407 -0.2302191 -0.14749883 -0.18751684 -0.1053502 0.17345347 0.1462124 -0.28396538
-0.22519118 0.35722587 0.14731637 -0.28219262 -0.44255126 0.29784667 -0.058127247 0.10796848
-0.19306484 -0.32693234 -0.0045439047 0.2643858 0.105741136 -0.33497784 0.10287791 -0.19358902
-0.31603953 0.2541084 0.1260254 -0.17485088 0.06567072 -0.27509302 -0.47670308 0.049167342
0.122934684 0.30790025 0.029972708 -0.39738125 -0.1143703 -0.1594064 0.06571594 -0.21793322
-0.29576883 -0.06212852 -0.09462718 -0.056024343 -0.030053107 0.33260286 0.107713796 0.47757584
0.19381285 -0.17338052 -0.25072527 -0.38270283 -0.27816638 0.43730798 0.3872856 -0.21602754
0.23170158 -0.0806285 -0.47804174 0.05762508 -0.2906278 0.09576308 0.29783505 0.23110193
-0.04382154 0.37702978 -0.13124059 -0.45164552 -0.26623136 -0.5393142 0.24056268 0.46852407
0.21051374 -0.46708515 0.2839238 0.34564507 -0.06325416 0.07349687 0.033724155 -0.2164905
0.341095 -0.23902796 -0.33353603 0.293086 0.3216726 -0.23777257 -0.13283214 -0.017966207
-0.0447371 -0.1805177 -0.041829098 -0.13936904 0.026053244 -0.070550434 -0.31505632 -0.14427797
-0.069352984 -0.16450693 0.41913605 0.44363433 -0.11811498 0.19892736 0.0031040628 0.045968182
-0.37994438 -0.26099983 -0.04797748 -0.10950585 -0.12223295 -0.13678895 0.28895512 -0.28351247
0.17969693 -0.23144992 -0.24885978 0.21251118 0.11921302 0.14468028 -0.022880258 -0.45776612
-0.031215364 0.22418071 -0.028002061 0.06808171 0.4497998 -0.062877625 -0.30878243 0.4257086
-0.22125544 0.08183008 0.1585748 0.22924048 0.11328308 0.056971077 0.102951095 -0.056920562
0.16750436 0.51025856 -0.0025734734 -0.43006507 -0.13922665 -0.05931212 -0.40003878 0.21153991
0.39012113 0.057555325 0.0011987813 0.09078568 0.33006036 -0.09912749 0.116800986 -0.29810905
-0.18067208 0.03361752 -0.08311467 0.04887072 0.058379017 -0.3075216 0.21505181 0.025384272
-0.37079585 0.1778125 0.26817766 -0.21663707 -0.056899324 -0.09276392 -0.1753869 0.06820694
0.32907984 -0.0083839325 -0.28250185 -0.3772146 -0.040730543 0.23169035 0.31218767 -0.72679484
-0.5134278 -0.5010924 -0.16746269 0.714426 0.4728262 -0.1519377 0.25530556 -0.040790096
-0.12276556 0.3198251 0.023212813 0.12953825 0.14150842 -0.25586432 -0.16427554 -0.004689222
0.2877696 0.021163333 -0.01592814 0.032839328 -0.23734967 0.12589534 -0.25601044 -0.31011835
-0.5093558 -0.22493589 0.04482595 0.35952955 0.35111532 0.1979895 -0.24639355 -0.41318715
0.08287081 -0.25405473 0.2619772 0.20195946 0.2803428 0.0562559 -0.11881921 -0.022273624
-0.33001494 -0.3740666 -0.057398368 0.061448906 0.20441002 0.30238712 0.30088115 -0.20217383
-0.13451308 0.014931146 0.29754242 -0.2040392 -0.38829044 0.3465335 0.1755682 0.50412005
0.35713556 -0.45745596 -0.24612205 0.52829486 0.05626849 -0.039223652 -0.07471898 0.08428101

transformer.layers.0.0.branch.to_out.weight f4 [9, 64]
00000000: ea58 053e 2fa7 2e3d 1bcb 93bd 9944 12bd
00000010: 5eb7 babe d10b 91bd 9791 653d 7d1a 01be
00000020: b2cf 50bd 7337 393d 38ac 573b a024 613d
00000030: 891f 41be ae66 20be 3d75 f93d ba1e 61bd
00000040: dd76 223d f24f 493e ea09 f6bc c686 4e3c
00000050: dcb6 aabd 0a46 3ebe 2ff7 d5bd 378f fdbd
00000060: 6eec 123d b76f 113d cab0 38be d8d9 793e
00000070: 4b0a 713e ed93 853c 434c 83bb 89fc 9fbd
00000080: 26cd 16bc a934 453e 304e babd 81b1 ac3d
00000090: 57ae 50be 7b48 c53d 623b 593d 4ccb 943d
000000a0: d209 b43e 6fc5 a7bd 36a8 11be 60ad fdbc
000000b0: f77e d13c 93c0 c5bd 2696 083d c5f6 1b3e
000000c0: 19ef b9bc ac4c 833e e4f9 9b3c b56f 5ebd
000000d0: 2445 bc3c 83fc dabd 1931 3b3b ee84 203e
000000e0: d745 60bc 0fb9 90bd c1bf 323c 14af a03d
000000f0: c99f 9d3e a12a 6c3d 4f2e 95bc 7100 40bc
00000100: 6473 d93c ed0b 383d 4821 ef3b c35a 453d
00000110: 9f4f 69bd 5237 2bbc 714a 003d 2d87 90bd
00000120: ce32 a03d af32 3a3e 97d5 2e3e c0a6 a7bd
00000130: d198 06be bc9f 223e 61cc b8bc bbb8 8cbd
00000140: 91d2 b9bd d8d2 053d 37c7 18bd 7892 c83d
00000150: 3fcf 4dbd 2a73 fe3d 3dc6 dabd 8984 813c
00000160: a60c a63c e688 c73d 9566 f13d 9536 0abe
00000170: a849 c93d 9f91 a9bd b2d6 8bbd 4020 4bbe
00000180: fb19 e1bd ac38 5cbd c758 37bd 091b a9bc
00000190: dab1 85bd 2e92 1bbd 8567 73bb ba0e d5bc
000001a0: 206d a03d 5dcc 283d 4298 46bd 7b60 a6bd
000001b0: 6a15 94bd 9e32 f93d 4b3e c3bd 0975 fb3d
000001c0: 423c 17be 6028 64bd 218a 783d b61e 09be
000001d0: 3d4a 98bd 2f1b 2cbd 3586 f43d 2a27 eb3d
000001e0: b223 68be fdc3 2b3e d55d efbb c544 15be
000001f0: 8aab 94bd 154d d6bd 38f8 e6bc a9da cf3d
00000200: c30a 5dbc 1456 1d3d e35e 4a3d 9fb6 a1bd
00000210: 21f2 2cbe 98a5 12bd 412a d2bd 5932 6fbc
00000220: 5af3 943d 8c9f 9ebd c3b8 b0bd af67 31bc
00000230: 886f 50bd 7dcb 14be 0d0a 923d 78c5 1abd
00000240: 351c b03d 87dc 1cbc ae51 a7bb dcb2 2c3d
00000250: eba7 3fbc e93d a0bd 694d f9bc 7063 debc
00000260: 165f f73d 1ae5 53bd a13c 5dbd cf14 033d
00000270: 849d 143e b1a0 b1bc 144f c73c 9cbf 703d
00000280: b0a2 f2bc 3cc1 b23d 7162 1abd 5395 eabb
00000290: 6ad3 7ebd ce0c 313c db83 0c3c 79a1 053e
000002a0: 9acf d53d 9867 883d dd5b ecbd ed3b e1bd
000002b0: 9c69 b93d dba5 10be 3da9 233d add5 0fbd
000002c0: f723 993d 57f9 193e 8e17 8dbd adb8 bebd
000002d0: 4be0 7c3d 6e14 b9bc ae5d d53d 9a7d 863c
000002e0: 1385 a5bc c1c5 ee3c 7ff0 953d 41e4 923d
000002f0: e97c 493e 277b a4bd a82d f63c f848 30be
00000300: e3eb 8abd e145 c3bc 5adf 41bd 90de 5e3d
00000310: 801c 833c 1e3d 3db9 858a 4e3c 4aef bf3d
00000320: 263f eb3c 3ef6 963d ff54 a2ba 0c58 8abd
00000330: fb22 3dbd 720a 6e3c d17d f3bc c6c0 c1bd
00000340: 8006 053d 6728 0ebe 72c7 caba 0837 96bd
00000350: 31e1 293e a432 63bc bd7d 553d b493 d73c
00000360: dfde b2bb fd6b e7bd abb7 62bd 30df 44be
00000370: d129 cc3c 9c2b 8fbd 25be 2b3d a92e 6ebd
00000380: 9e1f 9e3d 01dd 9bbd 6dbf 6c3d 9a50 86bb
00000390: f9d0 843d c8db d2bb 934e 9abb 04ff d9bc
000003a0: 31ed bbbd 9dc5 71bb 162b cf3d 40dd 99bd
000003b0: 9899 7ebd bd86 c83c 88f9 863c 41d8 c3bd
000003c0: 1606 c03d ab4f d63d 2d72 24be 4de4 fa3d
000003d0: 1da1 053c 3c52 733e 3da0 f4bc 1bd2 e0bd
000003e0: 818a 2abd c240 c63d e539 8b3d 7d9b 96bd
000003f0: 968b 533c 200c 3cbd a45d 0cbe 2972 8b3c
0.130222 0.042639907 -0.07216474 -0.03570995 -0.36468023 -0.07082332 0.05604705 -0.1260776
-0.050979324 0.045218896 0.0032909047 0.05496657 -0.18859686 -0.15664169 0.121805646 -0.054960944
0.039664138 0.19659403 -0.030034024 0.012605375 -0.08335659 -0.18581405 -0.10447537 -0.12380832
0.03587001 0.03550693 -0.1803619 0.24399507 0.23539083 0.016305888 -0.004006894 -0.07811839
-0.009204185 0.1925837 -0.09096944 0.08432294 -0.20379005 0.09632965 0.053035147 0.07265338
0.35163742 -0.08191954 -0.14224324 -0.03096646 0.025573237 -0.09655871 0.033346318 0.15230854
-0.022697018 0.25644433 0.019040056 -0.05430575 0.022982188 -0.10692694 0.00285632 0.15675709
-0.013688526 -0.07066547 0.0109099755 0.078458935 0.3078597 0.05765784 -0.018210558 -0.011718855
0.02654428 0.04493325 0.0072976686 0.04818226 -0.0569607 -0.010450201 0.031320993 -0.07057033
0.0782219 0.18183397 0.17073666 -0.08186102 -0.13144232 0.15881246 -0.022558393 -0.06871172
-0.090733655 0.03267178 -0.03729936 0.09793562 -0.050246473 0.124243096 -0.10682342 0.015810268
0.020269703 0.09742908 0.11787144 -0.13497384 0.09828502 -0.08279728 -0.06828059 -0.19836521
-0.109912835 -0.053764984 -0.0447624 -0.020642774 -0.06528063 -0.037981205 -0.003714056 -0.026007999
0.07833314 0.04121052 -0.048485048 -0.08123871 -0.07230647 0.121678576 -0.09533366 0.12278182
-0.1476908 -0.055702567 0.060678605 -0.13390622 -0.07436035 -0.04201811 0.119396605 0.11482079
-0.22669867 0.16773982 -0.007304887 -0.14577015 -0.07259281 -0.10463921 -0.028194532 0.10149128
-0.013491335 0.03841217 0.049406897 -0.0789616 -0.1688924 -0.035802454 -0.102619655 -0.014599406
0.07272978 -0.07745275 -0.086289905 -0.010827943 -0.050887614 -0.1453075 0.07130823 -0.037785977
0.0859913 -0.009574062 -0.0051061725 0.04216276 -0.01169775 -0.078243084 -0.03043242 -0.027147025
0.12078683 -0.05173216 -0.0540129 0.032002266 0.14513212 -0.021683069 0.0243297 0.058776483
-0.029618591 0.08728263 -0.037691537 -0.007158914 -0.06221334 0.0108062755 0.008576359 0.13049878
0.104399875 0.06660384 -0.11540959 -0.10997758 0.090533465 -0.14125769 0.03995632 -0.035115886
0.07477563 0.15036522 -0.06889258 -0.09312568 0.06173734 -0.02259275 0.104182586 0.016417313
-0.020205056 0.02914703 0.073212616 0.07172442 0.19676556 -0.08031302 0.030051067 -0.17215335
-0.06783273 -0.023837032 -0.047332145 0.05441147 0.0160048 -0.00018047213 0.012606268 0.09371813
0.028716635 0.07371186 -0.001238495 -0.06755075 -0.046175938 0.014528858 -0.02972308 -0.09460597
0.032476902 -0.138826 -0.0015470816 -0.07334715 0.1658981 -0.013867054 0.052121866 0.026315548
-0.005458697 -0.11299894 -0.05535094 -0.19225764 0.024922283 -0.0699074 0.041929383 -0.058149967
0.07720874 -0.076105125 0.057799745 -0.004098964 0.06485171 -0.0064348914 -0.004709074 -0.026610859
-0.091761 -0.0036891468 0.1011564 -0.07512903 -0.062158197 0.02447831 0.016476408 -0.095627315
0.09376161 0.10464414 -0.1605918 0.12250576 0.008156088 0.23761839 -0.029861564 -0.109775744
-0.041635994 0.0968032 0.06798152 -0.07353876 0.012911698 -0.04591 -0.13707596 0.01702221

transformer.layers.0.0.norm.gamma f4 [9]
00000000: 0e68 543e b2d0 fc3d 5f80 853e ad2c b93e
00000010: 00a2 413e bca7 d73d b6dc e13e 75d1 863e
00000020: 5f29 0c3e
0.20742819 0.12344493 0.26074502 0.36166897 0.18909454 0.1053004 0.44113702 0.26331678
0.13687657

transformer.layers.0.1.static_alpha f4 [4, 5]
00000000: 45a6 09be 0000 803f 0000 0000 0000 0000
00000010: 0000 0000 2553 c7bd 0000 0000 0000 803f
00000020: 0000 0000 0000 0000 c5d2 02be 0000 0000
00000030: 0000 0000 0000 803f 0000 0000 eace 5a3f
00000040: 0000 0000 0000 0000 0000 0000 0000 803f
-0.13442333 1.0 0.0 0.0 0.0 -0.097326554 0.0 1.0
0.0 0.0 -0.12775715 0.0 0.0 1.0 0.0 0.85471976
0.0 0.0 0.0 1.0

transformer.layers.0.1.dynamic_alpha_fn f4 [9, 5]
00000000: 60af 1abe 0000 0000 0000 0000 0000 0000
00000010: 0000 0000 5e82 2dbe 0000 0000 0000 0000
00000020: 0000 0000 0000 0000 76d4 033c 0000 0000
00000030: 0000 0000 0000 0000 0000 0000 3af4 99bd
00000040: 0000 0000 0000 0000 0000 0000 0000 0000
00000050: 6da4 c4bd 0000 0000 0000 0000 0000 0000
00000060: 0000 0000 38a2 c4bd 0000 0000 0000 0000
00000070: 0000 0000 0000 0000 da7f 89bd 0000 0000
00000080: 0000 0000 0000 0000 0000 0000 9bb5 9abe
00000090: 0000 0000 0000 0000 0000 0000 0000 0000
000000a0: 1377 53be 0000 0000 0000 0000 0000 0000
000000b0: 0000 0000
-0.15105963 0.0 0.0 0.0 0.0 -0.16944262 0.0 0.0
0.0 0.0 0.00804626 0.0 0.0 0.0 0.0 -0.07517286
0.0 0.0 0.0 0.0 -0.09601674 0.0 0.0 0.0
0.0 -0.09601253 0.0 0.0 0.0 0.0 -0.06713839 0.0
0.0 0.0 0.0 -0.3021668 0.0 0.0 0.0 0.0
-0.20650892 0.0 0.0 0.0 0.0

transformer.layers.0.1.static_beta f4 [4]
00000000: 377e 723f 0660 913f 52c9 783f fa00 7d3f
0.9472384 1.1357429 0.9718219 0.98829615

transformer.layers.0.1.dynamic_beta_fn f4 [9]
00000000: 00e3 12be d224 e7bc bf9f 5bbd 2388 e8bc
00000010: abf9 1bbe aefa 953d c260 833d 6de0 c5bd
00000020: cd1a 14be
-0.14344406 -0.0282158 -0.053619143 -0.028385228 -0.1523196 0.07323204 0.064149395 -0.096619464
-0.14463349

transformer.layers.0.1.branch.0.weight f4 [9]
00000000: 1c03 913f f4de 6e3f e0d8 903f 7688 a73f
00000010: cbc8 873f 5b16 753f ab4d 9d3f 7b46 663f
00000020: 5850 853f
1.1329074 0.9330895 1.1316185 1.308852 1.0608152 0.95737237 1.2289327 0.89951295
1.0415144

transformer.layers.0.1.branch.0.bias f4 [9]
00000000: a0c2 d1bb 2492 10be 7de7 ba3d fcbf d13c
00000010: 84e9 2ebd b203 ed3c 6b03 c4bd b32b 42bb
00000020: bc3c 023c
-0.006401375 -0.14118248 0.09126184 0.02560424 -0.042703167 0.028932426 -0.095709644 -0.0029628098
0.0079490505

transformer.layers.0.1.branch.1.weight f4 [72, 9]
00000000: 461f 043f 5555 b43e 276f 48be 4e87 79be
00000010: 8cfd 81be 5123 a3bc d334 af3e dbc4 fe3d
00000020: ba6b ccbe 32ee 85be 09d1 323e c28a da3e
00000030: 7d1d 993c fc5d 50be 5ba2 da3e 63fa c2be
00000040: bd25 07be ae28 2e3e 671a a2bd b8da da3d
00000050: 5eb6 b1be 3fce b1be 287e 48bd f7d7 cd3e
00000060: f83b 3d3f 9edf a93d 32e1 97be e77d ab3e
00000070: a493 f03d 4905 8abe 9ffe 54be de08 4b3e
00000080: b29a 813e d78e 283f 696f 39be 4181 23be
00000090: 2995 71be 7378 25be 6c78 c93e e7c1 04bd
000000a0: 5d5e 3cbe f684 9abe 6cf0 e9bd 03cc 64be
000000b0: 27c8 85bd cd8f 163e 73b5 703e d917 c83e
000000c0: 6d93 c8bd baa2 163e 2455 4bbe f63e 333d
000000d0: e487 39be e79b 943e ef3a a6be f1b4 ebbd
000000e0: 7ad2 853e c5bc ca3e d20e 033e 204c 4fbe
000000f0: 2f2d 14bf 0b46 833e 2836 c9be f59b 1d3c
00000100: ebff 9ebe 2195 eabe 7591 15be 789d cc3e
00000110: 8354 7bbe cfe9 2c3d 12bf 3d3e 03f8 133c
00000120: 5e3a c3bd b174 77bc 08c2 ff3c 7583 9abd
00000130: c9aa d5bd a746 15be 429a 193e b1ce b13e
00000140: ce4f 66be 2e94 8c3d 53d2 403e 9569 8ebe
00000150: 9666 9cbd 83f5 0a3f 2982 343e 2ff0 1fba
00000160: 5738 09b9 a557 053f 1af3 353e 18ce 673d
00000170: 05a5 ea3d 250c dfbe ffd4 3c3e 2530 023e
00000180: 07e8 643e f653 833e 2637 4bbe 756a 2e3e
00000190: 50a9 5c3e b154 6fbe abaf e8be abd0 963e
000001a0: 753a 223e bfb9 acbd 5eda 77be 8554 7cbe
000001b0: 7f12 263e f316 f43e b68d 85be af1c 57bd
000001c0: dfb3 943d 21fc 0bbe ac58 d7bc 3966 173e
000001d0: 7cb0 b1be 8cb0 8ebd 0e46 0f3e 4bed 05bf
000001e0: 11e7 02be 00a6 aa3e db26 f7be 438e 78bd
000001f0: 3008 05be 1986 edbd 5072 55bd acd2 d63e
00000200: ecb2 aabe dd8c 5d3e c480 0a3c e684 953d
00000210: e0ab 21be 53f2 79be 5f94 9b3d 00f6 59bd
00000220: 8db6 a73e 27de 1abd dcf2 b9be f12c 413e
00000230: 7cc9 fa3d b94e e63e 61e7 743d 0a11 063d
00000240: 87b7 88be 83e2 29be a310 573e acf0 373e
00000250: f0ad d8be 2f96 d83d 9aa0 80bc 5e97 2abe
00000260: 11a7 1ebe cb73 57bb bf2b 5fbc 7ab5 83bd
00000270: b4cc 093f a8a2 46be e223 ef3d 6183 60be
00000280: ad6b 9fbe 21f8 53be 4a2c 8ebe bb89 a4be
00000290: e7a3 e23e f96b 033d ff32 fa3d e009 f53c
000002a0: b786 7f3e 07d3 f6bd 5810 2dbd dbb7 3abe
000002b0: ca64 c33e 8ac9 fc3d f971 76bd cc79 d5be
000002c0: c450 4fbd 14c3 f1bd cf31 cc3e 01da df3d
000002d0: 5e57 e03d 2433 663d ba3f 92bc a240 bcbe
000002e0: 0448 8cbe 207d 1ebe b5c5 8e3e 9e65 f03d
000002f0: b054 30be f935 913d e999 dbbe 3f55 3dbd
00000300: 8d8c 55bd eccc 0dbe 7838 8a3e 1380 eb3e
00000310: 3960 3f3e 5fdc edbe c639 ef3d 21d8 d2bd
00000320: 4284 2dbe 8113 0abf 40ca bbbe 0c2f 34be
00000330: 80c0 bd3e f083 37be 2c47 38be 85bc 77be
00000340: 19cb 063e e382 41be 5358 8a3d 4e8d 07be
00000350: afce 32be 1340 38be c85e a8be 402f 2ebd
00000360: f99d a4bd f5a3 49be d7c4 e63e b4d3 88be
00000370: bd2c c4be b075 863c 2b19 52be ef26 013e
00000380: 2eb8 a33e fffd 583e 84ac a6bd 57a9 02be
00000390: 1303 6b3e 1c9f 173e 5bc7 bc3e 5cb5 1c3d
000003a0: f441 a33e 3755 5a3d 143b 46bd 42c5 3dbd
000003b0: f7f5 c6be 30b4 b1be b8f1 cb3e 6ad0 a2bd
000003c0: e438 7cbc c406 a6bb 2b85 54bc 816d 9cbe
000003d0: bd3f cbbe 5577 f03d 51e8 bb3e 60e9 8a3e
000003e0: beb1 1dbe 2e3f bcbe b881 dcbe 122e a7be
000003f0: 4391 033d 2870 203e 3852 83be b6a6 35be
0.5161022 0.35221353 -0.19573651 -0.24368021 -0.25388753 -0.019914301 0.3421999 0.12439891
-0.3992594 -0.2615829 0.17462553 0.4268399 0.018690819 -0.20348352 0.42701992 -0.38081655
-0.1319799 0.17007706 -0.07915192 0.106862485 -0.34709448 -0.34727666 -0.048948437 0.4020383
0.7391963 0.08294605 -0.29663998 0.33494493 0.1174691 -0.26957157 -0.20800255 0.19827601
0.25313336 0.65842956 -0.18108906 -0.15967275 -0.23592056 -0.16159229 0.39349687 -0.032411482
-0.18395372 -0.30179566 -0.1142281 -0.2234345 -0.06532317 0.14703293 0.23506717 0.39080694
-0.09793744 0.14710513 -0.19856697 0.043761216 -0.18118244 0.29025194 -0.32466838 -0.11509121
0.26137143 0.39597145 0.12798622 -0.20243883 -0.57881445 0.25639376 -0.3929913 0.009619703
-0.31054625 -0.458169 -0.14606269 0.3996389 -0.24543957 0.042215165 0.18529919 0.009031299
-0.09532617 -0.015103505 0.031220451 -0.07544605 -0.10432965 -0.14577733 0.15000251 0.34728006
-0.2249138 0.068642005 0.18830232 -0.27814928 -0.07636754 0.5428087 0.17627777 -0.0006101159
-0.00013086326 0.5208686 0.17768517 0.05659303 0.11457256 -0.43563953 0.18440627 0.12713678
0.22354136 0.25649995 -0.19845256 0.17032798 0.21548963 -0.23372151 -0.45446524 0.29456076
0.15842612 -0.08433866 -0.24204394 -0.24641617 0.16217993 0.4767376 -0.2608468 -0.05251759
0.0726087 -0.13670398 -0.0262874 0.14785089 -0.3470496 -0.069672674 0.13991567 -0.52315205
-0.12783457 0.33329773 -0.48271832 -0.060682546 -0.12991405 -0.11597843 -0.05211097 0.41957605
-0.33339632 0.21635766 0.008453552 0.07300739 -0.15788221 -0.24408846 0.07596659 -0.05321312
0.32756463 -0.037809517 -0.363181 0.188648 0.12245461 0.44981936 0.059790973 0.032731093
-0.2670252 -0.16590314 0.2100244 0.17962903 -0.42320204 0.1057552 -0.01570158 -0.16659304
-0.15493418 -0.0032875414 -0.01362127 -0.06431098 0.5382798 -0.19397986 0.11676766 -0.21925117
-0.31136838 -0.20700122 -0.27768165 -0.3213633 0.44265673 0.032085393 0.12216758 0.029911935
0.24953733 -0.12051969 -0.042251915 -0.18234198 0.38162833 0.12343128 -0.060167287 -0.41694486
-0.050614133 -0.11804786 0.3988175 0.10930253 0.10954164 0.056201115 -0.017852653 -0.3676806
-0.27398694 -0.15477419 0.27885213 0.11738132 -0.17219806 0.070903726 -0.42890862 -0.046223875
-0.052135993 -0.13847703 0.26996207 0.4599615 0.1868905 -0.46457192 0.11680941 -0.102951296
-0.16944984 -0.5393601 -0.36677742 -0.17596072 0.37060928 -0.17921424 -0.179959 -0.24193008
0.13163413 -0.18897586 0.06755128 -0.13237497 -0.17461656 -0.17993192 -0.32884812 -0.04252553
-0.080379434 -0.19691451 0.45072052 -0.26724017 -0.38315383 0.01641354 -0.20517413 0.12612508
0.31976455 0.21190642 -0.081383735 -0.1275991 0.22950391 0.14806789 0.36870846 0.038258895
0.31886256 0.053303923 -0.048396185 -0.046330698 -0.3885953 -0.34707785 0.39832854 -0.07949908
-0.015394423 -0.0050667245 -0.012971203 -0.30552295 -0.39697066 0.11741511 0.3670068 0.27131176
-0.15399835 -0.36766952 -0.43067718 -0.32652336 0.032120954 0.15667784 -0.25648665 -0.17739376

transformer.layers.0.1.branch.1.bias f4 [72]
00000000: b2e0 a53e 58a9 13be 7fad 86be d44e b8bd
00000010: e417 b0bd 4467 fd3d a5db a43d b6f1 6a3e
00000020: 9127 47be 9f92 213e 5929 5abe 3efc a3be
00000030: b136 483e 503e 3bbe 9a58 a7be 7db6 3f3e
00000040: f154 8e3e 1b62 c53d 47fd 433d 269a 543e
00000050: 5fde be3d 3f5f 9abd b833 a33e 6e62 9e3c
00000060: bc47 d83d 2f58 57be 9fd6 67be 94ac 36be
00000070: d605 acbc f70c 763e e011 573e a594 66be
00000080: 09bd 143e ccca a33e bf17 1dbd 30c8 b8be
00000090: 9ca8 e8bd b472 b3bc a98d bf3d d305 09be
000000a0: 6a51 1b3e 7b66 453e a06b b0bc 15b2 ca3d
000000b0: a05f 0e3d 098c e8bd 3c7e c6bd 56ae 07be
000000c0: f4f1 02bd 2cec 7c3e ec36 b7be 256d bd3e
000000d0: 3042 d9be 0185 99be ff96 893e ae92 a93c
000000e0: 3ab0 aa3e 11a5 8f3d fba4 9cbd 9b5e 2fbe
000000f0: b6d6 8b3e 2637 9dbe 0d49 60bd ffba a73b
00000100: c984 6dbd ce65 b9bc f256 9c3e 7424 e53d
00000110: ace8 69bc 1fb4 02be 9b5d 723e 8bd6 6b3e
0.3239799 -0.14420068 -0.26304242 -0.0899941 -0.08598307 0.12373212 0.08049706 0.22943768
-0.19448687 0.15778588 -0.21304835 -0.32028383 0.19552113 -0.18285489 -0.32684785 0.18721958
0.2779918 0.09637853 0.047848966 0.20761928 0.09319758 -0.07537698 0.31875396 0.019334044
0.10560557 -0.21029733 -0.22640465 -0.17839271 -0.020998877 0.24028383 0.21002913 -0.22517641
0.14525236 0.3199066 -0.038352724 -0.3609023 -0.11360285 -0.02190528 0.093531914 -0.13381128
0.15167776 0.19277374 -0.021535695 0.09897248 0.034759164 -0.113548346 -0.09692046 -0.13250098
-0.031969026 0.24699467 -0.3578409 0.36997333 -0.4243331 -0.29984286 0.26873013 0.020699825
0.33337575 0.07013906 -0.07648655 -0.17125933 0.2731225 -0.30706137 -0.054757167 0.005118727
-0.057987962 -0.022631552 0.30535084 0.111885935 -0.014276665 -0.12764023 0.2366852 0.2303106

transformer.layers.0.1.branch.4.weight f4 [9, 36]
00000000: 8377 b93d 5995 76be cef3 083e 0423 813e
00000010: c5d9 dcbc a9d7 bd3c 829c fabd 73f2 73be
00000020: bedc c13d fca1 c93c 7dc8 3d3e 0189 88bc
00000030: 2a88 c23d 6234 e7bd f1cb 28bd 6bf8 a4bd
00000040: bab2 853d 3b4f 3dbe a3e9 a03c 1638 533e
00000050: c429 15be 1173 23bd 5ea0 1abc 9fcf 833d
00000060: 284c 703e 8a22 af3d e708 81bd bd4b 693d
00000070: e189 953e 4995 2bbe 75f4 87bb 7b7d 5e3e
00000080: c66c de3c 58d2 13bd 8166 703e 487b 043d
00000090: c8ba 33bd e9e9 0fbd e0fc 91be 6c03 62be
000000a0: 36fb b5bd e2d2 56bd e4e5 9d3e 1daa 25bd
000000b0: 0835 c33a 7ac6 2bbc 7c28 8cbd 66a2 433e
000000c0: 133a 4ebd 0488 0cbe 154b 383e 29b1 b3be
000000d0: bbfc 863e a3f8 573e e118 513e 6fbc 693e
000000e0: 54fe 06bd c53f 78bd efba 783d 33ad 11bd
000000f0: ba9c 3c3c 5227 573d b37f 25be 2017 473e
00000100: aa1b 5fbd 07ff 023e ad9a 1f3e 6e48 073e
00000110: 55e3 b23c 274f 9c3d 056c a8bc cc1d 403e
00000120: 1877 c5bc ae4e 273d f6b0 1cba 098d f53d
00000130: 6348 31bd 0f71 0cbe bb6a 98bc 1d3d 443e
00000140: 277a a8bd 122d f839 7487 233e ecc9 6ebd
00000150: 87ee 7dbd 525d ab3e 9ae9 bc3d 2163 133e
00000160: 6ed5 4cbe a1ab 9a3d 01e3 96bd ea8d 8b3c
00000170: 5f9d 103e c984 84bb d210 5d3e 1ebb 3e3c
00000180: 9c0e 03be 227f 123c 60b8 5f3e e818 ac3d
00000190: bda4 49bd 30c3 d1bd fd02 b93c ecc3 a7bd
000001a0: 595f 0fbc 9b4a 553d e545 babd 486c 45bd
000001b0: 4b70 3fbc 2326 d53d af93 85be 6971 8dbc
000001c0: 1068 dc3c 0cb1 603d ac6c 963d 7e00 863d
000001d0: b7e7 913d acab 8e3e 6df8 cdbd 2600 bdbd
000001e0: ee04 003e 955e b1bd 17c5 0dbd 06d5 a0bc
000001f0: 345c 633e 7739 8d3d 17ea e7bd 1ea8 0bbc
00000200: 0028 efbc de11 c7bd c532 36bd 1220 9abc
00000210: 1725 2fbe 3b8f 203d 0023 83be 1377 fd3c
00000220: 9b71 c23c d5b0 a0bd 154b b33d 0432 8a3d
00000230: 79fd f63d e594 32bd e6d3 b13d fa8c 39bd
00000240: 7279 92bd e4f4 8c3e f9be a7bd 5b8b 33bd
00000250: 5d01 9cbd 2eee cabd 4703 aa3d 55b6 db3d
00000260: 4b20 6ebe f9e7 403d 4b8f 88bd ead8 e93c
00000270: 518c 19be feb0 bf3d 6f72 023e 6a01 c73d
00000280: 64a3 78bd 3261 5d3e b2c4 4c3d 6506 67bd
00000290: 3704 483e b73a 303d 2feb 0b3e 3fe5 3ebe
000002a0: 9b49 74be be3d c3bd 11ba d23d eeb9 4a3d
000002b0: e676 37be 2b63 8c3d 6d00 ca3d f02c e9bd
000002c0: ab15 abbc 7d4e 813c 1f6a 68be 38bd 573d
000002d0: 9304 5dbe be87 593e df65 8dbe 0fb7 20bd
000002e0: b6dc 00be 1f9a 87bc fb0a 833d 7fb1 143e
000002f0: 3afb bebc 45c2 9b3e 4d3d 30be 91b9 b33e
00000300: b373 25bb caa2 c73c d8cb e83d c038 083d
00000310: e20b e73b 1093 cd3d 2e6c a2bc 1d7c 84bd
00000320: 7274 64bd adf3 193e 2849 093e 80d0 2fbe
00000330: 469e 04be 5f10 1cbd 837b 98bc e45d 933e
00000340: 2ecb b6bd ae9e 2a3e 0cf3 773e 427b 06be
00000350: dd28 273d 5ee4 613e 1e18 02be 1c9e 923e
00000360: c508 b33e d12d 07bf 22b7 0c3f f722 ef3e
00000370: ad03 8a3e 0044 273e 0c7d c3be cde7 c0be
00000380: e7c9 ce3d b2ee 95be f2e5 2a3e c08e 94be
00000390: 59d0 6a3e e48f 213e 748b 9bbe ce01 bbbc
000003a0: f430 7abd 1ce1 31bc f505 8ebe d4ae 4d3e
000003b0: e522 1ebe 0a7a 92be 4660 4fbe 588d 4e3d
000003c0: daa4 093d 03ae 913c 442d 183d 5b39 5dbe
000003d0: 5bb6 b63e 5f6e 75bd e804 bfbe 23a6 e13e
000003e0: 0517 a33e 18f8 8bbe 1ff4 c8bd ce04 05bf
000003f0: 6695 e13d ee1e b23c 4954 f73d 2f23 3a3e
0.09055998 -0.24080409 0.13374254 0.25222027 -0.02695931 0.023174124 -0.12236883 -0.23822956
0.09465931 0.024613373 0.18533511 -0.016666891 0.094986275 -0.11289288 -0.04121012 -0.080551945
0.0652823 -0.18487255 0.019642657 0.20626864 -0.14566714 -0.039904658 -0.009437649 0.06436085
0.23466551 0.0855151 -0.06300526 0.056956995 0.29206756 -0.16756167 -0.0041490146 0.21727555
0.027151477 -0.03608927 0.23476602 0.032344133 -0.0438793 -0.035135183 -0.2851324 -0.22071618
-0.08885805 -0.052447207 0.30839455 -0.040445436 0.0014893124 -0.010484332 -0.06843659 0.19104919
-0.050348353 -0.13723761 0.17997392 -0.350961 0.26364693 0.21090941 0.20419647 0.22825788
-0.03295739 -0.06060769 0.06072515 -0.035565566 0.011511976 0.052527733 -0.16161995 0.19442415
-0.054469742 0.12792598 0.15586348 0.13211223 0.021836916 0.076322846 -0.02055932 0.18761367
-0.02410464 0.04084652 -0.0005977297 0.11989791 -0.043281924 -0.13715003 -0.01860558 0.19163938
-0.08226424 0.00047335826 0.1596964 -0.058298036 -0.061995056 0.33469635 0.092242435 0.14393283
-0.20003292 0.07552267 -0.07367516 0.017035443 0.14122532 -0.0040441495 0.21588448 0.011641292
-0.12798542 0.008941444 0.21847677 0.08403188 -0.049229372 -0.10242307 0.022584433 -0.08191666
-0.00875076 0.052073102 -0.090953626 -0.04819897 -0.011684488 0.104076646 -0.26089236 -0.017265992
0.02690509 0.054856345 0.07344946 0.065430626 0.07124274 0.2786535 -0.10057149 -0.09228544
0.1250188 -0.08660618 -0.034611788 -0.019632827 0.22203141 0.06895726 -0.11323946 -0.008523969
-0.029193878 -0.09720205 -0.04448201 -0.01881412 -0.17103992 0.039199095 -0.2561264 0.030940568
0.023735812 -0.07846228 0.08754555 0.06747821 0.12060065 -0.04359903 0.086829945 -0.04530046
-0.0715207 0.27530587 -0.08190722 -0.04383407 -0.076174475 -0.099087104 0.08301406 0.107281365
-0.23254506 0.047096226 -0.06667956 0.028545815 -0.14994933 0.093599305 0.12738965 0.097170666
-0.060702696 0.21619108 0.04999227 -0.056402583 0.19532858 0.043024745 0.13663934 -0.18642138
-0.23856203 -0.09533261 0.102893956 0.049493723 -0.1791645 0.06854852 0.098633625 -0.11385524
-0.020884356 0.015784496 -0.22696732 0.052670687 -0.21583776 0.21243188 -0.27616784 -0.03923708
-0.12584195 -0.016552983 0.06398579 0.14520834 -0.023313154 0.30421653 -0.17210884 0.35102513
-0.0025245964 0.024369616 0.11367005 0.033257246 0.007050977 0.100378156 -0.019826975 -0.06468985
-0.055775113 0.15034361 0.13406813 -0.1716938 -0.12951002 -0.03810155 -0.018613582 0.2878257
-0.08925472 0.16662094 0.24213809 -0.13132957 0.040810455 0.22059771 -0.12704512 0.28636253
0.34967628 -0.52804285 0.5496694 0.46706364 0.2695593 0.16334534 -0.3818134 -0.3767685
0.100971036 -0.29283673 0.1668928 -0.2901516 0.22931041 0.15777546 -0.30379832 -0.022828009
-0.06108184 -0.010856893 -0.2773892 0.20086223 -0.15442999 -0.28608733 -0.20251569 0.050427765
0.03360448 0.01778317 0.037152544 -0.2160391 0.35686 -0.05991971 -0.3730843 0.44072065
0.318535 -0.27337718 -0.098121874 -0.51960456 0.110148236 0.021743264 0.12076623 0.18177484

transformer.layers.0.1.branch.4.bias f4 [9]
00000000: edd2 d13c 2e71 dc3d 1706 ae3d 6e51 07bc
00000010: d0b5 2b3e 437b 32bd b966 80be b8a5 823e
00000020: 2882 313e
0.025613273 0.10763775 0.08497255 -0.00825916 0.16768575 -0.043574583 -0.2507837 0.25517058
0.17334807

transformer.layers.0.1.norm.gamma f4 [9]
00000000: 9d1b b73d 917e 003d c4ce 84bd ccf4 653d
00000010: 8ede c93d fdb3 913b 6130 a1bc 5ffb 233e
00000020: c263 db3d
0.08940814 0.031370703 -0.0648475 0.05614166 0.09856902 0.004446505 -0.01967639 0.16013859
0.10712387

transformer.layers.1.0.static_alpha f4 [4, 5]
00000000: 035b 4f3d 0000 803f 0000 0000 0000 0000
00000010: 0000 0000 3786 663f 0000 0000 0000 803f
00000020: 0000 0000 0000 0000 537c 963b 0000 0000
00000030: 0000 0000 0000 803f 0000 0000 4285 02bd
00000040: 0000 0000 0000 0000 0000 0000 0000 803f
0.050623905 1.0 0.0 0.0 0.0 0.90048546 0.0 1.0
0.0 0.0 0.0045924573 0.0 0.0 1.0 0.0 -0.031865366
0.0 0.0 0.0 1.0

transformer.layers.1.0.dynamic_alpha_fn f4 [9, 5]
00000000: 8dfd 873d 0000 0000 0000 0000 0000 0000
00000010: 0000 0000 9845 fb3d 0000 0000 0000 0000
00000020: 0000 0000 0000 0000 d417 16be 0000 0000
00000030: 0000 0000 0000 0000 0000 0000 2336 8abe
00000040: 0000 0000 0000 0000 0000 0000 0000 0000
00000050: 4208 6d3d 0000 0000 0000 0000 0000 0000
00000060: 0000 0000 bcb7 d1bd 0000 0000 0000 0000
00000070: 0000 0000 0000 0000 687d 00bc 0000 0000
00000080: 0000 0000 0000 0000 0000 0000 bab7 fe3d
00000090: 0000 0000 0000 0000 0000 0000 0000 0000
000000a0: 368d 07bc 0000 0000 0000 0000 0000 0000
000000b0: 0000 0000
0.06640158 0.0 0.0 0.0 0.0 0.12269133 0.0 0.0
0.0 0.0 -0.14657527 0.0 0.0 0.0 0.0 -0.26994428
0.0 0.0 0.0 0.0 0.057869203 0.0 0.0 0.0
0.0 -0.10240123 0.0 0.0 0.0 0.0 -0.007842399 0.0
0.0 0.0 0.0 0.12437387 0.0 0.0 0.0 0.0
-0.008273413 0.0 0.0 0.0 0.0

transformer.layers.1.0.static_beta f4 [4]
00000000: 4756 a23f d516 403f 6c5a 3b3f 40fa 2e3f
1.268258 0.7503484 0.7318485 0.683506

transformer.layers.1.0.dynamic_beta_fn f4 [9]
00000000: f7d5 c5be f759 a1be 6be3 823e 1959 823e
00000010: 1486 123e 5574 d93e 609f ef3e dfff eabe
00000020: 7d69 e83d
-0.38639805 -0.3151395 0.2556413 0.254586 0.14308959 0.42471567 0.4680128 -0.4589834
0.11348245

transformer.layers.1.0.branch.norm.weight f4 [9]
00000000: 070d 8f3f 0510 813f 64ed 643f 911a 873f
00000010: ba65 853f a420 913f d805 993f dd19 863f
00000020: 06eb 8b3f
1.1175851 1.0083014 0.8942473 1.0554982 1.042167 1.1338086 1.1954908 1.0476643
1.0931098

transformer.layers.1.0.branch.norm.bias f4 [9]
00000000: 2a0a 623e 0f2e d8bd d1ef 09be a3b6 4ebe
00000010: 5644 69bd e5c0 f6bd 9663 763d 763f ba3d
00000020: cc28 183e
0.2207419 -0.1055566 -0.13470389 -0.20186858 -0.056949936 -0.120485105 0.060153566 0.090941355
0.14859313

transformer.layers.1.0.branch.to_qkv.weight f4 [192, 9]
00000000: 7e4f febe 872d 02bd 88dc bdbd a3f1 9a3d
00000010: 120c 083f ef02 253f f39c 673e cb8e 14bf
00000020: 69c6 de3e bf47 0abc 7e4a 403e 88e7 9a3e
00000030: d73b 83be 5b34 97be c9c7 2ebe 8360 863e
00000040: b847 793d a423 4ebe c029 523e 0410 d93e
00000050: 3ced 3c3c 5062 6f3d a1ca 853d d19f a4be
00000060: 5cb1 aebd 7f7a 07be b0ba 66bd 0898 cabe
00000070: acb1 cabe 29c3 693e 9fbc 5a3e e01b ecbd
00000080: 6795 073e 1b54 4d3e 2ea1 9bbe 3c3c b73e
00000090: 35e1 2dbd 9388 91be 98fa ee3d dd0a a83e
000000a0: e625 843e 5e5f 8c3e 981c 5b3e 04b7 113e
000000b0: cdf6 a03e 3d47 9dbe 6255 583e a4da 9b3c
000000c0: 9f9d d33e 1175 173f e8fb b43e 91ea 433d
000000d0: 0abf 1f3e 6b81 023f 1e0b d63e c8ff 7dbd
000000e0: c9b0 3c3e 2645 eebd 5a30 b7be 3b82 723e
000000f0: 0291 7c3e df46 c63e 0360 733c c81a 18bd
00000100: 438f 193d 1d00 bebd 5990 48be 3fec 80be
00000110: f752 8fbd a3f1 393e e4eb 1a3e 8274 683d
00000120: 952b b43e cc4c c53e 8deb 223e 10ec 423e
00000130: 12c5 89bd 5cc3 2ebe 1200 5bbe 6e51 bd3e
00000140: 830f 213e 5746 68bd 812d b1be 2d70 7fbe
00000150: ef5e 2c3e bc8f 033f f2c3 4fbc 72e3 523d
00000160: 31e4 eebe 8f42 5a3d eb25 433e 89fc 0b3e
00000170: 36c2 34be cfdc 86be b4b4 7f3e 65fd 913e
00000180: 2842 723e 018b 323e 2853 40bd 7017 d1be
00000190: 0f44 54bd c6a2 f83d 1c40 e83d 0cb9 67bd
000001a0: b2f6 0a3e d569 cb3e b8ae 7cbe c956 2fbd
000001b0: d0b7 113e 72d5 e33e 79c1 2abe 38de e7be
000001c0: 45d7 0abf 54bb bdbe 3a9c e1bd 722b 8f3e
000001d0: 220c 0bbe 0823 573e 294f 013d 84b9 5f3d
000001e0: 0061 17be e9ac a93d 065d f5be b651 1ebe
000001f0: 159e 153e 46cb b0be 1295 8d3e bea9 8b3d
00000200: 01b6 47be 27f6 4cbd 3772 3ebe b0ee 7bbe
00000210: a9cc 00bf 6b62 6dbc bad8 c5bd d2e4 653d
00000220: d7af d33e d10b 1a3e 013d b1be fbcd d6be
00000230: 9917 d8be 6dc1 a53d fd1e 5d3e f11e 94be
00000240: d9a5 9bbe 56dc babe 4be0 fe3d c13e 983e
00000250: 727a 413c f130 be3e 9a4f 2e3d d1ee 80be
00000260: 8e40 823e f833 93be 3422 45be 285f af3e
00000270: 10c7 8f3d 35a1 3a3e 7985 b03d 7c5b 503e
00000280: 89cd a6be 411b 863e d79b a33e 8ef2 f13e
00000290: 770f 82bc 731c 2cbe 1528 b6be a99b 52be
000002a0: ff77 afbe 5923 203f 9665 34bc a39c 353f
000002b0: ae3f c13e 23fe 0bbe a0f5 30bf ebf2 1dbf
000002c0: 271e 45bf e394 32bf 01aa 243f 0d29 52be
000002d0: cfb7 443f 12b0 8f3e 7e32 0bbf ad7b 3cbf
000002e0: 0f4f 28bf 8c13 cdbe 0ee3 80be db41 643f
000002f0: 61fd 29bf b310 8e3e 83c5 163e 99e8 5d3e
00000300: 4589 163e d1bb 97be c7ef 7ebe f70e fabd
00000310: 7026 933e ab1e b4be e8be 9f3e e346 e7be
00000320: c382 af3d e573 6bbe 4c92 a83e 662c 62be
00000330: 2bf6 d53d 74f9 40be 8bd9 c53e 861a 07bf
00000340: 80c7 b9be 9ac5 a4bc 368a c43d fb4a 20be
00000350: 50e2 fc3e eff1 fe3d 3245 97be b551 f73e
00000360: 6296 0cbf 7599 16bf 1191 ea3d 75db 013f
00000370: d5e3 41bd e742 c13d 5b6a c43e 2be1 13bf
00000380: f3d0 5e3e 9b2f 89be 78cd fdbd 64fa d63d
00000390: 4714 db3e 90f7 9b3e 2c36 413e e472 153e
000003a0: c230 c0bd 1fbc af3d 1f2f 80be 1e32 58be
000003b0: d38d 36be 0a57 383e fde0 23be 07e8 0b3f
000003c0: 64c4 95bc 0f87 1cbe 0eba d93e 4ceb b7be
000003d0: c794 63bf 6c3b 603e 3733 903e 2e69 9a3e
000003e0: e121 6c3e 970c 453f 1eb1 14bf 1851 c73e
000003f0: 5f73 98bd 9725 823d 0757 1fbe 520f 74be
-0.49670023 -0.0317817 -0.092705786 0.0756562 0.5314342 0.644576 0.22618465 -0.58030385
0.4351075 -0.008439957 0.18778417 0.3025477 -0.25631592 -0.29532132 -0.170684 0.26245508
0.060859412 -0.20130783 0.20523739 0.4239503 0.01153117 0.058443367 0.06532789 -0.3215318
-0.08529922 -0.13230322 -0.056330383 -0.39569116 -0.39588678 0.22828354 0.21361016 -0.11528754
0.13240586 0.20051615 -0.30396408 0.35788143 -0.042451102 -0.2842451 0.11668891 0.32820788
0.25810164 0.2741651 0.21397626 0.14229971 0.31438294 -0.30718413 0.21126321 0.019025154
0.41331193 0.59163004 0.3534844 0.04783112 0.1560022 0.50978726 0.41805357 -0.06201151
0.18426813 -0.11634283 -0.35779077 0.23682491 0.24664691 0.38725945 0.014854434 -0.037134916
0.03749014 -0.09277365 -0.19586314 -0.2518024 -0.06998246 0.18158583 0.15129048 0.056751736
0.351895 0.38535154 0.15910168 0.19035363 -0.06727041 -0.17066711 -0.21386746 0.36976188
0.15728574 -0.056707706 -0.3460503 -0.24945135 0.1683309 0.51391196 -0.012680994 0.05148644
-0.4665847 0.05328613 0.19057433 0.13670553 -0.1765221 -0.2634034 0.24971277 0.28513637
0.23658049 0.17435838 -0.046954304 -0.40838194 -0.05182272 0.121404216 0.11340353 -0.05657296
0.1357067 0.3972918 -0.24676025 -0.042807374 0.14230275 0.44498783 -0.16675366 -0.45286727
-0.54234725 -0.37056983 -0.11016126 0.27962834 -0.13578847 0.21009457 0.031569634 0.05462028
-0.14783096 0.08284933 -0.47922534 -0.15460858 0.14611085 -0.34530085 0.27652794 0.06819485
-0.19503023 -0.050039437 -0.18598257 -0.24602771 -0.50312287 -0.014488797 -0.09660478 0.056126423
0.41345093 0.1504357 -0.34616855 -0.41954026 -0.42205504 0.08093534 0.21593852 -0.28929856
-0.3039997 -0.36496228 0.12445124 0.29735377 0.011808978 0.37146714 0.042556383 -0.25182202
0.25439876 -0.28750587 -0.19251329 0.34252286 0.0702039 0.18225558 0.08619208 0.20347399
-0.32578686 0.26192668 0.31954834 0.47255367 -0.015876515 -0.16807728 -0.35577455 -0.20567192
-0.34271237 0.62553936 -0.011010548 0.70942134 0.37743896 -0.13671164 -0.69124794 -0.6169879
-0.76999134 -0.69758433 0.64321905 -0.20523472 0.7684297 0.28064018 -0.5437392 -0.73626214
-0.65745634 -0.40053976 -0.2517323 0.8916299 -0.6640225 0.27747115 0.14723782 0.2167076
0.14700802 -0.2963548 -0.24896155 -0.122098856 0.28740263 -0.35179648 0.31200337 -0.4517127
0.08569863 -0.22993429 0.32924116 -0.22087249 0.104473434 -0.18845159 0.38642535 -0.52774847
-0.3628502 -0.020113755 0.09596674 -0.15653603 0.49391413 0.12448489 -0.2954498 0.48304525
-0.54916966 -0.58827907 0.114534505 0.5072549 -0.04733642 0.09436589 0.38362393 -0.57765454
0.21759395 -0.26794133 -0.12392706 0.10496977 0.42788908 0.30462313 0.18868321 0.14594609
-0.093843 0.08580803 -0.2503595 -0.21112868 -0.17827539 0.18001953 -0.16003795 0.5465092
-0.018282123 -0.15285896 0.4252476 -0.35921705 -0.8889889 0.21897668 0.28164074 0.3015837
0.23059799 0.76972336 -0.5808276 0.38929057 -0.0744388 0.06354826 -0.15560542 -0.23833969

transformer.layers.1.0.branch.to_out.weight f4 [9, 64]
00000000: e1a1 a3bd a259 3ebe d17a fc3d 2de5 4e3e
00000010: 2362 b2bc b3de 373d 8646 2abe 5afe b8bd
00000020: 2db5 413d 8300 00be 7e37 17bd 3aa3 cabd
00000030: cc9b 01be e5b4 10be daeb 07be ba7b e6bd
00000040: 8656 bb3b 2956 b53c 7b0e 24bd de01 10bd
00000050: 4f54 1c3e 96c4 29be 84ce 673e 1bac 213d
00000060: 3947 4f3d 273b 65be ffbd 193e 3fe0 ccbd
00000070: 007b 503e 560c 1c3e 091f ce3c fae6 3c3d
00000080: 2090 24be 2c02 78bd 4a74 ffbd edf2 383e
00000090: 0c53 37bd de34 df3d eaa9 2ebe 6c5e 403d
000000a0: 0532 75bd 920e c83d 7377 aabd 5e29 b4bc
000000b0: c50f 5fbe f47f 8b3e d630 27bb ea47 43be
000000c0: d9ea c7bb b5e9 19bd 44e5 23bd 3b84 55be
000000d0: 29c5 6bbc c8ff 63bd 3d71 0ebd 9e09 b5bc
000000e0: 9015 67bd 2ed6 90bd 3a4a 34be 452d 2ebe
000000f0: c5cb ef3d b673 32be 0ef1 b4bd c3a1 cc3c
00000100: ee5c 103d ebbf 99bd 59e7 2b3d d86b 203e
00000110: f1f8 c83d 6e75 c93d c30a a3be 1785 a0be
00000120: 3058 053e 4aa5 403e 046a 4ebe 6d0b 4e3d
00000130: 7ecf 103e a206 25bd 8fb0 37be d157 f13d
00000140: 8b4c 12bd 988f 04bd 7c93 5f3d e96d 833c
00000150: 8e2a 103e 616e 80be 6ea6 edbc 1992 583e
00000160: daf4 05be ead5 3dbe 5433 75bd a759 3ebe
00000170: 1ba0 833b a1fd 303d bd5f e33d 779f a93d
00000180: 3a74 3bbe cf9b fb3d b1f6 83be 8df9 033d
00000190: e156 81be 832c 343e 1161 5fbd 0977 05bb
000001a0: d557 09be 2a6d 493e 7835 a5bd 8b86 d13d
000001b0: f308 f2bd 44eb 95bc 1d3d 633d 271b 46be
000001c0: 25a8 063e c994 b8bc 2e03 a0bd faac afbe
000001d0: f505 2cbe 6735 773e d805 97bd aac0 64be
000001e0: 65ba 9c3d b720 78be 7adb 84be 3da7 d5bd
000001f0: a06c 1fbc 1b1e 2fbe 3c92 45be 0312 02bd
00000200: bc7f dd3d b850 1c3e e323 6d3d 9d4c b3bc
00000210: 0123 053d 9e22 b13d de9f 5bbd ce89 c13c
00000220: e89b 243e 8ed7 1b3d 1ba1 863d 119c 83bd
00000230: b343 123e 62a4 083e 2a07 413e 26fd 3f3e
00000240: c5c8 8abd 8649 d7bd 685a 3dbd 764d b3bc
00000250: 734d 193e f745 1d3d 8766 e93d 0614 5b3c
00000260: 7202 66bd 13c5 093d caa6 77bb 3c00 623d
00000270: 0480 2fbe 3bbf a6bd 16c4 503d d8c5 a7bb
00000280: 95be 08bc 5e40 a13d e854 0bbd d42f dabc
00000290: 5746 23bd b441 32bd c3bb dd3d a443 84bd
000002a0: 39b0 143d 8ff8 373e 7b06 5abd 0901 86bd
000002b0: d2d4 08bc 6415 08be e86e 6a3c 7ea3 9d3e
000002c0: 40c3 c9bc c57b 5d3e d445 a33e 3265 243e
000002d0: 339f 2bbe 8956 233e a3af 0c3c a325 4fbd
000002e0: 2af3 d53d f72c 92be 94b0 30bd f156 b53e
000002f0: 51c9 193e 306b 7f3d 2528 a73e 0220 8e3e
00000300: 4fcf ef3d 94dc 593e a3e8 0dbe 534c 9fbe
00000310: b6d6 16bd 8ac8 1abd eead 333e d134 be3d
00000320: 27ac 133d 07a5 7fbd b5d7 103e 899e debd
00000330: 2b50 c63d e72c e43d 2b6e 793e 8c15 f03c
00000340: 868b 293e 04ce 59bd 3508 e83d e8ec 343e
00000350: a1b1 1cbe 1511 4c3e 7026 0abe b67c a5bd
00000360: 2a34 83bd 46b0 013e 6edc 353d 2b78 7c3a
00000370: 920d 3abe 0a5a 94bd ba08 5ebe f57e 05bd
00000380: 1064 143e af69 db3d 8344 ab3d a871 8cbe
00000390: 63b3 553e 4bd0 00be 6fcd c2bc f696 33be
000003a0: a889 a93c 1991 73bd 376e 3abd c388 fbbd
000003b0: 09ac 1d3d 76ba 69be 8235 74bd 9d6a 003e
000003c0: f32b 3bbe 4064 90bc e467 453e 5200 333e
000003d0: 3ecc a3bd 978f 70bd 6d61 523e da48 bd3d
000003e0: 7491 033e bf83 e23c d176 4ebd 767b a6bc
000003f0: 1988 88bb 71a3 4b3e ee87 1cbd 1b61 3e3e
-0.0798986 -0.1858888 0.12328113 0.20204611 -0.02177531 0.044890117 -0.16628465 -0.09032889
0.047291923 -0.12500195 -0.036918156 -0.09894414 -0.12657088 -0.14131506 -0.13273564 -0.11254068
0.0057171015 0.02213581 -0.040052872 -0.03515803 0.15266536 -0.16578898 0.22637373 0.039470773
0.050605033 -0.22385846 0.15013884 -0.10003709 0.20359421 0.15239081 0.025161283 0.046118714
-0.16070604 -0.060548946 -0.12473352 0.18061419 -0.044756934 0.108987555 -0.17057005 0.046965048
-0.059862155 0.09768404 -0.083235644 -0.021992382 -0.2178336 0.27246058 -0.0025511286 -0.19070402
-0.006100994 -0.037576396 -0.040013567 -0.20851223 -0.014390268 -0.055663854 -0.03477596 -0.022099312
-0.056417048 -0.070721015 -0.1760644 -0.17009456 0.11708788 -0.17426953 -0.0883504 0.024979478
0.035244875 -0.075073086 0.041968677 0.15666139 0.09813107 0.09836851 -0.31844148 -0.3135154
0.13021922 0.18813053 -0.20157629 0.050303865 0.14141652 -0.04028953 -0.17938446 0.11784328
-0.03571753 -0.032363504 0.05458401 0.01604362 0.14078733 -0.25084212 -0.029010024 0.21149482
-0.13081685 -0.18538633 -0.059863403 -0.18588887 0.004016889 0.04321063 0.11102245 0.08282369
-0.18306056 0.122855775 -0.25774148 0.032220412 -0.25261596 0.17595105 -0.05453593 -0.002036514
-0.13412412 0.19670549 -0.08066839 0.1023074 -0.11818113 -0.01830066 0.055478204 -0.19346295
0.1315008 -0.022531884 -0.078131065 -0.34311658 -0.16799147 0.24141465 -0.073741615 -0.2233912
0.076527394 -0.2423123 -0.25948697 -0.10432289 -0.009730488 -0.17101328 -0.19294065 -0.03175546
0.10815379 0.15265167 0.057895552 -0.021887118 0.032504085 0.08649181 -0.053619258 0.02362528
0.16075099 0.038047366 0.06573697 -0.06426252 0.14283638 0.13343957 0.18850389 0.18748912
-0.06776575 -0.1051207 -0.046228796 -0.021887522 0.14970951 0.0383968 0.11396509 0.013371473
-0.056154676 0.03363521 -0.0037788623 0.055176005 -0.17138678 -0.08141943 0.050968252 -0.0051200204
-0.00834622 0.07873605 -0.03401652 -0.026634134 -0.039862003 -0.04351969 0.10826828 -0.06458214
0.03630087 0.17965911 -0.053228837 -0.06543166 -0.008351522 -0.1328941 0.014308669 0.30788797
-0.024629235 0.21629246 0.31889212 0.16054228 -0.16759948 0.1595098 0.008586797 -0.050573003
0.104467705 -0.2854993 -0.043137148 0.35417894 0.15018202 0.06235808 0.32647815 0.27758795
0.11709463 0.2127555 -0.13858275 -0.31112918 -0.036825858 -0.037788905 0.17546818 0.09287418
0.03605285 -0.06241324 0.14144786 -0.10870082 0.096832596 0.11141377 0.24358432 0.02930715
0.1655713 -0.053174987 0.1132969 0.17668498 -0.15302135 0.19928391 -0.13491225 -0.08080427
-0.06406434 0.12664899 0.04439967 0.00096309435 -0.18169239 -0.07243736 -0.21683016 -0.03259178
0.14491296 0.10713517 0.08362677 -0.27430463 0.20869212 -0.12579457 -0.023779599 -0.17538056
0.020695522 -0.059464548 -0.045515265 -0.122819446 0.038494144 -0.22825035 -0.05962134 0.1254067
-0.18278484 -0.017625928 0.19277912 0.17480591 -0.079979405 -0.058730688 0.20544977 0.09242411
0.12848455 0.027650712 -0.05040628 -0.020322543 -0.0041666147 0.19886567 -0.03821557 0.1859173

transformer.layers.1.0.norm.gamma f4 [9]
00000000: 3efd 863e becd c13e 41a0 933e 6da1 8b3e
00000010: 44bf 263e ede8 aa3e 974b 043f 6cad 003f
00000020: 135d b73d
0.26365083 0.3785228 0.28833202 0.27271596 0.162839 0.33380833 0.5167784 0.5026462
0.089532994
