Projektarbeit_FTTransformer/trained_models/regular_training/model_FTTransformer_lr0.00025_8_1_4_4_.3_0.3_epoch10000.pt (torch, 97337 bytes, 87 tensors)

cls_token f4 [1, 1, 8]
00000000: da22 86bf 7c34 98bd c7f8 9dbf 2aed 51bf
00000010: 906a 8bbf a420 91be 1f06 74bf 809d 863c
-1.0479386 -0.074318856 -1.2341546 -0.8200251 -1.0891895 -0.28345215 -0.9532184 0.016432524

categorical_embeds.weight f4 [3, 8]
00000000: 6bc8 6e3f 261d 35bf 4581 8dbf d54c acbf
00000010: a86a 0fbf 4810 afbf 8f53 8abf 77fc c13f
00000020: d4f1 863e e054 2b40 07a2 333c 183b 88b9
00000030: fb6f 483f 0100 37bf 42c5 643f 4e81 213f
00000040: c606 a4bf 8cec d3bf 9c31 3b3e 70de 0ec0
00000050: 0a11 58bf 7382 08c0 0949 1d3e 08bd 903f
0.93274564 -0.707476 -1.1055075 -1.3460947 -0.5602212 -1.3676844 -1.080675 1.5155171
0.26356375 2.6770554 0.010963923 -0.0002598397 0.7829587 -0.7148438 0.8936349 0.6308793
-1.2814567 -1.6556563 0.18280643 -2.2323265 -0.84401 -2.132962 0.15359892 1.1307688

numerical_embedder.weights f4 [8, 8]
00000000: b75c 533e ea18 bf3e 86c2 84bf f013 153f
00000010: 7bc3 903f a35b 62bf 87c6 313f d09f 863d
00000020: 7104 eebf 1069 efbd 80b8 993f 1eff 603f
00000030: 08d2 863d 0580 673d d495 973f 0685 3a3f
00000040: 8403 af3d 9ab2 fb3e aae4 673c f134 09be
00000050: e297 663e 3bc0 4d3e 7188 00be 02cd de3c
00000060: 5da8 c13f 5f9e e1bd 613e b33f d7ca f7be
00000070: de1e 92bf 7495 b63e 19b7 853d a85f 2740
00000080: 1a01 4e3f c6f6 a43f 9ab9 92be 8180 41bf
00000090: 1aa6 c03e 099b 1f3f 9f06 50bf f8dd 2abf
000000a0: 250c 09be bdf2 843d 5690 c7bf e23e 543e
000000b0: 1a23 c13f 1838 98bf 6fd0 acbf 9ab8 1ebf
000000c0: 36de e3bf 0ebe e83e 96c3 0b3e fb25 2c3f
000000d0: 3c5c a53f cab0 8a3e 13f4 833e d370 0abf
000000e0: 3ad8 78be be18 f4bf 55f7 19be 6284 33bf
000000f0: 42a8 a5bf b22c b0bf 24e1 77bf 3243 b33f
0.20640837 0.37323695 -1.0371864 0.5823355 1.1309656 -0.88421077 0.69443554 0.065734506
-1.8595105 -0.11689961 1.200943 0.8788928 0.06583029 0.056518573 1.1842599 0.7285923
0.085455924 0.491597 0.014153639 -0.13399102 0.22518876 0.20092861 -0.12552048 0.027197365
1.5129505 -0.11016535 1.4003412 -0.48396942 -1.141567 0.356609 0.06529064 2.6152134
0.8047043 1.2887809 -0.28657228 -0.75586706 0.37626725 0.6234594 -0.81260103 -0.6674495
-0.13383539 0.06491611 -1.5590923 0.20727113 1.5088837 -1.1892118 -1.3501109 -0.6200043
-1.7802188 0.454575 0.13648829 0.67245454 1.2918773 0.27088004 0.2577215 -0.54078406
-0.24301234 -1.9070051 -0.15035756 -0.70123875 -1.2941973 -1.376364 -0.9682791 1.4004881

numerical_embedder.biases f4 [8, 8]
00000000: 9968 9cbf 56f5 ebbf 634d d83e 7603 b83e
00000010: 4a11 8ebe efe9 95be 1723 04c0 536d 343d
00000020: a2f1 57be fb55 a43f d4dc f13e ed8c fcbe
00000030: 6650 afbe 98df 8fbf 9174 4ebf b951 c03f
00000040: 27e6 b0bf 888c ea3e a3d4 aebf 754b 373f
00000050: 0655 733e b1a8 90bd 12d0 abbf 806f 46bd
00000060: 7580 1b3c 2fe8 5abe e736 563f 96e4 19c0
00000070: 4302 033e b64f 82bf 6a60 a03f f629 bd3e
00000080: 06c1 ac3f 7c37 ea3f 0c36 c03f ec8f 97bd
00000090: b253 a2bf 476e bdbd dad8 4ebe 0c6a 633f
000000a0: 27b8 4540 3a49 f8be 28a3 69bc a65a 0d40
000000b0: 5096 283f e2e8 413e 9e23 473f 44f4 113f
000000c0: 9dd2 b1bf 829e ba3f 23a6 a73d 3c6b 07c0
000000d0: 28cc d83e 51f1 943e 8138 e4be 0e6c b83e
000000e0: 9693 fd3e 1fbf a7bf 14f0 f33e 3d1a a63e
000000f0: a443 6e3f e301 bfbf 8ec5 bf3e b377 a2be
-1.2219421 -1.8434246 0.4224654 0.3594014 -0.27747566 -0.2928004 -2.0646417 0.044049572
-0.2108827 1.2838739 0.4723879 -0.49326268 -0.34241027 -1.124011 -0.80646616 1.502494
-1.3820237 0.45810342 -1.3658642 0.71599513 0.23762903 -0.07063425 -1.3422873 -0.04844618
0.009491076 -0.21377634 0.83677524 -2.4045768 0.12793832 -1.0180576 1.2529423 0.36946076
1.3496406 1.8298182 1.5016494 -0.07400498 -1.2681792 -0.09249549 -0.2019991 0.8883369
3.0893648 -0.48493367 -0.014260091 2.2086577 0.6585436 0.18936494 0.7778872 0.57013345
-1.3892399 1.4579623 0.08185985 -2.11592 0.4234326 0.2909036 -0.4457436 0.3601994
0.49526662 -1.31052 0.47644103 0.32441893 0.9307196 -1.4922451 0.3745541 -0.31731948

transformer.layers.0.0.static_alpha f4 [4, 5]
00000000: 8439 81bc 0000 803f 0000 0000 0000 0000
00000010: 0000 0000 8439 81bc 0000 0000 0000 803f
00000020: 0000 0000 0000 0000 8439 81bc 0000 0000
00000030: 0000 0000 0000 803f 0000 0000 5af9 7b3f
00000040: 0000 0000 0000 0000 0000 0000 0000 803f
-0.015774496 1.0 0.0 0.0 0.0 -0.015774496 0.0 1.0
0.0 0.0 -0.015774496 0.0 0.0 1.0 0.0 0.98427355
0.0 0.0 0.0 1.0

transformer.layers.0.0.dynamic_alpha_fn f4 [8, 5]
00000000: 894d a23a 0000 0000 0000 0000 0000 0000
00000010: 0000 0000 f186 ebbb 0000 0000 0000 0000
00000020: 0000 0000 0000 0000 413f 5d3b 0000 0000
00000030: 0000 0000 0000 0000 0000 0000 4780 9bbb
00000040: 0000 0000 0000 0000 0000 0000 0000 0000
00000050: bc27 e9ba 0000 0000 0000 0000 0000 0000
00000060: 0000 0000 e0c1 f0bb 0000 0000 0000 0000
00000070: 0000 0000 0000 0000 a067 273b 0000 0000
00000080: 0000 0000 0000 0000 0000 0000 820f 153b
00000090: 0000 0000 0000 0000 0000 0000 0000 0000
0.0012382726 0.0 0.0 0.0 0.0 -0.007187717 0.0 0.0
0.0 0.0 0.0033759626 0.0 0.0 0.0 0.0 -0.0047455165
0.0 0.0 0.0 0.0 -0.0017788331 0.0 0.0 0.0
0.0 -0.0073473305 0.0 0.0 0.0 0.0 0.0025543943 0.0
0.0 0.0 0.0 0.002274484 0.0 0.0 0.0 0.0

transformer.layers.0.0.static_beta f4 [4]
00000000: 9238 6f3f 9226 723f 3a32 693f c117 5b3f
0.93445694 0.94590104 0.91092265 0.8558312

transformer.layers.0.0.dynamic_beta_fn f4 [8]
00000000: b1fc e73e f3b0 003e b19b c03e 8eb6 153f
00000010: 7ed7 f23e f8a3 023e 0fdb 8f3e e4e2 b83e
0.45309976 0.12567501 0.37618783 0.5848168 0.47430032 0.12757862 0.28096816 0.36110604

transformer.layers.0.0.branch.norm.weight f4 [8]
00000000: e4ab 253f 2c62 3e3f 787a 453f fc1d 403f
00000010: 698c 2c3f 86e8 4a3f ada3 483f 4b93 543f
0.6471541 0.7436855 0.7714 0.7504575 0.6740175 0.7926105 0.7837475 0.8303725

transformer.layers.0.0.branch.norm.bias f4 [8]
00000000: 9551 e03c 0a60 2ebd 919d d93d 6817 673c
00000010: 4745 c3bc 1c28 8d3d 62ea b63d f535 2abd
0.027382651 -0.04257206 0.106257565 0.014104702 -0.023836745 0.06892416 0.08931424 -0.041555364

transformer.layers.0.0.branch.to_qkv.weight f4 [192, 8]
00000000: 59e6 bf3d 7552 153e 0e98 86be c41b 4f3e
00000010: 2a6b 223e 52c7 683e fe99 933d dc18 77be
00000020: 2a6b ddbd 3da1 2f3d 99fb 963e 538e bfbe
00000030: 325c e6ba 05d9 803e c1f9 803e f590 07bd
00000040: 8e89 dbbd f1a0 7ebe 17e1 eabd de69 25be
00000050: a58c 45be 95e8 71be 6dfe 133e 4e99 a2be
00000060: 7908 c1bd 8eb0 c0bd b05a 393c bcd2 9bbc
00000070: 9759 6dbe 06e4 96be a1ef 833a 9738 40be
00000080: cb15 6e3e 1e50 7dbc 361d 9e3d 7d7e aebd
00000090: 70fd 75bb ea20 8bbe f340 0bbe ab8e 103e
000000a0: 6c21 6abe 0238 7a3d 2e59 013d db53 9fbc
000000b0: 5dff 6dbe 84fa 44be 487c 7cbd 4476 9dbe
000000c0: 3745 4cbc 6975 cf3d 6631 66bd d611 8b3e
000000d0: b0a3 62bd da0d c43d 13ec e03d ab8c da3d
000000e0: 7b3e 55bd 8b3a 8cbe dc5d 2cbd f45a 97bd
000000f0: 2174 1dba bb83 a8be 3a95 1bbe ecc5 883e
00000100: fe70 31be 44bc a2be d41e aebe 8566 1fbe
00000110: 009d 36be e7c3 92be c5e0 21be 9ce6 35be
00000120: fab1 403e d7f9 81be ee27 4cbe dd65 b13e
00000130: 8617 05be 0ade afbe 2906 9bbe c08f fc3d
00000140: f656 a1be 6fcb 7ebe e88c 5fbe 156e 913e
00000150: 80d1 10be acbe a53e 1093 be3d 077f 6a3e
00000160: b115 263e ef30 12be 7c7f 4b3e 3fdb 84be
00000170: 64a4 3bbe be7c 243e 3063 483e 6900 51be
00000180: 7a3d dbbd b78d 24be e7d3 4dbe d489 9cbe
00000190: 6016 103e d065 a03e 748f 9abc cd3c acbe
000001a0: f6c2 80be d9a2 7e3e af48 88be 694c 5cbe
000001b0: 93e3 0bbd b581 d2bd 2426 8dbe 5acb 013e
000001c0: 6e40 163e b403 e2bd c30c 4a3e 2a85 9abe
000001d0: 9cb7 4ebe 14dc fd3d ff65 723e 914c 393e
000001e0: 30d5 6fbe b9bd 91be a95e a5be c429 593e
000001f0: 10eb 02bd 89af fdbd c821 87bc 6dac 05bc
00000200: 15ee 873e 3fd1 413d e85f 4f3c 9de6 cbbd
00000210: c8a7 3abe 2229 4dbe 3a59 81be 7883 5bbd
00000220: c01b bfbd 3a55 ad3e 2cfd 3d3d 9f0e 63be
00000230: 66ce 8dbe 3d78 783e 6d67 fdbd d7d8 94bd
00000240: bd27 803e 7e35 343e 892c 8bbd 5be3 9d3e
00000250: b114 823c c044 9bbd c948 86be 0b8f 743d
00000260: 947a 4ebd a2f3 a0be ddc8 18be af1d c53d
00000270: 09f5 1bbe a72f 843e 23f5 523e 341c 363e
00000280: 22a7 023e 3c93 673d 9da3 003d 97a8 4ebe
00000290: a07d 08be 75ff a2bd e354 a6be ab1a b1be
000002a0: 1258 543e 571e 493d 83ae 11bd 00ef 73be
000002b0: b9e8 b0be 365e 0d3d 8889 f3bc f979 99bd
000002c0: 91f2 373e d1d7 6d3e e181 76be 0c2c 95be
000002d0: 8f2e d7bd c0ee 50be dd0c 3f3d 99da 06be
000002e0: 038f 8c3e f56f 26be 47b1 60be 0fe2 043e
000002f0: 676a 5ebe cc69 a03e c4a0 83bb 4b4d 7dbe
00000300: 2616 84be 0ccc d1bd 0244 0b3e 9ffb 64be
00000310: b214 d33d 662a fa3b 6481 c73e e005 003e
00000320: c300 33bb aa6d 543d a3be 85be 86d9 f33d
00000330: 57eb 843c f084 c9bd 21d7 a1be edcc a2be
00000340: 28c8 94bc 1eea 34bd 7d62 6ebd 306a 6ebe
00000350: 4e01 933e c5a3 7bbe aab2 823d 7a61 78be
00000360: 821e cbbc 5388 833e 5303 91be 85f7 273e
00000370: abf4 d5bc 418f 1a3e f7cb 97be 1778 ad3d
00000380: 526e 9fbe 6fe6 59be 7778 bfbe 2695 4b3e
00000390: fa11 e63c 589f ab3e f4ef 343e e7db f53d
000003a0: da73 7bbd 13d2 b4be 2b5d a83e bf91 d93e
000003b0: d7e4 75bd d8d0 6fbe 42e4 2f3d 4b77 973d
000003c0: c75d 543e 3964 95be 1087 203e 282f b13d
000003d0: 1446 bcbe 4c0d 4d3e 039f 943e e784 0fbe
000003e0: 2176 d03d 8d6a a83e b077 eb3d a560 3a3e
000003f0: e0a4 57be f4a2 413e 1193 213c d706 b23e
0.09370107 0.14582236 -0.26287884 0.20225435 0.15861192 0.22732285 0.07207106 -0.24130577
-0.108114555 0.04287838 0.2948883 -0.37413272 -0.0017575084 0.25165573 0.25190547 -0.033097226
-0.10719596 -0.24866082 -0.11468714 -0.16153666 -0.19291933 -0.23623879 0.14452524 -0.31757587
-0.09425444 -0.09408675 0.0113131255 -0.019021384 -0.23178707 -0.29470843 0.0010065922 -0.18771587
0.23250501 -0.015460996 0.07720415 -0.085202195 -0.0037535094 -0.2717355 -0.13598995 0.14116924
-0.22864312 0.06108857 0.03157919 -0.019449165 -0.23241945 -0.19236189 -0.06164196 -0.30754292
-0.012467674 0.10129816 -0.056199454 0.27162045 -0.055331886 0.095729545 0.109825276 0.106713615
-0.05206154 -0.27388415 -0.0420817 -0.07390395 -0.0006006379 -0.32913002 -0.15193644 0.26713502
-0.1732826 -0.3178426 -0.34007895 -0.15566452 -0.17833328 -0.28665087 -0.15808399 -0.17763752
0.18817893 -0.25385925 -0.19937107 0.34648028 -0.12997255 -0.3434909 -0.30278137 0.12332106
-0.31511658 -0.24882291 -0.21831095 0.28404298 -0.14142418 0.32372034 0.09305394 0.2290002
0.16219212 -0.14276479 0.1987285 -0.25948521 -0.18324429 0.1606321 0.19569087 -0.20410313
-0.10705085 -0.16069685 -0.20100366 -0.30573905 0.14071035 0.31327677 -0.018867232 -0.33640137
-0.25148743 0.24866809 -0.26617953 -0.21513523 -0.03415258 -0.10278646 -0.2756816 0.12675229
0.14673015 -0.110358626 0.1973143 -0.3017972 -0.20187229 0.12395492 0.23671721 0.18095614
-0.23421168 -0.2846506 -0.32298782 0.21207339 -0.031962454 -0.12386996 -0.0164956 -0.008158785
0.2654883 0.047318693 0.012657143 -0.09956095 -0.18228066 -0.20035222 -0.25263387 -0.053592175
-0.09331465 0.33854085 0.04638402 -0.22173546 -0.27696532 0.24264617 -0.123732425 -0.072679214
0.25030318 0.1759853 -0.06795604 0.3083752 0.015879007 -0.075814724 -0.26227406 0.05970673
-0.05040987 -0.31435877 -0.14920373 0.09624802 -0.15230192 0.25817606 0.20601325 0.17784196
0.12759069 0.056536898 0.031406034 -0.201815 -0.13329172 -0.07958881 -0.32486638 -0.3459066
0.20736721 0.0491012 -0.035566818 -0.2382164 -0.34552553 0.034513675 -0.029728666 -0.074939676
0.17963625 0.23226859 -0.24072982 -0.29135168 -0.10506927 -0.20403576 0.046643127 -0.13169326
0.2745286 -0.16253646 -0.21942626 0.1297686 -0.21720277 0.31330717 -0.0040169675 -0.24736516
-0.25798148 -0.10243997 0.13600162 -0.22361611 0.10306682 0.007634449 0.38965905 0.12502241
-0.0027313686 0.051862396 -0.26122007 0.11906724 0.0162255 -0.09839809 -0.31609443 -0.3179697
-0.018161848 -0.044168584 -0.058199394 -0.23282695 0.28711933 -0.24574192 0.06381734 -0.24255934
-0.02479482 0.25689945 -0.2832285 0.16403015 -0.026117643 0.1509371 -0.296478 0.08470171
-0.31138855 -0.2127931 -0.37396595 0.19881114 0.028084744 0.33520007 0.1766966 0.12004834
-0.06138978 -0.35316524 0.32883582 0.42494008 -0.06003269 -0.23419511 0.042942293 0.073958
0.20738898 -0.29178026 0.15676522 0.086515725 -0.36772215 0.20024604 0.29027566 -0.14015542
0.10178781 0.32893792 0.11497438 0.1820093 -0.21058989 0.18909818 0.0098617235 0.34770843

transformer.layers.0.0.branch.to_out.weight f4 [8, 64]
00000000: ca96 5e3c 8071 12bc df00 133d aafd 9fbc
00000010: 219c ac3c 90fc 993d 3aaa 12be 96d2 aa3d
00000020: 51d4 9ebd 0eb4 f83d 1814 943d 5173 58bd
00000030: 3851 debd 16bf 043d fb9f 0d3c 717f bdbc
00000040: 773b 173d a723 ecbc 4168 bebc 3b89 f3bc
00000050: 0353 1dbd a3bc 3abd 5a86 41bd a25e 3dbd
00000060: 9f0e b33a 32c1 89ba 2e82 80bd b382 79bc
00000070: 909d 11bc de0b 663d ee38 d53a 1931 0bbd
00000080: acad 30bd 26c5 523d 058a 6ebb 35c2 b4bc
00000090: 97ee 81bd b11f eb3d 818b 9b3d d8e3 f4bd
000000a0: d5d6 2c3e 42c2 a5bc 8193 e0bd ae9b 1d3d
000000b0: dd00 ab3d cb3c b63d b4b3 dc3d e501 40be
000000c0: 0a8b a63d 5373 01bd c600 853c 43bf 063d
000000d0: 3173 1cbe ed3c 0c3e 8bb4 68bd 7cc9 9bbc
000000e0: a33a 173d 2aa8 38bd d617 79bc 6a38 81bc
000000f0: 4283 2cbd 317b 863d bdcd 0cbe b655 93bb
00000100: 67cd e4bc a6fa 043e 21a3 fcbc 4fce 803d
00000110: c8e3 fb3d 2cdb e13c 2720 3a3d a237 d3bc
00000120: b05e 9bbc f2cb 6ebd e1e8 58bd b871 e13c
00000130: b427 823c 2938 79bd b83a 8b3d 1c09 0cbe
00000140: 863b ab3d 21b8 933b a7f9 533c dfb2 65bb
00000150: 1f89 2c3d 22f0 cc3c 08f9 96bd 87c1 cd3d
00000160: ff42 0a3d 302e 583d 392f 163e c4cd 173c
00000170: 7eab 7d3c a028 c53c c9c0 f4bc 0f16 e3bc
00000180: 620e 03be 0a54 793c 2e6e 2f3e 2fd4 d1bd
00000190: c9bc b13c b141 c53c f971 f63b 1d2f 04bd
000001a0: 52ad 3c3b c5bc a83d b1ac 1c3e 1fb2 c9bd
000001b0: 1be2 c03c 80c0 96bd cd87 033e c788 f93d
000001c0: fab5 44bd 5744 2d3d 72cd 193e a0d7 153e
000001d0: 6a70 af3d f064 2a3d a2eb 3ebd bf5f 963b
000001e0: 3328 97bb d825 0dbe ccca 47bd e778 4fbc
000001f0: 564c bebd ebb5 9abd 7c86 853d 644b 183d
00000200: e61f 673d 00f9 bebd c13f e43d 9a23 a63d
00000210: 0132 58ba ef36 f63c f3bc 123e 283d 22bd
00000220: a977 af3d 3917 9f3d 92e2 0b3c 922b f3bb
00000230: a38f d6bd 3956 a03c ad6a dbbd 2b59 7dbc
00000240: d4a2 68bc 0649 333c 0154 3fbd df85 ba3d
00000250: d971 ab3c b00b dbbd 4cc0 7a3d d303 b5bd
00000260: 87dc 26bd 3abf b93d 56bc 8cbc a056 753d
00000270: 253a 02bd 3ff3 4a3d da76 c7bd f564 753a
00000280: 5762 453d 3593 b3bd 1a4f c7bd bc54 57bd
00000290: e225 513d bc80 78bd 24c2 e5bd 7709 d3bd
000002a0: d41a 753d 2f70 24bc 883d e7bd 2854 4bbd
000002b0: 47da 5fbd b314 f2bd c064 abbd 7b76 5c3d
000002c0: 143d fd3c 966f 8dbd 8594 12bd 3e9f 91bc
000002d0: 4891 403e 25e3 2cbd ddf0 1c3e 12f5 de3c
000002e0: 8688 ecbd 0a6f e3bd 6b90 3d3d 4fb9 c3bd
000002f0: d790 efbc d1f9 8c3d ad0b 85bc 31af 4bbc
00000300: 2791 173c 893b 39bd 7e68 613d a6f7 84bd
00000310: f219 43bd fc79 b83d aa0b 733d b0cd 03bc
00000320: a946 673d 622a 143d 073c 51bd 49b7 06be
00000330: af4e 26bc fcc9 003e d450 8bbc 357e 3ebd
00000340: 3130 90bb 9860 62bc 6291 e33b 1586 b1bd
00000350: 5a36 7a3c f365 abbd ae7a c23d 1a10 363d
00000360: 0f8d 94bd bdf8 b7bd 5c39 ffbc b49a aa3d
00000370: 17d5 9d3d 983b 07bc b476 78bd 8260 3f3d
00000380: dfd7 0dbd dfe9 ed3b 4e20 dbbc abed 373c
00000390: b87e 59bb 1814 0a3d 9187 f33d 2e3a 5b3d
000003a0: 0303 a2bd ce4d a3bd 6678 c0bd aff4 913c
000003b0: 92f0 8f3c 92d4 45bd e7c5 57bd 052b 09be
000003c0: 794e 123d e0bf 5bbd 5e95 82bd a746 d33d
000003d0: ffa7 9bbc df23 603c 7eea 9b3d f85a b2bd
000003e0: cf35 e3bd 16be b5bd 86f9 23bd 6182 b93d
000003f0: 0b71 613d 6839 72bd d0cc 92bd d775 db3b
0.013585756 -0.008938193 0.035889503 -0.019530136 0.021070542 0.075188756 -0.14322749 0.08340947
-0.0775534 0.12143718 0.07230395 -0.05284435 -0.10855335 0.032408796 0.008644099 -0.023132058
0.036921944 -0.028825594 -0.023243072 -0.029728523 -0.038409244 -0.045590054 -0.04724727 -0.046232827
0.0013660974 -0.0010509847 -0.0627483 -0.015228915 -0.0088876635 0.05616366 0.0016267577 -0.03398237
-0.043134376 0.051457547 -0.0036398184 -0.022065261 -0.063443355 0.11480654 0.07594968 -0.1195752
0.16878827 -0.02023423 -0.10965634 0.038478546 0.08349774 0.08898314 0.10776463 -0.18750723
0.08131988 -0.031604122 0.01623572 0.032897245 -0.15278317 0.13695116 -0.056812804 -0.019016974
0.036921155 -0.04508225 -0.015203437 -0.01577397 -0.042117365 0.06566466 -0.13750358 -0.0044963015
-0.027929975 0.1298624 -0.030839505 0.0628935 0.12299305 0.02757033 0.04544082 -0.025783364
-0.018966049 -0.058299966 -0.052956466 0.027520046 0.015888073 -0.060844574 0.06798309 -0.1367535
0.083609626 0.004508034 0.01293794 -0.0035049242 0.042122956 0.025016848 -0.07371718 0.10046678
0.0337553 0.052778423 0.14666452 0.009265367 0.015482781 0.024067223 -0.029877083 -0.02772048
-0.12798455 0.01521779 0.17131874 -0.10245549 0.021696465 0.024079176 0.007520911 -0.032271493
0.002878983 0.0823913 0.15300252 -0.09848427 0.023545315 -0.07360935 0.12844773 0.12184291
-0.04802511 0.042301502 0.15019777 0.14633036 0.08566363 0.041600168 -0.046611436 0.0045890505
-0.0046129464 -0.13783967 -0.048777387 -0.012663103 -0.09291904 -0.07554229 0.065197915 0.037181273
0.056426905 -0.09324837 0.111449726 0.08112259 -0.0008247197 0.030055491 0.14329891 -0.039609104
0.08567745 0.07768101 0.008537905 -0.0074209655 -0.10476615 0.019572364 -0.10713706 -0.015463154
-0.0141989775 0.010942703 -0.04671097 0.09107565 0.02092831 -0.106955886 0.061218545 -0.0883862
-0.040737655 0.09069677 -0.01717965 0.059897065 -0.031793732 0.049548384 -0.09739466 0.0009361052
0.048189487 -0.08768312 -0.09731884 -0.052571043 0.05106152 -0.060669646 -0.1121867 -0.1030454
0.05984004 -0.010036512 -0.11291033 -0.049640805 -0.054651525 -0.11820354 -0.08368826 0.05382393
0.030912913 -0.06906049 -0.03578617 -0.017776128 0.1880542 -0.04220881 0.15326257 0.027216468
-0.11549477 -0.111051634 0.046280306 -0.09556829 -0.02924387 0.06883586 -0.016240919 -0.012431906
0.009250916 -0.045222793 0.055031292 -0.06492548 -0.047632165 0.09007642 0.059337296 -0.008044645
0.05646387 0.036173232 -0.051082637 -0.13155855 -0.010150596 0.12577051 -0.017006315 -0.04650708
-0.004400276 -0.013816975 0.006944821 -0.08668152 0.0152717475 -0.08369055 0.094960555 0.04444895
-0.07253467 -0.0898299 -0.03115528 0.083302885 0.07706659 -0.008253954 -0.06066008 0.046722896
-0.0346297 0.0072605456 -0.026748803 0.011226098 -0.0033187103 0.03371057 0.118910916 0.05352228
-0.07910731 -0.079738244 -0.09397964 0.01781687 0.017570768 -0.048298426 -0.05267897 -0.13395317
0.03571937 -0.053649783 -0.06376146 0.1031621 -0.019001005 0.013680427 0.07613085 -0.08708757
-0.110942475 -0.08874147 -0.040032886 0.09058071 0.055039447 -0.059136778 -0.07167971 0.006697397

transformer.layers.0.0.norm.gamma f4 [8]
00000000: 0547 1f3f 8593 813e 0bcb 063f 5dee 5a3f
00000010: e5c8 393f 2526 733e 4b04 c93e e780 093f
0.6221774 0.2530786 0.5265357 0.85519964 0.72572166 0.2374502 0.39261088 0.53712314

transformer.layers.0.1.static_alpha f4 [4, 5]
00000000: 1d00 753c 0000 803f 0000 0000 0000 0000
00000010: 0000 0000 8060 633f 0000 0000 0000 803f
00000020: 0000 0000 0000 0000 7f77 afbd 0000 0000
00000030: 0000 0000 0000 803f 0000 0000 b548 b5bd
00000040: 0000 0000 0000 0000 0000 0000 0000 803f
0.01495364 1.0 0.0 0.0 0.0 0.8881912 0.0 1.0
0.0 0.0 -0.08567714 0.0 0.0 1.0 0.0 -0.088517584
0.0 0.0 0.0 1.0

transformer.layers.0.1.dynamic_alpha_fn f4 [8, 5]
00000000: c471 e43d 0000 0000 0000 0000 0000 0000
00000010: 0000 0000 5653 8fbe 0000 0000 0000 0000
00000020: 0000 0000 0000 0000 6761 f53d 0000 0000
00000030: 0000 0000 0000 0000 0000 0000 6c61 ed3d
00000040: 0000 0000 0000 0000 0000 0000 0000 0000
00000050: 5b61 c93d 0000 0000 0000 0000 0000 0000
00000060: 0000 0000 5afd d43c 0000 0000 0000 0000
00000070: 0000 0000 0000 0000 fded a63d 0000 0000
00000080: 0000 0000 0000 0000 0000 0000 2356 f03d
00000090: 0000 0000 0000 0000 0000 0000 0000 0000
0.111545116 0.0 0.0 0.0 0.0 -0.27993268 0.0 0.0
0.0 0.0 0.11981469 0.0 0.0 0.0 0.0 0.115908474
0.0 0.0 0.0 0.0 0.09833022 0.0 0.0 0.0
0.0 0.025999714 0.0 0.0 0.0 0.0 0.081508614 0.0
0.0 0.0 0.0 0.11735179 0.0 0.0 0.0 0.0

transformer.layers.0.1.static_beta f4 [4]
00000000: 1fa1 843f 5c17 6d3f 98d1 743f 9fc5 613f
1.036167 0.9261377 0.95632315 0.8819217

transformer.layers.0.1.dynamic_beta_fn f4 [8]
00000000: 4078 943e 0267 10be 4771 ac3e 3f19 bf3e
00000010: 5f9d 903e fc92 df3e 45ef a43e ddf3 3cbe
0.28997993 -0.14101794 0.33680174 0.3732395 0.28245065 0.43666828 0.32213798 -0.18452401

transformer.layers.0.1.branch.0.weight f4 [8]
00000000: 2811 793f 5b3d 673f 2822 693f 74e0 803f
00000010: d14c 7f3f 098e 643f 3271 743f 6e23 633f
0.97291803 0.90327996 0.91067743 1.0068498 0.9972659 0.8927923 0.9548522 0.88725936

transformer.layers.0.1.branch.0.bias f4 [8]
00000000: 60f0 9d3d f2bf 66bd 32c6 723d a03c a13c
00000010: 71de 983d f63b c43c b7f0 8f3d cb4f 77bd
0.077118635 -0.056335397 0.059271045 0.019682229 0.07464302 0.023954373 0.070283346 -0.06037883

transformer.layers.0.1.branch.1.weight f4 [64, 8]
00000000: c5b1 113e de4f ad3d cf9e b4be ad6b 5dbe
00000010: ff43 8ebe 15fd 0ebe 2067 1f3e e1f3 82bd
00000020: c0f5 cf3d 15ad 5a3d c4bc 58be 8d05 dc3d
00000030: d669 d1bd 9dc5 8bbe 4147 b9bd 8450 10be
00000040: 869c 8ebe 5a32 09be 32e4 f1bd e490 1b3e
00000050: 4a04 23bd d61c b53d 5c2e 0c3e 83c9 33be
00000060: ca0e 8b3e e1d2 d6bd d987 253e c1b8 8cbe
00000070: 6b56 b0be e34a 6c3e 838a 403e 9610 6b3c
00000080: aa2c e0bd 5749 26be de16 b6bd 6b46 a5be
00000090: 85d4 09be 28e9 69be 2d1a a9bd ad07 3b3b
000000a0: 4271 4f3d 69fe 563e 797f 563d b18b 593e
000000b0: 3c45 8c3e 073d 603b 5016 1dbd 00c5 253e
000000c0: b32e 293e 96d2 26be bd74 943e 9445 9cbd
000000d0: 8e4a 9c3d 1f31 b53e 1a2c 9cbd 24be 413e
000000e0: d960 c8bd 9251 9c3b 07ed ad3d 0be6 29be
000000f0: 2acc 903d 2aa5 de3d 4d17 b1bc 4c87 a23d
00000100: 3a11 003e 407b ecbd dd3b 353e 1eba a73d
00000110: fcc0 e6bd 555c 4e3e c120 393e 5c00 963d
00000120: fb59 fbbd 26e5 583e 508e de3d 92b9 933e
00000130: 2aeb dd3d fcea 773e b8a3 ac3d a899 1bbe
00000140: 704f 37bd 4527 133e 345b a73d df91 043e
00000150: 276b 00be 8f9d 9cbe 7799 bc3e 5665 5f3d
00000160: d4e0 bdbe 3786 953e d163 0d3e 58cd 76bd
00000170: 023c 963e 221d 453e 79c3 3a3e 3697 70be
00000180: f0e3 d43d 3506 df3d 5943 573e 4148 623e
00000190: a063 91be 96c0 97bc 12f1 a13e ddca bebe
000001a0: 4a39 64be f770 12be cdec 393e 6a40 913e
000001b0: 5cec 65be 3a7c 95be 0f75 913d bd5d 343d
000001c0: d1bd 44bd a6c8 dcbe a1a8 e13e 97ef 993e
000001d0: a0bd 023e 2d1a 803c 26df dd3e bab8 7ebe
000001e0: 5b06 4bbe a43d 8b3d efb1 923e 0d01 b7bd
000001f0: a644 87be d453 6dbd 1552 8bbd f54c 94be
00000200: 82e6 5a3e c98d 41be d314 193e 8977 35bd
00000210: 8880 b7be 5cf0 2ebe 8120 63bd a6b1 e53d
00000220: 728d c6be 03dc 003e 9c36 453e ab10 3d3e
00000230: f90e a43d 562f 8fbc 5cb3 f8be a010 b9bc
00000240: e809 333d 5d40 7abe 10a4 5bbb f068 1fbe
00000250: 3008 063e 8cbb b6bc 893a 55bd 1932 60bd
00000260: 0118 09bb 0731 93be adf6 01be 6b81 e43d
00000270: 1a6b 23be cd89 25be 40c3 59be 5bf0 9f3c
00000280: 1edf 42be 839a ac3c e51c 1c3e 00fa 4e3d
00000290: ebe0 d53c 1ea4 de3d 80bf 4cbd 1621 17be
000002a0: d905 8dbe d7ba a0be 668b 5f3e a819 89be
000002b0: 75fa 9b3e b35d 953e c2dc 08be 88c6 433d
000002c0: 3fdd 8dbd fd9d 173e 527a 53bd cb23 76bd
000002d0: 6f7c b0bd aca1 12be d3d3 9ebd 2133 8a3d
000002e0: 3b2f 5abe 7bfb b3bb 94bf 88be 00b3 98be
000002f0: b0cf 3d3e 12f1 133e 84ff 753e 8357 0ebe
00000300: ee24 343e be92 0dbe 93c7 68be e0b4 8c3e
00000310: 140b bbbe f005 9cbe 90fa 47bc b832 11be
00000320: 27dc 4c3e 7ca9 4fbd 978c 92be 4828 9a3e
00000330: b869 903d 2026 33be 428c d0bd 431f a2bc
00000340: 944f 3ebe 4dfb b33e ac2c 96be a27f f03e
00000350: 0d11 a33d dfb2 c0be a224 b63c 68bf 4abe
00000360: 11af 08bd 4151 1cbb 64cb fb3d 1c51 a73e
00000370: 3051 55be a65e ee3d 997e 733e 34a4 23be
00000380: 5a01 e43d 7cf0 183e 1d45 e03d e00e c9bb
00000390: cc2b a7be b5b5 6a3e 0cac 61be 28bf 71be
000003a0: ae9d 033e 6aa8 2abe a6d9 623e a066 5dbd
000003b0: 084c b2be 7a1e e2bd af5e ed3c 7bc0 6d3e
000003c0: 83cc 99be 721d 2dbe ecff 643e 8444 533e
000003d0: 563c 46bc f1c6 49be 37a7 2a3e affa 223e
000003e0: 0ab8 92bd 78a0 0c3d 0d20 3dbe 0a69 97bd
000003f0: 0ea0 57be 836b 7ebe 995f 003e a663 f7bc
0.1422797 0.08462499 -0.3527741 -0.21623106 -0.27786252 -0.1396373 0.15566683 -0.063941725
0.10154295 0.05338772 -0.21165758 0.10743246 -0.10225265 -0.27299204 -0.09046794 -0.14093214
-0.27853793 -0.13398114 -0.11811103 0.1519199 -0.039799012 0.08843391 0.1368956 -0.1755734
0.2715972 -0.10489441 0.16165103 -0.27484706 -0.34440932 0.23075442 0.18802838 0.014347216
-0.10946019 -0.16238914 -0.0889108 -0.32280287 -0.13459976 -0.22842848 -0.08256946 0.002853851
0.05064512 0.20995487 0.05236766 0.21244694 0.27396572 0.0034216063 -0.038351357 0.16188431
0.1652172 -0.1629127 0.28995314 -0.076304585 0.07631408 0.3538904 -0.07625599 0.18920189
-0.09784097 0.004770466 0.08492475 -0.1659166 0.07070191 0.10871346 -0.021617556 0.07935962
0.12506571 -0.115469456 0.17698617 0.08189796 -0.112672776 0.2015241 0.18078901 0.07324287
-0.12273022 0.21181163 0.10866988 0.28852516 0.108358696 0.24210733 0.084296644 -0.15195334
-0.044753492 0.14370449 0.081716925 0.1294627 -0.12540875 -0.30588958 0.36835834 0.05454
-0.37085593 0.2920396 0.13807608 -0.060254425 0.29342657 0.19249395 0.1823863 -0.23495182
0.10395038 0.10889856 0.21021785 0.22097875 -0.2839632 -0.01852445 0.31629235 -0.37264147
-0.22287479 -0.14300905 0.18156739 0.28369457 -0.22453445 -0.2919634 0.07102405 0.04403471
-0.048032586 -0.43121833 0.44073966 0.30065605 0.12767649 0.015637482 0.4333431 -0.24875155
-0.19826643 0.067988664 0.28651378 -0.08935747 -0.26419562 -0.057941273 -0.06802765 -0.28964964
0.21376994 -0.18901743 0.1494935 -0.04430345 -0.3584025 -0.17083877 -0.05545092 0.112155244
-0.3877979 0.12583928 0.19259113 0.1846339 0.08010668 -0.017478626 -0.4857434 -0.022590935
0.04371062 -0.24438615 -0.0033514537 -0.15567374 0.13089061 -0.022306226 -0.052057777 -0.054735277
-0.0020918848 -0.28748342 -0.12691756 0.11157497 -0.15958825 -0.16165848 -0.21265888 0.01952379
-0.19030425 0.02106977 0.15245397 0.050531387 0.026108226 0.108711466 -0.049987316 -0.14758715
-0.27543524 -0.31392547 0.2183052 -0.26777387 0.3046452 0.2917305 -0.13365462 0.047796756
-0.06926965 0.14806361 -0.051630326 -0.06009273 -0.08617484 -0.14319485 -0.07755246 0.06748033
-0.2130708 -0.0054926253 -0.26708663 -0.29824066 0.18536258 0.1444743 0.24023253 -0.1390057
0.17592213 -0.13825509 -0.22732382 0.27481747 -0.3653189 -0.3047328 -0.012205735 -0.14179504
0.20005856 -0.050698742 -0.28622887 0.30108857 0.07051414 -0.17495012 -0.10183002 -0.019790297
-0.18585044 0.35152665 -0.29330957 0.46972376 0.079622366 -0.37636468 0.022234265 -0.19799578
-0.03337008 -0.0023852142 0.12294653 0.3267907 -0.20831752 0.116391465 0.23778762 -0.15980607
0.1113307 0.14935488 0.10950682 -0.0061358064 -0.32650602 0.22920878 -0.22038287 -0.23608077
0.12853119 -0.16665807 0.22153339 -0.05405295 -0.34823632 -0.11040969 0.028975813 0.23217957
-0.30038843 -0.16905764 0.22363251 0.20631605 -0.012099346 -0.19704796 0.1666535 0.1591594
-0.07164009 0.034332722 -0.18469258 -0.073930815 -0.2105715 -0.248457 0.12536468 -0.030198883

transformer.layers.0.1.branch.1.bias f4 [64]
00000000: 2e94 9cbd 6fe9 84bd 6076 00bc d36a 543e
00000010: e864 a6bc 7f2a 01be 3381 853e 8415 0e3e
00000020: d979 c7bb 8de7 013e 0f85 333e 14fd 5abd
00000030: 626e 423e 6d61 8f3e 87cb 4b3d 4001 4f3e
00000040: 04e3 84be 9a18 2d3d 9a96 263e ec7e dd3c
00000050: 868d 063e aa81 3a3e c01d c8be b723 0ebe
00000060: 50cb 813e 4d33 9c3d 2e34 a7bd fd14 b13e
00000070: 4378 dfbd 58fd 7b3e f02b 5e3e 347b acbd
00000080: 85b5 98be 23fc 913e 98b2 8dbe d0dd d63d
00000090: d0b9 64bc 3a3f c7bd c0f0 71be efab 8d3d
000000a0: 6b69 46be c478 14bd 155a 43be a597 84be
000000b0: d8cd 36be 591c 063e 23b9 84be 43a2 23be
000000c0: d873 13bb 5572 9fbe b925 1f3e 4f10 e23d
000000d0: e645 2f3e 047b c4bd bf30 063e 5122 fbbb
000000e0: f6ae 083e 26e8 e73d 8b01 85bd 9bf3 8d3d
000000f0: 2852 8dbe 5369 67be d4e4 2c3d 4f62 d73d
-0.076454505 -0.064898364 -0.007840723 0.20743875 -0.020311788 -0.12613867 0.26075134 0.13875395
-0.0060875234 0.12685986 0.17531227 -0.05346401 0.1898742 0.28004017 0.049754646 0.2021532
-0.2595445 0.04225979 0.16268387 0.02703806 0.13139924 0.18213525 -0.39085197 -0.13880812
0.25350428 0.07626972 -0.08164249 0.34586325 -0.1091161 0.24608362 0.21696448 -0.08421937
-0.29825988 0.28512678 -0.2767532 0.10491526 -0.013960317 -0.097288564 -0.23626995 0.06917559
-0.19376151 -0.036247984 -0.19077332 -0.25896946 -0.1785196 0.13096751 -0.25922498 -0.15979867
-0.0022499468 -0.31141916 0.15541734 0.11038267 0.17116508 -0.09593776 0.13104533 -0.007664003
0.13347992 0.11323576 -0.06494435 0.0693123 -0.27601743 -0.22598772 0.042210415 0.10516798

transformer.layers.0.1.branch.4.weight f4 [8, 32]
00000000: d114 1f3d 105c a13d 6b09 93bd 6ff9 d23d
00000010: 7e4b 883a 68b6 ab3b cdec bebc 55df 3e3d
00000020: c907 003b 43ca c63c 65fd b33b dd08 68bd
00000030: bd77 97bd 541a 533d 60a7 0bbe 9c93 c1bc
00000040: c7c2 88bb fdec b83c 7fd7 a53a c178 b0bd
00000050: 2d81 cd3d 9703 d2ba c134 f53d a03c 8b3d
00000060: e20a b1bb 12c9 00bd 7a3a d0bd 2ae8 5f3c
00000070: 8885 14bd 856a 34bd 2fec 403d c917 a23c
00000080: c6bc 19be fdbc 72bd 61b7 bc3c 57f2 45bd
00000090: 70cc 86bd e39c 64bd 0fd3 bb3c 5712 4d3d
000000a0: 014a b43d abbd 69bd 118b ebbd 8293 43bd
000000b0: 605b f63d 40d5 4bbc 05a8 f83d f9f1 eabb
000000c0: e42c 063e a1b8 e2bd a9ec c6bd 4497 833d
000000d0: cd8b 2b3d c28d 9fbc 6cc6 ddbd a64b 91bc
000000e0: 82dc e7bd 5af6 813e a53d 993e 5dab 66bd
000000f0: ec19 a4bc c0fb 353e ec8d 29bc 58eb d0bd
00000100: 60f5 1b3d 7154 153d d28b ea3c a1ed 15bd
00000110: e5fa 913c 49e8 b73c 2a2a dbbc 6334 84bc
00000120: 2861 9abc 699c e4bd 9362 37bd 26dc 0d3d
00000130: 43ae f1bd cad5 a13d ce05 1cbe bea1 adbc
00000140: 8db4 06bc 7481 473d 245e b4bb 787b b73b
00000150: 97b6 5dbc 15f6 4c3d ac33 273d 13ef 51bb
00000160: 3f51 d1bd 6d2c 45bd 737c c9bd 2450 f7bc
00000170: 162a d8bc f1d6 77bd 1bbc 343d 1630 af3c
00000180: fe97 893d 3856 863d 7da3 fdbd 7bc7 c63d
00000190: 01b6 f43c c0ec b83b c413 203c 9fec aebc
000001a0: d5d0 83bc 2fff b63c 8eb7 da3d 6217 14bd
000001b0: d728 07be 5fcd cdbb 1466 17be 6aee 3ebd
000001c0: 9803 90bc 75ef bd3d 5caa d73d 29da f4bd
000001d0: a76b 963d cb05 8e3c c7f9 fe3d f6f1 f13c
000001e0: c78e c8bc fa0f 5fbe 022a 67be 9486 933d
000001f0: 8e38 92bc f4fc 5bbd 063f 0cbc 87ac 4b3c
00000200: dde2 a43d 7785 ce3b 60e8 45bd 1aa9 d3bd
00000210: fa6e 973c 2b9a 343b dbff a9bd e6d8 aa3c
00000220: 4edc 38bd 1c6c b0bd 605e 0b3c b07d 003b
00000230: 12d4 d3bd eccb c93d f8e7 14be 5f92 56bd
00000240: 3e36 80bc 4e10 3f3d 5e24 773c 4b06 363d
00000250: 0d65 34bd c588 653c cec2 113d 83fe 63bd
00000260: ad0d 15be 6bf5 373d 57e1 043d f172 8abc
00000270: 9449 b43b 5f33 14bd 1529 313c bea5 b73c
00000280: b9f6 3b3d acb1 ac3d a1de 33bd 2286 e7bc
00000290: 49dd 933c 2865 153b e0d3 ed3c d3ef 963d
000002a0: 255f d43c 1267 50bd 7867 f53d e102 063d
000002b0: bb59 78bd 61bf 283d 14cb 1ebe aedf 92bd
000002c0: 8a35 5dbc 451d 0c3d 50ed 91bd 1b1d 90bc
000002d0: 6bd3 65bd 1fc2 1d3d 0286 073d 4677 68bd
000002e0: 450a 1dbd 9725 633d 3a43 283d a4ca ff3c
000002f0: 177d 0bbd 321f 75bd ca5e 223d 0e69 0c3d
00000300: 577a 293d 80c7 833d 48b8 babd 065d 9f3d
00000310: 3e94 f53c 6acb b1bb c382 a6bd 3dce a1bc
00000320: ddb8 3cbd c516 c2bd 7f8f 7bbc 8c9f c7bb
00000330: 8c4b 00be baeb 353d 4298 15be edb1 6abd
00000340: 75cb c4bc 66d5 ad3d 4199 3c3d b7f9 bfbd
00000350: 96e6 e33c e86e cd3c 1f6d 3b3d 386a 10bd
00000360: 2db0 bdbc 4ece 34bd 1b2b 99be 1e0d 0abd
00000370: 9d9c a4bb 0b3e a6bd 20d0 013d 2bd4 cf3a
00000380: 2185 08be e258 e5bc f493 2cbd cff4 2f3e
00000390: c490 85bd 5e57 42bd 08a3 6f3d 6eaf ce3d
000003a0: 4daa d73d 236e b73d 4fe4 9cbc 34c5 9fbd
000003b0: a20d b53d fc31 50bd cd0b 203e 7809 4339
000003c0: 14f6 353e 2bf1 2fbe 1f04 4dbe d3e1 18bd
000003d0: cbe3 b33d 0fa2 a83c 8515 9fbd c6d6 393d
000003e0: d33b c73c 0a99 0dbe 9427 81bd 862a b53b
000003f0: ddc0 efbc 8f84 3d3e d09a 11bd 146c 6bbd
0.03883821 0.07878888 -0.07179531 0.10301482 0.0010398475 0.0052402504 -0.023306275 0.046599705
0.001953589 0.024266368 0.0054928535 -0.056649078 -0.07395885 0.05153878 -0.13638067 -0.023629956
-0.00417361 0.022573942 0.0012652724 -0.08616782 0.10034404 -0.0016022798 0.11972953 0.06798673
-0.0054029087 -0.031441756 -0.101674035 0.013666192 -0.036260158 -0.044046897 0.047100242 0.019786732
-0.15013418 -0.059262265 0.02303666 -0.048326816 -0.06581962 -0.05581368 0.022927789 0.05006632
0.088031776 -0.057065647 -0.11501134 -0.047748096 0.12029147 -0.0124409795 0.12141422 -0.0071699587
0.13103062 -0.110703714 -0.09713108 0.06425336 0.04188137 -0.019476775 -0.108288616 -0.017736267
-0.113213554 0.25383264 0.29929844 -0.05631577 -0.020031892 0.17771816 -0.010348778 -0.10201138
0.038075805 0.036457483 0.028631125 -0.036603574 0.017819831 0.02244963 -0.026753504 -0.016138261
-0.018845156 -0.11162645 -0.044771742 0.034633778 -0.11800816 0.07902105 -0.1523659 -0.021195289
-0.008221758 0.04870744 -0.0055043865 0.0055994354 -0.013532302 0.05003937 0.040820763 -0.0032033368
-0.102205746 -0.04813807 -0.0983819 -0.030189581 -0.026387256 -0.06050772 0.044124704 0.021385234
0.06718443 0.06559414 -0.123846985 0.09706017 0.029871942 0.005643457 0.0097703375 -0.021353064
-0.01609079 0.022338478 0.106795415 -0.036155112 -0.13199173 -0.0062805857 -0.14785033 -0.046614088
-0.017579839 0.092741884 0.1053054 -0.11955673 0.07344752 0.017336747 0.12449985 0.029534321
-0.024482144 -0.21783438 -0.22574618 0.07203403 -0.017849233 -0.05370803 -0.008559948 0.01243127
0.08051083 0.0063025313 -0.048317313 -0.10334988 0.018485535 0.0027557712 -0.08300754 0.020855378
-0.045131974 -0.0861437 0.0085063875 0.0019606166 -0.103431836 0.09853348 -0.14541614 -0.052385684
-0.015650865 0.04664641 0.015084354 0.044439595 -0.044041682 0.014009659 0.03558617 -0.055662643
-0.14555998 0.044911783 0.032441463 -0.016900511 0.0055019353 -0.036181804 0.010813017 0.0224179
0.04588959 0.08432326 -0.043913487 -0.028262202 0.018049853 0.002279589 0.029031694 0.073699616
0.025924275 -0.050879546 0.11982626 0.03271759 -0.06063245 0.04119814 -0.15507156 -0.0717157
-0.013501534 0.0342076 -0.07125342 -0.017592004 -0.056109827 0.038515206 0.033086784 -0.056754373
-0.038339872 0.05545577 0.041079737 0.031224556 -0.03405484 -0.059844203 0.03964118 0.034279875
0.041376438 0.06434536 -0.0911718 0.07781415 0.029977914 -0.00542586 -0.081304096 -0.019751662
-0.046074737 -0.09476999 -0.015354036 -0.0060920175 -0.12528819 0.04441426 -0.14608863 -0.05729859
-0.024022797 0.08487968 0.04604459 -0.09373801 0.027819913 0.025077298 0.045758363 -0.035257548
-0.023155296 -0.04414206 -0.299157 -0.033703916 -0.0050235526 -0.081173025 0.031692624 0.0015856078
-0.13332035 -0.027996484 -0.042133287 0.17183231 -0.065217525 -0.0474466 0.058505088 0.10092054
0.10530529 0.08956554 -0.019151835 -0.078012854 0.08840491 -0.05082892 0.15629502 0.00018600177
0.17769653 -0.17181842 -0.20021103 -0.037324738 0.087836824 0.020585088 -0.077677764 0.04537084
0.024320519 -0.13827911 -0.06306377 0.005528751 -0.029266769 0.18507598 -0.03554803 -0.05747612

transformer.layers.0.1.branch.4.bias f4 [8]
00000000: 5e9f 2d3e d236 f43d 9128 93bd d289 2bbe
00000010: c378 c53d 60e3 ce3d b529 cd3d fc92 1f3d
0.16955325 0.11924519 -0.07185472 -0.16751793 0.09642174 0.10101962 0.100177206 0.038958535

transformer.layers.0.1.norm.gamma f4 [8]
00000000: 9a6e 113e fbce 4d3e cb33 163e 8d42 263e
00000010: b9be 013e 5b52 7d3d 811e db3d debf b7bb
0.14202347 0.20098488 0.14668195 0.16236325 0.12670411 0.06184612 0.106991775 -0.005607589

transformer.layers.1.0.static_alpha f4 [4, 5]
00000000: 94fd 523d 0000 803f 0000 0000 0000 0000
00000010: 0000 0000 0bca dbbc 0000 0000 0000 803f
00000020: 0000 0000 0000 0000 1c64 ab3c 0000 0000
00000030: 0000 0000 0000 803f 0000 0000 4bf0 553f
00000040: 0000 0000 0000 0000 0000 0000 0000 803f
0.051511362 1.0 0.0 0.0 0.0 -0.02682974 0.0 1.0
0.0 0.0 0.02092176 0.0 0.0 1.0 0.0 0.8356978
0.0 0.0 0.0 1.0

transformer.layers.1.0.dynamic_alpha_fn f4 [8, 5]
00000000: b6b4 523d 0000 0000 0000 0000 0000 0000
00000010: 0000 0000 af2c bf3d 0000 0000 0000 0000
00000020: 0000 0000 0000 0000 c03c 2fbe 0000 0000
00000030: 0000 0000 0000 0000 0000 0000 8a88 1d3e
00000040: 0000 0000 0000 0000 0000 0000 0000 0000
00000050: 3f1a b43d 0000 0000 0000 0000 0000 0000
00000060: 0000 0000 dcf0 363d 0000 0000 0000 0000
00000070: 0000 0000 0000 0000 f18f 6dbe 0000 0000
00000080: 0000 0000 0000 0000 0000 0000 d6e1 b3bd
00000090: 0000 0000 0000 0000 0000 0000 0000 0000
0.05144187 0.0 0.0 0.0 0.0 0.093346946 0.0 0.0
0.0 0.0 -0.17113018 0.0 0.0 0.0 0.0 0.15384117
0.0 0.0 0.0 0.0 0.087940685 0.0 0.0 0.0
0.0 0.044663295 0.0 0.0 0.0 0.0 -0.2319944 0.0
0.0 0.0 0.0 -0.08783309 0.0 0.0 0.0 0.0

transformer.layers.1.0.static_beta f4 [4]
00000000: 4446 613f b854 563f 3f70 563f f9e8 433f
0.8799784 0.8372302 0.83765024 0.76527363

transformer.layers.1.0.dynamic_beta_fn f4 [8]
00000000: 1aa8 cf3e 2dd1 c1be 8ded f03e c522 c73e
00000010: 6f75 b63e 633d 833e e98f d13e d0b9 f2bd
0.4055794 -0.378549 0.47056237 0.38893715 0.3563647 0.25632772 0.40930107 -0.11851847

transformer.layers.1.0.branch.norm.weight f4 [8]
00000000: d152 563f d45a 2d3f 95bb 3c3f 1377 4f3f
00000010: f5bb 433f 8e0a 3d3f 5461 2e3f 0576 4a3f
0.8372012 0.6771672 0.7372373 0.8104107 0.76458675 0.7384423 0.6811726 0.79086334

transformer.layers.1.0.branch.norm.bias f4 [8]
00000000: f5a3 19bc fd39 8dbd 88c7 943d eecc 4a3d
00000010: 2919 b9bd 2ad6 f53d 859a a63d 506b 05be
-0.009377469 -0.06895826 0.0726462 0.049511842 -0.09038002 0.12003739 0.08134941 -0.13029218

transformer.layers.1.0.branch.to_qkv.weight f4 [192, 8]
00000000: 35c5 9bbe 6250 d23d 84d0 8fbe de88 f6bd
00000010: d1d9 8a3e 2606 06bd 7536 a33e 69c1 c5bd
00000020: c7be 0cbe 179e 8e3e caf3 873e 1835 323e
00000030: 1335 f2bd 0170 3ebd 8e00 af3e c469 2abe
00000040: dc8e 653e 0533 973e fb93 56bd 6472 8c3e
00000050: 7d17 923e a434 483e a9a5 9b3e df6f e53d
00000060: 1d0c 7ebe 81db 2cbe 1840 893e fc90 39be
00000070: 8851 dc3e c4a4 a2be 202e c53d 0b0b c6be
00000080: 71db 703e 238f 063e 06c9 c5bd 9ec2 ce3e
00000090: 8b9d 013e 3e2c 0c3e 7e24 de3c d17b ce3d
000000a0: 53e3 c2be 0257 81be e86d 52bd 7a87 a83c
000000b0: 710c b23d 2b59 133e 7a4d 6a3e d42d 6a3e
000000c0: 0580 8fbe 762f b13e 58de 453d 654c a9be
000000d0: 4a86 f83d 1899 57be 0842 963d c640 b33e
000000e0: 05d3 96be 01e3 3a3e c54b 793e 97d4 053e
000000f0: 8ef0 a2be fe19 5bbe 86a8 1bbd ddf6 22bc
00000100: a6f5 c0be 9d8c 4e3e e67d 233e 23af a4be
00000110: e8ce 4c3c f674 4fbe cf51 9dbe c347 743e
00000120: 4560 51be 165b efbc 0097 d43d 9545 983d
00000130: 2707 a9be baf6 9a3e 37b4 4ebd 1752 3d3d
00000140: 6bef 4ebd 218b e1be 9d66 28be 2a6e 7c3d
00000150: 8e54 52be 26bb 34bb eefa 8b3e 8d06 04be
00000160: dc01 5a3e 30bb 88be 2af3 61bc a3f0 773b
00000170: c72a 9d3e 0e1e 883e 8d55 acbd 20dd 3abe
00000180: 457b 623e 774d 573d d275 18be 4826 203e
00000190: f77b 0d3e 8230 99be 0f96 523d f768 7e3d
000001a0: 58dc 223e ea7a 02be e0f0 abbe b79e 953e
000001b0: ac4c 41be 68eb 11be cdc3 833e 93c2 743e
000001c0: f39d 91be 0443 c2bd ecea 32be 1a81 43be
000001d0: 2a21 22bd 3f9d 8b3e 97c7 183e 928d 87be
000001e0: 0e75 5d3e 70b0 3b3e f05d 673c 5a32 9c3e
000001f0: c5cb 5a3e 0cde 873e 8eaf 31bd a2e9 44be
00000200: f7cd 77be e782 94be 1615 24be 584f 61bc
00000210: 4f7a 703e da30 023e 9ed5 80be 4591 a13e
00000220: e0b3 7dbe 3adb 7dbd 10a1 ebbc f439 24be
00000230: ef94 c9bb 7bf4 693e 4519 29bd 891b 9f3d
00000240: 9d8a 83bd 9e51 c6be 8571 a7bd 9d83 513d
00000250: 2cf0 323e ea68 92be 6316 0f3e 51bf 74be
00000260: fdd0 4cbe e6a3 d13c 0698 433e 5796 8f3e
00000270: 0852 1cbe 7df0 753d a4a7 0dbe 0f35 2c3e
00000280: 1955 9e3d 8736 9a3a 0a54 043e 3a2f 1f3d
00000290: 6b82 9b3d a728 913e f46b b53d 440d f2bd
000002a0: f568 fd3d 80b7 9ebe fadb 833d 0cc0 ba3e
000002b0: 3f2b f93d 69f1 8dbd c11c 453e 90f3 cc3d
000002c0: 7d0a 963d df0a 4cbd 54b0 84bd 2107 2b3e
000002d0: 7acc 30be 6346 0ebe 5b01 9b3c f012 57be
000002e0: c4e2 493e 44da 11be ae8f 2cbd faf3 03bd
000002f0: 0636 273e fdb3 86be 5fcd 94be 88a3 9f3d
00000300: 3954 803d 2325 b63e 5ef0 7cbe e766 1fbe
00000310: 8f51 94be 13d1 e7bc 9796 33be 3fd5 92be
00000320: 5459 e2bb 4649 0ebd 743a d4bd 1cd4 9d3d
00000330: 4a76 963d 8646 b1be 2f81 663e 9378 7cbd
00000340: ce30 9abc 8ae8 a3be 85fd 8fbe 4167 c1be
00000350: dbf3 babe 756e 013e 008d 803e 4c1e 883e
00000360: 1a3b b1be a126 c03d 4f49 6d3e ea01 b4be
00000370: 1141 c83d 2a52 fdbc 782d 97be fd15 223d
00000380: ee67 54bd 6eea b13e 887b 35bd 8f64 9ebe
00000390: 6647 3fbe fda5 923e fd54 af3e 2e6f 573e
000003a0: ce5c 113e 5531 8d3e 473b 683e cfe5 833e
000003b0: 7087 013e a66e 26bb 323a b73d 3b95 59bd
000003c0: f2ae b93d c388 49be 99ec 933e 3edf d5bc
000003d0: a759 05be e4ca 21bd d512 8dbe 9833 3c3e
000003e0: cc3b abbe 7a13 b03d df54 c83d e3d7 42bd
000003f0: 6940 bebe 80e4 2ebe c892 0abe bafd debd
-0.30423895 0.10269238 -0.28088772 -0.12037824 0.27119306 -0.032720707 0.31877485 -0.09656031
-0.13744651 0.27854988 0.26553184 0.17403066 -0.11826529 -0.046493534 0.3418011 -0.16641909
0.22417778 0.29531112 -0.05238722 0.27431023 0.28533545 0.19551331 0.30399826 0.11202978
-0.24809308 -0.16880609 0.26806712 -0.18121713 0.43030953 -0.3176633 0.09627938 -0.386803
0.2352121 0.1314054 -0.09657483 0.40382856 0.12657754 0.13688752 0.02711701 0.1008221
-0.3806406 -0.25261694 -0.051374346 0.020572413 0.08693779 0.14389484 0.22881117 0.22869045
-0.2802736 0.34606522 0.048307747 -0.33066097 0.121349886 -0.21054494 0.07336813 0.35010356
-0.2945787 0.18250658 0.2434531 0.13069378 -0.31824154 -0.21396634 -0.038002513 -0.009946552
-0.37687415 0.20170827 0.15965995 -0.3216487 0.012500502 -0.20259461 -0.30726478 0.238555
-0.2044688 -0.029218238 0.103803635 0.07435147 -0.3301327 0.30266362 -0.050464835 0.046220865
-0.050521296 -0.4405146 -0.16445394 0.061628498 -0.20540068 -0.002757737 0.27339882 -0.12893124
0.21289772 -0.26705313 -0.013790885 0.003783264 0.306967 0.2658543 -0.08414755 -0.18248415
0.22117336 0.05256411 -0.14888695 0.15639603 0.1381682 -0.2991982 0.05141264 0.06211182
0.15904367 -0.127422 -0.3358221 0.29222652 -0.18876904 -0.14249957 0.25735322 0.23902349
-0.28440818 -0.094854385 -0.17472428 -0.19092217 -0.03958241 0.27268407 0.14919887 -0.26475197
0.21626684 0.18329024 0.014121518 0.30507165 0.21366794 0.26536596 -0.043380313 -0.19229749
-0.24199663 -0.2900612 -0.16023669 -0.013751827 0.23484157 0.12713948 -0.25162977 0.31556144
-0.24775648 -0.06197665 -0.028763324 -0.16037732 -0.0061517875 0.22847168 -0.041283865 0.07768924
-0.06422923 -0.38734144 -0.08175949 0.051150907 0.17474431 -0.28595668 0.13973384 -0.23901106
-0.20001598 0.025590848 0.19100961 0.28044388 -0.15265667 0.0600438 -0.13833481 0.16817115
0.07731075 0.0011765518 0.12922683 0.038863398 0.07593235 0.28351328 0.08858481 -0.118189365
0.123735346 -0.30999374 0.064384416 0.36474645 0.12166452 -0.06930811 0.1924925 0.10007393
0.07326219 -0.049815055 -0.064789444 0.16701938 -0.17265502 -0.13894038 0.018921545 -0.21003318
0.1971541 -0.14243418 -0.04212921 -0.032215096 0.16329202 -0.26309195 -0.29062936 0.07794863
0.06266064 0.35575208 -0.24701068 -0.15566598 -0.28968474 -0.028297937 -0.17537914 -0.2867832
-0.0069076214 -0.034737848 -0.103627115 0.07706472 0.073467806 -0.34624118 0.22510217 -0.061638426
-0.0188221 -0.3201335 -0.28123108 -0.3777409 -0.36514172 0.12639792 0.25107574 0.26585615
-0.34615403 0.09382368 0.23172496 -0.3515771 0.097780354 -0.030922968 -0.29526877 0.03957175
-0.051856928 0.34749168 -0.04430726 -0.30936095 -0.1867958 0.28642264 0.34244528 0.21038505
0.14195558 0.275767 0.22678863 0.25761268 0.12649322 -0.0025395541 0.08946647 -0.053120833
0.09066571 -0.19681077 0.28891447 -0.026107427 -0.13022481 -0.039500132 -0.2755343 0.18379056
-0.3344406 0.08597465 0.09781813 -0.047569167 -0.37158516 -0.17079353 -0.13532555 -0.10888238

transformer.layers.1.0.branch.to_out.weight f4 [8, 64]
00000000: b6a0 35bc 64d8 acbc f29d 793a 2302 173e
00000010: 7a7c b2bc 132b 10be 9fb1 db3c 8309 a53d
00000020: 9807 d2bb 5548 203e c17e a03d 3a88 ef3c
00000030: 6928 a03c e3f6 603c a7c0 2b3d aff9 8cbb
00000040: 2f9b f2bc 49c6 ce3d 6756 043c ff4e e3bd
00000050: 6f18 c53d 4e0d 52bd a0cf 0b3b 9122 a5bd
00000060: 47c6 d0bd b8b3 06be d7ba 48bd ad53 5bbc
00000070: 988d f5bd 80c8 6dbd 1735 343c 2b9a 973d
00000080: 20ab 8c3d a1ba abbd c21f 9a3d bbad 263d
00000090: 4f89 143d e891 5e3d 3bd2 c6bd 64b1 d5bd
000000a0: 6b12 9c3a 6b5f 4abc 82cd 823c 54e4 9cbd
000000b0: 232c 19bb e367 9f3d 0320 a6bd 82c4 8bbd
000000c0: b9ea 6bbd 82b4 33bd 6114 a73d a355 863b
000000d0: 7bcd 9cbd f90f aabc f833 94bd 8daa a73d
000000e0: c9c9 81bb a756 973c c488 913d ded1 1bbd
000000f0: f340 89bd e41e a33d f462 ddbc a58d 24be
00000100: c929 83bd ea2e 6e3d e6af 80bd 9a2f 873d
00000110: d2be 973c 08d6 08bc d985 5cbd b83f caba
00000120: 4f7d 003e ac50 133e 0c40 22bd ec11 23be
00000130: 16cc 0e3d a33e d2bd 4652 523d d783 00be
00000140: d49d 273e aca3 943d 381a 87bd e77e f8bd
00000150: df0b ffbc 5aaa 1fbd 0904 8fbc bfc5 f23c
00000160: bb1d 273d 941d 713d e942 493d 75e7 ffbd
00000170: c63d bebd 69d2 d63c 91d6 efbd f877 833d
00000180: 0373 98bd b9c5 c03d 8943 cd3d 0355 26bc
00000190: dba0 dbbd f1e8 aa3d 2815 debd 76ed 7fbd
000001a0: f442 873d d5a1 c9bd 46b2 103d 0893 1abd
000001b0: 791b e6bd 0d9f d53d 6cf0 303d 4bce eabb
000001c0: 0655 1fbd 0f92 153e e195 07be 6e9d 11be
000001d0: 9f1f debc 22b4 bc3c f2eb 253d 1382 92bd
000001e0: 033e a6bc c23e c4bd f721 92bc 69db 703d
000001f0: 6d21 c73d 33d9 dabd 126d 70bc efae 9cbc
00000200: 7ab8 833d 15cf 74bd 15af 05bc 8d95 9abc
00000210: 4e99 09bd 3fc3 2dbd 7d47 80bc d1c0 52bc
00000220: 35b2 a23c b06a 1ebd 3e43 b63d 7edb 943d
00000230: bc8e ac3c 2a53 1f3c 3dec 16bd e340 683c
00000240: 63f0 193d 94b1 30bc 18bc 9a3c 2cb8 dcbc
00000250: 3eb6 c03c beea 8c3c fe06 28bb f7b7 c1bc
00000260: 36cb 6a3c a7a4 1abc 6d1d 28bd 15df 74bd
00000270: 30cf 95bd 697a d13c d8e7 463d edc0 883b
00000280: 5e7e 01bd 7ce5 2dbe 77f7 763d b59d 5a3c
00000290: 5828 d33d a026 3abc 941f 523c f587 0e3c
000002a0: 5acc dfbc cb93 113d 1ff1 913c 1dd7 8ebd
000002b0: 266f 9a3a 1363 e7bd 68c4 32bd 4a7b 23bd
000002c0: 366b a1ba 692f 16bd 9ef9 af3c 9375 f43d
000002d0: e532 e83d 3d7c 7dbd 0f29 323d a5b4 1f3c
000002e0: 409f 0bbd fbb5 933d 595f c2bd a16e fc3c
000002f0: e95e 713d d33e 0bbd 07bf ac3c d7ca 0bbd
00000300: b773 b23c 2038 983d fcac 193d 7cb6 89bd
00000310: 1e33 fd3b f9b2 3ebd a105 ad3d 887e d8bb
00000320: 1f0c f2bc e752 2cbd 6315 563d b1bd 013d
00000330: 43a5 10be 5132 ca3d fd4f 0ebe 1ce5 bc3b
00000340: f5b5 1cbd e7d4 db3d 2aac 56bd 038f babc
00000350: 8376 3ebd e672 f5bc 1132 95bd 7924 69bc
00000360: 1d91 3bbd 503c d2bb f583 4ebc 220f 833d
00000370: f8cf 1c3d 83b3 1bbe 1c5c 0b3c 839d f0bc
00000380: 789d cfbd 4783 d93c 744d e2bd 1cfa 73bd
00000390: 33f8 8d3b b31d d03c 4ee0 863d 7f74 13be
000003a0: 8b84 45bd eb9d 953d 3acb 873d 5cc1 9d3c
000003b0: 7c4b c3bc 86a9 6f3d dbf6 55bd 8e8f a23a
000003c0: 81e9 b63d 24ef 7e3d ee12 393d f979 35bd
000003d0: 1a83 02be b217 2abc 6756 e5bd f528 4f3c
000003e0: 755e f0bb 0038 4fbc 8653 7cbd 9515 af3d
000003f0: f3e3 17be f308 463d 6619 8ebd f385 cf3c
-0.01108568 -0.021099277 0.0009522132 0.14746909 -0.02178787 -0.14078932 0.026818095 0.08058455
-0.0064095967 0.15652592 0.078366764 0.029239763 0.019550519 0.013730737 0.041931774 -0.0043022255
-0.029615013 0.10096414 0.008077241 -0.11099052 0.09623801 -0.05128222 0.002133347 -0.08063234
-0.101940684 -0.13154495 -0.04900631 -0.013386649 -0.119898975 -0.05805254 0.010998986 0.07402452
0.06868577 -0.08385206 0.075255886 0.040693026 0.03626376 0.054338366 -0.09708067 -0.10434225
0.0011907344 -0.012351851 0.015967134 -0.07660738 -0.0023372255 0.07783487 -0.081115745 -0.0682459
-0.057596896 -0.043873318 0.08158184 0.004099564 -0.0765638 -0.02075957 -0.07236475 0.08186827
-0.0039608222 0.018473936 0.07106164 -0.03804194 -0.06701841 0.07964876 -0.027024724 -0.16069658
-0.06404454 0.05815021 -0.0628355 0.06600876 0.018523607 -0.00835181 -0.053838585 -0.0015430367
0.12547801 0.14386243 -0.03961186 -0.15924805 0.0348626 -0.10265853 0.051347993 -0.12550293
0.163688 0.072577804 -0.06596798 -0.1213358 -0.03113359 -0.03898082 -0.017457979 0.029635308
0.040799838 0.0588661 0.049136076 -0.12495319 -0.09289126 0.026223378 -0.11710847 0.064193666
-0.07443812 0.094127126 0.10022647 -0.010152104 -0.1072404 0.08345211 -0.10843879 -0.06248232
0.06604567 -0.0984532 0.035326265 -0.037737876 -0.11235709 0.10430727 0.043198034 -0.0071657053
-0.038899444 0.14606498 -0.13240768 -0.14220211 -0.027114687 0.023035113 0.040508218 -0.07153716
-0.020293241 -0.095822826 -0.017838461 0.058802996 0.09723172 -0.10685959 -0.014674442 -0.019126384
0.064316705 -0.0597678 -0.008159419 -0.01887014 -0.03359347 -0.04242253 -0.015659088 -0.012863354
0.019860366 -0.038675964 0.08899544 0.07268427 0.021064155 0.009724418 -0.036846388 0.014175626
0.037582766 -0.010784525 0.018888518 -0.026943289 0.0235244 0.017201778 -0.0025638933 -0.023647292
0.014330676 -0.00943867 -0.041043688 -0.05978306 -0.073149085 0.025571065 0.048560947 0.004173389
-0.031614654 -0.16982073 0.060294595 0.013343264 0.10310429 -0.011361748 0.012824912 0.008699407
-0.027319122 0.035541337 0.01781517 -0.06974623 0.0011782392 -0.11298194 -0.04364434 -0.0399125
-0.0012315277 -0.036666308 0.021481331 0.11936488 0.11337832 -0.06188606 0.043496188 0.009747659
-0.03408742 0.072124444 -0.09490842 0.03081447 0.058928404 -0.03399546 0.021087183 -0.03412899
0.021783693 0.0743258 0.037518486 -0.06724259 0.007727041 -0.0465574 0.08448339 -0.0066068806
-0.029546795 -0.04207125 0.05226649 0.031675044 -0.14125542 0.09872878 -0.138977 0.0057646167
-0.038259465 0.10733967 -0.052410282 -0.022773271 -0.04649974 -0.029962014 -0.0728494 -0.014229887
-0.045792688 -0.006415881 -0.012604703 0.06399371 0.038284272 -0.15205197 0.008505847 -0.029371982
-0.10137457 0.026551856 -0.11049929 -0.059564695 0.004332566 0.025404787 0.065857515 -0.14399908
-0.048222106 0.07305511 0.06630559 0.01925724 -0.023839705 0.05851128 -0.052237373 0.0012402402
0.08931256 0.06223978 0.04518407 -0.044305775 -0.12745324 -0.010381626 -0.111981206 0.012644042
-0.007335479 -0.012647629 -0.06160309 0.08549038 -0.1483305 0.04834838 -0.06938438 0.025332427

transformer.layers.1.0.norm.gamma f4 [8]
00000000: 434f 133f 1f13 e13e 742c 1f3f f18b 203f
00000010: 3121 133f 5ab0 e53e 919b 173f e243 c83e
0.5754282 0.439599 0.62177205 0.62713534 0.5747252 0.44861108 0.5922175 0.3911429

transformer.layers.1.1.static_alpha f4 [4, 5]
00000000: a176 b8bd 0000 803f 0000 0000 0000 0000
00000010: 0000 0000 9cff 553f 0000 0000 0000 803f
00000020: 0000 0000 0000 0000 25e4 bbbc 0000 0000
00000030: 0000 0000 0000 803f 0000 0000 1aa3 853d
00000040: 0000 0000 0000 0000 0000 0000 0000 803f
-0.09007002 1.0 0.0 0.0 0.0 0.83593154 0.0 1.0
0.0 0.0 -0.022935936 0.0 0.0 1.0 0.0 0.0652525
0.0 0.0 0.0 1.0

transformer.layers.1.1.dynamic_alpha_fn f4 [8, 5]
00000000: f3e1 d23c 0000 0000 0000 0000 0000 0000
00000010: 0000 0000 5587 d93d 0000 0000 0000 0000
00000020: 0000 0000 0000 0000 8bb1 2d3d 0000 0000
00000030: 0000 0000 0000 0000 0000 0000 a270 8c3d
00000040: 0000 0000 0000 0000 0000 0000 0000 0000
00000050: 3315 443d 0000 0000 0000 0000 0000 0000
00000060: 0000 0000 d947 863e 0000 0000 0000 0000
00000070: 0000 0000 0000 0000 d840 523d 0000 0000
00000080: 0000 0000 0000 0000 0000 0000 8968 93be
00000090: 0000 0000 0000 0000 0000 0000 0000 0000
0.025742507 0.0 0.0 0.0 0.0 0.10621516 0.0 0.0
0.0 0.0 0.042405646 0.0 0.0 0.0 0.0 0.068574205
0.0 0.0 0.0 0.0 0.04787178 0.0 0.0 0.0
0.0 0.2622669 0.0 0.0 0.0 0.0 0.05133137 0.0
0.0 0.0 0.0 -0.28790691 0.0 0.0 0.0 0.0

transformer.layers.1.1.static_beta f4 [4]
00000000: 3e54 8a3f e19a 7e3f d4cf 8d3f cd0a 7c3f
1.0806959 0.99455076 1.1079049 0.9845398
